…
snapshot: 0
snapshot_prefix: "vggx4"
average_loss: 100
iter_size: 2
I0103 15:54:06.556566  1890 solver.cpp:81] Creating training net from train_net file: models/pascal_voc/VGGx4/faster_rcnn_end2end/train.prototxt
I0103 15:54:06.557907  1890 net.cpp:49] Initializing net from parameters: 
name: "VGG_ILSVRC_16_layers"
state {
  phase: TRAIN
}
layer {
  name: "input-data"
  type: "Python"
  top: "data"
  top: "im_info"
  top: "gt_boxes"
  python_param {
    module: "roi_data_layer.layer"
    layer: "RoIDataLayer"
    param_str: "\'num_classes\': 21"
  }
}
layer {
  name: "conv1_1"
  type: "Convolution"
  bottom: "data"
  top: "conv1_1"
  param {
    lr_mult: 0
    decay_mult: 0
  }
  param {
    lr_mult: 0
    decay_mult: 0
  }
  convolution_param {
    num_output: 12
    pad: 1
    kernel_size: 3
  }
}
layer {
  name: "relu1_1"
  type: "ReLU"
  bottom: "conv1_1"
  top: "conv1_1"
}
layer {
  name: "conv1_2"
  type: "Convolution"
  bottom: "conv1_1"
  top: "conv1_2"
  param {
    lr_mult: 0
    decay_mult: 0
  }
  param {
    lr_mult: 0
    decay_mult: 0
  }
  convolution_param {
    num_output: 64
    pad: 1
    kernel_size: 3
  }
}
layer {
  name: "relu1_2"
  type: "ReLU"
  bottom: "conv1_2"
  top: "conv1_2"
}
layer {
  name: "pool1"
  type: "Pooling"
  bottom: "conv1_2"
  top: "pool1"
  pooling_param {
    pool: MAX
    kernel_size: 2
    stride: 2
  }
}
layer {
  name: "conv2_1"
  type: "Convolution"
  bottom: "pool1"
  top: "conv2_1"
  param {
    lr_mult: 0
    decay_mult: 0
  }
  param {
    lr_mult: 0
    decay_mult: 0
  }
  convolution_param {
    num_output: 21
    pad: 1
    kernel_size: 3
  }
}
layer {
  name: "relu2_1"
  type: "ReLU"
  bottom: "conv2_1"
  top: "conv2_1"
}
layer {
  name: "conv2_2"
  type: "Convolution"
  bottom: "conv2_1"
  top: "conv2_2"
  param {
    lr_mult: 0
    decay_mult: 0
  }
  param {
    lr_mult: 0
    decay_mult: 0
  }
  convolution_param {
    num_output: 128
    pad: 1
    kernel_size: 3
  }
}
layer {
  name: "relu2_2"
  type: "ReLU"
  bottom: "conv2_2"
  top: "conv2_2"
}
layer {
  name: "pool2"
  type: "Pooling"
  bottom: "conv2_2"
  top: "pool2"
  pooling_param {
    pool: MAX
    kernel_size: 2
    stride: 2
  }
}
layer {
  name: "conv3_1"
  type: "Convolution"
  bottom: "pool2"
  top: "conv3_1"
  param {
    lr_mult: 1
  }
  param {
    lr_mult: 2
  }
  convolution_param {
    num_output: 73
    pad: 1
    kernel_size: 3
  }
}
layer {
  name: "relu3_1"
  type: "ReLU"
  bottom: "conv3_1"
  top: "conv3_1"
}
layer {
  name: "conv3_2"
  type: "Convolution"
  bottom: "conv3_1"
  top: "conv3_2"
  param {
    lr_mult: 1
  }
  param {
    lr_mult: 2
  }
  convolution_param {
    num_output: 58
    pad: 1
    kernel_size: 3
  }
}
layer {
  name: "relu3_2"
  type: "ReLU"
  bottom: "conv3_2"
  top: "conv3_2"
}
layer {
  name: "conv3_3"
  type: "Convolution"
  bottom: "conv3_2"
  top: "conv3_3"
  param {
    lr_mult: 1
  }
  param {
    lr_mult: 2
  }
  convolution_param {
    num_output: 256
    pad: 1
    kernel_size: 3
  }
}
layer {
  name: "relu3_3"
  type: "ReLU"
  bottom: "conv3_3"
  top: "conv3_3"
}
layer {
  name: "pool3"
  type: "Pooling"
  bottom: "conv3_3"
  top: "pool3"
  pooling_param {
    pool: MAX
    kernel_size: 2
    stride: 2
  }
}
layer {
  name: "conv4_1"
  type: "Convolution"
  bottom: "pool3"
  top: "conv4_1"
  param {
    lr_mult: 1
  }
  param {
    lr_mult: 2
  }
  convolution_param {
    num_output: 121
    pad: 1
    kernel_size: 3
  }
}
layer {
  name: "relu4_1"
  type: "ReLU"
  bottom: "conv4_1"
  top: "conv4_1"
}
layer {
  name: "conv4_2"
  type: "Convolution"
  bottom: "conv4_1"
  top: "conv4_2"
  param {
    lr_mult: 1
  }
  param {
    lr_mult: 2
  }
  convolution_param {
    num_output: 166
    pad: 1
    kernel_size: 3
  }
}
layer {
  name: "relu4_2"
  type: "ReLU"
  bottom: "conv4_2"
  top: "conv4_2"
}
layer {
  name: "conv4_3"
  type: "Convolution"
  bottom: "conv4_2"
  top: "conv4_3"
  param {
    lr_mult: 1
  }
  param {
    lr_mult: 2
  }
  convolution_param {
    num_output: 512
    pad: 1
    kernel_size: 3
  }
}
layer {
  name: "relu4_3"
  type: "ReLU"
  bottom: "conv4_3"
  top: "conv4_3"
}
layer {
  name: "pool4"
  type: "Pooling"
  bottom: "conv4_3"
  top: "pool4"
  pooling_param {
    pool: MAX
    kernel_size: 2
    stride: 2
  }
}
layer {
  name: "conv5_1"
  type: "Convolution"
  bottom: "pool4"
  top: "conv5_1"
  param {
    lr_mult: 1
  }
  param {
    lr_mult: 2
  }
  convolution_param {
    num_output: 512
    pad: 1
    kernel_size: 3
  }
}
layer {
  name: "relu5_1"
  type: "ReLU"
  bottom: "conv5_1"
  top: "conv5_1"
}
layer {
  name: "conv5_2"
  type: "Convolution"
  bottom: "conv5_1"
  top: "conv5_2"
  param {
    lr_mult: 1
  }
  param {
    lr_mult: 2
  }
  convolution_param {
    num_output: 512
    pad: 1
    kernel_size: 3
  }
}
layer {
  name: "relu5_2"
  type: "ReLU"
  bottom: "conv5_2"
  top: "conv5_2"
}
layer {
  name: "conv5_3"
  type: "Convolution"
  bottom: "conv5_2"
  top: "conv5_3"
  param {
    lr_mult: 1
  }
  param {
    lr_mult: 2
  }
  convolution_param {
    num_output: 512
    pad: 1
    kernel_size: 3
  }
}
layer {
  name: "relu5_3"
  type: "ReLU"
  bottom: "conv5_3"
  top: "conv5_3"
}
layer {
  name: "rpn_conv/3x3"
  type: "Convolution"
  bottom: "conv5_3"
  top: "rpn/output"
  param {
    lr_mult: 1
  }
  param {
    lr_mult: 2
  }
  convolution_param {
    num_output: 512
    pad: 1
    kernel_size: 3
    stride: 1
    weight_filler {
      type: "gaussian"
      std: 0.01
    }
    bias_filler {
      type: "constant"
      value: 0
    }
  }
}
layer {
  name: "rpn_relu/3x3"
  type: "ReLU"
  bottom: "rpn/output"
  top: "rpn/output"
}
layer {
  name: "rpn_cls_score"
  type: "Convolution"
  bottom: "rpn/output"
  top: "rpn_cls_score"
  param {
    lr_mult: 1
  }
  param {
    lr_mult: 2
  }
  convolution_param {
    num_output: 18
    pad: 0
    kernel_size: 1
    stride: 1
    weight_filler {
      type: "gaussian"
      std: 0.01
    }
    bias_filler {
      type: "constant"
      value: 0
    }
  }
}
layer {
  name: "rpn_bbox_pred"
  type: "Convolution"
  bottom: "rpn/output"
  top: "rpn_bbox_pred"
  param {
    lr_mult: 1
  }
  param {
    lr_mult: 2
  }
  convolution_param {
    num_output: 36
    pad: 0
    kernel_size: 1
    stride: 1
    weight_filler {
      type: "gaussian"
      std: 0.01
    }
    bias_filler {
      type: "constant"
      value: 0
    }
  }
}
layer {
  name: "rpn_cls_score_reshape"
  type: "Reshape"
  bottom: "rpn_cls_score"
  top: "rpn_cls_score_reshape"
  reshape_param {
    shape {
      dim: 0
      dim: 2
      dim: -1
      dim: 0
    }
  }
}
layer {
  name: "rpn-data"
  type: "Python"
  bottom: "rpn_cls_score"
  bottom: "gt_boxes"
  bottom: "im_info"
  bottom: "data"
  top: "rpn_labels"
  top: "rpn_bbox_targets"
  top: "rpn_bbox_inside_weights"
  top: "rpn_bbox_outside_weights"
  python_param {
    module: "rpn.anchor_target_layer"
    layer: "AnchorTargetLayer"
    param_str: "\'feat_stride\': 16"
  }
}
layer {
  name: "rpn_loss_cls"
  type: "SoftmaxWithLoss"
  bottom: "rpn_cls_score_reshape"
  bottom: "rpn_labels"
  top: "rpn_cls_loss"
  loss_weight: 1
  propagate_down: true
  propagate_down: false
  loss_param {
    ignore_label: -1
    normalize: true
  }
}
layer {
  name: "rpn_loss_bbox"
  type: "SmoothL1Loss"
  bottom: "rpn_bbox_pred"
  bottom: "rpn_bbox_targets"
  bottom: "rpn_bbox_inside_weights"
  bottom: "rpn_bbox_outside_weights"
  top: "rpn_loss_bbox"
  loss_weight: 1
  smooth_l1_loss_param {
    sigma: 3
  }
}
layer {
  name: "rpn_cls_prob"
  type: "Softmax"
  bottom: "rpn_cls_score_reshape"
  top: "rpn_cls_prob"
}
layer {
  name: "rpn_cls_prob_reshape"
  type: "Reshape"
  bottom: "rpn_cls_prob"
  top: "rpn_cls_prob_reshape"
  reshape_param {
    shape {
      dim: 0
      dim: 18
      dim: -1
      dim: 0
    }
  }
}
layer {
  name: "proposal"
  type: "Python"
  bottom: "rpn_cls_prob_reshape"
  bottom: "rpn_bbox_pred"
  bottom: "im_info"
  top: "rpn_rois"
  python_param {
    module: "rpn.proposal_layer"
    layer: "ProposalLayer"
    param_str: "\'feat_stride\': 16"
  }
}
layer {
  name: "roi-data"
  type: "Python"
  bottom: "rpn_rois"
  bottom: "gt_boxes"
  top: "rois"
  top: "labels"
  top: "bbox_targets"
  top: "bbox_inside_weights"
  top: "bbox_outside_weights"
  python_param {
    module: "rpn.proposal_target_layer"
    layer: "ProposalTargetLayer"
    param_str: "\'num_classes\': 21"
  }
}
layer {
  name: "roi_pool5"
  type: "ROIPooling"
  bottom: "conv5_3"
  bottom: "rois"
  top: "pool5"
  roi_pooling_param {
    pooled_h: 7
    pooled_w: 7
    spatial_scale: 0.0625
  }
}
layer {
  name: "fc6"
  type: "InnerProduct"
  bottom: "pool5"
  top: "fc6"
  param {
    lr_mult: 1
  }
  param {
    lr_mult: 2
  }
  inner_product_param {
    num_output: 4096
  }
}
layer {
  name: "relu6"
  type: "ReLU"
  bottom: "fc6"
  top: "fc6"
}
layer {
  name: "drop6"
  type: "Dropout"
  bottom: "fc6"
  top: "fc6"
  dropout_param {
    dropout_ratio: 0.5
  }
}
layer {
  name: "fc7"
  type: "InnerProduct"
  bottom: "fc6"
  top: "fc7"
  param {
    lr_mult: 1
  }
  param {
    lr_mult: 2
  }
  inner_product_param {
    num_output: 4096
  }
}
layer {
  name: "relu7"
  type: "ReLU"
  bottom: "fc7"
  top: "fc7"
}
layer {
  name: "drop7"
  type: "Dropout"
  bottom: "fc7"
  top: "fc7"
  dropout_param {
    dropout_ratio: 0.5
  }
}
layer {
  name: "cls_score"
  type: "InnerProduct"
  bottom: "fc7"
  top: "cls_score"
  param {
    lr_mult: 1
  }
  param {
    lr_mult: 2
  }
  inner_product_param {
    num_output: 21
    weight_filler {
      type: "gaussian"
      std: 0.01
    }
    bias_filler {
      type: "constant"
      value: 0
    }
  }
}
layer {
  name: "bbox_pred"
  type: "InnerProduct"
  bottom: "fc7"
  top: "bbox_pred"
  param {
    lr_mult: 1
  }
  param {
    lr_mult: 2
  }
  inner_product_param {
    num_output: 84
    weight_filler {
      type: "gaussian"
      std: 0.001
    }
    bias_filler {
      type: "constant"
      value: 0
    }
  }
}
layer {
  name: "loss_cls"
  type: "SoftmaxWithLoss"
  bottom: "cls_score"
  bottom: "labels"
  top: "loss_cls"
  loss_weight: 1
  propagate_down: true
  propagate_down: false
}
layer {
  name: "loss_bbox"
  type: "SmoothL1Loss"
  bottom: "bbox_pred"
  bottom: "bbox_targets"
  bottom: "bbox_inside_weights"
  bottom: "bbox_outside_weights"
  top: "loss_bbox"
  loss_weight: 1
}
I0103 15:54:06.558215  1890 layer_factory.hpp:77] Creating layer input-data
I0103 15:54:06.764775  1890 net.cpp:106] Creating Layer input-data
I0103 15:54:06.764824  1890 net.cpp:411] input-data -> data
I0103 15:54:06.764856  1890 net.cpp:411] input-data -> im_info
I0103 15:54:06.764868  1890 net.cpp:411] input-data -> gt_boxes
RoiDataLayer: name_to_top: {'gt_boxes': 2, 'data': 0, 'im_info': 1}
I0103 15:54:06.785670  1890 net.cpp:150] Setting up input-data
I0103 15:54:06.785712  1890 net.cpp:157] Top shape: 1 3 600 1000 (1800000)
I0103 15:54:06.785722  1890 net.cpp:157] Top shape: 1 3 (3)
I0103 15:54:06.785728  1890 net.cpp:157] Top shape: 1 4 (4)
I0103 15:54:06.785732  1890 net.cpp:165] Memory required for data: 7200028
I0103 15:54:06.785742  1890 layer_factory.hpp:77] Creating layer data_input-data_0_split
I0103 15:54:06.785758  1890 net.cpp:106] Creating Layer data_input-data_0_split
I0103 15:54:06.785766  1890 net.cpp:454] data_input-data_0_split <- data
I0103 15:54:06.785778  1890 net.cpp:411] data_input-data_0_split -> data_input-data_0_split_0
I0103 15:54:06.785795  1890 net.cpp:411] data_input-data_0_split -> data_input-data_0_split_1
I0103 15:54:06.785883  1890 net.cpp:150] Setting up data_input-data_0_split
I0103 15:54:06.785895  1890 net.cpp:157] Top shape: 1 3 600 1000 (1800000)
I0103 15:54:06.785907  1890 net.cpp:157] Top shape: 1 3 600 1000 (1800000)
I0103 15:54:06.785913  1890 net.cpp:165] Memory required for data: 21600028
I0103 15:54:06.785918  1890 layer_factory.hpp:77] Creating layer im_info_input-data_1_split
I0103 15:54:06.785928  1890 net.cpp:106] Creating Layer im_info_input-data_1_split
I0103 15:54:06.785933  1890 net.cpp:454] im_info_input-data_1_split <- im_info
I0103 15:54:06.785941  1890 net.cpp:411] im_info_input-data_1_split -> im_info_input-data_1_split_0
I0103 15:54:06.785951  1890 net.cpp:411] im_info_input-data_1_split -> im_info_input-data_1_split_1
I0103 15:54:06.786026  1890 net.cpp:150] Setting up im_info_input-data_1_split
I0103 15:54:06.786036  1890 net.cpp:157] Top shape: 1 3 (3)
I0103 15:54:06.786041  1890 net.cpp:157] Top shape: 1 3 (3)
I0103 15:54:06.786046  1890 net.cpp:165] Memory required for data: 21600052
I0103 15:54:06.786051  1890 layer_factory.hpp:77] Creating layer gt_boxes_input-data_2_split
I0103 15:54:06.786058  1890 net.cpp:106] Creating Layer gt_boxes_input-data_2_split
I0103 15:54:06.786063  1890 net.cpp:454] gt_boxes_input-data_2_split <- gt_boxes
I0103 15:54:06.786070  1890 net.cpp:411] gt_boxes_input-data_2_split -> gt_boxes_input-data_2_split_0
I0103 15:54:06.786079  1890 net.cpp:411] gt_boxes_input-data_2_split -> gt_boxes_input-data_2_split_1
I0103 15:54:06.786152  1890 net.cpp:150] Setting up gt_boxes_input-data_2_split
I0103 15:54:06.786162  1890 net.cpp:157] Top shape: 1 4 (4)
I0103 15:54:06.786170  1890 net.cpp:157] Top shape: 1 4 (4)
I0103 15:54:06.786173  1890 net.cpp:165] Memory required for data: 21600084
I0103 15:54:06.786177  1890 layer_factory.hpp:77] Creating layer conv1_1
I0103 15:54:06.786197  1890 net.cpp:106] Creating Layer conv1_1
I0103 15:54:06.786206  1890 net.cpp:454] conv1_1 <- data_input-data_0_split_0
I0103 15:54:06.786214  1890 net.cpp:411] conv1_1 -> conv1_1
I0103 15:54:07.061941  1890 net.cpp:150] Setting up conv1_1
I0103 15:54:07.061980  1890 net.cpp:157] Top shape: 1 12 600 1000 (7200000)
I0103 15:54:07.061985  1890 net.cpp:165] Memory required for data: 50400084
I0103 15:54:07.062013  1890 layer_factory.hpp:77] Creating layer relu1_1
I0103 15:54:07.062031  1890 net.cpp:106] Creating Layer relu1_1
I0103 15:54:07.062036  1890 net.cpp:454] relu1_1 <- conv1_1
I0103 15:54:07.062044  1890 net.cpp:397] relu1_1 -> conv1_1 (in-place)
I0103 15:54:07.063184  1890 net.cpp:150] Setting up relu1_1
I0103 15:54:07.063204  1890 net.cpp:157] Top shape: 1 12 600 1000 (7200000)
I0103 15:54:07.063207  1890 net.cpp:165] Memory required for data: 79200084
I0103 15:54:07.063212  1890 layer_factory.hpp:77] Creating layer conv1_2
I0103 15:54:07.063225  1890 net.cpp:106] Creating Layer conv1_2
I0103 15:54:07.063231  1890 net.cpp:454] conv1_2 <- conv1_1
I0103 15:54:07.063238  1890 net.cpp:411] conv1_2 -> conv1_2
I0103 15:54:07.070556  1890 net.cpp:150] Setting up conv1_2
I0103 15:54:07.070579  1890 net.cpp:157] Top shape: 1 64 600 1000 (38400000)
I0103 15:54:07.070582  1890 net.cpp:165] Memory required for data: 232800084
I0103 15:54:07.070595  1890 layer_factory.hpp:77] Creating layer relu1_2
I0103 15:54:07.070605  1890 net.cpp:106] Creating Layer relu1_2
I0103 15:54:07.070608  1890 net.cpp:454] relu1_2 <- conv1_2
I0103 15:54:07.070616  1890 net.cpp:397] relu1_2 -> conv1_2 (in-place)
I0103 15:54:07.070852  1890 net.cpp:150] Setting up relu1_2
I0103 15:54:07.070864  1890 net.cpp:157] Top shape: 1 64 600 1000 (38400000)
I0103 15:54:07.070868  1890 net.cpp:165] Memory required for data: 386400084
I0103 15:54:07.070871  1890 layer_factory.hpp:77] Creating layer pool1
I0103 15:54:07.070883  1890 net.cpp:106] Creating Layer pool1
I0103 15:54:07.070886  1890 net.cpp:454] pool1 <- conv1_2
I0103 15:54:07.070894  1890 net.cpp:411] pool1 -> pool1
I0103 15:54:07.070992  1890 net.cpp:150] Setting up pool1
I0103 15:54:07.071003  1890 net.cpp:157] Top shape: 1 64 300 500 (9600000)
I0103 15:54:07.071007  1890 net.cpp:165] Memory required for data: 424800084
I0103 15:54:07.071010  1890 layer_factory.hpp:77] Creating layer conv2_1
I0103 15:54:07.071020  1890 net.cpp:106] Creating Layer conv2_1
I0103 15:54:07.071025  1890 net.cpp:454] conv2_1 <- pool1
I0103 15:54:07.071032  1890 net.cpp:411] conv2_1 -> conv2_1
I0103 15:54:07.076009  1890 net.cpp:150] Setting up conv2_1
I0103 15:54:07.076030  1890 net.cpp:157] Top shape: 1 21 300 500 (3150000)
I0103 15:54:07.076035  1890 net.cpp:165] Memory required for data: 437400084
I0103 15:54:07.076046  1890 layer_factory.hpp:77] Creating layer relu2_1
I0103 15:54:07.076055  1890 net.cpp:106] Creating Layer relu2_1
I0103 15:54:07.076058  1890 net.cpp:454] relu2_1 <- conv2_1
I0103 15:54:07.076066  1890 net.cpp:397] relu2_1 -> conv2_1 (in-place)
I0103 15:54:07.076292  1890 net.cpp:150] Setting up relu2_1
I0103 15:54:07.076304  1890 net.cpp:157] Top shape: 1 21 300 500 (3150000)
I0103 15:54:07.076308  1890 net.cpp:165] Memory required for data: 450000084
I0103 15:54:07.076311  1890 layer_factory.hpp:77] Creating layer conv2_2
I0103 15:54:07.076320  1890 net.cpp:106] Creating Layer conv2_2
I0103 15:54:07.076324  1890 net.cpp:454] conv2_2 <- conv2_1
I0103 15:54:07.076330  1890 net.cpp:411] conv2_2 -> conv2_2
I0103 15:54:07.082940  1890 net.cpp:150] Setting up conv2_2
I0103 15:54:07.082959  1890 net.cpp:157] Top shape: 1 128 300 500 (19200000)
I0103 15:54:07.082963  1890 net.cpp:165] Memory required for data: 526800084
I0103 15:54:07.082973  1890 layer_factory.hpp:77] Creating layer relu2_2
I0103 15:54:07.082980  1890 net.cpp:106] Creating Layer relu2_2
I0103 15:54:07.082983  1890 net.cpp:454] relu2_2 <- conv2_2
I0103 15:54:07.082990  1890 net.cpp:397] relu2_2 -> conv2_2 (in-place)
I0103 15:54:07.083950  1890 net.cpp:150] Setting up relu2_2
I0103 15:54:07.083967  1890 net.cpp:157] Top shape: 1 128 300 500 (19200000)
I0103 15:54:07.083971  1890 net.cpp:165] Memory required for data: 603600084
I0103 15:54:07.083976  1890 layer_factory.hpp:77] Creating layer pool2
I0103 15:54:07.083983  1890 net.cpp:106] Creating Layer pool2
I0103 15:54:07.083987  1890 net.cpp:454] pool2 <- conv2_2
I0103 15:54:07.083993  1890 net.cpp:411] pool2 -> pool2
I0103 15:54:07.084072  1890 net.cpp:150] Setting up pool2
I0103 15:54:07.084082  1890 net.cpp:157] Top shape: 1 128 150 250 (4800000)
I0103 15:54:07.084085  1890 net.cpp:165] Memory required for data: 622800084
I0103 15:54:07.084089  1890 layer_factory.hpp:77] Creating layer conv3_1
I0103 15:54:07.084097  1890 net.cpp:106] Creating Layer conv3_1
I0103 15:54:07.084101  1890 net.cpp:454] conv3_1 <- pool2
I0103 15:54:07.084107  1890 net.cpp:411] conv3_1 -> conv3_1
I0103 15:54:07.087589  1890 net.cpp:150] Setting up conv3_1
I0103 15:54:07.087608  1890 net.cpp:157] Top shape: 1 73 150 250 (2737500)
I0103 15:54:07.087612  1890 net.cpp:165] Memory required for data: 633750084
I0103 15:54:07.087625  1890 layer_factory.hpp:77] Creating layer relu3_1
I0103 15:54:07.087633  1890 net.cpp:106] Creating Layer relu3_1
I0103 15:54:07.087637  1890 net.cpp:454] relu3_1 <- conv3_1
I0103 15:54:07.087644  1890 net.cpp:397] relu3_1 -> conv3_1 (in-place)
I0103 15:54:07.087872  1890 net.cpp:150] Setting up relu3_1
I0103 15:54:07.087885  1890 net.cpp:157] Top shape: 1 73 150 250 (2737500)
I0103 15:54:07.087888  1890 net.cpp:165] Memory required for data: 644700084
I0103 15:54:07.087893  1890 layer_factory.hpp:77] Creating layer conv3_2
I0103 15:54:07.087908  1890 net.cpp:106] Creating Layer conv3_2
I0103 15:54:07.087911  1890 net.cpp:454] conv3_2 <- conv3_1
I0103 15:54:07.087919  1890 net.cpp:411] conv3_2 -> conv3_2
I0103 15:54:07.091670  1890 net.cpp:150] Setting up conv3_2
I0103 15:54:07.091689  1890 net.cpp:157] Top shape: 1 58 150 250 (2175000)
I0103 15:54:07.091693  1890 net.cpp:165] Memory required for data: 653400084
I0103 15:54:07.091702  1890 layer_factory.hpp:77] Creating layer relu3_2
I0103 15:54:07.091711  1890 net.cpp:106] Creating Layer relu3_2
I0103 15:54:07.091714  1890 net.cpp:454] relu3_2 <- conv3_2
I0103 15:54:07.091722  1890 net.cpp:397] relu3_2 -> conv3_2 (in-place)
I0103 15:54:07.091953  1890 net.cpp:150] Setting up relu3_2
I0103 15:54:07.091967  1890 net.cpp:157] Top shape: 1 58 150 250 (2175000)
I0103 15:54:07.091970  1890 net.cpp:165] Memory required for data: 662100084
I0103 15:54:07.091974  1890 layer_factory.hpp:77] Creating layer conv3_3
I0103 15:54:07.091984  1890 net.cpp:106] Creating Layer conv3_3
I0103 15:54:07.091989  1890 net.cpp:454] conv3_3 <- conv3_2
I0103 15:54:07.091996  1890 net.cpp:411] conv3_3 -> conv3_3
I0103 15:54:07.096606  1890 net.cpp:150] Setting up conv3_3
I0103 15:54:07.096624  1890 net.cpp:157] Top shape: 1 256 150 250 (9600000)
I0103 15:54:07.096628  1890 net.cpp:165] Memory required for data: 700500084
I0103 15:54:07.096637  1890 layer_factory.hpp:77] Creating layer relu3_3
I0103 15:54:07.096644  1890 net.cpp:106] Creating Layer relu3_3
I0103 15:54:07.096647  1890 net.cpp:454] relu3_3 <- conv3_3
I0103 15:54:07.096653  1890 net.cpp:397] relu3_3 -> conv3_3 (in-place)
I0103 15:54:07.097601  1890 net.cpp:150] Setting up relu3_3
I0103 15:54:07.097618  1890 net.cpp:157] Top shape: 1 256 150 250 (9600000)
I0103 15:54:07.097621  1890 net.cpp:165] Memory required for data: 738900084
I0103 15:54:07.097625  1890 layer_factory.hpp:77] Creating layer pool3
I0103 15:54:07.097632  1890 net.cpp:106] Creating Layer pool3
I0103 15:54:07.097636  1890 net.cpp:454] pool3 <- conv3_3
I0103 15:54:07.097642  1890 net.cpp:411] pool3 -> pool3
I0103 15:54:07.097721  1890 net.cpp:150] Setting up pool3
I0103 15:54:07.097730  1890 net.cpp:157] Top shape: 1 256 75 125 (2400000)
I0103 15:54:07.097733  1890 net.cpp:165] Memory required for data: 748500084
I0103 15:54:07.097736  1890 layer_factory.hpp:77] Creating layer conv4_1
I0103 15:54:07.097745  1890 net.cpp:106] Creating Layer conv4_1
I0103 15:54:07.097748  1890 net.cpp:454] conv4_1 <- pool3
I0103 15:54:07.097754  1890 net.cpp:411] conv4_1 -> conv4_1
I0103 15:54:07.102607  1890 net.cpp:150] Setting up conv4_1
I0103 15:54:07.102627  1890 net.cpp:157] Top shape: 1 121 75 125 (1134375)
I0103 15:54:07.102630  1890 net.cpp:165] Memory required for data: 753037584
I0103 15:54:07.102638  1890 layer_factory.hpp:77] Creating layer relu4_1
I0103 15:54:07.102645  1890 net.cpp:106] Creating Layer relu4_1
I0103 15:54:07.102649  1890 net.cpp:454] relu4_1 <- conv4_1
I0103 15:54:07.102656  1890 net.cpp:397] relu4_1 -> conv4_1 (in-place)
I0103 15:54:07.103858  1890 net.cpp:150] Setting up relu4_1
I0103 15:54:07.103878  1890 net.cpp:157] Top shape: 1 121 75 125 (1134375)
I0103 15:54:07.103880  1890 net.cpp:165] Memory required for data: 757575084
I0103 15:54:07.103884  1890 layer_factory.hpp:77] Creating layer conv4_2
I0103 15:54:07.103895  1890 net.cpp:106] Creating Layer conv4_2
I0103 15:54:07.103899  1890 net.cpp:454] conv4_2 <- conv4_1
I0103 15:54:07.103907  1890 net.cpp:411] conv4_2 -> conv4_2
I0103 15:54:07.107672  1890 net.cpp:150] Setting up conv4_2
I0103 15:54:07.107689  1890 net.cpp:157] Top shape: 1 166 75 125 (1556250)
I0103 15:54:07.107693  1890 net.cpp:165] Memory required for data: 763800084
I0103 15:54:07.107707  1890 layer_factory.hpp:77] Creating layer relu4_2
I0103 15:54:07.107713  1890 net.cpp:106] Creating Layer relu4_2
I0103 15:54:07.107717  1890 net.cpp:454] relu4_2 <- conv4_2
I0103 15:54:07.107723  1890 net.cpp:397] relu4_2 -> conv4_2 (in-place)
I0103 15:54:07.107920  1890 net.cpp:150] Setting up relu4_2
I0103 15:54:07.107933  1890 net.cpp:157] Top shape: 1 166 75 125 (1556250)
I0103 15:54:07.107935  1890 net.cpp:165] Memory required for data: 770025084
I0103 15:54:07.107939  1890 layer_factory.hpp:77] Creating layer conv4_3
I0103 15:54:07.107949  1890 net.cpp:106] Creating Layer conv4_3
I0103 15:54:07.107952  1890 net.cpp:454] conv4_3 <- conv4_2
I0103 15:54:07.107959  1890 net.cpp:411] conv4_3 -> conv4_3
I0103 15:54:07.113091  1890 net.cpp:150] Setting up conv4_3
I0103 15:54:07.113108  1890 net.cpp:157] Top shape: 1 512 75 125 (4800000)
I0103 15:54:07.113112  1890 net.cpp:165] Memory required for data: 789225084
I0103 15:54:07.113119  1890 layer_factory.hpp:77] Creating layer relu4_3
I0103 15:54:07.113126  1890 net.cpp:106] Creating Layer relu4_3
I0103 15:54:07.113129  1890 net.cpp:454] relu4_3 <- conv4_3
I0103 15:54:07.113135  1890 net.cpp:397] relu4_3 -> conv4_3 (in-place)
I0103 15:54:07.114013  1890 net.cpp:150] Setting up relu4_3
I0103 15:54:07.114028  1890 net.cpp:157] Top shape: 1 512 75 125 (4800000)
I0103 15:54:07.114032  1890 net.cpp:165] Memory required for data: 808425084
I0103 15:54:07.114035  1890 layer_factory.hpp:77] Creating layer pool4
I0103 15:54:07.114042  1890 net.cpp:106] Creating Layer pool4
I0103 15:54:07.114045  1890 net.cpp:454] pool4 <- conv4_3
I0103 15:54:07.114051  1890 net.cpp:411] pool4 -> pool4
I0103 15:54:07.114126  1890 net.cpp:150] Setting up pool4
I0103 15:54:07.114135  1890 net.cpp:157] Top shape: 1 512 38 63 (1225728)
I0103 15:54:07.114137  1890 net.cpp:165] Memory required for data: 813327996
I0103 15:54:07.114140  1890 layer_factory.hpp:77] Creating layer conv5_1
I0103 15:54:07.114148  1890 net.cpp:106] Creating Layer conv5_1
I0103 15:54:07.114151  1890 net.cpp:454] conv5_1 <- pool4
I0103 15:54:07.114157  1890 net.cpp:411] conv5_1 -> conv5_1
I0103 15:54:07.124889  1890 net.cpp:150] Setting up conv5_1
I0103 15:54:07.124909  1890 net.cpp:157] Top shape: 1 512 38 63 (1225728)
I0103 15:54:07.124912  1890 net.cpp:165] Memory required for data: 818230908
I0103 15:54:07.124920  1890 layer_factory.hpp:77] Creating layer relu5_1
I0103 15:54:07.124927  1890 net.cpp:106] Creating Layer relu5_1
I0103 15:54:07.124932  1890 net.cpp:454] relu5_1 <- conv5_1
I0103 15:54:07.124938  1890 net.cpp:397] relu5_1 -> conv5_1 (in-place)
I0103 15:54:07.125143  1890 net.cpp:150] Setting up relu5_1
I0103 15:54:07.125154  1890 net.cpp:157] Top shape: 1 512 38 63 (1225728)
I0103 15:54:07.125156  1890 net.cpp:165] Memory required for data: 823133820
I0103 15:54:07.125160  1890 layer_factory.hpp:77] Creating layer conv5_2
I0103 15:54:07.125169  1890 net.cpp:106] Creating Layer conv5_2
I0103 15:54:07.125174  1890 net.cpp:454] conv5_2 <- conv5_1
I0103 15:54:07.125180  1890 net.cpp:411] conv5_2 -> conv5_2
I0103 15:54:07.135728  1890 net.cpp:150] Setting up conv5_2
I0103 15:54:07.135772  1890 net.cpp:157] Top shape: 1 512 38 63 (1225728)
I0103 15:54:07.135779  1890 net.cpp:165] Memory required for data: 828036732
I0103 15:54:07.135794  1890 layer_factory.hpp:77] Creating layer relu5_2
I0103 15:54:07.135810  1890 net.cpp:106] Creating Layer relu5_2
I0103 15:54:07.135818  1890 net.cpp:454] relu5_2 <- conv5_2
I0103 15:54:07.135829  1890 net.cpp:397] relu5_2 -> conv5_2 (in-place)
I0103 15:54:07.136144  1890 net.cpp:150] Setting up relu5_2
I0103 15:54:07.136160  1890 net.cpp:157] Top shape: 1 512 38 63 (1225728)
I0103 15:54:07.136165  1890 net.cpp:165] Memory required for data: 832939644
I0103 15:54:07.136170  1890 layer_factory.hpp:77] Creating layer conv5_3
I0103 15:54:07.136196  1890 net.cpp:106] Creating Layer conv5_3
I0103 15:54:07.136203  1890 net.cpp:454] conv5_3 <- conv5_2
I0103 15:54:07.136211  1890 net.cpp:411] conv5_3 -> conv5_3
I0103 15:54:07.148015  1890 net.cpp:150] Setting up conv5_3
I0103 15:54:07.148051  1890 net.cpp:157] Top shape: 1 512 38 63 (1225728)
I0103 15:54:07.148056  1890 net.cpp:165] Memory required for data: 837842556
I0103 15:54:07.148066  1890 layer_factory.hpp:77] Creating layer relu5_3
I0103 15:54:07.148078  1890 net.cpp:106] Creating Layer relu5_3
I0103 15:54:07.148083  1890 net.cpp:454] relu5_3 <- conv5_3
I0103 15:54:07.148090  1890 net.cpp:397] relu5_3 -> conv5_3 (in-place)
I0103 15:54:07.149286  1890 net.cpp:150] Setting up relu5_3
I0103 15:54:07.149304  1890 net.cpp:157] Top shape: 1 512 38 63 (1225728)
I0103 15:54:07.149309  1890 net.cpp:165] Memory required for data: 842745468
I0103 15:54:07.149313  1890 layer_factory.hpp:77] Creating layer conv5_3_relu5_3_0_split
I0103 15:54:07.149325  1890 net.cpp:106] Creating Layer conv5_3_relu5_3_0_split
I0103 15:54:07.149330  1890 net.cpp:454] conv5_3_relu5_3_0_split <- conv5_3
I0103 15:54:07.149340  1890 net.cpp:411] conv5_3_relu5_3_0_split -> conv5_3_relu5_3_0_split_0
I0103 15:54:07.149350  1890 net.cpp:411] conv5_3_relu5_3_0_split -> conv5_3_relu5_3_0_split_1
I0103 15:54:07.149454  1890 net.cpp:150] Setting up conv5_3_relu5_3_0_split
I0103 15:54:07.149466  1890 net.cpp:157] Top shape: 1 512 38 63 (1225728)
I0103 15:54:07.149471  1890 net.cpp:157] Top shape: 1 512 38 63 (1225728)
I0103 15:54:07.149476  1890 net.cpp:165] Memory required for data: 852551292
I0103 15:54:07.149479  1890 layer_factory.hpp:77] Creating layer rpn_conv/3x3
I0103 15:54:07.149498  1890 net.cpp:106] Creating Layer rpn_conv/3x3
I0103 15:54:07.149524  1890 net.cpp:454] rpn_conv/3x3 <- conv5_3_relu5_3_0_split_0
I0103 15:54:07.149534  1890 net.cpp:411] rpn_conv/3x3 -> rpn/output
I0103 15:54:07.193436  1890 net.cpp:150] Setting up rpn_conv/3x3
I0103 15:54:07.193485  1890 net.cpp:157] Top shape: 1 512 38 63 (1225728)
I0103 15:54:07.193488  1890 net.cpp:165] Memory required for data: 857454204
I0103 15:54:07.193500  1890 layer_factory.hpp:77] Creating layer rpn_relu/3x3
I0103 15:54:07.193518  1890 net.cpp:106] Creating Layer rpn_relu/3x3
I0103 15:54:07.193523  1890 net.cpp:454] rpn_relu/3x3 <- rpn/output
I0103 15:54:07.193537  1890 net.cpp:397] rpn_relu/3x3 -> rpn/output (in-place)
I0103 15:54:07.193766  1890 net.cpp:150] Setting up rpn_relu/3x3
I0103 15:54:07.193779  1890 net.cpp:157] Top shape: 1 512 38 63 (1225728)
I0103 15:54:07.193783  1890 net.cpp:165] Memory required for data: 862357116
I0103 15:54:07.193785  1890 layer_factory.hpp:77] Creating layer rpn/output_rpn_relu/3x3_0_split
I0103 15:54:07.193794  1890 net.cpp:106] Creating Layer rpn/output_rpn_relu/3x3_0_split
I0103 15:54:07.193796  1890 net.cpp:454] rpn/output_rpn_relu/3x3_0_split <- rpn/output
I0103 15:54:07.193804  1890 net.cpp:411] rpn/output_rpn_relu/3x3_0_split -> rpn/output_rpn_relu/3x3_0_split_0
I0103 15:54:07.193816  1890 net.cpp:411] rpn/output_rpn_relu/3x3_0_split -> rpn/output_rpn_relu/3x3_0_split_1
I0103 15:54:07.193900  1890 net.cpp:150] Setting up rpn/output_rpn_relu/3x3_0_split
I0103 15:54:07.193910  1890 net.cpp:157] Top shape: 1 512 38 63 (1225728)
I0103 15:54:07.193914  1890 net.cpp:157] Top shape: 1 512 38 63 (1225728)
I0103 15:54:07.193917  1890 net.cpp:165] Memory required for data: 872162940
I0103 15:54:07.193920  1890 layer_factory.hpp:77] Creating layer rpn_cls_score
I0103 15:54:07.193935  1890 net.cpp:106] Creating Layer rpn_cls_score
I0103 15:54:07.193941  1890 net.cpp:454] rpn_cls_score <- rpn/output_rpn_relu/3x3_0_split_0
I0103 15:54:07.193953  1890 net.cpp:411] rpn_cls_score -> rpn_cls_score
I0103 15:54:07.197600  1890 net.cpp:150] Setting up rpn_cls_score
I0103 15:54:07.197618  1890 net.cpp:157] Top shape: 1 18 38 63 (43092)
I0103 15:54:07.197623  1890 net.cpp:165] Memory required for data: 872335308
I0103 15:54:07.197629  1890 layer_factory.hpp:77] Creating layer rpn_cls_score_rpn_cls_score_0_split
I0103 15:54:07.197639  1890 net.cpp:106] Creating Layer rpn_cls_score_rpn_cls_score_0_split
I0103 15:54:07.197643  1890 net.cpp:454] rpn_cls_score_rpn_cls_score_0_split <- rpn_cls_score
I0103 15:54:07.197649  1890 net.cpp:411] rpn_cls_score_rpn_cls_score_0_split -> rpn_cls_score_rpn_cls_score_0_split_0
I0103 15:54:07.197669  1890 net.cpp:411] rpn_cls_score_rpn_cls_score_0_split -> rpn_cls_score_rpn_cls_score_0_split_1
I0103 15:54:07.197747  1890 net.cpp:150] Setting up rpn_cls_score_rpn_cls_score_0_split
I0103 15:54:07.197757  1890 net.cpp:157] Top shape: 1 18 38 63 (43092)
I0103 15:54:07.197762  1890 net.cpp:157] Top shape: 1 18 38 63 (43092)
I0103 15:54:07.197764  1890 net.cpp:165] Memory required for data: 872680044
I0103 15:54:07.197768  1890 layer_factory.hpp:77] Creating layer rpn_bbox_pred
I0103 15:54:07.197780  1890 net.cpp:106] Creating Layer rpn_bbox_pred
I0103 15:54:07.197787  1890 net.cpp:454] rpn_bbox_pred <- rpn/output_rpn_relu/3x3_0_split_1
I0103 15:54:07.197795  1890 net.cpp:411] rpn_bbox_pred -> rpn_bbox_pred
I0103 15:54:07.202661  1890 net.cpp:150] Setting up rpn_bbox_pred
I0103 15:54:07.202700  1890 net.cpp:157] Top shape: 1 36 38 63 (86184)
I0103 15:54:07.202708  1890 net.cpp:165] Memory required for data: 873024780
I0103 15:54:07.202723  1890 layer_factory.hpp:77] Creating layer rpn_bbox_pred_rpn_bbox_pred_0_split
I0103 15:54:07.202742  1890 net.cpp:106] Creating Layer rpn_bbox_pred_rpn_bbox_pred_0_split
I0103 15:54:07.202751  1890 net.cpp:454] rpn_bbox_pred_rpn_bbox_pred_0_split <- rpn_bbox_pred
I0103 15:54:07.202788  1890 net.cpp:411] rpn_bbox_pred_rpn_bbox_pred_0_split -> rpn_bbox_pred_rpn_bbox_pred_0_split_0
I0103 15:54:07.202813  1890 net.cpp:411] rpn_bbox_pred_rpn_bbox_pred_0_split -> rpn_bbox_pred_rpn_bbox_pred_0_split_1
I0103 15:54:07.203284  1890 net.cpp:150] Setting up rpn_bbox_pred_rpn_bbox_pred_0_split
I0103 15:54:07.203305  1890 net.cpp:157] Top shape: 1 36 38 63 (86184)
I0103 15:54:07.203313  1890 net.cpp:157] Top shape: 1 36 38 63 (86184)
I0103 15:54:07.203317  1890 net.cpp:165] Memory required for data: 873714252
I0103 15:54:07.203325  1890 layer_factory.hpp:77] Creating layer rpn_cls_score_reshape
I0103 15:54:07.203352  1890 net.cpp:106] Creating Layer rpn_cls_score_reshape
I0103 15:54:07.203361  1890 net.cpp:454] rpn_cls_score_reshape <- rpn_cls_score_rpn_cls_score_0_split_0
I0103 15:54:07.203375  1890 net.cpp:411] rpn_cls_score_reshape -> rpn_cls_score_reshape
I0103 15:54:07.203469  1890 net.cpp:150] Setting up rpn_cls_score_reshape
I0103 15:54:07.203482  1890 net.cpp:157] Top shape: 1 2 342 63 (43092)
I0103 15:54:07.203487  1890 net.cpp:165] Memory required for data: 873886620
I0103 15:54:07.203493  1890 layer_factory.hpp:77] Creating layer rpn_cls_score_reshape_rpn_cls_score_reshape_0_split
I0103 15:54:07.203505  1890 net.cpp:106] Creating Layer rpn_cls_score_reshape_rpn_cls_score_reshape_0_split
I0103 15:54:07.203516  1890 net.cpp:454] rpn_cls_score_reshape_rpn_cls_score_reshape_0_split <- rpn_cls_score_reshape
I0103 15:54:07.203524  1890 net.cpp:411] rpn_cls_score_reshape_rpn_cls_score_reshape_0_split -> rpn_cls_score_reshape_rpn_cls_score_reshape_0_split_0
I0103 15:54:07.203539  1890 net.cpp:411] rpn_cls_score_reshape_rpn_cls_score_reshape_0_split -> rpn_cls_score_reshape_rpn_cls_score_reshape_0_split_1
I0103 15:54:07.203657  1890 net.cpp:150] Setting up rpn_cls_score_reshape_rpn_cls_score_reshape_0_split
I0103 15:54:07.203673  1890 net.cpp:157] Top shape: 1 2 342 63 (43092)
I0103 15:54:07.203681  1890 net.cpp:157] Top shape: 1 2 342 63 (43092)
I0103 15:54:07.203686  1890 net.cpp:165] Memory required for data: 874231356
I0103 15:54:07.203691  1890 layer_factory.hpp:77] Creating layer rpn-data
I0103 15:54:07.206012  1890 net.cpp:106] Creating Layer rpn-data
I0103 15:54:07.206039  1890 net.cpp:454] rpn-data <- rpn_cls_score_rpn_cls_score_0_split_1
I0103 15:54:07.206051  1890 net.cpp:454] rpn-data <- gt_boxes_input-data_2_split_0
I0103 15:54:07.206061  1890 net.cpp:454] rpn-data <- im_info_input-data_1_split_0
I0103 15:54:07.206069  1890 net.cpp:454] rpn-data <- data_input-data_0_split_1
I0103 15:54:07.206081  1890 net.cpp:411] rpn-data -> rpn_labels
I0103 15:54:07.206100  1890 net.cpp:411] rpn-data -> rpn_bbox_targets
I0103 15:54:07.206120  1890 net.cpp:411] rpn-data -> rpn_bbox_inside_weights
I0103 15:54:07.206135  1890 net.cpp:411] rpn-data -> rpn_bbox_outside_weights
I0103 15:54:07.207819  1890 net.cpp:150] Setting up rpn-data
I0103 15:54:07.207847  1890 net.cpp:157] Top shape: 1 1 342 63 (21546)
I0103 15:54:07.207857  1890 net.cpp:157] Top shape: 1 36 38 63 (86184)
I0103 15:54:07.207864  1890 net.cpp:157] Top shape: 1 36 38 63 (86184)
I0103 15:54:07.207870  1890 net.cpp:157] Top shape: 1 36 38 63 (86184)
I0103 15:54:07.207876  1890 net.cpp:165] Memory required for data: 875351748
I0103 15:54:07.207882  1890 layer_factory.hpp:77] Creating layer rpn_loss_cls
I0103 15:54:07.207904  1890 net.cpp:106] Creating Layer rpn_loss_cls
I0103 15:54:07.207916  1890 net.cpp:454] rpn_loss_cls <- rpn_cls_score_reshape_rpn_cls_score_reshape_0_split_0
I0103 15:54:07.207926  1890 net.cpp:454] rpn_loss_cls <- rpn_labels
…
I0103 15:54:07.211586  1890 net.cpp:157] Top shape: (1)
I0103 15:54:07.211590  1890 net.cpp:160]     with loss weight 1
I0103 15:54:07.211594  1890 net.cpp:165] Memory required for data: 875351756
I0103 15:54:07.211598  1890 layer_factory.hpp:77] Creating layer rpn_cls_prob
I0103 15:54:07.211606  1890 net.cpp:106] Creating Layer rpn_cls_prob
I0103 15:54:07.211608  1890 net.cpp:454] rpn_cls_prob <- rpn_cls_score_reshape_rpn_cls_score_reshape_0_split_1
I0103 15:54:07.211616  1890 net.cpp:411] rpn_cls_prob -> rpn_cls_prob
I0103 15:54:07.213078  1890 net.cpp:150] Setting up rpn_cls_prob
I0103 15:54:07.213095  1890 net.cpp:157] Top shape: 1 2 342 63 (43092)
I0103 15:54:07.213104  1890 net.cpp:165] Memory required for data: 875524124
I0103 15:54:07.213109  1890 layer_factory.hpp:77] Creating layer rpn_cls_prob_reshape
I0103 15:54:07.213117  1890 net.cpp:106] Creating Layer rpn_cls_prob_reshape
I0103 15:54:07.213121  1890 net.cpp:454] rpn_cls_prob_reshape <- rpn_cls_prob
I0103 15:54:07.213129  1890 net.cpp:411] rpn_cls_prob_reshape -> rpn_cls_prob_reshape
I0103 15:54:07.213176  1890 net.cpp:150] Setting up rpn_cls_prob_reshape
I0103 15:54:07.213184  1890 net.cpp:157] Top shape: 1 18 38 63 (43092)
I0103 15:54:07.213187  1890 net.cpp:165] Memory required for data: 875696492
I0103 15:54:07.213191  1890 layer_factory.hpp:77] Creating layer proposal
I0103 15:54:07.214396  1890 net.cpp:106] Creating Layer proposal
I0103 15:54:07.214412  1890 net.cpp:454] proposal <- rpn_cls_prob_reshape
I0103 15:54:07.214423  1890 net.cpp:454] proposal <- rpn_bbox_pred_rpn_bbox_pred_0_split_1
I0103 15:54:07.214427  1890 net.cpp:454] proposal <- im_info_input-data_1_split_1
I0103 15:54:07.214434  1890 net.cpp:411] proposal -> rpn_rois
I0103 15:54:07.217301  1890 net.cpp:150] Setting up proposal
I0103 15:54:07.217329  1890 net.cpp:157] Top shape: 1 5 (5)
I0103 15:54:07.217335  1890 net.cpp:165] Memory required for data: 875696512
I0103 15:54:07.217341  1890 layer_factory.hpp:77] Creating layer roi-data
I0103 15:54:07.218762  1890 net.cpp:106] Creating Layer roi-data
I0103 15:54:07.218785  1890 net.cpp:454] roi-data <- rpn_rois
I0103 15:54:07.218796  1890 net.cpp:454] roi-data <- gt_boxes_input-data_2_split_1
I0103 15:54:07.218807  1890 net.cpp:411] roi-data -> rois
I0103 15:54:07.218822  1890 net.cpp:411] roi-data -> labels
I0103 15:54:07.218833  1890 net.cpp:411] roi-data -> bbox_targets
I0103 15:54:07.218844  1890 net.cpp:411] roi-data -> bbox_inside_weights
I0103 15:54:07.218857  1890 net.cpp:411] roi-data -> bbox_outside_weights
I0103 15:54:07.219756  1890 net.cpp:150] Setting up roi-data
I0103 15:54:07.219779  1890 net.cpp:157] Top shape: 1 5 (5)
I0103 15:54:07.219786  1890 net.cpp:157] Top shape: 1 1 (1)
I0103 15:54:07.219792  1890 net.cpp:157] Top shape: 1 84 (84)
I0103 15:54:07.219799  1890 net.cpp:157] Top shape: 1 84 (84)
I0103 15:54:07.219804  1890 net.cpp:157] Top shape: 1 84 (84)
I0103 15:54:07.219807  1890 net.cpp:165] Memory required for data: 875697544
I0103 15:54:07.219813  1890 layer_factory.hpp:77] Creating layer roi_pool5
I0103 15:54:07.219843  1890 net.cpp:106] Creating Layer roi_pool5
I0103 15:54:07.219856  1890 net.cpp:454] roi_pool5 <- conv5_3_relu5_3_0_split_1
I0103 15:54:07.219864  1890 net.cpp:454] roi_pool5 <- rois
I0103 15:54:07.219873  1890 net.cpp:411] roi_pool5 -> pool5
I0103 15:54:07.219890  1890 roi_pooling_layer.cpp:30] Spatial scale: 0.0625
I0103 15:54:07.220016  1890 net.cpp:150] Setting up roi_pool5
I0103 15:54:07.220032  1890 net.cpp:157] Top shape: 1 512 7 7 (25088)
I0103 15:54:07.220037  1890 net.cpp:165] Memory required for data: 875797896
I0103 15:54:07.220043  1890 layer_factory.hpp:77] Creating layer fc6
I0103 15:54:07.220058  1890 net.cpp:106] Creating Layer fc6
I0103 15:54:07.220067  1890 net.cpp:454] fc6 <- pool5
I0103 15:54:07.220077  1890 net.cpp:411] fc6 -> fc6
I0103 15:54:07.516944  1890 net.cpp:150] Setting up fc6
I0103 15:54:07.516983  1890 net.cpp:157] Top shape: 1 4096 (4096)
I0103 15:54:07.516986  1890 net.cpp:165] Memory required for data: 875814280
I0103 15:54:07.517011  1890 layer_factory.hpp:77] Creating layer relu6
I0103 15:54:07.517022  1890 net.cpp:106] Creating Layer relu6
I0103 15:54:07.517026  1890 net.cpp:454] relu6 <- fc6
I0103 15:54:07.517033  1890 net.cpp:397] relu6 -> fc6 (in-place)
I0103 15:54:07.517334  1890 net.cpp:150] Setting up relu6
I0103 15:54:07.517346  1890 net.cpp:157] Top shape: 1 4096 (4096)
I0103 15:54:07.517349  1890 net.cpp:165] Memory required for data: 875830664
I0103 15:54:07.517351  1890 layer_factory.hpp:77] Creating layer drop6
I0103 15:54:07.517367  1890 net.cpp:106] Creating Layer drop6
I0103 15:54:07.517370  1890 net.cpp:454] drop6 <- fc6
I0103 15:54:07.517379  1890 net.cpp:397] drop6 -> fc6 (in-place)
I0103 15:54:07.517427  1890 net.cpp:150] Setting up drop6
I0103 15:54:07.517436  1890 net.cpp:157] Top shape: 1 4096 (4096)
I0103 15:54:07.517438  1890 net.cpp:165] Memory required for data: 875847048
I0103 15:54:07.517441  1890 layer_factory.hpp:77] Creating layer fc7
I0103 15:54:07.517451  1890 net.cpp:106] Creating Layer fc7
I0103 15:54:07.517453  1890 net.cpp:454] fc7 <- fc6
I0103 15:54:07.517458  1890 net.cpp:411] fc7 -> fc7
I0103 15:54:07.564507  1890 net.cpp:150] Setting up fc7
I0103 15:54:07.564543  1890 net.cpp:157] Top shape: 1 4096 (4096)
I0103 15:54:07.564548  1890 net.cpp:165] Memory required for data: 875863432
I0103 15:54:07.564558  1890 layer_factory.hpp:77] Creating layer relu7
I0103 15:54:07.564568  1890 net.cpp:106] Creating Layer relu7
I0103 15:54:07.564574  1890 net.cpp:454] relu7 <- fc7
I0103 15:54:07.564581  1890 net.cpp:397] relu7 -> fc7 (in-place)
I0103 15:54:07.565670  1890 net.cpp:150] Setting up relu7
I0103 15:54:07.565685  1890 net.cpp:157] Top shape: 1 4096 (4096)
I0103 15:54:07.565687  1890 net.cpp:165] Memory required for data: 875879816
I0103 15:54:07.565691  1890 layer_factory.hpp:77] Creating layer drop7
I0103 15:54:07.565698  1890 net.cpp:106] Creating Layer drop7
I0103 15:54:07.565702  1890 net.cpp:454] drop7 <- fc7
I0103 15:54:07.565708  1890 net.cpp:397] drop7 -> fc7 (in-place)
I0103 15:54:07.565757  1890 net.cpp:150] Setting up drop7
I0103 15:54:07.565765  1890 net.cpp:157] Top shape: 1 4096 (4096)
I0103 15:54:07.565768  1890 net.cpp:165] Memory required for data: 875896200
I0103 15:54:07.565770  1890 layer_factory.hpp:77] Creating layer fc7_drop7_0_split
I0103 15:54:07.565778  1890 net.cpp:106] Creating Layer fc7_drop7_0_split
I0103 15:54:07.565780  1890 net.cpp:454] fc7_drop7_0_split <- fc7
I0103 15:54:07.565786  1890 net.cpp:411] fc7_drop7_0_split -> fc7_drop7_0_split_0
I0103 15:54:07.565798  1890 net.cpp:411] fc7_drop7_0_split -> fc7_drop7_0_split_1
I0103 15:54:07.565874  1890 net.cpp:150] Setting up fc7_drop7_0_split
I0103 15:54:07.565882  1890 net.cpp:157] Top shape: 1 4096 (4096)
I0103 15:54:07.565886  1890 net.cpp:157] Top shape: 1 4096 (4096)
I0103 15:54:07.565888  1890 net.cpp:165] Memory required for data: 875928968
I0103 15:54:07.565891  1890 layer_factory.hpp:77] Creating layer cls_score
I0103 15:54:07.565899  1890 net.cpp:106] Creating Layer cls_score
I0103 15:54:07.565903  1890 net.cpp:454] cls_score <- fc7_drop7_0_split_0
I0103 15:54:07.565909  1890 net.cpp:411] cls_score -> cls_score
I0103 15:54:07.567209  1890 net.cpp:150] Setting up cls_score
I0103 15:54:07.567219  1890 net.cpp:157] Top shape: 1 21 (21)
I0103 15:54:07.567221  1890 net.cpp:165] Memory required for data: 875929052
I0103 15:54:07.567227  1890 layer_factory.hpp:77] Creating layer bbox_pred
I0103 15:54:07.567234  1890 net.cpp:106] Creating Layer bbox_pred
I0103 15:54:07.567237  1890 net.cpp:454] bbox_pred <- fc7_drop7_0_split_1
I0103 15:54:07.567243  1890 net.cpp:411] bbox_pred -> bbox_pred
I0103 15:54:07.572885  1890 net.cpp:150] Setting up bbox_pred
I0103 15:54:07.572901  1890 net.cpp:157] Top shape: 1 84 (84)
I0103 15:54:07.572903  1890 net.cpp:165] Memory required for data: 875929388
I0103 15:54:07.572911  1890 layer_factory.hpp:77] Creating layer loss_cls
I0103 15:54:07.572918  1890 net.cpp:106] Creating Layer loss_cls
I0103 15:54:07.572921  1890 net.cpp:454] loss_cls <- cls_score
I0103 15:54:07.572926  1890 net.cpp:454] loss_cls <- labels
I0103 15:54:07.572932  1890 net.cpp:411] loss_cls -> loss_cls
…
           'RPN_POST_NMS_TOP_N': 2000,
           'RPN_PRE_NMS_TOP_N': 12000,
           'SCALES': [600],
           'SNAPSHOT_INFIX': '',
           'SNAPSHOT_ITERS': 10000,
           'USE_FLIPPED': True,
           'USE_PREFETCH': False},
 'USE_GPU_NMS': True}
WARNING: Logging before InitGoogleLogging() is written to STDERR
I0103 23:47:19.630471  2153 net.cpp:49] Initializing net from parameters: 
name: "VGG_ILSVRC_16_layers"
input: "data"
input: "im_info"
state {
  phase: TEST
}
input_shape {
  dim: 1
  dim: 3
  dim: 224
  dim: 224
}
input_shape {
  dim: 1
  dim: 3
}
layer {
  name: "conv1_1"
  type: "Convolution"
  bottom: "data"
  top: "conv1_1"
  param {
    lr_mult: 0
    decay_mult: 0
  }
  param {
    lr_mult: 0
    decay_mult: 0
  }
  convolution_param {
    num_output: 12
    pad: 1
    kernel_size: 3
  }
}
layer {
  name: "relu1_1"
  type: "ReLU"
  bottom: "conv1_1"
  top: "conv1_1"
}
layer {
  name: "conv1_2"
  type: "Convolution"
  bottom: "conv1_1"
  top: "conv1_2"
  param {
    lr_mult: 0
    decay_mult: 0
  }
  param {
    lr_mult: 0
    decay_mult: 0
  }
  convolution_param {
    num_output: 64
    pad: 1
    kernel_size: 3
  }
}
layer {
  name: "relu1_2"
  type: "ReLU"
  bottom: "conv1_2"
  top: "conv1_2"
}
layer {
  name: "pool1"
  type: "Pooling"
  bottom: "conv1_2"
  top: "pool1"
  pooling_param {
    pool: MAX
    kernel_size: 2
    stride: 2
  }
}
layer {
  name: "conv2_1"
  type: "Convolution"
  bottom: "pool1"
  top: "conv2_1"
  param {
    lr_mult: 0
    decay_mult: 0
  }
  param {
    lr_mult: 0
    decay_mult: 0
  }
  convolution_param {
    num_output: 21
    pad: 1
    kernel_size: 3
  }
}
layer {
  name: "relu2_1"
  type: "ReLU"
  bottom: "conv2_1"
  top: "conv2_1"
}
layer {
  name: "conv2_2"
  type: "Convolution"
  bottom: "conv2_1"
  top: "conv2_2"
  param {
    lr_mult: 0
    decay_mult: 0
  }
  param {
    lr_mult: 0
    decay_mult: 0
  }
  convolution_param {
    num_output: 128
    pad: 1
    kernel_size: 3
  }
}
layer {
  name: "relu2_2"
  type: "ReLU"
  bottom: "conv2_2"
  top: "conv2_2"
}
layer {
  name: "pool2"
  type: "Pooling"
  bottom: "conv2_2"
  top: "pool2"
  pooling_param {
    pool: MAX
    kernel_size: 2
    stride: 2
  }
}
layer {
  name: "conv3_1"
  type: "Convolution"
  bottom: "pool2"
  top: "conv3_1"
  param {
    lr_mult: 1
    decay_mult: 1
  }
  param {
    lr_mult: 2
    decay_mult: 0
  }
  convolution_param {
    num_output: 73
    pad: 1
    kernel_size: 3
  }
}
layer {
  name: "relu3_1"
  type: "ReLU"
  bottom: "conv3_1"
  top: "conv3_1"
}
layer {
  name: "conv3_2"
  type: "Convolution"
  bottom: "conv3_1"
  top: "conv3_2"
  param {
    lr_mult: 1
    decay_mult: 1
  }
  param {
    lr_mult: 2
    decay_mult: 0
  }
  convolution_param {
    num_output: 58
    pad: 1
    kernel_size: 3
  }
}
layer {
  name: "relu3_2"
  type: "ReLU"
  bottom: "conv3_2"
  top: "conv3_2"
}
layer {
  name: "conv3_3"
  type: "Convolution"
  bottom: "conv3_2"
  top: "conv3_3"
  param {
    lr_mult: 1
    decay_mult: 1
  }
  param {
    lr_mult: 2
    decay_mult: 0
  }
  convolution_param {
    num_output: 256
    pad: 1
    kernel_size: 3
  }
}
layer {
  name: "relu3_3"
  type: "ReLU"
  bottom: "conv3_3"
  top: "conv3_3"
}
layer {
  name: "pool3"
  type: "Pooling"
  bottom: "conv3_3"
  top: "pool3"
  pooling_param {
    pool: MAX
    kernel_size: 2
    stride: 2
  }
}
layer {
  name: "conv4_1"
  type: "Convolution"
  bottom: "pool3"
  top: "conv4_1"
  param {
    lr_mult: 1
    decay_mult: 1
  }
  param {
    lr_mult: 2
    decay_mult: 0
  }
  convolution_param {
    num_output: 121
    pad: 1
    kernel_size: 3
  }
}
layer {
  name: "relu4_1"
  type: "ReLU"
  bottom: "conv4_1"
  top: "conv4_1"
}
layer {
  name: "conv4_2"
  type: "Convolution"
  bottom: "conv4_1"
  top: "conv4_2"
  param {
    lr_mult: 1
    decay_mult: 1
  }
  param {
    lr_mult: 2
    decay_mult: 0
  }
  convolution_param {
    num_output: 166
    pad: 1
    kernel_size: 3
  }
}
layer {
  name: "relu4_2"
  type: "ReLU"
  bottom: "conv4_2"
  top: "conv4_2"
}
layer {
  name: "conv4_3"
  type: "Convolution"
  bottom: "conv4_2"
  top: "conv4_3"
  param {
    lr_mult: 1
    decay_mult: 1
  }
  param {
    lr_mult: 2
    decay_mult: 0
  }
  convolution_param {
    num_output: 512
    pad: 1
    kernel_size: 3
  }
}
layer {
  name: "relu4_3"
  type: "ReLU"
  bottom: "conv4_3"
  top: "conv4_3"
}
layer {
  name: "pool4"
  type: "Pooling"
  bottom: "conv4_3"
  top: "pool4"
  pooling_param {
    pool: MAX
    kernel_size: 2
    stride: 2
  }
}
layer {
  name: "conv5_1"
  type: "Convolution"
  bottom: "pool4"
  top: "conv5_1"
  param {
    lr_mult: 1
    decay_mult: 1
  }
  param {
    lr_mult: 2
    decay_mult: 0
  }
  convolution_param {
    num_output: 512
    pad: 1
    kernel_size: 3
  }
}
layer {
  name: "relu5_1"
  type: "ReLU"
  bottom: "conv5_1"
  top: "conv5_1"
}
layer {
  name: "conv5_2"
  type: "Convolution"
  bottom: "conv5_1"
  top: "conv5_2"
  param {
    lr_mult: 1
    decay_mult: 1
  }
  param {
    lr_mult: 2
    decay_mult: 0
  }
  convolution_param {
    num_output: 512
    pad: 1
    kernel_size: 3
  }
}
layer {
  name: "relu5_2"
  type: "ReLU"
  bottom: "conv5_2"
  top: "conv5_2"
}
layer {
  name: "conv5_3"
  type: "Convolution"
  bottom: "conv5_2"
  top: "conv5_3"
  param {
    lr_mult: 1
    decay_mult: 1
  }
  param {
    lr_mult: 2
    decay_mult: 0
  }
  convolution_param {
    num_output: 512
    pad: 1
    kernel_size: 3
  }
}
layer {
  name: "relu5_3"
  type: "ReLU"
  bottom: "conv5_3"
  top: "conv5_3"
}
layer {
  name: "rpn_conv/3x3"
  type: "Convolution"
  bottom: "conv5_3"
  top: "rpn/output"
  param {
    lr_mult: 1
    decay_mult: 1
  }
  param {
    lr_mult: 2
    decay_mult: 0
  }
  convolution_param {
    num_output: 512
    pad: 1
    kernel_size: 3
    stride: 1
    weight_filler {
      type: "gaussian"
      std: 0.01
    }
    bias_filler {
      type: "constant"
      value: 0
    }
  }
}
layer {
  name: "rpn_relu/3x3"
  type: "ReLU"
  bottom: "rpn/output"
  top: "rpn/output"
}
layer {
  name: "rpn_cls_score"
  type: "Convolution"
  bottom: "rpn/output"
  top: "rpn_cls_score"
  param {
    lr_mult: 1
    decay_mult: 1
  }
  param {
    lr_mult: 2
    decay_mult: 0
  }
  convolution_param {
    num_output: 18
    pad: 0
    kernel_size: 1
    stride: 1
    weight_filler {
      type: "gaussian"
      std: 0.01
    }
    bias_filler {
      type: "constant"
      value: 0
    }
  }
}
layer {
  name: "rpn_bbox_pred"
  type: "Convolution"
  bottom: "rpn/output"
  top: "rpn_bbox_pred"
  param {
    lr_mult: 1
    decay_mult: 1
  }
  param {
    lr_mult: 2
    decay_mult: 0
  }
  convolution_param {
    num_output: 36
    pad: 0
    kernel_size: 1
    stride: 1
    weight_filler {
      type: "gaussian"
      std: 0.01
    }
    bias_filler {
      type: "constant"
      value: 0
    }
  }
}
layer {
  name: "rpn_cls_score_reshape"
  type: "Reshape"
  bottom: "rpn_cls_score"
  top: "rpn_cls_score_reshape"
  reshape_param {
    shape {
      dim: 0
      dim: 2
      dim: -1
      dim: 0
    }
  }
}
layer {
  name: "rpn_cls_prob"
  type: "Softmax"
  bottom: "rpn_cls_score_reshape"
  top: "rpn_cls_prob"
}
layer {
  name: "rpn_cls_prob_reshape"
  type: "Reshape"
  bottom: "rpn_cls_prob"
  top: "rpn_cls_prob_reshape"
  reshape_param {
    shape {
      dim: 0
      dim: 18
      dim: -1
      dim: 0
    }
  }
}
layer {
  name: "proposal"
  type: "Python"
  bottom: "rpn_cls_prob_reshape"
  bottom: "rpn_bbox_pred"
  bottom: "im_info"
  top: "rois"
  python_param {
    module: "rpn.proposal_layer"
    layer: "ProposalLayer"
    param_str: "\'feat_stride\': 16"
  }
}
layer {
  name: "roi_pool5"
  type: "ROIPooling"
  bottom: "conv5_3"
  bottom: "rois"
  top: "pool5"
  roi_pooling_param {
    pooled_h: 7
    pooled_w: 7
    spatial_scale: 0.0625
  }
}
layer {
  name: "fc6"
  type: "InnerProduct"
  bottom: "pool5"
  top: "fc6"
  param {
    lr_mult: 1
    decay_mult: 1
  }
  param {
    lr_mult: 2
    decay_mult: 0
  }
  inner_product_param {
    num_output: 4096
  }
}
layer {
  name: "relu6"
  type: "ReLU"
  bottom: "fc6"
  top: "fc6"
}
layer {
  name: "drop6"
  type: "Dropout"
  bottom: "fc6"
  top: "fc6"
  dropout_param {
    dropout_ratio: 0.5
  }
}
layer {
  name: "fc7"
  type: "InnerProduct"
  bottom: "fc6"
  top: "fc7"
  param {
    lr_mult: 1
    decay_mult: 1
  }
  param {
    lr_mult: 2
    decay_mult: 0
  }
  inner_product_param {
    num_output: 4096
  }
}
layer {
  name: "relu7"
  type: "ReLU"
  bottom: "fc7"
  top: "fc7"
}
layer {
  name: "drop7"
  type: "Dropout"
  bottom: "fc7"
  top: "fc7"
  dropout_param {
    dropout_ratio: 0.5
  }
}
layer {
  name: "cls_score"
  type: "InnerProduct"
  bottom: "fc7"
  top: "cls_score"
  param {
    lr_mult: 1
    decay_mult: 1
  }
  param {
    lr_mult: 2
    decay_mult: 0
  }
  inner_product_param {
    num_output: 21
    weight_filler {
      type: "gaussian"
      std: 0.01
    }
    bias_filler {
      type: "constant"
      value: 0
    }
  }
}
layer {
  name: "bbox_pred"
  type: "InnerProduct"
  bottom: "fc7"
  top: "bbox_pred"
  param {
    lr_mult: 1
    decay_mult: 1
  }
  param {
    lr_mult: 2
    decay_mult: 0
  }
  inner_product_param {
    num_output: 84
    weight_filler {
      type: "gaussian"
      std: 0.001
    }
    bias_filler {
      type: "constant"
      value: 0
    }
  }
}
layer {
  name: "cls_prob"
  type: "Softmax"
  bottom: "cls_score"
  top: "cls_prob"
}
I0103 23:47:19.630820  2153 net.cpp:413] Input 0 -> data
I0103 23:47:19.652865  2153 net.cpp:413] Input 1 -> im_info
I0103 23:47:19.652981  2153 layer_factory.hpp:77] Creating layer conv1_1
I0103 23:47:19.653015  2153 net.cpp:106] Creating Layer conv1_1
I0103 23:47:19.653025  2153 net.cpp:454] conv1_1 <- data
I0103 23:47:19.653035  2153 net.cpp:411] conv1_1 -> conv1_1
I0103 23:47:19.961566  2153 net.cpp:150] Setting up conv1_1
I0103 23:47:19.961614  2153 net.cpp:157] Top shape: 1 12 224 224 (602112)
I0103 23:47:19.961619  2153 net.cpp:165] Memory required for data: 2408448
I0103 23:47:19.961644  2153 layer_factory.hpp:77] Creating layer relu1_1
I0103 23:47:19.961668  2153 net.cpp:106] Creating Layer relu1_1
I0103 23:47:19.961671  2153 net.cpp:454] relu1_1 <- conv1_1
I0103 23:47:19.961678  2153 net.cpp:397] relu1_1 -> conv1_1 (in-place)
I0103 23:47:19.962610  2153 net.cpp:150] Setting up relu1_1
I0103 23:47:19.962625  2153 net.cpp:157] Top shape: 1 12 224 224 (602112)
I0103 23:47:19.962630  2153 net.cpp:165] Memory required for data: 4816896
I0103 23:47:19.962632  2153 layer_factory.hpp:77] Creating layer conv1_2
I0103 23:47:19.962646  2153 net.cpp:106] Creating Layer conv1_2
I0103 23:47:19.962648  2153 net.cpp:454] conv1_2 <- conv1_1
I0103 23:47:19.962659  2153 net.cpp:411] conv1_2 -> conv1_2
I0103 23:47:19.966859  2153 net.cpp:150] Setting up conv1_2
I0103 23:47:19.966878  2153 net.cpp:157] Top shape: 1 64 224 224 (3211264)
I0103 23:47:19.966888  2153 net.cpp:165] Memory required for data: 17661952
I0103 23:47:19.966898  2153 layer_factory.hpp:77] Creating layer relu1_2
I0103 23:47:19.966905  2153 net.cpp:106] Creating Layer relu1_2
I0103 23:47:19.966908  2153 net.cpp:454] relu1_2 <- conv1_2
I0103 23:47:19.966913  2153 net.cpp:397] relu1_2 -> conv1_2 (in-place)
I0103 23:47:19.967128  2153 net.cpp:150] Setting up relu1_2
I0103 23:47:19.967139  2153 net.cpp:157] Top shape: 1 64 224 224 (3211264)
I0103 23:47:19.967142  2153 net.cpp:165] Memory required for data: 30507008
I0103 23:47:19.967145  2153 layer_factory.hpp:77] Creating layer pool1
I0103 23:47:19.967154  2153 net.cpp:106] Creating Layer pool1
I0103 23:47:19.967157  2153 net.cpp:454] pool1 <- conv1_2
I0103 23:47:19.967164  2153 net.cpp:411] pool1 -> pool1
I0103 23:47:19.967257  2153 net.cpp:150] Setting up pool1
I0103 23:47:19.967267  2153 net.cpp:157] Top shape: 1 64 112 112 (802816)
I0103 23:47:19.967268  2153 net.cpp:165] Memory required for data: 33718272
I0103 23:47:19.967272  2153 layer_factory.hpp:77] Creating layer conv2_1
I0103 23:47:19.967281  2153 net.cpp:106] Creating Layer conv2_1
I0103 23:47:19.967286  2153 net.cpp:454] conv2_1 <- pool1
I0103 23:47:19.967293  2153 net.cpp:411] conv2_1 -> conv2_1
I0103 23:47:19.970358  2153 net.cpp:150] Setting up conv2_1
I0103 23:47:19.970388  2153 net.cpp:157] Top shape: 1 21 112 112 (263424)
I0103 23:47:19.970391  2153 net.cpp:165] Memory required for data: 34771968
I0103 23:47:19.970402  2153 layer_factory.hpp:77] Creating layer relu2_1
I0103 23:47:19.970408  2153 net.cpp:106] Creating Layer relu2_1
I0103 23:47:19.970412  2153 net.cpp:454] relu2_1 <- conv2_1
I0103 23:47:19.970418  2153 net.cpp:397] relu2_1 -> conv2_1 (in-place)
I0103 23:47:19.970624  2153 net.cpp:150] Setting up relu2_1
I0103 23:47:19.970636  2153 net.cpp:157] Top shape: 1 21 112 112 (263424)
I0103 23:47:19.970638  2153 net.cpp:165] Memory required for data: 35825664
I0103 23:47:19.970643  2153 layer_factory.hpp:77] Creating layer conv2_2
I0103 23:47:19.970652  2153 net.cpp:106] Creating Layer conv2_2
I0103 23:47:19.970657  2153 net.cpp:454] conv2_2 <- conv2_1
I0103 23:47:19.970664  2153 net.cpp:411] conv2_2 -> conv2_2
I0103 23:47:19.973093  2153 net.cpp:150] Setting up conv2_2
I0103 23:47:19.973110  2153 net.cpp:157] Top shape: 1 128 112 112 (1605632)
I0103 23:47:19.973114  2153 net.cpp:165] Memory required for data: 42248192
I0103 23:47:19.973124  2153 layer_factory.hpp:77] Creating layer relu2_2
I0103 23:47:19.973130  2153 net.cpp:106] Creating Layer relu2_2
I0103 23:47:19.973134  2153 net.cpp:454] relu2_2 <- conv2_2
I0103 23:47:19.973141  2153 net.cpp:397] relu2_2 -> conv2_2 (in-place)
I0103 23:47:19.974027  2153 net.cpp:150] Setting up relu2_2
I0103 23:47:19.974041  2153 net.cpp:157] Top shape: 1 128 112 112 (1605632)
I0103 23:47:19.974051  2153 net.cpp:165] Memory required for data: 48670720
I0103 23:47:19.974056  2153 layer_factory.hpp:77] Creating layer pool2
I0103 23:47:19.974061  2153 net.cpp:106] Creating Layer pool2
I0103 23:47:19.974064  2153 net.cpp:454] pool2 <- conv2_2
I0103 23:47:19.974071  2153 net.cpp:411] pool2 -> pool2
I0103 23:47:19.974148  2153 net.cpp:150] Setting up pool2
I0103 23:47:19.974156  2153 net.cpp:157] Top shape: 1 128 56 56 (401408)
I0103 23:47:19.974159  2153 net.cpp:165] Memory required for data: 50276352
I0103 23:47:19.974162  2153 layer_factory.hpp:77] Creating layer conv3_1
I0103 23:47:19.974171  2153 net.cpp:106] Creating Layer conv3_1
I0103 23:47:19.974174  2153 net.cpp:454] conv3_1 <- pool2
I0103 23:47:19.974179  2153 net.cpp:411] conv3_1 -> conv3_1
I0103 23:47:19.978854  2153 net.cpp:150] Setting up conv3_1
I0103 23:47:19.978871  2153 net.cpp:157] Top shape: 1 73 56 56 (228928)
I0103 23:47:19.978874  2153 net.cpp:165] Memory required for data: 51192064
I0103 23:47:19.978888  2153 layer_factory.hpp:77] Creating layer relu3_1
I0103 23:47:19.978896  2153 net.cpp:106] Creating Layer relu3_1
I0103 23:47:19.978901  2153 net.cpp:454] relu3_1 <- conv3_1
I0103 23:47:19.978906  2153 net.cpp:397] relu3_1 -> conv3_1 (in-place)
I0103 23:47:19.979120  2153 net.cpp:150] Setting up relu3_1
I0103 23:47:19.979130  2153 net.cpp:157] Top shape: 1 73 56 56 (228928)
I0103 23:47:19.979133  2153 net.cpp:165] Memory required for data: 52107776
I0103 23:47:19.979136  2153 layer_factory.hpp:77] Creating layer conv3_2
I0103 23:47:19.979146  2153 net.cpp:106] Creating Layer conv3_2
I0103 23:47:19.979148  2153 net.cpp:454] conv3_2 <- conv3_1
I0103 23:47:19.979154  2153 net.cpp:411] conv3_2 -> conv3_2
I0103 23:47:19.981624  2153 net.cpp:150] Setting up conv3_2
I0103 23:47:19.981640  2153 net.cpp:157] Top shape: 1 58 56 56 (181888)
I0103 23:47:19.981643  2153 net.cpp:165] Memory required for data: 52835328
I0103 23:47:19.981652  2153 layer_factory.hpp:77] Creating layer relu3_2
I0103 23:47:19.981659  2153 net.cpp:106] Creating Layer relu3_2
I0103 23:47:19.981663  2153 net.cpp:454] relu3_2 <- conv3_2
I0103 23:47:19.981669  2153 net.cpp:397] relu3_2 -> conv3_2 (in-place)
I0103 23:47:19.981880  2153 net.cpp:150] Setting up relu3_2
I0103 23:47:19.981891  2153 net.cpp:157] Top shape: 1 58 56 56 (181888)
I0103 23:47:19.981894  2153 net.cpp:165] Memory required for data: 53562880
I0103 23:47:19.981897  2153 layer_factory.hpp:77] Creating layer conv3_3
I0103 23:47:19.981907  2153 net.cpp:106] Creating Layer conv3_3
I0103 23:47:19.981912  2153 net.cpp:454] conv3_3 <- conv3_2
I0103 23:47:19.981917  2153 net.cpp:411] conv3_3 -> conv3_3
I0103 23:47:19.985095  2153 net.cpp:150] Setting up conv3_3
I0103 23:47:19.985112  2153 net.cpp:157] Top shape: 1 256 56 56 (802816)
I0103 23:47:19.985116  2153 net.cpp:165] Memory required for data: 56774144
I0103 23:47:19.985123  2153 layer_factory.hpp:77] Creating layer relu3_3
I0103 23:47:19.985129  2153 net.cpp:106] Creating Layer relu3_3
I0103 23:47:19.985132  2153 net.cpp:454] relu3_3 <- conv3_3
I0103 23:47:19.985139  2153 net.cpp:397] relu3_3 -> conv3_3 (in-place)
I0103 23:47:19.986037  2153 net.cpp:150] Setting up relu3_3
I0103 23:47:19.986052  2153 net.cpp:157] Top shape: 1 256 56 56 (802816)
I0103 23:47:19.986055  2153 net.cpp:165] Memory required for data: 59985408
I0103 23:47:19.986063  2153 layer_factory.hpp:77] Creating layer pool3
I0103 23:47:19.986073  2153 net.cpp:106] Creating Layer pool3
I0103 23:47:19.986075  2153 net.cpp:454] pool3 <- conv3_3
I0103 23:47:19.986084  2153 net.cpp:411] pool3 -> pool3
I0103 23:47:19.986167  2153 net.cpp:150] Setting up pool3
I0103 23:47:19.986176  2153 net.cpp:157] Top shape: 1 256 28 28 (200704)
I0103 23:47:19.986179  2153 net.cpp:165] Memory required for data: 60788224
I0103 23:47:19.986181  2153 layer_factory.hpp:77] Creating layer conv4_1
I0103 23:47:19.986191  2153 net.cpp:106] Creating Layer conv4_1
I0103 23:47:19.986193  2153 net.cpp:454] conv4_1 <- pool3
I0103 23:47:19.986203  2153 net.cpp:411] conv4_1 -> conv4_1
I0103 23:47:19.989946  2153 net.cpp:150] Setting up conv4_1
I0103 23:47:19.989964  2153 net.cpp:157] Top shape: 1 121 28 28 (94864)
I0103 23:47:19.989967  2153 net.cpp:165] Memory required for data: 61167680
I0103 23:47:19.989976  2153 layer_factory.hpp:77] Creating layer relu4_1
I0103 23:47:19.989982  2153 net.cpp:106] Creating Layer relu4_1
I0103 23:47:19.989985  2153 net.cpp:454] relu4_1 <- conv4_1
I0103 23:47:19.989994  2153 net.cpp:397] relu4_1 -> conv4_1 (in-place)
I0103 23:47:19.990202  2153 net.cpp:150] Setting up relu4_1
I0103 23:47:19.990217  2153 net.cpp:157] Top shape: 1 121 28 28 (94864)
I0103 23:47:19.990221  2153 net.cpp:165] Memory required for data: 61547136
I0103 23:47:19.990223  2153 layer_factory.hpp:77] Creating layer conv4_2
I0103 23:47:19.990234  2153 net.cpp:106] Creating Layer conv4_2
I0103 23:47:19.990237  2153 net.cpp:454] conv4_2 <- conv4_1
I0103 23:47:19.990243  2153 net.cpp:411] conv4_2 -> conv4_2
I0103 23:47:19.994601  2153 net.cpp:150] Setting up conv4_2
I0103 23:47:19.994617  2153 net.cpp:157] Top shape: 1 166 28 28 (130144)
I0103 23:47:19.994621  2153 net.cpp:165] Memory required for data: 62067712
I0103 23:47:19.994635  2153 layer_factory.hpp:77] Creating layer relu4_2
I0103 23:47:19.994642  2153 net.cpp:106] Creating Layer relu4_2
I0103 23:47:19.994645  2153 net.cpp:454] relu4_2 <- conv4_2
I0103 23:47:19.994652  2153 net.cpp:397] relu4_2 -> conv4_2 (in-place)
I0103 23:47:19.994866  2153 net.cpp:150] Setting up relu4_2
I0103 23:47:19.994879  2153 net.cpp:157] Top shape: 1 166 28 28 (130144)
I0103 23:47:19.994880  2153 net.cpp:165] Memory required for data: 62588288
I0103 23:47:19.994884  2153 layer_factory.hpp:77] Creating layer conv4_3
I0103 23:47:19.994894  2153 net.cpp:106] Creating Layer conv4_3
I0103 23:47:19.994896  2153 net.cpp:454] conv4_3 <- conv4_2
I0103 23:47:19.994904  2153 net.cpp:411] conv4_3 -> conv4_3
I0103 23:47:19.999799  2153 net.cpp:150] Setting up conv4_3
I0103 23:47:19.999816  2153 net.cpp:157] Top shape: 1 512 28 28 (401408)
I0103 23:47:19.999819  2153 net.cpp:165] Memory required for data: 64193920
I0103 23:47:19.999825  2153 layer_factory.hpp:77] Creating layer relu4_3
I0103 23:47:19.999833  2153 net.cpp:106] Creating Layer relu4_3
I0103 23:47:19.999836  2153 net.cpp:454] relu4_3 <- conv4_3
I0103 23:47:19.999841  2153 net.cpp:397] relu4_3 -> conv4_3 (in-place)
I0103 23:47:20.000728  2153 net.cpp:150] Setting up relu4_3
I0103 23:47:20.000743  2153 net.cpp:157] Top shape: 1 512 28 28 (401408)
I0103 23:47:20.000746  2153 net.cpp:165] Memory required for data: 65799552
I0103 23:47:20.000753  2153 layer_factory.hpp:77] Creating layer pool4
I0103 23:47:20.000761  2153 net.cpp:106] Creating Layer pool4
I0103 23:47:20.000766  2153 net.cpp:454] pool4 <- conv4_3
I0103 23:47:20.000771  2153 net.cpp:411] pool4 -> pool4
I0103 23:47:20.000850  2153 net.cpp:150] Setting up pool4
I0103 23:47:20.000859  2153 net.cpp:157] Top shape: 1 512 14 14 (100352)
I0103 23:47:20.000862  2153 net.cpp:165] Memory required for data: 66200960
I0103 23:47:20.000865  2153 layer_factory.hpp:77] Creating layer conv5_1
I0103 23:47:20.000874  2153 net.cpp:106] Creating Layer conv5_1
I0103 23:47:20.000877  2153 net.cpp:454] conv5_1 <- pool4
I0103 23:47:20.000885  2153 net.cpp:411] conv5_1 -> conv5_1
I0103 23:47:20.009668  2153 net.cpp:150] Setting up conv5_1
I0103 23:47:20.009685  2153 net.cpp:157] Top shape: 1 512 14 14 (100352)
I0103 23:47:20.009690  2153 net.cpp:165] Memory required for data: 66602368
I0103 23:47:20.009696  2153 layer_factory.hpp:77] Creating layer relu5_1
I0103 23:47:20.009702  2153 net.cpp:106] Creating Layer relu5_1
I0103 23:47:20.009706  2153 net.cpp:454] relu5_1 <- conv5_1
I0103 23:47:20.009712  2153 net.cpp:397] relu5_1 -> conv5_1 (in-place)
I0103 23:47:20.009938  2153 net.cpp:150] Setting up relu5_1
I0103 23:47:20.009949  2153 net.cpp:157] Top shape: 1 512 14 14 (100352)
I0103 23:47:20.009953  2153 net.cpp:165] Memory required for data: 67003776
I0103 23:47:20.009955  2153 layer_factory.hpp:77] Creating layer conv5_2
I0103 23:47:20.009966  2153 net.cpp:106] Creating Layer conv5_2
I0103 23:47:20.009973  2153 net.cpp:454] conv5_2 <- conv5_1
I0103 23:47:20.009977  2153 net.cpp:411] conv5_2 -> conv5_2
I0103 23:47:20.018589  2153 net.cpp:150] Setting up conv5_2
I0103 23:47:20.018606  2153 net.cpp:157] Top shape: 1 512 14 14 (100352)
I0103 23:47:20.018610  2153 net.cpp:165] Memory required for data: 67405184
I0103 23:47:20.018616  2153 layer_factory.hpp:77] Creating layer relu5_2
I0103 23:47:20.018623  2153 net.cpp:106] Creating Layer relu5_2
I0103 23:47:20.018626  2153 net.cpp:454] relu5_2 <- conv5_2
I0103 23:47:20.018633  2153 net.cpp:397] relu5_2 -> conv5_2 (in-place)
I0103 23:47:20.018842  2153 net.cpp:150] Setting up relu5_2
I0103 23:47:20.018853  2153 net.cpp:157] Top shape: 1 512 14 14 (100352)
I0103 23:47:20.018857  2153 net.cpp:165] Memory required for data: 67806592
I0103 23:47:20.018859  2153 layer_factory.hpp:77] Creating layer conv5_3
I0103 23:47:20.018869  2153 net.cpp:106] Creating Layer conv5_3
I0103 23:47:20.018872  2153 net.cpp:454] conv5_3 <- conv5_2
I0103 23:47:20.018879  2153 net.cpp:411] conv5_3 -> conv5_3
I0103 23:47:20.027711  2153 net.cpp:150] Setting up conv5_3
I0103 23:47:20.027729  2153 net.cpp:157] Top shape: 1 512 14 14 (100352)
I0103 23:47:20.027734  2153 net.cpp:165] Memory required for data: 68208000
I0103 23:47:20.027740  2153 layer_factory.hpp:77] Creating layer relu5_3
I0103 23:47:20.027746  2153 net.cpp:106] Creating Layer relu5_3
I0103 23:47:20.027750  2153 net.cpp:454] relu5_3 <- conv5_3
I0103 23:47:20.027755  2153 net.cpp:397] relu5_3 -> conv5_3 (in-place)
I0103 23:47:20.029297  2153 net.cpp:150] Setting up relu5_3
I0103 23:47:20.029312  2153 net.cpp:157] Top shape: 1 512 14 14 (100352)
I0103 23:47:20.029316  2153 net.cpp:165] Memory required for data: 68609408
I0103 23:47:20.029320  2153 layer_factory.hpp:77] Creating layer conv5_3_relu5_3_0_split
I0103 23:47:20.029326  2153 net.cpp:106] Creating Layer conv5_3_relu5_3_0_split
I0103 23:47:20.029330  2153 net.cpp:454] conv5_3_relu5_3_0_split <- conv5_3
I0103 23:47:20.029337  2153 net.cpp:411] conv5_3_relu5_3_0_split -> conv5_3_relu5_3_0_split_0
I0103 23:47:20.029345  2153 net.cpp:411] conv5_3_relu5_3_0_split -> conv5_3_relu5_3_0_split_1
I0103 23:47:20.029436  2153 net.cpp:150] Setting up conv5_3_relu5_3_0_split
I0103 23:47:20.029446  2153 net.cpp:157] Top shape: 1 512 14 14 (100352)
I0103 23:47:20.029450  2153 net.cpp:157] Top shape: 1 512 14 14 (100352)
I0103 23:47:20.029453  2153 net.cpp:165] Memory required for data: 69412224
I0103 23:47:20.029456  2153 layer_factory.hpp:77] Creating layer rpn_conv/3x3
I0103 23:47:20.029467  2153 net.cpp:106] Creating Layer rpn_conv/3x3
I0103 23:47:20.029471  2153 net.cpp:454] rpn_conv/3x3 <- conv5_3_relu5_3_0_split_0
I0103 23:47:20.029479  2153 net.cpp:411] rpn_conv/3x3 -> rpn/output
I0103 23:47:20.065193  2153 net.cpp:150] Setting up rpn_conv/3x3
I0103 23:47:20.065214  2153 net.cpp:157] Top shape: 1 512 14 14 (100352)
I0103 23:47:20.065224  2153 net.cpp:165] Memory required for data: 69813632
I0103 23:47:20.065232  2153 layer_factory.hpp:77] Creating layer rpn_relu/3x3
I0103 23:47:20.065248  2153 net.cpp:106] Creating Layer rpn_relu/3x3
I0103 23:47:20.065251  2153 net.cpp:454] rpn_relu/3x3 <- rpn/output
I0103 23:47:20.065256  2153 net.cpp:397] rpn_relu/3x3 -> rpn/output (in-place)
I0103 23:47:20.065490  2153 net.cpp:150] Setting up rpn_relu/3x3
I0103 23:47:20.065502  2153 net.cpp:157] Top shape: 1 512 14 14 (100352)
I0103 23:47:20.065505  2153 net.cpp:165] Memory required for data: 70215040
I0103 23:47:20.065508  2153 layer_factory.hpp:77] Creating layer rpn/output_rpn_relu/3x3_0_split
I0103 23:47:20.065515  2153 net.cpp:106] Creating Layer rpn/output_rpn_relu/3x3_0_split
I0103 23:47:20.065520  2153 net.cpp:454] rpn/output_rpn_relu/3x3_0_split <- rpn/output
I0103 23:47:20.065524  2153 net.cpp:411] rpn/output_rpn_relu/3x3_0_split -> rpn/output_rpn_relu/3x3_0_split_0
I0103 23:47:20.065531  2153 net.cpp:411] rpn/output_rpn_relu/3x3_0_split -> rpn/output_rpn_relu/3x3_0_split_1
I0103 23:47:20.065613  2153 net.cpp:150] Setting up rpn/output_rpn_relu/3x3_0_split
I0103 23:47:20.065623  2153 net.cpp:157] Top shape: 1 512 14 14 (100352)
I0103 23:47:20.065626  2153 net.cpp:157] Top shape: 1 512 14 14 (100352)
I0103 23:47:20.065629  2153 net.cpp:165] Memory required for data: 71017856
I0103 23:47:20.065632  2153 layer_factory.hpp:77] Creating layer rpn_cls_score
I0103 23:47:20.065644  2153 net.cpp:106] Creating Layer rpn_cls_score
I0103 23:47:20.065649  2153 net.cpp:454] rpn_cls_score <- rpn/output_rpn_relu/3x3_0_split_0
I0103 23:47:20.065663  2153 net.cpp:411] rpn_cls_score -> rpn_cls_score
I0103 23:47:20.068284  2153 net.cpp:150] Setting up rpn_cls_score
I0103 23:47:20.068300  2153 net.cpp:157] Top shape: 1 18 14 14 (3528)
I0103 23:47:20.068310  2153 net.cpp:165] Memory required for data: 71031968
I0103 23:47:20.068316  2153 layer_factory.hpp:77] Creating layer rpn_bbox_pred
I0103 23:47:20.068327  2153 net.cpp:106] Creating Layer rpn_bbox_pred
I0103 23:47:20.068331  2153 net.cpp:454] rpn_bbox_pred <- rpn/output_rpn_relu/3x3_0_split_1
I0103 23:47:20.068339  2153 net.cpp:411] rpn_bbox_pred -> rpn_bbox_pred
I0103 23:47:20.071077  2153 net.cpp:150] Setting up rpn_bbox_pred
I0103 23:47:20.071094  2153 net.cpp:157] Top shape: 1 36 14 14 (7056)
I0103 23:47:20.071096  2153 net.cpp:165] Memory required for data: 71060192
I0103 23:47:20.071104  2153 layer_factory.hpp:77] Creating layer rpn_cls_score_reshape
I0103 23:47:20.071117  2153 net.cpp:106] Creating Layer rpn_cls_score_reshape
I0103 23:47:20.071121  2153 net.cpp:454] rpn_cls_score_reshape <- rpn_cls_score
I0103 23:47:20.071130  2153 net.cpp:411] rpn_cls_score_reshape -> rpn_cls_score_reshape
I0103 23:47:20.071194  2153 net.cpp:150] Setting up rpn_cls_score_reshape
I0103 23:47:20.071203  2153 net.cpp:157] Top shape: 1 2 126 14 (3528)
I0103 23:47:20.071207  2153 net.cpp:165] Memory required for data: 71074304
I0103 23:47:20.071209  2153 layer_factory.hpp:77] Creating layer rpn_cls_prob
I0103 23:47:20.071218  2153 net.cpp:106] Creating Layer rpn_cls_prob
I0103 23:47:20.071220  2153 net.cpp:454] rpn_cls_prob <- rpn_cls_score_reshape
I0103 23:47:20.071226  2153 net.cpp:411] rpn_cls_prob -> rpn_cls_prob
I0103 23:47:20.071554  2153 net.cpp:150] Setting up rpn_cls_prob
I0103 23:47:20.071566  2153 net.cpp:157] Top shape: 1 2 126 14 (3528)
I0103 23:47:20.071569  2153 net.cpp:165] Memory required for data: 71088416
I0103 23:47:20.071579  2153 layer_factory.hpp:77] Creating layer rpn_cls_prob_reshape
I0103 23:47:20.071588  2153 net.cpp:106] Creating Layer rpn_cls_prob_reshape
I0103 23:47:20.071590  2153 net.cpp:454] rpn_cls_prob_reshape <- rpn_cls_prob
I0103 23:47:20.071600  2153 net.cpp:411] rpn_cls_prob_reshape -> rpn_cls_prob_reshape
I0103 23:47:20.071647  2153 net.cpp:150] Setting up rpn_cls_prob_reshape
I0103 23:47:20.071656  2153 net.cpp:157] Top shape: 1 18 14 14 (3528)
I0103 23:47:20.071658  2153 net.cpp:165] Memory required for data: 71102528
I0103 23:47:20.071661  2153 layer_factory.hpp:77] Creating layer proposal
I0103 23:47:20.161851  2153 net.cpp:106] Creating Layer proposal
I0103 23:47:20.161897  2153 net.cpp:454] proposal <- rpn_cls_prob_reshape
I0103 23:47:20.161909  2153 net.cpp:454] proposal <- rpn_bbox_pred
I0103 23:47:20.161917  2153 net.cpp:454] proposal <- im_info
I0103 23:47:20.161929  2153 net.cpp:411] proposal -> rois
I0103 23:47:20.164011  2153 net.cpp:150] Setting up proposal
I0103 23:47:20.164052  2153 net.cpp:157] Top shape: 1 5 (5)
I0103 23:47:20.164057  2153 net.cpp:165] Memory required for data: 71102548
I0103 23:47:20.164063  2153 layer_factory.hpp:77] Creating layer roi_pool5
I0103 23:47:20.164091  2153 net.cpp:106] Creating Layer roi_pool5
I0103 23:47:20.164098  2153 net.cpp:454] roi_pool5 <- conv5_3_relu5_3_0_split_1
I0103 23:47:20.164106  2153 net.cpp:454] roi_pool5 <- rois
I0103 23:47:20.164125  2153 net.cpp:411] roi_pool5 -> pool5
I0103 23:47:20.164145  2153 roi_pooling_layer.cpp:30] Spatial scale: 0.0625
I0103 23:47:20.164289  2153 net.cpp:150] Setting up roi_pool5
I0103 23:47:20.164304  2153 net.cpp:157] Top shape: 1 512 7 7 (25088)
I0103 23:47:20.164309  2153 net.cpp:165] Memory required for data: 71202900
I0103 23:47:20.164314  2153 layer_factory.hpp:77] Creating layer fc6
I0103 23:47:20.164333  2153 net.cpp:106] Creating Layer fc6
I0103 23:47:20.164342  2153 net.cpp:454] fc6 <- pool5
I0103 23:47:20.164351  2153 net.cpp:411] fc6 -> fc6
I0103 23:47:20.483785  2153 net.cpp:150] Setting up fc6
I0103 23:47:20.483835  2153 net.cpp:157] Top shape: 1 4096 (4096)
I0103 23:47:20.483839  2153 net.cpp:165] Memory required for data: 71219284
I0103 23:47:20.483865  2153 layer_factory.hpp:77] Creating layer relu6
I0103 23:47:20.483881  2153 net.cpp:106] Creating Layer relu6
I0103 23:47:20.483886  2153 net.cpp:454] relu6 <- fc6
I0103 23:47:20.483898  2153 net.cpp:397] relu6 -> fc6 (in-place)
I0103 23:47:20.485038  2153 net.cpp:150] Setting up relu6
I0103 23:47:20.485054  2153 net.cpp:157] Top shape: 1 4096 (4096)
I0103 23:47:20.485057  2153 net.cpp:165] Memory required for data: 71235668
I0103 23:47:20.485060  2153 layer_factory.hpp:77] Creating layer drop6
I0103 23:47:20.485077  2153 net.cpp:106] Creating Layer drop6
I0103 23:47:20.485081  2153 net.cpp:454] drop6 <- fc6
I0103 23:47:20.485090  2153 net.cpp:397] drop6 -> fc6 (in-place)
I0103 23:47:20.485146  2153 net.cpp:150] Setting up drop6
I0103 23:47:20.485154  2153 net.cpp:157] Top shape: 1 4096 (4096)
I0103 23:47:20.485157  2153 net.cpp:165] Memory required for data: 71252052
I0103 23:47:20.485160  2153 layer_factory.hpp:77] Creating layer fc7
I0103 23:47:20.485170  2153 net.cpp:106] Creating Layer fc7
I0103 23:47:20.485174  2153 net.cpp:454] fc7 <- fc6
I0103 23:47:20.485179  2153 net.cpp:411] fc7 -> fc7
I0103 23:47:20.532239  2153 net.cpp:150] Setting up fc7
I0103 23:47:20.532295  2153 net.cpp:157] Top shape: 1 4096 (4096)
I0103 23:47:20.532300  2153 net.cpp:165] Memory required for data: 71268436
I0103 23:47:20.532313  2153 layer_factory.hpp:77] Creating layer relu7
I0103 23:47:20.532328  2153 net.cpp:106] Creating Layer relu7
I0103 23:47:20.532332  2153 net.cpp:454] relu7 <- fc7
I0103 23:47:20.532341  2153 net.cpp:397] relu7 -> fc7 (in-place)
I0103 23:47:20.532665  2153 net.cpp:150] Setting up relu7
I0103 23:47:20.532678  2153 net.cpp:157] Top shape: 1 4096 (4096)
I0103 23:47:20.532680  2153 net.cpp:165] Memory required for data: 71284820
I0103 23:47:20.532685  2153 layer_factory.hpp:77] Creating layer drop7
I0103 23:47:20.532692  2153 net.cpp:106] Creating Layer drop7
I0103 23:47:20.532696  2153 net.cpp:454] drop7 <- fc7
I0103 23:47:20.532701  2153 net.cpp:397] drop7 -> fc7 (in-place)
I0103 23:47:20.532749  2153 net.cpp:150] Setting up drop7
I0103 23:47:20.532757  2153 net.cpp:157] Top shape: 1 4096 (4096)
I0103 23:47:20.532760  2153 net.cpp:165] Memory required for data: 71301204
I0103 23:47:20.532763  2153 layer_factory.hpp:77] Creating layer fc7_drop7_0_split
I0103 23:47:20.532770  2153 net.cpp:106] Creating Layer fc7_drop7_0_split
I0103 23:47:20.532773  2153 net.cpp:454] fc7_drop7_0_split <- fc7
I0103 23:47:20.532779  2153 net.cpp:411] fc7_drop7_0_split -> fc7_drop7_0_split_0
I0103 23:47:20.532786  2153 net.cpp:411] fc7_drop7_0_split -> fc7_drop7_0_split_1
I0103 23:47:20.532868  2153 net.cpp:150] Setting up fc7_drop7_0_split
I0103 23:47:20.532876  2153 net.cpp:157] Top shape: 1 4096 (4096)
I0103 23:47:20.532881  2153 net.cpp:157] Top shape: 1 4096 (4096)
I0103 23:47:20.532882  2153 net.cpp:165] Memory required for data: 71333972
I0103 23:47:20.532886  2153 layer_factory.hpp:77] Creating layer cls_score
I0103 23:47:20.532896  2153 net.cpp:106] Creating Layer cls_score
I0103 23:47:20.532899  2153 net.cpp:454] cls_score <- fc7_drop7_0_split_0
I0103 23:47:20.532905  2153 net.cpp:411] cls_score -> cls_score
I0103 23:47:20.535403  2153 net.cpp:150] Setting up cls_score
I0103 23:47:20.535419  2153 net.cpp:157] Top shape: 1 21 (21)
I0103 23:47:20.535423  2153 net.cpp:165] Memory required for data: 71334056
I0103 23:47:20.535429  2153 layer_factory.hpp:77] Creating layer bbox_pred
I0103 23:47:20.535454  2153 net.cpp:106] Creating Layer bbox_pred
I0103 23:47:20.535459  2153 net.cpp:454] bbox_pred <- fc7_drop7_0_split_1
I0103 23:47:20.535466  2153 net.cpp:411] bbox_pred -> bbox_pred
I0103 23:47:20.541080  2153 net.cpp:150] Setting up bbox_pred
I0103 23:47:20.541095  2153 net.cpp:157] Top shape: 1 84 (84)
I0103 23:47:20.541098  2153 net.cpp:165] Memory required for data: 71334392
I0103 23:47:20.541105  2153 layer_factory.hpp:77] Creating layer cls_prob
I0103 23:47:20.541115  2153 net.cpp:106] Creating Layer cls_prob
I0103 23:47:20.541121  2153 net.cpp:454] cls_prob <- cls_score
I0103 23:47:20.541126  2153 net.cpp:411] cls_prob -> cls_prob
I0103 23:47:20.542207  2153 net.cpp:150] Setting up cls_prob
I0103 23:47:20.542222  2153 net.cpp:157] Top shape: 1 21 (21)
I0103 23:47:20.542224  2153 net.cpp:165] Memory required for data: 71334476
I0103 23:47:20.542228  2153 net.cpp:228] cls_prob does not need backward computation.
I0103 23:47:20.542232  2153 net.cpp:228] bbox_pred does not need backward computation.
I0103 23:47:20.542235  2153 net.cpp:228] cls_score does not need backward computation.
I0103 23:47:20.542240  2153 net.cpp:228] fc7_drop7_0_split does not need backward computation.
…
