…
snapshot_prefix: "vgg16_faster_rcnn"
average_loss: 100
iter_size: 2
I1116 01:23:28.337918 35505 solver.cpp:77] Creating training net from train_net file: models/pascal_voc/VGG16/faster_rcnn_end2end/train.prototxt
I1116 01:23:28.340495 35505 net.cpp:51] Initializing net from parameters: 
name: "VGG_ILSVRC_16_layers"
state {
  phase: TRAIN
}
layer {
  name: "input-data"
  type: "Python"
  top: "data"
  top: "im_info"
  top: "gt_boxes"
  python_param {
    module: "roi_data_layer.layer"
    layer: "RoIDataLayer"
    param_str: "\'num_classes\': 21"
  }
}
layer {
  name: "conv1_1"
  type: "Convolution"
  bottom: "data"
  top: "conv1_1"
  param {
    lr_mult: 0
    decay_mult: 0
  }
  param {
    lr_mult: 0
    decay_mult: 0
  }
  convolution_param {
    num_output: 64
    pad: 1
    kernel_size: 3
  }
}
layer {
  name: "relu1_1"
  type: "ReLU"
  bottom: "conv1_1"
  top: "conv1_1"
}
layer {
  name: "conv1_2"
  type: "Convolution"
  bottom: "conv1_1"
  top: "conv1_2"
  param {
    lr_mult: 0
    decay_mult: 0
  }
  param {
    lr_mult: 0
    decay_mult: 0
  }
  convolution_param {
    num_output: 64
    pad: 1
    kernel_size: 3
  }
}
layer {
  name: "relu1_2"
  type: "ReLU"
  bottom: "conv1_2"
  top: "conv1_2"
}
layer {
  name: "pool1"
  type: "Pooling"
  bottom: "conv1_2"
  top: "pool1"
  pooling_param {
    pool: MAX
    kernel_size: 2
    stride: 2
  }
}
layer {
  name: "conv2_1"
  type: "Convolution"
  bottom: "pool1"
  top: "conv2_1"
  param {
    lr_mult: 0
    decay_mult: 0
  }
  param {
    lr_mult: 0
    decay_mult: 0
  }
  convolution_param {
    num_output: 128
    pad: 1
    kernel_size: 3
  }
}
layer {
  name: "relu2_1"
  type: "ReLU"
  bottom: "conv2_1"
  top: "conv2_1"
}
layer {
  name: "conv2_2"
  type: "Convolution"
  bottom: "conv2_1"
  top: "conv2_2"
  param {
    lr_mult: 0
    decay_mult: 0
  }
  param {
    lr_mult: 0
    decay_mult: 0
  }
  convolution_param {
    num_output: 128
    pad: 1
    kernel_size: 3
  }
}
layer {
  name: "relu2_2"
  type: "ReLU"
  bottom: "conv2_2"
  top: "conv2_2"
}
layer {
  name: "pool2"
  type: "Pooling"
  bottom: "conv2_2"
  top: "pool2"
  pooling_param {
    pool: MAX
    kernel_size: 2
    stride: 2
  }
}
layer {
  name: "conv3_1"
  type: "Convolution"
  bottom: "pool2"
  top: "conv3_1"
  param {
    lr_mult: 1
  }
  param {
    lr_mult: 2
  }
  convolution_param {
    num_output: 256
    pad: 1
    kernel_size: 3
  }
}
layer {
  name: "relu3_1"
  type: "ReLU"
  bottom: "conv3_1"
  top: "conv3_1"
}
layer {
  name: "conv3_2"
  type: "Convolution"
  bottom: "conv3_1"
  top: "conv3_2"
  param {
    lr_mult: 1
  }
  param {
    lr_mult: 2
  }
  convolution_param {
    num_output: 256
    pad: 1
    kernel_size: 3
  }
}
layer {
  name: "relu3_2"
  type: "ReLU"
  bottom: "conv3_2"
  top: "conv3_2"
}
layer {
  name: "conv3_3"
  type: "Convolution"
  bottom: "conv3_2"
  top: "conv3_3"
  param {
    lr_mult: 1
  }
  param {
    lr_mult: 2
  }
  convolution_param {
    num_output: 256
    pad: 1
    kernel_size: 3
  }
}
layer {
  name: "relu3_3"
  type: "ReLU"
  bottom: "conv3_3"
  top: "conv3_3"
}
layer {
  name: "pool3"
  type: "Pooling"
  bottom: "conv3_3"
  top: "pool3"
  pooling_param {
    pool: MAX
    kernel_size: 2
    stride: 2
  }
}
layer {
  name: "conv4_1"
  type: "Convolution"
  bottom: "pool3"
  top: "conv4_1"
  param {
    lr_mult: 1
  }
  param {
    lr_mult: 2
  }
  convolution_param {
    num_output: 512
    pad: 1
    kernel_size: 3
  }
}
layer {
  name: "relu4_1"
  type: "ReLU"
  bottom: "conv4_1"
  top: "conv4_1"
}
layer {
  name: "conv4_2"
  type: "Convolution"
  bottom: "conv4_1"
  top: "conv4_2"
  param {
    lr_mult: 1
  }
  param {
    lr_mult: 2
  }
  convolution_param {
    num_output: 512
    pad: 1
    kernel_size: 3
  }
}
layer {
  name: "relu4_2"
  type: "ReLU"
  bottom: "conv4_2"
  top: "conv4_2"
}
layer {
  name: "conv4_3"
  type: "Convolution"
  bottom: "conv4_2"
  top: "conv4_3"
  param {
    lr_mult: 1
  }
  param {
    lr_mult: 2
  }
  convolution_param {
    num_output: 512
    pad: 1
    kernel_size: 3
  }
}
layer {
  name: "relu4_3"
  type: "ReLU"
  bottom: "conv4_3"
  top: "conv4_3"
}
layer {
  name: "pool4"
  type: "Pooling"
  bottom: "conv4_3"
  top: "pool4"
  pooling_param {
    pool: MAX
    kernel_size: 2
    stride: 2
  }
}
layer {
  name: "conv5_1"
  type: "Convolution"
  bottom: "pool4"
  top: "conv5_1"
  param {
    lr_mult: 1
  }
  param {
    lr_mult: 2
  }
  convolution_param {
    num_output: 512
    pad: 1
    kernel_size: 3
  }
}
layer {
  name: "relu5_1"
  type: "ReLU"
  bottom: "conv5_1"
  top: "conv5_1"
}
layer {
  name: "conv5_2"
  type: "Convolution"
  bottom: "conv5_1"
  top: "conv5_2"
  param {
    lr_mult: 1
  }
  param {
    lr_mult: 2
  }
  convolution_param {
    num_output: 512
    pad: 1
    kernel_size: 3
  }
}
layer {
  name: "relu5_2"
  type: "ReLU"
  bottom: "conv5_2"
  top: "conv5_2"
}
layer {
  name: "conv5_3"
  type: "Convolution"
  bottom: "conv5_2"
  top: "conv5_3"
  param {
    lr_mult: 1
  }
  param {
    lr_mult: 2
  }
  convolution_param {
    num_output: 512
    pad: 1
    kernel_size: 3
  }
}
layer {
  name: "relu5_3"
  type: "ReLU"
  bottom: "conv5_3"
  top: "conv5_3"
}
layer {
  name: "rpn_conv/3x3"
  type: "Convolution"
  bottom: "conv5_3"
  top: "rpn/output"
  param {
    lr_mult: 1
  }
  param {
    lr_mult: 2
  }
  convolution_param {
    num_output: 512
    pad: 1
    kernel_size: 3
    stride: 1
    weight_filler {
      type: "gaussian"
      std: 0.01
    }
    bias_filler {
      type: "constant"
      value: 0
    }
  }
}
layer {
  name: "rpn_relu/3x3"
  type: "ReLU"
  bottom: "rpn/output"
  top: "rpn/output"
}
layer {
  name: "rpn_cls_score"
  type: "Convolution"
  bottom: "rpn/output"
  top: "rpn_cls_score"
  param {
    lr_mult: 1
  }
  param {
    lr_mult: 2
  }
  convolution_param {
    num_output: 18
    pad: 0
    kernel_size: 1
    stride: 1
    weight_filler {
      type: "gaussian"
      std: 0.01
    }
    bias_filler {
      type: "constant"
      value: 0
    }
  }
}
layer {
  name: "rpn_bbox_pred"
  type: "Convolution"
  bottom: "rpn/output"
  top: "rpn_bbox_pred"
  param {
    lr_mult: 1
  }
  param {
    lr_mult: 2
  }
  convolution_param {
    num_output: 36
    pad: 0
    kernel_size: 1
    stride: 1
    weight_filler {
      type: "gaussian"
      std: 0.01
    }
    bias_filler {
      type: "constant"
      value: 0
    }
  }
}
layer {
  name: "rpn_cls_score_reshape"
  type: "Reshape"
  bottom: "rpn_cls_score"
  top: "rpn_cls_score_reshape"
  reshape_param {
    shape {
      dim: 0
      dim: 2
      dim: -1
      dim: 0
    }
  }
}
layer {
  name: "rpn-data"
  type: "Python"
  bottom: "rpn_cls_score"
  bottom: "gt_boxes"
  bottom: "im_info"
  bottom: "data"
  top: "rpn_labels"
  top: "rpn_bbox_targets"
  top: "rpn_bbox_inside_weights"
  top: "rpn_bbox_outside_weights"
  python_param {
    module: "rpn.anchor_target_layer"
    layer: "AnchorTargetLayer"
    param_str: "\'feat_stride\': 16"
  }
}
layer {
  name: "rpn_loss_cls"
  type: "SoftmaxWithLoss"
  bottom: "rpn_cls_score_reshape"
  bottom: "rpn_labels"
  top: "rpn_cls_loss"
  loss_weight: 1
  propagate_down: true
  propagate_down: false
  loss_param {
    ignore_label: -1
    normalize: true
  }
}
layer {
  name: "rpn_loss_bbox"
  type: "SmoothL1Loss"
  bottom: "rpn_bbox_pred"
  bottom: "rpn_bbox_targets"
  bottom: "rpn_bbox_inside_weights"
  bottom: "rpn_bbox_outside_weights"
  top: "rpn_loss_bbox"
  loss_weight: 1
  smooth_l1_loss_param {
    sigma: 3
  }
}
layer {
  name: "rpn_cls_prob"
  type: "Softmax"
  bottom: "rpn_cls_score_reshape"
  top: "rpn_cls_prob"
}
layer {
  name: "rpn_cls_prob_reshape"
  type: "Reshape"
  bottom: "rpn_cls_prob"
  top: "rpn_cls_prob_reshape"
  reshape_param {
    shape {
      dim: 0
      dim: 18
      dim: -1
      dim: 0
    }
  }
}
layer {
  name: "proposal"
  type: "Python"
  bottom: "rpn_cls_prob_reshape"
  bottom: "rpn_bbox_pred"
  bottom: "im_info"
  top: "rpn_rois"
  python_param {
    module: "rpn.proposal_layer"
    layer: "ProposalLayer"
    param_str: "\'feat_stride\': 16"
  }
}
layer {
  name: "roi-data"
  type: "Python"
  bottom: "rpn_rois"
  bottom: "gt_boxes"
  top: "rois"
  top: "labels"
  top: "bbox_targets"
  top: "bbox_inside_weights"
  top: "bbox_outside_weights"
  python_param {
    module: "rpn.proposal_target_layer"
    layer: "ProposalTargetLayer"
    param_str: "\'num_classes\': 21"
  }
}
layer {
  name: "roi_pool5"
  type: "ROIPooling"
  bottom: "conv5_3"
  bottom: "rois"
  top: "pool5"
  roi_pooling_param {
    pooled_h: 7
    pooled_w: 7
    spatial_scale: 0.0625
  }
}
layer {
  name: "fc6"
  type: "InnerProduct"
  bottom: "pool5"
  top: "fc6"
  param {
    lr_mult: 1
  }
  param {
    lr_mult: 2
  }
  inner_product_param {
    num_output: 4096
  }
}
layer {
  name: "relu6"
  type: "ReLU"
  bottom: "fc6"
  top: "fc6"
}
layer {
  name: "drop6"
  type: "Dropout"
  bottom: "fc6"
  top: "fc6"
  dropout_param {
    dropout_ratio: 0.5
  }
}
layer {
  name: "fc7"
  type: "InnerProduct"
  bottom: "fc6"
  top: "fc7"
  param {
    lr_mult: 1
  }
  param {
    lr_mult: 2
  }
  inner_product_param {
    num_output: 4096
  }
}
layer {
  name: "relu7"
  type: "ReLU"
  bottom: "fc7"
  top: "fc7"
}
layer {
  name: "drop7"
  type: "Dropout"
  bottom: "fc7"
  top: "fc7"
  dropout_param {
    dropout_ratio: 0.5
  }
}
layer {
  name: "cls_score"
  type: "InnerProduct"
  bottom: "fc7"
  top: "cls_score"
  param {
    lr_mult: 1
  }
  param {
    lr_mult: 2
  }
  inner_product_param {
    num_output: 21
    weight_filler {
      type: "gaussian"
      std: 0.01
    }
    bias_filler {
      type: "constant"
      value: 0
    }
  }
}
layer {
  name: "bbox_pred"
  type: "InnerProduct"
  bottom: "fc7"
  top: "bbox_pred"
  param {
    lr_mult: 1
  }
  param {
    lr_mult: 2
  }
  inner_product_param {
    num_output: 84
    weight_filler {
      type: "gaussian"
      std: 0.001
    }
    bias_filler {
      type: "constant"
      value: 0
    }
  }
}
layer {
  name: "loss_cls"
  type: "SoftmaxWithLoss"
  bottom: "cls_score"
  bottom: "labels"
  top: "loss_cls"
  loss_weight: 1
  propagate_down: true
  propagate_down: false
}
layer {
  name: "loss_bbox"
  type: "SmoothL1Loss"
  bottom: "bbox_pred"
  bottom: "bbox_targets"
  bottom: "bbox_inside_weights"
  bottom: "bbox_outside_weights"
  top: "loss_bbox"
  loss_weight: 1
}
I1116 01:23:28.340874 35505 layer_factory.hpp:77] Creating layer input-data
I1116 01:23:28.599351 35505 net.cpp:84] Creating Layer input-data
I1116 01:23:28.599624 35505 net.cpp:380] input-data -> data
I1116 01:23:28.599661 35505 net.cpp:380] input-data -> im_info
I1116 01:23:28.599676 35505 net.cpp:380] input-data -> gt_boxes
RoiDataLayer: name_to_top: {'gt_boxes': 2, 'data': 0, 'im_info': 1}
I1116 01:23:28.607174 35505 net.cpp:122] Setting up input-data
I1116 01:23:28.607209 35505 net.cpp:129] Top shape: 1 3 600 1000 (1800000)
I1116 01:23:28.607220 35505 net.cpp:129] Top shape: 1 3 (3)
I1116 01:23:28.607228 35505 net.cpp:129] Top shape: 1 4 (4)
I1116 01:23:28.607234 35505 net.cpp:137] Memory required for data: 7200028
I1116 01:23:28.607323 35505 layer_factory.hpp:77] Creating layer data_input-data_0_split
I1116 01:23:28.607344 35505 net.cpp:84] Creating Layer data_input-data_0_split
I1116 01:23:28.607352 35505 net.cpp:406] data_input-data_0_split <- data
I1116 01:23:28.607367 35505 net.cpp:380] data_input-data_0_split -> data_input-data_0_split_0
I1116 01:23:28.607698 35505 net.cpp:380] data_input-data_0_split -> data_input-data_0_split_1
I1116 01:23:28.608204 35505 net.cpp:122] Setting up data_input-data_0_split
I1116 01:23:28.608234 35505 net.cpp:129] Top shape: 1 3 600 1000 (1800000)
I1116 01:23:28.608564 35505 net.cpp:129] Top shape: 1 3 600 1000 (1800000)
I1116 01:23:28.608577 35505 net.cpp:137] Memory required for data: 21600028
I1116 01:23:28.608585 35505 layer_factory.hpp:77] Creating layer im_info_input-data_1_split
I1116 01:23:28.608600 35505 net.cpp:84] Creating Layer im_info_input-data_1_split
I1116 01:23:28.608608 35505 net.cpp:406] im_info_input-data_1_split <- im_info
I1116 01:23:28.608620 35505 net.cpp:380] im_info_input-data_1_split -> im_info_input-data_1_split_0
I1116 01:23:28.608636 35505 net.cpp:380] im_info_input-data_1_split -> im_info_input-data_1_split_1
I1116 01:23:28.609027 35505 net.cpp:122] Setting up im_info_input-data_1_split
I1116 01:23:28.609362 35505 net.cpp:129] Top shape: 1 3 (3)
I1116 01:23:28.609377 35505 net.cpp:129] Top shape: 1 3 (3)
I1116 01:23:28.609383 35505 net.cpp:137] Memory required for data: 21600052
I1116 01:23:28.609390 35505 layer_factory.hpp:77] Creating layer gt_boxes_input-data_2_split
I1116 01:23:28.609410 35505 net.cpp:84] Creating Layer gt_boxes_input-data_2_split
I1116 01:23:28.609417 35505 net.cpp:406] gt_boxes_input-data_2_split <- gt_boxes
I1116 01:23:28.609431 35505 net.cpp:380] gt_boxes_input-data_2_split -> gt_boxes_input-data_2_split_0
I1116 01:23:28.609447 35505 net.cpp:380] gt_boxes_input-data_2_split -> gt_boxes_input-data_2_split_1
I1116 01:23:28.609581 35505 net.cpp:122] Setting up gt_boxes_input-data_2_split
I1116 01:23:28.609596 35505 net.cpp:129] Top shape: 1 4 (4)
I1116 01:23:28.609604 35505 net.cpp:129] Top shape: 1 4 (4)
I1116 01:23:28.609611 35505 net.cpp:137] Memory required for data: 21600084
I1116 01:23:28.609617 35505 layer_factory.hpp:77] Creating layer conv1_1
I1116 01:23:28.609772 35505 net.cpp:84] Creating Layer conv1_1
I1116 01:23:28.609781 35505 net.cpp:406] conv1_1 <- data_input-data_0_split_0
I1116 01:23:28.609796 35505 net.cpp:380] conv1_1 -> conv1_1
I1116 01:23:29.420928 35505 net.cpp:122] Setting up conv1_1
I1116 01:23:29.420969 35505 net.cpp:129] Top shape: 1 64 600 1000 (38400000)
I1116 01:23:29.420972 35505 net.cpp:137] Memory required for data: 175200084
I1116 01:23:29.420995 35505 layer_factory.hpp:77] Creating layer relu1_1
I1116 01:23:29.421007 35505 net.cpp:84] Creating Layer relu1_1
I1116 01:23:29.421013 35505 net.cpp:406] relu1_1 <- conv1_1
I1116 01:23:29.421020 35505 net.cpp:367] relu1_1 -> conv1_1 (in-place)
I1116 01:23:29.421259 35505 net.cpp:122] Setting up relu1_1
I1116 01:23:29.421268 35505 net.cpp:129] Top shape: 1 64 600 1000 (38400000)
I1116 01:23:29.421272 35505 net.cpp:137] Memory required for data: 328800084
I1116 01:23:29.421275 35505 layer_factory.hpp:77] Creating layer conv1_2
I1116 01:23:29.421285 35505 net.cpp:84] Creating Layer conv1_2
I1116 01:23:29.421289 35505 net.cpp:406] conv1_2 <- conv1_1
I1116 01:23:29.421298 35505 net.cpp:380] conv1_2 -> conv1_2
I1116 01:23:29.428504 35505 net.cpp:122] Setting up conv1_2
I1116 01:23:29.428524 35505 net.cpp:129] Top shape: 1 64 600 1000 (38400000)
I1116 01:23:29.428526 35505 net.cpp:137] Memory required for data: 482400084
I1116 01:23:29.428539 35505 layer_factory.hpp:77] Creating layer relu1_2
I1116 01:23:29.428544 35505 net.cpp:84] Creating Layer relu1_2
I1116 01:23:29.428547 35505 net.cpp:406] relu1_2 <- conv1_2
I1116 01:23:29.428553 35505 net.cpp:367] relu1_2 -> conv1_2 (in-place)
I1116 01:23:29.428771 35505 net.cpp:122] Setting up relu1_2
I1116 01:23:29.428779 35505 net.cpp:129] Top shape: 1 64 600 1000 (38400000)
I1116 01:23:29.428782 35505 net.cpp:137] Memory required for data: 636000084
I1116 01:23:29.428786 35505 layer_factory.hpp:77] Creating layer pool1
I1116 01:23:29.428798 35505 net.cpp:84] Creating Layer pool1
I1116 01:23:29.428802 35505 net.cpp:406] pool1 <- conv1_2
I1116 01:23:29.428807 35505 net.cpp:380] pool1 -> pool1
I1116 01:23:29.428876 35505 net.cpp:122] Setting up pool1
I1116 01:23:29.428881 35505 net.cpp:129] Top shape: 1 64 300 500 (9600000)
I1116 01:23:29.428884 35505 net.cpp:137] Memory required for data: 674400084
I1116 01:23:29.428887 35505 layer_factory.hpp:77] Creating layer conv2_1
I1116 01:23:29.428895 35505 net.cpp:84] Creating Layer conv2_1
I1116 01:23:29.428899 35505 net.cpp:406] conv2_1 <- pool1
I1116 01:23:29.428905 35505 net.cpp:380] conv2_1 -> conv2_1
I1116 01:23:29.434036 35505 net.cpp:122] Setting up conv2_1
I1116 01:23:29.434053 35505 net.cpp:129] Top shape: 1 128 300 500 (19200000)
I1116 01:23:29.434057 35505 net.cpp:137] Memory required for data: 751200084
I1116 01:23:29.434067 35505 layer_factory.hpp:77] Creating layer relu2_1
I1116 01:23:29.434074 35505 net.cpp:84] Creating Layer relu2_1
I1116 01:23:29.434078 35505 net.cpp:406] relu2_1 <- conv2_1
I1116 01:23:29.434084 35505 net.cpp:367] relu2_1 -> conv2_1 (in-place)
I1116 01:23:29.435014 35505 net.cpp:122] Setting up relu2_1
I1116 01:23:29.435029 35505 net.cpp:129] Top shape: 1 128 300 500 (19200000)
I1116 01:23:29.435032 35505 net.cpp:137] Memory required for data: 828000084
I1116 01:23:29.435039 35505 layer_factory.hpp:77] Creating layer conv2_2
I1116 01:23:29.435048 35505 net.cpp:84] Creating Layer conv2_2
I1116 01:23:29.435051 35505 net.cpp:406] conv2_2 <- conv2_1
I1116 01:23:29.435058 35505 net.cpp:380] conv2_2 -> conv2_2
I1116 01:23:29.437840 35505 net.cpp:122] Setting up conv2_2
I1116 01:23:29.437856 35505 net.cpp:129] Top shape: 1 128 300 500 (19200000)
I1116 01:23:29.437860 35505 net.cpp:137] Memory required for data: 904800084
I1116 01:23:29.437867 35505 layer_factory.hpp:77] Creating layer relu2_2
I1116 01:23:29.437873 35505 net.cpp:84] Creating Layer relu2_2
I1116 01:23:29.437877 35505 net.cpp:406] relu2_2 <- conv2_2
I1116 01:23:29.437882 35505 net.cpp:367] relu2_2 -> conv2_2 (in-place)
I1116 01:23:29.438097 35505 net.cpp:122] Setting up relu2_2
I1116 01:23:29.438104 35505 net.cpp:129] Top shape: 1 128 300 500 (19200000)
I1116 01:23:29.438107 35505 net.cpp:137] Memory required for data: 981600084
I1116 01:23:29.438110 35505 layer_factory.hpp:77] Creating layer pool2
I1116 01:23:29.438117 35505 net.cpp:84] Creating Layer pool2
I1116 01:23:29.438119 35505 net.cpp:406] pool2 <- conv2_2
I1116 01:23:29.438125 35505 net.cpp:380] pool2 -> pool2
I1116 01:23:29.438194 35505 net.cpp:122] Setting up pool2
I1116 01:23:29.438200 35505 net.cpp:129] Top shape: 1 128 150 250 (4800000)
I1116 01:23:29.438204 35505 net.cpp:137] Memory required for data: 1000800084
I1116 01:23:29.438205 35505 layer_factory.hpp:77] Creating layer conv3_1
I1116 01:23:29.438216 35505 net.cpp:84] Creating Layer conv3_1
I1116 01:23:29.438220 35505 net.cpp:406] conv3_1 <- pool2
I1116 01:23:29.438225 35505 net.cpp:380] conv3_1 -> conv3_1
I1116 01:23:29.443511 35505 net.cpp:122] Setting up conv3_1
I1116 01:23:29.443531 35505 net.cpp:129] Top shape: 1 256 150 250 (9600000)
I1116 01:23:29.443536 35505 net.cpp:137] Memory required for data: 1039200084
I1116 01:23:29.443549 35505 layer_factory.hpp:77] Creating layer relu3_1
I1116 01:23:29.443557 35505 net.cpp:84] Creating Layer relu3_1
I1116 01:23:29.443560 35505 net.cpp:406] relu3_1 <- conv3_1
I1116 01:23:29.443567 35505 net.cpp:367] relu3_1 -> conv3_1 (in-place)
I1116 01:23:29.443781 35505 net.cpp:122] Setting up relu3_1
I1116 01:23:29.443790 35505 net.cpp:129] Top shape: 1 256 150 250 (9600000)
I1116 01:23:29.443794 35505 net.cpp:137] Memory required for data: 1077600084
I1116 01:23:29.443796 35505 layer_factory.hpp:77] Creating layer conv3_2
I1116 01:23:29.443812 35505 net.cpp:84] Creating Layer conv3_2
I1116 01:23:29.443816 35505 net.cpp:406] conv3_2 <- conv3_1
I1116 01:23:29.443823 35505 net.cpp:380] conv3_2 -> conv3_2
I1116 01:23:29.449579 35505 net.cpp:122] Setting up conv3_2
I1116 01:23:29.449606 35505 net.cpp:129] Top shape: 1 256 150 250 (9600000)
I1116 01:23:29.449610 35505 net.cpp:137] Memory required for data: 1116000084
I1116 01:23:29.449620 35505 layer_factory.hpp:77] Creating layer relu3_2
I1116 01:23:29.449627 35505 net.cpp:84] Creating Layer relu3_2
I1116 01:23:29.449632 35505 net.cpp:406] relu3_2 <- conv3_2
I1116 01:23:29.449638 35505 net.cpp:367] relu3_2 -> conv3_2 (in-place)
I1116 01:23:29.450726 35505 net.cpp:122] Setting up relu3_2
I1116 01:23:29.450742 35505 net.cpp:129] Top shape: 1 256 150 250 (9600000)
I1116 01:23:29.450745 35505 net.cpp:137] Memory required for data: 1154400084
I1116 01:23:29.450749 35505 layer_factory.hpp:77] Creating layer conv3_3
I1116 01:23:29.450763 35505 net.cpp:84] Creating Layer conv3_3
I1116 01:23:29.450767 35505 net.cpp:406] conv3_3 <- conv3_2
I1116 01:23:29.450774 35505 net.cpp:380] conv3_3 -> conv3_3
I1116 01:23:29.456557 35505 net.cpp:122] Setting up conv3_3
I1116 01:23:29.456583 35505 net.cpp:129] Top shape: 1 256 150 250 (9600000)
I1116 01:23:29.456586 35505 net.cpp:137] Memory required for data: 1192800084
I1116 01:23:29.456595 35505 layer_factory.hpp:77] Creating layer relu3_3
I1116 01:23:29.456604 35505 net.cpp:84] Creating Layer relu3_3
I1116 01:23:29.456607 35505 net.cpp:406] relu3_3 <- conv3_3
I1116 01:23:29.456614 35505 net.cpp:367] relu3_3 -> conv3_3 (in-place)
I1116 01:23:29.456830 35505 net.cpp:122] Setting up relu3_3
I1116 01:23:29.456838 35505 net.cpp:129] Top shape: 1 256 150 250 (9600000)
I1116 01:23:29.456840 35505 net.cpp:137] Memory required for data: 1231200084
I1116 01:23:29.456843 35505 layer_factory.hpp:77] Creating layer pool3
I1116 01:23:29.456852 35505 net.cpp:84] Creating Layer pool3
I1116 01:23:29.456856 35505 net.cpp:406] pool3 <- conv3_3
I1116 01:23:29.456871 35505 net.cpp:380] pool3 -> pool3
I1116 01:23:29.456945 35505 net.cpp:122] Setting up pool3
I1116 01:23:29.456953 35505 net.cpp:129] Top shape: 1 256 75 125 (2400000)
I1116 01:23:29.456954 35505 net.cpp:137] Memory required for data: 1240800084
I1116 01:23:29.456957 35505 layer_factory.hpp:77] Creating layer conv4_1
I1116 01:23:29.456967 35505 net.cpp:84] Creating Layer conv4_1
I1116 01:23:29.456970 35505 net.cpp:406] conv4_1 <- pool3
I1116 01:23:29.456976 35505 net.cpp:380] conv4_1 -> conv4_1
I1116 01:23:29.469508 35505 net.cpp:122] Setting up conv4_1
I1116 01:23:29.469545 35505 net.cpp:129] Top shape: 1 512 75 125 (4800000)
I1116 01:23:29.469549 35505 net.cpp:137] Memory required for data: 1260000084
I1116 01:23:29.469564 35505 layer_factory.hpp:77] Creating layer relu4_1
I1116 01:23:29.469576 35505 net.cpp:84] Creating Layer relu4_1
I1116 01:23:29.469581 35505 net.cpp:406] relu4_1 <- conv4_1
I1116 01:23:29.469589 35505 net.cpp:367] relu4_1 -> conv4_1 (in-place)
I1116 01:23:29.469833 35505 net.cpp:122] Setting up relu4_1
I1116 01:23:29.469842 35505 net.cpp:129] Top shape: 1 512 75 125 (4800000)
I1116 01:23:29.469846 35505 net.cpp:137] Memory required for data: 1279200084
I1116 01:23:29.469849 35505 layer_factory.hpp:77] Creating layer conv4_2
I1116 01:23:29.469861 35505 net.cpp:84] Creating Layer conv4_2
I1116 01:23:29.469864 35505 net.cpp:406] conv4_2 <- conv4_1
I1116 01:23:29.469871 35505 net.cpp:380] conv4_2 -> conv4_2
I1116 01:23:29.481658 35505 net.cpp:122] Setting up conv4_2
I1116 01:23:29.481695 35505 net.cpp:129] Top shape: 1 512 75 125 (4800000)
I1116 01:23:29.481699 35505 net.cpp:137] Memory required for data: 1298400084
I1116 01:23:29.481716 35505 layer_factory.hpp:77] Creating layer relu4_2
I1116 01:23:29.481727 35505 net.cpp:84] Creating Layer relu4_2
I1116 01:23:29.481732 35505 net.cpp:406] relu4_2 <- conv4_2
I1116 01:23:29.481740 35505 net.cpp:367] relu4_2 -> conv4_2 (in-place)
I1116 01:23:29.481959 35505 net.cpp:122] Setting up relu4_2
I1116 01:23:29.481969 35505 net.cpp:129] Top shape: 1 512 75 125 (4800000)
I1116 01:23:29.481972 35505 net.cpp:137] Memory required for data: 1317600084
I1116 01:23:29.481976 35505 layer_factory.hpp:77] Creating layer conv4_3
I1116 01:23:29.481989 35505 net.cpp:84] Creating Layer conv4_3
I1116 01:23:29.481993 35505 net.cpp:406] conv4_3 <- conv4_2
I1116 01:23:29.481999 35505 net.cpp:380] conv4_3 -> conv4_3
I1116 01:23:29.492239 35505 net.cpp:122] Setting up conv4_3
I1116 01:23:29.492276 35505 net.cpp:129] Top shape: 1 512 75 125 (4800000)
I1116 01:23:29.492280 35505 net.cpp:137] Memory required for data: 1336800084
I1116 01:23:29.492290 35505 layer_factory.hpp:77] Creating layer relu4_3
I1116 01:23:29.492300 35505 net.cpp:84] Creating Layer relu4_3
I1116 01:23:29.492305 35505 net.cpp:406] relu4_3 <- conv4_3
I1116 01:23:29.492313 35505 net.cpp:367] relu4_3 -> conv4_3 (in-place)
I1116 01:23:29.493365 35505 net.cpp:122] Setting up relu4_3
I1116 01:23:29.493381 35505 net.cpp:129] Top shape: 1 512 75 125 (4800000)
I1116 01:23:29.493384 35505 net.cpp:137] Memory required for data: 1356000084
I1116 01:23:29.493388 35505 layer_factory.hpp:77] Creating layer pool4
I1116 01:23:29.493396 35505 net.cpp:84] Creating Layer pool4
I1116 01:23:29.493399 35505 net.cpp:406] pool4 <- conv4_3
I1116 01:23:29.493407 35505 net.cpp:380] pool4 -> pool4
I1116 01:23:29.493484 35505 net.cpp:122] Setting up pool4
I1116 01:23:29.493490 35505 net.cpp:129] Top shape: 1 512 38 63 (1225728)
I1116 01:23:29.493492 35505 net.cpp:137] Memory required for data: 1360902996
I1116 01:23:29.493495 35505 layer_factory.hpp:77] Creating layer conv5_1
I1116 01:23:29.493505 35505 net.cpp:84] Creating Layer conv5_1
I1116 01:23:29.493508 35505 net.cpp:406] conv5_1 <- pool4
I1116 01:23:29.493515 35505 net.cpp:380] conv5_1 -> conv5_1
I1116 01:23:29.503461 35505 net.cpp:122] Setting up conv5_1
I1116 01:23:29.503499 35505 net.cpp:129] Top shape: 1 512 38 63 (1225728)
I1116 01:23:29.503502 35505 net.cpp:137] Memory required for data: 1365805908
I1116 01:23:29.503512 35505 layer_factory.hpp:77] Creating layer relu5_1
I1116 01:23:29.503527 35505 net.cpp:84] Creating Layer relu5_1
I1116 01:23:29.503532 35505 net.cpp:406] relu5_1 <- conv5_1
I1116 01:23:29.503541 35505 net.cpp:367] relu5_1 -> conv5_1 (in-place)
I1116 01:23:29.503765 35505 net.cpp:122] Setting up relu5_1
I1116 01:23:29.503773 35505 net.cpp:129] Top shape: 1 512 38 63 (1225728)
I1116 01:23:29.503777 35505 net.cpp:137] Memory required for data: 1370708820
I1116 01:23:29.503779 35505 layer_factory.hpp:77] Creating layer conv5_2
I1116 01:23:29.503793 35505 net.cpp:84] Creating Layer conv5_2
I1116 01:23:29.503795 35505 net.cpp:406] conv5_2 <- conv5_1
I1116 01:23:29.503803 35505 net.cpp:380] conv5_2 -> conv5_2
I1116 01:23:29.540129 35505 net.cpp:122] Setting up conv5_2
I1116 01:23:29.540171 35505 net.cpp:129] Top shape: 1 512 38 63 (1225728)
I1116 01:23:29.540176 35505 net.cpp:137] Memory required for data: 1375611732
I1116 01:23:29.540190 35505 layer_factory.hpp:77] Creating layer relu5_2
I1116 01:23:29.540202 35505 net.cpp:84] Creating Layer relu5_2
I1116 01:23:29.540208 35505 net.cpp:406] relu5_2 <- conv5_2
I1116 01:23:29.540217 35505 net.cpp:367] relu5_2 -> conv5_2 (in-place)
I1116 01:23:29.540495 35505 net.cpp:122] Setting up relu5_2
I1116 01:23:29.540505 35505 net.cpp:129] Top shape: 1 512 38 63 (1225728)
I1116 01:23:29.540509 35505 net.cpp:137] Memory required for data: 1380514644
I1116 01:23:29.540513 35505 layer_factory.hpp:77] Creating layer conv5_3
I1116 01:23:29.540552 35505 net.cpp:84] Creating Layer conv5_3
I1116 01:23:29.540557 35505 net.cpp:406] conv5_3 <- conv5_2
I1116 01:23:29.540565 35505 net.cpp:380] conv5_3 -> conv5_3
I1116 01:23:29.562191 35505 net.cpp:122] Setting up conv5_3
I1116 01:23:29.562213 35505 net.cpp:129] Top shape: 1 512 38 63 (1225728)
I1116 01:23:29.562217 35505 net.cpp:137] Memory required for data: 1385417556
I1116 01:23:29.562228 35505 layer_factory.hpp:77] Creating layer relu5_3
I1116 01:23:29.562238 35505 net.cpp:84] Creating Layer relu5_3
I1116 01:23:29.562243 35505 net.cpp:406] relu5_3 <- conv5_3
I1116 01:23:29.562250 35505 net.cpp:367] relu5_3 -> conv5_3 (in-place)
I1116 01:23:29.563493 35505 net.cpp:122] Setting up relu5_3
I1116 01:23:29.563506 35505 net.cpp:129] Top shape: 1 512 38 63 (1225728)
I1116 01:23:29.563511 35505 net.cpp:137] Memory required for data: 1390320468
I1116 01:23:29.563515 35505 layer_factory.hpp:77] Creating layer conv5_3_relu5_3_0_split
I1116 01:23:29.563524 35505 net.cpp:84] Creating Layer conv5_3_relu5_3_0_split
I1116 01:23:29.563529 35505 net.cpp:406] conv5_3_relu5_3_0_split <- conv5_3
I1116 01:23:29.563540 35505 net.cpp:380] conv5_3_relu5_3_0_split -> conv5_3_relu5_3_0_split_0
I1116 01:23:29.563549 35505 net.cpp:380] conv5_3_relu5_3_0_split -> conv5_3_relu5_3_0_split_1
I1116 01:23:29.563632 35505 net.cpp:122] Setting up conv5_3_relu5_3_0_split
I1116 01:23:29.563640 35505 net.cpp:129] Top shape: 1 512 38 63 (1225728)
I1116 01:23:29.563647 35505 net.cpp:129] Top shape: 1 512 38 63 (1225728)
I1116 01:23:29.563649 35505 net.cpp:137] Memory required for data: 1400126292
I1116 01:23:29.563653 35505 layer_factory.hpp:77] Creating layer rpn_conv/3x3
I1116 01:23:29.563668 35505 net.cpp:84] Creating Layer rpn_conv/3x3
I1116 01:23:29.563673 35505 net.cpp:406] rpn_conv/3x3 <- conv5_3_relu5_3_0_split_0
I1116 01:23:29.563685 35505 net.cpp:380] rpn_conv/3x3 -> rpn/output
I1116 01:23:29.654618 35505 net.cpp:122] Setting up rpn_conv/3x3
I1116 01:23:29.663827 35505 net.cpp:129] Top shape: 1 512 38 63 (1225728)
I1116 01:23:29.663839 35505 net.cpp:137] Memory required for data: 1405029204
I1116 01:23:29.663854 35505 layer_factory.hpp:77] Creating layer rpn_relu/3x3
I1116 01:23:29.663867 35505 net.cpp:84] Creating Layer rpn_relu/3x3
I1116 01:23:29.663873 35505 net.cpp:406] rpn_relu/3x3 <- rpn/output
I1116 01:23:29.663883 35505 net.cpp:367] rpn_relu/3x3 -> rpn/output (in-place)
I1116 01:23:29.664186 35505 net.cpp:122] Setting up rpn_relu/3x3
I1116 01:23:29.664197 35505 net.cpp:129] Top shape: 1 512 38 63 (1225728)
I1116 01:23:29.664201 35505 net.cpp:137] Memory required for data: 1409932116
I1116 01:23:29.664206 35505 layer_factory.hpp:77] Creating layer rpn/output_rpn_relu/3x3_0_split
I1116 01:23:29.664213 35505 net.cpp:84] Creating Layer rpn/output_rpn_relu/3x3_0_split
I1116 01:23:29.664217 35505 net.cpp:406] rpn/output_rpn_relu/3x3_0_split <- rpn/output
I1116 01:23:29.664227 35505 net.cpp:380] rpn/output_rpn_relu/3x3_0_split -> rpn/output_rpn_relu/3x3_0_split_0
I1116 01:23:29.664237 35505 net.cpp:380] rpn/output_rpn_relu/3x3_0_split -> rpn/output_rpn_relu/3x3_0_split_1
I1116 01:23:29.664322 35505 net.cpp:122] Setting up rpn/output_rpn_relu/3x3_0_split
I1116 01:23:29.664330 35505 net.cpp:129] Top shape: 1 512 38 63 (1225728)
I1116 01:23:29.664336 35505 net.cpp:129] Top shape: 1 512 38 63 (1225728)
I1116 01:23:29.664340 35505 net.cpp:137] Memory required for data: 1419737940
I1116 01:23:29.664345 35505 layer_factory.hpp:77] Creating layer rpn_cls_score
I1116 01:23:29.664363 35505 net.cpp:84] Creating Layer rpn_cls_score
I1116 01:23:29.664367 35505 net.cpp:406] rpn_cls_score <- rpn/output_rpn_relu/3x3_0_split_0
I1116 01:23:29.664384 35505 net.cpp:380] rpn_cls_score -> rpn_cls_score
I1116 01:23:29.667907 35505 net.cpp:122] Setting up rpn_cls_score
I1116 01:23:29.667927 35505 net.cpp:129] Top shape: 1 18 38 63 (43092)
I1116 01:23:29.667932 35505 net.cpp:137] Memory required for data: 1419910308
I1116 01:23:29.667940 35505 layer_factory.hpp:77] Creating layer rpn_cls_score_rpn_cls_score_0_split
I1116 01:23:29.667948 35505 net.cpp:84] Creating Layer rpn_cls_score_rpn_cls_score_0_split
I1116 01:23:29.667953 35505 net.cpp:406] rpn_cls_score_rpn_cls_score_0_split <- rpn_cls_score
I1116 01:23:29.667959 35505 net.cpp:380] rpn_cls_score_rpn_cls_score_0_split -> rpn_cls_score_rpn_cls_score_0_split_0
I1116 01:23:29.667981 35505 net.cpp:380] rpn_cls_score_rpn_cls_score_0_split -> rpn_cls_score_rpn_cls_score_0_split_1
I1116 01:23:29.668058 35505 net.cpp:122] Setting up rpn_cls_score_rpn_cls_score_0_split
I1116 01:23:29.668066 35505 net.cpp:129] Top shape: 1 18 38 63 (43092)
I1116 01:23:29.668072 35505 net.cpp:129] Top shape: 1 18 38 63 (43092)
I1116 01:23:29.668076 35505 net.cpp:137] Memory required for data: 1420255044
I1116 01:23:29.668079 35505 layer_factory.hpp:77] Creating layer rpn_bbox_pred
I1116 01:23:29.668094 35505 net.cpp:84] Creating Layer rpn_bbox_pred
I1116 01:23:29.668099 35505 net.cpp:406] rpn_bbox_pred <- rpn/output_rpn_relu/3x3_0_split_1
I1116 01:23:29.668107 35505 net.cpp:380] rpn_bbox_pred -> rpn_bbox_pred
I1116 01:23:29.676946 35505 net.cpp:122] Setting up rpn_bbox_pred
I1116 01:23:29.676978 35505 net.cpp:129] Top shape: 1 36 38 63 (86184)
I1116 01:23:29.676985 35505 net.cpp:137] Memory required for data: 1420599780
I1116 01:23:29.676996 35505 layer_factory.hpp:77] Creating layer rpn_bbox_pred_rpn_bbox_pred_0_split
I1116 01:23:29.677006 35505 net.cpp:84] Creating Layer rpn_bbox_pred_rpn_bbox_pred_0_split
I1116 01:23:29.677014 35505 net.cpp:406] rpn_bbox_pred_rpn_bbox_pred_0_split <- rpn_bbox_pred
I1116 01:23:29.677023 35505 net.cpp:380] rpn_bbox_pred_rpn_bbox_pred_0_split -> rpn_bbox_pred_rpn_bbox_pred_0_split_0
I1116 01:23:29.677037 35505 net.cpp:380] rpn_bbox_pred_rpn_bbox_pred_0_split -> rpn_bbox_pred_rpn_bbox_pred_0_split_1
I1116 01:23:29.677139 35505 net.cpp:122] Setting up rpn_bbox_pred_rpn_bbox_pred_0_split
I1116 01:23:29.677150 35505 net.cpp:129] Top shape: 1 36 38 63 (86184)
I1116 01:23:29.677155 35505 net.cpp:129] Top shape: 1 36 38 63 (86184)
I1116 01:23:29.677160 35505 net.cpp:137] Memory required for data: 1421289252
I1116 01:23:29.677166 35505 layer_factory.hpp:77] Creating layer rpn_cls_score_reshape
I1116 01:23:29.677191 35505 net.cpp:84] Creating Layer rpn_cls_score_reshape
I1116 01:23:29.677196 35505 net.cpp:406] rpn_cls_score_reshape <- rpn_cls_score_rpn_cls_score_0_split_0
I1116 01:23:29.677204 35505 net.cpp:380] rpn_cls_score_reshape -> rpn_cls_score_reshape
I1116 01:23:29.677261 35505 net.cpp:122] Setting up rpn_cls_score_reshape
I1116 01:23:29.677270 35505 net.cpp:129] Top shape: 1 2 342 63 (43092)
I1116 01:23:29.677274 35505 net.cpp:137] Memory required for data: 1421461620
I1116 01:23:29.677279 35505 layer_factory.hpp:77] Creating layer rpn_cls_score_reshape_rpn_cls_score_reshape_0_split
I1116 01:23:29.677287 35505 net.cpp:84] Creating Layer rpn_cls_score_reshape_rpn_cls_score_reshape_0_split
I1116 01:23:29.677292 35505 net.cpp:406] rpn_cls_score_reshape_rpn_cls_score_reshape_0_split <- rpn_cls_score_reshape
I1116 01:23:29.677301 35505 net.cpp:380] rpn_cls_score_reshape_rpn_cls_score_reshape_0_split -> rpn_cls_score_reshape_rpn_cls_score_reshape_0_split_0
I1116 01:23:29.677312 35505 net.cpp:380] rpn_cls_score_reshape_rpn_cls_score_reshape_0_split -> rpn_cls_score_reshape_rpn_cls_score_reshape_0_split_1
I1116 01:23:29.677394 35505 net.cpp:122] Setting up rpn_cls_score_reshape_rpn_cls_score_reshape_0_split
I1116 01:23:29.677402 35505 net.cpp:129] Top shape: 1 2 342 63 (43092)
I1116 01:23:29.677409 35505 net.cpp:129] Top shape: 1 2 342 63 (43092)
I1116 01:23:29.677413 35505 net.cpp:137] Memory required for data: 1421806356
I1116 01:23:29.677418 35505 layer_factory.hpp:77] Creating layer rpn-data
I1116 01:23:29.750228 35505 net.cpp:84] Creating Layer rpn-data
I1116 01:23:29.750274 35505 net.cpp:406] rpn-data <- rpn_cls_score_rpn_cls_score_0_split_1
I1116 01:23:29.750288 35505 net.cpp:406] rpn-data <- gt_boxes_input-data_2_split_0
I1116 01:23:29.750295 35505 net.cpp:406] rpn-data <- im_info_input-data_1_split_0
I1116 01:23:29.750303 35505 net.cpp:406] rpn-data <- data_input-data_0_split_1
I1116 01:23:29.750313 35505 net.cpp:380] rpn-data -> rpn_labels
I1116 01:23:29.750327 35505 net.cpp:380] rpn-data -> rpn_bbox_targets
I1116 01:23:29.750340 35505 net.cpp:380] rpn-data -> rpn_bbox_inside_weights
I1116 01:23:29.750351 35505 net.cpp:380] rpn-data -> rpn_bbox_outside_weights
I1116 01:23:29.751956 35505 net.cpp:122] Setting up rpn-data
I1116 01:23:29.751978 35505 net.cpp:129] Top shape: 1 1 342 63 (21546)
I1116 01:23:29.751986 35505 net.cpp:129] Top shape: 1 36 38 63 (86184)
I1116 01:23:29.751991 35505 net.cpp:129] Top shape: 1 36 38 63 (86184)
I1116 01:23:29.751998 35505 net.cpp:129] Top shape: 1 36 38 63 (86184)
I1116 01:23:29.752003 35505 net.cpp:137] Memory required for data: 1422926748
I1116 01:23:29.752012 35505 layer_factory.hpp:77] Creating layer rpn_loss_cls
I1116 01:23:29.752025 35505 net.cpp:84] Creating Layer rpn_loss_cls
I1116 01:23:29.752032 35505 net.cpp:406] rpn_loss_cls <- rpn_cls_score_reshape_rpn_cls_score_reshape_0_split_0
I1116 01:23:29.752039 35505 net.cpp:406] rpn_loss_cls <- rpn_labels
…
I1116 01:23:29.754616 35505 net.cpp:129] Top shape: (1)
I1116 01:23:29.754621 35505 net.cpp:132]     with loss weight 1
I1116 01:23:29.754628 35505 net.cpp:137] Memory required for data: 1422926756
I1116 01:23:29.754632 35505 layer_factory.hpp:77] Creating layer rpn_cls_prob
I1116 01:23:29.754648 35505 net.cpp:84] Creating Layer rpn_cls_prob
I1116 01:23:29.754654 35505 net.cpp:406] rpn_cls_prob <- rpn_cls_score_reshape_rpn_cls_score_reshape_0_split_1
I1116 01:23:29.754664 35505 net.cpp:380] rpn_cls_prob -> rpn_cls_prob
I1116 01:23:29.756448 35505 net.cpp:122] Setting up rpn_cls_prob
I1116 01:23:29.756465 35505 net.cpp:129] Top shape: 1 2 342 63 (43092)
I1116 01:23:29.756470 35505 net.cpp:137] Memory required for data: 1423099124
I1116 01:23:29.756476 35505 layer_factory.hpp:77] Creating layer rpn_cls_prob_reshape
I1116 01:23:29.756489 35505 net.cpp:84] Creating Layer rpn_cls_prob_reshape
I1116 01:23:29.756494 35505 net.cpp:406] rpn_cls_prob_reshape <- rpn_cls_prob
I1116 01:23:29.756505 35505 net.cpp:380] rpn_cls_prob_reshape -> rpn_cls_prob_reshape
I1116 01:23:29.756566 35505 net.cpp:122] Setting up rpn_cls_prob_reshape
I1116 01:23:29.756577 35505 net.cpp:129] Top shape: 1 18 38 63 (43092)
I1116 01:23:29.756582 35505 net.cpp:137] Memory required for data: 1423271492
I1116 01:23:29.756587 35505 layer_factory.hpp:77] Creating layer proposal
I1116 01:23:29.782878 35505 net.cpp:84] Creating Layer proposal
I1116 01:23:29.782917 35505 net.cpp:406] proposal <- rpn_cls_prob_reshape
I1116 01:23:29.782929 35505 net.cpp:406] proposal <- rpn_bbox_pred_rpn_bbox_pred_0_split_1
I1116 01:23:29.782938 35505 net.cpp:406] proposal <- im_info_input-data_1_split_1
I1116 01:23:29.782948 35505 net.cpp:380] proposal -> rpn_rois
I1116 01:23:29.786017 35505 net.cpp:122] Setting up proposal
I1116 01:23:29.786046 35505 net.cpp:129] Top shape: 1 5 (5)
I1116 01:23:29.786051 35505 net.cpp:137] Memory required for data: 1423271512
I1116 01:23:29.786058 35505 layer_factory.hpp:77] Creating layer roi-data
I1116 01:23:29.792613 35505 net.cpp:84] Creating Layer roi-data
I1116 01:23:29.792634 35505 net.cpp:406] roi-data <- rpn_rois
I1116 01:23:29.792644 35505 net.cpp:406] roi-data <- gt_boxes_input-data_2_split_1
I1116 01:23:29.792654 35505 net.cpp:380] roi-data -> rois
I1116 01:23:29.792666 35505 net.cpp:380] roi-data -> labels
I1116 01:23:29.792676 35505 net.cpp:380] roi-data -> bbox_targets
I1116 01:23:29.792686 35505 net.cpp:380] roi-data -> bbox_inside_weights
I1116 01:23:29.792696 35505 net.cpp:380] roi-data -> bbox_outside_weights
I1116 01:23:29.793589 35505 net.cpp:122] Setting up roi-data
I1116 01:23:29.793607 35505 net.cpp:129] Top shape: 1 5 (5)
I1116 01:23:29.793614 35505 net.cpp:129] Top shape: 1 1 (1)
I1116 01:23:29.793620 35505 net.cpp:129] Top shape: 1 84 (84)
I1116 01:23:29.793625 35505 net.cpp:129] Top shape: 1 84 (84)
I1116 01:23:29.793632 35505 net.cpp:129] Top shape: 1 84 (84)
I1116 01:23:29.793635 35505 net.cpp:137] Memory required for data: 1423272544
I1116 01:23:29.793642 35505 layer_factory.hpp:77] Creating layer roi_pool5
I1116 01:23:29.793653 35505 net.cpp:84] Creating Layer roi_pool5
I1116 01:23:29.793658 35505 net.cpp:406] roi_pool5 <- conv5_3_relu5_3_0_split_1
I1116 01:23:29.793666 35505 net.cpp:406] roi_pool5 <- rois
I1116 01:23:29.793673 35505 net.cpp:380] roi_pool5 -> pool5
I1116 01:23:29.793686 35505 roi_pooling_layer.cpp:30] Spatial scale: 0.0625
I1116 01:23:29.793871 35505 net.cpp:122] Setting up roi_pool5
I1116 01:23:29.793884 35505 net.cpp:129] Top shape: 1 512 7 7 (25088)
I1116 01:23:29.793889 35505 net.cpp:137] Memory required for data: 1423372896
I1116 01:23:29.793895 35505 layer_factory.hpp:77] Creating layer fc6
I1116 01:23:29.793906 35505 net.cpp:84] Creating Layer fc6
I1116 01:23:29.793911 35505 net.cpp:406] fc6 <- pool5
I1116 01:23:29.793923 35505 net.cpp:380] fc6 -> fc6
I1116 01:23:30.169423 35505 net.cpp:122] Setting up fc6
I1116 01:23:30.170665 35505 net.cpp:129] Top shape: 1 4096 (4096)
I1116 01:23:30.170683 35505 net.cpp:137] Memory required for data: 1423389280
I1116 01:23:30.170725 35505 layer_factory.hpp:77] Creating layer relu6
I1116 01:23:30.170742 35505 net.cpp:84] Creating Layer relu6
I1116 01:23:30.170748 35505 net.cpp:406] relu6 <- fc6
I1116 01:23:30.170760 35505 net.cpp:367] relu6 -> fc6 (in-place)
I1116 01:23:30.171175 35505 net.cpp:122] Setting up relu6
I1116 01:23:30.171190 35505 net.cpp:129] Top shape: 1 4096 (4096)
I1116 01:23:30.171195 35505 net.cpp:137] Memory required for data: 1423405664
I1116 01:23:30.171205 35505 layer_factory.hpp:77] Creating layer drop6
I1116 01:23:30.171214 35505 net.cpp:84] Creating Layer drop6
I1116 01:23:30.171219 35505 net.cpp:406] drop6 <- fc6
I1116 01:23:30.171226 35505 net.cpp:367] drop6 -> fc6 (in-place)
I1116 01:23:30.171291 35505 net.cpp:122] Setting up drop6
I1116 01:23:30.171299 35505 net.cpp:129] Top shape: 1 4096 (4096)
I1116 01:23:30.171303 35505 net.cpp:137] Memory required for data: 1423422048
I1116 01:23:30.171308 35505 layer_factory.hpp:77] Creating layer fc7
I1116 01:23:30.171319 35505 net.cpp:84] Creating Layer fc7
I1116 01:23:30.171322 35505 net.cpp:406] fc7 <- fc6
I1116 01:23:30.171331 35505 net.cpp:380] fc7 -> fc7
I1116 01:23:30.244349 35505 net.cpp:122] Setting up fc7
I1116 01:23:30.244423 35505 net.cpp:129] Top shape: 1 4096 (4096)
I1116 01:23:30.244429 35505 net.cpp:137] Memory required for data: 1423438432
I1116 01:23:30.244446 35505 layer_factory.hpp:77] Creating layer relu7
I1116 01:23:30.244460 35505 net.cpp:84] Creating Layer relu7
I1116 01:23:30.244472 35505 net.cpp:406] relu7 <- fc7
I1116 01:23:30.244493 35505 net.cpp:367] relu7 -> fc7 (in-place)
I1116 01:23:30.244948 35505 net.cpp:122] Setting up relu7
I1116 01:23:30.244959 35505 net.cpp:129] Top shape: 1 4096 (4096)
I1116 01:23:30.244963 35505 net.cpp:137] Memory required for data: 1423454816
I1116 01:23:30.244968 35505 layer_factory.hpp:77] Creating layer drop7
I1116 01:23:30.244976 35505 net.cpp:84] Creating Layer drop7
I1116 01:23:30.244982 35505 net.cpp:406] drop7 <- fc7
I1116 01:23:30.244994 35505 net.cpp:367] drop7 -> fc7 (in-place)
I1116 01:23:30.245049 35505 net.cpp:122] Setting up drop7
I1116 01:23:30.245060 35505 net.cpp:129] Top shape: 1 4096 (4096)
I1116 01:23:30.245065 35505 net.cpp:137] Memory required for data: 1423471200
I1116 01:23:30.245072 35505 layer_factory.hpp:77] Creating layer fc7_drop7_0_split
I1116 01:23:30.245092 35505 net.cpp:84] Creating Layer fc7_drop7_0_split
I1116 01:23:30.245101 35505 net.cpp:406] fc7_drop7_0_split <- fc7
I1116 01:23:30.245111 35505 net.cpp:380] fc7_drop7_0_split -> fc7_drop7_0_split_0
I1116 01:23:30.245126 35505 net.cpp:380] fc7_drop7_0_split -> fc7_drop7_0_split_1
I1116 01:23:30.245246 35505 net.cpp:122] Setting up fc7_drop7_0_split
I1116 01:23:30.245254 35505 net.cpp:129] Top shape: 1 4096 (4096)
I1116 01:23:30.245260 35505 net.cpp:129] Top shape: 1 4096 (4096)
I1116 01:23:30.245263 35505 net.cpp:137] Memory required for data: 1423503968
I1116 01:23:30.245267 35505 layer_factory.hpp:77] Creating layer cls_score
I1116 01:23:30.245280 35505 net.cpp:84] Creating Layer cls_score
I1116 01:23:30.245283 35505 net.cpp:406] cls_score <- fc7_drop7_0_split_0
I1116 01:23:30.245293 35505 net.cpp:380] cls_score -> cls_score
I1116 01:23:30.247087 35505 net.cpp:122] Setting up cls_score
I1116 01:23:30.247741 35505 net.cpp:129] Top shape: 1 21 (21)
I1116 01:23:30.248231 35505 net.cpp:137] Memory required for data: 1423504052
I1116 01:23:30.248787 35505 layer_factory.hpp:77] Creating layer bbox_pred
I1116 01:23:30.249263 35505 net.cpp:84] Creating Layer bbox_pred
I1116 01:23:30.249788 35505 net.cpp:406] bbox_pred <- fc7_drop7_0_split_1
I1116 01:23:30.250272 35505 net.cpp:380] bbox_pred -> bbox_pred
I1116 01:23:30.260124 35505 net.cpp:122] Setting up bbox_pred
I1116 01:23:30.261258 35505 net.cpp:129] Top shape: 1 84 (84)
I1116 01:23:30.262040 35505 net.cpp:137] Memory required for data: 1423504388
I1116 01:23:30.262976 35505 layer_factory.hpp:77] Creating layer loss_cls
I1116 01:23:30.264029 35505 net.cpp:84] Creating Layer loss_cls
I1116 01:23:30.264823 35505 net.cpp:406] loss_cls <- cls_score
I1116 01:23:30.265645 35505 net.cpp:406] loss_cls <- labels
I1116 01:23:30.266410 35505 net.cpp:380] loss_cls -> loss_cls
…
I1116 06:43:56.724958 54632 upgrade_proto.cpp:70] Successfully upgraded file specified using deprecated input fields.
W1116 06:43:56.724966 54632 upgrade_proto.cpp:72] Note that future Caffe releases will only support input layers and not input fields.
I1116 06:43:56.725630 54632 net.cpp:51] Initializing net from parameters: 
name: "VGG_ILSVRC_16_layers"
state {
  phase: TEST
  level: 0
}
layer {
  name: "input"
  type: "Input"
  top: "data"
  top: "im_info"
  input_param {
    shape {
      dim: 1
      dim: 3
      dim: 224
      dim: 224
    }
    shape {
      dim: 1
      dim: 3
    }
  }
}
layer {
  name: "conv1_1"
  type: "Convolution"
  bottom: "data"
  top: "conv1_1"
  param {
    lr_mult: 0
    decay_mult: 0
  }
  param {
    lr_mult: 0
    decay_mult: 0
  }
  convolution_param {
    num_output: 64
    pad: 1
    kernel_size: 3
  }
}
layer {
  name: "relu1_1"
  type: "ReLU"
  bottom: "conv1_1"
  top: "conv1_1"
}
layer {
  name: "conv1_2"
  type: "Convolution"
  bottom: "conv1_1"
  top: "conv1_2"
  param {
    lr_mult: 0
    decay_mult: 0
  }
  param {
    lr_mult: 0
    decay_mult: 0
  }
  convolution_param {
    num_output: 64
    pad: 1
    kernel_size: 3
  }
}
layer {
  name: "relu1_2"
  type: "ReLU"
  bottom: "conv1_2"
  top: "conv1_2"
}
layer {
  name: "pool1"
  type: "Pooling"
  bottom: "conv1_2"
  top: "pool1"
  pooling_param {
    pool: MAX
    kernel_size: 2
    stride: 2
  }
}
layer {
  name: "conv2_1"
  type: "Convolution"
  bottom: "pool1"
  top: "conv2_1"
  param {
    lr_mult: 0
    decay_mult: 0
  }
  param {
    lr_mult: 0
    decay_mult: 0
  }
  convolution_param {
    num_output: 128
    pad: 1
    kernel_size: 3
  }
}
layer {
  name: "relu2_1"
  type: "ReLU"
  bottom: "conv2_1"
  top: "conv2_1"
}
layer {
  name: "conv2_2"
  type: "Convolution"
  bottom: "conv2_1"
  top: "conv2_2"
  param {
    lr_mult: 0
    decay_mult: 0
  }
  param {
    lr_mult: 0
    decay_mult: 0
  }
  convolution_param {
    num_output: 128
    pad: 1
    kernel_size: 3
  }
}
layer {
  name: "relu2_2"
  type: "ReLU"
  bottom: "conv2_2"
  top: "conv2_2"
}
layer {
  name: "pool2"
  type: "Pooling"
  bottom: "conv2_2"
  top: "pool2"
  pooling_param {
    pool: MAX
    kernel_size: 2
    stride: 2
  }
}
layer {
  name: "conv3_1"
  type: "Convolution"
  bottom: "pool2"
  top: "conv3_1"
  param {
    lr_mult: 1
    decay_mult: 1
  }
  param {
    lr_mult: 2
    decay_mult: 0
  }
  convolution_param {
    num_output: 256
    pad: 1
    kernel_size: 3
  }
}
layer {
  name: "relu3_1"
  type: "ReLU"
  bottom: "conv3_1"
  top: "conv3_1"
}
layer {
  name: "conv3_2"
  type: "Convolution"
  bottom: "conv3_1"
  top: "conv3_2"
  param {
    lr_mult: 1
    decay_mult: 1
  }
  param {
    lr_mult: 2
    decay_mult: 0
  }
  convolution_param {
    num_output: 256
    pad: 1
    kernel_size: 3
  }
}
layer {
  name: "relu3_2"
  type: "ReLU"
  bottom: "conv3_2"
  top: "conv3_2"
}
layer {
  name: "conv3_3"
  type: "Convolution"
  bottom: "conv3_2"
  top: "conv3_3"
  param {
    lr_mult: 1
    decay_mult: 1
  }
  param {
    lr_mult: 2
    decay_mult: 0
  }
  convolution_param {
    num_output: 256
    pad: 1
    kernel_size: 3
  }
}
layer {
  name: "relu3_3"
  type: "ReLU"
  bottom: "conv3_3"
  top: "conv3_3"
}
layer {
  name: "pool3"
  type: "Pooling"
  bottom: "conv3_3"
  top: "pool3"
  pooling_param {
    pool: MAX
    kernel_size: 2
    stride: 2
  }
}
layer {
  name: "conv4_1"
  type: "Convolution"
  bottom: "pool3"
  top: "conv4_1"
  param {
    lr_mult: 1
    decay_mult: 1
  }
  param {
    lr_mult: 2
    decay_mult: 0
  }
  convolution_param {
    num_output: 512
    pad: 1
    kernel_size: 3
  }
}
layer {
  name: "relu4_1"
  type: "ReLU"
  bottom: "conv4_1"
  top: "conv4_1"
}
layer {
  name: "conv4_2"
  type: "Convolution"
  bottom: "conv4_1"
  top: "conv4_2"
  param {
    lr_mult: 1
    decay_mult: 1
  }
  param {
    lr_mult: 2
    decay_mult: 0
  }
  convolution_param {
    num_output: 512
    pad: 1
    kernel_size: 3
  }
}
layer {
  name: "relu4_2"
  type: "ReLU"
  bottom: "conv4_2"
  top: "conv4_2"
}
layer {
  name: "conv4_3"
  type: "Convolution"
  bottom: "conv4_2"
  top: "conv4_3"
  param {
    lr_mult: 1
    decay_mult: 1
  }
  param {
    lr_mult: 2
    decay_mult: 0
  }
  convolution_param {
    num_output: 512
    pad: 1
    kernel_size: 3
  }
}
layer {
  name: "relu4_3"
  type: "ReLU"
  bottom: "conv4_3"
  top: "conv4_3"
}
layer {
  name: "pool4"
  type: "Pooling"
  bottom: "conv4_3"
  top: "pool4"
  pooling_param {
    pool: MAX
    kernel_size: 2
    stride: 2
  }
}
layer {
  name: "conv5_1"
  type: "Convolution"
  bottom: "pool4"
  top: "conv5_1"
  param {
    lr_mult: 1
    decay_mult: 1
  }
  param {
    lr_mult: 2
    decay_mult: 0
  }
  convolution_param {
    num_output: 512
    pad: 1
    kernel_size: 3
  }
}
layer {
  name: "relu5_1"
  type: "ReLU"
  bottom: "conv5_1"
  top: "conv5_1"
}
layer {
  name: "conv5_2"
  type: "Convolution"
  bottom: "conv5_1"
  top: "conv5_2"
  param {
    lr_mult: 1
    decay_mult: 1
  }
  param {
    lr_mult: 2
    decay_mult: 0
  }
  convolution_param {
    num_output: 512
    pad: 1
    kernel_size: 3
  }
}
layer {
  name: "relu5_2"
  type: "ReLU"
  bottom: "conv5_2"
  top: "conv5_2"
}
layer {
  name: "conv5_3"
  type: "Convolution"
  bottom: "conv5_2"
  top: "conv5_3"
  param {
    lr_mult: 1
    decay_mult: 1
  }
  param {
    lr_mult: 2
    decay_mult: 0
  }
  convolution_param {
    num_output: 512
    pad: 1
    kernel_size: 3
  }
}
layer {
  name: "relu5_3"
  type: "ReLU"
  bottom: "conv5_3"
  top: "conv5_3"
}
layer {
  name: "rpn_conv/3x3"
  type: "Convolution"
  bottom: "conv5_3"
  top: "rpn/output"
  param {
    lr_mult: 1
    decay_mult: 1
  }
  param {
    lr_mult: 2
    decay_mult: 0
  }
  convolution_param {
    num_output: 512
    pad: 1
    kernel_size: 3
    stride: 1
    weight_filler {
      type: "gaussian"
      std: 0.01
    }
    bias_filler {
      type: "constant"
      value: 0
    }
  }
}
layer {
  name: "rpn_relu/3x3"
  type: "ReLU"
  bottom: "rpn/output"
  top: "rpn/output"
}
layer {
  name: "rpn_cls_score"
  type: "Convolution"
  bottom: "rpn/output"
  top: "rpn_cls_score"
  param {
    lr_mult: 1
    decay_mult: 1
  }
  param {
    lr_mult: 2
    decay_mult: 0
  }
  convolution_param {
    num_output: 18
    pad: 0
    kernel_size: 1
    stride: 1
    weight_filler {
      type: "gaussian"
      std: 0.01
    }
    bias_filler {
      type: "constant"
      value: 0
    }
  }
}
layer {
  name: "rpn_bbox_pred"
  type: "Convolution"
  bottom: "rpn/output"
  top: "rpn_bbox_pred"
  param {
    lr_mult: 1
    decay_mult: 1
  }
  param {
    lr_mult: 2
    decay_mult: 0
  }
  convolution_param {
    num_output: 36
    pad: 0
    kernel_size: 1
    stride: 1
    weight_filler {
      type: "gaussian"
      std: 0.01
    }
    bias_filler {
      type: "constant"
      value: 0
    }
  }
}
layer {
  name: "rpn_cls_score_reshape"
  type: "Reshape"
  bottom: "rpn_cls_score"
  top: "rpn_cls_score_reshape"
  reshape_param {
    shape {
      dim: 0
      dim: 2
      dim: -1
      dim: 0
    }
  }
}
layer {
  name: "rpn_cls_prob"
  type: "Softmax"
  bottom: "rpn_cls_score_reshape"
  top: "rpn_cls_prob"
}
layer {
  name: "rpn_cls_prob_reshape"
  type: "Reshape"
  bottom: "rpn_cls_prob"
  top: "rpn_cls_prob_reshape"
  reshape_param {
    shape {
      dim: 0
      dim: 18
      dim: -1
      dim: 0
    }
  }
}
layer {
  name: "proposal"
  type: "Python"
  bottom: "rpn_cls_prob_reshape"
  bottom: "rpn_bbox_pred"
  bottom: "im_info"
  top: "rois"
  python_param {
    module: "rpn.proposal_layer"
    layer: "ProposalLayer"
    param_str: "\'feat_stride\': 16"
  }
}
layer {
  name: "roi_pool5"
  type: "ROIPooling"
  bottom: "conv5_3"
  bottom: "rois"
  top: "pool5"
  roi_pooling_param {
    pooled_h: 7
    pooled_w: 7
    spatial_scale: 0.0625
  }
}
layer {
  name: "fc6"
  type: "InnerProduct"
  bottom: "pool5"
  top: "fc6"
  param {
    lr_mult: 1
    decay_mult: 1
  }
  param {
    lr_mult: 2
    decay_mult: 0
  }
  inner_product_param {
    num_output: 4096
  }
}
layer {
  name: "relu6"
  type: "ReLU"
  bottom: "fc6"
  top: "fc6"
}
layer {
  name: "drop6"
  type: "Dropout"
  bottom: "fc6"
  top: "fc6"
  dropout_param {
    dropout_ratio: 0.5
  }
}
layer {
  name: "fc7"
  type: "InnerProduct"
  bottom: "fc6"
  top: "fc7"
  param {
    lr_mult: 1
    decay_mult: 1
  }
  param {
    lr_mult: 2
    decay_mult: 0
  }
  inner_product_param {
    num_output: 4096
  }
}
layer {
  name: "relu7"
  type: "ReLU"
  bottom: "fc7"
  top: "fc7"
}
layer {
  name: "drop7"
  type: "Dropout"
  bottom: "fc7"
  top: "fc7"
  dropout_param {
    dropout_ratio: 0.5
  }
}
layer {
  name: "cls_score"
  type: "InnerProduct"
  bottom: "fc7"
  top: "cls_score"
  param {
    lr_mult: 1
    decay_mult: 1
  }
  param {
    lr_mult: 2
    decay_mult: 0
  }
  inner_product_param {
    num_output: 21
    weight_filler {
      type: "gaussian"
      std: 0.01
    }
    bias_filler {
      type: "constant"
      value: 0
    }
  }
}
layer {
  name: "bbox_pred"
  type: "InnerProduct"
  bottom: "fc7"
  top: "bbox_pred"
  param {
    lr_mult: 1
    decay_mult: 1
  }
  param {
    lr_mult: 2
    decay_mult: 0
  }
  inner_product_param {
    num_output: 84
    weight_filler {
      type: "gaussian"
      std: 0.001
    }
    bias_filler {
      type: "constant"
      value: 0
    }
  }
}
layer {
  name: "cls_prob"
  type: "Softmax"
  bottom: "cls_score"
  top: "cls_prob"
}
I1116 06:43:56.725908 54632 layer_factory.hpp:77] Creating layer input
I1116 06:43:56.725929 54632 net.cpp:84] Creating Layer input
I1116 06:43:56.725947 54632 net.cpp:380] input -> data
I1116 06:43:56.725963 54632 net.cpp:380] input -> im_info
I1116 06:43:56.802546 54632 net.cpp:122] Setting up input
I1116 06:43:56.802598 54632 net.cpp:129] Top shape: 1 3 224 224 (150528)
I1116 06:43:56.802613 54632 net.cpp:129] Top shape: 1 3 (3)
I1116 06:43:56.802618 54632 net.cpp:137] Memory required for data: 602124
I1116 06:43:56.802628 54632 layer_factory.hpp:77] Creating layer conv1_1
I1116 06:43:56.802680 54632 net.cpp:84] Creating Layer conv1_1
I1116 06:43:56.802693 54632 net.cpp:406] conv1_1 <- data
I1116 06:43:56.802709 54632 net.cpp:380] conv1_1 -> conv1_1
I1116 06:43:57.598201 54632 net.cpp:122] Setting up conv1_1
I1116 06:43:57.598263 54632 net.cpp:129] Top shape: 1 64 224 224 (3211264)
I1116 06:43:57.598269 54632 net.cpp:137] Memory required for data: 13447180
I1116 06:43:57.598295 54632 layer_factory.hpp:77] Creating layer relu1_1
I1116 06:43:57.598318 54632 net.cpp:84] Creating Layer relu1_1
I1116 06:43:57.598325 54632 net.cpp:406] relu1_1 <- conv1_1
I1116 06:43:57.598333 54632 net.cpp:367] relu1_1 -> conv1_1 (in-place)
I1116 06:43:57.598676 54632 net.cpp:122] Setting up relu1_1
I1116 06:43:57.598688 54632 net.cpp:129] Top shape: 1 64 224 224 (3211264)
I1116 06:43:57.598693 54632 net.cpp:137] Memory required for data: 26292236
I1116 06:43:57.598698 54632 layer_factory.hpp:77] Creating layer conv1_2
I1116 06:43:57.598718 54632 net.cpp:84] Creating Layer conv1_2
I1116 06:43:57.598723 54632 net.cpp:406] conv1_2 <- conv1_1
I1116 06:43:57.598732 54632 net.cpp:380] conv1_2 -> conv1_2
I1116 06:43:57.602538 54632 net.cpp:122] Setting up conv1_2
I1116 06:43:57.602566 54632 net.cpp:129] Top shape: 1 64 224 224 (3211264)
I1116 06:43:57.602571 54632 net.cpp:137] Memory required for data: 39137292
I1116 06:43:57.602586 54632 layer_factory.hpp:77] Creating layer relu1_2
I1116 06:43:57.602598 54632 net.cpp:84] Creating Layer relu1_2
I1116 06:43:57.602603 54632 net.cpp:406] relu1_2 <- conv1_2
I1116 06:43:57.602614 54632 net.cpp:367] relu1_2 -> conv1_2 (in-place)
I1116 06:43:57.602969 54632 net.cpp:122] Setting up relu1_2
I1116 06:43:57.602982 54632 net.cpp:129] Top shape: 1 64 224 224 (3211264)
I1116 06:43:57.602986 54632 net.cpp:137] Memory required for data: 51982348
I1116 06:43:57.602991 54632 layer_factory.hpp:77] Creating layer pool1
I1116 06:43:57.603000 54632 net.cpp:84] Creating Layer pool1
I1116 06:43:57.603005 54632 net.cpp:406] pool1 <- conv1_2
I1116 06:43:57.603016 54632 net.cpp:380] pool1 -> pool1
I1116 06:43:57.603121 54632 net.cpp:122] Setting up pool1
I1116 06:43:57.603130 54632 net.cpp:129] Top shape: 1 64 112 112 (802816)
I1116 06:43:57.603135 54632 net.cpp:137] Memory required for data: 55193612
I1116 06:43:57.603139 54632 layer_factory.hpp:77] Creating layer conv2_1
I1116 06:43:57.603157 54632 net.cpp:84] Creating Layer conv2_1
I1116 06:43:57.603162 54632 net.cpp:406] conv2_1 <- pool1
I1116 06:43:57.603171 54632 net.cpp:380] conv2_1 -> conv2_1
I1116 06:43:57.614809 54632 net.cpp:122] Setting up conv2_1
I1116 06:43:57.614837 54632 net.cpp:129] Top shape: 1 128 112 112 (1605632)
I1116 06:43:57.614843 54632 net.cpp:137] Memory required for data: 61616140
I1116 06:43:57.614859 54632 layer_factory.hpp:77] Creating layer relu2_1
I1116 06:43:57.614869 54632 net.cpp:84] Creating Layer relu2_1
I1116 06:43:57.614874 54632 net.cpp:406] relu2_1 <- conv2_1
I1116 06:43:57.614886 54632 net.cpp:367] relu2_1 -> conv2_1 (in-place)
I1116 06:43:57.616017 54632 net.cpp:122] Setting up relu2_1
I1116 06:43:57.616037 54632 net.cpp:129] Top shape: 1 128 112 112 (1605632)
I1116 06:43:57.616042 54632 net.cpp:137] Memory required for data: 68038668
I1116 06:43:57.616047 54632 layer_factory.hpp:77] Creating layer conv2_2
I1116 06:43:57.616063 54632 net.cpp:84] Creating Layer conv2_2
I1116 06:43:57.616068 54632 net.cpp:406] conv2_2 <- conv2_1
I1116 06:43:57.616083 54632 net.cpp:380] conv2_2 -> conv2_2
I1116 06:43:57.621104 54632 net.cpp:122] Setting up conv2_2
I1116 06:43:57.621129 54632 net.cpp:129] Top shape: 1 128 112 112 (1605632)
I1116 06:43:57.621132 54632 net.cpp:137] Memory required for data: 74461196
I1116 06:43:57.621142 54632 layer_factory.hpp:77] Creating layer relu2_2
I1116 06:43:57.621151 54632 net.cpp:84] Creating Layer relu2_2
I1116 06:43:57.621157 54632 net.cpp:406] relu2_2 <- conv2_2
I1116 06:43:57.621168 54632 net.cpp:367] relu2_2 -> conv2_2 (in-place)
I1116 06:43:57.621487 54632 net.cpp:122] Setting up relu2_2
I1116 06:43:57.621498 54632 net.cpp:129] Top shape: 1 128 112 112 (1605632)
I1116 06:43:57.621502 54632 net.cpp:137] Memory required for data: 80883724
I1116 06:43:57.621506 54632 layer_factory.hpp:77] Creating layer pool2
I1116 06:43:57.621515 54632 net.cpp:84] Creating Layer pool2
I1116 06:43:57.621520 54632 net.cpp:406] pool2 <- conv2_2
I1116 06:43:57.621528 54632 net.cpp:380] pool2 -> pool2
I1116 06:43:57.621631 54632 net.cpp:122] Setting up pool2
I1116 06:43:57.621639 54632 net.cpp:129] Top shape: 1 128 56 56 (401408)
I1116 06:43:57.621644 54632 net.cpp:137] Memory required for data: 82489356
I1116 06:43:57.621647 54632 layer_factory.hpp:77] Creating layer conv3_1
I1116 06:43:57.621661 54632 net.cpp:84] Creating Layer conv3_1
I1116 06:43:57.621665 54632 net.cpp:406] conv3_1 <- pool2
I1116 06:43:57.621675 54632 net.cpp:380] conv3_1 -> conv3_1
I1116 06:43:57.625377 54632 net.cpp:122] Setting up conv3_1
I1116 06:43:57.625399 54632 net.cpp:129] Top shape: 1 256 56 56 (802816)
I1116 06:43:57.625404 54632 net.cpp:137] Memory required for data: 85700620
I1116 06:43:57.625421 54632 layer_factory.hpp:77] Creating layer relu3_1
I1116 06:43:57.625429 54632 net.cpp:84] Creating Layer relu3_1
I1116 06:43:57.625434 54632 net.cpp:406] relu3_1 <- conv3_1
I1116 06:43:57.625444 54632 net.cpp:367] relu3_1 -> conv3_1 (in-place)
I1116 06:43:57.625767 54632 net.cpp:122] Setting up relu3_1
I1116 06:43:57.625778 54632 net.cpp:129] Top shape: 1 256 56 56 (802816)
I1116 06:43:57.625782 54632 net.cpp:137] Memory required for data: 88911884
I1116 06:43:57.625787 54632 layer_factory.hpp:77] Creating layer conv3_2
I1116 06:43:57.625800 54632 net.cpp:84] Creating Layer conv3_2
I1116 06:43:57.625807 54632 net.cpp:406] conv3_2 <- conv3_1
I1116 06:43:57.625813 54632 net.cpp:380] conv3_2 -> conv3_2
I1116 06:43:57.635351 54632 net.cpp:122] Setting up conv3_2
I1116 06:43:57.635375 54632 net.cpp:129] Top shape: 1 256 56 56 (802816)
I1116 06:43:57.635380 54632 net.cpp:137] Memory required for data: 92123148
I1116 06:43:57.635390 54632 layer_factory.hpp:77] Creating layer relu3_2
I1116 06:43:57.635402 54632 net.cpp:84] Creating Layer relu3_2
I1116 06:43:57.635407 54632 net.cpp:406] relu3_2 <- conv3_2
I1116 06:43:57.635414 54632 net.cpp:367] relu3_2 -> conv3_2 (in-place)
I1116 06:43:57.636512 54632 net.cpp:122] Setting up relu3_2
I1116 06:43:57.636533 54632 net.cpp:129] Top shape: 1 256 56 56 (802816)
I1116 06:43:57.636536 54632 net.cpp:137] Memory required for data: 95334412
I1116 06:43:57.636541 54632 layer_factory.hpp:77] Creating layer conv3_3
I1116 06:43:57.636554 54632 net.cpp:84] Creating Layer conv3_3
I1116 06:43:57.636559 54632 net.cpp:406] conv3_3 <- conv3_2
I1116 06:43:57.636569 54632 net.cpp:380] conv3_3 -> conv3_3
I1116 06:43:57.643474 54632 net.cpp:122] Setting up conv3_3
I1116 06:43:57.643499 54632 net.cpp:129] Top shape: 1 256 56 56 (802816)
I1116 06:43:57.643504 54632 net.cpp:137] Memory required for data: 98545676
I1116 06:43:57.643513 54632 layer_factory.hpp:77] Creating layer relu3_3
I1116 06:43:57.643527 54632 net.cpp:84] Creating Layer relu3_3
I1116 06:43:57.643532 54632 net.cpp:406] relu3_3 <- conv3_3
I1116 06:43:57.643539 54632 net.cpp:367] relu3_3 -> conv3_3 (in-place)
I1116 06:43:57.643839 54632 net.cpp:122] Setting up relu3_3
I1116 06:43:57.643851 54632 net.cpp:129] Top shape: 1 256 56 56 (802816)
I1116 06:43:57.643854 54632 net.cpp:137] Memory required for data: 101756940
I1116 06:43:57.643858 54632 layer_factory.hpp:77] Creating layer pool3
I1116 06:43:57.643867 54632 net.cpp:84] Creating Layer pool3
I1116 06:43:57.643873 54632 net.cpp:406] pool3 <- conv3_3
I1116 06:43:57.643880 54632 net.cpp:380] pool3 -> pool3
I1116 06:43:57.643980 54632 net.cpp:122] Setting up pool3
I1116 06:43:57.643987 54632 net.cpp:129] Top shape: 1 256 28 28 (200704)
I1116 06:43:57.643991 54632 net.cpp:137] Memory required for data: 102559756
I1116 06:43:57.643995 54632 layer_factory.hpp:77] Creating layer conv4_1
I1116 06:43:57.644006 54632 net.cpp:84] Creating Layer conv4_1
I1116 06:43:57.644011 54632 net.cpp:406] conv4_1 <- pool3
I1116 06:43:57.644017 54632 net.cpp:380] conv4_1 -> conv4_1
I1116 06:43:57.661275 54632 net.cpp:122] Setting up conv4_1
I1116 06:43:57.661306 54632 net.cpp:129] Top shape: 1 512 28 28 (401408)
I1116 06:43:57.661310 54632 net.cpp:137] Memory required for data: 104165388
I1116 06:43:57.661322 54632 layer_factory.hpp:77] Creating layer relu4_1
I1116 06:43:57.661330 54632 net.cpp:84] Creating Layer relu4_1
I1116 06:43:57.661335 54632 net.cpp:406] relu4_1 <- conv4_1
I1116 06:43:57.661345 54632 net.cpp:367] relu4_1 -> conv4_1 (in-place)
I1116 06:43:57.661646 54632 net.cpp:122] Setting up relu4_1
I1116 06:43:57.661656 54632 net.cpp:129] Top shape: 1 512 28 28 (401408)
I1116 06:43:57.661660 54632 net.cpp:137] Memory required for data: 105771020
I1116 06:43:57.661664 54632 layer_factory.hpp:77] Creating layer conv4_2
I1116 06:43:57.661677 54632 net.cpp:84] Creating Layer conv4_2
I1116 06:43:57.661681 54632 net.cpp:406] conv4_2 <- conv4_1
I1116 06:43:57.661690 54632 net.cpp:380] conv4_2 -> conv4_2
I1116 06:43:57.672202 54632 net.cpp:122] Setting up conv4_2
I1116 06:43:57.672226 54632 net.cpp:129] Top shape: 1 512 28 28 (401408)
I1116 06:43:57.672230 54632 net.cpp:137] Memory required for data: 107376652
I1116 06:43:57.672248 54632 layer_factory.hpp:77] Creating layer relu4_2
I1116 06:43:57.672257 54632 net.cpp:84] Creating Layer relu4_2
I1116 06:43:57.672262 54632 net.cpp:406] relu4_2 <- conv4_2
I1116 06:43:57.672271 54632 net.cpp:367] relu4_2 -> conv4_2 (in-place)
I1116 06:43:57.672544 54632 net.cpp:122] Setting up relu4_2
I1116 06:43:57.672554 54632 net.cpp:129] Top shape: 1 512 28 28 (401408)
I1116 06:43:57.672559 54632 net.cpp:137] Memory required for data: 108982284
I1116 06:43:57.672561 54632 layer_factory.hpp:77] Creating layer conv4_3
I1116 06:43:57.672574 54632 net.cpp:84] Creating Layer conv4_3
I1116 06:43:57.672579 54632 net.cpp:406] conv4_3 <- conv4_2
I1116 06:43:57.672587 54632 net.cpp:380] conv4_3 -> conv4_3
I1116 06:43:57.682626 54632 net.cpp:122] Setting up conv4_3
I1116 06:43:57.682657 54632 net.cpp:129] Top shape: 1 512 28 28 (401408)
I1116 06:43:57.682662 54632 net.cpp:137] Memory required for data: 110587916
I1116 06:43:57.682669 54632 layer_factory.hpp:77] Creating layer relu4_3
I1116 06:43:57.682677 54632 net.cpp:84] Creating Layer relu4_3
I1116 06:43:57.682682 54632 net.cpp:406] relu4_3 <- conv4_3
I1116 06:43:57.682687 54632 net.cpp:367] relu4_3 -> conv4_3 (in-place)
I1116 06:43:57.683854 54632 net.cpp:122] Setting up relu4_3
I1116 06:43:57.683872 54632 net.cpp:129] Top shape: 1 512 28 28 (401408)
I1116 06:43:57.683876 54632 net.cpp:137] Memory required for data: 112193548
I1116 06:43:57.683881 54632 layer_factory.hpp:77] Creating layer pool4
I1116 06:43:57.683889 54632 net.cpp:84] Creating Layer pool4
I1116 06:43:57.683893 54632 net.cpp:406] pool4 <- conv4_3
I1116 06:43:57.683902 54632 net.cpp:380] pool4 -> pool4
I1116 06:43:57.683996 54632 net.cpp:122] Setting up pool4
I1116 06:43:57.684005 54632 net.cpp:129] Top shape: 1 512 14 14 (100352)
I1116 06:43:57.684007 54632 net.cpp:137] Memory required for data: 112594956
I1116 06:43:57.684011 54632 layer_factory.hpp:77] Creating layer conv5_1
I1116 06:43:57.684021 54632 net.cpp:84] Creating Layer conv5_1
I1116 06:43:57.684026 54632 net.cpp:406] conv5_1 <- pool4
I1116 06:43:57.684032 54632 net.cpp:380] conv5_1 -> conv5_1
I1116 06:43:57.696938 54632 net.cpp:122] Setting up conv5_1
I1116 06:43:57.696961 54632 net.cpp:129] Top shape: 1 512 14 14 (100352)
I1116 06:43:57.696965 54632 net.cpp:137] Memory required for data: 112996364
I1116 06:43:57.696975 54632 layer_factory.hpp:77] Creating layer relu5_1
I1116 06:43:57.696985 54632 net.cpp:84] Creating Layer relu5_1
I1116 06:43:57.696990 54632 net.cpp:406] relu5_1 <- conv5_1
I1116 06:43:57.696995 54632 net.cpp:367] relu5_1 -> conv5_1 (in-place)
I1116 06:43:57.697273 54632 net.cpp:122] Setting up relu5_1
I1116 06:43:57.697284 54632 net.cpp:129] Top shape: 1 512 14 14 (100352)
I1116 06:43:57.697288 54632 net.cpp:137] Memory required for data: 113397772
I1116 06:43:57.697291 54632 layer_factory.hpp:77] Creating layer conv5_2
I1116 06:43:57.697301 54632 net.cpp:84] Creating Layer conv5_2
I1116 06:43:57.697304 54632 net.cpp:406] conv5_2 <- conv5_1
I1116 06:43:57.697312 54632 net.cpp:380] conv5_2 -> conv5_2
I1116 06:43:57.710198 54632 net.cpp:122] Setting up conv5_2
I1116 06:43:57.710223 54632 net.cpp:129] Top shape: 1 512 14 14 (100352)
I1116 06:43:57.710227 54632 net.cpp:137] Memory required for data: 113799180
I1116 06:43:57.710237 54632 layer_factory.hpp:77] Creating layer relu5_2
I1116 06:43:57.710244 54632 net.cpp:84] Creating Layer relu5_2
I1116 06:43:57.710248 54632 net.cpp:406] relu5_2 <- conv5_2
I1116 06:43:57.710258 54632 net.cpp:367] relu5_2 -> conv5_2 (in-place)
I1116 06:43:57.710532 54632 net.cpp:122] Setting up relu5_2
I1116 06:43:57.710542 54632 net.cpp:129] Top shape: 1 512 14 14 (100352)
I1116 06:43:57.710546 54632 net.cpp:137] Memory required for data: 114200588
I1116 06:43:57.710548 54632 layer_factory.hpp:77] Creating layer conv5_3
I1116 06:43:57.710559 54632 net.cpp:84] Creating Layer conv5_3
I1116 06:43:57.710563 54632 net.cpp:406] conv5_3 <- conv5_2
I1116 06:43:57.710572 54632 net.cpp:380] conv5_3 -> conv5_3
I1116 06:43:57.720944 54632 net.cpp:122] Setting up conv5_3
I1116 06:43:57.720965 54632 net.cpp:129] Top shape: 1 512 14 14 (100352)
I1116 06:43:57.720969 54632 net.cpp:137] Memory required for data: 114601996
I1116 06:43:57.720978 54632 layer_factory.hpp:77] Creating layer relu5_3
I1116 06:43:57.720984 54632 net.cpp:84] Creating Layer relu5_3
I1116 06:43:57.720988 54632 net.cpp:406] relu5_3 <- conv5_3
I1116 06:43:57.720994 54632 net.cpp:367] relu5_3 -> conv5_3 (in-place)
I1116 06:43:57.721982 54632 net.cpp:122] Setting up relu5_3
I1116 06:43:57.721997 54632 net.cpp:129] Top shape: 1 512 14 14 (100352)
I1116 06:43:57.721999 54632 net.cpp:137] Memory required for data: 115003404
I1116 06:43:57.722003 54632 layer_factory.hpp:77] Creating layer conv5_3_relu5_3_0_split
I1116 06:43:57.722012 54632 net.cpp:84] Creating Layer conv5_3_relu5_3_0_split
I1116 06:43:57.722017 54632 net.cpp:406] conv5_3_relu5_3_0_split <- conv5_3
I1116 06:43:57.722024 54632 net.cpp:380] conv5_3_relu5_3_0_split -> conv5_3_relu5_3_0_split_0
I1116 06:43:57.722033 54632 net.cpp:380] conv5_3_relu5_3_0_split -> conv5_3_relu5_3_0_split_1
I1116 06:43:57.722123 54632 net.cpp:122] Setting up conv5_3_relu5_3_0_split
I1116 06:43:57.722131 54632 net.cpp:129] Top shape: 1 512 14 14 (100352)
I1116 06:43:57.722134 54632 net.cpp:129] Top shape: 1 512 14 14 (100352)
I1116 06:43:57.722137 54632 net.cpp:137] Memory required for data: 115806220
I1116 06:43:57.722141 54632 layer_factory.hpp:77] Creating layer rpn_conv/3x3
I1116 06:43:57.722163 54632 net.cpp:84] Creating Layer rpn_conv/3x3
I1116 06:43:57.722167 54632 net.cpp:406] rpn_conv/3x3 <- conv5_3_relu5_3_0_split_0
I1116 06:43:57.722174 54632 net.cpp:380] rpn_conv/3x3 -> rpn/output
I1116 06:43:57.757457 54632 net.cpp:122] Setting up rpn_conv/3x3
I1116 06:43:57.757506 54632 net.cpp:129] Top shape: 1 512 14 14 (100352)
I1116 06:43:57.757510 54632 net.cpp:137] Memory required for data: 116207628
I1116 06:43:57.757521 54632 layer_factory.hpp:77] Creating layer rpn_relu/3x3
I1116 06:43:57.757531 54632 net.cpp:84] Creating Layer rpn_relu/3x3
I1116 06:43:57.757535 54632 net.cpp:406] rpn_relu/3x3 <- rpn/output
I1116 06:43:57.757544 54632 net.cpp:367] rpn_relu/3x3 -> rpn/output (in-place)
I1116 06:43:57.757793 54632 net.cpp:122] Setting up rpn_relu/3x3
I1116 06:43:57.757802 54632 net.cpp:129] Top shape: 1 512 14 14 (100352)
I1116 06:43:57.757805 54632 net.cpp:137] Memory required for data: 116609036
I1116 06:43:57.757808 54632 layer_factory.hpp:77] Creating layer rpn/output_rpn_relu/3x3_0_split
I1116 06:43:57.757815 54632 net.cpp:84] Creating Layer rpn/output_rpn_relu/3x3_0_split
I1116 06:43:57.757818 54632 net.cpp:406] rpn/output_rpn_relu/3x3_0_split <- rpn/output
I1116 06:43:57.757825 54632 net.cpp:380] rpn/output_rpn_relu/3x3_0_split -> rpn/output_rpn_relu/3x3_0_split_0
I1116 06:43:57.757833 54632 net.cpp:380] rpn/output_rpn_relu/3x3_0_split -> rpn/output_rpn_relu/3x3_0_split_1
I1116 06:43:57.757925 54632 net.cpp:122] Setting up rpn/output_rpn_relu/3x3_0_split
I1116 06:43:57.757931 54632 net.cpp:129] Top shape: 1 512 14 14 (100352)
I1116 06:43:57.757935 54632 net.cpp:129] Top shape: 1 512 14 14 (100352)
I1116 06:43:57.757937 54632 net.cpp:137] Memory required for data: 117411852
I1116 06:43:57.757941 54632 layer_factory.hpp:77] Creating layer rpn_cls_score
I1116 06:43:57.757954 54632 net.cpp:84] Creating Layer rpn_cls_score
I1116 06:43:57.757958 54632 net.cpp:406] rpn_cls_score <- rpn/output_rpn_relu/3x3_0_split_0
I1116 06:43:57.757967 54632 net.cpp:380] rpn_cls_score -> rpn_cls_score
I1116 06:43:57.760824 54632 net.cpp:122] Setting up rpn_cls_score
I1116 06:43:57.760841 54632 net.cpp:129] Top shape: 1 18 14 14 (3528)
I1116 06:43:57.760844 54632 net.cpp:137] Memory required for data: 117425964
I1116 06:43:57.760851 54632 layer_factory.hpp:77] Creating layer rpn_bbox_pred
I1116 06:43:57.760864 54632 net.cpp:84] Creating Layer rpn_bbox_pred
I1116 06:43:57.760870 54632 net.cpp:406] rpn_bbox_pred <- rpn/output_rpn_relu/3x3_0_split_1
I1116 06:43:57.760879 54632 net.cpp:380] rpn_bbox_pred -> rpn_bbox_pred
I1116 06:43:57.763877 54632 net.cpp:122] Setting up rpn_bbox_pred
I1116 06:43:57.763895 54632 net.cpp:129] Top shape: 1 36 14 14 (7056)
I1116 06:43:57.763898 54632 net.cpp:137] Memory required for data: 117454188
I1116 06:43:57.763906 54632 layer_factory.hpp:77] Creating layer rpn_cls_score_reshape
I1116 06:43:57.763916 54632 net.cpp:84] Creating Layer rpn_cls_score_reshape
I1116 06:43:57.763919 54632 net.cpp:406] rpn_cls_score_reshape <- rpn_cls_score
I1116 06:43:57.763926 54632 net.cpp:380] rpn_cls_score_reshape -> rpn_cls_score_reshape
I1116 06:43:57.763978 54632 net.cpp:122] Setting up rpn_cls_score_reshape
I1116 06:43:57.763984 54632 net.cpp:129] Top shape: 1 2 126 14 (3528)
I1116 06:43:57.763988 54632 net.cpp:137] Memory required for data: 117468300
I1116 06:43:57.763990 54632 layer_factory.hpp:77] Creating layer rpn_cls_prob
I1116 06:43:57.763995 54632 net.cpp:84] Creating Layer rpn_cls_prob
I1116 06:43:57.763998 54632 net.cpp:406] rpn_cls_prob <- rpn_cls_score_reshape
I1116 06:43:57.764003 54632 net.cpp:380] rpn_cls_prob -> rpn_cls_prob
I1116 06:43:57.764351 54632 net.cpp:122] Setting up rpn_cls_prob
I1116 06:43:57.764360 54632 net.cpp:129] Top shape: 1 2 126 14 (3528)
I1116 06:43:57.764364 54632 net.cpp:137] Memory required for data: 117482412
I1116 06:43:57.764366 54632 layer_factory.hpp:77] Creating layer rpn_cls_prob_reshape
I1116 06:43:57.764372 54632 net.cpp:84] Creating Layer rpn_cls_prob_reshape
I1116 06:43:57.764375 54632 net.cpp:406] rpn_cls_prob_reshape <- rpn_cls_prob
I1116 06:43:57.764382 54632 net.cpp:380] rpn_cls_prob_reshape -> rpn_cls_prob_reshape
I1116 06:43:57.764425 54632 net.cpp:122] Setting up rpn_cls_prob_reshape
I1116 06:43:57.764430 54632 net.cpp:129] Top shape: 1 18 14 14 (3528)
I1116 06:43:57.764433 54632 net.cpp:137] Memory required for data: 117496524
I1116 06:43:57.764436 54632 layer_factory.hpp:77] Creating layer proposal
I1116 06:43:57.784251 54632 net.cpp:84] Creating Layer proposal
I1116 06:43:57.784270 54632 net.cpp:406] proposal <- rpn_cls_prob_reshape
I1116 06:43:57.784276 54632 net.cpp:406] proposal <- rpn_bbox_pred
I1116 06:43:57.784281 54632 net.cpp:406] proposal <- im_info
I1116 06:43:57.784286 54632 net.cpp:380] proposal -> rois
I1116 06:43:57.785316 54632 net.cpp:122] Setting up proposal
I1116 06:43:57.785334 54632 net.cpp:129] Top shape: 1 5 (5)
I1116 06:43:57.785337 54632 net.cpp:137] Memory required for data: 117496544
I1116 06:43:57.785341 54632 layer_factory.hpp:77] Creating layer roi_pool5
I1116 06:43:57.785348 54632 net.cpp:84] Creating Layer roi_pool5
I1116 06:43:57.785352 54632 net.cpp:406] roi_pool5 <- conv5_3_relu5_3_0_split_1
I1116 06:43:57.785357 54632 net.cpp:406] roi_pool5 <- rois
I1116 06:43:57.785362 54632 net.cpp:380] roi_pool5 -> pool5
I1116 06:43:57.785370 54632 roi_pooling_layer.cpp:30] Spatial scale: 0.0625
I1116 06:43:57.785465 54632 net.cpp:122] Setting up roi_pool5
I1116 06:43:57.785470 54632 net.cpp:129] Top shape: 1 512 7 7 (25088)
I1116 06:43:57.785473 54632 net.cpp:137] Memory required for data: 117596896
I1116 06:43:57.785476 54632 layer_factory.hpp:77] Creating layer fc6
I1116 06:43:57.785488 54632 net.cpp:84] Creating Layer fc6
I1116 06:43:57.785491 54632 net.cpp:406] fc6 <- pool5
I1116 06:43:57.785496 54632 net.cpp:380] fc6 -> fc6
I1116 06:43:58.088701 54632 net.cpp:122] Setting up fc6
I1116 06:43:58.088737 54632 net.cpp:129] Top shape: 1 4096 (4096)
I1116 06:43:58.088739 54632 net.cpp:137] Memory required for data: 117613280
I1116 06:43:58.088762 54632 layer_factory.hpp:77] Creating layer relu6
I1116 06:43:58.088773 54632 net.cpp:84] Creating Layer relu6
I1116 06:43:58.088778 54632 net.cpp:406] relu6 <- fc6
I1116 06:43:58.088784 54632 net.cpp:367] relu6 -> fc6 (in-place)
I1116 06:43:58.090032 54632 net.cpp:122] Setting up relu6
I1116 06:43:58.090049 54632 net.cpp:129] Top shape: 1 4096 (4096)
I1116 06:43:58.090054 54632 net.cpp:137] Memory required for data: 117629664
I1116 06:43:58.090056 54632 layer_factory.hpp:77] Creating layer drop6
I1116 06:43:58.090078 54632 net.cpp:84] Creating Layer drop6
I1116 06:43:58.090083 54632 net.cpp:406] drop6 <- fc6
I1116 06:43:58.090088 54632 net.cpp:367] drop6 -> fc6 (in-place)
I1116 06:43:58.090152 54632 net.cpp:122] Setting up drop6
I1116 06:43:58.090158 54632 net.cpp:129] Top shape: 1 4096 (4096)
I1116 06:43:58.090162 54632 net.cpp:137] Memory required for data: 117646048
I1116 06:43:58.090164 54632 layer_factory.hpp:77] Creating layer fc7
I1116 06:43:58.090170 54632 net.cpp:84] Creating Layer fc7
I1116 06:43:58.090173 54632 net.cpp:406] fc7 <- fc6
I1116 06:43:58.090180 54632 net.cpp:380] fc7 -> fc7
I1116 06:43:58.141216 54632 net.cpp:122] Setting up fc7
I1116 06:43:58.141266 54632 net.cpp:129] Top shape: 1 4096 (4096)
I1116 06:43:58.141269 54632 net.cpp:137] Memory required for data: 117662432
I1116 06:43:58.141281 54632 layer_factory.hpp:77] Creating layer relu7
I1116 06:43:58.141294 54632 net.cpp:84] Creating Layer relu7
I1116 06:43:58.141297 54632 net.cpp:406] relu7 <- fc7
I1116 06:43:58.141305 54632 net.cpp:367] relu7 -> fc7 (in-place)
I1116 06:43:58.141628 54632 net.cpp:122] Setting up relu7
I1116 06:43:58.141638 54632 net.cpp:129] Top shape: 1 4096 (4096)
I1116 06:43:58.141639 54632 net.cpp:137] Memory required for data: 117678816
I1116 06:43:58.141644 54632 layer_factory.hpp:77] Creating layer drop7
I1116 06:43:58.141650 54632 net.cpp:84] Creating Layer drop7
I1116 06:43:58.141654 54632 net.cpp:406] drop7 <- fc7
I1116 06:43:58.141659 54632 net.cpp:367] drop7 -> fc7 (in-place)
I1116 06:43:58.141706 54632 net.cpp:122] Setting up drop7
I1116 06:43:58.141711 54632 net.cpp:129] Top shape: 1 4096 (4096)
I1116 06:43:58.141715 54632 net.cpp:137] Memory required for data: 117695200
I1116 06:43:58.141717 54632 layer_factory.hpp:77] Creating layer fc7_drop7_0_split
I1116 06:43:58.141731 54632 net.cpp:84] Creating Layer fc7_drop7_0_split
I1116 06:43:58.141736 54632 net.cpp:406] fc7_drop7_0_split <- fc7
I1116 06:43:58.141741 54632 net.cpp:380] fc7_drop7_0_split -> fc7_drop7_0_split_0
I1116 06:43:58.141748 54632 net.cpp:380] fc7_drop7_0_split -> fc7_drop7_0_split_1
I1116 06:43:58.141818 54632 net.cpp:122] Setting up fc7_drop7_0_split
I1116 06:43:58.141824 54632 net.cpp:129] Top shape: 1 4096 (4096)
I1116 06:43:58.141826 54632 net.cpp:129] Top shape: 1 4096 (4096)
I1116 06:43:58.141829 54632 net.cpp:137] Memory required for data: 117727968
I1116 06:43:58.141832 54632 layer_factory.hpp:77] Creating layer cls_score
I1116 06:43:58.141840 54632 net.cpp:84] Creating Layer cls_score
I1116 06:43:58.141844 54632 net.cpp:406] cls_score <- fc7_drop7_0_split_0
I1116 06:43:58.141851 54632 net.cpp:380] cls_score -> cls_score
I1116 06:43:58.145931 54632 net.cpp:122] Setting up cls_score
I1116 06:43:58.145947 54632 net.cpp:129] Top shape: 1 21 (21)
I1116 06:43:58.145951 54632 net.cpp:137] Memory required for data: 117728052
I1116 06:43:58.145957 54632 layer_factory.hpp:77] Creating layer bbox_pred
I1116 06:43:58.145964 54632 net.cpp:84] Creating Layer bbox_pred
I1116 06:43:58.145968 54632 net.cpp:406] bbox_pred <- fc7_drop7_0_split_1
I1116 06:43:58.145974 54632 net.cpp:380] bbox_pred -> bbox_pred
I1116 06:43:58.149914 54632 net.cpp:122] Setting up bbox_pred
I1116 06:43:58.149924 54632 net.cpp:129] Top shape: 1 84 (84)
I1116 06:43:58.149926 54632 net.cpp:137] Memory required for data: 117728388
I1116 06:43:58.149932 54632 layer_factory.hpp:77] Creating layer cls_prob
I1116 06:43:58.149938 54632 net.cpp:84] Creating Layer cls_prob
I1116 06:43:58.149941 54632 net.cpp:406] cls_prob <- cls_score
I1116 06:43:58.149948 54632 net.cpp:380] cls_prob -> cls_prob
I1116 06:43:58.150307 54632 net.cpp:122] Setting up cls_prob
I1116 06:43:58.150315 54632 net.cpp:129] Top shape: 1 21 (21)
I1116 06:43:58.150318 54632 net.cpp:137] Memory required for data: 117728472
I1116 06:43:58.150322 54632 net.cpp:200] cls_prob does not need backward computation.
I1116 06:43:58.150326 54632 net.cpp:200] bbox_pred does not need backward computation.
I1116 06:43:58.150328 54632 net.cpp:200] cls_score does not need backward computation.
I1116 06:43:58.150331 54632 net.cpp:200] fc7_drop7_0_split does not need backward computation.
…
