…
snapshot: 0
snapshot_prefix: "vggx2"
average_loss: 100
iter_size: 2
I0103 15:02:08.820739  1139 solver.cpp:81] Creating training net from train_net file: models/pascal_voc/VGGx2/faster_rcnn_end2end/train.prototxt
I0103 15:02:08.845072  1139 net.cpp:49] Initializing net from parameters: 
name: "VGG_ILSVRC_16_layers"
state {
  phase: TRAIN
}
layer {
  name: "input-data"
  type: "Python"
  top: "data"
  top: "im_info"
  top: "gt_boxes"
  python_param {
    module: "roi_data_layer.layer"
    layer: "RoIDataLayer"
    param_str: "\'num_classes\': 21"
  }
}
layer {
  name: "conv1_1"
  type: "Convolution"
  bottom: "data"
  top: "conv1_1"
  param {
    lr_mult: 0
    decay_mult: 0
  }
  param {
    lr_mult: 0
    decay_mult: 0
  }
  convolution_param {
    num_output: 11
    pad: 1
    kernel_size: 3
  }
}
layer {
  name: "relu1_1"
  type: "ReLU"
  bottom: "conv1_1"
  top: "conv1_1"
}
layer {
  name: "conv1_2"
  type: "Convolution"
  bottom: "conv1_1"
  top: "conv1_2"
  param {
    lr_mult: 0
    decay_mult: 0
  }
  param {
    lr_mult: 0
    decay_mult: 0
  }
  convolution_param {
    num_output: 64
    pad: 1
    kernel_size: 3
  }
}
layer {
  name: "relu1_2"
  type: "ReLU"
  bottom: "conv1_2"
  top: "conv1_2"
}
layer {
  name: "pool1"
  type: "Pooling"
  bottom: "conv1_2"
  top: "pool1"
  pooling_param {
    pool: MAX
    kernel_size: 2
    stride: 2
  }
}
layer {
  name: "conv2_1"
  type: "Convolution"
  bottom: "pool1"
  top: "conv2_1"
  param {
    lr_mult: 0
    decay_mult: 0
  }
  param {
    lr_mult: 0
    decay_mult: 0
  }
  convolution_param {
    num_output: 55
    pad: 1
    kernel_size: 3
  }
}
layer {
  name: "relu2_1"
  type: "ReLU"
  bottom: "conv2_1"
  top: "conv2_1"
}
layer {
  name: "conv2_2"
  type: "Convolution"
  bottom: "conv2_1"
  top: "conv2_2"
  param {
    lr_mult: 0
    decay_mult: 0
  }
  param {
    lr_mult: 0
    decay_mult: 0
  }
  convolution_param {
    num_output: 128
    pad: 1
    kernel_size: 3
  }
}
layer {
  name: "relu2_2"
  type: "ReLU"
  bottom: "conv2_2"
  top: "conv2_2"
}
layer {
  name: "pool2"
  type: "Pooling"
  bottom: "conv2_2"
  top: "pool2"
  pooling_param {
    pool: MAX
    kernel_size: 2
    stride: 2
  }
}
layer {
  name: "conv3_1"
  type: "Convolution"
  bottom: "pool2"
  top: "conv3_1"
  param {
    lr_mult: 1
  }
  param {
    lr_mult: 2
  }
  convolution_param {
    num_output: 148
    pad: 1
    kernel_size: 3
  }
}
layer {
  name: "relu3_1"
  type: "ReLU"
  bottom: "conv3_1"
  top: "conv3_1"
}
layer {
  name: "conv3_2"
  type: "Convolution"
  bottom: "conv3_1"
  top: "conv3_2"
  param {
    lr_mult: 1
  }
  param {
    lr_mult: 2
  }
  convolution_param {
    num_output: 104
    pad: 1
    kernel_size: 3
  }
}
layer {
  name: "relu3_2"
  type: "ReLU"
  bottom: "conv3_2"
  top: "conv3_2"
}
layer {
  name: "conv3_3"
  type: "Convolution"
  bottom: "conv3_2"
  top: "conv3_3"
  param {
    lr_mult: 1
  }
  param {
    lr_mult: 2
  }
  convolution_param {
    num_output: 256
    pad: 1
    kernel_size: 3
  }
}
layer {
  name: "relu3_3"
  type: "ReLU"
  bottom: "conv3_3"
  top: "conv3_3"
}
layer {
  name: "pool3"
  type: "Pooling"
  bottom: "conv3_3"
  top: "pool3"
  pooling_param {
    pool: MAX
    kernel_size: 2
    stride: 2
  }
}
layer {
  name: "conv4_1"
  type: "Convolution"
  bottom: "pool3"
  top: "conv4_1"
  param {
    lr_mult: 1
  }
  param {
    lr_mult: 2
  }
  convolution_param {
    num_output: 221
    pad: 1
    kernel_size: 3
  }
}
layer {
  name: "relu4_1"
  type: "ReLU"
  bottom: "conv4_1"
  top: "conv4_1"
}
layer {
  name: "conv4_2"
  type: "Convolution"
  bottom: "conv4_1"
  top: "conv4_2"
  param {
    lr_mult: 1
  }
  param {
    lr_mult: 2
  }
  convolution_param {
    num_output: 421
    pad: 1
    kernel_size: 3
  }
}
layer {
  name: "relu4_2"
  type: "ReLU"
  bottom: "conv4_2"
  top: "conv4_2"
}
layer {
  name: "conv4_3"
  type: "Convolution"
  bottom: "conv4_2"
  top: "conv4_3"
  param {
    lr_mult: 1
  }
  param {
    lr_mult: 2
  }
  convolution_param {
    num_output: 512
    pad: 1
    kernel_size: 3
  }
}
layer {
  name: "relu4_3"
  type: "ReLU"
  bottom: "conv4_3"
  top: "conv4_3"
}
layer {
  name: "pool4"
  type: "Pooling"
  bottom: "conv4_3"
  top: "pool4"
  pooling_param {
    pool: MAX
    kernel_size: 2
    stride: 2
  }
}
layer {
  name: "conv5_1"
  type: "Convolution"
  bottom: "pool4"
  top: "conv5_1"
  param {
    lr_mult: 1
  }
  param {
    lr_mult: 2
  }
  convolution_param {
    num_output: 512
    pad: 1
    kernel_size: 3
  }
}
layer {
  name: "relu5_1"
  type: "ReLU"
  bottom: "conv5_1"
  top: "conv5_1"
}
layer {
  name: "conv5_2"
  type: "Convolution"
  bottom: "conv5_1"
  top: "conv5_2"
  param {
    lr_mult: 1
  }
  param {
    lr_mult: 2
  }
  convolution_param {
    num_output: 512
    pad: 1
    kernel_size: 3
  }
}
layer {
  name: "relu5_2"
  type: "ReLU"
  bottom: "conv5_2"
  top: "conv5_2"
}
layer {
  name: "conv5_3"
  type: "Convolution"
  bottom: "conv5_2"
  top: "conv5_3"
  param {
    lr_mult: 1
  }
  param {
    lr_mult: 2
  }
  convolution_param {
    num_output: 512
    pad: 1
    kernel_size: 3
  }
}
layer {
  name: "relu5_3"
  type: "ReLU"
  bottom: "conv5_3"
  top: "conv5_3"
}
layer {
  name: "rpn_conv/3x3"
  type: "Convolution"
  bottom: "conv5_3"
  top: "rpn/output"
  param {
    lr_mult: 1
  }
  param {
    lr_mult: 2
  }
  convolution_param {
    num_output: 512
    pad: 1
    kernel_size: 3
    stride: 1
    weight_filler {
      type: "gaussian"
      std: 0.01
    }
    bias_filler {
      type: "constant"
      value: 0
    }
  }
}
layer {
  name: "rpn_relu/3x3"
  type: "ReLU"
  bottom: "rpn/output"
  top: "rpn/output"
}
layer {
  name: "rpn_cls_score"
  type: "Convolution"
  bottom: "rpn/output"
  top: "rpn_cls_score"
  param {
    lr_mult: 1
  }
  param {
    lr_mult: 2
  }
  convolution_param {
    num_output: 18
    pad: 0
    kernel_size: 1
    stride: 1
    weight_filler {
      type: "gaussian"
      std: 0.01
    }
    bias_filler {
      type: "constant"
      value: 0
    }
  }
}
layer {
  name: "rpn_bbox_pred"
  type: "Convolution"
  bottom: "rpn/output"
  top: "rpn_bbox_pred"
  param {
    lr_mult: 1
  }
  param {
    lr_mult: 2
  }
  convolution_param {
    num_output: 36
    pad: 0
    kernel_size: 1
    stride: 1
    weight_filler {
      type: "gaussian"
      std: 0.01
    }
    bias_filler {
      type: "constant"
      value: 0
    }
  }
}
layer {
  name: "rpn_cls_score_reshape"
  type: "Reshape"
  bottom: "rpn_cls_score"
  top: "rpn_cls_score_reshape"
  reshape_param {
    shape {
      dim: 0
      dim: 2
      dim: -1
      dim: 0
    }
  }
}
layer {
  name: "rpn-data"
  type: "Python"
  bottom: "rpn_cls_score"
  bottom: "gt_boxes"
  bottom: "im_info"
  bottom: "data"
  top: "rpn_labels"
  top: "rpn_bbox_targets"
  top: "rpn_bbox_inside_weights"
  top: "rpn_bbox_outside_weights"
  python_param {
    module: "rpn.anchor_target_layer"
    layer: "AnchorTargetLayer"
    param_str: "\'feat_stride\': 16"
  }
}
layer {
  name: "rpn_loss_cls"
  type: "SoftmaxWithLoss"
  bottom: "rpn_cls_score_reshape"
  bottom: "rpn_labels"
  top: "rpn_cls_loss"
  loss_weight: 1
  propagate_down: true
  propagate_down: false
  loss_param {
    ignore_label: -1
    normalize: true
  }
}
layer {
  name: "rpn_loss_bbox"
  type: "SmoothL1Loss"
  bottom: "rpn_bbox_pred"
  bottom: "rpn_bbox_targets"
  bottom: "rpn_bbox_inside_weights"
  bottom: "rpn_bbox_outside_weights"
  top: "rpn_loss_bbox"
  loss_weight: 1
  smooth_l1_loss_param {
    sigma: 3
  }
}
layer {
  name: "rpn_cls_prob"
  type: "Softmax"
  bottom: "rpn_cls_score_reshape"
  top: "rpn_cls_prob"
}
layer {
  name: "rpn_cls_prob_reshape"
  type: "Reshape"
  bottom: "rpn_cls_prob"
  top: "rpn_cls_prob_reshape"
  reshape_param {
    shape {
      dim: 0
      dim: 18
      dim: -1
      dim: 0
    }
  }
}
layer {
  name: "proposal"
  type: "Python"
  bottom: "rpn_cls_prob_reshape"
  bottom: "rpn_bbox_pred"
  bottom: "im_info"
  top: "rpn_rois"
  python_param {
    module: "rpn.proposal_layer"
    layer: "ProposalLayer"
    param_str: "\'feat_stride\': 16"
  }
}
layer {
  name: "roi-data"
  type: "Python"
  bottom: "rpn_rois"
  bottom: "gt_boxes"
  top: "rois"
  top: "labels"
  top: "bbox_targets"
  top: "bbox_inside_weights"
  top: "bbox_outside_weights"
  python_param {
    module: "rpn.proposal_target_layer"
    layer: "ProposalTargetLayer"
    param_str: "\'num_classes\': 21"
  }
}
layer {
  name: "roi_pool5"
  type: "ROIPooling"
  bottom: "conv5_3"
  bottom: "rois"
  top: "pool5"
  roi_pooling_param {
    pooled_h: 7
    pooled_w: 7
    spatial_scale: 0.0625
  }
}
layer {
  name: "fc6"
  type: "InnerProduct"
  bottom: "pool5"
  top: "fc6"
  param {
    lr_mult: 1
  }
  param {
    lr_mult: 2
  }
  inner_product_param {
    num_output: 4096
  }
}
layer {
  name: "relu6"
  type: "ReLU"
  bottom: "fc6"
  top: "fc6"
}
layer {
  name: "drop6"
  type: "Dropout"
  bottom: "fc6"
  top: "fc6"
  dropout_param {
    dropout_ratio: 0.5
  }
}
layer {
  name: "fc7"
  type: "InnerProduct"
  bottom: "fc6"
  top: "fc7"
  param {
    lr_mult: 1
  }
  param {
    lr_mult: 2
  }
  inner_product_param {
    num_output: 4096
  }
}
layer {
  name: "relu7"
  type: "ReLU"
  bottom: "fc7"
  top: "fc7"
}
layer {
  name: "drop7"
  type: "Dropout"
  bottom: "fc7"
  top: "fc7"
  dropout_param {
    dropout_ratio: 0.5
  }
}
layer {
  name: "cls_score"
  type: "InnerProduct"
  bottom: "fc7"
  top: "cls_score"
  param {
    lr_mult: 1
  }
  param {
    lr_mult: 2
  }
  inner_product_param {
    num_output: 21
    weight_filler {
      type: "gaussian"
      std: 0.01
    }
    bias_filler {
      type: "constant"
      value: 0
    }
  }
}
layer {
  name: "bbox_pred"
  type: "InnerProduct"
  bottom: "fc7"
  top: "bbox_pred"
  param {
    lr_mult: 1
  }
  param {
    lr_mult: 2
  }
  inner_product_param {
    num_output: 84
    weight_filler {
      type: "gaussian"
      std: 0.001
    }
    bias_filler {
      type: "constant"
      value: 0
    }
  }
}
layer {
  name: "loss_cls"
  type: "SoftmaxWithLoss"
  bottom: "cls_score"
  bottom: "labels"
  top: "loss_cls"
  loss_weight: 1
  propagate_down: true
  propagate_down: false
}
layer {
  name: "loss_bbox"
  type: "SmoothL1Loss"
  bottom: "bbox_pred"
  bottom: "bbox_targets"
  bottom: "bbox_inside_weights"
  bottom: "bbox_outside_weights"
  top: "loss_bbox"
  loss_weight: 1
}
I0103 15:02:08.845531  1139 layer_factory.hpp:77] Creating layer input-data
I0103 15:02:08.904193  1139 net.cpp:106] Creating Layer input-data
I0103 15:02:08.904228  1139 net.cpp:411] input-data -> data
I0103 15:02:08.904258  1139 net.cpp:411] input-data -> im_info
I0103 15:02:08.904270  1139 net.cpp:411] input-data -> gt_boxes
RoiDataLayer: name_to_top: {'gt_boxes': 2, 'data': 0, 'im_info': 1}
I0103 15:02:08.923981  1139 net.cpp:150] Setting up input-data
I0103 15:02:08.924011  1139 net.cpp:157] Top shape: 1 3 600 1000 (1800000)
I0103 15:02:08.924021  1139 net.cpp:157] Top shape: 1 3 (3)
I0103 15:02:08.924026  1139 net.cpp:157] Top shape: 1 4 (4)
I0103 15:02:08.924029  1139 net.cpp:165] Memory required for data: 7200028
I0103 15:02:08.924036  1139 layer_factory.hpp:77] Creating layer data_input-data_0_split
I0103 15:02:08.924048  1139 net.cpp:106] Creating Layer data_input-data_0_split
I0103 15:02:08.924057  1139 net.cpp:454] data_input-data_0_split <- data
I0103 15:02:08.924067  1139 net.cpp:411] data_input-data_0_split -> data_input-data_0_split_0
I0103 15:02:08.924077  1139 net.cpp:411] data_input-data_0_split -> data_input-data_0_split_1
I0103 15:02:08.924147  1139 net.cpp:150] Setting up data_input-data_0_split
I0103 15:02:08.924159  1139 net.cpp:157] Top shape: 1 3 600 1000 (1800000)
I0103 15:02:08.924165  1139 net.cpp:157] Top shape: 1 3 600 1000 (1800000)
I0103 15:02:08.924168  1139 net.cpp:165] Memory required for data: 21600028
I0103 15:02:08.924172  1139 layer_factory.hpp:77] Creating layer im_info_input-data_1_split
I0103 15:02:08.924180  1139 net.cpp:106] Creating Layer im_info_input-data_1_split
I0103 15:02:08.924183  1139 net.cpp:454] im_info_input-data_1_split <- im_info
I0103 15:02:08.924190  1139 net.cpp:411] im_info_input-data_1_split -> im_info_input-data_1_split_0
I0103 15:02:08.924199  1139 net.cpp:411] im_info_input-data_1_split -> im_info_input-data_1_split_1
I0103 15:02:08.924257  1139 net.cpp:150] Setting up im_info_input-data_1_split
I0103 15:02:08.924268  1139 net.cpp:157] Top shape: 1 3 (3)
I0103 15:02:08.924273  1139 net.cpp:157] Top shape: 1 3 (3)
I0103 15:02:08.924275  1139 net.cpp:165] Memory required for data: 21600052
I0103 15:02:08.924279  1139 layer_factory.hpp:77] Creating layer gt_boxes_input-data_2_split
I0103 15:02:08.924285  1139 net.cpp:106] Creating Layer gt_boxes_input-data_2_split
I0103 15:02:08.924289  1139 net.cpp:454] gt_boxes_input-data_2_split <- gt_boxes
I0103 15:02:08.924295  1139 net.cpp:411] gt_boxes_input-data_2_split -> gt_boxes_input-data_2_split_0
I0103 15:02:08.924304  1139 net.cpp:411] gt_boxes_input-data_2_split -> gt_boxes_input-data_2_split_1
I0103 15:02:08.924362  1139 net.cpp:150] Setting up gt_boxes_input-data_2_split
I0103 15:02:08.924371  1139 net.cpp:157] Top shape: 1 4 (4)
I0103 15:02:08.924377  1139 net.cpp:157] Top shape: 1 4 (4)
I0103 15:02:08.924381  1139 net.cpp:165] Memory required for data: 21600084
I0103 15:02:08.924383  1139 layer_factory.hpp:77] Creating layer conv1_1
I0103 15:02:08.924406  1139 net.cpp:106] Creating Layer conv1_1
I0103 15:02:08.924413  1139 net.cpp:454] conv1_1 <- data_input-data_0_split_0
I0103 15:02:08.924422  1139 net.cpp:411] conv1_1 -> conv1_1
I0103 15:02:09.166535  1139 net.cpp:150] Setting up conv1_1
I0103 15:02:09.166577  1139 net.cpp:157] Top shape: 1 11 600 1000 (6600000)
I0103 15:02:09.166584  1139 net.cpp:165] Memory required for data: 48000084
I0103 15:02:09.166616  1139 layer_factory.hpp:77] Creating layer relu1_1
I0103 15:02:09.166636  1139 net.cpp:106] Creating Layer relu1_1
I0103 15:02:09.166648  1139 net.cpp:454] relu1_1 <- conv1_1
I0103 15:02:09.166658  1139 net.cpp:397] relu1_1 -> conv1_1 (in-place)
I0103 15:02:09.167930  1139 net.cpp:150] Setting up relu1_1
I0103 15:02:09.167951  1139 net.cpp:157] Top shape: 1 11 600 1000 (6600000)
I0103 15:02:09.167956  1139 net.cpp:165] Memory required for data: 74400084
I0103 15:02:09.167961  1139 layer_factory.hpp:77] Creating layer conv1_2
I0103 15:02:09.167978  1139 net.cpp:106] Creating Layer conv1_2
I0103 15:02:09.167982  1139 net.cpp:454] conv1_2 <- conv1_1
I0103 15:02:09.167991  1139 net.cpp:411] conv1_2 -> conv1_2
I0103 15:02:09.176502  1139 net.cpp:150] Setting up conv1_2
I0103 15:02:09.176527  1139 net.cpp:157] Top shape: 1 64 600 1000 (38400000)
I0103 15:02:09.176532  1139 net.cpp:165] Memory required for data: 228000084
I0103 15:02:09.176545  1139 layer_factory.hpp:77] Creating layer relu1_2
I0103 15:02:09.176554  1139 net.cpp:106] Creating Layer relu1_2
I0103 15:02:09.176559  1139 net.cpp:454] relu1_2 <- conv1_2
I0103 15:02:09.176566  1139 net.cpp:397] relu1_2 -> conv1_2 (in-place)
I0103 15:02:09.176838  1139 net.cpp:150] Setting up relu1_2
I0103 15:02:09.176852  1139 net.cpp:157] Top shape: 1 64 600 1000 (38400000)
I0103 15:02:09.176857  1139 net.cpp:165] Memory required for data: 381600084
I0103 15:02:09.176862  1139 layer_factory.hpp:77] Creating layer pool1
I0103 15:02:09.176875  1139 net.cpp:106] Creating Layer pool1
I0103 15:02:09.176880  1139 net.cpp:454] pool1 <- conv1_2
I0103 15:02:09.176887  1139 net.cpp:411] pool1 -> pool1
I0103 15:02:09.176995  1139 net.cpp:150] Setting up pool1
I0103 15:02:09.177006  1139 net.cpp:157] Top shape: 1 64 300 500 (9600000)
I0103 15:02:09.177011  1139 net.cpp:165] Memory required for data: 420000084
I0103 15:02:09.177016  1139 layer_factory.hpp:77] Creating layer conv2_1
I0103 15:02:09.177026  1139 net.cpp:106] Creating Layer conv2_1
I0103 15:02:09.177033  1139 net.cpp:454] conv2_1 <- pool1
I0103 15:02:09.177042  1139 net.cpp:411] conv2_1 -> conv2_1
I0103 15:02:09.184350  1139 net.cpp:150] Setting up conv2_1
I0103 15:02:09.184378  1139 net.cpp:157] Top shape: 1 55 300 500 (8250000)
I0103 15:02:09.184384  1139 net.cpp:165] Memory required for data: 453000084
I0103 15:02:09.184404  1139 layer_factory.hpp:77] Creating layer relu2_1
I0103 15:02:09.184415  1139 net.cpp:106] Creating Layer relu2_1
I0103 15:02:09.184422  1139 net.cpp:454] relu2_1 <- conv2_1
I0103 15:02:09.184430  1139 net.cpp:397] relu2_1 -> conv2_1 (in-place)
I0103 15:02:09.184738  1139 net.cpp:150] Setting up relu2_1
I0103 15:02:09.184752  1139 net.cpp:157] Top shape: 1 55 300 500 (8250000)
I0103 15:02:09.184756  1139 net.cpp:165] Memory required for data: 486000084
I0103 15:02:09.184762  1139 layer_factory.hpp:77] Creating layer conv2_2
I0103 15:02:09.184772  1139 net.cpp:106] Creating Layer conv2_2
I0103 15:02:09.184775  1139 net.cpp:454] conv2_2 <- conv2_1
I0103 15:02:09.184783  1139 net.cpp:411] conv2_2 -> conv2_2
I0103 15:02:09.190367  1139 net.cpp:150] Setting up conv2_2
I0103 15:02:09.190388  1139 net.cpp:157] Top shape: 1 128 300 500 (19200000)
I0103 15:02:09.190393  1139 net.cpp:165] Memory required for data: 562800084
I0103 15:02:09.190403  1139 layer_factory.hpp:77] Creating layer relu2_2
I0103 15:02:09.190412  1139 net.cpp:106] Creating Layer relu2_2
I0103 15:02:09.190417  1139 net.cpp:454] relu2_2 <- conv2_2
I0103 15:02:09.190423  1139 net.cpp:397] relu2_2 -> conv2_2 (in-place)
I0103 15:02:09.191550  1139 net.cpp:150] Setting up relu2_2
I0103 15:02:09.191570  1139 net.cpp:157] Top shape: 1 128 300 500 (19200000)
I0103 15:02:09.191573  1139 net.cpp:165] Memory required for data: 639600084
I0103 15:02:09.191577  1139 layer_factory.hpp:77] Creating layer pool2
I0103 15:02:09.191586  1139 net.cpp:106] Creating Layer pool2
I0103 15:02:09.191591  1139 net.cpp:454] pool2 <- conv2_2
I0103 15:02:09.191599  1139 net.cpp:411] pool2 -> pool2
I0103 15:02:09.191690  1139 net.cpp:150] Setting up pool2
I0103 15:02:09.191701  1139 net.cpp:157] Top shape: 1 128 150 250 (4800000)
I0103 15:02:09.191705  1139 net.cpp:165] Memory required for data: 658800084
I0103 15:02:09.191709  1139 layer_factory.hpp:77] Creating layer conv3_1
I0103 15:02:09.191720  1139 net.cpp:106] Creating Layer conv3_1
I0103 15:02:09.191727  1139 net.cpp:454] conv3_1 <- pool2
I0103 15:02:09.191735  1139 net.cpp:411] conv3_1 -> conv3_1
I0103 15:02:09.197293  1139 net.cpp:150] Setting up conv3_1
I0103 15:02:09.197314  1139 net.cpp:157] Top shape: 1 148 150 250 (5550000)
I0103 15:02:09.197319  1139 net.cpp:165] Memory required for data: 681000084
I0103 15:02:09.197334  1139 layer_factory.hpp:77] Creating layer relu3_1
I0103 15:02:09.197343  1139 net.cpp:106] Creating Layer relu3_1
I0103 15:02:09.197348  1139 net.cpp:454] relu3_1 <- conv3_1
I0103 15:02:09.197355  1139 net.cpp:397] relu3_1 -> conv3_1 (in-place)
I0103 15:02:09.197623  1139 net.cpp:150] Setting up relu3_1
I0103 15:02:09.197638  1139 net.cpp:157] Top shape: 1 148 150 250 (5550000)
I0103 15:02:09.197641  1139 net.cpp:165] Memory required for data: 703200084
I0103 15:02:09.197645  1139 layer_factory.hpp:77] Creating layer conv3_2
I0103 15:02:09.197660  1139 net.cpp:106] Creating Layer conv3_2
I0103 15:02:09.197665  1139 net.cpp:454] conv3_2 <- conv3_1
I0103 15:02:09.197674  1139 net.cpp:411] conv3_2 -> conv3_2
I0103 15:02:09.203400  1139 net.cpp:150] Setting up conv3_2
I0103 15:02:09.203423  1139 net.cpp:157] Top shape: 1 104 150 250 (3900000)
I0103 15:02:09.203426  1139 net.cpp:165] Memory required for data: 718800084
I0103 15:02:09.203436  1139 layer_factory.hpp:77] Creating layer relu3_2
I0103 15:02:09.203444  1139 net.cpp:106] Creating Layer relu3_2
I0103 15:02:09.203449  1139 net.cpp:454] relu3_2 <- conv3_2
I0103 15:02:09.203456  1139 net.cpp:397] relu3_2 -> conv3_2 (in-place)
I0103 15:02:09.203711  1139 net.cpp:150] Setting up relu3_2
I0103 15:02:09.203725  1139 net.cpp:157] Top shape: 1 104 150 250 (3900000)
I0103 15:02:09.203730  1139 net.cpp:165] Memory required for data: 734400084
I0103 15:02:09.203734  1139 layer_factory.hpp:77] Creating layer conv3_3
I0103 15:02:09.203750  1139 net.cpp:106] Creating Layer conv3_3
I0103 15:02:09.203755  1139 net.cpp:454] conv3_3 <- conv3_2
I0103 15:02:09.203763  1139 net.cpp:411] conv3_3 -> conv3_3
I0103 15:02:09.209161  1139 net.cpp:150] Setting up conv3_3
I0103 15:02:09.209182  1139 net.cpp:157] Top shape: 1 256 150 250 (9600000)
I0103 15:02:09.209187  1139 net.cpp:165] Memory required for data: 772800084
I0103 15:02:09.209195  1139 layer_factory.hpp:77] Creating layer relu3_3
I0103 15:02:09.209203  1139 net.cpp:106] Creating Layer relu3_3
I0103 15:02:09.209208  1139 net.cpp:454] relu3_3 <- conv3_3
I0103 15:02:09.209214  1139 net.cpp:397] relu3_3 -> conv3_3 (in-place)
I0103 15:02:09.210309  1139 net.cpp:150] Setting up relu3_3
I0103 15:02:09.210325  1139 net.cpp:157] Top shape: 1 256 150 250 (9600000)
I0103 15:02:09.210330  1139 net.cpp:165] Memory required for data: 811200084
I0103 15:02:09.210335  1139 layer_factory.hpp:77] Creating layer pool3
I0103 15:02:09.210342  1139 net.cpp:106] Creating Layer pool3
I0103 15:02:09.210346  1139 net.cpp:454] pool3 <- conv3_3
I0103 15:02:09.210355  1139 net.cpp:411] pool3 -> pool3
I0103 15:02:09.210443  1139 net.cpp:150] Setting up pool3
I0103 15:02:09.210454  1139 net.cpp:157] Top shape: 1 256 75 125 (2400000)
I0103 15:02:09.210458  1139 net.cpp:165] Memory required for data: 820800084
I0103 15:02:09.210461  1139 layer_factory.hpp:77] Creating layer conv4_1
I0103 15:02:09.210471  1139 net.cpp:106] Creating Layer conv4_1
I0103 15:02:09.210475  1139 net.cpp:454] conv4_1 <- pool3
I0103 15:02:09.210482  1139 net.cpp:411] conv4_1 -> conv4_1
I0103 15:02:09.216804  1139 net.cpp:150] Setting up conv4_1
I0103 15:02:09.216825  1139 net.cpp:157] Top shape: 1 221 75 125 (2071875)
I0103 15:02:09.216830  1139 net.cpp:165] Memory required for data: 829087584
I0103 15:02:09.216840  1139 layer_factory.hpp:77] Creating layer relu4_1
I0103 15:02:09.216848  1139 net.cpp:106] Creating Layer relu4_1
I0103 15:02:09.216853  1139 net.cpp:454] relu4_1 <- conv4_1
I0103 15:02:09.216859  1139 net.cpp:397] relu4_1 -> conv4_1 (in-place)
I0103 15:02:09.217907  1139 net.cpp:150] Setting up relu4_1
I0103 15:02:09.217926  1139 net.cpp:157] Top shape: 1 221 75 125 (2071875)
I0103 15:02:09.217929  1139 net.cpp:165] Memory required for data: 837375084
I0103 15:02:09.217933  1139 layer_factory.hpp:77] Creating layer conv4_2
I0103 15:02:09.217944  1139 net.cpp:106] Creating Layer conv4_2
I0103 15:02:09.217948  1139 net.cpp:454] conv4_2 <- conv4_1
I0103 15:02:09.217957  1139 net.cpp:411] conv4_2 -> conv4_2
I0103 15:02:09.224045  1139 net.cpp:150] Setting up conv4_2
I0103 15:02:09.224064  1139 net.cpp:157] Top shape: 1 421 75 125 (3946875)
I0103 15:02:09.224068  1139 net.cpp:165] Memory required for data: 853162584
I0103 15:02:09.224082  1139 layer_factory.hpp:77] Creating layer relu4_2
I0103 15:02:09.224090  1139 net.cpp:106] Creating Layer relu4_2
I0103 15:02:09.224094  1139 net.cpp:454] relu4_2 <- conv4_2
I0103 15:02:09.224102  1139 net.cpp:397] relu4_2 -> conv4_2 (in-place)
I0103 15:02:09.224329  1139 net.cpp:150] Setting up relu4_2
I0103 15:02:09.224342  1139 net.cpp:157] Top shape: 1 421 75 125 (3946875)
I0103 15:02:09.224346  1139 net.cpp:165] Memory required for data: 868950084
I0103 15:02:09.224349  1139 layer_factory.hpp:77] Creating layer conv4_3
I0103 15:02:09.224360  1139 net.cpp:106] Creating Layer conv4_3
I0103 15:02:09.224364  1139 net.cpp:454] conv4_3 <- conv4_2
I0103 15:02:09.224371  1139 net.cpp:411] conv4_3 -> conv4_3
I0103 15:02:09.233292  1139 net.cpp:150] Setting up conv4_3
I0103 15:02:09.233311  1139 net.cpp:157] Top shape: 1 512 75 125 (4800000)
I0103 15:02:09.233315  1139 net.cpp:165] Memory required for data: 888150084
I0103 15:02:09.233324  1139 layer_factory.hpp:77] Creating layer relu4_3
I0103 15:02:09.233331  1139 net.cpp:106] Creating Layer relu4_3
I0103 15:02:09.233335  1139 net.cpp:454] relu4_3 <- conv4_3
I0103 15:02:09.233343  1139 net.cpp:397] relu4_3 -> conv4_3 (in-place)
I0103 15:02:09.234333  1139 net.cpp:150] Setting up relu4_3
I0103 15:02:09.234349  1139 net.cpp:157] Top shape: 1 512 75 125 (4800000)
I0103 15:02:09.234354  1139 net.cpp:165] Memory required for data: 907350084
I0103 15:02:09.234356  1139 layer_factory.hpp:77] Creating layer pool4
I0103 15:02:09.234365  1139 net.cpp:106] Creating Layer pool4
I0103 15:02:09.234369  1139 net.cpp:454] pool4 <- conv4_3
I0103 15:02:09.234375  1139 net.cpp:411] pool4 -> pool4
I0103 15:02:09.234462  1139 net.cpp:150] Setting up pool4
I0103 15:02:09.234472  1139 net.cpp:157] Top shape: 1 512 38 63 (1225728)
I0103 15:02:09.234475  1139 net.cpp:165] Memory required for data: 912252996
I0103 15:02:09.234478  1139 layer_factory.hpp:77] Creating layer conv5_1
I0103 15:02:09.234488  1139 net.cpp:106] Creating Layer conv5_1
I0103 15:02:09.234490  1139 net.cpp:454] conv5_1 <- pool4
I0103 15:02:09.234498  1139 net.cpp:411] conv5_1 -> conv5_1
I0103 15:02:09.245743  1139 net.cpp:150] Setting up conv5_1
I0103 15:02:09.245762  1139 net.cpp:157] Top shape: 1 512 38 63 (1225728)
I0103 15:02:09.245766  1139 net.cpp:165] Memory required for data: 917155908
I0103 15:02:09.245774  1139 layer_factory.hpp:77] Creating layer relu5_1
I0103 15:02:09.245784  1139 net.cpp:106] Creating Layer relu5_1
I0103 15:02:09.245790  1139 net.cpp:454] relu5_1 <- conv5_1
I0103 15:02:09.245795  1139 net.cpp:397] relu5_1 -> conv5_1 (in-place)
I0103 15:02:09.246031  1139 net.cpp:150] Setting up relu5_1
I0103 15:02:09.246043  1139 net.cpp:157] Top shape: 1 512 38 63 (1225728)
I0103 15:02:09.246047  1139 net.cpp:165] Memory required for data: 922058820
I0103 15:02:09.246050  1139 layer_factory.hpp:77] Creating layer conv5_2
I0103 15:02:09.246062  1139 net.cpp:106] Creating Layer conv5_2
I0103 15:02:09.246064  1139 net.cpp:454] conv5_2 <- conv5_1
I0103 15:02:09.246070  1139 net.cpp:411] conv5_2 -> conv5_2
I0103 15:02:09.255650  1139 net.cpp:150] Setting up conv5_2
I0103 15:02:09.255671  1139 net.cpp:157] Top shape: 1 512 38 63 (1225728)
I0103 15:02:09.255674  1139 net.cpp:165] Memory required for data: 926961732
I0103 15:02:09.255682  1139 layer_factory.hpp:77] Creating layer relu5_2
I0103 15:02:09.255689  1139 net.cpp:106] Creating Layer relu5_2
I0103 15:02:09.255692  1139 net.cpp:454] relu5_2 <- conv5_2
I0103 15:02:09.255698  1139 net.cpp:397] relu5_2 -> conv5_2 (in-place)
I0103 15:02:09.255918  1139 net.cpp:150] Setting up relu5_2
I0103 15:02:09.255930  1139 net.cpp:157] Top shape: 1 512 38 63 (1225728)
I0103 15:02:09.255934  1139 net.cpp:165] Memory required for data: 931864644
I0103 15:02:09.255936  1139 layer_factory.hpp:77] Creating layer conv5_3
I0103 15:02:09.255956  1139 net.cpp:106] Creating Layer conv5_3
I0103 15:02:09.255962  1139 net.cpp:454] conv5_3 <- conv5_2
I0103 15:02:09.255970  1139 net.cpp:411] conv5_3 -> conv5_3
I0103 15:02:09.265602  1139 net.cpp:150] Setting up conv5_3
I0103 15:02:09.265621  1139 net.cpp:157] Top shape: 1 512 38 63 (1225728)
I0103 15:02:09.265625  1139 net.cpp:165] Memory required for data: 936767556
I0103 15:02:09.265632  1139 layer_factory.hpp:77] Creating layer relu5_3
I0103 15:02:09.265641  1139 net.cpp:106] Creating Layer relu5_3
I0103 15:02:09.265645  1139 net.cpp:454] relu5_3 <- conv5_3
I0103 15:02:09.265651  1139 net.cpp:397] relu5_3 -> conv5_3 (in-place)
I0103 15:02:09.266585  1139 net.cpp:150] Setting up relu5_3
I0103 15:02:09.266602  1139 net.cpp:157] Top shape: 1 512 38 63 (1225728)
I0103 15:02:09.266604  1139 net.cpp:165] Memory required for data: 941670468
I0103 15:02:09.266608  1139 layer_factory.hpp:77] Creating layer conv5_3_relu5_3_0_split
I0103 15:02:09.266618  1139 net.cpp:106] Creating Layer conv5_3_relu5_3_0_split
I0103 15:02:09.266621  1139 net.cpp:454] conv5_3_relu5_3_0_split <- conv5_3
I0103 15:02:09.266628  1139 net.cpp:411] conv5_3_relu5_3_0_split -> conv5_3_relu5_3_0_split_0
I0103 15:02:09.266638  1139 net.cpp:411] conv5_3_relu5_3_0_split -> conv5_3_relu5_3_0_split_1
I0103 15:02:09.266721  1139 net.cpp:150] Setting up conv5_3_relu5_3_0_split
I0103 15:02:09.266731  1139 net.cpp:157] Top shape: 1 512 38 63 (1225728)
I0103 15:02:09.266736  1139 net.cpp:157] Top shape: 1 512 38 63 (1225728)
I0103 15:02:09.266737  1139 net.cpp:165] Memory required for data: 951476292
I0103 15:02:09.266741  1139 layer_factory.hpp:77] Creating layer rpn_conv/3x3
I0103 15:02:09.266755  1139 net.cpp:106] Creating Layer rpn_conv/3x3
I0103 15:02:09.266759  1139 net.cpp:454] rpn_conv/3x3 <- conv5_3_relu5_3_0_split_0
I0103 15:02:09.266765  1139 net.cpp:411] rpn_conv/3x3 -> rpn/output
I0103 15:02:09.302987  1139 net.cpp:150] Setting up rpn_conv/3x3
I0103 15:02:09.303007  1139 net.cpp:157] Top shape: 1 512 38 63 (1225728)
I0103 15:02:09.303010  1139 net.cpp:165] Memory required for data: 956379204
I0103 15:02:09.303019  1139 layer_factory.hpp:77] Creating layer rpn_relu/3x3
I0103 15:02:09.303027  1139 net.cpp:106] Creating Layer rpn_relu/3x3
I0103 15:02:09.303031  1139 net.cpp:454] rpn_relu/3x3 <- rpn/output
I0103 15:02:09.303037  1139 net.cpp:397] rpn_relu/3x3 -> rpn/output (in-place)
I0103 15:02:09.303264  1139 net.cpp:150] Setting up rpn_relu/3x3
I0103 15:02:09.303277  1139 net.cpp:157] Top shape: 1 512 38 63 (1225728)
I0103 15:02:09.303280  1139 net.cpp:165] Memory required for data: 961282116
I0103 15:02:09.303284  1139 layer_factory.hpp:77] Creating layer rpn/output_rpn_relu/3x3_0_split
I0103 15:02:09.303290  1139 net.cpp:106] Creating Layer rpn/output_rpn_relu/3x3_0_split
I0103 15:02:09.303294  1139 net.cpp:454] rpn/output_rpn_relu/3x3_0_split <- rpn/output
I0103 15:02:09.303302  1139 net.cpp:411] rpn/output_rpn_relu/3x3_0_split -> rpn/output_rpn_relu/3x3_0_split_0
I0103 15:02:09.303309  1139 net.cpp:411] rpn/output_rpn_relu/3x3_0_split -> rpn/output_rpn_relu/3x3_0_split_1
I0103 15:02:09.303397  1139 net.cpp:150] Setting up rpn/output_rpn_relu/3x3_0_split
I0103 15:02:09.303407  1139 net.cpp:157] Top shape: 1 512 38 63 (1225728)
I0103 15:02:09.303411  1139 net.cpp:157] Top shape: 1 512 38 63 (1225728)
I0103 15:02:09.303414  1139 net.cpp:165] Memory required for data: 971087940
I0103 15:02:09.303417  1139 layer_factory.hpp:77] Creating layer rpn_cls_score
I0103 15:02:09.303431  1139 net.cpp:106] Creating Layer rpn_cls_score
I0103 15:02:09.303436  1139 net.cpp:454] rpn_cls_score <- rpn/output_rpn_relu/3x3_0_split_0
I0103 15:02:09.303445  1139 net.cpp:411] rpn_cls_score -> rpn_cls_score
I0103 15:02:09.306910  1139 net.cpp:150] Setting up rpn_cls_score
I0103 15:02:09.306926  1139 net.cpp:157] Top shape: 1 18 38 63 (43092)
I0103 15:02:09.306931  1139 net.cpp:165] Memory required for data: 971260308
I0103 15:02:09.306937  1139 layer_factory.hpp:77] Creating layer rpn_cls_score_rpn_cls_score_0_split
I0103 15:02:09.306944  1139 net.cpp:106] Creating Layer rpn_cls_score_rpn_cls_score_0_split
I0103 15:02:09.306948  1139 net.cpp:454] rpn_cls_score_rpn_cls_score_0_split <- rpn_cls_score
I0103 15:02:09.306957  1139 net.cpp:411] rpn_cls_score_rpn_cls_score_0_split -> rpn_cls_score_rpn_cls_score_0_split_0
I0103 15:02:09.306973  1139 net.cpp:411] rpn_cls_score_rpn_cls_score_0_split -> rpn_cls_score_rpn_cls_score_0_split_1
I0103 15:02:09.307054  1139 net.cpp:150] Setting up rpn_cls_score_rpn_cls_score_0_split
I0103 15:02:09.307065  1139 net.cpp:157] Top shape: 1 18 38 63 (43092)
I0103 15:02:09.307070  1139 net.cpp:157] Top shape: 1 18 38 63 (43092)
I0103 15:02:09.307072  1139 net.cpp:165] Memory required for data: 971605044
I0103 15:02:09.307075  1139 layer_factory.hpp:77] Creating layer rpn_bbox_pred
I0103 15:02:09.307087  1139 net.cpp:106] Creating Layer rpn_bbox_pred
I0103 15:02:09.307093  1139 net.cpp:454] rpn_bbox_pred <- rpn/output_rpn_relu/3x3_0_split_1
I0103 15:02:09.307102  1139 net.cpp:411] rpn_bbox_pred -> rpn_bbox_pred
I0103 15:02:09.309952  1139 net.cpp:150] Setting up rpn_bbox_pred
I0103 15:02:09.309968  1139 net.cpp:157] Top shape: 1 36 38 63 (86184)
I0103 15:02:09.309973  1139 net.cpp:165] Memory required for data: 971949780
I0103 15:02:09.309978  1139 layer_factory.hpp:77] Creating layer rpn_bbox_pred_rpn_bbox_pred_0_split
I0103 15:02:09.309991  1139 net.cpp:106] Creating Layer rpn_bbox_pred_rpn_bbox_pred_0_split
I0103 15:02:09.309996  1139 net.cpp:454] rpn_bbox_pred_rpn_bbox_pred_0_split <- rpn_bbox_pred
I0103 15:02:09.310004  1139 net.cpp:411] rpn_bbox_pred_rpn_bbox_pred_0_split -> rpn_bbox_pred_rpn_bbox_pred_0_split_0
I0103 15:02:09.310012  1139 net.cpp:411] rpn_bbox_pred_rpn_bbox_pred_0_split -> rpn_bbox_pred_rpn_bbox_pred_0_split_1
I0103 15:02:09.310096  1139 net.cpp:150] Setting up rpn_bbox_pred_rpn_bbox_pred_0_split
I0103 15:02:09.310107  1139 net.cpp:157] Top shape: 1 36 38 63 (86184)
I0103 15:02:09.310111  1139 net.cpp:157] Top shape: 1 36 38 63 (86184)
I0103 15:02:09.310114  1139 net.cpp:165] Memory required for data: 972639252
I0103 15:02:09.310117  1139 layer_factory.hpp:77] Creating layer rpn_cls_score_reshape
I0103 15:02:09.310132  1139 net.cpp:106] Creating Layer rpn_cls_score_reshape
I0103 15:02:09.310138  1139 net.cpp:454] rpn_cls_score_reshape <- rpn_cls_score_rpn_cls_score_0_split_0
I0103 15:02:09.310148  1139 net.cpp:411] rpn_cls_score_reshape -> rpn_cls_score_reshape
I0103 15:02:09.310204  1139 net.cpp:150] Setting up rpn_cls_score_reshape
I0103 15:02:09.310214  1139 net.cpp:157] Top shape: 1 2 342 63 (43092)
I0103 15:02:09.310217  1139 net.cpp:165] Memory required for data: 972811620
I0103 15:02:09.310220  1139 layer_factory.hpp:77] Creating layer rpn_cls_score_reshape_rpn_cls_score_reshape_0_split
I0103 15:02:09.310228  1139 net.cpp:106] Creating Layer rpn_cls_score_reshape_rpn_cls_score_reshape_0_split
I0103 15:02:09.310232  1139 net.cpp:454] rpn_cls_score_reshape_rpn_cls_score_reshape_0_split <- rpn_cls_score_reshape
I0103 15:02:09.310237  1139 net.cpp:411] rpn_cls_score_reshape_rpn_cls_score_reshape_0_split -> rpn_cls_score_reshape_rpn_cls_score_reshape_0_split_0
I0103 15:02:09.310245  1139 net.cpp:411] rpn_cls_score_reshape_rpn_cls_score_reshape_0_split -> rpn_cls_score_reshape_rpn_cls_score_reshape_0_split_1
I0103 15:02:09.310313  1139 net.cpp:150] Setting up rpn_cls_score_reshape_rpn_cls_score_reshape_0_split
I0103 15:02:09.310324  1139 net.cpp:157] Top shape: 1 2 342 63 (43092)
I0103 15:02:09.310329  1139 net.cpp:157] Top shape: 1 2 342 63 (43092)
I0103 15:02:09.310331  1139 net.cpp:165] Memory required for data: 973156356
I0103 15:02:09.310334  1139 layer_factory.hpp:77] Creating layer rpn-data
I0103 15:02:09.333282  1139 net.cpp:106] Creating Layer rpn-data
I0103 15:02:09.333300  1139 net.cpp:454] rpn-data <- rpn_cls_score_rpn_cls_score_0_split_1
I0103 15:02:09.333308  1139 net.cpp:454] rpn-data <- gt_boxes_input-data_2_split_0
I0103 15:02:09.333312  1139 net.cpp:454] rpn-data <- im_info_input-data_1_split_0
I0103 15:02:09.333317  1139 net.cpp:454] rpn-data <- data_input-data_0_split_1
I0103 15:02:09.333323  1139 net.cpp:411] rpn-data -> rpn_labels
I0103 15:02:09.333331  1139 net.cpp:411] rpn-data -> rpn_bbox_targets
I0103 15:02:09.333340  1139 net.cpp:411] rpn-data -> rpn_bbox_inside_weights
I0103 15:02:09.333348  1139 net.cpp:411] rpn-data -> rpn_bbox_outside_weights
I0103 15:02:09.335666  1139 net.cpp:150] Setting up rpn-data
I0103 15:02:09.335686  1139 net.cpp:157] Top shape: 1 1 342 63 (21546)
I0103 15:02:09.335691  1139 net.cpp:157] Top shape: 1 36 38 63 (86184)
I0103 15:02:09.335695  1139 net.cpp:157] Top shape: 1 36 38 63 (86184)
I0103 15:02:09.335698  1139 net.cpp:157] Top shape: 1 36 38 63 (86184)
I0103 15:02:09.335700  1139 net.cpp:165] Memory required for data: 974276748
I0103 15:02:09.335705  1139 layer_factory.hpp:77] Creating layer rpn_loss_cls
I0103 15:02:09.335718  1139 net.cpp:106] Creating Layer rpn_loss_cls
I0103 15:02:09.335723  1139 net.cpp:454] rpn_loss_cls <- rpn_cls_score_reshape_rpn_cls_score_reshape_0_split_0
I0103 15:02:09.335728  1139 net.cpp:454] rpn_loss_cls <- rpn_labels
…
I0103 15:02:09.337174  1139 net.cpp:157] Top shape: (1)
I0103 15:02:09.337177  1139 net.cpp:160]     with loss weight 1
I0103 15:02:09.337182  1139 net.cpp:165] Memory required for data: 974276756
I0103 15:02:09.337185  1139 layer_factory.hpp:77] Creating layer rpn_cls_prob
I0103 15:02:09.337191  1139 net.cpp:106] Creating Layer rpn_cls_prob
I0103 15:02:09.337195  1139 net.cpp:454] rpn_cls_prob <- rpn_cls_score_reshape_rpn_cls_score_reshape_0_split_1
I0103 15:02:09.337203  1139 net.cpp:411] rpn_cls_prob -> rpn_cls_prob
I0103 15:02:09.338265  1139 net.cpp:150] Setting up rpn_cls_prob
I0103 15:02:09.338282  1139 net.cpp:157] Top shape: 1 2 342 63 (43092)
I0103 15:02:09.338285  1139 net.cpp:165] Memory required for data: 974449124
I0103 15:02:09.338289  1139 layer_factory.hpp:77] Creating layer rpn_cls_prob_reshape
I0103 15:02:09.338296  1139 net.cpp:106] Creating Layer rpn_cls_prob_reshape
I0103 15:02:09.338299  1139 net.cpp:454] rpn_cls_prob_reshape <- rpn_cls_prob
I0103 15:02:09.338309  1139 net.cpp:411] rpn_cls_prob_reshape -> rpn_cls_prob_reshape
I0103 15:02:09.338358  1139 net.cpp:150] Setting up rpn_cls_prob_reshape
I0103 15:02:09.338371  1139 net.cpp:157] Top shape: 1 18 38 63 (43092)
I0103 15:02:09.338374  1139 net.cpp:165] Memory required for data: 974621492
I0103 15:02:09.338378  1139 layer_factory.hpp:77] Creating layer proposal
I0103 15:02:09.352998  1139 net.cpp:106] Creating Layer proposal
I0103 15:02:09.353021  1139 net.cpp:454] proposal <- rpn_cls_prob_reshape
I0103 15:02:09.353030  1139 net.cpp:454] proposal <- rpn_bbox_pred_rpn_bbox_pred_0_split_1
I0103 15:02:09.353036  1139 net.cpp:454] proposal <- im_info_input-data_1_split_1
I0103 15:02:09.353045  1139 net.cpp:411] proposal -> rpn_rois
I0103 15:02:09.355720  1139 net.cpp:150] Setting up proposal
I0103 15:02:09.355743  1139 net.cpp:157] Top shape: 1 5 (5)
I0103 15:02:09.355748  1139 net.cpp:165] Memory required for data: 974621512
I0103 15:02:09.355753  1139 layer_factory.hpp:77] Creating layer roi-data
I0103 15:02:09.372251  1139 net.cpp:106] Creating Layer roi-data
I0103 15:02:09.372272  1139 net.cpp:454] roi-data <- rpn_rois
I0103 15:02:09.372282  1139 net.cpp:454] roi-data <- gt_boxes_input-data_2_split_1
I0103 15:02:09.372292  1139 net.cpp:411] roi-data -> rois
I0103 15:02:09.372303  1139 net.cpp:411] roi-data -> labels
I0103 15:02:09.372313  1139 net.cpp:411] roi-data -> bbox_targets
I0103 15:02:09.372321  1139 net.cpp:411] roi-data -> bbox_inside_weights
I0103 15:02:09.372330  1139 net.cpp:411] roi-data -> bbox_outside_weights
I0103 15:02:09.373054  1139 net.cpp:150] Setting up roi-data
I0103 15:02:09.373076  1139 net.cpp:157] Top shape: 1 5 (5)
I0103 15:02:09.373082  1139 net.cpp:157] Top shape: 1 1 (1)
I0103 15:02:09.373086  1139 net.cpp:157] Top shape: 1 84 (84)
I0103 15:02:09.373090  1139 net.cpp:157] Top shape: 1 84 (84)
I0103 15:02:09.373095  1139 net.cpp:157] Top shape: 1 84 (84)
I0103 15:02:09.373098  1139 net.cpp:165] Memory required for data: 974622544
I0103 15:02:09.373103  1139 layer_factory.hpp:77] Creating layer roi_pool5
I0103 15:02:09.373121  1139 net.cpp:106] Creating Layer roi_pool5
I0103 15:02:09.373126  1139 net.cpp:454] roi_pool5 <- conv5_3_relu5_3_0_split_1
I0103 15:02:09.373132  1139 net.cpp:454] roi_pool5 <- rois
I0103 15:02:09.373144  1139 net.cpp:411] roi_pool5 -> pool5
I0103 15:02:09.373163  1139 roi_pooling_layer.cpp:30] Spatial scale: 0.0625
I0103 15:02:09.373278  1139 net.cpp:150] Setting up roi_pool5
I0103 15:02:09.373291  1139 net.cpp:157] Top shape: 1 512 7 7 (25088)
I0103 15:02:09.373296  1139 net.cpp:165] Memory required for data: 974722896
I0103 15:02:09.373299  1139 layer_factory.hpp:77] Creating layer fc6
I0103 15:02:09.373312  1139 net.cpp:106] Creating Layer fc6
I0103 15:02:09.373317  1139 net.cpp:454] fc6 <- pool5
I0103 15:02:09.373329  1139 net.cpp:411] fc6 -> fc6
I0103 15:02:09.755704  1139 net.cpp:150] Setting up fc6
I0103 15:02:09.755759  1139 net.cpp:157] Top shape: 1 4096 (4096)
I0103 15:02:09.755764  1139 net.cpp:165] Memory required for data: 974739280
I0103 15:02:09.755795  1139 layer_factory.hpp:77] Creating layer relu6
I0103 15:02:09.755810  1139 net.cpp:106] Creating Layer relu6
I0103 15:02:09.755815  1139 net.cpp:454] relu6 <- fc6
I0103 15:02:09.755825  1139 net.cpp:397] relu6 -> fc6 (in-place)
I0103 15:02:09.756192  1139 net.cpp:150] Setting up relu6
I0103 15:02:09.756204  1139 net.cpp:157] Top shape: 1 4096 (4096)
I0103 15:02:09.756207  1139 net.cpp:165] Memory required for data: 974755664
I0103 15:02:09.756211  1139 layer_factory.hpp:77] Creating layer drop6
I0103 15:02:09.756235  1139 net.cpp:106] Creating Layer drop6
I0103 15:02:09.756239  1139 net.cpp:454] drop6 <- fc6
I0103 15:02:09.756247  1139 net.cpp:397] drop6 -> fc6 (in-place)
I0103 15:02:09.756305  1139 net.cpp:150] Setting up drop6
I0103 15:02:09.756315  1139 net.cpp:157] Top shape: 1 4096 (4096)
I0103 15:02:09.756319  1139 net.cpp:165] Memory required for data: 974772048
I0103 15:02:09.756321  1139 layer_factory.hpp:77] Creating layer fc7
I0103 15:02:09.756330  1139 net.cpp:106] Creating Layer fc7
I0103 15:02:09.756335  1139 net.cpp:454] fc7 <- fc6
I0103 15:02:09.756342  1139 net.cpp:411] fc7 -> fc7
I0103 15:02:09.810897  1139 net.cpp:150] Setting up fc7
I0103 15:02:09.810958  1139 net.cpp:157] Top shape: 1 4096 (4096)
I0103 15:02:09.810962  1139 net.cpp:165] Memory required for data: 974788432
I0103 15:02:09.810979  1139 layer_factory.hpp:77] Creating layer relu7
I0103 15:02:09.810992  1139 net.cpp:106] Creating Layer relu7
I0103 15:02:09.810998  1139 net.cpp:454] relu7 <- fc7
I0103 15:02:09.811008  1139 net.cpp:397] relu7 -> fc7 (in-place)
I0103 15:02:09.812242  1139 net.cpp:150] Setting up relu7
I0103 15:02:09.812258  1139 net.cpp:157] Top shape: 1 4096 (4096)
I0103 15:02:09.812261  1139 net.cpp:165] Memory required for data: 974804816
I0103 15:02:09.812265  1139 layer_factory.hpp:77] Creating layer drop7
I0103 15:02:09.812278  1139 net.cpp:106] Creating Layer drop7
I0103 15:02:09.812283  1139 net.cpp:454] drop7 <- fc7
I0103 15:02:09.812291  1139 net.cpp:397] drop7 -> fc7 (in-place)
I0103 15:02:09.812348  1139 net.cpp:150] Setting up drop7
I0103 15:02:09.812357  1139 net.cpp:157] Top shape: 1 4096 (4096)
I0103 15:02:09.812361  1139 net.cpp:165] Memory required for data: 974821200
I0103 15:02:09.812363  1139 layer_factory.hpp:77] Creating layer fc7_drop7_0_split
I0103 15:02:09.812371  1139 net.cpp:106] Creating Layer fc7_drop7_0_split
I0103 15:02:09.812374  1139 net.cpp:454] fc7_drop7_0_split <- fc7
I0103 15:02:09.812381  1139 net.cpp:411] fc7_drop7_0_split -> fc7_drop7_0_split_0
I0103 15:02:09.812391  1139 net.cpp:411] fc7_drop7_0_split -> fc7_drop7_0_split_1
I0103 15:02:09.812511  1139 net.cpp:150] Setting up fc7_drop7_0_split
I0103 15:02:09.812522  1139 net.cpp:157] Top shape: 1 4096 (4096)
I0103 15:02:09.812526  1139 net.cpp:157] Top shape: 1 4096 (4096)
I0103 15:02:09.812530  1139 net.cpp:165] Memory required for data: 974853968
I0103 15:02:09.812532  1139 layer_factory.hpp:77] Creating layer cls_score
I0103 15:02:09.812542  1139 net.cpp:106] Creating Layer cls_score
I0103 15:02:09.812551  1139 net.cpp:454] cls_score <- fc7_drop7_0_split_0
I0103 15:02:09.812559  1139 net.cpp:411] cls_score -> cls_score
I0103 15:02:09.813887  1139 net.cpp:150] Setting up cls_score
I0103 15:02:09.813899  1139 net.cpp:157] Top shape: 1 21 (21)
I0103 15:02:09.813900  1139 net.cpp:165] Memory required for data: 974854052
I0103 15:02:09.813908  1139 layer_factory.hpp:77] Creating layer bbox_pred
I0103 15:02:09.813916  1139 net.cpp:106] Creating Layer bbox_pred
I0103 15:02:09.813920  1139 net.cpp:454] bbox_pred <- fc7_drop7_0_split_1
I0103 15:02:09.813927  1139 net.cpp:411] bbox_pred -> bbox_pred
I0103 15:02:09.819896  1139 net.cpp:150] Setting up bbox_pred
I0103 15:02:09.819912  1139 net.cpp:157] Top shape: 1 84 (84)
I0103 15:02:09.819916  1139 net.cpp:165] Memory required for data: 974854388
I0103 15:02:09.819923  1139 layer_factory.hpp:77] Creating layer loss_cls
I0103 15:02:09.819931  1139 net.cpp:106] Creating Layer loss_cls
I0103 15:02:09.819936  1139 net.cpp:454] loss_cls <- cls_score
I0103 15:02:09.819941  1139 net.cpp:454] loss_cls <- labels
I0103 15:02:09.819948  1139 net.cpp:411] loss_cls -> loss_cls
…
