…
snapshot_prefix: "vgg16_faster_rcnn"
average_loss: 100
iter_size: 2
I1231 16:11:15.753643 29595 solver.cpp:81] Creating training net from train_net file: models/pascal_voc/VGG16/faster_rcnn_end2end/train.prototxt
I1231 16:11:15.755089 29595 net.cpp:49] Initializing net from parameters: 
name: "VGG_ILSVRC_16_layers"
state {
  phase: TRAIN
}
layer {
  name: "input-data"
  type: "Python"
  top: "data"
  top: "im_info"
  top: "gt_boxes"
  python_param {
    module: "roi_data_layer.layer"
    layer: "RoIDataLayer"
    param_str: "\'num_classes\': 21"
  }
}
layer {
  name: "conv1_1"
  type: "Convolution"
  bottom: "data"
  top: "conv1_1"
  param {
    lr_mult: 0
    decay_mult: 0
  }
  param {
    lr_mult: 0
    decay_mult: 0
  }
  convolution_param {
    num_output: 64
    pad: 1
    kernel_size: 3
  }
}
layer {
  name: "relu1_1"
  type: "ReLU"
  bottom: "conv1_1"
  top: "conv1_1"
}
layer {
  name: "conv1_2"
  type: "Convolution"
  bottom: "conv1_1"
  top: "conv1_2"
  param {
    lr_mult: 0
    decay_mult: 0
  }
  param {
    lr_mult: 0
    decay_mult: 0
  }
  convolution_param {
    num_output: 64
    pad: 1
    kernel_size: 3
  }
}
layer {
  name: "relu1_2"
  type: "ReLU"
  bottom: "conv1_2"
  top: "conv1_2"
}
layer {
  name: "pool1"
  type: "Pooling"
  bottom: "conv1_2"
  top: "pool1"
  pooling_param {
    pool: MAX
    kernel_size: 2
    stride: 2
  }
}
layer {
  name: "conv2_1"
  type: "Convolution"
  bottom: "pool1"
  top: "conv2_1"
  param {
    lr_mult: 0
    decay_mult: 0
  }
  param {
    lr_mult: 0
    decay_mult: 0
  }
  convolution_param {
    num_output: 128
    pad: 1
    kernel_size: 3
  }
}
layer {
  name: "relu2_1"
  type: "ReLU"
  bottom: "conv2_1"
  top: "conv2_1"
}
layer {
  name: "conv2_2"
  type: "Convolution"
  bottom: "conv2_1"
  top: "conv2_2"
  param {
    lr_mult: 0
    decay_mult: 0
  }
  param {
    lr_mult: 0
    decay_mult: 0
  }
  convolution_param {
    num_output: 128
    pad: 1
    kernel_size: 3
  }
}
layer {
  name: "relu2_2"
  type: "ReLU"
  bottom: "conv2_2"
  top: "conv2_2"
}
layer {
  name: "pool2"
  type: "Pooling"
  bottom: "conv2_2"
  top: "pool2"
  pooling_param {
    pool: MAX
    kernel_size: 2
    stride: 2
  }
}
layer {
  name: "conv3_1"
  type: "Convolution"
  bottom: "pool2"
  top: "conv3_1"
  param {
    lr_mult: 1
  }
  param {
    lr_mult: 2
  }
  convolution_param {
    num_output: 256
    pad: 1
    kernel_size: 3
  }
}
layer {
  name: "relu3_1"
  type: "ReLU"
  bottom: "conv3_1"
  top: "conv3_1"
}
layer {
  name: "conv3_2"
  type: "Convolution"
  bottom: "conv3_1"
  top: "conv3_2"
  param {
    lr_mult: 1
  }
  param {
    lr_mult: 2
  }
  convolution_param {
    num_output: 256
    pad: 1
    kernel_size: 3
  }
}
layer {
  name: "relu3_2"
  type: "ReLU"
  bottom: "conv3_2"
  top: "conv3_2"
}
layer {
  name: "conv3_3"
  type: "Convolution"
  bottom: "conv3_2"
  top: "conv3_3"
  param {
    lr_mult: 1
  }
  param {
    lr_mult: 2
  }
  convolution_param {
    num_output: 256
    pad: 1
    kernel_size: 3
  }
}
layer {
  name: "relu3_3"
  type: "ReLU"
  bottom: "conv3_3"
  top: "conv3_3"
}
layer {
  name: "pool3"
  type: "Pooling"
  bottom: "conv3_3"
  top: "pool3"
  pooling_param {
    pool: MAX
    kernel_size: 2
    stride: 2
  }
}
layer {
  name: "conv4_1"
  type: "Convolution"
  bottom: "pool3"
  top: "conv4_1"
  param {
    lr_mult: 1
  }
  param {
    lr_mult: 2
  }
  convolution_param {
    num_output: 512
    pad: 1
    kernel_size: 3
  }
}
layer {
  name: "relu4_1"
  type: "ReLU"
  bottom: "conv4_1"
  top: "conv4_1"
}
layer {
  name: "conv4_2"
  type: "Convolution"
  bottom: "conv4_1"
  top: "conv4_2"
  param {
    lr_mult: 1
  }
  param {
    lr_mult: 2
  }
  convolution_param {
    num_output: 512
    pad: 1
    kernel_size: 3
  }
}
layer {
  name: "relu4_2"
  type: "ReLU"
  bottom: "conv4_2"
  top: "conv4_2"
}
layer {
  name: "conv4_3"
  type: "Convolution"
  bottom: "conv4_2"
  top: "conv4_3"
  param {
    lr_mult: 1
  }
  param {
    lr_mult: 2
  }
  convolution_param {
    num_output: 512
    pad: 1
    kernel_size: 3
  }
}
layer {
  name: "relu4_3"
  type: "ReLU"
  bottom: "conv4_3"
  top: "conv4_3"
}
layer {
  name: "pool4"
  type: "Pooling"
  bottom: "conv4_3"
  top: "pool4"
  pooling_param {
    pool: MAX
    kernel_size: 2
    stride: 2
  }
}
layer {
  name: "conv5_1"
  type: "Convolution"
  bottom: "pool4"
  top: "conv5_1"
  param {
    lr_mult: 1
  }
  param {
    lr_mult: 2
  }
  convolution_param {
    num_output: 512
    pad: 1
    kernel_size: 3
  }
}
layer {
  name: "relu5_1"
  type: "ReLU"
  bottom: "conv5_1"
  top: "conv5_1"
}
layer {
  name: "conv5_2"
  type: "Convolution"
  bottom: "conv5_1"
  top: "conv5_2"
  param {
    lr_mult: 1
  }
  param {
    lr_mult: 2
  }
  convolution_param {
    num_output: 512
    pad: 1
    kernel_size: 3
  }
}
layer {
  name: "relu5_2"
  type: "ReLU"
  bottom: "conv5_2"
  top: "conv5_2"
}
layer {
  name: "conv5_3"
  type: "Convolution"
  bottom: "conv5_2"
  top: "conv5_3"
  param {
    lr_mult: 1
  }
  param {
    lr_mult: 2
  }
  convolution_param {
    num_output: 512
    pad: 1
    kernel_size: 3
  }
}
layer {
  name: "relu5_3"
  type: "ReLU"
  bottom: "conv5_3"
  top: "conv5_3"
}
layer {
  name: "rpn_conv/3x3"
  type: "Convolution"
  bottom: "conv5_3"
  top: "rpn/output"
  param {
    lr_mult: 1
  }
  param {
    lr_mult: 2
  }
  convolution_param {
    num_output: 512
    pad: 1
    kernel_size: 3
    stride: 1
    weight_filler {
      type: "gaussian"
      std: 0.01
    }
    bias_filler {
      type: "constant"
      value: 0
    }
  }
}
layer {
  name: "rpn_relu/3x3"
  type: "ReLU"
  bottom: "rpn/output"
  top: "rpn/output"
}
layer {
  name: "rpn_cls_score"
  type: "Convolution"
  bottom: "rpn/output"
  top: "rpn_cls_score"
  param {
    lr_mult: 1
  }
  param {
    lr_mult: 2
  }
  convolution_param {
    num_output: 18
    pad: 0
    kernel_size: 1
    stride: 1
    weight_filler {
      type: "gaussian"
      std: 0.01
    }
    bias_filler {
      type: "constant"
      value: 0
    }
  }
}
layer {
  name: "rpn_bbox_pred"
  type: "Convolution"
  bottom: "rpn/output"
  top: "rpn_bbox_pred"
  param {
    lr_mult: 1
  }
  param {
    lr_mult: 2
  }
  convolution_param {
    num_output: 36
    pad: 0
    kernel_size: 1
    stride: 1
    weight_filler {
      type: "gaussian"
      std: 0.01
    }
    bias_filler {
      type: "constant"
      value: 0
    }
  }
}
layer {
  name: "rpn_cls_score_reshape"
  type: "Reshape"
  bottom: "rpn_cls_score"
  top: "rpn_cls_score_reshape"
  reshape_param {
    shape {
      dim: 0
      dim: 2
      dim: -1
      dim: 0
    }
  }
}
layer {
  name: "rpn-data"
  type: "Python"
  bottom: "rpn_cls_score"
  bottom: "gt_boxes"
  bottom: "im_info"
  bottom: "data"
  top: "rpn_labels"
  top: "rpn_bbox_targets"
  top: "rpn_bbox_inside_weights"
  top: "rpn_bbox_outside_weights"
  python_param {
    module: "rpn.anchor_target_layer"
    layer: "AnchorTargetLayer"
    param_str: "\'feat_stride\': 16"
  }
}
layer {
  name: "rpn_loss_cls"
  type: "SoftmaxWithLoss"
  bottom: "rpn_cls_score_reshape"
  bottom: "rpn_labels"
  top: "rpn_cls_loss"
  loss_weight: 1
  propagate_down: true
  propagate_down: false
  loss_param {
    ignore_label: -1
    normalize: true
  }
}
layer {
  name: "rpn_loss_bbox"
  type: "SmoothL1Loss"
  bottom: "rpn_bbox_pred"
  bottom: "rpn_bbox_targets"
  bottom: "rpn_bbox_inside_weights"
  bottom: "rpn_bbox_outside_weights"
  top: "rpn_loss_bbox"
  loss_weight: 1
  smooth_l1_loss_param {
    sigma: 3
  }
}
layer {
  name: "rpn_cls_prob"
  type: "Softmax"
  bottom: "rpn_cls_score_reshape"
  top: "rpn_cls_prob"
}
layer {
  name: "rpn_cls_prob_reshape"
  type: "Reshape"
  bottom: "rpn_cls_prob"
  top: "rpn_cls_prob_reshape"
  reshape_param {
    shape {
      dim: 0
      dim: 18
      dim: -1
      dim: 0
    }
  }
}
layer {
  name: "proposal"
  type: "Python"
  bottom: "rpn_cls_prob_reshape"
  bottom: "rpn_bbox_pred"
  bottom: "im_info"
  top: "rpn_rois"
  python_param {
    module: "rpn.proposal_layer"
    layer: "ProposalLayer"
    param_str: "\'feat_stride\': 16"
  }
}
layer {
  name: "roi-data"
  type: "Python"
  bottom: "rpn_rois"
  bottom: "gt_boxes"
  top: "rois"
  top: "labels"
  top: "bbox_targets"
  top: "bbox_inside_weights"
  top: "bbox_outside_weights"
  python_param {
    module: "rpn.proposal_target_layer"
    layer: "ProposalTargetLayer"
    param_str: "\'num_classes\': 21"
  }
}
layer {
  name: "roi_pool5"
  type: "ROIPooling"
  bottom: "conv5_3"
  bottom: "rois"
  top: "pool5"
  roi_pooling_param {
    pooled_h: 7
    pooled_w: 7
    spatial_scale: 0.0625
  }
}
layer {
  name: "fc6"
  type: "InnerProduct"
  bottom: "pool5"
  top: "fc6"
  param {
    lr_mult: 1
  }
  param {
    lr_mult: 2
  }
  inner_product_param {
    num_output: 4096
  }
}
layer {
  name: "relu6"
  type: "ReLU"
  bottom: "fc6"
  top: "fc6"
}
layer {
  name: "drop6"
  type: "Dropout"
  bottom: "fc6"
  top: "fc6"
  dropout_param {
    dropout_ratio: 0.5
  }
}
layer {
  name: "fc7"
  type: "InnerProduct"
  bottom: "fc6"
  top: "fc7"
  param {
    lr_mult: 1
  }
  param {
    lr_mult: 2
  }
  inner_product_param {
    num_output: 4096
  }
}
layer {
  name: "relu7"
  type: "ReLU"
  bottom: "fc7"
  top: "fc7"
}
layer {
  name: "drop7"
  type: "Dropout"
  bottom: "fc7"
  top: "fc7"
  dropout_param {
    dropout_ratio: 0.5
  }
}
layer {
  name: "cls_score"
  type: "InnerProduct"
  bottom: "fc7"
  top: "cls_score"
  param {
    lr_mult: 1
  }
  param {
    lr_mult: 2
  }
  inner_product_param {
    num_output: 21
    weight_filler {
      type: "gaussian"
      std: 0.01
    }
    bias_filler {
      type: "constant"
      value: 0
    }
  }
}
layer {
  name: "bbox_pred"
  type: "InnerProduct"
  bottom: "fc7"
  top: "bbox_pred"
  param {
    lr_mult: 1
  }
  param {
    lr_mult: 2
  }
  inner_product_param {
    num_output: 84
    weight_filler {
      type: "gaussian"
      std: 0.001
    }
    bias_filler {
      type: "constant"
      value: 0
    }
  }
}
layer {
  name: "loss_cls"
  type: "SoftmaxWithLoss"
  bottom: "cls_score"
  bottom: "labels"
  top: "loss_cls"
  loss_weight: 1
  propagate_down: true
  propagate_down: false
}
layer {
  name: "loss_bbox"
  type: "SmoothL1Loss"
  bottom: "bbox_pred"
  bottom: "bbox_targets"
  bottom: "bbox_inside_weights"
  bottom: "bbox_outside_weights"
  top: "loss_bbox"
  loss_weight: 1
}
I1231 16:11:15.755393 29595 layer_factory.hpp:77] Creating layer input-data
I1231 16:11:16.101801 29595 net.cpp:106] Creating Layer input-data
I1231 16:11:16.101832 29595 net.cpp:411] input-data -> data
I1231 16:11:16.101855 29595 net.cpp:411] input-data -> im_info
I1231 16:11:16.101863 29595 net.cpp:411] input-data -> gt_boxes
RoiDataLayer: name_to_top: {'gt_boxes': 2, 'data': 0, 'im_info': 1}
I1231 16:11:16.119925 29595 net.cpp:150] Setting up input-data
I1231 16:11:16.119961 29595 net.cpp:157] Top shape: 1 3 600 1000 (1800000)
I1231 16:11:16.119971 29595 net.cpp:157] Top shape: 1 3 (3)
I1231 16:11:16.119974 29595 net.cpp:157] Top shape: 1 4 (4)
I1231 16:11:16.119979 29595 net.cpp:165] Memory required for data: 7200028
I1231 16:11:16.119989 29595 layer_factory.hpp:77] Creating layer data_input-data_0_split
I1231 16:11:16.120008 29595 net.cpp:106] Creating Layer data_input-data_0_split
I1231 16:11:16.120017 29595 net.cpp:454] data_input-data_0_split <- data
I1231 16:11:16.120028 29595 net.cpp:411] data_input-data_0_split -> data_input-data_0_split_0
I1231 16:11:16.120041 29595 net.cpp:411] data_input-data_0_split -> data_input-data_0_split_1
I1231 16:11:16.120098 29595 net.cpp:150] Setting up data_input-data_0_split
I1231 16:11:16.120111 29595 net.cpp:157] Top shape: 1 3 600 1000 (1800000)
I1231 16:11:16.120117 29595 net.cpp:157] Top shape: 1 3 600 1000 (1800000)
I1231 16:11:16.120122 29595 net.cpp:165] Memory required for data: 21600028
I1231 16:11:16.120128 29595 layer_factory.hpp:77] Creating layer im_info_input-data_1_split
I1231 16:11:16.120141 29595 net.cpp:106] Creating Layer im_info_input-data_1_split
I1231 16:11:16.120146 29595 net.cpp:454] im_info_input-data_1_split <- im_info
I1231 16:11:16.120157 29595 net.cpp:411] im_info_input-data_1_split -> im_info_input-data_1_split_0
I1231 16:11:16.120167 29595 net.cpp:411] im_info_input-data_1_split -> im_info_input-data_1_split_1
I1231 16:11:16.120219 29595 net.cpp:150] Setting up im_info_input-data_1_split
I1231 16:11:16.120230 29595 net.cpp:157] Top shape: 1 3 (3)
I1231 16:11:16.120234 29595 net.cpp:157] Top shape: 1 3 (3)
I1231 16:11:16.120237 29595 net.cpp:165] Memory required for data: 21600052
I1231 16:11:16.120244 29595 layer_factory.hpp:77] Creating layer gt_boxes_input-data_2_split
I1231 16:11:16.120251 29595 net.cpp:106] Creating Layer gt_boxes_input-data_2_split
I1231 16:11:16.120255 29595 net.cpp:454] gt_boxes_input-data_2_split <- gt_boxes
I1231 16:11:16.120263 29595 net.cpp:411] gt_boxes_input-data_2_split -> gt_boxes_input-data_2_split_0
I1231 16:11:16.120270 29595 net.cpp:411] gt_boxes_input-data_2_split -> gt_boxes_input-data_2_split_1
I1231 16:11:16.120308 29595 net.cpp:150] Setting up gt_boxes_input-data_2_split
I1231 16:11:16.120317 29595 net.cpp:157] Top shape: 1 4 (4)
I1231 16:11:16.120322 29595 net.cpp:157] Top shape: 1 4 (4)
I1231 16:11:16.120324 29595 net.cpp:165] Memory required for data: 21600084
I1231 16:11:16.120328 29595 layer_factory.hpp:77] Creating layer conv1_1
I1231 16:11:16.120347 29595 net.cpp:106] Creating Layer conv1_1
I1231 16:11:16.120353 29595 net.cpp:454] conv1_1 <- data_input-data_0_split_0
I1231 16:11:16.120362 29595 net.cpp:411] conv1_1 -> conv1_1
I1231 16:11:16.464035 29595 net.cpp:150] Setting up conv1_1
I1231 16:11:16.464077 29595 net.cpp:157] Top shape: 1 64 600 1000 (38400000)
I1231 16:11:16.464082 29595 net.cpp:165] Memory required for data: 175200084
I1231 16:11:16.464108 29595 layer_factory.hpp:77] Creating layer relu1_1
I1231 16:11:16.464128 29595 net.cpp:106] Creating Layer relu1_1
I1231 16:11:16.464135 29595 net.cpp:454] relu1_1 <- conv1_1
I1231 16:11:16.464143 29595 net.cpp:397] relu1_1 -> conv1_1 (in-place)
I1231 16:11:16.465376 29595 net.cpp:150] Setting up relu1_1
I1231 16:11:16.465394 29595 net.cpp:157] Top shape: 1 64 600 1000 (38400000)
I1231 16:11:16.465397 29595 net.cpp:165] Memory required for data: 328800084
I1231 16:11:16.465400 29595 layer_factory.hpp:77] Creating layer conv1_2
I1231 16:11:16.465415 29595 net.cpp:106] Creating Layer conv1_2
I1231 16:11:16.465418 29595 net.cpp:454] conv1_2 <- conv1_1
I1231 16:11:16.465425 29595 net.cpp:411] conv1_2 -> conv1_2
I1231 16:11:16.471385 29595 net.cpp:150] Setting up conv1_2
I1231 16:11:16.471402 29595 net.cpp:157] Top shape: 1 64 600 1000 (38400000)
I1231 16:11:16.471406 29595 net.cpp:165] Memory required for data: 482400084
I1231 16:11:16.471417 29595 layer_factory.hpp:77] Creating layer relu1_2
I1231 16:11:16.471424 29595 net.cpp:106] Creating Layer relu1_2
I1231 16:11:16.471428 29595 net.cpp:454] relu1_2 <- conv1_2
I1231 16:11:16.471433 29595 net.cpp:397] relu1_2 -> conv1_2 (in-place)
I1231 16:11:16.471629 29595 net.cpp:150] Setting up relu1_2
I1231 16:11:16.471642 29595 net.cpp:157] Top shape: 1 64 600 1000 (38400000)
I1231 16:11:16.471644 29595 net.cpp:165] Memory required for data: 636000084
I1231 16:11:16.471648 29595 layer_factory.hpp:77] Creating layer pool1
I1231 16:11:16.471659 29595 net.cpp:106] Creating Layer pool1
I1231 16:11:16.471662 29595 net.cpp:454] pool1 <- conv1_2
I1231 16:11:16.471668 29595 net.cpp:411] pool1 -> pool1
I1231 16:11:16.471736 29595 net.cpp:150] Setting up pool1
I1231 16:11:16.471747 29595 net.cpp:157] Top shape: 1 64 300 500 (9600000)
I1231 16:11:16.471750 29595 net.cpp:165] Memory required for data: 674400084
I1231 16:11:16.471755 29595 layer_factory.hpp:77] Creating layer conv2_1
I1231 16:11:16.471762 29595 net.cpp:106] Creating Layer conv2_1
I1231 16:11:16.471766 29595 net.cpp:454] conv2_1 <- pool1
I1231 16:11:16.471771 29595 net.cpp:411] conv2_1 -> conv2_1
I1231 16:11:16.475862 29595 net.cpp:150] Setting up conv2_1
I1231 16:11:16.475880 29595 net.cpp:157] Top shape: 1 128 300 500 (19200000)
I1231 16:11:16.475883 29595 net.cpp:165] Memory required for data: 751200084
I1231 16:11:16.475896 29595 layer_factory.hpp:77] Creating layer relu2_1
I1231 16:11:16.475903 29595 net.cpp:106] Creating Layer relu2_1
I1231 16:11:16.475908 29595 net.cpp:454] relu2_1 <- conv2_1
I1231 16:11:16.475913 29595 net.cpp:397] relu2_1 -> conv2_1 (in-place)
I1231 16:11:16.476130 29595 net.cpp:150] Setting up relu2_1
I1231 16:11:16.476141 29595 net.cpp:157] Top shape: 1 128 300 500 (19200000)
I1231 16:11:16.476145 29595 net.cpp:165] Memory required for data: 828000084
I1231 16:11:16.476147 29595 layer_factory.hpp:77] Creating layer conv2_2
I1231 16:11:16.476161 29595 net.cpp:106] Creating Layer conv2_2
I1231 16:11:16.476166 29595 net.cpp:454] conv2_2 <- conv2_1
I1231 16:11:16.476171 29595 net.cpp:411] conv2_2 -> conv2_2
I1231 16:11:16.481240 29595 net.cpp:150] Setting up conv2_2
I1231 16:11:16.481257 29595 net.cpp:157] Top shape: 1 128 300 500 (19200000)
I1231 16:11:16.481261 29595 net.cpp:165] Memory required for data: 904800084
I1231 16:11:16.481268 29595 layer_factory.hpp:77] Creating layer relu2_2
I1231 16:11:16.481276 29595 net.cpp:106] Creating Layer relu2_2
I1231 16:11:16.481279 29595 net.cpp:454] relu2_2 <- conv2_2
I1231 16:11:16.481287 29595 net.cpp:397] relu2_2 -> conv2_2 (in-place)
I1231 16:11:16.482242 29595 net.cpp:150] Setting up relu2_2
I1231 16:11:16.482259 29595 net.cpp:157] Top shape: 1 128 300 500 (19200000)
I1231 16:11:16.482261 29595 net.cpp:165] Memory required for data: 981600084
I1231 16:11:16.482264 29595 layer_factory.hpp:77] Creating layer pool2
I1231 16:11:16.482271 29595 net.cpp:106] Creating Layer pool2
I1231 16:11:16.482275 29595 net.cpp:454] pool2 <- conv2_2
I1231 16:11:16.482283 29595 net.cpp:411] pool2 -> pool2
I1231 16:11:16.482333 29595 net.cpp:150] Setting up pool2
I1231 16:11:16.482344 29595 net.cpp:157] Top shape: 1 128 150 250 (4800000)
I1231 16:11:16.482347 29595 net.cpp:165] Memory required for data: 1000800084
I1231 16:11:16.482350 29595 layer_factory.hpp:77] Creating layer conv3_1
I1231 16:11:16.482358 29595 net.cpp:106] Creating Layer conv3_1
I1231 16:11:16.482362 29595 net.cpp:454] conv3_1 <- pool2
I1231 16:11:16.482368 29595 net.cpp:411] conv3_1 -> conv3_1
I1231 16:11:16.486619 29595 net.cpp:150] Setting up conv3_1
I1231 16:11:16.486635 29595 net.cpp:157] Top shape: 1 256 150 250 (9600000)
I1231 16:11:16.486639 29595 net.cpp:165] Memory required for data: 1039200084
I1231 16:11:16.486650 29595 layer_factory.hpp:77] Creating layer relu3_1
I1231 16:11:16.486657 29595 net.cpp:106] Creating Layer relu3_1
I1231 16:11:16.486662 29595 net.cpp:454] relu3_1 <- conv3_1
I1231 16:11:16.486670 29595 net.cpp:397] relu3_1 -> conv3_1 (in-place)
I1231 16:11:16.486886 29595 net.cpp:150] Setting up relu3_1
I1231 16:11:16.486898 29595 net.cpp:157] Top shape: 1 256 150 250 (9600000)
I1231 16:11:16.486901 29595 net.cpp:165] Memory required for data: 1077600084
I1231 16:11:16.486906 29595 layer_factory.hpp:77] Creating layer conv3_2
I1231 16:11:16.486925 29595 net.cpp:106] Creating Layer conv3_2
I1231 16:11:16.486932 29595 net.cpp:454] conv3_2 <- conv3_1
I1231 16:11:16.486938 29595 net.cpp:411] conv3_2 -> conv3_2
I1231 16:11:16.491958 29595 net.cpp:150] Setting up conv3_2
I1231 16:11:16.491977 29595 net.cpp:157] Top shape: 1 256 150 250 (9600000)
I1231 16:11:16.491981 29595 net.cpp:165] Memory required for data: 1116000084
I1231 16:11:16.491988 29595 layer_factory.hpp:77] Creating layer relu3_2
I1231 16:11:16.491997 29595 net.cpp:106] Creating Layer relu3_2
I1231 16:11:16.492002 29595 net.cpp:454] relu3_2 <- conv3_2
I1231 16:11:16.492007 29595 net.cpp:397] relu3_2 -> conv3_2 (in-place)
I1231 16:11:16.492231 29595 net.cpp:150] Setting up relu3_2
I1231 16:11:16.492245 29595 net.cpp:157] Top shape: 1 256 150 250 (9600000)
I1231 16:11:16.492249 29595 net.cpp:165] Memory required for data: 1154400084
I1231 16:11:16.492251 29595 layer_factory.hpp:77] Creating layer conv3_3
I1231 16:11:16.492260 29595 net.cpp:106] Creating Layer conv3_3
I1231 16:11:16.492264 29595 net.cpp:454] conv3_3 <- conv3_2
I1231 16:11:16.492270 29595 net.cpp:411] conv3_3 -> conv3_3
I1231 16:11:16.497268 29595 net.cpp:150] Setting up conv3_3
I1231 16:11:16.497285 29595 net.cpp:157] Top shape: 1 256 150 250 (9600000)
I1231 16:11:16.497288 29595 net.cpp:165] Memory required for data: 1192800084
I1231 16:11:16.497295 29595 layer_factory.hpp:77] Creating layer relu3_3
I1231 16:11:16.497304 29595 net.cpp:106] Creating Layer relu3_3
I1231 16:11:16.497308 29595 net.cpp:454] relu3_3 <- conv3_3
I1231 16:11:16.497313 29595 net.cpp:397] relu3_3 -> conv3_3 (in-place)
I1231 16:11:16.498286 29595 net.cpp:150] Setting up relu3_3
I1231 16:11:16.498302 29595 net.cpp:157] Top shape: 1 256 150 250 (9600000)
I1231 16:11:16.498306 29595 net.cpp:165] Memory required for data: 1231200084
I1231 16:11:16.498309 29595 layer_factory.hpp:77] Creating layer pool3
I1231 16:11:16.498318 29595 net.cpp:106] Creating Layer pool3
I1231 16:11:16.498322 29595 net.cpp:454] pool3 <- conv3_3
I1231 16:11:16.498328 29595 net.cpp:411] pool3 -> pool3
I1231 16:11:16.498385 29595 net.cpp:150] Setting up pool3
I1231 16:11:16.498394 29595 net.cpp:157] Top shape: 1 256 75 125 (2400000)
I1231 16:11:16.498396 29595 net.cpp:165] Memory required for data: 1240800084
I1231 16:11:16.498399 29595 layer_factory.hpp:77] Creating layer conv4_1
I1231 16:11:16.498410 29595 net.cpp:106] Creating Layer conv4_1
I1231 16:11:16.498414 29595 net.cpp:454] conv4_1 <- pool3
I1231 16:11:16.498419 29595 net.cpp:411] conv4_1 -> conv4_1
I1231 16:11:16.506585 29595 net.cpp:150] Setting up conv4_1
I1231 16:11:16.506604 29595 net.cpp:157] Top shape: 1 512 75 125 (4800000)
I1231 16:11:16.506608 29595 net.cpp:165] Memory required for data: 1260000084
I1231 16:11:16.506616 29595 layer_factory.hpp:77] Creating layer relu4_1
I1231 16:11:16.506623 29595 net.cpp:106] Creating Layer relu4_1
I1231 16:11:16.506628 29595 net.cpp:454] relu4_1 <- conv4_1
I1231 16:11:16.506633 29595 net.cpp:397] relu4_1 -> conv4_1 (in-place)
I1231 16:11:16.507593 29595 net.cpp:150] Setting up relu4_1
I1231 16:11:16.507611 29595 net.cpp:157] Top shape: 1 512 75 125 (4800000)
I1231 16:11:16.507613 29595 net.cpp:165] Memory required for data: 1279200084
I1231 16:11:16.507617 29595 layer_factory.hpp:77] Creating layer conv4_2
I1231 16:11:16.507628 29595 net.cpp:106] Creating Layer conv4_2
I1231 16:11:16.507632 29595 net.cpp:454] conv4_2 <- conv4_1
I1231 16:11:16.507639 29595 net.cpp:411] conv4_2 -> conv4_2
I1231 16:11:16.516471 29595 net.cpp:150] Setting up conv4_2
I1231 16:11:16.516490 29595 net.cpp:157] Top shape: 1 512 75 125 (4800000)
I1231 16:11:16.516494 29595 net.cpp:165] Memory required for data: 1298400084
I1231 16:11:16.516510 29595 layer_factory.hpp:77] Creating layer relu4_2
I1231 16:11:16.516520 29595 net.cpp:106] Creating Layer relu4_2
I1231 16:11:16.516525 29595 net.cpp:454] relu4_2 <- conv4_2
I1231 16:11:16.516530 29595 net.cpp:397] relu4_2 -> conv4_2 (in-place)
I1231 16:11:16.516739 29595 net.cpp:150] Setting up relu4_2
I1231 16:11:16.516752 29595 net.cpp:157] Top shape: 1 512 75 125 (4800000)
I1231 16:11:16.516754 29595 net.cpp:165] Memory required for data: 1317600084
I1231 16:11:16.516758 29595 layer_factory.hpp:77] Creating layer conv4_3
I1231 16:11:16.516768 29595 net.cpp:106] Creating Layer conv4_3
I1231 16:11:16.516772 29595 net.cpp:454] conv4_3 <- conv4_2
I1231 16:11:16.516780 29595 net.cpp:411] conv4_3 -> conv4_3
I1231 16:11:16.525467 29595 net.cpp:150] Setting up conv4_3
I1231 16:11:16.525486 29595 net.cpp:157] Top shape: 1 512 75 125 (4800000)
I1231 16:11:16.525490 29595 net.cpp:165] Memory required for data: 1336800084
I1231 16:11:16.525497 29595 layer_factory.hpp:77] Creating layer relu4_3
I1231 16:11:16.525506 29595 net.cpp:106] Creating Layer relu4_3
I1231 16:11:16.525511 29595 net.cpp:454] relu4_3 <- conv4_3
I1231 16:11:16.525516 29595 net.cpp:397] relu4_3 -> conv4_3 (in-place)
I1231 16:11:16.526465 29595 net.cpp:150] Setting up relu4_3
I1231 16:11:16.526481 29595 net.cpp:157] Top shape: 1 512 75 125 (4800000)
I1231 16:11:16.526484 29595 net.cpp:165] Memory required for data: 1356000084
I1231 16:11:16.526489 29595 layer_factory.hpp:77] Creating layer pool4
I1231 16:11:16.526499 29595 net.cpp:106] Creating Layer pool4
I1231 16:11:16.526501 29595 net.cpp:454] pool4 <- conv4_3
I1231 16:11:16.526507 29595 net.cpp:411] pool4 -> pool4
I1231 16:11:16.526566 29595 net.cpp:150] Setting up pool4
I1231 16:11:16.526574 29595 net.cpp:157] Top shape: 1 512 38 63 (1225728)
I1231 16:11:16.526576 29595 net.cpp:165] Memory required for data: 1360902996
I1231 16:11:16.526581 29595 layer_factory.hpp:77] Creating layer conv5_1
I1231 16:11:16.526590 29595 net.cpp:106] Creating Layer conv5_1
I1231 16:11:16.526593 29595 net.cpp:454] conv5_1 <- pool4
I1231 16:11:16.526599 29595 net.cpp:411] conv5_1 -> conv5_1
I1231 16:11:16.535316 29595 net.cpp:150] Setting up conv5_1
I1231 16:11:16.535337 29595 net.cpp:157] Top shape: 1 512 38 63 (1225728)
I1231 16:11:16.535341 29595 net.cpp:165] Memory required for data: 1365805908
I1231 16:11:16.535348 29595 layer_factory.hpp:77] Creating layer relu5_1
I1231 16:11:16.535354 29595 net.cpp:106] Creating Layer relu5_1
I1231 16:11:16.535358 29595 net.cpp:454] relu5_1 <- conv5_1
I1231 16:11:16.535367 29595 net.cpp:397] relu5_1 -> conv5_1 (in-place)
I1231 16:11:16.535579 29595 net.cpp:150] Setting up relu5_1
I1231 16:11:16.535591 29595 net.cpp:157] Top shape: 1 512 38 63 (1225728)
I1231 16:11:16.535594 29595 net.cpp:165] Memory required for data: 1370708820
I1231 16:11:16.535598 29595 layer_factory.hpp:77] Creating layer conv5_2
I1231 16:11:16.535610 29595 net.cpp:106] Creating Layer conv5_2
I1231 16:11:16.535614 29595 net.cpp:454] conv5_2 <- conv5_1
I1231 16:11:16.535620 29595 net.cpp:411] conv5_2 -> conv5_2
I1231 16:11:16.544387 29595 net.cpp:150] Setting up conv5_2
I1231 16:11:16.544409 29595 net.cpp:157] Top shape: 1 512 38 63 (1225728)
I1231 16:11:16.544412 29595 net.cpp:165] Memory required for data: 1375611732
I1231 16:11:16.544420 29595 layer_factory.hpp:77] Creating layer relu5_2
I1231 16:11:16.544430 29595 net.cpp:106] Creating Layer relu5_2
I1231 16:11:16.544436 29595 net.cpp:454] relu5_2 <- conv5_2
I1231 16:11:16.544441 29595 net.cpp:397] relu5_2 -> conv5_2 (in-place)
I1231 16:11:16.544661 29595 net.cpp:150] Setting up relu5_2
I1231 16:11:16.544672 29595 net.cpp:157] Top shape: 1 512 38 63 (1225728)
I1231 16:11:16.544675 29595 net.cpp:165] Memory required for data: 1380514644
I1231 16:11:16.544678 29595 layer_factory.hpp:77] Creating layer conv5_3
I1231 16:11:16.544697 29595 net.cpp:106] Creating Layer conv5_3
I1231 16:11:16.544703 29595 net.cpp:454] conv5_3 <- conv5_2
I1231 16:11:16.544710 29595 net.cpp:411] conv5_3 -> conv5_3
I1231 16:11:16.553447 29595 net.cpp:150] Setting up conv5_3
I1231 16:11:16.553465 29595 net.cpp:157] Top shape: 1 512 38 63 (1225728)
I1231 16:11:16.553468 29595 net.cpp:165] Memory required for data: 1385417556
I1231 16:11:16.553475 29595 layer_factory.hpp:77] Creating layer relu5_3
I1231 16:11:16.553483 29595 net.cpp:106] Creating Layer relu5_3
I1231 16:11:16.553486 29595 net.cpp:454] relu5_3 <- conv5_3
I1231 16:11:16.553494 29595 net.cpp:397] relu5_3 -> conv5_3 (in-place)
I1231 16:11:16.554456 29595 net.cpp:150] Setting up relu5_3
I1231 16:11:16.554471 29595 net.cpp:157] Top shape: 1 512 38 63 (1225728)
I1231 16:11:16.554474 29595 net.cpp:165] Memory required for data: 1390320468
I1231 16:11:16.554478 29595 layer_factory.hpp:77] Creating layer conv5_3_relu5_3_0_split
I1231 16:11:16.554486 29595 net.cpp:106] Creating Layer conv5_3_relu5_3_0_split
I1231 16:11:16.554489 29595 net.cpp:454] conv5_3_relu5_3_0_split <- conv5_3
I1231 16:11:16.554497 29595 net.cpp:411] conv5_3_relu5_3_0_split -> conv5_3_relu5_3_0_split_0
I1231 16:11:16.554505 29595 net.cpp:411] conv5_3_relu5_3_0_split -> conv5_3_relu5_3_0_split_1
I1231 16:11:16.554560 29595 net.cpp:150] Setting up conv5_3_relu5_3_0_split
I1231 16:11:16.554569 29595 net.cpp:157] Top shape: 1 512 38 63 (1225728)
I1231 16:11:16.554574 29595 net.cpp:157] Top shape: 1 512 38 63 (1225728)
I1231 16:11:16.554575 29595 net.cpp:165] Memory required for data: 1400126292
I1231 16:11:16.554579 29595 layer_factory.hpp:77] Creating layer rpn_conv/3x3
I1231 16:11:16.554592 29595 net.cpp:106] Creating Layer rpn_conv/3x3
I1231 16:11:16.554596 29595 net.cpp:454] rpn_conv/3x3 <- conv5_3_relu5_3_0_split_0
I1231 16:11:16.554605 29595 net.cpp:411] rpn_conv/3x3 -> rpn/output
I1231 16:11:16.613284 29595 net.cpp:150] Setting up rpn_conv/3x3
I1231 16:11:16.613325 29595 net.cpp:157] Top shape: 1 512 38 63 (1225728)
I1231 16:11:16.613330 29595 net.cpp:165] Memory required for data: 1405029204
I1231 16:11:16.613343 29595 layer_factory.hpp:77] Creating layer rpn_relu/3x3
I1231 16:11:16.613363 29595 net.cpp:106] Creating Layer rpn_relu/3x3
I1231 16:11:16.613369 29595 net.cpp:454] rpn_relu/3x3 <- rpn/output
I1231 16:11:16.613379 29595 net.cpp:397] rpn_relu/3x3 -> rpn/output (in-place)
I1231 16:11:16.613688 29595 net.cpp:150] Setting up rpn_relu/3x3
I1231 16:11:16.613708 29595 net.cpp:157] Top shape: 1 512 38 63 (1225728)
I1231 16:11:16.613711 29595 net.cpp:165] Memory required for data: 1409932116
I1231 16:11:16.613716 29595 layer_factory.hpp:77] Creating layer rpn/output_rpn_relu/3x3_0_split
I1231 16:11:16.613725 29595 net.cpp:106] Creating Layer rpn/output_rpn_relu/3x3_0_split
I1231 16:11:16.613730 29595 net.cpp:454] rpn/output_rpn_relu/3x3_0_split <- rpn/output
I1231 16:11:16.613741 29595 net.cpp:411] rpn/output_rpn_relu/3x3_0_split -> rpn/output_rpn_relu/3x3_0_split_0
I1231 16:11:16.613752 29595 net.cpp:411] rpn/output_rpn_relu/3x3_0_split -> rpn/output_rpn_relu/3x3_0_split_1
I1231 16:11:16.613827 29595 net.cpp:150] Setting up rpn/output_rpn_relu/3x3_0_split
I1231 16:11:16.613839 29595 net.cpp:157] Top shape: 1 512 38 63 (1225728)
I1231 16:11:16.613844 29595 net.cpp:157] Top shape: 1 512 38 63 (1225728)
I1231 16:11:16.613848 29595 net.cpp:165] Memory required for data: 1419737940
I1231 16:11:16.613852 29595 layer_factory.hpp:77] Creating layer rpn_cls_score
I1231 16:11:16.613876 29595 net.cpp:106] Creating Layer rpn_cls_score
I1231 16:11:16.613884 29595 net.cpp:454] rpn_cls_score <- rpn/output_rpn_relu/3x3_0_split_0
I1231 16:11:16.613893 29595 net.cpp:411] rpn_cls_score -> rpn_cls_score
I1231 16:11:16.618443 29595 net.cpp:150] Setting up rpn_cls_score
I1231 16:11:16.618466 29595 net.cpp:157] Top shape: 1 18 38 63 (43092)
I1231 16:11:16.618470 29595 net.cpp:165] Memory required for data: 1419910308
I1231 16:11:16.618480 29595 layer_factory.hpp:77] Creating layer rpn_cls_score_rpn_cls_score_0_split
I1231 16:11:16.618494 29595 net.cpp:106] Creating Layer rpn_cls_score_rpn_cls_score_0_split
I1231 16:11:16.618500 29595 net.cpp:454] rpn_cls_score_rpn_cls_score_0_split <- rpn_cls_score
I1231 16:11:16.618508 29595 net.cpp:411] rpn_cls_score_rpn_cls_score_0_split -> rpn_cls_score_rpn_cls_score_0_split_0
I1231 16:11:16.618535 29595 net.cpp:411] rpn_cls_score_rpn_cls_score_0_split -> rpn_cls_score_rpn_cls_score_0_split_1
I1231 16:11:16.618607 29595 net.cpp:150] Setting up rpn_cls_score_rpn_cls_score_0_split
I1231 16:11:16.618619 29595 net.cpp:157] Top shape: 1 18 38 63 (43092)
I1231 16:11:16.618625 29595 net.cpp:157] Top shape: 1 18 38 63 (43092)
I1231 16:11:16.618628 29595 net.cpp:165] Memory required for data: 1420255044
I1231 16:11:16.618633 29595 layer_factory.hpp:77] Creating layer rpn_bbox_pred
I1231 16:11:16.618650 29595 net.cpp:106] Creating Layer rpn_bbox_pred
I1231 16:11:16.618657 29595 net.cpp:454] rpn_bbox_pred <- rpn/output_rpn_relu/3x3_0_split_1
I1231 16:11:16.618669 29595 net.cpp:411] rpn_bbox_pred -> rpn_bbox_pred
I1231 16:11:16.622184 29595 net.cpp:150] Setting up rpn_bbox_pred
I1231 16:11:16.622208 29595 net.cpp:157] Top shape: 1 36 38 63 (86184)
I1231 16:11:16.622212 29595 net.cpp:165] Memory required for data: 1420599780
I1231 16:11:16.622222 29595 layer_factory.hpp:77] Creating layer rpn_bbox_pred_rpn_bbox_pred_0_split
I1231 16:11:16.622231 29595 net.cpp:106] Creating Layer rpn_bbox_pred_rpn_bbox_pred_0_split
I1231 16:11:16.622237 29595 net.cpp:454] rpn_bbox_pred_rpn_bbox_pred_0_split <- rpn_bbox_pred
I1231 16:11:16.622246 29595 net.cpp:411] rpn_bbox_pred_rpn_bbox_pred_0_split -> rpn_bbox_pred_rpn_bbox_pred_0_split_0
I1231 16:11:16.622258 29595 net.cpp:411] rpn_bbox_pred_rpn_bbox_pred_0_split -> rpn_bbox_pred_rpn_bbox_pred_0_split_1
I1231 16:11:16.622333 29595 net.cpp:150] Setting up rpn_bbox_pred_rpn_bbox_pred_0_split
I1231 16:11:16.622344 29595 net.cpp:157] Top shape: 1 36 38 63 (86184)
I1231 16:11:16.622349 29595 net.cpp:157] Top shape: 1 36 38 63 (86184)
I1231 16:11:16.622354 29595 net.cpp:165] Memory required for data: 1421289252
I1231 16:11:16.622357 29595 layer_factory.hpp:77] Creating layer rpn_cls_score_reshape
I1231 16:11:16.622385 29595 net.cpp:106] Creating Layer rpn_cls_score_reshape
I1231 16:11:16.622392 29595 net.cpp:454] rpn_cls_score_reshape <- rpn_cls_score_rpn_cls_score_0_split_0
I1231 16:11:16.622402 29595 net.cpp:411] rpn_cls_score_reshape -> rpn_cls_score_reshape
I1231 16:11:16.622460 29595 net.cpp:150] Setting up rpn_cls_score_reshape
I1231 16:11:16.622472 29595 net.cpp:157] Top shape: 1 2 342 63 (43092)
I1231 16:11:16.622475 29595 net.cpp:165] Memory required for data: 1421461620
I1231 16:11:16.622479 29595 layer_factory.hpp:77] Creating layer rpn_cls_score_reshape_rpn_cls_score_reshape_0_split
I1231 16:11:16.622491 29595 net.cpp:106] Creating Layer rpn_cls_score_reshape_rpn_cls_score_reshape_0_split
I1231 16:11:16.622498 29595 net.cpp:454] rpn_cls_score_reshape_rpn_cls_score_reshape_0_split <- rpn_cls_score_reshape
I1231 16:11:16.622505 29595 net.cpp:411] rpn_cls_score_reshape_rpn_cls_score_reshape_0_split -> rpn_cls_score_reshape_rpn_cls_score_reshape_0_split_0
I1231 16:11:16.622517 29595 net.cpp:411] rpn_cls_score_reshape_rpn_cls_score_reshape_0_split -> rpn_cls_score_reshape_rpn_cls_score_reshape_0_split_1
I1231 16:11:16.622575 29595 net.cpp:150] Setting up rpn_cls_score_reshape_rpn_cls_score_reshape_0_split
I1231 16:11:16.622586 29595 net.cpp:157] Top shape: 1 2 342 63 (43092)
I1231 16:11:16.622591 29595 net.cpp:157] Top shape: 1 2 342 63 (43092)
I1231 16:11:16.622593 29595 net.cpp:165] Memory required for data: 1421806356
I1231 16:11:16.622597 29595 layer_factory.hpp:77] Creating layer rpn-data
I1231 16:11:16.680855 29595 net.cpp:106] Creating Layer rpn-data
I1231 16:11:16.680888 29595 net.cpp:454] rpn-data <- rpn_cls_score_rpn_cls_score_0_split_1
I1231 16:11:16.680902 29595 net.cpp:454] rpn-data <- gt_boxes_input-data_2_split_0
I1231 16:11:16.680932 29595 net.cpp:454] rpn-data <- im_info_input-data_1_split_0
I1231 16:11:16.680940 29595 net.cpp:454] rpn-data <- data_input-data_0_split_1
I1231 16:11:16.680953 29595 net.cpp:411] rpn-data -> rpn_labels
I1231 16:11:16.680974 29595 net.cpp:411] rpn-data -> rpn_bbox_targets
I1231 16:11:16.680991 29595 net.cpp:411] rpn-data -> rpn_bbox_inside_weights
I1231 16:11:16.681007 29595 net.cpp:411] rpn-data -> rpn_bbox_outside_weights
I1231 16:11:16.682705 29595 net.cpp:150] Setting up rpn-data
I1231 16:11:16.682736 29595 net.cpp:157] Top shape: 1 1 342 63 (21546)
I1231 16:11:16.682749 29595 net.cpp:157] Top shape: 1 36 38 63 (86184)
I1231 16:11:16.682755 29595 net.cpp:157] Top shape: 1 36 38 63 (86184)
I1231 16:11:16.682762 29595 net.cpp:157] Top shape: 1 36 38 63 (86184)
I1231 16:11:16.682770 29595 net.cpp:165] Memory required for data: 1422926748
I1231 16:11:16.682778 29595 layer_factory.hpp:77] Creating layer rpn_loss_cls
I1231 16:11:16.682806 29595 net.cpp:106] Creating Layer rpn_loss_cls
I1231 16:11:16.682817 29595 net.cpp:454] rpn_loss_cls <- rpn_cls_score_reshape_rpn_cls_score_reshape_0_split_0
I1231 16:11:16.682827 29595 net.cpp:454] rpn_loss_cls <- rpn_labels
…
I1231 16:11:16.685148 29595 net.cpp:157] Top shape: (1)
I1231 16:11:16.685153 29595 net.cpp:160]     with loss weight 1
I1231 16:11:16.685163 29595 net.cpp:165] Memory required for data: 1422926756
I1231 16:11:16.685168 29595 layer_factory.hpp:77] Creating layer rpn_cls_prob
I1231 16:11:16.685178 29595 net.cpp:106] Creating Layer rpn_cls_prob
I1231 16:11:16.685185 29595 net.cpp:454] rpn_cls_prob <- rpn_cls_score_reshape_rpn_cls_score_reshape_0_split_1
I1231 16:11:16.685195 29595 net.cpp:411] rpn_cls_prob -> rpn_cls_prob
I1231 16:11:16.686909 29595 net.cpp:150] Setting up rpn_cls_prob
I1231 16:11:16.686939 29595 net.cpp:157] Top shape: 1 2 342 63 (43092)
I1231 16:11:16.686944 29595 net.cpp:165] Memory required for data: 1423099124
I1231 16:11:16.686951 29595 layer_factory.hpp:77] Creating layer rpn_cls_prob_reshape
I1231 16:11:16.686966 29595 net.cpp:106] Creating Layer rpn_cls_prob_reshape
I1231 16:11:16.686976 29595 net.cpp:454] rpn_cls_prob_reshape <- rpn_cls_prob
I1231 16:11:16.686990 29595 net.cpp:411] rpn_cls_prob_reshape -> rpn_cls_prob_reshape
I1231 16:11:16.687050 29595 net.cpp:150] Setting up rpn_cls_prob_reshape
I1231 16:11:16.687064 29595 net.cpp:157] Top shape: 1 18 38 63 (43092)
I1231 16:11:16.687069 29595 net.cpp:165] Memory required for data: 1423271492
I1231 16:11:16.687075 29595 layer_factory.hpp:77] Creating layer proposal
I1231 16:11:16.709357 29595 net.cpp:106] Creating Layer proposal
I1231 16:11:16.709386 29595 net.cpp:454] proposal <- rpn_cls_prob_reshape
I1231 16:11:16.709398 29595 net.cpp:454] proposal <- rpn_bbox_pred_rpn_bbox_pred_0_split_1
I1231 16:11:16.709405 29595 net.cpp:454] proposal <- im_info_input-data_1_split_1
I1231 16:11:16.709417 29595 net.cpp:411] proposal -> rpn_rois
I1231 16:11:16.743157 29595 net.cpp:150] Setting up proposal
I1231 16:11:16.743185 29595 net.cpp:157] Top shape: 1 5 (5)
I1231 16:11:16.743190 29595 net.cpp:165] Memory required for data: 1423271512
I1231 16:11:16.743196 29595 layer_factory.hpp:77] Creating layer roi-data
I1231 16:11:16.818452 29595 net.cpp:106] Creating Layer roi-data
I1231 16:11:16.818481 29595 net.cpp:454] roi-data <- rpn_rois
I1231 16:11:16.818493 29595 net.cpp:454] roi-data <- gt_boxes_input-data_2_split_1
I1231 16:11:16.818506 29595 net.cpp:411] roi-data -> rois
I1231 16:11:16.818521 29595 net.cpp:411] roi-data -> labels
I1231 16:11:16.818537 29595 net.cpp:411] roi-data -> bbox_targets
I1231 16:11:16.818549 29595 net.cpp:411] roi-data -> bbox_inside_weights
I1231 16:11:16.818564 29595 net.cpp:411] roi-data -> bbox_outside_weights
I1231 16:11:16.819419 29595 net.cpp:150] Setting up roi-data
I1231 16:11:16.819449 29595 net.cpp:157] Top shape: 1 5 (5)
I1231 16:11:16.819456 29595 net.cpp:157] Top shape: 1 1 (1)
I1231 16:11:16.819463 29595 net.cpp:157] Top shape: 1 84 (84)
I1231 16:11:16.819468 29595 net.cpp:157] Top shape: 1 84 (84)
I1231 16:11:16.819474 29595 net.cpp:157] Top shape: 1 84 (84)
I1231 16:11:16.819479 29595 net.cpp:165] Memory required for data: 1423272544
I1231 16:11:16.819485 29595 layer_factory.hpp:77] Creating layer roi_pool5
I1231 16:11:16.819509 29595 net.cpp:106] Creating Layer roi_pool5
I1231 16:11:16.819524 29595 net.cpp:454] roi_pool5 <- conv5_3_relu5_3_0_split_1
I1231 16:11:16.819533 29595 net.cpp:454] roi_pool5 <- rois
I1231 16:11:16.819542 29595 net.cpp:411] roi_pool5 -> pool5
I1231 16:11:16.819561 29595 roi_pooling_layer.cpp:30] Spatial scale: 0.0625
I1231 16:11:16.819663 29595 net.cpp:150] Setting up roi_pool5
I1231 16:11:16.819677 29595 net.cpp:157] Top shape: 1 512 7 7 (25088)
I1231 16:11:16.819684 29595 net.cpp:165] Memory required for data: 1423372896
I1231 16:11:16.819690 29595 layer_factory.hpp:77] Creating layer fc6
I1231 16:11:16.819706 29595 net.cpp:106] Creating Layer fc6
I1231 16:11:16.819713 29595 net.cpp:454] fc6 <- pool5
I1231 16:11:16.819722 29595 net.cpp:411] fc6 -> fc6
I1231 16:11:17.170544 29595 net.cpp:150] Setting up fc6
I1231 16:11:17.170594 29595 net.cpp:157] Top shape: 1 4096 (4096)
I1231 16:11:17.170598 29595 net.cpp:165] Memory required for data: 1423389280
I1231 16:11:17.170620 29595 layer_factory.hpp:77] Creating layer relu6
I1231 16:11:17.170634 29595 net.cpp:106] Creating Layer relu6
I1231 16:11:17.170639 29595 net.cpp:454] relu6 <- fc6
I1231 16:11:17.170646 29595 net.cpp:397] relu6 -> fc6 (in-place)
I1231 16:11:17.170959 29595 net.cpp:150] Setting up relu6
I1231 16:11:17.170971 29595 net.cpp:157] Top shape: 1 4096 (4096)
I1231 16:11:17.170974 29595 net.cpp:165] Memory required for data: 1423405664
I1231 16:11:17.170977 29595 layer_factory.hpp:77] Creating layer drop6
I1231 16:11:17.170997 29595 net.cpp:106] Creating Layer drop6
I1231 16:11:17.171002 29595 net.cpp:454] drop6 <- fc6
I1231 16:11:17.171007 29595 net.cpp:397] drop6 -> fc6 (in-place)
I1231 16:11:17.171046 29595 net.cpp:150] Setting up drop6
I1231 16:11:17.171056 29595 net.cpp:157] Top shape: 1 4096 (4096)
I1231 16:11:17.171058 29595 net.cpp:165] Memory required for data: 1423422048
I1231 16:11:17.171061 29595 layer_factory.hpp:77] Creating layer fc7
I1231 16:11:17.171070 29595 net.cpp:106] Creating Layer fc7
I1231 16:11:17.171073 29595 net.cpp:454] fc7 <- fc6
I1231 16:11:17.171079 29595 net.cpp:411] fc7 -> fc7
I1231 16:11:17.223474 29595 net.cpp:150] Setting up fc7
I1231 16:11:17.223528 29595 net.cpp:157] Top shape: 1 4096 (4096)
I1231 16:11:17.223532 29595 net.cpp:165] Memory required for data: 1423438432
I1231 16:11:17.223546 29595 layer_factory.hpp:77] Creating layer relu7
I1231 16:11:17.223557 29595 net.cpp:106] Creating Layer relu7
I1231 16:11:17.223562 29595 net.cpp:454] relu7 <- fc7
I1231 16:11:17.223572 29595 net.cpp:397] relu7 -> fc7 (in-place)
I1231 16:11:17.224761 29595 net.cpp:150] Setting up relu7
I1231 16:11:17.224776 29595 net.cpp:157] Top shape: 1 4096 (4096)
I1231 16:11:17.224778 29595 net.cpp:165] Memory required for data: 1423454816
I1231 16:11:17.224782 29595 layer_factory.hpp:77] Creating layer drop7
I1231 16:11:17.224792 29595 net.cpp:106] Creating Layer drop7
I1231 16:11:17.224794 29595 net.cpp:454] drop7 <- fc7
I1231 16:11:17.224802 29595 net.cpp:397] drop7 -> fc7 (in-place)
I1231 16:11:17.224840 29595 net.cpp:150] Setting up drop7
I1231 16:11:17.224848 29595 net.cpp:157] Top shape: 1 4096 (4096)
I1231 16:11:17.224851 29595 net.cpp:165] Memory required for data: 1423471200
I1231 16:11:17.224854 29595 layer_factory.hpp:77] Creating layer fc7_drop7_0_split
I1231 16:11:17.224861 29595 net.cpp:106] Creating Layer fc7_drop7_0_split
I1231 16:11:17.224864 29595 net.cpp:454] fc7_drop7_0_split <- fc7
I1231 16:11:17.224871 29595 net.cpp:411] fc7_drop7_0_split -> fc7_drop7_0_split_0
I1231 16:11:17.224879 29595 net.cpp:411] fc7_drop7_0_split -> fc7_drop7_0_split_1
I1231 16:11:17.224932 29595 net.cpp:150] Setting up fc7_drop7_0_split
I1231 16:11:17.224941 29595 net.cpp:157] Top shape: 1 4096 (4096)
I1231 16:11:17.224943 29595 net.cpp:157] Top shape: 1 4096 (4096)
I1231 16:11:17.224946 29595 net.cpp:165] Memory required for data: 1423503968
I1231 16:11:17.224949 29595 layer_factory.hpp:77] Creating layer cls_score
I1231 16:11:17.224958 29595 net.cpp:106] Creating Layer cls_score
I1231 16:11:17.224961 29595 net.cpp:454] cls_score <- fc7_drop7_0_split_0
I1231 16:11:17.224969 29595 net.cpp:411] cls_score -> cls_score
I1231 16:11:17.226202 29595 net.cpp:150] Setting up cls_score
I1231 16:11:17.226212 29595 net.cpp:157] Top shape: 1 21 (21)
I1231 16:11:17.226214 29595 net.cpp:165] Memory required for data: 1423504052
I1231 16:11:17.226220 29595 layer_factory.hpp:77] Creating layer bbox_pred
I1231 16:11:17.226228 29595 net.cpp:106] Creating Layer bbox_pred
I1231 16:11:17.226232 29595 net.cpp:454] bbox_pred <- fc7_drop7_0_split_1
I1231 16:11:17.226238 29595 net.cpp:411] bbox_pred -> bbox_pred
I1231 16:11:17.231622 29595 net.cpp:150] Setting up bbox_pred
I1231 16:11:17.231638 29595 net.cpp:157] Top shape: 1 84 (84)
I1231 16:11:17.231642 29595 net.cpp:165] Memory required for data: 1423504388
I1231 16:11:17.231648 29595 layer_factory.hpp:77] Creating layer loss_cls
I1231 16:11:17.231657 29595 net.cpp:106] Creating Layer loss_cls
I1231 16:11:17.231660 29595 net.cpp:454] loss_cls <- cls_score
I1231 16:11:17.231667 29595 net.cpp:454] loss_cls <- labels
I1231 16:11:17.231673 29595 net.cpp:411] loss_cls -> loss_cls
…
