…
snapshot_prefix: "vgg_cnn_m_1024_faster_rcnn"
average_loss: 100
I0823 15:07:00.823091 25266 solver.cpp:81] Creating training net from train_net file: models/pascal_voc/VGG_CNN_M_1024/faster_rcnn_end2end/train.prototxt
I0823 15:07:00.823706 25266 net.cpp:49] Initializing net from parameters: 
name: "VGG_CNN_M_1024"
state {
  phase: TRAIN
}
layer {
  name: "input-data"
  type: "Python"
  top: "data"
  top: "im_info"
  top: "gt_boxes"
  python_param {
    module: "roi_data_layer.layer"
    layer: "RoIDataLayer"
    param_str: "\'num_classes\': 21"
  }
}
layer {
  name: "conv1"
  type: "Convolution"
  bottom: "data"
  top: "conv1"
  param {
    lr_mult: 0
    decay_mult: 0
  }
  param {
    lr_mult: 0
    decay_mult: 0
  }
  convolution_param {
    num_output: 96
    kernel_size: 7
    stride: 2
  }
}
layer {
  name: "relu1"
  type: "ReLU"
  bottom: "conv1"
  top: "conv1"
}
layer {
  name: "norm1"
  type: "LRN"
  bottom: "conv1"
  top: "norm1"
  lrn_param {
    local_size: 5
    alpha: 0.0005
    beta: 0.75
    k: 2
  }
}
layer {
  name: "pool1"
  type: "Pooling"
  bottom: "norm1"
  top: "pool1"
  pooling_param {
    pool: MAX
    kernel_size: 3
    stride: 2
  }
}
layer {
  name: "conv2"
  type: "Convolution"
  bottom: "pool1"
  top: "conv2"
  param {
    lr_mult: 1
  }
  param {
    lr_mult: 2
  }
  convolution_param {
    num_output: 256
    pad: 1
    kernel_size: 5
    stride: 2
  }
}
layer {
  name: "relu2"
  type: "ReLU"
  bottom: "conv2"
  top: "conv2"
}
layer {
  name: "norm2"
  type: "LRN"
  bottom: "conv2"
  top: "norm2"
  lrn_param {
    local_size: 5
    alpha: 0.0005
    beta: 0.75
    k: 2
  }
}
layer {
  name: "pool2"
  type: "Pooling"
  bottom: "norm2"
  top: "pool2"
  pooling_param {
    pool: MAX
    kernel_size: 3
    stride: 2
  }
}
layer {
  name: "conv3"
  type: "Convolution"
  bottom: "pool2"
  top: "conv3"
  param {
    lr_mult: 1
  }
  param {
    lr_mult: 2
  }
  convolution_param {
    num_output: 512
    pad: 1
    kernel_size: 3
  }
}
layer {
  name: "relu3"
  type: "ReLU"
  bottom: "conv3"
  top: "conv3"
}
layer {
  name: "conv4"
  type: "Convolution"
  bottom: "conv3"
  top: "conv4"
  param {
    lr_mult: 1
  }
  param {
    lr_mult: 2
  }
  convolution_param {
    num_output: 512
    pad: 1
    kernel_size: 3
  }
}
layer {
  name: "relu4"
  type: "ReLU"
  bottom: "conv4"
  top: "conv4"
}
layer {
  name: "conv5"
  type: "Convolution"
  bottom: "conv4"
  top: "conv5"
  param {
    lr_mult: 1
  }
  param {
    lr_mult: 2
  }
  convolution_param {
    num_output: 512
    pad: 1
    kernel_size: 3
  }
}
layer {
  name: "relu5"
  type: "ReLU"
  bottom: "conv5"
  top: "conv5"
}
layer {
  name: "rpn_conv/3x3"
  type: "Convolution"
  bottom: "conv5"
  top: "rpn/output"
  param {
    lr_mult: 1
  }
  param {
    lr_mult: 2
  }
  convolution_param {
    num_output: 256
    pad: 1
    kernel_size: 3
    stride: 1
    weight_filler {
      type: "gaussian"
      std: 0.01
    }
    bias_filler {
      type: "constant"
      value: 0
    }
  }
}
layer {
  name: "rpn_relu/3x3"
  type: "ReLU"
  bottom: "rpn/output"
  top: "rpn/output"
}
layer {
  name: "rpn_cls_score"
  type: "Convolution"
  bottom: "rpn/output"
  top: "rpn_cls_score"
  param {
    lr_mult: 1
  }
  param {
    lr_mult: 2
  }
  convolution_param {
    num_output: 18
    pad: 0
    kernel_size: 1
    stride: 1
    weight_filler {
      type: "gaussian"
      std: 0.01
    }
    bias_filler {
      type: "constant"
      value: 0
    }
  }
}
layer {
  name: "rpn_bbox_pred"
  type: "Convolution"
  bottom: "rpn/output"
  top: "rpn_bbox_pred"
  param {
    lr_mult: 1
  }
  param {
    lr_mult: 2
  }
  convolution_param {
    num_output: 36
    pad: 0
    kernel_size: 1
    stride: 1
    weight_filler {
      type: "gaussian"
      std: 0.01
    }
    bias_filler {
      type: "constant"
      value: 0
    }
  }
}
layer {
  name: "rpn_cls_score_reshape"
  type: "Reshape"
  bottom: "rpn_cls_score"
  top: "rpn_cls_score_reshape"
  reshape_param {
    shape {
      dim: 0
      dim: 2
      dim: -1
      dim: 0
    }
  }
}
layer {
  name: "rpn-data"
  type: "Python"
  bottom: "rpn_cls_score"
  bottom: "gt_boxes"
  bottom: "im_info"
  bottom: "data"
  top: "rpn_labels"
  top: "rpn_bbox_targets"
  top: "rpn_bbox_inside_weights"
  top: "rpn_bbox_outside_weights"
  python_param {
    module: "rpn.anchor_target_layer"
    layer: "AnchorTargetLayer"
    param_str: "\'feat_stride\': 16"
  }
}
layer {
  name: "rpn_loss_cls"
  type: "SoftmaxWithLoss"
  bottom: "rpn_cls_score_reshape"
  bottom: "rpn_labels"
  top: "rpn_cls_loss"
  loss_weight: 1
  propagate_down: true
  propagate_down: false
  loss_param {
    ignore_label: -1
    normalize: true
  }
}
layer {
  name: "rpn_loss_bbox"
  type: "SmoothL1Loss"
  bottom: "rpn_bbox_pred"
  bottom: "rpn_bbox_targets"
  bottom: "rpn_bbox_inside_weights"
  bottom: "rpn_bbox_outside_weights"
  top: "rpn_loss_bbox"
  loss_weight: 1
  smooth_l1_loss_param {
    sigma: 3
  }
}
layer {
  name: "rpn_cls_prob"
  type: "Softmax"
  bottom: "rpn_cls_score_reshape"
  top: "rpn_cls_prob"
}
layer {
  name: "rpn_cls_prob_reshape"
  type: "Reshape"
  bottom: "rpn_cls_prob"
  top: "rpn_cls_prob_reshape"
  reshape_param {
    shape {
      dim: 0
      dim: 18
      dim: -1
      dim: 0
    }
  }
}
layer {
  name: "proposal"
  type: "Python"
  bottom: "rpn_cls_prob_reshape"
  bottom: "rpn_bbox_pred"
  bottom: "im_info"
  top: "rpn_rois"
  python_param {
    module: "rpn.proposal_layer"
    layer: "ProposalLayer"
    param_str: "\'feat_stride\': 16"
  }
}
layer {
  name: "roi-data"
  type: "Python"
  bottom: "rpn_rois"
  bottom: "gt_boxes"
  top: "rois"
  top: "labels"
  top: "bbox_targets"
  top: "bbox_inside_weights"
  top: "bbox_outside_weights"
  python_param {
    module: "rpn.proposal_target_layer"
    layer: "ProposalTargetLayer"
    param_str: "\'num_classes\': 21"
  }
}
layer {
  name: "roi_pool5"
  type: "ROIPooling"
  bottom: "conv5"
  bottom: "rois"
  top: "pool5"
  roi_pooling_param {
    pooled_h: 6
    pooled_w: 6
    spatial_scale: 0.0625
  }
}
layer {
  name: "fc6"
  type: "InnerProduct"
  bottom: "pool5"
  top: "fc6"
  param {
    lr_mult: 1
  }
  param {
    lr_mult: 2
  }
  inner_product_param {
    num_output: 4096
  }
}
layer {
  name: "relu6"
  type: "ReLU"
  bottom: "fc6"
  top: "fc6"
}
layer {
  name: "drop6"
  type: "Dropout"
  bottom: "fc6"
  top: "fc6"
  dropout_param {
    dropout_ratio: 0.5
  }
}
layer {
  name: "fc7"
  type: "InnerProduct"
  bottom: "fc6"
  top: "fc7"
  param {
    lr_mult: 1
  }
  param {
    lr_mult: 2
  }
  inner_product_param {
    num_output: 1024
  }
}
layer {
  name: "relu7"
  type: "ReLU"
  bottom: "fc7"
  top: "fc7"
}
layer {
  name: "drop7"
  type: "Dropout"
  bottom: "fc7"
  top: "fc7"
  dropout_param {
    dropout_ratio: 0.5
  }
}
layer {
  name: "cls_score"
  type: "InnerProduct"
  bottom: "fc7"
  top: "cls_score"
  param {
    lr_mult: 1
  }
  param {
    lr_mult: 2
  }
  inner_product_param {
    num_output: 21
    weight_filler {
      type: "gaussian"
      std: 0.01
    }
    bias_filler {
      type: "constant"
      value: 0
    }
  }
}
layer {
  name: "bbox_pred"
  type: "InnerProduct"
  bottom: "fc7"
  top: "bbox_pred"
  param {
    lr_mult: 1
  }
  param {
    lr_mult: 2
  }
  inner_product_param {
    num_output: 84
    weight_filler {
      type: "gaussian"
      std: 0.001
    }
    bias_filler {
      type: "constant"
      value: 0
    }
  }
}
layer {
  name: "loss_cls"
  type: "SoftmaxWithLoss"
  bottom: "cls_score"
  bottom: "labels"
  top: "loss_cls"
  loss_weight: 1
  propagate_down: true
  propagate_down: false
}
layer {
  name: "loss_bbox"
  type: "SmoothL1Loss"
  bottom: "bbox_pred"
  bottom: "bbox_targets"
  bottom: "bbox_inside_weights"
  bottom: "bbox_outside_weights"
  top: "loss_bbox"
  loss_weight: 1
}
I0823 15:07:00.823982 25266 layer_factory.hpp:77] Creating layer input-data
I0823 15:07:00.840087 25266 net.cpp:106] Creating Layer input-data
I0823 15:07:00.840126 25266 net.cpp:411] input-data -> data
I0823 15:07:00.840137 25266 net.cpp:411] input-data -> im_info
I0823 15:07:00.840143 25266 net.cpp:411] input-data -> gt_boxes
RoiDataLayer: name_to_top: {'gt_boxes': 2, 'data': 0, 'im_info': 1}
I0823 15:07:00.857203 25266 net.cpp:150] Setting up input-data
I0823 15:07:00.857229 25266 net.cpp:157] Top shape: 1 3 600 1000 (1800000)
I0823 15:07:00.857237 25266 net.cpp:157] Top shape: 1 3 (3)
I0823 15:07:00.857244 25266 net.cpp:157] Top shape: 1 4 (4)
I0823 15:07:00.857247 25266 net.cpp:165] Memory required for data: 7200028
I0823 15:07:00.857255 25266 layer_factory.hpp:77] Creating layer data_input-data_0_split
I0823 15:07:00.857270 25266 net.cpp:106] Creating Layer data_input-data_0_split
I0823 15:07:00.857282 25266 net.cpp:454] data_input-data_0_split <- data
I0823 15:07:00.857295 25266 net.cpp:411] data_input-data_0_split -> data_input-data_0_split_0
I0823 15:07:00.857309 25266 net.cpp:411] data_input-data_0_split -> data_input-data_0_split_1
I0823 15:07:00.857406 25266 net.cpp:150] Setting up data_input-data_0_split
I0823 15:07:00.857419 25266 net.cpp:157] Top shape: 1 3 600 1000 (1800000)
I0823 15:07:00.857426 25266 net.cpp:157] Top shape: 1 3 600 1000 (1800000)
I0823 15:07:00.857431 25266 net.cpp:165] Memory required for data: 21600028
I0823 15:07:00.857436 25266 layer_factory.hpp:77] Creating layer im_info_input-data_1_split
I0823 15:07:00.857446 25266 net.cpp:106] Creating Layer im_info_input-data_1_split
I0823 15:07:00.857453 25266 net.cpp:454] im_info_input-data_1_split <- im_info
I0823 15:07:00.857462 25266 net.cpp:411] im_info_input-data_1_split -> im_info_input-data_1_split_0
I0823 15:07:00.857475 25266 net.cpp:411] im_info_input-data_1_split -> im_info_input-data_1_split_1
I0823 15:07:00.857556 25266 net.cpp:150] Setting up im_info_input-data_1_split
I0823 15:07:00.857566 25266 net.cpp:157] Top shape: 1 3 (3)
I0823 15:07:00.857573 25266 net.cpp:157] Top shape: 1 3 (3)
I0823 15:07:00.857576 25266 net.cpp:165] Memory required for data: 21600052
I0823 15:07:00.857581 25266 layer_factory.hpp:77] Creating layer gt_boxes_input-data_2_split
I0823 15:07:00.857589 25266 net.cpp:106] Creating Layer gt_boxes_input-data_2_split
I0823 15:07:00.857596 25266 net.cpp:454] gt_boxes_input-data_2_split <- gt_boxes
I0823 15:07:00.857605 25266 net.cpp:411] gt_boxes_input-data_2_split -> gt_boxes_input-data_2_split_0
I0823 15:07:00.857616 25266 net.cpp:411] gt_boxes_input-data_2_split -> gt_boxes_input-data_2_split_1
I0823 15:07:00.857698 25266 net.cpp:150] Setting up gt_boxes_input-data_2_split
I0823 15:07:00.857708 25266 net.cpp:157] Top shape: 1 4 (4)
I0823 15:07:00.857715 25266 net.cpp:157] Top shape: 1 4 (4)
I0823 15:07:00.857720 25266 net.cpp:165] Memory required for data: 21600084
I0823 15:07:00.857725 25266 layer_factory.hpp:77] Creating layer conv1
I0823 15:07:00.857741 25266 net.cpp:106] Creating Layer conv1
I0823 15:07:00.857749 25266 net.cpp:454] conv1 <- data_input-data_0_split_0
I0823 15:07:00.857759 25266 net.cpp:411] conv1 -> conv1
I0823 15:07:01.150456 25266 net.cpp:150] Setting up conv1
I0823 15:07:01.150501 25266 net.cpp:157] Top shape: 1 96 297 497 (14170464)
I0823 15:07:01.150504 25266 net.cpp:165] Memory required for data: 78281940
I0823 15:07:01.150522 25266 layer_factory.hpp:77] Creating layer relu1
I0823 15:07:01.150534 25266 net.cpp:106] Creating Layer relu1
I0823 15:07:01.150547 25266 net.cpp:454] relu1 <- conv1
I0823 15:07:01.150553 25266 net.cpp:397] relu1 -> conv1 (in-place)
I0823 15:07:01.151087 25266 net.cpp:150] Setting up relu1
I0823 15:07:01.151103 25266 net.cpp:157] Top shape: 1 96 297 497 (14170464)
I0823 15:07:01.151113 25266 net.cpp:165] Memory required for data: 134963796
I0823 15:07:01.151116 25266 layer_factory.hpp:77] Creating layer norm1
I0823 15:07:01.151125 25266 net.cpp:106] Creating Layer norm1
I0823 15:07:01.151129 25266 net.cpp:454] norm1 <- conv1
I0823 15:07:01.151135 25266 net.cpp:411] norm1 -> norm1
I0823 15:07:01.151382 25266 net.cpp:150] Setting up norm1
I0823 15:07:01.151394 25266 net.cpp:157] Top shape: 1 96 297 497 (14170464)
I0823 15:07:01.151397 25266 net.cpp:165] Memory required for data: 191645652
I0823 15:07:01.151401 25266 layer_factory.hpp:77] Creating layer pool1
I0823 15:07:01.151408 25266 net.cpp:106] Creating Layer pool1
I0823 15:07:01.151412 25266 net.cpp:454] pool1 <- norm1
I0823 15:07:01.151417 25266 net.cpp:411] pool1 -> pool1
I0823 15:07:01.151476 25266 net.cpp:150] Setting up pool1
I0823 15:07:01.151484 25266 net.cpp:157] Top shape: 1 96 148 248 (3523584)
I0823 15:07:01.151487 25266 net.cpp:165] Memory required for data: 205739988
I0823 15:07:01.151490 25266 layer_factory.hpp:77] Creating layer conv2
I0823 15:07:01.151504 25266 net.cpp:106] Creating Layer conv2
I0823 15:07:01.151510 25266 net.cpp:454] conv2 <- pool1
I0823 15:07:01.151515 25266 net.cpp:411] conv2 -> conv2
I0823 15:07:01.157377 25266 net.cpp:150] Setting up conv2
I0823 15:07:01.157394 25266 net.cpp:157] Top shape: 1 256 73 123 (2298624)
I0823 15:07:01.157398 25266 net.cpp:165] Memory required for data: 214934484
I0823 15:07:01.157410 25266 layer_factory.hpp:77] Creating layer relu2
I0823 15:07:01.157418 25266 net.cpp:106] Creating Layer relu2
I0823 15:07:01.157421 25266 net.cpp:454] relu2 <- conv2
I0823 15:07:01.157428 25266 net.cpp:397] relu2 -> conv2 (in-place)
I0823 15:07:01.157940 25266 net.cpp:150] Setting up relu2
I0823 15:07:01.157954 25266 net.cpp:157] Top shape: 1 256 73 123 (2298624)
I0823 15:07:01.157958 25266 net.cpp:165] Memory required for data: 224128980
I0823 15:07:01.157961 25266 layer_factory.hpp:77] Creating layer norm2
I0823 15:07:01.157969 25266 net.cpp:106] Creating Layer norm2
I0823 15:07:01.157973 25266 net.cpp:454] norm2 <- conv2
I0823 15:07:01.157979 25266 net.cpp:411] norm2 -> norm2
I0823 15:07:01.158226 25266 net.cpp:150] Setting up norm2
I0823 15:07:01.158238 25266 net.cpp:157] Top shape: 1 256 73 123 (2298624)
I0823 15:07:01.158241 25266 net.cpp:165] Memory required for data: 233323476
I0823 15:07:01.158244 25266 layer_factory.hpp:77] Creating layer pool2
I0823 15:07:01.158251 25266 net.cpp:106] Creating Layer pool2
I0823 15:07:01.158254 25266 net.cpp:454] pool2 <- norm2
I0823 15:07:01.158259 25266 net.cpp:411] pool2 -> pool2
I0823 15:07:01.158318 25266 net.cpp:150] Setting up pool2
I0823 15:07:01.158326 25266 net.cpp:157] Top shape: 1 256 36 61 (562176)
I0823 15:07:01.158329 25266 net.cpp:165] Memory required for data: 235572180
I0823 15:07:01.158332 25266 layer_factory.hpp:77] Creating layer conv3
I0823 15:07:01.158340 25266 net.cpp:106] Creating Layer conv3
I0823 15:07:01.158344 25266 net.cpp:454] conv3 <- pool2
I0823 15:07:01.158349 25266 net.cpp:411] conv3 -> conv3
I0823 15:07:01.170464 25266 net.cpp:150] Setting up conv3
I0823 15:07:01.170480 25266 net.cpp:157] Top shape: 1 512 36 61 (1124352)
I0823 15:07:01.170485 25266 net.cpp:165] Memory required for data: 240069588
I0823 15:07:01.170495 25266 layer_factory.hpp:77] Creating layer relu3
I0823 15:07:01.170506 25266 net.cpp:106] Creating Layer relu3
I0823 15:07:01.170508 25266 net.cpp:454] relu3 <- conv3
I0823 15:07:01.170514 25266 net.cpp:397] relu3 -> conv3 (in-place)
I0823 15:07:01.170738 25266 net.cpp:150] Setting up relu3
I0823 15:07:01.170753 25266 net.cpp:157] Top shape: 1 512 36 61 (1124352)
I0823 15:07:01.170755 25266 net.cpp:165] Memory required for data: 244566996
I0823 15:07:01.170759 25266 layer_factory.hpp:77] Creating layer conv4
I0823 15:07:01.170768 25266 net.cpp:106] Creating Layer conv4
I0823 15:07:01.170773 25266 net.cpp:454] conv4 <- conv3
I0823 15:07:01.170781 25266 net.cpp:411] conv4 -> conv4
I0823 15:07:01.186362 25266 net.cpp:150] Setting up conv4
I0823 15:07:01.186403 25266 net.cpp:157] Top shape: 1 512 36 61 (1124352)
I0823 15:07:01.186408 25266 net.cpp:165] Memory required for data: 249064404
I0823 15:07:01.186417 25266 layer_factory.hpp:77] Creating layer relu4
I0823 15:07:01.186429 25266 net.cpp:106] Creating Layer relu4
I0823 15:07:01.186434 25266 net.cpp:454] relu4 <- conv4
I0823 15:07:01.186444 25266 net.cpp:397] relu4 -> conv4 (in-place)
I0823 15:07:01.186991 25266 net.cpp:150] Setting up relu4
I0823 15:07:01.187006 25266 net.cpp:157] Top shape: 1 512 36 61 (1124352)
I0823 15:07:01.187010 25266 net.cpp:165] Memory required for data: 253561812
I0823 15:07:01.187013 25266 layer_factory.hpp:77] Creating layer conv5
I0823 15:07:01.187032 25266 net.cpp:106] Creating Layer conv5
I0823 15:07:01.187036 25266 net.cpp:454] conv5 <- conv4
I0823 15:07:01.187043 25266 net.cpp:411] conv5 -> conv5
I0823 15:07:01.201977 25266 net.cpp:150] Setting up conv5
I0823 15:07:01.201995 25266 net.cpp:157] Top shape: 1 512 36 61 (1124352)
I0823 15:07:01.201999 25266 net.cpp:165] Memory required for data: 258059220
I0823 15:07:01.202018 25266 layer_factory.hpp:77] Creating layer relu5
I0823 15:07:01.202028 25266 net.cpp:106] Creating Layer relu5
I0823 15:07:01.202031 25266 net.cpp:454] relu5 <- conv5
I0823 15:07:01.202038 25266 net.cpp:397] relu5 -> conv5 (in-place)
I0823 15:07:01.202252 25266 net.cpp:150] Setting up relu5
I0823 15:07:01.202265 25266 net.cpp:157] Top shape: 1 512 36 61 (1124352)
I0823 15:07:01.202267 25266 net.cpp:165] Memory required for data: 262556628
I0823 15:07:01.202270 25266 layer_factory.hpp:77] Creating layer conv5_relu5_0_split
I0823 15:07:01.202278 25266 net.cpp:106] Creating Layer conv5_relu5_0_split
I0823 15:07:01.202281 25266 net.cpp:454] conv5_relu5_0_split <- conv5
I0823 15:07:01.202289 25266 net.cpp:411] conv5_relu5_0_split -> conv5_relu5_0_split_0
I0823 15:07:01.202298 25266 net.cpp:411] conv5_relu5_0_split -> conv5_relu5_0_split_1
I0823 15:07:01.202373 25266 net.cpp:150] Setting up conv5_relu5_0_split
I0823 15:07:01.202381 25266 net.cpp:157] Top shape: 1 512 36 61 (1124352)
I0823 15:07:01.202386 25266 net.cpp:157] Top shape: 1 512 36 61 (1124352)
I0823 15:07:01.202389 25266 net.cpp:165] Memory required for data: 271551444
I0823 15:07:01.202391 25266 layer_factory.hpp:77] Creating layer rpn_conv/3x3
I0823 15:07:01.202406 25266 net.cpp:106] Creating Layer rpn_conv/3x3
I0823 15:07:01.202412 25266 net.cpp:454] rpn_conv/3x3 <- conv5_relu5_0_split_0
I0823 15:07:01.202421 25266 net.cpp:411] rpn_conv/3x3 -> rpn/output
I0823 15:07:01.224371 25266 net.cpp:150] Setting up rpn_conv/3x3
I0823 15:07:01.224390 25266 net.cpp:157] Top shape: 1 256 36 61 (562176)
I0823 15:07:01.224392 25266 net.cpp:165] Memory required for data: 273800148
I0823 15:07:01.224400 25266 layer_factory.hpp:77] Creating layer rpn_relu/3x3
I0823 15:07:01.224407 25266 net.cpp:106] Creating Layer rpn_relu/3x3
I0823 15:07:01.224411 25266 net.cpp:454] rpn_relu/3x3 <- rpn/output
I0823 15:07:01.224416 25266 net.cpp:397] rpn_relu/3x3 -> rpn/output (in-place)
I0823 15:07:01.224957 25266 net.cpp:150] Setting up rpn_relu/3x3
I0823 15:07:01.224972 25266 net.cpp:157] Top shape: 1 256 36 61 (562176)
I0823 15:07:01.224975 25266 net.cpp:165] Memory required for data: 276048852
I0823 15:07:01.224979 25266 layer_factory.hpp:77] Creating layer rpn/output_rpn_relu/3x3_0_split
I0823 15:07:01.224987 25266 net.cpp:106] Creating Layer rpn/output_rpn_relu/3x3_0_split
I0823 15:07:01.224990 25266 net.cpp:454] rpn/output_rpn_relu/3x3_0_split <- rpn/output
I0823 15:07:01.224998 25266 net.cpp:411] rpn/output_rpn_relu/3x3_0_split -> rpn/output_rpn_relu/3x3_0_split_0
I0823 15:07:01.225008 25266 net.cpp:411] rpn/output_rpn_relu/3x3_0_split -> rpn/output_rpn_relu/3x3_0_split_1
I0823 15:07:01.225085 25266 net.cpp:150] Setting up rpn/output_rpn_relu/3x3_0_split
I0823 15:07:01.225095 25266 net.cpp:157] Top shape: 1 256 36 61 (562176)
I0823 15:07:01.225098 25266 net.cpp:157] Top shape: 1 256 36 61 (562176)
I0823 15:07:01.225101 25266 net.cpp:165] Memory required for data: 280546260
I0823 15:07:01.225105 25266 layer_factory.hpp:77] Creating layer rpn_cls_score
I0823 15:07:01.225117 25266 net.cpp:106] Creating Layer rpn_cls_score
I0823 15:07:01.225122 25266 net.cpp:454] rpn_cls_score <- rpn/output_rpn_relu/3x3_0_split_0
I0823 15:07:01.225131 25266 net.cpp:411] rpn_cls_score -> rpn_cls_score
I0823 15:07:01.226995 25266 net.cpp:150] Setting up rpn_cls_score
I0823 15:07:01.227012 25266 net.cpp:157] Top shape: 1 18 36 61 (39528)
I0823 15:07:01.227016 25266 net.cpp:165] Memory required for data: 280704372
I0823 15:07:01.227023 25266 layer_factory.hpp:77] Creating layer rpn_cls_score_rpn_cls_score_0_split
I0823 15:07:01.227030 25266 net.cpp:106] Creating Layer rpn_cls_score_rpn_cls_score_0_split
I0823 15:07:01.227035 25266 net.cpp:454] rpn_cls_score_rpn_cls_score_0_split <- rpn_cls_score
I0823 15:07:01.227041 25266 net.cpp:411] rpn_cls_score_rpn_cls_score_0_split -> rpn_cls_score_rpn_cls_score_0_split_0
I0823 15:07:01.227051 25266 net.cpp:411] rpn_cls_score_rpn_cls_score_0_split -> rpn_cls_score_rpn_cls_score_0_split_1
I0823 15:07:01.227128 25266 net.cpp:150] Setting up rpn_cls_score_rpn_cls_score_0_split
I0823 15:07:01.227136 25266 net.cpp:157] Top shape: 1 18 36 61 (39528)
I0823 15:07:01.227140 25266 net.cpp:157] Top shape: 1 18 36 61 (39528)
I0823 15:07:01.227144 25266 net.cpp:165] Memory required for data: 281020596
I0823 15:07:01.227146 25266 layer_factory.hpp:77] Creating layer rpn_bbox_pred
I0823 15:07:01.227159 25266 net.cpp:106] Creating Layer rpn_bbox_pred
I0823 15:07:01.227164 25266 net.cpp:454] rpn_bbox_pred <- rpn/output_rpn_relu/3x3_0_split_1
I0823 15:07:01.227172 25266 net.cpp:411] rpn_bbox_pred -> rpn_bbox_pred
I0823 15:07:01.229038 25266 net.cpp:150] Setting up rpn_bbox_pred
I0823 15:07:01.229053 25266 net.cpp:157] Top shape: 1 36 36 61 (79056)
I0823 15:07:01.229056 25266 net.cpp:165] Memory required for data: 281336820
I0823 15:07:01.229063 25266 layer_factory.hpp:77] Creating layer rpn_bbox_pred_rpn_bbox_pred_0_split
I0823 15:07:01.229070 25266 net.cpp:106] Creating Layer rpn_bbox_pred_rpn_bbox_pred_0_split
I0823 15:07:01.229074 25266 net.cpp:454] rpn_bbox_pred_rpn_bbox_pred_0_split <- rpn_bbox_pred
I0823 15:07:01.229085 25266 net.cpp:411] rpn_bbox_pred_rpn_bbox_pred_0_split -> rpn_bbox_pred_rpn_bbox_pred_0_split_0
I0823 15:07:01.229099 25266 net.cpp:411] rpn_bbox_pred_rpn_bbox_pred_0_split -> rpn_bbox_pred_rpn_bbox_pred_0_split_1
I0823 15:07:01.229167 25266 net.cpp:150] Setting up rpn_bbox_pred_rpn_bbox_pred_0_split
I0823 15:07:01.229176 25266 net.cpp:157] Top shape: 1 36 36 61 (79056)
I0823 15:07:01.229181 25266 net.cpp:157] Top shape: 1 36 36 61 (79056)
I0823 15:07:01.229183 25266 net.cpp:165] Memory required for data: 281969268
I0823 15:07:01.229187 25266 layer_factory.hpp:77] Creating layer rpn_cls_score_reshape
I0823 15:07:01.229197 25266 net.cpp:106] Creating Layer rpn_cls_score_reshape
I0823 15:07:01.229202 25266 net.cpp:454] rpn_cls_score_reshape <- rpn_cls_score_rpn_cls_score_0_split_0
I0823 15:07:01.229208 25266 net.cpp:411] rpn_cls_score_reshape -> rpn_cls_score_reshape
I0823 15:07:01.229250 25266 net.cpp:150] Setting up rpn_cls_score_reshape
I0823 15:07:01.229260 25266 net.cpp:157] Top shape: 1 2 324 61 (39528)
I0823 15:07:01.229264 25266 net.cpp:165] Memory required for data: 282127380
I0823 15:07:01.229266 25266 layer_factory.hpp:77] Creating layer rpn_cls_score_reshape_rpn_cls_score_reshape_0_split
I0823 15:07:01.229272 25266 net.cpp:106] Creating Layer rpn_cls_score_reshape_rpn_cls_score_reshape_0_split
I0823 15:07:01.229275 25266 net.cpp:454] rpn_cls_score_reshape_rpn_cls_score_reshape_0_split <- rpn_cls_score_reshape
I0823 15:07:01.229281 25266 net.cpp:411] rpn_cls_score_reshape_rpn_cls_score_reshape_0_split -> rpn_cls_score_reshape_rpn_cls_score_reshape_0_split_0
I0823 15:07:01.229290 25266 net.cpp:411] rpn_cls_score_reshape_rpn_cls_score_reshape_0_split -> rpn_cls_score_reshape_rpn_cls_score_reshape_0_split_1
I0823 15:07:01.229352 25266 net.cpp:150] Setting up rpn_cls_score_reshape_rpn_cls_score_reshape_0_split
I0823 15:07:01.229360 25266 net.cpp:157] Top shape: 1 2 324 61 (39528)
I0823 15:07:01.229364 25266 net.cpp:157] Top shape: 1 2 324 61 (39528)
I0823 15:07:01.229367 25266 net.cpp:165] Memory required for data: 282443604
I0823 15:07:01.229370 25266 layer_factory.hpp:77] Creating layer rpn-data
I0823 15:07:01.229953 25266 net.cpp:106] Creating Layer rpn-data
I0823 15:07:01.229967 25266 net.cpp:454] rpn-data <- rpn_cls_score_rpn_cls_score_0_split_1
I0823 15:07:01.229974 25266 net.cpp:454] rpn-data <- gt_boxes_input-data_2_split_0
I0823 15:07:01.229979 25266 net.cpp:454] rpn-data <- im_info_input-data_1_split_0
I0823 15:07:01.229984 25266 net.cpp:454] rpn-data <- data_input-data_0_split_1
I0823 15:07:01.229991 25266 net.cpp:411] rpn-data -> rpn_labels
I0823 15:07:01.230008 25266 net.cpp:411] rpn-data -> rpn_bbox_targets
I0823 15:07:01.230020 25266 net.cpp:411] rpn-data -> rpn_bbox_inside_weights
I0823 15:07:01.230031 25266 net.cpp:411] rpn-data -> rpn_bbox_outside_weights
I0823 15:07:01.232933 25266 net.cpp:150] Setting up rpn-data
I0823 15:07:01.232951 25266 net.cpp:157] Top shape: 1 1 324 61 (19764)
I0823 15:07:01.232956 25266 net.cpp:157] Top shape: 1 36 36 61 (79056)
I0823 15:07:01.232959 25266 net.cpp:157] Top shape: 1 36 36 61 (79056)
I0823 15:07:01.232964 25266 net.cpp:157] Top shape: 1 36 36 61 (79056)
I0823 15:07:01.232966 25266 net.cpp:165] Memory required for data: 283471332
I0823 15:07:01.232969 25266 layer_factory.hpp:77] Creating layer rpn_loss_cls
I0823 15:07:01.232980 25266 net.cpp:106] Creating Layer rpn_loss_cls
I0823 15:07:01.232983 25266 net.cpp:454] rpn_loss_cls <- rpn_cls_score_reshape_rpn_cls_score_reshape_0_split_0
I0823 15:07:01.232988 25266 net.cpp:454] rpn_loss_cls <- rpn_labels
…
I0823 15:07:01.234609 25266 net.cpp:157] Top shape: (1)
I0823 15:07:01.234612 25266 net.cpp:160]     with loss weight 1
I0823 15:07:01.234617 25266 net.cpp:165] Memory required for data: 283471340
I0823 15:07:01.234621 25266 layer_factory.hpp:77] Creating layer rpn_cls_prob
I0823 15:07:01.234627 25266 net.cpp:106] Creating Layer rpn_cls_prob
I0823 15:07:01.234630 25266 net.cpp:454] rpn_cls_prob <- rpn_cls_score_reshape_rpn_cls_score_reshape_0_split_1
I0823 15:07:01.234638 25266 net.cpp:411] rpn_cls_prob -> rpn_cls_prob
I0823 15:07:01.234974 25266 net.cpp:150] Setting up rpn_cls_prob
I0823 15:07:01.234987 25266 net.cpp:157] Top shape: 1 2 324 61 (39528)
I0823 15:07:01.234990 25266 net.cpp:165] Memory required for data: 283629452
I0823 15:07:01.234994 25266 layer_factory.hpp:77] Creating layer rpn_cls_prob_reshape
I0823 15:07:01.235011 25266 net.cpp:106] Creating Layer rpn_cls_prob_reshape
I0823 15:07:01.235016 25266 net.cpp:454] rpn_cls_prob_reshape <- rpn_cls_prob
I0823 15:07:01.235023 25266 net.cpp:411] rpn_cls_prob_reshape -> rpn_cls_prob_reshape
I0823 15:07:01.235069 25266 net.cpp:150] Setting up rpn_cls_prob_reshape
I0823 15:07:01.235077 25266 net.cpp:157] Top shape: 1 18 36 61 (39528)
I0823 15:07:01.235080 25266 net.cpp:165] Memory required for data: 283787564
I0823 15:07:01.235083 25266 layer_factory.hpp:77] Creating layer proposal
I0823 15:07:01.245612 25266 net.cpp:106] Creating Layer proposal
I0823 15:07:01.245628 25266 net.cpp:454] proposal <- rpn_cls_prob_reshape
I0823 15:07:01.245635 25266 net.cpp:454] proposal <- rpn_bbox_pred_rpn_bbox_pred_0_split_1
I0823 15:07:01.245640 25266 net.cpp:454] proposal <- im_info_input-data_1_split_1
I0823 15:07:01.245652 25266 net.cpp:411] proposal -> rpn_rois
I0823 15:07:01.251191 25266 net.cpp:150] Setting up proposal
I0823 15:07:01.251209 25266 net.cpp:157] Top shape: 1 5 (5)
I0823 15:07:01.251212 25266 net.cpp:165] Memory required for data: 283787584
I0823 15:07:01.251216 25266 layer_factory.hpp:77] Creating layer roi-data
I0823 15:07:01.253106 25266 net.cpp:106] Creating Layer roi-data
I0823 15:07:01.253121 25266 net.cpp:454] roi-data <- rpn_rois
I0823 15:07:01.253128 25266 net.cpp:454] roi-data <- gt_boxes_input-data_2_split_1
I0823 15:07:01.253135 25266 net.cpp:411] roi-data -> rois
I0823 15:07:01.253144 25266 net.cpp:411] roi-data -> labels
I0823 15:07:01.253152 25266 net.cpp:411] roi-data -> bbox_targets
I0823 15:07:01.253160 25266 net.cpp:411] roi-data -> bbox_inside_weights
I0823 15:07:01.253168 25266 net.cpp:411] roi-data -> bbox_outside_weights
I0823 15:07:01.253677 25266 net.cpp:150] Setting up roi-data
I0823 15:07:01.253692 25266 net.cpp:157] Top shape: 1 5 (5)
I0823 15:07:01.253697 25266 net.cpp:157] Top shape: 1 1 (1)
I0823 15:07:01.253700 25266 net.cpp:157] Top shape: 1 84 (84)
I0823 15:07:01.253703 25266 net.cpp:157] Top shape: 1 84 (84)
I0823 15:07:01.253707 25266 net.cpp:157] Top shape: 1 84 (84)
I0823 15:07:01.253710 25266 net.cpp:165] Memory required for data: 283788616
I0823 15:07:01.253713 25266 layer_factory.hpp:77] Creating layer roi_pool5
I0823 15:07:01.253721 25266 net.cpp:106] Creating Layer roi_pool5
I0823 15:07:01.253726 25266 net.cpp:454] roi_pool5 <- conv5_relu5_0_split_1
I0823 15:07:01.253731 25266 net.cpp:454] roi_pool5 <- rois
I0823 15:07:01.253736 25266 net.cpp:411] roi_pool5 -> pool5
I0823 15:07:01.253744 25266 roi_pooling_layer.cpp:30] Spatial scale: 0.0625
I0823 15:07:01.253813 25266 net.cpp:150] Setting up roi_pool5
I0823 15:07:01.253821 25266 net.cpp:157] Top shape: 1 512 6 6 (18432)
I0823 15:07:01.253824 25266 net.cpp:165] Memory required for data: 283862344
I0823 15:07:01.253829 25266 layer_factory.hpp:77] Creating layer fc6
I0823 15:07:01.253835 25266 net.cpp:106] Creating Layer fc6
I0823 15:07:01.253839 25266 net.cpp:454] fc6 <- pool5
I0823 15:07:01.253844 25266 net.cpp:411] fc6 -> fc6
I0823 15:07:01.678671 25266 net.cpp:150] Setting up fc6
I0823 15:07:01.678725 25266 net.cpp:157] Top shape: 1 4096 (4096)
I0823 15:07:01.678730 25266 net.cpp:165] Memory required for data: 283878728
I0823 15:07:01.678746 25266 layer_factory.hpp:77] Creating layer relu6
I0823 15:07:01.678757 25266 net.cpp:106] Creating Layer relu6
I0823 15:07:01.678762 25266 net.cpp:454] relu6 <- fc6
I0823 15:07:01.678781 25266 net.cpp:397] relu6 -> fc6 (in-place)
I0823 15:07:01.679569 25266 net.cpp:150] Setting up relu6
I0823 15:07:01.679584 25266 net.cpp:157] Top shape: 1 4096 (4096)
I0823 15:07:01.679586 25266 net.cpp:165] Memory required for data: 283895112
I0823 15:07:01.679589 25266 layer_factory.hpp:77] Creating layer drop6
I0823 15:07:01.679599 25266 net.cpp:106] Creating Layer drop6
I0823 15:07:01.679601 25266 net.cpp:454] drop6 <- fc6
I0823 15:07:01.679608 25266 net.cpp:397] drop6 -> fc6 (in-place)
I0823 15:07:01.679654 25266 net.cpp:150] Setting up drop6
I0823 15:07:01.679662 25266 net.cpp:157] Top shape: 1 4096 (4096)
I0823 15:07:01.679664 25266 net.cpp:165] Memory required for data: 283911496
I0823 15:07:01.679667 25266 layer_factory.hpp:77] Creating layer fc7
I0823 15:07:01.679675 25266 net.cpp:106] Creating Layer fc7
I0823 15:07:01.679679 25266 net.cpp:454] fc7 <- fc6
I0823 15:07:01.679684 25266 net.cpp:411] fc7 -> fc7
I0823 15:07:01.701644 25266 net.cpp:150] Setting up fc7
I0823 15:07:01.701661 25266 net.cpp:157] Top shape: 1 1024 (1024)
I0823 15:07:01.701675 25266 net.cpp:165] Memory required for data: 283915592
I0823 15:07:01.701683 25266 layer_factory.hpp:77] Creating layer relu7
I0823 15:07:01.701690 25266 net.cpp:106] Creating Layer relu7
I0823 15:07:01.701694 25266 net.cpp:454] relu7 <- fc7
I0823 15:07:01.701699 25266 net.cpp:397] relu7 -> fc7 (in-place)
I0823 15:07:01.701943 25266 net.cpp:150] Setting up relu7
I0823 15:07:01.701953 25266 net.cpp:157] Top shape: 1 1024 (1024)
I0823 15:07:01.701956 25266 net.cpp:165] Memory required for data: 283919688
I0823 15:07:01.701959 25266 layer_factory.hpp:77] Creating layer drop7
I0823 15:07:01.701967 25266 net.cpp:106] Creating Layer drop7
I0823 15:07:01.701969 25266 net.cpp:454] drop7 <- fc7
I0823 15:07:01.701975 25266 net.cpp:397] drop7 -> fc7 (in-place)
I0823 15:07:01.702019 25266 net.cpp:150] Setting up drop7
I0823 15:07:01.702028 25266 net.cpp:157] Top shape: 1 1024 (1024)
I0823 15:07:01.702029 25266 net.cpp:165] Memory required for data: 283923784
I0823 15:07:01.702033 25266 layer_factory.hpp:77] Creating layer fc7_drop7_0_split
I0823 15:07:01.702039 25266 net.cpp:106] Creating Layer fc7_drop7_0_split
I0823 15:07:01.702041 25266 net.cpp:454] fc7_drop7_0_split <- fc7
I0823 15:07:01.702047 25266 net.cpp:411] fc7_drop7_0_split -> fc7_drop7_0_split_0
I0823 15:07:01.702055 25266 net.cpp:411] fc7_drop7_0_split -> fc7_drop7_0_split_1
I0823 15:07:01.702123 25266 net.cpp:150] Setting up fc7_drop7_0_split
I0823 15:07:01.702131 25266 net.cpp:157] Top shape: 1 1024 (1024)
I0823 15:07:01.702133 25266 net.cpp:157] Top shape: 1 1024 (1024)
I0823 15:07:01.702136 25266 net.cpp:165] Memory required for data: 283931976
I0823 15:07:01.702138 25266 layer_factory.hpp:77] Creating layer cls_score
I0823 15:07:01.702147 25266 net.cpp:106] Creating Layer cls_score
I0823 15:07:01.702150 25266 net.cpp:454] cls_score <- fc7_drop7_0_split_0
I0823 15:07:01.702157 25266 net.cpp:411] cls_score -> cls_score
I0823 15:07:01.702597 25266 net.cpp:150] Setting up cls_score
I0823 15:07:01.702605 25266 net.cpp:157] Top shape: 1 21 (21)
I0823 15:07:01.702608 25266 net.cpp:165] Memory required for data: 283932060
I0823 15:07:01.702615 25266 layer_factory.hpp:77] Creating layer bbox_pred
I0823 15:07:01.702621 25266 net.cpp:106] Creating Layer bbox_pred
I0823 15:07:01.702625 25266 net.cpp:454] bbox_pred <- fc7_drop7_0_split_1
I0823 15:07:01.702630 25266 net.cpp:411] bbox_pred -> bbox_pred
I0823 15:07:01.705807 25266 net.cpp:150] Setting up bbox_pred
I0823 15:07:01.705821 25266 net.cpp:157] Top shape: 1 84 (84)
I0823 15:07:01.705835 25266 net.cpp:165] Memory required for data: 283932396
I0823 15:07:01.705842 25266 layer_factory.hpp:77] Creating layer loss_cls
I0823 15:07:01.705849 25266 net.cpp:106] Creating Layer loss_cls
I0823 15:07:01.705852 25266 net.cpp:454] loss_cls <- cls_score
I0823 15:07:01.705858 25266 net.cpp:454] loss_cls <- labels
I0823 15:07:01.705864 25266 net.cpp:411] loss_cls -> loss_cls
…
           'RPN_POST_NMS_TOP_N': 2000,
           'RPN_PRE_NMS_TOP_N': 12000,
           'SCALES': [600],
           'SNAPSHOT_INFIX': '',
           'SNAPSHOT_ITERS': 10000,
           'USE_FLIPPED': True,
           'USE_PREFETCH': False},
 'USE_GPU_NMS': True}
WARNING: Logging before InitGoogleLogging() is written to STDERR
I0823 16:51:24.549564  4933 net.cpp:49] Initializing net from parameters: 
name: "VGG_CNN_M_1024"
input: "data"
input: "im_info"
state {
  phase: TEST
}
input_shape {
  dim: 1
  dim: 3
  dim: 224
  dim: 224
}
input_shape {
  dim: 1
  dim: 3
}
layer {
  name: "conv1"
  type: "Convolution"
  bottom: "data"
  top: "conv1"
  param {
    lr_mult: 0
    decay_mult: 0
  }
  param {
    lr_mult: 0
    decay_mult: 0
  }
  convolution_param {
    num_output: 96
    kernel_size: 7
    stride: 2
  }
}
layer {
  name: "relu1"
  type: "ReLU"
  bottom: "conv1"
  top: "conv1"
}
layer {
  name: "norm1"
  type: "LRN"
  bottom: "conv1"
  top: "norm1"
  lrn_param {
    local_size: 5
    alpha: 0.0005
    beta: 0.75
    k: 2
  }
}
layer {
  name: "pool1"
  type: "Pooling"
  bottom: "norm1"
  top: "pool1"
  pooling_param {
    pool: MAX
    kernel_size: 3
    stride: 2
  }
}
layer {
  name: "conv2"
  type: "Convolution"
  bottom: "pool1"
  top: "conv2"
  param {
    lr_mult: 1
    decay_mult: 1
  }
  param {
    lr_mult: 2
    decay_mult: 0
  }
  convolution_param {
    num_output: 256
    pad: 1
    kernel_size: 5
    stride: 2
  }
}
layer {
  name: "relu2"
  type: "ReLU"
  bottom: "conv2"
  top: "conv2"
}
layer {
  name: "norm2"
  type: "LRN"
  bottom: "conv2"
  top: "norm2"
  lrn_param {
    local_size: 5
    alpha: 0.0005
    beta: 0.75
    k: 2
  }
}
layer {
  name: "pool2"
  type: "Pooling"
  bottom: "norm2"
  top: "pool2"
  pooling_param {
    pool: MAX
    kernel_size: 3
    stride: 2
  }
}
layer {
  name: "conv3"
  type: "Convolution"
  bottom: "pool2"
  top: "conv3"
  param {
    lr_mult: 1
    decay_mult: 1
  }
  param {
    lr_mult: 2
    decay_mult: 0
  }
  convolution_param {
    num_output: 512
    pad: 1
    kernel_size: 3
  }
}
layer {
  name: "relu3"
  type: "ReLU"
  bottom: "conv3"
  top: "conv3"
}
layer {
  name: "conv4"
  type: "Convolution"
  bottom: "conv3"
  top: "conv4"
  param {
    lr_mult: 1
    decay_mult: 1
  }
  param {
    lr_mult: 2
    decay_mult: 0
  }
  convolution_param {
    num_output: 512
    pad: 1
    kernel_size: 3
  }
}
layer {
  name: "relu4"
  type: "ReLU"
  bottom: "conv4"
  top: "conv4"
}
layer {
  name: "conv5"
  type: "Convolution"
  bottom: "conv4"
  top: "conv5"
  param {
    lr_mult: 1
    decay_mult: 1
  }
  param {
    lr_mult: 2
    decay_mult: 0
  }
  convolution_param {
    num_output: 512
    pad: 1
    kernel_size: 3
  }
}
layer {
  name: "relu5"
  type: "ReLU"
  bottom: "conv5"
  top: "conv5"
}
layer {
  name: "rpn_conv/3x3"
  type: "Convolution"
  bottom: "conv5"
  top: "rpn/output"
  param {
    lr_mult: 1
    decay_mult: 1
  }
  param {
    lr_mult: 2
    decay_mult: 0
  }
  convolution_param {
    num_output: 256
    pad: 1
    kernel_size: 3
    stride: 1
    weight_filler {
      type: "gaussian"
      std: 0.01
    }
    bias_filler {
      type: "constant"
      value: 0
    }
  }
}
layer {
  name: "rpn_relu/3x3"
  type: "ReLU"
  bottom: "rpn/output"
  top: "rpn/output"
}
layer {
  name: "rpn_cls_score"
  type: "Convolution"
  bottom: "rpn/output"
  top: "rpn_cls_score"
  param {
    lr_mult: 1
    decay_mult: 1
  }
  param {
    lr_mult: 2
    decay_mult: 0
  }
  convolution_param {
    num_output: 18
    pad: 0
    kernel_size: 1
    stride: 1
    weight_filler {
      type: "gaussian"
      std: 0.01
    }
    bias_filler {
      type: "constant"
      value: 0
    }
  }
}
layer {
  name: "rpn_bbox_pred"
  type: "Convolution"
  bottom: "rpn/output"
  top: "rpn_bbox_pred"
  param {
    lr_mult: 1
    decay_mult: 1
  }
  param {
    lr_mult: 2
    decay_mult: 0
  }
  convolution_param {
    num_output: 36
    pad: 0
    kernel_size: 1
    stride: 1
    weight_filler {
      type: "gaussian"
      std: 0.01
    }
    bias_filler {
      type: "constant"
      value: 0
    }
  }
}
layer {
  name: "rpn_cls_score_reshape"
  type: "Reshape"
  bottom: "rpn_cls_score"
  top: "rpn_cls_score_reshape"
  reshape_param {
    shape {
      dim: 0
      dim: 2
      dim: -1
      dim: 0
    }
  }
}
layer {
  name: "rpn_cls_prob"
  type: "Softmax"
  bottom: "rpn_cls_score_reshape"
  top: "rpn_cls_prob"
}
layer {
  name: "rpn_cls_prob_reshape"
  type: "Reshape"
  bottom: "rpn_cls_prob"
  top: "rpn_cls_prob_reshape"
  reshape_param {
    shape {
      dim: 0
      dim: 18
      dim: -1
      dim: 0
    }
  }
}
layer {
  name: "proposal"
  type: "Python"
  bottom: "rpn_cls_prob_reshape"
  bottom: "rpn_bbox_pred"
  bottom: "im_info"
  top: "rois"
  python_param {
    module: "rpn.proposal_layer"
    layer: "ProposalLayer"
    param_str: "\'feat_stride\': 16"
  }
}
layer {
  name: "roi_pool5"
  type: "ROIPooling"
  bottom: "conv5"
  bottom: "rois"
  top: "pool5"
  roi_pooling_param {
    pooled_h: 6
    pooled_w: 6
    spatial_scale: 0.0625
  }
}
layer {
  name: "fc6"
  type: "InnerProduct"
  bottom: "pool5"
  top: "fc6"
  param {
    lr_mult: 1
    decay_mult: 1
  }
  param {
    lr_mult: 2
    decay_mult: 0
  }
  inner_product_param {
    num_output: 4096
  }
}
layer {
  name: "relu6"
  type: "ReLU"
  bottom: "fc6"
  top: "fc6"
}
layer {
  name: "drop6"
  type: "Dropout"
  bottom: "fc6"
  top: "fc6"
  dropout_param {
    dropout_ratio: 0.5
  }
}
layer {
  name: "fc7"
  type: "InnerProduct"
  bottom: "fc6"
  top: "fc7"
  param {
    lr_mult: 1
    decay_mult: 1
  }
  param {
    lr_mult: 2
    decay_mult: 0
  }
  inner_product_param {
    num_output: 1024
  }
}
layer {
  name: "relu7"
  type: "ReLU"
  bottom: "fc7"
  top: "fc7"
}
layer {
  name: "drop7"
  type: "Dropout"
  bottom: "fc7"
  top: "fc7"
  dropout_param {
    dropout_ratio: 0.5
  }
}
layer {
  name: "cls_score"
  type: "InnerProduct"
  bottom: "fc7"
  top: "cls_score"
  param {
    lr_mult: 1
    decay_mult: 1
  }
  param {
    lr_mult: 2
    decay_mult: 0
  }
  inner_product_param {
    num_output: 21
    weight_filler {
      type: "gaussian"
      std: 0.01
    }
    bias_filler {
      type: "constant"
      value: 0
    }
  }
}
layer {
  name: "bbox_pred"
  type: "InnerProduct"
  bottom: "fc7"
  top: "bbox_pred"
  param {
    lr_mult: 1
    decay_mult: 1
  }
  param {
    lr_mult: 2
    decay_mult: 0
  }
  inner_product_param {
    num_output: 84
    weight_filler {
      type: "gaussian"
      std: 0.001
    }
    bias_filler {
      type: "constant"
      value: 0
    }
  }
}
layer {
  name: "cls_prob"
  type: "Softmax"
  bottom: "cls_score"
  top: "cls_prob"
}
I0823 16:51:24.549793  4933 net.cpp:413] Input 0 -> data
I0823 16:51:24.571933  4933 net.cpp:413] Input 1 -> im_info
I0823 16:51:24.572011  4933 layer_factory.hpp:77] Creating layer conv1
I0823 16:51:24.572036  4933 net.cpp:106] Creating Layer conv1
I0823 16:51:24.572042  4933 net.cpp:454] conv1 <- data
I0823 16:51:24.572053  4933 net.cpp:411] conv1 -> conv1
I0823 16:51:24.870592  4933 net.cpp:150] Setting up conv1
I0823 16:51:24.870643  4933 net.cpp:157] Top shape: 1 96 109 109 (1140576)
I0823 16:51:24.870648  4933 net.cpp:165] Memory required for data: 4562304
I0823 16:51:24.870672  4933 layer_factory.hpp:77] Creating layer relu1
I0823 16:51:24.870692  4933 net.cpp:106] Creating Layer relu1
I0823 16:51:24.870697  4933 net.cpp:454] relu1 <- conv1
I0823 16:51:24.870704  4933 net.cpp:397] relu1 -> conv1 (in-place)
I0823 16:51:24.871279  4933 net.cpp:150] Setting up relu1
I0823 16:51:24.871294  4933 net.cpp:157] Top shape: 1 96 109 109 (1140576)
I0823 16:51:24.871296  4933 net.cpp:165] Memory required for data: 9124608
I0823 16:51:24.871301  4933 layer_factory.hpp:77] Creating layer norm1
I0823 16:51:24.871314  4933 net.cpp:106] Creating Layer norm1
I0823 16:51:24.871316  4933 net.cpp:454] norm1 <- conv1
I0823 16:51:24.871323  4933 net.cpp:411] norm1 -> norm1
I0823 16:51:24.871583  4933 net.cpp:150] Setting up norm1
I0823 16:51:24.871595  4933 net.cpp:157] Top shape: 1 96 109 109 (1140576)
I0823 16:51:24.871598  4933 net.cpp:165] Memory required for data: 13686912
I0823 16:51:24.871601  4933 layer_factory.hpp:77] Creating layer pool1
I0823 16:51:24.871610  4933 net.cpp:106] Creating Layer pool1
I0823 16:51:24.871613  4933 net.cpp:454] pool1 <- norm1
I0823 16:51:24.871619  4933 net.cpp:411] pool1 -> pool1
I0823 16:51:24.871686  4933 net.cpp:150] Setting up pool1
I0823 16:51:24.871693  4933 net.cpp:157] Top shape: 1 96 54 54 (279936)
I0823 16:51:24.871696  4933 net.cpp:165] Memory required for data: 14806656
I0823 16:51:24.871700  4933 layer_factory.hpp:77] Creating layer conv2
I0823 16:51:24.871711  4933 net.cpp:106] Creating Layer conv2
I0823 16:51:24.871716  4933 net.cpp:454] conv2 <- pool1
I0823 16:51:24.871721  4933 net.cpp:411] conv2 -> conv2
I0823 16:51:24.880136  4933 net.cpp:150] Setting up conv2
I0823 16:51:24.880151  4933 net.cpp:157] Top shape: 1 256 26 26 (173056)
I0823 16:51:24.880154  4933 net.cpp:165] Memory required for data: 15498880
I0823 16:51:24.880167  4933 layer_factory.hpp:77] Creating layer relu2
I0823 16:51:24.880174  4933 net.cpp:106] Creating Layer relu2
I0823 16:51:24.880177  4933 net.cpp:454] relu2 <- conv2
I0823 16:51:24.880183  4933 net.cpp:397] relu2 -> conv2 (in-place)
I0823 16:51:24.880725  4933 net.cpp:150] Setting up relu2
I0823 16:51:24.880738  4933 net.cpp:157] Top shape: 1 256 26 26 (173056)
I0823 16:51:24.880743  4933 net.cpp:165] Memory required for data: 16191104
I0823 16:51:24.880746  4933 layer_factory.hpp:77] Creating layer norm2
I0823 16:51:24.880754  4933 net.cpp:106] Creating Layer norm2
I0823 16:51:24.880758  4933 net.cpp:454] norm2 <- conv2
I0823 16:51:24.880764  4933 net.cpp:411] norm2 -> norm2
I0823 16:51:24.881031  4933 net.cpp:150] Setting up norm2
I0823 16:51:24.881042  4933 net.cpp:157] Top shape: 1 256 26 26 (173056)
I0823 16:51:24.881045  4933 net.cpp:165] Memory required for data: 16883328
I0823 16:51:24.881048  4933 layer_factory.hpp:77] Creating layer pool2
I0823 16:51:24.881055  4933 net.cpp:106] Creating Layer pool2
I0823 16:51:24.881059  4933 net.cpp:454] pool2 <- norm2
I0823 16:51:24.881064  4933 net.cpp:411] pool2 -> pool2
I0823 16:51:24.881129  4933 net.cpp:150] Setting up pool2
I0823 16:51:24.881135  4933 net.cpp:157] Top shape: 1 256 13 13 (43264)
I0823 16:51:24.881139  4933 net.cpp:165] Memory required for data: 17056384
I0823 16:51:24.881141  4933 layer_factory.hpp:77] Creating layer conv3
I0823 16:51:24.881151  4933 net.cpp:106] Creating Layer conv3
I0823 16:51:24.881155  4933 net.cpp:454] conv3 <- pool2
I0823 16:51:24.881161  4933 net.cpp:411] conv3 -> conv3
I0823 16:51:24.890801  4933 net.cpp:150] Setting up conv3
I0823 16:51:24.890817  4933 net.cpp:157] Top shape: 1 512 13 13 (86528)
I0823 16:51:24.890820  4933 net.cpp:165] Memory required for data: 17402496
I0823 16:51:24.890832  4933 layer_factory.hpp:77] Creating layer relu3
I0823 16:51:24.890841  4933 net.cpp:106] Creating Layer relu3
I0823 16:51:24.890844  4933 net.cpp:454] relu3 <- conv3
I0823 16:51:24.890851  4933 net.cpp:397] relu3 -> conv3 (in-place)
I0823 16:51:24.891072  4933 net.cpp:150] Setting up relu3
I0823 16:51:24.891084  4933 net.cpp:157] Top shape: 1 512 13 13 (86528)
I0823 16:51:24.891088  4933 net.cpp:165] Memory required for data: 17748608
I0823 16:51:24.891091  4933 layer_factory.hpp:77] Creating layer conv4
I0823 16:51:24.891100  4933 net.cpp:106] Creating Layer conv4
I0823 16:51:24.891104  4933 net.cpp:454] conv4 <- conv3
I0823 16:51:24.891110  4933 net.cpp:411] conv4 -> conv4
I0823 16:51:24.909890  4933 net.cpp:150] Setting up conv4
I0823 16:51:24.909927  4933 net.cpp:157] Top shape: 1 512 13 13 (86528)
I0823 16:51:24.909931  4933 net.cpp:165] Memory required for data: 18094720
I0823 16:51:24.909945  4933 layer_factory.hpp:77] Creating layer relu4
I0823 16:51:24.909960  4933 net.cpp:106] Creating Layer relu4
I0823 16:51:24.909965  4933 net.cpp:454] relu4 <- conv4
I0823 16:51:24.909975  4933 net.cpp:397] relu4 -> conv4 (in-place)
I0823 16:51:24.910529  4933 net.cpp:150] Setting up relu4
I0823 16:51:24.910543  4933 net.cpp:157] Top shape: 1 512 13 13 (86528)
I0823 16:51:24.910547  4933 net.cpp:165] Memory required for data: 18440832
I0823 16:51:24.910550  4933 layer_factory.hpp:77] Creating layer conv5
I0823 16:51:24.910564  4933 net.cpp:106] Creating Layer conv5
I0823 16:51:24.910567  4933 net.cpp:454] conv5 <- conv4
I0823 16:51:24.910575  4933 net.cpp:411] conv5 -> conv5
I0823 16:51:24.927757  4933 net.cpp:150] Setting up conv5
I0823 16:51:24.927775  4933 net.cpp:157] Top shape: 1 512 13 13 (86528)
I0823 16:51:24.927778  4933 net.cpp:165] Memory required for data: 18786944
I0823 16:51:24.927794  4933 layer_factory.hpp:77] Creating layer relu5
I0823 16:51:24.927803  4933 net.cpp:106] Creating Layer relu5
I0823 16:51:24.927808  4933 net.cpp:454] relu5 <- conv5
I0823 16:51:24.927814  4933 net.cpp:397] relu5 -> conv5 (in-place)
I0823 16:51:24.928035  4933 net.cpp:150] Setting up relu5
I0823 16:51:24.928046  4933 net.cpp:157] Top shape: 1 512 13 13 (86528)
I0823 16:51:24.928050  4933 net.cpp:165] Memory required for data: 19133056
I0823 16:51:24.928053  4933 layer_factory.hpp:77] Creating layer conv5_relu5_0_split
I0823 16:51:24.928062  4933 net.cpp:106] Creating Layer conv5_relu5_0_split
I0823 16:51:24.928066  4933 net.cpp:454] conv5_relu5_0_split <- conv5
I0823 16:51:24.928072  4933 net.cpp:411] conv5_relu5_0_split -> conv5_relu5_0_split_0
I0823 16:51:24.928081  4933 net.cpp:411] conv5_relu5_0_split -> conv5_relu5_0_split_1
I0823 16:51:24.928158  4933 net.cpp:150] Setting up conv5_relu5_0_split
I0823 16:51:24.928166  4933 net.cpp:157] Top shape: 1 512 13 13 (86528)
I0823 16:51:24.928170  4933 net.cpp:157] Top shape: 1 512 13 13 (86528)
I0823 16:51:24.928174  4933 net.cpp:165] Memory required for data: 19825280
I0823 16:51:24.928177  4933 layer_factory.hpp:77] Creating layer rpn_conv/3x3
I0823 16:51:24.928191  4933 net.cpp:106] Creating Layer rpn_conv/3x3
I0823 16:51:24.928194  4933 net.cpp:454] rpn_conv/3x3 <- conv5_relu5_0_split_0
I0823 16:51:24.928202  4933 net.cpp:411] rpn_conv/3x3 -> rpn/output
I0823 16:51:24.964607  4933 net.cpp:150] Setting up rpn_conv/3x3
I0823 16:51:24.964643  4933 net.cpp:157] Top shape: 1 256 13 13 (43264)
I0823 16:51:24.964655  4933 net.cpp:165] Memory required for data: 19998336
I0823 16:51:24.964670  4933 layer_factory.hpp:77] Creating layer rpn_relu/3x3
I0823 16:51:24.964694  4933 net.cpp:106] Creating Layer rpn_relu/3x3
I0823 16:51:24.964700  4933 net.cpp:454] rpn_relu/3x3 <- rpn/output
I0823 16:51:24.964711  4933 net.cpp:397] rpn_relu/3x3 -> rpn/output (in-place)
I0823 16:51:24.965457  4933 net.cpp:150] Setting up rpn_relu/3x3
I0823 16:51:24.965476  4933 net.cpp:157] Top shape: 1 256 13 13 (43264)
I0823 16:51:24.965482  4933 net.cpp:165] Memory required for data: 20171392
I0823 16:51:24.965488  4933 layer_factory.hpp:77] Creating layer rpn/output_rpn_relu/3x3_0_split
I0823 16:51:24.965500  4933 net.cpp:106] Creating Layer rpn/output_rpn_relu/3x3_0_split
I0823 16:51:24.965507  4933 net.cpp:454] rpn/output_rpn_relu/3x3_0_split <- rpn/output
I0823 16:51:24.965518  4933 net.cpp:411] rpn/output_rpn_relu/3x3_0_split -> rpn/output_rpn_relu/3x3_0_split_0
I0823 16:51:24.965534  4933 net.cpp:411] rpn/output_rpn_relu/3x3_0_split -> rpn/output_rpn_relu/3x3_0_split_1
I0823 16:51:24.965662  4933 net.cpp:150] Setting up rpn/output_rpn_relu/3x3_0_split
I0823 16:51:24.965673  4933 net.cpp:157] Top shape: 1 256 13 13 (43264)
I0823 16:51:24.965680  4933 net.cpp:157] Top shape: 1 256 13 13 (43264)
I0823 16:51:24.965685  4933 net.cpp:165] Memory required for data: 20517504
I0823 16:51:24.965690  4933 layer_factory.hpp:77] Creating layer rpn_cls_score
I0823 16:51:24.965711  4933 net.cpp:106] Creating Layer rpn_cls_score
I0823 16:51:24.965718  4933 net.cpp:454] rpn_cls_score <- rpn/output_rpn_relu/3x3_0_split_0
I0823 16:51:24.965730  4933 net.cpp:411] rpn_cls_score -> rpn_cls_score
I0823 16:51:24.968857  4933 net.cpp:150] Setting up rpn_cls_score
I0823 16:51:24.968878  4933 net.cpp:157] Top shape: 1 18 13 13 (3042)
I0823 16:51:24.968884  4933 net.cpp:165] Memory required for data: 20529672
I0823 16:51:24.968897  4933 layer_factory.hpp:77] Creating layer rpn_bbox_pred
I0823 16:51:24.968917  4933 net.cpp:106] Creating Layer rpn_bbox_pred
I0823 16:51:24.968924  4933 net.cpp:454] rpn_bbox_pred <- rpn/output_rpn_relu/3x3_0_split_1
I0823 16:51:24.968936  4933 net.cpp:411] rpn_bbox_pred -> rpn_bbox_pred
I0823 16:51:24.971699  4933 net.cpp:150] Setting up rpn_bbox_pred
I0823 16:51:24.971719  4933 net.cpp:157] Top shape: 1 36 13 13 (6084)
I0823 16:51:24.971724  4933 net.cpp:165] Memory required for data: 20554008
I0823 16:51:24.971735  4933 layer_factory.hpp:77] Creating layer rpn_cls_score_reshape
I0823 16:51:24.971751  4933 net.cpp:106] Creating Layer rpn_cls_score_reshape
I0823 16:51:24.971757  4933 net.cpp:454] rpn_cls_score_reshape <- rpn_cls_score
I0823 16:51:24.971767  4933 net.cpp:411] rpn_cls_score_reshape -> rpn_cls_score_reshape
I0823 16:51:24.971842  4933 net.cpp:150] Setting up rpn_cls_score_reshape
I0823 16:51:24.971851  4933 net.cpp:157] Top shape: 1 2 117 13 (3042)
I0823 16:51:24.971856  4933 net.cpp:165] Memory required for data: 20566176
I0823 16:51:24.971860  4933 layer_factory.hpp:77] Creating layer rpn_cls_prob
I0823 16:51:24.971870  4933 net.cpp:106] Creating Layer rpn_cls_prob
I0823 16:51:24.971875  4933 net.cpp:454] rpn_cls_prob <- rpn_cls_score_reshape
I0823 16:51:24.971884  4933 net.cpp:411] rpn_cls_prob -> rpn_cls_prob
I0823 16:51:24.972774  4933 net.cpp:150] Setting up rpn_cls_prob
I0823 16:51:24.972790  4933 net.cpp:157] Top shape: 1 2 117 13 (3042)
I0823 16:51:24.972795  4933 net.cpp:165] Memory required for data: 20578344
I0823 16:51:24.972801  4933 layer_factory.hpp:77] Creating layer rpn_cls_prob_reshape
I0823 16:51:24.972812  4933 net.cpp:106] Creating Layer rpn_cls_prob_reshape
I0823 16:51:24.972818  4933 net.cpp:454] rpn_cls_prob_reshape <- rpn_cls_prob
I0823 16:51:24.972831  4933 net.cpp:411] rpn_cls_prob_reshape -> rpn_cls_prob_reshape
I0823 16:51:24.972894  4933 net.cpp:150] Setting up rpn_cls_prob_reshape
I0823 16:51:24.972904  4933 net.cpp:157] Top shape: 1 18 13 13 (3042)
I0823 16:51:24.972909  4933 net.cpp:165] Memory required for data: 20590512
I0823 16:51:24.972913  4933 layer_factory.hpp:77] Creating layer proposal
I0823 16:51:24.973562  4933 net.cpp:106] Creating Layer proposal
I0823 16:51:24.973575  4933 net.cpp:454] proposal <- rpn_cls_prob_reshape
I0823 16:51:24.973584  4933 net.cpp:454] proposal <- rpn_bbox_pred
I0823 16:51:24.973592  4933 net.cpp:454] proposal <- im_info
I0823 16:51:24.973600  4933 net.cpp:411] proposal -> rois
I0823 16:51:24.974766  4933 net.cpp:150] Setting up proposal
I0823 16:51:24.974786  4933 net.cpp:157] Top shape: 1 5 (5)
I0823 16:51:24.974789  4933 net.cpp:165] Memory required for data: 20590532
I0823 16:51:24.974795  4933 layer_factory.hpp:77] Creating layer roi_pool5
I0823 16:51:24.974807  4933 net.cpp:106] Creating Layer roi_pool5
I0823 16:51:24.974812  4933 net.cpp:454] roi_pool5 <- conv5_relu5_0_split_1
I0823 16:51:24.974820  4933 net.cpp:454] roi_pool5 <- rois
I0823 16:51:24.974828  4933 net.cpp:411] roi_pool5 -> pool5
I0823 16:51:24.974843  4933 roi_pooling_layer.cpp:30] Spatial scale: 0.0625
I0823 16:51:24.974982  4933 net.cpp:150] Setting up roi_pool5
I0823 16:51:24.974993  4933 net.cpp:157] Top shape: 1 512 6 6 (18432)
I0823 16:51:24.974998  4933 net.cpp:165] Memory required for data: 20664260
I0823 16:51:24.975003  4933 layer_factory.hpp:77] Creating layer fc6
I0823 16:51:24.975014  4933 net.cpp:106] Creating Layer fc6
I0823 16:51:24.975020  4933 net.cpp:454] fc6 <- pool5
I0823 16:51:24.975029  4933 net.cpp:411] fc6 -> fc6
I0823 16:51:25.416671  4933 net.cpp:150] Setting up fc6
I0823 16:51:25.416718  4933 net.cpp:157] Top shape: 1 4096 (4096)
I0823 16:51:25.416720  4933 net.cpp:165] Memory required for data: 20680644
I0823 16:51:25.416739  4933 layer_factory.hpp:77] Creating layer relu6
I0823 16:51:25.416752  4933 net.cpp:106] Creating Layer relu6
I0823 16:51:25.416756  4933 net.cpp:454] relu6 <- fc6
I0823 16:51:25.416764  4933 net.cpp:397] relu6 -> fc6 (in-place)
I0823 16:51:25.417068  4933 net.cpp:150] Setting up relu6
I0823 16:51:25.417079  4933 net.cpp:157] Top shape: 1 4096 (4096)
I0823 16:51:25.417093  4933 net.cpp:165] Memory required for data: 20697028
I0823 16:51:25.417095  4933 layer_factory.hpp:77] Creating layer drop6
I0823 16:51:25.417104  4933 net.cpp:106] Creating Layer drop6
I0823 16:51:25.417107  4933 net.cpp:454] drop6 <- fc6
I0823 16:51:25.417114  4933 net.cpp:397] drop6 -> fc6 (in-place)
I0823 16:51:25.417158  4933 net.cpp:150] Setting up drop6
I0823 16:51:25.417166  4933 net.cpp:157] Top shape: 1 4096 (4096)
I0823 16:51:25.417168  4933 net.cpp:165] Memory required for data: 20713412
I0823 16:51:25.417171  4933 layer_factory.hpp:77] Creating layer fc7
I0823 16:51:25.417181  4933 net.cpp:106] Creating Layer fc7
I0823 16:51:25.417184  4933 net.cpp:454] fc7 <- fc6
I0823 16:51:25.417191  4933 net.cpp:411] fc7 -> fc7
I0823 16:51:25.440074  4933 net.cpp:150] Setting up fc7
I0823 16:51:25.440115  4933 net.cpp:157] Top shape: 1 1024 (1024)
I0823 16:51:25.440119  4933 net.cpp:165] Memory required for data: 20717508
I0823 16:51:25.440126  4933 layer_factory.hpp:77] Creating layer relu7
I0823 16:51:25.440135  4933 net.cpp:106] Creating Layer relu7
I0823 16:51:25.440140  4933 net.cpp:454] relu7 <- fc7
I0823 16:51:25.440145  4933 net.cpp:397] relu7 -> fc7 (in-place)
I0823 16:51:25.440793  4933 net.cpp:150] Setting up relu7
I0823 16:51:25.440807  4933 net.cpp:157] Top shape: 1 1024 (1024)
I0823 16:51:25.440810  4933 net.cpp:165] Memory required for data: 20721604
I0823 16:51:25.440814  4933 layer_factory.hpp:77] Creating layer drop7
I0823 16:51:25.440820  4933 net.cpp:106] Creating Layer drop7
I0823 16:51:25.440824  4933 net.cpp:454] drop7 <- fc7
I0823 16:51:25.440831  4933 net.cpp:397] drop7 -> fc7 (in-place)
I0823 16:51:25.440879  4933 net.cpp:150] Setting up drop7
I0823 16:51:25.440886  4933 net.cpp:157] Top shape: 1 1024 (1024)
I0823 16:51:25.440889  4933 net.cpp:165] Memory required for data: 20725700
I0823 16:51:25.440892  4933 layer_factory.hpp:77] Creating layer fc7_drop7_0_split
I0823 16:51:25.440899  4933 net.cpp:106] Creating Layer fc7_drop7_0_split
I0823 16:51:25.440904  4933 net.cpp:454] fc7_drop7_0_split <- fc7
I0823 16:51:25.440912  4933 net.cpp:411] fc7_drop7_0_split -> fc7_drop7_0_split_0
I0823 16:51:25.440919  4933 net.cpp:411] fc7_drop7_0_split -> fc7_drop7_0_split_1
I0823 16:51:25.440999  4933 net.cpp:150] Setting up fc7_drop7_0_split
I0823 16:51:25.441005  4933 net.cpp:157] Top shape: 1 1024 (1024)
I0823 16:51:25.441009  4933 net.cpp:157] Top shape: 1 1024 (1024)
I0823 16:51:25.441011  4933 net.cpp:165] Memory required for data: 20733892
I0823 16:51:25.441015  4933 layer_factory.hpp:77] Creating layer cls_score
I0823 16:51:25.441031  4933 net.cpp:106] Creating Layer cls_score
I0823 16:51:25.441037  4933 net.cpp:454] cls_score <- fc7_drop7_0_split_0
I0823 16:51:25.441043  4933 net.cpp:411] cls_score -> cls_score
I0823 16:51:25.443354  4933 net.cpp:150] Setting up cls_score
I0823 16:51:25.443367  4933 net.cpp:157] Top shape: 1 21 (21)
I0823 16:51:25.443370  4933 net.cpp:165] Memory required for data: 20733976
I0823 16:51:25.443388  4933 layer_factory.hpp:77] Creating layer bbox_pred
I0823 16:51:25.443399  4933 net.cpp:106] Creating Layer bbox_pred
I0823 16:51:25.443404  4933 net.cpp:454] bbox_pred <- fc7_drop7_0_split_1
I0823 16:51:25.443410  4933 net.cpp:411] bbox_pred -> bbox_pred
I0823 16:51:25.446341  4933 net.cpp:150] Setting up bbox_pred
I0823 16:51:25.446354  4933 net.cpp:157] Top shape: 1 84 (84)
I0823 16:51:25.446357  4933 net.cpp:165] Memory required for data: 20734312
I0823 16:51:25.446364  4933 layer_factory.hpp:77] Creating layer cls_prob
I0823 16:51:25.446372  4933 net.cpp:106] Creating Layer cls_prob
I0823 16:51:25.446377  4933 net.cpp:454] cls_prob <- cls_score
I0823 16:51:25.446383  4933 net.cpp:411] cls_prob -> cls_prob
I0823 16:51:25.446701  4933 net.cpp:150] Setting up cls_prob
I0823 16:51:25.446712  4933 net.cpp:157] Top shape: 1 21 (21)
I0823 16:51:25.446715  4933 net.cpp:165] Memory required for data: 20734396
I0823 16:51:25.446718  4933 net.cpp:228] cls_prob does not need backward computation.
I0823 16:51:25.446722  4933 net.cpp:228] bbox_pred does not need backward computation.
I0823 16:51:25.446727  4933 net.cpp:228] cls_score does not need backward computation.
I0823 16:51:25.446732  4933 net.cpp:228] fc7_drop7_0_split does not need backward computation.
…
