…
snapshot: 0
snapshot_prefix: "vggx2"
average_loss: 100
iter_size: 2
I0103 15:48:18.802228  1596 solver.cpp:81] Creating training net from train_net file: models/pascal_voc/VGGx2/faster_rcnn_end2end/train.prototxt
I0103 15:48:18.804347  1596 net.cpp:49] Initializing net from parameters: 
name: "VGG_ILSVRC_16_layers"
state {
  phase: TRAIN
}
layer {
  name: "input-data"
  type: "Python"
  top: "data"
  top: "im_info"
  top: "gt_boxes"
  python_param {
    module: "roi_data_layer.layer"
    layer: "RoIDataLayer"
    param_str: "\'num_classes\': 21"
  }
}
layer {
  name: "conv1_1"
  type: "Convolution"
  bottom: "data"
  top: "conv1_1"
  param {
    lr_mult: 0
    decay_mult: 0
  }
  param {
    lr_mult: 0
    decay_mult: 0
  }
  convolution_param {
    num_output: 11
    pad: 1
    kernel_size: 3
  }
}
layer {
  name: "relu1_1"
  type: "ReLU"
  bottom: "conv1_1"
  top: "conv1_1"
}
layer {
  name: "conv1_2"
  type: "Convolution"
  bottom: "conv1_1"
  top: "conv1_2"
  param {
    lr_mult: 0
    decay_mult: 0
  }
  param {
    lr_mult: 0
    decay_mult: 0
  }
  convolution_param {
    num_output: 64
    pad: 1
    kernel_size: 3
  }
}
layer {
  name: "relu1_2"
  type: "ReLU"
  bottom: "conv1_2"
  top: "conv1_2"
}
layer {
  name: "pool1"
  type: "Pooling"
  bottom: "conv1_2"
  top: "pool1"
  pooling_param {
    pool: MAX
    kernel_size: 2
    stride: 2
  }
}
layer {
  name: "conv2_1"
  type: "Convolution"
  bottom: "pool1"
  top: "conv2_1"
  param {
    lr_mult: 0
    decay_mult: 0
  }
  param {
    lr_mult: 0
    decay_mult: 0
  }
  convolution_param {
    num_output: 55
    pad: 1
    kernel_size: 3
  }
}
layer {
  name: "relu2_1"
  type: "ReLU"
  bottom: "conv2_1"
  top: "conv2_1"
}
layer {
  name: "conv2_2"
  type: "Convolution"
  bottom: "conv2_1"
  top: "conv2_2"
  param {
    lr_mult: 0
    decay_mult: 0
  }
  param {
    lr_mult: 0
    decay_mult: 0
  }
  convolution_param {
    num_output: 128
    pad: 1
    kernel_size: 3
  }
}
layer {
  name: "relu2_2"
  type: "ReLU"
  bottom: "conv2_2"
  top: "conv2_2"
}
layer {
  name: "pool2"
  type: "Pooling"
  bottom: "conv2_2"
  top: "pool2"
  pooling_param {
    pool: MAX
    kernel_size: 2
    stride: 2
  }
}
layer {
  name: "conv3_1"
  type: "Convolution"
  bottom: "pool2"
  top: "conv3_1"
  param {
    lr_mult: 1
  }
  param {
    lr_mult: 2
  }
  convolution_param {
    num_output: 148
    pad: 1
    kernel_size: 3
  }
}
layer {
  name: "relu3_1"
  type: "ReLU"
  bottom: "conv3_1"
  top: "conv3_1"
}
layer {
  name: "conv3_2"
  type: "Convolution"
  bottom: "conv3_1"
  top: "conv3_2"
  param {
    lr_mult: 1
  }
  param {
    lr_mult: 2
  }
  convolution_param {
    num_output: 104
    pad: 1
    kernel_size: 3
  }
}
layer {
  name: "relu3_2"
  type: "ReLU"
  bottom: "conv3_2"
  top: "conv3_2"
}
layer {
  name: "conv3_3"
  type: "Convolution"
  bottom: "conv3_2"
  top: "conv3_3"
  param {
    lr_mult: 1
  }
  param {
    lr_mult: 2
  }
  convolution_param {
    num_output: 256
    pad: 1
    kernel_size: 3
  }
}
layer {
  name: "relu3_3"
  type: "ReLU"
  bottom: "conv3_3"
  top: "conv3_3"
}
layer {
  name: "pool3"
  type: "Pooling"
  bottom: "conv3_3"
  top: "pool3"
  pooling_param {
    pool: MAX
    kernel_size: 2
    stride: 2
  }
}
layer {
  name: "conv4_1"
  type: "Convolution"
  bottom: "pool3"
  top: "conv4_1"
  param {
    lr_mult: 1
  }
  param {
    lr_mult: 2
  }
  convolution_param {
    num_output: 221
    pad: 1
    kernel_size: 3
  }
}
layer {
  name: "relu4_1"
  type: "ReLU"
  bottom: "conv4_1"
  top: "conv4_1"
}
layer {
  name: "conv4_2"
  type: "Convolution"
  bottom: "conv4_1"
  top: "conv4_2"
  param {
    lr_mult: 1
  }
  param {
    lr_mult: 2
  }
  convolution_param {
    num_output: 421
    pad: 1
    kernel_size: 3
  }
}
layer {
  name: "relu4_2"
  type: "ReLU"
  bottom: "conv4_2"
  top: "conv4_2"
}
layer {
  name: "conv4_3"
  type: "Convolution"
  bottom: "conv4_2"
  top: "conv4_3"
  param {
    lr_mult: 1
  }
  param {
    lr_mult: 2
  }
  convolution_param {
    num_output: 512
    pad: 1
    kernel_size: 3
  }
}
layer {
  name: "relu4_3"
  type: "ReLU"
  bottom: "conv4_3"
  top: "conv4_3"
}
layer {
  name: "pool4"
  type: "Pooling"
  bottom: "conv4_3"
  top: "pool4"
  pooling_param {
    pool: MAX
    kernel_size: 2
    stride: 2
  }
}
layer {
  name: "conv5_1"
  type: "Convolution"
  bottom: "pool4"
  top: "conv5_1"
  param {
    lr_mult: 1
  }
  param {
    lr_mult: 2
  }
  convolution_param {
    num_output: 512
    pad: 1
    kernel_size: 3
  }
}
layer {
  name: "relu5_1"
  type: "ReLU"
  bottom: "conv5_1"
  top: "conv5_1"
}
layer {
  name: "conv5_2"
  type: "Convolution"
  bottom: "conv5_1"
  top: "conv5_2"
  param {
    lr_mult: 1
  }
  param {
    lr_mult: 2
  }
  convolution_param {
    num_output: 512
    pad: 1
    kernel_size: 3
  }
}
layer {
  name: "relu5_2"
  type: "ReLU"
  bottom: "conv5_2"
  top: "conv5_2"
}
layer {
  name: "conv5_3"
  type: "Convolution"
  bottom: "conv5_2"
  top: "conv5_3"
  param {
    lr_mult: 1
  }
  param {
    lr_mult: 2
  }
  convolution_param {
    num_output: 512
    pad: 1
    kernel_size: 3
  }
}
layer {
  name: "relu5_3"
  type: "ReLU"
  bottom: "conv5_3"
  top: "conv5_3"
}
layer {
  name: "rpn_conv/3x3"
  type: "Convolution"
  bottom: "conv5_3"
  top: "rpn/output"
  param {
    lr_mult: 1
  }
  param {
    lr_mult: 2
  }
  convolution_param {
    num_output: 512
    pad: 1
    kernel_size: 3
    stride: 1
    weight_filler {
      type: "gaussian"
      std: 0.01
    }
    bias_filler {
      type: "constant"
      value: 0
    }
  }
}
layer {
  name: "rpn_relu/3x3"
  type: "ReLU"
  bottom: "rpn/output"
  top: "rpn/output"
}
layer {
  name: "rpn_cls_score"
  type: "Convolution"
  bottom: "rpn/output"
  top: "rpn_cls_score"
  param {
    lr_mult: 1
  }
  param {
    lr_mult: 2
  }
  convolution_param {
    num_output: 18
    pad: 0
    kernel_size: 1
    stride: 1
    weight_filler {
      type: "gaussian"
      std: 0.01
    }
    bias_filler {
      type: "constant"
      value: 0
    }
  }
}
layer {
  name: "rpn_bbox_pred"
  type: "Convolution"
  bottom: "rpn/output"
  top: "rpn_bbox_pred"
  param {
    lr_mult: 1
  }
  param {
    lr_mult: 2
  }
  convolution_param {
    num_output: 36
    pad: 0
    kernel_size: 1
    stride: 1
    weight_filler {
      type: "gaussian"
      std: 0.01
    }
    bias_filler {
      type: "constant"
      value: 0
    }
  }
}
layer {
  name: "rpn_cls_score_reshape"
  type: "Reshape"
  bottom: "rpn_cls_score"
  top: "rpn_cls_score_reshape"
  reshape_param {
    shape {
      dim: 0
      dim: 2
      dim: -1
      dim: 0
    }
  }
}
layer {
  name: "rpn-data"
  type: "Python"
  bottom: "rpn_cls_score"
  bottom: "gt_boxes"
  bottom: "im_info"
  bottom: "data"
  top: "rpn_labels"
  top: "rpn_bbox_targets"
  top: "rpn_bbox_inside_weights"
  top: "rpn_bbox_outside_weights"
  python_param {
    module: "rpn.anchor_target_layer"
    layer: "AnchorTargetLayer"
    param_str: "\'feat_stride\': 16"
  }
}
layer {
  name: "rpn_loss_cls"
  type: "SoftmaxWithLoss"
  bottom: "rpn_cls_score_reshape"
  bottom: "rpn_labels"
  top: "rpn_cls_loss"
  loss_weight: 1
  propagate_down: true
  propagate_down: false
  loss_param {
    ignore_label: -1
    normalize: true
  }
}
layer {
  name: "rpn_loss_bbox"
  type: "SmoothL1Loss"
  bottom: "rpn_bbox_pred"
  bottom: "rpn_bbox_targets"
  bottom: "rpn_bbox_inside_weights"
  bottom: "rpn_bbox_outside_weights"
  top: "rpn_loss_bbox"
  loss_weight: 1
  smooth_l1_loss_param {
    sigma: 3
  }
}
layer {
  name: "rpn_cls_prob"
  type: "Softmax"
  bottom: "rpn_cls_score_reshape"
  top: "rpn_cls_prob"
}
layer {
  name: "rpn_cls_prob_reshape"
  type: "Reshape"
  bottom: "rpn_cls_prob"
  top: "rpn_cls_prob_reshape"
  reshape_param {
    shape {
      dim: 0
      dim: 18
      dim: -1
      dim: 0
    }
  }
}
layer {
  name: "proposal"
  type: "Python"
  bottom: "rpn_cls_prob_reshape"
  bottom: "rpn_bbox_pred"
  bottom: "im_info"
  top: "rpn_rois"
  python_param {
    module: "rpn.proposal_layer"
    layer: "ProposalLayer"
    param_str: "\'feat_stride\': 16"
  }
}
layer {
  name: "roi-data"
  type: "Python"
  bottom: "rpn_rois"
  bottom: "gt_boxes"
  top: "rois"
  top: "labels"
  top: "bbox_targets"
  top: "bbox_inside_weights"
  top: "bbox_outside_weights"
  python_param {
    module: "rpn.proposal_target_layer"
    layer: "ProposalTargetLayer"
    param_str: "\'num_classes\': 21"
  }
}
layer {
  name: "roi_pool5"
  type: "ROIPooling"
  bottom: "conv5_3"
  bottom: "rois"
  top: "pool5"
  roi_pooling_param {
    pooled_h: 7
    pooled_w: 7
    spatial_scale: 0.0625
  }
}
layer {
  name: "fc6"
  type: "InnerProduct"
  bottom: "pool5"
  top: "fc6"
  param {
    lr_mult: 1
  }
  param {
    lr_mult: 2
  }
  inner_product_param {
    num_output: 4096
  }
}
layer {
  name: "relu6"
  type: "ReLU"
  bottom: "fc6"
  top: "fc6"
}
layer {
  name: "drop6"
  type: "Dropout"
  bottom: "fc6"
  top: "fc6"
  dropout_param {
    dropout_ratio: 0.5
  }
}
layer {
  name: "fc7"
  type: "InnerProduct"
  bottom: "fc6"
  top: "fc7"
  param {
    lr_mult: 1
  }
  param {
    lr_mult: 2
  }
  inner_product_param {
    num_output: 4096
  }
}
layer {
  name: "relu7"
  type: "ReLU"
  bottom: "fc7"
  top: "fc7"
}
layer {
  name: "drop7"
  type: "Dropout"
  bottom: "fc7"
  top: "fc7"
  dropout_param {
    dropout_ratio: 0.5
  }
}
layer {
  name: "cls_score"
  type: "InnerProduct"
  bottom: "fc7"
  top: "cls_score"
  param {
    lr_mult: 1
  }
  param {
    lr_mult: 2
  }
  inner_product_param {
    num_output: 21
    weight_filler {
      type: "gaussian"
      std: 0.01
    }
    bias_filler {
      type: "constant"
      value: 0
    }
  }
}
layer {
  name: "bbox_pred"
  type: "InnerProduct"
  bottom: "fc7"
  top: "bbox_pred"
  param {
    lr_mult: 1
  }
  param {
    lr_mult: 2
  }
  inner_product_param {
    num_output: 84
    weight_filler {
      type: "gaussian"
      std: 0.001
    }
    bias_filler {
      type: "constant"
      value: 0
    }
  }
}
layer {
  name: "loss_cls"
  type: "SoftmaxWithLoss"
  bottom: "cls_score"
  bottom: "labels"
  top: "loss_cls"
  loss_weight: 1
  propagate_down: true
  propagate_down: false
}
layer {
  name: "loss_bbox"
  type: "SmoothL1Loss"
  bottom: "bbox_pred"
  bottom: "bbox_targets"
  bottom: "bbox_inside_weights"
  bottom: "bbox_outside_weights"
  top: "loss_bbox"
  loss_weight: 1
}
I0103 15:48:18.804625  1596 layer_factory.hpp:77] Creating layer input-data
I0103 15:48:18.816875  1596 net.cpp:106] Creating Layer input-data
I0103 15:48:18.816895  1596 net.cpp:411] input-data -> data
I0103 15:48:18.816915  1596 net.cpp:411] input-data -> im_info
I0103 15:48:18.816920  1596 net.cpp:411] input-data -> gt_boxes
RoiDataLayer: name_to_top: {'gt_boxes': 2, 'data': 0, 'im_info': 1}
I0103 15:48:18.830615  1596 net.cpp:150] Setting up input-data
I0103 15:48:18.830638  1596 net.cpp:157] Top shape: 1 3 600 1000 (1800000)
I0103 15:48:18.830644  1596 net.cpp:157] Top shape: 1 3 (3)
I0103 15:48:18.830648  1596 net.cpp:157] Top shape: 1 4 (4)
I0103 15:48:18.830651  1596 net.cpp:165] Memory required for data: 7200028
I0103 15:48:18.830654  1596 layer_factory.hpp:77] Creating layer data_input-data_0_split
I0103 15:48:18.830664  1596 net.cpp:106] Creating Layer data_input-data_0_split
I0103 15:48:18.830669  1596 net.cpp:454] data_input-data_0_split <- data
I0103 15:48:18.830675  1596 net.cpp:411] data_input-data_0_split -> data_input-data_0_split_0
I0103 15:48:18.830682  1596 net.cpp:411] data_input-data_0_split -> data_input-data_0_split_1
I0103 15:48:18.830734  1596 net.cpp:150] Setting up data_input-data_0_split
I0103 15:48:18.830741  1596 net.cpp:157] Top shape: 1 3 600 1000 (1800000)
I0103 15:48:18.830745  1596 net.cpp:157] Top shape: 1 3 600 1000 (1800000)
I0103 15:48:18.830747  1596 net.cpp:165] Memory required for data: 21600028
I0103 15:48:18.830750  1596 layer_factory.hpp:77] Creating layer im_info_input-data_1_split
I0103 15:48:18.830755  1596 net.cpp:106] Creating Layer im_info_input-data_1_split
I0103 15:48:18.830759  1596 net.cpp:454] im_info_input-data_1_split <- im_info
I0103 15:48:18.830762  1596 net.cpp:411] im_info_input-data_1_split -> im_info_input-data_1_split_0
I0103 15:48:18.830767  1596 net.cpp:411] im_info_input-data_1_split -> im_info_input-data_1_split_1
I0103 15:48:18.830808  1596 net.cpp:150] Setting up im_info_input-data_1_split
I0103 15:48:18.830814  1596 net.cpp:157] Top shape: 1 3 (3)
I0103 15:48:18.830817  1596 net.cpp:157] Top shape: 1 3 (3)
I0103 15:48:18.830819  1596 net.cpp:165] Memory required for data: 21600052
I0103 15:48:18.830822  1596 layer_factory.hpp:77] Creating layer gt_boxes_input-data_2_split
I0103 15:48:18.830826  1596 net.cpp:106] Creating Layer gt_boxes_input-data_2_split
I0103 15:48:18.830829  1596 net.cpp:454] gt_boxes_input-data_2_split <- gt_boxes
I0103 15:48:18.830833  1596 net.cpp:411] gt_boxes_input-data_2_split -> gt_boxes_input-data_2_split_0
I0103 15:48:18.830839  1596 net.cpp:411] gt_boxes_input-data_2_split -> gt_boxes_input-data_2_split_1
I0103 15:48:18.830924  1596 net.cpp:150] Setting up gt_boxes_input-data_2_split
I0103 15:48:18.830935  1596 net.cpp:157] Top shape: 1 4 (4)
I0103 15:48:18.830940  1596 net.cpp:157] Top shape: 1 4 (4)
I0103 15:48:18.830941  1596 net.cpp:165] Memory required for data: 21600084
I0103 15:48:18.830945  1596 layer_factory.hpp:77] Creating layer conv1_1
I0103 15:48:18.830957  1596 net.cpp:106] Creating Layer conv1_1
I0103 15:48:18.830963  1596 net.cpp:454] conv1_1 <- data_input-data_0_split_0
I0103 15:48:18.830976  1596 net.cpp:411] conv1_1 -> conv1_1
I0103 15:48:19.173064  1596 net.cpp:150] Setting up conv1_1
I0103 15:48:19.173110  1596 net.cpp:157] Top shape: 1 11 600 1000 (6600000)
I0103 15:48:19.173115  1596 net.cpp:165] Memory required for data: 48000084
I0103 15:48:19.173151  1596 layer_factory.hpp:77] Creating layer relu1_1
I0103 15:48:19.173172  1596 net.cpp:106] Creating Layer relu1_1
I0103 15:48:19.173183  1596 net.cpp:454] relu1_1 <- conv1_1
I0103 15:48:19.173192  1596 net.cpp:397] relu1_1 -> conv1_1 (in-place)
I0103 15:48:19.174293  1596 net.cpp:150] Setting up relu1_1
I0103 15:48:19.174312  1596 net.cpp:157] Top shape: 1 11 600 1000 (6600000)
I0103 15:48:19.174316  1596 net.cpp:165] Memory required for data: 74400084
I0103 15:48:19.174321  1596 layer_factory.hpp:77] Creating layer conv1_2
I0103 15:48:19.174335  1596 net.cpp:106] Creating Layer conv1_2
I0103 15:48:19.174340  1596 net.cpp:454] conv1_2 <- conv1_1
I0103 15:48:19.174347  1596 net.cpp:411] conv1_2 -> conv1_2
I0103 15:48:19.181738  1596 net.cpp:150] Setting up conv1_2
I0103 15:48:19.181761  1596 net.cpp:157] Top shape: 1 64 600 1000 (38400000)
I0103 15:48:19.181766  1596 net.cpp:165] Memory required for data: 228000084
I0103 15:48:19.181778  1596 layer_factory.hpp:77] Creating layer relu1_2
I0103 15:48:19.181787  1596 net.cpp:106] Creating Layer relu1_2
I0103 15:48:19.181792  1596 net.cpp:454] relu1_2 <- conv1_2
I0103 15:48:19.181798  1596 net.cpp:397] relu1_2 -> conv1_2 (in-place)
I0103 15:48:19.182046  1596 net.cpp:150] Setting up relu1_2
I0103 15:48:19.182060  1596 net.cpp:157] Top shape: 1 64 600 1000 (38400000)
I0103 15:48:19.182065  1596 net.cpp:165] Memory required for data: 381600084
I0103 15:48:19.182068  1596 layer_factory.hpp:77] Creating layer pool1
I0103 15:48:19.182082  1596 net.cpp:106] Creating Layer pool1
I0103 15:48:19.182088  1596 net.cpp:454] pool1 <- conv1_2
I0103 15:48:19.182096  1596 net.cpp:411] pool1 -> pool1
I0103 15:48:19.182199  1596 net.cpp:150] Setting up pool1
I0103 15:48:19.182211  1596 net.cpp:157] Top shape: 1 64 300 500 (9600000)
I0103 15:48:19.182214  1596 net.cpp:165] Memory required for data: 420000084
I0103 15:48:19.182219  1596 layer_factory.hpp:77] Creating layer conv2_1
I0103 15:48:19.182235  1596 net.cpp:106] Creating Layer conv2_1
I0103 15:48:19.182238  1596 net.cpp:454] conv2_1 <- pool1
I0103 15:48:19.182246  1596 net.cpp:411] conv2_1 -> conv2_1
I0103 15:48:19.188419  1596 net.cpp:150] Setting up conv2_1
I0103 15:48:19.188439  1596 net.cpp:157] Top shape: 1 55 300 500 (8250000)
I0103 15:48:19.188444  1596 net.cpp:165] Memory required for data: 453000084
I0103 15:48:19.188457  1596 layer_factory.hpp:77] Creating layer relu2_1
I0103 15:48:19.188464  1596 net.cpp:106] Creating Layer relu2_1
I0103 15:48:19.188469  1596 net.cpp:454] relu2_1 <- conv2_1
I0103 15:48:19.188475  1596 net.cpp:397] relu2_1 -> conv2_1 (in-place)
I0103 15:48:19.188716  1596 net.cpp:150] Setting up relu2_1
I0103 15:48:19.188731  1596 net.cpp:157] Top shape: 1 55 300 500 (8250000)
I0103 15:48:19.188735  1596 net.cpp:165] Memory required for data: 486000084
I0103 15:48:19.188738  1596 layer_factory.hpp:77] Creating layer conv2_2
I0103 15:48:19.188748  1596 net.cpp:106] Creating Layer conv2_2
I0103 15:48:19.188752  1596 net.cpp:454] conv2_2 <- conv2_1
I0103 15:48:19.188760  1596 net.cpp:411] conv2_2 -> conv2_2
I0103 15:48:19.193708  1596 net.cpp:150] Setting up conv2_2
I0103 15:48:19.193728  1596 net.cpp:157] Top shape: 1 128 300 500 (19200000)
I0103 15:48:19.193732  1596 net.cpp:165] Memory required for data: 562800084
I0103 15:48:19.193742  1596 layer_factory.hpp:77] Creating layer relu2_2
I0103 15:48:19.193749  1596 net.cpp:106] Creating Layer relu2_2
I0103 15:48:19.193754  1596 net.cpp:454] relu2_2 <- conv2_2
I0103 15:48:19.193760  1596 net.cpp:397] relu2_2 -> conv2_2 (in-place)
I0103 15:48:19.194800  1596 net.cpp:150] Setting up relu2_2
I0103 15:48:19.194818  1596 net.cpp:157] Top shape: 1 128 300 500 (19200000)
I0103 15:48:19.194821  1596 net.cpp:165] Memory required for data: 639600084
I0103 15:48:19.194826  1596 layer_factory.hpp:77] Creating layer pool2
I0103 15:48:19.194834  1596 net.cpp:106] Creating Layer pool2
I0103 15:48:19.194839  1596 net.cpp:454] pool2 <- conv2_2
I0103 15:48:19.194845  1596 net.cpp:411] pool2 -> pool2
I0103 15:48:19.194931  1596 net.cpp:150] Setting up pool2
I0103 15:48:19.194941  1596 net.cpp:157] Top shape: 1 128 150 250 (4800000)
I0103 15:48:19.194944  1596 net.cpp:165] Memory required for data: 658800084
I0103 15:48:19.194948  1596 layer_factory.hpp:77] Creating layer conv3_1
I0103 15:48:19.194957  1596 net.cpp:106] Creating Layer conv3_1
I0103 15:48:19.194962  1596 net.cpp:454] conv3_1 <- pool2
I0103 15:48:19.194968  1596 net.cpp:411] conv3_1 -> conv3_1
I0103 15:48:19.199913  1596 net.cpp:150] Setting up conv3_1
I0103 15:48:19.199933  1596 net.cpp:157] Top shape: 1 148 150 250 (5550000)
I0103 15:48:19.199936  1596 net.cpp:165] Memory required for data: 681000084
I0103 15:48:19.199954  1596 layer_factory.hpp:77] Creating layer relu3_1
I0103 15:48:19.199964  1596 net.cpp:106] Creating Layer relu3_1
I0103 15:48:19.199967  1596 net.cpp:454] relu3_1 <- conv3_1
I0103 15:48:19.199973  1596 net.cpp:397] relu3_1 -> conv3_1 (in-place)
I0103 15:48:19.200220  1596 net.cpp:150] Setting up relu3_1
I0103 15:48:19.200234  1596 net.cpp:157] Top shape: 1 148 150 250 (5550000)
I0103 15:48:19.200237  1596 net.cpp:165] Memory required for data: 703200084
I0103 15:48:19.200242  1596 layer_factory.hpp:77] Creating layer conv3_2
I0103 15:48:19.200258  1596 net.cpp:106] Creating Layer conv3_2
I0103 15:48:19.200263  1596 net.cpp:454] conv3_2 <- conv3_1
I0103 15:48:19.200273  1596 net.cpp:411] conv3_2 -> conv3_2
I0103 15:48:19.205271  1596 net.cpp:150] Setting up conv3_2
I0103 15:48:19.205293  1596 net.cpp:157] Top shape: 1 104 150 250 (3900000)
I0103 15:48:19.205297  1596 net.cpp:165] Memory required for data: 718800084
I0103 15:48:19.205307  1596 layer_factory.hpp:77] Creating layer relu3_2
I0103 15:48:19.205315  1596 net.cpp:106] Creating Layer relu3_2
I0103 15:48:19.205320  1596 net.cpp:454] relu3_2 <- conv3_2
I0103 15:48:19.205325  1596 net.cpp:397] relu3_2 -> conv3_2 (in-place)
I0103 15:48:19.205577  1596 net.cpp:150] Setting up relu3_2
I0103 15:48:19.205591  1596 net.cpp:157] Top shape: 1 104 150 250 (3900000)
I0103 15:48:19.205595  1596 net.cpp:165] Memory required for data: 734400084
I0103 15:48:19.205598  1596 layer_factory.hpp:77] Creating layer conv3_3
I0103 15:48:19.205610  1596 net.cpp:106] Creating Layer conv3_3
I0103 15:48:19.205613  1596 net.cpp:454] conv3_3 <- conv3_2
I0103 15:48:19.205622  1596 net.cpp:411] conv3_3 -> conv3_3
I0103 15:48:19.210567  1596 net.cpp:150] Setting up conv3_3
I0103 15:48:19.210587  1596 net.cpp:157] Top shape: 1 256 150 250 (9600000)
I0103 15:48:19.210590  1596 net.cpp:165] Memory required for data: 772800084
I0103 15:48:19.210599  1596 layer_factory.hpp:77] Creating layer relu3_3
I0103 15:48:19.210609  1596 net.cpp:106] Creating Layer relu3_3
I0103 15:48:19.210614  1596 net.cpp:454] relu3_3 <- conv3_3
I0103 15:48:19.210620  1596 net.cpp:397] relu3_3 -> conv3_3 (in-place)
I0103 15:48:19.211655  1596 net.cpp:150] Setting up relu3_3
I0103 15:48:19.211673  1596 net.cpp:157] Top shape: 1 256 150 250 (9600000)
I0103 15:48:19.211675  1596 net.cpp:165] Memory required for data: 811200084
I0103 15:48:19.211680  1596 layer_factory.hpp:77] Creating layer pool3
I0103 15:48:19.211689  1596 net.cpp:106] Creating Layer pool3
I0103 15:48:19.211694  1596 net.cpp:454] pool3 <- conv3_3
I0103 15:48:19.211700  1596 net.cpp:411] pool3 -> pool3
I0103 15:48:19.211791  1596 net.cpp:150] Setting up pool3
I0103 15:48:19.211802  1596 net.cpp:157] Top shape: 1 256 75 125 (2400000)
I0103 15:48:19.211805  1596 net.cpp:165] Memory required for data: 820800084
I0103 15:48:19.211808  1596 layer_factory.hpp:77] Creating layer conv4_1
I0103 15:48:19.211820  1596 net.cpp:106] Creating Layer conv4_1
I0103 15:48:19.211827  1596 net.cpp:454] conv4_1 <- pool3
I0103 15:48:19.211839  1596 net.cpp:411] conv4_1 -> conv4_1
I0103 15:48:19.217295  1596 net.cpp:150] Setting up conv4_1
I0103 15:48:19.217316  1596 net.cpp:157] Top shape: 1 221 75 125 (2071875)
I0103 15:48:19.217320  1596 net.cpp:165] Memory required for data: 829087584
I0103 15:48:19.217329  1596 layer_factory.hpp:77] Creating layer relu4_1
I0103 15:48:19.217335  1596 net.cpp:106] Creating Layer relu4_1
I0103 15:48:19.217339  1596 net.cpp:454] relu4_1 <- conv4_1
I0103 15:48:19.217345  1596 net.cpp:397] relu4_1 -> conv4_1 (in-place)
I0103 15:48:19.218319  1596 net.cpp:150] Setting up relu4_1
I0103 15:48:19.218335  1596 net.cpp:157] Top shape: 1 221 75 125 (2071875)
I0103 15:48:19.218338  1596 net.cpp:165] Memory required for data: 837375084
I0103 15:48:19.218343  1596 layer_factory.hpp:77] Creating layer conv4_2
I0103 15:48:19.218353  1596 net.cpp:106] Creating Layer conv4_2
I0103 15:48:19.218358  1596 net.cpp:454] conv4_2 <- conv4_1
I0103 15:48:19.218364  1596 net.cpp:411] conv4_2 -> conv4_2
I0103 15:48:19.225844  1596 net.cpp:150] Setting up conv4_2
I0103 15:48:19.225865  1596 net.cpp:157] Top shape: 1 421 75 125 (3946875)
I0103 15:48:19.225869  1596 net.cpp:165] Memory required for data: 853162584
I0103 15:48:19.225885  1596 layer_factory.hpp:77] Creating layer relu4_2
I0103 15:48:19.225894  1596 net.cpp:106] Creating Layer relu4_2
I0103 15:48:19.225899  1596 net.cpp:454] relu4_2 <- conv4_2
I0103 15:48:19.225905  1596 net.cpp:397] relu4_2 -> conv4_2 (in-place)
I0103 15:48:19.226132  1596 net.cpp:150] Setting up relu4_2
I0103 15:48:19.226148  1596 net.cpp:157] Top shape: 1 421 75 125 (3946875)
I0103 15:48:19.226151  1596 net.cpp:165] Memory required for data: 868950084
I0103 15:48:19.226155  1596 layer_factory.hpp:77] Creating layer conv4_3
I0103 15:48:19.226166  1596 net.cpp:106] Creating Layer conv4_3
I0103 15:48:19.226169  1596 net.cpp:454] conv4_3 <- conv4_2
I0103 15:48:19.226177  1596 net.cpp:411] conv4_3 -> conv4_3
I0103 15:48:19.234467  1596 net.cpp:150] Setting up conv4_3
I0103 15:48:19.234488  1596 net.cpp:157] Top shape: 1 512 75 125 (4800000)
I0103 15:48:19.234493  1596 net.cpp:165] Memory required for data: 888150084
I0103 15:48:19.234499  1596 layer_factory.hpp:77] Creating layer relu4_3
I0103 15:48:19.234508  1596 net.cpp:106] Creating Layer relu4_3
I0103 15:48:19.234513  1596 net.cpp:454] relu4_3 <- conv4_3
I0103 15:48:19.234519  1596 net.cpp:397] relu4_3 -> conv4_3 (in-place)
I0103 15:48:19.235503  1596 net.cpp:150] Setting up relu4_3
I0103 15:48:19.235519  1596 net.cpp:157] Top shape: 1 512 75 125 (4800000)
I0103 15:48:19.235522  1596 net.cpp:165] Memory required for data: 907350084
I0103 15:48:19.235527  1596 layer_factory.hpp:77] Creating layer pool4
I0103 15:48:19.235536  1596 net.cpp:106] Creating Layer pool4
I0103 15:48:19.235540  1596 net.cpp:454] pool4 <- conv4_3
I0103 15:48:19.235546  1596 net.cpp:411] pool4 -> pool4
I0103 15:48:19.235635  1596 net.cpp:150] Setting up pool4
I0103 15:48:19.235646  1596 net.cpp:157] Top shape: 1 512 38 63 (1225728)
I0103 15:48:19.235648  1596 net.cpp:165] Memory required for data: 912252996
I0103 15:48:19.235652  1596 layer_factory.hpp:77] Creating layer conv5_1
I0103 15:48:19.235666  1596 net.cpp:106] Creating Layer conv5_1
I0103 15:48:19.235672  1596 net.cpp:454] conv5_1 <- pool4
I0103 15:48:19.235682  1596 net.cpp:411] conv5_1 -> conv5_1
I0103 15:48:19.246142  1596 net.cpp:150] Setting up conv5_1
I0103 15:48:19.246165  1596 net.cpp:157] Top shape: 1 512 38 63 (1225728)
I0103 15:48:19.246168  1596 net.cpp:165] Memory required for data: 917155908
I0103 15:48:19.246176  1596 layer_factory.hpp:77] Creating layer relu5_1
I0103 15:48:19.246186  1596 net.cpp:106] Creating Layer relu5_1
I0103 15:48:19.246191  1596 net.cpp:454] relu5_1 <- conv5_1
I0103 15:48:19.246196  1596 net.cpp:397] relu5_1 -> conv5_1 (in-place)
I0103 15:48:19.246433  1596 net.cpp:150] Setting up relu5_1
I0103 15:48:19.246445  1596 net.cpp:157] Top shape: 1 512 38 63 (1225728)
I0103 15:48:19.246448  1596 net.cpp:165] Memory required for data: 922058820
I0103 15:48:19.246451  1596 layer_factory.hpp:77] Creating layer conv5_2
I0103 15:48:19.246462  1596 net.cpp:106] Creating Layer conv5_2
I0103 15:48:19.246466  1596 net.cpp:454] conv5_2 <- conv5_1
I0103 15:48:19.246474  1596 net.cpp:411] conv5_2 -> conv5_2
I0103 15:48:19.255415  1596 net.cpp:150] Setting up conv5_2
I0103 15:48:19.255435  1596 net.cpp:157] Top shape: 1 512 38 63 (1225728)
I0103 15:48:19.255439  1596 net.cpp:165] Memory required for data: 926961732
I0103 15:48:19.255445  1596 layer_factory.hpp:77] Creating layer relu5_2
I0103 15:48:19.255452  1596 net.cpp:106] Creating Layer relu5_2
I0103 15:48:19.255455  1596 net.cpp:454] relu5_2 <- conv5_2
I0103 15:48:19.255460  1596 net.cpp:397] relu5_2 -> conv5_2 (in-place)
I0103 15:48:19.255686  1596 net.cpp:150] Setting up relu5_2
I0103 15:48:19.255699  1596 net.cpp:157] Top shape: 1 512 38 63 (1225728)
I0103 15:48:19.255702  1596 net.cpp:165] Memory required for data: 931864644
I0103 15:48:19.255705  1596 layer_factory.hpp:77] Creating layer conv5_3
I0103 15:48:19.255724  1596 net.cpp:106] Creating Layer conv5_3
I0103 15:48:19.255731  1596 net.cpp:454] conv5_3 <- conv5_2
I0103 15:48:19.255738  1596 net.cpp:411] conv5_3 -> conv5_3
I0103 15:48:19.264528  1596 net.cpp:150] Setting up conv5_3
I0103 15:48:19.264546  1596 net.cpp:157] Top shape: 1 512 38 63 (1225728)
I0103 15:48:19.264550  1596 net.cpp:165] Memory required for data: 936767556
I0103 15:48:19.264557  1596 layer_factory.hpp:77] Creating layer relu5_3
I0103 15:48:19.264566  1596 net.cpp:106] Creating Layer relu5_3
I0103 15:48:19.264570  1596 net.cpp:454] relu5_3 <- conv5_3
I0103 15:48:19.264576  1596 net.cpp:397] relu5_3 -> conv5_3 (in-place)
I0103 15:48:19.265503  1596 net.cpp:150] Setting up relu5_3
I0103 15:48:19.265518  1596 net.cpp:157] Top shape: 1 512 38 63 (1225728)
I0103 15:48:19.265522  1596 net.cpp:165] Memory required for data: 941670468
I0103 15:48:19.265525  1596 layer_factory.hpp:77] Creating layer conv5_3_relu5_3_0_split
I0103 15:48:19.265533  1596 net.cpp:106] Creating Layer conv5_3_relu5_3_0_split
I0103 15:48:19.265537  1596 net.cpp:454] conv5_3_relu5_3_0_split <- conv5_3
I0103 15:48:19.265545  1596 net.cpp:411] conv5_3_relu5_3_0_split -> conv5_3_relu5_3_0_split_0
I0103 15:48:19.265553  1596 net.cpp:411] conv5_3_relu5_3_0_split -> conv5_3_relu5_3_0_split_1
I0103 15:48:19.265637  1596 net.cpp:150] Setting up conv5_3_relu5_3_0_split
I0103 15:48:19.265647  1596 net.cpp:157] Top shape: 1 512 38 63 (1225728)
I0103 15:48:19.265651  1596 net.cpp:157] Top shape: 1 512 38 63 (1225728)
I0103 15:48:19.265655  1596 net.cpp:165] Memory required for data: 951476292
I0103 15:48:19.265657  1596 layer_factory.hpp:77] Creating layer rpn_conv/3x3
I0103 15:48:19.265671  1596 net.cpp:106] Creating Layer rpn_conv/3x3
I0103 15:48:19.265676  1596 net.cpp:454] rpn_conv/3x3 <- conv5_3_relu5_3_0_split_0
I0103 15:48:19.265682  1596 net.cpp:411] rpn_conv/3x3 -> rpn/output
I0103 15:48:19.301136  1596 net.cpp:150] Setting up rpn_conv/3x3
I0103 15:48:19.301156  1596 net.cpp:157] Top shape: 1 512 38 63 (1225728)
I0103 15:48:19.301159  1596 net.cpp:165] Memory required for data: 956379204
I0103 15:48:19.301167  1596 layer_factory.hpp:77] Creating layer rpn_relu/3x3
I0103 15:48:19.301175  1596 net.cpp:106] Creating Layer rpn_relu/3x3
I0103 15:48:19.301179  1596 net.cpp:454] rpn_relu/3x3 <- rpn/output
I0103 15:48:19.301185  1596 net.cpp:397] rpn_relu/3x3 -> rpn/output (in-place)
I0103 15:48:19.301412  1596 net.cpp:150] Setting up rpn_relu/3x3
I0103 15:48:19.301425  1596 net.cpp:157] Top shape: 1 512 38 63 (1225728)
I0103 15:48:19.301429  1596 net.cpp:165] Memory required for data: 961282116
I0103 15:48:19.301432  1596 layer_factory.hpp:77] Creating layer rpn/output_rpn_relu/3x3_0_split
I0103 15:48:19.301439  1596 net.cpp:106] Creating Layer rpn/output_rpn_relu/3x3_0_split
I0103 15:48:19.301442  1596 net.cpp:454] rpn/output_rpn_relu/3x3_0_split <- rpn/output
I0103 15:48:19.301450  1596 net.cpp:411] rpn/output_rpn_relu/3x3_0_split -> rpn/output_rpn_relu/3x3_0_split_0
I0103 15:48:19.301457  1596 net.cpp:411] rpn/output_rpn_relu/3x3_0_split -> rpn/output_rpn_relu/3x3_0_split_1
I0103 15:48:19.301538  1596 net.cpp:150] Setting up rpn/output_rpn_relu/3x3_0_split
I0103 15:48:19.301548  1596 net.cpp:157] Top shape: 1 512 38 63 (1225728)
I0103 15:48:19.301553  1596 net.cpp:157] Top shape: 1 512 38 63 (1225728)
I0103 15:48:19.301554  1596 net.cpp:165] Memory required for data: 971087940
I0103 15:48:19.301558  1596 layer_factory.hpp:77] Creating layer rpn_cls_score
I0103 15:48:19.301569  1596 net.cpp:106] Creating Layer rpn_cls_score
I0103 15:48:19.301575  1596 net.cpp:454] rpn_cls_score <- rpn/output_rpn_relu/3x3_0_split_0
I0103 15:48:19.301584  1596 net.cpp:411] rpn_cls_score -> rpn_cls_score
I0103 15:48:19.304992  1596 net.cpp:150] Setting up rpn_cls_score
I0103 15:48:19.305009  1596 net.cpp:157] Top shape: 1 18 38 63 (43092)
I0103 15:48:19.305012  1596 net.cpp:165] Memory required for data: 971260308
I0103 15:48:19.305019  1596 layer_factory.hpp:77] Creating layer rpn_cls_score_rpn_cls_score_0_split
I0103 15:48:19.305028  1596 net.cpp:106] Creating Layer rpn_cls_score_rpn_cls_score_0_split
I0103 15:48:19.305032  1596 net.cpp:454] rpn_cls_score_rpn_cls_score_0_split <- rpn_cls_score
I0103 15:48:19.305038  1596 net.cpp:411] rpn_cls_score_rpn_cls_score_0_split -> rpn_cls_score_rpn_cls_score_0_split_0
I0103 15:48:19.305058  1596 net.cpp:411] rpn_cls_score_rpn_cls_score_0_split -> rpn_cls_score_rpn_cls_score_0_split_1
I0103 15:48:19.305140  1596 net.cpp:150] Setting up rpn_cls_score_rpn_cls_score_0_split
I0103 15:48:19.305150  1596 net.cpp:157] Top shape: 1 18 38 63 (43092)
I0103 15:48:19.305155  1596 net.cpp:157] Top shape: 1 18 38 63 (43092)
I0103 15:48:19.305156  1596 net.cpp:165] Memory required for data: 971605044
I0103 15:48:19.305160  1596 layer_factory.hpp:77] Creating layer rpn_bbox_pred
I0103 15:48:19.305171  1596 net.cpp:106] Creating Layer rpn_bbox_pred
I0103 15:48:19.305176  1596 net.cpp:454] rpn_bbox_pred <- rpn/output_rpn_relu/3x3_0_split_1
I0103 15:48:19.305184  1596 net.cpp:411] rpn_bbox_pred -> rpn_bbox_pred
I0103 15:48:19.307968  1596 net.cpp:150] Setting up rpn_bbox_pred
I0103 15:48:19.307984  1596 net.cpp:157] Top shape: 1 36 38 63 (86184)
I0103 15:48:19.307987  1596 net.cpp:165] Memory required for data: 971949780
I0103 15:48:19.307994  1596 layer_factory.hpp:77] Creating layer rpn_bbox_pred_rpn_bbox_pred_0_split
I0103 15:48:19.308003  1596 net.cpp:106] Creating Layer rpn_bbox_pred_rpn_bbox_pred_0_split
I0103 15:48:19.308007  1596 net.cpp:454] rpn_bbox_pred_rpn_bbox_pred_0_split <- rpn_bbox_pred
I0103 15:48:19.308015  1596 net.cpp:411] rpn_bbox_pred_rpn_bbox_pred_0_split -> rpn_bbox_pred_rpn_bbox_pred_0_split_0
I0103 15:48:19.308023  1596 net.cpp:411] rpn_bbox_pred_rpn_bbox_pred_0_split -> rpn_bbox_pred_rpn_bbox_pred_0_split_1
I0103 15:48:19.308101  1596 net.cpp:150] Setting up rpn_bbox_pred_rpn_bbox_pred_0_split
I0103 15:48:19.308110  1596 net.cpp:157] Top shape: 1 36 38 63 (86184)
I0103 15:48:19.308115  1596 net.cpp:157] Top shape: 1 36 38 63 (86184)
I0103 15:48:19.308117  1596 net.cpp:165] Memory required for data: 972639252
I0103 15:48:19.308121  1596 layer_factory.hpp:77] Creating layer rpn_cls_score_reshape
I0103 15:48:19.308137  1596 net.cpp:106] Creating Layer rpn_cls_score_reshape
I0103 15:48:19.308143  1596 net.cpp:454] rpn_cls_score_reshape <- rpn_cls_score_rpn_cls_score_0_split_0
I0103 15:48:19.308151  1596 net.cpp:411] rpn_cls_score_reshape -> rpn_cls_score_reshape
I0103 15:48:19.308209  1596 net.cpp:150] Setting up rpn_cls_score_reshape
I0103 15:48:19.308219  1596 net.cpp:157] Top shape: 1 2 342 63 (43092)
I0103 15:48:19.308223  1596 net.cpp:165] Memory required for data: 972811620
I0103 15:48:19.308225  1596 layer_factory.hpp:77] Creating layer rpn_cls_score_reshape_rpn_cls_score_reshape_0_split
I0103 15:48:19.308233  1596 net.cpp:106] Creating Layer rpn_cls_score_reshape_rpn_cls_score_reshape_0_split
I0103 15:48:19.308236  1596 net.cpp:454] rpn_cls_score_reshape_rpn_cls_score_reshape_0_split <- rpn_cls_score_reshape
I0103 15:48:19.308241  1596 net.cpp:411] rpn_cls_score_reshape_rpn_cls_score_reshape_0_split -> rpn_cls_score_reshape_rpn_cls_score_reshape_0_split_0
I0103 15:48:19.308251  1596 net.cpp:411] rpn_cls_score_reshape_rpn_cls_score_reshape_0_split -> rpn_cls_score_reshape_rpn_cls_score_reshape_0_split_1
I0103 15:48:19.308320  1596 net.cpp:150] Setting up rpn_cls_score_reshape_rpn_cls_score_reshape_0_split
I0103 15:48:19.308329  1596 net.cpp:157] Top shape: 1 2 342 63 (43092)
I0103 15:48:19.308333  1596 net.cpp:157] Top shape: 1 2 342 63 (43092)
I0103 15:48:19.308336  1596 net.cpp:165] Memory required for data: 973156356
I0103 15:48:19.308338  1596 layer_factory.hpp:77] Creating layer rpn-data
I0103 15:48:19.313297  1596 net.cpp:106] Creating Layer rpn-data
I0103 15:48:19.313333  1596 net.cpp:454] rpn-data <- rpn_cls_score_rpn_cls_score_0_split_1
I0103 15:48:19.313350  1596 net.cpp:454] rpn-data <- gt_boxes_input-data_2_split_0
I0103 15:48:19.313361  1596 net.cpp:454] rpn-data <- im_info_input-data_1_split_0
I0103 15:48:19.313370  1596 net.cpp:454] rpn-data <- data_input-data_0_split_1
I0103 15:48:19.313382  1596 net.cpp:411] rpn-data -> rpn_labels
I0103 15:48:19.313402  1596 net.cpp:411] rpn-data -> rpn_bbox_targets
I0103 15:48:19.313421  1596 net.cpp:411] rpn-data -> rpn_bbox_inside_weights
I0103 15:48:19.313437  1596 net.cpp:411] rpn-data -> rpn_bbox_outside_weights
I0103 15:48:19.316903  1596 net.cpp:150] Setting up rpn-data
I0103 15:48:19.316934  1596 net.cpp:157] Top shape: 1 1 342 63 (21546)
I0103 15:48:19.316946  1596 net.cpp:157] Top shape: 1 36 38 63 (86184)
I0103 15:48:19.316954  1596 net.cpp:157] Top shape: 1 36 38 63 (86184)
I0103 15:48:19.316962  1596 net.cpp:157] Top shape: 1 36 38 63 (86184)
I0103 15:48:19.316967  1596 net.cpp:165] Memory required for data: 974276748
I0103 15:48:19.316974  1596 layer_factory.hpp:77] Creating layer rpn_loss_cls
I0103 15:48:19.316999  1596 net.cpp:106] Creating Layer rpn_loss_cls
I0103 15:48:19.317009  1596 net.cpp:454] rpn_loss_cls <- rpn_cls_score_reshape_rpn_cls_score_reshape_0_split_0
I0103 15:48:19.317019  1596 net.cpp:454] rpn_loss_cls <- rpn_labels
…
I0103 15:48:19.319627  1596 net.cpp:157] Top shape: (1)
I0103 15:48:19.319631  1596 net.cpp:160]     with loss weight 1
I0103 15:48:19.319640  1596 net.cpp:165] Memory required for data: 974276756
I0103 15:48:19.319646  1596 layer_factory.hpp:77] Creating layer rpn_cls_prob
I0103 15:48:19.319656  1596 net.cpp:106] Creating Layer rpn_cls_prob
I0103 15:48:19.319663  1596 net.cpp:454] rpn_cls_prob <- rpn_cls_score_reshape_rpn_cls_score_reshape_0_split_1
I0103 15:48:19.319674  1596 net.cpp:411] rpn_cls_prob -> rpn_cls_prob
I0103 15:48:19.321470  1596 net.cpp:150] Setting up rpn_cls_prob
I0103 15:48:19.321494  1596 net.cpp:157] Top shape: 1 2 342 63 (43092)
I0103 15:48:19.321516  1596 net.cpp:165] Memory required for data: 974449124
I0103 15:48:19.321522  1596 layer_factory.hpp:77] Creating layer rpn_cls_prob_reshape
I0103 15:48:19.321544  1596 net.cpp:106] Creating Layer rpn_cls_prob_reshape
I0103 15:48:19.321553  1596 net.cpp:454] rpn_cls_prob_reshape <- rpn_cls_prob
I0103 15:48:19.321564  1596 net.cpp:411] rpn_cls_prob_reshape -> rpn_cls_prob_reshape
I0103 15:48:19.321650  1596 net.cpp:150] Setting up rpn_cls_prob_reshape
I0103 15:48:19.321666  1596 net.cpp:157] Top shape: 1 18 38 63 (43092)
I0103 15:48:19.321671  1596 net.cpp:165] Memory required for data: 974621492
I0103 15:48:19.321676  1596 layer_factory.hpp:77] Creating layer proposal
I0103 15:48:19.326836  1596 net.cpp:106] Creating Layer proposal
I0103 15:48:19.326876  1596 net.cpp:454] proposal <- rpn_cls_prob_reshape
I0103 15:48:19.326889  1596 net.cpp:454] proposal <- rpn_bbox_pred_rpn_bbox_pred_0_split_1
I0103 15:48:19.326897  1596 net.cpp:454] proposal <- im_info_input-data_1_split_1
I0103 15:48:19.326910  1596 net.cpp:411] proposal -> rpn_rois
I0103 15:48:19.330662  1596 net.cpp:150] Setting up proposal
I0103 15:48:19.330694  1596 net.cpp:157] Top shape: 1 5 (5)
I0103 15:48:19.330700  1596 net.cpp:165] Memory required for data: 974621512
I0103 15:48:19.330708  1596 layer_factory.hpp:77] Creating layer roi-data
I0103 15:48:19.332049  1596 net.cpp:106] Creating Layer roi-data
I0103 15:48:19.332073  1596 net.cpp:454] roi-data <- rpn_rois
I0103 15:48:19.332084  1596 net.cpp:454] roi-data <- gt_boxes_input-data_2_split_1
I0103 15:48:19.332098  1596 net.cpp:411] roi-data -> rois
I0103 15:48:19.332113  1596 net.cpp:411] roi-data -> labels
I0103 15:48:19.332126  1596 net.cpp:411] roi-data -> bbox_targets
I0103 15:48:19.332137  1596 net.cpp:411] roi-data -> bbox_inside_weights
I0103 15:48:19.332152  1596 net.cpp:411] roi-data -> bbox_outside_weights
I0103 15:48:19.333148  1596 net.cpp:150] Setting up roi-data
I0103 15:48:19.333175  1596 net.cpp:157] Top shape: 1 5 (5)
I0103 15:48:19.333184  1596 net.cpp:157] Top shape: 1 1 (1)
I0103 15:48:19.333189  1596 net.cpp:157] Top shape: 1 84 (84)
I0103 15:48:19.333195  1596 net.cpp:157] Top shape: 1 84 (84)
I0103 15:48:19.333200  1596 net.cpp:157] Top shape: 1 84 (84)
I0103 15:48:19.333205  1596 net.cpp:165] Memory required for data: 974622544
I0103 15:48:19.333212  1596 layer_factory.hpp:77] Creating layer roi_pool5
I0103 15:48:19.333238  1596 net.cpp:106] Creating Layer roi_pool5
I0103 15:48:19.333250  1596 net.cpp:454] roi_pool5 <- conv5_3_relu5_3_0_split_1
I0103 15:48:19.333259  1596 net.cpp:454] roi_pool5 <- rois
I0103 15:48:19.333268  1596 net.cpp:411] roi_pool5 -> pool5
I0103 15:48:19.333289  1596 roi_pooling_layer.cpp:30] Spatial scale: 0.0625
I0103 15:48:19.333436  1596 net.cpp:150] Setting up roi_pool5
I0103 15:48:19.333451  1596 net.cpp:157] Top shape: 1 512 7 7 (25088)
I0103 15:48:19.333456  1596 net.cpp:165] Memory required for data: 974722896
I0103 15:48:19.333463  1596 layer_factory.hpp:77] Creating layer fc6
I0103 15:48:19.333480  1596 net.cpp:106] Creating Layer fc6
I0103 15:48:19.333487  1596 net.cpp:454] fc6 <- pool5
I0103 15:48:19.333503  1596 net.cpp:411] fc6 -> fc6
I0103 15:48:19.669989  1596 net.cpp:150] Setting up fc6
I0103 15:48:19.670048  1596 net.cpp:157] Top shape: 1 4096 (4096)
I0103 15:48:19.670053  1596 net.cpp:165] Memory required for data: 974739280
I0103 15:48:19.670080  1596 layer_factory.hpp:77] Creating layer relu6
I0103 15:48:19.670095  1596 net.cpp:106] Creating Layer relu6
I0103 15:48:19.670101  1596 net.cpp:454] relu6 <- fc6
I0103 15:48:19.670114  1596 net.cpp:397] relu6 -> fc6 (in-place)
I0103 15:48:19.670472  1596 net.cpp:150] Setting up relu6
I0103 15:48:19.670487  1596 net.cpp:157] Top shape: 1 4096 (4096)
I0103 15:48:19.670490  1596 net.cpp:165] Memory required for data: 974755664
I0103 15:48:19.670493  1596 layer_factory.hpp:77] Creating layer drop6
I0103 15:48:19.670513  1596 net.cpp:106] Creating Layer drop6
I0103 15:48:19.670518  1596 net.cpp:454] drop6 <- fc6
I0103 15:48:19.670531  1596 net.cpp:397] drop6 -> fc6 (in-place)
I0103 15:48:19.670591  1596 net.cpp:150] Setting up drop6
I0103 15:48:19.670603  1596 net.cpp:157] Top shape: 1 4096 (4096)
I0103 15:48:19.670605  1596 net.cpp:165] Memory required for data: 974772048
I0103 15:48:19.670608  1596 layer_factory.hpp:77] Creating layer fc7
I0103 15:48:19.670619  1596 net.cpp:106] Creating Layer fc7
I0103 15:48:19.670625  1596 net.cpp:454] fc7 <- fc6
I0103 15:48:19.670631  1596 net.cpp:411] fc7 -> fc7
I0103 15:48:19.719197  1596 net.cpp:150] Setting up fc7
I0103 15:48:19.719249  1596 net.cpp:157] Top shape: 1 4096 (4096)
I0103 15:48:19.719254  1596 net.cpp:165] Memory required for data: 974788432
I0103 15:48:19.719269  1596 layer_factory.hpp:77] Creating layer relu7
I0103 15:48:19.719281  1596 net.cpp:106] Creating Layer relu7
I0103 15:48:19.719287  1596 net.cpp:454] relu7 <- fc7
I0103 15:48:19.719297  1596 net.cpp:397] relu7 -> fc7 (in-place)
I0103 15:48:19.720456  1596 net.cpp:150] Setting up relu7
I0103 15:48:19.720471  1596 net.cpp:157] Top shape: 1 4096 (4096)
I0103 15:48:19.720474  1596 net.cpp:165] Memory required for data: 974804816
I0103 15:48:19.720479  1596 layer_factory.hpp:77] Creating layer drop7
I0103 15:48:19.720489  1596 net.cpp:106] Creating Layer drop7
I0103 15:48:19.720492  1596 net.cpp:454] drop7 <- fc7
I0103 15:48:19.720499  1596 net.cpp:397] drop7 -> fc7 (in-place)
I0103 15:48:19.720554  1596 net.cpp:150] Setting up drop7
I0103 15:48:19.720564  1596 net.cpp:157] Top shape: 1 4096 (4096)
I0103 15:48:19.720567  1596 net.cpp:165] Memory required for data: 974821200
I0103 15:48:19.720571  1596 layer_factory.hpp:77] Creating layer fc7_drop7_0_split
I0103 15:48:19.720583  1596 net.cpp:106] Creating Layer fc7_drop7_0_split
I0103 15:48:19.720587  1596 net.cpp:454] fc7_drop7_0_split <- fc7
I0103 15:48:19.720594  1596 net.cpp:411] fc7_drop7_0_split -> fc7_drop7_0_split_0
I0103 15:48:19.720605  1596 net.cpp:411] fc7_drop7_0_split -> fc7_drop7_0_split_1
I0103 15:48:19.720697  1596 net.cpp:150] Setting up fc7_drop7_0_split
I0103 15:48:19.720708  1596 net.cpp:157] Top shape: 1 4096 (4096)
I0103 15:48:19.720711  1596 net.cpp:157] Top shape: 1 4096 (4096)
I0103 15:48:19.720715  1596 net.cpp:165] Memory required for data: 974853968
I0103 15:48:19.720717  1596 layer_factory.hpp:77] Creating layer cls_score
I0103 15:48:19.720727  1596 net.cpp:106] Creating Layer cls_score
I0103 15:48:19.720732  1596 net.cpp:454] cls_score <- fc7_drop7_0_split_0
I0103 15:48:19.720739  1596 net.cpp:411] cls_score -> cls_score
I0103 15:48:19.722038  1596 net.cpp:150] Setting up cls_score
I0103 15:48:19.722048  1596 net.cpp:157] Top shape: 1 21 (21)
I0103 15:48:19.722050  1596 net.cpp:165] Memory required for data: 974854052
I0103 15:48:19.722057  1596 layer_factory.hpp:77] Creating layer bbox_pred
I0103 15:48:19.722064  1596 net.cpp:106] Creating Layer bbox_pred
I0103 15:48:19.722067  1596 net.cpp:454] bbox_pred <- fc7_drop7_0_split_1
I0103 15:48:19.722075  1596 net.cpp:411] bbox_pred -> bbox_pred
I0103 15:48:19.728231  1596 net.cpp:150] Setting up bbox_pred
I0103 15:48:19.728250  1596 net.cpp:157] Top shape: 1 84 (84)
I0103 15:48:19.728255  1596 net.cpp:165] Memory required for data: 974854388
I0103 15:48:19.728262  1596 layer_factory.hpp:77] Creating layer loss_cls
I0103 15:48:19.728272  1596 net.cpp:106] Creating Layer loss_cls
I0103 15:48:19.728277  1596 net.cpp:454] loss_cls <- cls_score
I0103 15:48:19.728282  1596 net.cpp:454] loss_cls <- labels
I0103 15:48:19.728287  1596 net.cpp:411] loss_cls -> loss_cls
…
           'RPN_POST_NMS_TOP_N': 2000,
           'RPN_PRE_NMS_TOP_N': 12000,
           'SCALES': [600],
           'SNAPSHOT_INFIX': '',
           'SNAPSHOT_ITERS': 10000,
           'USE_FLIPPED': True,
           'USE_PREFETCH': False},
 'USE_GPU_NMS': True}
WARNING: Logging before InitGoogleLogging() is written to STDERR
I0104 01:50:17.570437  2215 net.cpp:49] Initializing net from parameters: 
name: "VGG_ILSVRC_16_layers"
input: "data"
input: "im_info"
state {
  phase: TEST
}
input_shape {
  dim: 1
  dim: 3
  dim: 224
  dim: 224
}
input_shape {
  dim: 1
  dim: 3
}
layer {
  name: "conv1_1"
  type: "Convolution"
  bottom: "data"
  top: "conv1_1"
  param {
    lr_mult: 0
    decay_mult: 0
  }
  param {
    lr_mult: 0
    decay_mult: 0
  }
  convolution_param {
    num_output: 11
    pad: 1
    kernel_size: 3
  }
}
layer {
  name: "relu1_1"
  type: "ReLU"
  bottom: "conv1_1"
  top: "conv1_1"
}
layer {
  name: "conv1_2"
  type: "Convolution"
  bottom: "conv1_1"
  top: "conv1_2"
  param {
    lr_mult: 0
    decay_mult: 0
  }
  param {
    lr_mult: 0
    decay_mult: 0
  }
  convolution_param {
    num_output: 64
    pad: 1
    kernel_size: 3
  }
}
layer {
  name: "relu1_2"
  type: "ReLU"
  bottom: "conv1_2"
  top: "conv1_2"
}
layer {
  name: "pool1"
  type: "Pooling"
  bottom: "conv1_2"
  top: "pool1"
  pooling_param {
    pool: MAX
    kernel_size: 2
    stride: 2
  }
}
layer {
  name: "conv2_1"
  type: "Convolution"
  bottom: "pool1"
  top: "conv2_1"
  param {
    lr_mult: 0
    decay_mult: 0
  }
  param {
    lr_mult: 0
    decay_mult: 0
  }
  convolution_param {
    num_output: 55
    pad: 1
    kernel_size: 3
  }
}
layer {
  name: "relu2_1"
  type: "ReLU"
  bottom: "conv2_1"
  top: "conv2_1"
}
layer {
  name: "conv2_2"
  type: "Convolution"
  bottom: "conv2_1"
  top: "conv2_2"
  param {
    lr_mult: 0
    decay_mult: 0
  }
  param {
    lr_mult: 0
    decay_mult: 0
  }
  convolution_param {
    num_output: 128
    pad: 1
    kernel_size: 3
  }
}
layer {
  name: "relu2_2"
  type: "ReLU"
  bottom: "conv2_2"
  top: "conv2_2"
}
layer {
  name: "pool2"
  type: "Pooling"
  bottom: "conv2_2"
  top: "pool2"
  pooling_param {
    pool: MAX
    kernel_size: 2
    stride: 2
  }
}
layer {
  name: "conv3_1"
  type: "Convolution"
  bottom: "pool2"
  top: "conv3_1"
  param {
    lr_mult: 1
    decay_mult: 1
  }
  param {
    lr_mult: 2
    decay_mult: 0
  }
  convolution_param {
    num_output: 148
    pad: 1
    kernel_size: 3
  }
}
layer {
  name: "relu3_1"
  type: "ReLU"
  bottom: "conv3_1"
  top: "conv3_1"
}
layer {
  name: "conv3_2"
  type: "Convolution"
  bottom: "conv3_1"
  top: "conv3_2"
  param {
    lr_mult: 1
    decay_mult: 1
  }
  param {
    lr_mult: 2
    decay_mult: 0
  }
  convolution_param {
    num_output: 104
    pad: 1
    kernel_size: 3
  }
}
layer {
  name: "relu3_2"
  type: "ReLU"
  bottom: "conv3_2"
  top: "conv3_2"
}
layer {
  name: "conv3_3"
  type: "Convolution"
  bottom: "conv3_2"
  top: "conv3_3"
  param {
    lr_mult: 1
    decay_mult: 1
  }
  param {
    lr_mult: 2
    decay_mult: 0
  }
  convolution_param {
    num_output: 256
    pad: 1
    kernel_size: 3
  }
}
layer {
  name: "relu3_3"
  type: "ReLU"
  bottom: "conv3_3"
  top: "conv3_3"
}
layer {
  name: "pool3"
  type: "Pooling"
  bottom: "conv3_3"
  top: "pool3"
  pooling_param {
    pool: MAX
    kernel_size: 2
    stride: 2
  }
}
layer {
  name: "conv4_1"
  type: "Convolution"
  bottom: "pool3"
  top: "conv4_1"
  param {
    lr_mult: 1
    decay_mult: 1
  }
  param {
    lr_mult: 2
    decay_mult: 0
  }
  convolution_param {
    num_output: 221
    pad: 1
    kernel_size: 3
  }
}
layer {
  name: "relu4_1"
  type: "ReLU"
  bottom: "conv4_1"
  top: "conv4_1"
}
layer {
  name: "conv4_2"
  type: "Convolution"
  bottom: "conv4_1"
  top: "conv4_2"
  param {
    lr_mult: 1
    decay_mult: 1
  }
  param {
    lr_mult: 2
    decay_mult: 0
  }
  convolution_param {
    num_output: 421
    pad: 1
    kernel_size: 3
  }
}
layer {
  name: "relu4_2"
  type: "ReLU"
  bottom: "conv4_2"
  top: "conv4_2"
}
layer {
  name: "conv4_3"
  type: "Convolution"
  bottom: "conv4_2"
  top: "conv4_3"
  param {
    lr_mult: 1
    decay_mult: 1
  }
  param {
    lr_mult: 2
    decay_mult: 0
  }
  convolution_param {
    num_output: 512
    pad: 1
    kernel_size: 3
  }
}
layer {
  name: "relu4_3"
  type: "ReLU"
  bottom: "conv4_3"
  top: "conv4_3"
}
layer {
  name: "pool4"
  type: "Pooling"
  bottom: "conv4_3"
  top: "pool4"
  pooling_param {
    pool: MAX
    kernel_size: 2
    stride: 2
  }
}
layer {
  name: "conv5_1"
  type: "Convolution"
  bottom: "pool4"
  top: "conv5_1"
  param {
    lr_mult: 1
    decay_mult: 1
  }
  param {
    lr_mult: 2
    decay_mult: 0
  }
  convolution_param {
    num_output: 512
    pad: 1
    kernel_size: 3
  }
}
layer {
  name: "relu5_1"
  type: "ReLU"
  bottom: "conv5_1"
  top: "conv5_1"
}
layer {
  name: "conv5_2"
  type: "Convolution"
  bottom: "conv5_1"
  top: "conv5_2"
  param {
    lr_mult: 1
    decay_mult: 1
  }
  param {
    lr_mult: 2
    decay_mult: 0
  }
  convolution_param {
    num_output: 512
    pad: 1
    kernel_size: 3
  }
}
layer {
  name: "relu5_2"
  type: "ReLU"
  bottom: "conv5_2"
  top: "conv5_2"
}
layer {
  name: "conv5_3"
  type: "Convolution"
  bottom: "conv5_2"
  top: "conv5_3"
  param {
    lr_mult: 1
    decay_mult: 1
  }
  param {
    lr_mult: 2
    decay_mult: 0
  }
  convolution_param {
    num_output: 512
    pad: 1
    kernel_size: 3
  }
}
layer {
  name: "relu5_3"
  type: "ReLU"
  bottom: "conv5_3"
  top: "conv5_3"
}
layer {
  name: "rpn_conv/3x3"
  type: "Convolution"
  bottom: "conv5_3"
  top: "rpn/output"
  param {
    lr_mult: 1
    decay_mult: 1
  }
  param {
    lr_mult: 2
    decay_mult: 0
  }
  convolution_param {
    num_output: 512
    pad: 1
    kernel_size: 3
    stride: 1
    weight_filler {
      type: "gaussian"
      std: 0.01
    }
    bias_filler {
      type: "constant"
      value: 0
    }
  }
}
layer {
  name: "rpn_relu/3x3"
  type: "ReLU"
  bottom: "rpn/output"
  top: "rpn/output"
}
layer {
  name: "rpn_cls_score"
  type: "Convolution"
  bottom: "rpn/output"
  top: "rpn_cls_score"
  param {
    lr_mult: 1
    decay_mult: 1
  }
  param {
    lr_mult: 2
    decay_mult: 0
  }
  convolution_param {
    num_output: 18
    pad: 0
    kernel_size: 1
    stride: 1
    weight_filler {
      type: "gaussian"
      std: 0.01
    }
    bias_filler {
      type: "constant"
      value: 0
    }
  }
}
layer {
  name: "rpn_bbox_pred"
  type: "Convolution"
  bottom: "rpn/output"
  top: "rpn_bbox_pred"
  param {
    lr_mult: 1
    decay_mult: 1
  }
  param {
    lr_mult: 2
    decay_mult: 0
  }
  convolution_param {
    num_output: 36
    pad: 0
    kernel_size: 1
    stride: 1
    weight_filler {
      type: "gaussian"
      std: 0.01
    }
    bias_filler {
      type: "constant"
      value: 0
    }
  }
}
layer {
  name: "rpn_cls_score_reshape"
  type: "Reshape"
  bottom: "rpn_cls_score"
  top: "rpn_cls_score_reshape"
  reshape_param {
    shape {
      dim: 0
      dim: 2
      dim: -1
      dim: 0
    }
  }
}
layer {
  name: "rpn_cls_prob"
  type: "Softmax"
  bottom: "rpn_cls_score_reshape"
  top: "rpn_cls_prob"
}
layer {
  name: "rpn_cls_prob_reshape"
  type: "Reshape"
  bottom: "rpn_cls_prob"
  top: "rpn_cls_prob_reshape"
  reshape_param {
    shape {
      dim: 0
      dim: 18
      dim: -1
      dim: 0
    }
  }
}
layer {
  name: "proposal"
  type: "Python"
  bottom: "rpn_cls_prob_reshape"
  bottom: "rpn_bbox_pred"
  bottom: "im_info"
  top: "rois"
  python_param {
    module: "rpn.proposal_layer"
    layer: "ProposalLayer"
    param_str: "\'feat_stride\': 16"
  }
}
layer {
  name: "roi_pool5"
  type: "ROIPooling"
  bottom: "conv5_3"
  bottom: "rois"
  top: "pool5"
  roi_pooling_param {
    pooled_h: 7
    pooled_w: 7
    spatial_scale: 0.0625
  }
}
layer {
  name: "fc6"
  type: "InnerProduct"
  bottom: "pool5"
  top: "fc6"
  param {
    lr_mult: 1
    decay_mult: 1
  }
  param {
    lr_mult: 2
    decay_mult: 0
  }
  inner_product_param {
    num_output: 4096
  }
}
layer {
  name: "relu6"
  type: "ReLU"
  bottom: "fc6"
  top: "fc6"
}
layer {
  name: "drop6"
  type: "Dropout"
  bottom: "fc6"
  top: "fc6"
  dropout_param {
    dropout_ratio: 0.5
  }
}
layer {
  name: "fc7"
  type: "InnerProduct"
  bottom: "fc6"
  top: "fc7"
  param {
    lr_mult: 1
    decay_mult: 1
  }
  param {
    lr_mult: 2
    decay_mult: 0
  }
  inner_product_param {
    num_output: 4096
  }
}
layer {
  name: "relu7"
  type: "ReLU"
  bottom: "fc7"
  top: "fc7"
}
layer {
  name: "drop7"
  type: "Dropout"
  bottom: "fc7"
  top: "fc7"
  dropout_param {
    dropout_ratio: 0.5
  }
}
layer {
  name: "cls_score"
  type: "InnerProduct"
  bottom: "fc7"
  top: "cls_score"
  param {
    lr_mult: 1
    decay_mult: 1
  }
  param {
    lr_mult: 2
    decay_mult: 0
  }
  inner_product_param {
    num_output: 21
    weight_filler {
      type: "gaussian"
      std: 0.01
    }
    bias_filler {
      type: "constant"
      value: 0
    }
  }
}
layer {
  name: "bbox_pred"
  type: "InnerProduct"
  bottom: "fc7"
  top: "bbox_pred"
  param {
    lr_mult: 1
    decay_mult: 1
  }
  param {
    lr_mult: 2
    decay_mult: 0
  }
  inner_product_param {
    num_output: 84
    weight_filler {
      type: "gaussian"
      std: 0.001
    }
    bias_filler {
      type: "constant"
      value: 0
    }
  }
}
layer {
  name: "cls_prob"
  type: "Softmax"
  bottom: "cls_score"
  top: "cls_prob"
}
I0104 01:50:17.570822  2215 net.cpp:413] Input 0 -> data
I0104 01:50:17.593909  2215 net.cpp:413] Input 1 -> im_info
I0104 01:50:17.594008  2215 layer_factory.hpp:77] Creating layer conv1_1
I0104 01:50:17.594041  2215 net.cpp:106] Creating Layer conv1_1
I0104 01:50:17.594049  2215 net.cpp:454] conv1_1 <- data
I0104 01:50:17.594064  2215 net.cpp:411] conv1_1 -> conv1_1
I0104 01:50:17.879211  2215 net.cpp:150] Setting up conv1_1
I0104 01:50:17.879262  2215 net.cpp:157] Top shape: 1 11 224 224 (551936)
I0104 01:50:17.879267  2215 net.cpp:165] Memory required for data: 2207744
I0104 01:50:17.879297  2215 layer_factory.hpp:77] Creating layer relu1_1
I0104 01:50:17.879317  2215 net.cpp:106] Creating Layer relu1_1
I0104 01:50:17.879325  2215 net.cpp:454] relu1_1 <- conv1_1
I0104 01:50:17.879333  2215 net.cpp:397] relu1_1 -> conv1_1 (in-place)
I0104 01:50:17.880074  2215 net.cpp:150] Setting up relu1_1
I0104 01:50:17.880090  2215 net.cpp:157] Top shape: 1 11 224 224 (551936)
I0104 01:50:17.880094  2215 net.cpp:165] Memory required for data: 4415488
I0104 01:50:17.880097  2215 layer_factory.hpp:77] Creating layer conv1_2
I0104 01:50:17.880115  2215 net.cpp:106] Creating Layer conv1_2
I0104 01:50:17.880120  2215 net.cpp:454] conv1_2 <- conv1_1
I0104 01:50:17.880126  2215 net.cpp:411] conv1_2 -> conv1_2
I0104 01:50:17.884747  2215 net.cpp:150] Setting up conv1_2
I0104 01:50:17.884788  2215 net.cpp:157] Top shape: 1 64 224 224 (3211264)
I0104 01:50:17.884795  2215 net.cpp:165] Memory required for data: 17260544
I0104 01:50:17.884817  2215 layer_factory.hpp:77] Creating layer relu1_2
I0104 01:50:17.884835  2215 net.cpp:106] Creating Layer relu1_2
I0104 01:50:17.884843  2215 net.cpp:454] relu1_2 <- conv1_2
I0104 01:50:17.884860  2215 net.cpp:397] relu1_2 -> conv1_2 (in-place)
I0104 01:50:17.885254  2215 net.cpp:150] Setting up relu1_2
I0104 01:50:17.885272  2215 net.cpp:157] Top shape: 1 64 224 224 (3211264)
I0104 01:50:17.885280  2215 net.cpp:165] Memory required for data: 30105600
I0104 01:50:17.885288  2215 layer_factory.hpp:77] Creating layer pool1
I0104 01:50:17.885303  2215 net.cpp:106] Creating Layer pool1
I0104 01:50:17.885310  2215 net.cpp:454] pool1 <- conv1_2
I0104 01:50:17.885320  2215 net.cpp:411] pool1 -> pool1
I0104 01:50:17.885478  2215 net.cpp:150] Setting up pool1
I0104 01:50:17.885491  2215 net.cpp:157] Top shape: 1 64 112 112 (802816)
I0104 01:50:17.885498  2215 net.cpp:165] Memory required for data: 33316864
I0104 01:50:17.885502  2215 layer_factory.hpp:77] Creating layer conv2_1
I0104 01:50:17.885517  2215 net.cpp:106] Creating Layer conv2_1
I0104 01:50:17.885525  2215 net.cpp:454] conv2_1 <- pool1
I0104 01:50:17.885538  2215 net.cpp:411] conv2_1 -> conv2_1
I0104 01:50:17.889802  2215 net.cpp:150] Setting up conv2_1
I0104 01:50:17.889828  2215 net.cpp:157] Top shape: 1 55 112 112 (689920)
I0104 01:50:17.889837  2215 net.cpp:165] Memory required for data: 36076544
I0104 01:50:17.889856  2215 layer_factory.hpp:77] Creating layer relu2_1
I0104 01:50:17.889870  2215 net.cpp:106] Creating Layer relu2_1
I0104 01:50:17.889879  2215 net.cpp:454] relu2_1 <- conv2_1
I0104 01:50:17.889889  2215 net.cpp:397] relu2_1 -> conv2_1 (in-place)
I0104 01:50:17.890254  2215 net.cpp:150] Setting up relu2_1
I0104 01:50:17.890270  2215 net.cpp:157] Top shape: 1 55 112 112 (689920)
I0104 01:50:17.890275  2215 net.cpp:165] Memory required for data: 38836224
I0104 01:50:17.890281  2215 layer_factory.hpp:77] Creating layer conv2_2
I0104 01:50:17.890295  2215 net.cpp:106] Creating Layer conv2_2
I0104 01:50:17.890303  2215 net.cpp:454] conv2_2 <- conv2_1
I0104 01:50:17.890314  2215 net.cpp:411] conv2_2 -> conv2_2
I0104 01:50:17.893877  2215 net.cpp:150] Setting up conv2_2
I0104 01:50:17.893904  2215 net.cpp:157] Top shape: 1 128 112 112 (1605632)
I0104 01:50:17.893910  2215 net.cpp:165] Memory required for data: 45258752
I0104 01:50:17.893923  2215 layer_factory.hpp:77] Creating layer relu2_2
I0104 01:50:17.893937  2215 net.cpp:106] Creating Layer relu2_2
I0104 01:50:17.893946  2215 net.cpp:454] relu2_2 <- conv2_2
I0104 01:50:17.893956  2215 net.cpp:397] relu2_2 -> conv2_2 (in-place)
I0104 01:50:17.895108  2215 net.cpp:150] Setting up relu2_2
I0104 01:50:17.895133  2215 net.cpp:157] Top shape: 1 128 112 112 (1605632)
I0104 01:50:17.895138  2215 net.cpp:165] Memory required for data: 51681280
I0104 01:50:17.895144  2215 layer_factory.hpp:77] Creating layer pool2
I0104 01:50:17.895156  2215 net.cpp:106] Creating Layer pool2
I0104 01:50:17.895162  2215 net.cpp:454] pool2 <- conv2_2
I0104 01:50:17.895174  2215 net.cpp:411] pool2 -> pool2
I0104 01:50:17.895298  2215 net.cpp:150] Setting up pool2
I0104 01:50:17.895310  2215 net.cpp:157] Top shape: 1 128 56 56 (401408)
I0104 01:50:17.895318  2215 net.cpp:165] Memory required for data: 53286912
I0104 01:50:17.895323  2215 layer_factory.hpp:77] Creating layer conv3_1
I0104 01:50:17.895339  2215 net.cpp:106] Creating Layer conv3_1
I0104 01:50:17.895346  2215 net.cpp:454] conv3_1 <- pool2
I0104 01:50:17.895356  2215 net.cpp:411] conv3_1 -> conv3_1
I0104 01:50:17.901901  2215 net.cpp:150] Setting up conv3_1
I0104 01:50:17.901927  2215 net.cpp:157] Top shape: 1 148 56 56 (464128)
I0104 01:50:17.901937  2215 net.cpp:165] Memory required for data: 55143424
I0104 01:50:17.901957  2215 layer_factory.hpp:77] Creating layer relu3_1
I0104 01:50:17.901970  2215 net.cpp:106] Creating Layer relu3_1
I0104 01:50:17.901979  2215 net.cpp:454] relu3_1 <- conv3_1
I0104 01:50:17.901989  2215 net.cpp:397] relu3_1 -> conv3_1 (in-place)
I0104 01:50:17.902359  2215 net.cpp:150] Setting up relu3_1
I0104 01:50:17.902377  2215 net.cpp:157] Top shape: 1 148 56 56 (464128)
I0104 01:50:17.902384  2215 net.cpp:165] Memory required for data: 56999936
I0104 01:50:17.902391  2215 layer_factory.hpp:77] Creating layer conv3_2
I0104 01:50:17.902406  2215 net.cpp:106] Creating Layer conv3_2
I0104 01:50:17.902416  2215 net.cpp:454] conv3_2 <- conv3_1
I0104 01:50:17.902427  2215 net.cpp:411] conv3_2 -> conv3_2
I0104 01:50:17.907632  2215 net.cpp:150] Setting up conv3_2
I0104 01:50:17.907665  2215 net.cpp:157] Top shape: 1 104 56 56 (326144)
I0104 01:50:17.907675  2215 net.cpp:165] Memory required for data: 58304512
I0104 01:50:17.907690  2215 layer_factory.hpp:77] Creating layer relu3_2
I0104 01:50:17.907704  2215 net.cpp:106] Creating Layer relu3_2
I0104 01:50:17.907714  2215 net.cpp:454] relu3_2 <- conv3_2
I0104 01:50:17.907724  2215 net.cpp:397] relu3_2 -> conv3_2 (in-place)
I0104 01:50:17.908087  2215 net.cpp:150] Setting up relu3_2
I0104 01:50:17.908107  2215 net.cpp:157] Top shape: 1 104 56 56 (326144)
I0104 01:50:17.908114  2215 net.cpp:165] Memory required for data: 59609088
I0104 01:50:17.908121  2215 layer_factory.hpp:77] Creating layer conv3_3
I0104 01:50:17.908136  2215 net.cpp:106] Creating Layer conv3_3
I0104 01:50:17.908145  2215 net.cpp:454] conv3_3 <- conv3_2
I0104 01:50:17.908155  2215 net.cpp:411] conv3_3 -> conv3_3
I0104 01:50:17.913238  2215 net.cpp:150] Setting up conv3_3
I0104 01:50:17.913254  2215 net.cpp:157] Top shape: 1 256 56 56 (802816)
I0104 01:50:17.913256  2215 net.cpp:165] Memory required for data: 62820352
I0104 01:50:17.913264  2215 layer_factory.hpp:77] Creating layer relu3_3
I0104 01:50:17.913270  2215 net.cpp:106] Creating Layer relu3_3
I0104 01:50:17.913274  2215 net.cpp:454] relu3_3 <- conv3_3
I0104 01:50:17.913278  2215 net.cpp:397] relu3_3 -> conv3_3 (in-place)
I0104 01:50:17.913923  2215 net.cpp:150] Setting up relu3_3
I0104 01:50:17.913936  2215 net.cpp:157] Top shape: 1 256 56 56 (802816)
I0104 01:50:17.913939  2215 net.cpp:165] Memory required for data: 66031616
I0104 01:50:17.913942  2215 layer_factory.hpp:77] Creating layer pool3
I0104 01:50:17.913950  2215 net.cpp:106] Creating Layer pool3
I0104 01:50:17.913954  2215 net.cpp:454] pool3 <- conv3_3
I0104 01:50:17.913959  2215 net.cpp:411] pool3 -> pool3
I0104 01:50:17.914026  2215 net.cpp:150] Setting up pool3
I0104 01:50:17.914033  2215 net.cpp:157] Top shape: 1 256 28 28 (200704)
I0104 01:50:17.914036  2215 net.cpp:165] Memory required for data: 66834432
I0104 01:50:17.914038  2215 layer_factory.hpp:77] Creating layer conv4_1
I0104 01:50:17.914047  2215 net.cpp:106] Creating Layer conv4_1
I0104 01:50:17.914050  2215 net.cpp:454] conv4_1 <- pool3
I0104 01:50:17.914055  2215 net.cpp:411] conv4_1 -> conv4_1
I0104 01:50:17.917562  2215 net.cpp:150] Setting up conv4_1
I0104 01:50:17.917577  2215 net.cpp:157] Top shape: 1 221 28 28 (173264)
I0104 01:50:17.917580  2215 net.cpp:165] Memory required for data: 67527488
I0104 01:50:17.917587  2215 layer_factory.hpp:77] Creating layer relu4_1
I0104 01:50:17.917593  2215 net.cpp:106] Creating Layer relu4_1
I0104 01:50:17.917596  2215 net.cpp:454] relu4_1 <- conv4_1
I0104 01:50:17.917601  2215 net.cpp:397] relu4_1 -> conv4_1 (in-place)
I0104 01:50:17.917776  2215 net.cpp:150] Setting up relu4_1
I0104 01:50:17.917786  2215 net.cpp:157] Top shape: 1 221 28 28 (173264)
I0104 01:50:17.917793  2215 net.cpp:165] Memory required for data: 68220544
I0104 01:50:17.917795  2215 layer_factory.hpp:77] Creating layer conv4_2
I0104 01:50:17.917803  2215 net.cpp:106] Creating Layer conv4_2
I0104 01:50:17.917807  2215 net.cpp:454] conv4_2 <- conv4_1
I0104 01:50:17.917812  2215 net.cpp:411] conv4_2 -> conv4_2
I0104 01:50:17.922515  2215 net.cpp:150] Setting up conv4_2
I0104 01:50:17.922530  2215 net.cpp:157] Top shape: 1 421 28 28 (330064)
I0104 01:50:17.922534  2215 net.cpp:165] Memory required for data: 69540800
I0104 01:50:17.922546  2215 layer_factory.hpp:77] Creating layer relu4_2
I0104 01:50:17.922552  2215 net.cpp:106] Creating Layer relu4_2
I0104 01:50:17.922555  2215 net.cpp:454] relu4_2 <- conv4_2
I0104 01:50:17.922560  2215 net.cpp:397] relu4_2 -> conv4_2 (in-place)
I0104 01:50:17.922739  2215 net.cpp:150] Setting up relu4_2
I0104 01:50:17.922750  2215 net.cpp:157] Top shape: 1 421 28 28 (330064)
I0104 01:50:17.922754  2215 net.cpp:165] Memory required for data: 70861056
I0104 01:50:17.922756  2215 layer_factory.hpp:77] Creating layer conv4_3
I0104 01:50:17.922765  2215 net.cpp:106] Creating Layer conv4_3
I0104 01:50:17.922767  2215 net.cpp:454] conv4_3 <- conv4_2
I0104 01:50:17.922772  2215 net.cpp:411] conv4_3 -> conv4_3
I0104 01:50:17.929414  2215 net.cpp:150] Setting up conv4_3
I0104 01:50:17.929430  2215 net.cpp:157] Top shape: 1 512 28 28 (401408)
I0104 01:50:17.929433  2215 net.cpp:165] Memory required for data: 72466688
I0104 01:50:17.929440  2215 layer_factory.hpp:77] Creating layer relu4_3
I0104 01:50:17.929445  2215 net.cpp:106] Creating Layer relu4_3
I0104 01:50:17.929450  2215 net.cpp:454] relu4_3 <- conv4_3
I0104 01:50:17.929455  2215 net.cpp:397] relu4_3 -> conv4_3 (in-place)
I0104 01:50:17.930088  2215 net.cpp:150] Setting up relu4_3
I0104 01:50:17.930101  2215 net.cpp:157] Top shape: 1 512 28 28 (401408)
I0104 01:50:17.930104  2215 net.cpp:165] Memory required for data: 74072320
I0104 01:50:17.930107  2215 layer_factory.hpp:77] Creating layer pool4
I0104 01:50:17.930114  2215 net.cpp:106] Creating Layer pool4
I0104 01:50:17.930116  2215 net.cpp:454] pool4 <- conv4_3
I0104 01:50:17.930122  2215 net.cpp:411] pool4 -> pool4
I0104 01:50:17.930189  2215 net.cpp:150] Setting up pool4
I0104 01:50:17.930197  2215 net.cpp:157] Top shape: 1 512 14 14 (100352)
I0104 01:50:17.930199  2215 net.cpp:165] Memory required for data: 74473728
I0104 01:50:17.930202  2215 layer_factory.hpp:77] Creating layer conv5_1
I0104 01:50:17.930210  2215 net.cpp:106] Creating Layer conv5_1
I0104 01:50:17.930214  2215 net.cpp:454] conv5_1 <- pool4
I0104 01:50:17.930219  2215 net.cpp:411] conv5_1 -> conv5_1
I0104 01:50:17.937834  2215 net.cpp:150] Setting up conv5_1
I0104 01:50:17.937851  2215 net.cpp:157] Top shape: 1 512 14 14 (100352)
I0104 01:50:17.937855  2215 net.cpp:165] Memory required for data: 74875136
I0104 01:50:17.937860  2215 layer_factory.hpp:77] Creating layer relu5_1
I0104 01:50:17.937867  2215 net.cpp:106] Creating Layer relu5_1
I0104 01:50:17.937870  2215 net.cpp:454] relu5_1 <- conv5_1
I0104 01:50:17.937875  2215 net.cpp:397] relu5_1 -> conv5_1 (in-place)
I0104 01:50:17.938058  2215 net.cpp:150] Setting up relu5_1
I0104 01:50:17.938068  2215 net.cpp:157] Top shape: 1 512 14 14 (100352)
I0104 01:50:17.938071  2215 net.cpp:165] Memory required for data: 75276544
I0104 01:50:17.938074  2215 layer_factory.hpp:77] Creating layer conv5_2
I0104 01:50:17.938082  2215 net.cpp:106] Creating Layer conv5_2
I0104 01:50:17.938086  2215 net.cpp:454] conv5_2 <- conv5_1
I0104 01:50:17.938091  2215 net.cpp:411] conv5_2 -> conv5_2
I0104 01:50:17.945618  2215 net.cpp:150] Setting up conv5_2
I0104 01:50:17.945636  2215 net.cpp:157] Top shape: 1 512 14 14 (100352)
I0104 01:50:17.945639  2215 net.cpp:165] Memory required for data: 75677952
I0104 01:50:17.945647  2215 layer_factory.hpp:77] Creating layer relu5_2
I0104 01:50:17.945652  2215 net.cpp:106] Creating Layer relu5_2
I0104 01:50:17.945655  2215 net.cpp:454] relu5_2 <- conv5_2
I0104 01:50:17.945662  2215 net.cpp:397] relu5_2 -> conv5_2 (in-place)
I0104 01:50:17.945835  2215 net.cpp:150] Setting up relu5_2
I0104 01:50:17.945845  2215 net.cpp:157] Top shape: 1 512 14 14 (100352)
I0104 01:50:17.945848  2215 net.cpp:165] Memory required for data: 76079360
I0104 01:50:17.945852  2215 layer_factory.hpp:77] Creating layer conv5_3
I0104 01:50:17.945860  2215 net.cpp:106] Creating Layer conv5_3
I0104 01:50:17.945864  2215 net.cpp:454] conv5_3 <- conv5_2
I0104 01:50:17.945869  2215 net.cpp:411] conv5_3 -> conv5_3
I0104 01:50:17.953410  2215 net.cpp:150] Setting up conv5_3
I0104 01:50:17.953428  2215 net.cpp:157] Top shape: 1 512 14 14 (100352)
I0104 01:50:17.953430  2215 net.cpp:165] Memory required for data: 76480768
I0104 01:50:17.953438  2215 layer_factory.hpp:77] Creating layer relu5_3
I0104 01:50:17.953444  2215 net.cpp:106] Creating Layer relu5_3
I0104 01:50:17.953447  2215 net.cpp:454] relu5_3 <- conv5_3
I0104 01:50:17.953452  2215 net.cpp:397] relu5_3 -> conv5_3 (in-place)
I0104 01:50:17.954573  2215 net.cpp:150] Setting up relu5_3
I0104 01:50:17.954587  2215 net.cpp:157] Top shape: 1 512 14 14 (100352)
I0104 01:50:17.954591  2215 net.cpp:165] Memory required for data: 76882176
I0104 01:50:17.954593  2215 layer_factory.hpp:77] Creating layer conv5_3_relu5_3_0_split
I0104 01:50:17.954602  2215 net.cpp:106] Creating Layer conv5_3_relu5_3_0_split
I0104 01:50:17.954604  2215 net.cpp:454] conv5_3_relu5_3_0_split <- conv5_3
I0104 01:50:17.954610  2215 net.cpp:411] conv5_3_relu5_3_0_split -> conv5_3_relu5_3_0_split_0
I0104 01:50:17.954618  2215 net.cpp:411] conv5_3_relu5_3_0_split -> conv5_3_relu5_3_0_split_1
I0104 01:50:17.954697  2215 net.cpp:150] Setting up conv5_3_relu5_3_0_split
I0104 01:50:17.954705  2215 net.cpp:157] Top shape: 1 512 14 14 (100352)
I0104 01:50:17.954710  2215 net.cpp:157] Top shape: 1 512 14 14 (100352)
I0104 01:50:17.954711  2215 net.cpp:165] Memory required for data: 77684992
I0104 01:50:17.954715  2215 layer_factory.hpp:77] Creating layer rpn_conv/3x3
I0104 01:50:17.954725  2215 net.cpp:106] Creating Layer rpn_conv/3x3
I0104 01:50:17.954730  2215 net.cpp:454] rpn_conv/3x3 <- conv5_3_relu5_3_0_split_0
I0104 01:50:17.954735  2215 net.cpp:411] rpn_conv/3x3 -> rpn/output
I0104 01:50:17.986500  2215 net.cpp:150] Setting up rpn_conv/3x3
I0104 01:50:17.986520  2215 net.cpp:157] Top shape: 1 512 14 14 (100352)
I0104 01:50:17.986522  2215 net.cpp:165] Memory required for data: 78086400
I0104 01:50:17.986529  2215 layer_factory.hpp:77] Creating layer rpn_relu/3x3
I0104 01:50:17.986542  2215 net.cpp:106] Creating Layer rpn_relu/3x3
I0104 01:50:17.986546  2215 net.cpp:454] rpn_relu/3x3 <- rpn/output
I0104 01:50:17.986552  2215 net.cpp:397] rpn_relu/3x3 -> rpn/output (in-place)
I0104 01:50:17.986740  2215 net.cpp:150] Setting up rpn_relu/3x3
I0104 01:50:17.986750  2215 net.cpp:157] Top shape: 1 512 14 14 (100352)
I0104 01:50:17.986755  2215 net.cpp:165] Memory required for data: 78487808
I0104 01:50:17.986758  2215 layer_factory.hpp:77] Creating layer rpn/output_rpn_relu/3x3_0_split
I0104 01:50:17.986764  2215 net.cpp:106] Creating Layer rpn/output_rpn_relu/3x3_0_split
I0104 01:50:17.986769  2215 net.cpp:454] rpn/output_rpn_relu/3x3_0_split <- rpn/output
I0104 01:50:17.986774  2215 net.cpp:411] rpn/output_rpn_relu/3x3_0_split -> rpn/output_rpn_relu/3x3_0_split_0
I0104 01:50:17.986781  2215 net.cpp:411] rpn/output_rpn_relu/3x3_0_split -> rpn/output_rpn_relu/3x3_0_split_1
I0104 01:50:17.986850  2215 net.cpp:150] Setting up rpn/output_rpn_relu/3x3_0_split
I0104 01:50:17.986857  2215 net.cpp:157] Top shape: 1 512 14 14 (100352)
I0104 01:50:17.986860  2215 net.cpp:157] Top shape: 1 512 14 14 (100352)
I0104 01:50:17.986862  2215 net.cpp:165] Memory required for data: 79290624
I0104 01:50:17.986865  2215 layer_factory.hpp:77] Creating layer rpn_cls_score
I0104 01:50:17.986876  2215 net.cpp:106] Creating Layer rpn_cls_score
I0104 01:50:17.986881  2215 net.cpp:454] rpn_cls_score <- rpn/output_rpn_relu/3x3_0_split_0
I0104 01:50:17.986886  2215 net.cpp:411] rpn_cls_score -> rpn_cls_score
I0104 01:50:17.989084  2215 net.cpp:150] Setting up rpn_cls_score
I0104 01:50:17.989099  2215 net.cpp:157] Top shape: 1 18 14 14 (3528)
I0104 01:50:17.989102  2215 net.cpp:165] Memory required for data: 79304736
I0104 01:50:17.989109  2215 layer_factory.hpp:77] Creating layer rpn_bbox_pred
I0104 01:50:17.989120  2215 net.cpp:106] Creating Layer rpn_bbox_pred
I0104 01:50:17.989122  2215 net.cpp:454] rpn_bbox_pred <- rpn/output_rpn_relu/3x3_0_split_1
I0104 01:50:17.989130  2215 net.cpp:411] rpn_bbox_pred -> rpn_bbox_pred
I0104 01:50:17.991405  2215 net.cpp:150] Setting up rpn_bbox_pred
I0104 01:50:17.991418  2215 net.cpp:157] Top shape: 1 36 14 14 (7056)
I0104 01:50:17.991425  2215 net.cpp:165] Memory required for data: 79332960
I0104 01:50:17.991430  2215 layer_factory.hpp:77] Creating layer rpn_cls_score_reshape
I0104 01:50:17.991447  2215 net.cpp:106] Creating Layer rpn_cls_score_reshape
I0104 01:50:17.991452  2215 net.cpp:454] rpn_cls_score_reshape <- rpn_cls_score
I0104 01:50:17.991458  2215 net.cpp:411] rpn_cls_score_reshape -> rpn_cls_score_reshape
I0104 01:50:17.991511  2215 net.cpp:150] Setting up rpn_cls_score_reshape
I0104 01:50:17.991519  2215 net.cpp:157] Top shape: 1 2 126 14 (3528)
I0104 01:50:17.991521  2215 net.cpp:165] Memory required for data: 79347072
I0104 01:50:17.991524  2215 layer_factory.hpp:77] Creating layer rpn_cls_prob
I0104 01:50:17.991531  2215 net.cpp:106] Creating Layer rpn_cls_prob
I0104 01:50:17.991535  2215 net.cpp:454] rpn_cls_prob <- rpn_cls_score_reshape
I0104 01:50:17.991541  2215 net.cpp:411] rpn_cls_prob -> rpn_cls_prob
I0104 01:50:17.991811  2215 net.cpp:150] Setting up rpn_cls_prob
I0104 01:50:17.991822  2215 net.cpp:157] Top shape: 1 2 126 14 (3528)
I0104 01:50:17.991824  2215 net.cpp:165] Memory required for data: 79361184
I0104 01:50:17.991827  2215 layer_factory.hpp:77] Creating layer rpn_cls_prob_reshape
I0104 01:50:17.991834  2215 net.cpp:106] Creating Layer rpn_cls_prob_reshape
I0104 01:50:17.991838  2215 net.cpp:454] rpn_cls_prob_reshape <- rpn_cls_prob
I0104 01:50:17.991843  2215 net.cpp:411] rpn_cls_prob_reshape -> rpn_cls_prob_reshape
I0104 01:50:17.991879  2215 net.cpp:150] Setting up rpn_cls_prob_reshape
I0104 01:50:17.991888  2215 net.cpp:157] Top shape: 1 18 14 14 (3528)
I0104 01:50:17.991889  2215 net.cpp:165] Memory required for data: 79375296
I0104 01:50:17.991892  2215 layer_factory.hpp:77] Creating layer proposal
I0104 01:50:18.148811  2215 net.cpp:106] Creating Layer proposal
I0104 01:50:18.148847  2215 net.cpp:454] proposal <- rpn_cls_prob_reshape
I0104 01:50:18.148861  2215 net.cpp:454] proposal <- rpn_bbox_pred
I0104 01:50:18.148869  2215 net.cpp:454] proposal <- im_info
I0104 01:50:18.148880  2215 net.cpp:411] proposal -> rois
I0104 01:50:18.151124  2215 net.cpp:150] Setting up proposal
I0104 01:50:18.151155  2215 net.cpp:157] Top shape: 1 5 (5)
I0104 01:50:18.151163  2215 net.cpp:165] Memory required for data: 79375316
I0104 01:50:18.151172  2215 layer_factory.hpp:77] Creating layer roi_pool5
I0104 01:50:18.151195  2215 net.cpp:106] Creating Layer roi_pool5
I0104 01:50:18.151204  2215 net.cpp:454] roi_pool5 <- conv5_3_relu5_3_0_split_1
I0104 01:50:18.151214  2215 net.cpp:454] roi_pool5 <- rois
I0104 01:50:18.151227  2215 net.cpp:411] roi_pool5 -> pool5
I0104 01:50:18.151247  2215 roi_pooling_layer.cpp:30] Spatial scale: 0.0625
I0104 01:50:18.151410  2215 net.cpp:150] Setting up roi_pool5
I0104 01:50:18.151424  2215 net.cpp:157] Top shape: 1 512 7 7 (25088)
I0104 01:50:18.151430  2215 net.cpp:165] Memory required for data: 79475668
I0104 01:50:18.151437  2215 layer_factory.hpp:77] Creating layer fc6
I0104 01:50:18.151453  2215 net.cpp:106] Creating Layer fc6
I0104 01:50:18.151461  2215 net.cpp:454] fc6 <- pool5
I0104 01:50:18.151471  2215 net.cpp:411] fc6 -> fc6
I0104 01:50:18.452297  2215 net.cpp:150] Setting up fc6
I0104 01:50:18.452337  2215 net.cpp:157] Top shape: 1 4096 (4096)
I0104 01:50:18.452342  2215 net.cpp:165] Memory required for data: 79492052
I0104 01:50:18.452363  2215 layer_factory.hpp:77] Creating layer relu6
I0104 01:50:18.452374  2215 net.cpp:106] Creating Layer relu6
I0104 01:50:18.452379  2215 net.cpp:454] relu6 <- fc6
I0104 01:50:18.452388  2215 net.cpp:397] relu6 -> fc6 (in-place)
I0104 01:50:18.453325  2215 net.cpp:150] Setting up relu6
I0104 01:50:18.453343  2215 net.cpp:157] Top shape: 1 4096 (4096)
I0104 01:50:18.453346  2215 net.cpp:165] Memory required for data: 79508436
I0104 01:50:18.453351  2215 layer_factory.hpp:77] Creating layer drop6
I0104 01:50:18.453372  2215 net.cpp:106] Creating Layer drop6
I0104 01:50:18.453377  2215 net.cpp:454] drop6 <- fc6
I0104 01:50:18.453383  2215 net.cpp:397] drop6 -> fc6 (in-place)
I0104 01:50:18.453445  2215 net.cpp:150] Setting up drop6
I0104 01:50:18.453455  2215 net.cpp:157] Top shape: 1 4096 (4096)
I0104 01:50:18.453459  2215 net.cpp:165] Memory required for data: 79524820
I0104 01:50:18.453462  2215 layer_factory.hpp:77] Creating layer fc7
I0104 01:50:18.453474  2215 net.cpp:106] Creating Layer fc7
I0104 01:50:18.453482  2215 net.cpp:454] fc7 <- fc6
I0104 01:50:18.453490  2215 net.cpp:411] fc7 -> fc7
I0104 01:50:18.504482  2215 net.cpp:150] Setting up fc7
I0104 01:50:18.504544  2215 net.cpp:157] Top shape: 1 4096 (4096)
I0104 01:50:18.504551  2215 net.cpp:165] Memory required for data: 79541204
I0104 01:50:18.504571  2215 layer_factory.hpp:77] Creating layer relu7
I0104 01:50:18.504592  2215 net.cpp:106] Creating Layer relu7
I0104 01:50:18.504601  2215 net.cpp:454] relu7 <- fc7
I0104 01:50:18.504613  2215 net.cpp:397] relu7 -> fc7 (in-place)
I0104 01:50:18.505062  2215 net.cpp:150] Setting up relu7
I0104 01:50:18.505082  2215 net.cpp:157] Top shape: 1 4096 (4096)
I0104 01:50:18.505087  2215 net.cpp:165] Memory required for data: 79557588
I0104 01:50:18.505094  2215 layer_factory.hpp:77] Creating layer drop7
I0104 01:50:18.505107  2215 net.cpp:106] Creating Layer drop7
I0104 01:50:18.505116  2215 net.cpp:454] drop7 <- fc7
I0104 01:50:18.505126  2215 net.cpp:397] drop7 -> fc7 (in-place)
I0104 01:50:18.505208  2215 net.cpp:150] Setting up drop7
I0104 01:50:18.505223  2215 net.cpp:157] Top shape: 1 4096 (4096)
I0104 01:50:18.505228  2215 net.cpp:165] Memory required for data: 79573972
I0104 01:50:18.505234  2215 layer_factory.hpp:77] Creating layer fc7_drop7_0_split
I0104 01:50:18.505245  2215 net.cpp:106] Creating Layer fc7_drop7_0_split
I0104 01:50:18.505255  2215 net.cpp:454] fc7_drop7_0_split <- fc7
I0104 01:50:18.505266  2215 net.cpp:411] fc7_drop7_0_split -> fc7_drop7_0_split_0
I0104 01:50:18.505281  2215 net.cpp:411] fc7_drop7_0_split -> fc7_drop7_0_split_1
I0104 01:50:18.505404  2215 net.cpp:150] Setting up fc7_drop7_0_split
I0104 01:50:18.505419  2215 net.cpp:157] Top shape: 1 4096 (4096)
I0104 01:50:18.505425  2215 net.cpp:157] Top shape: 1 4096 (4096)
I0104 01:50:18.505430  2215 net.cpp:165] Memory required for data: 79606740
I0104 01:50:18.505436  2215 layer_factory.hpp:77] Creating layer cls_score
I0104 01:50:18.505452  2215 net.cpp:106] Creating Layer cls_score
I0104 01:50:18.505461  2215 net.cpp:454] cls_score <- fc7_drop7_0_split_0
I0104 01:50:18.505473  2215 net.cpp:411] cls_score -> cls_score
I0104 01:50:18.507864  2215 net.cpp:150] Setting up cls_score
I0104 01:50:18.507881  2215 net.cpp:157] Top shape: 1 21 (21)
I0104 01:50:18.507886  2215 net.cpp:165] Memory required for data: 79606824
I0104 01:50:18.507899  2215 layer_factory.hpp:77] Creating layer bbox_pred
I0104 01:50:18.507912  2215 net.cpp:106] Creating Layer bbox_pred
I0104 01:50:18.507920  2215 net.cpp:454] bbox_pred <- fc7_drop7_0_split_1
I0104 01:50:18.507930  2215 net.cpp:411] bbox_pred -> bbox_pred
I0104 01:50:18.516772  2215 net.cpp:150] Setting up bbox_pred
I0104 01:50:18.516798  2215 net.cpp:157] Top shape: 1 84 (84)
I0104 01:50:18.516803  2215 net.cpp:165] Memory required for data: 79607160
I0104 01:50:18.516813  2215 layer_factory.hpp:77] Creating layer cls_prob
I0104 01:50:18.516824  2215 net.cpp:106] Creating Layer cls_prob
I0104 01:50:18.516829  2215 net.cpp:454] cls_prob <- cls_score
I0104 01:50:18.516837  2215 net.cpp:411] cls_prob -> cls_prob
I0104 01:50:18.517967  2215 net.cpp:150] Setting up cls_prob
I0104 01:50:18.517988  2215 net.cpp:157] Top shape: 1 21 (21)
I0104 01:50:18.517993  2215 net.cpp:165] Memory required for data: 79607244
I0104 01:50:18.517998  2215 net.cpp:228] cls_prob does not need backward computation.
I0104 01:50:18.518004  2215 net.cpp:228] bbox_pred does not need backward computation.
I0104 01:50:18.518009  2215 net.cpp:228] cls_score does not need backward computation.
I0104 01:50:18.518014  2215 net.cpp:228] fc7_drop7_0_split does not need backward computation.
…
