…
snapshot_prefix: "vgg16_faster_rcnn"
average_loss: 100
iter_size: 2
I1115 10:27:31.339504 34378 solver.cpp:77] Creating training net from train_net file: models/pascal_voc/VGG16/faster_rcnn_end2end/train.prototxt
I1115 10:27:31.340169 34378 net.cpp:51] Initializing net from parameters: 
name: "VGG_ILSVRC_16_layers"
state {
  phase: TRAIN
}
layer {
  name: "input-data"
  type: "Python"
  top: "data"
  top: "im_info"
  top: "gt_boxes"
  python_param {
    module: "roi_data_layer.layer"
    layer: "RoIDataLayer"
    param_str: "\'num_classes\': 21"
  }
}
layer {
  name: "conv1_1"
  type: "Convolution"
  bottom: "data"
  top: "conv1_1"
  param {
    lr_mult: 0
    decay_mult: 0
  }
  param {
    lr_mult: 0
    decay_mult: 0
  }
  convolution_param {
    num_output: 64
    pad: 1
    kernel_size: 3
  }
}
layer {
  name: "relu1_1"
  type: "ReLU"
  bottom: "conv1_1"
  top: "conv1_1"
}
layer {
  name: "conv1_2"
  type: "Convolution"
  bottom: "conv1_1"
  top: "conv1_2"
  param {
    lr_mult: 0
    decay_mult: 0
  }
  param {
    lr_mult: 0
    decay_mult: 0
  }
  convolution_param {
    num_output: 64
    pad: 1
    kernel_size: 3
  }
}
layer {
  name: "relu1_2"
  type: "ReLU"
  bottom: "conv1_2"
  top: "conv1_2"
}
layer {
  name: "pool1"
  type: "Pooling"
  bottom: "conv1_2"
  top: "pool1"
  pooling_param {
    pool: MAX
    kernel_size: 2
    stride: 2
  }
}
layer {
  name: "conv2_1"
  type: "Convolution"
  bottom: "pool1"
  top: "conv2_1"
  param {
    lr_mult: 0
    decay_mult: 0
  }
  param {
    lr_mult: 0
    decay_mult: 0
  }
  convolution_param {
    num_output: 128
    pad: 1
    kernel_size: 3
  }
}
layer {
  name: "relu2_1"
  type: "ReLU"
  bottom: "conv2_1"
  top: "conv2_1"
}
layer {
  name: "conv2_2"
  type: "Convolution"
  bottom: "conv2_1"
  top: "conv2_2"
  param {
    lr_mult: 0
    decay_mult: 0
  }
  param {
    lr_mult: 0
    decay_mult: 0
  }
  convolution_param {
    num_output: 128
    pad: 1
    kernel_size: 3
  }
}
layer {
  name: "relu2_2"
  type: "ReLU"
  bottom: "conv2_2"
  top: "conv2_2"
}
layer {
  name: "pool2"
  type: "Pooling"
  bottom: "conv2_2"
  top: "pool2"
  pooling_param {
    pool: MAX
    kernel_size: 2
    stride: 2
  }
}
layer {
  name: "conv3_1"
  type: "Convolution"
  bottom: "pool2"
  top: "conv3_1"
  param {
    lr_mult: 1
  }
  param {
    lr_mult: 2
  }
  convolution_param {
    num_output: 256
    pad: 1
    kernel_size: 3
  }
}
layer {
  name: "relu3_1"
  type: "ReLU"
  bottom: "conv3_1"
  top: "conv3_1"
}
layer {
  name: "conv3_2"
  type: "Convolution"
  bottom: "conv3_1"
  top: "conv3_2"
  param {
    lr_mult: 1
  }
  param {
    lr_mult: 2
  }
  convolution_param {
    num_output: 256
    pad: 1
    kernel_size: 3
  }
}
layer {
  name: "relu3_2"
  type: "ReLU"
  bottom: "conv3_2"
  top: "conv3_2"
}
layer {
  name: "conv3_3"
  type: "Convolution"
  bottom: "conv3_2"
  top: "conv3_3"
  param {
    lr_mult: 1
  }
  param {
    lr_mult: 2
  }
  convolution_param {
    num_output: 256
    pad: 1
    kernel_size: 3
  }
}
layer {
  name: "relu3_3"
  type: "ReLU"
  bottom: "conv3_3"
  top: "conv3_3"
}
layer {
  name: "pool3"
  type: "Pooling"
  bottom: "conv3_3"
  top: "pool3"
  pooling_param {
    pool: MAX
    kernel_size: 2
    stride: 2
  }
}
layer {
  name: "conv4_1"
  type: "Convolution"
  bottom: "pool3"
  top: "conv4_1"
  param {
    lr_mult: 1
  }
  param {
    lr_mult: 2
  }
  convolution_param {
    num_output: 512
    pad: 1
    kernel_size: 3
  }
}
layer {
  name: "relu4_1"
  type: "ReLU"
  bottom: "conv4_1"
  top: "conv4_1"
}
layer {
  name: "conv4_2"
  type: "Convolution"
  bottom: "conv4_1"
  top: "conv4_2"
  param {
    lr_mult: 1
  }
  param {
    lr_mult: 2
  }
  convolution_param {
    num_output: 512
    pad: 1
    kernel_size: 3
  }
}
layer {
  name: "relu4_2"
  type: "ReLU"
  bottom: "conv4_2"
  top: "conv4_2"
}
layer {
  name: "conv4_3"
  type: "Convolution"
  bottom: "conv4_2"
  top: "conv4_3"
  param {
    lr_mult: 1
  }
  param {
    lr_mult: 2
  }
  convolution_param {
    num_output: 512
    pad: 1
    kernel_size: 3
  }
}
layer {
  name: "relu4_3"
  type: "ReLU"
  bottom: "conv4_3"
  top: "conv4_3"
}
layer {
  name: "pool4"
  type: "Pooling"
  bottom: "conv4_3"
  top: "pool4"
  pooling_param {
    pool: MAX
    kernel_size: 2
    stride: 2
  }
}
layer {
  name: "conv5_1"
  type: "Convolution"
  bottom: "pool4"
  top: "conv5_1"
  param {
    lr_mult: 1
  }
  param {
    lr_mult: 2
  }
  convolution_param {
    num_output: 512
    pad: 1
    kernel_size: 3
  }
}
layer {
  name: "relu5_1"
  type: "ReLU"
  bottom: "conv5_1"
  top: "conv5_1"
}
layer {
  name: "conv5_2"
  type: "Convolution"
  bottom: "conv5_1"
  top: "conv5_2"
  param {
    lr_mult: 1
  }
  param {
    lr_mult: 2
  }
  convolution_param {
    num_output: 512
    pad: 1
    kernel_size: 3
  }
}
layer {
  name: "relu5_2"
  type: "ReLU"
  bottom: "conv5_2"
  top: "conv5_2"
}
layer {
  name: "conv5_3"
  type: "Convolution"
  bottom: "conv5_2"
  top: "conv5_3"
  param {
    lr_mult: 1
  }
  param {
    lr_mult: 2
  }
  convolution_param {
    num_output: 512
    pad: 1
    kernel_size: 3
  }
}
layer {
  name: "relu5_3"
  type: "ReLU"
  bottom: "conv5_3"
  top: "conv5_3"
}
layer {
  name: "rpn_conv/3x3"
  type: "Convolution"
  bottom: "conv5_3"
  top: "rpn/output"
  param {
    lr_mult: 1
  }
  param {
    lr_mult: 2
  }
  convolution_param {
    num_output: 512
    pad: 1
    kernel_size: 3
    stride: 1
    weight_filler {
      type: "gaussian"
      std: 0.01
    }
    bias_filler {
      type: "constant"
      value: 0
    }
  }
}
layer {
  name: "rpn_relu/3x3"
  type: "ReLU"
  bottom: "rpn/output"
  top: "rpn/output"
}
layer {
  name: "rpn_cls_score"
  type: "Convolution"
  bottom: "rpn/output"
  top: "rpn_cls_score"
  param {
    lr_mult: 1
  }
  param {
    lr_mult: 2
  }
  convolution_param {
    num_output: 18
    pad: 0
    kernel_size: 1
    stride: 1
    weight_filler {
      type: "gaussian"
      std: 0.01
    }
    bias_filler {
      type: "constant"
      value: 0
    }
  }
}
layer {
  name: "rpn_bbox_pred"
  type: "Convolution"
  bottom: "rpn/output"
  top: "rpn_bbox_pred"
  param {
    lr_mult: 1
  }
  param {
    lr_mult: 2
  }
  convolution_param {
    num_output: 36
    pad: 0
    kernel_size: 1
    stride: 1
    weight_filler {
      type: "gaussian"
      std: 0.01
    }
    bias_filler {
      type: "constant"
      value: 0
    }
  }
}
layer {
  name: "rpn_cls_score_reshape"
  type: "Reshape"
  bottom: "rpn_cls_score"
  top: "rpn_cls_score_reshape"
  reshape_param {
    shape {
      dim: 0
      dim: 2
      dim: -1
      dim: 0
    }
  }
}
layer {
  name: "rpn-data"
  type: "Python"
  bottom: "rpn_cls_score"
  bottom: "gt_boxes"
  bottom: "im_info"
  bottom: "data"
  top: "rpn_labels"
  top: "rpn_bbox_targets"
  top: "rpn_bbox_inside_weights"
  top: "rpn_bbox_outside_weights"
  python_param {
    module: "rpn.anchor_target_layer"
    layer: "AnchorTargetLayer"
    param_str: "\'feat_stride\': 16"
  }
}
layer {
  name: "rpn_loss_cls"
  type: "SoftmaxWithLoss"
  bottom: "rpn_cls_score_reshape"
  bottom: "rpn_labels"
  top: "rpn_cls_loss"
  loss_weight: 1
  propagate_down: true
  propagate_down: false
  loss_param {
    ignore_label: -1
    normalize: true
  }
}
layer {
  name: "rpn_loss_bbox"
  type: "SmoothL1Loss"
  bottom: "rpn_bbox_pred"
  bottom: "rpn_bbox_targets"
  bottom: "rpn_bbox_inside_weights"
  bottom: "rpn_bbox_outside_weights"
  top: "rpn_loss_bbox"
  loss_weight: 1
  smooth_l1_loss_param {
    sigma: 3
  }
}
layer {
  name: "rpn_cls_prob"
  type: "Softmax"
  bottom: "rpn_cls_score_reshape"
  top: "rpn_cls_prob"
}
layer {
  name: "rpn_cls_prob_reshape"
  type: "Reshape"
  bottom: "rpn_cls_prob"
  top: "rpn_cls_prob_reshape"
  reshape_param {
    shape {
      dim: 0
      dim: 18
      dim: -1
      dim: 0
    }
  }
}
layer {
  name: "proposal"
  type: "Python"
  bottom: "rpn_cls_prob_reshape"
  bottom: "rpn_bbox_pred"
  bottom: "im_info"
  top: "rpn_rois"
  python_param {
    module: "rpn.proposal_layer"
    layer: "ProposalLayer"
    param_str: "\'feat_stride\': 16"
  }
}
layer {
  name: "roi-data"
  type: "Python"
  bottom: "rpn_rois"
  bottom: "gt_boxes"
  top: "rois"
  top: "labels"
  top: "bbox_targets"
  top: "bbox_inside_weights"
  top: "bbox_outside_weights"
  python_param {
    module: "rpn.proposal_target_layer"
    layer: "ProposalTargetLayer"
    param_str: "\'num_classes\': 21"
  }
}
layer {
  name: "roi_pool5"
  type: "ROIPooling"
  bottom: "conv5_3"
  bottom: "rois"
  top: "pool5"
  roi_pooling_param {
    pooled_h: 7
    pooled_w: 7
    spatial_scale: 0.0625
  }
}
layer {
  name: "fc6"
  type: "InnerProduct"
  bottom: "pool5"
  top: "fc6"
  param {
    lr_mult: 1
  }
  param {
    lr_mult: 2
  }
  inner_product_param {
    num_output: 4096
  }
}
layer {
  name: "relu6"
  type: "ReLU"
  bottom: "fc6"
  top: "fc6"
}
layer {
  name: "drop6"
  type: "Dropout"
  bottom: "fc6"
  top: "fc6"
  dropout_param {
    dropout_ratio: 0.5
  }
}
layer {
  name: "fc7"
  type: "InnerProduct"
  bottom: "fc6"
  top: "fc7"
  param {
    lr_mult: 1
  }
  param {
    lr_mult: 2
  }
  inner_product_param {
    num_output: 4096
  }
}
layer {
  name: "relu7"
  type: "ReLU"
  bottom: "fc7"
  top: "fc7"
}
layer {
  name: "drop7"
  type: "Dropout"
  bottom: "fc7"
  top: "fc7"
  dropout_param {
    dropout_ratio: 0.5
  }
}
layer {
  name: "cls_score"
  type: "InnerProduct"
  bottom: "fc7"
  top: "cls_score"
  param {
    lr_mult: 1
  }
  param {
    lr_mult: 2
  }
  inner_product_param {
    num_output: 21
    weight_filler {
      type: "gaussian"
      std: 0.01
    }
    bias_filler {
      type: "constant"
      value: 0
    }
  }
}
layer {
  name: "bbox_pred"
  type: "InnerProduct"
  bottom: "fc7"
  top: "bbox_pred"
  param {
    lr_mult: 1
  }
  param {
    lr_mult: 2
  }
  inner_product_param {
    num_output: 84
    weight_filler {
      type: "gaussian"
      std: 0.001
    }
    bias_filler {
      type: "constant"
      value: 0
    }
  }
}
layer {
  name: "loss_cls"
  type: "SoftmaxWithLoss"
  bottom: "cls_score"
  bottom: "labels"
  top: "loss_cls"
  loss_weight: 1
  propagate_down: true
  propagate_down: false
}
layer {
  name: "loss_bbox"
  type: "SmoothL1Loss"
  bottom: "bbox_pred"
  bottom: "bbox_targets"
  bottom: "bbox_inside_weights"
  bottom: "bbox_outside_weights"
  top: "loss_bbox"
  loss_weight: 1
}
I1115 10:27:31.340461 34378 layer_factory.hpp:77] Creating layer input-data
I1115 10:27:31.353754 34378 net.cpp:84] Creating Layer input-data
I1115 10:27:31.353782 34378 net.cpp:380] input-data -> data
I1115 10:27:31.353790 34378 net.cpp:380] input-data -> im_info
I1115 10:27:31.353794 34378 net.cpp:380] input-data -> gt_boxes
RoiDataLayer: name_to_top: {'gt_boxes': 2, 'data': 0, 'im_info': 1}
I1115 10:27:31.356287 34378 net.cpp:122] Setting up input-data
I1115 10:27:31.356298 34378 net.cpp:129] Top shape: 1 3 600 1000 (1800000)
I1115 10:27:31.356318 34378 net.cpp:129] Top shape: 1 3 (3)
I1115 10:27:31.356322 34378 net.cpp:129] Top shape: 1 4 (4)
I1115 10:27:31.356323 34378 net.cpp:137] Memory required for data: 7200028
I1115 10:27:31.356341 34378 layer_factory.hpp:77] Creating layer data_input-data_0_split
I1115 10:27:31.356348 34378 net.cpp:84] Creating Layer data_input-data_0_split
I1115 10:27:31.356350 34378 net.cpp:406] data_input-data_0_split <- data
I1115 10:27:31.356355 34378 net.cpp:380] data_input-data_0_split -> data_input-data_0_split_0
I1115 10:27:31.356362 34378 net.cpp:380] data_input-data_0_split -> data_input-data_0_split_1
I1115 10:27:31.356391 34378 net.cpp:122] Setting up data_input-data_0_split
I1115 10:27:31.356396 34378 net.cpp:129] Top shape: 1 3 600 1000 (1800000)
I1115 10:27:31.356400 34378 net.cpp:129] Top shape: 1 3 600 1000 (1800000)
I1115 10:27:31.356401 34378 net.cpp:137] Memory required for data: 21600028
I1115 10:27:31.356403 34378 layer_factory.hpp:77] Creating layer im_info_input-data_1_split
I1115 10:27:31.356408 34378 net.cpp:84] Creating Layer im_info_input-data_1_split
I1115 10:27:31.356410 34378 net.cpp:406] im_info_input-data_1_split <- im_info
I1115 10:27:31.356415 34378 net.cpp:380] im_info_input-data_1_split -> im_info_input-data_1_split_0
I1115 10:27:31.356420 34378 net.cpp:380] im_info_input-data_1_split -> im_info_input-data_1_split_1
I1115 10:27:31.356456 34378 net.cpp:122] Setting up im_info_input-data_1_split
I1115 10:27:31.356461 34378 net.cpp:129] Top shape: 1 3 (3)
I1115 10:27:31.356463 34378 net.cpp:129] Top shape: 1 3 (3)
I1115 10:27:31.356464 34378 net.cpp:137] Memory required for data: 21600052
I1115 10:27:31.356467 34378 layer_factory.hpp:77] Creating layer gt_boxes_input-data_2_split
I1115 10:27:31.356470 34378 net.cpp:84] Creating Layer gt_boxes_input-data_2_split
I1115 10:27:31.356472 34378 net.cpp:406] gt_boxes_input-data_2_split <- gt_boxes
I1115 10:27:31.356477 34378 net.cpp:380] gt_boxes_input-data_2_split -> gt_boxes_input-data_2_split_0
I1115 10:27:31.356482 34378 net.cpp:380] gt_boxes_input-data_2_split -> gt_boxes_input-data_2_split_1
I1115 10:27:31.356504 34378 net.cpp:122] Setting up gt_boxes_input-data_2_split
I1115 10:27:31.356509 34378 net.cpp:129] Top shape: 1 4 (4)
I1115 10:27:31.356513 34378 net.cpp:129] Top shape: 1 4 (4)
I1115 10:27:31.356513 34378 net.cpp:137] Memory required for data: 21600084
I1115 10:27:31.356515 34378 layer_factory.hpp:77] Creating layer conv1_1
I1115 10:27:31.356524 34378 net.cpp:84] Creating Layer conv1_1
I1115 10:27:31.356528 34378 net.cpp:406] conv1_1 <- data_input-data_0_split_0
I1115 10:27:31.356533 34378 net.cpp:380] conv1_1 -> conv1_1
I1115 10:27:31.852227 34378 net.cpp:122] Setting up conv1_1
I1115 10:27:31.852272 34378 net.cpp:129] Top shape: 1 64 600 1000 (38400000)
I1115 10:27:31.852275 34378 net.cpp:137] Memory required for data: 175200084
I1115 10:27:31.852293 34378 layer_factory.hpp:77] Creating layer relu1_1
I1115 10:27:31.852319 34378 net.cpp:84] Creating Layer relu1_1
I1115 10:27:31.852324 34378 net.cpp:406] relu1_1 <- conv1_1
I1115 10:27:31.852329 34378 net.cpp:367] relu1_1 -> conv1_1 (in-place)
I1115 10:27:31.853199 34378 net.cpp:122] Setting up relu1_1
I1115 10:27:31.853225 34378 net.cpp:129] Top shape: 1 64 600 1000 (38400000)
I1115 10:27:31.853229 34378 net.cpp:137] Memory required for data: 328800084
I1115 10:27:31.853230 34378 layer_factory.hpp:77] Creating layer conv1_2
I1115 10:27:31.853255 34378 net.cpp:84] Creating Layer conv1_2
I1115 10:27:31.853256 34378 net.cpp:406] conv1_2 <- conv1_1
I1115 10:27:31.853262 34378 net.cpp:380] conv1_2 -> conv1_2
I1115 10:27:31.857182 34378 net.cpp:122] Setting up conv1_2
I1115 10:27:31.857193 34378 net.cpp:129] Top shape: 1 64 600 1000 (38400000)
I1115 10:27:31.857211 34378 net.cpp:137] Memory required for data: 482400084
I1115 10:27:31.857219 34378 layer_factory.hpp:77] Creating layer relu1_2
I1115 10:27:31.857224 34378 net.cpp:84] Creating Layer relu1_2
I1115 10:27:31.857226 34378 net.cpp:406] relu1_2 <- conv1_2
I1115 10:27:31.857229 34378 net.cpp:367] relu1_2 -> conv1_2 (in-place)
I1115 10:27:31.857439 34378 net.cpp:122] Setting up relu1_2
I1115 10:27:31.857447 34378 net.cpp:129] Top shape: 1 64 600 1000 (38400000)
I1115 10:27:31.857450 34378 net.cpp:137] Memory required for data: 636000084
I1115 10:27:31.857451 34378 layer_factory.hpp:77] Creating layer pool1
I1115 10:27:31.857478 34378 net.cpp:84] Creating Layer pool1
I1115 10:27:31.857482 34378 net.cpp:406] pool1 <- conv1_2
I1115 10:27:31.857486 34378 net.cpp:380] pool1 -> pool1
I1115 10:27:31.857527 34378 net.cpp:122] Setting up pool1
I1115 10:27:31.857532 34378 net.cpp:129] Top shape: 1 64 300 500 (9600000)
I1115 10:27:31.857533 34378 net.cpp:137] Memory required for data: 674400084
I1115 10:27:31.857535 34378 layer_factory.hpp:77] Creating layer conv2_1
I1115 10:27:31.857540 34378 net.cpp:84] Creating Layer conv2_1
I1115 10:27:31.857543 34378 net.cpp:406] conv2_1 <- pool1
I1115 10:27:31.857563 34378 net.cpp:380] conv2_1 -> conv2_1
I1115 10:27:31.860666 34378 net.cpp:122] Setting up conv2_1
I1115 10:27:31.860676 34378 net.cpp:129] Top shape: 1 128 300 500 (19200000)
I1115 10:27:31.860693 34378 net.cpp:137] Memory required for data: 751200084
I1115 10:27:31.860702 34378 layer_factory.hpp:77] Creating layer relu2_1
I1115 10:27:31.860709 34378 net.cpp:84] Creating Layer relu2_1
I1115 10:27:31.860713 34378 net.cpp:406] relu2_1 <- conv2_1
I1115 10:27:31.860716 34378 net.cpp:367] relu2_1 -> conv2_1 (in-place)
I1115 10:27:31.860934 34378 net.cpp:122] Setting up relu2_1
I1115 10:27:31.860941 34378 net.cpp:129] Top shape: 1 128 300 500 (19200000)
I1115 10:27:31.860944 34378 net.cpp:137] Memory required for data: 828000084
I1115 10:27:31.860945 34378 layer_factory.hpp:77] Creating layer conv2_2
I1115 10:27:31.860952 34378 net.cpp:84] Creating Layer conv2_2
I1115 10:27:31.860955 34378 net.cpp:406] conv2_2 <- conv2_1
I1115 10:27:31.860976 34378 net.cpp:380] conv2_2 -> conv2_2
I1115 10:27:31.863137 34378 net.cpp:122] Setting up conv2_2
I1115 10:27:31.863147 34378 net.cpp:129] Top shape: 1 128 300 500 (19200000)
I1115 10:27:31.863165 34378 net.cpp:137] Memory required for data: 904800084
I1115 10:27:31.863170 34378 layer_factory.hpp:77] Creating layer relu2_2
I1115 10:27:31.863174 34378 net.cpp:84] Creating Layer relu2_2
I1115 10:27:31.863176 34378 net.cpp:406] relu2_2 <- conv2_2
I1115 10:27:31.863181 34378 net.cpp:367] relu2_2 -> conv2_2 (in-place)
I1115 10:27:31.864001 34378 net.cpp:122] Setting up relu2_2
I1115 10:27:31.864028 34378 net.cpp:129] Top shape: 1 128 300 500 (19200000)
I1115 10:27:31.864032 34378 net.cpp:137] Memory required for data: 981600084
I1115 10:27:31.864033 34378 layer_factory.hpp:77] Creating layer pool2
I1115 10:27:31.864038 34378 net.cpp:84] Creating Layer pool2
I1115 10:27:31.864042 34378 net.cpp:406] pool2 <- conv2_2
I1115 10:27:31.864047 34378 net.cpp:380] pool2 -> pool2
I1115 10:27:31.864101 34378 net.cpp:122] Setting up pool2
I1115 10:27:31.864107 34378 net.cpp:129] Top shape: 1 128 150 250 (4800000)
I1115 10:27:31.864109 34378 net.cpp:137] Memory required for data: 1000800084
I1115 10:27:31.864111 34378 layer_factory.hpp:77] Creating layer conv3_1
I1115 10:27:31.864118 34378 net.cpp:84] Creating Layer conv3_1
I1115 10:27:31.864125 34378 net.cpp:406] conv3_1 <- pool2
I1115 10:27:31.864130 34378 net.cpp:380] conv3_1 -> conv3_1
I1115 10:27:31.867432 34378 net.cpp:122] Setting up conv3_1
I1115 10:27:31.867444 34378 net.cpp:129] Top shape: 1 256 150 250 (9600000)
I1115 10:27:31.867446 34378 net.cpp:137] Memory required for data: 1039200084
I1115 10:27:31.867455 34378 layer_factory.hpp:77] Creating layer relu3_1
I1115 10:27:31.867458 34378 net.cpp:84] Creating Layer relu3_1
I1115 10:27:31.867461 34378 net.cpp:406] relu3_1 <- conv3_1
I1115 10:27:31.867483 34378 net.cpp:367] relu3_1 -> conv3_1 (in-place)
I1115 10:27:31.867694 34378 net.cpp:122] Setting up relu3_1
I1115 10:27:31.867702 34378 net.cpp:129] Top shape: 1 256 150 250 (9600000)
I1115 10:27:31.867703 34378 net.cpp:137] Memory required for data: 1077600084
I1115 10:27:31.867707 34378 layer_factory.hpp:77] Creating layer conv3_2
I1115 10:27:31.867733 34378 net.cpp:84] Creating Layer conv3_2
I1115 10:27:31.867738 34378 net.cpp:406] conv3_2 <- conv3_1
I1115 10:27:31.867743 34378 net.cpp:380] conv3_2 -> conv3_2
I1115 10:27:31.871266 34378 net.cpp:122] Setting up conv3_2
I1115 10:27:31.871295 34378 net.cpp:129] Top shape: 1 256 150 250 (9600000)
I1115 10:27:31.871299 34378 net.cpp:137] Memory required for data: 1116000084
I1115 10:27:31.871304 34378 layer_factory.hpp:77] Creating layer relu3_2
I1115 10:27:31.871307 34378 net.cpp:84] Creating Layer relu3_2
I1115 10:27:31.871310 34378 net.cpp:406] relu3_2 <- conv3_2
I1115 10:27:31.871314 34378 net.cpp:367] relu3_2 -> conv3_2 (in-place)
I1115 10:27:31.871534 34378 net.cpp:122] Setting up relu3_2
I1115 10:27:31.871541 34378 net.cpp:129] Top shape: 1 256 150 250 (9600000)
I1115 10:27:31.871544 34378 net.cpp:137] Memory required for data: 1154400084
I1115 10:27:31.871546 34378 layer_factory.hpp:77] Creating layer conv3_3
I1115 10:27:31.871553 34378 net.cpp:84] Creating Layer conv3_3
I1115 10:27:31.871557 34378 net.cpp:406] conv3_3 <- conv3_2
I1115 10:27:31.871563 34378 net.cpp:380] conv3_3 -> conv3_3
I1115 10:27:31.875185 34378 net.cpp:122] Setting up conv3_3
I1115 10:27:31.875195 34378 net.cpp:129] Top shape: 1 256 150 250 (9600000)
I1115 10:27:31.875213 34378 net.cpp:137] Memory required for data: 1192800084
I1115 10:27:31.875218 34378 layer_factory.hpp:77] Creating layer relu3_3
I1115 10:27:31.875222 34378 net.cpp:84] Creating Layer relu3_3
I1115 10:27:31.875226 34378 net.cpp:406] relu3_3 <- conv3_3
I1115 10:27:31.875231 34378 net.cpp:367] relu3_3 -> conv3_3 (in-place)
I1115 10:27:31.875445 34378 net.cpp:122] Setting up relu3_3
I1115 10:27:31.875452 34378 net.cpp:129] Top shape: 1 256 150 250 (9600000)
I1115 10:27:31.875454 34378 net.cpp:137] Memory required for data: 1231200084
I1115 10:27:31.875457 34378 layer_factory.hpp:77] Creating layer pool3
I1115 10:27:31.875461 34378 net.cpp:84] Creating Layer pool3
I1115 10:27:31.875463 34378 net.cpp:406] pool3 <- conv3_3
I1115 10:27:31.875469 34378 net.cpp:380] pool3 -> pool3
I1115 10:27:31.875509 34378 net.cpp:122] Setting up pool3
I1115 10:27:31.875515 34378 net.cpp:129] Top shape: 1 256 75 125 (2400000)
I1115 10:27:31.875517 34378 net.cpp:137] Memory required for data: 1240800084
I1115 10:27:31.875519 34378 layer_factory.hpp:77] Creating layer conv4_1
I1115 10:27:31.875530 34378 net.cpp:84] Creating Layer conv4_1
I1115 10:27:31.875533 34378 net.cpp:406] conv4_1 <- pool3
I1115 10:27:31.875540 34378 net.cpp:380] conv4_1 -> conv4_1
I1115 10:27:31.882524 34378 net.cpp:122] Setting up conv4_1
I1115 10:27:31.882535 34378 net.cpp:129] Top shape: 1 512 75 125 (4800000)
I1115 10:27:31.882553 34378 net.cpp:137] Memory required for data: 1260000084
I1115 10:27:31.882558 34378 layer_factory.hpp:77] Creating layer relu4_1
I1115 10:27:31.882565 34378 net.cpp:84] Creating Layer relu4_1
I1115 10:27:31.882567 34378 net.cpp:406] relu4_1 <- conv4_1
I1115 10:27:31.882571 34378 net.cpp:367] relu4_1 -> conv4_1 (in-place)
I1115 10:27:31.883419 34378 net.cpp:122] Setting up relu4_1
I1115 10:27:31.883431 34378 net.cpp:129] Top shape: 1 512 75 125 (4800000)
I1115 10:27:31.883433 34378 net.cpp:137] Memory required for data: 1279200084
I1115 10:27:31.883436 34378 layer_factory.hpp:77] Creating layer conv4_2
I1115 10:27:31.883445 34378 net.cpp:84] Creating Layer conv4_2
I1115 10:27:31.883446 34378 net.cpp:406] conv4_2 <- conv4_1
I1115 10:27:31.883468 34378 net.cpp:380] conv4_2 -> conv4_2
I1115 10:27:31.890429 34378 net.cpp:122] Setting up conv4_2
I1115 10:27:31.890456 34378 net.cpp:129] Top shape: 1 512 75 125 (4800000)
I1115 10:27:31.890458 34378 net.cpp:137] Memory required for data: 1298400084
I1115 10:27:31.890470 34378 layer_factory.hpp:77] Creating layer relu4_2
I1115 10:27:31.890475 34378 net.cpp:84] Creating Layer relu4_2
I1115 10:27:31.890476 34378 net.cpp:406] relu4_2 <- conv4_2
I1115 10:27:31.890496 34378 net.cpp:367] relu4_2 -> conv4_2 (in-place)
I1115 10:27:31.890704 34378 net.cpp:122] Setting up relu4_2
I1115 10:27:31.890712 34378 net.cpp:129] Top shape: 1 512 75 125 (4800000)
I1115 10:27:31.890714 34378 net.cpp:137] Memory required for data: 1317600084
I1115 10:27:31.890717 34378 layer_factory.hpp:77] Creating layer conv4_3
I1115 10:27:31.890739 34378 net.cpp:84] Creating Layer conv4_3
I1115 10:27:31.890743 34378 net.cpp:406] conv4_3 <- conv4_2
I1115 10:27:31.890748 34378 net.cpp:380] conv4_3 -> conv4_3
I1115 10:27:31.897321 34378 net.cpp:122] Setting up conv4_3
I1115 10:27:31.897331 34378 net.cpp:129] Top shape: 1 512 75 125 (4800000)
I1115 10:27:31.897351 34378 net.cpp:137] Memory required for data: 1336800084
I1115 10:27:31.897356 34378 layer_factory.hpp:77] Creating layer relu4_3
I1115 10:27:31.897359 34378 net.cpp:84] Creating Layer relu4_3
I1115 10:27:31.897362 34378 net.cpp:406] relu4_3 <- conv4_3
I1115 10:27:31.897367 34378 net.cpp:367] relu4_3 -> conv4_3 (in-place)
I1115 10:27:31.897572 34378 net.cpp:122] Setting up relu4_3
I1115 10:27:31.897578 34378 net.cpp:129] Top shape: 1 512 75 125 (4800000)
I1115 10:27:31.897580 34378 net.cpp:137] Memory required for data: 1356000084
I1115 10:27:31.897583 34378 layer_factory.hpp:77] Creating layer pool4
I1115 10:27:31.897604 34378 net.cpp:84] Creating Layer pool4
I1115 10:27:31.897608 34378 net.cpp:406] pool4 <- conv4_3
I1115 10:27:31.897613 34378 net.cpp:380] pool4 -> pool4
I1115 10:27:31.897655 34378 net.cpp:122] Setting up pool4
I1115 10:27:31.897660 34378 net.cpp:129] Top shape: 1 512 38 63 (1225728)
I1115 10:27:31.897661 34378 net.cpp:137] Memory required for data: 1360902996
I1115 10:27:31.897663 34378 layer_factory.hpp:77] Creating layer conv5_1
I1115 10:27:31.897670 34378 net.cpp:84] Creating Layer conv5_1
I1115 10:27:31.897675 34378 net.cpp:406] conv5_1 <- pool4
I1115 10:27:31.897680 34378 net.cpp:380] conv5_1 -> conv5_1
I1115 10:27:31.904335 34378 net.cpp:122] Setting up conv5_1
I1115 10:27:31.904347 34378 net.cpp:129] Top shape: 1 512 38 63 (1225728)
I1115 10:27:31.904366 34378 net.cpp:137] Memory required for data: 1365805908
I1115 10:27:31.904371 34378 layer_factory.hpp:77] Creating layer relu5_1
I1115 10:27:31.904376 34378 net.cpp:84] Creating Layer relu5_1
I1115 10:27:31.904378 34378 net.cpp:406] relu5_1 <- conv5_1
I1115 10:27:31.904383 34378 net.cpp:367] relu5_1 -> conv5_1 (in-place)
I1115 10:27:31.905705 34378 net.cpp:122] Setting up relu5_1
I1115 10:27:31.905716 34378 net.cpp:129] Top shape: 1 512 38 63 (1225728)
I1115 10:27:31.905719 34378 net.cpp:137] Memory required for data: 1370708820
I1115 10:27:31.905721 34378 layer_factory.hpp:77] Creating layer conv5_2
I1115 10:27:31.905745 34378 net.cpp:84] Creating Layer conv5_2
I1115 10:27:31.905751 34378 net.cpp:406] conv5_2 <- conv5_1
I1115 10:27:31.905757 34378 net.cpp:380] conv5_2 -> conv5_2
I1115 10:27:31.912436 34378 net.cpp:122] Setting up conv5_2
I1115 10:27:31.912467 34378 net.cpp:129] Top shape: 1 512 38 63 (1225728)
I1115 10:27:31.912468 34378 net.cpp:137] Memory required for data: 1375611732
I1115 10:27:31.912474 34378 layer_factory.hpp:77] Creating layer relu5_2
I1115 10:27:31.912478 34378 net.cpp:84] Creating Layer relu5_2
I1115 10:27:31.912482 34378 net.cpp:406] relu5_2 <- conv5_2
I1115 10:27:31.912484 34378 net.cpp:367] relu5_2 -> conv5_2 (in-place)
I1115 10:27:31.912696 34378 net.cpp:122] Setting up relu5_2
I1115 10:27:31.912706 34378 net.cpp:129] Top shape: 1 512 38 63 (1225728)
I1115 10:27:31.912708 34378 net.cpp:137] Memory required for data: 1380514644
I1115 10:27:31.912710 34378 layer_factory.hpp:77] Creating layer conv5_3
I1115 10:27:31.912741 34378 net.cpp:84] Creating Layer conv5_3
I1115 10:27:31.912745 34378 net.cpp:406] conv5_3 <- conv5_2
I1115 10:27:31.912750 34378 net.cpp:380] conv5_3 -> conv5_3
I1115 10:27:31.919272 34378 net.cpp:122] Setting up conv5_3
I1115 10:27:31.919286 34378 net.cpp:129] Top shape: 1 512 38 63 (1225728)
I1115 10:27:31.919287 34378 net.cpp:137] Memory required for data: 1385417556
I1115 10:27:31.919292 34378 layer_factory.hpp:77] Creating layer relu5_3
I1115 10:27:31.919296 34378 net.cpp:84] Creating Layer relu5_3
I1115 10:27:31.919315 34378 net.cpp:406] relu5_3 <- conv5_3
I1115 10:27:31.919320 34378 net.cpp:367] relu5_3 -> conv5_3 (in-place)
I1115 10:27:31.919553 34378 net.cpp:122] Setting up relu5_3
I1115 10:27:31.919560 34378 net.cpp:129] Top shape: 1 512 38 63 (1225728)
I1115 10:27:31.919564 34378 net.cpp:137] Memory required for data: 1390320468
I1115 10:27:31.919565 34378 layer_factory.hpp:77] Creating layer conv5_3_relu5_3_0_split
I1115 10:27:31.919570 34378 net.cpp:84] Creating Layer conv5_3_relu5_3_0_split
I1115 10:27:31.919589 34378 net.cpp:406] conv5_3_relu5_3_0_split <- conv5_3
I1115 10:27:31.919595 34378 net.cpp:380] conv5_3_relu5_3_0_split -> conv5_3_relu5_3_0_split_0
I1115 10:27:31.919602 34378 net.cpp:380] conv5_3_relu5_3_0_split -> conv5_3_relu5_3_0_split_1
I1115 10:27:31.919649 34378 net.cpp:122] Setting up conv5_3_relu5_3_0_split
I1115 10:27:31.919654 34378 net.cpp:129] Top shape: 1 512 38 63 (1225728)
I1115 10:27:31.919657 34378 net.cpp:129] Top shape: 1 512 38 63 (1225728)
I1115 10:27:31.919659 34378 net.cpp:137] Memory required for data: 1400126292
I1115 10:27:31.919662 34378 layer_factory.hpp:77] Creating layer rpn_conv/3x3
I1115 10:27:31.919672 34378 net.cpp:84] Creating Layer rpn_conv/3x3
I1115 10:27:31.919674 34378 net.cpp:406] rpn_conv/3x3 <- conv5_3_relu5_3_0_split_0
I1115 10:27:31.919680 34378 net.cpp:380] rpn_conv/3x3 -> rpn/output
I1115 10:27:31.971151 34378 net.cpp:122] Setting up rpn_conv/3x3
I1115 10:27:31.971184 34378 net.cpp:129] Top shape: 1 512 38 63 (1225728)
I1115 10:27:31.971190 34378 net.cpp:137] Memory required for data: 1405029204
I1115 10:27:31.971204 34378 layer_factory.hpp:77] Creating layer rpn_relu/3x3
I1115 10:27:31.971220 34378 net.cpp:84] Creating Layer rpn_relu/3x3
I1115 10:27:31.971230 34378 net.cpp:406] rpn_relu/3x3 <- rpn/output
I1115 10:27:31.971241 34378 net.cpp:367] rpn_relu/3x3 -> rpn/output (in-place)
I1115 10:27:31.972723 34378 net.cpp:122] Setting up rpn_relu/3x3
I1115 10:27:31.972740 34378 net.cpp:129] Top shape: 1 512 38 63 (1225728)
I1115 10:27:31.972744 34378 net.cpp:137] Memory required for data: 1409932116
I1115 10:27:31.972749 34378 layer_factory.hpp:77] Creating layer rpn/output_rpn_relu/3x3_0_split
I1115 10:27:31.972759 34378 net.cpp:84] Creating Layer rpn/output_rpn_relu/3x3_0_split
I1115 10:27:31.972764 34378 net.cpp:406] rpn/output_rpn_relu/3x3_0_split <- rpn/output
I1115 10:27:31.972775 34378 net.cpp:380] rpn/output_rpn_relu/3x3_0_split -> rpn/output_rpn_relu/3x3_0_split_0
I1115 10:27:31.972787 34378 net.cpp:380] rpn/output_rpn_relu/3x3_0_split -> rpn/output_rpn_relu/3x3_0_split_1
I1115 10:27:31.972877 34378 net.cpp:122] Setting up rpn/output_rpn_relu/3x3_0_split
I1115 10:27:31.972887 34378 net.cpp:129] Top shape: 1 512 38 63 (1225728)
I1115 10:27:31.972893 34378 net.cpp:129] Top shape: 1 512 38 63 (1225728)
I1115 10:27:31.972898 34378 net.cpp:137] Memory required for data: 1419737940
I1115 10:27:31.972901 34378 layer_factory.hpp:77] Creating layer rpn_cls_score
I1115 10:27:31.972923 34378 net.cpp:84] Creating Layer rpn_cls_score
I1115 10:27:31.972930 34378 net.cpp:406] rpn_cls_score <- rpn/output_rpn_relu/3x3_0_split_0
I1115 10:27:31.972939 34378 net.cpp:380] rpn_cls_score -> rpn_cls_score
I1115 10:27:31.976969 34378 net.cpp:122] Setting up rpn_cls_score
I1115 10:27:31.976990 34378 net.cpp:129] Top shape: 1 18 38 63 (43092)
I1115 10:27:31.976997 34378 net.cpp:137] Memory required for data: 1419910308
I1115 10:27:31.977007 34378 layer_factory.hpp:77] Creating layer rpn_cls_score_rpn_cls_score_0_split
I1115 10:27:31.977016 34378 net.cpp:84] Creating Layer rpn_cls_score_rpn_cls_score_0_split
I1115 10:27:31.977021 34378 net.cpp:406] rpn_cls_score_rpn_cls_score_0_split <- rpn_cls_score
I1115 10:27:31.977028 34378 net.cpp:380] rpn_cls_score_rpn_cls_score_0_split -> rpn_cls_score_rpn_cls_score_0_split_0
I1115 10:27:31.977052 34378 net.cpp:380] rpn_cls_score_rpn_cls_score_0_split -> rpn_cls_score_rpn_cls_score_0_split_1
I1115 10:27:31.977123 34378 net.cpp:122] Setting up rpn_cls_score_rpn_cls_score_0_split
I1115 10:27:31.977133 34378 net.cpp:129] Top shape: 1 18 38 63 (43092)
I1115 10:27:31.977138 34378 net.cpp:129] Top shape: 1 18 38 63 (43092)
I1115 10:27:31.977141 34378 net.cpp:137] Memory required for data: 1420255044
I1115 10:27:31.977145 34378 layer_factory.hpp:77] Creating layer rpn_bbox_pred
I1115 10:27:31.977159 34378 net.cpp:84] Creating Layer rpn_bbox_pred
I1115 10:27:31.977165 34378 net.cpp:406] rpn_bbox_pred <- rpn/output_rpn_relu/3x3_0_split_1
I1115 10:27:31.977176 34378 net.cpp:380] rpn_bbox_pred -> rpn_bbox_pred
I1115 10:27:31.979974 34378 net.cpp:122] Setting up rpn_bbox_pred
I1115 10:27:31.979993 34378 net.cpp:129] Top shape: 1 36 38 63 (86184)
I1115 10:27:31.979997 34378 net.cpp:137] Memory required for data: 1420599780
I1115 10:27:31.980007 34378 layer_factory.hpp:77] Creating layer rpn_bbox_pred_rpn_bbox_pred_0_split
I1115 10:27:31.980015 34378 net.cpp:84] Creating Layer rpn_bbox_pred_rpn_bbox_pred_0_split
I1115 10:27:31.980021 34378 net.cpp:406] rpn_bbox_pred_rpn_bbox_pred_0_split <- rpn_bbox_pred
I1115 10:27:31.980031 34378 net.cpp:380] rpn_bbox_pred_rpn_bbox_pred_0_split -> rpn_bbox_pred_rpn_bbox_pred_0_split_0
I1115 10:27:31.980041 34378 net.cpp:380] rpn_bbox_pred_rpn_bbox_pred_0_split -> rpn_bbox_pred_rpn_bbox_pred_0_split_1
I1115 10:27:31.980113 34378 net.cpp:122] Setting up rpn_bbox_pred_rpn_bbox_pred_0_split
I1115 10:27:31.980125 34378 net.cpp:129] Top shape: 1 36 38 63 (86184)
I1115 10:27:31.980130 34378 net.cpp:129] Top shape: 1 36 38 63 (86184)
I1115 10:27:31.980134 34378 net.cpp:137] Memory required for data: 1421289252
I1115 10:27:31.980137 34378 layer_factory.hpp:77] Creating layer rpn_cls_score_reshape
I1115 10:27:31.980152 34378 net.cpp:84] Creating Layer rpn_cls_score_reshape
I1115 10:27:31.980156 34378 net.cpp:406] rpn_cls_score_reshape <- rpn_cls_score_rpn_cls_score_0_split_0
I1115 10:27:31.980163 34378 net.cpp:380] rpn_cls_score_reshape -> rpn_cls_score_reshape
I1115 10:27:31.980208 34378 net.cpp:122] Setting up rpn_cls_score_reshape
I1115 10:27:31.980216 34378 net.cpp:129] Top shape: 1 2 342 63 (43092)
I1115 10:27:31.980219 34378 net.cpp:137] Memory required for data: 1421461620
I1115 10:27:31.980224 34378 layer_factory.hpp:77] Creating layer rpn_cls_score_reshape_rpn_cls_score_reshape_0_split
I1115 10:27:31.980234 34378 net.cpp:84] Creating Layer rpn_cls_score_reshape_rpn_cls_score_reshape_0_split
I1115 10:27:31.980238 34378 net.cpp:406] rpn_cls_score_reshape_rpn_cls_score_reshape_0_split <- rpn_cls_score_reshape
I1115 10:27:31.980245 34378 net.cpp:380] rpn_cls_score_reshape_rpn_cls_score_reshape_0_split -> rpn_cls_score_reshape_rpn_cls_score_reshape_0_split_0
I1115 10:27:31.980257 34378 net.cpp:380] rpn_cls_score_reshape_rpn_cls_score_reshape_0_split -> rpn_cls_score_reshape_rpn_cls_score_reshape_0_split_1
I1115 10:27:31.980314 34378 net.cpp:122] Setting up rpn_cls_score_reshape_rpn_cls_score_reshape_0_split
I1115 10:27:31.980321 34378 net.cpp:129] Top shape: 1 2 342 63 (43092)
I1115 10:27:31.980326 34378 net.cpp:129] Top shape: 1 2 342 63 (43092)
I1115 10:27:31.980330 34378 net.cpp:137] Memory required for data: 1421806356
I1115 10:27:31.980334 34378 layer_factory.hpp:77] Creating layer rpn-data
I1115 10:27:31.981111 34378 net.cpp:84] Creating Layer rpn-data
I1115 10:27:31.981127 34378 net.cpp:406] rpn-data <- rpn_cls_score_rpn_cls_score_0_split_1
I1115 10:27:31.981135 34378 net.cpp:406] rpn-data <- gt_boxes_input-data_2_split_0
I1115 10:27:31.981142 34378 net.cpp:406] rpn-data <- im_info_input-data_1_split_0
I1115 10:27:31.981146 34378 net.cpp:406] rpn-data <- data_input-data_0_split_1
I1115 10:27:31.981155 34378 net.cpp:380] rpn-data -> rpn_labels
I1115 10:27:31.981166 34378 net.cpp:380] rpn-data -> rpn_bbox_targets
I1115 10:27:31.981178 34378 net.cpp:380] rpn-data -> rpn_bbox_inside_weights
I1115 10:27:31.981189 34378 net.cpp:380] rpn-data -> rpn_bbox_outside_weights
I1115 10:27:31.982502 34378 net.cpp:122] Setting up rpn-data
I1115 10:27:31.982522 34378 net.cpp:129] Top shape: 1 1 342 63 (21546)
I1115 10:27:31.982529 34378 net.cpp:129] Top shape: 1 36 38 63 (86184)
I1115 10:27:31.982534 34378 net.cpp:129] Top shape: 1 36 38 63 (86184)
I1115 10:27:31.982538 34378 net.cpp:129] Top shape: 1 36 38 63 (86184)
I1115 10:27:31.982542 34378 net.cpp:137] Memory required for data: 1422926748
I1115 10:27:31.982547 34378 layer_factory.hpp:77] Creating layer rpn_loss_cls
I1115 10:27:31.982558 34378 net.cpp:84] Creating Layer rpn_loss_cls
I1115 10:27:31.982565 34378 net.cpp:406] rpn_loss_cls <- rpn_cls_score_reshape_rpn_cls_score_reshape_0_split_0
I1115 10:27:31.982573 34378 net.cpp:406] rpn_loss_cls <- rpn_labels
…
I1115 10:27:31.985129 34378 net.cpp:129] Top shape: (1)
I1115 10:27:31.985133 34378 net.cpp:132]     with loss weight 1
I1115 10:27:31.985141 34378 net.cpp:137] Memory required for data: 1422926756
I1115 10:27:31.985143 34378 layer_factory.hpp:77] Creating layer rpn_cls_prob
I1115 10:27:31.985153 34378 net.cpp:84] Creating Layer rpn_cls_prob
I1115 10:27:31.985160 34378 net.cpp:406] rpn_cls_prob <- rpn_cls_score_reshape_rpn_cls_score_reshape_0_split_1
I1115 10:27:31.985174 34378 net.cpp:380] rpn_cls_prob -> rpn_cls_prob
I1115 10:27:31.985586 34378 net.cpp:122] Setting up rpn_cls_prob
I1115 10:27:31.985599 34378 net.cpp:129] Top shape: 1 2 342 63 (43092)
I1115 10:27:31.985605 34378 net.cpp:137] Memory required for data: 1423099124
I1115 10:27:31.985608 34378 layer_factory.hpp:77] Creating layer rpn_cls_prob_reshape
I1115 10:27:31.985616 34378 net.cpp:84] Creating Layer rpn_cls_prob_reshape
I1115 10:27:31.985622 34378 net.cpp:406] rpn_cls_prob_reshape <- rpn_cls_prob
I1115 10:27:31.985632 34378 net.cpp:380] rpn_cls_prob_reshape -> rpn_cls_prob_reshape
I1115 10:27:31.985678 34378 net.cpp:122] Setting up rpn_cls_prob_reshape
I1115 10:27:31.985687 34378 net.cpp:129] Top shape: 1 18 38 63 (43092)
I1115 10:27:31.985690 34378 net.cpp:137] Memory required for data: 1423271492
I1115 10:27:31.985693 34378 layer_factory.hpp:77] Creating layer proposal
I1115 10:27:31.986744 34378 net.cpp:84] Creating Layer proposal
I1115 10:27:31.986762 34378 net.cpp:406] proposal <- rpn_cls_prob_reshape
I1115 10:27:31.986771 34378 net.cpp:406] proposal <- rpn_bbox_pred_rpn_bbox_pred_0_split_1
I1115 10:27:31.986779 34378 net.cpp:406] proposal <- im_info_input-data_1_split_1
I1115 10:27:31.986788 34378 net.cpp:380] proposal -> rpn_rois
I1115 10:27:31.987913 34378 net.cpp:122] Setting up proposal
I1115 10:27:31.987932 34378 net.cpp:129] Top shape: 1 5 (5)
I1115 10:27:31.987938 34378 net.cpp:137] Memory required for data: 1423271512
I1115 10:27:31.987943 34378 layer_factory.hpp:77] Creating layer roi-data
I1115 10:27:31.988180 34378 net.cpp:84] Creating Layer roi-data
I1115 10:27:31.988193 34378 net.cpp:406] roi-data <- rpn_rois
I1115 10:27:31.988204 34378 net.cpp:406] roi-data <- gt_boxes_input-data_2_split_1
I1115 10:27:31.988215 34378 net.cpp:380] roi-data -> rois
I1115 10:27:31.988227 34378 net.cpp:380] roi-data -> labels
I1115 10:27:31.988237 34378 net.cpp:380] roi-data -> bbox_targets
I1115 10:27:31.988247 34378 net.cpp:380] roi-data -> bbox_inside_weights
I1115 10:27:31.988257 34378 net.cpp:380] roi-data -> bbox_outside_weights
I1115 10:27:31.988899 34378 net.cpp:122] Setting up roi-data
I1115 10:27:31.988925 34378 net.cpp:129] Top shape: 1 5 (5)
I1115 10:27:31.988931 34378 net.cpp:129] Top shape: 1 1 (1)
I1115 10:27:31.988935 34378 net.cpp:129] Top shape: 1 84 (84)
I1115 10:27:31.988939 34378 net.cpp:129] Top shape: 1 84 (84)
I1115 10:27:31.988942 34378 net.cpp:129] Top shape: 1 84 (84)
I1115 10:27:31.988945 34378 net.cpp:137] Memory required for data: 1423272544
I1115 10:27:31.988950 34378 layer_factory.hpp:77] Creating layer roi_pool5
I1115 10:27:31.988961 34378 net.cpp:84] Creating Layer roi_pool5
I1115 10:27:31.988967 34378 net.cpp:406] roi_pool5 <- conv5_3_relu5_3_0_split_1
I1115 10:27:31.988973 34378 net.cpp:406] roi_pool5 <- rois
I1115 10:27:31.988981 34378 net.cpp:380] roi_pool5 -> pool5
I1115 10:27:31.988991 34378 roi_pooling_layer.cpp:30] Spatial scale: 0.0625
I1115 10:27:31.989064 34378 net.cpp:122] Setting up roi_pool5
I1115 10:27:31.989074 34378 net.cpp:129] Top shape: 1 512 7 7 (25088)
I1115 10:27:31.989078 34378 net.cpp:137] Memory required for data: 1423372896
I1115 10:27:31.989081 34378 layer_factory.hpp:77] Creating layer fc6
I1115 10:27:31.989090 34378 net.cpp:84] Creating Layer fc6
I1115 10:27:31.989096 34378 net.cpp:406] fc6 <- pool5
I1115 10:27:31.989105 34378 net.cpp:380] fc6 -> fc6
I1115 10:27:32.314023 34378 net.cpp:122] Setting up fc6
I1115 10:27:32.314067 34378 net.cpp:129] Top shape: 1 4096 (4096)
I1115 10:27:32.314070 34378 net.cpp:137] Memory required for data: 1423389280
I1115 10:27:32.314098 34378 layer_factory.hpp:77] Creating layer relu6
I1115 10:27:32.314111 34378 net.cpp:84] Creating Layer relu6
I1115 10:27:32.314116 34378 net.cpp:406] relu6 <- fc6
I1115 10:27:32.314127 34378 net.cpp:367] relu6 -> fc6 (in-place)
I1115 10:27:32.314483 34378 net.cpp:122] Setting up relu6
I1115 10:27:32.314492 34378 net.cpp:129] Top shape: 1 4096 (4096)
I1115 10:27:32.314494 34378 net.cpp:137] Memory required for data: 1423405664
I1115 10:27:32.314498 34378 layer_factory.hpp:77] Creating layer drop6
I1115 10:27:32.314508 34378 net.cpp:84] Creating Layer drop6
I1115 10:27:32.314510 34378 net.cpp:406] drop6 <- fc6
I1115 10:27:32.314515 34378 net.cpp:367] drop6 -> fc6 (in-place)
I1115 10:27:32.314550 34378 net.cpp:122] Setting up drop6
I1115 10:27:32.314556 34378 net.cpp:129] Top shape: 1 4096 (4096)
I1115 10:27:32.314558 34378 net.cpp:137] Memory required for data: 1423422048
I1115 10:27:32.314561 34378 layer_factory.hpp:77] Creating layer fc7
I1115 10:27:32.314570 34378 net.cpp:84] Creating Layer fc7
I1115 10:27:32.314573 34378 net.cpp:406] fc7 <- fc6
I1115 10:27:32.314579 34378 net.cpp:380] fc7 -> fc7
I1115 10:27:32.366653 34378 net.cpp:122] Setting up fc7
I1115 10:27:32.366695 34378 net.cpp:129] Top shape: 1 4096 (4096)
I1115 10:27:32.366698 34378 net.cpp:137] Memory required for data: 1423438432
I1115 10:27:32.366711 34378 layer_factory.hpp:77] Creating layer relu7
I1115 10:27:32.366724 34378 net.cpp:84] Creating Layer relu7
I1115 10:27:32.366729 34378 net.cpp:406] relu7 <- fc7
I1115 10:27:32.366737 34378 net.cpp:367] relu7 -> fc7 (in-place)
I1115 10:27:32.368041 34378 net.cpp:122] Setting up relu7
I1115 10:27:32.368055 34378 net.cpp:129] Top shape: 1 4096 (4096)
I1115 10:27:32.368058 34378 net.cpp:137] Memory required for data: 1423454816
I1115 10:27:32.368062 34378 layer_factory.hpp:77] Creating layer drop7
I1115 10:27:32.368068 34378 net.cpp:84] Creating Layer drop7
I1115 10:27:32.368072 34378 net.cpp:406] drop7 <- fc7
I1115 10:27:32.368077 34378 net.cpp:367] drop7 -> fc7 (in-place)
I1115 10:27:32.368113 34378 net.cpp:122] Setting up drop7
I1115 10:27:32.368119 34378 net.cpp:129] Top shape: 1 4096 (4096)
I1115 10:27:32.368121 34378 net.cpp:137] Memory required for data: 1423471200
I1115 10:27:32.368124 34378 layer_factory.hpp:77] Creating layer fc7_drop7_0_split
I1115 10:27:32.368134 34378 net.cpp:84] Creating Layer fc7_drop7_0_split
I1115 10:27:32.368135 34378 net.cpp:406] fc7_drop7_0_split <- fc7
I1115 10:27:32.368140 34378 net.cpp:380] fc7_drop7_0_split -> fc7_drop7_0_split_0
I1115 10:27:32.368149 34378 net.cpp:380] fc7_drop7_0_split -> fc7_drop7_0_split_1
I1115 10:27:32.368193 34378 net.cpp:122] Setting up fc7_drop7_0_split
I1115 10:27:32.368199 34378 net.cpp:129] Top shape: 1 4096 (4096)
I1115 10:27:32.368202 34378 net.cpp:129] Top shape: 1 4096 (4096)
I1115 10:27:32.368204 34378 net.cpp:137] Memory required for data: 1423503968
I1115 10:27:32.368207 34378 layer_factory.hpp:77] Creating layer cls_score
I1115 10:27:32.368218 34378 net.cpp:84] Creating Layer cls_score
I1115 10:27:32.368221 34378 net.cpp:406] cls_score <- fc7_drop7_0_split_0
I1115 10:27:32.368227 34378 net.cpp:380] cls_score -> cls_score
I1115 10:27:32.369403 34378 net.cpp:122] Setting up cls_score
I1115 10:27:32.369410 34378 net.cpp:129] Top shape: 1 21 (21)
I1115 10:27:32.369412 34378 net.cpp:137] Memory required for data: 1423504052
I1115 10:27:32.369418 34378 layer_factory.hpp:77] Creating layer bbox_pred
I1115 10:27:32.369426 34378 net.cpp:84] Creating Layer bbox_pred
I1115 10:27:32.369428 34378 net.cpp:406] bbox_pred <- fc7_drop7_0_split_1
I1115 10:27:32.369433 34378 net.cpp:380] bbox_pred -> bbox_pred
I1115 10:27:32.374650 34378 net.cpp:122] Setting up bbox_pred
I1115 10:27:32.374660 34378 net.cpp:129] Top shape: 1 84 (84)
I1115 10:27:32.374663 34378 net.cpp:137] Memory required for data: 1423504388
I1115 10:27:32.374670 34378 layer_factory.hpp:77] Creating layer loss_cls
I1115 10:27:32.374676 34378 net.cpp:84] Creating Layer loss_cls
I1115 10:27:32.374680 34378 net.cpp:406] loss_cls <- cls_score
I1115 10:27:32.374685 34378 net.cpp:406] loss_cls <- labels
I1115 10:27:32.374689 34378 net.cpp:380] loss_cls -> loss_cls
…
I1115 16:04:40.435501 25568 upgrade_proto.cpp:70] Successfully upgraded file specified using deprecated input fields.
W1115 16:04:40.435504 25568 upgrade_proto.cpp:72] Note that future Caffe releases will only support input layers and not input fields.
I1115 16:04:40.435852 25568 net.cpp:51] Initializing net from parameters: 
name: "VGG_ILSVRC_16_layers"
state {
  phase: TEST
  level: 0
}
layer {
  name: "input"
  type: "Input"
  top: "data"
  top: "im_info"
  input_param {
    shape {
      dim: 1
      dim: 3
      dim: 224
      dim: 224
    }
    shape {
      dim: 1
      dim: 3
    }
  }
}
layer {
  name: "conv1_1"
  type: "Convolution"
  bottom: "data"
  top: "conv1_1"
  param {
    lr_mult: 0
    decay_mult: 0
  }
  param {
    lr_mult: 0
    decay_mult: 0
  }
  convolution_param {
    num_output: 64
    pad: 1
    kernel_size: 3
  }
}
layer {
  name: "relu1_1"
  type: "ReLU"
  bottom: "conv1_1"
  top: "conv1_1"
}
layer {
  name: "conv1_2"
  type: "Convolution"
  bottom: "conv1_1"
  top: "conv1_2"
  param {
    lr_mult: 0
    decay_mult: 0
  }
  param {
    lr_mult: 0
    decay_mult: 0
  }
  convolution_param {
    num_output: 64
    pad: 1
    kernel_size: 3
  }
}
layer {
  name: "relu1_2"
  type: "ReLU"
  bottom: "conv1_2"
  top: "conv1_2"
}
layer {
  name: "pool1"
  type: "Pooling"
  bottom: "conv1_2"
  top: "pool1"
  pooling_param {
    pool: MAX
    kernel_size: 2
    stride: 2
  }
}
layer {
  name: "conv2_1"
  type: "Convolution"
  bottom: "pool1"
  top: "conv2_1"
  param {
    lr_mult: 0
    decay_mult: 0
  }
  param {
    lr_mult: 0
    decay_mult: 0
  }
  convolution_param {
    num_output: 128
    pad: 1
    kernel_size: 3
  }
}
layer {
  name: "relu2_1"
  type: "ReLU"
  bottom: "conv2_1"
  top: "conv2_1"
}
layer {
  name: "conv2_2"
  type: "Convolution"
  bottom: "conv2_1"
  top: "conv2_2"
  param {
    lr_mult: 0
    decay_mult: 0
  }
  param {
    lr_mult: 0
    decay_mult: 0
  }
  convolution_param {
    num_output: 128
    pad: 1
    kernel_size: 3
  }
}
layer {
  name: "relu2_2"
  type: "ReLU"
  bottom: "conv2_2"
  top: "conv2_2"
}
layer {
  name: "pool2"
  type: "Pooling"
  bottom: "conv2_2"
  top: "pool2"
  pooling_param {
    pool: MAX
    kernel_size: 2
    stride: 2
  }
}
layer {
  name: "conv3_1"
  type: "Convolution"
  bottom: "pool2"
  top: "conv3_1"
  param {
    lr_mult: 1
    decay_mult: 1
  }
  param {
    lr_mult: 2
    decay_mult: 0
  }
  convolution_param {
    num_output: 256
    pad: 1
    kernel_size: 3
  }
}
layer {
  name: "relu3_1"
  type: "ReLU"
  bottom: "conv3_1"
  top: "conv3_1"
}
layer {
  name: "conv3_2"
  type: "Convolution"
  bottom: "conv3_1"
  top: "conv3_2"
  param {
    lr_mult: 1
    decay_mult: 1
  }
  param {
    lr_mult: 2
    decay_mult: 0
  }
  convolution_param {
    num_output: 256
    pad: 1
    kernel_size: 3
  }
}
layer {
  name: "relu3_2"
  type: "ReLU"
  bottom: "conv3_2"
  top: "conv3_2"
}
layer {
  name: "conv3_3"
  type: "Convolution"
  bottom: "conv3_2"
  top: "conv3_3"
  param {
    lr_mult: 1
    decay_mult: 1
  }
  param {
    lr_mult: 2
    decay_mult: 0
  }
  convolution_param {
    num_output: 256
    pad: 1
    kernel_size: 3
  }
}
layer {
  name: "relu3_3"
  type: "ReLU"
  bottom: "conv3_3"
  top: "conv3_3"
}
layer {
  name: "pool3"
  type: "Pooling"
  bottom: "conv3_3"
  top: "pool3"
  pooling_param {
    pool: MAX
    kernel_size: 2
    stride: 2
  }
}
layer {
  name: "conv4_1"
  type: "Convolution"
  bottom: "pool3"
  top: "conv4_1"
  param {
    lr_mult: 1
    decay_mult: 1
  }
  param {
    lr_mult: 2
    decay_mult: 0
  }
  convolution_param {
    num_output: 512
    pad: 1
    kernel_size: 3
  }
}
layer {
  name: "relu4_1"
  type: "ReLU"
  bottom: "conv4_1"
  top: "conv4_1"
}
layer {
  name: "conv4_2"
  type: "Convolution"
  bottom: "conv4_1"
  top: "conv4_2"
  param {
    lr_mult: 1
    decay_mult: 1
  }
  param {
    lr_mult: 2
    decay_mult: 0
  }
  convolution_param {
    num_output: 512
    pad: 1
    kernel_size: 3
  }
}
layer {
  name: "relu4_2"
  type: "ReLU"
  bottom: "conv4_2"
  top: "conv4_2"
}
layer {
  name: "conv4_3"
  type: "Convolution"
  bottom: "conv4_2"
  top: "conv4_3"
  param {
    lr_mult: 1
    decay_mult: 1
  }
  param {
    lr_mult: 2
    decay_mult: 0
  }
  convolution_param {
    num_output: 512
    pad: 1
    kernel_size: 3
  }
}
layer {
  name: "relu4_3"
  type: "ReLU"
  bottom: "conv4_3"
  top: "conv4_3"
}
layer {
  name: "pool4"
  type: "Pooling"
  bottom: "conv4_3"
  top: "pool4"
  pooling_param {
    pool: MAX
    kernel_size: 2
    stride: 2
  }
}
layer {
  name: "conv5_1"
  type: "Convolution"
  bottom: "pool4"
  top: "conv5_1"
  param {
    lr_mult: 1
    decay_mult: 1
  }
  param {
    lr_mult: 2
    decay_mult: 0
  }
  convolution_param {
    num_output: 512
    pad: 1
    kernel_size: 3
  }
}
layer {
  name: "relu5_1"
  type: "ReLU"
  bottom: "conv5_1"
  top: "conv5_1"
}
layer {
  name: "conv5_2"
  type: "Convolution"
  bottom: "conv5_1"
  top: "conv5_2"
  param {
    lr_mult: 1
    decay_mult: 1
  }
  param {
    lr_mult: 2
    decay_mult: 0
  }
  convolution_param {
    num_output: 512
    pad: 1
    kernel_size: 3
  }
}
layer {
  name: "relu5_2"
  type: "ReLU"
  bottom: "conv5_2"
  top: "conv5_2"
}
layer {
  name: "conv5_3"
  type: "Convolution"
  bottom: "conv5_2"
  top: "conv5_3"
  param {
    lr_mult: 1
    decay_mult: 1
  }
  param {
    lr_mult: 2
    decay_mult: 0
  }
  convolution_param {
    num_output: 512
    pad: 1
    kernel_size: 3
  }
}
layer {
  name: "relu5_3"
  type: "ReLU"
  bottom: "conv5_3"
  top: "conv5_3"
}
layer {
  name: "rpn_conv/3x3"
  type: "Convolution"
  bottom: "conv5_3"
  top: "rpn/output"
  param {
    lr_mult: 1
    decay_mult: 1
  }
  param {
    lr_mult: 2
    decay_mult: 0
  }
  convolution_param {
    num_output: 512
    pad: 1
    kernel_size: 3
    stride: 1
    weight_filler {
      type: "gaussian"
      std: 0.01
    }
    bias_filler {
      type: "constant"
      value: 0
    }
  }
}
layer {
  name: "rpn_relu/3x3"
  type: "ReLU"
  bottom: "rpn/output"
  top: "rpn/output"
}
layer {
  name: "rpn_cls_score"
  type: "Convolution"
  bottom: "rpn/output"
  top: "rpn_cls_score"
  param {
    lr_mult: 1
    decay_mult: 1
  }
  param {
    lr_mult: 2
    decay_mult: 0
  }
  convolution_param {
    num_output: 18
    pad: 0
    kernel_size: 1
    stride: 1
    weight_filler {
      type: "gaussian"
      std: 0.01
    }
    bias_filler {
      type: "constant"
      value: 0
    }
  }
}
layer {
  name: "rpn_bbox_pred"
  type: "Convolution"
  bottom: "rpn/output"
  top: "rpn_bbox_pred"
  param {
    lr_mult: 1
    decay_mult: 1
  }
  param {
    lr_mult: 2
    decay_mult: 0
  }
  convolution_param {
    num_output: 36
    pad: 0
    kernel_size: 1
    stride: 1
    weight_filler {
      type: "gaussian"
      std: 0.01
    }
    bias_filler {
      type: "constant"
      value: 0
    }
  }
}
layer {
  name: "rpn_cls_score_reshape"
  type: "Reshape"
  bottom: "rpn_cls_score"
  top: "rpn_cls_score_reshape"
  reshape_param {
    shape {
      dim: 0
      dim: 2
      dim: -1
      dim: 0
    }
  }
}
layer {
  name: "rpn_cls_prob"
  type: "Softmax"
  bottom: "rpn_cls_score_reshape"
  top: "rpn_cls_prob"
}
layer {
  name: "rpn_cls_prob_reshape"
  type: "Reshape"
  bottom: "rpn_cls_prob"
  top: "rpn_cls_prob_reshape"
  reshape_param {
    shape {
      dim: 0
      dim: 18
      dim: -1
      dim: 0
    }
  }
}
layer {
  name: "proposal"
  type: "Python"
  bottom: "rpn_cls_prob_reshape"
  bottom: "rpn_bbox_pred"
  bottom: "im_info"
  top: "rois"
  python_param {
    module: "rpn.proposal_layer"
    layer: "ProposalLayer"
    param_str: "\'feat_stride\': 16"
  }
}
layer {
  name: "roi_pool5"
  type: "ROIPooling"
  bottom: "conv5_3"
  bottom: "rois"
  top: "pool5"
  roi_pooling_param {
    pooled_h: 7
    pooled_w: 7
    spatial_scale: 0.0625
  }
}
layer {
  name: "fc6"
  type: "InnerProduct"
  bottom: "pool5"
  top: "fc6"
  param {
    lr_mult: 1
    decay_mult: 1
  }
  param {
    lr_mult: 2
    decay_mult: 0
  }
  inner_product_param {
    num_output: 4096
  }
}
layer {
  name: "relu6"
  type: "ReLU"
  bottom: "fc6"
  top: "fc6"
}
layer {
  name: "drop6"
  type: "Dropout"
  bottom: "fc6"
  top: "fc6"
  dropout_param {
    dropout_ratio: 0.5
  }
}
layer {
  name: "fc7"
  type: "InnerProduct"
  bottom: "fc6"
  top: "fc7"
  param {
    lr_mult: 1
    decay_mult: 1
  }
  param {
    lr_mult: 2
    decay_mult: 0
  }
  inner_product_param {
    num_output: 4096
  }
}
layer {
  name: "relu7"
  type: "ReLU"
  bottom: "fc7"
  top: "fc7"
}
layer {
  name: "drop7"
  type: "Dropout"
  bottom: "fc7"
  top: "fc7"
  dropout_param {
    dropout_ratio: 0.5
  }
}
layer {
  name: "cls_score"
  type: "InnerProduct"
  bottom: "fc7"
  top: "cls_score"
  param {
    lr_mult: 1
    decay_mult: 1
  }
  param {
    lr_mult: 2
    decay_mult: 0
  }
  inner_product_param {
    num_output: 21
    weight_filler {
      type: "gaussian"
      std: 0.01
    }
    bias_filler {
      type: "constant"
      value: 0
    }
  }
}
layer {
  name: "bbox_pred"
  type: "InnerProduct"
  bottom: "fc7"
  top: "bbox_pred"
  param {
    lr_mult: 1
    decay_mult: 1
  }
  param {
    lr_mult: 2
    decay_mult: 0
  }
  inner_product_param {
    num_output: 84
    weight_filler {
      type: "gaussian"
      std: 0.001
    }
    bias_filler {
      type: "constant"
      value: 0
    }
  }
}
layer {
  name: "cls_prob"
  type: "Softmax"
  bottom: "cls_score"
  top: "cls_prob"
}
I1115 16:04:40.436066 25568 layer_factory.hpp:77] Creating layer input
I1115 16:04:40.436079 25568 net.cpp:84] Creating Layer input
I1115 16:04:40.436084 25568 net.cpp:380] input -> data
I1115 16:04:40.436100 25568 net.cpp:380] input -> im_info
I1115 16:04:40.458622 25568 net.cpp:122] Setting up input
I1115 16:04:40.458644 25568 net.cpp:129] Top shape: 1 3 224 224 (150528)
I1115 16:04:40.458649 25568 net.cpp:129] Top shape: 1 3 (3)
I1115 16:04:40.458652 25568 net.cpp:137] Memory required for data: 602124
I1115 16:04:40.458655 25568 layer_factory.hpp:77] Creating layer conv1_1
I1115 16:04:40.458667 25568 net.cpp:84] Creating Layer conv1_1
I1115 16:04:40.458670 25568 net.cpp:406] conv1_1 <- data
I1115 16:04:40.458676 25568 net.cpp:380] conv1_1 -> conv1_1
I1115 16:04:40.950330 25568 net.cpp:122] Setting up conv1_1
I1115 16:04:40.950357 25568 net.cpp:129] Top shape: 1 64 224 224 (3211264)
I1115 16:04:40.950361 25568 net.cpp:137] Memory required for data: 13447180
I1115 16:04:40.950373 25568 layer_factory.hpp:77] Creating layer relu1_1
I1115 16:04:40.950383 25568 net.cpp:84] Creating Layer relu1_1
I1115 16:04:40.950387 25568 net.cpp:406] relu1_1 <- conv1_1
I1115 16:04:40.950392 25568 net.cpp:367] relu1_1 -> conv1_1 (in-place)
I1115 16:04:40.951249 25568 net.cpp:122] Setting up relu1_1
I1115 16:04:40.951277 25568 net.cpp:129] Top shape: 1 64 224 224 (3211264)
I1115 16:04:40.951278 25568 net.cpp:137] Memory required for data: 26292236
I1115 16:04:40.951282 25568 layer_factory.hpp:77] Creating layer conv1_2
I1115 16:04:40.951290 25568 net.cpp:84] Creating Layer conv1_2
I1115 16:04:40.951293 25568 net.cpp:406] conv1_2 <- conv1_1
I1115 16:04:40.951297 25568 net.cpp:380] conv1_2 -> conv1_2
I1115 16:04:40.952687 25568 net.cpp:122] Setting up conv1_2
I1115 16:04:40.952697 25568 net.cpp:129] Top shape: 1 64 224 224 (3211264)
I1115 16:04:40.952698 25568 net.cpp:137] Memory required for data: 39137292
I1115 16:04:40.952704 25568 layer_factory.hpp:77] Creating layer relu1_2
I1115 16:04:40.952711 25568 net.cpp:84] Creating Layer relu1_2
I1115 16:04:40.952713 25568 net.cpp:406] relu1_2 <- conv1_2
I1115 16:04:40.952716 25568 net.cpp:367] relu1_2 -> conv1_2 (in-place)
I1115 16:04:40.952913 25568 net.cpp:122] Setting up relu1_2
I1115 16:04:40.952921 25568 net.cpp:129] Top shape: 1 64 224 224 (3211264)
I1115 16:04:40.952924 25568 net.cpp:137] Memory required for data: 51982348
I1115 16:04:40.952925 25568 layer_factory.hpp:77] Creating layer pool1
I1115 16:04:40.952932 25568 net.cpp:84] Creating Layer pool1
I1115 16:04:40.952935 25568 net.cpp:406] pool1 <- conv1_2
I1115 16:04:40.952939 25568 net.cpp:380] pool1 -> pool1
I1115 16:04:40.952992 25568 net.cpp:122] Setting up pool1
I1115 16:04:40.952998 25568 net.cpp:129] Top shape: 1 64 112 112 (802816)
I1115 16:04:40.953001 25568 net.cpp:137] Memory required for data: 55193612
I1115 16:04:40.953002 25568 layer_factory.hpp:77] Creating layer conv2_1
I1115 16:04:40.953009 25568 net.cpp:84] Creating Layer conv2_1
I1115 16:04:40.953011 25568 net.cpp:406] conv2_1 <- pool1
I1115 16:04:40.953017 25568 net.cpp:380] conv2_1 -> conv2_1
I1115 16:04:40.956985 25568 net.cpp:122] Setting up conv2_1
I1115 16:04:40.956997 25568 net.cpp:129] Top shape: 1 128 112 112 (1605632)
I1115 16:04:40.957000 25568 net.cpp:137] Memory required for data: 61616140
I1115 16:04:40.957006 25568 layer_factory.hpp:77] Creating layer relu2_1
I1115 16:04:40.957012 25568 net.cpp:84] Creating Layer relu2_1
I1115 16:04:40.957015 25568 net.cpp:406] relu2_1 <- conv2_1
I1115 16:04:40.957033 25568 net.cpp:367] relu2_1 -> conv2_1 (in-place)
I1115 16:04:40.957249 25568 net.cpp:122] Setting up relu2_1
I1115 16:04:40.957257 25568 net.cpp:129] Top shape: 1 128 112 112 (1605632)
I1115 16:04:40.957258 25568 net.cpp:137] Memory required for data: 68038668
I1115 16:04:40.957260 25568 layer_factory.hpp:77] Creating layer conv2_2
I1115 16:04:40.957269 25568 net.cpp:84] Creating Layer conv2_2
I1115 16:04:40.957271 25568 net.cpp:406] conv2_2 <- conv2_1
I1115 16:04:40.957279 25568 net.cpp:380] conv2_2 -> conv2_2
I1115 16:04:40.959231 25568 net.cpp:122] Setting up conv2_2
I1115 16:04:40.959241 25568 net.cpp:129] Top shape: 1 128 112 112 (1605632)
I1115 16:04:40.959259 25568 net.cpp:137] Memory required for data: 74461196
I1115 16:04:40.959264 25568 layer_factory.hpp:77] Creating layer relu2_2
I1115 16:04:40.959270 25568 net.cpp:84] Creating Layer relu2_2
I1115 16:04:40.959271 25568 net.cpp:406] relu2_2 <- conv2_2
I1115 16:04:40.959275 25568 net.cpp:367] relu2_2 -> conv2_2 (in-place)
I1115 16:04:40.960152 25568 net.cpp:122] Setting up relu2_2
I1115 16:04:40.960161 25568 net.cpp:129] Top shape: 1 128 112 112 (1605632)
I1115 16:04:40.960178 25568 net.cpp:137] Memory required for data: 80883724
I1115 16:04:40.960181 25568 layer_factory.hpp:77] Creating layer pool2
I1115 16:04:40.960187 25568 net.cpp:84] Creating Layer pool2
I1115 16:04:40.960189 25568 net.cpp:406] pool2 <- conv2_2
I1115 16:04:40.960196 25568 net.cpp:380] pool2 -> pool2
I1115 16:04:40.960266 25568 net.cpp:122] Setting up pool2
I1115 16:04:40.960273 25568 net.cpp:129] Top shape: 1 128 56 56 (401408)
I1115 16:04:40.960274 25568 net.cpp:137] Memory required for data: 82489356
I1115 16:04:40.960276 25568 layer_factory.hpp:77] Creating layer conv3_1
I1115 16:04:40.960283 25568 net.cpp:84] Creating Layer conv3_1
I1115 16:04:40.960285 25568 net.cpp:406] conv3_1 <- pool2
I1115 16:04:40.960289 25568 net.cpp:380] conv3_1 -> conv3_1
I1115 16:04:40.962380 25568 net.cpp:122] Setting up conv3_1
I1115 16:04:40.962409 25568 net.cpp:129] Top shape: 1 256 56 56 (802816)
I1115 16:04:40.962410 25568 net.cpp:137] Memory required for data: 85700620
I1115 16:04:40.962417 25568 layer_factory.hpp:77] Creating layer relu3_1
I1115 16:04:40.962424 25568 net.cpp:84] Creating Layer relu3_1
I1115 16:04:40.962425 25568 net.cpp:406] relu3_1 <- conv3_1
I1115 16:04:40.962433 25568 net.cpp:367] relu3_1 -> conv3_1 (in-place)
I1115 16:04:40.962618 25568 net.cpp:122] Setting up relu3_1
I1115 16:04:40.962626 25568 net.cpp:129] Top shape: 1 256 56 56 (802816)
I1115 16:04:40.962627 25568 net.cpp:137] Memory required for data: 88911884
I1115 16:04:40.962630 25568 layer_factory.hpp:77] Creating layer conv3_2
I1115 16:04:40.962637 25568 net.cpp:84] Creating Layer conv3_2
I1115 16:04:40.962641 25568 net.cpp:406] conv3_2 <- conv3_1
I1115 16:04:40.962646 25568 net.cpp:380] conv3_2 -> conv3_2
I1115 16:04:40.966032 25568 net.cpp:122] Setting up conv3_2
I1115 16:04:40.966043 25568 net.cpp:129] Top shape: 1 256 56 56 (802816)
I1115 16:04:40.966061 25568 net.cpp:137] Memory required for data: 92123148
I1115 16:04:40.966066 25568 layer_factory.hpp:77] Creating layer relu3_2
I1115 16:04:40.966070 25568 net.cpp:84] Creating Layer relu3_2
I1115 16:04:40.966073 25568 net.cpp:406] relu3_2 <- conv3_2
I1115 16:04:40.966078 25568 net.cpp:367] relu3_2 -> conv3_2 (in-place)
I1115 16:04:40.966287 25568 net.cpp:122] Setting up relu3_2
I1115 16:04:40.966295 25568 net.cpp:129] Top shape: 1 256 56 56 (802816)
I1115 16:04:40.966295 25568 net.cpp:137] Memory required for data: 95334412
I1115 16:04:40.966298 25568 layer_factory.hpp:77] Creating layer conv3_3
I1115 16:04:40.966306 25568 net.cpp:84] Creating Layer conv3_3
I1115 16:04:40.966308 25568 net.cpp:406] conv3_3 <- conv3_2
I1115 16:04:40.966313 25568 net.cpp:380] conv3_3 -> conv3_3
I1115 16:04:40.969759 25568 net.cpp:122] Setting up conv3_3
I1115 16:04:40.969769 25568 net.cpp:129] Top shape: 1 256 56 56 (802816)
I1115 16:04:40.969787 25568 net.cpp:137] Memory required for data: 98545676
I1115 16:04:40.969791 25568 layer_factory.hpp:77] Creating layer relu3_3
I1115 16:04:40.969799 25568 net.cpp:84] Creating Layer relu3_3
I1115 16:04:40.969801 25568 net.cpp:406] relu3_3 <- conv3_3
I1115 16:04:40.969805 25568 net.cpp:367] relu3_3 -> conv3_3 (in-place)
I1115 16:04:40.970006 25568 net.cpp:122] Setting up relu3_3
I1115 16:04:40.970015 25568 net.cpp:129] Top shape: 1 256 56 56 (802816)
I1115 16:04:40.970016 25568 net.cpp:137] Memory required for data: 101756940
I1115 16:04:40.970018 25568 layer_factory.hpp:77] Creating layer pool3
I1115 16:04:40.970023 25568 net.cpp:84] Creating Layer pool3
I1115 16:04:40.970026 25568 net.cpp:406] pool3 <- conv3_3
I1115 16:04:40.970029 25568 net.cpp:380] pool3 -> pool3
I1115 16:04:40.970070 25568 net.cpp:122] Setting up pool3
I1115 16:04:40.970075 25568 net.cpp:129] Top shape: 1 256 28 28 (200704)
I1115 16:04:40.970077 25568 net.cpp:137] Memory required for data: 102559756
I1115 16:04:40.970079 25568 layer_factory.hpp:77] Creating layer conv4_1
I1115 16:04:40.970093 25568 net.cpp:84] Creating Layer conv4_1
I1115 16:04:40.970094 25568 net.cpp:406] conv4_1 <- pool3
I1115 16:04:40.970098 25568 net.cpp:380] conv4_1 -> conv4_1
I1115 16:04:40.975675 25568 net.cpp:122] Setting up conv4_1
I1115 16:04:40.975687 25568 net.cpp:129] Top shape: 1 512 28 28 (401408)
I1115 16:04:40.975704 25568 net.cpp:137] Memory required for data: 104165388
I1115 16:04:40.975709 25568 layer_factory.hpp:77] Creating layer relu4_1
I1115 16:04:40.975716 25568 net.cpp:84] Creating Layer relu4_1
I1115 16:04:40.975718 25568 net.cpp:406] relu4_1 <- conv4_1
I1115 16:04:40.975723 25568 net.cpp:367] relu4_1 -> conv4_1 (in-place)
I1115 16:04:40.976507 25568 net.cpp:122] Setting up relu4_1
I1115 16:04:40.976517 25568 net.cpp:129] Top shape: 1 512 28 28 (401408)
I1115 16:04:40.976534 25568 net.cpp:137] Memory required for data: 105771020
I1115 16:04:40.976536 25568 layer_factory.hpp:77] Creating layer conv4_2
I1115 16:04:40.976544 25568 net.cpp:84] Creating Layer conv4_2
I1115 16:04:40.976547 25568 net.cpp:406] conv4_2 <- conv4_1
I1115 16:04:40.976552 25568 net.cpp:380] conv4_2 -> conv4_2
I1115 16:04:40.982767 25568 net.cpp:122] Setting up conv4_2
I1115 16:04:40.982780 25568 net.cpp:129] Top shape: 1 512 28 28 (401408)
I1115 16:04:40.982782 25568 net.cpp:137] Memory required for data: 107376652
I1115 16:04:40.982790 25568 layer_factory.hpp:77] Creating layer relu4_2
I1115 16:04:40.982796 25568 net.cpp:84] Creating Layer relu4_2
I1115 16:04:40.982798 25568 net.cpp:406] relu4_2 <- conv4_2
I1115 16:04:40.982802 25568 net.cpp:367] relu4_2 -> conv4_2 (in-place)
I1115 16:04:40.983000 25568 net.cpp:122] Setting up relu4_2
I1115 16:04:40.983006 25568 net.cpp:129] Top shape: 1 512 28 28 (401408)
I1115 16:04:40.983009 25568 net.cpp:137] Memory required for data: 108982284
I1115 16:04:40.983011 25568 layer_factory.hpp:77] Creating layer conv4_3
I1115 16:04:40.983018 25568 net.cpp:84] Creating Layer conv4_3
I1115 16:04:40.983021 25568 net.cpp:406] conv4_3 <- conv4_2
I1115 16:04:40.983026 25568 net.cpp:380] conv4_3 -> conv4_3
I1115 16:04:40.989359 25568 net.cpp:122] Setting up conv4_3
I1115 16:04:40.989372 25568 net.cpp:129] Top shape: 1 512 28 28 (401408)
I1115 16:04:40.989388 25568 net.cpp:137] Memory required for data: 110587916
I1115 16:04:40.989394 25568 layer_factory.hpp:77] Creating layer relu4_3
I1115 16:04:40.989398 25568 net.cpp:84] Creating Layer relu4_3
I1115 16:04:40.989400 25568 net.cpp:406] relu4_3 <- conv4_3
I1115 16:04:40.989406 25568 net.cpp:367] relu4_3 -> conv4_3 (in-place)
I1115 16:04:40.989593 25568 net.cpp:122] Setting up relu4_3
I1115 16:04:40.989600 25568 net.cpp:129] Top shape: 1 512 28 28 (401408)
I1115 16:04:40.989603 25568 net.cpp:137] Memory required for data: 112193548
I1115 16:04:40.989604 25568 layer_factory.hpp:77] Creating layer pool4
I1115 16:04:40.989610 25568 net.cpp:84] Creating Layer pool4
I1115 16:04:40.989612 25568 net.cpp:406] pool4 <- conv4_3
I1115 16:04:40.989617 25568 net.cpp:380] pool4 -> pool4
I1115 16:04:40.989656 25568 net.cpp:122] Setting up pool4
I1115 16:04:40.989662 25568 net.cpp:129] Top shape: 1 512 14 14 (100352)
I1115 16:04:40.989663 25568 net.cpp:137] Memory required for data: 112594956
I1115 16:04:40.989665 25568 layer_factory.hpp:77] Creating layer conv5_1
I1115 16:04:40.989671 25568 net.cpp:84] Creating Layer conv5_1
I1115 16:04:40.989675 25568 net.cpp:406] conv5_1 <- pool4
I1115 16:04:40.989681 25568 net.cpp:380] conv5_1 -> conv5_1
I1115 16:04:40.996352 25568 net.cpp:122] Setting up conv5_1
I1115 16:04:40.996364 25568 net.cpp:129] Top shape: 1 512 14 14 (100352)
I1115 16:04:40.996367 25568 net.cpp:137] Memory required for data: 112996364
I1115 16:04:40.996372 25568 layer_factory.hpp:77] Creating layer relu5_1
I1115 16:04:40.996376 25568 net.cpp:84] Creating Layer relu5_1
I1115 16:04:40.996378 25568 net.cpp:406] relu5_1 <- conv5_1
I1115 16:04:40.996383 25568 net.cpp:367] relu5_1 -> conv5_1 (in-place)
I1115 16:04:40.997261 25568 net.cpp:122] Setting up relu5_1
I1115 16:04:40.997288 25568 net.cpp:129] Top shape: 1 512 14 14 (100352)
I1115 16:04:40.997290 25568 net.cpp:137] Memory required for data: 113397772
I1115 16:04:40.997293 25568 layer_factory.hpp:77] Creating layer conv5_2
I1115 16:04:40.997300 25568 net.cpp:84] Creating Layer conv5_2
I1115 16:04:40.997303 25568 net.cpp:406] conv5_2 <- conv5_1
I1115 16:04:40.997308 25568 net.cpp:380] conv5_2 -> conv5_2
I1115 16:04:41.004210 25568 net.cpp:122] Setting up conv5_2
I1115 16:04:41.004223 25568 net.cpp:129] Top shape: 1 512 14 14 (100352)
I1115 16:04:41.004225 25568 net.cpp:137] Memory required for data: 113799180
I1115 16:04:41.004230 25568 layer_factory.hpp:77] Creating layer relu5_2
I1115 16:04:41.004235 25568 net.cpp:84] Creating Layer relu5_2
I1115 16:04:41.004237 25568 net.cpp:406] relu5_2 <- conv5_2
I1115 16:04:41.004240 25568 net.cpp:367] relu5_2 -> conv5_2 (in-place)
I1115 16:04:41.004447 25568 net.cpp:122] Setting up relu5_2
I1115 16:04:41.004456 25568 net.cpp:129] Top shape: 1 512 14 14 (100352)
I1115 16:04:41.004458 25568 net.cpp:137] Memory required for data: 114200588
I1115 16:04:41.004461 25568 layer_factory.hpp:77] Creating layer conv5_3
I1115 16:04:41.004467 25568 net.cpp:84] Creating Layer conv5_3
I1115 16:04:41.004484 25568 net.cpp:406] conv5_3 <- conv5_2
I1115 16:04:41.004490 25568 net.cpp:380] conv5_3 -> conv5_3
I1115 16:04:41.011409 25568 net.cpp:122] Setting up conv5_3
I1115 16:04:41.011420 25568 net.cpp:129] Top shape: 1 512 14 14 (100352)
I1115 16:04:41.011422 25568 net.cpp:137] Memory required for data: 114601996
I1115 16:04:41.011427 25568 layer_factory.hpp:77] Creating layer relu5_3
I1115 16:04:41.011432 25568 net.cpp:84] Creating Layer relu5_3
I1115 16:04:41.011435 25568 net.cpp:406] relu5_3 <- conv5_3
I1115 16:04:41.011438 25568 net.cpp:367] relu5_3 -> conv5_3 (in-place)
I1115 16:04:41.011665 25568 net.cpp:122] Setting up relu5_3
I1115 16:04:41.011673 25568 net.cpp:129] Top shape: 1 512 14 14 (100352)
I1115 16:04:41.011675 25568 net.cpp:137] Memory required for data: 115003404
I1115 16:04:41.011677 25568 layer_factory.hpp:77] Creating layer conv5_3_relu5_3_0_split
I1115 16:04:41.011682 25568 net.cpp:84] Creating Layer conv5_3_relu5_3_0_split
I1115 16:04:41.011684 25568 net.cpp:406] conv5_3_relu5_3_0_split <- conv5_3
I1115 16:04:41.011704 25568 net.cpp:380] conv5_3_relu5_3_0_split -> conv5_3_relu5_3_0_split_0
I1115 16:04:41.011711 25568 net.cpp:380] conv5_3_relu5_3_0_split -> conv5_3_relu5_3_0_split_1
I1115 16:04:41.011754 25568 net.cpp:122] Setting up conv5_3_relu5_3_0_split
I1115 16:04:41.011759 25568 net.cpp:129] Top shape: 1 512 14 14 (100352)
I1115 16:04:41.011762 25568 net.cpp:129] Top shape: 1 512 14 14 (100352)
I1115 16:04:41.011765 25568 net.cpp:137] Memory required for data: 115806220
I1115 16:04:41.011766 25568 layer_factory.hpp:77] Creating layer rpn_conv/3x3
I1115 16:04:41.011782 25568 net.cpp:84] Creating Layer rpn_conv/3x3
I1115 16:04:41.011785 25568 net.cpp:406] rpn_conv/3x3 <- conv5_3_relu5_3_0_split_0
I1115 16:04:41.011790 25568 net.cpp:380] rpn_conv/3x3 -> rpn/output
I1115 16:04:41.035739 25568 net.cpp:122] Setting up rpn_conv/3x3
I1115 16:04:41.035753 25568 net.cpp:129] Top shape: 1 512 14 14 (100352)
I1115 16:04:41.035769 25568 net.cpp:137] Memory required for data: 116207628
I1115 16:04:41.035775 25568 layer_factory.hpp:77] Creating layer rpn_relu/3x3
I1115 16:04:41.035784 25568 net.cpp:84] Creating Layer rpn_relu/3x3
I1115 16:04:41.035787 25568 net.cpp:406] rpn_relu/3x3 <- rpn/output
I1115 16:04:41.035790 25568 net.cpp:367] rpn_relu/3x3 -> rpn/output (in-place)
I1115 16:04:41.036633 25568 net.cpp:122] Setting up rpn_relu/3x3
I1115 16:04:41.036659 25568 net.cpp:129] Top shape: 1 512 14 14 (100352)
I1115 16:04:41.036662 25568 net.cpp:137] Memory required for data: 116609036
I1115 16:04:41.036664 25568 layer_factory.hpp:77] Creating layer rpn/output_rpn_relu/3x3_0_split
I1115 16:04:41.036669 25568 net.cpp:84] Creating Layer rpn/output_rpn_relu/3x3_0_split
I1115 16:04:41.036672 25568 net.cpp:406] rpn/output_rpn_relu/3x3_0_split <- rpn/output
I1115 16:04:41.036679 25568 net.cpp:380] rpn/output_rpn_relu/3x3_0_split -> rpn/output_rpn_relu/3x3_0_split_0
I1115 16:04:41.036684 25568 net.cpp:380] rpn/output_rpn_relu/3x3_0_split -> rpn/output_rpn_relu/3x3_0_split_1
I1115 16:04:41.036736 25568 net.cpp:122] Setting up rpn/output_rpn_relu/3x3_0_split
I1115 16:04:41.036741 25568 net.cpp:129] Top shape: 1 512 14 14 (100352)
I1115 16:04:41.036744 25568 net.cpp:129] Top shape: 1 512 14 14 (100352)
I1115 16:04:41.036746 25568 net.cpp:137] Memory required for data: 117411852
I1115 16:04:41.036748 25568 layer_factory.hpp:77] Creating layer rpn_cls_score
I1115 16:04:41.036757 25568 net.cpp:84] Creating Layer rpn_cls_score
I1115 16:04:41.036759 25568 net.cpp:406] rpn_cls_score <- rpn/output_rpn_relu/3x3_0_split_0
I1115 16:04:41.036765 25568 net.cpp:380] rpn_cls_score -> rpn_cls_score
I1115 16:04:41.038796 25568 net.cpp:122] Setting up rpn_cls_score
I1115 16:04:41.038807 25568 net.cpp:129] Top shape: 1 18 14 14 (3528)
I1115 16:04:41.038825 25568 net.cpp:137] Memory required for data: 117425964
I1115 16:04:41.038830 25568 layer_factory.hpp:77] Creating layer rpn_bbox_pred
I1115 16:04:41.038839 25568 net.cpp:84] Creating Layer rpn_bbox_pred
I1115 16:04:41.038842 25568 net.cpp:406] rpn_bbox_pred <- rpn/output_rpn_relu/3x3_0_split_1
I1115 16:04:41.038848 25568 net.cpp:380] rpn_bbox_pred -> rpn_bbox_pred
I1115 16:04:41.041067 25568 net.cpp:122] Setting up rpn_bbox_pred
I1115 16:04:41.041079 25568 net.cpp:129] Top shape: 1 36 14 14 (7056)
I1115 16:04:41.041081 25568 net.cpp:137] Memory required for data: 117454188
I1115 16:04:41.041085 25568 layer_factory.hpp:77] Creating layer rpn_cls_score_reshape
I1115 16:04:41.041107 25568 net.cpp:84] Creating Layer rpn_cls_score_reshape
I1115 16:04:41.041110 25568 net.cpp:406] rpn_cls_score_reshape <- rpn_cls_score
I1115 16:04:41.041115 25568 net.cpp:380] rpn_cls_score_reshape -> rpn_cls_score_reshape
I1115 16:04:41.041182 25568 net.cpp:122] Setting up rpn_cls_score_reshape
I1115 16:04:41.041188 25568 net.cpp:129] Top shape: 1 2 126 14 (3528)
I1115 16:04:41.041189 25568 net.cpp:137] Memory required for data: 117468300
I1115 16:04:41.041191 25568 layer_factory.hpp:77] Creating layer rpn_cls_prob
I1115 16:04:41.041198 25568 net.cpp:84] Creating Layer rpn_cls_prob
I1115 16:04:41.041200 25568 net.cpp:406] rpn_cls_prob <- rpn_cls_score_reshape
I1115 16:04:41.041204 25568 net.cpp:380] rpn_cls_prob -> rpn_cls_prob
I1115 16:04:41.041456 25568 net.cpp:122] Setting up rpn_cls_prob
I1115 16:04:41.041465 25568 net.cpp:129] Top shape: 1 2 126 14 (3528)
I1115 16:04:41.041467 25568 net.cpp:137] Memory required for data: 117482412
I1115 16:04:41.041470 25568 layer_factory.hpp:77] Creating layer rpn_cls_prob_reshape
I1115 16:04:41.041474 25568 net.cpp:84] Creating Layer rpn_cls_prob_reshape
I1115 16:04:41.041476 25568 net.cpp:406] rpn_cls_prob_reshape <- rpn_cls_prob
I1115 16:04:41.041482 25568 net.cpp:380] rpn_cls_prob_reshape -> rpn_cls_prob_reshape
I1115 16:04:41.041535 25568 net.cpp:122] Setting up rpn_cls_prob_reshape
I1115 16:04:41.041541 25568 net.cpp:129] Top shape: 1 18 14 14 (3528)
I1115 16:04:41.041543 25568 net.cpp:137] Memory required for data: 117496524
I1115 16:04:41.041545 25568 layer_factory.hpp:77] Creating layer proposal
I1115 16:04:41.042603 25568 net.cpp:84] Creating Layer proposal
I1115 16:04:41.042613 25568 net.cpp:406] proposal <- rpn_cls_prob_reshape
I1115 16:04:41.042631 25568 net.cpp:406] proposal <- rpn_bbox_pred
I1115 16:04:41.042634 25568 net.cpp:406] proposal <- im_info
I1115 16:04:41.042639 25568 net.cpp:380] proposal -> rois
I1115 16:04:41.045733 25568 net.cpp:122] Setting up proposal
I1115 16:04:41.045744 25568 net.cpp:129] Top shape: 1 5 (5)
I1115 16:04:41.045745 25568 net.cpp:137] Memory required for data: 117496544
I1115 16:04:41.045748 25568 layer_factory.hpp:77] Creating layer roi_pool5
I1115 16:04:41.045753 25568 net.cpp:84] Creating Layer roi_pool5
I1115 16:04:41.045755 25568 net.cpp:406] roi_pool5 <- conv5_3_relu5_3_0_split_1
I1115 16:04:41.045759 25568 net.cpp:406] roi_pool5 <- rois
I1115 16:04:41.045763 25568 net.cpp:380] roi_pool5 -> pool5
I1115 16:04:41.045769 25568 roi_pooling_layer.cpp:30] Spatial scale: 0.0625
I1115 16:04:41.045845 25568 net.cpp:122] Setting up roi_pool5
I1115 16:04:41.045851 25568 net.cpp:129] Top shape: 1 512 7 7 (25088)
I1115 16:04:41.045853 25568 net.cpp:137] Memory required for data: 117596896
I1115 16:04:41.045855 25568 layer_factory.hpp:77] Creating layer fc6
I1115 16:04:41.045861 25568 net.cpp:84] Creating Layer fc6
I1115 16:04:41.045862 25568 net.cpp:406] fc6 <- pool5
I1115 16:04:41.045867 25568 net.cpp:380] fc6 -> fc6
I1115 16:04:41.300921 25568 net.cpp:122] Setting up fc6
I1115 16:04:41.300954 25568 net.cpp:129] Top shape: 1 4096 (4096)
I1115 16:04:41.300956 25568 net.cpp:137] Memory required for data: 117613280
I1115 16:04:41.300972 25568 layer_factory.hpp:77] Creating layer relu6
I1115 16:04:41.300997 25568 net.cpp:84] Creating Layer relu6
I1115 16:04:41.301000 25568 net.cpp:406] relu6 <- fc6
I1115 16:04:41.301007 25568 net.cpp:367] relu6 -> fc6 (in-place)
I1115 16:04:41.301342 25568 net.cpp:122] Setting up relu6
I1115 16:04:41.301363 25568 net.cpp:129] Top shape: 1 4096 (4096)
I1115 16:04:41.301365 25568 net.cpp:137] Memory required for data: 117629664
I1115 16:04:41.301367 25568 layer_factory.hpp:77] Creating layer drop6
I1115 16:04:41.301388 25568 net.cpp:84] Creating Layer drop6
I1115 16:04:41.301389 25568 net.cpp:406] drop6 <- fc6
I1115 16:04:41.301401 25568 net.cpp:367] drop6 -> fc6 (in-place)
I1115 16:04:41.301458 25568 net.cpp:122] Setting up drop6
I1115 16:04:41.301465 25568 net.cpp:129] Top shape: 1 4096 (4096)
I1115 16:04:41.301466 25568 net.cpp:137] Memory required for data: 117646048
I1115 16:04:41.301470 25568 layer_factory.hpp:77] Creating layer fc7
I1115 16:04:41.301475 25568 net.cpp:84] Creating Layer fc7
I1115 16:04:41.301476 25568 net.cpp:406] fc7 <- fc6
I1115 16:04:41.301481 25568 net.cpp:380] fc7 -> fc7
I1115 16:04:41.344296 25568 net.cpp:122] Setting up fc7
I1115 16:04:41.344333 25568 net.cpp:129] Top shape: 1 4096 (4096)
I1115 16:04:41.344336 25568 net.cpp:137] Memory required for data: 117662432
I1115 16:04:41.344346 25568 layer_factory.hpp:77] Creating layer relu7
I1115 16:04:41.344353 25568 net.cpp:84] Creating Layer relu7
I1115 16:04:41.344355 25568 net.cpp:406] relu7 <- fc7
I1115 16:04:41.344360 25568 net.cpp:367] relu7 -> fc7 (in-place)
I1115 16:04:41.344663 25568 net.cpp:122] Setting up relu7
I1115 16:04:41.344671 25568 net.cpp:129] Top shape: 1 4096 (4096)
I1115 16:04:41.344673 25568 net.cpp:137] Memory required for data: 117678816
I1115 16:04:41.344676 25568 layer_factory.hpp:77] Creating layer drop7
I1115 16:04:41.344682 25568 net.cpp:84] Creating Layer drop7
I1115 16:04:41.344686 25568 net.cpp:406] drop7 <- fc7
I1115 16:04:41.344688 25568 net.cpp:367] drop7 -> fc7 (in-place)
I1115 16:04:41.344715 25568 net.cpp:122] Setting up drop7
I1115 16:04:41.344719 25568 net.cpp:129] Top shape: 1 4096 (4096)
I1115 16:04:41.344722 25568 net.cpp:137] Memory required for data: 117695200
I1115 16:04:41.344723 25568 layer_factory.hpp:77] Creating layer fc7_drop7_0_split
I1115 16:04:41.344728 25568 net.cpp:84] Creating Layer fc7_drop7_0_split
I1115 16:04:41.344730 25568 net.cpp:406] fc7_drop7_0_split <- fc7
I1115 16:04:41.344735 25568 net.cpp:380] fc7_drop7_0_split -> fc7_drop7_0_split_0
I1115 16:04:41.344740 25568 net.cpp:380] fc7_drop7_0_split -> fc7_drop7_0_split_1
I1115 16:04:41.344776 25568 net.cpp:122] Setting up fc7_drop7_0_split
I1115 16:04:41.344780 25568 net.cpp:129] Top shape: 1 4096 (4096)
I1115 16:04:41.344784 25568 net.cpp:129] Top shape: 1 4096 (4096)
I1115 16:04:41.344785 25568 net.cpp:137] Memory required for data: 117727968
I1115 16:04:41.344787 25568 layer_factory.hpp:77] Creating layer cls_score
I1115 16:04:41.344794 25568 net.cpp:84] Creating Layer cls_score
I1115 16:04:41.344795 25568 net.cpp:406] cls_score <- fc7_drop7_0_split_0
I1115 16:04:41.344802 25568 net.cpp:380] cls_score -> cls_score
I1115 16:04:41.346995 25568 net.cpp:122] Setting up cls_score
I1115 16:04:41.347005 25568 net.cpp:129] Top shape: 1 21 (21)
I1115 16:04:41.347023 25568 net.cpp:137] Memory required for data: 117728052
I1115 16:04:41.347028 25568 layer_factory.hpp:77] Creating layer bbox_pred
I1115 16:04:41.347034 25568 net.cpp:84] Creating Layer bbox_pred
I1115 16:04:41.347036 25568 net.cpp:406] bbox_pred <- fc7_drop7_0_split_1
I1115 16:04:41.347043 25568 net.cpp:380] bbox_pred -> bbox_pred
I1115 16:04:41.350184 25568 net.cpp:122] Setting up bbox_pred
I1115 16:04:41.350190 25568 net.cpp:129] Top shape: 1 84 (84)
I1115 16:04:41.350193 25568 net.cpp:137] Memory required for data: 117728388
I1115 16:04:41.350211 25568 layer_factory.hpp:77] Creating layer cls_prob
I1115 16:04:41.350219 25568 net.cpp:84] Creating Layer cls_prob
I1115 16:04:41.350220 25568 net.cpp:406] cls_prob <- cls_score
I1115 16:04:41.350224 25568 net.cpp:380] cls_prob -> cls_prob
I1115 16:04:41.351146 25568 net.cpp:122] Setting up cls_prob
I1115 16:04:41.351155 25568 net.cpp:129] Top shape: 1 21 (21)
I1115 16:04:41.351157 25568 net.cpp:137] Memory required for data: 117728472
I1115 16:04:41.351176 25568 net.cpp:200] cls_prob does not need backward computation.
I1115 16:04:41.351178 25568 net.cpp:200] bbox_pred does not need backward computation.
I1115 16:04:41.351181 25568 net.cpp:200] cls_score does not need backward computation.
I1115 16:04:41.351183 25568 net.cpp:200] fc7_drop7_0_split does not need backward computation.
…
