…
snapshot_prefix: "vgg_cnn_m_1024_faster_rcnn"
average_loss: 100
I0823 16:55:41.704759  8042 solver.cpp:81] Creating training net from train_net file: models/pascal_voc/VGG_CNN_M_1024/faster_rcnn_end2end/train.prototxt
I0823 16:55:41.705390  8042 net.cpp:49] Initializing net from parameters: 
name: "VGG_CNN_M_1024"
state {
  phase: TRAIN
}
layer {
  name: "input-data"
  type: "Python"
  top: "data"
  top: "im_info"
  top: "gt_boxes"
  python_param {
    module: "roi_data_layer.layer"
    layer: "RoIDataLayer"
    param_str: "\'num_classes\': 21"
  }
}
layer {
  name: "conv1"
  type: "Convolution"
  bottom: "data"
  top: "conv1"
  param {
    lr_mult: 0
    decay_mult: 0
  }
  param {
    lr_mult: 0
    decay_mult: 0
  }
  convolution_param {
    num_output: 96
    kernel_size: 7
    stride: 2
  }
}
layer {
  name: "relu1"
  type: "ReLU"
  bottom: "conv1"
  top: "conv1"
}
layer {
  name: "norm1"
  type: "LRN"
  bottom: "conv1"
  top: "norm1"
  lrn_param {
    local_size: 5
    alpha: 0.0005
    beta: 0.75
    k: 2
  }
}
layer {
  name: "pool1"
  type: "Pooling"
  bottom: "norm1"
  top: "pool1"
  pooling_param {
    pool: MAX
    kernel_size: 3
    stride: 2
  }
}
layer {
  name: "conv2"
  type: "Convolution"
  bottom: "pool1"
  top: "conv2"
  param {
    lr_mult: 1
  }
  param {
    lr_mult: 2
  }
  convolution_param {
    num_output: 256
    pad: 1
    kernel_size: 5
    stride: 2
  }
}
layer {
  name: "relu2"
  type: "ReLU"
  bottom: "conv2"
  top: "conv2"
}
layer {
  name: "norm2"
  type: "LRN"
  bottom: "conv2"
  top: "norm2"
  lrn_param {
    local_size: 5
    alpha: 0.0005
    beta: 0.75
    k: 2
  }
}
layer {
  name: "pool2"
  type: "Pooling"
  bottom: "norm2"
  top: "pool2"
  pooling_param {
    pool: MAX
    kernel_size: 3
    stride: 2
  }
}
layer {
  name: "conv3"
  type: "Convolution"
  bottom: "pool2"
  top: "conv3"
  param {
    lr_mult: 1
  }
  param {
    lr_mult: 2
  }
  convolution_param {
    num_output: 512
    pad: 1
    kernel_size: 3
  }
}
layer {
  name: "relu3"
  type: "ReLU"
  bottom: "conv3"
  top: "conv3"
}
layer {
  name: "conv4"
  type: "Convolution"
  bottom: "conv3"
  top: "conv4"
  param {
    lr_mult: 1
  }
  param {
    lr_mult: 2
  }
  convolution_param {
    num_output: 512
    pad: 1
    kernel_size: 3
  }
}
layer {
  name: "relu4"
  type: "ReLU"
  bottom: "conv4"
  top: "conv4"
}
layer {
  name: "conv5"
  type: "Convolution"
  bottom: "conv4"
  top: "conv5"
  param {
    lr_mult: 1
  }
  param {
    lr_mult: 2
  }
  convolution_param {
    num_output: 512
    pad: 1
    kernel_size: 3
  }
}
layer {
  name: "relu5"
  type: "ReLU"
  bottom: "conv5"
  top: "conv5"
}
layer {
  name: "rpn_conv/3x3"
  type: "Convolution"
  bottom: "conv5"
  top: "rpn/output"
  param {
    lr_mult: 1
  }
  param {
    lr_mult: 2
  }
  convolution_param {
    num_output: 256
    pad: 1
    kernel_size: 3
    stride: 1
    weight_filler {
      type: "gaussian"
      std: 0.01
    }
    bias_filler {
      type: "constant"
      value: 0
    }
  }
}
layer {
  name: "rpn_relu/3x3"
  type: "ReLU"
  bottom: "rpn/output"
  top: "rpn/output"
}
layer {
  name: "rpn_cls_score"
  type: "Convolution"
  bottom: "rpn/output"
  top: "rpn_cls_score"
  param {
    lr_mult: 1
  }
  param {
    lr_mult: 2
  }
  convolution_param {
    num_output: 18
    pad: 0
    kernel_size: 1
    stride: 1
    weight_filler {
      type: "gaussian"
      std: 0.01
    }
    bias_filler {
      type: "constant"
      value: 0
    }
  }
}
layer {
  name: "rpn_bbox_pred"
  type: "Convolution"
  bottom: "rpn/output"
  top: "rpn_bbox_pred"
  param {
    lr_mult: 1
  }
  param {
    lr_mult: 2
  }
  convolution_param {
    num_output: 36
    pad: 0
    kernel_size: 1
    stride: 1
    weight_filler {
      type: "gaussian"
      std: 0.01
    }
    bias_filler {
      type: "constant"
      value: 0
    }
  }
}
layer {
  name: "rpn_cls_score_reshape"
  type: "Reshape"
  bottom: "rpn_cls_score"
  top: "rpn_cls_score_reshape"
  reshape_param {
    shape {
      dim: 0
      dim: 2
      dim: -1
      dim: 0
    }
  }
}
layer {
  name: "rpn-data"
  type: "Python"
  bottom: "rpn_cls_score"
  bottom: "gt_boxes"
  bottom: "im_info"
  bottom: "data"
  top: "rpn_labels"
  top: "rpn_bbox_targets"
  top: "rpn_bbox_inside_weights"
  top: "rpn_bbox_outside_weights"
  python_param {
    module: "rpn.anchor_target_layer"
    layer: "AnchorTargetLayer"
    param_str: "\'feat_stride\': 16"
  }
}
layer {
  name: "rpn_loss_cls"
  type: "SoftmaxWithLoss"
  bottom: "rpn_cls_score_reshape"
  bottom: "rpn_labels"
  top: "rpn_cls_loss"
  loss_weight: 1
  propagate_down: true
  propagate_down: false
  loss_param {
    ignore_label: -1
    normalize: true
  }
}
layer {
  name: "rpn_loss_bbox"
  type: "SmoothL1Loss"
  bottom: "rpn_bbox_pred"
  bottom: "rpn_bbox_targets"
  bottom: "rpn_bbox_inside_weights"
  bottom: "rpn_bbox_outside_weights"
  top: "rpn_loss_bbox"
  loss_weight: 1
  smooth_l1_loss_param {
    sigma: 3
  }
}
layer {
  name: "rpn_cls_prob"
  type: "Softmax"
  bottom: "rpn_cls_score_reshape"
  top: "rpn_cls_prob"
}
layer {
  name: "rpn_cls_prob_reshape"
  type: "Reshape"
  bottom: "rpn_cls_prob"
  top: "rpn_cls_prob_reshape"
  reshape_param {
    shape {
      dim: 0
      dim: 18
      dim: -1
      dim: 0
    }
  }
}
layer {
  name: "proposal"
  type: "Python"
  bottom: "rpn_cls_prob_reshape"
  bottom: "rpn_bbox_pred"
  bottom: "im_info"
  top: "rpn_rois"
  python_param {
    module: "rpn.proposal_layer"
    layer: "ProposalLayer"
    param_str: "\'feat_stride\': 16"
  }
}
layer {
  name: "roi-data"
  type: "Python"
  bottom: "rpn_rois"
  bottom: "gt_boxes"
  top: "rois"
  top: "labels"
  top: "bbox_targets"
  top: "bbox_inside_weights"
  top: "bbox_outside_weights"
  python_param {
    module: "rpn.proposal_target_layer"
    layer: "ProposalTargetLayer"
    param_str: "\'num_classes\': 21"
  }
}
layer {
  name: "roi_pool5"
  type: "ROIPooling"
  bottom: "conv5"
  bottom: "rois"
  top: "pool5"
  roi_pooling_param {
    pooled_h: 6
    pooled_w: 6
    spatial_scale: 0.0625
  }
}
layer {
  name: "fc6"
  type: "InnerProduct"
  bottom: "pool5"
  top: "fc6"
  param {
    lr_mult: 1
  }
  param {
    lr_mult: 2
  }
  inner_product_param {
    num_output: 4096
  }
}
layer {
  name: "relu6"
  type: "ReLU"
  bottom: "fc6"
  top: "fc6"
}
layer {
  name: "drop6"
  type: "Dropout"
  bottom: "fc6"
  top: "fc6"
  dropout_param {
    dropout_ratio: 0.5
  }
}
layer {
  name: "fc7"
  type: "InnerProduct"
  bottom: "fc6"
  top: "fc7"
  param {
    lr_mult: 1
  }
  param {
    lr_mult: 2
  }
  inner_product_param {
    num_output: 1024
  }
}
layer {
  name: "relu7"
  type: "ReLU"
  bottom: "fc7"
  top: "fc7"
}
layer {
  name: "drop7"
  type: "Dropout"
  bottom: "fc7"
  top: "fc7"
  dropout_param {
    dropout_ratio: 0.5
  }
}
layer {
  name: "cls_score"
  type: "InnerProduct"
  bottom: "fc7"
  top: "cls_score"
  param {
    lr_mult: 1
  }
  param {
    lr_mult: 2
  }
  inner_product_param {
    num_output: 21
    weight_filler {
      type: "gaussian"
      std: 0.01
    }
    bias_filler {
      type: "constant"
      value: 0
    }
  }
}
layer {
  name: "bbox_pred"
  type: "InnerProduct"
  bottom: "fc7"
  top: "bbox_pred"
  param {
    lr_mult: 1
  }
  param {
    lr_mult: 2
  }
  inner_product_param {
    num_output: 84
    weight_filler {
      type: "gaussian"
      std: 0.001
    }
    bias_filler {
      type: "constant"
      value: 0
    }
  }
}
layer {
  name: "loss_cls"
  type: "SoftmaxWithLoss"
  bottom: "cls_score"
  bottom: "labels"
  top: "loss_cls"
  loss_weight: 1
  propagate_down: true
  propagate_down: false
}
layer {
  name: "loss_bbox"
  type: "SmoothL1Loss"
  bottom: "bbox_pred"
  bottom: "bbox_targets"
  bottom: "bbox_inside_weights"
  bottom: "bbox_outside_weights"
  top: "loss_bbox"
  loss_weight: 1
}
I0823 16:55:41.705636  8042 layer_factory.hpp:77] Creating layer input-data
I0823 16:55:41.719401  8042 net.cpp:106] Creating Layer input-data
I0823 16:55:41.719439  8042 net.cpp:411] input-data -> data
I0823 16:55:41.719452  8042 net.cpp:411] input-data -> im_info
I0823 16:55:41.719460  8042 net.cpp:411] input-data -> gt_boxes
RoiDataLayer: name_to_top: {'gt_boxes': 2, 'data': 0, 'im_info': 1}
I0823 16:55:41.730041  8042 net.cpp:150] Setting up input-data
I0823 16:55:41.730070  8042 net.cpp:157] Top shape: 1 3 600 1000 (1800000)
I0823 16:55:41.730077  8042 net.cpp:157] Top shape: 1 3 (3)
I0823 16:55:41.730082  8042 net.cpp:157] Top shape: 1 4 (4)
I0823 16:55:41.730084  8042 net.cpp:165] Memory required for data: 7200028
I0823 16:55:41.730089  8042 layer_factory.hpp:77] Creating layer data_input-data_0_split
I0823 16:55:41.730099  8042 net.cpp:106] Creating Layer data_input-data_0_split
I0823 16:55:41.730104  8042 net.cpp:454] data_input-data_0_split <- data
I0823 16:55:41.730113  8042 net.cpp:411] data_input-data_0_split -> data_input-data_0_split_0
I0823 16:55:41.730121  8042 net.cpp:411] data_input-data_0_split -> data_input-data_0_split_1
I0823 16:55:41.730177  8042 net.cpp:150] Setting up data_input-data_0_split
I0823 16:55:41.730186  8042 net.cpp:157] Top shape: 1 3 600 1000 (1800000)
I0823 16:55:41.730190  8042 net.cpp:157] Top shape: 1 3 600 1000 (1800000)
I0823 16:55:41.730193  8042 net.cpp:165] Memory required for data: 21600028
I0823 16:55:41.730196  8042 layer_factory.hpp:77] Creating layer im_info_input-data_1_split
I0823 16:55:41.730203  8042 net.cpp:106] Creating Layer im_info_input-data_1_split
I0823 16:55:41.730208  8042 net.cpp:454] im_info_input-data_1_split <- im_info
I0823 16:55:41.730214  8042 net.cpp:411] im_info_input-data_1_split -> im_info_input-data_1_split_0
I0823 16:55:41.730221  8042 net.cpp:411] im_info_input-data_1_split -> im_info_input-data_1_split_1
I0823 16:55:41.730270  8042 net.cpp:150] Setting up im_info_input-data_1_split
I0823 16:55:41.730278  8042 net.cpp:157] Top shape: 1 3 (3)
I0823 16:55:41.730281  8042 net.cpp:157] Top shape: 1 3 (3)
I0823 16:55:41.730283  8042 net.cpp:165] Memory required for data: 21600052
I0823 16:55:41.730286  8042 layer_factory.hpp:77] Creating layer gt_boxes_input-data_2_split
I0823 16:55:41.730293  8042 net.cpp:106] Creating Layer gt_boxes_input-data_2_split
I0823 16:55:41.730295  8042 net.cpp:454] gt_boxes_input-data_2_split <- gt_boxes
I0823 16:55:41.730300  8042 net.cpp:411] gt_boxes_input-data_2_split -> gt_boxes_input-data_2_split_0
I0823 16:55:41.730309  8042 net.cpp:411] gt_boxes_input-data_2_split -> gt_boxes_input-data_2_split_1
I0823 16:55:41.730356  8042 net.cpp:150] Setting up gt_boxes_input-data_2_split
I0823 16:55:41.730365  8042 net.cpp:157] Top shape: 1 4 (4)
I0823 16:55:41.730368  8042 net.cpp:157] Top shape: 1 4 (4)
I0823 16:55:41.730370  8042 net.cpp:165] Memory required for data: 21600084
I0823 16:55:41.730373  8042 layer_factory.hpp:77] Creating layer conv1
I0823 16:55:41.730386  8042 net.cpp:106] Creating Layer conv1
I0823 16:55:41.730392  8042 net.cpp:454] conv1 <- data_input-data_0_split_0
I0823 16:55:41.730399  8042 net.cpp:411] conv1 -> conv1
I0823 16:55:42.020545  8042 net.cpp:150] Setting up conv1
I0823 16:55:42.020583  8042 net.cpp:157] Top shape: 1 96 297 497 (14170464)
I0823 16:55:42.020587  8042 net.cpp:165] Memory required for data: 78281940
I0823 16:55:42.020606  8042 layer_factory.hpp:77] Creating layer relu1
I0823 16:55:42.020618  8042 net.cpp:106] Creating Layer relu1
I0823 16:55:42.020629  8042 net.cpp:454] relu1 <- conv1
I0823 16:55:42.020635  8042 net.cpp:397] relu1 -> conv1 (in-place)
I0823 16:55:42.021157  8042 net.cpp:150] Setting up relu1
I0823 16:55:42.021170  8042 net.cpp:157] Top shape: 1 96 297 497 (14170464)
I0823 16:55:42.021174  8042 net.cpp:165] Memory required for data: 134963796
I0823 16:55:42.021180  8042 layer_factory.hpp:77] Creating layer norm1
I0823 16:55:42.021189  8042 net.cpp:106] Creating Layer norm1
I0823 16:55:42.021193  8042 net.cpp:454] norm1 <- conv1
I0823 16:55:42.021203  8042 net.cpp:411] norm1 -> norm1
I0823 16:55:42.021447  8042 net.cpp:150] Setting up norm1
I0823 16:55:42.021458  8042 net.cpp:157] Top shape: 1 96 297 497 (14170464)
I0823 16:55:42.021461  8042 net.cpp:165] Memory required for data: 191645652
I0823 16:55:42.021466  8042 layer_factory.hpp:77] Creating layer pool1
I0823 16:55:42.021473  8042 net.cpp:106] Creating Layer pool1
I0823 16:55:42.021477  8042 net.cpp:454] pool1 <- norm1
I0823 16:55:42.021482  8042 net.cpp:411] pool1 -> pool1
I0823 16:55:42.021543  8042 net.cpp:150] Setting up pool1
I0823 16:55:42.021550  8042 net.cpp:157] Top shape: 1 96 148 248 (3523584)
I0823 16:55:42.021553  8042 net.cpp:165] Memory required for data: 205739988
I0823 16:55:42.021556  8042 layer_factory.hpp:77] Creating layer conv2
I0823 16:55:42.021570  8042 net.cpp:106] Creating Layer conv2
I0823 16:55:42.021575  8042 net.cpp:454] conv2 <- pool1
I0823 16:55:42.021582  8042 net.cpp:411] conv2 -> conv2
I0823 16:55:42.027485  8042 net.cpp:150] Setting up conv2
I0823 16:55:42.027503  8042 net.cpp:157] Top shape: 1 256 73 123 (2298624)
I0823 16:55:42.027506  8042 net.cpp:165] Memory required for data: 214934484
I0823 16:55:42.027518  8042 layer_factory.hpp:77] Creating layer relu2
I0823 16:55:42.027524  8042 net.cpp:106] Creating Layer relu2
I0823 16:55:42.027529  8042 net.cpp:454] relu2 <- conv2
I0823 16:55:42.027534  8042 net.cpp:397] relu2 -> conv2 (in-place)
I0823 16:55:42.028048  8042 net.cpp:150] Setting up relu2
I0823 16:55:42.028062  8042 net.cpp:157] Top shape: 1 256 73 123 (2298624)
I0823 16:55:42.028065  8042 net.cpp:165] Memory required for data: 224128980
I0823 16:55:42.028069  8042 layer_factory.hpp:77] Creating layer norm2
I0823 16:55:42.028076  8042 net.cpp:106] Creating Layer norm2
I0823 16:55:42.028080  8042 net.cpp:454] norm2 <- conv2
I0823 16:55:42.028086  8042 net.cpp:411] norm2 -> norm2
I0823 16:55:42.028342  8042 net.cpp:150] Setting up norm2
I0823 16:55:42.028353  8042 net.cpp:157] Top shape: 1 256 73 123 (2298624)
I0823 16:55:42.028357  8042 net.cpp:165] Memory required for data: 233323476
I0823 16:55:42.028362  8042 layer_factory.hpp:77] Creating layer pool2
I0823 16:55:42.028368  8042 net.cpp:106] Creating Layer pool2
I0823 16:55:42.028373  8042 net.cpp:454] pool2 <- norm2
I0823 16:55:42.028379  8042 net.cpp:411] pool2 -> pool2
I0823 16:55:42.028439  8042 net.cpp:150] Setting up pool2
I0823 16:55:42.028447  8042 net.cpp:157] Top shape: 1 256 36 61 (562176)
I0823 16:55:42.028450  8042 net.cpp:165] Memory required for data: 235572180
I0823 16:55:42.028453  8042 layer_factory.hpp:77] Creating layer conv3
I0823 16:55:42.028462  8042 net.cpp:106] Creating Layer conv3
I0823 16:55:42.028467  8042 net.cpp:454] conv3 <- pool2
I0823 16:55:42.028473  8042 net.cpp:411] conv3 -> conv3
I0823 16:55:42.041123  8042 net.cpp:150] Setting up conv3
I0823 16:55:42.041141  8042 net.cpp:157] Top shape: 1 512 36 61 (1124352)
I0823 16:55:42.041143  8042 net.cpp:165] Memory required for data: 240069588
I0823 16:55:42.041154  8042 layer_factory.hpp:77] Creating layer relu3
I0823 16:55:42.041164  8042 net.cpp:106] Creating Layer relu3
I0823 16:55:42.041168  8042 net.cpp:454] relu3 <- conv3
I0823 16:55:42.041173  8042 net.cpp:397] relu3 -> conv3 (in-place)
I0823 16:55:42.041399  8042 net.cpp:150] Setting up relu3
I0823 16:55:42.041410  8042 net.cpp:157] Top shape: 1 512 36 61 (1124352)
I0823 16:55:42.041414  8042 net.cpp:165] Memory required for data: 244566996
I0823 16:55:42.041419  8042 layer_factory.hpp:77] Creating layer conv4
I0823 16:55:42.041429  8042 net.cpp:106] Creating Layer conv4
I0823 16:55:42.041435  8042 net.cpp:454] conv4 <- conv3
I0823 16:55:42.041440  8042 net.cpp:411] conv4 -> conv4
I0823 16:55:42.057250  8042 net.cpp:150] Setting up conv4
I0823 16:55:42.057298  8042 net.cpp:157] Top shape: 1 512 36 61 (1124352)
I0823 16:55:42.057304  8042 net.cpp:165] Memory required for data: 249064404
I0823 16:55:42.057319  8042 layer_factory.hpp:77] Creating layer relu4
I0823 16:55:42.057340  8042 net.cpp:106] Creating Layer relu4
I0823 16:55:42.057348  8042 net.cpp:454] relu4 <- conv4
I0823 16:55:42.057368  8042 net.cpp:397] relu4 -> conv4 (in-place)
I0823 16:55:42.058053  8042 net.cpp:150] Setting up relu4
I0823 16:55:42.058074  8042 net.cpp:157] Top shape: 1 512 36 61 (1124352)
I0823 16:55:42.058079  8042 net.cpp:165] Memory required for data: 253561812
I0823 16:55:42.058084  8042 layer_factory.hpp:77] Creating layer conv5
I0823 16:55:42.058112  8042 net.cpp:106] Creating Layer conv5
I0823 16:55:42.058120  8042 net.cpp:454] conv5 <- conv4
I0823 16:55:42.058130  8042 net.cpp:411] conv5 -> conv5
I0823 16:55:42.075814  8042 net.cpp:150] Setting up conv5
I0823 16:55:42.075850  8042 net.cpp:157] Top shape: 1 512 36 61 (1124352)
I0823 16:55:42.075855  8042 net.cpp:165] Memory required for data: 258059220
I0823 16:55:42.075873  8042 layer_factory.hpp:77] Creating layer relu5
I0823 16:55:42.075896  8042 net.cpp:106] Creating Layer relu5
I0823 16:55:42.075902  8042 net.cpp:454] relu5 <- conv5
I0823 16:55:42.075918  8042 net.cpp:397] relu5 -> conv5 (in-place)
I0823 16:55:42.076211  8042 net.cpp:150] Setting up relu5
I0823 16:55:42.076232  8042 net.cpp:157] Top shape: 1 512 36 61 (1124352)
I0823 16:55:42.076242  8042 net.cpp:165] Memory required for data: 262556628
I0823 16:55:42.076246  8042 layer_factory.hpp:77] Creating layer conv5_relu5_0_split
I0823 16:55:42.076256  8042 net.cpp:106] Creating Layer conv5_relu5_0_split
I0823 16:55:42.076261  8042 net.cpp:454] conv5_relu5_0_split <- conv5
I0823 16:55:42.076278  8042 net.cpp:411] conv5_relu5_0_split -> conv5_relu5_0_split_0
I0823 16:55:42.076294  8042 net.cpp:411] conv5_relu5_0_split -> conv5_relu5_0_split_1
I0823 16:55:42.076397  8042 net.cpp:150] Setting up conv5_relu5_0_split
I0823 16:55:42.076411  8042 net.cpp:157] Top shape: 1 512 36 61 (1124352)
I0823 16:55:42.076417  8042 net.cpp:157] Top shape: 1 512 36 61 (1124352)
I0823 16:55:42.076421  8042 net.cpp:165] Memory required for data: 271551444
I0823 16:55:42.076426  8042 layer_factory.hpp:77] Creating layer rpn_conv/3x3
I0823 16:55:42.076443  8042 net.cpp:106] Creating Layer rpn_conv/3x3
I0823 16:55:42.076450  8042 net.cpp:454] rpn_conv/3x3 <- conv5_relu5_0_split_0
I0823 16:55:42.076462  8042 net.cpp:411] rpn_conv/3x3 -> rpn/output
I0823 16:55:42.102444  8042 net.cpp:150] Setting up rpn_conv/3x3
I0823 16:55:42.102466  8042 net.cpp:157] Top shape: 1 256 36 61 (562176)
I0823 16:55:42.102476  8042 net.cpp:165] Memory required for data: 273800148
I0823 16:55:42.102486  8042 layer_factory.hpp:77] Creating layer rpn_relu/3x3
I0823 16:55:42.102495  8042 net.cpp:106] Creating Layer rpn_relu/3x3
I0823 16:55:42.102507  8042 net.cpp:454] rpn_relu/3x3 <- rpn/output
I0823 16:55:42.102516  8042 net.cpp:397] rpn_relu/3x3 -> rpn/output (in-place)
I0823 16:55:42.103123  8042 net.cpp:150] Setting up rpn_relu/3x3
I0823 16:55:42.103140  8042 net.cpp:157] Top shape: 1 256 36 61 (562176)
I0823 16:55:42.103144  8042 net.cpp:165] Memory required for data: 276048852
I0823 16:55:42.103148  8042 layer_factory.hpp:77] Creating layer rpn/output_rpn_relu/3x3_0_split
I0823 16:55:42.103157  8042 net.cpp:106] Creating Layer rpn/output_rpn_relu/3x3_0_split
I0823 16:55:42.103163  8042 net.cpp:454] rpn/output_rpn_relu/3x3_0_split <- rpn/output
I0823 16:55:42.103173  8042 net.cpp:411] rpn/output_rpn_relu/3x3_0_split -> rpn/output_rpn_relu/3x3_0_split_0
I0823 16:55:42.103185  8042 net.cpp:411] rpn/output_rpn_relu/3x3_0_split -> rpn/output_rpn_relu/3x3_0_split_1
I0823 16:55:42.103278  8042 net.cpp:150] Setting up rpn/output_rpn_relu/3x3_0_split
I0823 16:55:42.103289  8042 net.cpp:157] Top shape: 1 256 36 61 (562176)
I0823 16:55:42.103296  8042 net.cpp:157] Top shape: 1 256 36 61 (562176)
I0823 16:55:42.103299  8042 net.cpp:165] Memory required for data: 280546260
I0823 16:55:42.103303  8042 layer_factory.hpp:77] Creating layer rpn_cls_score
I0823 16:55:42.103320  8042 net.cpp:106] Creating Layer rpn_cls_score
I0823 16:55:42.103327  8042 net.cpp:454] rpn_cls_score <- rpn/output_rpn_relu/3x3_0_split_0
I0823 16:55:42.103335  8042 net.cpp:411] rpn_cls_score -> rpn_cls_score
I0823 16:55:42.105386  8042 net.cpp:150] Setting up rpn_cls_score
I0823 16:55:42.105407  8042 net.cpp:157] Top shape: 1 18 36 61 (39528)
I0823 16:55:42.105418  8042 net.cpp:165] Memory required for data: 280704372
I0823 16:55:42.105427  8042 layer_factory.hpp:77] Creating layer rpn_cls_score_rpn_cls_score_0_split
I0823 16:55:42.105437  8042 net.cpp:106] Creating Layer rpn_cls_score_rpn_cls_score_0_split
I0823 16:55:42.105443  8042 net.cpp:454] rpn_cls_score_rpn_cls_score_0_split <- rpn_cls_score
I0823 16:55:42.105453  8042 net.cpp:411] rpn_cls_score_rpn_cls_score_0_split -> rpn_cls_score_rpn_cls_score_0_split_0
I0823 16:55:42.105465  8042 net.cpp:411] rpn_cls_score_rpn_cls_score_0_split -> rpn_cls_score_rpn_cls_score_0_split_1
I0823 16:55:42.105551  8042 net.cpp:150] Setting up rpn_cls_score_rpn_cls_score_0_split
I0823 16:55:42.105561  8042 net.cpp:157] Top shape: 1 18 36 61 (39528)
I0823 16:55:42.105568  8042 net.cpp:157] Top shape: 1 18 36 61 (39528)
I0823 16:55:42.105571  8042 net.cpp:165] Memory required for data: 281020596
I0823 16:55:42.105576  8042 layer_factory.hpp:77] Creating layer rpn_bbox_pred
I0823 16:55:42.105589  8042 net.cpp:106] Creating Layer rpn_bbox_pred
I0823 16:55:42.105597  8042 net.cpp:454] rpn_bbox_pred <- rpn/output_rpn_relu/3x3_0_split_1
I0823 16:55:42.105610  8042 net.cpp:411] rpn_bbox_pred -> rpn_bbox_pred
I0823 16:55:42.107714  8042 net.cpp:150] Setting up rpn_bbox_pred
I0823 16:55:42.107734  8042 net.cpp:157] Top shape: 1 36 36 61 (79056)
I0823 16:55:42.107740  8042 net.cpp:165] Memory required for data: 281336820
I0823 16:55:42.107748  8042 layer_factory.hpp:77] Creating layer rpn_bbox_pred_rpn_bbox_pred_0_split
I0823 16:55:42.107758  8042 net.cpp:106] Creating Layer rpn_bbox_pred_rpn_bbox_pred_0_split
I0823 16:55:42.107764  8042 net.cpp:454] rpn_bbox_pred_rpn_bbox_pred_0_split <- rpn_bbox_pred
I0823 16:55:42.107777  8042 net.cpp:411] rpn_bbox_pred_rpn_bbox_pred_0_split -> rpn_bbox_pred_rpn_bbox_pred_0_split_0
I0823 16:55:42.107790  8042 net.cpp:411] rpn_bbox_pred_rpn_bbox_pred_0_split -> rpn_bbox_pred_rpn_bbox_pred_0_split_1
I0823 16:55:42.107875  8042 net.cpp:150] Setting up rpn_bbox_pred_rpn_bbox_pred_0_split
I0823 16:55:42.107885  8042 net.cpp:157] Top shape: 1 36 36 61 (79056)
I0823 16:55:42.107892  8042 net.cpp:157] Top shape: 1 36 36 61 (79056)
I0823 16:55:42.107895  8042 net.cpp:165] Memory required for data: 281969268
I0823 16:55:42.107899  8042 layer_factory.hpp:77] Creating layer rpn_cls_score_reshape
I0823 16:55:42.107913  8042 net.cpp:106] Creating Layer rpn_cls_score_reshape
I0823 16:55:42.107919  8042 net.cpp:454] rpn_cls_score_reshape <- rpn_cls_score_rpn_cls_score_0_split_0
I0823 16:55:42.107928  8042 net.cpp:411] rpn_cls_score_reshape -> rpn_cls_score_reshape
I0823 16:55:42.107985  8042 net.cpp:150] Setting up rpn_cls_score_reshape
I0823 16:55:42.107993  8042 net.cpp:157] Top shape: 1 2 324 61 (39528)
I0823 16:55:42.107997  8042 net.cpp:165] Memory required for data: 282127380
I0823 16:55:42.108001  8042 layer_factory.hpp:77] Creating layer rpn_cls_score_reshape_rpn_cls_score_reshape_0_split
I0823 16:55:42.108008  8042 net.cpp:106] Creating Layer rpn_cls_score_reshape_rpn_cls_score_reshape_0_split
I0823 16:55:42.108013  8042 net.cpp:454] rpn_cls_score_reshape_rpn_cls_score_reshape_0_split <- rpn_cls_score_reshape
I0823 16:55:42.108023  8042 net.cpp:411] rpn_cls_score_reshape_rpn_cls_score_reshape_0_split -> rpn_cls_score_reshape_rpn_cls_score_reshape_0_split_0
I0823 16:55:42.108036  8042 net.cpp:411] rpn_cls_score_reshape_rpn_cls_score_reshape_0_split -> rpn_cls_score_reshape_rpn_cls_score_reshape_0_split_1
I0823 16:55:42.108110  8042 net.cpp:150] Setting up rpn_cls_score_reshape_rpn_cls_score_reshape_0_split
I0823 16:55:42.108120  8042 net.cpp:157] Top shape: 1 2 324 61 (39528)
I0823 16:55:42.108124  8042 net.cpp:157] Top shape: 1 2 324 61 (39528)
I0823 16:55:42.108131  8042 net.cpp:165] Memory required for data: 282443604
I0823 16:55:42.108135  8042 layer_factory.hpp:77] Creating layer rpn-data
I0823 16:55:42.108726  8042 net.cpp:106] Creating Layer rpn-data
I0823 16:55:42.108742  8042 net.cpp:454] rpn-data <- rpn_cls_score_rpn_cls_score_0_split_1
I0823 16:55:42.108752  8042 net.cpp:454] rpn-data <- gt_boxes_input-data_2_split_0
I0823 16:55:42.108758  8042 net.cpp:454] rpn-data <- im_info_input-data_1_split_0
I0823 16:55:42.108764  8042 net.cpp:454] rpn-data <- data_input-data_0_split_1
I0823 16:55:42.108774  8042 net.cpp:411] rpn-data -> rpn_labels
I0823 16:55:42.108796  8042 net.cpp:411] rpn-data -> rpn_bbox_targets
I0823 16:55:42.108809  8042 net.cpp:411] rpn-data -> rpn_bbox_inside_weights
I0823 16:55:42.108821  8042 net.cpp:411] rpn-data -> rpn_bbox_outside_weights
I0823 16:55:42.111856  8042 net.cpp:150] Setting up rpn-data
I0823 16:55:42.111877  8042 net.cpp:157] Top shape: 1 1 324 61 (19764)
I0823 16:55:42.111884  8042 net.cpp:157] Top shape: 1 36 36 61 (79056)
I0823 16:55:42.111889  8042 net.cpp:157] Top shape: 1 36 36 61 (79056)
I0823 16:55:42.111893  8042 net.cpp:157] Top shape: 1 36 36 61 (79056)
I0823 16:55:42.111898  8042 net.cpp:165] Memory required for data: 283471332
I0823 16:55:42.111903  8042 layer_factory.hpp:77] Creating layer rpn_loss_cls
I0823 16:55:42.111914  8042 net.cpp:106] Creating Layer rpn_loss_cls
I0823 16:55:42.111922  8042 net.cpp:454] rpn_loss_cls <- rpn_cls_score_reshape_rpn_cls_score_reshape_0_split_0
I0823 16:55:42.111927  8042 net.cpp:454] rpn_loss_cls <- rpn_labels
…
I0823 16:55:42.113703  8042 net.cpp:157] Top shape: (1)
I0823 16:55:42.113706  8042 net.cpp:160]     with loss weight 1
I0823 16:55:42.113714  8042 net.cpp:165] Memory required for data: 283471340
I0823 16:55:42.113718  8042 layer_factory.hpp:77] Creating layer rpn_cls_prob
I0823 16:55:42.113725  8042 net.cpp:106] Creating Layer rpn_cls_prob
I0823 16:55:42.113731  8042 net.cpp:454] rpn_cls_prob <- rpn_cls_score_reshape_rpn_cls_score_reshape_0_split_1
I0823 16:55:42.113740  8042 net.cpp:411] rpn_cls_prob -> rpn_cls_prob
I0823 16:55:42.114104  8042 net.cpp:150] Setting up rpn_cls_prob
I0823 16:55:42.114118  8042 net.cpp:157] Top shape: 1 2 324 61 (39528)
I0823 16:55:42.114123  8042 net.cpp:165] Memory required for data: 283629452
I0823 16:55:42.114127  8042 layer_factory.hpp:77] Creating layer rpn_cls_prob_reshape
I0823 16:55:42.114147  8042 net.cpp:106] Creating Layer rpn_cls_prob_reshape
I0823 16:55:42.114153  8042 net.cpp:454] rpn_cls_prob_reshape <- rpn_cls_prob
I0823 16:55:42.114161  8042 net.cpp:411] rpn_cls_prob_reshape -> rpn_cls_prob_reshape
I0823 16:55:42.114215  8042 net.cpp:150] Setting up rpn_cls_prob_reshape
I0823 16:55:42.114225  8042 net.cpp:157] Top shape: 1 18 36 61 (39528)
I0823 16:55:42.114230  8042 net.cpp:165] Memory required for data: 283787564
I0823 16:55:42.114233  8042 layer_factory.hpp:77] Creating layer proposal
I0823 16:55:42.125924  8042 net.cpp:106] Creating Layer proposal
I0823 16:55:42.125942  8042 net.cpp:454] proposal <- rpn_cls_prob_reshape
I0823 16:55:42.125949  8042 net.cpp:454] proposal <- rpn_bbox_pred_rpn_bbox_pred_0_split_1
I0823 16:55:42.125954  8042 net.cpp:454] proposal <- im_info_input-data_1_split_1
I0823 16:55:42.125962  8042 net.cpp:411] proposal -> rpn_rois
I0823 16:55:42.132036  8042 net.cpp:150] Setting up proposal
I0823 16:55:42.132082  8042 net.cpp:157] Top shape: 1 5 (5)
I0823 16:55:42.132088  8042 net.cpp:165] Memory required for data: 283787584
I0823 16:55:42.132097  8042 layer_factory.hpp:77] Creating layer roi-data
I0823 16:55:42.132434  8042 net.cpp:106] Creating Layer roi-data
I0823 16:55:42.132454  8042 net.cpp:454] roi-data <- rpn_rois
I0823 16:55:42.132467  8042 net.cpp:454] roi-data <- gt_boxes_input-data_2_split_1
I0823 16:55:42.132479  8042 net.cpp:411] roi-data -> rois
I0823 16:55:42.132496  8042 net.cpp:411] roi-data -> labels
I0823 16:55:42.132510  8042 net.cpp:411] roi-data -> bbox_targets
I0823 16:55:42.132525  8042 net.cpp:411] roi-data -> bbox_inside_weights
I0823 16:55:42.132540  8042 net.cpp:411] roi-data -> bbox_outside_weights
I0823 16:55:42.133512  8042 net.cpp:150] Setting up roi-data
I0823 16:55:42.133538  8042 net.cpp:157] Top shape: 1 5 (5)
I0823 16:55:42.133544  8042 net.cpp:157] Top shape: 1 1 (1)
I0823 16:55:42.133550  8042 net.cpp:157] Top shape: 1 84 (84)
I0823 16:55:42.133556  8042 net.cpp:157] Top shape: 1 84 (84)
I0823 16:55:42.133561  8042 net.cpp:157] Top shape: 1 84 (84)
I0823 16:55:42.133566  8042 net.cpp:165] Memory required for data: 283788616
I0823 16:55:42.133572  8042 layer_factory.hpp:77] Creating layer roi_pool5
I0823 16:55:42.133586  8042 net.cpp:106] Creating Layer roi_pool5
I0823 16:55:42.133594  8042 net.cpp:454] roi_pool5 <- conv5_relu5_0_split_1
I0823 16:55:42.133602  8042 net.cpp:454] roi_pool5 <- rois
I0823 16:55:42.133612  8042 net.cpp:411] roi_pool5 -> pool5
I0823 16:55:42.133626  8042 roi_pooling_layer.cpp:30] Spatial scale: 0.0625
I0823 16:55:42.133744  8042 net.cpp:150] Setting up roi_pool5
I0823 16:55:42.133756  8042 net.cpp:157] Top shape: 1 512 6 6 (18432)
I0823 16:55:42.133761  8042 net.cpp:165] Memory required for data: 283862344
I0823 16:55:42.133767  8042 layer_factory.hpp:77] Creating layer fc6
I0823 16:55:42.133780  8042 net.cpp:106] Creating Layer fc6
I0823 16:55:42.133786  8042 net.cpp:454] fc6 <- pool5
I0823 16:55:42.133797  8042 net.cpp:411] fc6 -> fc6
I0823 16:55:42.651161  8042 net.cpp:150] Setting up fc6
I0823 16:55:42.651201  8042 net.cpp:157] Top shape: 1 4096 (4096)
I0823 16:55:42.651206  8042 net.cpp:165] Memory required for data: 283878728
I0823 16:55:42.651233  8042 layer_factory.hpp:77] Creating layer relu6
I0823 16:55:42.651253  8042 net.cpp:106] Creating Layer relu6
I0823 16:55:42.651265  8042 net.cpp:454] relu6 <- fc6
I0823 16:55:42.651275  8042 net.cpp:397] relu6 -> fc6 (in-place)
I0823 16:55:42.652050  8042 net.cpp:150] Setting up relu6
I0823 16:55:42.652065  8042 net.cpp:157] Top shape: 1 4096 (4096)
I0823 16:55:42.652067  8042 net.cpp:165] Memory required for data: 283895112
I0823 16:55:42.652071  8042 layer_factory.hpp:77] Creating layer drop6
I0823 16:55:42.652081  8042 net.cpp:106] Creating Layer drop6
I0823 16:55:42.652086  8042 net.cpp:454] drop6 <- fc6
I0823 16:55:42.652091  8042 net.cpp:397] drop6 -> fc6 (in-place)
I0823 16:55:42.652149  8042 net.cpp:150] Setting up drop6
I0823 16:55:42.652158  8042 net.cpp:157] Top shape: 1 4096 (4096)
I0823 16:55:42.652160  8042 net.cpp:165] Memory required for data: 283911496
I0823 16:55:42.652163  8042 layer_factory.hpp:77] Creating layer fc7
I0823 16:55:42.652173  8042 net.cpp:106] Creating Layer fc7
I0823 16:55:42.652176  8042 net.cpp:454] fc7 <- fc6
I0823 16:55:42.652184  8042 net.cpp:411] fc7 -> fc7
I0823 16:55:42.675678  8042 net.cpp:150] Setting up fc7
I0823 16:55:42.675698  8042 net.cpp:157] Top shape: 1 1024 (1024)
I0823 16:55:42.675699  8042 net.cpp:165] Memory required for data: 283915592
I0823 16:55:42.675707  8042 layer_factory.hpp:77] Creating layer relu7
I0823 16:55:42.675715  8042 net.cpp:106] Creating Layer relu7
I0823 16:55:42.675719  8042 net.cpp:454] relu7 <- fc7
I0823 16:55:42.675724  8042 net.cpp:397] relu7 -> fc7 (in-place)
I0823 16:55:42.675926  8042 net.cpp:150] Setting up relu7
I0823 16:55:42.675935  8042 net.cpp:157] Top shape: 1 1024 (1024)
I0823 16:55:42.675940  8042 net.cpp:165] Memory required for data: 283919688
I0823 16:55:42.675941  8042 layer_factory.hpp:77] Creating layer drop7
I0823 16:55:42.675947  8042 net.cpp:106] Creating Layer drop7
I0823 16:55:42.675951  8042 net.cpp:454] drop7 <- fc7
I0823 16:55:42.675954  8042 net.cpp:397] drop7 -> fc7 (in-place)
I0823 16:55:42.675993  8042 net.cpp:150] Setting up drop7
I0823 16:55:42.675999  8042 net.cpp:157] Top shape: 1 1024 (1024)
I0823 16:55:42.676002  8042 net.cpp:165] Memory required for data: 283923784
I0823 16:55:42.676003  8042 layer_factory.hpp:77] Creating layer fc7_drop7_0_split
I0823 16:55:42.676009  8042 net.cpp:106] Creating Layer fc7_drop7_0_split
I0823 16:55:42.676013  8042 net.cpp:454] fc7_drop7_0_split <- fc7
I0823 16:55:42.676019  8042 net.cpp:411] fc7_drop7_0_split -> fc7_drop7_0_split_0
I0823 16:55:42.676025  8042 net.cpp:411] fc7_drop7_0_split -> fc7_drop7_0_split_1
I0823 16:55:42.676085  8042 net.cpp:150] Setting up fc7_drop7_0_split
I0823 16:55:42.676092  8042 net.cpp:157] Top shape: 1 1024 (1024)
I0823 16:55:42.676095  8042 net.cpp:157] Top shape: 1 1024 (1024)
I0823 16:55:42.676097  8042 net.cpp:165] Memory required for data: 283931976
I0823 16:55:42.676100  8042 layer_factory.hpp:77] Creating layer cls_score
I0823 16:55:42.676107  8042 net.cpp:106] Creating Layer cls_score
I0823 16:55:42.676112  8042 net.cpp:454] cls_score <- fc7_drop7_0_split_0
I0823 16:55:42.676118  8042 net.cpp:411] cls_score -> cls_score
I0823 16:55:42.676503  8042 net.cpp:150] Setting up cls_score
I0823 16:55:42.676512  8042 net.cpp:157] Top shape: 1 21 (21)
I0823 16:55:42.676513  8042 net.cpp:165] Memory required for data: 283932060
I0823 16:55:42.676523  8042 layer_factory.hpp:77] Creating layer bbox_pred
I0823 16:55:42.676529  8042 net.cpp:106] Creating Layer bbox_pred
I0823 16:55:42.676532  8042 net.cpp:454] bbox_pred <- fc7_drop7_0_split_1
I0823 16:55:42.676538  8042 net.cpp:411] bbox_pred -> bbox_pred
I0823 16:55:42.679544  8042 net.cpp:150] Setting up bbox_pred
I0823 16:55:42.679556  8042 net.cpp:157] Top shape: 1 84 (84)
I0823 16:55:42.679558  8042 net.cpp:165] Memory required for data: 283932396
I0823 16:55:42.679564  8042 layer_factory.hpp:77] Creating layer loss_cls
I0823 16:55:42.679571  8042 net.cpp:106] Creating Layer loss_cls
I0823 16:55:42.679574  8042 net.cpp:454] loss_cls <- cls_score
I0823 16:55:42.679579  8042 net.cpp:454] loss_cls <- labels
I0823 16:55:42.679584  8042 net.cpp:411] loss_cls -> loss_cls
…
           'RPN_POST_NMS_TOP_N': 2000,
           'RPN_PRE_NMS_TOP_N': 12000,
           'SCALES': [600],
           'SNAPSHOT_INFIX': '',
           'SNAPSHOT_ITERS': 10000,
           'USE_FLIPPED': True,
           'USE_PREFETCH': False},
 'USE_GPU_NMS': True}
WARNING: Logging before InitGoogleLogging() is written to STDERR
I0823 18:41:45.713026 13086 net.cpp:49] Initializing net from parameters: 
name: "VGG_CNN_M_1024"
input: "data"
input: "im_info"
state {
  phase: TEST
}
input_shape {
  dim: 1
  dim: 3
  dim: 224
  dim: 224
}
input_shape {
  dim: 1
  dim: 3
}
layer {
  name: "conv1"
  type: "Convolution"
  bottom: "data"
  top: "conv1"
  param {
    lr_mult: 0
    decay_mult: 0
  }
  param {
    lr_mult: 0
    decay_mult: 0
  }
  convolution_param {
    num_output: 96
    kernel_size: 7
    stride: 2
  }
}
layer {
  name: "relu1"
  type: "ReLU"
  bottom: "conv1"
  top: "conv1"
}
layer {
  name: "norm1"
  type: "LRN"
  bottom: "conv1"
  top: "norm1"
  lrn_param {
    local_size: 5
    alpha: 0.0005
    beta: 0.75
    k: 2
  }
}
layer {
  name: "pool1"
  type: "Pooling"
  bottom: "norm1"
  top: "pool1"
  pooling_param {
    pool: MAX
    kernel_size: 3
    stride: 2
  }
}
layer {
  name: "conv2"
  type: "Convolution"
  bottom: "pool1"
  top: "conv2"
  param {
    lr_mult: 1
    decay_mult: 1
  }
  param {
    lr_mult: 2
    decay_mult: 0
  }
  convolution_param {
    num_output: 256
    pad: 1
    kernel_size: 5
    stride: 2
  }
}
layer {
  name: "relu2"
  type: "ReLU"
  bottom: "conv2"
  top: "conv2"
}
layer {
  name: "norm2"
  type: "LRN"
  bottom: "conv2"
  top: "norm2"
  lrn_param {
    local_size: 5
    alpha: 0.0005
    beta: 0.75
    k: 2
  }
}
layer {
  name: "pool2"
  type: "Pooling"
  bottom: "norm2"
  top: "pool2"
  pooling_param {
    pool: MAX
    kernel_size: 3
    stride: 2
  }
}
layer {
  name: "conv3"
  type: "Convolution"
  bottom: "pool2"
  top: "conv3"
  param {
    lr_mult: 1
    decay_mult: 1
  }
  param {
    lr_mult: 2
    decay_mult: 0
  }
  convolution_param {
    num_output: 512
    pad: 1
    kernel_size: 3
  }
}
layer {
  name: "relu3"
  type: "ReLU"
  bottom: "conv3"
  top: "conv3"
}
layer {
  name: "conv4"
  type: "Convolution"
  bottom: "conv3"
  top: "conv4"
  param {
    lr_mult: 1
    decay_mult: 1
  }
  param {
    lr_mult: 2
    decay_mult: 0
  }
  convolution_param {
    num_output: 512
    pad: 1
    kernel_size: 3
  }
}
layer {
  name: "relu4"
  type: "ReLU"
  bottom: "conv4"
  top: "conv4"
}
layer {
  name: "conv5"
  type: "Convolution"
  bottom: "conv4"
  top: "conv5"
  param {
    lr_mult: 1
    decay_mult: 1
  }
  param {
    lr_mult: 2
    decay_mult: 0
  }
  convolution_param {
    num_output: 512
    pad: 1
    kernel_size: 3
  }
}
layer {
  name: "relu5"
  type: "ReLU"
  bottom: "conv5"
  top: "conv5"
}
layer {
  name: "rpn_conv/3x3"
  type: "Convolution"
  bottom: "conv5"
  top: "rpn/output"
  param {
    lr_mult: 1
    decay_mult: 1
  }
  param {
    lr_mult: 2
    decay_mult: 0
  }
  convolution_param {
    num_output: 256
    pad: 1
    kernel_size: 3
    stride: 1
    weight_filler {
      type: "gaussian"
      std: 0.01
    }
    bias_filler {
      type: "constant"
      value: 0
    }
  }
}
layer {
  name: "rpn_relu/3x3"
  type: "ReLU"
  bottom: "rpn/output"
  top: "rpn/output"
}
layer {
  name: "rpn_cls_score"
  type: "Convolution"
  bottom: "rpn/output"
  top: "rpn_cls_score"
  param {
    lr_mult: 1
    decay_mult: 1
  }
  param {
    lr_mult: 2
    decay_mult: 0
  }
  convolution_param {
    num_output: 18
    pad: 0
    kernel_size: 1
    stride: 1
    weight_filler {
      type: "gaussian"
      std: 0.01
    }
    bias_filler {
      type: "constant"
      value: 0
    }
  }
}
layer {
  name: "rpn_bbox_pred"
  type: "Convolution"
  bottom: "rpn/output"
  top: "rpn_bbox_pred"
  param {
    lr_mult: 1
    decay_mult: 1
  }
  param {
    lr_mult: 2
    decay_mult: 0
  }
  convolution_param {
    num_output: 36
    pad: 0
    kernel_size: 1
    stride: 1
    weight_filler {
      type: "gaussian"
      std: 0.01
    }
    bias_filler {
      type: "constant"
      value: 0
    }
  }
}
layer {
  name: "rpn_cls_score_reshape"
  type: "Reshape"
  bottom: "rpn_cls_score"
  top: "rpn_cls_score_reshape"
  reshape_param {
    shape {
      dim: 0
      dim: 2
      dim: -1
      dim: 0
    }
  }
}
layer {
  name: "rpn_cls_prob"
  type: "Softmax"
  bottom: "rpn_cls_score_reshape"
  top: "rpn_cls_prob"
}
layer {
  name: "rpn_cls_prob_reshape"
  type: "Reshape"
  bottom: "rpn_cls_prob"
  top: "rpn_cls_prob_reshape"
  reshape_param {
    shape {
      dim: 0
      dim: 18
      dim: -1
      dim: 0
    }
  }
}
layer {
  name: "proposal"
  type: "Python"
  bottom: "rpn_cls_prob_reshape"
  bottom: "rpn_bbox_pred"
  bottom: "im_info"
  top: "rois"
  python_param {
    module: "rpn.proposal_layer"
    layer: "ProposalLayer"
    param_str: "\'feat_stride\': 16"
  }
}
layer {
  name: "roi_pool5"
  type: "ROIPooling"
  bottom: "conv5"
  bottom: "rois"
  top: "pool5"
  roi_pooling_param {
    pooled_h: 6
    pooled_w: 6
    spatial_scale: 0.0625
  }
}
layer {
  name: "fc6"
  type: "InnerProduct"
  bottom: "pool5"
  top: "fc6"
  param {
    lr_mult: 1
    decay_mult: 1
  }
  param {
    lr_mult: 2
    decay_mult: 0
  }
  inner_product_param {
    num_output: 4096
  }
}
layer {
  name: "relu6"
  type: "ReLU"
  bottom: "fc6"
  top: "fc6"
}
layer {
  name: "drop6"
  type: "Dropout"
  bottom: "fc6"
  top: "fc6"
  dropout_param {
    dropout_ratio: 0.5
  }
}
layer {
  name: "fc7"
  type: "InnerProduct"
  bottom: "fc6"
  top: "fc7"
  param {
    lr_mult: 1
    decay_mult: 1
  }
  param {
    lr_mult: 2
    decay_mult: 0
  }
  inner_product_param {
    num_output: 1024
  }
}
layer {
  name: "relu7"
  type: "ReLU"
  bottom: "fc7"
  top: "fc7"
}
layer {
  name: "drop7"
  type: "Dropout"
  bottom: "fc7"
  top: "fc7"
  dropout_param {
    dropout_ratio: 0.5
  }
}
layer {
  name: "cls_score"
  type: "InnerProduct"
  bottom: "fc7"
  top: "cls_score"
  param {
    lr_mult: 1
    decay_mult: 1
  }
  param {
    lr_mult: 2
    decay_mult: 0
  }
  inner_product_param {
    num_output: 21
    weight_filler {
      type: "gaussian"
      std: 0.01
    }
    bias_filler {
      type: "constant"
      value: 0
    }
  }
}
layer {
  name: "bbox_pred"
  type: "InnerProduct"
  bottom: "fc7"
  top: "bbox_pred"
  param {
    lr_mult: 1
    decay_mult: 1
  }
  param {
    lr_mult: 2
    decay_mult: 0
  }
  inner_product_param {
    num_output: 84
    weight_filler {
      type: "gaussian"
      std: 0.001
    }
    bias_filler {
      type: "constant"
      value: 0
    }
  }
}
layer {
  name: "cls_prob"
  type: "Softmax"
  bottom: "cls_score"
  top: "cls_prob"
}
I0823 18:41:45.713220 13086 net.cpp:413] Input 0 -> data
I0823 18:41:45.738363 13086 net.cpp:413] Input 1 -> im_info
I0823 18:41:45.738461 13086 layer_factory.hpp:77] Creating layer conv1
I0823 18:41:45.738487 13086 net.cpp:106] Creating Layer conv1
I0823 18:41:45.738492 13086 net.cpp:454] conv1 <- data
I0823 18:41:45.738500 13086 net.cpp:411] conv1 -> conv1
I0823 18:41:46.004674 13086 net.cpp:150] Setting up conv1
I0823 18:41:46.004719 13086 net.cpp:157] Top shape: 1 96 109 109 (1140576)
I0823 18:41:46.004724 13086 net.cpp:165] Memory required for data: 4562304
I0823 18:41:46.004741 13086 layer_factory.hpp:77] Creating layer relu1
I0823 18:41:46.004755 13086 net.cpp:106] Creating Layer relu1
I0823 18:41:46.004760 13086 net.cpp:454] relu1 <- conv1
I0823 18:41:46.004766 13086 net.cpp:397] relu1 -> conv1 (in-place)
I0823 18:41:46.005286 13086 net.cpp:150] Setting up relu1
I0823 18:41:46.005301 13086 net.cpp:157] Top shape: 1 96 109 109 (1140576)
I0823 18:41:46.005306 13086 net.cpp:165] Memory required for data: 9124608
I0823 18:41:46.005308 13086 layer_factory.hpp:77] Creating layer norm1
I0823 18:41:46.005319 13086 net.cpp:106] Creating Layer norm1
I0823 18:41:46.005322 13086 net.cpp:454] norm1 <- conv1
I0823 18:41:46.005328 13086 net.cpp:411] norm1 -> norm1
I0823 18:41:46.005584 13086 net.cpp:150] Setting up norm1
I0823 18:41:46.005597 13086 net.cpp:157] Top shape: 1 96 109 109 (1140576)
I0823 18:41:46.005601 13086 net.cpp:165] Memory required for data: 13686912
I0823 18:41:46.005604 13086 layer_factory.hpp:77] Creating layer pool1
I0823 18:41:46.005612 13086 net.cpp:106] Creating Layer pool1
I0823 18:41:46.005615 13086 net.cpp:454] pool1 <- norm1
I0823 18:41:46.005623 13086 net.cpp:411] pool1 -> pool1
I0823 18:41:46.005694 13086 net.cpp:150] Setting up pool1
I0823 18:41:46.005704 13086 net.cpp:157] Top shape: 1 96 54 54 (279936)
I0823 18:41:46.005707 13086 net.cpp:165] Memory required for data: 14806656
I0823 18:41:46.005710 13086 layer_factory.hpp:77] Creating layer conv2
I0823 18:41:46.005724 13086 net.cpp:106] Creating Layer conv2
I0823 18:41:46.005728 13086 net.cpp:454] conv2 <- pool1
I0823 18:41:46.005735 13086 net.cpp:411] conv2 -> conv2
I0823 18:41:46.013540 13086 net.cpp:150] Setting up conv2
I0823 18:41:46.013564 13086 net.cpp:157] Top shape: 1 256 26 26 (173056)
I0823 18:41:46.013567 13086 net.cpp:165] Memory required for data: 15498880
I0823 18:41:46.013587 13086 layer_factory.hpp:77] Creating layer relu2
I0823 18:41:46.013597 13086 net.cpp:106] Creating Layer relu2
I0823 18:41:46.013602 13086 net.cpp:454] relu2 <- conv2
I0823 18:41:46.013607 13086 net.cpp:397] relu2 -> conv2 (in-place)
I0823 18:41:46.014147 13086 net.cpp:150] Setting up relu2
I0823 18:41:46.014163 13086 net.cpp:157] Top shape: 1 256 26 26 (173056)
I0823 18:41:46.014168 13086 net.cpp:165] Memory required for data: 16191104
I0823 18:41:46.014170 13086 layer_factory.hpp:77] Creating layer norm2
I0823 18:41:46.014180 13086 net.cpp:106] Creating Layer norm2
I0823 18:41:46.014184 13086 net.cpp:454] norm2 <- conv2
I0823 18:41:46.014190 13086 net.cpp:411] norm2 -> norm2
I0823 18:41:46.014469 13086 net.cpp:150] Setting up norm2
I0823 18:41:46.014483 13086 net.cpp:157] Top shape: 1 256 26 26 (173056)
I0823 18:41:46.014487 13086 net.cpp:165] Memory required for data: 16883328
I0823 18:41:46.014489 13086 layer_factory.hpp:77] Creating layer pool2
I0823 18:41:46.014497 13086 net.cpp:106] Creating Layer pool2
I0823 18:41:46.014499 13086 net.cpp:454] pool2 <- norm2
I0823 18:41:46.014508 13086 net.cpp:411] pool2 -> pool2
I0823 18:41:46.014575 13086 net.cpp:150] Setting up pool2
I0823 18:41:46.014585 13086 net.cpp:157] Top shape: 1 256 13 13 (43264)
I0823 18:41:46.014587 13086 net.cpp:165] Memory required for data: 17056384
I0823 18:41:46.014590 13086 layer_factory.hpp:77] Creating layer conv3
I0823 18:41:46.014603 13086 net.cpp:106] Creating Layer conv3
I0823 18:41:46.014608 13086 net.cpp:454] conv3 <- pool2
I0823 18:41:46.014614 13086 net.cpp:411] conv3 -> conv3
I0823 18:41:46.023813 13086 net.cpp:150] Setting up conv3
I0823 18:41:46.023836 13086 net.cpp:157] Top shape: 1 512 13 13 (86528)
I0823 18:41:46.023840 13086 net.cpp:165] Memory required for data: 17402496
I0823 18:41:46.023855 13086 layer_factory.hpp:77] Creating layer relu3
I0823 18:41:46.023865 13086 net.cpp:106] Creating Layer relu3
I0823 18:41:46.023869 13086 net.cpp:454] relu3 <- conv3
I0823 18:41:46.023876 13086 net.cpp:397] relu3 -> conv3 (in-place)
I0823 18:41:46.024104 13086 net.cpp:150] Setting up relu3
I0823 18:41:46.024116 13086 net.cpp:157] Top shape: 1 512 13 13 (86528)
I0823 18:41:46.024121 13086 net.cpp:165] Memory required for data: 17748608
I0823 18:41:46.024125 13086 layer_factory.hpp:77] Creating layer conv4
I0823 18:41:46.024137 13086 net.cpp:106] Creating Layer conv4
I0823 18:41:46.024144 13086 net.cpp:454] conv4 <- conv3
I0823 18:41:46.024158 13086 net.cpp:411] conv4 -> conv4
I0823 18:41:46.040652 13086 net.cpp:150] Setting up conv4
I0823 18:41:46.040689 13086 net.cpp:157] Top shape: 1 512 13 13 (86528)
I0823 18:41:46.040694 13086 net.cpp:165] Memory required for data: 18094720
I0823 18:41:46.040706 13086 layer_factory.hpp:77] Creating layer relu4
I0823 18:41:46.040717 13086 net.cpp:106] Creating Layer relu4
I0823 18:41:46.040722 13086 net.cpp:454] relu4 <- conv4
I0823 18:41:46.040732 13086 net.cpp:397] relu4 -> conv4 (in-place)
I0823 18:41:46.041281 13086 net.cpp:150] Setting up relu4
I0823 18:41:46.041296 13086 net.cpp:157] Top shape: 1 512 13 13 (86528)
I0823 18:41:46.041299 13086 net.cpp:165] Memory required for data: 18440832
I0823 18:41:46.041303 13086 layer_factory.hpp:77] Creating layer conv5
I0823 18:41:46.041316 13086 net.cpp:106] Creating Layer conv5
I0823 18:41:46.041321 13086 net.cpp:454] conv5 <- conv4
I0823 18:41:46.041329 13086 net.cpp:411] conv5 -> conv5
I0823 18:41:46.057744 13086 net.cpp:150] Setting up conv5
I0823 18:41:46.057777 13086 net.cpp:157] Top shape: 1 512 13 13 (86528)
I0823 18:41:46.057781 13086 net.cpp:165] Memory required for data: 18786944
I0823 18:41:46.057796 13086 layer_factory.hpp:77] Creating layer relu5
I0823 18:41:46.057807 13086 net.cpp:106] Creating Layer relu5
I0823 18:41:46.057811 13086 net.cpp:454] relu5 <- conv5
I0823 18:41:46.057821 13086 net.cpp:397] relu5 -> conv5 (in-place)
I0823 18:41:46.058053 13086 net.cpp:150] Setting up relu5
I0823 18:41:46.058064 13086 net.cpp:157] Top shape: 1 512 13 13 (86528)
I0823 18:41:46.058070 13086 net.cpp:165] Memory required for data: 19133056
I0823 18:41:46.058073 13086 layer_factory.hpp:77] Creating layer conv5_relu5_0_split
I0823 18:41:46.058080 13086 net.cpp:106] Creating Layer conv5_relu5_0_split
I0823 18:41:46.058086 13086 net.cpp:454] conv5_relu5_0_split <- conv5
I0823 18:41:46.058094 13086 net.cpp:411] conv5_relu5_0_split -> conv5_relu5_0_split_0
I0823 18:41:46.058104 13086 net.cpp:411] conv5_relu5_0_split -> conv5_relu5_0_split_1
I0823 18:41:46.058183 13086 net.cpp:150] Setting up conv5_relu5_0_split
I0823 18:41:46.058193 13086 net.cpp:157] Top shape: 1 512 13 13 (86528)
I0823 18:41:46.058198 13086 net.cpp:157] Top shape: 1 512 13 13 (86528)
I0823 18:41:46.058202 13086 net.cpp:165] Memory required for data: 19825280
I0823 18:41:46.058204 13086 layer_factory.hpp:77] Creating layer rpn_conv/3x3
I0823 18:41:46.058218 13086 net.cpp:106] Creating Layer rpn_conv/3x3
I0823 18:41:46.058223 13086 net.cpp:454] rpn_conv/3x3 <- conv5_relu5_0_split_0
I0823 18:41:46.058233 13086 net.cpp:411] rpn_conv/3x3 -> rpn/output
I0823 18:41:46.081993 13086 net.cpp:150] Setting up rpn_conv/3x3
I0823 18:41:46.082036 13086 net.cpp:157] Top shape: 1 256 13 13 (43264)
I0823 18:41:46.082041 13086 net.cpp:165] Memory required for data: 19998336
I0823 18:41:46.082051 13086 layer_factory.hpp:77] Creating layer rpn_relu/3x3
I0823 18:41:46.082068 13086 net.cpp:106] Creating Layer rpn_relu/3x3
I0823 18:41:46.082072 13086 net.cpp:454] rpn_relu/3x3 <- rpn/output
I0823 18:41:46.082080 13086 net.cpp:397] rpn_relu/3x3 -> rpn/output (in-place)
I0823 18:41:46.082618 13086 net.cpp:150] Setting up rpn_relu/3x3
I0823 18:41:46.082633 13086 net.cpp:157] Top shape: 1 256 13 13 (43264)
I0823 18:41:46.082638 13086 net.cpp:165] Memory required for data: 20171392
I0823 18:41:46.082640 13086 layer_factory.hpp:77] Creating layer rpn/output_rpn_relu/3x3_0_split
I0823 18:41:46.082648 13086 net.cpp:106] Creating Layer rpn/output_rpn_relu/3x3_0_split
I0823 18:41:46.082651 13086 net.cpp:454] rpn/output_rpn_relu/3x3_0_split <- rpn/output
I0823 18:41:46.082660 13086 net.cpp:411] rpn/output_rpn_relu/3x3_0_split -> rpn/output_rpn_relu/3x3_0_split_0
I0823 18:41:46.082669 13086 net.cpp:411] rpn/output_rpn_relu/3x3_0_split -> rpn/output_rpn_relu/3x3_0_split_1
I0823 18:41:46.082751 13086 net.cpp:150] Setting up rpn/output_rpn_relu/3x3_0_split
I0823 18:41:46.082759 13086 net.cpp:157] Top shape: 1 256 13 13 (43264)
I0823 18:41:46.082764 13086 net.cpp:157] Top shape: 1 256 13 13 (43264)
I0823 18:41:46.082768 13086 net.cpp:165] Memory required for data: 20517504
I0823 18:41:46.082772 13086 layer_factory.hpp:77] Creating layer rpn_cls_score
I0823 18:41:46.082787 13086 net.cpp:106] Creating Layer rpn_cls_score
I0823 18:41:46.082792 13086 net.cpp:454] rpn_cls_score <- rpn/output_rpn_relu/3x3_0_split_0
I0823 18:41:46.082801 13086 net.cpp:411] rpn_cls_score -> rpn_cls_score
I0823 18:41:46.085152 13086 net.cpp:150] Setting up rpn_cls_score
I0823 18:41:46.085173 13086 net.cpp:157] Top shape: 1 18 13 13 (3042)
I0823 18:41:46.085177 13086 net.cpp:165] Memory required for data: 20529672
I0823 18:41:46.085186 13086 layer_factory.hpp:77] Creating layer rpn_bbox_pred
I0823 18:41:46.085206 13086 net.cpp:106] Creating Layer rpn_bbox_pred
I0823 18:41:46.085212 13086 net.cpp:454] rpn_bbox_pred <- rpn/output_rpn_relu/3x3_0_split_1
I0823 18:41:46.085221 13086 net.cpp:411] rpn_bbox_pred -> rpn_bbox_pred
I0823 18:41:46.087227 13086 net.cpp:150] Setting up rpn_bbox_pred
I0823 18:41:46.087244 13086 net.cpp:157] Top shape: 1 36 13 13 (6084)
I0823 18:41:46.087246 13086 net.cpp:165] Memory required for data: 20554008
I0823 18:41:46.087255 13086 layer_factory.hpp:77] Creating layer rpn_cls_score_reshape
I0823 18:41:46.087263 13086 net.cpp:106] Creating Layer rpn_cls_score_reshape
I0823 18:41:46.087267 13086 net.cpp:454] rpn_cls_score_reshape <- rpn_cls_score
I0823 18:41:46.087275 13086 net.cpp:411] rpn_cls_score_reshape -> rpn_cls_score_reshape
I0823 18:41:46.087327 13086 net.cpp:150] Setting up rpn_cls_score_reshape
I0823 18:41:46.087335 13086 net.cpp:157] Top shape: 1 2 117 13 (3042)
I0823 18:41:46.087338 13086 net.cpp:165] Memory required for data: 20566176
I0823 18:41:46.087342 13086 layer_factory.hpp:77] Creating layer rpn_cls_prob
I0823 18:41:46.087349 13086 net.cpp:106] Creating Layer rpn_cls_prob
I0823 18:41:46.087354 13086 net.cpp:454] rpn_cls_prob <- rpn_cls_score_reshape
I0823 18:41:46.087369 13086 net.cpp:411] rpn_cls_prob -> rpn_cls_prob
I0823 18:41:46.088014 13086 net.cpp:150] Setting up rpn_cls_prob
I0823 18:41:46.088029 13086 net.cpp:157] Top shape: 1 2 117 13 (3042)
I0823 18:41:46.088032 13086 net.cpp:165] Memory required for data: 20578344
I0823 18:41:46.088037 13086 layer_factory.hpp:77] Creating layer rpn_cls_prob_reshape
I0823 18:41:46.088045 13086 net.cpp:106] Creating Layer rpn_cls_prob_reshape
I0823 18:41:46.088052 13086 net.cpp:454] rpn_cls_prob_reshape <- rpn_cls_prob
I0823 18:41:46.088060 13086 net.cpp:411] rpn_cls_prob_reshape -> rpn_cls_prob_reshape
I0823 18:41:46.088107 13086 net.cpp:150] Setting up rpn_cls_prob_reshape
I0823 18:41:46.088116 13086 net.cpp:157] Top shape: 1 18 13 13 (3042)
I0823 18:41:46.088119 13086 net.cpp:165] Memory required for data: 20590512
I0823 18:41:46.088124 13086 layer_factory.hpp:77] Creating layer proposal
I0823 18:41:46.088626 13086 net.cpp:106] Creating Layer proposal
I0823 18:41:46.088640 13086 net.cpp:454] proposal <- rpn_cls_prob_reshape
I0823 18:41:46.088645 13086 net.cpp:454] proposal <- rpn_bbox_pred
I0823 18:41:46.088650 13086 net.cpp:454] proposal <- im_info
I0823 18:41:46.088657 13086 net.cpp:411] proposal -> rois
I0823 18:41:46.089489 13086 net.cpp:150] Setting up proposal
I0823 18:41:46.089506 13086 net.cpp:157] Top shape: 1 5 (5)
I0823 18:41:46.089509 13086 net.cpp:165] Memory required for data: 20590532
I0823 18:41:46.089514 13086 layer_factory.hpp:77] Creating layer roi_pool5
I0823 18:41:46.089521 13086 net.cpp:106] Creating Layer roi_pool5
I0823 18:41:46.089531 13086 net.cpp:454] roi_pool5 <- conv5_relu5_0_split_1
I0823 18:41:46.089536 13086 net.cpp:454] roi_pool5 <- rois
I0823 18:41:46.089542 13086 net.cpp:411] roi_pool5 -> pool5
I0823 18:41:46.089551 13086 roi_pooling_layer.cpp:30] Spatial scale: 0.0625
I0823 18:41:46.089633 13086 net.cpp:150] Setting up roi_pool5
I0823 18:41:46.089643 13086 net.cpp:157] Top shape: 1 512 6 6 (18432)
I0823 18:41:46.089645 13086 net.cpp:165] Memory required for data: 20664260
I0823 18:41:46.089648 13086 layer_factory.hpp:77] Creating layer fc6
I0823 18:41:46.089656 13086 net.cpp:106] Creating Layer fc6
I0823 18:41:46.089659 13086 net.cpp:454] fc6 <- pool5
I0823 18:41:46.089665 13086 net.cpp:411] fc6 -> fc6
I0823 18:41:46.592861 13086 net.cpp:150] Setting up fc6
I0823 18:41:46.592903 13086 net.cpp:157] Top shape: 1 4096 (4096)
I0823 18:41:46.592906 13086 net.cpp:165] Memory required for data: 20680644
I0823 18:41:46.592931 13086 layer_factory.hpp:77] Creating layer relu6
I0823 18:41:46.592949 13086 net.cpp:106] Creating Layer relu6
I0823 18:41:46.592957 13086 net.cpp:454] relu6 <- fc6
I0823 18:41:46.592964 13086 net.cpp:397] relu6 -> fc6 (in-place)
I0823 18:41:46.593293 13086 net.cpp:150] Setting up relu6
I0823 18:41:46.593307 13086 net.cpp:157] Top shape: 1 4096 (4096)
I0823 18:41:46.593309 13086 net.cpp:165] Memory required for data: 20697028
I0823 18:41:46.593313 13086 layer_factory.hpp:77] Creating layer drop6
I0823 18:41:46.593323 13086 net.cpp:106] Creating Layer drop6
I0823 18:41:46.593328 13086 net.cpp:454] drop6 <- fc6
I0823 18:41:46.593333 13086 net.cpp:397] drop6 -> fc6 (in-place)
I0823 18:41:46.593387 13086 net.cpp:150] Setting up drop6
I0823 18:41:46.593395 13086 net.cpp:157] Top shape: 1 4096 (4096)
I0823 18:41:46.593399 13086 net.cpp:165] Memory required for data: 20713412
I0823 18:41:46.593401 13086 layer_factory.hpp:77] Creating layer fc7
I0823 18:41:46.593410 13086 net.cpp:106] Creating Layer fc7
I0823 18:41:46.593413 13086 net.cpp:454] fc7 <- fc6
I0823 18:41:46.593421 13086 net.cpp:411] fc7 -> fc7
I0823 18:41:46.620115 13086 net.cpp:150] Setting up fc7
I0823 18:41:46.620157 13086 net.cpp:157] Top shape: 1 1024 (1024)
I0823 18:41:46.620162 13086 net.cpp:165] Memory required for data: 20717508
I0823 18:41:46.620174 13086 layer_factory.hpp:77] Creating layer relu7
I0823 18:41:46.620188 13086 net.cpp:106] Creating Layer relu7
I0823 18:41:46.620193 13086 net.cpp:454] relu7 <- fc7
I0823 18:41:46.620204 13086 net.cpp:397] relu7 -> fc7 (in-place)
I0823 18:41:46.620975 13086 net.cpp:150] Setting up relu7
I0823 18:41:46.620993 13086 net.cpp:157] Top shape: 1 1024 (1024)
I0823 18:41:46.620996 13086 net.cpp:165] Memory required for data: 20721604
I0823 18:41:46.621002 13086 layer_factory.hpp:77] Creating layer drop7
I0823 18:41:46.621014 13086 net.cpp:106] Creating Layer drop7
I0823 18:41:46.621018 13086 net.cpp:454] drop7 <- fc7
I0823 18:41:46.621027 13086 net.cpp:397] drop7 -> fc7 (in-place)
I0823 18:41:46.621088 13086 net.cpp:150] Setting up drop7
I0823 18:41:46.621095 13086 net.cpp:157] Top shape: 1 1024 (1024)
I0823 18:41:46.621098 13086 net.cpp:165] Memory required for data: 20725700
I0823 18:41:46.621101 13086 layer_factory.hpp:77] Creating layer fc7_drop7_0_split
I0823 18:41:46.621109 13086 net.cpp:106] Creating Layer fc7_drop7_0_split
I0823 18:41:46.621115 13086 net.cpp:454] fc7_drop7_0_split <- fc7
I0823 18:41:46.621122 13086 net.cpp:411] fc7_drop7_0_split -> fc7_drop7_0_split_0
I0823 18:41:46.621134 13086 net.cpp:411] fc7_drop7_0_split -> fc7_drop7_0_split_1
I0823 18:41:46.621218 13086 net.cpp:150] Setting up fc7_drop7_0_split
I0823 18:41:46.621227 13086 net.cpp:157] Top shape: 1 1024 (1024)
I0823 18:41:46.621230 13086 net.cpp:157] Top shape: 1 1024 (1024)
I0823 18:41:46.621232 13086 net.cpp:165] Memory required for data: 20733892
I0823 18:41:46.621235 13086 layer_factory.hpp:77] Creating layer cls_score
I0823 18:41:46.621258 13086 net.cpp:106] Creating Layer cls_score
I0823 18:41:46.621263 13086 net.cpp:454] cls_score <- fc7_drop7_0_split_0
I0823 18:41:46.621270 13086 net.cpp:411] cls_score -> cls_score
I0823 18:41:46.623903 13086 net.cpp:150] Setting up cls_score
I0823 18:41:46.623919 13086 net.cpp:157] Top shape: 1 21 (21)
I0823 18:41:46.623921 13086 net.cpp:165] Memory required for data: 20733976
I0823 18:41:46.623929 13086 layer_factory.hpp:77] Creating layer bbox_pred
I0823 18:41:46.623950 13086 net.cpp:106] Creating Layer bbox_pred
I0823 18:41:46.623955 13086 net.cpp:454] bbox_pred <- fc7_drop7_0_split_1
I0823 18:41:46.623962 13086 net.cpp:411] bbox_pred -> bbox_pred
I0823 18:41:46.627197 13086 net.cpp:150] Setting up bbox_pred
I0823 18:41:46.627213 13086 net.cpp:157] Top shape: 1 84 (84)
I0823 18:41:46.627216 13086 net.cpp:165] Memory required for data: 20734312
I0823 18:41:46.627223 13086 layer_factory.hpp:77] Creating layer cls_prob
I0823 18:41:46.627231 13086 net.cpp:106] Creating Layer cls_prob
I0823 18:41:46.627235 13086 net.cpp:454] cls_prob <- cls_score
I0823 18:41:46.627243 13086 net.cpp:411] cls_prob -> cls_prob
I0823 18:41:46.627607 13086 net.cpp:150] Setting up cls_prob
I0823 18:41:46.627621 13086 net.cpp:157] Top shape: 1 21 (21)
I0823 18:41:46.627624 13086 net.cpp:165] Memory required for data: 20734396
I0823 18:41:46.627629 13086 net.cpp:228] cls_prob does not need backward computation.
I0823 18:41:46.627631 13086 net.cpp:228] bbox_pred does not need backward computation.
I0823 18:41:46.627635 13086 net.cpp:228] cls_score does not need backward computation.
I0823 18:41:46.627638 13086 net.cpp:228] fc7_drop7_0_split does not need backward computation.
…
