…
snapshot_prefix: "vgg16_faster_rcnn"
average_loss: 100
iter_size: 2
I0822 11:35:59.923250 29218 solver.cpp:81] Creating training net from train_net file: models/pascal_voc/VGG16/faster_rcnn_end2end/train.prototxt
I0822 11:35:59.923971 29218 net.cpp:49] Initializing net from parameters: 
name: "VGG_ILSVRC_16_layers"
state {
  phase: TRAIN
}
layer {
  name: "input-data"
  type: "Python"
  top: "data"
  top: "im_info"
  top: "gt_boxes"
  python_param {
    module: "roi_data_layer.layer"
    layer: "RoIDataLayer"
    param_str: "\'num_classes\': 21"
  }
}
layer {
  name: "conv1_1"
  type: "Convolution"
  bottom: "data"
  top: "conv1_1"
  param {
    lr_mult: 0
    decay_mult: 0
  }
  param {
    lr_mult: 0
    decay_mult: 0
  }
  convolution_param {
    num_output: 64
    pad: 1
    kernel_size: 3
  }
}
layer {
  name: "relu1_1"
  type: "ReLU"
  bottom: "conv1_1"
  top: "conv1_1"
}
layer {
  name: "conv1_2"
  type: "Convolution"
  bottom: "conv1_1"
  top: "conv1_2"
  param {
    lr_mult: 0
    decay_mult: 0
  }
  param {
    lr_mult: 0
    decay_mult: 0
  }
  convolution_param {
    num_output: 64
    pad: 1
    kernel_size: 3
  }
}
layer {
  name: "relu1_2"
  type: "ReLU"
  bottom: "conv1_2"
  top: "conv1_2"
}
layer {
  name: "pool1"
  type: "Pooling"
  bottom: "conv1_2"
  top: "pool1"
  pooling_param {
    pool: MAX
    kernel_size: 2
    stride: 2
  }
}
layer {
  name: "conv2_1"
  type: "Convolution"
  bottom: "pool1"
  top: "conv2_1"
  param {
    lr_mult: 0
    decay_mult: 0
  }
  param {
    lr_mult: 0
    decay_mult: 0
  }
  convolution_param {
    num_output: 128
    pad: 1
    kernel_size: 3
  }
}
layer {
  name: "relu2_1"
  type: "ReLU"
  bottom: "conv2_1"
  top: "conv2_1"
}
layer {
  name: "conv2_2"
  type: "Convolution"
  bottom: "conv2_1"
  top: "conv2_2"
  param {
    lr_mult: 0
    decay_mult: 0
  }
  param {
    lr_mult: 0
    decay_mult: 0
  }
  convolution_param {
    num_output: 128
    pad: 1
    kernel_size: 3
  }
}
layer {
  name: "relu2_2"
  type: "ReLU"
  bottom: "conv2_2"
  top: "conv2_2"
}
layer {
  name: "pool2"
  type: "Pooling"
  bottom: "conv2_2"
  top: "pool2"
  pooling_param {
    pool: MAX
    kernel_size: 2
    stride: 2
  }
}
layer {
  name: "conv3_1"
  type: "Convolution"
  bottom: "pool2"
  top: "conv3_1"
  param {
    lr_mult: 1
  }
  param {
    lr_mult: 2
  }
  convolution_param {
    num_output: 256
    pad: 1
    kernel_size: 3
  }
}
layer {
  name: "relu3_1"
  type: "ReLU"
  bottom: "conv3_1"
  top: "conv3_1"
}
layer {
  name: "conv3_2"
  type: "Convolution"
  bottom: "conv3_1"
  top: "conv3_2"
  param {
    lr_mult: 1
  }
  param {
    lr_mult: 2
  }
  convolution_param {
    num_output: 256
    pad: 1
    kernel_size: 3
  }
}
layer {
  name: "relu3_2"
  type: "ReLU"
  bottom: "conv3_2"
  top: "conv3_2"
}
layer {
  name: "conv3_3"
  type: "Convolution"
  bottom: "conv3_2"
  top: "conv3_3"
  param {
    lr_mult: 1
  }
  param {
    lr_mult: 2
  }
  convolution_param {
    num_output: 256
    pad: 1
    kernel_size: 3
  }
}
layer {
  name: "relu3_3"
  type: "ReLU"
  bottom: "conv3_3"
  top: "conv3_3"
}
layer {
  name: "pool3"
  type: "Pooling"
  bottom: "conv3_3"
  top: "pool3"
  pooling_param {
    pool: MAX
    kernel_size: 2
    stride: 2
  }
}
layer {
  name: "conv4_1"
  type: "Convolution"
  bottom: "pool3"
  top: "conv4_1"
  param {
    lr_mult: 1
  }
  param {
    lr_mult: 2
  }
  convolution_param {
    num_output: 512
    pad: 1
    kernel_size: 3
  }
}
layer {
  name: "relu4_1"
  type: "ReLU"
  bottom: "conv4_1"
  top: "conv4_1"
}
layer {
  name: "conv4_2"
  type: "Convolution"
  bottom: "conv4_1"
  top: "conv4_2"
  param {
    lr_mult: 1
  }
  param {
    lr_mult: 2
  }
  convolution_param {
    num_output: 512
    pad: 1
    kernel_size: 3
  }
}
layer {
  name: "relu4_2"
  type: "ReLU"
  bottom: "conv4_2"
  top: "conv4_2"
}
layer {
  name: "conv4_3"
  type: "Convolution"
  bottom: "conv4_2"
  top: "conv4_3"
  param {
    lr_mult: 1
  }
  param {
    lr_mult: 2
  }
  convolution_param {
    num_output: 512
    pad: 1
    kernel_size: 3
  }
}
layer {
  name: "relu4_3"
  type: "ReLU"
  bottom: "conv4_3"
  top: "conv4_3"
}
layer {
  name: "pool4"
  type: "Pooling"
  bottom: "conv4_3"
  top: "pool4"
  pooling_param {
    pool: MAX
    kernel_size: 2
    stride: 2
  }
}
layer {
  name: "conv5_1"
  type: "Convolution"
  bottom: "pool4"
  top: "conv5_1"
  param {
    lr_mult: 1
  }
  param {
    lr_mult: 2
  }
  convolution_param {
    num_output: 512
    pad: 1
    kernel_size: 3
  }
}
layer {
  name: "relu5_1"
  type: "ReLU"
  bottom: "conv5_1"
  top: "conv5_1"
}
layer {
  name: "conv5_2"
  type: "Convolution"
  bottom: "conv5_1"
  top: "conv5_2"
  param {
    lr_mult: 1
  }
  param {
    lr_mult: 2
  }
  convolution_param {
    num_output: 512
    pad: 1
    kernel_size: 3
  }
}
layer {
  name: "relu5_2"
  type: "ReLU"
  bottom: "conv5_2"
  top: "conv5_2"
}
layer {
  name: "conv5_3"
  type: "Convolution"
  bottom: "conv5_2"
  top: "conv5_3"
  param {
    lr_mult: 1
  }
  param {
    lr_mult: 2
  }
  convolution_param {
    num_output: 512
    pad: 1
    kernel_size: 3
  }
}
layer {
  name: "relu5_3"
  type: "ReLU"
  bottom: "conv5_3"
  top: "conv5_3"
}
layer {
  name: "rpn_conv/3x3"
  type: "Convolution"
  bottom: "conv5_3"
  top: "rpn/output"
  param {
    lr_mult: 1
  }
  param {
    lr_mult: 2
  }
  convolution_param {
    num_output: 512
    pad: 1
    kernel_size: 3
    stride: 1
    weight_filler {
      type: "gaussian"
      std: 0.01
    }
    bias_filler {
      type: "constant"
      value: 0
    }
  }
}
layer {
  name: "rpn_relu/3x3"
  type: "ReLU"
  bottom: "rpn/output"
  top: "rpn/output"
}
layer {
  name: "rpn_cls_score"
  type: "Convolution"
  bottom: "rpn/output"
  top: "rpn_cls_score"
  param {
    lr_mult: 1
  }
  param {
    lr_mult: 2
  }
  convolution_param {
    num_output: 18
    pad: 0
    kernel_size: 1
    stride: 1
    weight_filler {
      type: "gaussian"
      std: 0.01
    }
    bias_filler {
      type: "constant"
      value: 0
    }
  }
}
layer {
  name: "rpn_bbox_pred"
  type: "Convolution"
  bottom: "rpn/output"
  top: "rpn_bbox_pred"
  param {
    lr_mult: 1
  }
  param {
    lr_mult: 2
  }
  convolution_param {
    num_output: 36
    pad: 0
    kernel_size: 1
    stride: 1
    weight_filler {
      type: "gaussian"
      std: 0.01
    }
    bias_filler {
      type: "constant"
      value: 0
    }
  }
}
layer {
  name: "rpn_cls_score_reshape"
  type: "Reshape"
  bottom: "rpn_cls_score"
  top: "rpn_cls_score_reshape"
  reshape_param {
    shape {
      dim: 0
      dim: 2
      dim: -1
      dim: 0
    }
  }
}
layer {
  name: "rpn-data"
  type: "Python"
  bottom: "rpn_cls_score"
  bottom: "gt_boxes"
  bottom: "im_info"
  bottom: "data"
  top: "rpn_labels"
  top: "rpn_bbox_targets"
  top: "rpn_bbox_inside_weights"
  top: "rpn_bbox_outside_weights"
  python_param {
    module: "rpn.anchor_target_layer"
    layer: "AnchorTargetLayer"
    param_str: "\'feat_stride\': 16"
  }
}
layer {
  name: "rpn_loss_cls"
  type: "SoftmaxWithLoss"
  bottom: "rpn_cls_score_reshape"
  bottom: "rpn_labels"
  top: "rpn_cls_loss"
  loss_weight: 1
  propagate_down: true
  propagate_down: false
  loss_param {
    ignore_label: -1
    normalize: true
  }
}
layer {
  name: "rpn_loss_bbox"
  type: "SmoothL1Loss"
  bottom: "rpn_bbox_pred"
  bottom: "rpn_bbox_targets"
  bottom: "rpn_bbox_inside_weights"
  bottom: "rpn_bbox_outside_weights"
  top: "rpn_loss_bbox"
  loss_weight: 1
  smooth_l1_loss_param {
    sigma: 3
  }
}
layer {
  name: "rpn_cls_prob"
  type: "Softmax"
  bottom: "rpn_cls_score_reshape"
  top: "rpn_cls_prob"
}
layer {
  name: "rpn_cls_prob_reshape"
  type: "Reshape"
  bottom: "rpn_cls_prob"
  top: "rpn_cls_prob_reshape"
  reshape_param {
    shape {
      dim: 0
      dim: 18
      dim: -1
      dim: 0
    }
  }
}
layer {
  name: "proposal"
  type: "Python"
  bottom: "rpn_cls_prob_reshape"
  bottom: "rpn_bbox_pred"
  bottom: "im_info"
  top: "rpn_rois"
  python_param {
    module: "rpn.proposal_layer"
    layer: "ProposalLayer"
    param_str: "\'feat_stride\': 16"
  }
}
layer {
  name: "roi-data"
  type: "Python"
  bottom: "rpn_rois"
  bottom: "gt_boxes"
  top: "rois"
  top: "labels"
  top: "bbox_targets"
  top: "bbox_inside_weights"
  top: "bbox_outside_weights"
  python_param {
    module: "rpn.proposal_target_layer"
    layer: "ProposalTargetLayer"
    param_str: "\'num_classes\': 21"
  }
}
layer {
  name: "roi_pool5"
  type: "ROIPooling"
  bottom: "conv5_3"
  bottom: "rois"
  top: "pool5"
  roi_pooling_param {
    pooled_h: 7
    pooled_w: 7
    spatial_scale: 0.0625
  }
}
layer {
  name: "fc6"
  type: "InnerProduct"
  bottom: "pool5"
  top: "fc6"
  param {
    lr_mult: 1
  }
  param {
    lr_mult: 2
  }
  inner_product_param {
    num_output: 4096
  }
}
layer {
  name: "relu6"
  type: "ReLU"
  bottom: "fc6"
  top: "fc6"
}
layer {
  name: "drop6"
  type: "Dropout"
  bottom: "fc6"
  top: "fc6"
  dropout_param {
    dropout_ratio: 0.5
  }
}
layer {
  name: "fc7"
  type: "InnerProduct"
  bottom: "fc6"
  top: "fc7"
  param {
    lr_mult: 1
  }
  param {
    lr_mult: 2
  }
  inner_product_param {
    num_output: 4096
  }
}
layer {
  name: "relu7"
  type: "ReLU"
  bottom: "fc7"
  top: "fc7"
}
layer {
  name: "drop7"
  type: "Dropout"
  bottom: "fc7"
  top: "fc7"
  dropout_param {
    dropout_ratio: 0.5
  }
}
layer {
  name: "cls_score"
  type: "InnerProduct"
  bottom: "fc7"
  top: "cls_score"
  param {
    lr_mult: 1
  }
  param {
    lr_mult: 2
  }
  inner_product_param {
    num_output: 21
    weight_filler {
      type: "gaussian"
      std: 0.01
    }
    bias_filler {
      type: "constant"
      value: 0
    }
  }
}
layer {
  name: "bbox_pred"
  type: "InnerProduct"
  bottom: "fc7"
  top: "bbox_pred"
  param {
    lr_mult: 1
  }
  param {
    lr_mult: 2
  }
  inner_product_param {
    num_output: 84
    weight_filler {
      type: "gaussian"
      std: 0.001
    }
    bias_filler {
      type: "constant"
      value: 0
    }
  }
}
layer {
  name: "loss_cls"
  type: "SoftmaxWithLoss"
  bottom: "cls_score"
  bottom: "labels"
  top: "loss_cls"
  loss_weight: 1
  propagate_down: true
  propagate_down: false
}
layer {
  name: "loss_bbox"
  type: "SmoothL1Loss"
  bottom: "bbox_pred"
  bottom: "bbox_targets"
  bottom: "bbox_inside_weights"
  bottom: "bbox_outside_weights"
  top: "loss_bbox"
  loss_weight: 1
}
I0822 11:35:59.924262 29218 layer_factory.hpp:77] Creating layer input-data
I0822 11:35:59.941228 29218 net.cpp:106] Creating Layer input-data
I0822 11:35:59.941249 29218 net.cpp:411] input-data -> data
I0822 11:35:59.941272 29218 net.cpp:411] input-data -> im_info
I0822 11:35:59.941279 29218 net.cpp:411] input-data -> gt_boxes
RoiDataLayer: name_to_top: {'gt_boxes': 2, 'data': 0, 'im_info': 1}
I0822 11:35:59.952986 29218 net.cpp:150] Setting up input-data
I0822 11:35:59.953009 29218 net.cpp:157] Top shape: 1 3 600 1000 (1800000)
I0822 11:35:59.953016 29218 net.cpp:157] Top shape: 1 3 (3)
I0822 11:35:59.953022 29218 net.cpp:157] Top shape: 1 4 (4)
I0822 11:35:59.953024 29218 net.cpp:165] Memory required for data: 7200028
I0822 11:35:59.953032 29218 layer_factory.hpp:77] Creating layer data_input-data_0_split
I0822 11:35:59.953047 29218 net.cpp:106] Creating Layer data_input-data_0_split
I0822 11:35:59.953060 29218 net.cpp:454] data_input-data_0_split <- data
I0822 11:35:59.953069 29218 net.cpp:411] data_input-data_0_split -> data_input-data_0_split_0
I0822 11:35:59.953083 29218 net.cpp:411] data_input-data_0_split -> data_input-data_0_split_1
I0822 11:35:59.953147 29218 net.cpp:150] Setting up data_input-data_0_split
I0822 11:35:59.953156 29218 net.cpp:157] Top shape: 1 3 600 1000 (1800000)
I0822 11:35:59.953161 29218 net.cpp:157] Top shape: 1 3 600 1000 (1800000)
I0822 11:35:59.953164 29218 net.cpp:165] Memory required for data: 21600028
I0822 11:35:59.953168 29218 layer_factory.hpp:77] Creating layer im_info_input-data_1_split
I0822 11:35:59.953176 29218 net.cpp:106] Creating Layer im_info_input-data_1_split
I0822 11:35:59.953179 29218 net.cpp:454] im_info_input-data_1_split <- im_info
I0822 11:35:59.953186 29218 net.cpp:411] im_info_input-data_1_split -> im_info_input-data_1_split_0
I0822 11:35:59.953194 29218 net.cpp:411] im_info_input-data_1_split -> im_info_input-data_1_split_1
I0822 11:35:59.953250 29218 net.cpp:150] Setting up im_info_input-data_1_split
I0822 11:35:59.953258 29218 net.cpp:157] Top shape: 1 3 (3)
I0822 11:35:59.953261 29218 net.cpp:157] Top shape: 1 3 (3)
I0822 11:35:59.953264 29218 net.cpp:165] Memory required for data: 21600052
I0822 11:35:59.953268 29218 layer_factory.hpp:77] Creating layer gt_boxes_input-data_2_split
I0822 11:35:59.953274 29218 net.cpp:106] Creating Layer gt_boxes_input-data_2_split
I0822 11:35:59.953279 29218 net.cpp:454] gt_boxes_input-data_2_split <- gt_boxes
I0822 11:35:59.953285 29218 net.cpp:411] gt_boxes_input-data_2_split -> gt_boxes_input-data_2_split_0
I0822 11:35:59.953295 29218 net.cpp:411] gt_boxes_input-data_2_split -> gt_boxes_input-data_2_split_1
I0822 11:35:59.953348 29218 net.cpp:150] Setting up gt_boxes_input-data_2_split
I0822 11:35:59.953356 29218 net.cpp:157] Top shape: 1 4 (4)
I0822 11:35:59.953361 29218 net.cpp:157] Top shape: 1 4 (4)
I0822 11:35:59.953362 29218 net.cpp:165] Memory required for data: 21600084
I0822 11:35:59.953366 29218 layer_factory.hpp:77] Creating layer conv1_1
I0822 11:35:59.953383 29218 net.cpp:106] Creating Layer conv1_1
I0822 11:35:59.953389 29218 net.cpp:454] conv1_1 <- data_input-data_0_split_0
I0822 11:35:59.953397 29218 net.cpp:411] conv1_1 -> conv1_1
I0822 11:36:00.230705 29218 net.cpp:150] Setting up conv1_1
I0822 11:36:00.230748 29218 net.cpp:157] Top shape: 1 64 600 1000 (38400000)
I0822 11:36:00.230751 29218 net.cpp:165] Memory required for data: 175200084
I0822 11:36:00.230768 29218 layer_factory.hpp:77] Creating layer relu1_1
I0822 11:36:00.230792 29218 net.cpp:106] Creating Layer relu1_1
I0822 11:36:00.230798 29218 net.cpp:454] relu1_1 <- conv1_1
I0822 11:36:00.230803 29218 net.cpp:397] relu1_1 -> conv1_1 (in-place)
I0822 11:36:00.231323 29218 net.cpp:150] Setting up relu1_1
I0822 11:36:00.231336 29218 net.cpp:157] Top shape: 1 64 600 1000 (38400000)
I0822 11:36:00.231350 29218 net.cpp:165] Memory required for data: 328800084
I0822 11:36:00.231353 29218 layer_factory.hpp:77] Creating layer conv1_2
I0822 11:36:00.231365 29218 net.cpp:106] Creating Layer conv1_2
I0822 11:36:00.231369 29218 net.cpp:454] conv1_2 <- conv1_1
I0822 11:36:00.231386 29218 net.cpp:411] conv1_2 -> conv1_2
I0822 11:36:00.238757 29218 net.cpp:150] Setting up conv1_2
I0822 11:36:00.238771 29218 net.cpp:157] Top shape: 1 64 600 1000 (38400000)
I0822 11:36:00.238785 29218 net.cpp:165] Memory required for data: 482400084
I0822 11:36:00.238795 29218 layer_factory.hpp:77] Creating layer relu1_2
I0822 11:36:00.238801 29218 net.cpp:106] Creating Layer relu1_2
I0822 11:36:00.238816 29218 net.cpp:454] relu1_2 <- conv1_2
I0822 11:36:00.238821 29218 net.cpp:397] relu1_2 -> conv1_2 (in-place)
I0822 11:36:00.239024 29218 net.cpp:150] Setting up relu1_2
I0822 11:36:00.239035 29218 net.cpp:157] Top shape: 1 64 600 1000 (38400000)
I0822 11:36:00.239038 29218 net.cpp:165] Memory required for data: 636000084
I0822 11:36:00.239042 29218 layer_factory.hpp:77] Creating layer pool1
I0822 11:36:00.239053 29218 net.cpp:106] Creating Layer pool1
I0822 11:36:00.239058 29218 net.cpp:454] pool1 <- conv1_2
I0822 11:36:00.239063 29218 net.cpp:411] pool1 -> pool1
I0822 11:36:00.239131 29218 net.cpp:150] Setting up pool1
I0822 11:36:00.239140 29218 net.cpp:157] Top shape: 1 64 300 500 (9600000)
I0822 11:36:00.239142 29218 net.cpp:165] Memory required for data: 674400084
I0822 11:36:00.239145 29218 layer_factory.hpp:77] Creating layer conv2_1
I0822 11:36:00.239152 29218 net.cpp:106] Creating Layer conv2_1
I0822 11:36:00.239156 29218 net.cpp:454] conv2_1 <- pool1
I0822 11:36:00.239161 29218 net.cpp:411] conv2_1 -> conv2_1
I0822 11:36:00.243073 29218 net.cpp:150] Setting up conv2_1
I0822 11:36:00.243099 29218 net.cpp:157] Top shape: 1 128 300 500 (19200000)
I0822 11:36:00.243103 29218 net.cpp:165] Memory required for data: 751200084
I0822 11:36:00.243113 29218 layer_factory.hpp:77] Creating layer relu2_1
I0822 11:36:00.243120 29218 net.cpp:106] Creating Layer relu2_1
I0822 11:36:00.243124 29218 net.cpp:454] relu2_1 <- conv2_1
I0822 11:36:00.243129 29218 net.cpp:397] relu2_1 -> conv2_1 (in-place)
I0822 11:36:00.243314 29218 net.cpp:150] Setting up relu2_1
I0822 11:36:00.243325 29218 net.cpp:157] Top shape: 1 128 300 500 (19200000)
I0822 11:36:00.243329 29218 net.cpp:165] Memory required for data: 828000084
I0822 11:36:00.243331 29218 layer_factory.hpp:77] Creating layer conv2_2
I0822 11:36:00.243340 29218 net.cpp:106] Creating Layer conv2_2
I0822 11:36:00.243345 29218 net.cpp:454] conv2_2 <- conv2_1
I0822 11:36:00.243350 29218 net.cpp:411] conv2_2 -> conv2_2
I0822 11:36:00.249020 29218 net.cpp:150] Setting up conv2_2
I0822 11:36:00.249047 29218 net.cpp:157] Top shape: 1 128 300 500 (19200000)
I0822 11:36:00.249050 29218 net.cpp:165] Memory required for data: 904800084
I0822 11:36:00.249058 29218 layer_factory.hpp:77] Creating layer relu2_2
I0822 11:36:00.249063 29218 net.cpp:106] Creating Layer relu2_2
I0822 11:36:00.249068 29218 net.cpp:454] relu2_2 <- conv2_2
I0822 11:36:00.249073 29218 net.cpp:397] relu2_2 -> conv2_2 (in-place)
I0822 11:36:00.249569 29218 net.cpp:150] Setting up relu2_2
I0822 11:36:00.249583 29218 net.cpp:157] Top shape: 1 128 300 500 (19200000)
I0822 11:36:00.249586 29218 net.cpp:165] Memory required for data: 981600084
I0822 11:36:00.249589 29218 layer_factory.hpp:77] Creating layer pool2
I0822 11:36:00.249596 29218 net.cpp:106] Creating Layer pool2
I0822 11:36:00.249599 29218 net.cpp:454] pool2 <- conv2_2
I0822 11:36:00.249605 29218 net.cpp:411] pool2 -> pool2
I0822 11:36:00.249675 29218 net.cpp:150] Setting up pool2
I0822 11:36:00.249683 29218 net.cpp:157] Top shape: 1 128 150 250 (4800000)
I0822 11:36:00.249686 29218 net.cpp:165] Memory required for data: 1000800084
I0822 11:36:00.249688 29218 layer_factory.hpp:77] Creating layer conv3_1
I0822 11:36:00.249697 29218 net.cpp:106] Creating Layer conv3_1
I0822 11:36:00.249701 29218 net.cpp:454] conv3_1 <- pool2
I0822 11:36:00.249706 29218 net.cpp:411] conv3_1 -> conv3_1
I0822 11:36:00.253968 29218 net.cpp:150] Setting up conv3_1
I0822 11:36:00.253984 29218 net.cpp:157] Top shape: 1 256 150 250 (9600000)
I0822 11:36:00.253988 29218 net.cpp:165] Memory required for data: 1039200084
I0822 11:36:00.253999 29218 layer_factory.hpp:77] Creating layer relu3_1
I0822 11:36:00.254006 29218 net.cpp:106] Creating Layer relu3_1
I0822 11:36:00.254009 29218 net.cpp:454] relu3_1 <- conv3_1
I0822 11:36:00.254017 29218 net.cpp:397] relu3_1 -> conv3_1 (in-place)
I0822 11:36:00.254217 29218 net.cpp:150] Setting up relu3_1
I0822 11:36:00.254230 29218 net.cpp:157] Top shape: 1 256 150 250 (9600000)
I0822 11:36:00.254232 29218 net.cpp:165] Memory required for data: 1077600084
I0822 11:36:00.254236 29218 layer_factory.hpp:77] Creating layer conv3_2
I0822 11:36:00.254256 29218 net.cpp:106] Creating Layer conv3_2
I0822 11:36:00.254261 29218 net.cpp:454] conv3_2 <- conv3_1
I0822 11:36:00.254266 29218 net.cpp:411] conv3_2 -> conv3_2
I0822 11:36:00.260315 29218 net.cpp:150] Setting up conv3_2
I0822 11:36:00.260331 29218 net.cpp:157] Top shape: 1 256 150 250 (9600000)
I0822 11:36:00.260334 29218 net.cpp:165] Memory required for data: 1116000084
I0822 11:36:00.260342 29218 layer_factory.hpp:77] Creating layer relu3_2
I0822 11:36:00.260349 29218 net.cpp:106] Creating Layer relu3_2
I0822 11:36:00.260352 29218 net.cpp:454] relu3_2 <- conv3_2
I0822 11:36:00.260360 29218 net.cpp:397] relu3_2 -> conv3_2 (in-place)
I0822 11:36:00.260565 29218 net.cpp:150] Setting up relu3_2
I0822 11:36:00.260574 29218 net.cpp:157] Top shape: 1 256 150 250 (9600000)
I0822 11:36:00.260577 29218 net.cpp:165] Memory required for data: 1154400084
I0822 11:36:00.260581 29218 layer_factory.hpp:77] Creating layer conv3_3
I0822 11:36:00.260591 29218 net.cpp:106] Creating Layer conv3_3
I0822 11:36:00.260596 29218 net.cpp:454] conv3_3 <- conv3_2
I0822 11:36:00.260606 29218 net.cpp:411] conv3_3 -> conv3_3
I0822 11:36:00.266336 29218 net.cpp:150] Setting up conv3_3
I0822 11:36:00.266362 29218 net.cpp:157] Top shape: 1 256 150 250 (9600000)
I0822 11:36:00.266366 29218 net.cpp:165] Memory required for data: 1192800084
I0822 11:36:00.266372 29218 layer_factory.hpp:77] Creating layer relu3_3
I0822 11:36:00.266381 29218 net.cpp:106] Creating Layer relu3_3
I0822 11:36:00.266384 29218 net.cpp:454] relu3_3 <- conv3_3
I0822 11:36:00.266389 29218 net.cpp:397] relu3_3 -> conv3_3 (in-place)
I0822 11:36:00.266953 29218 net.cpp:150] Setting up relu3_3
I0822 11:36:00.266968 29218 net.cpp:157] Top shape: 1 256 150 250 (9600000)
I0822 11:36:00.266973 29218 net.cpp:165] Memory required for data: 1231200084
I0822 11:36:00.266976 29218 layer_factory.hpp:77] Creating layer pool3
I0822 11:36:00.266985 29218 net.cpp:106] Creating Layer pool3
I0822 11:36:00.266988 29218 net.cpp:454] pool3 <- conv3_3
I0822 11:36:00.266995 29218 net.cpp:411] pool3 -> pool3
I0822 11:36:00.267069 29218 net.cpp:150] Setting up pool3
I0822 11:36:00.267077 29218 net.cpp:157] Top shape: 1 256 75 125 (2400000)
I0822 11:36:00.267079 29218 net.cpp:165] Memory required for data: 1240800084
I0822 11:36:00.267082 29218 layer_factory.hpp:77] Creating layer conv4_1
I0822 11:36:00.267092 29218 net.cpp:106] Creating Layer conv4_1
I0822 11:36:00.267096 29218 net.cpp:454] conv4_1 <- pool3
I0822 11:36:00.267102 29218 net.cpp:411] conv4_1 -> conv4_1
I0822 11:36:00.279970 29218 net.cpp:150] Setting up conv4_1
I0822 11:36:00.279991 29218 net.cpp:157] Top shape: 1 512 75 125 (4800000)
I0822 11:36:00.279995 29218 net.cpp:165] Memory required for data: 1260000084
I0822 11:36:00.280002 29218 layer_factory.hpp:77] Creating layer relu4_1
I0822 11:36:00.280009 29218 net.cpp:106] Creating Layer relu4_1
I0822 11:36:00.280014 29218 net.cpp:454] relu4_1 <- conv4_1
I0822 11:36:00.280019 29218 net.cpp:397] relu4_1 -> conv4_1 (in-place)
I0822 11:36:00.280530 29218 net.cpp:150] Setting up relu4_1
I0822 11:36:00.280544 29218 net.cpp:157] Top shape: 1 512 75 125 (4800000)
I0822 11:36:00.280547 29218 net.cpp:165] Memory required for data: 1279200084
I0822 11:36:00.280550 29218 layer_factory.hpp:77] Creating layer conv4_2
I0822 11:36:00.280562 29218 net.cpp:106] Creating Layer conv4_2
I0822 11:36:00.280565 29218 net.cpp:454] conv4_2 <- conv4_1
I0822 11:36:00.280572 29218 net.cpp:411] conv4_2 -> conv4_2
I0822 11:36:00.295728 29218 net.cpp:150] Setting up conv4_2
I0822 11:36:00.295755 29218 net.cpp:157] Top shape: 1 512 75 125 (4800000)
I0822 11:36:00.295758 29218 net.cpp:165] Memory required for data: 1298400084
I0822 11:36:00.295773 29218 layer_factory.hpp:77] Creating layer relu4_2
I0822 11:36:00.295781 29218 net.cpp:106] Creating Layer relu4_2
I0822 11:36:00.295796 29218 net.cpp:454] relu4_2 <- conv4_2
I0822 11:36:00.295802 29218 net.cpp:397] relu4_2 -> conv4_2 (in-place)
I0822 11:36:00.296002 29218 net.cpp:150] Setting up relu4_2
I0822 11:36:00.296013 29218 net.cpp:157] Top shape: 1 512 75 125 (4800000)
I0822 11:36:00.296016 29218 net.cpp:165] Memory required for data: 1317600084
I0822 11:36:00.296020 29218 layer_factory.hpp:77] Creating layer conv4_3
I0822 11:36:00.296030 29218 net.cpp:106] Creating Layer conv4_3
I0822 11:36:00.296035 29218 net.cpp:454] conv4_3 <- conv4_2
I0822 11:36:00.296041 29218 net.cpp:411] conv4_3 -> conv4_3
I0822 11:36:00.311087 29218 net.cpp:150] Setting up conv4_3
I0822 11:36:00.311103 29218 net.cpp:157] Top shape: 1 512 75 125 (4800000)
I0822 11:36:00.311106 29218 net.cpp:165] Memory required for data: 1336800084
I0822 11:36:00.311115 29218 layer_factory.hpp:77] Creating layer relu4_3
I0822 11:36:00.311121 29218 net.cpp:106] Creating Layer relu4_3
I0822 11:36:00.311125 29218 net.cpp:454] relu4_3 <- conv4_3
I0822 11:36:00.311130 29218 net.cpp:397] relu4_3 -> conv4_3 (in-place)
I0822 11:36:00.311666 29218 net.cpp:150] Setting up relu4_3
I0822 11:36:00.311679 29218 net.cpp:157] Top shape: 1 512 75 125 (4800000)
I0822 11:36:00.311694 29218 net.cpp:165] Memory required for data: 1356000084
I0822 11:36:00.311697 29218 layer_factory.hpp:77] Creating layer pool4
I0822 11:36:00.311705 29218 net.cpp:106] Creating Layer pool4
I0822 11:36:00.311708 29218 net.cpp:454] pool4 <- conv4_3
I0822 11:36:00.311717 29218 net.cpp:411] pool4 -> pool4
I0822 11:36:00.311795 29218 net.cpp:150] Setting up pool4
I0822 11:36:00.311805 29218 net.cpp:157] Top shape: 1 512 38 63 (1225728)
I0822 11:36:00.311807 29218 net.cpp:165] Memory required for data: 1360902996
I0822 11:36:00.311810 29218 layer_factory.hpp:77] Creating layer conv5_1
I0822 11:36:00.311820 29218 net.cpp:106] Creating Layer conv5_1
I0822 11:36:00.311825 29218 net.cpp:454] conv5_1 <- pool4
I0822 11:36:00.311830 29218 net.cpp:411] conv5_1 -> conv5_1
I0822 11:36:00.326781 29218 net.cpp:150] Setting up conv5_1
I0822 11:36:00.326809 29218 net.cpp:157] Top shape: 1 512 38 63 (1225728)
I0822 11:36:00.326813 29218 net.cpp:165] Memory required for data: 1365805908
I0822 11:36:00.326820 29218 layer_factory.hpp:77] Creating layer relu5_1
I0822 11:36:00.326828 29218 net.cpp:106] Creating Layer relu5_1
I0822 11:36:00.326830 29218 net.cpp:454] relu5_1 <- conv5_1
I0822 11:36:00.326848 29218 net.cpp:397] relu5_1 -> conv5_1 (in-place)
I0822 11:36:00.327070 29218 net.cpp:150] Setting up relu5_1
I0822 11:36:00.327082 29218 net.cpp:157] Top shape: 1 512 38 63 (1225728)
I0822 11:36:00.327085 29218 net.cpp:165] Memory required for data: 1370708820
I0822 11:36:00.327090 29218 layer_factory.hpp:77] Creating layer conv5_2
I0822 11:36:00.327100 29218 net.cpp:106] Creating Layer conv5_2
I0822 11:36:00.327105 29218 net.cpp:454] conv5_2 <- conv5_1
I0822 11:36:00.327112 29218 net.cpp:411] conv5_2 -> conv5_2
I0822 11:36:00.342118 29218 net.cpp:150] Setting up conv5_2
I0822 11:36:00.342147 29218 net.cpp:157] Top shape: 1 512 38 63 (1225728)
I0822 11:36:00.342150 29218 net.cpp:165] Memory required for data: 1375611732
I0822 11:36:00.342159 29218 layer_factory.hpp:77] Creating layer relu5_2
I0822 11:36:00.342166 29218 net.cpp:106] Creating Layer relu5_2
I0822 11:36:00.342170 29218 net.cpp:454] relu5_2 <- conv5_2
I0822 11:36:00.342175 29218 net.cpp:397] relu5_2 -> conv5_2 (in-place)
I0822 11:36:00.342391 29218 net.cpp:150] Setting up relu5_2
I0822 11:36:00.342401 29218 net.cpp:157] Top shape: 1 512 38 63 (1225728)
I0822 11:36:00.342404 29218 net.cpp:165] Memory required for data: 1380514644
I0822 11:36:00.342407 29218 layer_factory.hpp:77] Creating layer conv5_3
I0822 11:36:00.342425 29218 net.cpp:106] Creating Layer conv5_3
I0822 11:36:00.342430 29218 net.cpp:454] conv5_3 <- conv5_2
I0822 11:36:00.342437 29218 net.cpp:411] conv5_3 -> conv5_3
I0822 11:36:00.362793 29218 net.cpp:150] Setting up conv5_3
I0822 11:36:00.362834 29218 net.cpp:157] Top shape: 1 512 38 63 (1225728)
I0822 11:36:00.362843 29218 net.cpp:165] Memory required for data: 1385417556
I0822 11:36:00.362859 29218 layer_factory.hpp:77] Creating layer relu5_3
I0822 11:36:00.362879 29218 net.cpp:106] Creating Layer relu5_3
I0822 11:36:00.362887 29218 net.cpp:454] relu5_3 <- conv5_3
I0822 11:36:00.362905 29218 net.cpp:397] relu5_3 -> conv5_3 (in-place)
I0822 11:36:00.363787 29218 net.cpp:150] Setting up relu5_3
I0822 11:36:00.363811 29218 net.cpp:157] Top shape: 1 512 38 63 (1225728)
I0822 11:36:00.363818 29218 net.cpp:165] Memory required for data: 1390320468
I0822 11:36:00.363824 29218 layer_factory.hpp:77] Creating layer conv5_3_relu5_3_0_split
I0822 11:36:00.363838 29218 net.cpp:106] Creating Layer conv5_3_relu5_3_0_split
I0822 11:36:00.363847 29218 net.cpp:454] conv5_3_relu5_3_0_split <- conv5_3
I0822 11:36:00.363864 29218 net.cpp:411] conv5_3_relu5_3_0_split -> conv5_3_relu5_3_0_split_0
I0822 11:36:00.363883 29218 net.cpp:411] conv5_3_relu5_3_0_split -> conv5_3_relu5_3_0_split_1
I0822 11:36:00.364037 29218 net.cpp:150] Setting up conv5_3_relu5_3_0_split
I0822 11:36:00.364051 29218 net.cpp:157] Top shape: 1 512 38 63 (1225728)
I0822 11:36:00.364059 29218 net.cpp:157] Top shape: 1 512 38 63 (1225728)
I0822 11:36:00.364068 29218 net.cpp:165] Memory required for data: 1400126292
I0822 11:36:00.364074 29218 layer_factory.hpp:77] Creating layer rpn_conv/3x3
I0822 11:36:00.364100 29218 net.cpp:106] Creating Layer rpn_conv/3x3
I0822 11:36:00.364109 29218 net.cpp:454] rpn_conv/3x3 <- conv5_3_relu5_3_0_split_0
I0822 11:36:00.364126 29218 net.cpp:411] rpn_conv/3x3 -> rpn/output
I0822 11:36:00.426169 29218 net.cpp:150] Setting up rpn_conv/3x3
I0822 11:36:00.426193 29218 net.cpp:157] Top shape: 1 512 38 63 (1225728)
I0822 11:36:00.426198 29218 net.cpp:165] Memory required for data: 1405029204
I0822 11:36:00.426210 29218 layer_factory.hpp:77] Creating layer rpn_relu/3x3
I0822 11:36:00.426220 29218 net.cpp:106] Creating Layer rpn_relu/3x3
I0822 11:36:00.426226 29218 net.cpp:454] rpn_relu/3x3 <- rpn/output
I0822 11:36:00.426237 29218 net.cpp:397] rpn_relu/3x3 -> rpn/output (in-place)
I0822 11:36:00.426550 29218 net.cpp:150] Setting up rpn_relu/3x3
I0822 11:36:00.426566 29218 net.cpp:157] Top shape: 1 512 38 63 (1225728)
I0822 11:36:00.426570 29218 net.cpp:165] Memory required for data: 1409932116
I0822 11:36:00.426574 29218 layer_factory.hpp:77] Creating layer rpn/output_rpn_relu/3x3_0_split
I0822 11:36:00.426586 29218 net.cpp:106] Creating Layer rpn/output_rpn_relu/3x3_0_split
I0822 11:36:00.426591 29218 net.cpp:454] rpn/output_rpn_relu/3x3_0_split <- rpn/output
I0822 11:36:00.426600 29218 net.cpp:411] rpn/output_rpn_relu/3x3_0_split -> rpn/output_rpn_relu/3x3_0_split_0
I0822 11:36:00.426614 29218 net.cpp:411] rpn/output_rpn_relu/3x3_0_split -> rpn/output_rpn_relu/3x3_0_split_1
I0822 11:36:00.426723 29218 net.cpp:150] Setting up rpn/output_rpn_relu/3x3_0_split
I0822 11:36:00.426733 29218 net.cpp:157] Top shape: 1 512 38 63 (1225728)
I0822 11:36:00.426739 29218 net.cpp:157] Top shape: 1 512 38 63 (1225728)
I0822 11:36:00.426744 29218 net.cpp:165] Memory required for data: 1419737940
I0822 11:36:00.426749 29218 layer_factory.hpp:77] Creating layer rpn_cls_score
I0822 11:36:00.426774 29218 net.cpp:106] Creating Layer rpn_cls_score
I0822 11:36:00.426781 29218 net.cpp:454] rpn_cls_score <- rpn/output_rpn_relu/3x3_0_split_0
I0822 11:36:00.426791 29218 net.cpp:411] rpn_cls_score -> rpn_cls_score
I0822 11:36:00.429684 29218 net.cpp:150] Setting up rpn_cls_score
I0822 11:36:00.429704 29218 net.cpp:157] Top shape: 1 18 38 63 (43092)
I0822 11:36:00.429709 29218 net.cpp:165] Memory required for data: 1419910308
I0822 11:36:00.429718 29218 layer_factory.hpp:77] Creating layer rpn_cls_score_rpn_cls_score_0_split
I0822 11:36:00.429728 29218 net.cpp:106] Creating Layer rpn_cls_score_rpn_cls_score_0_split
I0822 11:36:00.429733 29218 net.cpp:454] rpn_cls_score_rpn_cls_score_0_split <- rpn_cls_score
I0822 11:36:00.429744 29218 net.cpp:411] rpn_cls_score_rpn_cls_score_0_split -> rpn_cls_score_rpn_cls_score_0_split_0
I0822 11:36:00.429769 29218 net.cpp:411] rpn_cls_score_rpn_cls_score_0_split -> rpn_cls_score_rpn_cls_score_0_split_1
I0822 11:36:00.429873 29218 net.cpp:150] Setting up rpn_cls_score_rpn_cls_score_0_split
I0822 11:36:00.429885 29218 net.cpp:157] Top shape: 1 18 38 63 (43092)
I0822 11:36:00.429891 29218 net.cpp:157] Top shape: 1 18 38 63 (43092)
I0822 11:36:00.429895 29218 net.cpp:165] Memory required for data: 1420255044
I0822 11:36:00.429899 29218 layer_factory.hpp:77] Creating layer rpn_bbox_pred
I0822 11:36:00.429916 29218 net.cpp:106] Creating Layer rpn_bbox_pred
I0822 11:36:00.429924 29218 net.cpp:454] rpn_bbox_pred <- rpn/output_rpn_relu/3x3_0_split_1
I0822 11:36:00.429936 29218 net.cpp:411] rpn_bbox_pred -> rpn_bbox_pred
I0822 11:36:00.432540 29218 net.cpp:150] Setting up rpn_bbox_pred
I0822 11:36:00.432564 29218 net.cpp:157] Top shape: 1 36 38 63 (86184)
I0822 11:36:00.432567 29218 net.cpp:165] Memory required for data: 1420599780
I0822 11:36:00.432579 29218 layer_factory.hpp:77] Creating layer rpn_bbox_pred_rpn_bbox_pred_0_split
I0822 11:36:00.432587 29218 net.cpp:106] Creating Layer rpn_bbox_pred_rpn_bbox_pred_0_split
I0822 11:36:00.432592 29218 net.cpp:454] rpn_bbox_pred_rpn_bbox_pred_0_split <- rpn_bbox_pred
I0822 11:36:00.432603 29218 net.cpp:411] rpn_bbox_pred_rpn_bbox_pred_0_split -> rpn_bbox_pred_rpn_bbox_pred_0_split_0
I0822 11:36:00.432615 29218 net.cpp:411] rpn_bbox_pred_rpn_bbox_pred_0_split -> rpn_bbox_pred_rpn_bbox_pred_0_split_1
I0822 11:36:00.432718 29218 net.cpp:150] Setting up rpn_bbox_pred_rpn_bbox_pred_0_split
I0822 11:36:00.432731 29218 net.cpp:157] Top shape: 1 36 38 63 (86184)
I0822 11:36:00.432739 29218 net.cpp:157] Top shape: 1 36 38 63 (86184)
I0822 11:36:00.432742 29218 net.cpp:165] Memory required for data: 1421289252
I0822 11:36:00.432746 29218 layer_factory.hpp:77] Creating layer rpn_cls_score_reshape
I0822 11:36:00.432759 29218 net.cpp:106] Creating Layer rpn_cls_score_reshape
I0822 11:36:00.432765 29218 net.cpp:454] rpn_cls_score_reshape <- rpn_cls_score_rpn_cls_score_0_split_0
I0822 11:36:00.432775 29218 net.cpp:411] rpn_cls_score_reshape -> rpn_cls_score_reshape
I0822 11:36:00.432839 29218 net.cpp:150] Setting up rpn_cls_score_reshape
I0822 11:36:00.432849 29218 net.cpp:157] Top shape: 1 2 342 63 (43092)
I0822 11:36:00.432859 29218 net.cpp:165] Memory required for data: 1421461620
I0822 11:36:00.432863 29218 layer_factory.hpp:77] Creating layer rpn_cls_score_reshape_rpn_cls_score_reshape_0_split
I0822 11:36:00.432873 29218 net.cpp:106] Creating Layer rpn_cls_score_reshape_rpn_cls_score_reshape_0_split
I0822 11:36:00.432880 29218 net.cpp:454] rpn_cls_score_reshape_rpn_cls_score_reshape_0_split <- rpn_cls_score_reshape
I0822 11:36:00.432888 29218 net.cpp:411] rpn_cls_score_reshape_rpn_cls_score_reshape_0_split -> rpn_cls_score_reshape_rpn_cls_score_reshape_0_split_0
I0822 11:36:00.432903 29218 net.cpp:411] rpn_cls_score_reshape_rpn_cls_score_reshape_0_split -> rpn_cls_score_reshape_rpn_cls_score_reshape_0_split_1
I0822 11:36:00.432991 29218 net.cpp:150] Setting up rpn_cls_score_reshape_rpn_cls_score_reshape_0_split
I0822 11:36:00.433001 29218 net.cpp:157] Top shape: 1 2 342 63 (43092)
I0822 11:36:00.433007 29218 net.cpp:157] Top shape: 1 2 342 63 (43092)
I0822 11:36:00.433012 29218 net.cpp:165] Memory required for data: 1421806356
I0822 11:36:00.433017 29218 layer_factory.hpp:77] Creating layer rpn-data
I0822 11:36:00.437767 29218 net.cpp:106] Creating Layer rpn-data
I0822 11:36:00.437788 29218 net.cpp:454] rpn-data <- rpn_cls_score_rpn_cls_score_0_split_1
I0822 11:36:00.437799 29218 net.cpp:454] rpn-data <- gt_boxes_input-data_2_split_0
I0822 11:36:00.437808 29218 net.cpp:454] rpn-data <- im_info_input-data_1_split_0
I0822 11:36:00.437818 29218 net.cpp:454] rpn-data <- data_input-data_0_split_1
I0822 11:36:00.437829 29218 net.cpp:411] rpn-data -> rpn_labels
I0822 11:36:00.437844 29218 net.cpp:411] rpn-data -> rpn_bbox_targets
I0822 11:36:00.437858 29218 net.cpp:411] rpn-data -> rpn_bbox_inside_weights
I0822 11:36:00.437872 29218 net.cpp:411] rpn-data -> rpn_bbox_outside_weights
I0822 11:36:00.439162 29218 net.cpp:150] Setting up rpn-data
I0822 11:36:00.439183 29218 net.cpp:157] Top shape: 1 1 342 63 (21546)
I0822 11:36:00.439191 29218 net.cpp:157] Top shape: 1 36 38 63 (86184)
I0822 11:36:00.439198 29218 net.cpp:157] Top shape: 1 36 38 63 (86184)
I0822 11:36:00.439204 29218 net.cpp:157] Top shape: 1 36 38 63 (86184)
I0822 11:36:00.439209 29218 net.cpp:165] Memory required for data: 1422926748
I0822 11:36:00.439214 29218 layer_factory.hpp:77] Creating layer rpn_loss_cls
I0822 11:36:00.439225 29218 net.cpp:106] Creating Layer rpn_loss_cls
I0822 11:36:00.439232 29218 net.cpp:454] rpn_loss_cls <- rpn_cls_score_reshape_rpn_cls_score_reshape_0_split_0
I0822 11:36:00.439239 29218 net.cpp:454] rpn_loss_cls <- rpn_labels
…
I0822 11:36:00.440966 29218 net.cpp:157] Top shape: (1)
I0822 11:36:00.440973 29218 net.cpp:160]     with loss weight 1
I0822 11:36:00.440980 29218 net.cpp:165] Memory required for data: 1422926756
I0822 11:36:00.440984 29218 layer_factory.hpp:77] Creating layer rpn_cls_prob
I0822 11:36:00.440991 29218 net.cpp:106] Creating Layer rpn_cls_prob
I0822 11:36:00.440997 29218 net.cpp:454] rpn_cls_prob <- rpn_cls_score_reshape_rpn_cls_score_reshape_0_split_1
I0822 11:36:00.441005 29218 net.cpp:411] rpn_cls_prob -> rpn_cls_prob
I0822 11:36:00.441763 29218 net.cpp:150] Setting up rpn_cls_prob
I0822 11:36:00.441781 29218 net.cpp:157] Top shape: 1 2 342 63 (43092)
I0822 11:36:00.441787 29218 net.cpp:165] Memory required for data: 1423099124
I0822 11:36:00.441792 29218 layer_factory.hpp:77] Creating layer rpn_cls_prob_reshape
I0822 11:36:00.441802 29218 net.cpp:106] Creating Layer rpn_cls_prob_reshape
I0822 11:36:00.441809 29218 net.cpp:454] rpn_cls_prob_reshape <- rpn_cls_prob
I0822 11:36:00.441817 29218 net.cpp:411] rpn_cls_prob_reshape -> rpn_cls_prob_reshape
I0822 11:36:00.441879 29218 net.cpp:150] Setting up rpn_cls_prob_reshape
I0822 11:36:00.441889 29218 net.cpp:157] Top shape: 1 18 38 63 (43092)
I0822 11:36:00.441893 29218 net.cpp:165] Memory required for data: 1423271492
I0822 11:36:00.441897 29218 layer_factory.hpp:77] Creating layer proposal
I0822 11:36:00.456109 29218 net.cpp:106] Creating Layer proposal
I0822 11:36:00.456127 29218 net.cpp:454] proposal <- rpn_cls_prob_reshape
I0822 11:36:00.456135 29218 net.cpp:454] proposal <- rpn_bbox_pred_rpn_bbox_pred_0_split_1
I0822 11:36:00.456141 29218 net.cpp:454] proposal <- im_info_input-data_1_split_1
I0822 11:36:00.456149 29218 net.cpp:411] proposal -> rpn_rois
I0822 11:36:00.461932 29218 net.cpp:150] Setting up proposal
I0822 11:36:00.461949 29218 net.cpp:157] Top shape: 1 5 (5)
I0822 11:36:00.461953 29218 net.cpp:165] Memory required for data: 1423271512
I0822 11:36:00.461956 29218 layer_factory.hpp:77] Creating layer roi-data
I0822 11:36:00.464131 29218 net.cpp:106] Creating Layer roi-data
I0822 11:36:00.464156 29218 net.cpp:454] roi-data <- rpn_rois
I0822 11:36:00.464169 29218 net.cpp:454] roi-data <- gt_boxes_input-data_2_split_1
I0822 11:36:00.464184 29218 net.cpp:411] roi-data -> rois
I0822 11:36:00.464206 29218 net.cpp:411] roi-data -> labels
I0822 11:36:00.464224 29218 net.cpp:411] roi-data -> bbox_targets
I0822 11:36:00.464241 29218 net.cpp:411] roi-data -> bbox_inside_weights
I0822 11:36:00.464258 29218 net.cpp:411] roi-data -> bbox_outside_weights
I0822 11:36:00.465348 29218 net.cpp:150] Setting up roi-data
I0822 11:36:00.465373 29218 net.cpp:157] Top shape: 1 5 (5)
I0822 11:36:00.465381 29218 net.cpp:157] Top shape: 1 1 (1)
I0822 11:36:00.465389 29218 net.cpp:157] Top shape: 1 84 (84)
I0822 11:36:00.465395 29218 net.cpp:157] Top shape: 1 84 (84)
I0822 11:36:00.465402 29218 net.cpp:157] Top shape: 1 84 (84)
I0822 11:36:00.465407 29218 net.cpp:165] Memory required for data: 1423272544
I0822 11:36:00.465415 29218 layer_factory.hpp:77] Creating layer roi_pool5
I0822 11:36:00.465435 29218 net.cpp:106] Creating Layer roi_pool5
I0822 11:36:00.465445 29218 net.cpp:454] roi_pool5 <- conv5_3_relu5_3_0_split_1
I0822 11:36:00.465456 29218 net.cpp:454] roi_pool5 <- rois
I0822 11:36:00.465469 29218 net.cpp:411] roi_pool5 -> pool5
I0822 11:36:00.465487 29218 roi_pooling_layer.cpp:30] Spatial scale: 0.0625
I0822 11:36:00.465620 29218 net.cpp:150] Setting up roi_pool5
I0822 11:36:00.465636 29218 net.cpp:157] Top shape: 1 512 7 7 (25088)
I0822 11:36:00.465644 29218 net.cpp:165] Memory required for data: 1423372896
I0822 11:36:00.465651 29218 layer_factory.hpp:77] Creating layer fc6
I0822 11:36:00.465667 29218 net.cpp:106] Creating Layer fc6
I0822 11:36:00.465675 29218 net.cpp:454] fc6 <- pool5
I0822 11:36:00.465687 29218 net.cpp:411] fc6 -> fc6
I0822 11:36:01.073608 29218 net.cpp:150] Setting up fc6
I0822 11:36:01.073649 29218 net.cpp:157] Top shape: 1 4096 (4096)
I0822 11:36:01.073657 29218 net.cpp:165] Memory required for data: 1423389280
I0822 11:36:01.073679 29218 layer_factory.hpp:77] Creating layer relu6
I0822 11:36:01.073693 29218 net.cpp:106] Creating Layer relu6
I0822 11:36:01.073698 29218 net.cpp:454] relu6 <- fc6
I0822 11:36:01.073706 29218 net.cpp:397] relu6 -> fc6 (in-place)
I0822 11:36:01.074017 29218 net.cpp:150] Setting up relu6
I0822 11:36:01.074026 29218 net.cpp:157] Top shape: 1 4096 (4096)
I0822 11:36:01.074029 29218 net.cpp:165] Memory required for data: 1423405664
I0822 11:36:01.074033 29218 layer_factory.hpp:77] Creating layer drop6
I0822 11:36:01.074040 29218 net.cpp:106] Creating Layer drop6
I0822 11:36:01.074043 29218 net.cpp:454] drop6 <- fc6
I0822 11:36:01.074049 29218 net.cpp:397] drop6 -> fc6 (in-place)
I0822 11:36:01.074095 29218 net.cpp:150] Setting up drop6
I0822 11:36:01.074102 29218 net.cpp:157] Top shape: 1 4096 (4096)
I0822 11:36:01.074105 29218 net.cpp:165] Memory required for data: 1423422048
I0822 11:36:01.074107 29218 layer_factory.hpp:77] Creating layer fc7
I0822 11:36:01.074115 29218 net.cpp:106] Creating Layer fc7
I0822 11:36:01.074118 29218 net.cpp:454] fc7 <- fc6
I0822 11:36:01.074126 29218 net.cpp:411] fc7 -> fc7
I0822 11:36:01.169942 29218 net.cpp:150] Setting up fc7
I0822 11:36:01.169981 29218 net.cpp:157] Top shape: 1 4096 (4096)
I0822 11:36:01.169986 29218 net.cpp:165] Memory required for data: 1423438432
I0822 11:36:01.169997 29218 layer_factory.hpp:77] Creating layer relu7
I0822 11:36:01.170011 29218 net.cpp:106] Creating Layer relu7
I0822 11:36:01.170016 29218 net.cpp:454] relu7 <- fc7
I0822 11:36:01.170024 29218 net.cpp:397] relu7 -> fc7 (in-place)
I0822 11:36:01.170759 29218 net.cpp:150] Setting up relu7
I0822 11:36:01.170775 29218 net.cpp:157] Top shape: 1 4096 (4096)
I0822 11:36:01.170778 29218 net.cpp:165] Memory required for data: 1423454816
I0822 11:36:01.170781 29218 layer_factory.hpp:77] Creating layer drop7
I0822 11:36:01.170790 29218 net.cpp:106] Creating Layer drop7
I0822 11:36:01.170794 29218 net.cpp:454] drop7 <- fc7
I0822 11:36:01.170800 29218 net.cpp:397] drop7 -> fc7 (in-place)
I0822 11:36:01.170851 29218 net.cpp:150] Setting up drop7
I0822 11:36:01.170861 29218 net.cpp:157] Top shape: 1 4096 (4096)
I0822 11:36:01.170863 29218 net.cpp:165] Memory required for data: 1423471200
I0822 11:36:01.170866 29218 layer_factory.hpp:77] Creating layer fc7_drop7_0_split
I0822 11:36:01.170873 29218 net.cpp:106] Creating Layer fc7_drop7_0_split
I0822 11:36:01.170876 29218 net.cpp:454] fc7_drop7_0_split <- fc7
I0822 11:36:01.170882 29218 net.cpp:411] fc7_drop7_0_split -> fc7_drop7_0_split_0
I0822 11:36:01.170891 29218 net.cpp:411] fc7_drop7_0_split -> fc7_drop7_0_split_1
I0822 11:36:01.170991 29218 net.cpp:150] Setting up fc7_drop7_0_split
I0822 11:36:01.171001 29218 net.cpp:157] Top shape: 1 4096 (4096)
I0822 11:36:01.171005 29218 net.cpp:157] Top shape: 1 4096 (4096)
I0822 11:36:01.171007 29218 net.cpp:165] Memory required for data: 1423503968
I0822 11:36:01.171011 29218 layer_factory.hpp:77] Creating layer cls_score
I0822 11:36:01.171021 29218 net.cpp:106] Creating Layer cls_score
I0822 11:36:01.171026 29218 net.cpp:454] cls_score <- fc7_drop7_0_split_0
I0822 11:36:01.171036 29218 net.cpp:411] cls_score -> cls_score
I0822 11:36:01.172217 29218 net.cpp:150] Setting up cls_score
I0822 11:36:01.172226 29218 net.cpp:157] Top shape: 1 21 (21)
I0822 11:36:01.172230 29218 net.cpp:165] Memory required for data: 1423504052
I0822 11:36:01.172235 29218 layer_factory.hpp:77] Creating layer bbox_pred
I0822 11:36:01.172243 29218 net.cpp:106] Creating Layer bbox_pred
I0822 11:36:01.172248 29218 net.cpp:454] bbox_pred <- fc7_drop7_0_split_1
I0822 11:36:01.172255 29218 net.cpp:411] bbox_pred -> bbox_pred
I0822 11:36:01.178762 29218 net.cpp:150] Setting up bbox_pred
I0822 11:36:01.178776 29218 net.cpp:157] Top shape: 1 84 (84)
I0822 11:36:01.178779 29218 net.cpp:165] Memory required for data: 1423504388
I0822 11:36:01.178786 29218 layer_factory.hpp:77] Creating layer loss_cls
I0822 11:36:01.178795 29218 net.cpp:106] Creating Layer loss_cls
I0822 11:36:01.178798 29218 net.cpp:454] loss_cls <- cls_score
I0822 11:36:01.178803 29218 net.cpp:454] loss_cls <- labels
I0822 11:36:01.178810 29218 net.cpp:411] loss_cls -> loss_cls
…
           'RPN_POST_NMS_TOP_N': 2000,
           'RPN_PRE_NMS_TOP_N': 12000,
           'SCALES': [600],
           'SNAPSHOT_INFIX': '',
           'SNAPSHOT_ITERS': 10000,
           'USE_FLIPPED': True,
           'USE_PREFETCH': False},
 'USE_GPU_NMS': True}
WARNING: Logging before InitGoogleLogging() is written to STDERR
I0822 22:28:23.415132 22222 net.cpp:49] Initializing net from parameters: 
name: "VGG_ILSVRC_16_layers"
input: "data"
input: "im_info"
state {
  phase: TEST
}
input_shape {
  dim: 1
  dim: 3
  dim: 224
  dim: 224
}
input_shape {
  dim: 1
  dim: 3
}
layer {
  name: "conv1_1"
  type: "Convolution"
  bottom: "data"
  top: "conv1_1"
  param {
    lr_mult: 0
    decay_mult: 0
  }
  param {
    lr_mult: 0
    decay_mult: 0
  }
  convolution_param {
    num_output: 64
    pad: 1
    kernel_size: 3
  }
}
layer {
  name: "relu1_1"
  type: "ReLU"
  bottom: "conv1_1"
  top: "conv1_1"
}
layer {
  name: "conv1_2"
  type: "Convolution"
  bottom: "conv1_1"
  top: "conv1_2"
  param {
    lr_mult: 0
    decay_mult: 0
  }
  param {
    lr_mult: 0
    decay_mult: 0
  }
  convolution_param {
    num_output: 64
    pad: 1
    kernel_size: 3
  }
}
layer {
  name: "relu1_2"
  type: "ReLU"
  bottom: "conv1_2"
  top: "conv1_2"
}
layer {
  name: "pool1"
  type: "Pooling"
  bottom: "conv1_2"
  top: "pool1"
  pooling_param {
    pool: MAX
    kernel_size: 2
    stride: 2
  }
}
layer {
  name: "conv2_1"
  type: "Convolution"
  bottom: "pool1"
  top: "conv2_1"
  param {
    lr_mult: 0
    decay_mult: 0
  }
  param {
    lr_mult: 0
    decay_mult: 0
  }
  convolution_param {
    num_output: 128
    pad: 1
    kernel_size: 3
  }
}
layer {
  name: "relu2_1"
  type: "ReLU"
  bottom: "conv2_1"
  top: "conv2_1"
}
layer {
  name: "conv2_2"
  type: "Convolution"
  bottom: "conv2_1"
  top: "conv2_2"
  param {
    lr_mult: 0
    decay_mult: 0
  }
  param {
    lr_mult: 0
    decay_mult: 0
  }
  convolution_param {
    num_output: 128
    pad: 1
    kernel_size: 3
  }
}
layer {
  name: "relu2_2"
  type: "ReLU"
  bottom: "conv2_2"
  top: "conv2_2"
}
layer {
  name: "pool2"
  type: "Pooling"
  bottom: "conv2_2"
  top: "pool2"
  pooling_param {
    pool: MAX
    kernel_size: 2
    stride: 2
  }
}
layer {
  name: "conv3_1"
  type: "Convolution"
  bottom: "pool2"
  top: "conv3_1"
  param {
    lr_mult: 1
    decay_mult: 1
  }
  param {
    lr_mult: 2
    decay_mult: 0
  }
  convolution_param {
    num_output: 256
    pad: 1
    kernel_size: 3
  }
}
layer {
  name: "relu3_1"
  type: "ReLU"
  bottom: "conv3_1"
  top: "conv3_1"
}
layer {
  name: "conv3_2"
  type: "Convolution"
  bottom: "conv3_1"
  top: "conv3_2"
  param {
    lr_mult: 1
    decay_mult: 1
  }
  param {
    lr_mult: 2
    decay_mult: 0
  }
  convolution_param {
    num_output: 256
    pad: 1
    kernel_size: 3
  }
}
layer {
  name: "relu3_2"
  type: "ReLU"
  bottom: "conv3_2"
  top: "conv3_2"
}
layer {
  name: "conv3_3"
  type: "Convolution"
  bottom: "conv3_2"
  top: "conv3_3"
  param {
    lr_mult: 1
    decay_mult: 1
  }
  param {
    lr_mult: 2
    decay_mult: 0
  }
  convolution_param {
    num_output: 256
    pad: 1
    kernel_size: 3
  }
}
layer {
  name: "relu3_3"
  type: "ReLU"
  bottom: "conv3_3"
  top: "conv3_3"
}
layer {
  name: "pool3"
  type: "Pooling"
  bottom: "conv3_3"
  top: "pool3"
  pooling_param {
    pool: MAX
    kernel_size: 2
    stride: 2
  }
}
layer {
  name: "conv4_1"
  type: "Convolution"
  bottom: "pool3"
  top: "conv4_1"
  param {
    lr_mult: 1
    decay_mult: 1
  }
  param {
    lr_mult: 2
    decay_mult: 0
  }
  convolution_param {
    num_output: 512
    pad: 1
    kernel_size: 3
  }
}
layer {
  name: "relu4_1"
  type: "ReLU"
  bottom: "conv4_1"
  top: "conv4_1"
}
layer {
  name: "conv4_2"
  type: "Convolution"
  bottom: "conv4_1"
  top: "conv4_2"
  param {
    lr_mult: 1
    decay_mult: 1
  }
  param {
    lr_mult: 2
    decay_mult: 0
  }
  convolution_param {
    num_output: 512
    pad: 1
    kernel_size: 3
  }
}
layer {
  name: "relu4_2"
  type: "ReLU"
  bottom: "conv4_2"
  top: "conv4_2"
}
layer {
  name: "conv4_3"
  type: "Convolution"
  bottom: "conv4_2"
  top: "conv4_3"
  param {
    lr_mult: 1
    decay_mult: 1
  }
  param {
    lr_mult: 2
    decay_mult: 0
  }
  convolution_param {
    num_output: 512
    pad: 1
    kernel_size: 3
  }
}
layer {
  name: "relu4_3"
  type: "ReLU"
  bottom: "conv4_3"
  top: "conv4_3"
}
layer {
  name: "pool4"
  type: "Pooling"
  bottom: "conv4_3"
  top: "pool4"
  pooling_param {
    pool: MAX
    kernel_size: 2
    stride: 2
  }
}
layer {
  name: "conv5_1"
  type: "Convolution"
  bottom: "pool4"
  top: "conv5_1"
  param {
    lr_mult: 1
    decay_mult: 1
  }
  param {
    lr_mult: 2
    decay_mult: 0
  }
  convolution_param {
    num_output: 512
    pad: 1
    kernel_size: 3
  }
}
layer {
  name: "relu5_1"
  type: "ReLU"
  bottom: "conv5_1"
  top: "conv5_1"
}
layer {
  name: "conv5_2"
  type: "Convolution"
  bottom: "conv5_1"
  top: "conv5_2"
  param {
    lr_mult: 1
    decay_mult: 1
  }
  param {
    lr_mult: 2
    decay_mult: 0
  }
  convolution_param {
    num_output: 512
    pad: 1
    kernel_size: 3
  }
}
layer {
  name: "relu5_2"
  type: "ReLU"
  bottom: "conv5_2"
  top: "conv5_2"
}
layer {
  name: "conv5_3"
  type: "Convolution"
  bottom: "conv5_2"
  top: "conv5_3"
  param {
    lr_mult: 1
    decay_mult: 1
  }
  param {
    lr_mult: 2
    decay_mult: 0
  }
  convolution_param {
    num_output: 512
    pad: 1
    kernel_size: 3
  }
}
layer {
  name: "relu5_3"
  type: "ReLU"
  bottom: "conv5_3"
  top: "conv5_3"
}
layer {
  name: "rpn_conv/3x3"
  type: "Convolution"
  bottom: "conv5_3"
  top: "rpn/output"
  param {
    lr_mult: 1
    decay_mult: 1
  }
  param {
    lr_mult: 2
    decay_mult: 0
  }
  convolution_param {
    num_output: 512
    pad: 1
    kernel_size: 3
    stride: 1
    weight_filler {
      type: "gaussian"
      std: 0.01
    }
    bias_filler {
      type: "constant"
      value: 0
    }
  }
}
layer {
  name: "rpn_relu/3x3"
  type: "ReLU"
  bottom: "rpn/output"
  top: "rpn/output"
}
layer {
  name: "rpn_cls_score"
  type: "Convolution"
  bottom: "rpn/output"
  top: "rpn_cls_score"
  param {
    lr_mult: 1
    decay_mult: 1
  }
  param {
    lr_mult: 2
    decay_mult: 0
  }
  convolution_param {
    num_output: 18
    pad: 0
    kernel_size: 1
    stride: 1
    weight_filler {
      type: "gaussian"
      std: 0.01
    }
    bias_filler {
      type: "constant"
      value: 0
    }
  }
}
layer {
  name: "rpn_bbox_pred"
  type: "Convolution"
  bottom: "rpn/output"
  top: "rpn_bbox_pred"
  param {
    lr_mult: 1
    decay_mult: 1
  }
  param {
    lr_mult: 2
    decay_mult: 0
  }
  convolution_param {
    num_output: 36
    pad: 0
    kernel_size: 1
    stride: 1
    weight_filler {
      type: "gaussian"
      std: 0.01
    }
    bias_filler {
      type: "constant"
      value: 0
    }
  }
}
layer {
  name: "rpn_cls_score_reshape"
  type: "Reshape"
  bottom: "rpn_cls_score"
  top: "rpn_cls_score_reshape"
  reshape_param {
    shape {
      dim: 0
      dim: 2
      dim: -1
      dim: 0
    }
  }
}
layer {
  name: "rpn_cls_prob"
  type: "Softmax"
  bottom: "rpn_cls_score_reshape"
  top: "rpn_cls_prob"
}
layer {
  name: "rpn_cls_prob_reshape"
  type: "Reshape"
  bottom: "rpn_cls_prob"
  top: "rpn_cls_prob_reshape"
  reshape_param {
    shape {
      dim: 0
      dim: 18
      dim: -1
      dim: 0
    }
  }
}
layer {
  name: "proposal"
  type: "Python"
  bottom: "rpn_cls_prob_reshape"
  bottom: "rpn_bbox_pred"
  bottom: "im_info"
  top: "rois"
  python_param {
    module: "rpn.proposal_layer"
    layer: "ProposalLayer"
    param_str: "\'feat_stride\': 16"
  }
}
layer {
  name: "roi_pool5"
  type: "ROIPooling"
  bottom: "conv5_3"
  bottom: "rois"
  top: "pool5"
  roi_pooling_param {
    pooled_h: 7
    pooled_w: 7
    spatial_scale: 0.0625
  }
}
layer {
  name: "fc6"
  type: "InnerProduct"
  bottom: "pool5"
  top: "fc6"
  param {
    lr_mult: 1
    decay_mult: 1
  }
  param {
    lr_mult: 2
    decay_mult: 0
  }
  inner_product_param {
    num_output: 4096
  }
}
layer {
  name: "relu6"
  type: "ReLU"
  bottom: "fc6"
  top: "fc6"
}
layer {
  name: "drop6"
  type: "Dropout"
  bottom: "fc6"
  top: "fc6"
  dropout_param {
    dropout_ratio: 0.5
  }
}
layer {
  name: "fc7"
  type: "InnerProduct"
  bottom: "fc6"
  top: "fc7"
  param {
    lr_mult: 1
    decay_mult: 1
  }
  param {
    lr_mult: 2
    decay_mult: 0
  }
  inner_product_param {
    num_output: 4096
  }
}
layer {
  name: "relu7"
  type: "ReLU"
  bottom: "fc7"
  top: "fc7"
}
layer {
  name: "drop7"
  type: "Dropout"
  bottom: "fc7"
  top: "fc7"
  dropout_param {
    dropout_ratio: 0.5
  }
}
layer {
  name: "cls_score"
  type: "InnerProduct"
  bottom: "fc7"
  top: "cls_score"
  param {
    lr_mult: 1
    decay_mult: 1
  }
  param {
    lr_mult: 2
    decay_mult: 0
  }
  inner_product_param {
    num_output: 21
    weight_filler {
      type: "gaussian"
      std: 0.01
    }
    bias_filler {
      type: "constant"
      value: 0
    }
  }
}
layer {
  name: "bbox_pred"
  type: "InnerProduct"
  bottom: "fc7"
  top: "bbox_pred"
  param {
    lr_mult: 1
    decay_mult: 1
  }
  param {
    lr_mult: 2
    decay_mult: 0
  }
  inner_product_param {
    num_output: 84
    weight_filler {
      type: "gaussian"
      std: 0.001
    }
    bias_filler {
      type: "constant"
      value: 0
    }
  }
}
layer {
  name: "cls_prob"
  type: "Softmax"
  bottom: "cls_score"
  top: "cls_prob"
}
I0822 22:28:23.415347 22222 net.cpp:413] Input 0 -> data
I0822 22:28:23.433883 22222 net.cpp:413] Input 1 -> im_info
I0822 22:28:23.433975 22222 layer_factory.hpp:77] Creating layer conv1_1
I0822 22:28:23.434000 22222 net.cpp:106] Creating Layer conv1_1
I0822 22:28:23.434005 22222 net.cpp:454] conv1_1 <- data
I0822 22:28:23.434013 22222 net.cpp:411] conv1_1 -> conv1_1
I0822 22:28:23.701591 22222 net.cpp:150] Setting up conv1_1
I0822 22:28:23.701648 22222 net.cpp:157] Top shape: 1 64 224 224 (3211264)
I0822 22:28:23.701654 22222 net.cpp:165] Memory required for data: 12845056
I0822 22:28:23.701678 22222 layer_factory.hpp:77] Creating layer relu1_1
I0822 22:28:23.701704 22222 net.cpp:106] Creating Layer relu1_1
I0822 22:28:23.701709 22222 net.cpp:454] relu1_1 <- conv1_1
I0822 22:28:23.701719 22222 net.cpp:397] relu1_1 -> conv1_1 (in-place)
I0822 22:28:23.702356 22222 net.cpp:150] Setting up relu1_1
I0822 22:28:23.702384 22222 net.cpp:157] Top shape: 1 64 224 224 (3211264)
I0822 22:28:23.702389 22222 net.cpp:165] Memory required for data: 25690112
I0822 22:28:23.702394 22222 layer_factory.hpp:77] Creating layer conv1_2
I0822 22:28:23.702410 22222 net.cpp:106] Creating Layer conv1_2
I0822 22:28:23.702414 22222 net.cpp:454] conv1_2 <- conv1_1
I0822 22:28:23.702425 22222 net.cpp:411] conv1_2 -> conv1_2
I0822 22:28:23.704890 22222 net.cpp:150] Setting up conv1_2
I0822 22:28:23.704911 22222 net.cpp:157] Top shape: 1 64 224 224 (3211264)
I0822 22:28:23.704922 22222 net.cpp:165] Memory required for data: 38535168
I0822 22:28:23.704937 22222 layer_factory.hpp:77] Creating layer relu1_2
I0822 22:28:23.704946 22222 net.cpp:106] Creating Layer relu1_2
I0822 22:28:23.704951 22222 net.cpp:454] relu1_2 <- conv1_2
I0822 22:28:23.704965 22222 net.cpp:397] relu1_2 -> conv1_2 (in-place)
I0822 22:28:23.705222 22222 net.cpp:150] Setting up relu1_2
I0822 22:28:23.705237 22222 net.cpp:157] Top shape: 1 64 224 224 (3211264)
I0822 22:28:23.705241 22222 net.cpp:165] Memory required for data: 51380224
I0822 22:28:23.705245 22222 layer_factory.hpp:77] Creating layer pool1
I0822 22:28:23.705257 22222 net.cpp:106] Creating Layer pool1
I0822 22:28:23.705263 22222 net.cpp:454] pool1 <- conv1_2
I0822 22:28:23.705271 22222 net.cpp:411] pool1 -> pool1
I0822 22:28:23.705369 22222 net.cpp:150] Setting up pool1
I0822 22:28:23.705379 22222 net.cpp:157] Top shape: 1 64 112 112 (802816)
I0822 22:28:23.705384 22222 net.cpp:165] Memory required for data: 54591488
I0822 22:28:23.705387 22222 layer_factory.hpp:77] Creating layer conv2_1
I0822 22:28:23.705404 22222 net.cpp:106] Creating Layer conv2_1
I0822 22:28:23.705410 22222 net.cpp:454] conv2_1 <- pool1
I0822 22:28:23.705417 22222 net.cpp:411] conv2_1 -> conv2_1
I0822 22:28:23.712262 22222 net.cpp:150] Setting up conv2_1
I0822 22:28:23.712299 22222 net.cpp:157] Top shape: 1 128 112 112 (1605632)
I0822 22:28:23.712304 22222 net.cpp:165] Memory required for data: 61014016
I0822 22:28:23.712321 22222 layer_factory.hpp:77] Creating layer relu2_1
I0822 22:28:23.712330 22222 net.cpp:106] Creating Layer relu2_1
I0822 22:28:23.712335 22222 net.cpp:454] relu2_1 <- conv2_1
I0822 22:28:23.712343 22222 net.cpp:397] relu2_1 -> conv2_1 (in-place)
I0822 22:28:23.712613 22222 net.cpp:150] Setting up relu2_1
I0822 22:28:23.712627 22222 net.cpp:157] Top shape: 1 128 112 112 (1605632)
I0822 22:28:23.712632 22222 net.cpp:165] Memory required for data: 67436544
I0822 22:28:23.712636 22222 layer_factory.hpp:77] Creating layer conv2_2
I0822 22:28:23.712648 22222 net.cpp:106] Creating Layer conv2_2
I0822 22:28:23.712653 22222 net.cpp:454] conv2_2 <- conv2_1
I0822 22:28:23.712661 22222 net.cpp:411] conv2_2 -> conv2_2
I0822 22:28:23.714949 22222 net.cpp:150] Setting up conv2_2
I0822 22:28:23.714972 22222 net.cpp:157] Top shape: 1 128 112 112 (1605632)
I0822 22:28:23.714977 22222 net.cpp:165] Memory required for data: 73859072
I0822 22:28:23.714987 22222 layer_factory.hpp:77] Creating layer relu2_2
I0822 22:28:23.714996 22222 net.cpp:106] Creating Layer relu2_2
I0822 22:28:23.715001 22222 net.cpp:454] relu2_2 <- conv2_2
I0822 22:28:23.715009 22222 net.cpp:397] relu2_2 -> conv2_2 (in-place)
I0822 22:28:23.715625 22222 net.cpp:150] Setting up relu2_2
I0822 22:28:23.715641 22222 net.cpp:157] Top shape: 1 128 112 112 (1605632)
I0822 22:28:23.715646 22222 net.cpp:165] Memory required for data: 80281600
I0822 22:28:23.715651 22222 layer_factory.hpp:77] Creating layer pool2
I0822 22:28:23.715659 22222 net.cpp:106] Creating Layer pool2
I0822 22:28:23.715663 22222 net.cpp:454] pool2 <- conv2_2
I0822 22:28:23.715672 22222 net.cpp:411] pool2 -> pool2
I0822 22:28:23.715760 22222 net.cpp:150] Setting up pool2
I0822 22:28:23.715770 22222 net.cpp:157] Top shape: 1 128 56 56 (401408)
I0822 22:28:23.715775 22222 net.cpp:165] Memory required for data: 81887232
I0822 22:28:23.715777 22222 layer_factory.hpp:77] Creating layer conv3_1
I0822 22:28:23.715788 22222 net.cpp:106] Creating Layer conv3_1
I0822 22:28:23.715792 22222 net.cpp:454] conv3_1 <- pool2
I0822 22:28:23.715800 22222 net.cpp:411] conv3_1 -> conv3_1
I0822 22:28:23.720274 22222 net.cpp:150] Setting up conv3_1
I0822 22:28:23.720296 22222 net.cpp:157] Top shape: 1 256 56 56 (802816)
I0822 22:28:23.720306 22222 net.cpp:165] Memory required for data: 85098496
I0822 22:28:23.720320 22222 layer_factory.hpp:77] Creating layer relu3_1
I0822 22:28:23.720329 22222 net.cpp:106] Creating Layer relu3_1
I0822 22:28:23.720335 22222 net.cpp:454] relu3_1 <- conv3_1
I0822 22:28:23.720341 22222 net.cpp:397] relu3_1 -> conv3_1 (in-place)
I0822 22:28:23.720584 22222 net.cpp:150] Setting up relu3_1
I0822 22:28:23.720597 22222 net.cpp:157] Top shape: 1 256 56 56 (802816)
I0822 22:28:23.720602 22222 net.cpp:165] Memory required for data: 88309760
I0822 22:28:23.720605 22222 layer_factory.hpp:77] Creating layer conv3_2
I0822 22:28:23.720618 22222 net.cpp:106] Creating Layer conv3_2
I0822 22:28:23.720623 22222 net.cpp:454] conv3_2 <- conv3_1
I0822 22:28:23.720631 22222 net.cpp:411] conv3_2 -> conv3_2
I0822 22:28:23.726876 22222 net.cpp:150] Setting up conv3_2
I0822 22:28:23.726900 22222 net.cpp:157] Top shape: 1 256 56 56 (802816)
I0822 22:28:23.726919 22222 net.cpp:165] Memory required for data: 91521024
I0822 22:28:23.726935 22222 layer_factory.hpp:77] Creating layer relu3_2
I0822 22:28:23.726944 22222 net.cpp:106] Creating Layer relu3_2
I0822 22:28:23.726949 22222 net.cpp:454] relu3_2 <- conv3_2
I0822 22:28:23.726956 22222 net.cpp:397] relu3_2 -> conv3_2 (in-place)
I0822 22:28:23.727202 22222 net.cpp:150] Setting up relu3_2
I0822 22:28:23.727216 22222 net.cpp:157] Top shape: 1 256 56 56 (802816)
I0822 22:28:23.727219 22222 net.cpp:165] Memory required for data: 94732288
I0822 22:28:23.727224 22222 layer_factory.hpp:77] Creating layer conv3_3
I0822 22:28:23.727236 22222 net.cpp:106] Creating Layer conv3_3
I0822 22:28:23.727241 22222 net.cpp:454] conv3_3 <- conv3_2
I0822 22:28:23.727250 22222 net.cpp:411] conv3_3 -> conv3_3
I0822 22:28:23.733687 22222 net.cpp:150] Setting up conv3_3
I0822 22:28:23.733722 22222 net.cpp:157] Top shape: 1 256 56 56 (802816)
I0822 22:28:23.733726 22222 net.cpp:165] Memory required for data: 97943552
I0822 22:28:23.733736 22222 layer_factory.hpp:77] Creating layer relu3_3
I0822 22:28:23.733746 22222 net.cpp:106] Creating Layer relu3_3
I0822 22:28:23.733749 22222 net.cpp:454] relu3_3 <- conv3_3
I0822 22:28:23.733757 22222 net.cpp:397] relu3_3 -> conv3_3 (in-place)
I0822 22:28:23.734359 22222 net.cpp:150] Setting up relu3_3
I0822 22:28:23.734376 22222 net.cpp:157] Top shape: 1 256 56 56 (802816)
I0822 22:28:23.734380 22222 net.cpp:165] Memory required for data: 101154816
I0822 22:28:23.734385 22222 layer_factory.hpp:77] Creating layer pool3
I0822 22:28:23.734398 22222 net.cpp:106] Creating Layer pool3
I0822 22:28:23.734402 22222 net.cpp:454] pool3 <- conv3_3
I0822 22:28:23.734410 22222 net.cpp:411] pool3 -> pool3
I0822 22:28:23.734503 22222 net.cpp:150] Setting up pool3
I0822 22:28:23.734513 22222 net.cpp:157] Top shape: 1 256 28 28 (200704)
I0822 22:28:23.734515 22222 net.cpp:165] Memory required for data: 101957632
I0822 22:28:23.734519 22222 layer_factory.hpp:77] Creating layer conv4_1
I0822 22:28:23.734530 22222 net.cpp:106] Creating Layer conv4_1
I0822 22:28:23.734534 22222 net.cpp:454] conv4_1 <- pool3
I0822 22:28:23.734541 22222 net.cpp:411] conv4_1 -> conv4_1
I0822 22:28:23.747819 22222 net.cpp:150] Setting up conv4_1
I0822 22:28:23.747884 22222 net.cpp:157] Top shape: 1 512 28 28 (401408)
I0822 22:28:23.747891 22222 net.cpp:165] Memory required for data: 103563264
I0822 22:28:23.747911 22222 layer_factory.hpp:77] Creating layer relu4_1
I0822 22:28:23.747937 22222 net.cpp:106] Creating Layer relu4_1
I0822 22:28:23.747946 22222 net.cpp:454] relu4_1 <- conv4_1
I0822 22:28:23.747957 22222 net.cpp:397] relu4_1 -> conv4_1 (in-place)
I0822 22:28:23.748366 22222 net.cpp:150] Setting up relu4_1
I0822 22:28:23.748395 22222 net.cpp:157] Top shape: 1 512 28 28 (401408)
I0822 22:28:23.748401 22222 net.cpp:165] Memory required for data: 105168896
I0822 22:28:23.748407 22222 layer_factory.hpp:77] Creating layer conv4_2
I0822 22:28:23.748425 22222 net.cpp:106] Creating Layer conv4_2
I0822 22:28:23.748431 22222 net.cpp:454] conv4_2 <- conv4_1
I0822 22:28:23.748443 22222 net.cpp:411] conv4_2 -> conv4_2
I0822 22:28:23.769736 22222 net.cpp:150] Setting up conv4_2
I0822 22:28:23.769776 22222 net.cpp:157] Top shape: 1 512 28 28 (401408)
I0822 22:28:23.769780 22222 net.cpp:165] Memory required for data: 106774528
I0822 22:28:23.769804 22222 layer_factory.hpp:77] Creating layer relu4_2
I0822 22:28:23.769820 22222 net.cpp:106] Creating Layer relu4_2
I0822 22:28:23.769826 22222 net.cpp:454] relu4_2 <- conv4_2
I0822 22:28:23.769834 22222 net.cpp:397] relu4_2 -> conv4_2 (in-place)
I0822 22:28:23.770063 22222 net.cpp:150] Setting up relu4_2
I0822 22:28:23.770076 22222 net.cpp:157] Top shape: 1 512 28 28 (401408)
I0822 22:28:23.770079 22222 net.cpp:165] Memory required for data: 108380160
I0822 22:28:23.770083 22222 layer_factory.hpp:77] Creating layer conv4_3
I0822 22:28:23.770098 22222 net.cpp:106] Creating Layer conv4_3
I0822 22:28:23.770105 22222 net.cpp:454] conv4_3 <- conv4_2
I0822 22:28:23.770113 22222 net.cpp:411] conv4_3 -> conv4_3
I0822 22:28:23.785444 22222 net.cpp:150] Setting up conv4_3
I0822 22:28:23.785464 22222 net.cpp:157] Top shape: 1 512 28 28 (401408)
I0822 22:28:23.785467 22222 net.cpp:165] Memory required for data: 109985792
I0822 22:28:23.785476 22222 layer_factory.hpp:77] Creating layer relu4_3
I0822 22:28:23.785486 22222 net.cpp:106] Creating Layer relu4_3
I0822 22:28:23.785490 22222 net.cpp:454] relu4_3 <- conv4_3
I0822 22:28:23.785497 22222 net.cpp:397] relu4_3 -> conv4_3 (in-place)
I0822 22:28:23.786033 22222 net.cpp:150] Setting up relu4_3
I0822 22:28:23.786048 22222 net.cpp:157] Top shape: 1 512 28 28 (401408)
I0822 22:28:23.786058 22222 net.cpp:165] Memory required for data: 111591424
I0822 22:28:23.786062 22222 layer_factory.hpp:77] Creating layer pool4
I0822 22:28:23.786072 22222 net.cpp:106] Creating Layer pool4
I0822 22:28:23.786075 22222 net.cpp:454] pool4 <- conv4_3
I0822 22:28:23.786083 22222 net.cpp:411] pool4 -> pool4
I0822 22:28:23.786170 22222 net.cpp:150] Setting up pool4
I0822 22:28:23.786178 22222 net.cpp:157] Top shape: 1 512 14 14 (100352)
I0822 22:28:23.786181 22222 net.cpp:165] Memory required for data: 111992832
I0822 22:28:23.786185 22222 layer_factory.hpp:77] Creating layer conv5_1
I0822 22:28:23.786196 22222 net.cpp:106] Creating Layer conv5_1
I0822 22:28:23.786202 22222 net.cpp:454] conv5_1 <- pool4
I0822 22:28:23.786211 22222 net.cpp:411] conv5_1 -> conv5_1
I0822 22:28:23.801322 22222 net.cpp:150] Setting up conv5_1
I0822 22:28:23.801340 22222 net.cpp:157] Top shape: 1 512 14 14 (100352)
I0822 22:28:23.801344 22222 net.cpp:165] Memory required for data: 112394240
I0822 22:28:23.801352 22222 layer_factory.hpp:77] Creating layer relu5_1
I0822 22:28:23.801362 22222 net.cpp:106] Creating Layer relu5_1
I0822 22:28:23.801367 22222 net.cpp:454] relu5_1 <- conv5_1
I0822 22:28:23.801373 22222 net.cpp:397] relu5_1 -> conv5_1 (in-place)
I0822 22:28:23.801618 22222 net.cpp:150] Setting up relu5_1
I0822 22:28:23.801630 22222 net.cpp:157] Top shape: 1 512 14 14 (100352)
I0822 22:28:23.801633 22222 net.cpp:165] Memory required for data: 112795648
I0822 22:28:23.801636 22222 layer_factory.hpp:77] Creating layer conv5_2
I0822 22:28:23.801650 22222 net.cpp:106] Creating Layer conv5_2
I0822 22:28:23.801652 22222 net.cpp:454] conv5_2 <- conv5_1
I0822 22:28:23.801658 22222 net.cpp:411] conv5_2 -> conv5_2
I0822 22:28:23.817049 22222 net.cpp:150] Setting up conv5_2
I0822 22:28:23.817067 22222 net.cpp:157] Top shape: 1 512 14 14 (100352)
I0822 22:28:23.817071 22222 net.cpp:165] Memory required for data: 113197056
I0822 22:28:23.817080 22222 layer_factory.hpp:77] Creating layer relu5_2
I0822 22:28:23.817086 22222 net.cpp:106] Creating Layer relu5_2
I0822 22:28:23.817090 22222 net.cpp:454] relu5_2 <- conv5_2
I0822 22:28:23.817097 22222 net.cpp:397] relu5_2 -> conv5_2 (in-place)
I0822 22:28:23.817330 22222 net.cpp:150] Setting up relu5_2
I0822 22:28:23.817343 22222 net.cpp:157] Top shape: 1 512 14 14 (100352)
I0822 22:28:23.817347 22222 net.cpp:165] Memory required for data: 113598464
I0822 22:28:23.817349 22222 layer_factory.hpp:77] Creating layer conv5_3
I0822 22:28:23.817360 22222 net.cpp:106] Creating Layer conv5_3
I0822 22:28:23.817364 22222 net.cpp:454] conv5_3 <- conv5_2
I0822 22:28:23.817371 22222 net.cpp:411] conv5_3 -> conv5_3
I0822 22:28:23.832751 22222 net.cpp:150] Setting up conv5_3
I0822 22:28:23.832777 22222 net.cpp:157] Top shape: 1 512 14 14 (100352)
I0822 22:28:23.832780 22222 net.cpp:165] Memory required for data: 113999872
I0822 22:28:23.832788 22222 layer_factory.hpp:77] Creating layer relu5_3
I0822 22:28:23.832797 22222 net.cpp:106] Creating Layer relu5_3
I0822 22:28:23.832800 22222 net.cpp:454] relu5_3 <- conv5_3
I0822 22:28:23.832809 22222 net.cpp:397] relu5_3 -> conv5_3 (in-place)
I0822 22:28:23.833364 22222 net.cpp:150] Setting up relu5_3
I0822 22:28:23.833377 22222 net.cpp:157] Top shape: 1 512 14 14 (100352)
I0822 22:28:23.833380 22222 net.cpp:165] Memory required for data: 114401280
I0822 22:28:23.833389 22222 layer_factory.hpp:77] Creating layer conv5_3_relu5_3_0_split
I0822 22:28:23.833395 22222 net.cpp:106] Creating Layer conv5_3_relu5_3_0_split
I0822 22:28:23.833400 22222 net.cpp:454] conv5_3_relu5_3_0_split <- conv5_3
I0822 22:28:23.833410 22222 net.cpp:411] conv5_3_relu5_3_0_split -> conv5_3_relu5_3_0_split_0
I0822 22:28:23.833420 22222 net.cpp:411] conv5_3_relu5_3_0_split -> conv5_3_relu5_3_0_split_1
I0822 22:28:23.833509 22222 net.cpp:150] Setting up conv5_3_relu5_3_0_split
I0822 22:28:23.833518 22222 net.cpp:157] Top shape: 1 512 14 14 (100352)
I0822 22:28:23.833523 22222 net.cpp:157] Top shape: 1 512 14 14 (100352)
I0822 22:28:23.833526 22222 net.cpp:165] Memory required for data: 115204096
I0822 22:28:23.833530 22222 layer_factory.hpp:77] Creating layer rpn_conv/3x3
I0822 22:28:23.833546 22222 net.cpp:106] Creating Layer rpn_conv/3x3
I0822 22:28:23.833552 22222 net.cpp:454] rpn_conv/3x3 <- conv5_3_relu5_3_0_split_0
I0822 22:28:23.833560 22222 net.cpp:411] rpn_conv/3x3 -> rpn/output
I0822 22:28:23.876233 22222 net.cpp:150] Setting up rpn_conv/3x3
I0822 22:28:23.876255 22222 net.cpp:157] Top shape: 1 512 14 14 (100352)
I0822 22:28:23.876258 22222 net.cpp:165] Memory required for data: 115605504
I0822 22:28:23.876266 22222 layer_factory.hpp:77] Creating layer rpn_relu/3x3
I0822 22:28:23.876284 22222 net.cpp:106] Creating Layer rpn_relu/3x3
I0822 22:28:23.876288 22222 net.cpp:454] rpn_relu/3x3 <- rpn/output
I0822 22:28:23.876294 22222 net.cpp:397] rpn_relu/3x3 -> rpn/output (in-place)
I0822 22:28:23.876523 22222 net.cpp:150] Setting up rpn_relu/3x3
I0822 22:28:23.876534 22222 net.cpp:157] Top shape: 1 512 14 14 (100352)
I0822 22:28:23.876538 22222 net.cpp:165] Memory required for data: 116006912
I0822 22:28:23.876541 22222 layer_factory.hpp:77] Creating layer rpn/output_rpn_relu/3x3_0_split
I0822 22:28:23.876550 22222 net.cpp:106] Creating Layer rpn/output_rpn_relu/3x3_0_split
I0822 22:28:23.876554 22222 net.cpp:454] rpn/output_rpn_relu/3x3_0_split <- rpn/output
I0822 22:28:23.876559 22222 net.cpp:411] rpn/output_rpn_relu/3x3_0_split -> rpn/output_rpn_relu/3x3_0_split_0
I0822 22:28:23.876569 22222 net.cpp:411] rpn/output_rpn_relu/3x3_0_split -> rpn/output_rpn_relu/3x3_0_split_1
I0822 22:28:23.876657 22222 net.cpp:150] Setting up rpn/output_rpn_relu/3x3_0_split
I0822 22:28:23.876667 22222 net.cpp:157] Top shape: 1 512 14 14 (100352)
I0822 22:28:23.876670 22222 net.cpp:157] Top shape: 1 512 14 14 (100352)
I0822 22:28:23.876673 22222 net.cpp:165] Memory required for data: 116809728
I0822 22:28:23.876677 22222 layer_factory.hpp:77] Creating layer rpn_cls_score
I0822 22:28:23.876691 22222 net.cpp:106] Creating Layer rpn_cls_score
I0822 22:28:23.876696 22222 net.cpp:454] rpn_cls_score <- rpn/output_rpn_relu/3x3_0_split_0
I0822 22:28:23.876703 22222 net.cpp:411] rpn_cls_score -> rpn_cls_score
I0822 22:28:23.879004 22222 net.cpp:150] Setting up rpn_cls_score
I0822 22:28:23.879024 22222 net.cpp:157] Top shape: 1 18 14 14 (3528)
I0822 22:28:23.879027 22222 net.cpp:165] Memory required for data: 116823840
I0822 22:28:23.879035 22222 layer_factory.hpp:77] Creating layer rpn_bbox_pred
I0822 22:28:23.879048 22222 net.cpp:106] Creating Layer rpn_bbox_pred
I0822 22:28:23.879052 22222 net.cpp:454] rpn_bbox_pred <- rpn/output_rpn_relu/3x3_0_split_1
I0822 22:28:23.879061 22222 net.cpp:411] rpn_bbox_pred -> rpn_bbox_pred
I0822 22:28:23.881299 22222 net.cpp:150] Setting up rpn_bbox_pred
I0822 22:28:23.881314 22222 net.cpp:157] Top shape: 1 36 14 14 (7056)
I0822 22:28:23.881317 22222 net.cpp:165] Memory required for data: 116852064
I0822 22:28:23.881325 22222 layer_factory.hpp:77] Creating layer rpn_cls_score_reshape
I0822 22:28:23.881336 22222 net.cpp:106] Creating Layer rpn_cls_score_reshape
I0822 22:28:23.881340 22222 net.cpp:454] rpn_cls_score_reshape <- rpn_cls_score
I0822 22:28:23.881346 22222 net.cpp:411] rpn_cls_score_reshape -> rpn_cls_score_reshape
I0822 22:28:23.881400 22222 net.cpp:150] Setting up rpn_cls_score_reshape
I0822 22:28:23.881410 22222 net.cpp:157] Top shape: 1 2 126 14 (3528)
I0822 22:28:23.881413 22222 net.cpp:165] Memory required for data: 116866176
I0822 22:28:23.881417 22222 layer_factory.hpp:77] Creating layer rpn_cls_prob
I0822 22:28:23.881423 22222 net.cpp:106] Creating Layer rpn_cls_prob
I0822 22:28:23.881428 22222 net.cpp:454] rpn_cls_prob <- rpn_cls_score_reshape
I0822 22:28:23.881433 22222 net.cpp:411] rpn_cls_prob -> rpn_cls_prob
I0822 22:28:23.881778 22222 net.cpp:150] Setting up rpn_cls_prob
I0822 22:28:23.881790 22222 net.cpp:157] Top shape: 1 2 126 14 (3528)
I0822 22:28:23.881794 22222 net.cpp:165] Memory required for data: 116880288
I0822 22:28:23.881798 22222 layer_factory.hpp:77] Creating layer rpn_cls_prob_reshape
I0822 22:28:23.881805 22222 net.cpp:106] Creating Layer rpn_cls_prob_reshape
I0822 22:28:23.881813 22222 net.cpp:454] rpn_cls_prob_reshape <- rpn_cls_prob
I0822 22:28:23.881819 22222 net.cpp:411] rpn_cls_prob_reshape -> rpn_cls_prob_reshape
I0822 22:28:23.881867 22222 net.cpp:150] Setting up rpn_cls_prob_reshape
I0822 22:28:23.881877 22222 net.cpp:157] Top shape: 1 18 14 14 (3528)
I0822 22:28:23.881880 22222 net.cpp:165] Memory required for data: 116894400
I0822 22:28:23.881883 22222 layer_factory.hpp:77] Creating layer proposal
I0822 22:28:23.882436 22222 net.cpp:106] Creating Layer proposal
I0822 22:28:23.882449 22222 net.cpp:454] proposal <- rpn_cls_prob_reshape
I0822 22:28:23.882455 22222 net.cpp:454] proposal <- rpn_bbox_pred
I0822 22:28:23.882459 22222 net.cpp:454] proposal <- im_info
I0822 22:28:23.882467 22222 net.cpp:411] proposal -> rois
I0822 22:28:23.883404 22222 net.cpp:150] Setting up proposal
I0822 22:28:23.883421 22222 net.cpp:157] Top shape: 1 5 (5)
I0822 22:28:23.883424 22222 net.cpp:165] Memory required for data: 116894420
I0822 22:28:23.883429 22222 layer_factory.hpp:77] Creating layer roi_pool5
I0822 22:28:23.883436 22222 net.cpp:106] Creating Layer roi_pool5
I0822 22:28:23.883440 22222 net.cpp:454] roi_pool5 <- conv5_3_relu5_3_0_split_1
I0822 22:28:23.883445 22222 net.cpp:454] roi_pool5 <- rois
I0822 22:28:23.883451 22222 net.cpp:411] roi_pool5 -> pool5
I0822 22:28:23.883460 22222 roi_pooling_layer.cpp:30] Spatial scale: 0.0625
I0822 22:28:23.883545 22222 net.cpp:150] Setting up roi_pool5
I0822 22:28:23.883553 22222 net.cpp:157] Top shape: 1 512 7 7 (25088)
I0822 22:28:23.883556 22222 net.cpp:165] Memory required for data: 116994772
I0822 22:28:23.883559 22222 layer_factory.hpp:77] Creating layer fc6
I0822 22:28:23.883568 22222 net.cpp:106] Creating Layer fc6
I0822 22:28:23.883572 22222 net.cpp:454] fc6 <- pool5
I0822 22:28:23.883577 22222 net.cpp:411] fc6 -> fc6
I0822 22:28:24.611275 22222 net.cpp:150] Setting up fc6
I0822 22:28:24.611325 22222 net.cpp:157] Top shape: 1 4096 (4096)
I0822 22:28:24.611330 22222 net.cpp:165] Memory required for data: 117011156
I0822 22:28:24.611356 22222 layer_factory.hpp:77] Creating layer relu6
I0822 22:28:24.611367 22222 net.cpp:106] Creating Layer relu6
I0822 22:28:24.611378 22222 net.cpp:454] relu6 <- fc6
I0822 22:28:24.611387 22222 net.cpp:397] relu6 -> fc6 (in-place)
I0822 22:28:24.612205 22222 net.cpp:150] Setting up relu6
I0822 22:28:24.612221 22222 net.cpp:157] Top shape: 1 4096 (4096)
I0822 22:28:24.612223 22222 net.cpp:165] Memory required for data: 117027540
I0822 22:28:24.612227 22222 layer_factory.hpp:77] Creating layer drop6
I0822 22:28:24.612243 22222 net.cpp:106] Creating Layer drop6
I0822 22:28:24.612247 22222 net.cpp:454] drop6 <- fc6
I0822 22:28:24.612252 22222 net.cpp:397] drop6 -> fc6 (in-place)
I0822 22:28:24.612308 22222 net.cpp:150] Setting up drop6
I0822 22:28:24.612316 22222 net.cpp:157] Top shape: 1 4096 (4096)
I0822 22:28:24.612319 22222 net.cpp:165] Memory required for data: 117043924
I0822 22:28:24.612323 22222 layer_factory.hpp:77] Creating layer fc7
I0822 22:28:24.612330 22222 net.cpp:106] Creating Layer fc7
I0822 22:28:24.612334 22222 net.cpp:454] fc7 <- fc6
I0822 22:28:24.612340 22222 net.cpp:411] fc7 -> fc7
I0822 22:28:24.718170 22222 net.cpp:150] Setting up fc7
I0822 22:28:24.718220 22222 net.cpp:157] Top shape: 1 4096 (4096)
I0822 22:28:24.718225 22222 net.cpp:165] Memory required for data: 117060308
I0822 22:28:24.718235 22222 layer_factory.hpp:77] Creating layer relu7
I0822 22:28:24.718253 22222 net.cpp:106] Creating Layer relu7
I0822 22:28:24.718257 22222 net.cpp:454] relu7 <- fc7
I0822 22:28:24.718266 22222 net.cpp:397] relu7 -> fc7 (in-place)
I0822 22:28:24.718616 22222 net.cpp:150] Setting up relu7
I0822 22:28:24.718628 22222 net.cpp:157] Top shape: 1 4096 (4096)
I0822 22:28:24.718631 22222 net.cpp:165] Memory required for data: 117076692
I0822 22:28:24.718636 22222 layer_factory.hpp:77] Creating layer drop7
I0822 22:28:24.718647 22222 net.cpp:106] Creating Layer drop7
I0822 22:28:24.718649 22222 net.cpp:454] drop7 <- fc7
I0822 22:28:24.718654 22222 net.cpp:397] drop7 -> fc7 (in-place)
I0822 22:28:24.718705 22222 net.cpp:150] Setting up drop7
I0822 22:28:24.718714 22222 net.cpp:157] Top shape: 1 4096 (4096)
I0822 22:28:24.718716 22222 net.cpp:165] Memory required for data: 117093076
I0822 22:28:24.718720 22222 layer_factory.hpp:77] Creating layer fc7_drop7_0_split
I0822 22:28:24.718729 22222 net.cpp:106] Creating Layer fc7_drop7_0_split
I0822 22:28:24.718732 22222 net.cpp:454] fc7_drop7_0_split <- fc7
I0822 22:28:24.718739 22222 net.cpp:411] fc7_drop7_0_split -> fc7_drop7_0_split_0
I0822 22:28:24.718747 22222 net.cpp:411] fc7_drop7_0_split -> fc7_drop7_0_split_1
I0822 22:28:24.718832 22222 net.cpp:150] Setting up fc7_drop7_0_split
I0822 22:28:24.718840 22222 net.cpp:157] Top shape: 1 4096 (4096)
I0822 22:28:24.718844 22222 net.cpp:157] Top shape: 1 4096 (4096)
I0822 22:28:24.718847 22222 net.cpp:165] Memory required for data: 117125844
I0822 22:28:24.718850 22222 layer_factory.hpp:77] Creating layer cls_score
I0822 22:28:24.718861 22222 net.cpp:106] Creating Layer cls_score
I0822 22:28:24.718868 22222 net.cpp:454] cls_score <- fc7_drop7_0_split_0
I0822 22:28:24.718875 22222 net.cpp:411] cls_score -> cls_score
I0822 22:28:24.722275 22222 net.cpp:150] Setting up cls_score
I0822 22:28:24.722295 22222 net.cpp:157] Top shape: 1 21 (21)
I0822 22:28:24.722298 22222 net.cpp:165] Memory required for data: 117125928
I0822 22:28:24.722306 22222 layer_factory.hpp:77] Creating layer bbox_pred
I0822 22:28:24.722313 22222 net.cpp:106] Creating Layer bbox_pred
I0822 22:28:24.722316 22222 net.cpp:454] bbox_pred <- fc7_drop7_0_split_1
I0822 22:28:24.722323 22222 net.cpp:411] bbox_pred -> bbox_pred
I0822 22:28:24.729079 22222 net.cpp:150] Setting up bbox_pred
I0822 22:28:24.729094 22222 net.cpp:157] Top shape: 1 84 (84)
I0822 22:28:24.729097 22222 net.cpp:165] Memory required for data: 117126264
I0822 22:28:24.729104 22222 layer_factory.hpp:77] Creating layer cls_prob
I0822 22:28:24.729111 22222 net.cpp:106] Creating Layer cls_prob
I0822 22:28:24.729115 22222 net.cpp:454] cls_prob <- cls_score
I0822 22:28:24.729120 22222 net.cpp:411] cls_prob -> cls_prob
I0822 22:28:24.729873 22222 net.cpp:150] Setting up cls_prob
I0822 22:28:24.729888 22222 net.cpp:157] Top shape: 1 21 (21)
I0822 22:28:24.729892 22222 net.cpp:165] Memory required for data: 117126348
I0822 22:28:24.729895 22222 net.cpp:228] cls_prob does not need backward computation.
I0822 22:28:24.729899 22222 net.cpp:228] bbox_pred does not need backward computation.
I0822 22:28:24.729902 22222 net.cpp:228] cls_score does not need backward computation.
I0822 22:28:24.729905 22222 net.cpp:228] fc7_drop7_0_split does not need backward computation.
…
