…
snapshot: 0
snapshot_prefix: "vggx2"
average_loss: 100
iter_size: 2
I1231 17:06:05.843261 32660 solver.cpp:81] Creating training net from train_net file: models/pascal_voc/VGGx2/faster_rcnn_end2end/train.prototxt
I1231 17:06:05.844311 32660 net.cpp:49] Initializing net from parameters: 
name: "VGG_ILSVRC_16_layers"
state {
  phase: TRAIN
}
layer {
  name: "input-data"
  type: "Python"
  top: "data"
  top: "im_info"
  top: "gt_boxes"
  python_param {
    module: "roi_data_layer.layer"
    layer: "RoIDataLayer"
    param_str: "\'num_classes\': 21"
  }
}
layer {
  name: "conv1_1"
  type: "Convolution"
  bottom: "data"
  top: "conv1_1"
  param {
    lr_mult: 0
    decay_mult: 0
  }
  param {
    lr_mult: 0
    decay_mult: 0
  }
  convolution_param {
    num_output: 11
    pad: 1
    kernel_size: 3
  }
}
layer {
  name: "relu1_1"
  type: "ReLU"
  bottom: "conv1_1"
  top: "conv1_1"
}
layer {
  name: "conv1_2"
  type: "Convolution"
  bottom: "conv1_1"
  top: "conv1_2"
  param {
    lr_mult: 0
    decay_mult: 0
  }
  param {
    lr_mult: 0
    decay_mult: 0
  }
  convolution_param {
    num_output: 64
    pad: 1
    kernel_size: 3
  }
}
layer {
  name: "relu1_2"
  type: "ReLU"
  bottom: "conv1_2"
  top: "conv1_2"
}
layer {
  name: "pool1"
  type: "Pooling"
  bottom: "conv1_2"
  top: "pool1"
  pooling_param {
    pool: MAX
    kernel_size: 2
    stride: 2
  }
}
layer {
  name: "conv2_1"
  type: "Convolution"
  bottom: "pool1"
  top: "conv2_1"
  param {
    lr_mult: 0
    decay_mult: 0
  }
  param {
    lr_mult: 0
    decay_mult: 0
  }
  convolution_param {
    num_output: 55
    pad: 1
    kernel_size: 3
  }
}
layer {
  name: "relu2_1"
  type: "ReLU"
  bottom: "conv2_1"
  top: "conv2_1"
}
layer {
  name: "conv2_2"
  type: "Convolution"
  bottom: "conv2_1"
  top: "conv2_2"
  param {
    lr_mult: 0
    decay_mult: 0
  }
  param {
    lr_mult: 0
    decay_mult: 0
  }
  convolution_param {
    num_output: 128
    pad: 1
    kernel_size: 3
  }
}
layer {
  name: "relu2_2"
  type: "ReLU"
  bottom: "conv2_2"
  top: "conv2_2"
}
layer {
  name: "pool2"
  type: "Pooling"
  bottom: "conv2_2"
  top: "pool2"
  pooling_param {
    pool: MAX
    kernel_size: 2
    stride: 2
  }
}
layer {
  name: "conv3_1"
  type: "Convolution"
  bottom: "pool2"
  top: "conv3_1"
  param {
    lr_mult: 1
  }
  param {
    lr_mult: 2
  }
  convolution_param {
    num_output: 148
    pad: 1
    kernel_size: 3
  }
}
layer {
  name: "relu3_1"
  type: "ReLU"
  bottom: "conv3_1"
  top: "conv3_1"
}
layer {
  name: "conv3_2"
  type: "Convolution"
  bottom: "conv3_1"
  top: "conv3_2"
  param {
    lr_mult: 1
  }
  param {
    lr_mult: 2
  }
  convolution_param {
    num_output: 104
    pad: 1
    kernel_size: 3
  }
}
layer {
  name: "relu3_2"
  type: "ReLU"
  bottom: "conv3_2"
  top: "conv3_2"
}
layer {
  name: "conv3_3"
  type: "Convolution"
  bottom: "conv3_2"
  top: "conv3_3"
  param {
    lr_mult: 1
  }
  param {
    lr_mult: 2
  }
  convolution_param {
    num_output: 256
    pad: 1
    kernel_size: 3
  }
}
layer {
  name: "relu3_3"
  type: "ReLU"
  bottom: "conv3_3"
  top: "conv3_3"
}
layer {
  name: "pool3"
  type: "Pooling"
  bottom: "conv3_3"
  top: "pool3"
  pooling_param {
    pool: MAX
    kernel_size: 2
    stride: 2
  }
}
layer {
  name: "conv4_1"
  type: "Convolution"
  bottom: "pool3"
  top: "conv4_1"
  param {
    lr_mult: 1
  }
  param {
    lr_mult: 2
  }
  convolution_param {
    num_output: 221
    pad: 1
    kernel_size: 3
  }
}
layer {
  name: "relu4_1"
  type: "ReLU"
  bottom: "conv4_1"
  top: "conv4_1"
}
layer {
  name: "conv4_2"
  type: "Convolution"
  bottom: "conv4_1"
  top: "conv4_2"
  param {
    lr_mult: 1
  }
  param {
    lr_mult: 2
  }
  convolution_param {
    num_output: 421
    pad: 1
    kernel_size: 3
  }
}
layer {
  name: "relu4_2"
  type: "ReLU"
  bottom: "conv4_2"
  top: "conv4_2"
}
layer {
  name: "conv4_3"
  type: "Convolution"
  bottom: "conv4_2"
  top: "conv4_3"
  param {
    lr_mult: 1
  }
  param {
    lr_mult: 2
  }
  convolution_param {
    num_output: 512
    pad: 1
    kernel_size: 3
  }
}
layer {
  name: "relu4_3"
  type: "ReLU"
  bottom: "conv4_3"
  top: "conv4_3"
}
layer {
  name: "pool4"
  type: "Pooling"
  bottom: "conv4_3"
  top: "pool4"
  pooling_param {
    pool: MAX
    kernel_size: 2
    stride: 2
  }
}
layer {
  name: "conv5_1"
  type: "Convolution"
  bottom: "pool4"
  top: "conv5_1"
  param {
    lr_mult: 1
  }
  param {
    lr_mult: 2
  }
  convolution_param {
    num_output: 512
    pad: 1
    kernel_size: 3
  }
}
layer {
  name: "relu5_1"
  type: "ReLU"
  bottom: "conv5_1"
  top: "conv5_1"
}
layer {
  name: "conv5_2"
  type: "Convolution"
  bottom: "conv5_1"
  top: "conv5_2"
  param {
    lr_mult: 1
  }
  param {
    lr_mult: 2
  }
  convolution_param {
    num_output: 512
    pad: 1
    kernel_size: 3
  }
}
layer {
  name: "relu5_2"
  type: "ReLU"
  bottom: "conv5_2"
  top: "conv5_2"
}
layer {
  name: "conv5_3"
  type: "Convolution"
  bottom: "conv5_2"
  top: "conv5_3"
  param {
    lr_mult: 1
  }
  param {
    lr_mult: 2
  }
  convolution_param {
    num_output: 512
    pad: 1
    kernel_size: 3
  }
}
layer {
  name: "relu5_3"
  type: "ReLU"
  bottom: "conv5_3"
  top: "conv5_3"
}
layer {
  name: "rpn_conv/3x3"
  type: "Convolution"
  bottom: "conv5_3"
  top: "rpn/output"
  param {
    lr_mult: 1
  }
  param {
    lr_mult: 2
  }
  convolution_param {
    num_output: 512
    pad: 1
    kernel_size: 3
    stride: 1
    weight_filler {
      type: "gaussian"
      std: 0.01
    }
    bias_filler {
      type: "constant"
      value: 0
    }
  }
}
layer {
  name: "rpn_relu/3x3"
  type: "ReLU"
  bottom: "rpn/output"
  top: "rpn/output"
}
layer {
  name: "rpn_cls_score"
  type: "Convolution"
  bottom: "rpn/output"
  top: "rpn_cls_score"
  param {
    lr_mult: 1
  }
  param {
    lr_mult: 2
  }
  convolution_param {
    num_output: 18
    pad: 0
    kernel_size: 1
    stride: 1
    weight_filler {
      type: "gaussian"
      std: 0.01
    }
    bias_filler {
      type: "constant"
      value: 0
    }
  }
}
layer {
  name: "rpn_bbox_pred"
  type: "Convolution"
  bottom: "rpn/output"
  top: "rpn_bbox_pred"
  param {
    lr_mult: 1
  }
  param {
    lr_mult: 2
  }
  convolution_param {
    num_output: 36
    pad: 0
    kernel_size: 1
    stride: 1
    weight_filler {
      type: "gaussian"
      std: 0.01
    }
    bias_filler {
      type: "constant"
      value: 0
    }
  }
}
layer {
  name: "rpn_cls_score_reshape"
  type: "Reshape"
  bottom: "rpn_cls_score"
  top: "rpn_cls_score_reshape"
  reshape_param {
    shape {
      dim: 0
      dim: 2
      dim: -1
      dim: 0
    }
  }
}
layer {
  name: "rpn-data"
  type: "Python"
  bottom: "rpn_cls_score"
  bottom: "gt_boxes"
  bottom: "im_info"
  bottom: "data"
  top: "rpn_labels"
  top: "rpn_bbox_targets"
  top: "rpn_bbox_inside_weights"
  top: "rpn_bbox_outside_weights"
  python_param {
    module: "rpn.anchor_target_layer"
    layer: "AnchorTargetLayer"
    param_str: "\'feat_stride\': 16"
  }
}
layer {
  name: "rpn_loss_cls"
  type: "SoftmaxWithLoss"
  bottom: "rpn_cls_score_reshape"
  bottom: "rpn_labels"
  top: "rpn_cls_loss"
  loss_weight: 1
  propagate_down: true
  propagate_down: false
  loss_param {
    ignore_label: -1
    normalize: true
  }
}
layer {
  name: "rpn_loss_bbox"
  type: "SmoothL1Loss"
  bottom: "rpn_bbox_pred"
  bottom: "rpn_bbox_targets"
  bottom: "rpn_bbox_inside_weights"
  bottom: "rpn_bbox_outside_weights"
  top: "rpn_loss_bbox"
  loss_weight: 1
  smooth_l1_loss_param {
    sigma: 3
  }
}
layer {
  name: "rpn_cls_prob"
  type: "Softmax"
  bottom: "rpn_cls_score_reshape"
  top: "rpn_cls_prob"
}
layer {
  name: "rpn_cls_prob_reshape"
  type: "Reshape"
  bottom: "rpn_cls_prob"
  top: "rpn_cls_prob_reshape"
  reshape_param {
    shape {
      dim: 0
      dim: 18
      dim: -1
      dim: 0
    }
  }
}
layer {
  name: "proposal"
  type: "Python"
  bottom: "rpn_cls_prob_reshape"
  bottom: "rpn_bbox_pred"
  bottom: "im_info"
  top: "rpn_rois"
  python_param {
    module: "rpn.proposal_layer"
    layer: "ProposalLayer"
    param_str: "\'feat_stride\': 16"
  }
}
layer {
  name: "roi-data"
  type: "Python"
  bottom: "rpn_rois"
  bottom: "gt_boxes"
  top: "rois"
  top: "labels"
  top: "bbox_targets"
  top: "bbox_inside_weights"
  top: "bbox_outside_weights"
  python_param {
    module: "rpn.proposal_target_layer"
    layer: "ProposalTargetLayer"
    param_str: "\'num_classes\': 21"
  }
}
layer {
  name: "roi_pool5"
  type: "ROIPooling"
  bottom: "conv5_3"
  bottom: "rois"
  top: "pool5"
  roi_pooling_param {
    pooled_h: 7
    pooled_w: 7
    spatial_scale: 0.0625
  }
}
layer {
  name: "fc6"
  type: "InnerProduct"
  bottom: "pool5"
  top: "fc6"
  param {
    lr_mult: 1
  }
  param {
    lr_mult: 2
  }
  inner_product_param {
    num_output: 4096
  }
}
layer {
  name: "relu6"
  type: "ReLU"
  bottom: "fc6"
  top: "fc6"
}
layer {
  name: "drop6"
  type: "Dropout"
  bottom: "fc6"
  top: "fc6"
  dropout_param {
    dropout_ratio: 0.5
  }
}
layer {
  name: "fc7"
  type: "InnerProduct"
  bottom: "fc6"
  top: "fc7"
  param {
    lr_mult: 1
  }
  param {
    lr_mult: 2
  }
  inner_product_param {
    num_output: 4096
  }
}
layer {
  name: "relu7"
  type: "ReLU"
  bottom: "fc7"
  top: "fc7"
}
layer {
  name: "drop7"
  type: "Dropout"
  bottom: "fc7"
  top: "fc7"
  dropout_param {
    dropout_ratio: 0.5
  }
}
layer {
  name: "cls_score"
  type: "InnerProduct"
  bottom: "fc7"
  top: "cls_score"
  param {
    lr_mult: 1
  }
  param {
    lr_mult: 2
  }
  inner_product_param {
    num_output: 21
    weight_filler {
      type: "gaussian"
      std: 0.01
    }
    bias_filler {
      type: "constant"
      value: 0
    }
  }
}
layer {
  name: "bbox_pred"
  type: "InnerProduct"
  bottom: "fc7"
  top: "bbox_pred"
  param {
    lr_mult: 1
  }
  param {
    lr_mult: 2
  }
  inner_product_param {
    num_output: 84
    weight_filler {
      type: "gaussian"
      std: 0.001
    }
    bias_filler {
      type: "constant"
      value: 0
    }
  }
}
layer {
  name: "loss_cls"
  type: "SoftmaxWithLoss"
  bottom: "cls_score"
  bottom: "labels"
  top: "loss_cls"
  loss_weight: 1
  propagate_down: true
  propagate_down: false
}
layer {
  name: "loss_bbox"
  type: "SmoothL1Loss"
  bottom: "bbox_pred"
  bottom: "bbox_targets"
  bottom: "bbox_inside_weights"
  bottom: "bbox_outside_weights"
  top: "loss_bbox"
  loss_weight: 1
}
I1231 17:06:05.844601 32660 layer_factory.hpp:77] Creating layer input-data
I1231 17:06:05.853946 32660 net.cpp:106] Creating Layer input-data
I1231 17:06:05.853966 32660 net.cpp:411] input-data -> data
I1231 17:06:05.853983 32660 net.cpp:411] input-data -> im_info
I1231 17:06:05.853989 32660 net.cpp:411] input-data -> gt_boxes
RoiDataLayer: name_to_top: {'gt_boxes': 2, 'data': 0, 'im_info': 1}
I1231 17:06:05.866255 32660 net.cpp:150] Setting up input-data
I1231 17:06:05.866282 32660 net.cpp:157] Top shape: 1 3 600 1000 (1800000)
I1231 17:06:05.866289 32660 net.cpp:157] Top shape: 1 3 (3)
I1231 17:06:05.866292 32660 net.cpp:157] Top shape: 1 4 (4)
I1231 17:06:05.866294 32660 net.cpp:165] Memory required for data: 7200028
I1231 17:06:05.866299 32660 layer_factory.hpp:77] Creating layer data_input-data_0_split
I1231 17:06:05.866310 32660 net.cpp:106] Creating Layer data_input-data_0_split
I1231 17:06:05.866317 32660 net.cpp:454] data_input-data_0_split <- data
I1231 17:06:05.866322 32660 net.cpp:411] data_input-data_0_split -> data_input-data_0_split_0
I1231 17:06:05.866330 32660 net.cpp:411] data_input-data_0_split -> data_input-data_0_split_1
I1231 17:06:05.866384 32660 net.cpp:150] Setting up data_input-data_0_split
I1231 17:06:05.866391 32660 net.cpp:157] Top shape: 1 3 600 1000 (1800000)
I1231 17:06:05.866395 32660 net.cpp:157] Top shape: 1 3 600 1000 (1800000)
I1231 17:06:05.866399 32660 net.cpp:165] Memory required for data: 21600028
I1231 17:06:05.866401 32660 layer_factory.hpp:77] Creating layer im_info_input-data_1_split
I1231 17:06:05.866408 32660 net.cpp:106] Creating Layer im_info_input-data_1_split
I1231 17:06:05.866411 32660 net.cpp:454] im_info_input-data_1_split <- im_info
I1231 17:06:05.866416 32660 net.cpp:411] im_info_input-data_1_split -> im_info_input-data_1_split_0
I1231 17:06:05.866421 32660 net.cpp:411] im_info_input-data_1_split -> im_info_input-data_1_split_1
I1231 17:06:05.866466 32660 net.cpp:150] Setting up im_info_input-data_1_split
I1231 17:06:05.866474 32660 net.cpp:157] Top shape: 1 3 (3)
I1231 17:06:05.866477 32660 net.cpp:157] Top shape: 1 3 (3)
I1231 17:06:05.866479 32660 net.cpp:165] Memory required for data: 21600052
I1231 17:06:05.866482 32660 layer_factory.hpp:77] Creating layer gt_boxes_input-data_2_split
I1231 17:06:05.866487 32660 net.cpp:106] Creating Layer gt_boxes_input-data_2_split
I1231 17:06:05.866490 32660 net.cpp:454] gt_boxes_input-data_2_split <- gt_boxes
I1231 17:06:05.866494 32660 net.cpp:411] gt_boxes_input-data_2_split -> gt_boxes_input-data_2_split_0
I1231 17:06:05.866503 32660 net.cpp:411] gt_boxes_input-data_2_split -> gt_boxes_input-data_2_split_1
I1231 17:06:05.866550 32660 net.cpp:150] Setting up gt_boxes_input-data_2_split
I1231 17:06:05.866557 32660 net.cpp:157] Top shape: 1 4 (4)
I1231 17:06:05.866561 32660 net.cpp:157] Top shape: 1 4 (4)
I1231 17:06:05.866564 32660 net.cpp:165] Memory required for data: 21600084
I1231 17:06:05.866567 32660 layer_factory.hpp:77] Creating layer conv1_1
I1231 17:06:05.866581 32660 net.cpp:106] Creating Layer conv1_1
I1231 17:06:05.866586 32660 net.cpp:454] conv1_1 <- data_input-data_0_split_0
I1231 17:06:05.866593 32660 net.cpp:411] conv1_1 -> conv1_1
I1231 17:06:06.169523 32660 net.cpp:150] Setting up conv1_1
I1231 17:06:06.169576 32660 net.cpp:157] Top shape: 1 11 600 1000 (6600000)
I1231 17:06:06.169584 32660 net.cpp:165] Memory required for data: 48000084
I1231 17:06:06.169646 32660 layer_factory.hpp:77] Creating layer relu1_1
I1231 17:06:06.169679 32660 net.cpp:106] Creating Layer relu1_1
I1231 17:06:06.169690 32660 net.cpp:454] relu1_1 <- conv1_1
I1231 17:06:06.169701 32660 net.cpp:397] relu1_1 -> conv1_1 (in-place)
I1231 17:06:06.171175 32660 net.cpp:150] Setting up relu1_1
I1231 17:06:06.171198 32660 net.cpp:157] Top shape: 1 11 600 1000 (6600000)
I1231 17:06:06.171203 32660 net.cpp:165] Memory required for data: 74400084
I1231 17:06:06.171210 32660 layer_factory.hpp:77] Creating layer conv1_2
I1231 17:06:06.171227 32660 net.cpp:106] Creating Layer conv1_2
I1231 17:06:06.171233 32660 net.cpp:454] conv1_2 <- conv1_1
I1231 17:06:06.171242 32660 net.cpp:411] conv1_2 -> conv1_2
I1231 17:06:06.180944 32660 net.cpp:150] Setting up conv1_2
I1231 17:06:06.180980 32660 net.cpp:157] Top shape: 1 64 600 1000 (38400000)
I1231 17:06:06.180986 32660 net.cpp:165] Memory required for data: 228000084
I1231 17:06:06.181004 32660 layer_factory.hpp:77] Creating layer relu1_2
I1231 17:06:06.181015 32660 net.cpp:106] Creating Layer relu1_2
I1231 17:06:06.181030 32660 net.cpp:454] relu1_2 <- conv1_2
I1231 17:06:06.181042 32660 net.cpp:397] relu1_2 -> conv1_2 (in-place)
I1231 17:06:06.181371 32660 net.cpp:150] Setting up relu1_2
I1231 17:06:06.181387 32660 net.cpp:157] Top shape: 1 64 600 1000 (38400000)
I1231 17:06:06.181392 32660 net.cpp:165] Memory required for data: 381600084
I1231 17:06:06.181401 32660 layer_factory.hpp:77] Creating layer pool1
I1231 17:06:06.181417 32660 net.cpp:106] Creating Layer pool1
I1231 17:06:06.181422 32660 net.cpp:454] pool1 <- conv1_2
I1231 17:06:06.181438 32660 net.cpp:411] pool1 -> pool1
I1231 17:06:06.181582 32660 net.cpp:150] Setting up pool1
I1231 17:06:06.181596 32660 net.cpp:157] Top shape: 1 64 300 500 (9600000)
I1231 17:06:06.181601 32660 net.cpp:165] Memory required for data: 420000084
I1231 17:06:06.181605 32660 layer_factory.hpp:77] Creating layer conv2_1
I1231 17:06:06.181638 32660 net.cpp:106] Creating Layer conv2_1
I1231 17:06:06.181648 32660 net.cpp:454] conv2_1 <- pool1
I1231 17:06:06.181656 32660 net.cpp:411] conv2_1 -> conv2_1
I1231 17:06:06.189973 32660 net.cpp:150] Setting up conv2_1
I1231 17:06:06.190006 32660 net.cpp:157] Top shape: 1 55 300 500 (8250000)
I1231 17:06:06.190013 32660 net.cpp:165] Memory required for data: 453000084
I1231 17:06:06.190035 32660 layer_factory.hpp:77] Creating layer relu2_1
I1231 17:06:06.190057 32660 net.cpp:106] Creating Layer relu2_1
I1231 17:06:06.190064 32660 net.cpp:454] relu2_1 <- conv2_1
I1231 17:06:06.190088 32660 net.cpp:397] relu2_1 -> conv2_1 (in-place)
I1231 17:06:06.190496 32660 net.cpp:150] Setting up relu2_1
I1231 17:06:06.190516 32660 net.cpp:157] Top shape: 1 55 300 500 (8250000)
I1231 17:06:06.190521 32660 net.cpp:165] Memory required for data: 486000084
I1231 17:06:06.190528 32660 layer_factory.hpp:77] Creating layer conv2_2
I1231 17:06:06.190546 32660 net.cpp:106] Creating Layer conv2_2
I1231 17:06:06.190552 32660 net.cpp:454] conv2_2 <- conv2_1
I1231 17:06:06.190567 32660 net.cpp:411] conv2_2 -> conv2_2
I1231 17:06:06.198180 32660 net.cpp:150] Setting up conv2_2
I1231 17:06:06.198209 32660 net.cpp:157] Top shape: 1 128 300 500 (19200000)
I1231 17:06:06.198215 32660 net.cpp:165] Memory required for data: 562800084
I1231 17:06:06.198227 32660 layer_factory.hpp:77] Creating layer relu2_2
I1231 17:06:06.198241 32660 net.cpp:106] Creating Layer relu2_2
I1231 17:06:06.198247 32660 net.cpp:454] relu2_2 <- conv2_2
I1231 17:06:06.198257 32660 net.cpp:397] relu2_2 -> conv2_2 (in-place)
I1231 17:06:06.199914 32660 net.cpp:150] Setting up relu2_2
I1231 17:06:06.199940 32660 net.cpp:157] Top shape: 1 128 300 500 (19200000)
I1231 17:06:06.199945 32660 net.cpp:165] Memory required for data: 639600084
I1231 17:06:06.199951 32660 layer_factory.hpp:77] Creating layer pool2
I1231 17:06:06.199966 32660 net.cpp:106] Creating Layer pool2
I1231 17:06:06.199973 32660 net.cpp:454] pool2 <- conv2_2
I1231 17:06:06.199983 32660 net.cpp:411] pool2 -> pool2
I1231 17:06:06.200110 32660 net.cpp:150] Setting up pool2
I1231 17:06:06.200125 32660 net.cpp:157] Top shape: 1 128 150 250 (4800000)
I1231 17:06:06.200130 32660 net.cpp:165] Memory required for data: 658800084
I1231 17:06:06.200135 32660 layer_factory.hpp:77] Creating layer conv3_1
I1231 17:06:06.200151 32660 net.cpp:106] Creating Layer conv3_1
I1231 17:06:06.200160 32660 net.cpp:454] conv3_1 <- pool2
I1231 17:06:06.200172 32660 net.cpp:411] conv3_1 -> conv3_1
I1231 17:06:06.207923 32660 net.cpp:150] Setting up conv3_1
I1231 17:06:06.207967 32660 net.cpp:157] Top shape: 1 148 150 250 (5550000)
I1231 17:06:06.207978 32660 net.cpp:165] Memory required for data: 681000084
I1231 17:06:06.208004 32660 layer_factory.hpp:77] Creating layer relu3_1
I1231 17:06:06.208022 32660 net.cpp:106] Creating Layer relu3_1
I1231 17:06:06.208034 32660 net.cpp:454] relu3_1 <- conv3_1
I1231 17:06:06.208046 32660 net.cpp:397] relu3_1 -> conv3_1 (in-place)
I1231 17:06:06.208465 32660 net.cpp:150] Setting up relu3_1
I1231 17:06:06.208484 32660 net.cpp:157] Top shape: 1 148 150 250 (5550000)
I1231 17:06:06.208490 32660 net.cpp:165] Memory required for data: 703200084
I1231 17:06:06.208497 32660 layer_factory.hpp:77] Creating layer conv3_2
I1231 17:06:06.208533 32660 net.cpp:106] Creating Layer conv3_2
I1231 17:06:06.208540 32660 net.cpp:454] conv3_2 <- conv3_1
I1231 17:06:06.208554 32660 net.cpp:411] conv3_2 -> conv3_2
I1231 17:06:06.216131 32660 net.cpp:150] Setting up conv3_2
I1231 17:06:06.216163 32660 net.cpp:157] Top shape: 1 104 150 250 (3900000)
I1231 17:06:06.216171 32660 net.cpp:165] Memory required for data: 718800084
I1231 17:06:06.216183 32660 layer_factory.hpp:77] Creating layer relu3_2
I1231 17:06:06.216197 32660 net.cpp:106] Creating Layer relu3_2
I1231 17:06:06.216202 32660 net.cpp:454] relu3_2 <- conv3_2
I1231 17:06:06.216212 32660 net.cpp:397] relu3_2 -> conv3_2 (in-place)
I1231 17:06:06.216629 32660 net.cpp:150] Setting up relu3_2
I1231 17:06:06.216650 32660 net.cpp:157] Top shape: 1 104 150 250 (3900000)
I1231 17:06:06.216656 32660 net.cpp:165] Memory required for data: 734400084
I1231 17:06:06.216662 32660 layer_factory.hpp:77] Creating layer conv3_3
I1231 17:06:06.216677 32660 net.cpp:106] Creating Layer conv3_3
I1231 17:06:06.216683 32660 net.cpp:454] conv3_3 <- conv3_2
I1231 17:06:06.216696 32660 net.cpp:411] conv3_3 -> conv3_3
I1231 17:06:06.224311 32660 net.cpp:150] Setting up conv3_3
I1231 17:06:06.224344 32660 net.cpp:157] Top shape: 1 256 150 250 (9600000)
I1231 17:06:06.224350 32660 net.cpp:165] Memory required for data: 772800084
I1231 17:06:06.224362 32660 layer_factory.hpp:77] Creating layer relu3_3
I1231 17:06:06.224375 32660 net.cpp:106] Creating Layer relu3_3
I1231 17:06:06.224380 32660 net.cpp:454] relu3_3 <- conv3_3
I1231 17:06:06.224390 32660 net.cpp:397] relu3_3 -> conv3_3 (in-place)
I1231 17:06:06.225961 32660 net.cpp:150] Setting up relu3_3
I1231 17:06:06.225985 32660 net.cpp:157] Top shape: 1 256 150 250 (9600000)
I1231 17:06:06.225991 32660 net.cpp:165] Memory required for data: 811200084
I1231 17:06:06.225996 32660 layer_factory.hpp:77] Creating layer pool3
I1231 17:06:06.226009 32660 net.cpp:106] Creating Layer pool3
I1231 17:06:06.226016 32660 net.cpp:454] pool3 <- conv3_3
I1231 17:06:06.226025 32660 net.cpp:411] pool3 -> pool3
I1231 17:06:06.226183 32660 net.cpp:150] Setting up pool3
I1231 17:06:06.226197 32660 net.cpp:157] Top shape: 1 256 75 125 (2400000)
I1231 17:06:06.226202 32660 net.cpp:165] Memory required for data: 820800084
I1231 17:06:06.226207 32660 layer_factory.hpp:77] Creating layer conv4_1
I1231 17:06:06.226222 32660 net.cpp:106] Creating Layer conv4_1
I1231 17:06:06.226230 32660 net.cpp:454] conv4_1 <- pool3
I1231 17:06:06.226243 32660 net.cpp:411] conv4_1 -> conv4_1
I1231 17:06:06.233945 32660 net.cpp:150] Setting up conv4_1
I1231 17:06:06.233968 32660 net.cpp:157] Top shape: 1 221 75 125 (2071875)
I1231 17:06:06.233973 32660 net.cpp:165] Memory required for data: 829087584
I1231 17:06:06.233981 32660 layer_factory.hpp:77] Creating layer relu4_1
I1231 17:06:06.233989 32660 net.cpp:106] Creating Layer relu4_1
I1231 17:06:06.233994 32660 net.cpp:454] relu4_1 <- conv4_1
I1231 17:06:06.234004 32660 net.cpp:397] relu4_1 -> conv4_1 (in-place)
I1231 17:06:06.235159 32660 net.cpp:150] Setting up relu4_1
I1231 17:06:06.235178 32660 net.cpp:157] Top shape: 1 221 75 125 (2071875)
I1231 17:06:06.235183 32660 net.cpp:165] Memory required for data: 837375084
I1231 17:06:06.235186 32660 layer_factory.hpp:77] Creating layer conv4_2
I1231 17:06:06.235201 32660 net.cpp:106] Creating Layer conv4_2
I1231 17:06:06.235206 32660 net.cpp:454] conv4_2 <- conv4_1
I1231 17:06:06.235218 32660 net.cpp:411] conv4_2 -> conv4_2
I1231 17:06:06.242032 32660 net.cpp:150] Setting up conv4_2
I1231 17:06:06.242053 32660 net.cpp:157] Top shape: 1 421 75 125 (3946875)
I1231 17:06:06.242058 32660 net.cpp:165] Memory required for data: 853162584
I1231 17:06:06.242072 32660 layer_factory.hpp:77] Creating layer relu4_2
I1231 17:06:06.242084 32660 net.cpp:106] Creating Layer relu4_2
I1231 17:06:06.242089 32660 net.cpp:454] relu4_2 <- conv4_2
I1231 17:06:06.242096 32660 net.cpp:397] relu4_2 -> conv4_2 (in-place)
I1231 17:06:06.242383 32660 net.cpp:150] Setting up relu4_2
I1231 17:06:06.242395 32660 net.cpp:157] Top shape: 1 421 75 125 (3946875)
I1231 17:06:06.242399 32660 net.cpp:165] Memory required for data: 868950084
I1231 17:06:06.242403 32660 layer_factory.hpp:77] Creating layer conv4_3
I1231 17:06:06.242418 32660 net.cpp:106] Creating Layer conv4_3
I1231 17:06:06.242422 32660 net.cpp:454] conv4_3 <- conv4_2
I1231 17:06:06.242429 32660 net.cpp:411] conv4_3 -> conv4_3
I1231 17:06:06.252451 32660 net.cpp:150] Setting up conv4_3
I1231 17:06:06.252483 32660 net.cpp:157] Top shape: 1 512 75 125 (4800000)
I1231 17:06:06.252487 32660 net.cpp:165] Memory required for data: 888150084
I1231 17:06:06.252496 32660 layer_factory.hpp:77] Creating layer relu4_3
I1231 17:06:06.252517 32660 net.cpp:106] Creating Layer relu4_3
I1231 17:06:06.252522 32660 net.cpp:454] relu4_3 <- conv4_3
I1231 17:06:06.252529 32660 net.cpp:397] relu4_3 -> conv4_3 (in-place)
I1231 17:06:06.253660 32660 net.cpp:150] Setting up relu4_3
I1231 17:06:06.253680 32660 net.cpp:157] Top shape: 1 512 75 125 (4800000)
I1231 17:06:06.253684 32660 net.cpp:165] Memory required for data: 907350084
I1231 17:06:06.253695 32660 layer_factory.hpp:77] Creating layer pool4
I1231 17:06:06.253705 32660 net.cpp:106] Creating Layer pool4
I1231 17:06:06.253708 32660 net.cpp:454] pool4 <- conv4_3
I1231 17:06:06.253715 32660 net.cpp:411] pool4 -> pool4
I1231 17:06:06.253811 32660 net.cpp:150] Setting up pool4
I1231 17:06:06.253834 32660 net.cpp:157] Top shape: 1 512 38 63 (1225728)
I1231 17:06:06.253839 32660 net.cpp:165] Memory required for data: 912252996
I1231 17:06:06.253844 32660 layer_factory.hpp:77] Creating layer conv5_1
I1231 17:06:06.253852 32660 net.cpp:106] Creating Layer conv5_1
I1231 17:06:06.253856 32660 net.cpp:454] conv5_1 <- pool4
I1231 17:06:06.253865 32660 net.cpp:411] conv5_1 -> conv5_1
I1231 17:06:06.266139 32660 net.cpp:150] Setting up conv5_1
I1231 17:06:06.266168 32660 net.cpp:157] Top shape: 1 512 38 63 (1225728)
I1231 17:06:06.266173 32660 net.cpp:165] Memory required for data: 917155908
I1231 17:06:06.266182 32660 layer_factory.hpp:77] Creating layer relu5_1
I1231 17:06:06.266192 32660 net.cpp:106] Creating Layer relu5_1
I1231 17:06:06.266206 32660 net.cpp:454] relu5_1 <- conv5_1
I1231 17:06:06.266213 32660 net.cpp:397] relu5_1 -> conv5_1 (in-place)
I1231 17:06:06.266484 32660 net.cpp:150] Setting up relu5_1
I1231 17:06:06.266496 32660 net.cpp:157] Top shape: 1 512 38 63 (1225728)
I1231 17:06:06.266499 32660 net.cpp:165] Memory required for data: 922058820
I1231 17:06:06.266504 32660 layer_factory.hpp:77] Creating layer conv5_2
I1231 17:06:06.266516 32660 net.cpp:106] Creating Layer conv5_2
I1231 17:06:06.266520 32660 net.cpp:454] conv5_2 <- conv5_1
I1231 17:06:06.266530 32660 net.cpp:411] conv5_2 -> conv5_2
I1231 17:06:06.277423 32660 net.cpp:150] Setting up conv5_2
I1231 17:06:06.277458 32660 net.cpp:157] Top shape: 1 512 38 63 (1225728)
I1231 17:06:06.277462 32660 net.cpp:165] Memory required for data: 926961732
I1231 17:06:06.277473 32660 layer_factory.hpp:77] Creating layer relu5_2
I1231 17:06:06.277484 32660 net.cpp:106] Creating Layer relu5_2
I1231 17:06:06.277493 32660 net.cpp:454] relu5_2 <- conv5_2
I1231 17:06:06.277503 32660 net.cpp:397] relu5_2 -> conv5_2 (in-place)
I1231 17:06:06.277740 32660 net.cpp:150] Setting up relu5_2
I1231 17:06:06.277762 32660 net.cpp:157] Top shape: 1 512 38 63 (1225728)
I1231 17:06:06.277766 32660 net.cpp:165] Memory required for data: 931864644
I1231 17:06:06.277770 32660 layer_factory.hpp:77] Creating layer conv5_3
I1231 17:06:06.277794 32660 net.cpp:106] Creating Layer conv5_3
I1231 17:06:06.277801 32660 net.cpp:454] conv5_3 <- conv5_2
I1231 17:06:06.277807 32660 net.cpp:411] conv5_3 -> conv5_3
I1231 17:06:06.287806 32660 net.cpp:150] Setting up conv5_3
I1231 17:06:06.287827 32660 net.cpp:157] Top shape: 1 512 38 63 (1225728)
I1231 17:06:06.287829 32660 net.cpp:165] Memory required for data: 936767556
I1231 17:06:06.287837 32660 layer_factory.hpp:77] Creating layer relu5_3
I1231 17:06:06.287847 32660 net.cpp:106] Creating Layer relu5_3
I1231 17:06:06.287852 32660 net.cpp:454] relu5_3 <- conv5_3
I1231 17:06:06.287858 32660 net.cpp:397] relu5_3 -> conv5_3 (in-place)
I1231 17:06:06.288832 32660 net.cpp:150] Setting up relu5_3
I1231 17:06:06.288847 32660 net.cpp:157] Top shape: 1 512 38 63 (1225728)
I1231 17:06:06.288851 32660 net.cpp:165] Memory required for data: 941670468
I1231 17:06:06.288854 32660 layer_factory.hpp:77] Creating layer conv5_3_relu5_3_0_split
I1231 17:06:06.288862 32660 net.cpp:106] Creating Layer conv5_3_relu5_3_0_split
I1231 17:06:06.288866 32660 net.cpp:454] conv5_3_relu5_3_0_split <- conv5_3
I1231 17:06:06.288874 32660 net.cpp:411] conv5_3_relu5_3_0_split -> conv5_3_relu5_3_0_split_0
I1231 17:06:06.288882 32660 net.cpp:411] conv5_3_relu5_3_0_split -> conv5_3_relu5_3_0_split_1
I1231 17:06:06.288967 32660 net.cpp:150] Setting up conv5_3_relu5_3_0_split
I1231 17:06:06.288978 32660 net.cpp:157] Top shape: 1 512 38 63 (1225728)
I1231 17:06:06.288982 32660 net.cpp:157] Top shape: 1 512 38 63 (1225728)
I1231 17:06:06.288985 32660 net.cpp:165] Memory required for data: 951476292
I1231 17:06:06.288988 32660 layer_factory.hpp:77] Creating layer rpn_conv/3x3
I1231 17:06:06.289001 32660 net.cpp:106] Creating Layer rpn_conv/3x3
I1231 17:06:06.289005 32660 net.cpp:454] rpn_conv/3x3 <- conv5_3_relu5_3_0_split_0
I1231 17:06:06.289014 32660 net.cpp:411] rpn_conv/3x3 -> rpn/output
I1231 17:06:06.353687 32660 net.cpp:150] Setting up rpn_conv/3x3
I1231 17:06:06.353718 32660 net.cpp:157] Top shape: 1 512 38 63 (1225728)
I1231 17:06:06.353724 32660 net.cpp:165] Memory required for data: 956379204
I1231 17:06:06.353734 32660 layer_factory.hpp:77] Creating layer rpn_relu/3x3
I1231 17:06:06.353749 32660 net.cpp:106] Creating Layer rpn_relu/3x3
I1231 17:06:06.353755 32660 net.cpp:454] rpn_relu/3x3 <- rpn/output
I1231 17:06:06.353763 32660 net.cpp:397] rpn_relu/3x3 -> rpn/output (in-place)
I1231 17:06:06.354075 32660 net.cpp:150] Setting up rpn_relu/3x3
I1231 17:06:06.354091 32660 net.cpp:157] Top shape: 1 512 38 63 (1225728)
I1231 17:06:06.354095 32660 net.cpp:165] Memory required for data: 961282116
I1231 17:06:06.354100 32660 layer_factory.hpp:77] Creating layer rpn/output_rpn_relu/3x3_0_split
I1231 17:06:06.354110 32660 net.cpp:106] Creating Layer rpn/output_rpn_relu/3x3_0_split
I1231 17:06:06.354115 32660 net.cpp:454] rpn/output_rpn_relu/3x3_0_split <- rpn/output
I1231 17:06:06.354125 32660 net.cpp:411] rpn/output_rpn_relu/3x3_0_split -> rpn/output_rpn_relu/3x3_0_split_0
I1231 17:06:06.354135 32660 net.cpp:411] rpn/output_rpn_relu/3x3_0_split -> rpn/output_rpn_relu/3x3_0_split_1
I1231 17:06:06.354240 32660 net.cpp:150] Setting up rpn/output_rpn_relu/3x3_0_split
I1231 17:06:06.354252 32660 net.cpp:157] Top shape: 1 512 38 63 (1225728)
I1231 17:06:06.354259 32660 net.cpp:157] Top shape: 1 512 38 63 (1225728)
I1231 17:06:06.354262 32660 net.cpp:165] Memory required for data: 971087940
I1231 17:06:06.354267 32660 layer_factory.hpp:77] Creating layer rpn_cls_score
I1231 17:06:06.354284 32660 net.cpp:106] Creating Layer rpn_cls_score
I1231 17:06:06.354291 32660 net.cpp:454] rpn_cls_score <- rpn/output_rpn_relu/3x3_0_split_0
I1231 17:06:06.354302 32660 net.cpp:411] rpn_cls_score -> rpn_cls_score
I1231 17:06:06.359597 32660 net.cpp:150] Setting up rpn_cls_score
I1231 17:06:06.359649 32660 net.cpp:157] Top shape: 1 18 38 63 (43092)
I1231 17:06:06.359658 32660 net.cpp:165] Memory required for data: 971260308
I1231 17:06:06.359675 32660 layer_factory.hpp:77] Creating layer rpn_cls_score_rpn_cls_score_0_split
I1231 17:06:06.359696 32660 net.cpp:106] Creating Layer rpn_cls_score_rpn_cls_score_0_split
I1231 17:06:06.359711 32660 net.cpp:454] rpn_cls_score_rpn_cls_score_0_split <- rpn_cls_score
I1231 17:06:06.359730 32660 net.cpp:411] rpn_cls_score_rpn_cls_score_0_split -> rpn_cls_score_rpn_cls_score_0_split_0
I1231 17:06:06.359764 32660 net.cpp:411] rpn_cls_score_rpn_cls_score_0_split -> rpn_cls_score_rpn_cls_score_0_split_1
I1231 17:06:06.359908 32660 net.cpp:150] Setting up rpn_cls_score_rpn_cls_score_0_split
I1231 17:06:06.359925 32660 net.cpp:157] Top shape: 1 18 38 63 (43092)
I1231 17:06:06.359936 32660 net.cpp:157] Top shape: 1 18 38 63 (43092)
I1231 17:06:06.359943 32660 net.cpp:165] Memory required for data: 971605044
I1231 17:06:06.359949 32660 layer_factory.hpp:77] Creating layer rpn_bbox_pred
I1231 17:06:06.359974 32660 net.cpp:106] Creating Layer rpn_bbox_pred
I1231 17:06:06.359984 32660 net.cpp:454] rpn_bbox_pred <- rpn/output_rpn_relu/3x3_0_split_1
I1231 17:06:06.359999 32660 net.cpp:411] rpn_bbox_pred -> rpn_bbox_pred
I1231 17:06:06.365180 32660 net.cpp:150] Setting up rpn_bbox_pred
I1231 17:06:06.365213 32660 net.cpp:157] Top shape: 1 36 38 63 (86184)
I1231 17:06:06.365223 32660 net.cpp:165] Memory required for data: 971949780
I1231 17:06:06.365244 32660 layer_factory.hpp:77] Creating layer rpn_bbox_pred_rpn_bbox_pred_0_split
I1231 17:06:06.365259 32660 net.cpp:106] Creating Layer rpn_bbox_pred_rpn_bbox_pred_0_split
I1231 17:06:06.365268 32660 net.cpp:454] rpn_bbox_pred_rpn_bbox_pred_0_split <- rpn_bbox_pred
I1231 17:06:06.365283 32660 net.cpp:411] rpn_bbox_pred_rpn_bbox_pred_0_split -> rpn_bbox_pred_rpn_bbox_pred_0_split_0
I1231 17:06:06.365299 32660 net.cpp:411] rpn_bbox_pred_rpn_bbox_pred_0_split -> rpn_bbox_pred_rpn_bbox_pred_0_split_1
I1231 17:06:06.365438 32660 net.cpp:150] Setting up rpn_bbox_pred_rpn_bbox_pred_0_split
I1231 17:06:06.365453 32660 net.cpp:157] Top shape: 1 36 38 63 (86184)
I1231 17:06:06.365463 32660 net.cpp:157] Top shape: 1 36 38 63 (86184)
I1231 17:06:06.365466 32660 net.cpp:165] Memory required for data: 972639252
I1231 17:06:06.365474 32660 layer_factory.hpp:77] Creating layer rpn_cls_score_reshape
I1231 17:06:06.365515 32660 net.cpp:106] Creating Layer rpn_cls_score_reshape
I1231 17:06:06.365525 32660 net.cpp:454] rpn_cls_score_reshape <- rpn_cls_score_rpn_cls_score_0_split_0
I1231 17:06:06.365540 32660 net.cpp:411] rpn_cls_score_reshape -> rpn_cls_score_reshape
I1231 17:06:06.365633 32660 net.cpp:150] Setting up rpn_cls_score_reshape
I1231 17:06:06.365648 32660 net.cpp:157] Top shape: 1 2 342 63 (43092)
I1231 17:06:06.365653 32660 net.cpp:165] Memory required for data: 972811620
I1231 17:06:06.365659 32660 layer_factory.hpp:77] Creating layer rpn_cls_score_reshape_rpn_cls_score_reshape_0_split
I1231 17:06:06.365672 32660 net.cpp:106] Creating Layer rpn_cls_score_reshape_rpn_cls_score_reshape_0_split
I1231 17:06:06.365682 32660 net.cpp:454] rpn_cls_score_reshape_rpn_cls_score_reshape_0_split <- rpn_cls_score_reshape
I1231 17:06:06.365695 32660 net.cpp:411] rpn_cls_score_reshape_rpn_cls_score_reshape_0_split -> rpn_cls_score_reshape_rpn_cls_score_reshape_0_split_0
I1231 17:06:06.365711 32660 net.cpp:411] rpn_cls_score_reshape_rpn_cls_score_reshape_0_split -> rpn_cls_score_reshape_rpn_cls_score_reshape_0_split_1
I1231 17:06:06.365867 32660 net.cpp:150] Setting up rpn_cls_score_reshape_rpn_cls_score_reshape_0_split
I1231 17:06:06.365945 32660 net.cpp:157] Top shape: 1 2 342 63 (43092)
I1231 17:06:06.365996 32660 net.cpp:157] Top shape: 1 2 342 63 (43092)
I1231 17:06:06.366031 32660 net.cpp:165] Memory required for data: 973156356
I1231 17:06:06.366066 32660 layer_factory.hpp:77] Creating layer rpn-data
I1231 17:06:06.367593 32660 net.cpp:106] Creating Layer rpn-data
I1231 17:06:06.367621 32660 net.cpp:454] rpn-data <- rpn_cls_score_rpn_cls_score_0_split_1
I1231 17:06:06.367635 32660 net.cpp:454] rpn-data <- gt_boxes_input-data_2_split_0
I1231 17:06:06.367645 32660 net.cpp:454] rpn-data <- im_info_input-data_1_split_0
I1231 17:06:06.367652 32660 net.cpp:454] rpn-data <- data_input-data_0_split_1
I1231 17:06:06.367664 32660 net.cpp:411] rpn-data -> rpn_labels
I1231 17:06:06.367681 32660 net.cpp:411] rpn-data -> rpn_bbox_targets
I1231 17:06:06.367697 32660 net.cpp:411] rpn-data -> rpn_bbox_inside_weights
I1231 17:06:06.367717 32660 net.cpp:411] rpn-data -> rpn_bbox_outside_weights
I1231 17:06:06.371379 32660 net.cpp:150] Setting up rpn-data
I1231 17:06:06.371424 32660 net.cpp:157] Top shape: 1 1 342 63 (21546)
I1231 17:06:06.371433 32660 net.cpp:157] Top shape: 1 36 38 63 (86184)
I1231 17:06:06.371440 32660 net.cpp:157] Top shape: 1 36 38 63 (86184)
I1231 17:06:06.371446 32660 net.cpp:157] Top shape: 1 36 38 63 (86184)
I1231 17:06:06.371451 32660 net.cpp:165] Memory required for data: 974276748
I1231 17:06:06.371459 32660 layer_factory.hpp:77] Creating layer rpn_loss_cls
I1231 17:06:06.371489 32660 net.cpp:106] Creating Layer rpn_loss_cls
I1231 17:06:06.371500 32660 net.cpp:454] rpn_loss_cls <- rpn_cls_score_reshape_rpn_cls_score_reshape_0_split_0
I1231 17:06:06.371510 32660 net.cpp:454] rpn_loss_cls <- rpn_labels
…
I1231 17:06:06.374066 32660 net.cpp:157] Top shape: (1)
I1231 17:06:06.374071 32660 net.cpp:160]     with loss weight 1
I1231 17:06:06.374083 32660 net.cpp:165] Memory required for data: 974276756
I1231 17:06:06.374089 32660 layer_factory.hpp:77] Creating layer rpn_cls_prob
I1231 17:06:06.374101 32660 net.cpp:106] Creating Layer rpn_cls_prob
I1231 17:06:06.374110 32660 net.cpp:454] rpn_cls_prob <- rpn_cls_score_reshape_rpn_cls_score_reshape_0_split_1
I1231 17:06:06.374119 32660 net.cpp:411] rpn_cls_prob -> rpn_cls_prob
I1231 17:06:06.375936 32660 net.cpp:150] Setting up rpn_cls_prob
I1231 17:06:06.375960 32660 net.cpp:157] Top shape: 1 2 342 63 (43092)
I1231 17:06:06.375967 32660 net.cpp:165] Memory required for data: 974449124
I1231 17:06:06.375973 32660 layer_factory.hpp:77] Creating layer rpn_cls_prob_reshape
I1231 17:06:06.375993 32660 net.cpp:106] Creating Layer rpn_cls_prob_reshape
I1231 17:06:06.376003 32660 net.cpp:454] rpn_cls_prob_reshape <- rpn_cls_prob
I1231 17:06:06.376013 32660 net.cpp:411] rpn_cls_prob_reshape -> rpn_cls_prob_reshape
I1231 17:06:06.376096 32660 net.cpp:150] Setting up rpn_cls_prob_reshape
I1231 17:06:06.376109 32660 net.cpp:157] Top shape: 1 18 38 63 (43092)
I1231 17:06:06.376114 32660 net.cpp:165] Memory required for data: 974621492
I1231 17:06:06.376121 32660 layer_factory.hpp:77] Creating layer proposal
I1231 17:06:06.377976 32660 net.cpp:106] Creating Layer proposal
I1231 17:06:06.378000 32660 net.cpp:454] proposal <- rpn_cls_prob_reshape
I1231 17:06:06.378010 32660 net.cpp:454] proposal <- rpn_bbox_pred_rpn_bbox_pred_0_split_1
I1231 17:06:06.378046 32660 net.cpp:454] proposal <- im_info_input-data_1_split_1
I1231 17:06:06.378057 32660 net.cpp:411] proposal -> rpn_rois
I1231 17:06:06.381552 32660 net.cpp:150] Setting up proposal
I1231 17:06:06.381585 32660 net.cpp:157] Top shape: 1 5 (5)
I1231 17:06:06.381592 32660 net.cpp:165] Memory required for data: 974621512
I1231 17:06:06.381600 32660 layer_factory.hpp:77] Creating layer roi-data
I1231 17:06:06.382050 32660 net.cpp:106] Creating Layer roi-data
I1231 17:06:06.382076 32660 net.cpp:454] roi-data <- rpn_rois
I1231 17:06:06.382087 32660 net.cpp:454] roi-data <- gt_boxes_input-data_2_split_1
I1231 17:06:06.382102 32660 net.cpp:411] roi-data -> rois
I1231 17:06:06.382117 32660 net.cpp:411] roi-data -> labels
I1231 17:06:06.382130 32660 net.cpp:411] roi-data -> bbox_targets
I1231 17:06:06.382159 32660 net.cpp:411] roi-data -> bbox_inside_weights
I1231 17:06:06.382174 32660 net.cpp:411] roi-data -> bbox_outside_weights
I1231 17:06:06.383142 32660 net.cpp:150] Setting up roi-data
I1231 17:06:06.383169 32660 net.cpp:157] Top shape: 1 5 (5)
I1231 17:06:06.383177 32660 net.cpp:157] Top shape: 1 1 (1)
I1231 17:06:06.383184 32660 net.cpp:157] Top shape: 1 84 (84)
I1231 17:06:06.383190 32660 net.cpp:157] Top shape: 1 84 (84)
I1231 17:06:06.383196 32660 net.cpp:157] Top shape: 1 84 (84)
I1231 17:06:06.383201 32660 net.cpp:165] Memory required for data: 974622544
I1231 17:06:06.383208 32660 layer_factory.hpp:77] Creating layer roi_pool5
I1231 17:06:06.383234 32660 net.cpp:106] Creating Layer roi_pool5
I1231 17:06:06.383246 32660 net.cpp:454] roi_pool5 <- conv5_3_relu5_3_0_split_1
I1231 17:06:06.383256 32660 net.cpp:454] roi_pool5 <- rois
I1231 17:06:06.383270 32660 net.cpp:411] roi_pool5 -> pool5
I1231 17:06:06.383291 32660 roi_pooling_layer.cpp:30] Spatial scale: 0.0625
I1231 17:06:06.383436 32660 net.cpp:150] Setting up roi_pool5
I1231 17:06:06.383455 32660 net.cpp:157] Top shape: 1 512 7 7 (25088)
I1231 17:06:06.383463 32660 net.cpp:165] Memory required for data: 974722896
I1231 17:06:06.383469 32660 layer_factory.hpp:77] Creating layer fc6
I1231 17:06:06.383487 32660 net.cpp:106] Creating Layer fc6
I1231 17:06:06.383494 32660 net.cpp:454] fc6 <- pool5
I1231 17:06:06.383505 32660 net.cpp:411] fc6 -> fc6
I1231 17:06:06.715173 32660 net.cpp:150] Setting up fc6
I1231 17:06:06.715227 32660 net.cpp:157] Top shape: 1 4096 (4096)
I1231 17:06:06.715231 32660 net.cpp:165] Memory required for data: 974739280
I1231 17:06:06.715257 32660 layer_factory.hpp:77] Creating layer relu6
I1231 17:06:06.715270 32660 net.cpp:106] Creating Layer relu6
I1231 17:06:06.715276 32660 net.cpp:454] relu6 <- fc6
I1231 17:06:06.715284 32660 net.cpp:397] relu6 -> fc6 (in-place)
I1231 17:06:06.715636 32660 net.cpp:150] Setting up relu6
I1231 17:06:06.715651 32660 net.cpp:157] Top shape: 1 4096 (4096)
I1231 17:06:06.715654 32660 net.cpp:165] Memory required for data: 974755664
I1231 17:06:06.715657 32660 layer_factory.hpp:77] Creating layer drop6
I1231 17:06:06.715674 32660 net.cpp:106] Creating Layer drop6
I1231 17:06:06.715680 32660 net.cpp:454] drop6 <- fc6
I1231 17:06:06.715687 32660 net.cpp:397] drop6 -> fc6 (in-place)
I1231 17:06:06.715747 32660 net.cpp:150] Setting up drop6
I1231 17:06:06.715756 32660 net.cpp:157] Top shape: 1 4096 (4096)
I1231 17:06:06.715759 32660 net.cpp:165] Memory required for data: 974772048
I1231 17:06:06.715762 32660 layer_factory.hpp:77] Creating layer fc7
I1231 17:06:06.715772 32660 net.cpp:106] Creating Layer fc7
I1231 17:06:06.715776 32660 net.cpp:454] fc7 <- fc6
I1231 17:06:06.715782 32660 net.cpp:411] fc7 -> fc7
I1231 17:06:06.768368 32660 net.cpp:150] Setting up fc7
I1231 17:06:06.768412 32660 net.cpp:157] Top shape: 1 4096 (4096)
I1231 17:06:06.768415 32660 net.cpp:165] Memory required for data: 974788432
I1231 17:06:06.768429 32660 layer_factory.hpp:77] Creating layer relu7
I1231 17:06:06.768442 32660 net.cpp:106] Creating Layer relu7
I1231 17:06:06.768448 32660 net.cpp:454] relu7 <- fc7
I1231 17:06:06.768456 32660 net.cpp:397] relu7 -> fc7 (in-place)
I1231 17:06:06.769657 32660 net.cpp:150] Setting up relu7
I1231 17:06:06.769678 32660 net.cpp:157] Top shape: 1 4096 (4096)
I1231 17:06:06.769681 32660 net.cpp:165] Memory required for data: 974804816
I1231 17:06:06.769685 32660 layer_factory.hpp:77] Creating layer drop7
I1231 17:06:06.769695 32660 net.cpp:106] Creating Layer drop7
I1231 17:06:06.769698 32660 net.cpp:454] drop7 <- fc7
I1231 17:06:06.769708 32660 net.cpp:397] drop7 -> fc7 (in-place)
I1231 17:06:06.769771 32660 net.cpp:150] Setting up drop7
I1231 17:06:06.769781 32660 net.cpp:157] Top shape: 1 4096 (4096)
I1231 17:06:06.769783 32660 net.cpp:165] Memory required for data: 974821200
I1231 17:06:06.769786 32660 layer_factory.hpp:77] Creating layer fc7_drop7_0_split
I1231 17:06:06.769793 32660 net.cpp:106] Creating Layer fc7_drop7_0_split
I1231 17:06:06.769796 32660 net.cpp:454] fc7_drop7_0_split <- fc7
I1231 17:06:06.769804 32660 net.cpp:411] fc7_drop7_0_split -> fc7_drop7_0_split_0
I1231 17:06:06.769812 32660 net.cpp:411] fc7_drop7_0_split -> fc7_drop7_0_split_1
I1231 17:06:06.769906 32660 net.cpp:150] Setting up fc7_drop7_0_split
I1231 17:06:06.769914 32660 net.cpp:157] Top shape: 1 4096 (4096)
I1231 17:06:06.769918 32660 net.cpp:157] Top shape: 1 4096 (4096)
I1231 17:06:06.769920 32660 net.cpp:165] Memory required for data: 974853968
I1231 17:06:06.769924 32660 layer_factory.hpp:77] Creating layer cls_score
I1231 17:06:06.769934 32660 net.cpp:106] Creating Layer cls_score
I1231 17:06:06.769938 32660 net.cpp:454] cls_score <- fc7_drop7_0_split_0
I1231 17:06:06.769945 32660 net.cpp:411] cls_score -> cls_score
I1231 17:06:06.771267 32660 net.cpp:150] Setting up cls_score
I1231 17:06:06.771277 32660 net.cpp:157] Top shape: 1 21 (21)
I1231 17:06:06.771281 32660 net.cpp:165] Memory required for data: 974854052
I1231 17:06:06.771288 32660 layer_factory.hpp:77] Creating layer bbox_pred
I1231 17:06:06.771294 32660 net.cpp:106] Creating Layer bbox_pred
I1231 17:06:06.771298 32660 net.cpp:454] bbox_pred <- fc7_drop7_0_split_1
I1231 17:06:06.771303 32660 net.cpp:411] bbox_pred -> bbox_pred
I1231 17:06:06.777086 32660 net.cpp:150] Setting up bbox_pred
I1231 17:06:06.777102 32660 net.cpp:157] Top shape: 1 84 (84)
I1231 17:06:06.777107 32660 net.cpp:165] Memory required for data: 974854388
I1231 17:06:06.777113 32660 layer_factory.hpp:77] Creating layer loss_cls
I1231 17:06:06.777123 32660 net.cpp:106] Creating Layer loss_cls
I1231 17:06:06.777127 32660 net.cpp:454] loss_cls <- cls_score
I1231 17:06:06.777133 32660 net.cpp:454] loss_cls <- labels
I1231 17:06:06.777138 32660 net.cpp:411] loss_cls -> loss_cls
…
