…
snapshot: 0
snapshot_prefix: "vggECD"
average_loss: 100
iter_size: 2
I1116 03:04:10.403277 42685 solver.cpp:77] Creating training net from train_net file: models/pascal_voc/VGG_ECD/faster_rcnn_end2end/train.prototxt
I1116 03:04:10.408041 42685 net.cpp:51] Initializing net from parameters: 
name: "VGG_ILSVRC_16_layers"
state {
  phase: TRAIN
}
layer {
  name: "input-data"
  type: "Python"
  top: "data"
  top: "im_info"
  top: "gt_boxes"
  python_param {
    module: "roi_data_layer.layer"
    layer: "RoIDataLayer"
    param_str: "\'num_classes\': 21"
  }
}
layer {
  name: "conv1_1"
  type: "Convolution"
  bottom: "data"
  top: "conv1_1"
  param {
    lr_mult: 0
    decay_mult: 0
  }
  param {
    lr_mult: 0
    decay_mult: 0
  }
  convolution_param {
    num_output: 64
    pad: 1
    kernel_size: 3
  }
}
layer {
  name: "relu1_1"
  type: "ReLU"
  bottom: "conv1_1"
  top: "conv1_1"
}
layer {
  name: "conv1_2_W_prime"
  type: "Convolution"
  bottom: "conv1_1"
  top: "conv1_2_W_prime"
  param {
    lr_mult: 0
    decay_mult: 0
  }
  param {
    lr_mult: 0
    decay_mult: 0
  }
  convolution_param {
    num_output: 11
    pad: 1
    kernel_size: 3
  }
}
layer {
  name: "conv1_2_P"
  type: "Convolution"
  bottom: "conv1_2_W_prime"
  top: "conv1_2_P"
  param {
    lr_mult: 0
    decay_mult: 0
  }
  param {
    lr_mult: 0
    decay_mult: 0
  }
  convolution_param {
    num_output: 64
    pad: 0
    kernel_size: 1
    stride: 1
    weight_filler {
      type: "msra"
    }
    bias_filler {
      type: "constant"
      value: 0
    }
  }
}
layer {
  name: "relu1_2"
  type: "ReLU"
  bottom: "conv1_2_P"
  top: "conv1_2_P"
}
layer {
  name: "pool1"
  type: "Pooling"
  bottom: "conv1_2_P"
  top: "pool1"
  pooling_param {
    pool: MAX
    kernel_size: 2
    stride: 2
  }
}
layer {
  name: "conv2_1_W_prime"
  type: "Convolution"
  bottom: "pool1"
  top: "conv2_1_W_prime"
  param {
    lr_mult: 0
    decay_mult: 0
  }
  param {
    lr_mult: 0
    decay_mult: 0
  }
  convolution_param {
    num_output: 25
    pad: 1
    kernel_size: 3
  }
}
layer {
  name: "conv2_1_P"
  type: "Convolution"
  bottom: "conv2_1_W_prime"
  top: "conv2_1_P"
  param {
    lr_mult: 0
    decay_mult: 0
  }
  param {
    lr_mult: 0
    decay_mult: 0
  }
  convolution_param {
    num_output: 128
    pad: 0
    kernel_size: 1
    stride: 1
    weight_filler {
      type: "msra"
    }
    bias_filler {
      type: "constant"
      value: 0
    }
  }
}
layer {
  name: "relu2_1"
  type: "ReLU"
  bottom: "conv2_1_P"
  top: "conv2_1_P"
}
layer {
  name: "conv2_2_W_prime"
  type: "Convolution"
  bottom: "conv2_1_P"
  top: "conv2_2_W_prime"
  param {
    lr_mult: 0
    decay_mult: 0
  }
  param {
    lr_mult: 0
    decay_mult: 0
  }
  convolution_param {
    num_output: 28
    pad: 1
    kernel_size: 3
  }
}
layer {
  name: "conv2_2_P"
  type: "Convolution"
  bottom: "conv2_2_W_prime"
  top: "conv2_2_P"
  param {
    lr_mult: 0
    decay_mult: 0
  }
  param {
    lr_mult: 0
    decay_mult: 0
  }
  convolution_param {
    num_output: 128
    pad: 0
    kernel_size: 1
    stride: 1
    weight_filler {
      type: "msra"
    }
    bias_filler {
      type: "constant"
      value: 0
    }
  }
}
layer {
  name: "relu2_2"
  type: "ReLU"
  bottom: "conv2_2_P"
  top: "conv2_2_P"
}
layer {
  name: "pool2"
  type: "Pooling"
  bottom: "conv2_2_P"
  top: "pool2"
  pooling_param {
    pool: MAX
    kernel_size: 2
    stride: 2
  }
}
layer {
  name: "conv3_1_W_prime"
  type: "Convolution"
  bottom: "pool2"
  top: "conv3_1_W_prime"
  convolution_param {
    num_output: 52
    pad: 1
    kernel_size: 3
  }
}
layer {
  name: "conv3_1_P"
  type: "Convolution"
  bottom: "conv3_1_W_prime"
  top: "conv3_1_P"
  param {
    lr_mult: 1
  }
  param {
    lr_mult: 2
  }
  convolution_param {
    num_output: 256
    pad: 0
    kernel_size: 1
    stride: 1
    weight_filler {
      type: "msra"
    }
    bias_filler {
      type: "constant"
      value: 0
    }
  }
}
layer {
  name: "relu3_1"
  type: "ReLU"
  bottom: "conv3_1_P"
  top: "conv3_1_P"
}
layer {
  name: "conv3_2_W_prime"
  type: "Convolution"
  bottom: "conv3_1_P"
  top: "conv3_2_W_prime"
  convolution_param {
    num_output: 46
    pad: 1
    kernel_size: 3
  }
}
layer {
  name: "conv3_2_P"
  type: "Convolution"
  bottom: "conv3_2_W_prime"
  top: "conv3_2_P"
  param {
    lr_mult: 1
  }
  param {
    lr_mult: 2
  }
  convolution_param {
    num_output: 256
    pad: 0
    kernel_size: 1
    stride: 1
    weight_filler {
      type: "msra"
    }
    bias_filler {
      type: "constant"
      value: 0
    }
  }
}
layer {
  name: "relu3_2"
  type: "ReLU"
  bottom: "conv3_2_P"
  top: "conv3_2_P"
}
layer {
  name: "conv3_3_W_prime"
  type: "Convolution"
  bottom: "conv3_2_P"
  top: "conv3_3_W_prime"
  convolution_param {
    num_output: 56
    pad: 1
    kernel_size: 3
  }
}
layer {
  name: "conv3_3_P"
  type: "Convolution"
  bottom: "conv3_3_W_prime"
  top: "conv3_3_P"
  param {
    lr_mult: 1
  }
  param {
    lr_mult: 2
  }
  convolution_param {
    num_output: 256
    pad: 0
    kernel_size: 1
    stride: 1
    weight_filler {
      type: "msra"
    }
    bias_filler {
      type: "constant"
      value: 0
    }
  }
}
layer {
  name: "relu3_3"
  type: "ReLU"
  bottom: "conv3_3_P"
  top: "conv3_3_P"
}
layer {
  name: "pool3"
  type: "Pooling"
  bottom: "conv3_3_P"
  top: "pool3"
  pooling_param {
    pool: MAX
    kernel_size: 2
    stride: 2
  }
}
layer {
  name: "conv4_1_W_prime"
  type: "Convolution"
  bottom: "pool3"
  top: "conv4_1_W_prime"
  convolution_param {
    num_output: 104
    pad: 1
    kernel_size: 3
  }
}
layer {
  name: "conv4_1_P"
  type: "Convolution"
  bottom: "conv4_1_W_prime"
  top: "conv4_1_P"
  param {
    lr_mult: 1
  }
  param {
    lr_mult: 2
  }
  convolution_param {
    num_output: 512
    pad: 0
    kernel_size: 1
    stride: 1
    weight_filler {
      type: "msra"
    }
    bias_filler {
      type: "constant"
      value: 0
    }
  }
}
layer {
  name: "relu4_1"
  type: "ReLU"
  bottom: "conv4_1_P"
  top: "conv4_1_P"
}
layer {
  name: "conv4_2_W_prime"
  type: "Convolution"
  bottom: "conv4_1_P"
  top: "conv4_2_W_prime"
  convolution_param {
    num_output: 92
    pad: 1
    kernel_size: 3
  }
}
layer {
  name: "conv4_2_P"
  type: "Convolution"
  bottom: "conv4_2_W_prime"
  top: "conv4_2_P"
  param {
    lr_mult: 1
  }
  param {
    lr_mult: 2
  }
  convolution_param {
    num_output: 512
    pad: 0
    kernel_size: 1
    stride: 1
    weight_filler {
      type: "msra"
    }
    bias_filler {
      type: "constant"
      value: 0
    }
  }
}
layer {
  name: "relu4_2"
  type: "ReLU"
  bottom: "conv4_2_P"
  top: "conv4_2_P"
}
layer {
  name: "conv4_3_W_prime"
  type: "Convolution"
  bottom: "conv4_2_P"
  top: "conv4_3_W_prime"
  convolution_param {
    num_output: 100
    pad: 1
    kernel_size: 3
  }
}
layer {
  name: "conv4_3_P"
  type: "Convolution"
  bottom: "conv4_3_W_prime"
  top: "conv4_3_P"
  param {
    lr_mult: 1
  }
  param {
    lr_mult: 2
  }
  convolution_param {
    num_output: 512
    pad: 0
    kernel_size: 1
    stride: 1
    weight_filler {
      type: "msra"
    }
    bias_filler {
      type: "constant"
      value: 0
    }
  }
}
layer {
  name: "relu4_3"
  type: "ReLU"
  bottom: "conv4_3_P"
  top: "conv4_3_P"
}
layer {
  name: "pool4"
  type: "Pooling"
  bottom: "conv4_3_P"
  top: "pool4"
  pooling_param {
    pool: MAX
    kernel_size: 2
    stride: 2
  }
}
layer {
  name: "conv5_1_W_prime"
  type: "Convolution"
  bottom: "pool4"
  top: "conv5_1_W_prime"
  convolution_param {
    num_output: 232
    pad: 1
    kernel_size: 3
  }
}
layer {
  name: "conv5_1_P"
  type: "Convolution"
  bottom: "conv5_1_W_prime"
  top: "conv5_1_P"
  param {
    lr_mult: 1
  }
  param {
    lr_mult: 2
  }
  convolution_param {
    num_output: 512
    pad: 0
    kernel_size: 1
    stride: 1
    weight_filler {
      type: "msra"
    }
    bias_filler {
      type: "constant"
      value: 0
    }
  }
}
layer {
  name: "relu5_1"
  type: "ReLU"
  bottom: "conv5_1_P"
  top: "conv5_1_P"
}
layer {
  name: "conv5_2_W_prime"
  type: "Convolution"
  bottom: "conv5_1_P"
  top: "conv5_2_W_prime"
  convolution_param {
    num_output: 224
    pad: 1
    kernel_size: 3
  }
}
layer {
  name: "conv5_2_P"
  type: "Convolution"
  bottom: "conv5_2_W_prime"
  top: "conv5_2_P"
  param {
    lr_mult: 1
  }
  param {
    lr_mult: 2
  }
  convolution_param {
    num_output: 512
    pad: 0
    kernel_size: 1
    stride: 1
    weight_filler {
      type: "msra"
    }
    bias_filler {
      type: "constant"
      value: 0
    }
  }
}
layer {
  name: "relu5_2"
  type: "ReLU"
  bottom: "conv5_2_P"
  top: "conv5_2_P"
}
layer {
  name: "conv5_3_W_prime"
  type: "Convolution"
  bottom: "conv5_2_P"
  top: "conv5_3_W_prime"
  convolution_param {
    num_output: 214
    pad: 1
    kernel_size: 3
  }
}
layer {
  name: "conv5_3_P"
  type: "Convolution"
  bottom: "conv5_3_W_prime"
  top: "conv5_3_P"
  param {
    lr_mult: 1
  }
  param {
    lr_mult: 2
  }
  convolution_param {
    num_output: 512
    pad: 0
    kernel_size: 1
    stride: 1
    weight_filler {
      type: "msra"
    }
    bias_filler {
      type: "constant"
      value: 0
    }
  }
}
layer {
  name: "relu5_3"
  type: "ReLU"
  bottom: "conv5_3_P"
  top: "conv5_3_P"
}
layer {
  name: "rpn_conv/3x3"
  type: "Convolution"
  bottom: "conv5_3_P"
  top: "rpn/output"
  param {
    lr_mult: 1
  }
  param {
    lr_mult: 2
  }
  convolution_param {
    num_output: 512
    pad: 1
    kernel_size: 3
    stride: 1
    weight_filler {
      type: "gaussian"
      std: 0.01
    }
    bias_filler {
      type: "constant"
      value: 0
    }
  }
}
layer {
  name: "rpn_relu/3x3"
  type: "ReLU"
  bottom: "rpn/output"
  top: "rpn/output"
}
layer {
  name: "rpn_cls_score"
  type: "Convolution"
  bottom: "rpn/output"
  top: "rpn_cls_score"
  param {
    lr_mult: 1
  }
  param {
    lr_mult: 2
  }
  convolution_param {
    num_output: 18
    pad: 0
    kernel_size: 1
    stride: 1
    weight_filler {
      type: "gaussian"
      std: 0.01
    }
    bias_filler {
      type: "constant"
      value: 0
    }
  }
}
layer {
  name: "rpn_bbox_pred"
  type: "Convolution"
  bottom: "rpn/output"
  top: "rpn_bbox_pred"
  param {
    lr_mult: 1
  }
  param {
    lr_mult: 2
  }
  convolution_param {
    num_output: 36
    pad: 0
    kernel_size: 1
    stride: 1
    weight_filler {
      type: "gaussian"
      std: 0.01
    }
    bias_filler {
      type: "constant"
      value: 0
    }
  }
}
layer {
  name: "rpn_cls_score_reshape"
  type: "Reshape"
  bottom: "rpn_cls_score"
  top: "rpn_cls_score_reshape"
  reshape_param {
    shape {
      dim: 0
      dim: 2
      dim: -1
      dim: 0
    }
  }
}
layer {
  name: "rpn-data"
  type: "Python"
  bottom: "rpn_cls_score"
  bottom: "gt_boxes"
  bottom: "im_info"
  bottom: "data"
  top: "rpn_labels"
  top: "rpn_bbox_targets"
  top: "rpn_bbox_inside_weights"
  top: "rpn_bbox_outside_weights"
  python_param {
    module: "rpn.anchor_target_layer"
    layer: "AnchorTargetLayer"
    param_str: "\'feat_stride\': 16"
  }
}
layer {
  name: "rpn_loss_cls"
  type: "SoftmaxWithLoss"
  bottom: "rpn_cls_score_reshape"
  bottom: "rpn_labels"
  top: "rpn_cls_loss"
  loss_weight: 1
  propagate_down: true
  propagate_down: false
  loss_param {
    ignore_label: -1
    normalize: true
  }
}
layer {
  name: "rpn_loss_bbox"
  type: "SmoothL1Loss"
  bottom: "rpn_bbox_pred"
  bottom: "rpn_bbox_targets"
  bottom: "rpn_bbox_inside_weights"
  bottom: "rpn_bbox_outside_weights"
  top: "rpn_loss_bbox"
  loss_weight: 1
  smooth_l1_loss_param {
    sigma: 3
  }
}
layer {
  name: "rpn_cls_prob"
  type: "Softmax"
  bottom: "rpn_cls_score_reshape"
  top: "rpn_cls_prob"
}
layer {
  name: "rpn_cls_prob_reshape"
  type: "Reshape"
  bottom: "rpn_cls_prob"
  top: "rpn_cls_prob_reshape"
  reshape_param {
    shape {
      dim: 0
      dim: 18
      dim: -1
      dim: 0
    }
  }
}
layer {
  name: "proposal"
  type: "Python"
  bottom: "rpn_cls_prob_reshape"
  bottom: "rpn_bbox_pred"
  bottom: "im_info"
  top: "rpn_rois"
  python_param {
    module: "rpn.proposal_layer"
    layer: "ProposalLayer"
    param_str: "\'feat_stride\': 16"
  }
}
layer {
  name: "roi-data"
  type: "Python"
  bottom: "rpn_rois"
  bottom: "gt_boxes"
  top: "rois"
  top: "labels"
  top: "bbox_targets"
  top: "bbox_inside_weights"
  top: "bbox_outside_weights"
  python_param {
    module: "rpn.proposal_target_layer"
    layer: "ProposalTargetLayer"
    param_str: "\'num_classes\': 21"
  }
}
layer {
  name: "roi_pool5"
  type: "ROIPooling"
  bottom: "conv5_3_P"
  bottom: "rois"
  top: "pool5"
  roi_pooling_param {
    pooled_h: 7
    pooled_w: 7
    spatial_scale: 0.0625
  }
}
layer {
  name: "fc6"
  type: "InnerProduct"
  bottom: "pool5"
  top: "fc6"
  param {
    lr_mult: 1
  }
  param {
    lr_mult: 2
  }
  inner_product_param {
    num_output: 4096
  }
}
layer {
  name: "relu6"
  type: "ReLU"
  bottom: "fc6"
  top: "fc6"
}
layer {
  name: "drop6"
  type: "Dropout"
  bottom: "fc6"
  top: "fc6"
  dropout_param {
    dropout_ratio: 0.5
  }
}
layer {
  name: "fc7"
  type: "InnerProduct"
  bottom: "fc6"
  top: "fc7"
  param {
    lr_mult: 1
  }
  param {
    lr_mult: 2
  }
  inner_product_param {
    num_output: 4096
  }
}
layer {
  name: "relu7"
  type: "ReLU"
  bottom: "fc7"
  top: "fc7"
}
layer {
  name: "drop7"
  type: "Dropout"
  bottom: "fc7"
  top: "fc7"
  dropout_param {
    dropout_ratio: 0.5
  }
}
layer {
  name: "cls_score"
  type: "InnerProduct"
  bottom: "fc7"
  top: "cls_score"
  param {
    lr_mult: 1
  }
  param {
    lr_mult: 2
  }
  inner_product_param {
    num_output: 21
    weight_filler {
      type: "gaussian"
      std: 0.01
    }
    bias_filler {
      type: "constant"
      value: 0
    }
  }
}
layer {
  name: "bbox_pred"
  type: "InnerProduct"
  bottom: "fc7"
  top: "bbox_pred"
  param {
    lr_mult: 1
  }
  param {
    lr_mult: 2
  }
  inner_product_param {
    num_output: 84
    weight_filler {
      type: "gaussian"
      std: 0.001
    }
    bias_filler {
      type: "constant"
      value: 0
    }
  }
}
layer {
  name: "loss_cls"
  type: "SoftmaxWithLoss"
  bottom: "cls_score"
  bottom: "labels"
  top: "loss_cls"
  loss_weight: 1
  propagate_down: true
  propagate_down: false
}
layer {
  name: "loss_bbox"
  type: "SmoothL1Loss"
  bottom: "bbox_pred"
  bottom: "bbox_targets"
  bottom: "bbox_inside_weights"
  bottom: "bbox_outside_weights"
  top: "loss_bbox"
  loss_weight: 1
}
I1116 03:04:10.408546 42685 layer_factory.hpp:77] Creating layer input-data
I1116 03:04:10.447376 42685 net.cpp:84] Creating Layer input-data
I1116 03:04:10.447412 42685 net.cpp:380] input-data -> data
I1116 03:04:10.447429 42685 net.cpp:380] input-data -> im_info
I1116 03:04:10.447443 42685 net.cpp:380] input-data -> gt_boxes
RoiDataLayer: name_to_top: {'gt_boxes': 2, 'data': 0, 'im_info': 1}
I1116 03:04:10.453646 42685 net.cpp:122] Setting up input-data
I1116 03:04:10.453672 42685 net.cpp:129] Top shape: 1 3 600 1000 (1800000)
I1116 03:04:10.453681 42685 net.cpp:129] Top shape: 1 3 (3)
I1116 03:04:10.453688 42685 net.cpp:129] Top shape: 1 4 (4)
I1116 03:04:10.453693 42685 net.cpp:137] Memory required for data: 7200028
I1116 03:04:10.453701 42685 layer_factory.hpp:77] Creating layer data_input-data_0_split
I1116 03:04:10.453716 42685 net.cpp:84] Creating Layer data_input-data_0_split
I1116 03:04:10.453723 42685 net.cpp:406] data_input-data_0_split <- data
I1116 03:04:10.453735 42685 net.cpp:380] data_input-data_0_split -> data_input-data_0_split_0
I1116 03:04:10.453752 42685 net.cpp:380] data_input-data_0_split -> data_input-data_0_split_1
I1116 03:04:10.453855 42685 net.cpp:122] Setting up data_input-data_0_split
I1116 03:04:10.453866 42685 net.cpp:129] Top shape: 1 3 600 1000 (1800000)
I1116 03:04:10.453876 42685 net.cpp:129] Top shape: 1 3 600 1000 (1800000)
I1116 03:04:10.453881 42685 net.cpp:137] Memory required for data: 21600028
I1116 03:04:10.453887 42685 layer_factory.hpp:77] Creating layer im_info_input-data_1_split
I1116 03:04:10.453897 42685 net.cpp:84] Creating Layer im_info_input-data_1_split
I1116 03:04:10.453903 42685 net.cpp:406] im_info_input-data_1_split <- im_info
I1116 03:04:10.453913 42685 net.cpp:380] im_info_input-data_1_split -> im_info_input-data_1_split_0
I1116 03:04:10.453927 42685 net.cpp:380] im_info_input-data_1_split -> im_info_input-data_1_split_1
I1116 03:04:10.454010 42685 net.cpp:122] Setting up im_info_input-data_1_split
I1116 03:04:10.454020 42685 net.cpp:129] Top shape: 1 3 (3)
I1116 03:04:10.454027 42685 net.cpp:129] Top shape: 1 3 (3)
I1116 03:04:10.454032 42685 net.cpp:137] Memory required for data: 21600052
I1116 03:04:10.454037 42685 layer_factory.hpp:77] Creating layer gt_boxes_input-data_2_split
I1116 03:04:10.454046 42685 net.cpp:84] Creating Layer gt_boxes_input-data_2_split
I1116 03:04:10.454052 42685 net.cpp:406] gt_boxes_input-data_2_split <- gt_boxes
I1116 03:04:10.454062 42685 net.cpp:380] gt_boxes_input-data_2_split -> gt_boxes_input-data_2_split_0
I1116 03:04:10.454074 42685 net.cpp:380] gt_boxes_input-data_2_split -> gt_boxes_input-data_2_split_1
I1116 03:04:10.454161 42685 net.cpp:122] Setting up gt_boxes_input-data_2_split
I1116 03:04:10.454170 42685 net.cpp:129] Top shape: 1 4 (4)
I1116 03:04:10.454179 42685 net.cpp:129] Top shape: 1 4 (4)
I1116 03:04:10.454183 42685 net.cpp:137] Memory required for data: 21600084
I1116 03:04:10.454188 42685 layer_factory.hpp:77] Creating layer conv1_1
I1116 03:04:10.454206 42685 net.cpp:84] Creating Layer conv1_1
I1116 03:04:10.454212 42685 net.cpp:406] conv1_1 <- data_input-data_0_split_0
I1116 03:04:10.454222 42685 net.cpp:380] conv1_1 -> conv1_1
I1116 03:04:11.296957 42685 net.cpp:122] Setting up conv1_1
I1116 03:04:11.297008 42685 net.cpp:129] Top shape: 1 64 600 1000 (38400000)
I1116 03:04:11.297011 42685 net.cpp:137] Memory required for data: 175200084
I1116 03:04:11.297032 42685 layer_factory.hpp:77] Creating layer relu1_1
I1116 03:04:11.297044 42685 net.cpp:84] Creating Layer relu1_1
I1116 03:04:11.297049 42685 net.cpp:406] relu1_1 <- conv1_1
I1116 03:04:11.297056 42685 net.cpp:367] relu1_1 -> conv1_1 (in-place)
I1116 03:04:11.297310 42685 net.cpp:122] Setting up relu1_1
I1116 03:04:11.297319 42685 net.cpp:129] Top shape: 1 64 600 1000 (38400000)
I1116 03:04:11.297323 42685 net.cpp:137] Memory required for data: 328800084
I1116 03:04:11.297327 42685 layer_factory.hpp:77] Creating layer conv1_2_W_prime
I1116 03:04:11.297338 42685 net.cpp:84] Creating Layer conv1_2_W_prime
I1116 03:04:11.297341 42685 net.cpp:406] conv1_2_W_prime <- conv1_1
I1116 03:04:11.297348 42685 net.cpp:380] conv1_2_W_prime -> conv1_2_W_prime
I1116 03:04:11.310708 42685 net.cpp:122] Setting up conv1_2_W_prime
I1116 03:04:11.310744 42685 net.cpp:129] Top shape: 1 11 600 1000 (6600000)
I1116 03:04:11.310750 42685 net.cpp:137] Memory required for data: 355200084
I1116 03:04:11.310770 42685 layer_factory.hpp:77] Creating layer conv1_2_P
I1116 03:04:11.310791 42685 net.cpp:84] Creating Layer conv1_2_P
I1116 03:04:11.310798 42685 net.cpp:406] conv1_2_P <- conv1_2_W_prime
I1116 03:04:11.310809 42685 net.cpp:380] conv1_2_P -> conv1_2_P
I1116 03:04:11.327920 42685 net.cpp:122] Setting up conv1_2_P
I1116 03:04:11.327952 42685 net.cpp:129] Top shape: 1 64 600 1000 (38400000)
I1116 03:04:11.327960 42685 net.cpp:137] Memory required for data: 508800084
I1116 03:04:11.327978 42685 layer_factory.hpp:77] Creating layer relu1_2
I1116 03:04:11.327996 42685 net.cpp:84] Creating Layer relu1_2
I1116 03:04:11.328002 42685 net.cpp:406] relu1_2 <- conv1_2_P
I1116 03:04:11.328011 42685 net.cpp:367] relu1_2 -> conv1_2_P (in-place)
I1116 03:04:11.328402 42685 net.cpp:122] Setting up relu1_2
I1116 03:04:11.328418 42685 net.cpp:129] Top shape: 1 64 600 1000 (38400000)
I1116 03:04:11.328423 42685 net.cpp:137] Memory required for data: 662400084
I1116 03:04:11.328428 42685 layer_factory.hpp:77] Creating layer pool1
I1116 03:04:11.328439 42685 net.cpp:84] Creating Layer pool1
I1116 03:04:11.328446 42685 net.cpp:406] pool1 <- conv1_2_P
I1116 03:04:11.328455 42685 net.cpp:380] pool1 -> pool1
I1116 03:04:11.328572 42685 net.cpp:122] Setting up pool1
I1116 03:04:11.328583 42685 net.cpp:129] Top shape: 1 64 300 500 (9600000)
I1116 03:04:11.328588 42685 net.cpp:137] Memory required for data: 700800084
I1116 03:04:11.328593 42685 layer_factory.hpp:77] Creating layer conv2_1_W_prime
I1116 03:04:11.328606 42685 net.cpp:84] Creating Layer conv2_1_W_prime
I1116 03:04:11.328611 42685 net.cpp:406] conv2_1_W_prime <- pool1
I1116 03:04:11.328621 42685 net.cpp:380] conv2_1_W_prime -> conv2_1_W_prime
I1116 03:04:11.337574 42685 net.cpp:122] Setting up conv2_1_W_prime
I1116 03:04:11.337605 42685 net.cpp:129] Top shape: 1 25 300 500 (3750000)
I1116 03:04:11.337611 42685 net.cpp:137] Memory required for data: 715800084
I1116 03:04:11.337625 42685 layer_factory.hpp:77] Creating layer conv2_1_P
I1116 03:04:11.337646 42685 net.cpp:84] Creating Layer conv2_1_P
I1116 03:04:11.337651 42685 net.cpp:406] conv2_1_P <- conv2_1_W_prime
I1116 03:04:11.337662 42685 net.cpp:380] conv2_1_P -> conv2_1_P
I1116 03:04:11.344856 42685 net.cpp:122] Setting up conv2_1_P
I1116 03:04:11.344889 42685 net.cpp:129] Top shape: 1 128 300 500 (19200000)
I1116 03:04:11.344895 42685 net.cpp:137] Memory required for data: 792600084
I1116 03:04:11.344913 42685 layer_factory.hpp:77] Creating layer relu2_1
I1116 03:04:11.344924 42685 net.cpp:84] Creating Layer relu2_1
I1116 03:04:11.344930 42685 net.cpp:406] relu2_1 <- conv2_1_P
I1116 03:04:11.344941 42685 net.cpp:367] relu2_1 -> conv2_1_P (in-place)
I1116 03:04:11.346246 42685 net.cpp:122] Setting up relu2_1
I1116 03:04:11.346271 42685 net.cpp:129] Top shape: 1 128 300 500 (19200000)
I1116 03:04:11.346276 42685 net.cpp:137] Memory required for data: 869400084
I1116 03:04:11.346282 42685 layer_factory.hpp:77] Creating layer conv2_2_W_prime
I1116 03:04:11.346297 42685 net.cpp:84] Creating Layer conv2_2_W_prime
I1116 03:04:11.346303 42685 net.cpp:406] conv2_2_W_prime <- conv2_1_P
I1116 03:04:11.346316 42685 net.cpp:380] conv2_2_W_prime -> conv2_2_W_prime
I1116 03:04:11.354022 42685 net.cpp:122] Setting up conv2_2_W_prime
I1116 03:04:11.354050 42685 net.cpp:129] Top shape: 1 28 300 500 (4200000)
I1116 03:04:11.354056 42685 net.cpp:137] Memory required for data: 886200084
I1116 03:04:11.354068 42685 layer_factory.hpp:77] Creating layer conv2_2_P
I1116 03:04:11.354089 42685 net.cpp:84] Creating Layer conv2_2_P
I1116 03:04:11.354095 42685 net.cpp:406] conv2_2_P <- conv2_2_W_prime
I1116 03:04:11.354107 42685 net.cpp:380] conv2_2_P -> conv2_2_P
I1116 03:04:11.364861 42685 net.cpp:122] Setting up conv2_2_P
I1116 03:04:11.364890 42685 net.cpp:129] Top shape: 1 128 300 500 (19200000)
I1116 03:04:11.364897 42685 net.cpp:137] Memory required for data: 963000084
I1116 03:04:11.364909 42685 layer_factory.hpp:77] Creating layer relu2_2
I1116 03:04:11.364918 42685 net.cpp:84] Creating Layer relu2_2
I1116 03:04:11.364924 42685 net.cpp:406] relu2_2 <- conv2_2_P
I1116 03:04:11.364935 42685 net.cpp:367] relu2_2 -> conv2_2_P (in-place)
I1116 03:04:11.365356 42685 net.cpp:122] Setting up relu2_2
I1116 03:04:11.365370 42685 net.cpp:129] Top shape: 1 128 300 500 (19200000)
I1116 03:04:11.365375 42685 net.cpp:137] Memory required for data: 1039800084
I1116 03:04:11.365381 42685 layer_factory.hpp:77] Creating layer pool2
I1116 03:04:11.365397 42685 net.cpp:84] Creating Layer pool2
I1116 03:04:11.365403 42685 net.cpp:406] pool2 <- conv2_2_P
I1116 03:04:11.365412 42685 net.cpp:380] pool2 -> pool2
I1116 03:04:11.365535 42685 net.cpp:122] Setting up pool2
I1116 03:04:11.365550 42685 net.cpp:129] Top shape: 1 128 150 250 (4800000)
I1116 03:04:11.365555 42685 net.cpp:137] Memory required for data: 1059000084
I1116 03:04:11.365558 42685 layer_factory.hpp:77] Creating layer conv3_1_W_prime
I1116 03:04:11.365568 42685 net.cpp:84] Creating Layer conv3_1_W_prime
I1116 03:04:11.365574 42685 net.cpp:406] conv3_1_W_prime <- pool2
I1116 03:04:11.365584 42685 net.cpp:380] conv3_1_W_prime -> conv3_1_W_prime
I1116 03:04:11.369731 42685 net.cpp:122] Setting up conv3_1_W_prime
I1116 03:04:11.369758 42685 net.cpp:129] Top shape: 1 52 150 250 (1950000)
I1116 03:04:11.369765 42685 net.cpp:137] Memory required for data: 1066800084
I1116 03:04:11.369776 42685 layer_factory.hpp:77] Creating layer conv3_1_P
I1116 03:04:11.369794 42685 net.cpp:84] Creating Layer conv3_1_P
I1116 03:04:11.369801 42685 net.cpp:406] conv3_1_P <- conv3_1_W_prime
I1116 03:04:11.369814 42685 net.cpp:380] conv3_1_P -> conv3_1_P
I1116 03:04:11.373095 42685 net.cpp:122] Setting up conv3_1_P
I1116 03:04:11.373122 42685 net.cpp:129] Top shape: 1 256 150 250 (9600000)
I1116 03:04:11.373128 42685 net.cpp:137] Memory required for data: 1105200084
I1116 03:04:11.373147 42685 layer_factory.hpp:77] Creating layer relu3_1
I1116 03:04:11.373160 42685 net.cpp:84] Creating Layer relu3_1
I1116 03:04:11.373167 42685 net.cpp:406] relu3_1 <- conv3_1_P
I1116 03:04:11.373175 42685 net.cpp:367] relu3_1 -> conv3_1_P (in-place)
I1116 03:04:11.373545 42685 net.cpp:122] Setting up relu3_1
I1116 03:04:11.373561 42685 net.cpp:129] Top shape: 1 256 150 250 (9600000)
I1116 03:04:11.373566 42685 net.cpp:137] Memory required for data: 1143600084
I1116 03:04:11.373571 42685 layer_factory.hpp:77] Creating layer conv3_2_W_prime
I1116 03:04:11.373582 42685 net.cpp:84] Creating Layer conv3_2_W_prime
I1116 03:04:11.373589 42685 net.cpp:406] conv3_2_W_prime <- conv3_1_P
I1116 03:04:11.373600 42685 net.cpp:380] conv3_2_W_prime -> conv3_2_W_prime
I1116 03:04:11.378980 42685 net.cpp:122] Setting up conv3_2_W_prime
I1116 03:04:11.379009 42685 net.cpp:129] Top shape: 1 46 150 250 (1725000)
I1116 03:04:11.379014 42685 net.cpp:137] Memory required for data: 1150500084
I1116 03:04:11.379025 42685 layer_factory.hpp:77] Creating layer conv3_2_P
I1116 03:04:11.379043 42685 net.cpp:84] Creating Layer conv3_2_P
I1116 03:04:11.379050 42685 net.cpp:406] conv3_2_P <- conv3_2_W_prime
I1116 03:04:11.379065 42685 net.cpp:380] conv3_2_P -> conv3_2_P
I1116 03:04:11.382242 42685 net.cpp:122] Setting up conv3_2_P
I1116 03:04:11.382267 42685 net.cpp:129] Top shape: 1 256 150 250 (9600000)
I1116 03:04:11.382273 42685 net.cpp:137] Memory required for data: 1188900084
I1116 03:04:11.382284 42685 layer_factory.hpp:77] Creating layer relu3_2
I1116 03:04:11.382297 42685 net.cpp:84] Creating Layer relu3_2
I1116 03:04:11.382302 42685 net.cpp:406] relu3_2 <- conv3_2_P
I1116 03:04:11.382311 42685 net.cpp:367] relu3_2 -> conv3_2_P (in-place)
I1116 03:04:11.385462 42685 net.cpp:122] Setting up relu3_2
I1116 03:04:11.385490 42685 net.cpp:129] Top shape: 1 256 150 250 (9600000)
I1116 03:04:11.385496 42685 net.cpp:137] Memory required for data: 1227300084
I1116 03:04:11.385504 42685 layer_factory.hpp:77] Creating layer conv3_3_W_prime
I1116 03:04:11.385519 42685 net.cpp:84] Creating Layer conv3_3_W_prime
I1116 03:04:11.385525 42685 net.cpp:406] conv3_3_W_prime <- conv3_2_P
I1116 03:04:11.385538 42685 net.cpp:380] conv3_3_W_prime -> conv3_3_W_prime
I1116 03:04:11.389572 42685 net.cpp:122] Setting up conv3_3_W_prime
I1116 03:04:11.389598 42685 net.cpp:129] Top shape: 1 56 150 250 (2100000)
I1116 03:04:11.389603 42685 net.cpp:137] Memory required for data: 1235700084
I1116 03:04:11.389614 42685 layer_factory.hpp:77] Creating layer conv3_3_P
I1116 03:04:11.389632 42685 net.cpp:84] Creating Layer conv3_3_P
I1116 03:04:11.389638 42685 net.cpp:406] conv3_3_P <- conv3_3_W_prime
I1116 03:04:11.389650 42685 net.cpp:380] conv3_3_P -> conv3_3_P
I1116 03:04:11.392758 42685 net.cpp:122] Setting up conv3_3_P
I1116 03:04:11.392784 42685 net.cpp:129] Top shape: 1 256 150 250 (9600000)
I1116 03:04:11.392789 42685 net.cpp:137] Memory required for data: 1274100084
I1116 03:04:11.392801 42685 layer_factory.hpp:77] Creating layer relu3_3
I1116 03:04:11.392812 42685 net.cpp:84] Creating Layer relu3_3
I1116 03:04:11.392818 42685 net.cpp:406] relu3_3 <- conv3_3_P
I1116 03:04:11.392827 42685 net.cpp:367] relu3_3 -> conv3_3_P (in-place)
I1116 03:04:11.393173 42685 net.cpp:122] Setting up relu3_3
I1116 03:04:11.393187 42685 net.cpp:129] Top shape: 1 256 150 250 (9600000)
I1116 03:04:11.393191 42685 net.cpp:137] Memory required for data: 1312500084
I1116 03:04:11.393196 42685 layer_factory.hpp:77] Creating layer pool3
I1116 03:04:11.393208 42685 net.cpp:84] Creating Layer pool3
I1116 03:04:11.393213 42685 net.cpp:406] pool3 <- conv3_3_P
I1116 03:04:11.393221 42685 net.cpp:380] pool3 -> pool3
I1116 03:04:11.393334 42685 net.cpp:122] Setting up pool3
I1116 03:04:11.393344 42685 net.cpp:129] Top shape: 1 256 75 125 (2400000)
I1116 03:04:11.393348 42685 net.cpp:137] Memory required for data: 1322100084
I1116 03:04:11.393353 42685 layer_factory.hpp:77] Creating layer conv4_1_W_prime
I1116 03:04:11.393364 42685 net.cpp:84] Creating Layer conv4_1_W_prime
I1116 03:04:11.393369 42685 net.cpp:406] conv4_1_W_prime <- pool3
I1116 03:04:11.393379 42685 net.cpp:380] conv4_1_W_prime -> conv4_1_W_prime
I1116 03:04:11.406190 42685 net.cpp:122] Setting up conv4_1_W_prime
I1116 03:04:11.406224 42685 net.cpp:129] Top shape: 1 104 75 125 (975000)
I1116 03:04:11.406230 42685 net.cpp:137] Memory required for data: 1326000084
I1116 03:04:11.406253 42685 layer_factory.hpp:77] Creating layer conv4_1_P
I1116 03:04:11.406271 42685 net.cpp:84] Creating Layer conv4_1_P
I1116 03:04:11.406276 42685 net.cpp:406] conv4_1_P <- conv4_1_W_prime
I1116 03:04:11.406288 42685 net.cpp:380] conv4_1_P -> conv4_1_P
I1116 03:04:11.410882 42685 net.cpp:122] Setting up conv4_1_P
I1116 03:04:11.410907 42685 net.cpp:129] Top shape: 1 512 75 125 (4800000)
I1116 03:04:11.410912 42685 net.cpp:137] Memory required for data: 1345200084
I1116 03:04:11.410923 42685 layer_factory.hpp:77] Creating layer relu4_1
I1116 03:04:11.410930 42685 net.cpp:84] Creating Layer relu4_1
I1116 03:04:11.410936 42685 net.cpp:406] relu4_1 <- conv4_1_P
I1116 03:04:11.410946 42685 net.cpp:367] relu4_1 -> conv4_1_P (in-place)
I1116 03:04:11.411293 42685 net.cpp:122] Setting up relu4_1
I1116 03:04:11.411306 42685 net.cpp:129] Top shape: 1 512 75 125 (4800000)
I1116 03:04:11.411310 42685 net.cpp:137] Memory required for data: 1364400084
I1116 03:04:11.411315 42685 layer_factory.hpp:77] Creating layer conv4_2_W_prime
I1116 03:04:11.411327 42685 net.cpp:84] Creating Layer conv4_2_W_prime
I1116 03:04:11.411332 42685 net.cpp:406] conv4_2_W_prime <- conv4_1_P
I1116 03:04:11.411343 42685 net.cpp:380] conv4_2_W_prime -> conv4_2_W_prime
I1116 03:04:11.419251 42685 net.cpp:122] Setting up conv4_2_W_prime
I1116 03:04:11.419278 42685 net.cpp:129] Top shape: 1 92 75 125 (862500)
I1116 03:04:11.419284 42685 net.cpp:137] Memory required for data: 1367850084
I1116 03:04:11.419296 42685 layer_factory.hpp:77] Creating layer conv4_2_P
I1116 03:04:11.419312 42685 net.cpp:84] Creating Layer conv4_2_P
I1116 03:04:11.419317 42685 net.cpp:406] conv4_2_P <- conv4_2_W_prime
I1116 03:04:11.419327 42685 net.cpp:380] conv4_2_P -> conv4_2_P
I1116 03:04:11.424898 42685 net.cpp:122] Setting up conv4_2_P
I1116 03:04:11.424922 42685 net.cpp:129] Top shape: 1 512 75 125 (4800000)
I1116 03:04:11.424927 42685 net.cpp:137] Memory required for data: 1387050084
I1116 03:04:11.424945 42685 layer_factory.hpp:77] Creating layer relu4_2
I1116 03:04:11.424967 42685 net.cpp:84] Creating Layer relu4_2
I1116 03:04:11.424973 42685 net.cpp:406] relu4_2 <- conv4_2_P
I1116 03:04:11.424980 42685 net.cpp:367] relu4_2 -> conv4_2_P (in-place)
I1116 03:04:11.425285 42685 net.cpp:122] Setting up relu4_2
I1116 03:04:11.425298 42685 net.cpp:129] Top shape: 1 512 75 125 (4800000)
I1116 03:04:11.425302 42685 net.cpp:137] Memory required for data: 1406250084
I1116 03:04:11.425307 42685 layer_factory.hpp:77] Creating layer conv4_3_W_prime
I1116 03:04:11.425318 42685 net.cpp:84] Creating Layer conv4_3_W_prime
I1116 03:04:11.425323 42685 net.cpp:406] conv4_3_W_prime <- conv4_2_P
I1116 03:04:11.425330 42685 net.cpp:380] conv4_3_W_prime -> conv4_3_W_prime
I1116 03:04:11.432320 42685 net.cpp:122] Setting up conv4_3_W_prime
I1116 03:04:11.432343 42685 net.cpp:129] Top shape: 1 100 75 125 (937500)
I1116 03:04:11.432349 42685 net.cpp:137] Memory required for data: 1410000084
I1116 03:04:11.432359 42685 layer_factory.hpp:77] Creating layer conv4_3_P
I1116 03:04:11.432375 42685 net.cpp:84] Creating Layer conv4_3_P
I1116 03:04:11.432380 42685 net.cpp:406] conv4_3_P <- conv4_3_W_prime
I1116 03:04:11.432394 42685 net.cpp:380] conv4_3_P -> conv4_3_P
I1116 03:04:11.437571 42685 net.cpp:122] Setting up conv4_3_P
I1116 03:04:11.437592 42685 net.cpp:129] Top shape: 1 512 75 125 (4800000)
I1116 03:04:11.437597 42685 net.cpp:137] Memory required for data: 1429200084
I1116 03:04:11.437608 42685 layer_factory.hpp:77] Creating layer relu4_3
I1116 03:04:11.437618 42685 net.cpp:84] Creating Layer relu4_3
I1116 03:04:11.437623 42685 net.cpp:406] relu4_3 <- conv4_3_P
I1116 03:04:11.437629 42685 net.cpp:367] relu4_3 -> conv4_3_P (in-place)
I1116 03:04:11.438809 42685 net.cpp:122] Setting up relu4_3
I1116 03:04:11.438832 42685 net.cpp:129] Top shape: 1 512 75 125 (4800000)
I1116 03:04:11.438835 42685 net.cpp:137] Memory required for data: 1448400084
I1116 03:04:11.438840 42685 layer_factory.hpp:77] Creating layer pool4
I1116 03:04:11.438849 42685 net.cpp:84] Creating Layer pool4
I1116 03:04:11.438854 42685 net.cpp:406] pool4 <- conv4_3_P
I1116 03:04:11.438861 42685 net.cpp:380] pool4 -> pool4
I1116 03:04:11.438969 42685 net.cpp:122] Setting up pool4
I1116 03:04:11.438979 42685 net.cpp:129] Top shape: 1 512 38 63 (1225728)
I1116 03:04:11.438982 42685 net.cpp:137] Memory required for data: 1453302996
I1116 03:04:11.438987 42685 layer_factory.hpp:77] Creating layer conv5_1_W_prime
I1116 03:04:11.438997 42685 net.cpp:84] Creating Layer conv5_1_W_prime
I1116 03:04:11.439002 42685 net.cpp:406] conv5_1_W_prime <- pool4
I1116 03:04:11.439010 42685 net.cpp:380] conv5_1_W_prime -> conv5_1_W_prime
I1116 03:04:11.450248 42685 net.cpp:122] Setting up conv5_1_W_prime
I1116 03:04:11.450271 42685 net.cpp:129] Top shape: 1 232 38 63 (555408)
I1116 03:04:11.450278 42685 net.cpp:137] Memory required for data: 1455524628
I1116 03:04:11.450287 42685 layer_factory.hpp:77] Creating layer conv5_1_P
I1116 03:04:11.450304 42685 net.cpp:84] Creating Layer conv5_1_P
I1116 03:04:11.450310 42685 net.cpp:406] conv5_1_P <- conv5_1_W_prime
I1116 03:04:11.450320 42685 net.cpp:380] conv5_1_P -> conv5_1_P
I1116 03:04:11.455142 42685 net.cpp:122] Setting up conv5_1_P
I1116 03:04:11.455163 42685 net.cpp:129] Top shape: 1 512 38 63 (1225728)
I1116 03:04:11.455168 42685 net.cpp:137] Memory required for data: 1460427540
I1116 03:04:11.455178 42685 layer_factory.hpp:77] Creating layer relu5_1
I1116 03:04:11.455185 42685 net.cpp:84] Creating Layer relu5_1
I1116 03:04:11.455189 42685 net.cpp:406] relu5_1 <- conv5_1_P
I1116 03:04:11.455196 42685 net.cpp:367] relu5_1 -> conv5_1_P (in-place)
I1116 03:04:11.455504 42685 net.cpp:122] Setting up relu5_1
I1116 03:04:11.455516 42685 net.cpp:129] Top shape: 1 512 38 63 (1225728)
I1116 03:04:11.455519 42685 net.cpp:137] Memory required for data: 1465330452
I1116 03:04:11.455523 42685 layer_factory.hpp:77] Creating layer conv5_2_W_prime
I1116 03:04:11.455535 42685 net.cpp:84] Creating Layer conv5_2_W_prime
I1116 03:04:11.455539 42685 net.cpp:406] conv5_2_W_prime <- conv5_1_P
I1116 03:04:11.455546 42685 net.cpp:380] conv5_2_W_prime -> conv5_2_W_prime
I1116 03:04:11.468524 42685 net.cpp:122] Setting up conv5_2_W_prime
I1116 03:04:11.468547 42685 net.cpp:129] Top shape: 1 224 38 63 (536256)
I1116 03:04:11.468551 42685 net.cpp:137] Memory required for data: 1467475476
I1116 03:04:11.468559 42685 layer_factory.hpp:77] Creating layer conv5_2_P
I1116 03:04:11.468575 42685 net.cpp:84] Creating Layer conv5_2_P
I1116 03:04:11.468581 42685 net.cpp:406] conv5_2_P <- conv5_2_W_prime
I1116 03:04:11.468591 42685 net.cpp:380] conv5_2_P -> conv5_2_P
I1116 03:04:11.472622 42685 net.cpp:122] Setting up conv5_2_P
I1116 03:04:11.472642 42685 net.cpp:129] Top shape: 1 512 38 63 (1225728)
I1116 03:04:11.472647 42685 net.cpp:137] Memory required for data: 1472378388
I1116 03:04:11.472656 42685 layer_factory.hpp:77] Creating layer relu5_2
I1116 03:04:11.472666 42685 net.cpp:84] Creating Layer relu5_2
I1116 03:04:11.472671 42685 net.cpp:406] relu5_2 <- conv5_2_P
I1116 03:04:11.472677 42685 net.cpp:367] relu5_2 -> conv5_2_P (in-place)
I1116 03:04:11.472968 42685 net.cpp:122] Setting up relu5_2
I1116 03:04:11.472980 42685 net.cpp:129] Top shape: 1 512 38 63 (1225728)
I1116 03:04:11.472982 42685 net.cpp:137] Memory required for data: 1477281300
I1116 03:04:11.472987 42685 layer_factory.hpp:77] Creating layer conv5_3_W_prime
I1116 03:04:11.472998 42685 net.cpp:84] Creating Layer conv5_3_W_prime
I1116 03:04:11.473006 42685 net.cpp:406] conv5_3_W_prime <- conv5_2_P
I1116 03:04:11.473011 42685 net.cpp:380] conv5_3_W_prime -> conv5_3_W_prime
I1116 03:04:11.484899 42685 net.cpp:122] Setting up conv5_3_W_prime
I1116 03:04:11.484923 42685 net.cpp:129] Top shape: 1 214 38 63 (512316)
I1116 03:04:11.484928 42685 net.cpp:137] Memory required for data: 1479330564
I1116 03:04:11.484936 42685 layer_factory.hpp:77] Creating layer conv5_3_P
I1116 03:04:11.484952 42685 net.cpp:84] Creating Layer conv5_3_P
I1116 03:04:11.484956 42685 net.cpp:406] conv5_3_P <- conv5_3_W_prime
I1116 03:04:11.484966 42685 net.cpp:380] conv5_3_P -> conv5_3_P
I1116 03:04:11.488745 42685 net.cpp:122] Setting up conv5_3_P
I1116 03:04:11.488765 42685 net.cpp:129] Top shape: 1 512 38 63 (1225728)
I1116 03:04:11.488770 42685 net.cpp:137] Memory required for data: 1484233476
I1116 03:04:11.488777 42685 layer_factory.hpp:77] Creating layer relu5_3
I1116 03:04:11.488785 42685 net.cpp:84] Creating Layer relu5_3
I1116 03:04:11.488790 42685 net.cpp:406] relu5_3 <- conv5_3_P
I1116 03:04:11.488797 42685 net.cpp:367] relu5_3 -> conv5_3_P (in-place)
I1116 03:04:11.489905 42685 net.cpp:122] Setting up relu5_3
I1116 03:04:11.489923 42685 net.cpp:129] Top shape: 1 512 38 63 (1225728)
I1116 03:04:11.489928 42685 net.cpp:137] Memory required for data: 1489136388
I1116 03:04:11.489933 42685 layer_factory.hpp:77] Creating layer conv5_3_P_relu5_3_0_split
I1116 03:04:11.489939 42685 net.cpp:84] Creating Layer conv5_3_P_relu5_3_0_split
I1116 03:04:11.489943 42685 net.cpp:406] conv5_3_P_relu5_3_0_split <- conv5_3_P
I1116 03:04:11.489953 42685 net.cpp:380] conv5_3_P_relu5_3_0_split -> conv5_3_P_relu5_3_0_split_0
I1116 03:04:11.489964 42685 net.cpp:380] conv5_3_P_relu5_3_0_split -> conv5_3_P_relu5_3_0_split_1
I1116 03:04:11.490061 42685 net.cpp:122] Setting up conv5_3_P_relu5_3_0_split
I1116 03:04:11.490069 42685 net.cpp:129] Top shape: 1 512 38 63 (1225728)
I1116 03:04:11.490074 42685 net.cpp:129] Top shape: 1 512 38 63 (1225728)
I1116 03:04:11.490077 42685 net.cpp:137] Memory required for data: 1498942212
I1116 03:04:11.490080 42685 layer_factory.hpp:77] Creating layer rpn_conv/3x3
I1116 03:04:11.490095 42685 net.cpp:84] Creating Layer rpn_conv/3x3
I1116 03:04:11.490100 42685 net.cpp:406] rpn_conv/3x3 <- conv5_3_P_relu5_3_0_split_0
I1116 03:04:11.490108 42685 net.cpp:380] rpn_conv/3x3 -> rpn/output
I1116 03:04:11.529446 42685 net.cpp:122] Setting up rpn_conv/3x3
I1116 03:04:11.529479 42685 net.cpp:129] Top shape: 1 512 38 63 (1225728)
I1116 03:04:11.529482 42685 net.cpp:137] Memory required for data: 1503845124
I1116 03:04:11.529491 42685 layer_factory.hpp:77] Creating layer rpn_relu/3x3
I1116 03:04:11.529502 42685 net.cpp:84] Creating Layer rpn_relu/3x3
I1116 03:04:11.529506 42685 net.cpp:406] rpn_relu/3x3 <- rpn/output
I1116 03:04:11.529517 42685 net.cpp:367] rpn_relu/3x3 -> rpn/output (in-place)
I1116 03:04:11.529786 42685 net.cpp:122] Setting up rpn_relu/3x3
I1116 03:04:11.529798 42685 net.cpp:129] Top shape: 1 512 38 63 (1225728)
I1116 03:04:11.529800 42685 net.cpp:137] Memory required for data: 1508748036
I1116 03:04:11.529804 42685 layer_factory.hpp:77] Creating layer rpn/output_rpn_relu/3x3_0_split
I1116 03:04:11.529814 42685 net.cpp:84] Creating Layer rpn/output_rpn_relu/3x3_0_split
I1116 03:04:11.529817 42685 net.cpp:406] rpn/output_rpn_relu/3x3_0_split <- rpn/output
I1116 03:04:11.529824 42685 net.cpp:380] rpn/output_rpn_relu/3x3_0_split -> rpn/output_rpn_relu/3x3_0_split_0
I1116 03:04:11.529839 42685 net.cpp:380] rpn/output_rpn_relu/3x3_0_split -> rpn/output_rpn_relu/3x3_0_split_1
I1116 03:04:11.529927 42685 net.cpp:122] Setting up rpn/output_rpn_relu/3x3_0_split
I1116 03:04:11.529933 42685 net.cpp:129] Top shape: 1 512 38 63 (1225728)
I1116 03:04:11.529937 42685 net.cpp:129] Top shape: 1 512 38 63 (1225728)
I1116 03:04:11.529940 42685 net.cpp:137] Memory required for data: 1518553860
I1116 03:04:11.529943 42685 layer_factory.hpp:77] Creating layer rpn_cls_score
I1116 03:04:11.529958 42685 net.cpp:84] Creating Layer rpn_cls_score
I1116 03:04:11.529963 42685 net.cpp:406] rpn_cls_score <- rpn/output_rpn_relu/3x3_0_split_0
I1116 03:04:11.529969 42685 net.cpp:380] rpn_cls_score -> rpn_cls_score
I1116 03:04:11.532232 42685 net.cpp:122] Setting up rpn_cls_score
I1116 03:04:11.532250 42685 net.cpp:129] Top shape: 1 18 38 63 (43092)
I1116 03:04:11.532254 42685 net.cpp:137] Memory required for data: 1518726228
I1116 03:04:11.532263 42685 layer_factory.hpp:77] Creating layer rpn_cls_score_rpn_cls_score_0_split
I1116 03:04:11.532269 42685 net.cpp:84] Creating Layer rpn_cls_score_rpn_cls_score_0_split
I1116 03:04:11.532271 42685 net.cpp:406] rpn_cls_score_rpn_cls_score_0_split <- rpn_cls_score
I1116 03:04:11.532279 42685 net.cpp:380] rpn_cls_score_rpn_cls_score_0_split -> rpn_cls_score_rpn_cls_score_0_split_0
I1116 03:04:11.532289 42685 net.cpp:380] rpn_cls_score_rpn_cls_score_0_split -> rpn_cls_score_rpn_cls_score_0_split_1
I1116 03:04:11.532366 42685 net.cpp:122] Setting up rpn_cls_score_rpn_cls_score_0_split
I1116 03:04:11.532371 42685 net.cpp:129] Top shape: 1 18 38 63 (43092)
I1116 03:04:11.532377 42685 net.cpp:129] Top shape: 1 18 38 63 (43092)
I1116 03:04:11.532379 42685 net.cpp:137] Memory required for data: 1519070964
I1116 03:04:11.532382 42685 layer_factory.hpp:77] Creating layer rpn_bbox_pred
I1116 03:04:11.532393 42685 net.cpp:84] Creating Layer rpn_bbox_pred
I1116 03:04:11.532397 42685 net.cpp:406] rpn_bbox_pred <- rpn/output_rpn_relu/3x3_0_split_1
I1116 03:04:11.532407 42685 net.cpp:380] rpn_bbox_pred -> rpn_bbox_pred
I1116 03:04:11.535380 42685 net.cpp:122] Setting up rpn_bbox_pred
I1116 03:04:11.535398 42685 net.cpp:129] Top shape: 1 36 38 63 (86184)
I1116 03:04:11.535401 42685 net.cpp:137] Memory required for data: 1519415700
I1116 03:04:11.535409 42685 layer_factory.hpp:77] Creating layer rpn_bbox_pred_rpn_bbox_pred_0_split
I1116 03:04:11.535415 42685 net.cpp:84] Creating Layer rpn_bbox_pred_rpn_bbox_pred_0_split
I1116 03:04:11.535419 42685 net.cpp:406] rpn_bbox_pred_rpn_bbox_pred_0_split <- rpn_bbox_pred
I1116 03:04:11.535428 42685 net.cpp:380] rpn_bbox_pred_rpn_bbox_pred_0_split -> rpn_bbox_pred_rpn_bbox_pred_0_split_0
I1116 03:04:11.535436 42685 net.cpp:380] rpn_bbox_pred_rpn_bbox_pred_0_split -> rpn_bbox_pred_rpn_bbox_pred_0_split_1
I1116 03:04:11.535516 42685 net.cpp:122] Setting up rpn_bbox_pred_rpn_bbox_pred_0_split
I1116 03:04:11.535523 42685 net.cpp:129] Top shape: 1 36 38 63 (86184)
I1116 03:04:11.535528 42685 net.cpp:129] Top shape: 1 36 38 63 (86184)
I1116 03:04:11.535531 42685 net.cpp:137] Memory required for data: 1520105172
I1116 03:04:11.535534 42685 layer_factory.hpp:77] Creating layer rpn_cls_score_reshape
I1116 03:04:11.535543 42685 net.cpp:84] Creating Layer rpn_cls_score_reshape
I1116 03:04:11.535547 42685 net.cpp:406] rpn_cls_score_reshape <- rpn_cls_score_rpn_cls_score_0_split_0
I1116 03:04:11.535553 42685 net.cpp:380] rpn_cls_score_reshape -> rpn_cls_score_reshape
I1116 03:04:11.535600 42685 net.cpp:122] Setting up rpn_cls_score_reshape
I1116 03:04:11.535607 42685 net.cpp:129] Top shape: 1 2 342 63 (43092)
I1116 03:04:11.535609 42685 net.cpp:137] Memory required for data: 1520277540
I1116 03:04:11.535614 42685 layer_factory.hpp:77] Creating layer rpn_cls_score_reshape_rpn_cls_score_reshape_0_split
I1116 03:04:11.535619 42685 net.cpp:84] Creating Layer rpn_cls_score_reshape_rpn_cls_score_reshape_0_split
I1116 03:04:11.535621 42685 net.cpp:406] rpn_cls_score_reshape_rpn_cls_score_reshape_0_split <- rpn_cls_score_reshape
I1116 03:04:11.535629 42685 net.cpp:380] rpn_cls_score_reshape_rpn_cls_score_reshape_0_split -> rpn_cls_score_reshape_rpn_cls_score_reshape_0_split_0
I1116 03:04:11.535636 42685 net.cpp:380] rpn_cls_score_reshape_rpn_cls_score_reshape_0_split -> rpn_cls_score_reshape_rpn_cls_score_reshape_0_split_1
I1116 03:04:11.535703 42685 net.cpp:122] Setting up rpn_cls_score_reshape_rpn_cls_score_reshape_0_split
I1116 03:04:11.535709 42685 net.cpp:129] Top shape: 1 2 342 63 (43092)
I1116 03:04:11.535713 42685 net.cpp:129] Top shape: 1 2 342 63 (43092)
I1116 03:04:11.535717 42685 net.cpp:137] Memory required for data: 1520622276
I1116 03:04:11.535719 42685 layer_factory.hpp:77] Creating layer rpn-data
I1116 03:04:11.558931 42685 net.cpp:84] Creating Layer rpn-data
I1116 03:04:11.558954 42685 net.cpp:406] rpn-data <- rpn_cls_score_rpn_cls_score_0_split_1
I1116 03:04:11.558965 42685 net.cpp:406] rpn-data <- gt_boxes_input-data_2_split_0
I1116 03:04:11.558974 42685 net.cpp:406] rpn-data <- im_info_input-data_1_split_0
I1116 03:04:11.558980 42685 net.cpp:406] rpn-data <- data_input-data_0_split_1
I1116 03:04:11.558990 42685 net.cpp:380] rpn-data -> rpn_labels
I1116 03:04:11.559005 42685 net.cpp:380] rpn-data -> rpn_bbox_targets
I1116 03:04:11.559017 42685 net.cpp:380] rpn-data -> rpn_bbox_inside_weights
I1116 03:04:11.559029 42685 net.cpp:380] rpn-data -> rpn_bbox_outside_weights
I1116 03:04:11.565325 42685 net.cpp:122] Setting up rpn-data
I1116 03:04:11.565351 42685 net.cpp:129] Top shape: 1 1 342 63 (21546)
I1116 03:04:11.565359 42685 net.cpp:129] Top shape: 1 36 38 63 (86184)
I1116 03:04:11.565366 42685 net.cpp:129] Top shape: 1 36 38 63 (86184)
I1116 03:04:11.565371 42685 net.cpp:129] Top shape: 1 36 38 63 (86184)
I1116 03:04:11.565376 42685 net.cpp:137] Memory required for data: 1521742668
I1116 03:04:11.565382 42685 layer_factory.hpp:77] Creating layer rpn_loss_cls
I1116 03:04:11.565397 42685 net.cpp:84] Creating Layer rpn_loss_cls
I1116 03:04:11.565402 42685 net.cpp:406] rpn_loss_cls <- rpn_cls_score_reshape_rpn_cls_score_reshape_0_split_0
I1116 03:04:11.565412 42685 net.cpp:406] rpn_loss_cls <- rpn_labels
…
I1116 03:04:11.568295 42685 net.cpp:129] Top shape: (1)
I1116 03:04:11.568300 42685 net.cpp:132]     with loss weight 1
I1116 03:04:11.568307 42685 net.cpp:137] Memory required for data: 1521742676
I1116 03:04:11.568312 42685 layer_factory.hpp:77] Creating layer rpn_cls_prob
I1116 03:04:11.568320 42685 net.cpp:84] Creating Layer rpn_cls_prob
I1116 03:04:11.568330 42685 net.cpp:406] rpn_cls_prob <- rpn_cls_score_reshape_rpn_cls_score_reshape_0_split_1
I1116 03:04:11.568338 42685 net.cpp:380] rpn_cls_prob -> rpn_cls_prob
I1116 03:04:11.569931 42685 net.cpp:122] Setting up rpn_cls_prob
I1116 03:04:11.569954 42685 net.cpp:129] Top shape: 1 2 342 63 (43092)
I1116 03:04:11.569960 42685 net.cpp:137] Memory required for data: 1521915044
I1116 03:04:11.569965 42685 layer_factory.hpp:77] Creating layer rpn_cls_prob_reshape
I1116 03:04:11.569979 42685 net.cpp:84] Creating Layer rpn_cls_prob_reshape
I1116 03:04:11.569985 42685 net.cpp:406] rpn_cls_prob_reshape <- rpn_cls_prob
I1116 03:04:11.569995 42685 net.cpp:380] rpn_cls_prob_reshape -> rpn_cls_prob_reshape
I1116 03:04:11.570070 42685 net.cpp:122] Setting up rpn_cls_prob_reshape
I1116 03:04:11.570080 42685 net.cpp:129] Top shape: 1 18 38 63 (43092)
I1116 03:04:11.570085 42685 net.cpp:137] Memory required for data: 1522087412
I1116 03:04:11.570089 42685 layer_factory.hpp:77] Creating layer proposal
I1116 03:04:11.588528 42685 net.cpp:84] Creating Layer proposal
I1116 03:04:11.588551 42685 net.cpp:406] proposal <- rpn_cls_prob_reshape
I1116 03:04:11.588559 42685 net.cpp:406] proposal <- rpn_bbox_pred_rpn_bbox_pred_0_split_1
I1116 03:04:11.588567 42685 net.cpp:406] proposal <- im_info_input-data_1_split_1
I1116 03:04:11.588577 42685 net.cpp:380] proposal -> rpn_rois
I1116 03:04:11.591204 42685 net.cpp:122] Setting up proposal
I1116 03:04:11.591230 42685 net.cpp:129] Top shape: 1 5 (5)
I1116 03:04:11.591236 42685 net.cpp:137] Memory required for data: 1522087432
I1116 03:04:11.591243 42685 layer_factory.hpp:77] Creating layer roi-data
I1116 03:04:11.595702 42685 net.cpp:84] Creating Layer roi-data
I1116 03:04:11.595726 42685 net.cpp:406] roi-data <- rpn_rois
I1116 03:04:11.595737 42685 net.cpp:406] roi-data <- gt_boxes_input-data_2_split_1
I1116 03:04:11.595749 42685 net.cpp:380] roi-data -> rois
I1116 03:04:11.595763 42685 net.cpp:380] roi-data -> labels
I1116 03:04:11.595774 42685 net.cpp:380] roi-data -> bbox_targets
I1116 03:04:11.595785 42685 net.cpp:380] roi-data -> bbox_inside_weights
I1116 03:04:11.595809 42685 net.cpp:380] roi-data -> bbox_outside_weights
I1116 03:04:11.596698 42685 net.cpp:122] Setting up roi-data
I1116 03:04:11.596721 42685 net.cpp:129] Top shape: 1 5 (5)
I1116 03:04:11.596730 42685 net.cpp:129] Top shape: 1 1 (1)
I1116 03:04:11.596736 42685 net.cpp:129] Top shape: 1 84 (84)
I1116 03:04:11.596745 42685 net.cpp:129] Top shape: 1 84 (84)
I1116 03:04:11.596751 42685 net.cpp:129] Top shape: 1 84 (84)
I1116 03:04:11.596756 42685 net.cpp:137] Memory required for data: 1522088464
I1116 03:04:11.596762 42685 layer_factory.hpp:77] Creating layer roi_pool5
I1116 03:04:11.596772 42685 net.cpp:84] Creating Layer roi_pool5
I1116 03:04:11.596779 42685 net.cpp:406] roi_pool5 <- conv5_3_P_relu5_3_0_split_1
I1116 03:04:11.596788 42685 net.cpp:406] roi_pool5 <- rois
I1116 03:04:11.596796 42685 net.cpp:380] roi_pool5 -> pool5
I1116 03:04:11.596808 42685 roi_pooling_layer.cpp:30] Spatial scale: 0.0625
I1116 03:04:11.596933 42685 net.cpp:122] Setting up roi_pool5
I1116 03:04:11.596945 42685 net.cpp:129] Top shape: 1 512 7 7 (25088)
I1116 03:04:11.596949 42685 net.cpp:137] Memory required for data: 1522188816
I1116 03:04:11.596954 42685 layer_factory.hpp:77] Creating layer fc6
I1116 03:04:11.596981 42685 net.cpp:84] Creating Layer fc6
I1116 03:04:11.596987 42685 net.cpp:406] fc6 <- pool5
I1116 03:04:11.596997 42685 net.cpp:380] fc6 -> fc6
I1116 03:04:11.926488 42685 net.cpp:122] Setting up fc6
I1116 03:04:11.926532 42685 net.cpp:129] Top shape: 1 4096 (4096)
I1116 03:04:11.926544 42685 net.cpp:137] Memory required for data: 1522205200
I1116 03:04:11.926558 42685 layer_factory.hpp:77] Creating layer relu6
I1116 03:04:11.926568 42685 net.cpp:84] Creating Layer relu6
I1116 03:04:11.926573 42685 net.cpp:406] relu6 <- fc6
I1116 03:04:11.926580 42685 net.cpp:367] relu6 -> fc6 (in-place)
I1116 03:04:11.926950 42685 net.cpp:122] Setting up relu6
I1116 03:04:11.926960 42685 net.cpp:129] Top shape: 1 4096 (4096)
I1116 03:04:11.926962 42685 net.cpp:137] Memory required for data: 1522221584
I1116 03:04:11.926966 42685 layer_factory.hpp:77] Creating layer drop6
I1116 03:04:11.926973 42685 net.cpp:84] Creating Layer drop6
I1116 03:04:11.926976 42685 net.cpp:406] drop6 <- fc6
I1116 03:04:11.926987 42685 net.cpp:367] drop6 -> fc6 (in-place)
I1116 03:04:11.927038 42685 net.cpp:122] Setting up drop6
I1116 03:04:11.927044 42685 net.cpp:129] Top shape: 1 4096 (4096)
I1116 03:04:11.927047 42685 net.cpp:137] Memory required for data: 1522237968
I1116 03:04:11.927050 42685 layer_factory.hpp:77] Creating layer fc7
I1116 03:04:11.927057 42685 net.cpp:84] Creating Layer fc7
I1116 03:04:11.927059 42685 net.cpp:406] fc7 <- fc6
I1116 03:04:11.927067 42685 net.cpp:380] fc7 -> fc7
I1116 03:04:11.977942 42685 net.cpp:122] Setting up fc7
I1116 03:04:11.977983 42685 net.cpp:129] Top shape: 1 4096 (4096)
I1116 03:04:11.977988 42685 net.cpp:137] Memory required for data: 1522254352
I1116 03:04:11.977998 42685 layer_factory.hpp:77] Creating layer relu7
I1116 03:04:11.978008 42685 net.cpp:84] Creating Layer relu7
I1116 03:04:11.978014 42685 net.cpp:406] relu7 <- fc7
I1116 03:04:11.978024 42685 net.cpp:367] relu7 -> fc7 (in-place)
I1116 03:04:11.978360 42685 net.cpp:122] Setting up relu7
I1116 03:04:11.978368 42685 net.cpp:129] Top shape: 1 4096 (4096)
I1116 03:04:11.978371 42685 net.cpp:137] Memory required for data: 1522270736
I1116 03:04:11.978375 42685 layer_factory.hpp:77] Creating layer drop7
I1116 03:04:11.978381 42685 net.cpp:84] Creating Layer drop7
I1116 03:04:11.978385 42685 net.cpp:406] drop7 <- fc7
I1116 03:04:11.978392 42685 net.cpp:367] drop7 -> fc7 (in-place)
I1116 03:04:11.978441 42685 net.cpp:122] Setting up drop7
I1116 03:04:11.978446 42685 net.cpp:129] Top shape: 1 4096 (4096)
I1116 03:04:11.978449 42685 net.cpp:137] Memory required for data: 1522287120
I1116 03:04:11.978452 42685 layer_factory.hpp:77] Creating layer fc7_drop7_0_split
I1116 03:04:11.978461 42685 net.cpp:84] Creating Layer fc7_drop7_0_split
I1116 03:04:11.978463 42685 net.cpp:406] fc7_drop7_0_split <- fc7
I1116 03:04:11.978468 42685 net.cpp:380] fc7_drop7_0_split -> fc7_drop7_0_split_0
I1116 03:04:11.978478 42685 net.cpp:380] fc7_drop7_0_split -> fc7_drop7_0_split_1
I1116 03:04:11.978554 42685 net.cpp:122] Setting up fc7_drop7_0_split
I1116 03:04:11.978560 42685 net.cpp:129] Top shape: 1 4096 (4096)
I1116 03:04:11.978564 42685 net.cpp:129] Top shape: 1 4096 (4096)
I1116 03:04:11.978567 42685 net.cpp:137] Memory required for data: 1522319888
I1116 03:04:11.978570 42685 layer_factory.hpp:77] Creating layer cls_score
I1116 03:04:11.978579 42685 net.cpp:84] Creating Layer cls_score
I1116 03:04:11.978582 42685 net.cpp:406] cls_score <- fc7_drop7_0_split_0
I1116 03:04:11.978590 42685 net.cpp:380] cls_score -> cls_score
I1116 03:04:11.982270 42685 net.cpp:122] Setting up cls_score
I1116 03:04:11.982286 42685 net.cpp:129] Top shape: 1 21 (21)
I1116 03:04:11.982290 42685 net.cpp:137] Memory required for data: 1522319972
I1116 03:04:11.982297 42685 layer_factory.hpp:77] Creating layer bbox_pred
I1116 03:04:11.982305 42685 net.cpp:84] Creating Layer bbox_pred
I1116 03:04:11.982308 42685 net.cpp:406] bbox_pred <- fc7_drop7_0_split_1
I1116 03:04:11.982316 42685 net.cpp:380] bbox_pred -> bbox_pred
I1116 03:04:11.986275 42685 net.cpp:122] Setting up bbox_pred
I1116 03:04:11.986286 42685 net.cpp:129] Top shape: 1 84 (84)
I1116 03:04:11.986289 42685 net.cpp:137] Memory required for data: 1522320308
I1116 03:04:11.986295 42685 layer_factory.hpp:77] Creating layer loss_cls
I1116 03:04:11.986304 42685 net.cpp:84] Creating Layer loss_cls
I1116 03:04:11.986307 42685 net.cpp:406] loss_cls <- cls_score
I1116 03:04:11.986311 42685 net.cpp:406] loss_cls <- labels
I1116 03:04:11.986318 42685 net.cpp:380] loss_cls -> loss_cls
…
I1116 06:47:24.134351 54931 upgrade_proto.cpp:70] Successfully upgraded file specified using deprecated input fields.
W1116 06:47:24.134358 54931 upgrade_proto.cpp:72] Note that future Caffe releases will only support input layers and not input fields.
I1116 06:47:24.135324 54931 net.cpp:51] Initializing net from parameters: 
name: "VGG_ILSVRC_16_layers"
state {
  phase: TEST
  level: 0
}
layer {
  name: "input"
  type: "Input"
  top: "data"
  top: "im_info"
  input_param {
    shape {
      dim: 1
      dim: 3
      dim: 224
      dim: 224
    }
    shape {
      dim: 1
      dim: 3
    }
  }
}
layer {
  name: "conv1_1"
  type: "Convolution"
  bottom: "data"
  top: "conv1_1"
  param {
    lr_mult: 0
    decay_mult: 0
  }
  param {
    lr_mult: 0
    decay_mult: 0
  }
  convolution_param {
    num_output: 64
    pad: 1
    kernel_size: 3
  }
}
layer {
  name: "relu1_1"
  type: "ReLU"
  bottom: "conv1_1"
  top: "conv1_1"
}
layer {
  name: "conv1_2_W_prime"
  type: "Convolution"
  bottom: "conv1_1"
  top: "conv1_2_W_prime"
  param {
    lr_mult: 0
    decay_mult: 0
  }
  param {
    lr_mult: 0
    decay_mult: 0
  }
  convolution_param {
    num_output: 11
    pad: 1
    kernel_size: 3
  }
}
layer {
  name: "conv1_2_P"
  type: "Convolution"
  bottom: "conv1_2_W_prime"
  top: "conv1_2_P"
  param {
    lr_mult: 0
    decay_mult: 0
  }
  param {
    lr_mult: 0
    decay_mult: 0
  }
  convolution_param {
    num_output: 64
    pad: 0
    kernel_size: 1
    stride: 1
    weight_filler {
      type: "msra"
    }
    bias_filler {
      type: "constant"
      value: 0
    }
  }
}
layer {
  name: "relu1_2"
  type: "ReLU"
  bottom: "conv1_2_P"
  top: "conv1_2_P"
}
layer {
  name: "pool1"
  type: "Pooling"
  bottom: "conv1_2_P"
  top: "pool1"
  pooling_param {
    pool: MAX
    kernel_size: 2
    stride: 2
  }
}
layer {
  name: "conv2_1_W_prime"
  type: "Convolution"
  bottom: "pool1"
  top: "conv2_1_W_prime"
  param {
    lr_mult: 0
    decay_mult: 0
  }
  param {
    lr_mult: 0
    decay_mult: 0
  }
  convolution_param {
    num_output: 25
    pad: 1
    kernel_size: 3
  }
}
layer {
  name: "conv2_1_P"
  type: "Convolution"
  bottom: "conv2_1_W_prime"
  top: "conv2_1_P"
  param {
    lr_mult: 0
    decay_mult: 0
  }
  param {
    lr_mult: 0
    decay_mult: 0
  }
  convolution_param {
    num_output: 128
    pad: 0
    kernel_size: 1
    stride: 1
    weight_filler {
      type: "msra"
    }
    bias_filler {
      type: "constant"
      value: 0
    }
  }
}
layer {
  name: "relu2_1"
  type: "ReLU"
  bottom: "conv2_1_P"
  top: "conv2_1_P"
}
layer {
  name: "conv2_2_W_prime"
  type: "Convolution"
  bottom: "conv2_1_P"
  top: "conv2_2_W_prime"
  param {
    lr_mult: 0
    decay_mult: 0
  }
  param {
    lr_mult: 0
    decay_mult: 0
  }
  convolution_param {
    num_output: 28
    pad: 1
    kernel_size: 3
  }
}
layer {
  name: "conv2_2_P"
  type: "Convolution"
  bottom: "conv2_2_W_prime"
  top: "conv2_2_P"
  param {
    lr_mult: 0
    decay_mult: 0
  }
  param {
    lr_mult: 0
    decay_mult: 0
  }
  convolution_param {
    num_output: 128
    pad: 0
    kernel_size: 1
    stride: 1
    weight_filler {
      type: "msra"
    }
    bias_filler {
      type: "constant"
      value: 0
    }
  }
}
layer {
  name: "relu2_2"
  type: "ReLU"
  bottom: "conv2_2_P"
  top: "conv2_2_P"
}
layer {
  name: "pool2"
  type: "Pooling"
  bottom: "conv2_2_P"
  top: "pool2"
  pooling_param {
    pool: MAX
    kernel_size: 2
    stride: 2
  }
}
layer {
  name: "conv3_1_W_prime"
  type: "Convolution"
  bottom: "pool2"
  top: "conv3_1_W_prime"
  convolution_param {
    num_output: 52
    pad: 1
    kernel_size: 3
  }
}
layer {
  name: "conv3_1_P"
  type: "Convolution"
  bottom: "conv3_1_W_prime"
  top: "conv3_1_P"
  param {
    lr_mult: 1
  }
  param {
    lr_mult: 2
  }
  convolution_param {
    num_output: 256
    pad: 0
    kernel_size: 1
    stride: 1
    weight_filler {
      type: "msra"
    }
    bias_filler {
      type: "constant"
      value: 0
    }
  }
}
layer {
  name: "relu3_1"
  type: "ReLU"
  bottom: "conv3_1_P"
  top: "conv3_1_P"
}
layer {
  name: "conv3_2_W_prime"
  type: "Convolution"
  bottom: "conv3_1_P"
  top: "conv3_2_W_prime"
  convolution_param {
    num_output: 46
    pad: 1
    kernel_size: 3
  }
}
layer {
  name: "conv3_2_P"
  type: "Convolution"
  bottom: "conv3_2_W_prime"
  top: "conv3_2_P"
  param {
    lr_mult: 1
  }
  param {
    lr_mult: 2
  }
  convolution_param {
    num_output: 256
    pad: 0
    kernel_size: 1
    stride: 1
    weight_filler {
      type: "msra"
    }
    bias_filler {
      type: "constant"
      value: 0
    }
  }
}
layer {
  name: "relu3_2"
  type: "ReLU"
  bottom: "conv3_2_P"
  top: "conv3_2_P"
}
layer {
  name: "conv3_3_W_prime"
  type: "Convolution"
  bottom: "conv3_2_P"
  top: "conv3_3_W_prime"
  convolution_param {
    num_output: 56
    pad: 1
    kernel_size: 3
  }
}
layer {
  name: "conv3_3_P"
  type: "Convolution"
  bottom: "conv3_3_W_prime"
  top: "conv3_3_P"
  param {
    lr_mult: 1
  }
  param {
    lr_mult: 2
  }
  convolution_param {
    num_output: 256
    pad: 0
    kernel_size: 1
    stride: 1
    weight_filler {
      type: "msra"
    }
    bias_filler {
      type: "constant"
      value: 0
    }
  }
}
layer {
  name: "relu3_3"
  type: "ReLU"
  bottom: "conv3_3_P"
  top: "conv3_3_P"
}
layer {
  name: "pool3"
  type: "Pooling"
  bottom: "conv3_3_P"
  top: "pool3"
  pooling_param {
    pool: MAX
    kernel_size: 2
    stride: 2
  }
}
layer {
  name: "conv4_1_W_prime"
  type: "Convolution"
  bottom: "pool3"
  top: "conv4_1_W_prime"
  convolution_param {
    num_output: 104
    pad: 1
    kernel_size: 3
  }
}
layer {
  name: "conv4_1_P"
  type: "Convolution"
  bottom: "conv4_1_W_prime"
  top: "conv4_1_P"
  param {
    lr_mult: 1
  }
  param {
    lr_mult: 2
  }
  convolution_param {
    num_output: 512
    pad: 0
    kernel_size: 1
    stride: 1
    weight_filler {
      type: "msra"
    }
    bias_filler {
      type: "constant"
      value: 0
    }
  }
}
layer {
  name: "relu4_1"
  type: "ReLU"
  bottom: "conv4_1_P"
  top: "conv4_1_P"
}
layer {
  name: "conv4_2_W_prime"
  type: "Convolution"
  bottom: "conv4_1_P"
  top: "conv4_2_W_prime"
  convolution_param {
    num_output: 92
    pad: 1
    kernel_size: 3
  }
}
layer {
  name: "conv4_2_P"
  type: "Convolution"
  bottom: "conv4_2_W_prime"
  top: "conv4_2_P"
  param {
    lr_mult: 1
  }
  param {
    lr_mult: 2
  }
  convolution_param {
    num_output: 512
    pad: 0
    kernel_size: 1
    stride: 1
    weight_filler {
      type: "msra"
    }
    bias_filler {
      type: "constant"
      value: 0
    }
  }
}
layer {
  name: "relu4_2"
  type: "ReLU"
  bottom: "conv4_2_P"
  top: "conv4_2_P"
}
layer {
  name: "conv4_3_W_prime"
  type: "Convolution"
  bottom: "conv4_2_P"
  top: "conv4_3_W_prime"
  convolution_param {
    num_output: 100
    pad: 1
    kernel_size: 3
  }
}
layer {
  name: "conv4_3_P"
  type: "Convolution"
  bottom: "conv4_3_W_prime"
  top: "conv4_3_P"
  param {
    lr_mult: 1
  }
  param {
    lr_mult: 2
  }
  convolution_param {
    num_output: 512
    pad: 0
    kernel_size: 1
    stride: 1
    weight_filler {
      type: "msra"
    }
    bias_filler {
      type: "constant"
      value: 0
    }
  }
}
layer {
  name: "relu4_3"
  type: "ReLU"
  bottom: "conv4_3_P"
  top: "conv4_3_P"
}
layer {
  name: "pool4"
  type: "Pooling"
  bottom: "conv4_3_P"
  top: "pool4"
  pooling_param {
    pool: MAX
    kernel_size: 2
    stride: 2
  }
}
layer {
  name: "conv5_1_W_prime"
  type: "Convolution"
  bottom: "pool4"
  top: "conv5_1_W_prime"
  convolution_param {
    num_output: 232
    pad: 1
    kernel_size: 3
  }
}
layer {
  name: "conv5_1_P"
  type: "Convolution"
  bottom: "conv5_1_W_prime"
  top: "conv5_1_P"
  param {
    lr_mult: 1
  }
  param {
    lr_mult: 2
  }
  convolution_param {
    num_output: 512
    pad: 0
    kernel_size: 1
    stride: 1
    weight_filler {
      type: "msra"
    }
    bias_filler {
      type: "constant"
      value: 0
    }
  }
}
layer {
  name: "relu5_1"
  type: "ReLU"
  bottom: "conv5_1_P"
  top: "conv5_1_P"
}
layer {
  name: "conv5_2_W_prime"
  type: "Convolution"
  bottom: "conv5_1_P"
  top: "conv5_2_W_prime"
  convolution_param {
    num_output: 224
    pad: 1
    kernel_size: 3
  }
}
layer {
  name: "conv5_2_P"
  type: "Convolution"
  bottom: "conv5_2_W_prime"
  top: "conv5_2_P"
  param {
    lr_mult: 1
  }
  param {
    lr_mult: 2
  }
  convolution_param {
    num_output: 512
    pad: 0
    kernel_size: 1
    stride: 1
    weight_filler {
      type: "msra"
    }
    bias_filler {
      type: "constant"
      value: 0
    }
  }
}
layer {
  name: "relu5_2"
  type: "ReLU"
  bottom: "conv5_2_P"
  top: "conv5_2_P"
}
layer {
  name: "conv5_3_W_prime"
  type: "Convolution"
  bottom: "conv5_2_P"
  top: "conv5_3_W_prime"
  convolution_param {
    num_output: 214
    pad: 1
    kernel_size: 3
  }
}
layer {
  name: "conv5_3_P"
  type: "Convolution"
  bottom: "conv5_3_W_prime"
  top: "conv5_3_P"
  param {
    lr_mult: 1
  }
  param {
    lr_mult: 2
  }
  convolution_param {
    num_output: 512
    pad: 0
    kernel_size: 1
    stride: 1
    weight_filler {
      type: "msra"
    }
    bias_filler {
      type: "constant"
      value: 0
    }
  }
}
layer {
  name: "relu5_3"
  type: "ReLU"
  bottom: "conv5_3_P"
  top: "conv5_3_P"
}
layer {
  name: "rpn_conv/3x3"
  type: "Convolution"
  bottom: "conv5_3_P"
  top: "rpn/output"
  param {
    lr_mult: 1
    decay_mult: 1
  }
  param {
    lr_mult: 2
    decay_mult: 0
  }
  convolution_param {
    num_output: 512
    pad: 1
    kernel_size: 3
    stride: 1
    weight_filler {
      type: "gaussian"
      std: 0.01
    }
    bias_filler {
      type: "constant"
      value: 0
    }
  }
}
layer {
  name: "rpn_relu/3x3"
  type: "ReLU"
  bottom: "rpn/output"
  top: "rpn/output"
}
layer {
  name: "rpn_cls_score"
  type: "Convolution"
  bottom: "rpn/output"
  top: "rpn_cls_score"
  param {
    lr_mult: 1
    decay_mult: 1
  }
  param {
    lr_mult: 2
    decay_mult: 0
  }
  convolution_param {
    num_output: 18
    pad: 0
    kernel_size: 1
    stride: 1
    weight_filler {
      type: "gaussian"
      std: 0.01
    }
    bias_filler {
      type: "constant"
      value: 0
    }
  }
}
layer {
  name: "rpn_bbox_pred"
  type: "Convolution"
  bottom: "rpn/output"
  top: "rpn_bbox_pred"
  param {
    lr_mult: 1
    decay_mult: 1
  }
  param {
    lr_mult: 2
    decay_mult: 0
  }
  convolution_param {
    num_output: 36
    pad: 0
    kernel_size: 1
    stride: 1
    weight_filler {
      type: "gaussian"
      std: 0.01
    }
    bias_filler {
      type: "constant"
      value: 0
    }
  }
}
layer {
  name: "rpn_cls_score_reshape"
  type: "Reshape"
  bottom: "rpn_cls_score"
  top: "rpn_cls_score_reshape"
  reshape_param {
    shape {
      dim: 0
      dim: 2
      dim: -1
      dim: 0
    }
  }
}
layer {
  name: "rpn_cls_prob"
  type: "Softmax"
  bottom: "rpn_cls_score_reshape"
  top: "rpn_cls_prob"
}
layer {
  name: "rpn_cls_prob_reshape"
  type: "Reshape"
  bottom: "rpn_cls_prob"
  top: "rpn_cls_prob_reshape"
  reshape_param {
    shape {
      dim: 0
      dim: 18
      dim: -1
      dim: 0
    }
  }
}
layer {
  name: "proposal"
  type: "Python"
  bottom: "rpn_cls_prob_reshape"
  bottom: "rpn_bbox_pred"
  bottom: "im_info"
  top: "rois"
  python_param {
    module: "rpn.proposal_layer"
    layer: "ProposalLayer"
    param_str: "\'feat_stride\': 16"
  }
}
layer {
  name: "roi_pool5"
  type: "ROIPooling"
  bottom: "conv5_3_P"
  bottom: "rois"
  top: "pool5"
  roi_pooling_param {
    pooled_h: 7
    pooled_w: 7
    spatial_scale: 0.0625
  }
}
layer {
  name: "fc6"
  type: "InnerProduct"
  bottom: "pool5"
  top: "fc6"
  param {
    lr_mult: 1
    decay_mult: 1
  }
  param {
    lr_mult: 2
    decay_mult: 0
  }
  inner_product_param {
    num_output: 4096
  }
}
layer {
  name: "relu6"
  type: "ReLU"
  bottom: "fc6"
  top: "fc6"
}
layer {
  name: "drop6"
  type: "Dropout"
  bottom: "fc6"
  top: "fc6"
  dropout_param {
    dropout_ratio: 0.5
  }
}
layer {
  name: "fc7"
  type: "InnerProduct"
  bottom: "fc6"
  top: "fc7"
  param {
    lr_mult: 1
    decay_mult: 1
  }
  param {
    lr_mult: 2
    decay_mult: 0
  }
  inner_product_param {
    num_output: 4096
  }
}
layer {
  name: "relu7"
  type: "ReLU"
  bottom: "fc7"
  top: "fc7"
}
layer {
  name: "drop7"
  type: "Dropout"
  bottom: "fc7"
  top: "fc7"
  dropout_param {
    dropout_ratio: 0.5
  }
}
layer {
  name: "cls_score"
  type: "InnerProduct"
  bottom: "fc7"
  top: "cls_score"
  param {
    lr_mult: 1
    decay_mult: 1
  }
  param {
    lr_mult: 2
    decay_mult: 0
  }
  inner_product_param {
    num_output: 21
    weight_filler {
      type: "gaussian"
      std: 0.01
    }
    bias_filler {
      type: "constant"
      value: 0
    }
  }
}
layer {
  name: "bbox_pred"
  type: "InnerProduct"
  bottom: "fc7"
  top: "bbox_pred"
  param {
    lr_mult: 1
    decay_mult: 1
  }
  param {
    lr_mult: 2
    decay_mult: 0
  }
  inner_product_param {
    num_output: 84
    weight_filler {
      type: "gaussian"
      std: 0.001
    }
    bias_filler {
      type: "constant"
      value: 0
    }
  }
}
layer {
  name: "cls_prob"
  type: "Softmax"
  bottom: "cls_score"
  top: "cls_prob"
}
I1116 06:47:24.135732 54931 layer_factory.hpp:77] Creating layer input
I1116 06:47:24.135777 54931 net.cpp:84] Creating Layer input
I1116 06:47:24.135794 54931 net.cpp:380] input -> data
I1116 06:47:24.135812 54931 net.cpp:380] input -> im_info
I1116 06:47:24.211717 54931 net.cpp:122] Setting up input
I1116 06:47:24.211760 54931 net.cpp:129] Top shape: 1 3 224 224 (150528)
I1116 06:47:24.211771 54931 net.cpp:129] Top shape: 1 3 (3)
I1116 06:47:24.211776 54931 net.cpp:137] Memory required for data: 602124
I1116 06:47:24.211786 54931 layer_factory.hpp:77] Creating layer conv1_1
I1116 06:47:24.211807 54931 net.cpp:84] Creating Layer conv1_1
I1116 06:47:24.211812 54931 net.cpp:406] conv1_1 <- data
I1116 06:47:24.211824 54931 net.cpp:380] conv1_1 -> conv1_1
I1116 06:47:25.017885 54931 net.cpp:122] Setting up conv1_1
I1116 06:47:25.017940 54931 net.cpp:129] Top shape: 1 64 224 224 (3211264)
I1116 06:47:25.017948 54931 net.cpp:137] Memory required for data: 13447180
I1116 06:47:25.017992 54931 layer_factory.hpp:77] Creating layer relu1_1
I1116 06:47:25.018033 54931 net.cpp:84] Creating Layer relu1_1
I1116 06:47:25.018041 54931 net.cpp:406] relu1_1 <- conv1_1
I1116 06:47:25.018054 54931 net.cpp:367] relu1_1 -> conv1_1 (in-place)
I1116 06:47:25.018532 54931 net.cpp:122] Setting up relu1_1
I1116 06:47:25.018548 54931 net.cpp:129] Top shape: 1 64 224 224 (3211264)
I1116 06:47:25.018553 54931 net.cpp:137] Memory required for data: 26292236
I1116 06:47:25.018560 54931 layer_factory.hpp:77] Creating layer conv1_2_W_prime
I1116 06:47:25.018592 54931 net.cpp:84] Creating Layer conv1_2_W_prime
I1116 06:47:25.018599 54931 net.cpp:406] conv1_2_W_prime <- conv1_1
I1116 06:47:25.018611 54931 net.cpp:380] conv1_2_W_prime -> conv1_2_W_prime
I1116 06:47:25.027627 54931 net.cpp:122] Setting up conv1_2_W_prime
I1116 06:47:25.027671 54931 net.cpp:129] Top shape: 1 11 224 224 (551936)
I1116 06:47:25.027678 54931 net.cpp:137] Memory required for data: 28499980
I1116 06:47:25.027700 54931 layer_factory.hpp:77] Creating layer conv1_2_P
I1116 06:47:25.027727 54931 net.cpp:84] Creating Layer conv1_2_P
I1116 06:47:25.027734 54931 net.cpp:406] conv1_2_P <- conv1_2_W_prime
I1116 06:47:25.027747 54931 net.cpp:380] conv1_2_P -> conv1_2_P
I1116 06:47:25.035158 54931 net.cpp:122] Setting up conv1_2_P
I1116 06:47:25.035185 54931 net.cpp:129] Top shape: 1 64 224 224 (3211264)
I1116 06:47:25.035192 54931 net.cpp:137] Memory required for data: 41345036
I1116 06:47:25.035208 54931 layer_factory.hpp:77] Creating layer relu1_2
I1116 06:47:25.035220 54931 net.cpp:84] Creating Layer relu1_2
I1116 06:47:25.035226 54931 net.cpp:406] relu1_2 <- conv1_2_P
I1116 06:47:25.035235 54931 net.cpp:367] relu1_2 -> conv1_2_P (in-place)
I1116 06:47:25.035557 54931 net.cpp:122] Setting up relu1_2
I1116 06:47:25.035581 54931 net.cpp:129] Top shape: 1 64 224 224 (3211264)
I1116 06:47:25.035588 54931 net.cpp:137] Memory required for data: 54190092
I1116 06:47:25.035593 54931 layer_factory.hpp:77] Creating layer pool1
I1116 06:47:25.035603 54931 net.cpp:84] Creating Layer pool1
I1116 06:47:25.035607 54931 net.cpp:406] pool1 <- conv1_2_P
I1116 06:47:25.035616 54931 net.cpp:380] pool1 -> pool1
I1116 06:47:25.035720 54931 net.cpp:122] Setting up pool1
I1116 06:47:25.035729 54931 net.cpp:129] Top shape: 1 64 112 112 (802816)
I1116 06:47:25.035733 54931 net.cpp:137] Memory required for data: 57401356
I1116 06:47:25.035738 54931 layer_factory.hpp:77] Creating layer conv2_1_W_prime
I1116 06:47:25.035750 54931 net.cpp:84] Creating Layer conv2_1_W_prime
I1116 06:47:25.035755 54931 net.cpp:406] conv2_1_W_prime <- pool1
I1116 06:47:25.035763 54931 net.cpp:380] conv2_1_W_prime -> conv2_1_W_prime
I1116 06:47:25.038417 54931 net.cpp:122] Setting up conv2_1_W_prime
I1116 06:47:25.038441 54931 net.cpp:129] Top shape: 1 25 112 112 (313600)
I1116 06:47:25.038447 54931 net.cpp:137] Memory required for data: 58655756
I1116 06:47:25.038458 54931 layer_factory.hpp:77] Creating layer conv2_1_P
I1116 06:47:25.038476 54931 net.cpp:84] Creating Layer conv2_1_P
I1116 06:47:25.038482 54931 net.cpp:406] conv2_1_P <- conv2_1_W_prime
I1116 06:47:25.038493 54931 net.cpp:380] conv2_1_P -> conv2_1_P
I1116 06:47:25.043380 54931 net.cpp:122] Setting up conv2_1_P
I1116 06:47:25.043406 54931 net.cpp:129] Top shape: 1 128 112 112 (1605632)
I1116 06:47:25.043412 54931 net.cpp:137] Memory required for data: 65078284
I1116 06:47:25.043429 54931 layer_factory.hpp:77] Creating layer relu2_1
I1116 06:47:25.043439 54931 net.cpp:84] Creating Layer relu2_1
I1116 06:47:25.043445 54931 net.cpp:406] relu2_1 <- conv2_1_P
I1116 06:47:25.043453 54931 net.cpp:367] relu2_1 -> conv2_1_P (in-place)
I1116 06:47:25.044631 54931 net.cpp:122] Setting up relu2_1
I1116 06:47:25.044652 54931 net.cpp:129] Top shape: 1 128 112 112 (1605632)
I1116 06:47:25.044658 54931 net.cpp:137] Memory required for data: 71500812
I1116 06:47:25.044664 54931 layer_factory.hpp:77] Creating layer conv2_2_W_prime
I1116 06:47:25.044678 54931 net.cpp:84] Creating Layer conv2_2_W_prime
I1116 06:47:25.044683 54931 net.cpp:406] conv2_2_W_prime <- conv2_1_P
I1116 06:47:25.044693 54931 net.cpp:380] conv2_2_W_prime -> conv2_2_W_prime
I1116 06:47:25.047358 54931 net.cpp:122] Setting up conv2_2_W_prime
I1116 06:47:25.047381 54931 net.cpp:129] Top shape: 1 28 112 112 (351232)
I1116 06:47:25.047386 54931 net.cpp:137] Memory required for data: 72905740
I1116 06:47:25.047397 54931 layer_factory.hpp:77] Creating layer conv2_2_P
I1116 06:47:25.047412 54931 net.cpp:84] Creating Layer conv2_2_P
I1116 06:47:25.047418 54931 net.cpp:406] conv2_2_P <- conv2_2_W_prime
I1116 06:47:25.047427 54931 net.cpp:380] conv2_2_P -> conv2_2_P
I1116 06:47:25.049937 54931 net.cpp:122] Setting up conv2_2_P
I1116 06:47:25.049959 54931 net.cpp:129] Top shape: 1 128 112 112 (1605632)
I1116 06:47:25.049964 54931 net.cpp:137] Memory required for data: 79328268
I1116 06:47:25.049975 54931 layer_factory.hpp:77] Creating layer relu2_2
I1116 06:47:25.049984 54931 net.cpp:84] Creating Layer relu2_2
I1116 06:47:25.049989 54931 net.cpp:406] relu2_2 <- conv2_2_P
I1116 06:47:25.049998 54931 net.cpp:367] relu2_2 -> conv2_2_P (in-place)
I1116 06:47:25.050289 54931 net.cpp:122] Setting up relu2_2
I1116 06:47:25.050302 54931 net.cpp:129] Top shape: 1 128 112 112 (1605632)
I1116 06:47:25.050305 54931 net.cpp:137] Memory required for data: 85750796
I1116 06:47:25.050310 54931 layer_factory.hpp:77] Creating layer pool2
I1116 06:47:25.050318 54931 net.cpp:84] Creating Layer pool2
I1116 06:47:25.050324 54931 net.cpp:406] pool2 <- conv2_2_P
I1116 06:47:25.050333 54931 net.cpp:380] pool2 -> pool2
I1116 06:47:25.050424 54931 net.cpp:122] Setting up pool2
I1116 06:47:25.050433 54931 net.cpp:129] Top shape: 1 128 56 56 (401408)
I1116 06:47:25.050438 54931 net.cpp:137] Memory required for data: 87356428
I1116 06:47:25.050442 54931 layer_factory.hpp:77] Creating layer conv3_1_W_prime
I1116 06:47:25.050453 54931 net.cpp:84] Creating Layer conv3_1_W_prime
I1116 06:47:25.050457 54931 net.cpp:406] conv3_1_W_prime <- pool2
I1116 06:47:25.050465 54931 net.cpp:380] conv3_1_W_prime -> conv3_1_W_prime
I1116 06:47:25.057948 54931 net.cpp:122] Setting up conv3_1_W_prime
I1116 06:47:25.057976 54931 net.cpp:129] Top shape: 1 52 56 56 (163072)
I1116 06:47:25.057981 54931 net.cpp:137] Memory required for data: 88008716
I1116 06:47:25.057992 54931 layer_factory.hpp:77] Creating layer conv3_1_P
I1116 06:47:25.058008 54931 net.cpp:84] Creating Layer conv3_1_P
I1116 06:47:25.058013 54931 net.cpp:406] conv3_1_P <- conv3_1_W_prime
I1116 06:47:25.058024 54931 net.cpp:380] conv3_1_P -> conv3_1_P
I1116 06:47:25.060770 54931 net.cpp:122] Setting up conv3_1_P
I1116 06:47:25.060794 54931 net.cpp:129] Top shape: 1 256 56 56 (802816)
I1116 06:47:25.060801 54931 net.cpp:137] Memory required for data: 91219980
I1116 06:47:25.060817 54931 layer_factory.hpp:77] Creating layer relu3_1
I1116 06:47:25.060830 54931 net.cpp:84] Creating Layer relu3_1
I1116 06:47:25.060835 54931 net.cpp:406] relu3_1 <- conv3_1_P
I1116 06:47:25.060843 54931 net.cpp:367] relu3_1 -> conv3_1_P (in-place)
I1116 06:47:25.061146 54931 net.cpp:122] Setting up relu3_1
I1116 06:47:25.061161 54931 net.cpp:129] Top shape: 1 256 56 56 (802816)
I1116 06:47:25.061166 54931 net.cpp:137] Memory required for data: 94431244
I1116 06:47:25.061170 54931 layer_factory.hpp:77] Creating layer conv3_2_W_prime
I1116 06:47:25.061182 54931 net.cpp:84] Creating Layer conv3_2_W_prime
I1116 06:47:25.061187 54931 net.cpp:406] conv3_2_W_prime <- conv3_1_P
I1116 06:47:25.061195 54931 net.cpp:380] conv3_2_W_prime -> conv3_2_W_prime
I1116 06:47:25.067319 54931 net.cpp:122] Setting up conv3_2_W_prime
I1116 06:47:25.067344 54931 net.cpp:129] Top shape: 1 46 56 56 (144256)
I1116 06:47:25.067350 54931 net.cpp:137] Memory required for data: 95008268
I1116 06:47:25.067361 54931 layer_factory.hpp:77] Creating layer conv3_2_P
I1116 06:47:25.067376 54931 net.cpp:84] Creating Layer conv3_2_P
I1116 06:47:25.067382 54931 net.cpp:406] conv3_2_P <- conv3_2_W_prime
I1116 06:47:25.067392 54931 net.cpp:380] conv3_2_P -> conv3_2_P
I1116 06:47:25.071709 54931 net.cpp:122] Setting up conv3_2_P
I1116 06:47:25.071734 54931 net.cpp:129] Top shape: 1 256 56 56 (802816)
I1116 06:47:25.071740 54931 net.cpp:137] Memory required for data: 98219532
I1116 06:47:25.071751 54931 layer_factory.hpp:77] Creating layer relu3_2
I1116 06:47:25.071760 54931 net.cpp:84] Creating Layer relu3_2
I1116 06:47:25.071765 54931 net.cpp:406] relu3_2 <- conv3_2_P
I1116 06:47:25.071774 54931 net.cpp:367] relu3_2 -> conv3_2_P (in-place)
I1116 06:47:25.072985 54931 net.cpp:122] Setting up relu3_2
I1116 06:47:25.073007 54931 net.cpp:129] Top shape: 1 256 56 56 (802816)
I1116 06:47:25.073012 54931 net.cpp:137] Memory required for data: 101430796
I1116 06:47:25.073017 54931 layer_factory.hpp:77] Creating layer conv3_3_W_prime
I1116 06:47:25.073029 54931 net.cpp:84] Creating Layer conv3_3_W_prime
I1116 06:47:25.073035 54931 net.cpp:406] conv3_3_W_prime <- conv3_2_P
I1116 06:47:25.073043 54931 net.cpp:380] conv3_3_W_prime -> conv3_3_W_prime
I1116 06:47:25.076359 54931 net.cpp:122] Setting up conv3_3_W_prime
I1116 06:47:25.076381 54931 net.cpp:129] Top shape: 1 56 56 56 (175616)
I1116 06:47:25.076386 54931 net.cpp:137] Memory required for data: 102133260
I1116 06:47:25.076396 54931 layer_factory.hpp:77] Creating layer conv3_3_P
I1116 06:47:25.076411 54931 net.cpp:84] Creating Layer conv3_3_P
I1116 06:47:25.076417 54931 net.cpp:406] conv3_3_P <- conv3_3_W_prime
I1116 06:47:25.076426 54931 net.cpp:380] conv3_3_P -> conv3_3_P
I1116 06:47:25.079073 54931 net.cpp:122] Setting up conv3_3_P
I1116 06:47:25.079097 54931 net.cpp:129] Top shape: 1 256 56 56 (802816)
I1116 06:47:25.079102 54931 net.cpp:137] Memory required for data: 105344524
I1116 06:47:25.079113 54931 layer_factory.hpp:77] Creating layer relu3_3
I1116 06:47:25.079121 54931 net.cpp:84] Creating Layer relu3_3
I1116 06:47:25.079126 54931 net.cpp:406] relu3_3 <- conv3_3_P
I1116 06:47:25.079135 54931 net.cpp:367] relu3_3 -> conv3_3_P (in-place)
I1116 06:47:25.079424 54931 net.cpp:122] Setting up relu3_3
I1116 06:47:25.079435 54931 net.cpp:129] Top shape: 1 256 56 56 (802816)
I1116 06:47:25.079439 54931 net.cpp:137] Memory required for data: 108555788
I1116 06:47:25.079444 54931 layer_factory.hpp:77] Creating layer pool3
I1116 06:47:25.079453 54931 net.cpp:84] Creating Layer pool3
I1116 06:47:25.079457 54931 net.cpp:406] pool3 <- conv3_3_P
I1116 06:47:25.079465 54931 net.cpp:380] pool3 -> pool3
I1116 06:47:25.079556 54931 net.cpp:122] Setting up pool3
I1116 06:47:25.079565 54931 net.cpp:129] Top shape: 1 256 28 28 (200704)
I1116 06:47:25.079568 54931 net.cpp:137] Memory required for data: 109358604
I1116 06:47:25.079572 54931 layer_factory.hpp:77] Creating layer conv4_1_W_prime
I1116 06:47:25.079582 54931 net.cpp:84] Creating Layer conv4_1_W_prime
I1116 06:47:25.079587 54931 net.cpp:406] conv4_1_W_prime <- pool3
I1116 06:47:25.079594 54931 net.cpp:380] conv4_1_W_prime -> conv4_1_W_prime
I1116 06:47:25.084794 54931 net.cpp:122] Setting up conv4_1_W_prime
I1116 06:47:25.084817 54931 net.cpp:129] Top shape: 1 104 28 28 (81536)
I1116 06:47:25.084822 54931 net.cpp:137] Memory required for data: 109684748
I1116 06:47:25.084833 54931 layer_factory.hpp:77] Creating layer conv4_1_P
I1116 06:47:25.084846 54931 net.cpp:84] Creating Layer conv4_1_P
I1116 06:47:25.084852 54931 net.cpp:406] conv4_1_P <- conv4_1_W_prime
I1116 06:47:25.084861 54931 net.cpp:380] conv4_1_P -> conv4_1_P
I1116 06:47:25.088134 54931 net.cpp:122] Setting up conv4_1_P
I1116 06:47:25.088155 54931 net.cpp:129] Top shape: 1 512 28 28 (401408)
I1116 06:47:25.088160 54931 net.cpp:137] Memory required for data: 111290380
I1116 06:47:25.088168 54931 layer_factory.hpp:77] Creating layer relu4_1
I1116 06:47:25.088176 54931 net.cpp:84] Creating Layer relu4_1
I1116 06:47:25.088181 54931 net.cpp:406] relu4_1 <- conv4_1_P
I1116 06:47:25.088191 54931 net.cpp:367] relu4_1 -> conv4_1_P (in-place)
I1116 06:47:25.088485 54931 net.cpp:122] Setting up relu4_1
I1116 06:47:25.088495 54931 net.cpp:129] Top shape: 1 512 28 28 (401408)
I1116 06:47:25.088500 54931 net.cpp:137] Memory required for data: 112896012
I1116 06:47:25.088503 54931 layer_factory.hpp:77] Creating layer conv4_2_W_prime
I1116 06:47:25.088515 54931 net.cpp:84] Creating Layer conv4_2_W_prime
I1116 06:47:25.088520 54931 net.cpp:406] conv4_2_W_prime <- conv4_1_P
I1116 06:47:25.088529 54931 net.cpp:380] conv4_2_W_prime -> conv4_2_W_prime
I1116 06:47:25.094787 54931 net.cpp:122] Setting up conv4_2_W_prime
I1116 06:47:25.094807 54931 net.cpp:129] Top shape: 1 92 28 28 (72128)
I1116 06:47:25.094812 54931 net.cpp:137] Memory required for data: 113184524
I1116 06:47:25.094821 54931 layer_factory.hpp:77] Creating layer conv4_2_P
I1116 06:47:25.094835 54931 net.cpp:84] Creating Layer conv4_2_P
I1116 06:47:25.094841 54931 net.cpp:406] conv4_2_P <- conv4_2_W_prime
I1116 06:47:25.094851 54931 net.cpp:380] conv4_2_P -> conv4_2_P
I1116 06:47:25.098557 54931 net.cpp:122] Setting up conv4_2_P
I1116 06:47:25.098582 54931 net.cpp:129] Top shape: 1 512 28 28 (401408)
I1116 06:47:25.098585 54931 net.cpp:137] Memory required for data: 114790156
I1116 06:47:25.098603 54931 layer_factory.hpp:77] Creating layer relu4_2
I1116 06:47:25.098613 54931 net.cpp:84] Creating Layer relu4_2
I1116 06:47:25.098618 54931 net.cpp:406] relu4_2 <- conv4_2_P
I1116 06:47:25.098624 54931 net.cpp:367] relu4_2 -> conv4_2_P (in-place)
I1116 06:47:25.098911 54931 net.cpp:122] Setting up relu4_2
I1116 06:47:25.098924 54931 net.cpp:129] Top shape: 1 512 28 28 (401408)
I1116 06:47:25.098929 54931 net.cpp:137] Memory required for data: 116395788
I1116 06:47:25.098932 54931 layer_factory.hpp:77] Creating layer conv4_3_W_prime
I1116 06:47:25.098942 54931 net.cpp:84] Creating Layer conv4_3_W_prime
I1116 06:47:25.098947 54931 net.cpp:406] conv4_3_W_prime <- conv4_2_P
I1116 06:47:25.098955 54931 net.cpp:380] conv4_3_W_prime -> conv4_3_W_prime
I1116 06:47:25.110270 54931 net.cpp:122] Setting up conv4_3_W_prime
I1116 06:47:25.110292 54931 net.cpp:129] Top shape: 1 100 28 28 (78400)
I1116 06:47:25.110296 54931 net.cpp:137] Memory required for data: 116709388
I1116 06:47:25.110306 54931 layer_factory.hpp:77] Creating layer conv4_3_P
I1116 06:47:25.110322 54931 net.cpp:84] Creating Layer conv4_3_P
I1116 06:47:25.110327 54931 net.cpp:406] conv4_3_P <- conv4_3_W_prime
I1116 06:47:25.110335 54931 net.cpp:380] conv4_3_P -> conv4_3_P
I1116 06:47:25.113407 54931 net.cpp:122] Setting up conv4_3_P
I1116 06:47:25.113430 54931 net.cpp:129] Top shape: 1 512 28 28 (401408)
I1116 06:47:25.113435 54931 net.cpp:137] Memory required for data: 118315020
I1116 06:47:25.113443 54931 layer_factory.hpp:77] Creating layer relu4_3
I1116 06:47:25.113458 54931 net.cpp:84] Creating Layer relu4_3
I1116 06:47:25.113462 54931 net.cpp:406] relu4_3 <- conv4_3_P
I1116 06:47:25.113469 54931 net.cpp:367] relu4_3 -> conv4_3_P (in-place)
I1116 06:47:25.114657 54931 net.cpp:122] Setting up relu4_3
I1116 06:47:25.114679 54931 net.cpp:129] Top shape: 1 512 28 28 (401408)
I1116 06:47:25.114683 54931 net.cpp:137] Memory required for data: 119920652
I1116 06:47:25.114688 54931 layer_factory.hpp:77] Creating layer pool4
I1116 06:47:25.114696 54931 net.cpp:84] Creating Layer pool4
I1116 06:47:25.114701 54931 net.cpp:406] pool4 <- conv4_3_P
I1116 06:47:25.114708 54931 net.cpp:380] pool4 -> pool4
I1116 06:47:25.114804 54931 net.cpp:122] Setting up pool4
I1116 06:47:25.114814 54931 net.cpp:129] Top shape: 1 512 14 14 (100352)
I1116 06:47:25.114817 54931 net.cpp:137] Memory required for data: 120322060
I1116 06:47:25.114820 54931 layer_factory.hpp:77] Creating layer conv5_1_W_prime
I1116 06:47:25.114828 54931 net.cpp:84] Creating Layer conv5_1_W_prime
I1116 06:47:25.114832 54931 net.cpp:406] conv5_1_W_prime <- pool4
I1116 06:47:25.114840 54931 net.cpp:380] conv5_1_W_prime -> conv5_1_W_prime
I1116 06:47:25.123766 54931 net.cpp:122] Setting up conv5_1_W_prime
I1116 06:47:25.123787 54931 net.cpp:129] Top shape: 1 232 14 14 (45472)
I1116 06:47:25.123791 54931 net.cpp:137] Memory required for data: 120503948
I1116 06:47:25.123800 54931 layer_factory.hpp:77] Creating layer conv5_1_P
I1116 06:47:25.123816 54931 net.cpp:84] Creating Layer conv5_1_P
I1116 06:47:25.123821 54931 net.cpp:406] conv5_1_P <- conv5_1_W_prime
I1116 06:47:25.123828 54931 net.cpp:380] conv5_1_P -> conv5_1_P
I1116 06:47:25.132732 54931 net.cpp:122] Setting up conv5_1_P
I1116 06:47:25.132756 54931 net.cpp:129] Top shape: 1 512 14 14 (100352)
I1116 06:47:25.132761 54931 net.cpp:137] Memory required for data: 120905356
I1116 06:47:25.132768 54931 layer_factory.hpp:77] Creating layer relu5_1
I1116 06:47:25.132776 54931 net.cpp:84] Creating Layer relu5_1
I1116 06:47:25.132781 54931 net.cpp:406] relu5_1 <- conv5_1_P
I1116 06:47:25.132786 54931 net.cpp:367] relu5_1 -> conv5_1_P (in-place)
I1116 06:47:25.133064 54931 net.cpp:122] Setting up relu5_1
I1116 06:47:25.133075 54931 net.cpp:129] Top shape: 1 512 14 14 (100352)
I1116 06:47:25.133078 54931 net.cpp:137] Memory required for data: 121306764
I1116 06:47:25.133082 54931 layer_factory.hpp:77] Creating layer conv5_2_W_prime
I1116 06:47:25.133090 54931 net.cpp:84] Creating Layer conv5_2_W_prime
I1116 06:47:25.133095 54931 net.cpp:406] conv5_2_W_prime <- conv5_1_P
I1116 06:47:25.133103 54931 net.cpp:380] conv5_2_W_prime -> conv5_2_W_prime
I1116 06:47:25.140310 54931 net.cpp:122] Setting up conv5_2_W_prime
I1116 06:47:25.140334 54931 net.cpp:129] Top shape: 1 224 14 14 (43904)
I1116 06:47:25.140339 54931 net.cpp:137] Memory required for data: 121482380
I1116 06:47:25.140347 54931 layer_factory.hpp:77] Creating layer conv5_2_P
I1116 06:47:25.140362 54931 net.cpp:84] Creating Layer conv5_2_P
I1116 06:47:25.140367 54931 net.cpp:406] conv5_2_P <- conv5_2_W_prime
I1116 06:47:25.140374 54931 net.cpp:380] conv5_2_P -> conv5_2_P
I1116 06:47:25.143927 54931 net.cpp:122] Setting up conv5_2_P
I1116 06:47:25.143945 54931 net.cpp:129] Top shape: 1 512 14 14 (100352)
I1116 06:47:25.143949 54931 net.cpp:137] Memory required for data: 121883788
I1116 06:47:25.143957 54931 layer_factory.hpp:77] Creating layer relu5_2
I1116 06:47:25.143965 54931 net.cpp:84] Creating Layer relu5_2
I1116 06:47:25.143968 54931 net.cpp:406] relu5_2 <- conv5_2_P
I1116 06:47:25.143975 54931 net.cpp:367] relu5_2 -> conv5_2_P (in-place)
I1116 06:47:25.144214 54931 net.cpp:122] Setting up relu5_2
I1116 06:47:25.144223 54931 net.cpp:129] Top shape: 1 512 14 14 (100352)
I1116 06:47:25.144227 54931 net.cpp:137] Memory required for data: 122285196
I1116 06:47:25.144230 54931 layer_factory.hpp:77] Creating layer conv5_3_W_prime
I1116 06:47:25.144242 54931 net.cpp:84] Creating Layer conv5_3_W_prime
I1116 06:47:25.144245 54931 net.cpp:406] conv5_3_W_prime <- conv5_2_P
I1116 06:47:25.144253 54931 net.cpp:380] conv5_3_W_prime -> conv5_3_W_prime
I1116 06:47:25.152173 54931 net.cpp:122] Setting up conv5_3_W_prime
I1116 06:47:25.152191 54931 net.cpp:129] Top shape: 1 214 14 14 (41944)
I1116 06:47:25.152195 54931 net.cpp:137] Memory required for data: 122452972
I1116 06:47:25.152204 54931 layer_factory.hpp:77] Creating layer conv5_3_P
I1116 06:47:25.152216 54931 net.cpp:84] Creating Layer conv5_3_P
I1116 06:47:25.152221 54931 net.cpp:406] conv5_3_P <- conv5_3_W_prime
I1116 06:47:25.152230 54931 net.cpp:380] conv5_3_P -> conv5_3_P
I1116 06:47:25.155654 54931 net.cpp:122] Setting up conv5_3_P
I1116 06:47:25.155673 54931 net.cpp:129] Top shape: 1 512 14 14 (100352)
I1116 06:47:25.155678 54931 net.cpp:137] Memory required for data: 122854380
I1116 06:47:25.155685 54931 layer_factory.hpp:77] Creating layer relu5_3
I1116 06:47:25.155691 54931 net.cpp:84] Creating Layer relu5_3
I1116 06:47:25.155695 54931 net.cpp:406] relu5_3 <- conv5_3_P
I1116 06:47:25.155702 54931 net.cpp:367] relu5_3 -> conv5_3_P (in-place)
I1116 06:47:25.156771 54931 net.cpp:122] Setting up relu5_3
I1116 06:47:25.156787 54931 net.cpp:129] Top shape: 1 512 14 14 (100352)
I1116 06:47:25.156790 54931 net.cpp:137] Memory required for data: 123255788
I1116 06:47:25.156795 54931 layer_factory.hpp:77] Creating layer conv5_3_P_relu5_3_0_split
I1116 06:47:25.156803 54931 net.cpp:84] Creating Layer conv5_3_P_relu5_3_0_split
I1116 06:47:25.156807 54931 net.cpp:406] conv5_3_P_relu5_3_0_split <- conv5_3_P
I1116 06:47:25.156816 54931 net.cpp:380] conv5_3_P_relu5_3_0_split -> conv5_3_P_relu5_3_0_split_0
I1116 06:47:25.156824 54931 net.cpp:380] conv5_3_P_relu5_3_0_split -> conv5_3_P_relu5_3_0_split_1
I1116 06:47:25.156915 54931 net.cpp:122] Setting up conv5_3_P_relu5_3_0_split
I1116 06:47:25.156922 54931 net.cpp:129] Top shape: 1 512 14 14 (100352)
I1116 06:47:25.156927 54931 net.cpp:129] Top shape: 1 512 14 14 (100352)
I1116 06:47:25.156931 54931 net.cpp:137] Memory required for data: 124058604
I1116 06:47:25.156934 54931 layer_factory.hpp:77] Creating layer rpn_conv/3x3
I1116 06:47:25.156945 54931 net.cpp:84] Creating Layer rpn_conv/3x3
I1116 06:47:25.156949 54931 net.cpp:406] rpn_conv/3x3 <- conv5_3_P_relu5_3_0_split_0
I1116 06:47:25.156957 54931 net.cpp:380] rpn_conv/3x3 -> rpn/output
I1116 06:47:25.217363 54931 net.cpp:122] Setting up rpn_conv/3x3
I1116 06:47:25.217407 54931 net.cpp:129] Top shape: 1 512 14 14 (100352)
I1116 06:47:25.217412 54931 net.cpp:137] Memory required for data: 124460012
I1116 06:47:25.217427 54931 layer_factory.hpp:77] Creating layer rpn_relu/3x3
I1116 06:47:25.217438 54931 net.cpp:84] Creating Layer rpn_relu/3x3
I1116 06:47:25.217444 54931 net.cpp:406] rpn_relu/3x3 <- rpn/output
I1116 06:47:25.217453 54931 net.cpp:367] rpn_relu/3x3 -> rpn/output (in-place)
I1116 06:47:25.217809 54931 net.cpp:122] Setting up rpn_relu/3x3
I1116 06:47:25.217824 54931 net.cpp:129] Top shape: 1 512 14 14 (100352)
I1116 06:47:25.217828 54931 net.cpp:137] Memory required for data: 124861420
I1116 06:47:25.217833 54931 layer_factory.hpp:77] Creating layer rpn/output_rpn_relu/3x3_0_split
I1116 06:47:25.217842 54931 net.cpp:84] Creating Layer rpn/output_rpn_relu/3x3_0_split
I1116 06:47:25.217847 54931 net.cpp:406] rpn/output_rpn_relu/3x3_0_split <- rpn/output
I1116 06:47:25.217857 54931 net.cpp:380] rpn/output_rpn_relu/3x3_0_split -> rpn/output_rpn_relu/3x3_0_split_0
I1116 06:47:25.217867 54931 net.cpp:380] rpn/output_rpn_relu/3x3_0_split -> rpn/output_rpn_relu/3x3_0_split_1
I1116 06:47:25.217993 54931 net.cpp:122] Setting up rpn/output_rpn_relu/3x3_0_split
I1116 06:47:25.218008 54931 net.cpp:129] Top shape: 1 512 14 14 (100352)
I1116 06:47:25.218014 54931 net.cpp:129] Top shape: 1 512 14 14 (100352)
I1116 06:47:25.218019 54931 net.cpp:137] Memory required for data: 125664236
I1116 06:47:25.218024 54931 layer_factory.hpp:77] Creating layer rpn_cls_score
I1116 06:47:25.218040 54931 net.cpp:84] Creating Layer rpn_cls_score
I1116 06:47:25.218045 54931 net.cpp:406] rpn_cls_score <- rpn/output_rpn_relu/3x3_0_split_0
I1116 06:47:25.218056 54931 net.cpp:380] rpn_cls_score -> rpn_cls_score
I1116 06:47:25.220993 54931 net.cpp:122] Setting up rpn_cls_score
I1116 06:47:25.221016 54931 net.cpp:129] Top shape: 1 18 14 14 (3528)
I1116 06:47:25.221022 54931 net.cpp:137] Memory required for data: 125678348
I1116 06:47:25.221032 54931 layer_factory.hpp:77] Creating layer rpn_bbox_pred
I1116 06:47:25.221050 54931 net.cpp:84] Creating Layer rpn_bbox_pred
I1116 06:47:25.221056 54931 net.cpp:406] rpn_bbox_pred <- rpn/output_rpn_relu/3x3_0_split_1
I1116 06:47:25.221068 54931 net.cpp:380] rpn_bbox_pred -> rpn_bbox_pred
I1116 06:47:25.225416 54931 net.cpp:122] Setting up rpn_bbox_pred
I1116 06:47:25.225481 54931 net.cpp:129] Top shape: 1 36 14 14 (7056)
I1116 06:47:25.225488 54931 net.cpp:137] Memory required for data: 125706572
I1116 06:47:25.225498 54931 layer_factory.hpp:77] Creating layer rpn_cls_score_reshape
I1116 06:47:25.225512 54931 net.cpp:84] Creating Layer rpn_cls_score_reshape
I1116 06:47:25.225517 54931 net.cpp:406] rpn_cls_score_reshape <- rpn_cls_score
I1116 06:47:25.225528 54931 net.cpp:380] rpn_cls_score_reshape -> rpn_cls_score_reshape
I1116 06:47:25.225602 54931 net.cpp:122] Setting up rpn_cls_score_reshape
I1116 06:47:25.225611 54931 net.cpp:129] Top shape: 1 2 126 14 (3528)
I1116 06:47:25.225616 54931 net.cpp:137] Memory required for data: 125720684
I1116 06:47:25.225620 54931 layer_factory.hpp:77] Creating layer rpn_cls_prob
I1116 06:47:25.225630 54931 net.cpp:84] Creating Layer rpn_cls_prob
I1116 06:47:25.225636 54931 net.cpp:406] rpn_cls_prob <- rpn_cls_score_reshape
I1116 06:47:25.225643 54931 net.cpp:380] rpn_cls_prob -> rpn_cls_prob
I1116 06:47:25.226146 54931 net.cpp:122] Setting up rpn_cls_prob
I1116 06:47:25.226161 54931 net.cpp:129] Top shape: 1 2 126 14 (3528)
I1116 06:47:25.226166 54931 net.cpp:137] Memory required for data: 125734796
I1116 06:47:25.226171 54931 layer_factory.hpp:77] Creating layer rpn_cls_prob_reshape
I1116 06:47:25.226179 54931 net.cpp:84] Creating Layer rpn_cls_prob_reshape
I1116 06:47:25.226184 54931 net.cpp:406] rpn_cls_prob_reshape <- rpn_cls_prob
I1116 06:47:25.226194 54931 net.cpp:380] rpn_cls_prob_reshape -> rpn_cls_prob_reshape
I1116 06:47:25.226253 54931 net.cpp:122] Setting up rpn_cls_prob_reshape
I1116 06:47:25.226260 54931 net.cpp:129] Top shape: 1 18 14 14 (3528)
I1116 06:47:25.226264 54931 net.cpp:137] Memory required for data: 125748908
I1116 06:47:25.226269 54931 layer_factory.hpp:77] Creating layer proposal
I1116 06:47:25.250270 54931 net.cpp:84] Creating Layer proposal
I1116 06:47:25.250303 54931 net.cpp:406] proposal <- rpn_cls_prob_reshape
I1116 06:47:25.250315 54931 net.cpp:406] proposal <- rpn_bbox_pred
I1116 06:47:25.250324 54931 net.cpp:406] proposal <- im_info
I1116 06:47:25.250337 54931 net.cpp:380] proposal -> rois
I1116 06:47:25.252152 54931 net.cpp:122] Setting up proposal
I1116 06:47:25.252182 54931 net.cpp:129] Top shape: 1 5 (5)
I1116 06:47:25.252188 54931 net.cpp:137] Memory required for data: 125748928
I1116 06:47:25.252195 54931 layer_factory.hpp:77] Creating layer roi_pool5
I1116 06:47:25.252215 54931 net.cpp:84] Creating Layer roi_pool5
I1116 06:47:25.252223 54931 net.cpp:406] roi_pool5 <- conv5_3_P_relu5_3_0_split_1
I1116 06:47:25.252231 54931 net.cpp:406] roi_pool5 <- rois
I1116 06:47:25.252241 54931 net.cpp:380] roi_pool5 -> pool5
I1116 06:47:25.252262 54931 roi_pooling_layer.cpp:30] Spatial scale: 0.0625
I1116 06:47:25.252414 54931 net.cpp:122] Setting up roi_pool5
I1116 06:47:25.252426 54931 net.cpp:129] Top shape: 1 512 7 7 (25088)
I1116 06:47:25.252432 54931 net.cpp:137] Memory required for data: 125849280
I1116 06:47:25.252439 54931 layer_factory.hpp:77] Creating layer fc6
I1116 06:47:25.252452 54931 net.cpp:84] Creating Layer fc6
I1116 06:47:25.252459 54931 net.cpp:406] fc6 <- pool5
I1116 06:47:25.252467 54931 net.cpp:380] fc6 -> fc6
I1116 06:47:25.570171 54931 net.cpp:122] Setting up fc6
I1116 06:47:25.570214 54931 net.cpp:129] Top shape: 1 4096 (4096)
I1116 06:47:25.570219 54931 net.cpp:137] Memory required for data: 125865664
I1116 06:47:25.570231 54931 layer_factory.hpp:77] Creating layer relu6
I1116 06:47:25.570242 54931 net.cpp:84] Creating Layer relu6
I1116 06:47:25.570246 54931 net.cpp:406] relu6 <- fc6
I1116 06:47:25.570255 54931 net.cpp:367] relu6 -> fc6 (in-place)
I1116 06:47:25.571805 54931 net.cpp:122] Setting up relu6
I1116 06:47:25.571820 54931 net.cpp:129] Top shape: 1 4096 (4096)
I1116 06:47:25.571825 54931 net.cpp:137] Memory required for data: 125882048
I1116 06:47:25.571827 54931 layer_factory.hpp:77] Creating layer drop6
I1116 06:47:25.571835 54931 net.cpp:84] Creating Layer drop6
I1116 06:47:25.571838 54931 net.cpp:406] drop6 <- fc6
I1116 06:47:25.571846 54931 net.cpp:367] drop6 -> fc6 (in-place)
I1116 06:47:25.571898 54931 net.cpp:122] Setting up drop6
I1116 06:47:25.571904 54931 net.cpp:129] Top shape: 1 4096 (4096)
I1116 06:47:25.571907 54931 net.cpp:137] Memory required for data: 125898432
I1116 06:47:25.571909 54931 layer_factory.hpp:77] Creating layer fc7
I1116 06:47:25.571919 54931 net.cpp:84] Creating Layer fc7
I1116 06:47:25.571923 54931 net.cpp:406] fc7 <- fc6
I1116 06:47:25.571928 54931 net.cpp:380] fc7 -> fc7
I1116 06:47:25.621554 54931 net.cpp:122] Setting up fc7
I1116 06:47:25.621598 54931 net.cpp:129] Top shape: 1 4096 (4096)
I1116 06:47:25.621603 54931 net.cpp:137] Memory required for data: 125914816
I1116 06:47:25.621614 54931 layer_factory.hpp:77] Creating layer relu7
I1116 06:47:25.621625 54931 net.cpp:84] Creating Layer relu7
I1116 06:47:25.621630 54931 net.cpp:406] relu7 <- fc7
I1116 06:47:25.621640 54931 net.cpp:367] relu7 -> fc7 (in-place)
I1116 06:47:25.621978 54931 net.cpp:122] Setting up relu7
I1116 06:47:25.621984 54931 net.cpp:129] Top shape: 1 4096 (4096)
I1116 06:47:25.621987 54931 net.cpp:137] Memory required for data: 125931200
I1116 06:47:25.621991 54931 layer_factory.hpp:77] Creating layer drop7
I1116 06:47:25.621997 54931 net.cpp:84] Creating Layer drop7
I1116 06:47:25.622000 54931 net.cpp:406] drop7 <- fc7
I1116 06:47:25.622006 54931 net.cpp:367] drop7 -> fc7 (in-place)
I1116 06:47:25.622054 54931 net.cpp:122] Setting up drop7
I1116 06:47:25.622059 54931 net.cpp:129] Top shape: 1 4096 (4096)
I1116 06:47:25.622061 54931 net.cpp:137] Memory required for data: 125947584
I1116 06:47:25.622066 54931 layer_factory.hpp:77] Creating layer fc7_drop7_0_split
I1116 06:47:25.622073 54931 net.cpp:84] Creating Layer fc7_drop7_0_split
I1116 06:47:25.622076 54931 net.cpp:406] fc7_drop7_0_split <- fc7
I1116 06:47:25.622081 54931 net.cpp:380] fc7_drop7_0_split -> fc7_drop7_0_split_0
I1116 06:47:25.622089 54931 net.cpp:380] fc7_drop7_0_split -> fc7_drop7_0_split_1
I1116 06:47:25.622156 54931 net.cpp:122] Setting up fc7_drop7_0_split
I1116 06:47:25.622161 54931 net.cpp:129] Top shape: 1 4096 (4096)
I1116 06:47:25.622165 54931 net.cpp:129] Top shape: 1 4096 (4096)
I1116 06:47:25.622167 54931 net.cpp:137] Memory required for data: 125980352
I1116 06:47:25.622170 54931 layer_factory.hpp:77] Creating layer cls_score
I1116 06:47:25.622180 54931 net.cpp:84] Creating Layer cls_score
I1116 06:47:25.622184 54931 net.cpp:406] cls_score <- fc7_drop7_0_split_0
I1116 06:47:25.622190 54931 net.cpp:380] cls_score -> cls_score
I1116 06:47:25.623832 54931 net.cpp:122] Setting up cls_score
I1116 06:47:25.623844 54931 net.cpp:129] Top shape: 1 21 (21)
I1116 06:47:25.623847 54931 net.cpp:137] Memory required for data: 125980436
I1116 06:47:25.623853 54931 layer_factory.hpp:77] Creating layer bbox_pred
I1116 06:47:25.623860 54931 net.cpp:84] Creating Layer bbox_pred
I1116 06:47:25.623863 54931 net.cpp:406] bbox_pred <- fc7_drop7_0_split_1
I1116 06:47:25.623868 54931 net.cpp:380] bbox_pred -> bbox_pred
I1116 06:47:25.630429 54931 net.cpp:122] Setting up bbox_pred
I1116 06:47:25.630445 54931 net.cpp:129] Top shape: 1 84 (84)
I1116 06:47:25.630448 54931 net.cpp:137] Memory required for data: 125980772
I1116 06:47:25.630455 54931 layer_factory.hpp:77] Creating layer cls_prob
I1116 06:47:25.630461 54931 net.cpp:84] Creating Layer cls_prob
I1116 06:47:25.630465 54931 net.cpp:406] cls_prob <- cls_score
I1116 06:47:25.630470 54931 net.cpp:380] cls_prob -> cls_prob
I1116 06:47:25.630813 54931 net.cpp:122] Setting up cls_prob
I1116 06:47:25.630822 54931 net.cpp:129] Top shape: 1 21 (21)
I1116 06:47:25.630825 54931 net.cpp:137] Memory required for data: 125980856
I1116 06:47:25.630828 54931 net.cpp:200] cls_prob does not need backward computation.
I1116 06:47:25.630832 54931 net.cpp:200] bbox_pred does not need backward computation.
I1116 06:47:25.630836 54931 net.cpp:200] cls_score does not need backward computation.
I1116 06:47:25.630838 54931 net.cpp:200] fc7_drop7_0_split does not need backward computation.
…
