…
snapshot_prefix: "vgg16_faster_rcnn"
average_loss: 100
iter_size: 2
I0103 15:32:09.125974  1534 solver.cpp:81] Creating training net from train_net file: models/pascal_voc/VGG16/faster_rcnn_end2end/train.prototxt
I0103 15:32:09.127826  1534 net.cpp:49] Initializing net from parameters: 
name: "VGG_ILSVRC_16_layers"
state {
  phase: TRAIN
}
layer {
  name: "input-data"
  type: "Python"
  top: "data"
  top: "im_info"
  top: "gt_boxes"
  python_param {
    module: "roi_data_layer.layer"
    layer: "RoIDataLayer"
    param_str: "\'num_classes\': 21"
  }
}
layer {
  name: "conv1_1"
  type: "Convolution"
  bottom: "data"
  top: "conv1_1"
  param {
    lr_mult: 0
    decay_mult: 0
  }
  param {
    lr_mult: 0
    decay_mult: 0
  }
  convolution_param {
    num_output: 64
    pad: 1
    kernel_size: 3
  }
}
layer {
  name: "relu1_1"
  type: "ReLU"
  bottom: "conv1_1"
  top: "conv1_1"
}
layer {
  name: "conv1_2"
  type: "Convolution"
  bottom: "conv1_1"
  top: "conv1_2"
  param {
    lr_mult: 0
    decay_mult: 0
  }
  param {
    lr_mult: 0
    decay_mult: 0
  }
  convolution_param {
    num_output: 64
    pad: 1
    kernel_size: 3
  }
}
layer {
  name: "relu1_2"
  type: "ReLU"
  bottom: "conv1_2"
  top: "conv1_2"
}
layer {
  name: "pool1"
  type: "Pooling"
  bottom: "conv1_2"
  top: "pool1"
  pooling_param {
    pool: MAX
    kernel_size: 2
    stride: 2
  }
}
layer {
  name: "conv2_1"
  type: "Convolution"
  bottom: "pool1"
  top: "conv2_1"
  param {
    lr_mult: 0
    decay_mult: 0
  }
  param {
    lr_mult: 0
    decay_mult: 0
  }
  convolution_param {
    num_output: 128
    pad: 1
    kernel_size: 3
  }
}
layer {
  name: "relu2_1"
  type: "ReLU"
  bottom: "conv2_1"
  top: "conv2_1"
}
layer {
  name: "conv2_2"
  type: "Convolution"
  bottom: "conv2_1"
  top: "conv2_2"
  param {
    lr_mult: 0
    decay_mult: 0
  }
  param {
    lr_mult: 0
    decay_mult: 0
  }
  convolution_param {
    num_output: 128
    pad: 1
    kernel_size: 3
  }
}
layer {
  name: "relu2_2"
  type: "ReLU"
  bottom: "conv2_2"
  top: "conv2_2"
}
layer {
  name: "pool2"
  type: "Pooling"
  bottom: "conv2_2"
  top: "pool2"
  pooling_param {
    pool: MAX
    kernel_size: 2
    stride: 2
  }
}
layer {
  name: "conv3_1"
  type: "Convolution"
  bottom: "pool2"
  top: "conv3_1"
  param {
    lr_mult: 1
  }
  param {
    lr_mult: 2
  }
  convolution_param {
    num_output: 256
    pad: 1
    kernel_size: 3
  }
}
layer {
  name: "relu3_1"
  type: "ReLU"
  bottom: "conv3_1"
  top: "conv3_1"
}
layer {
  name: "conv3_2"
  type: "Convolution"
  bottom: "conv3_1"
  top: "conv3_2"
  param {
    lr_mult: 1
  }
  param {
    lr_mult: 2
  }
  convolution_param {
    num_output: 256
    pad: 1
    kernel_size: 3
  }
}
layer {
  name: "relu3_2"
  type: "ReLU"
  bottom: "conv3_2"
  top: "conv3_2"
}
layer {
  name: "conv3_3"
  type: "Convolution"
  bottom: "conv3_2"
  top: "conv3_3"
  param {
    lr_mult: 1
  }
  param {
    lr_mult: 2
  }
  convolution_param {
    num_output: 256
    pad: 1
    kernel_size: 3
  }
}
layer {
  name: "relu3_3"
  type: "ReLU"
  bottom: "conv3_3"
  top: "conv3_3"
}
layer {
  name: "pool3"
  type: "Pooling"
  bottom: "conv3_3"
  top: "pool3"
  pooling_param {
    pool: MAX
    kernel_size: 2
    stride: 2
  }
}
layer {
  name: "conv4_1"
  type: "Convolution"
  bottom: "pool3"
  top: "conv4_1"
  param {
    lr_mult: 1
  }
  param {
    lr_mult: 2
  }
  convolution_param {
    num_output: 512
    pad: 1
    kernel_size: 3
  }
}
layer {
  name: "relu4_1"
  type: "ReLU"
  bottom: "conv4_1"
  top: "conv4_1"
}
layer {
  name: "conv4_2"
  type: "Convolution"
  bottom: "conv4_1"
  top: "conv4_2"
  param {
    lr_mult: 1
  }
  param {
    lr_mult: 2
  }
  convolution_param {
    num_output: 512
    pad: 1
    kernel_size: 3
  }
}
layer {
  name: "relu4_2"
  type: "ReLU"
  bottom: "conv4_2"
  top: "conv4_2"
}
layer {
  name: "conv4_3"
  type: "Convolution"
  bottom: "conv4_2"
  top: "conv4_3"
  param {
    lr_mult: 1
  }
  param {
    lr_mult: 2
  }
  convolution_param {
    num_output: 512
    pad: 1
    kernel_size: 3
  }
}
layer {
  name: "relu4_3"
  type: "ReLU"
  bottom: "conv4_3"
  top: "conv4_3"
}
layer {
  name: "pool4"
  type: "Pooling"
  bottom: "conv4_3"
  top: "pool4"
  pooling_param {
    pool: MAX
    kernel_size: 2
    stride: 2
  }
}
layer {
  name: "conv5_1"
  type: "Convolution"
  bottom: "pool4"
  top: "conv5_1"
  param {
    lr_mult: 1
  }
  param {
    lr_mult: 2
  }
  convolution_param {
    num_output: 512
    pad: 1
    kernel_size: 3
  }
}
layer {
  name: "relu5_1"
  type: "ReLU"
  bottom: "conv5_1"
  top: "conv5_1"
}
layer {
  name: "conv5_2"
  type: "Convolution"
  bottom: "conv5_1"
  top: "conv5_2"
  param {
    lr_mult: 1
  }
  param {
    lr_mult: 2
  }
  convolution_param {
    num_output: 512
    pad: 1
    kernel_size: 3
  }
}
layer {
  name: "relu5_2"
  type: "ReLU"
  bottom: "conv5_2"
  top: "conv5_2"
}
layer {
  name: "conv5_3"
  type: "Convolution"
  bottom: "conv5_2"
  top: "conv5_3"
  param {
    lr_mult: 1
  }
  param {
    lr_mult: 2
  }
  convolution_param {
    num_output: 512
    pad: 1
    kernel_size: 3
  }
}
layer {
  name: "relu5_3"
  type: "ReLU"
  bottom: "conv5_3"
  top: "conv5_3"
}
layer {
  name: "rpn_conv/3x3"
  type: "Convolution"
  bottom: "conv5_3"
  top: "rpn/output"
  param {
    lr_mult: 1
  }
  param {
    lr_mult: 2
  }
  convolution_param {
    num_output: 512
    pad: 1
    kernel_size: 3
    stride: 1
    weight_filler {
      type: "gaussian"
      std: 0.01
    }
    bias_filler {
      type: "constant"
      value: 0
    }
  }
}
layer {
  name: "rpn_relu/3x3"
  type: "ReLU"
  bottom: "rpn/output"
  top: "rpn/output"
}
layer {
  name: "rpn_cls_score"
  type: "Convolution"
  bottom: "rpn/output"
  top: "rpn_cls_score"
  param {
    lr_mult: 1
  }
  param {
    lr_mult: 2
  }
  convolution_param {
    num_output: 18
    pad: 0
    kernel_size: 1
    stride: 1
    weight_filler {
      type: "gaussian"
      std: 0.01
    }
    bias_filler {
      type: "constant"
      value: 0
    }
  }
}
layer {
  name: "rpn_bbox_pred"
  type: "Convolution"
  bottom: "rpn/output"
  top: "rpn_bbox_pred"
  param {
    lr_mult: 1
  }
  param {
    lr_mult: 2
  }
  convolution_param {
    num_output: 36
    pad: 0
    kernel_size: 1
    stride: 1
    weight_filler {
      type: "gaussian"
      std: 0.01
    }
    bias_filler {
      type: "constant"
      value: 0
    }
  }
}
layer {
  name: "rpn_cls_score_reshape"
  type: "Reshape"
  bottom: "rpn_cls_score"
  top: "rpn_cls_score_reshape"
  reshape_param {
    shape {
      dim: 0
      dim: 2
      dim: -1
      dim: 0
    }
  }
}
layer {
  name: "rpn-data"
  type: "Python"
  bottom: "rpn_cls_score"
  bottom: "gt_boxes"
  bottom: "im_info"
  bottom: "data"
  top: "rpn_labels"
  top: "rpn_bbox_targets"
  top: "rpn_bbox_inside_weights"
  top: "rpn_bbox_outside_weights"
  python_param {
    module: "rpn.anchor_target_layer"
    layer: "AnchorTargetLayer"
    param_str: "\'feat_stride\': 16"
  }
}
layer {
  name: "rpn_loss_cls"
  type: "SoftmaxWithLoss"
  bottom: "rpn_cls_score_reshape"
  bottom: "rpn_labels"
  top: "rpn_cls_loss"
  loss_weight: 1
  propagate_down: true
  propagate_down: false
  loss_param {
    ignore_label: -1
    normalize: true
  }
}
layer {
  name: "rpn_loss_bbox"
  type: "SmoothL1Loss"
  bottom: "rpn_bbox_pred"
  bottom: "rpn_bbox_targets"
  bottom: "rpn_bbox_inside_weights"
  bottom: "rpn_bbox_outside_weights"
  top: "rpn_loss_bbox"
  loss_weight: 1
  smooth_l1_loss_param {
    sigma: 3
  }
}
layer {
  name: "rpn_cls_prob"
  type: "Softmax"
  bottom: "rpn_cls_score_reshape"
  top: "rpn_cls_prob"
}
layer {
  name: "rpn_cls_prob_reshape"
  type: "Reshape"
  bottom: "rpn_cls_prob"
  top: "rpn_cls_prob_reshape"
  reshape_param {
    shape {
      dim: 0
      dim: 18
      dim: -1
      dim: 0
    }
  }
}
layer {
  name: "proposal"
  type: "Python"
  bottom: "rpn_cls_prob_reshape"
  bottom: "rpn_bbox_pred"
  bottom: "im_info"
  top: "rpn_rois"
  python_param {
    module: "rpn.proposal_layer"
    layer: "ProposalLayer"
    param_str: "\'feat_stride\': 16"
  }
}
layer {
  name: "roi-data"
  type: "Python"
  bottom: "rpn_rois"
  bottom: "gt_boxes"
  top: "rois"
  top: "labels"
  top: "bbox_targets"
  top: "bbox_inside_weights"
  top: "bbox_outside_weights"
  python_param {
    module: "rpn.proposal_target_layer"
    layer: "ProposalTargetLayer"
    param_str: "\'num_classes\': 21"
  }
}
layer {
  name: "roi_pool5"
  type: "ROIPooling"
  bottom: "conv5_3"
  bottom: "rois"
  top: "pool5"
  roi_pooling_param {
    pooled_h: 7
    pooled_w: 7
    spatial_scale: 0.0625
  }
}
layer {
  name: "fc6"
  type: "InnerProduct"
  bottom: "pool5"
  top: "fc6"
  param {
    lr_mult: 1
  }
  param {
    lr_mult: 2
  }
  inner_product_param {
    num_output: 4096
  }
}
layer {
  name: "relu6"
  type: "ReLU"
  bottom: "fc6"
  top: "fc6"
}
layer {
  name: "drop6"
  type: "Dropout"
  bottom: "fc6"
  top: "fc6"
  dropout_param {
    dropout_ratio: 0.5
  }
}
layer {
  name: "fc7"
  type: "InnerProduct"
  bottom: "fc6"
  top: "fc7"
  param {
    lr_mult: 1
  }
  param {
    lr_mult: 2
  }
  inner_product_param {
    num_output: 4096
  }
}
layer {
  name: "relu7"
  type: "ReLU"
  bottom: "fc7"
  top: "fc7"
}
layer {
  name: "drop7"
  type: "Dropout"
  bottom: "fc7"
  top: "fc7"
  dropout_param {
    dropout_ratio: 0.5
  }
}
layer {
  name: "cls_score"
  type: "InnerProduct"
  bottom: "fc7"
  top: "cls_score"
  param {
    lr_mult: 1
  }
  param {
    lr_mult: 2
  }
  inner_product_param {
    num_output: 21
    weight_filler {
      type: "gaussian"
      std: 0.01
    }
    bias_filler {
      type: "constant"
      value: 0
    }
  }
}
layer {
  name: "bbox_pred"
  type: "InnerProduct"
  bottom: "fc7"
  top: "bbox_pred"
  param {
    lr_mult: 1
  }
  param {
    lr_mult: 2
  }
  inner_product_param {
    num_output: 84
    weight_filler {
      type: "gaussian"
      std: 0.001
    }
    bias_filler {
      type: "constant"
      value: 0
    }
  }
}
layer {
  name: "loss_cls"
  type: "SoftmaxWithLoss"
  bottom: "cls_score"
  bottom: "labels"
  top: "loss_cls"
  loss_weight: 1
  propagate_down: true
  propagate_down: false
}
layer {
  name: "loss_bbox"
  type: "SmoothL1Loss"
  bottom: "bbox_pred"
  bottom: "bbox_targets"
  bottom: "bbox_inside_weights"
  bottom: "bbox_outside_weights"
  top: "loss_bbox"
  loss_weight: 1
}
I0103 15:32:09.128115  1534 layer_factory.hpp:77] Creating layer input-data
I0103 15:32:09.143992  1534 net.cpp:106] Creating Layer input-data
I0103 15:32:09.144024  1534 net.cpp:411] input-data -> data
I0103 15:32:09.144042  1534 net.cpp:411] input-data -> im_info
I0103 15:32:09.144048  1534 net.cpp:411] input-data -> gt_boxes
RoiDataLayer: name_to_top: {'gt_boxes': 2, 'data': 0, 'im_info': 1}
I0103 15:32:09.157202  1534 net.cpp:150] Setting up input-data
I0103 15:32:09.157230  1534 net.cpp:157] Top shape: 1 3 600 1000 (1800000)
I0103 15:32:09.157238  1534 net.cpp:157] Top shape: 1 3 (3)
I0103 15:32:09.157240  1534 net.cpp:157] Top shape: 1 4 (4)
I0103 15:32:09.157243  1534 net.cpp:165] Memory required for data: 7200028
I0103 15:32:09.157250  1534 layer_factory.hpp:77] Creating layer data_input-data_0_split
I0103 15:32:09.157263  1534 net.cpp:106] Creating Layer data_input-data_0_split
I0103 15:32:09.157269  1534 net.cpp:454] data_input-data_0_split <- data
I0103 15:32:09.157279  1534 net.cpp:411] data_input-data_0_split -> data_input-data_0_split_0
I0103 15:32:09.157289  1534 net.cpp:411] data_input-data_0_split -> data_input-data_0_split_1
I0103 15:32:09.157347  1534 net.cpp:150] Setting up data_input-data_0_split
I0103 15:32:09.157356  1534 net.cpp:157] Top shape: 1 3 600 1000 (1800000)
I0103 15:32:09.157361  1534 net.cpp:157] Top shape: 1 3 600 1000 (1800000)
I0103 15:32:09.157362  1534 net.cpp:165] Memory required for data: 21600028
I0103 15:32:09.157366  1534 layer_factory.hpp:77] Creating layer im_info_input-data_1_split
I0103 15:32:09.157371  1534 net.cpp:106] Creating Layer im_info_input-data_1_split
I0103 15:32:09.157374  1534 net.cpp:454] im_info_input-data_1_split <- im_info
I0103 15:32:09.157382  1534 net.cpp:411] im_info_input-data_1_split -> im_info_input-data_1_split_0
I0103 15:32:09.157388  1534 net.cpp:411] im_info_input-data_1_split -> im_info_input-data_1_split_1
I0103 15:32:09.157436  1534 net.cpp:150] Setting up im_info_input-data_1_split
I0103 15:32:09.157444  1534 net.cpp:157] Top shape: 1 3 (3)
I0103 15:32:09.157446  1534 net.cpp:157] Top shape: 1 3 (3)
I0103 15:32:09.157449  1534 net.cpp:165] Memory required for data: 21600052
I0103 15:32:09.157451  1534 layer_factory.hpp:77] Creating layer gt_boxes_input-data_2_split
I0103 15:32:09.157456  1534 net.cpp:106] Creating Layer gt_boxes_input-data_2_split
I0103 15:32:09.157459  1534 net.cpp:454] gt_boxes_input-data_2_split <- gt_boxes
I0103 15:32:09.157466  1534 net.cpp:411] gt_boxes_input-data_2_split -> gt_boxes_input-data_2_split_0
I0103 15:32:09.157472  1534 net.cpp:411] gt_boxes_input-data_2_split -> gt_boxes_input-data_2_split_1
I0103 15:32:09.157518  1534 net.cpp:150] Setting up gt_boxes_input-data_2_split
I0103 15:32:09.157524  1534 net.cpp:157] Top shape: 1 4 (4)
I0103 15:32:09.157528  1534 net.cpp:157] Top shape: 1 4 (4)
I0103 15:32:09.157531  1534 net.cpp:165] Memory required for data: 21600084
I0103 15:32:09.157533  1534 layer_factory.hpp:77] Creating layer conv1_1
I0103 15:32:09.157547  1534 net.cpp:106] Creating Layer conv1_1
I0103 15:32:09.157552  1534 net.cpp:454] conv1_1 <- data_input-data_0_split_0
I0103 15:32:09.157559  1534 net.cpp:411] conv1_1 -> conv1_1
I0103 15:32:09.490101  1534 net.cpp:150] Setting up conv1_1
I0103 15:32:09.490152  1534 net.cpp:157] Top shape: 1 64 600 1000 (38400000)
I0103 15:32:09.490159  1534 net.cpp:165] Memory required for data: 175200084
I0103 15:32:09.490195  1534 layer_factory.hpp:77] Creating layer relu1_1
I0103 15:32:09.490219  1534 net.cpp:106] Creating Layer relu1_1
I0103 15:32:09.490226  1534 net.cpp:454] relu1_1 <- conv1_1
I0103 15:32:09.490236  1534 net.cpp:397] relu1_1 -> conv1_1 (in-place)
I0103 15:32:09.491448  1534 net.cpp:150] Setting up relu1_1
I0103 15:32:09.491469  1534 net.cpp:157] Top shape: 1 64 600 1000 (38400000)
I0103 15:32:09.491474  1534 net.cpp:165] Memory required for data: 328800084
I0103 15:32:09.491479  1534 layer_factory.hpp:77] Creating layer conv1_2
I0103 15:32:09.491497  1534 net.cpp:106] Creating Layer conv1_2
I0103 15:32:09.491503  1534 net.cpp:454] conv1_2 <- conv1_1
I0103 15:32:09.491510  1534 net.cpp:411] conv1_2 -> conv1_2
I0103 15:32:09.499560  1534 net.cpp:150] Setting up conv1_2
I0103 15:32:09.499585  1534 net.cpp:157] Top shape: 1 64 600 1000 (38400000)
I0103 15:32:09.499590  1534 net.cpp:165] Memory required for data: 482400084
I0103 15:32:09.499604  1534 layer_factory.hpp:77] Creating layer relu1_2
I0103 15:32:09.499614  1534 net.cpp:106] Creating Layer relu1_2
I0103 15:32:09.499619  1534 net.cpp:454] relu1_2 <- conv1_2
I0103 15:32:09.499625  1534 net.cpp:397] relu1_2 -> conv1_2 (in-place)
I0103 15:32:09.499888  1534 net.cpp:150] Setting up relu1_2
I0103 15:32:09.499903  1534 net.cpp:157] Top shape: 1 64 600 1000 (38400000)
I0103 15:32:09.499907  1534 net.cpp:165] Memory required for data: 636000084
I0103 15:32:09.499912  1534 layer_factory.hpp:77] Creating layer pool1
I0103 15:32:09.499925  1534 net.cpp:106] Creating Layer pool1
I0103 15:32:09.499929  1534 net.cpp:454] pool1 <- conv1_2
I0103 15:32:09.499938  1534 net.cpp:411] pool1 -> pool1
I0103 15:32:09.500047  1534 net.cpp:150] Setting up pool1
I0103 15:32:09.500059  1534 net.cpp:157] Top shape: 1 64 300 500 (9600000)
I0103 15:32:09.500063  1534 net.cpp:165] Memory required for data: 674400084
I0103 15:32:09.500067  1534 layer_factory.hpp:77] Creating layer conv2_1
I0103 15:32:09.500078  1534 net.cpp:106] Creating Layer conv2_1
I0103 15:32:09.500087  1534 net.cpp:454] conv2_1 <- pool1
I0103 15:32:09.500095  1534 net.cpp:411] conv2_1 -> conv2_1
I0103 15:32:09.506803  1534 net.cpp:150] Setting up conv2_1
I0103 15:32:09.506829  1534 net.cpp:157] Top shape: 1 128 300 500 (19200000)
I0103 15:32:09.506834  1534 net.cpp:165] Memory required for data: 751200084
I0103 15:32:09.506849  1534 layer_factory.hpp:77] Creating layer relu2_1
I0103 15:32:09.506860  1534 net.cpp:106] Creating Layer relu2_1
I0103 15:32:09.506865  1534 net.cpp:454] relu2_1 <- conv2_1
I0103 15:32:09.506871  1534 net.cpp:397] relu2_1 -> conv2_1 (in-place)
I0103 15:32:09.507138  1534 net.cpp:150] Setting up relu2_1
I0103 15:32:09.507154  1534 net.cpp:157] Top shape: 1 128 300 500 (19200000)
I0103 15:32:09.507158  1534 net.cpp:165] Memory required for data: 828000084
I0103 15:32:09.507163  1534 layer_factory.hpp:77] Creating layer conv2_2
I0103 15:32:09.507174  1534 net.cpp:106] Creating Layer conv2_2
I0103 15:32:09.507179  1534 net.cpp:454] conv2_2 <- conv2_1
I0103 15:32:09.507186  1534 net.cpp:411] conv2_2 -> conv2_2
I0103 15:32:09.514134  1534 net.cpp:150] Setting up conv2_2
I0103 15:32:09.514158  1534 net.cpp:157] Top shape: 1 128 300 500 (19200000)
I0103 15:32:09.514163  1534 net.cpp:165] Memory required for data: 904800084
I0103 15:32:09.514173  1534 layer_factory.hpp:77] Creating layer relu2_2
I0103 15:32:09.514181  1534 net.cpp:106] Creating Layer relu2_2
I0103 15:32:09.514186  1534 net.cpp:454] relu2_2 <- conv2_2
I0103 15:32:09.514194  1534 net.cpp:397] relu2_2 -> conv2_2 (in-place)
I0103 15:32:09.515346  1534 net.cpp:150] Setting up relu2_2
I0103 15:32:09.515365  1534 net.cpp:157] Top shape: 1 128 300 500 (19200000)
I0103 15:32:09.515369  1534 net.cpp:165] Memory required for data: 981600084
I0103 15:32:09.515374  1534 layer_factory.hpp:77] Creating layer pool2
I0103 15:32:09.515383  1534 net.cpp:106] Creating Layer pool2
I0103 15:32:09.515388  1534 net.cpp:454] pool2 <- conv2_2
I0103 15:32:09.515395  1534 net.cpp:411] pool2 -> pool2
I0103 15:32:09.515488  1534 net.cpp:150] Setting up pool2
I0103 15:32:09.515501  1534 net.cpp:157] Top shape: 1 128 150 250 (4800000)
I0103 15:32:09.515504  1534 net.cpp:165] Memory required for data: 1000800084
I0103 15:32:09.515508  1534 layer_factory.hpp:77] Creating layer conv3_1
I0103 15:32:09.515519  1534 net.cpp:106] Creating Layer conv3_1
I0103 15:32:09.515523  1534 net.cpp:454] conv3_1 <- pool2
I0103 15:32:09.515532  1534 net.cpp:411] conv3_1 -> conv3_1
I0103 15:32:09.521224  1534 net.cpp:150] Setting up conv3_1
I0103 15:32:09.521245  1534 net.cpp:157] Top shape: 1 256 150 250 (9600000)
I0103 15:32:09.521250  1534 net.cpp:165] Memory required for data: 1039200084
I0103 15:32:09.521265  1534 layer_factory.hpp:77] Creating layer relu3_1
I0103 15:32:09.521273  1534 net.cpp:106] Creating Layer relu3_1
I0103 15:32:09.521278  1534 net.cpp:454] relu3_1 <- conv3_1
I0103 15:32:09.521286  1534 net.cpp:397] relu3_1 -> conv3_1 (in-place)
I0103 15:32:09.521577  1534 net.cpp:150] Setting up relu3_1
I0103 15:32:09.521594  1534 net.cpp:157] Top shape: 1 256 150 250 (9600000)
I0103 15:32:09.521597  1534 net.cpp:165] Memory required for data: 1077600084
I0103 15:32:09.521601  1534 layer_factory.hpp:77] Creating layer conv3_2
I0103 15:32:09.521618  1534 net.cpp:106] Creating Layer conv3_2
I0103 15:32:09.521623  1534 net.cpp:454] conv3_2 <- conv3_1
I0103 15:32:09.521631  1534 net.cpp:411] conv3_2 -> conv3_2
I0103 15:32:09.528182  1534 net.cpp:150] Setting up conv3_2
I0103 15:32:09.528205  1534 net.cpp:157] Top shape: 1 256 150 250 (9600000)
I0103 15:32:09.528209  1534 net.cpp:165] Memory required for data: 1116000084
I0103 15:32:09.528218  1534 layer_factory.hpp:77] Creating layer relu3_2
I0103 15:32:09.528228  1534 net.cpp:106] Creating Layer relu3_2
I0103 15:32:09.528231  1534 net.cpp:454] relu3_2 <- conv3_2
I0103 15:32:09.528245  1534 net.cpp:397] relu3_2 -> conv3_2 (in-place)
I0103 15:32:09.528528  1534 net.cpp:150] Setting up relu3_2
I0103 15:32:09.528543  1534 net.cpp:157] Top shape: 1 256 150 250 (9600000)
I0103 15:32:09.528548  1534 net.cpp:165] Memory required for data: 1154400084
I0103 15:32:09.528551  1534 layer_factory.hpp:77] Creating layer conv3_3
I0103 15:32:09.528564  1534 net.cpp:106] Creating Layer conv3_3
I0103 15:32:09.528569  1534 net.cpp:454] conv3_3 <- conv3_2
I0103 15:32:09.528579  1534 net.cpp:411] conv3_3 -> conv3_3
I0103 15:32:09.535010  1534 net.cpp:150] Setting up conv3_3
I0103 15:32:09.535033  1534 net.cpp:157] Top shape: 1 256 150 250 (9600000)
I0103 15:32:09.535038  1534 net.cpp:165] Memory required for data: 1192800084
I0103 15:32:09.535046  1534 layer_factory.hpp:77] Creating layer relu3_3
I0103 15:32:09.535054  1534 net.cpp:106] Creating Layer relu3_3
I0103 15:32:09.535059  1534 net.cpp:454] relu3_3 <- conv3_3
I0103 15:32:09.535065  1534 net.cpp:397] relu3_3 -> conv3_3 (in-place)
I0103 15:32:09.536159  1534 net.cpp:150] Setting up relu3_3
I0103 15:32:09.536176  1534 net.cpp:157] Top shape: 1 256 150 250 (9600000)
I0103 15:32:09.536180  1534 net.cpp:165] Memory required for data: 1231200084
I0103 15:32:09.536185  1534 layer_factory.hpp:77] Creating layer pool3
I0103 15:32:09.536195  1534 net.cpp:106] Creating Layer pool3
I0103 15:32:09.536201  1534 net.cpp:454] pool3 <- conv3_3
I0103 15:32:09.536209  1534 net.cpp:411] pool3 -> pool3
I0103 15:32:09.536309  1534 net.cpp:150] Setting up pool3
I0103 15:32:09.536321  1534 net.cpp:157] Top shape: 1 256 75 125 (2400000)
I0103 15:32:09.536324  1534 net.cpp:165] Memory required for data: 1240800084
I0103 15:32:09.536329  1534 layer_factory.hpp:77] Creating layer conv4_1
I0103 15:32:09.536340  1534 net.cpp:106] Creating Layer conv4_1
I0103 15:32:09.536350  1534 net.cpp:454] conv4_1 <- pool3
I0103 15:32:09.536357  1534 net.cpp:411] conv4_1 -> conv4_1
I0103 15:32:09.549317  1534 net.cpp:150] Setting up conv4_1
I0103 15:32:09.549365  1534 net.cpp:157] Top shape: 1 512 75 125 (4800000)
I0103 15:32:09.549373  1534 net.cpp:165] Memory required for data: 1260000084
I0103 15:32:09.549391  1534 layer_factory.hpp:77] Creating layer relu4_1
I0103 15:32:09.549408  1534 net.cpp:106] Creating Layer relu4_1
I0103 15:32:09.549417  1534 net.cpp:454] relu4_1 <- conv4_1
I0103 15:32:09.549434  1534 net.cpp:397] relu4_1 -> conv4_1 (in-place)
I0103 15:32:09.551148  1534 net.cpp:150] Setting up relu4_1
I0103 15:32:09.551178  1534 net.cpp:157] Top shape: 1 512 75 125 (4800000)
I0103 15:32:09.551184  1534 net.cpp:165] Memory required for data: 1279200084
I0103 15:32:09.551192  1534 layer_factory.hpp:77] Creating layer conv4_2
I0103 15:32:09.551213  1534 net.cpp:106] Creating Layer conv4_2
I0103 15:32:09.551221  1534 net.cpp:454] conv4_2 <- conv4_1
I0103 15:32:09.551234  1534 net.cpp:411] conv4_2 -> conv4_2
I0103 15:32:09.565914  1534 net.cpp:150] Setting up conv4_2
I0103 15:32:09.565944  1534 net.cpp:157] Top shape: 1 512 75 125 (4800000)
I0103 15:32:09.565951  1534 net.cpp:165] Memory required for data: 1298400084
I0103 15:32:09.565975  1534 layer_factory.hpp:77] Creating layer relu4_2
I0103 15:32:09.565990  1534 net.cpp:106] Creating Layer relu4_2
I0103 15:32:09.565996  1534 net.cpp:454] relu4_2 <- conv4_2
I0103 15:32:09.566005  1534 net.cpp:397] relu4_2 -> conv4_2 (in-place)
I0103 15:32:09.566359  1534 net.cpp:150] Setting up relu4_2
I0103 15:32:09.566380  1534 net.cpp:157] Top shape: 1 512 75 125 (4800000)
I0103 15:32:09.566386  1534 net.cpp:165] Memory required for data: 1317600084
I0103 15:32:09.566391  1534 layer_factory.hpp:77] Creating layer conv4_3
I0103 15:32:09.566408  1534 net.cpp:106] Creating Layer conv4_3
I0103 15:32:09.566414  1534 net.cpp:454] conv4_3 <- conv4_2
I0103 15:32:09.566424  1534 net.cpp:411] conv4_3 -> conv4_3
I0103 15:32:09.580263  1534 net.cpp:150] Setting up conv4_3
I0103 15:32:09.580309  1534 net.cpp:157] Top shape: 1 512 75 125 (4800000)
I0103 15:32:09.580315  1534 net.cpp:165] Memory required for data: 1336800084
I0103 15:32:09.580330  1534 layer_factory.hpp:77] Creating layer relu4_3
I0103 15:32:09.580350  1534 net.cpp:106] Creating Layer relu4_3
I0103 15:32:09.580358  1534 net.cpp:454] relu4_3 <- conv4_3
I0103 15:32:09.580368  1534 net.cpp:397] relu4_3 -> conv4_3 (in-place)
I0103 15:32:09.581730  1534 net.cpp:150] Setting up relu4_3
I0103 15:32:09.581755  1534 net.cpp:157] Top shape: 1 512 75 125 (4800000)
I0103 15:32:09.581761  1534 net.cpp:165] Memory required for data: 1356000084
I0103 15:32:09.581766  1534 layer_factory.hpp:77] Creating layer pool4
I0103 15:32:09.581779  1534 net.cpp:106] Creating Layer pool4
I0103 15:32:09.581784  1534 net.cpp:454] pool4 <- conv4_3
I0103 15:32:09.581794  1534 net.cpp:411] pool4 -> pool4
I0103 15:32:09.581920  1534 net.cpp:150] Setting up pool4
I0103 15:32:09.581934  1534 net.cpp:157] Top shape: 1 512 38 63 (1225728)
I0103 15:32:09.581938  1534 net.cpp:165] Memory required for data: 1360902996
I0103 15:32:09.581943  1534 layer_factory.hpp:77] Creating layer conv5_1
I0103 15:32:09.581962  1534 net.cpp:106] Creating Layer conv5_1
I0103 15:32:09.581970  1534 net.cpp:454] conv5_1 <- pool4
I0103 15:32:09.581981  1534 net.cpp:411] conv5_1 -> conv5_1
I0103 15:32:09.594655  1534 net.cpp:150] Setting up conv5_1
I0103 15:32:09.594677  1534 net.cpp:157] Top shape: 1 512 38 63 (1225728)
I0103 15:32:09.594682  1534 net.cpp:165] Memory required for data: 1365805908
I0103 15:32:09.594692  1534 layer_factory.hpp:77] Creating layer relu5_1
I0103 15:32:09.594702  1534 net.cpp:106] Creating Layer relu5_1
I0103 15:32:09.594707  1534 net.cpp:454] relu5_1 <- conv5_1
I0103 15:32:09.594717  1534 net.cpp:397] relu5_1 -> conv5_1 (in-place)
I0103 15:32:09.595016  1534 net.cpp:150] Setting up relu5_1
I0103 15:32:09.595031  1534 net.cpp:157] Top shape: 1 512 38 63 (1225728)
I0103 15:32:09.595036  1534 net.cpp:165] Memory required for data: 1370708820
I0103 15:32:09.595041  1534 layer_factory.hpp:77] Creating layer conv5_2
I0103 15:32:09.595054  1534 net.cpp:106] Creating Layer conv5_2
I0103 15:32:09.595059  1534 net.cpp:454] conv5_2 <- conv5_1
I0103 15:32:09.595072  1534 net.cpp:411] conv5_2 -> conv5_2
I0103 15:32:09.606685  1534 net.cpp:150] Setting up conv5_2
I0103 15:32:09.606711  1534 net.cpp:157] Top shape: 1 512 38 63 (1225728)
I0103 15:32:09.606716  1534 net.cpp:165] Memory required for data: 1375611732
I0103 15:32:09.606725  1534 layer_factory.hpp:77] Creating layer relu5_2
I0103 15:32:09.606736  1534 net.cpp:106] Creating Layer relu5_2
I0103 15:32:09.606742  1534 net.cpp:454] relu5_2 <- conv5_2
I0103 15:32:09.606750  1534 net.cpp:397] relu5_2 -> conv5_2 (in-place)
I0103 15:32:09.607036  1534 net.cpp:150] Setting up relu5_2
I0103 15:32:09.607051  1534 net.cpp:157] Top shape: 1 512 38 63 (1225728)
I0103 15:32:09.607055  1534 net.cpp:165] Memory required for data: 1380514644
I0103 15:32:09.607059  1534 layer_factory.hpp:77] Creating layer conv5_3
I0103 15:32:09.607084  1534 net.cpp:106] Creating Layer conv5_3
I0103 15:32:09.607089  1534 net.cpp:454] conv5_3 <- conv5_2
I0103 15:32:09.607098  1534 net.cpp:411] conv5_3 -> conv5_3
I0103 15:32:09.618361  1534 net.cpp:150] Setting up conv5_3
I0103 15:32:09.618389  1534 net.cpp:157] Top shape: 1 512 38 63 (1225728)
I0103 15:32:09.618394  1534 net.cpp:165] Memory required for data: 1385417556
I0103 15:32:09.618403  1534 layer_factory.hpp:77] Creating layer relu5_3
I0103 15:32:09.618412  1534 net.cpp:106] Creating Layer relu5_3
I0103 15:32:09.618417  1534 net.cpp:454] relu5_3 <- conv5_3
I0103 15:32:09.618427  1534 net.cpp:397] relu5_3 -> conv5_3 (in-place)
I0103 15:32:09.619544  1534 net.cpp:150] Setting up relu5_3
I0103 15:32:09.619565  1534 net.cpp:157] Top shape: 1 512 38 63 (1225728)
I0103 15:32:09.619568  1534 net.cpp:165] Memory required for data: 1390320468
I0103 15:32:09.619573  1534 layer_factory.hpp:77] Creating layer conv5_3_relu5_3_0_split
I0103 15:32:09.619581  1534 net.cpp:106] Creating Layer conv5_3_relu5_3_0_split
I0103 15:32:09.619586  1534 net.cpp:454] conv5_3_relu5_3_0_split <- conv5_3
I0103 15:32:09.619593  1534 net.cpp:411] conv5_3_relu5_3_0_split -> conv5_3_relu5_3_0_split_0
I0103 15:32:09.619606  1534 net.cpp:411] conv5_3_relu5_3_0_split -> conv5_3_relu5_3_0_split_1
I0103 15:32:09.619707  1534 net.cpp:150] Setting up conv5_3_relu5_3_0_split
I0103 15:32:09.619721  1534 net.cpp:157] Top shape: 1 512 38 63 (1225728)
I0103 15:32:09.619726  1534 net.cpp:157] Top shape: 1 512 38 63 (1225728)
I0103 15:32:09.619729  1534 net.cpp:165] Memory required for data: 1400126292
I0103 15:32:09.619734  1534 layer_factory.hpp:77] Creating layer rpn_conv/3x3
I0103 15:32:09.619750  1534 net.cpp:106] Creating Layer rpn_conv/3x3
I0103 15:32:09.619755  1534 net.cpp:454] rpn_conv/3x3 <- conv5_3_relu5_3_0_split_0
I0103 15:32:09.619762  1534 net.cpp:411] rpn_conv/3x3 -> rpn/output
I0103 15:32:09.660075  1534 net.cpp:150] Setting up rpn_conv/3x3
I0103 15:32:09.660097  1534 net.cpp:157] Top shape: 1 512 38 63 (1225728)
I0103 15:32:09.660101  1534 net.cpp:165] Memory required for data: 1405029204
I0103 15:32:09.660109  1534 layer_factory.hpp:77] Creating layer rpn_relu/3x3
I0103 15:32:09.660121  1534 net.cpp:106] Creating Layer rpn_relu/3x3
I0103 15:32:09.660126  1534 net.cpp:454] rpn_relu/3x3 <- rpn/output
I0103 15:32:09.660132  1534 net.cpp:397] rpn_relu/3x3 -> rpn/output (in-place)
I0103 15:32:09.660361  1534 net.cpp:150] Setting up rpn_relu/3x3
I0103 15:32:09.660373  1534 net.cpp:157] Top shape: 1 512 38 63 (1225728)
I0103 15:32:09.660377  1534 net.cpp:165] Memory required for data: 1409932116
I0103 15:32:09.660379  1534 layer_factory.hpp:77] Creating layer rpn/output_rpn_relu/3x3_0_split
I0103 15:32:09.660388  1534 net.cpp:106] Creating Layer rpn/output_rpn_relu/3x3_0_split
I0103 15:32:09.660392  1534 net.cpp:454] rpn/output_rpn_relu/3x3_0_split <- rpn/output
I0103 15:32:09.660399  1534 net.cpp:411] rpn/output_rpn_relu/3x3_0_split -> rpn/output_rpn_relu/3x3_0_split_0
I0103 15:32:09.660406  1534 net.cpp:411] rpn/output_rpn_relu/3x3_0_split -> rpn/output_rpn_relu/3x3_0_split_1
I0103 15:32:09.660495  1534 net.cpp:150] Setting up rpn/output_rpn_relu/3x3_0_split
I0103 15:32:09.660506  1534 net.cpp:157] Top shape: 1 512 38 63 (1225728)
I0103 15:32:09.660509  1534 net.cpp:157] Top shape: 1 512 38 63 (1225728)
I0103 15:32:09.660512  1534 net.cpp:165] Memory required for data: 1419737940
I0103 15:32:09.660516  1534 layer_factory.hpp:77] Creating layer rpn_cls_score
I0103 15:32:09.660533  1534 net.cpp:106] Creating Layer rpn_cls_score
I0103 15:32:09.660539  1534 net.cpp:454] rpn_cls_score <- rpn/output_rpn_relu/3x3_0_split_0
I0103 15:32:09.660547  1534 net.cpp:411] rpn_cls_score -> rpn_cls_score
I0103 15:32:09.664077  1534 net.cpp:150] Setting up rpn_cls_score
I0103 15:32:09.664095  1534 net.cpp:157] Top shape: 1 18 38 63 (43092)
I0103 15:32:09.664099  1534 net.cpp:165] Memory required for data: 1419910308
I0103 15:32:09.664106  1534 layer_factory.hpp:77] Creating layer rpn_cls_score_rpn_cls_score_0_split
I0103 15:32:09.664113  1534 net.cpp:106] Creating Layer rpn_cls_score_rpn_cls_score_0_split
I0103 15:32:09.664116  1534 net.cpp:454] rpn_cls_score_rpn_cls_score_0_split <- rpn_cls_score
I0103 15:32:09.664124  1534 net.cpp:411] rpn_cls_score_rpn_cls_score_0_split -> rpn_cls_score_rpn_cls_score_0_split_0
I0103 15:32:09.664141  1534 net.cpp:411] rpn_cls_score_rpn_cls_score_0_split -> rpn_cls_score_rpn_cls_score_0_split_1
I0103 15:32:09.664223  1534 net.cpp:150] Setting up rpn_cls_score_rpn_cls_score_0_split
I0103 15:32:09.664233  1534 net.cpp:157] Top shape: 1 18 38 63 (43092)
I0103 15:32:09.664237  1534 net.cpp:157] Top shape: 1 18 38 63 (43092)
I0103 15:32:09.664240  1534 net.cpp:165] Memory required for data: 1420255044
I0103 15:32:09.664243  1534 layer_factory.hpp:77] Creating layer rpn_bbox_pred
I0103 15:32:09.664255  1534 net.cpp:106] Creating Layer rpn_bbox_pred
I0103 15:32:09.664261  1534 net.cpp:454] rpn_bbox_pred <- rpn/output_rpn_relu/3x3_0_split_1
I0103 15:32:09.664270  1534 net.cpp:411] rpn_bbox_pred -> rpn_bbox_pred
I0103 15:32:09.667101  1534 net.cpp:150] Setting up rpn_bbox_pred
I0103 15:32:09.667120  1534 net.cpp:157] Top shape: 1 36 38 63 (86184)
I0103 15:32:09.667124  1534 net.cpp:165] Memory required for data: 1420599780
I0103 15:32:09.667130  1534 layer_factory.hpp:77] Creating layer rpn_bbox_pred_rpn_bbox_pred_0_split
I0103 15:32:09.667137  1534 net.cpp:106] Creating Layer rpn_bbox_pred_rpn_bbox_pred_0_split
I0103 15:32:09.667141  1534 net.cpp:454] rpn_bbox_pred_rpn_bbox_pred_0_split <- rpn_bbox_pred
I0103 15:32:09.667150  1534 net.cpp:411] rpn_bbox_pred_rpn_bbox_pred_0_split -> rpn_bbox_pred_rpn_bbox_pred_0_split_0
I0103 15:32:09.667158  1534 net.cpp:411] rpn_bbox_pred_rpn_bbox_pred_0_split -> rpn_bbox_pred_rpn_bbox_pred_0_split_1
I0103 15:32:09.667240  1534 net.cpp:150] Setting up rpn_bbox_pred_rpn_bbox_pred_0_split
I0103 15:32:09.667250  1534 net.cpp:157] Top shape: 1 36 38 63 (86184)
I0103 15:32:09.667254  1534 net.cpp:157] Top shape: 1 36 38 63 (86184)
I0103 15:32:09.667256  1534 net.cpp:165] Memory required for data: 1421289252
I0103 15:32:09.667259  1534 layer_factory.hpp:77] Creating layer rpn_cls_score_reshape
I0103 15:32:09.667274  1534 net.cpp:106] Creating Layer rpn_cls_score_reshape
I0103 15:32:09.667280  1534 net.cpp:454] rpn_cls_score_reshape <- rpn_cls_score_rpn_cls_score_0_split_0
I0103 15:32:09.667290  1534 net.cpp:411] rpn_cls_score_reshape -> rpn_cls_score_reshape
I0103 15:32:09.667346  1534 net.cpp:150] Setting up rpn_cls_score_reshape
I0103 15:32:09.667356  1534 net.cpp:157] Top shape: 1 2 342 63 (43092)
I0103 15:32:09.667357  1534 net.cpp:165] Memory required for data: 1421461620
I0103 15:32:09.667361  1534 layer_factory.hpp:77] Creating layer rpn_cls_score_reshape_rpn_cls_score_reshape_0_split
I0103 15:32:09.667369  1534 net.cpp:106] Creating Layer rpn_cls_score_reshape_rpn_cls_score_reshape_0_split
I0103 15:32:09.667373  1534 net.cpp:454] rpn_cls_score_reshape_rpn_cls_score_reshape_0_split <- rpn_cls_score_reshape
I0103 15:32:09.667379  1534 net.cpp:411] rpn_cls_score_reshape_rpn_cls_score_reshape_0_split -> rpn_cls_score_reshape_rpn_cls_score_reshape_0_split_0
I0103 15:32:09.667388  1534 net.cpp:411] rpn_cls_score_reshape_rpn_cls_score_reshape_0_split -> rpn_cls_score_reshape_rpn_cls_score_reshape_0_split_1
I0103 15:32:09.667455  1534 net.cpp:150] Setting up rpn_cls_score_reshape_rpn_cls_score_reshape_0_split
I0103 15:32:09.667464  1534 net.cpp:157] Top shape: 1 2 342 63 (43092)
I0103 15:32:09.667467  1534 net.cpp:157] Top shape: 1 2 342 63 (43092)
I0103 15:32:09.667470  1534 net.cpp:165] Memory required for data: 1421806356
I0103 15:32:09.667474  1534 layer_factory.hpp:77] Creating layer rpn-data
I0103 15:32:09.674264  1534 net.cpp:106] Creating Layer rpn-data
I0103 15:32:09.674283  1534 net.cpp:454] rpn-data <- rpn_cls_score_rpn_cls_score_0_split_1
I0103 15:32:09.674289  1534 net.cpp:454] rpn-data <- gt_boxes_input-data_2_split_0
I0103 15:32:09.674295  1534 net.cpp:454] rpn-data <- im_info_input-data_1_split_0
I0103 15:32:09.674299  1534 net.cpp:454] rpn-data <- data_input-data_0_split_1
I0103 15:32:09.674305  1534 net.cpp:411] rpn-data -> rpn_labels
I0103 15:32:09.674315  1534 net.cpp:411] rpn-data -> rpn_bbox_targets
I0103 15:32:09.674324  1534 net.cpp:411] rpn-data -> rpn_bbox_inside_weights
I0103 15:32:09.674331  1534 net.cpp:411] rpn-data -> rpn_bbox_outside_weights
I0103 15:32:09.675374  1534 net.cpp:150] Setting up rpn-data
I0103 15:32:09.675392  1534 net.cpp:157] Top shape: 1 1 342 63 (21546)
I0103 15:32:09.675397  1534 net.cpp:157] Top shape: 1 36 38 63 (86184)
I0103 15:32:09.675401  1534 net.cpp:157] Top shape: 1 36 38 63 (86184)
I0103 15:32:09.675405  1534 net.cpp:157] Top shape: 1 36 38 63 (86184)
I0103 15:32:09.675407  1534 net.cpp:165] Memory required for data: 1422926748
I0103 15:32:09.675410  1534 layer_factory.hpp:77] Creating layer rpn_loss_cls
I0103 15:32:09.675424  1534 net.cpp:106] Creating Layer rpn_loss_cls
I0103 15:32:09.675428  1534 net.cpp:454] rpn_loss_cls <- rpn_cls_score_reshape_rpn_cls_score_reshape_0_split_0
I0103 15:32:09.675433  1534 net.cpp:454] rpn_loss_cls <- rpn_labels
…
I0103 15:32:09.676908  1534 net.cpp:157] Top shape: (1)
I0103 15:32:09.676910  1534 net.cpp:160]     with loss weight 1
I0103 15:32:09.676915  1534 net.cpp:165] Memory required for data: 1422926756
I0103 15:32:09.676918  1534 layer_factory.hpp:77] Creating layer rpn_cls_prob
I0103 15:32:09.676924  1534 net.cpp:106] Creating Layer rpn_cls_prob
I0103 15:32:09.676928  1534 net.cpp:454] rpn_cls_prob <- rpn_cls_score_reshape_rpn_cls_score_reshape_0_split_1
I0103 15:32:09.676934  1534 net.cpp:411] rpn_cls_prob -> rpn_cls_prob
I0103 15:32:09.677994  1534 net.cpp:150] Setting up rpn_cls_prob
I0103 15:32:09.678010  1534 net.cpp:157] Top shape: 1 2 342 63 (43092)
I0103 15:32:09.678014  1534 net.cpp:165] Memory required for data: 1423099124
I0103 15:32:09.678017  1534 layer_factory.hpp:77] Creating layer rpn_cls_prob_reshape
I0103 15:32:09.678027  1534 net.cpp:106] Creating Layer rpn_cls_prob_reshape
I0103 15:32:09.678031  1534 net.cpp:454] rpn_cls_prob_reshape <- rpn_cls_prob
I0103 15:32:09.678040  1534 net.cpp:411] rpn_cls_prob_reshape -> rpn_cls_prob_reshape
I0103 15:32:09.678089  1534 net.cpp:150] Setting up rpn_cls_prob_reshape
I0103 15:32:09.678098  1534 net.cpp:157] Top shape: 1 18 38 63 (43092)
I0103 15:32:09.678102  1534 net.cpp:165] Memory required for data: 1423271492
I0103 15:32:09.678104  1534 layer_factory.hpp:77] Creating layer proposal
I0103 15:32:09.686174  1534 net.cpp:106] Creating Layer proposal
I0103 15:32:09.686198  1534 net.cpp:454] proposal <- rpn_cls_prob_reshape
I0103 15:32:09.686206  1534 net.cpp:454] proposal <- rpn_bbox_pred_rpn_bbox_pred_0_split_1
I0103 15:32:09.686211  1534 net.cpp:454] proposal <- im_info_input-data_1_split_1
I0103 15:32:09.686218  1534 net.cpp:411] proposal -> rpn_rois
I0103 15:32:09.689016  1534 net.cpp:150] Setting up proposal
I0103 15:32:09.689035  1534 net.cpp:157] Top shape: 1 5 (5)
I0103 15:32:09.689039  1534 net.cpp:165] Memory required for data: 1423271512
I0103 15:32:09.689044  1534 layer_factory.hpp:77] Creating layer roi-data
I0103 15:32:09.690409  1534 net.cpp:106] Creating Layer roi-data
I0103 15:32:09.690424  1534 net.cpp:454] roi-data <- rpn_rois
I0103 15:32:09.690430  1534 net.cpp:454] roi-data <- gt_boxes_input-data_2_split_1
I0103 15:32:09.690438  1534 net.cpp:411] roi-data -> rois
I0103 15:32:09.690446  1534 net.cpp:411] roi-data -> labels
I0103 15:32:09.690454  1534 net.cpp:411] roi-data -> bbox_targets
I0103 15:32:09.690460  1534 net.cpp:411] roi-data -> bbox_inside_weights
I0103 15:32:09.690466  1534 net.cpp:411] roi-data -> bbox_outside_weights
I0103 15:32:09.690999  1534 net.cpp:150] Setting up roi-data
I0103 15:32:09.691015  1534 net.cpp:157] Top shape: 1 5 (5)
I0103 15:32:09.691020  1534 net.cpp:157] Top shape: 1 1 (1)
I0103 15:32:09.691022  1534 net.cpp:157] Top shape: 1 84 (84)
I0103 15:32:09.691025  1534 net.cpp:157] Top shape: 1 84 (84)
I0103 15:32:09.691028  1534 net.cpp:157] Top shape: 1 84 (84)
I0103 15:32:09.691030  1534 net.cpp:165] Memory required for data: 1423272544
I0103 15:32:09.691035  1534 layer_factory.hpp:77] Creating layer roi_pool5
I0103 15:32:09.691048  1534 net.cpp:106] Creating Layer roi_pool5
I0103 15:32:09.691053  1534 net.cpp:454] roi_pool5 <- conv5_3_relu5_3_0_split_1
I0103 15:32:09.691058  1534 net.cpp:454] roi_pool5 <- rois
I0103 15:32:09.691066  1534 net.cpp:411] roi_pool5 -> pool5
I0103 15:32:09.691076  1534 roi_pooling_layer.cpp:30] Spatial scale: 0.0625
I0103 15:32:09.691169  1534 net.cpp:150] Setting up roi_pool5
I0103 15:32:09.691179  1534 net.cpp:157] Top shape: 1 512 7 7 (25088)
I0103 15:32:09.691181  1534 net.cpp:165] Memory required for data: 1423372896
I0103 15:32:09.691184  1534 layer_factory.hpp:77] Creating layer fc6
I0103 15:32:09.691195  1534 net.cpp:106] Creating Layer fc6
I0103 15:32:09.691198  1534 net.cpp:454] fc6 <- pool5
I0103 15:32:09.691205  1534 net.cpp:411] fc6 -> fc6
I0103 15:32:10.048823  1534 net.cpp:150] Setting up fc6
I0103 15:32:10.048871  1534 net.cpp:157] Top shape: 1 4096 (4096)
I0103 15:32:10.048877  1534 net.cpp:165] Memory required for data: 1423389280
I0103 15:32:10.048905  1534 layer_factory.hpp:77] Creating layer relu6
I0103 15:32:10.048921  1534 net.cpp:106] Creating Layer relu6
I0103 15:32:10.048928  1534 net.cpp:454] relu6 <- fc6
I0103 15:32:10.048936  1534 net.cpp:397] relu6 -> fc6 (in-place)
I0103 15:32:10.049321  1534 net.cpp:150] Setting up relu6
I0103 15:32:10.049335  1534 net.cpp:157] Top shape: 1 4096 (4096)
I0103 15:32:10.049337  1534 net.cpp:165] Memory required for data: 1423405664
I0103 15:32:10.049340  1534 layer_factory.hpp:77] Creating layer drop6
I0103 15:32:10.049358  1534 net.cpp:106] Creating Layer drop6
I0103 15:32:10.049363  1534 net.cpp:454] drop6 <- fc6
I0103 15:32:10.049373  1534 net.cpp:397] drop6 -> fc6 (in-place)
I0103 15:32:10.049427  1534 net.cpp:150] Setting up drop6
I0103 15:32:10.049437  1534 net.cpp:157] Top shape: 1 4096 (4096)
I0103 15:32:10.049439  1534 net.cpp:165] Memory required for data: 1423422048
I0103 15:32:10.049443  1534 layer_factory.hpp:77] Creating layer fc7
I0103 15:32:10.049454  1534 net.cpp:106] Creating Layer fc7
I0103 15:32:10.049458  1534 net.cpp:454] fc7 <- fc6
I0103 15:32:10.049463  1534 net.cpp:411] fc7 -> fc7
I0103 15:32:10.098474  1534 net.cpp:150] Setting up fc7
I0103 15:32:10.098517  1534 net.cpp:157] Top shape: 1 4096 (4096)
I0103 15:32:10.098521  1534 net.cpp:165] Memory required for data: 1423438432
I0103 15:32:10.098533  1534 layer_factory.hpp:77] Creating layer relu7
I0103 15:32:10.098547  1534 net.cpp:106] Creating Layer relu7
I0103 15:32:10.098552  1534 net.cpp:454] relu7 <- fc7
I0103 15:32:10.098561  1534 net.cpp:397] relu7 -> fc7 (in-place)
I0103 15:32:10.099715  1534 net.cpp:150] Setting up relu7
I0103 15:32:10.099732  1534 net.cpp:157] Top shape: 1 4096 (4096)
I0103 15:32:10.099736  1534 net.cpp:165] Memory required for data: 1423454816
I0103 15:32:10.099740  1534 layer_factory.hpp:77] Creating layer drop7
I0103 15:32:10.099746  1534 net.cpp:106] Creating Layer drop7
I0103 15:32:10.099750  1534 net.cpp:454] drop7 <- fc7
I0103 15:32:10.099756  1534 net.cpp:397] drop7 -> fc7 (in-place)
I0103 15:32:10.099809  1534 net.cpp:150] Setting up drop7
I0103 15:32:10.099817  1534 net.cpp:157] Top shape: 1 4096 (4096)
I0103 15:32:10.099820  1534 net.cpp:165] Memory required for data: 1423471200
I0103 15:32:10.099823  1534 layer_factory.hpp:77] Creating layer fc7_drop7_0_split
I0103 15:32:10.099833  1534 net.cpp:106] Creating Layer fc7_drop7_0_split
I0103 15:32:10.099835  1534 net.cpp:454] fc7_drop7_0_split <- fc7
I0103 15:32:10.099843  1534 net.cpp:411] fc7_drop7_0_split -> fc7_drop7_0_split_0
I0103 15:32:10.099849  1534 net.cpp:411] fc7_drop7_0_split -> fc7_drop7_0_split_1
I0103 15:32:10.099938  1534 net.cpp:150] Setting up fc7_drop7_0_split
I0103 15:32:10.099947  1534 net.cpp:157] Top shape: 1 4096 (4096)
I0103 15:32:10.099951  1534 net.cpp:157] Top shape: 1 4096 (4096)
I0103 15:32:10.099953  1534 net.cpp:165] Memory required for data: 1423503968
I0103 15:32:10.099956  1534 layer_factory.hpp:77] Creating layer cls_score
I0103 15:32:10.099966  1534 net.cpp:106] Creating Layer cls_score
I0103 15:32:10.099968  1534 net.cpp:454] cls_score <- fc7_drop7_0_split_0
I0103 15:32:10.099977  1534 net.cpp:411] cls_score -> cls_score
I0103 15:32:10.101315  1534 net.cpp:150] Setting up cls_score
I0103 15:32:10.101325  1534 net.cpp:157] Top shape: 1 21 (21)
I0103 15:32:10.101327  1534 net.cpp:165] Memory required for data: 1423504052
I0103 15:32:10.101335  1534 layer_factory.hpp:77] Creating layer bbox_pred
I0103 15:32:10.101341  1534 net.cpp:106] Creating Layer bbox_pred
I0103 15:32:10.101344  1534 net.cpp:454] bbox_pred <- fc7_drop7_0_split_1
I0103 15:32:10.101351  1534 net.cpp:411] bbox_pred -> bbox_pred
I0103 15:32:10.107095  1534 net.cpp:150] Setting up bbox_pred
I0103 15:32:10.107110  1534 net.cpp:157] Top shape: 1 84 (84)
I0103 15:32:10.107112  1534 net.cpp:165] Memory required for data: 1423504388
I0103 15:32:10.107120  1534 layer_factory.hpp:77] Creating layer loss_cls
I0103 15:32:10.107128  1534 net.cpp:106] Creating Layer loss_cls
I0103 15:32:10.107131  1534 net.cpp:454] loss_cls <- cls_score
I0103 15:32:10.107137  1534 net.cpp:454] loss_cls <- labels
I0103 15:32:10.107142  1534 net.cpp:411] loss_cls -> loss_cls
…
           'RPN_POST_NMS_TOP_N': 2000,
           'RPN_PRE_NMS_TOP_N': 12000,
           'SCALES': [600],
           'SNAPSHOT_INFIX': '',
           'SNAPSHOT_ITERS': 10000,
           'USE_FLIPPED': True,
           'USE_PREFETCH': False},
 'USE_GPU_NMS': True}
WARNING: Logging before InitGoogleLogging() is written to STDERR
I0104 05:34:03.435658  2277 net.cpp:49] Initializing net from parameters: 
name: "VGG_ILSVRC_16_layers"
input: "data"
input: "im_info"
state {
  phase: TEST
}
input_shape {
  dim: 1
  dim: 3
  dim: 224
  dim: 224
}
input_shape {
  dim: 1
  dim: 3
}
layer {
  name: "conv1_1"
  type: "Convolution"
  bottom: "data"
  top: "conv1_1"
  param {
    lr_mult: 0
    decay_mult: 0
  }
  param {
    lr_mult: 0
    decay_mult: 0
  }
  convolution_param {
    num_output: 64
    pad: 1
    kernel_size: 3
  }
}
layer {
  name: "relu1_1"
  type: "ReLU"
  bottom: "conv1_1"
  top: "conv1_1"
}
layer {
  name: "conv1_2"
  type: "Convolution"
  bottom: "conv1_1"
  top: "conv1_2"
  param {
    lr_mult: 0
    decay_mult: 0
  }
  param {
    lr_mult: 0
    decay_mult: 0
  }
  convolution_param {
    num_output: 64
    pad: 1
    kernel_size: 3
  }
}
layer {
  name: "relu1_2"
  type: "ReLU"
  bottom: "conv1_2"
  top: "conv1_2"
}
layer {
  name: "pool1"
  type: "Pooling"
  bottom: "conv1_2"
  top: "pool1"
  pooling_param {
    pool: MAX
    kernel_size: 2
    stride: 2
  }
}
layer {
  name: "conv2_1"
  type: "Convolution"
  bottom: "pool1"
  top: "conv2_1"
  param {
    lr_mult: 0
    decay_mult: 0
  }
  param {
    lr_mult: 0
    decay_mult: 0
  }
  convolution_param {
    num_output: 128
    pad: 1
    kernel_size: 3
  }
}
layer {
  name: "relu2_1"
  type: "ReLU"
  bottom: "conv2_1"
  top: "conv2_1"
}
layer {
  name: "conv2_2"
  type: "Convolution"
  bottom: "conv2_1"
  top: "conv2_2"
  param {
    lr_mult: 0
    decay_mult: 0
  }
  param {
    lr_mult: 0
    decay_mult: 0
  }
  convolution_param {
    num_output: 128
    pad: 1
    kernel_size: 3
  }
}
layer {
  name: "relu2_2"
  type: "ReLU"
  bottom: "conv2_2"
  top: "conv2_2"
}
layer {
  name: "pool2"
  type: "Pooling"
  bottom: "conv2_2"
  top: "pool2"
  pooling_param {
    pool: MAX
    kernel_size: 2
    stride: 2
  }
}
layer {
  name: "conv3_1"
  type: "Convolution"
  bottom: "pool2"
  top: "conv3_1"
  param {
    lr_mult: 1
    decay_mult: 1
  }
  param {
    lr_mult: 2
    decay_mult: 0
  }
  convolution_param {
    num_output: 256
    pad: 1
    kernel_size: 3
  }
}
layer {
  name: "relu3_1"
  type: "ReLU"
  bottom: "conv3_1"
  top: "conv3_1"
}
layer {
  name: "conv3_2"
  type: "Convolution"
  bottom: "conv3_1"
  top: "conv3_2"
  param {
    lr_mult: 1
    decay_mult: 1
  }
  param {
    lr_mult: 2
    decay_mult: 0
  }
  convolution_param {
    num_output: 256
    pad: 1
    kernel_size: 3
  }
}
layer {
  name: "relu3_2"
  type: "ReLU"
  bottom: "conv3_2"
  top: "conv3_2"
}
layer {
  name: "conv3_3"
  type: "Convolution"
  bottom: "conv3_2"
  top: "conv3_3"
  param {
    lr_mult: 1
    decay_mult: 1
  }
  param {
    lr_mult: 2
    decay_mult: 0
  }
  convolution_param {
    num_output: 256
    pad: 1
    kernel_size: 3
  }
}
layer {
  name: "relu3_3"
  type: "ReLU"
  bottom: "conv3_3"
  top: "conv3_3"
}
layer {
  name: "pool3"
  type: "Pooling"
  bottom: "conv3_3"
  top: "pool3"
  pooling_param {
    pool: MAX
    kernel_size: 2
    stride: 2
  }
}
layer {
  name: "conv4_1"
  type: "Convolution"
  bottom: "pool3"
  top: "conv4_1"
  param {
    lr_mult: 1
    decay_mult: 1
  }
  param {
    lr_mult: 2
    decay_mult: 0
  }
  convolution_param {
    num_output: 512
    pad: 1
    kernel_size: 3
  }
}
layer {
  name: "relu4_1"
  type: "ReLU"
  bottom: "conv4_1"
  top: "conv4_1"
}
layer {
  name: "conv4_2"
  type: "Convolution"
  bottom: "conv4_1"
  top: "conv4_2"
  param {
    lr_mult: 1
    decay_mult: 1
  }
  param {
    lr_mult: 2
    decay_mult: 0
  }
  convolution_param {
    num_output: 512
    pad: 1
    kernel_size: 3
  }
}
layer {
  name: "relu4_2"
  type: "ReLU"
  bottom: "conv4_2"
  top: "conv4_2"
}
layer {
  name: "conv4_3"
  type: "Convolution"
  bottom: "conv4_2"
  top: "conv4_3"
  param {
    lr_mult: 1
    decay_mult: 1
  }
  param {
    lr_mult: 2
    decay_mult: 0
  }
  convolution_param {
    num_output: 512
    pad: 1
    kernel_size: 3
  }
}
layer {
  name: "relu4_3"
  type: "ReLU"
  bottom: "conv4_3"
  top: "conv4_3"
}
layer {
  name: "pool4"
  type: "Pooling"
  bottom: "conv4_3"
  top: "pool4"
  pooling_param {
    pool: MAX
    kernel_size: 2
    stride: 2
  }
}
layer {
  name: "conv5_1"
  type: "Convolution"
  bottom: "pool4"
  top: "conv5_1"
  param {
    lr_mult: 1
    decay_mult: 1
  }
  param {
    lr_mult: 2
    decay_mult: 0
  }
  convolution_param {
    num_output: 512
    pad: 1
    kernel_size: 3
  }
}
layer {
  name: "relu5_1"
  type: "ReLU"
  bottom: "conv5_1"
  top: "conv5_1"
}
layer {
  name: "conv5_2"
  type: "Convolution"
  bottom: "conv5_1"
  top: "conv5_2"
  param {
    lr_mult: 1
    decay_mult: 1
  }
  param {
    lr_mult: 2
    decay_mult: 0
  }
  convolution_param {
    num_output: 512
    pad: 1
    kernel_size: 3
  }
}
layer {
  name: "relu5_2"
  type: "ReLU"
  bottom: "conv5_2"
  top: "conv5_2"
}
layer {
  name: "conv5_3"
  type: "Convolution"
  bottom: "conv5_2"
  top: "conv5_3"
  param {
    lr_mult: 1
    decay_mult: 1
  }
  param {
    lr_mult: 2
    decay_mult: 0
  }
  convolution_param {
    num_output: 512
    pad: 1
    kernel_size: 3
  }
}
layer {
  name: "relu5_3"
  type: "ReLU"
  bottom: "conv5_3"
  top: "conv5_3"
}
layer {
  name: "rpn_conv/3x3"
  type: "Convolution"
  bottom: "conv5_3"
  top: "rpn/output"
  param {
    lr_mult: 1
    decay_mult: 1
  }
  param {
    lr_mult: 2
    decay_mult: 0
  }
  convolution_param {
    num_output: 512
    pad: 1
    kernel_size: 3
    stride: 1
    weight_filler {
      type: "gaussian"
      std: 0.01
    }
    bias_filler {
      type: "constant"
      value: 0
    }
  }
}
layer {
  name: "rpn_relu/3x3"
  type: "ReLU"
  bottom: "rpn/output"
  top: "rpn/output"
}
layer {
  name: "rpn_cls_score"
  type: "Convolution"
  bottom: "rpn/output"
  top: "rpn_cls_score"
  param {
    lr_mult: 1
    decay_mult: 1
  }
  param {
    lr_mult: 2
    decay_mult: 0
  }
  convolution_param {
    num_output: 18
    pad: 0
    kernel_size: 1
    stride: 1
    weight_filler {
      type: "gaussian"
      std: 0.01
    }
    bias_filler {
      type: "constant"
      value: 0
    }
  }
}
layer {
  name: "rpn_bbox_pred"
  type: "Convolution"
  bottom: "rpn/output"
  top: "rpn_bbox_pred"
  param {
    lr_mult: 1
    decay_mult: 1
  }
  param {
    lr_mult: 2
    decay_mult: 0
  }
  convolution_param {
    num_output: 36
    pad: 0
    kernel_size: 1
    stride: 1
    weight_filler {
      type: "gaussian"
      std: 0.01
    }
    bias_filler {
      type: "constant"
      value: 0
    }
  }
}
layer {
  name: "rpn_cls_score_reshape"
  type: "Reshape"
  bottom: "rpn_cls_score"
  top: "rpn_cls_score_reshape"
  reshape_param {
    shape {
      dim: 0
      dim: 2
      dim: -1
      dim: 0
    }
  }
}
layer {
  name: "rpn_cls_prob"
  type: "Softmax"
  bottom: "rpn_cls_score_reshape"
  top: "rpn_cls_prob"
}
layer {
  name: "rpn_cls_prob_reshape"
  type: "Reshape"
  bottom: "rpn_cls_prob"
  top: "rpn_cls_prob_reshape"
  reshape_param {
    shape {
      dim: 0
      dim: 18
      dim: -1
      dim: 0
    }
  }
}
layer {
  name: "proposal"
  type: "Python"
  bottom: "rpn_cls_prob_reshape"
  bottom: "rpn_bbox_pred"
  bottom: "im_info"
  top: "rois"
  python_param {
    module: "rpn.proposal_layer"
    layer: "ProposalLayer"
    param_str: "\'feat_stride\': 16"
  }
}
layer {
  name: "roi_pool5"
  type: "ROIPooling"
  bottom: "conv5_3"
  bottom: "rois"
  top: "pool5"
  roi_pooling_param {
    pooled_h: 7
    pooled_w: 7
    spatial_scale: 0.0625
  }
}
layer {
  name: "fc6"
  type: "InnerProduct"
  bottom: "pool5"
  top: "fc6"
  param {
    lr_mult: 1
    decay_mult: 1
  }
  param {
    lr_mult: 2
    decay_mult: 0
  }
  inner_product_param {
    num_output: 4096
  }
}
layer {
  name: "relu6"
  type: "ReLU"
  bottom: "fc6"
  top: "fc6"
}
layer {
  name: "drop6"
  type: "Dropout"
  bottom: "fc6"
  top: "fc6"
  dropout_param {
    dropout_ratio: 0.5
  }
}
layer {
  name: "fc7"
  type: "InnerProduct"
  bottom: "fc6"
  top: "fc7"
  param {
    lr_mult: 1
    decay_mult: 1
  }
  param {
    lr_mult: 2
    decay_mult: 0
  }
  inner_product_param {
    num_output: 4096
  }
}
layer {
  name: "relu7"
  type: "ReLU"
  bottom: "fc7"
  top: "fc7"
}
layer {
  name: "drop7"
  type: "Dropout"
  bottom: "fc7"
  top: "fc7"
  dropout_param {
    dropout_ratio: 0.5
  }
}
layer {
  name: "cls_score"
  type: "InnerProduct"
  bottom: "fc7"
  top: "cls_score"
  param {
    lr_mult: 1
    decay_mult: 1
  }
  param {
    lr_mult: 2
    decay_mult: 0
  }
  inner_product_param {
    num_output: 21
    weight_filler {
      type: "gaussian"
      std: 0.01
    }
    bias_filler {
      type: "constant"
      value: 0
    }
  }
}
layer {
  name: "bbox_pred"
  type: "InnerProduct"
  bottom: "fc7"
  top: "bbox_pred"
  param {
    lr_mult: 1
    decay_mult: 1
  }
  param {
    lr_mult: 2
    decay_mult: 0
  }
  inner_product_param {
    num_output: 84
    weight_filler {
      type: "gaussian"
      std: 0.001
    }
    bias_filler {
      type: "constant"
      value: 0
    }
  }
}
layer {
  name: "cls_prob"
  type: "Softmax"
  bottom: "cls_score"
  top: "cls_prob"
}
I0104 05:34:03.435935  2277 net.cpp:413] Input 0 -> data
I0104 05:34:03.462409  2277 net.cpp:413] Input 1 -> im_info
I0104 05:34:03.462496  2277 layer_factory.hpp:77] Creating layer conv1_1
I0104 05:34:03.462524  2277 net.cpp:106] Creating Layer conv1_1
I0104 05:34:03.462532  2277 net.cpp:454] conv1_1 <- data
I0104 05:34:03.462543  2277 net.cpp:411] conv1_1 -> conv1_1
I0104 05:34:03.699852  2277 net.cpp:150] Setting up conv1_1
I0104 05:34:03.699897  2277 net.cpp:157] Top shape: 1 64 224 224 (3211264)
I0104 05:34:03.699900  2277 net.cpp:165] Memory required for data: 12845056
I0104 05:34:03.699928  2277 layer_factory.hpp:77] Creating layer relu1_1
I0104 05:34:03.699949  2277 net.cpp:106] Creating Layer relu1_1
I0104 05:34:03.699952  2277 net.cpp:454] relu1_1 <- conv1_1
I0104 05:34:03.699961  2277 net.cpp:397] relu1_1 -> conv1_1 (in-place)
I0104 05:34:03.700748  2277 net.cpp:150] Setting up relu1_1
I0104 05:34:03.700762  2277 net.cpp:157] Top shape: 1 64 224 224 (3211264)
I0104 05:34:03.700765  2277 net.cpp:165] Memory required for data: 25690112
I0104 05:34:03.700768  2277 layer_factory.hpp:77] Creating layer conv1_2
I0104 05:34:03.700783  2277 net.cpp:106] Creating Layer conv1_2
I0104 05:34:03.700786  2277 net.cpp:454] conv1_2 <- conv1_1
I0104 05:34:03.700793  2277 net.cpp:411] conv1_2 -> conv1_2
I0104 05:34:03.704905  2277 net.cpp:150] Setting up conv1_2
I0104 05:34:03.704919  2277 net.cpp:157] Top shape: 1 64 224 224 (3211264)
I0104 05:34:03.704922  2277 net.cpp:165] Memory required for data: 38535168
I0104 05:34:03.704932  2277 layer_factory.hpp:77] Creating layer relu1_2
I0104 05:34:03.704938  2277 net.cpp:106] Creating Layer relu1_2
I0104 05:34:03.704941  2277 net.cpp:454] relu1_2 <- conv1_2
I0104 05:34:03.704946  2277 net.cpp:397] relu1_2 -> conv1_2 (in-place)
I0104 05:34:03.705137  2277 net.cpp:150] Setting up relu1_2
I0104 05:34:03.705152  2277 net.cpp:157] Top shape: 1 64 224 224 (3211264)
I0104 05:34:03.705154  2277 net.cpp:165] Memory required for data: 51380224
I0104 05:34:03.705158  2277 layer_factory.hpp:77] Creating layer pool1
I0104 05:34:03.705168  2277 net.cpp:106] Creating Layer pool1
I0104 05:34:03.705173  2277 net.cpp:454] pool1 <- conv1_2
I0104 05:34:03.705178  2277 net.cpp:411] pool1 -> pool1
I0104 05:34:03.705305  2277 net.cpp:150] Setting up pool1
I0104 05:34:03.705317  2277 net.cpp:157] Top shape: 1 64 112 112 (802816)
I0104 05:34:03.705319  2277 net.cpp:165] Memory required for data: 54591488
I0104 05:34:03.705322  2277 layer_factory.hpp:77] Creating layer conv2_1
I0104 05:34:03.705332  2277 net.cpp:106] Creating Layer conv2_1
I0104 05:34:03.705337  2277 net.cpp:454] conv2_1 <- pool1
I0104 05:34:03.705353  2277 net.cpp:411] conv2_1 -> conv2_1
I0104 05:34:03.713172  2277 net.cpp:150] Setting up conv2_1
I0104 05:34:03.713193  2277 net.cpp:157] Top shape: 1 128 112 112 (1605632)
I0104 05:34:03.713199  2277 net.cpp:165] Memory required for data: 61014016
I0104 05:34:03.713214  2277 layer_factory.hpp:77] Creating layer relu2_1
I0104 05:34:03.713222  2277 net.cpp:106] Creating Layer relu2_1
I0104 05:34:03.713227  2277 net.cpp:454] relu2_1 <- conv2_1
I0104 05:34:03.713232  2277 net.cpp:397] relu2_1 -> conv2_1 (in-place)
I0104 05:34:03.713433  2277 net.cpp:150] Setting up relu2_1
I0104 05:34:03.713445  2277 net.cpp:157] Top shape: 1 128 112 112 (1605632)
I0104 05:34:03.713449  2277 net.cpp:165] Memory required for data: 67436544
I0104 05:34:03.713488  2277 layer_factory.hpp:77] Creating layer conv2_2
I0104 05:34:03.713500  2277 net.cpp:106] Creating Layer conv2_2
I0104 05:34:03.713503  2277 net.cpp:454] conv2_2 <- conv2_1
I0104 05:34:03.713510  2277 net.cpp:411] conv2_2 -> conv2_2
I0104 05:34:03.716207  2277 net.cpp:150] Setting up conv2_2
I0104 05:34:03.716223  2277 net.cpp:157] Top shape: 1 128 112 112 (1605632)
I0104 05:34:03.716225  2277 net.cpp:165] Memory required for data: 73859072
I0104 05:34:03.716231  2277 layer_factory.hpp:77] Creating layer relu2_2
I0104 05:34:03.716241  2277 net.cpp:106] Creating Layer relu2_2
I0104 05:34:03.716244  2277 net.cpp:454] relu2_2 <- conv2_2
I0104 05:34:03.716250  2277 net.cpp:397] relu2_2 -> conv2_2 (in-place)
I0104 05:34:03.717360  2277 net.cpp:150] Setting up relu2_2
I0104 05:34:03.717393  2277 net.cpp:157] Top shape: 1 128 112 112 (1605632)
I0104 05:34:03.717401  2277 net.cpp:165] Memory required for data: 80281600
I0104 05:34:03.717409  2277 layer_factory.hpp:77] Creating layer pool2
I0104 05:34:03.717423  2277 net.cpp:106] Creating Layer pool2
I0104 05:34:03.717430  2277 net.cpp:454] pool2 <- conv2_2
I0104 05:34:03.717440  2277 net.cpp:411] pool2 -> pool2
I0104 05:34:03.717582  2277 net.cpp:150] Setting up pool2
I0104 05:34:03.717594  2277 net.cpp:157] Top shape: 1 128 56 56 (401408)
I0104 05:34:03.717598  2277 net.cpp:165] Memory required for data: 81887232
I0104 05:34:03.717603  2277 layer_factory.hpp:77] Creating layer conv3_1
I0104 05:34:03.717618  2277 net.cpp:106] Creating Layer conv3_1
I0104 05:34:03.717625  2277 net.cpp:454] conv3_1 <- pool2
I0104 05:34:03.717644  2277 net.cpp:411] conv3_1 -> conv3_1
I0104 05:34:03.722239  2277 net.cpp:150] Setting up conv3_1
I0104 05:34:03.722264  2277 net.cpp:157] Top shape: 1 256 56 56 (802816)
I0104 05:34:03.722267  2277 net.cpp:165] Memory required for data: 85098496
I0104 05:34:03.722287  2277 layer_factory.hpp:77] Creating layer relu3_1
I0104 05:34:03.722297  2277 net.cpp:106] Creating Layer relu3_1
I0104 05:34:03.722302  2277 net.cpp:454] relu3_1 <- conv3_1
I0104 05:34:03.722312  2277 net.cpp:397] relu3_1 -> conv3_1 (in-place)
I0104 05:34:03.722831  2277 net.cpp:150] Setting up relu3_1
I0104 05:34:03.722848  2277 net.cpp:157] Top shape: 1 256 56 56 (802816)
I0104 05:34:03.722852  2277 net.cpp:165] Memory required for data: 88309760
I0104 05:34:03.722856  2277 layer_factory.hpp:77] Creating layer conv3_2
I0104 05:34:03.722869  2277 net.cpp:106] Creating Layer conv3_2
I0104 05:34:03.722874  2277 net.cpp:454] conv3_2 <- conv3_1
I0104 05:34:03.722884  2277 net.cpp:411] conv3_2 -> conv3_2
I0104 05:34:03.728615  2277 net.cpp:150] Setting up conv3_2
I0104 05:34:03.728636  2277 net.cpp:157] Top shape: 1 256 56 56 (802816)
I0104 05:34:03.728641  2277 net.cpp:165] Memory required for data: 91521024
I0104 05:34:03.728649  2277 layer_factory.hpp:77] Creating layer relu3_2
I0104 05:34:03.728657  2277 net.cpp:106] Creating Layer relu3_2
I0104 05:34:03.728662  2277 net.cpp:454] relu3_2 <- conv3_2
I0104 05:34:03.728672  2277 net.cpp:397] relu3_2 -> conv3_2 (in-place)
I0104 05:34:03.729531  2277 net.cpp:150] Setting up relu3_2
I0104 05:34:03.729544  2277 net.cpp:157] Top shape: 1 256 56 56 (802816)
I0104 05:34:03.729548  2277 net.cpp:165] Memory required for data: 94732288
I0104 05:34:03.729552  2277 layer_factory.hpp:77] Creating layer conv3_3
I0104 05:34:03.729564  2277 net.cpp:106] Creating Layer conv3_3
I0104 05:34:03.729569  2277 net.cpp:454] conv3_3 <- conv3_2
I0104 05:34:03.729578  2277 net.cpp:411] conv3_3 -> conv3_3
I0104 05:34:03.735927  2277 net.cpp:150] Setting up conv3_3
I0104 05:34:03.735949  2277 net.cpp:157] Top shape: 1 256 56 56 (802816)
I0104 05:34:03.735954  2277 net.cpp:165] Memory required for data: 97943552
I0104 05:34:03.735962  2277 layer_factory.hpp:77] Creating layer relu3_3
I0104 05:34:03.735970  2277 net.cpp:106] Creating Layer relu3_3
I0104 05:34:03.735975  2277 net.cpp:454] relu3_3 <- conv3_3
I0104 05:34:03.735981  2277 net.cpp:397] relu3_3 -> conv3_3 (in-place)
I0104 05:34:03.736850  2277 net.cpp:150] Setting up relu3_3
I0104 05:34:03.736867  2277 net.cpp:157] Top shape: 1 256 56 56 (802816)
I0104 05:34:03.736871  2277 net.cpp:165] Memory required for data: 101154816
I0104 05:34:03.736876  2277 layer_factory.hpp:77] Creating layer pool3
I0104 05:34:03.736891  2277 net.cpp:106] Creating Layer pool3
I0104 05:34:03.736896  2277 net.cpp:454] pool3 <- conv3_3
I0104 05:34:03.736902  2277 net.cpp:411] pool3 -> pool3
I0104 05:34:03.737000  2277 net.cpp:150] Setting up pool3
I0104 05:34:03.737011  2277 net.cpp:157] Top shape: 1 256 28 28 (200704)
I0104 05:34:03.737015  2277 net.cpp:165] Memory required for data: 101957632
I0104 05:34:03.737018  2277 layer_factory.hpp:77] Creating layer conv4_1
I0104 05:34:03.737030  2277 net.cpp:106] Creating Layer conv4_1
I0104 05:34:03.737036  2277 net.cpp:454] conv4_1 <- pool3
I0104 05:34:03.737042  2277 net.cpp:411] conv4_1 -> conv4_1
I0104 05:34:03.745059  2277 net.cpp:150] Setting up conv4_1
I0104 05:34:03.745082  2277 net.cpp:157] Top shape: 1 512 28 28 (401408)
I0104 05:34:03.745086  2277 net.cpp:165] Memory required for data: 103563264
I0104 05:34:03.745095  2277 layer_factory.hpp:77] Creating layer relu4_1
I0104 05:34:03.745102  2277 net.cpp:106] Creating Layer relu4_1
I0104 05:34:03.745107  2277 net.cpp:454] relu4_1 <- conv4_1
I0104 05:34:03.745112  2277 net.cpp:397] relu4_1 -> conv4_1 (in-place)
I0104 05:34:03.745373  2277 net.cpp:150] Setting up relu4_1
I0104 05:34:03.745385  2277 net.cpp:157] Top shape: 1 512 28 28 (401408)
I0104 05:34:03.745388  2277 net.cpp:165] Memory required for data: 105168896
I0104 05:34:03.745393  2277 layer_factory.hpp:77] Creating layer conv4_2
I0104 05:34:03.745404  2277 net.cpp:106] Creating Layer conv4_2
I0104 05:34:03.745407  2277 net.cpp:454] conv4_2 <- conv4_1
I0104 05:34:03.745415  2277 net.cpp:411] conv4_2 -> conv4_2
I0104 05:34:03.756054  2277 net.cpp:150] Setting up conv4_2
I0104 05:34:03.756080  2277 net.cpp:157] Top shape: 1 512 28 28 (401408)
I0104 05:34:03.756084  2277 net.cpp:165] Memory required for data: 106774528
I0104 05:34:03.756103  2277 layer_factory.hpp:77] Creating layer relu4_2
I0104 05:34:03.756112  2277 net.cpp:106] Creating Layer relu4_2
I0104 05:34:03.756117  2277 net.cpp:454] relu4_2 <- conv4_2
I0104 05:34:03.756124  2277 net.cpp:397] relu4_2 -> conv4_2 (in-place)
I0104 05:34:03.756964  2277 net.cpp:150] Setting up relu4_2
I0104 05:34:03.756979  2277 net.cpp:157] Top shape: 1 512 28 28 (401408)
I0104 05:34:03.756983  2277 net.cpp:165] Memory required for data: 108380160
I0104 05:34:03.756988  2277 layer_factory.hpp:77] Creating layer conv4_3
I0104 05:34:03.756996  2277 net.cpp:106] Creating Layer conv4_3
I0104 05:34:03.756999  2277 net.cpp:454] conv4_3 <- conv4_2
I0104 05:34:03.757010  2277 net.cpp:411] conv4_3 -> conv4_3
I0104 05:34:03.767076  2277 net.cpp:150] Setting up conv4_3
I0104 05:34:03.767097  2277 net.cpp:157] Top shape: 1 512 28 28 (401408)
I0104 05:34:03.767102  2277 net.cpp:165] Memory required for data: 109985792
I0104 05:34:03.767112  2277 layer_factory.hpp:77] Creating layer relu4_3
I0104 05:34:03.767119  2277 net.cpp:106] Creating Layer relu4_3
I0104 05:34:03.767124  2277 net.cpp:454] relu4_3 <- conv4_3
I0104 05:34:03.767132  2277 net.cpp:397] relu4_3 -> conv4_3 (in-place)
I0104 05:34:03.768023  2277 net.cpp:150] Setting up relu4_3
I0104 05:34:03.768040  2277 net.cpp:157] Top shape: 1 512 28 28 (401408)
I0104 05:34:03.768044  2277 net.cpp:165] Memory required for data: 111591424
I0104 05:34:03.768049  2277 layer_factory.hpp:77] Creating layer pool4
I0104 05:34:03.768060  2277 net.cpp:106] Creating Layer pool4
I0104 05:34:03.768064  2277 net.cpp:454] pool4 <- conv4_3
I0104 05:34:03.768070  2277 net.cpp:411] pool4 -> pool4
I0104 05:34:03.768157  2277 net.cpp:150] Setting up pool4
I0104 05:34:03.768167  2277 net.cpp:157] Top shape: 1 512 14 14 (100352)
I0104 05:34:03.768169  2277 net.cpp:165] Memory required for data: 111992832
I0104 05:34:03.768173  2277 layer_factory.hpp:77] Creating layer conv5_1
I0104 05:34:03.768184  2277 net.cpp:106] Creating Layer conv5_1
I0104 05:34:03.768190  2277 net.cpp:454] conv5_1 <- pool4
I0104 05:34:03.768198  2277 net.cpp:411] conv5_1 -> conv5_1
I0104 05:34:03.777992  2277 net.cpp:150] Setting up conv5_1
I0104 05:34:03.778012  2277 net.cpp:157] Top shape: 1 512 14 14 (100352)
I0104 05:34:03.778017  2277 net.cpp:165] Memory required for data: 112394240
I0104 05:34:03.778023  2277 layer_factory.hpp:77] Creating layer relu5_1
I0104 05:34:03.778033  2277 net.cpp:106] Creating Layer relu5_1
I0104 05:34:03.778038  2277 net.cpp:454] relu5_1 <- conv5_1
I0104 05:34:03.778043  2277 net.cpp:397] relu5_1 -> conv5_1 (in-place)
I0104 05:34:03.779249  2277 net.cpp:150] Setting up relu5_1
I0104 05:34:03.779263  2277 net.cpp:157] Top shape: 1 512 14 14 (100352)
I0104 05:34:03.779265  2277 net.cpp:165] Memory required for data: 112795648
I0104 05:34:03.779269  2277 layer_factory.hpp:77] Creating layer conv5_2
I0104 05:34:03.779279  2277 net.cpp:106] Creating Layer conv5_2
I0104 05:34:03.779284  2277 net.cpp:454] conv5_2 <- conv5_1
I0104 05:34:03.779289  2277 net.cpp:411] conv5_2 -> conv5_2
I0104 05:34:03.789245  2277 net.cpp:150] Setting up conv5_2
I0104 05:34:03.789263  2277 net.cpp:157] Top shape: 1 512 14 14 (100352)
I0104 05:34:03.789266  2277 net.cpp:165] Memory required for data: 113197056
I0104 05:34:03.789274  2277 layer_factory.hpp:77] Creating layer relu5_2
I0104 05:34:03.789283  2277 net.cpp:106] Creating Layer relu5_2
I0104 05:34:03.789288  2277 net.cpp:454] relu5_2 <- conv5_2
I0104 05:34:03.789293  2277 net.cpp:397] relu5_2 -> conv5_2 (in-place)
I0104 05:34:03.790195  2277 net.cpp:150] Setting up relu5_2
I0104 05:34:03.790208  2277 net.cpp:157] Top shape: 1 512 14 14 (100352)
I0104 05:34:03.790211  2277 net.cpp:165] Memory required for data: 113598464
I0104 05:34:03.790215  2277 layer_factory.hpp:77] Creating layer conv5_3
I0104 05:34:03.790223  2277 net.cpp:106] Creating Layer conv5_3
I0104 05:34:03.790226  2277 net.cpp:454] conv5_3 <- conv5_2
I0104 05:34:03.790235  2277 net.cpp:411] conv5_3 -> conv5_3
I0104 05:34:03.799062  2277 net.cpp:150] Setting up conv5_3
I0104 05:34:03.799077  2277 net.cpp:157] Top shape: 1 512 14 14 (100352)
I0104 05:34:03.799082  2277 net.cpp:165] Memory required for data: 113999872
I0104 05:34:03.799088  2277 layer_factory.hpp:77] Creating layer relu5_3
I0104 05:34:03.799094  2277 net.cpp:106] Creating Layer relu5_3
I0104 05:34:03.799098  2277 net.cpp:454] relu5_3 <- conv5_3
I0104 05:34:03.799106  2277 net.cpp:397] relu5_3 -> conv5_3 (in-place)
I0104 05:34:03.800071  2277 net.cpp:150] Setting up relu5_3
I0104 05:34:03.800086  2277 net.cpp:157] Top shape: 1 512 14 14 (100352)
I0104 05:34:03.800088  2277 net.cpp:165] Memory required for data: 114401280
I0104 05:34:03.800092  2277 layer_factory.hpp:77] Creating layer conv5_3_relu5_3_0_split
I0104 05:34:03.800101  2277 net.cpp:106] Creating Layer conv5_3_relu5_3_0_split
I0104 05:34:03.800104  2277 net.cpp:454] conv5_3_relu5_3_0_split <- conv5_3
I0104 05:34:03.800110  2277 net.cpp:411] conv5_3_relu5_3_0_split -> conv5_3_relu5_3_0_split_0
I0104 05:34:03.800117  2277 net.cpp:411] conv5_3_relu5_3_0_split -> conv5_3_relu5_3_0_split_1
I0104 05:34:03.800205  2277 net.cpp:150] Setting up conv5_3_relu5_3_0_split
I0104 05:34:03.800218  2277 net.cpp:157] Top shape: 1 512 14 14 (100352)
I0104 05:34:03.800222  2277 net.cpp:157] Top shape: 1 512 14 14 (100352)
I0104 05:34:03.800225  2277 net.cpp:165] Memory required for data: 115204096
I0104 05:34:03.800228  2277 layer_factory.hpp:77] Creating layer rpn_conv/3x3
I0104 05:34:03.800240  2277 net.cpp:106] Creating Layer rpn_conv/3x3
I0104 05:34:03.800246  2277 net.cpp:454] rpn_conv/3x3 <- conv5_3_relu5_3_0_split_0
I0104 05:34:03.800251  2277 net.cpp:411] rpn_conv/3x3 -> rpn/output
I0104 05:34:03.833432  2277 net.cpp:150] Setting up rpn_conv/3x3
I0104 05:34:03.833449  2277 net.cpp:157] Top shape: 1 512 14 14 (100352)
I0104 05:34:03.833453  2277 net.cpp:165] Memory required for data: 115605504
I0104 05:34:03.833461  2277 layer_factory.hpp:77] Creating layer rpn_relu/3x3
I0104 05:34:03.833477  2277 net.cpp:106] Creating Layer rpn_relu/3x3
I0104 05:34:03.833482  2277 net.cpp:454] rpn_relu/3x3 <- rpn/output
I0104 05:34:03.833488  2277 net.cpp:397] rpn_relu/3x3 -> rpn/output (in-place)
I0104 05:34:03.834450  2277 net.cpp:150] Setting up rpn_relu/3x3
I0104 05:34:03.834462  2277 net.cpp:157] Top shape: 1 512 14 14 (100352)
I0104 05:34:03.834465  2277 net.cpp:165] Memory required for data: 116006912
I0104 05:34:03.834468  2277 layer_factory.hpp:77] Creating layer rpn/output_rpn_relu/3x3_0_split
I0104 05:34:03.834475  2277 net.cpp:106] Creating Layer rpn/output_rpn_relu/3x3_0_split
I0104 05:34:03.834478  2277 net.cpp:454] rpn/output_rpn_relu/3x3_0_split <- rpn/output
I0104 05:34:03.834486  2277 net.cpp:411] rpn/output_rpn_relu/3x3_0_split -> rpn/output_rpn_relu/3x3_0_split_0
I0104 05:34:03.834492  2277 net.cpp:411] rpn/output_rpn_relu/3x3_0_split -> rpn/output_rpn_relu/3x3_0_split_1
I0104 05:34:03.834571  2277 net.cpp:150] Setting up rpn/output_rpn_relu/3x3_0_split
I0104 05:34:03.834579  2277 net.cpp:157] Top shape: 1 512 14 14 (100352)
I0104 05:34:03.834584  2277 net.cpp:157] Top shape: 1 512 14 14 (100352)
I0104 05:34:03.834586  2277 net.cpp:165] Memory required for data: 116809728
I0104 05:34:03.834589  2277 layer_factory.hpp:77] Creating layer rpn_cls_score
I0104 05:34:03.834602  2277 net.cpp:106] Creating Layer rpn_cls_score
I0104 05:34:03.834609  2277 net.cpp:454] rpn_cls_score <- rpn/output_rpn_relu/3x3_0_split_0
I0104 05:34:03.834615  2277 net.cpp:411] rpn_cls_score -> rpn_cls_score
I0104 05:34:03.838194  2277 net.cpp:150] Setting up rpn_cls_score
I0104 05:34:03.838209  2277 net.cpp:157] Top shape: 1 18 14 14 (3528)
I0104 05:34:03.838212  2277 net.cpp:165] Memory required for data: 116823840
I0104 05:34:03.838219  2277 layer_factory.hpp:77] Creating layer rpn_bbox_pred
I0104 05:34:03.838232  2277 net.cpp:106] Creating Layer rpn_bbox_pred
I0104 05:34:03.838238  2277 net.cpp:454] rpn_bbox_pred <- rpn/output_rpn_relu/3x3_0_split_1
I0104 05:34:03.838245  2277 net.cpp:411] rpn_bbox_pred -> rpn_bbox_pred
I0104 05:34:03.841717  2277 net.cpp:150] Setting up rpn_bbox_pred
I0104 05:34:03.841732  2277 net.cpp:157] Top shape: 1 36 14 14 (7056)
I0104 05:34:03.841734  2277 net.cpp:165] Memory required for data: 116852064
I0104 05:34:03.841740  2277 layer_factory.hpp:77] Creating layer rpn_cls_score_reshape
I0104 05:34:03.841755  2277 net.cpp:106] Creating Layer rpn_cls_score_reshape
I0104 05:34:03.841759  2277 net.cpp:454] rpn_cls_score_reshape <- rpn_cls_score
I0104 05:34:03.841766  2277 net.cpp:411] rpn_cls_score_reshape -> rpn_cls_score_reshape
I0104 05:34:03.841821  2277 net.cpp:150] Setting up rpn_cls_score_reshape
I0104 05:34:03.841828  2277 net.cpp:157] Top shape: 1 2 126 14 (3528)
I0104 05:34:03.841830  2277 net.cpp:165] Memory required for data: 116866176
I0104 05:34:03.841833  2277 layer_factory.hpp:77] Creating layer rpn_cls_prob
I0104 05:34:03.841842  2277 net.cpp:106] Creating Layer rpn_cls_prob
I0104 05:34:03.841856  2277 net.cpp:454] rpn_cls_prob <- rpn_cls_score_reshape
I0104 05:34:03.841861  2277 net.cpp:411] rpn_cls_prob -> rpn_cls_prob
I0104 05:34:03.842787  2277 net.cpp:150] Setting up rpn_cls_prob
I0104 05:34:03.842799  2277 net.cpp:157] Top shape: 1 2 126 14 (3528)
I0104 05:34:03.842803  2277 net.cpp:165] Memory required for data: 116880288
I0104 05:34:03.842806  2277 layer_factory.hpp:77] Creating layer rpn_cls_prob_reshape
I0104 05:34:03.842814  2277 net.cpp:106] Creating Layer rpn_cls_prob_reshape
I0104 05:34:03.842820  2277 net.cpp:454] rpn_cls_prob_reshape <- rpn_cls_prob
I0104 05:34:03.842828  2277 net.cpp:411] rpn_cls_prob_reshape -> rpn_cls_prob_reshape
I0104 05:34:03.842882  2277 net.cpp:150] Setting up rpn_cls_prob_reshape
I0104 05:34:03.842892  2277 net.cpp:157] Top shape: 1 18 14 14 (3528)
I0104 05:34:03.842895  2277 net.cpp:165] Memory required for data: 116894400
I0104 05:34:03.842898  2277 layer_factory.hpp:77] Creating layer proposal
I0104 05:34:03.849704  2277 net.cpp:106] Creating Layer proposal
I0104 05:34:03.849725  2277 net.cpp:454] proposal <- rpn_cls_prob_reshape
I0104 05:34:03.849732  2277 net.cpp:454] proposal <- rpn_bbox_pred
I0104 05:34:03.849736  2277 net.cpp:454] proposal <- im_info
I0104 05:34:03.849743  2277 net.cpp:411] proposal -> rois
I0104 05:34:03.851135  2277 net.cpp:150] Setting up proposal
I0104 05:34:03.851155  2277 net.cpp:157] Top shape: 1 5 (5)
I0104 05:34:03.851158  2277 net.cpp:165] Memory required for data: 116894420
I0104 05:34:03.851162  2277 layer_factory.hpp:77] Creating layer roi_pool5
I0104 05:34:03.851176  2277 net.cpp:106] Creating Layer roi_pool5
I0104 05:34:03.851179  2277 net.cpp:454] roi_pool5 <- conv5_3_relu5_3_0_split_1
I0104 05:34:03.851186  2277 net.cpp:454] roi_pool5 <- rois
I0104 05:34:03.851192  2277 net.cpp:411] roi_pool5 -> pool5
I0104 05:34:03.851202  2277 roi_pooling_layer.cpp:30] Spatial scale: 0.0625
I0104 05:34:03.851305  2277 net.cpp:150] Setting up roi_pool5
I0104 05:34:03.851313  2277 net.cpp:157] Top shape: 1 512 7 7 (25088)
I0104 05:34:03.851316  2277 net.cpp:165] Memory required for data: 116994772
I0104 05:34:03.851320  2277 layer_factory.hpp:77] Creating layer fc6
I0104 05:34:03.851330  2277 net.cpp:106] Creating Layer fc6
I0104 05:34:03.851333  2277 net.cpp:454] fc6 <- pool5
I0104 05:34:03.851338  2277 net.cpp:411] fc6 -> fc6
I0104 05:34:04.141857  2277 net.cpp:150] Setting up fc6
I0104 05:34:04.141904  2277 net.cpp:157] Top shape: 1 4096 (4096)
I0104 05:34:04.141908  2277 net.cpp:165] Memory required for data: 117011156
I0104 05:34:04.141928  2277 layer_factory.hpp:77] Creating layer relu6
I0104 05:34:04.141944  2277 net.cpp:106] Creating Layer relu6
I0104 05:34:04.141949  2277 net.cpp:454] relu6 <- fc6
I0104 05:34:04.141957  2277 net.cpp:397] relu6 -> fc6 (in-place)
I0104 05:34:04.142915  2277 net.cpp:150] Setting up relu6
I0104 05:34:04.142931  2277 net.cpp:157] Top shape: 1 4096 (4096)
I0104 05:34:04.142935  2277 net.cpp:165] Memory required for data: 117027540
I0104 05:34:04.142937  2277 layer_factory.hpp:77] Creating layer drop6
I0104 05:34:04.142956  2277 net.cpp:106] Creating Layer drop6
I0104 05:34:04.142961  2277 net.cpp:454] drop6 <- fc6
I0104 05:34:04.142966  2277 net.cpp:397] drop6 -> fc6 (in-place)
I0104 05:34:04.143021  2277 net.cpp:150] Setting up drop6
I0104 05:34:04.143031  2277 net.cpp:157] Top shape: 1 4096 (4096)
I0104 05:34:04.143034  2277 net.cpp:165] Memory required for data: 117043924
I0104 05:34:04.143038  2277 layer_factory.hpp:77] Creating layer fc7
I0104 05:34:04.143044  2277 net.cpp:106] Creating Layer fc7
I0104 05:34:04.143048  2277 net.cpp:454] fc7 <- fc6
I0104 05:34:04.143052  2277 net.cpp:411] fc7 -> fc7
I0104 05:34:04.198060  2277 net.cpp:150] Setting up fc7
I0104 05:34:04.198099  2277 net.cpp:157] Top shape: 1 4096 (4096)
I0104 05:34:04.198102  2277 net.cpp:165] Memory required for data: 117060308
I0104 05:34:04.198114  2277 layer_factory.hpp:77] Creating layer relu7
I0104 05:34:04.198127  2277 net.cpp:106] Creating Layer relu7
I0104 05:34:04.198132  2277 net.cpp:454] relu7 <- fc7
I0104 05:34:04.198139  2277 net.cpp:397] relu7 -> fc7 (in-place)
I0104 05:34:04.198446  2277 net.cpp:150] Setting up relu7
I0104 05:34:04.198457  2277 net.cpp:157] Top shape: 1 4096 (4096)
I0104 05:34:04.198459  2277 net.cpp:165] Memory required for data: 117076692
I0104 05:34:04.198463  2277 layer_factory.hpp:77] Creating layer drop7
I0104 05:34:04.198470  2277 net.cpp:106] Creating Layer drop7
I0104 05:34:04.198473  2277 net.cpp:454] drop7 <- fc7
I0104 05:34:04.198479  2277 net.cpp:397] drop7 -> fc7 (in-place)
I0104 05:34:04.198529  2277 net.cpp:150] Setting up drop7
I0104 05:34:04.198537  2277 net.cpp:157] Top shape: 1 4096 (4096)
I0104 05:34:04.198540  2277 net.cpp:165] Memory required for data: 117093076
I0104 05:34:04.198544  2277 layer_factory.hpp:77] Creating layer fc7_drop7_0_split
I0104 05:34:04.198549  2277 net.cpp:106] Creating Layer fc7_drop7_0_split
I0104 05:34:04.198554  2277 net.cpp:454] fc7_drop7_0_split <- fc7
I0104 05:34:04.198560  2277 net.cpp:411] fc7_drop7_0_split -> fc7_drop7_0_split_0
I0104 05:34:04.198570  2277 net.cpp:411] fc7_drop7_0_split -> fc7_drop7_0_split_1
I0104 05:34:04.198654  2277 net.cpp:150] Setting up fc7_drop7_0_split
I0104 05:34:04.198662  2277 net.cpp:157] Top shape: 1 4096 (4096)
I0104 05:34:04.198667  2277 net.cpp:157] Top shape: 1 4096 (4096)
I0104 05:34:04.198668  2277 net.cpp:165] Memory required for data: 117125844
I0104 05:34:04.198671  2277 layer_factory.hpp:77] Creating layer cls_score
I0104 05:34:04.198683  2277 net.cpp:106] Creating Layer cls_score
I0104 05:34:04.198686  2277 net.cpp:454] cls_score <- fc7_drop7_0_split_0
I0104 05:34:04.198694  2277 net.cpp:411] cls_score -> cls_score
I0104 05:34:04.201287  2277 net.cpp:150] Setting up cls_score
I0104 05:34:04.201303  2277 net.cpp:157] Top shape: 1 21 (21)
I0104 05:34:04.201304  2277 net.cpp:165] Memory required for data: 117125928
I0104 05:34:04.201311  2277 layer_factory.hpp:77] Creating layer bbox_pred
I0104 05:34:04.201319  2277 net.cpp:106] Creating Layer bbox_pred
I0104 05:34:04.201323  2277 net.cpp:454] bbox_pred <- fc7_drop7_0_split_1
I0104 05:34:04.201329  2277 net.cpp:411] bbox_pred -> bbox_pred
I0104 05:34:04.207028  2277 net.cpp:150] Setting up bbox_pred
I0104 05:34:04.207043  2277 net.cpp:157] Top shape: 1 84 (84)
I0104 05:34:04.207046  2277 net.cpp:165] Memory required for data: 117126264
I0104 05:34:04.207053  2277 layer_factory.hpp:77] Creating layer cls_prob
I0104 05:34:04.207060  2277 net.cpp:106] Creating Layer cls_prob
I0104 05:34:04.207064  2277 net.cpp:454] cls_prob <- cls_score
I0104 05:34:04.207069  2277 net.cpp:411] cls_prob -> cls_prob
I0104 05:34:04.207943  2277 net.cpp:150] Setting up cls_prob
I0104 05:34:04.207958  2277 net.cpp:157] Top shape: 1 21 (21)
I0104 05:34:04.207962  2277 net.cpp:165] Memory required for data: 117126348
I0104 05:34:04.207964  2277 net.cpp:228] cls_prob does not need backward computation.
I0104 05:34:04.207968  2277 net.cpp:228] bbox_pred does not need backward computation.
I0104 05:34:04.207972  2277 net.cpp:228] cls_score does not need backward computation.
I0104 05:34:04.207974  2277 net.cpp:228] fc7_drop7_0_split does not need backward computation.
…
