…
snapshot_prefix: "vggADC"
average_loss: 100
iter_size: 2
I1115 14:48:10.009599   840 solver.cpp:77] Creating training net from train_net file: models/pascal_voc/VGG_ADC/faster_rcnn_end2end/train.prototxt
I1115 14:48:10.013002   840 net.cpp:51] Initializing net from parameters: 
name: "VGG_ILSVRC_16_layers"
state {
  phase: TRAIN
}
layer {
  name: "input-data"
  type: "Python"
  top: "data"
  top: "im_info"
  top: "gt_boxes"
  python_param {
    module: "roi_data_layer.layer"
    layer: "RoIDataLayer"
    param_str: "\'num_classes\': 21"
  }
}
layer {
  name: "conv1_1_W_prime"
  type: "Convolution"
  bottom: "data"
  top: "conv1_1_W_prime"
  param {
    lr_mult: 0
    decay_mult: 0
  }
  param {
    lr_mult: 0
    decay_mult: 0
  }
  convolution_param {
    num_output: 24
    pad: 1
    kernel_size: 3
  }
}
layer {
  name: "conv1_1_P"
  type: "Convolution"
  bottom: "conv1_1_W_prime"
  top: "conv1_1_P"
  param {
    lr_mult: 0
    decay_mult: 0
  }
  param {
    lr_mult: 0
    decay_mult: 0
  }
  convolution_param {
    num_output: 64
    pad: 0
    kernel_size: 1
    stride: 1
    weight_filler {
      type: "msra"
    }
    bias_filler {
      type: "constant"
      value: 0
    }
  }
}
layer {
  name: "relu1_1"
  type: "ReLU"
  bottom: "conv1_1_P"
  top: "conv1_1_P"
}
layer {
  name: "conv1_2_W_prime"
  type: "Convolution"
  bottom: "conv1_1_P"
  top: "conv1_2_W_prime"
  param {
    lr_mult: 0
    decay_mult: 0
  }
  param {
    lr_mult: 0
    decay_mult: 0
  }
  convolution_param {
    num_output: 11
    pad: 1
    kernel_size: 3
  }
}
layer {
  name: "conv1_2_P"
  type: "Convolution"
  bottom: "conv1_2_W_prime"
  top: "conv1_2_P"
  param {
    lr_mult: 0
    decay_mult: 0
  }
  param {
    lr_mult: 0
    decay_mult: 0
  }
  convolution_param {
    num_output: 64
    pad: 0
    kernel_size: 1
    stride: 1
    weight_filler {
      type: "msra"
    }
    bias_filler {
      type: "constant"
      value: 0
    }
  }
}
layer {
  name: "relu1_2"
  type: "ReLU"
  bottom: "conv1_2_P"
  top: "conv1_2_P"
}
layer {
  name: "pool1"
  type: "Pooling"
  bottom: "conv1_2_P"
  top: "pool1"
  pooling_param {
    pool: MAX
    kernel_size: 2
    stride: 2
  }
}
layer {
  name: "conv2_1_W_prime"
  type: "Convolution"
  bottom: "pool1"
  top: "conv2_1_W_prime"
  param {
    lr_mult: 0
    decay_mult: 0
  }
  param {
    lr_mult: 0
    decay_mult: 0
  }
  convolution_param {
    num_output: 27
    pad: 1
    kernel_size: 3
  }
}
layer {
  name: "conv2_1_P"
  type: "Convolution"
  bottom: "conv2_1_W_prime"
  top: "conv2_1_P"
  param {
    lr_mult: 0
    decay_mult: 0
  }
  param {
    lr_mult: 0
    decay_mult: 0
  }
  convolution_param {
    num_output: 128
    pad: 0
    kernel_size: 1
    stride: 1
    weight_filler {
      type: "msra"
    }
    bias_filler {
      type: "constant"
      value: 0
    }
  }
}
layer {
  name: "relu2_1"
  type: "ReLU"
  bottom: "conv2_1_P"
  top: "conv2_1_P"
}
layer {
  name: "conv2_2_W_prime"
  type: "Convolution"
  bottom: "conv2_1_P"
  top: "conv2_2_W_prime"
  param {
    lr_mult: 0
    decay_mult: 0
  }
  param {
    lr_mult: 0
    decay_mult: 0
  }
  convolution_param {
    num_output: 24
    pad: 1
    kernel_size: 3
  }
}
layer {
  name: "conv2_2_P"
  type: "Convolution"
  bottom: "conv2_2_W_prime"
  top: "conv2_2_P"
  param {
    lr_mult: 0
    decay_mult: 0
  }
  param {
    lr_mult: 0
    decay_mult: 0
  }
  convolution_param {
    num_output: 128
    pad: 0
    kernel_size: 1
    stride: 1
    weight_filler {
      type: "msra"
    }
    bias_filler {
      type: "constant"
      value: 0
    }
  }
}
layer {
  name: "relu2_2"
  type: "ReLU"
  bottom: "conv2_2_P"
  top: "conv2_2_P"
}
layer {
  name: "pool2"
  type: "Pooling"
  bottom: "conv2_2_P"
  top: "pool2"
  pooling_param {
    pool: MAX
    kernel_size: 2
    stride: 2
  }
}
layer {
  name: "conv3_1_W_prime"
  type: "Convolution"
  bottom: "pool2"
  top: "conv3_1_W_prime"
  convolution_param {
    num_output: 67
    pad: 1
    kernel_size: 3
  }
}
layer {
  name: "conv3_1_P"
  type: "Convolution"
  bottom: "conv3_1_W_prime"
  top: "conv3_1_P"
  param {
    lr_mult: 1
  }
  param {
    lr_mult: 2
  }
  convolution_param {
    num_output: 256
    pad: 0
    kernel_size: 1
    stride: 1
    weight_filler {
      type: "msra"
    }
    bias_filler {
      type: "constant"
      value: 0
    }
  }
}
layer {
  name: "relu3_1"
  type: "ReLU"
  bottom: "conv3_1_P"
  top: "conv3_1_P"
}
layer {
  name: "conv3_2_W_prime"
  type: "Convolution"
  bottom: "conv3_1_P"
  top: "conv3_2_W_prime"
  convolution_param {
    num_output: 44
    pad: 1
    kernel_size: 3
  }
}
layer {
  name: "conv3_2_P"
  type: "Convolution"
  bottom: "conv3_2_W_prime"
  top: "conv3_2_P"
  param {
    lr_mult: 1
  }
  param {
    lr_mult: 2
  }
  convolution_param {
    num_output: 256
    pad: 0
    kernel_size: 1
    stride: 1
    weight_filler {
      type: "msra"
    }
    bias_filler {
      type: "constant"
      value: 0
    }
  }
}
layer {
  name: "relu3_2"
  type: "ReLU"
  bottom: "conv3_2_P"
  top: "conv3_2_P"
}
layer {
  name: "conv3_3_W_prime"
  type: "Convolution"
  bottom: "conv3_2_P"
  top: "conv3_3_W_prime"
  convolution_param {
    num_output: 75
    pad: 1
    kernel_size: 3
  }
}
layer {
  name: "conv3_3_P"
  type: "Convolution"
  bottom: "conv3_3_W_prime"
  top: "conv3_3_P"
  param {
    lr_mult: 1
  }
  param {
    lr_mult: 2
  }
  convolution_param {
    num_output: 256
    pad: 0
    kernel_size: 1
    stride: 1
    weight_filler {
      type: "msra"
    }
    bias_filler {
      type: "constant"
      value: 0
    }
  }
}
layer {
  name: "relu3_3"
  type: "ReLU"
  bottom: "conv3_3_P"
  top: "conv3_3_P"
}
layer {
  name: "pool3"
  type: "Pooling"
  bottom: "conv3_3_P"
  top: "pool3"
  pooling_param {
    pool: MAX
    kernel_size: 2
    stride: 2
  }
}
layer {
  name: "conv4_1_W_prime"
  type: "Convolution"
  bottom: "pool3"
  top: "conv4_1_W_prime"
  convolution_param {
    num_output: 104
    pad: 1
    kernel_size: 3
  }
}
layer {
  name: "conv4_1_P"
  type: "Convolution"
  bottom: "conv4_1_W_prime"
  top: "conv4_1_P"
  param {
    lr_mult: 1
  }
  param {
    lr_mult: 2
  }
  convolution_param {
    num_output: 512
    pad: 0
    kernel_size: 1
    stride: 1
    weight_filler {
      type: "msra"
    }
    bias_filler {
      type: "constant"
      value: 0
    }
  }
}
layer {
  name: "relu4_1"
  type: "ReLU"
  bottom: "conv4_1_P"
  top: "conv4_1_P"
}
layer {
  name: "conv4_2_W_prime"
  type: "Convolution"
  bottom: "conv4_1_P"
  top: "conv4_2_W_prime"
  convolution_param {
    num_output: 121
    pad: 1
    kernel_size: 3
  }
}
layer {
  name: "conv4_2_P"
  type: "Convolution"
  bottom: "conv4_2_W_prime"
  top: "conv4_2_P"
  param {
    lr_mult: 1
  }
  param {
    lr_mult: 2
  }
  convolution_param {
    num_output: 512
    pad: 0
    kernel_size: 1
    stride: 1
    weight_filler {
      type: "msra"
    }
    bias_filler {
      type: "constant"
      value: 0
    }
  }
}
layer {
  name: "relu4_2"
  type: "ReLU"
  bottom: "conv4_2_P"
  top: "conv4_2_P"
}
layer {
  name: "conv4_3_W_prime"
  type: "Convolution"
  bottom: "conv4_2_P"
  top: "conv4_3_W_prime"
  convolution_param {
    num_output: 126
    pad: 1
    kernel_size: 3
  }
}
layer {
  name: "conv4_3_P"
  type: "Convolution"
  bottom: "conv4_3_W_prime"
  top: "conv4_3_P"
  param {
    lr_mult: 1
  }
  param {
    lr_mult: 2
  }
  convolution_param {
    num_output: 512
    pad: 0
    kernel_size: 1
    stride: 1
    weight_filler {
      type: "msra"
    }
    bias_filler {
      type: "constant"
      value: 0
    }
  }
}
layer {
  name: "relu4_3"
  type: "ReLU"
  bottom: "conv4_3_P"
  top: "conv4_3_P"
}
layer {
  name: "pool4"
  type: "Pooling"
  bottom: "conv4_3_P"
  top: "pool4"
  pooling_param {
    pool: MAX
    kernel_size: 2
    stride: 2
  }
}
layer {
  name: "conv5_1_W_prime"
  type: "Convolution"
  bottom: "pool4"
  top: "conv5_1_W_prime"
  convolution_param {
    num_output: 198
    pad: 1
    kernel_size: 3
  }
}
layer {
  name: "conv5_1_P"
  type: "Convolution"
  bottom: "conv5_1_W_prime"
  top: "conv5_1_P"
  param {
    lr_mult: 1
  }
  param {
    lr_mult: 2
  }
  convolution_param {
    num_output: 512
    pad: 0
    kernel_size: 1
    stride: 1
    weight_filler {
      type: "msra"
    }
    bias_filler {
      type: "constant"
      value: 0
    }
  }
}
layer {
  name: "relu5_1"
  type: "ReLU"
  bottom: "conv5_1_P"
  top: "conv5_1_P"
}
layer {
  name: "conv5_2_W_prime"
  type: "Convolution"
  bottom: "conv5_1_P"
  top: "conv5_2_W_prime"
  convolution_param {
    num_output: 162
    pad: 1
    kernel_size: 3
  }
}
layer {
  name: "conv5_2_P"
  type: "Convolution"
  bottom: "conv5_2_W_prime"
  top: "conv5_2_P"
  param {
    lr_mult: 1
  }
  param {
    lr_mult: 2
  }
  convolution_param {
    num_output: 512
    pad: 0
    kernel_size: 1
    stride: 1
    weight_filler {
      type: "msra"
    }
    bias_filler {
      type: "constant"
      value: 0
    }
  }
}
layer {
  name: "relu5_2"
  type: "ReLU"
  bottom: "conv5_2_P"
  top: "conv5_2_P"
}
layer {
  name: "conv5_3_W_prime"
  type: "Convolution"
  bottom: "conv5_2_P"
  top: "conv5_3_W_prime"
  convolution_param {
    num_output: 190
    pad: 1
    kernel_size: 3
  }
}
layer {
  name: "conv5_3_P"
  type: "Convolution"
  bottom: "conv5_3_W_prime"
  top: "conv5_3_P"
  param {
    lr_mult: 1
  }
  param {
    lr_mult: 2
  }
  convolution_param {
    num_output: 512
    pad: 0
    kernel_size: 1
    stride: 1
    weight_filler {
      type: "msra"
    }
    bias_filler {
      type: "constant"
      value: 0
    }
  }
}
layer {
  name: "relu5_3"
  type: "ReLU"
  bottom: "conv5_3_P"
  top: "conv5_3_P"
}
layer {
  name: "rpn_conv/3x3"
  type: "Convolution"
  bottom: "conv5_3_P"
  top: "rpn/output"
  param {
    lr_mult: 1
  }
  param {
    lr_mult: 2
  }
  convolution_param {
    num_output: 512
    pad: 1
    kernel_size: 3
    stride: 1
    weight_filler {
      type: "gaussian"
      std: 0.01
    }
    bias_filler {
      type: "constant"
      value: 0
    }
  }
}
layer {
  name: "rpn_relu/3x3"
  type: "ReLU"
  bottom: "rpn/output"
  top: "rpn/output"
}
layer {
  name: "rpn_cls_score"
  type: "Convolution"
  bottom: "rpn/output"
  top: "rpn_cls_score"
  param {
    lr_mult: 1
  }
  param {
    lr_mult: 2
  }
  convolution_param {
    num_output: 18
    pad: 0
    kernel_size: 1
    stride: 1
    weight_filler {
      type: "gaussian"
      std: 0.01
    }
    bias_filler {
      type: "constant"
      value: 0
    }
  }
}
layer {
  name: "rpn_bbox_pred"
  type: "Convolution"
  bottom: "rpn/output"
  top: "rpn_bbox_pred"
  param {
    lr_mult: 1
  }
  param {
    lr_mult: 2
  }
  convolution_param {
    num_output: 36
    pad: 0
    kernel_size: 1
    stride: 1
    weight_filler {
      type: "gaussian"
      std: 0.01
    }
    bias_filler {
      type: "constant"
      value: 0
    }
  }
}
layer {
  name: "rpn_cls_score_reshape"
  type: "Reshape"
  bottom: "rpn_cls_score"
  top: "rpn_cls_score_reshape"
  reshape_param {
    shape {
      dim: 0
      dim: 2
      dim: -1
      dim: 0
    }
  }
}
layer {
  name: "rpn-data"
  type: "Python"
  bottom: "rpn_cls_score"
  bottom: "gt_boxes"
  bottom: "im_info"
  bottom: "data"
  top: "rpn_labels"
  top: "rpn_bbox_targets"
  top: "rpn_bbox_inside_weights"
  top: "rpn_bbox_outside_weights"
  python_param {
    module: "rpn.anchor_target_layer"
    layer: "AnchorTargetLayer"
    param_str: "\'feat_stride\': 16"
  }
}
layer {
  name: "rpn_loss_cls"
  type: "SoftmaxWithLoss"
  bottom: "rpn_cls_score_reshape"
  bottom: "rpn_labels"
  top: "rpn_cls_loss"
  loss_weight: 1
  propagate_down: true
  propagate_down: false
  loss_param {
    ignore_label: -1
    normalize: true
  }
}
layer {
  name: "rpn_loss_bbox"
  type: "SmoothL1Loss"
  bottom: "rpn_bbox_pred"
  bottom: "rpn_bbox_targets"
  bottom: "rpn_bbox_inside_weights"
  bottom: "rpn_bbox_outside_weights"
  top: "rpn_loss_bbox"
  loss_weight: 1
  smooth_l1_loss_param {
    sigma: 3
  }
}
layer {
  name: "rpn_cls_prob"
  type: "Softmax"
  bottom: "rpn_cls_score_reshape"
  top: "rpn_cls_prob"
}
layer {
  name: "rpn_cls_prob_reshape"
  type: "Reshape"
  bottom: "rpn_cls_prob"
  top: "rpn_cls_prob_reshape"
  reshape_param {
    shape {
      dim: 0
      dim: 18
      dim: -1
      dim: 0
    }
  }
}
layer {
  name: "proposal"
  type: "Python"
  bottom: "rpn_cls_prob_reshape"
  bottom: "rpn_bbox_pred"
  bottom: "im_info"
  top: "rpn_rois"
  python_param {
    module: "rpn.proposal_layer"
    layer: "ProposalLayer"
    param_str: "\'feat_stride\': 16"
  }
}
layer {
  name: "roi-data"
  type: "Python"
  bottom: "rpn_rois"
  bottom: "gt_boxes"
  top: "rois"
  top: "labels"
  top: "bbox_targets"
  top: "bbox_inside_weights"
  top: "bbox_outside_weights"
  python_param {
    module: "rpn.proposal_target_layer"
    layer: "ProposalTargetLayer"
    param_str: "\'num_classes\': 21"
  }
}
layer {
  name: "roi_pool5"
  type: "ROIPooling"
  bottom: "conv5_3_P"
  bottom: "rois"
  top: "pool5"
  roi_pooling_param {
    pooled_h: 7
    pooled_w: 7
    spatial_scale: 0.0625
  }
}
layer {
  name: "fc6"
  type: "InnerProduct"
  bottom: "pool5"
  top: "fc6"
  param {
    lr_mult: 1
  }
  param {
    lr_mult: 2
  }
  inner_product_param {
    num_output: 4096
  }
}
layer {
  name: "relu6"
  type: "ReLU"
  bottom: "fc6"
  top: "fc6"
}
layer {
  name: "drop6"
  type: "Dropout"
  bottom: "fc6"
  top: "fc6"
  dropout_param {
    dropout_ratio: 0.5
  }
}
layer {
  name: "fc7"
  type: "InnerProduct"
  bottom: "fc6"
  top: "fc7"
  param {
    lr_mult: 1
  }
  param {
    lr_mult: 2
  }
  inner_product_param {
    num_output: 4096
  }
}
layer {
  name: "relu7"
  type: "ReLU"
  bottom: "fc7"
  top: "fc7"
}
layer {
  name: "drop7"
  type: "Dropout"
  bottom: "fc7"
  top: "fc7"
  dropout_param {
    dropout_ratio: 0.5
  }
}
layer {
  name: "cls_score"
  type: "InnerProduct"
  bottom: "fc7"
  top: "cls_score"
  param {
    lr_mult: 1
  }
  param {
    lr_mult: 2
  }
  inner_product_param {
    num_output: 21
    weight_filler {
      type: "gaussian"
      std: 0.01
    }
    bias_filler {
      type: "constant"
      value: 0
    }
  }
}
layer {
  name: "bbox_pred"
  type: "InnerProduct"
  bottom: "fc7"
  top: "bbox_pred"
  param {
    lr_mult: 1
  }
  param {
    lr_mult: 2
  }
  inner_product_param {
    num_output: 84
    weight_filler {
      type: "gaussian"
      std: 0.001
    }
    bias_filler {
      type: "constant"
      value: 0
    }
  }
}
layer {
  name: "loss_cls"
  type: "SoftmaxWithLoss"
  bottom: "cls_score"
  bottom: "labels"
  top: "loss_cls"
  loss_weight: 1
  propagate_down: true
  propagate_down: false
}
layer {
  name: "loss_bbox"
  type: "SmoothL1Loss"
  bottom: "bbox_pred"
  bottom: "bbox_targets"
  bottom: "bbox_inside_weights"
  bottom: "bbox_outside_weights"
  top: "loss_bbox"
  loss_weight: 1
}
I1115 14:48:10.013279   840 layer_factory.hpp:77] Creating layer input-data
I1115 14:48:10.071511   840 net.cpp:84] Creating Layer input-data
I1115 14:48:10.071611   840 net.cpp:380] input-data -> data
I1115 14:48:10.071627   840 net.cpp:380] input-data -> im_info
I1115 14:48:10.071636   840 net.cpp:380] input-data -> gt_boxes
RoiDataLayer: name_to_top: {'gt_boxes': 2, 'data': 0, 'im_info': 1}
I1115 14:48:10.075436   840 net.cpp:122] Setting up input-data
I1115 14:48:10.075459   840 net.cpp:129] Top shape: 1 3 600 1000 (1800000)
I1115 14:48:10.075464   840 net.cpp:129] Top shape: 1 3 (3)
I1115 14:48:10.075469   840 net.cpp:129] Top shape: 1 4 (4)
I1115 14:48:10.075474   840 net.cpp:137] Memory required for data: 7200028
I1115 14:48:10.075479   840 layer_factory.hpp:77] Creating layer data_input-data_0_split
I1115 14:48:10.075489   840 net.cpp:84] Creating Layer data_input-data_0_split
I1115 14:48:10.075493   840 net.cpp:406] data_input-data_0_split <- data
I1115 14:48:10.075502   840 net.cpp:380] data_input-data_0_split -> data_input-data_0_split_0
I1115 14:48:10.075513   840 net.cpp:380] data_input-data_0_split -> data_input-data_0_split_1
I1115 14:48:10.075580   840 net.cpp:122] Setting up data_input-data_0_split
I1115 14:48:10.075588   840 net.cpp:129] Top shape: 1 3 600 1000 (1800000)
I1115 14:48:10.075593   840 net.cpp:129] Top shape: 1 3 600 1000 (1800000)
I1115 14:48:10.075598   840 net.cpp:137] Memory required for data: 21600028
I1115 14:48:10.075603   840 layer_factory.hpp:77] Creating layer im_info_input-data_1_split
I1115 14:48:10.075609   840 net.cpp:84] Creating Layer im_info_input-data_1_split
I1115 14:48:10.075613   840 net.cpp:406] im_info_input-data_1_split <- im_info
I1115 14:48:10.075620   840 net.cpp:380] im_info_input-data_1_split -> im_info_input-data_1_split_0
I1115 14:48:10.075629   840 net.cpp:380] im_info_input-data_1_split -> im_info_input-data_1_split_1
I1115 14:48:10.075687   840 net.cpp:122] Setting up im_info_input-data_1_split
I1115 14:48:10.075695   840 net.cpp:129] Top shape: 1 3 (3)
I1115 14:48:10.075700   840 net.cpp:129] Top shape: 1 3 (3)
I1115 14:48:10.075702   840 net.cpp:137] Memory required for data: 21600052
I1115 14:48:10.075706   840 layer_factory.hpp:77] Creating layer gt_boxes_input-data_2_split
I1115 14:48:10.075712   840 net.cpp:84] Creating Layer gt_boxes_input-data_2_split
I1115 14:48:10.075716   840 net.cpp:406] gt_boxes_input-data_2_split <- gt_boxes
I1115 14:48:10.075723   840 net.cpp:380] gt_boxes_input-data_2_split -> gt_boxes_input-data_2_split_0
I1115 14:48:10.075731   840 net.cpp:380] gt_boxes_input-data_2_split -> gt_boxes_input-data_2_split_1
I1115 14:48:10.075789   840 net.cpp:122] Setting up gt_boxes_input-data_2_split
I1115 14:48:10.075796   840 net.cpp:129] Top shape: 1 4 (4)
I1115 14:48:10.075801   840 net.cpp:129] Top shape: 1 4 (4)
I1115 14:48:10.075804   840 net.cpp:137] Memory required for data: 21600084
I1115 14:48:10.075809   840 layer_factory.hpp:77] Creating layer conv1_1_W_prime
I1115 14:48:10.075826   840 net.cpp:84] Creating Layer conv1_1_W_prime
I1115 14:48:10.075831   840 net.cpp:406] conv1_1_W_prime <- data_input-data_0_split_0
I1115 14:48:10.075839   840 net.cpp:380] conv1_1_W_prime -> conv1_1_W_prime
I1115 14:48:10.886564   840 net.cpp:122] Setting up conv1_1_W_prime
I1115 14:48:10.886608   840 net.cpp:129] Top shape: 1 24 600 1000 (14400000)
I1115 14:48:10.886615   840 net.cpp:137] Memory required for data: 79200084
I1115 14:48:10.886651   840 layer_factory.hpp:77] Creating layer conv1_1_P
I1115 14:48:10.886674   840 net.cpp:84] Creating Layer conv1_1_P
I1115 14:48:10.886682   840 net.cpp:406] conv1_1_P <- conv1_1_W_prime
I1115 14:48:10.886693   840 net.cpp:380] conv1_1_P -> conv1_1_P
I1115 14:48:10.898676   840 net.cpp:122] Setting up conv1_1_P
I1115 14:48:10.898702   840 net.cpp:129] Top shape: 1 64 600 1000 (38400000)
I1115 14:48:10.898708   840 net.cpp:137] Memory required for data: 232800084
I1115 14:48:10.898723   840 layer_factory.hpp:77] Creating layer relu1_1
I1115 14:48:10.898735   840 net.cpp:84] Creating Layer relu1_1
I1115 14:48:10.898741   840 net.cpp:406] relu1_1 <- conv1_1_P
I1115 14:48:10.898749   840 net.cpp:367] relu1_1 -> conv1_1_P (in-place)
I1115 14:48:10.899091   840 net.cpp:122] Setting up relu1_1
I1115 14:48:10.899103   840 net.cpp:129] Top shape: 1 64 600 1000 (38400000)
I1115 14:48:10.899108   840 net.cpp:137] Memory required for data: 386400084
I1115 14:48:10.899113   840 layer_factory.hpp:77] Creating layer conv1_2_W_prime
I1115 14:48:10.899127   840 net.cpp:84] Creating Layer conv1_2_W_prime
I1115 14:48:10.899132   840 net.cpp:406] conv1_2_W_prime <- conv1_1_P
I1115 14:48:10.899139   840 net.cpp:380] conv1_2_W_prime -> conv1_2_W_prime
I1115 14:48:10.911828   840 net.cpp:122] Setting up conv1_2_W_prime
I1115 14:48:10.911854   840 net.cpp:129] Top shape: 1 11 600 1000 (6600000)
I1115 14:48:10.911859   840 net.cpp:137] Memory required for data: 412800084
I1115 14:48:10.911875   840 layer_factory.hpp:77] Creating layer conv1_2_P
I1115 14:48:10.911897   840 net.cpp:84] Creating Layer conv1_2_P
I1115 14:48:10.911903   840 net.cpp:406] conv1_2_P <- conv1_2_W_prime
I1115 14:48:10.911913   840 net.cpp:380] conv1_2_P -> conv1_2_P
I1115 14:48:10.919303   840 net.cpp:122] Setting up conv1_2_P
I1115 14:48:10.919329   840 net.cpp:129] Top shape: 1 64 600 1000 (38400000)
I1115 14:48:10.919333   840 net.cpp:137] Memory required for data: 566400084
I1115 14:48:10.919343   840 layer_factory.hpp:77] Creating layer relu1_2
I1115 14:48:10.919351   840 net.cpp:84] Creating Layer relu1_2
I1115 14:48:10.919358   840 net.cpp:406] relu1_2 <- conv1_2_P
I1115 14:48:10.919364   840 net.cpp:367] relu1_2 -> conv1_2_P (in-place)
I1115 14:48:10.919692   840 net.cpp:122] Setting up relu1_2
I1115 14:48:10.919703   840 net.cpp:129] Top shape: 1 64 600 1000 (38400000)
I1115 14:48:10.919708   840 net.cpp:137] Memory required for data: 720000084
I1115 14:48:10.919711   840 layer_factory.hpp:77] Creating layer pool1
I1115 14:48:10.919723   840 net.cpp:84] Creating Layer pool1
I1115 14:48:10.919728   840 net.cpp:406] pool1 <- conv1_2_P
I1115 14:48:10.919737   840 net.cpp:380] pool1 -> pool1
I1115 14:48:10.919838   840 net.cpp:122] Setting up pool1
I1115 14:48:10.919847   840 net.cpp:129] Top shape: 1 64 300 500 (9600000)
I1115 14:48:10.919850   840 net.cpp:137] Memory required for data: 758400084
I1115 14:48:10.919855   840 layer_factory.hpp:77] Creating layer conv2_1_W_prime
I1115 14:48:10.919868   840 net.cpp:84] Creating Layer conv2_1_W_prime
I1115 14:48:10.919873   840 net.cpp:406] conv2_1_W_prime <- pool1
I1115 14:48:10.919880   840 net.cpp:380] conv2_1_W_prime -> conv2_1_W_prime
I1115 14:48:10.925202   840 net.cpp:122] Setting up conv2_1_W_prime
I1115 14:48:10.925225   840 net.cpp:129] Top shape: 1 27 300 500 (4050000)
I1115 14:48:10.925230   840 net.cpp:137] Memory required for data: 774600084
I1115 14:48:10.925243   840 layer_factory.hpp:77] Creating layer conv2_1_P
I1115 14:48:10.925261   840 net.cpp:84] Creating Layer conv2_1_P
I1115 14:48:10.925266   840 net.cpp:406] conv2_1_P <- conv2_1_W_prime
I1115 14:48:10.925277   840 net.cpp:380] conv2_1_P -> conv2_1_P
I1115 14:48:10.930073   840 net.cpp:122] Setting up conv2_1_P
I1115 14:48:10.930096   840 net.cpp:129] Top shape: 1 128 300 500 (19200000)
I1115 14:48:10.930100   840 net.cpp:137] Memory required for data: 851400084
I1115 14:48:10.930109   840 layer_factory.hpp:77] Creating layer relu2_1
I1115 14:48:10.930117   840 net.cpp:84] Creating Layer relu2_1
I1115 14:48:10.930124   840 net.cpp:406] relu2_1 <- conv2_1_P
I1115 14:48:10.930130   840 net.cpp:367] relu2_1 -> conv2_1_P (in-place)
I1115 14:48:10.931274   840 net.cpp:122] Setting up relu2_1
I1115 14:48:10.931298   840 net.cpp:129] Top shape: 1 128 300 500 (19200000)
I1115 14:48:10.931303   840 net.cpp:137] Memory required for data: 928200084
I1115 14:48:10.931306   840 layer_factory.hpp:77] Creating layer conv2_2_W_prime
I1115 14:48:10.931318   840 net.cpp:84] Creating Layer conv2_2_W_prime
I1115 14:48:10.931324   840 net.cpp:406] conv2_2_W_prime <- conv2_1_P
I1115 14:48:10.931331   840 net.cpp:380] conv2_2_W_prime -> conv2_2_W_prime
I1115 14:48:10.936645   840 net.cpp:122] Setting up conv2_2_W_prime
I1115 14:48:10.936666   840 net.cpp:129] Top shape: 1 24 300 500 (3600000)
I1115 14:48:10.936669   840 net.cpp:137] Memory required for data: 942600084
I1115 14:48:10.936679   840 layer_factory.hpp:77] Creating layer conv2_2_P
I1115 14:48:10.936694   840 net.cpp:84] Creating Layer conv2_2_P
I1115 14:48:10.936699   840 net.cpp:406] conv2_2_P <- conv2_2_W_prime
I1115 14:48:10.936710   840 net.cpp:380] conv2_2_P -> conv2_2_P
I1115 14:48:10.944448   840 net.cpp:122] Setting up conv2_2_P
I1115 14:48:10.944471   840 net.cpp:129] Top shape: 1 128 300 500 (19200000)
I1115 14:48:10.944476   840 net.cpp:137] Memory required for data: 1019400084
I1115 14:48:10.944485   840 layer_factory.hpp:77] Creating layer relu2_2
I1115 14:48:10.944499   840 net.cpp:84] Creating Layer relu2_2
I1115 14:48:10.944504   840 net.cpp:406] relu2_2 <- conv2_2_P
I1115 14:48:10.944511   840 net.cpp:367] relu2_2 -> conv2_2_P (in-place)
I1115 14:48:10.944810   840 net.cpp:122] Setting up relu2_2
I1115 14:48:10.944821   840 net.cpp:129] Top shape: 1 128 300 500 (19200000)
I1115 14:48:10.944825   840 net.cpp:137] Memory required for data: 1096200084
I1115 14:48:10.944828   840 layer_factory.hpp:77] Creating layer pool2
I1115 14:48:10.944836   840 net.cpp:84] Creating Layer pool2
I1115 14:48:10.944841   840 net.cpp:406] pool2 <- conv2_2_P
I1115 14:48:10.944849   840 net.cpp:380] pool2 -> pool2
I1115 14:48:10.944943   840 net.cpp:122] Setting up pool2
I1115 14:48:10.944950   840 net.cpp:129] Top shape: 1 128 150 250 (4800000)
I1115 14:48:10.944954   840 net.cpp:137] Memory required for data: 1115400084
I1115 14:48:10.944957   840 layer_factory.hpp:77] Creating layer conv3_1_W_prime
I1115 14:48:10.944968   840 net.cpp:84] Creating Layer conv3_1_W_prime
I1115 14:48:10.944972   840 net.cpp:406] conv3_1_W_prime <- pool2
I1115 14:48:10.944980   840 net.cpp:380] conv3_1_W_prime -> conv3_1_W_prime
I1115 14:48:10.949453   840 net.cpp:122] Setting up conv3_1_W_prime
I1115 14:48:10.949473   840 net.cpp:129] Top shape: 1 67 150 250 (2512500)
I1115 14:48:10.949477   840 net.cpp:137] Memory required for data: 1125450084
I1115 14:48:10.949493   840 layer_factory.hpp:77] Creating layer conv3_1_P
I1115 14:48:10.949508   840 net.cpp:84] Creating Layer conv3_1_P
I1115 14:48:10.949513   840 net.cpp:406] conv3_1_P <- conv3_1_W_prime
I1115 14:48:10.949522   840 net.cpp:380] conv3_1_P -> conv3_1_P
I1115 14:48:10.952142   840 net.cpp:122] Setting up conv3_1_P
I1115 14:48:10.952162   840 net.cpp:129] Top shape: 1 256 150 250 (9600000)
I1115 14:48:10.952165   840 net.cpp:137] Memory required for data: 1163850084
I1115 14:48:10.952172   840 layer_factory.hpp:77] Creating layer relu3_1
I1115 14:48:10.952180   840 net.cpp:84] Creating Layer relu3_1
I1115 14:48:10.952184   840 net.cpp:406] relu3_1 <- conv3_1_P
I1115 14:48:10.952193   840 net.cpp:367] relu3_1 -> conv3_1_P (in-place)
I1115 14:48:10.952466   840 net.cpp:122] Setting up relu3_1
I1115 14:48:10.952476   840 net.cpp:129] Top shape: 1 256 150 250 (9600000)
I1115 14:48:10.952478   840 net.cpp:137] Memory required for data: 1202250084
I1115 14:48:10.952482   840 layer_factory.hpp:77] Creating layer conv3_2_W_prime
I1115 14:48:10.952493   840 net.cpp:84] Creating Layer conv3_2_W_prime
I1115 14:48:10.952497   840 net.cpp:406] conv3_2_W_prime <- conv3_1_P
I1115 14:48:10.952503   840 net.cpp:380] conv3_2_W_prime -> conv3_2_W_prime
I1115 14:48:10.955801   840 net.cpp:122] Setting up conv3_2_W_prime
I1115 14:48:10.955821   840 net.cpp:129] Top shape: 1 44 150 250 (1650000)
I1115 14:48:10.955824   840 net.cpp:137] Memory required for data: 1208850084
I1115 14:48:10.955833   840 layer_factory.hpp:77] Creating layer conv3_2_P
I1115 14:48:10.955847   840 net.cpp:84] Creating Layer conv3_2_P
I1115 14:48:10.955850   840 net.cpp:406] conv3_2_P <- conv3_2_W_prime
I1115 14:48:10.955860   840 net.cpp:380] conv3_2_P -> conv3_2_P
I1115 14:48:10.958258   840 net.cpp:122] Setting up conv3_2_P
I1115 14:48:10.958278   840 net.cpp:129] Top shape: 1 256 150 250 (9600000)
I1115 14:48:10.958282   840 net.cpp:137] Memory required for data: 1247250084
I1115 14:48:10.958290   840 layer_factory.hpp:77] Creating layer relu3_2
I1115 14:48:10.958297   840 net.cpp:84] Creating Layer relu3_2
I1115 14:48:10.958302   840 net.cpp:406] relu3_2 <- conv3_2_P
I1115 14:48:10.958307   840 net.cpp:367] relu3_2 -> conv3_2_P (in-place)
I1115 14:48:10.959458   840 net.cpp:122] Setting up relu3_2
I1115 14:48:10.959477   840 net.cpp:129] Top shape: 1 256 150 250 (9600000)
I1115 14:48:10.959481   840 net.cpp:137] Memory required for data: 1285650084
I1115 14:48:10.959486   840 layer_factory.hpp:77] Creating layer conv3_3_W_prime
I1115 14:48:10.959497   840 net.cpp:84] Creating Layer conv3_3_W_prime
I1115 14:48:10.959501   840 net.cpp:406] conv3_3_W_prime <- conv3_2_P
I1115 14:48:10.959508   840 net.cpp:380] conv3_3_W_prime -> conv3_3_W_prime
I1115 14:48:10.964543   840 net.cpp:122] Setting up conv3_3_W_prime
I1115 14:48:10.964568   840 net.cpp:129] Top shape: 1 75 150 250 (2812500)
I1115 14:48:10.964572   840 net.cpp:137] Memory required for data: 1296900084
I1115 14:48:10.964581   840 layer_factory.hpp:77] Creating layer conv3_3_P
I1115 14:48:10.964593   840 net.cpp:84] Creating Layer conv3_3_P
I1115 14:48:10.964598   840 net.cpp:406] conv3_3_P <- conv3_3_W_prime
I1115 14:48:10.964607   840 net.cpp:380] conv3_3_P -> conv3_3_P
I1115 14:48:10.967144   840 net.cpp:122] Setting up conv3_3_P
I1115 14:48:10.967164   840 net.cpp:129] Top shape: 1 256 150 250 (9600000)
I1115 14:48:10.967169   840 net.cpp:137] Memory required for data: 1335300084
I1115 14:48:10.967176   840 layer_factory.hpp:77] Creating layer relu3_3
I1115 14:48:10.967183   840 net.cpp:84] Creating Layer relu3_3
I1115 14:48:10.967187   840 net.cpp:406] relu3_3 <- conv3_3_P
I1115 14:48:10.967195   840 net.cpp:367] relu3_3 -> conv3_3_P (in-place)
I1115 14:48:10.967453   840 net.cpp:122] Setting up relu3_3
I1115 14:48:10.967463   840 net.cpp:129] Top shape: 1 256 150 250 (9600000)
I1115 14:48:10.967465   840 net.cpp:137] Memory required for data: 1373700084
I1115 14:48:10.967469   840 layer_factory.hpp:77] Creating layer pool3
I1115 14:48:10.967476   840 net.cpp:84] Creating Layer pool3
I1115 14:48:10.967480   840 net.cpp:406] pool3 <- conv3_3_P
I1115 14:48:10.967488   840 net.cpp:380] pool3 -> pool3
I1115 14:48:10.967574   840 net.cpp:122] Setting up pool3
I1115 14:48:10.967581   840 net.cpp:129] Top shape: 1 256 75 125 (2400000)
I1115 14:48:10.967583   840 net.cpp:137] Memory required for data: 1383300084
I1115 14:48:10.967587   840 layer_factory.hpp:77] Creating layer conv4_1_W_prime
I1115 14:48:10.967597   840 net.cpp:84] Creating Layer conv4_1_W_prime
I1115 14:48:10.967600   840 net.cpp:406] conv4_1_W_prime <- pool3
I1115 14:48:10.967607   840 net.cpp:380] conv4_1_W_prime -> conv4_1_W_prime
I1115 14:48:10.974330   840 net.cpp:122] Setting up conv4_1_W_prime
I1115 14:48:10.974350   840 net.cpp:129] Top shape: 1 104 75 125 (975000)
I1115 14:48:10.974354   840 net.cpp:137] Memory required for data: 1387200084
I1115 14:48:10.974362   840 layer_factory.hpp:77] Creating layer conv4_1_P
I1115 14:48:10.974376   840 net.cpp:84] Creating Layer conv4_1_P
I1115 14:48:10.974381   840 net.cpp:406] conv4_1_P <- conv4_1_W_prime
I1115 14:48:10.974390   840 net.cpp:380] conv4_1_P -> conv4_1_P
I1115 14:48:10.978721   840 net.cpp:122] Setting up conv4_1_P
I1115 14:48:10.978744   840 net.cpp:129] Top shape: 1 512 75 125 (4800000)
I1115 14:48:10.978749   840 net.cpp:137] Memory required for data: 1406400084
I1115 14:48:10.978756   840 layer_factory.hpp:77] Creating layer relu4_1
I1115 14:48:10.978762   840 net.cpp:84] Creating Layer relu4_1
I1115 14:48:10.978766   840 net.cpp:406] relu4_1 <- conv4_1_P
I1115 14:48:10.978772   840 net.cpp:367] relu4_1 -> conv4_1_P (in-place)
I1115 14:48:10.979058   840 net.cpp:122] Setting up relu4_1
I1115 14:48:10.979066   840 net.cpp:129] Top shape: 1 512 75 125 (4800000)
I1115 14:48:10.979069   840 net.cpp:137] Memory required for data: 1425600084
I1115 14:48:10.979074   840 layer_factory.hpp:77] Creating layer conv4_2_W_prime
I1115 14:48:10.979084   840 net.cpp:84] Creating Layer conv4_2_W_prime
I1115 14:48:10.979086   840 net.cpp:406] conv4_2_W_prime <- conv4_1_P
I1115 14:48:10.979092   840 net.cpp:380] conv4_2_W_prime -> conv4_2_W_prime
I1115 14:48:10.987505   840 net.cpp:122] Setting up conv4_2_W_prime
I1115 14:48:10.987524   840 net.cpp:129] Top shape: 1 121 75 125 (1134375)
I1115 14:48:10.987529   840 net.cpp:137] Memory required for data: 1430137584
I1115 14:48:10.987543   840 layer_factory.hpp:77] Creating layer conv4_2_P
I1115 14:48:10.987565   840 net.cpp:84] Creating Layer conv4_2_P
I1115 14:48:10.987570   840 net.cpp:406] conv4_2_P <- conv4_2_W_prime
I1115 14:48:10.987576   840 net.cpp:380] conv4_2_P -> conv4_2_P
I1115 14:48:10.991431   840 net.cpp:122] Setting up conv4_2_P
I1115 14:48:10.991449   840 net.cpp:129] Top shape: 1 512 75 125 (4800000)
I1115 14:48:10.991453   840 net.cpp:137] Memory required for data: 1449337584
I1115 14:48:10.991461   840 layer_factory.hpp:77] Creating layer relu4_2
I1115 14:48:10.991466   840 net.cpp:84] Creating Layer relu4_2
I1115 14:48:10.991470   840 net.cpp:406] relu4_2 <- conv4_2_P
I1115 14:48:10.991478   840 net.cpp:367] relu4_2 -> conv4_2_P (in-place)
I1115 14:48:10.991721   840 net.cpp:122] Setting up relu4_2
I1115 14:48:10.991729   840 net.cpp:129] Top shape: 1 512 75 125 (4800000)
I1115 14:48:10.991734   840 net.cpp:137] Memory required for data: 1468537584
I1115 14:48:10.991736   840 layer_factory.hpp:77] Creating layer conv4_3_W_prime
I1115 14:48:10.991746   840 net.cpp:84] Creating Layer conv4_3_W_prime
I1115 14:48:10.991750   840 net.cpp:406] conv4_3_W_prime <- conv4_2_P
I1115 14:48:10.991755   840 net.cpp:380] conv4_3_W_prime -> conv4_3_W_prime
I1115 14:48:10.999207   840 net.cpp:122] Setting up conv4_3_W_prime
I1115 14:48:10.999227   840 net.cpp:129] Top shape: 1 126 75 125 (1181250)
I1115 14:48:10.999229   840 net.cpp:137] Memory required for data: 1473262584
I1115 14:48:10.999238   840 layer_factory.hpp:77] Creating layer conv4_3_P
I1115 14:48:10.999249   840 net.cpp:84] Creating Layer conv4_3_P
I1115 14:48:10.999253   840 net.cpp:406] conv4_3_P <- conv4_3_W_prime
I1115 14:48:10.999261   840 net.cpp:380] conv4_3_P -> conv4_3_P
I1115 14:48:11.002074   840 net.cpp:122] Setting up conv4_3_P
I1115 14:48:11.002091   840 net.cpp:129] Top shape: 1 512 75 125 (4800000)
I1115 14:48:11.002094   840 net.cpp:137] Memory required for data: 1492462584
I1115 14:48:11.002101   840 layer_factory.hpp:77] Creating layer relu4_3
I1115 14:48:11.002110   840 net.cpp:84] Creating Layer relu4_3
I1115 14:48:11.002113   840 net.cpp:406] relu4_3 <- conv4_3_P
I1115 14:48:11.002118   840 net.cpp:367] relu4_3 -> conv4_3_P (in-place)
I1115 14:48:11.003844   840 net.cpp:122] Setting up relu4_3
I1115 14:48:11.003866   840 net.cpp:129] Top shape: 1 512 75 125 (4800000)
I1115 14:48:11.003870   840 net.cpp:137] Memory required for data: 1511662584
I1115 14:48:11.003875   840 layer_factory.hpp:77] Creating layer pool4
I1115 14:48:11.003881   840 net.cpp:84] Creating Layer pool4
I1115 14:48:11.003886   840 net.cpp:406] pool4 <- conv4_3_P
I1115 14:48:11.003891   840 net.cpp:380] pool4 -> pool4
I1115 14:48:11.003984   840 net.cpp:122] Setting up pool4
I1115 14:48:11.003998   840 net.cpp:129] Top shape: 1 512 38 63 (1225728)
I1115 14:48:11.004000   840 net.cpp:137] Memory required for data: 1516565496
I1115 14:48:11.004004   840 layer_factory.hpp:77] Creating layer conv5_1_W_prime
I1115 14:48:11.004014   840 net.cpp:84] Creating Layer conv5_1_W_prime
I1115 14:48:11.004016   840 net.cpp:406] conv5_1_W_prime <- pool4
I1115 14:48:11.004025   840 net.cpp:380] conv5_1_W_prime -> conv5_1_W_prime
I1115 14:48:11.011646   840 net.cpp:122] Setting up conv5_1_W_prime
I1115 14:48:11.011665   840 net.cpp:129] Top shape: 1 198 38 63 (474012)
I1115 14:48:11.011669   840 net.cpp:137] Memory required for data: 1518461544
I1115 14:48:11.011677   840 layer_factory.hpp:77] Creating layer conv5_1_P
I1115 14:48:11.011688   840 net.cpp:84] Creating Layer conv5_1_P
I1115 14:48:11.011693   840 net.cpp:406] conv5_1_P <- conv5_1_W_prime
I1115 14:48:11.011699   840 net.cpp:380] conv5_1_P -> conv5_1_P
I1115 14:48:11.014885   840 net.cpp:122] Setting up conv5_1_P
I1115 14:48:11.014902   840 net.cpp:129] Top shape: 1 512 38 63 (1225728)
I1115 14:48:11.014905   840 net.cpp:137] Memory required for data: 1523364456
I1115 14:48:11.014912   840 layer_factory.hpp:77] Creating layer relu5_1
I1115 14:48:11.014919   840 net.cpp:84] Creating Layer relu5_1
I1115 14:48:11.014922   840 net.cpp:406] relu5_1 <- conv5_1_P
I1115 14:48:11.014930   840 net.cpp:367] relu5_1 -> conv5_1_P (in-place)
I1115 14:48:11.015158   840 net.cpp:122] Setting up relu5_1
I1115 14:48:11.015166   840 net.cpp:129] Top shape: 1 512 38 63 (1225728)
I1115 14:48:11.015169   840 net.cpp:137] Memory required for data: 1528267368
I1115 14:48:11.015172   840 layer_factory.hpp:77] Creating layer conv5_2_W_prime
I1115 14:48:11.015182   840 net.cpp:84] Creating Layer conv5_2_W_prime
I1115 14:48:11.015185   840 net.cpp:406] conv5_2_W_prime <- conv5_1_P
I1115 14:48:11.015195   840 net.cpp:380] conv5_2_W_prime -> conv5_2_W_prime
I1115 14:48:11.023783   840 net.cpp:122] Setting up conv5_2_W_prime
I1115 14:48:11.023802   840 net.cpp:129] Top shape: 1 162 38 63 (387828)
I1115 14:48:11.023805   840 net.cpp:137] Memory required for data: 1529818680
I1115 14:48:11.023813   840 layer_factory.hpp:77] Creating layer conv5_2_P
I1115 14:48:11.023825   840 net.cpp:84] Creating Layer conv5_2_P
I1115 14:48:11.023830   840 net.cpp:406] conv5_2_P <- conv5_2_W_prime
I1115 14:48:11.023839   840 net.cpp:380] conv5_2_P -> conv5_2_P
I1115 14:48:11.026816   840 net.cpp:122] Setting up conv5_2_P
I1115 14:48:11.026834   840 net.cpp:129] Top shape: 1 512 38 63 (1225728)
I1115 14:48:11.026836   840 net.cpp:137] Memory required for data: 1534721592
I1115 14:48:11.026844   840 layer_factory.hpp:77] Creating layer relu5_2
I1115 14:48:11.026851   840 net.cpp:84] Creating Layer relu5_2
I1115 14:48:11.026855   840 net.cpp:406] relu5_2 <- conv5_2_P
I1115 14:48:11.026860   840 net.cpp:367] relu5_2 -> conv5_2_P (in-place)
I1115 14:48:11.027092   840 net.cpp:122] Setting up relu5_2
I1115 14:48:11.027101   840 net.cpp:129] Top shape: 1 512 38 63 (1225728)
I1115 14:48:11.027103   840 net.cpp:137] Memory required for data: 1539624504
I1115 14:48:11.027107   840 layer_factory.hpp:77] Creating layer conv5_3_W_prime
I1115 14:48:11.027117   840 net.cpp:84] Creating Layer conv5_3_W_prime
I1115 14:48:11.027122   840 net.cpp:406] conv5_3_W_prime <- conv5_2_P
I1115 14:48:11.027127   840 net.cpp:380] conv5_3_W_prime -> conv5_3_W_prime
I1115 14:48:11.033645   840 net.cpp:122] Setting up conv5_3_W_prime
I1115 14:48:11.033669   840 net.cpp:129] Top shape: 1 190 38 63 (454860)
I1115 14:48:11.033673   840 net.cpp:137] Memory required for data: 1541443944
I1115 14:48:11.033679   840 layer_factory.hpp:77] Creating layer conv5_3_P
I1115 14:48:11.033691   840 net.cpp:84] Creating Layer conv5_3_P
I1115 14:48:11.033695   840 net.cpp:406] conv5_3_P <- conv5_3_W_prime
I1115 14:48:11.033702   840 net.cpp:380] conv5_3_P -> conv5_3_P
I1115 14:48:11.036850   840 net.cpp:122] Setting up conv5_3_P
I1115 14:48:11.036869   840 net.cpp:129] Top shape: 1 512 38 63 (1225728)
I1115 14:48:11.036872   840 net.cpp:137] Memory required for data: 1546346856
I1115 14:48:11.036880   840 layer_factory.hpp:77] Creating layer relu5_3
I1115 14:48:11.036885   840 net.cpp:84] Creating Layer relu5_3
I1115 14:48:11.036890   840 net.cpp:406] relu5_3 <- conv5_3_P
I1115 14:48:11.036895   840 net.cpp:367] relu5_3 -> conv5_3_P (in-place)
I1115 14:48:11.039259   840 net.cpp:122] Setting up relu5_3
I1115 14:48:11.039278   840 net.cpp:129] Top shape: 1 512 38 63 (1225728)
I1115 14:48:11.039281   840 net.cpp:137] Memory required for data: 1551249768
I1115 14:48:11.039285   840 layer_factory.hpp:77] Creating layer conv5_3_P_relu5_3_0_split
I1115 14:48:11.039293   840 net.cpp:84] Creating Layer conv5_3_P_relu5_3_0_split
I1115 14:48:11.039295   840 net.cpp:406] conv5_3_P_relu5_3_0_split <- conv5_3_P
I1115 14:48:11.039304   840 net.cpp:380] conv5_3_P_relu5_3_0_split -> conv5_3_P_relu5_3_0_split_0
I1115 14:48:11.039314   840 net.cpp:380] conv5_3_P_relu5_3_0_split -> conv5_3_P_relu5_3_0_split_1
I1115 14:48:11.039399   840 net.cpp:122] Setting up conv5_3_P_relu5_3_0_split
I1115 14:48:11.039405   840 net.cpp:129] Top shape: 1 512 38 63 (1225728)
I1115 14:48:11.039409   840 net.cpp:129] Top shape: 1 512 38 63 (1225728)
I1115 14:48:11.039412   840 net.cpp:137] Memory required for data: 1561055592
I1115 14:48:11.039415   840 layer_factory.hpp:77] Creating layer rpn_conv/3x3
I1115 14:48:11.039427   840 net.cpp:84] Creating Layer rpn_conv/3x3
I1115 14:48:11.039430   840 net.cpp:406] rpn_conv/3x3 <- conv5_3_P_relu5_3_0_split_0
I1115 14:48:11.039441   840 net.cpp:380] rpn_conv/3x3 -> rpn/output
I1115 14:48:11.072729   840 net.cpp:122] Setting up rpn_conv/3x3
I1115 14:48:11.072748   840 net.cpp:129] Top shape: 1 512 38 63 (1225728)
I1115 14:48:11.072751   840 net.cpp:137] Memory required for data: 1565958504
I1115 14:48:11.072758   840 layer_factory.hpp:77] Creating layer rpn_relu/3x3
I1115 14:48:11.072764   840 net.cpp:84] Creating Layer rpn_relu/3x3
I1115 14:48:11.072768   840 net.cpp:406] rpn_relu/3x3 <- rpn/output
I1115 14:48:11.072773   840 net.cpp:367] rpn_relu/3x3 -> rpn/output (in-place)
I1115 14:48:11.073022   840 net.cpp:122] Setting up rpn_relu/3x3
I1115 14:48:11.073030   840 net.cpp:129] Top shape: 1 512 38 63 (1225728)
I1115 14:48:11.073034   840 net.cpp:137] Memory required for data: 1570861416
I1115 14:48:11.073036   840 layer_factory.hpp:77] Creating layer rpn/output_rpn_relu/3x3_0_split
I1115 14:48:11.073042   840 net.cpp:84] Creating Layer rpn/output_rpn_relu/3x3_0_split
I1115 14:48:11.073046   840 net.cpp:406] rpn/output_rpn_relu/3x3_0_split <- rpn/output
I1115 14:48:11.073052   840 net.cpp:380] rpn/output_rpn_relu/3x3_0_split -> rpn/output_rpn_relu/3x3_0_split_0
I1115 14:48:11.073060   840 net.cpp:380] rpn/output_rpn_relu/3x3_0_split -> rpn/output_rpn_relu/3x3_0_split_1
I1115 14:48:11.073141   840 net.cpp:122] Setting up rpn/output_rpn_relu/3x3_0_split
I1115 14:48:11.073148   840 net.cpp:129] Top shape: 1 512 38 63 (1225728)
I1115 14:48:11.073150   840 net.cpp:129] Top shape: 1 512 38 63 (1225728)
I1115 14:48:11.073153   840 net.cpp:137] Memory required for data: 1580667240
I1115 14:48:11.073156   840 layer_factory.hpp:77] Creating layer rpn_cls_score
I1115 14:48:11.073168   840 net.cpp:84] Creating Layer rpn_cls_score
I1115 14:48:11.073170   840 net.cpp:406] rpn_cls_score <- rpn/output_rpn_relu/3x3_0_split_0
I1115 14:48:11.073179   840 net.cpp:380] rpn_cls_score -> rpn_cls_score
I1115 14:48:11.075402   840 net.cpp:122] Setting up rpn_cls_score
I1115 14:48:11.075418   840 net.cpp:129] Top shape: 1 18 38 63 (43092)
I1115 14:48:11.075423   840 net.cpp:137] Memory required for data: 1580839608
I1115 14:48:11.075428   840 layer_factory.hpp:77] Creating layer rpn_cls_score_rpn_cls_score_0_split
I1115 14:48:11.075436   840 net.cpp:84] Creating Layer rpn_cls_score_rpn_cls_score_0_split
I1115 14:48:11.075440   840 net.cpp:406] rpn_cls_score_rpn_cls_score_0_split <- rpn_cls_score
I1115 14:48:11.075448   840 net.cpp:380] rpn_cls_score_rpn_cls_score_0_split -> rpn_cls_score_rpn_cls_score_0_split_0
I1115 14:48:11.075455   840 net.cpp:380] rpn_cls_score_rpn_cls_score_0_split -> rpn_cls_score_rpn_cls_score_0_split_1
I1115 14:48:11.075531   840 net.cpp:122] Setting up rpn_cls_score_rpn_cls_score_0_split
I1115 14:48:11.075537   840 net.cpp:129] Top shape: 1 18 38 63 (43092)
I1115 14:48:11.075541   840 net.cpp:129] Top shape: 1 18 38 63 (43092)
I1115 14:48:11.075543   840 net.cpp:137] Memory required for data: 1581184344
I1115 14:48:11.075547   840 layer_factory.hpp:77] Creating layer rpn_bbox_pred
I1115 14:48:11.075561   840 net.cpp:84] Creating Layer rpn_bbox_pred
I1115 14:48:11.075564   840 net.cpp:406] rpn_bbox_pred <- rpn/output_rpn_relu/3x3_0_split_1
I1115 14:48:11.075570   840 net.cpp:380] rpn_bbox_pred -> rpn_bbox_pred
I1115 14:48:11.077838   840 net.cpp:122] Setting up rpn_bbox_pred
I1115 14:48:11.077857   840 net.cpp:129] Top shape: 1 36 38 63 (86184)
I1115 14:48:11.077859   840 net.cpp:137] Memory required for data: 1581529080
I1115 14:48:11.077867   840 layer_factory.hpp:77] Creating layer rpn_bbox_pred_rpn_bbox_pred_0_split
I1115 14:48:11.077873   840 net.cpp:84] Creating Layer rpn_bbox_pred_rpn_bbox_pred_0_split
I1115 14:48:11.077877   840 net.cpp:406] rpn_bbox_pred_rpn_bbox_pred_0_split <- rpn_bbox_pred
I1115 14:48:11.077884   840 net.cpp:380] rpn_bbox_pred_rpn_bbox_pred_0_split -> rpn_bbox_pred_rpn_bbox_pred_0_split_0
I1115 14:48:11.077891   840 net.cpp:380] rpn_bbox_pred_rpn_bbox_pred_0_split -> rpn_bbox_pred_rpn_bbox_pred_0_split_1
I1115 14:48:11.077970   840 net.cpp:122] Setting up rpn_bbox_pred_rpn_bbox_pred_0_split
I1115 14:48:11.077976   840 net.cpp:129] Top shape: 1 36 38 63 (86184)
I1115 14:48:11.077980   840 net.cpp:129] Top shape: 1 36 38 63 (86184)
I1115 14:48:11.077982   840 net.cpp:137] Memory required for data: 1582218552
I1115 14:48:11.077986   840 layer_factory.hpp:77] Creating layer rpn_cls_score_reshape
I1115 14:48:11.077999   840 net.cpp:84] Creating Layer rpn_cls_score_reshape
I1115 14:48:11.078003   840 net.cpp:406] rpn_cls_score_reshape <- rpn_cls_score_rpn_cls_score_0_split_0
I1115 14:48:11.078011   840 net.cpp:380] rpn_cls_score_reshape -> rpn_cls_score_reshape
I1115 14:48:11.078057   840 net.cpp:122] Setting up rpn_cls_score_reshape
I1115 14:48:11.078063   840 net.cpp:129] Top shape: 1 2 342 63 (43092)
I1115 14:48:11.078065   840 net.cpp:137] Memory required for data: 1582390920
I1115 14:48:11.078068   840 layer_factory.hpp:77] Creating layer rpn_cls_score_reshape_rpn_cls_score_reshape_0_split
I1115 14:48:11.078075   840 net.cpp:84] Creating Layer rpn_cls_score_reshape_rpn_cls_score_reshape_0_split
I1115 14:48:11.078078   840 net.cpp:406] rpn_cls_score_reshape_rpn_cls_score_reshape_0_split <- rpn_cls_score_reshape
I1115 14:48:11.078083   840 net.cpp:380] rpn_cls_score_reshape_rpn_cls_score_reshape_0_split -> rpn_cls_score_reshape_rpn_cls_score_reshape_0_split_0
I1115 14:48:11.078092   840 net.cpp:380] rpn_cls_score_reshape_rpn_cls_score_reshape_0_split -> rpn_cls_score_reshape_rpn_cls_score_reshape_0_split_1
I1115 14:48:11.078160   840 net.cpp:122] Setting up rpn_cls_score_reshape_rpn_cls_score_reshape_0_split
I1115 14:48:11.078166   840 net.cpp:129] Top shape: 1 2 342 63 (43092)
I1115 14:48:11.078169   840 net.cpp:129] Top shape: 1 2 342 63 (43092)
I1115 14:48:11.078171   840 net.cpp:137] Memory required for data: 1582735656
I1115 14:48:11.078174   840 layer_factory.hpp:77] Creating layer rpn-data
I1115 14:48:11.116819   840 net.cpp:84] Creating Layer rpn-data
I1115 14:48:11.116847   840 net.cpp:406] rpn-data <- rpn_cls_score_rpn_cls_score_0_split_1
I1115 14:48:11.116861   840 net.cpp:406] rpn-data <- gt_boxes_input-data_2_split_0
I1115 14:48:11.116871   840 net.cpp:406] rpn-data <- im_info_input-data_1_split_0
I1115 14:48:11.116879   840 net.cpp:406] rpn-data <- data_input-data_0_split_1
I1115 14:48:11.116894   840 net.cpp:380] rpn-data -> rpn_labels
I1115 14:48:11.116910   840 net.cpp:380] rpn-data -> rpn_bbox_targets
I1115 14:48:11.116926   840 net.cpp:380] rpn-data -> rpn_bbox_inside_weights
I1115 14:48:11.116941   840 net.cpp:380] rpn-data -> rpn_bbox_outside_weights
I1115 14:48:11.121992   840 net.cpp:122] Setting up rpn-data
I1115 14:48:11.122025   840 net.cpp:129] Top shape: 1 1 342 63 (21546)
I1115 14:48:11.122035   840 net.cpp:129] Top shape: 1 36 38 63 (86184)
I1115 14:48:11.122043   840 net.cpp:129] Top shape: 1 36 38 63 (86184)
I1115 14:48:11.122051   840 net.cpp:129] Top shape: 1 36 38 63 (86184)
I1115 14:48:11.122056   840 net.cpp:137] Memory required for data: 1583856048
I1115 14:48:11.122064   840 layer_factory.hpp:77] Creating layer rpn_loss_cls
I1115 14:48:11.122078   840 net.cpp:84] Creating Layer rpn_loss_cls
I1115 14:48:11.122087   840 net.cpp:406] rpn_loss_cls <- rpn_cls_score_reshape_rpn_cls_score_reshape_0_split_0
I1115 14:48:11.122097   840 net.cpp:406] rpn_loss_cls <- rpn_labels
…
I1115 14:48:11.128964   840 net.cpp:129] Top shape: (1)
I1115 14:48:11.128970   840 net.cpp:132]     with loss weight 1
I1115 14:48:11.128983   840 net.cpp:137] Memory required for data: 1583856056
I1115 14:48:11.128989   840 layer_factory.hpp:77] Creating layer rpn_cls_prob
I1115 14:48:11.129000   840 net.cpp:84] Creating Layer rpn_cls_prob
I1115 14:48:11.129009   840 net.cpp:406] rpn_cls_prob <- rpn_cls_score_reshape_rpn_cls_score_reshape_0_split_1
I1115 14:48:11.129021   840 net.cpp:380] rpn_cls_prob -> rpn_cls_prob
I1115 14:48:11.131017   840 net.cpp:122] Setting up rpn_cls_prob
I1115 14:48:11.131044   840 net.cpp:129] Top shape: 1 2 342 63 (43092)
I1115 14:48:11.131050   840 net.cpp:137] Memory required for data: 1584028424
I1115 14:48:11.131058   840 layer_factory.hpp:77] Creating layer rpn_cls_prob_reshape
I1115 14:48:11.131072   840 net.cpp:84] Creating Layer rpn_cls_prob_reshape
I1115 14:48:11.131080   840 net.cpp:406] rpn_cls_prob_reshape <- rpn_cls_prob
I1115 14:48:11.131093   840 net.cpp:380] rpn_cls_prob_reshape -> rpn_cls_prob_reshape
I1115 14:48:11.131175   840 net.cpp:122] Setting up rpn_cls_prob_reshape
I1115 14:48:11.131188   840 net.cpp:129] Top shape: 1 18 38 63 (43092)
I1115 14:48:11.131193   840 net.cpp:137] Memory required for data: 1584200792
I1115 14:48:11.131198   840 layer_factory.hpp:77] Creating layer proposal
I1115 14:48:11.159895   840 net.cpp:84] Creating Layer proposal
I1115 14:48:11.159919   840 net.cpp:406] proposal <- rpn_cls_prob_reshape
I1115 14:48:11.159930   840 net.cpp:406] proposal <- rpn_bbox_pred_rpn_bbox_pred_0_split_1
I1115 14:48:11.159939   840 net.cpp:406] proposal <- im_info_input-data_1_split_1
I1115 14:48:11.159950   840 net.cpp:380] proposal -> rpn_rois
I1115 14:48:11.170233   840 net.cpp:122] Setting up proposal
I1115 14:48:11.170258   840 net.cpp:129] Top shape: 1 5 (5)
I1115 14:48:11.170264   840 net.cpp:137] Memory required for data: 1584200812
I1115 14:48:11.170269   840 layer_factory.hpp:77] Creating layer roi-data
I1115 14:48:11.177631   840 net.cpp:84] Creating Layer roi-data
I1115 14:48:11.177651   840 net.cpp:406] roi-data <- rpn_rois
I1115 14:48:11.177660   840 net.cpp:406] roi-data <- gt_boxes_input-data_2_split_1
I1115 14:48:11.177671   840 net.cpp:380] roi-data -> rois
I1115 14:48:11.177682   840 net.cpp:380] roi-data -> labels
I1115 14:48:11.177692   840 net.cpp:380] roi-data -> bbox_targets
I1115 14:48:11.177714   840 net.cpp:380] roi-data -> bbox_inside_weights
I1115 14:48:11.177726   840 net.cpp:380] roi-data -> bbox_outside_weights
I1115 14:48:11.178432   840 net.cpp:122] Setting up roi-data
I1115 14:48:11.178452   840 net.cpp:129] Top shape: 1 5 (5)
I1115 14:48:11.178457   840 net.cpp:129] Top shape: 1 1 (1)
I1115 14:48:11.178464   840 net.cpp:129] Top shape: 1 84 (84)
I1115 14:48:11.178468   840 net.cpp:129] Top shape: 1 84 (84)
I1115 14:48:11.178473   840 net.cpp:129] Top shape: 1 84 (84)
I1115 14:48:11.178477   840 net.cpp:137] Memory required for data: 1584201844
I1115 14:48:11.178483   840 layer_factory.hpp:77] Creating layer roi_pool5
I1115 14:48:11.178503   840 net.cpp:84] Creating Layer roi_pool5
I1115 14:48:11.178508   840 net.cpp:406] roi_pool5 <- conv5_3_P_relu5_3_0_split_1
I1115 14:48:11.178515   840 net.cpp:406] roi_pool5 <- rois
I1115 14:48:11.178524   840 net.cpp:380] roi_pool5 -> pool5
I1115 14:48:11.178534   840 roi_pooling_layer.cpp:30] Spatial scale: 0.0625
I1115 14:48:11.178658   840 net.cpp:122] Setting up roi_pool5
I1115 14:48:11.178668   840 net.cpp:129] Top shape: 1 512 7 7 (25088)
I1115 14:48:11.178673   840 net.cpp:137] Memory required for data: 1584302196
I1115 14:48:11.178678   840 layer_factory.hpp:77] Creating layer fc6
I1115 14:48:11.178686   840 net.cpp:84] Creating Layer fc6
I1115 14:48:11.178691   840 net.cpp:406] fc6 <- pool5
I1115 14:48:11.178699   840 net.cpp:380] fc6 -> fc6
I1115 14:48:11.491098   840 net.cpp:122] Setting up fc6
I1115 14:48:11.491144   840 net.cpp:129] Top shape: 1 4096 (4096)
I1115 14:48:11.491147   840 net.cpp:137] Memory required for data: 1584318580
I1115 14:48:11.491159   840 layer_factory.hpp:77] Creating layer relu6
I1115 14:48:11.491170   840 net.cpp:84] Creating Layer relu6
I1115 14:48:11.491178   840 net.cpp:406] relu6 <- fc6
I1115 14:48:11.491185   840 net.cpp:367] relu6 -> fc6 (in-place)
I1115 14:48:11.491505   840 net.cpp:122] Setting up relu6
I1115 14:48:11.491513   840 net.cpp:129] Top shape: 1 4096 (4096)
I1115 14:48:11.491515   840 net.cpp:137] Memory required for data: 1584334964
I1115 14:48:11.491519   840 layer_factory.hpp:77] Creating layer drop6
I1115 14:48:11.491528   840 net.cpp:84] Creating Layer drop6
I1115 14:48:11.491531   840 net.cpp:406] drop6 <- fc6
I1115 14:48:11.491536   840 net.cpp:367] drop6 -> fc6 (in-place)
I1115 14:48:11.491585   840 net.cpp:122] Setting up drop6
I1115 14:48:11.491591   840 net.cpp:129] Top shape: 1 4096 (4096)
I1115 14:48:11.491595   840 net.cpp:137] Memory required for data: 1584351348
I1115 14:48:11.491597   840 layer_factory.hpp:77] Creating layer fc7
I1115 14:48:11.491605   840 net.cpp:84] Creating Layer fc7
I1115 14:48:11.491610   840 net.cpp:406] fc7 <- fc6
I1115 14:48:11.491614   840 net.cpp:380] fc7 -> fc7
I1115 14:48:11.543365   840 net.cpp:122] Setting up fc7
I1115 14:48:11.543408   840 net.cpp:129] Top shape: 1 4096 (4096)
I1115 14:48:11.543412   840 net.cpp:137] Memory required for data: 1584367732
I1115 14:48:11.543423   840 layer_factory.hpp:77] Creating layer relu7
I1115 14:48:11.543434   840 net.cpp:84] Creating Layer relu7
I1115 14:48:11.543439   840 net.cpp:406] relu7 <- fc7
I1115 14:48:11.543447   840 net.cpp:367] relu7 -> fc7 (in-place)
I1115 14:48:11.543761   840 net.cpp:122] Setting up relu7
I1115 14:48:11.543769   840 net.cpp:129] Top shape: 1 4096 (4096)
I1115 14:48:11.543771   840 net.cpp:137] Memory required for data: 1584384116
I1115 14:48:11.543776   840 layer_factory.hpp:77] Creating layer drop7
I1115 14:48:11.543782   840 net.cpp:84] Creating Layer drop7
I1115 14:48:11.543787   840 net.cpp:406] drop7 <- fc7
I1115 14:48:11.543792   840 net.cpp:367] drop7 -> fc7 (in-place)
I1115 14:48:11.543841   840 net.cpp:122] Setting up drop7
I1115 14:48:11.543846   840 net.cpp:129] Top shape: 1 4096 (4096)
I1115 14:48:11.543849   840 net.cpp:137] Memory required for data: 1584400500
I1115 14:48:11.543853   840 layer_factory.hpp:77] Creating layer fc7_drop7_0_split
I1115 14:48:11.543859   840 net.cpp:84] Creating Layer fc7_drop7_0_split
I1115 14:48:11.543862   840 net.cpp:406] fc7_drop7_0_split <- fc7
I1115 14:48:11.543869   840 net.cpp:380] fc7_drop7_0_split -> fc7_drop7_0_split_0
I1115 14:48:11.543876   840 net.cpp:380] fc7_drop7_0_split -> fc7_drop7_0_split_1
I1115 14:48:11.543946   840 net.cpp:122] Setting up fc7_drop7_0_split
I1115 14:48:11.543951   840 net.cpp:129] Top shape: 1 4096 (4096)
I1115 14:48:11.543956   840 net.cpp:129] Top shape: 1 4096 (4096)
I1115 14:48:11.543957   840 net.cpp:137] Memory required for data: 1584433268
I1115 14:48:11.543962   840 layer_factory.hpp:77] Creating layer cls_score
I1115 14:48:11.543969   840 net.cpp:84] Creating Layer cls_score
I1115 14:48:11.543973   840 net.cpp:406] cls_score <- fc7_drop7_0_split_0
I1115 14:48:11.543980   840 net.cpp:380] cls_score -> cls_score
I1115 14:48:11.545198   840 net.cpp:122] Setting up cls_score
I1115 14:48:11.545207   840 net.cpp:129] Top shape: 1 21 (21)
I1115 14:48:11.545210   840 net.cpp:137] Memory required for data: 1584433352
I1115 14:48:11.545217   840 layer_factory.hpp:77] Creating layer bbox_pred
I1115 14:48:11.545223   840 net.cpp:84] Creating Layer bbox_pred
I1115 14:48:11.545228   840 net.cpp:406] bbox_pred <- fc7_drop7_0_split_1
I1115 14:48:11.545233   840 net.cpp:380] bbox_pred -> bbox_pred
I1115 14:48:11.549324   840 net.cpp:122] Setting up bbox_pred
I1115 14:48:11.549332   840 net.cpp:129] Top shape: 1 84 (84)
I1115 14:48:11.549335   840 net.cpp:137] Memory required for data: 1584433688
I1115 14:48:11.549352   840 layer_factory.hpp:77] Creating layer loss_cls
I1115 14:48:11.549360   840 net.cpp:84] Creating Layer loss_cls
I1115 14:48:11.549363   840 net.cpp:406] loss_cls <- cls_score
I1115 14:48:11.549368   840 net.cpp:406] loss_cls <- labels
I1115 14:48:11.549374   840 net.cpp:380] loss_cls -> loss_cls
…
I1115 18:30:08.084321 13981 upgrade_proto.cpp:70] Successfully upgraded file specified using deprecated input fields.
W1115 18:30:08.084327 13981 upgrade_proto.cpp:72] Note that future Caffe releases will only support input layers and not input fields.
I1115 18:30:08.085165 13981 net.cpp:51] Initializing net from parameters: 
name: "VGG_ILSVRC_16_layers"
state {
  phase: TEST
  level: 0
}
layer {
  name: "input"
  type: "Input"
  top: "data"
  top: "im_info"
  input_param {
    shape {
      dim: 1
      dim: 3
      dim: 224
      dim: 224
    }
    shape {
      dim: 1
      dim: 3
    }
  }
}
layer {
  name: "conv1_1_W_prime"
  type: "Convolution"
  bottom: "data"
  top: "conv1_1_W_prime"
  param {
    lr_mult: 0
    decay_mult: 0
  }
  param {
    lr_mult: 0
    decay_mult: 0
  }
  convolution_param {
    num_output: 24
    pad: 1
    kernel_size: 3
  }
}
layer {
  name: "conv1_1_P"
  type: "Convolution"
  bottom: "conv1_1_W_prime"
  top: "conv1_1_P"
  param {
    lr_mult: 0
    decay_mult: 0
  }
  param {
    lr_mult: 0
    decay_mult: 0
  }
  convolution_param {
    num_output: 64
    pad: 0
    kernel_size: 1
    stride: 1
    weight_filler {
      type: "msra"
    }
    bias_filler {
      type: "constant"
      value: 0
    }
  }
}
layer {
  name: "relu1_1"
  type: "ReLU"
  bottom: "conv1_1_P"
  top: "conv1_1_P"
}
layer {
  name: "conv1_2_W_prime"
  type: "Convolution"
  bottom: "conv1_1_P"
  top: "conv1_2_W_prime"
  param {
    lr_mult: 0
    decay_mult: 0
  }
  param {
    lr_mult: 0
    decay_mult: 0
  }
  convolution_param {
    num_output: 11
    pad: 1
    kernel_size: 3
  }
}
layer {
  name: "conv1_2_P"
  type: "Convolution"
  bottom: "conv1_2_W_prime"
  top: "conv1_2_P"
  param {
    lr_mult: 0
    decay_mult: 0
  }
  param {
    lr_mult: 0
    decay_mult: 0
  }
  convolution_param {
    num_output: 64
    pad: 0
    kernel_size: 1
    stride: 1
    weight_filler {
      type: "msra"
    }
    bias_filler {
      type: "constant"
      value: 0
    }
  }
}
layer {
  name: "relu1_2"
  type: "ReLU"
  bottom: "conv1_2_P"
  top: "conv1_2_P"
}
layer {
  name: "pool1"
  type: "Pooling"
  bottom: "conv1_2_P"
  top: "pool1"
  pooling_param {
    pool: MAX
    kernel_size: 2
    stride: 2
  }
}
layer {
  name: "conv2_1_W_prime"
  type: "Convolution"
  bottom: "pool1"
  top: "conv2_1_W_prime"
  param {
    lr_mult: 0
    decay_mult: 0
  }
  param {
    lr_mult: 0
    decay_mult: 0
  }
  convolution_param {
    num_output: 27
    pad: 1
    kernel_size: 3
  }
}
layer {
  name: "conv2_1_P"
  type: "Convolution"
  bottom: "conv2_1_W_prime"
  top: "conv2_1_P"
  param {
    lr_mult: 0
    decay_mult: 0
  }
  param {
    lr_mult: 0
    decay_mult: 0
  }
  convolution_param {
    num_output: 128
    pad: 0
    kernel_size: 1
    stride: 1
    weight_filler {
      type: "msra"
    }
    bias_filler {
      type: "constant"
      value: 0
    }
  }
}
layer {
  name: "relu2_1"
  type: "ReLU"
  bottom: "conv2_1_P"
  top: "conv2_1_P"
}
layer {
  name: "conv2_2_W_prime"
  type: "Convolution"
  bottom: "conv2_1_P"
  top: "conv2_2_W_prime"
  param {
    lr_mult: 0
    decay_mult: 0
  }
  param {
    lr_mult: 0
    decay_mult: 0
  }
  convolution_param {
    num_output: 24
    pad: 1
    kernel_size: 3
  }
}
layer {
  name: "conv2_2_P"
  type: "Convolution"
  bottom: "conv2_2_W_prime"
  top: "conv2_2_P"
  param {
    lr_mult: 0
    decay_mult: 0
  }
  param {
    lr_mult: 0
    decay_mult: 0
  }
  convolution_param {
    num_output: 128
    pad: 0
    kernel_size: 1
    stride: 1
    weight_filler {
      type: "msra"
    }
    bias_filler {
      type: "constant"
      value: 0
    }
  }
}
layer {
  name: "relu2_2"
  type: "ReLU"
  bottom: "conv2_2_P"
  top: "conv2_2_P"
}
layer {
  name: "pool2"
  type: "Pooling"
  bottom: "conv2_2_P"
  top: "pool2"
  pooling_param {
    pool: MAX
    kernel_size: 2
    stride: 2
  }
}
layer {
  name: "conv3_1_W_prime"
  type: "Convolution"
  bottom: "pool2"
  top: "conv3_1_W_prime"
  convolution_param {
    num_output: 67
    pad: 1
    kernel_size: 3
  }
}
layer {
  name: "conv3_1_P"
  type: "Convolution"
  bottom: "conv3_1_W_prime"
  top: "conv3_1_P"
  param {
    lr_mult: 1
  }
  param {
    lr_mult: 2
  }
  convolution_param {
    num_output: 256
    pad: 0
    kernel_size: 1
    stride: 1
    weight_filler {
      type: "msra"
    }
    bias_filler {
      type: "constant"
      value: 0
    }
  }
}
layer {
  name: "relu3_1"
  type: "ReLU"
  bottom: "conv3_1_P"
  top: "conv3_1_P"
}
layer {
  name: "conv3_2_W_prime"
  type: "Convolution"
  bottom: "conv3_1_P"
  top: "conv3_2_W_prime"
  convolution_param {
    num_output: 44
    pad: 1
    kernel_size: 3
  }
}
layer {
  name: "conv3_2_P"
  type: "Convolution"
  bottom: "conv3_2_W_prime"
  top: "conv3_2_P"
  param {
    lr_mult: 1
  }
  param {
    lr_mult: 2
  }
  convolution_param {
    num_output: 256
    pad: 0
    kernel_size: 1
    stride: 1
    weight_filler {
      type: "msra"
    }
    bias_filler {
      type: "constant"
      value: 0
    }
  }
}
layer {
  name: "relu3_2"
  type: "ReLU"
  bottom: "conv3_2_P"
  top: "conv3_2_P"
}
layer {
  name: "conv3_3_W_prime"
  type: "Convolution"
  bottom: "conv3_2_P"
  top: "conv3_3_W_prime"
  convolution_param {
    num_output: 75
    pad: 1
    kernel_size: 3
  }
}
layer {
  name: "conv3_3_P"
  type: "Convolution"
  bottom: "conv3_3_W_prime"
  top: "conv3_3_P"
  param {
    lr_mult: 1
  }
  param {
    lr_mult: 2
  }
  convolution_param {
    num_output: 256
    pad: 0
    kernel_size: 1
    stride: 1
    weight_filler {
      type: "msra"
    }
    bias_filler {
      type: "constant"
      value: 0
    }
  }
}
layer {
  name: "relu3_3"
  type: "ReLU"
  bottom: "conv3_3_P"
  top: "conv3_3_P"
}
layer {
  name: "pool3"
  type: "Pooling"
  bottom: "conv3_3_P"
  top: "pool3"
  pooling_param {
    pool: MAX
    kernel_size: 2
    stride: 2
  }
}
layer {
  name: "conv4_1_W_prime"
  type: "Convolution"
  bottom: "pool3"
  top: "conv4_1_W_prime"
  convolution_param {
    num_output: 104
    pad: 1
    kernel_size: 3
  }
}
layer {
  name: "conv4_1_P"
  type: "Convolution"
  bottom: "conv4_1_W_prime"
  top: "conv4_1_P"
  param {
    lr_mult: 1
  }
  param {
    lr_mult: 2
  }
  convolution_param {
    num_output: 512
    pad: 0
    kernel_size: 1
    stride: 1
    weight_filler {
      type: "msra"
    }
    bias_filler {
      type: "constant"
      value: 0
    }
  }
}
layer {
  name: "relu4_1"
  type: "ReLU"
  bottom: "conv4_1_P"
  top: "conv4_1_P"
}
layer {
  name: "conv4_2_W_prime"
  type: "Convolution"
  bottom: "conv4_1_P"
  top: "conv4_2_W_prime"
  convolution_param {
    num_output: 121
    pad: 1
    kernel_size: 3
  }
}
layer {
  name: "conv4_2_P"
  type: "Convolution"
  bottom: "conv4_2_W_prime"
  top: "conv4_2_P"
  param {
    lr_mult: 1
  }
  param {
    lr_mult: 2
  }
  convolution_param {
    num_output: 512
    pad: 0
    kernel_size: 1
    stride: 1
    weight_filler {
      type: "msra"
    }
    bias_filler {
      type: "constant"
      value: 0
    }
  }
}
layer {
  name: "relu4_2"
  type: "ReLU"
  bottom: "conv4_2_P"
  top: "conv4_2_P"
}
layer {
  name: "conv4_3_W_prime"
  type: "Convolution"
  bottom: "conv4_2_P"
  top: "conv4_3_W_prime"
  convolution_param {
    num_output: 126
    pad: 1
    kernel_size: 3
  }
}
layer {
  name: "conv4_3_P"
  type: "Convolution"
  bottom: "conv4_3_W_prime"
  top: "conv4_3_P"
  param {
    lr_mult: 1
  }
  param {
    lr_mult: 2
  }
  convolution_param {
    num_output: 512
    pad: 0
    kernel_size: 1
    stride: 1
    weight_filler {
      type: "msra"
    }
    bias_filler {
      type: "constant"
      value: 0
    }
  }
}
layer {
  name: "relu4_3"
  type: "ReLU"
  bottom: "conv4_3_P"
  top: "conv4_3_P"
}
layer {
  name: "pool4"
  type: "Pooling"
  bottom: "conv4_3_P"
  top: "pool4"
  pooling_param {
    pool: MAX
    kernel_size: 2
    stride: 2
  }
}
layer {
  name: "conv5_1_W_prime"
  type: "Convolution"
  bottom: "pool4"
  top: "conv5_1_W_prime"
  convolution_param {
    num_output: 198
    pad: 1
    kernel_size: 3
  }
}
layer {
  name: "conv5_1_P"
  type: "Convolution"
  bottom: "conv5_1_W_prime"
  top: "conv5_1_P"
  param {
    lr_mult: 1
  }
  param {
    lr_mult: 2
  }
  convolution_param {
    num_output: 512
    pad: 0
    kernel_size: 1
    stride: 1
    weight_filler {
      type: "msra"
    }
    bias_filler {
      type: "constant"
      value: 0
    }
  }
}
layer {
  name: "relu5_1"
  type: "ReLU"
  bottom: "conv5_1_P"
  top: "conv5_1_P"
}
layer {
  name: "conv5_2_W_prime"
  type: "Convolution"
  bottom: "conv5_1_P"
  top: "conv5_2_W_prime"
  convolution_param {
    num_output: 162
    pad: 1
    kernel_size: 3
  }
}
layer {
  name: "conv5_2_P"
  type: "Convolution"
  bottom: "conv5_2_W_prime"
  top: "conv5_2_P"
  param {
    lr_mult: 1
  }
  param {
    lr_mult: 2
  }
  convolution_param {
    num_output: 512
    pad: 0
    kernel_size: 1
    stride: 1
    weight_filler {
      type: "msra"
    }
    bias_filler {
      type: "constant"
      value: 0
    }
  }
}
layer {
  name: "relu5_2"
  type: "ReLU"
  bottom: "conv5_2_P"
  top: "conv5_2_P"
}
layer {
  name: "conv5_3_W_prime"
  type: "Convolution"
  bottom: "conv5_2_P"
  top: "conv5_3_W_prime"
  convolution_param {
    num_output: 190
    pad: 1
    kernel_size: 3
  }
}
layer {
  name: "conv5_3_P"
  type: "Convolution"
  bottom: "conv5_3_W_prime"
  top: "conv5_3_P"
  param {
    lr_mult: 1
  }
  param {
    lr_mult: 2
  }
  convolution_param {
    num_output: 512
    pad: 0
    kernel_size: 1
    stride: 1
    weight_filler {
      type: "msra"
    }
    bias_filler {
      type: "constant"
      value: 0
    }
  }
}
layer {
  name: "relu5_3"
  type: "ReLU"
  bottom: "conv5_3_P"
  top: "conv5_3_P"
}
layer {
  name: "rpn_conv/3x3"
  type: "Convolution"
  bottom: "conv5_3_P"
  top: "rpn/output"
  param {
    lr_mult: 1
    decay_mult: 1
  }
  param {
    lr_mult: 2
    decay_mult: 0
  }
  convolution_param {
    num_output: 512
    pad: 1
    kernel_size: 3
    stride: 1
    weight_filler {
      type: "gaussian"
      std: 0.01
    }
    bias_filler {
      type: "constant"
      value: 0
    }
  }
}
layer {
  name: "rpn_relu/3x3"
  type: "ReLU"
  bottom: "rpn/output"
  top: "rpn/output"
}
layer {
  name: "rpn_cls_score"
  type: "Convolution"
  bottom: "rpn/output"
  top: "rpn_cls_score"
  param {
    lr_mult: 1
    decay_mult: 1
  }
  param {
    lr_mult: 2
    decay_mult: 0
  }
  convolution_param {
    num_output: 18
    pad: 0
    kernel_size: 1
    stride: 1
    weight_filler {
      type: "gaussian"
      std: 0.01
    }
    bias_filler {
      type: "constant"
      value: 0
    }
  }
}
layer {
  name: "rpn_bbox_pred"
  type: "Convolution"
  bottom: "rpn/output"
  top: "rpn_bbox_pred"
  param {
    lr_mult: 1
    decay_mult: 1
  }
  param {
    lr_mult: 2
    decay_mult: 0
  }
  convolution_param {
    num_output: 36
    pad: 0
    kernel_size: 1
    stride: 1
    weight_filler {
      type: "gaussian"
      std: 0.01
    }
    bias_filler {
      type: "constant"
      value: 0
    }
  }
}
layer {
  name: "rpn_cls_score_reshape"
  type: "Reshape"
  bottom: "rpn_cls_score"
  top: "rpn_cls_score_reshape"
  reshape_param {
    shape {
      dim: 0
      dim: 2
      dim: -1
      dim: 0
    }
  }
}
layer {
  name: "rpn_cls_prob"
  type: "Softmax"
  bottom: "rpn_cls_score_reshape"
  top: "rpn_cls_prob"
}
layer {
  name: "rpn_cls_prob_reshape"
  type: "Reshape"
  bottom: "rpn_cls_prob"
  top: "rpn_cls_prob_reshape"
  reshape_param {
    shape {
      dim: 0
      dim: 18
      dim: -1
      dim: 0
    }
  }
}
layer {
  name: "proposal"
  type: "Python"
  bottom: "rpn_cls_prob_reshape"
  bottom: "rpn_bbox_pred"
  bottom: "im_info"
  top: "rois"
  python_param {
    module: "rpn.proposal_layer"
    layer: "ProposalLayer"
    param_str: "\'feat_stride\': 16"
  }
}
layer {
  name: "roi_pool5"
  type: "ROIPooling"
  bottom: "conv5_3_P"
  bottom: "rois"
  top: "pool5"
  roi_pooling_param {
    pooled_h: 7
    pooled_w: 7
    spatial_scale: 0.0625
  }
}
layer {
  name: "fc6"
  type: "InnerProduct"
  bottom: "pool5"
  top: "fc6"
  param {
    lr_mult: 1
    decay_mult: 1
  }
  param {
    lr_mult: 2
    decay_mult: 0
  }
  inner_product_param {
    num_output: 4096
  }
}
layer {
  name: "relu6"
  type: "ReLU"
  bottom: "fc6"
  top: "fc6"
}
layer {
  name: "drop6"
  type: "Dropout"
  bottom: "fc6"
  top: "fc6"
  dropout_param {
    dropout_ratio: 0.5
  }
}
layer {
  name: "fc7"
  type: "InnerProduct"
  bottom: "fc6"
  top: "fc7"
  param {
    lr_mult: 1
    decay_mult: 1
  }
  param {
    lr_mult: 2
    decay_mult: 0
  }
  inner_product_param {
    num_output: 4096
  }
}
layer {
  name: "relu7"
  type: "ReLU"
  bottom: "fc7"
  top: "fc7"
}
layer {
  name: "drop7"
  type: "Dropout"
  bottom: "fc7"
  top: "fc7"
  dropout_param {
    dropout_ratio: 0.5
  }
}
layer {
  name: "cls_score"
  type: "InnerProduct"
  bottom: "fc7"
  top: "cls_score"
  param {
    lr_mult: 1
    decay_mult: 1
  }
  param {
    lr_mult: 2
    decay_mult: 0
  }
  inner_product_param {
    num_output: 21
    weight_filler {
      type: "gaussian"
      std: 0.01
    }
    bias_filler {
      type: "constant"
      value: 0
    }
  }
}
layer {
  name: "bbox_pred"
  type: "InnerProduct"
  bottom: "fc7"
  top: "bbox_pred"
  param {
    lr_mult: 1
    decay_mult: 1
  }
  param {
    lr_mult: 2
    decay_mult: 0
  }
  inner_product_param {
    num_output: 84
    weight_filler {
      type: "gaussian"
      std: 0.001
    }
    bias_filler {
      type: "constant"
      value: 0
    }
  }
}
layer {
  name: "cls_prob"
  type: "Softmax"
  bottom: "cls_score"
  top: "cls_prob"
}
I1115 18:30:08.085558 13981 layer_factory.hpp:77] Creating layer input
I1115 18:30:08.085578 13981 net.cpp:84] Creating Layer input
I1115 18:30:08.085697 13981 net.cpp:380] input -> data
I1115 18:30:08.085824 13981 net.cpp:380] input -> im_info
I1115 18:30:08.179327 13981 net.cpp:122] Setting up input
I1115 18:30:08.179368 13981 net.cpp:129] Top shape: 1 3 224 224 (150528)
I1115 18:30:08.179378 13981 net.cpp:129] Top shape: 1 3 (3)
I1115 18:30:08.179383 13981 net.cpp:137] Memory required for data: 602124
I1115 18:30:08.179389 13981 layer_factory.hpp:77] Creating layer conv1_1_W_prime
I1115 18:30:08.179409 13981 net.cpp:84] Creating Layer conv1_1_W_prime
I1115 18:30:08.179414 13981 net.cpp:406] conv1_1_W_prime <- data
I1115 18:30:08.179425 13981 net.cpp:380] conv1_1_W_prime -> conv1_1_W_prime
I1115 18:30:09.070484 13981 net.cpp:122] Setting up conv1_1_W_prime
I1115 18:30:09.070531 13981 net.cpp:129] Top shape: 1 24 224 224 (1204224)
I1115 18:30:09.070538 13981 net.cpp:137] Memory required for data: 5419020
I1115 18:30:09.070557 13981 layer_factory.hpp:77] Creating layer conv1_1_P
I1115 18:30:09.070580 13981 net.cpp:84] Creating Layer conv1_1_P
I1115 18:30:09.070585 13981 net.cpp:406] conv1_1_P <- conv1_1_W_prime
I1115 18:30:09.070595 13981 net.cpp:380] conv1_1_P -> conv1_1_P
I1115 18:30:09.076035 13981 net.cpp:122] Setting up conv1_1_P
I1115 18:30:09.076056 13981 net.cpp:129] Top shape: 1 64 224 224 (3211264)
I1115 18:30:09.076061 13981 net.cpp:137] Memory required for data: 18264076
I1115 18:30:09.076072 13981 layer_factory.hpp:77] Creating layer relu1_1
I1115 18:30:09.076081 13981 net.cpp:84] Creating Layer relu1_1
I1115 18:30:09.076086 13981 net.cpp:406] relu1_1 <- conv1_1_P
I1115 18:30:09.076092 13981 net.cpp:367] relu1_1 -> conv1_1_P (in-place)
I1115 18:30:09.076344 13981 net.cpp:122] Setting up relu1_1
I1115 18:30:09.076354 13981 net.cpp:129] Top shape: 1 64 224 224 (3211264)
I1115 18:30:09.076356 13981 net.cpp:137] Memory required for data: 31109132
I1115 18:30:09.076360 13981 layer_factory.hpp:77] Creating layer conv1_2_W_prime
I1115 18:30:09.076371 13981 net.cpp:84] Creating Layer conv1_2_W_prime
I1115 18:30:09.076375 13981 net.cpp:406] conv1_2_W_prime <- conv1_1_P
I1115 18:30:09.076381 13981 net.cpp:380] conv1_2_W_prime -> conv1_2_W_prime
I1115 18:30:09.083509 13981 net.cpp:122] Setting up conv1_2_W_prime
I1115 18:30:09.083533 13981 net.cpp:129] Top shape: 1 11 224 224 (551936)
I1115 18:30:09.083536 13981 net.cpp:137] Memory required for data: 33316876
I1115 18:30:09.083549 13981 layer_factory.hpp:77] Creating layer conv1_2_P
I1115 18:30:09.083561 13981 net.cpp:84] Creating Layer conv1_2_P
I1115 18:30:09.083565 13981 net.cpp:406] conv1_2_P <- conv1_2_W_prime
I1115 18:30:09.083572 13981 net.cpp:380] conv1_2_P -> conv1_2_P
I1115 18:30:09.085855 13981 net.cpp:122] Setting up conv1_2_P
I1115 18:30:09.085873 13981 net.cpp:129] Top shape: 1 64 224 224 (3211264)
I1115 18:30:09.085878 13981 net.cpp:137] Memory required for data: 46161932
I1115 18:30:09.085886 13981 layer_factory.hpp:77] Creating layer relu1_2
I1115 18:30:09.085893 13981 net.cpp:84] Creating Layer relu1_2
I1115 18:30:09.085896 13981 net.cpp:406] relu1_2 <- conv1_2_P
I1115 18:30:09.085906 13981 net.cpp:367] relu1_2 -> conv1_2_P (in-place)
I1115 18:30:09.086164 13981 net.cpp:122] Setting up relu1_2
I1115 18:30:09.086174 13981 net.cpp:129] Top shape: 1 64 224 224 (3211264)
I1115 18:30:09.086176 13981 net.cpp:137] Memory required for data: 59006988
I1115 18:30:09.086180 13981 layer_factory.hpp:77] Creating layer pool1
I1115 18:30:09.086189 13981 net.cpp:84] Creating Layer pool1
I1115 18:30:09.086191 13981 net.cpp:406] pool1 <- conv1_2_P
I1115 18:30:09.086199 13981 net.cpp:380] pool1 -> pool1
I1115 18:30:09.086283 13981 net.cpp:122] Setting up pool1
I1115 18:30:09.086289 13981 net.cpp:129] Top shape: 1 64 112 112 (802816)
I1115 18:30:09.086292 13981 net.cpp:137] Memory required for data: 62218252
I1115 18:30:09.086295 13981 layer_factory.hpp:77] Creating layer conv2_1_W_prime
I1115 18:30:09.086308 13981 net.cpp:84] Creating Layer conv2_1_W_prime
I1115 18:30:09.086311 13981 net.cpp:406] conv2_1_W_prime <- pool1
I1115 18:30:09.086319 13981 net.cpp:380] conv2_1_W_prime -> conv2_1_W_prime
I1115 18:30:09.090382 13981 net.cpp:122] Setting up conv2_1_W_prime
I1115 18:30:09.090430 13981 net.cpp:129] Top shape: 1 27 112 112 (338688)
I1115 18:30:09.090437 13981 net.cpp:137] Memory required for data: 63573004
I1115 18:30:09.090459 13981 layer_factory.hpp:77] Creating layer conv2_1_P
I1115 18:30:09.090487 13981 net.cpp:84] Creating Layer conv2_1_P
I1115 18:30:09.090494 13981 net.cpp:406] conv2_1_P <- conv2_1_W_prime
I1115 18:30:09.090512 13981 net.cpp:380] conv2_1_P -> conv2_1_P
I1115 18:30:09.094998 13981 net.cpp:122] Setting up conv2_1_P
I1115 18:30:09.095026 13981 net.cpp:129] Top shape: 1 128 112 112 (1605632)
I1115 18:30:09.095034 13981 net.cpp:137] Memory required for data: 69995532
I1115 18:30:09.095046 13981 layer_factory.hpp:77] Creating layer relu2_1
I1115 18:30:09.095058 13981 net.cpp:84] Creating Layer relu2_1
I1115 18:30:09.095064 13981 net.cpp:406] relu2_1 <- conv2_1_P
I1115 18:30:09.095078 13981 net.cpp:367] relu2_1 -> conv2_1_P (in-place)
I1115 18:30:09.097120 13981 net.cpp:122] Setting up relu2_1
I1115 18:30:09.097139 13981 net.cpp:129] Top shape: 1 128 112 112 (1605632)
I1115 18:30:09.097143 13981 net.cpp:137] Memory required for data: 76418060
I1115 18:30:09.097147 13981 layer_factory.hpp:77] Creating layer conv2_2_W_prime
I1115 18:30:09.097158 13981 net.cpp:84] Creating Layer conv2_2_W_prime
I1115 18:30:09.097163 13981 net.cpp:406] conv2_2_W_prime <- conv2_1_P
I1115 18:30:09.097172 13981 net.cpp:380] conv2_2_W_prime -> conv2_2_W_prime
I1115 18:30:09.100234 13981 net.cpp:122] Setting up conv2_2_W_prime
I1115 18:30:09.100257 13981 net.cpp:129] Top shape: 1 24 112 112 (301056)
I1115 18:30:09.100261 13981 net.cpp:137] Memory required for data: 77622284
I1115 18:30:09.100270 13981 layer_factory.hpp:77] Creating layer conv2_2_P
I1115 18:30:09.100283 13981 net.cpp:84] Creating Layer conv2_2_P
I1115 18:30:09.100287 13981 net.cpp:406] conv2_2_P <- conv2_2_W_prime
I1115 18:30:09.100294 13981 net.cpp:380] conv2_2_P -> conv2_2_P
I1115 18:30:09.102572 13981 net.cpp:122] Setting up conv2_2_P
I1115 18:30:09.102592 13981 net.cpp:129] Top shape: 1 128 112 112 (1605632)
I1115 18:30:09.102596 13981 net.cpp:137] Memory required for data: 84044812
I1115 18:30:09.102603 13981 layer_factory.hpp:77] Creating layer relu2_2
I1115 18:30:09.102609 13981 net.cpp:84] Creating Layer relu2_2
I1115 18:30:09.102613 13981 net.cpp:406] relu2_2 <- conv2_2_P
I1115 18:30:09.102619 13981 net.cpp:367] relu2_2 -> conv2_2_P (in-place)
I1115 18:30:09.102875 13981 net.cpp:122] Setting up relu2_2
I1115 18:30:09.102885 13981 net.cpp:129] Top shape: 1 128 112 112 (1605632)
I1115 18:30:09.102888 13981 net.cpp:137] Memory required for data: 90467340
I1115 18:30:09.102891 13981 layer_factory.hpp:77] Creating layer pool2
I1115 18:30:09.102898 13981 net.cpp:84] Creating Layer pool2
I1115 18:30:09.102901 13981 net.cpp:406] pool2 <- conv2_2_P
I1115 18:30:09.102910 13981 net.cpp:380] pool2 -> pool2
I1115 18:30:09.102993 13981 net.cpp:122] Setting up pool2
I1115 18:30:09.102998 13981 net.cpp:129] Top shape: 1 128 56 56 (401408)
I1115 18:30:09.103001 13981 net.cpp:137] Memory required for data: 92072972
I1115 18:30:09.103004 13981 layer_factory.hpp:77] Creating layer conv3_1_W_prime
I1115 18:30:09.103011 13981 net.cpp:84] Creating Layer conv3_1_W_prime
I1115 18:30:09.103014 13981 net.cpp:406] conv3_1_W_prime <- pool2
I1115 18:30:09.103021 13981 net.cpp:380] conv3_1_W_prime -> conv3_1_W_prime
I1115 18:30:09.109474 13981 net.cpp:122] Setting up conv3_1_W_prime
I1115 18:30:09.109493 13981 net.cpp:129] Top shape: 1 67 56 56 (210112)
I1115 18:30:09.109495 13981 net.cpp:137] Memory required for data: 92913420
I1115 18:30:09.109510 13981 layer_factory.hpp:77] Creating layer conv3_1_P
I1115 18:30:09.109529 13981 net.cpp:84] Creating Layer conv3_1_P
I1115 18:30:09.109532 13981 net.cpp:406] conv3_1_P <- conv3_1_W_prime
I1115 18:30:09.109539 13981 net.cpp:380] conv3_1_P -> conv3_1_P
I1115 18:30:09.111886 13981 net.cpp:122] Setting up conv3_1_P
I1115 18:30:09.111905 13981 net.cpp:129] Top shape: 1 256 56 56 (802816)
I1115 18:30:09.111909 13981 net.cpp:137] Memory required for data: 96124684
I1115 18:30:09.111917 13981 layer_factory.hpp:77] Creating layer relu3_1
I1115 18:30:09.111922 13981 net.cpp:84] Creating Layer relu3_1
I1115 18:30:09.111927 13981 net.cpp:406] relu3_1 <- conv3_1_P
I1115 18:30:09.111932 13981 net.cpp:367] relu3_1 -> conv3_1_P (in-place)
I1115 18:30:09.112175 13981 net.cpp:122] Setting up relu3_1
I1115 18:30:09.112185 13981 net.cpp:129] Top shape: 1 256 56 56 (802816)
I1115 18:30:09.112187 13981 net.cpp:137] Memory required for data: 99335948
I1115 18:30:09.112190 13981 layer_factory.hpp:77] Creating layer conv3_2_W_prime
I1115 18:30:09.112200 13981 net.cpp:84] Creating Layer conv3_2_W_prime
I1115 18:30:09.112203 13981 net.cpp:406] conv3_2_W_prime <- conv3_1_P
I1115 18:30:09.112208 13981 net.cpp:380] conv3_2_W_prime -> conv3_2_W_prime
I1115 18:30:09.115353 13981 net.cpp:122] Setting up conv3_2_W_prime
I1115 18:30:09.115370 13981 net.cpp:129] Top shape: 1 44 56 56 (137984)
I1115 18:30:09.115373 13981 net.cpp:137] Memory required for data: 99887884
I1115 18:30:09.115381 13981 layer_factory.hpp:77] Creating layer conv3_2_P
I1115 18:30:09.115396 13981 net.cpp:84] Creating Layer conv3_2_P
I1115 18:30:09.115401 13981 net.cpp:406] conv3_2_P <- conv3_2_W_prime
I1115 18:30:09.115411 13981 net.cpp:380] conv3_2_P -> conv3_2_P
I1115 18:30:09.117691 13981 net.cpp:122] Setting up conv3_2_P
I1115 18:30:09.117707 13981 net.cpp:129] Top shape: 1 256 56 56 (802816)
I1115 18:30:09.117712 13981 net.cpp:137] Memory required for data: 103099148
I1115 18:30:09.117718 13981 layer_factory.hpp:77] Creating layer relu3_2
I1115 18:30:09.117724 13981 net.cpp:84] Creating Layer relu3_2
I1115 18:30:09.117727 13981 net.cpp:406] relu3_2 <- conv3_2_P
I1115 18:30:09.117735 13981 net.cpp:367] relu3_2 -> conv3_2_P (in-place)
I1115 18:30:09.118896 13981 net.cpp:122] Setting up relu3_2
I1115 18:30:09.118912 13981 net.cpp:129] Top shape: 1 256 56 56 (802816)
I1115 18:30:09.118916 13981 net.cpp:137] Memory required for data: 106310412
I1115 18:30:09.118919 13981 layer_factory.hpp:77] Creating layer conv3_3_W_prime
I1115 18:30:09.118930 13981 net.cpp:84] Creating Layer conv3_3_W_prime
I1115 18:30:09.118934 13981 net.cpp:406] conv3_3_W_prime <- conv3_2_P
I1115 18:30:09.118942 13981 net.cpp:380] conv3_3_W_prime -> conv3_3_W_prime
I1115 18:30:09.121876 13981 net.cpp:122] Setting up conv3_3_W_prime
I1115 18:30:09.121896 13981 net.cpp:129] Top shape: 1 75 56 56 (235200)
I1115 18:30:09.121899 13981 net.cpp:137] Memory required for data: 107251212
I1115 18:30:09.121906 13981 layer_factory.hpp:77] Creating layer conv3_3_P
I1115 18:30:09.121918 13981 net.cpp:84] Creating Layer conv3_3_P
I1115 18:30:09.121922 13981 net.cpp:406] conv3_3_P <- conv3_3_W_prime
I1115 18:30:09.121928 13981 net.cpp:380] conv3_3_P -> conv3_3_P
I1115 18:30:09.124253 13981 net.cpp:122] Setting up conv3_3_P
I1115 18:30:09.124270 13981 net.cpp:129] Top shape: 1 256 56 56 (802816)
I1115 18:30:09.124274 13981 net.cpp:137] Memory required for data: 110462476
I1115 18:30:09.124280 13981 layer_factory.hpp:77] Creating layer relu3_3
I1115 18:30:09.124286 13981 net.cpp:84] Creating Layer relu3_3
I1115 18:30:09.124290 13981 net.cpp:406] relu3_3 <- conv3_3_P
I1115 18:30:09.124297 13981 net.cpp:367] relu3_3 -> conv3_3_P (in-place)
I1115 18:30:09.124536 13981 net.cpp:122] Setting up relu3_3
I1115 18:30:09.124545 13981 net.cpp:129] Top shape: 1 256 56 56 (802816)
I1115 18:30:09.124548 13981 net.cpp:137] Memory required for data: 113673740
I1115 18:30:09.124552 13981 layer_factory.hpp:77] Creating layer pool3
I1115 18:30:09.124559 13981 net.cpp:84] Creating Layer pool3
I1115 18:30:09.124562 13981 net.cpp:406] pool3 <- conv3_3_P
I1115 18:30:09.124567 13981 net.cpp:380] pool3 -> pool3
I1115 18:30:09.124644 13981 net.cpp:122] Setting up pool3
I1115 18:30:09.124650 13981 net.cpp:129] Top shape: 1 256 28 28 (200704)
I1115 18:30:09.124652 13981 net.cpp:137] Memory required for data: 114476556
I1115 18:30:09.124655 13981 layer_factory.hpp:77] Creating layer conv4_1_W_prime
I1115 18:30:09.124663 13981 net.cpp:84] Creating Layer conv4_1_W_prime
I1115 18:30:09.124666 13981 net.cpp:406] conv4_1_W_prime <- pool3
I1115 18:30:09.124671 13981 net.cpp:380] conv4_1_W_prime -> conv4_1_W_prime
I1115 18:30:09.132867 13981 net.cpp:122] Setting up conv4_1_W_prime
I1115 18:30:09.132899 13981 net.cpp:129] Top shape: 1 104 28 28 (81536)
I1115 18:30:09.132906 13981 net.cpp:137] Memory required for data: 114802700
I1115 18:30:09.132920 13981 layer_factory.hpp:77] Creating layer conv4_1_P
I1115 18:30:09.132941 13981 net.cpp:84] Creating Layer conv4_1_P
I1115 18:30:09.132947 13981 net.cpp:406] conv4_1_P <- conv4_1_W_prime
I1115 18:30:09.132964 13981 net.cpp:380] conv4_1_P -> conv4_1_P
I1115 18:30:09.137735 13981 net.cpp:122] Setting up conv4_1_P
I1115 18:30:09.137764 13981 net.cpp:129] Top shape: 1 512 28 28 (401408)
I1115 18:30:09.137771 13981 net.cpp:137] Memory required for data: 116408332
I1115 18:30:09.137784 13981 layer_factory.hpp:77] Creating layer relu4_1
I1115 18:30:09.137799 13981 net.cpp:84] Creating Layer relu4_1
I1115 18:30:09.137805 13981 net.cpp:406] relu4_1 <- conv4_1_P
I1115 18:30:09.137815 13981 net.cpp:367] relu4_1 -> conv4_1_P (in-place)
I1115 18:30:09.138247 13981 net.cpp:122] Setting up relu4_1
I1115 18:30:09.138263 13981 net.cpp:129] Top shape: 1 512 28 28 (401408)
I1115 18:30:09.138268 13981 net.cpp:137] Memory required for data: 118013964
I1115 18:30:09.138274 13981 layer_factory.hpp:77] Creating layer conv4_2_W_prime
I1115 18:30:09.138296 13981 net.cpp:84] Creating Layer conv4_2_W_prime
I1115 18:30:09.138301 13981 net.cpp:406] conv4_2_W_prime <- conv4_1_P
I1115 18:30:09.138314 13981 net.cpp:380] conv4_2_W_prime -> conv4_2_W_prime
I1115 18:30:09.148530 13981 net.cpp:122] Setting up conv4_2_W_prime
I1115 18:30:09.148564 13981 net.cpp:129] Top shape: 1 121 28 28 (94864)
I1115 18:30:09.148572 13981 net.cpp:137] Memory required for data: 118393420
I1115 18:30:09.148602 13981 layer_factory.hpp:77] Creating layer conv4_2_P
I1115 18:30:09.148628 13981 net.cpp:84] Creating Layer conv4_2_P
I1115 18:30:09.148638 13981 net.cpp:406] conv4_2_P <- conv4_2_W_prime
I1115 18:30:09.148655 13981 net.cpp:380] conv4_2_P -> conv4_2_P
I1115 18:30:09.153538 13981 net.cpp:122] Setting up conv4_2_P
I1115 18:30:09.153569 13981 net.cpp:129] Top shape: 1 512 28 28 (401408)
I1115 18:30:09.153578 13981 net.cpp:137] Memory required for data: 119999052
I1115 18:30:09.153591 13981 layer_factory.hpp:77] Creating layer relu4_2
I1115 18:30:09.153607 13981 net.cpp:84] Creating Layer relu4_2
I1115 18:30:09.153614 13981 net.cpp:406] relu4_2 <- conv4_2_P
I1115 18:30:09.153630 13981 net.cpp:367] relu4_2 -> conv4_2_P (in-place)
I1115 18:30:09.154069 13981 net.cpp:122] Setting up relu4_2
I1115 18:30:09.154086 13981 net.cpp:129] Top shape: 1 512 28 28 (401408)
I1115 18:30:09.154093 13981 net.cpp:137] Memory required for data: 121604684
I1115 18:30:09.154100 13981 layer_factory.hpp:77] Creating layer conv4_3_W_prime
I1115 18:30:09.154119 13981 net.cpp:84] Creating Layer conv4_3_W_prime
I1115 18:30:09.154127 13981 net.cpp:406] conv4_3_W_prime <- conv4_2_P
I1115 18:30:09.154146 13981 net.cpp:380] conv4_3_W_prime -> conv4_3_W_prime
I1115 18:30:09.161808 13981 net.cpp:122] Setting up conv4_3_W_prime
I1115 18:30:09.161826 13981 net.cpp:129] Top shape: 1 126 28 28 (98784)
I1115 18:30:09.161830 13981 net.cpp:137] Memory required for data: 121999820
I1115 18:30:09.161837 13981 layer_factory.hpp:77] Creating layer conv4_3_P
I1115 18:30:09.161857 13981 net.cpp:84] Creating Layer conv4_3_P
I1115 18:30:09.161862 13981 net.cpp:406] conv4_3_P <- conv4_3_W_prime
I1115 18:30:09.161870 13981 net.cpp:380] conv4_3_P -> conv4_3_P
I1115 18:30:09.164918 13981 net.cpp:122] Setting up conv4_3_P
I1115 18:30:09.164937 13981 net.cpp:129] Top shape: 1 512 28 28 (401408)
I1115 18:30:09.164940 13981 net.cpp:137] Memory required for data: 123605452
I1115 18:30:09.164947 13981 layer_factory.hpp:77] Creating layer relu4_3
I1115 18:30:09.164955 13981 net.cpp:84] Creating Layer relu4_3
I1115 18:30:09.164960 13981 net.cpp:406] relu4_3 <- conv4_3_P
I1115 18:30:09.164965 13981 net.cpp:367] relu4_3 -> conv4_3_P (in-place)
I1115 18:30:09.166143 13981 net.cpp:122] Setting up relu4_3
I1115 18:30:09.166162 13981 net.cpp:129] Top shape: 1 512 28 28 (401408)
I1115 18:30:09.166167 13981 net.cpp:137] Memory required for data: 125211084
I1115 18:30:09.166169 13981 layer_factory.hpp:77] Creating layer pool4
I1115 18:30:09.166177 13981 net.cpp:84] Creating Layer pool4
I1115 18:30:09.166179 13981 net.cpp:406] pool4 <- conv4_3_P
I1115 18:30:09.166188 13981 net.cpp:380] pool4 -> pool4
I1115 18:30:09.166271 13981 net.cpp:122] Setting up pool4
I1115 18:30:09.166278 13981 net.cpp:129] Top shape: 1 512 14 14 (100352)
I1115 18:30:09.166280 13981 net.cpp:137] Memory required for data: 125612492
I1115 18:30:09.166285 13981 layer_factory.hpp:77] Creating layer conv5_1_W_prime
I1115 18:30:09.166292 13981 net.cpp:84] Creating Layer conv5_1_W_prime
I1115 18:30:09.166296 13981 net.cpp:406] conv5_1_W_prime <- pool4
I1115 18:30:09.166303 13981 net.cpp:380] conv5_1_W_prime -> conv5_1_W_prime
I1115 18:30:09.173100 13981 net.cpp:122] Setting up conv5_1_W_prime
I1115 18:30:09.173120 13981 net.cpp:129] Top shape: 1 198 14 14 (38808)
I1115 18:30:09.173122 13981 net.cpp:137] Memory required for data: 125767724
I1115 18:30:09.173130 13981 layer_factory.hpp:77] Creating layer conv5_1_P
I1115 18:30:09.173142 13981 net.cpp:84] Creating Layer conv5_1_P
I1115 18:30:09.173146 13981 net.cpp:406] conv5_1_P <- conv5_1_W_prime
I1115 18:30:09.173152 13981 net.cpp:380] conv5_1_P -> conv5_1_P
I1115 18:30:09.177772 13981 net.cpp:122] Setting up conv5_1_P
I1115 18:30:09.177790 13981 net.cpp:129] Top shape: 1 512 14 14 (100352)
I1115 18:30:09.177793 13981 net.cpp:137] Memory required for data: 126169132
I1115 18:30:09.177800 13981 layer_factory.hpp:77] Creating layer relu5_1
I1115 18:30:09.177809 13981 net.cpp:84] Creating Layer relu5_1
I1115 18:30:09.177812 13981 net.cpp:406] relu5_1 <- conv5_1_P
I1115 18:30:09.177817 13981 net.cpp:367] relu5_1 -> conv5_1_P (in-place)
I1115 18:30:09.178081 13981 net.cpp:122] Setting up relu5_1
I1115 18:30:09.178089 13981 net.cpp:129] Top shape: 1 512 14 14 (100352)
I1115 18:30:09.178093 13981 net.cpp:137] Memory required for data: 126570540
I1115 18:30:09.178097 13981 layer_factory.hpp:77] Creating layer conv5_2_W_prime
I1115 18:30:09.178108 13981 net.cpp:84] Creating Layer conv5_2_W_prime
I1115 18:30:09.178113 13981 net.cpp:406] conv5_2_W_prime <- conv5_1_P
I1115 18:30:09.178119 13981 net.cpp:380] conv5_2_W_prime -> conv5_2_W_prime
I1115 18:30:09.185287 13981 net.cpp:122] Setting up conv5_2_W_prime
I1115 18:30:09.185308 13981 net.cpp:129] Top shape: 1 162 14 14 (31752)
I1115 18:30:09.185312 13981 net.cpp:137] Memory required for data: 126697548
I1115 18:30:09.185319 13981 layer_factory.hpp:77] Creating layer conv5_2_P
I1115 18:30:09.185330 13981 net.cpp:84] Creating Layer conv5_2_P
I1115 18:30:09.185334 13981 net.cpp:406] conv5_2_P <- conv5_2_W_prime
I1115 18:30:09.185341 13981 net.cpp:380] conv5_2_P -> conv5_2_P
I1115 18:30:09.188354 13981 net.cpp:122] Setting up conv5_2_P
I1115 18:30:09.188372 13981 net.cpp:129] Top shape: 1 512 14 14 (100352)
I1115 18:30:09.188376 13981 net.cpp:137] Memory required for data: 127098956
I1115 18:30:09.188382 13981 layer_factory.hpp:77] Creating layer relu5_2
I1115 18:30:09.188390 13981 net.cpp:84] Creating Layer relu5_2
I1115 18:30:09.188392 13981 net.cpp:406] relu5_2 <- conv5_2_P
I1115 18:30:09.188400 13981 net.cpp:367] relu5_2 -> conv5_2_P (in-place)
I1115 18:30:09.188632 13981 net.cpp:122] Setting up relu5_2
I1115 18:30:09.188640 13981 net.cpp:129] Top shape: 1 512 14 14 (100352)
I1115 18:30:09.188642 13981 net.cpp:137] Memory required for data: 127500364
I1115 18:30:09.188645 13981 layer_factory.hpp:77] Creating layer conv5_3_W_prime
I1115 18:30:09.188654 13981 net.cpp:84] Creating Layer conv5_3_W_prime
I1115 18:30:09.188657 13981 net.cpp:406] conv5_3_W_prime <- conv5_2_P
I1115 18:30:09.188663 13981 net.cpp:380] conv5_3_W_prime -> conv5_3_W_prime
I1115 18:30:09.195243 13981 net.cpp:122] Setting up conv5_3_W_prime
I1115 18:30:09.195261 13981 net.cpp:129] Top shape: 1 190 14 14 (37240)
I1115 18:30:09.195264 13981 net.cpp:137] Memory required for data: 127649324
I1115 18:30:09.195271 13981 layer_factory.hpp:77] Creating layer conv5_3_P
I1115 18:30:09.195282 13981 net.cpp:84] Creating Layer conv5_3_P
I1115 18:30:09.195286 13981 net.cpp:406] conv5_3_P <- conv5_3_W_prime
I1115 18:30:09.195297 13981 net.cpp:380] conv5_3_P -> conv5_3_P
I1115 18:30:09.198429 13981 net.cpp:122] Setting up conv5_3_P
I1115 18:30:09.198444 13981 net.cpp:129] Top shape: 1 512 14 14 (100352)
I1115 18:30:09.198448 13981 net.cpp:137] Memory required for data: 128050732
I1115 18:30:09.198454 13981 layer_factory.hpp:77] Creating layer relu5_3
I1115 18:30:09.198460 13981 net.cpp:84] Creating Layer relu5_3
I1115 18:30:09.198467 13981 net.cpp:406] relu5_3 <- conv5_3_P
I1115 18:30:09.198472 13981 net.cpp:367] relu5_3 -> conv5_3_P (in-place)
I1115 18:30:09.199614 13981 net.cpp:122] Setting up relu5_3
I1115 18:30:09.199628 13981 net.cpp:129] Top shape: 1 512 14 14 (100352)
I1115 18:30:09.199631 13981 net.cpp:137] Memory required for data: 128452140
I1115 18:30:09.199635 13981 layer_factory.hpp:77] Creating layer conv5_3_P_relu5_3_0_split
I1115 18:30:09.199643 13981 net.cpp:84] Creating Layer conv5_3_P_relu5_3_0_split
I1115 18:30:09.199646 13981 net.cpp:406] conv5_3_P_relu5_3_0_split <- conv5_3_P
I1115 18:30:09.199652 13981 net.cpp:380] conv5_3_P_relu5_3_0_split -> conv5_3_P_relu5_3_0_split_0
I1115 18:30:09.199667 13981 net.cpp:380] conv5_3_P_relu5_3_0_split -> conv5_3_P_relu5_3_0_split_1
I1115 18:30:09.199751 13981 net.cpp:122] Setting up conv5_3_P_relu5_3_0_split
I1115 18:30:09.199759 13981 net.cpp:129] Top shape: 1 512 14 14 (100352)
I1115 18:30:09.199762 13981 net.cpp:129] Top shape: 1 512 14 14 (100352)
I1115 18:30:09.199764 13981 net.cpp:137] Memory required for data: 129254956
I1115 18:30:09.199769 13981 layer_factory.hpp:77] Creating layer rpn_conv/3x3
I1115 18:30:09.199779 13981 net.cpp:84] Creating Layer rpn_conv/3x3
I1115 18:30:09.199781 13981 net.cpp:406] rpn_conv/3x3 <- conv5_3_P_relu5_3_0_split_0
I1115 18:30:09.199790 13981 net.cpp:380] rpn_conv/3x3 -> rpn/output
I1115 18:30:09.233605 13981 net.cpp:122] Setting up rpn_conv/3x3
I1115 18:30:09.233623 13981 net.cpp:129] Top shape: 1 512 14 14 (100352)
I1115 18:30:09.233625 13981 net.cpp:137] Memory required for data: 129656364
I1115 18:30:09.233633 13981 layer_factory.hpp:77] Creating layer rpn_relu/3x3
I1115 18:30:09.233639 13981 net.cpp:84] Creating Layer rpn_relu/3x3
I1115 18:30:09.233642 13981 net.cpp:406] rpn_relu/3x3 <- rpn/output
I1115 18:30:09.233649 13981 net.cpp:367] rpn_relu/3x3 -> rpn/output (in-place)
I1115 18:30:09.233898 13981 net.cpp:122] Setting up rpn_relu/3x3
I1115 18:30:09.233907 13981 net.cpp:129] Top shape: 1 512 14 14 (100352)
I1115 18:30:09.233911 13981 net.cpp:137] Memory required for data: 130057772
I1115 18:30:09.233913 13981 layer_factory.hpp:77] Creating layer rpn/output_rpn_relu/3x3_0_split
I1115 18:30:09.233918 13981 net.cpp:84] Creating Layer rpn/output_rpn_relu/3x3_0_split
I1115 18:30:09.233922 13981 net.cpp:406] rpn/output_rpn_relu/3x3_0_split <- rpn/output
I1115 18:30:09.233928 13981 net.cpp:380] rpn/output_rpn_relu/3x3_0_split -> rpn/output_rpn_relu/3x3_0_split_0
I1115 18:30:09.233935 13981 net.cpp:380] rpn/output_rpn_relu/3x3_0_split -> rpn/output_rpn_relu/3x3_0_split_1
I1115 18:30:09.234015 13981 net.cpp:122] Setting up rpn/output_rpn_relu/3x3_0_split
I1115 18:30:09.234021 13981 net.cpp:129] Top shape: 1 512 14 14 (100352)
I1115 18:30:09.234025 13981 net.cpp:129] Top shape: 1 512 14 14 (100352)
I1115 18:30:09.234027 13981 net.cpp:137] Memory required for data: 130860588
I1115 18:30:09.234030 13981 layer_factory.hpp:77] Creating layer rpn_cls_score
I1115 18:30:09.234043 13981 net.cpp:84] Creating Layer rpn_cls_score
I1115 18:30:09.234046 13981 net.cpp:406] rpn_cls_score <- rpn/output_rpn_relu/3x3_0_split_0
I1115 18:30:09.234052 13981 net.cpp:380] rpn_cls_score -> rpn_cls_score
I1115 18:30:09.237540 13981 net.cpp:122] Setting up rpn_cls_score
I1115 18:30:09.237557 13981 net.cpp:129] Top shape: 1 18 14 14 (3528)
I1115 18:30:09.237561 13981 net.cpp:137] Memory required for data: 130874700
I1115 18:30:09.237568 13981 layer_factory.hpp:77] Creating layer rpn_bbox_pred
I1115 18:30:09.237581 13981 net.cpp:84] Creating Layer rpn_bbox_pred
I1115 18:30:09.237586 13981 net.cpp:406] rpn_bbox_pred <- rpn/output_rpn_relu/3x3_0_split_1
I1115 18:30:09.237593 13981 net.cpp:380] rpn_bbox_pred -> rpn_bbox_pred
I1115 18:30:09.239975 13981 net.cpp:122] Setting up rpn_bbox_pred
I1115 18:30:09.239992 13981 net.cpp:129] Top shape: 1 36 14 14 (7056)
I1115 18:30:09.239996 13981 net.cpp:137] Memory required for data: 130902924
I1115 18:30:09.240002 13981 layer_factory.hpp:77] Creating layer rpn_cls_score_reshape
I1115 18:30:09.240020 13981 net.cpp:84] Creating Layer rpn_cls_score_reshape
I1115 18:30:09.240023 13981 net.cpp:406] rpn_cls_score_reshape <- rpn_cls_score
I1115 18:30:09.240030 13981 net.cpp:380] rpn_cls_score_reshape -> rpn_cls_score_reshape
I1115 18:30:09.240082 13981 net.cpp:122] Setting up rpn_cls_score_reshape
I1115 18:30:09.240088 13981 net.cpp:129] Top shape: 1 2 126 14 (3528)
I1115 18:30:09.240090 13981 net.cpp:137] Memory required for data: 130917036
I1115 18:30:09.240094 13981 layer_factory.hpp:77] Creating layer rpn_cls_prob
I1115 18:30:09.240099 13981 net.cpp:84] Creating Layer rpn_cls_prob
I1115 18:30:09.240103 13981 net.cpp:406] rpn_cls_prob <- rpn_cls_score_reshape
I1115 18:30:09.240109 13981 net.cpp:380] rpn_cls_prob -> rpn_cls_prob
I1115 18:30:09.240463 13981 net.cpp:122] Setting up rpn_cls_prob
I1115 18:30:09.240470 13981 net.cpp:129] Top shape: 1 2 126 14 (3528)
I1115 18:30:09.240473 13981 net.cpp:137] Memory required for data: 130931148
I1115 18:30:09.240476 13981 layer_factory.hpp:77] Creating layer rpn_cls_prob_reshape
I1115 18:30:09.240483 13981 net.cpp:84] Creating Layer rpn_cls_prob_reshape
I1115 18:30:09.240487 13981 net.cpp:406] rpn_cls_prob_reshape <- rpn_cls_prob
I1115 18:30:09.240492 13981 net.cpp:380] rpn_cls_prob_reshape -> rpn_cls_prob_reshape
I1115 18:30:09.240535 13981 net.cpp:122] Setting up rpn_cls_prob_reshape
I1115 18:30:09.240543 13981 net.cpp:129] Top shape: 1 18 14 14 (3528)
I1115 18:30:09.240545 13981 net.cpp:137] Memory required for data: 130945260
I1115 18:30:09.240548 13981 layer_factory.hpp:77] Creating layer proposal
I1115 18:30:09.369403 13981 net.cpp:84] Creating Layer proposal
I1115 18:30:09.369421 13981 net.cpp:406] proposal <- rpn_cls_prob_reshape
I1115 18:30:09.369428 13981 net.cpp:406] proposal <- rpn_bbox_pred
I1115 18:30:09.369433 13981 net.cpp:406] proposal <- im_info
I1115 18:30:09.369441 13981 net.cpp:380] proposal -> rois
I1115 18:30:09.370931 13981 net.cpp:122] Setting up proposal
I1115 18:30:09.370952 13981 net.cpp:129] Top shape: 1 5 (5)
I1115 18:30:09.370955 13981 net.cpp:137] Memory required for data: 130945280
I1115 18:30:09.370960 13981 layer_factory.hpp:77] Creating layer roi_pool5
I1115 18:30:09.370970 13981 net.cpp:84] Creating Layer roi_pool5
I1115 18:30:09.370973 13981 net.cpp:406] roi_pool5 <- conv5_3_P_relu5_3_0_split_1
I1115 18:30:09.370980 13981 net.cpp:406] roi_pool5 <- rois
I1115 18:30:09.370987 13981 net.cpp:380] roi_pool5 -> pool5
I1115 18:30:09.370997 13981 roi_pooling_layer.cpp:30] Spatial scale: 0.0625
I1115 18:30:09.371098 13981 net.cpp:122] Setting up roi_pool5
I1115 18:30:09.371105 13981 net.cpp:129] Top shape: 1 512 7 7 (25088)
I1115 18:30:09.371109 13981 net.cpp:137] Memory required for data: 131045632
I1115 18:30:09.371112 13981 layer_factory.hpp:77] Creating layer fc6
I1115 18:30:09.371120 13981 net.cpp:84] Creating Layer fc6
I1115 18:30:09.371142 13981 net.cpp:406] fc6 <- pool5
I1115 18:30:09.371151 13981 net.cpp:380] fc6 -> fc6
I1115 18:30:09.719920 13981 net.cpp:122] Setting up fc6
I1115 18:30:09.719964 13981 net.cpp:129] Top shape: 1 4096 (4096)
I1115 18:30:09.719969 13981 net.cpp:137] Memory required for data: 131062016
I1115 18:30:09.719980 13981 layer_factory.hpp:77] Creating layer relu6
I1115 18:30:09.719991 13981 net.cpp:84] Creating Layer relu6
I1115 18:30:09.719995 13981 net.cpp:406] relu6 <- fc6
I1115 18:30:09.720001 13981 net.cpp:367] relu6 -> fc6 (in-place)
I1115 18:30:09.721382 13981 net.cpp:122] Setting up relu6
I1115 18:30:09.721393 13981 net.cpp:129] Top shape: 1 4096 (4096)
I1115 18:30:09.721396 13981 net.cpp:137] Memory required for data: 131078400
I1115 18:30:09.721398 13981 layer_factory.hpp:77] Creating layer drop6
I1115 18:30:09.721405 13981 net.cpp:84] Creating Layer drop6
I1115 18:30:09.721408 13981 net.cpp:406] drop6 <- fc6
I1115 18:30:09.721412 13981 net.cpp:367] drop6 -> fc6 (in-place)
I1115 18:30:09.721455 13981 net.cpp:122] Setting up drop6
I1115 18:30:09.721460 13981 net.cpp:129] Top shape: 1 4096 (4096)
I1115 18:30:09.721462 13981 net.cpp:137] Memory required for data: 131094784
I1115 18:30:09.721464 13981 layer_factory.hpp:77] Creating layer fc7
I1115 18:30:09.721470 13981 net.cpp:84] Creating Layer fc7
I1115 18:30:09.721472 13981 net.cpp:406] fc7 <- fc6
I1115 18:30:09.721477 13981 net.cpp:380] fc7 -> fc7
I1115 18:30:09.769166 13981 net.cpp:122] Setting up fc7
I1115 18:30:09.769222 13981 net.cpp:129] Top shape: 1 4096 (4096)
I1115 18:30:09.769225 13981 net.cpp:137] Memory required for data: 131111168
I1115 18:30:09.769235 13981 layer_factory.hpp:77] Creating layer relu7
I1115 18:30:09.769248 13981 net.cpp:84] Creating Layer relu7
I1115 18:30:09.769251 13981 net.cpp:406] relu7 <- fc7
I1115 18:30:09.769273 13981 net.cpp:367] relu7 -> fc7 (in-place)
I1115 18:30:09.769603 13981 net.cpp:122] Setting up relu7
I1115 18:30:09.769610 13981 net.cpp:129] Top shape: 1 4096 (4096)
I1115 18:30:09.769613 13981 net.cpp:137] Memory required for data: 131127552
I1115 18:30:09.769615 13981 layer_factory.hpp:77] Creating layer drop7
I1115 18:30:09.769624 13981 net.cpp:84] Creating Layer drop7
I1115 18:30:09.769626 13981 net.cpp:406] drop7 <- fc7
I1115 18:30:09.769630 13981 net.cpp:367] drop7 -> fc7 (in-place)
I1115 18:30:09.769671 13981 net.cpp:122] Setting up drop7
I1115 18:30:09.769676 13981 net.cpp:129] Top shape: 1 4096 (4096)
I1115 18:30:09.769678 13981 net.cpp:137] Memory required for data: 131143936
I1115 18:30:09.769681 13981 layer_factory.hpp:77] Creating layer fc7_drop7_0_split
I1115 18:30:09.769687 13981 net.cpp:84] Creating Layer fc7_drop7_0_split
I1115 18:30:09.769690 13981 net.cpp:406] fc7_drop7_0_split <- fc7
I1115 18:30:09.769695 13981 net.cpp:380] fc7_drop7_0_split -> fc7_drop7_0_split_0
I1115 18:30:09.769701 13981 net.cpp:380] fc7_drop7_0_split -> fc7_drop7_0_split_1
I1115 18:30:09.769762 13981 net.cpp:122] Setting up fc7_drop7_0_split
I1115 18:30:09.769765 13981 net.cpp:129] Top shape: 1 4096 (4096)
I1115 18:30:09.769768 13981 net.cpp:129] Top shape: 1 4096 (4096)
I1115 18:30:09.769770 13981 net.cpp:137] Memory required for data: 131176704
I1115 18:30:09.769773 13981 layer_factory.hpp:77] Creating layer cls_score
I1115 18:30:09.769780 13981 net.cpp:84] Creating Layer cls_score
I1115 18:30:09.769784 13981 net.cpp:406] cls_score <- fc7_drop7_0_split_0
I1115 18:30:09.769789 13981 net.cpp:380] cls_score -> cls_score
I1115 18:30:09.770810 13981 net.cpp:122] Setting up cls_score
I1115 18:30:09.770817 13981 net.cpp:129] Top shape: 1 21 (21)
I1115 18:30:09.770818 13981 net.cpp:137] Memory required for data: 131176788
I1115 18:30:09.770823 13981 layer_factory.hpp:77] Creating layer bbox_pred
I1115 18:30:09.770833 13981 net.cpp:84] Creating Layer bbox_pred
I1115 18:30:09.770836 13981 net.cpp:406] bbox_pred <- fc7_drop7_0_split_1
I1115 18:30:09.770841 13981 net.cpp:380] bbox_pred -> bbox_pred
I1115 18:30:09.776662 13981 net.cpp:122] Setting up bbox_pred
I1115 18:30:09.776676 13981 net.cpp:129] Top shape: 1 84 (84)
I1115 18:30:09.776679 13981 net.cpp:137] Memory required for data: 131177124
I1115 18:30:09.776696 13981 layer_factory.hpp:77] Creating layer cls_prob
I1115 18:30:09.776715 13981 net.cpp:84] Creating Layer cls_prob
I1115 18:30:09.776718 13981 net.cpp:406] cls_prob <- cls_score
I1115 18:30:09.776723 13981 net.cpp:380] cls_prob -> cls_prob
I1115 18:30:09.777055 13981 net.cpp:122] Setting up cls_prob
I1115 18:30:09.777062 13981 net.cpp:129] Top shape: 1 21 (21)
I1115 18:30:09.777065 13981 net.cpp:137] Memory required for data: 131177208
I1115 18:30:09.777068 13981 net.cpp:200] cls_prob does not need backward computation.
I1115 18:30:09.777071 13981 net.cpp:200] bbox_pred does not need backward computation.
I1115 18:30:09.777073 13981 net.cpp:200] cls_score does not need backward computation.
I1115 18:30:09.777076 13981 net.cpp:200] fc7_drop7_0_split does not need backward computation.
…
