…
snapshot_prefix: "vgg_cnn_m_1024_faster_rcnn"
average_loss: 100
I0822 12:07:20.664096 31492 solver.cpp:81] Creating training net from train_net file: models/pascal_voc/VGG_CNN_M_1024/faster_rcnn_end2end/train.prototxt
I0822 12:07:20.664736 31492 net.cpp:49] Initializing net from parameters: 
name: "VGG_CNN_M_1024"
state {
  phase: TRAIN
}
layer {
  name: "input-data"
  type: "Python"
  top: "data"
  top: "im_info"
  top: "gt_boxes"
  python_param {
    module: "roi_data_layer.layer"
    layer: "RoIDataLayer"
    param_str: "\'num_classes\': 21"
  }
}
layer {
  name: "conv1"
  type: "Convolution"
  bottom: "data"
  top: "conv1"
  param {
    lr_mult: 0
    decay_mult: 0
  }
  param {
    lr_mult: 0
    decay_mult: 0
  }
  convolution_param {
    num_output: 96
    kernel_size: 7
    stride: 2
  }
}
layer {
  name: "relu1"
  type: "ReLU"
  bottom: "conv1"
  top: "conv1"
}
layer {
  name: "norm1"
  type: "LRN"
  bottom: "conv1"
  top: "norm1"
  lrn_param {
    local_size: 5
    alpha: 0.0005
    beta: 0.75
    k: 2
  }
}
layer {
  name: "pool1"
  type: "Pooling"
  bottom: "norm1"
  top: "pool1"
  pooling_param {
    pool: MAX
    kernel_size: 3
    stride: 2
  }
}
layer {
  name: "conv2"
  type: "Convolution"
  bottom: "pool1"
  top: "conv2"
  param {
    lr_mult: 1
  }
  param {
    lr_mult: 2
  }
  convolution_param {
    num_output: 256
    pad: 1
    kernel_size: 5
    stride: 2
  }
}
layer {
  name: "relu2"
  type: "ReLU"
  bottom: "conv2"
  top: "conv2"
}
layer {
  name: "norm2"
  type: "LRN"
  bottom: "conv2"
  top: "norm2"
  lrn_param {
    local_size: 5
    alpha: 0.0005
    beta: 0.75
    k: 2
  }
}
layer {
  name: "pool2"
  type: "Pooling"
  bottom: "norm2"
  top: "pool2"
  pooling_param {
    pool: MAX
    kernel_size: 3
    stride: 2
  }
}
layer {
  name: "conv3"
  type: "Convolution"
  bottom: "pool2"
  top: "conv3"
  param {
    lr_mult: 1
  }
  param {
    lr_mult: 2
  }
  convolution_param {
    num_output: 512
    pad: 1
    kernel_size: 3
  }
}
layer {
  name: "relu3"
  type: "ReLU"
  bottom: "conv3"
  top: "conv3"
}
layer {
  name: "conv4"
  type: "Convolution"
  bottom: "conv3"
  top: "conv4"
  param {
    lr_mult: 1
  }
  param {
    lr_mult: 2
  }
  convolution_param {
    num_output: 512
    pad: 1
    kernel_size: 3
  }
}
layer {
  name: "relu4"
  type: "ReLU"
  bottom: "conv4"
  top: "conv4"
}
layer {
  name: "conv5"
  type: "Convolution"
  bottom: "conv4"
  top: "conv5"
  param {
    lr_mult: 1
  }
  param {
    lr_mult: 2
  }
  convolution_param {
    num_output: 512
    pad: 1
    kernel_size: 3
  }
}
layer {
  name: "relu5"
  type: "ReLU"
  bottom: "conv5"
  top: "conv5"
}
layer {
  name: "rpn_conv/3x3"
  type: "Convolution"
  bottom: "conv5"
  top: "rpn/output"
  param {
    lr_mult: 1
  }
  param {
    lr_mult: 2
  }
  convolution_param {
    num_output: 256
    pad: 1
    kernel_size: 3
    stride: 1
    weight_filler {
      type: "gaussian"
      std: 0.01
    }
    bias_filler {
      type: "constant"
      value: 0
    }
  }
}
layer {
  name: "rpn_relu/3x3"
  type: "ReLU"
  bottom: "rpn/output"
  top: "rpn/output"
}
layer {
  name: "rpn_cls_score"
  type: "Convolution"
  bottom: "rpn/output"
  top: "rpn_cls_score"
  param {
    lr_mult: 1
  }
  param {
    lr_mult: 2
  }
  convolution_param {
    num_output: 18
    pad: 0
    kernel_size: 1
    stride: 1
    weight_filler {
      type: "gaussian"
      std: 0.01
    }
    bias_filler {
      type: "constant"
      value: 0
    }
  }
}
layer {
  name: "rpn_bbox_pred"
  type: "Convolution"
  bottom: "rpn/output"
  top: "rpn_bbox_pred"
  param {
    lr_mult: 1
  }
  param {
    lr_mult: 2
  }
  convolution_param {
    num_output: 36
    pad: 0
    kernel_size: 1
    stride: 1
    weight_filler {
      type: "gaussian"
      std: 0.01
    }
    bias_filler {
      type: "constant"
      value: 0
    }
  }
}
layer {
  name: "rpn_cls_score_reshape"
  type: "Reshape"
  bottom: "rpn_cls_score"
  top: "rpn_cls_score_reshape"
  reshape_param {
    shape {
      dim: 0
      dim: 2
      dim: -1
      dim: 0
    }
  }
}
layer {
  name: "rpn-data"
  type: "Python"
  bottom: "rpn_cls_score"
  bottom: "gt_boxes"
  bottom: "im_info"
  bottom: "data"
  top: "rpn_labels"
  top: "rpn_bbox_targets"
  top: "rpn_bbox_inside_weights"
  top: "rpn_bbox_outside_weights"
  python_param {
    module: "rpn.anchor_target_layer"
    layer: "AnchorTargetLayer"
    param_str: "\'feat_stride\': 16"
  }
}
layer {
  name: "rpn_loss_cls"
  type: "SoftmaxWithLoss"
  bottom: "rpn_cls_score_reshape"
  bottom: "rpn_labels"
  top: "rpn_cls_loss"
  loss_weight: 1
  propagate_down: true
  propagate_down: false
  loss_param {
    ignore_label: -1
    normalize: true
  }
}
layer {
  name: "rpn_loss_bbox"
  type: "SmoothL1Loss"
  bottom: "rpn_bbox_pred"
  bottom: "rpn_bbox_targets"
  bottom: "rpn_bbox_inside_weights"
  bottom: "rpn_bbox_outside_weights"
  top: "rpn_loss_bbox"
  loss_weight: 1
  smooth_l1_loss_param {
    sigma: 3
  }
}
layer {
  name: "rpn_cls_prob"
  type: "Softmax"
  bottom: "rpn_cls_score_reshape"
  top: "rpn_cls_prob"
}
layer {
  name: "rpn_cls_prob_reshape"
  type: "Reshape"
  bottom: "rpn_cls_prob"
  top: "rpn_cls_prob_reshape"
  reshape_param {
    shape {
      dim: 0
      dim: 18
      dim: -1
      dim: 0
    }
  }
}
layer {
  name: "proposal"
  type: "Python"
  bottom: "rpn_cls_prob_reshape"
  bottom: "rpn_bbox_pred"
  bottom: "im_info"
  top: "rpn_rois"
  python_param {
    module: "rpn.proposal_layer"
    layer: "ProposalLayer"
    param_str: "\'feat_stride\': 16"
  }
}
layer {
  name: "roi-data"
  type: "Python"
  bottom: "rpn_rois"
  bottom: "gt_boxes"
  top: "rois"
  top: "labels"
  top: "bbox_targets"
  top: "bbox_inside_weights"
  top: "bbox_outside_weights"
  python_param {
    module: "rpn.proposal_target_layer"
    layer: "ProposalTargetLayer"
    param_str: "\'num_classes\': 21"
  }
}
layer {
  name: "roi_pool5"
  type: "ROIPooling"
  bottom: "conv5"
  bottom: "rois"
  top: "pool5"
  roi_pooling_param {
    pooled_h: 6
    pooled_w: 6
    spatial_scale: 0.0625
  }
}
layer {
  name: "fc6"
  type: "InnerProduct"
  bottom: "pool5"
  top: "fc6"
  param {
    lr_mult: 1
  }
  param {
    lr_mult: 2
  }
  inner_product_param {
    num_output: 4096
  }
}
layer {
  name: "relu6"
  type: "ReLU"
  bottom: "fc6"
  top: "fc6"
}
layer {
  name: "drop6"
  type: "Dropout"
  bottom: "fc6"
  top: "fc6"
  dropout_param {
    dropout_ratio: 0.5
  }
}
layer {
  name: "fc7"
  type: "InnerProduct"
  bottom: "fc6"
  top: "fc7"
  param {
    lr_mult: 1
  }
  param {
    lr_mult: 2
  }
  inner_product_param {
    num_output: 1024
  }
}
layer {
  name: "relu7"
  type: "ReLU"
  bottom: "fc7"
  top: "fc7"
}
layer {
  name: "drop7"
  type: "Dropout"
  bottom: "fc7"
  top: "fc7"
  dropout_param {
    dropout_ratio: 0.5
  }
}
layer {
  name: "cls_score"
  type: "InnerProduct"
  bottom: "fc7"
  top: "cls_score"
  param {
    lr_mult: 1
  }
  param {
    lr_mult: 2
  }
  inner_product_param {
    num_output: 21
    weight_filler {
      type: "gaussian"
      std: 0.01
    }
    bias_filler {
      type: "constant"
      value: 0
    }
  }
}
layer {
  name: "bbox_pred"
  type: "InnerProduct"
  bottom: "fc7"
  top: "bbox_pred"
  param {
    lr_mult: 1
  }
  param {
    lr_mult: 2
  }
  inner_product_param {
    num_output: 84
    weight_filler {
      type: "gaussian"
      std: 0.001
    }
    bias_filler {
      type: "constant"
      value: 0
    }
  }
}
layer {
  name: "loss_cls"
  type: "SoftmaxWithLoss"
  bottom: "cls_score"
  bottom: "labels"
  top: "loss_cls"
  loss_weight: 1
  propagate_down: true
  propagate_down: false
}
layer {
  name: "loss_bbox"
  type: "SmoothL1Loss"
  bottom: "bbox_pred"
  bottom: "bbox_targets"
  bottom: "bbox_inside_weights"
  bottom: "bbox_outside_weights"
  top: "loss_bbox"
  loss_weight: 1
}
I0822 12:07:20.665004 31492 layer_factory.hpp:77] Creating layer input-data
I0822 12:07:20.680378 31492 net.cpp:106] Creating Layer input-data
I0822 12:07:20.680409 31492 net.cpp:411] input-data -> data
I0822 12:07:20.680426 31492 net.cpp:411] input-data -> im_info
I0822 12:07:20.680435 31492 net.cpp:411] input-data -> gt_boxes
RoiDataLayer: name_to_top: {'gt_boxes': 2, 'data': 0, 'im_info': 1}
I0822 12:07:20.736059 31492 net.cpp:150] Setting up input-data
I0822 12:07:20.736084 31492 net.cpp:157] Top shape: 1 3 600 1000 (1800000)
I0822 12:07:20.736091 31492 net.cpp:157] Top shape: 1 3 (3)
I0822 12:07:20.736094 31492 net.cpp:157] Top shape: 1 4 (4)
I0822 12:07:20.736098 31492 net.cpp:165] Memory required for data: 7200028
I0822 12:07:20.736105 31492 layer_factory.hpp:77] Creating layer data_input-data_0_split
I0822 12:07:20.736122 31492 net.cpp:106] Creating Layer data_input-data_0_split
I0822 12:07:20.736129 31492 net.cpp:454] data_input-data_0_split <- data
I0822 12:07:20.736140 31492 net.cpp:411] data_input-data_0_split -> data_input-data_0_split_0
I0822 12:07:20.736152 31492 net.cpp:411] data_input-data_0_split -> data_input-data_0_split_1
I0822 12:07:20.736214 31492 net.cpp:150] Setting up data_input-data_0_split
I0822 12:07:20.736223 31492 net.cpp:157] Top shape: 1 3 600 1000 (1800000)
I0822 12:07:20.736229 31492 net.cpp:157] Top shape: 1 3 600 1000 (1800000)
I0822 12:07:20.736232 31492 net.cpp:165] Memory required for data: 21600028
I0822 12:07:20.736235 31492 layer_factory.hpp:77] Creating layer im_info_input-data_1_split
I0822 12:07:20.736243 31492 net.cpp:106] Creating Layer im_info_input-data_1_split
I0822 12:07:20.736248 31492 net.cpp:454] im_info_input-data_1_split <- im_info
I0822 12:07:20.736255 31492 net.cpp:411] im_info_input-data_1_split -> im_info_input-data_1_split_0
I0822 12:07:20.736264 31492 net.cpp:411] im_info_input-data_1_split -> im_info_input-data_1_split_1
I0822 12:07:20.736317 31492 net.cpp:150] Setting up im_info_input-data_1_split
I0822 12:07:20.736325 31492 net.cpp:157] Top shape: 1 3 (3)
I0822 12:07:20.736330 31492 net.cpp:157] Top shape: 1 3 (3)
I0822 12:07:20.736331 31492 net.cpp:165] Memory required for data: 21600052
I0822 12:07:20.736335 31492 layer_factory.hpp:77] Creating layer gt_boxes_input-data_2_split
I0822 12:07:20.736340 31492 net.cpp:106] Creating Layer gt_boxes_input-data_2_split
I0822 12:07:20.736346 31492 net.cpp:454] gt_boxes_input-data_2_split <- gt_boxes
I0822 12:07:20.736351 31492 net.cpp:411] gt_boxes_input-data_2_split -> gt_boxes_input-data_2_split_0
I0822 12:07:20.736361 31492 net.cpp:411] gt_boxes_input-data_2_split -> gt_boxes_input-data_2_split_1
I0822 12:07:20.736412 31492 net.cpp:150] Setting up gt_boxes_input-data_2_split
I0822 12:07:20.736419 31492 net.cpp:157] Top shape: 1 4 (4)
I0822 12:07:20.736423 31492 net.cpp:157] Top shape: 1 4 (4)
I0822 12:07:20.736428 31492 net.cpp:165] Memory required for data: 21600084
I0822 12:07:20.736430 31492 layer_factory.hpp:77] Creating layer conv1
I0822 12:07:20.736445 31492 net.cpp:106] Creating Layer conv1
I0822 12:07:20.736451 31492 net.cpp:454] conv1 <- data_input-data_0_split_0
I0822 12:07:20.736457 31492 net.cpp:411] conv1 -> conv1
I0822 12:07:21.138056 31492 net.cpp:150] Setting up conv1
I0822 12:07:21.138092 31492 net.cpp:157] Top shape: 1 96 297 497 (14170464)
I0822 12:07:21.138097 31492 net.cpp:165] Memory required for data: 78281940
I0822 12:07:21.138116 31492 layer_factory.hpp:77] Creating layer relu1
I0822 12:07:21.138130 31492 net.cpp:106] Creating Layer relu1
I0822 12:07:21.138134 31492 net.cpp:454] relu1 <- conv1
I0822 12:07:21.138142 31492 net.cpp:397] relu1 -> conv1 (in-place)
I0822 12:07:21.138872 31492 net.cpp:150] Setting up relu1
I0822 12:07:21.138890 31492 net.cpp:157] Top shape: 1 96 297 497 (14170464)
I0822 12:07:21.138893 31492 net.cpp:165] Memory required for data: 134963796
I0822 12:07:21.138898 31492 layer_factory.hpp:77] Creating layer norm1
I0822 12:07:21.138921 31492 net.cpp:106] Creating Layer norm1
I0822 12:07:21.138926 31492 net.cpp:454] norm1 <- conv1
I0822 12:07:21.138932 31492 net.cpp:411] norm1 -> norm1
I0822 12:07:21.141526 31492 net.cpp:150] Setting up norm1
I0822 12:07:21.141538 31492 net.cpp:157] Top shape: 1 96 297 497 (14170464)
I0822 12:07:21.141541 31492 net.cpp:165] Memory required for data: 191645652
I0822 12:07:21.141544 31492 layer_factory.hpp:77] Creating layer pool1
I0822 12:07:21.141552 31492 net.cpp:106] Creating Layer pool1
I0822 12:07:21.141556 31492 net.cpp:454] pool1 <- norm1
I0822 12:07:21.141561 31492 net.cpp:411] pool1 -> pool1
I0822 12:07:21.141624 31492 net.cpp:150] Setting up pool1
I0822 12:07:21.141633 31492 net.cpp:157] Top shape: 1 96 148 248 (3523584)
I0822 12:07:21.141638 31492 net.cpp:165] Memory required for data: 205739988
I0822 12:07:21.141640 31492 layer_factory.hpp:77] Creating layer conv2
I0822 12:07:21.141654 31492 net.cpp:106] Creating Layer conv2
I0822 12:07:21.141659 31492 net.cpp:454] conv2 <- pool1
I0822 12:07:21.141665 31492 net.cpp:411] conv2 -> conv2
I0822 12:07:21.148828 31492 net.cpp:150] Setting up conv2
I0822 12:07:21.148844 31492 net.cpp:157] Top shape: 1 256 73 123 (2298624)
I0822 12:07:21.148849 31492 net.cpp:165] Memory required for data: 214934484
I0822 12:07:21.148859 31492 layer_factory.hpp:77] Creating layer relu2
I0822 12:07:21.148866 31492 net.cpp:106] Creating Layer relu2
I0822 12:07:21.148871 31492 net.cpp:454] relu2 <- conv2
I0822 12:07:21.148877 31492 net.cpp:397] relu2 -> conv2 (in-place)
I0822 12:07:21.149464 31492 net.cpp:150] Setting up relu2
I0822 12:07:21.149478 31492 net.cpp:157] Top shape: 1 256 73 123 (2298624)
I0822 12:07:21.149482 31492 net.cpp:165] Memory required for data: 224128980
I0822 12:07:21.149487 31492 layer_factory.hpp:77] Creating layer norm2
I0822 12:07:21.149494 31492 net.cpp:106] Creating Layer norm2
I0822 12:07:21.149497 31492 net.cpp:454] norm2 <- conv2
I0822 12:07:21.149503 31492 net.cpp:411] norm2 -> norm2
I0822 12:07:21.150671 31492 net.cpp:150] Setting up norm2
I0822 12:07:21.150683 31492 net.cpp:157] Top shape: 1 256 73 123 (2298624)
I0822 12:07:21.150686 31492 net.cpp:165] Memory required for data: 233323476
I0822 12:07:21.150689 31492 layer_factory.hpp:77] Creating layer pool2
I0822 12:07:21.150696 31492 net.cpp:106] Creating Layer pool2
I0822 12:07:21.150699 31492 net.cpp:454] pool2 <- norm2
I0822 12:07:21.150704 31492 net.cpp:411] pool2 -> pool2
I0822 12:07:21.150764 31492 net.cpp:150] Setting up pool2
I0822 12:07:21.150774 31492 net.cpp:157] Top shape: 1 256 36 61 (562176)
I0822 12:07:21.150779 31492 net.cpp:165] Memory required for data: 235572180
I0822 12:07:21.150781 31492 layer_factory.hpp:77] Creating layer conv3
I0822 12:07:21.150789 31492 net.cpp:106] Creating Layer conv3
I0822 12:07:21.150794 31492 net.cpp:454] conv3 <- pool2
I0822 12:07:21.150799 31492 net.cpp:411] conv3 -> conv3
I0822 12:07:21.165793 31492 net.cpp:150] Setting up conv3
I0822 12:07:21.165810 31492 net.cpp:157] Top shape: 1 512 36 61 (1124352)
I0822 12:07:21.165814 31492 net.cpp:165] Memory required for data: 240069588
I0822 12:07:21.165827 31492 layer_factory.hpp:77] Creating layer relu3
I0822 12:07:21.165833 31492 net.cpp:106] Creating Layer relu3
I0822 12:07:21.165838 31492 net.cpp:454] relu3 <- conv3
I0822 12:07:21.165844 31492 net.cpp:397] relu3 -> conv3 (in-place)
I0822 12:07:21.166056 31492 net.cpp:150] Setting up relu3
I0822 12:07:21.166069 31492 net.cpp:157] Top shape: 1 512 36 61 (1124352)
I0822 12:07:21.166072 31492 net.cpp:165] Memory required for data: 244566996
I0822 12:07:21.166076 31492 layer_factory.hpp:77] Creating layer conv4
I0822 12:07:21.166086 31492 net.cpp:106] Creating Layer conv4
I0822 12:07:21.166090 31492 net.cpp:454] conv4 <- conv3
I0822 12:07:21.166096 31492 net.cpp:411] conv4 -> conv4
I0822 12:07:21.184358 31492 net.cpp:150] Setting up conv4
I0822 12:07:21.184378 31492 net.cpp:157] Top shape: 1 512 36 61 (1124352)
I0822 12:07:21.184382 31492 net.cpp:165] Memory required for data: 249064404
I0822 12:07:21.184391 31492 layer_factory.hpp:77] Creating layer relu4
I0822 12:07:21.184398 31492 net.cpp:106] Creating Layer relu4
I0822 12:07:21.184401 31492 net.cpp:454] relu4 <- conv4
I0822 12:07:21.184408 31492 net.cpp:397] relu4 -> conv4 (in-place)
I0822 12:07:21.185353 31492 net.cpp:150] Setting up relu4
I0822 12:07:21.185367 31492 net.cpp:157] Top shape: 1 512 36 61 (1124352)
I0822 12:07:21.185371 31492 net.cpp:165] Memory required for data: 253561812
I0822 12:07:21.185375 31492 layer_factory.hpp:77] Creating layer conv5
I0822 12:07:21.185389 31492 net.cpp:106] Creating Layer conv5
I0822 12:07:21.185394 31492 net.cpp:454] conv5 <- conv4
I0822 12:07:21.185401 31492 net.cpp:411] conv5 -> conv5
I0822 12:07:21.203791 31492 net.cpp:150] Setting up conv5
I0822 12:07:21.203812 31492 net.cpp:157] Top shape: 1 512 36 61 (1124352)
I0822 12:07:21.203816 31492 net.cpp:165] Memory required for data: 258059220
I0822 12:07:21.203830 31492 layer_factory.hpp:77] Creating layer relu5
I0822 12:07:21.203837 31492 net.cpp:106] Creating Layer relu5
I0822 12:07:21.203841 31492 net.cpp:454] relu5 <- conv5
I0822 12:07:21.203850 31492 net.cpp:397] relu5 -> conv5 (in-place)
I0822 12:07:21.204761 31492 net.cpp:150] Setting up relu5
I0822 12:07:21.204773 31492 net.cpp:157] Top shape: 1 512 36 61 (1124352)
I0822 12:07:21.204777 31492 net.cpp:165] Memory required for data: 262556628
I0822 12:07:21.204779 31492 layer_factory.hpp:77] Creating layer conv5_relu5_0_split
I0822 12:07:21.204788 31492 net.cpp:106] Creating Layer conv5_relu5_0_split
I0822 12:07:21.204792 31492 net.cpp:454] conv5_relu5_0_split <- conv5
I0822 12:07:21.204798 31492 net.cpp:411] conv5_relu5_0_split -> conv5_relu5_0_split_0
I0822 12:07:21.204808 31492 net.cpp:411] conv5_relu5_0_split -> conv5_relu5_0_split_1
I0822 12:07:21.204886 31492 net.cpp:150] Setting up conv5_relu5_0_split
I0822 12:07:21.204897 31492 net.cpp:157] Top shape: 1 512 36 61 (1124352)
I0822 12:07:21.204901 31492 net.cpp:157] Top shape: 1 512 36 61 (1124352)
I0822 12:07:21.204905 31492 net.cpp:165] Memory required for data: 271551444
I0822 12:07:21.204908 31492 layer_factory.hpp:77] Creating layer rpn_conv/3x3
I0822 12:07:21.204922 31492 net.cpp:106] Creating Layer rpn_conv/3x3
I0822 12:07:21.204928 31492 net.cpp:454] rpn_conv/3x3 <- conv5_relu5_0_split_0
I0822 12:07:21.204938 31492 net.cpp:411] rpn_conv/3x3 -> rpn/output
I0822 12:07:21.230484 31492 net.cpp:150] Setting up rpn_conv/3x3
I0822 12:07:21.230504 31492 net.cpp:157] Top shape: 1 256 36 61 (562176)
I0822 12:07:21.230506 31492 net.cpp:165] Memory required for data: 273800148
I0822 12:07:21.230515 31492 layer_factory.hpp:77] Creating layer rpn_relu/3x3
I0822 12:07:21.230525 31492 net.cpp:106] Creating Layer rpn_relu/3x3
I0822 12:07:21.230528 31492 net.cpp:454] rpn_relu/3x3 <- rpn/output
I0822 12:07:21.230535 31492 net.cpp:397] rpn_relu/3x3 -> rpn/output (in-place)
I0822 12:07:21.232980 31492 net.cpp:150] Setting up rpn_relu/3x3
I0822 12:07:21.233000 31492 net.cpp:157] Top shape: 1 256 36 61 (562176)
I0822 12:07:21.233003 31492 net.cpp:165] Memory required for data: 276048852
I0822 12:07:21.233007 31492 layer_factory.hpp:77] Creating layer rpn/output_rpn_relu/3x3_0_split
I0822 12:07:21.233016 31492 net.cpp:106] Creating Layer rpn/output_rpn_relu/3x3_0_split
I0822 12:07:21.233019 31492 net.cpp:454] rpn/output_rpn_relu/3x3_0_split <- rpn/output
I0822 12:07:21.233026 31492 net.cpp:411] rpn/output_rpn_relu/3x3_0_split -> rpn/output_rpn_relu/3x3_0_split_0
I0822 12:07:21.233036 31492 net.cpp:411] rpn/output_rpn_relu/3x3_0_split -> rpn/output_rpn_relu/3x3_0_split_1
I0822 12:07:21.233125 31492 net.cpp:150] Setting up rpn/output_rpn_relu/3x3_0_split
I0822 12:07:21.233136 31492 net.cpp:157] Top shape: 1 256 36 61 (562176)
I0822 12:07:21.233141 31492 net.cpp:157] Top shape: 1 256 36 61 (562176)
I0822 12:07:21.233144 31492 net.cpp:165] Memory required for data: 280546260
I0822 12:07:21.233147 31492 layer_factory.hpp:77] Creating layer rpn_cls_score
I0822 12:07:21.233161 31492 net.cpp:106] Creating Layer rpn_cls_score
I0822 12:07:21.233176 31492 net.cpp:454] rpn_cls_score <- rpn/output_rpn_relu/3x3_0_split_0
I0822 12:07:21.233184 31492 net.cpp:411] rpn_cls_score -> rpn_cls_score
I0822 12:07:21.237057 31492 net.cpp:150] Setting up rpn_cls_score
I0822 12:07:21.237103 31492 net.cpp:157] Top shape: 1 18 36 61 (39528)
I0822 12:07:21.237112 31492 net.cpp:165] Memory required for data: 280704372
I0822 12:07:21.237129 31492 layer_factory.hpp:77] Creating layer rpn_cls_score_rpn_cls_score_0_split
I0822 12:07:21.237149 31492 net.cpp:106] Creating Layer rpn_cls_score_rpn_cls_score_0_split
I0822 12:07:21.237164 31492 net.cpp:454] rpn_cls_score_rpn_cls_score_0_split <- rpn_cls_score
I0822 12:07:21.237180 31492 net.cpp:411] rpn_cls_score_rpn_cls_score_0_split -> rpn_cls_score_rpn_cls_score_0_split_0
I0822 12:07:21.237202 31492 net.cpp:411] rpn_cls_score_rpn_cls_score_0_split -> rpn_cls_score_rpn_cls_score_0_split_1
I0822 12:07:21.237344 31492 net.cpp:150] Setting up rpn_cls_score_rpn_cls_score_0_split
I0822 12:07:21.237360 31492 net.cpp:157] Top shape: 1 18 36 61 (39528)
I0822 12:07:21.237370 31492 net.cpp:157] Top shape: 1 18 36 61 (39528)
I0822 12:07:21.237376 31492 net.cpp:165] Memory required for data: 281020596
I0822 12:07:21.237382 31492 layer_factory.hpp:77] Creating layer rpn_bbox_pred
I0822 12:07:21.237408 31492 net.cpp:106] Creating Layer rpn_bbox_pred
I0822 12:07:21.237418 31492 net.cpp:454] rpn_bbox_pred <- rpn/output_rpn_relu/3x3_0_split_1
I0822 12:07:21.237437 31492 net.cpp:411] rpn_bbox_pred -> rpn_bbox_pred
I0822 12:07:21.242986 31492 net.cpp:150] Setting up rpn_bbox_pred
I0822 12:07:21.243016 31492 net.cpp:157] Top shape: 1 36 36 61 (79056)
I0822 12:07:21.243023 31492 net.cpp:165] Memory required for data: 281336820
I0822 12:07:21.243037 31492 layer_factory.hpp:77] Creating layer rpn_bbox_pred_rpn_bbox_pred_0_split
I0822 12:07:21.243059 31492 net.cpp:106] Creating Layer rpn_bbox_pred_rpn_bbox_pred_0_split
I0822 12:07:21.243069 31492 net.cpp:454] rpn_bbox_pred_rpn_bbox_pred_0_split <- rpn_bbox_pred
I0822 12:07:21.243082 31492 net.cpp:411] rpn_bbox_pred_rpn_bbox_pred_0_split -> rpn_bbox_pred_rpn_bbox_pred_0_split_0
I0822 12:07:21.243104 31492 net.cpp:411] rpn_bbox_pred_rpn_bbox_pred_0_split -> rpn_bbox_pred_rpn_bbox_pred_0_split_1
I0822 12:07:21.243245 31492 net.cpp:150] Setting up rpn_bbox_pred_rpn_bbox_pred_0_split
I0822 12:07:21.243262 31492 net.cpp:157] Top shape: 1 36 36 61 (79056)
I0822 12:07:21.243273 31492 net.cpp:157] Top shape: 1 36 36 61 (79056)
I0822 12:07:21.243278 31492 net.cpp:165] Memory required for data: 281969268
I0822 12:07:21.243283 31492 layer_factory.hpp:77] Creating layer rpn_cls_score_reshape
I0822 12:07:21.243304 31492 net.cpp:106] Creating Layer rpn_cls_score_reshape
I0822 12:07:21.243314 31492 net.cpp:454] rpn_cls_score_reshape <- rpn_cls_score_rpn_cls_score_0_split_0
I0822 12:07:21.243330 31492 net.cpp:411] rpn_cls_score_reshape -> rpn_cls_score_reshape
I0822 12:07:21.243414 31492 net.cpp:150] Setting up rpn_cls_score_reshape
I0822 12:07:21.243429 31492 net.cpp:157] Top shape: 1 2 324 61 (39528)
I0822 12:07:21.243438 31492 net.cpp:165] Memory required for data: 282127380
I0822 12:07:21.243443 31492 layer_factory.hpp:77] Creating layer rpn_cls_score_reshape_rpn_cls_score_reshape_0_split
I0822 12:07:21.243454 31492 net.cpp:106] Creating Layer rpn_cls_score_reshape_rpn_cls_score_reshape_0_split
I0822 12:07:21.243463 31492 net.cpp:454] rpn_cls_score_reshape_rpn_cls_score_reshape_0_split <- rpn_cls_score_reshape
I0822 12:07:21.243477 31492 net.cpp:411] rpn_cls_score_reshape_rpn_cls_score_reshape_0_split -> rpn_cls_score_reshape_rpn_cls_score_reshape_0_split_0
I0822 12:07:21.243495 31492 net.cpp:411] rpn_cls_score_reshape_rpn_cls_score_reshape_0_split -> rpn_cls_score_reshape_rpn_cls_score_reshape_0_split_1
I0822 12:07:21.243613 31492 net.cpp:150] Setting up rpn_cls_score_reshape_rpn_cls_score_reshape_0_split
I0822 12:07:21.243626 31492 net.cpp:157] Top shape: 1 2 324 61 (39528)
I0822 12:07:21.243638 31492 net.cpp:157] Top shape: 1 2 324 61 (39528)
I0822 12:07:21.243646 31492 net.cpp:165] Memory required for data: 282443604
I0822 12:07:21.243652 31492 layer_factory.hpp:77] Creating layer rpn-data
I0822 12:07:21.244596 31492 net.cpp:106] Creating Layer rpn-data
I0822 12:07:21.244621 31492 net.cpp:454] rpn-data <- rpn_cls_score_rpn_cls_score_0_split_1
I0822 12:07:21.244633 31492 net.cpp:454] rpn-data <- gt_boxes_input-data_2_split_0
I0822 12:07:21.244644 31492 net.cpp:454] rpn-data <- im_info_input-data_1_split_0
I0822 12:07:21.244655 31492 net.cpp:454] rpn-data <- data_input-data_0_split_1
I0822 12:07:21.244671 31492 net.cpp:411] rpn-data -> rpn_labels
I0822 12:07:21.244709 31492 net.cpp:411] rpn-data -> rpn_bbox_targets
I0822 12:07:21.244730 31492 net.cpp:411] rpn-data -> rpn_bbox_inside_weights
I0822 12:07:21.244750 31492 net.cpp:411] rpn-data -> rpn_bbox_outside_weights
I0822 12:07:21.249182 31492 net.cpp:150] Setting up rpn-data
I0822 12:07:21.249215 31492 net.cpp:157] Top shape: 1 1 324 61 (19764)
I0822 12:07:21.249227 31492 net.cpp:157] Top shape: 1 36 36 61 (79056)
I0822 12:07:21.249233 31492 net.cpp:157] Top shape: 1 36 36 61 (79056)
I0822 12:07:21.249240 31492 net.cpp:157] Top shape: 1 36 36 61 (79056)
I0822 12:07:21.249249 31492 net.cpp:165] Memory required for data: 283471332
I0822 12:07:21.249255 31492 layer_factory.hpp:77] Creating layer rpn_loss_cls
I0822 12:07:21.249271 31492 net.cpp:106] Creating Layer rpn_loss_cls
I0822 12:07:21.249281 31492 net.cpp:454] rpn_loss_cls <- rpn_cls_score_reshape_rpn_cls_score_reshape_0_split_0
I0822 12:07:21.249290 31492 net.cpp:454] rpn_loss_cls <- rpn_labels
…
I0822 12:07:21.252137 31492 net.cpp:157] Top shape: (1)
I0822 12:07:21.252146 31492 net.cpp:160]     with loss weight 1
I0822 12:07:21.252156 31492 net.cpp:165] Memory required for data: 283471340
I0822 12:07:21.252163 31492 layer_factory.hpp:77] Creating layer rpn_cls_prob
I0822 12:07:21.252177 31492 net.cpp:106] Creating Layer rpn_cls_prob
I0822 12:07:21.252185 31492 net.cpp:454] rpn_cls_prob <- rpn_cls_score_reshape_rpn_cls_score_reshape_0_split_1
I0822 12:07:21.252197 31492 net.cpp:411] rpn_cls_prob -> rpn_cls_prob
I0822 12:07:21.252782 31492 net.cpp:150] Setting up rpn_cls_prob
I0822 12:07:21.252802 31492 net.cpp:157] Top shape: 1 2 324 61 (39528)
I0822 12:07:21.252810 31492 net.cpp:165] Memory required for data: 283629452
I0822 12:07:21.252817 31492 layer_factory.hpp:77] Creating layer rpn_cls_prob_reshape
I0822 12:07:21.252848 31492 net.cpp:106] Creating Layer rpn_cls_prob_reshape
I0822 12:07:21.252858 31492 net.cpp:454] rpn_cls_prob_reshape <- rpn_cls_prob
I0822 12:07:21.252871 31492 net.cpp:411] rpn_cls_prob_reshape -> rpn_cls_prob_reshape
I0822 12:07:21.252953 31492 net.cpp:150] Setting up rpn_cls_prob_reshape
I0822 12:07:21.252967 31492 net.cpp:157] Top shape: 1 18 36 61 (39528)
I0822 12:07:21.252972 31492 net.cpp:165] Memory required for data: 283787564
I0822 12:07:21.252979 31492 layer_factory.hpp:77] Creating layer proposal
I0822 12:07:21.269747 31492 net.cpp:106] Creating Layer proposal
I0822 12:07:21.269773 31492 net.cpp:454] proposal <- rpn_cls_prob_reshape
I0822 12:07:21.269785 31492 net.cpp:454] proposal <- rpn_bbox_pred_rpn_bbox_pred_0_split_1
I0822 12:07:21.269793 31492 net.cpp:454] proposal <- im_info_input-data_1_split_1
I0822 12:07:21.269805 31492 net.cpp:411] proposal -> rpn_rois
I0822 12:07:21.278627 31492 net.cpp:150] Setting up proposal
I0822 12:07:21.278647 31492 net.cpp:157] Top shape: 1 5 (5)
I0822 12:07:21.278650 31492 net.cpp:165] Memory required for data: 283787584
I0822 12:07:21.278656 31492 layer_factory.hpp:77] Creating layer roi-data
I0822 12:07:21.278903 31492 net.cpp:106] Creating Layer roi-data
I0822 12:07:21.278934 31492 net.cpp:454] roi-data <- rpn_rois
I0822 12:07:21.278942 31492 net.cpp:454] roi-data <- gt_boxes_input-data_2_split_1
I0822 12:07:21.278950 31492 net.cpp:411] roi-data -> rois
I0822 12:07:21.278962 31492 net.cpp:411] roi-data -> labels
I0822 12:07:21.278972 31492 net.cpp:411] roi-data -> bbox_targets
I0822 12:07:21.278980 31492 net.cpp:411] roi-data -> bbox_inside_weights
I0822 12:07:21.278990 31492 net.cpp:411] roi-data -> bbox_outside_weights
I0822 12:07:21.280025 31492 net.cpp:150] Setting up roi-data
I0822 12:07:21.280050 31492 net.cpp:157] Top shape: 1 5 (5)
I0822 12:07:21.280059 31492 net.cpp:157] Top shape: 1 1 (1)
I0822 12:07:21.280066 31492 net.cpp:157] Top shape: 1 84 (84)
I0822 12:07:21.280072 31492 net.cpp:157] Top shape: 1 84 (84)
I0822 12:07:21.280078 31492 net.cpp:157] Top shape: 1 84 (84)
I0822 12:07:21.280083 31492 net.cpp:165] Memory required for data: 283788616
I0822 12:07:21.280091 31492 layer_factory.hpp:77] Creating layer roi_pool5
I0822 12:07:21.280104 31492 net.cpp:106] Creating Layer roi_pool5
I0822 12:07:21.280113 31492 net.cpp:454] roi_pool5 <- conv5_relu5_0_split_1
I0822 12:07:21.280124 31492 net.cpp:454] roi_pool5 <- rois
I0822 12:07:21.280138 31492 net.cpp:411] roi_pool5 -> pool5
I0822 12:07:21.280156 31492 roi_pooling_layer.cpp:30] Spatial scale: 0.0625
I0822 12:07:21.280287 31492 net.cpp:150] Setting up roi_pool5
I0822 12:07:21.280303 31492 net.cpp:157] Top shape: 1 512 6 6 (18432)
I0822 12:07:21.280308 31492 net.cpp:165] Memory required for data: 283862344
I0822 12:07:21.280314 31492 layer_factory.hpp:77] Creating layer fc6
I0822 12:07:21.280328 31492 net.cpp:106] Creating Layer fc6
I0822 12:07:21.280336 31492 net.cpp:454] fc6 <- pool5
I0822 12:07:21.280347 31492 net.cpp:411] fc6 -> fc6
I0822 12:07:21.809291 31492 net.cpp:150] Setting up fc6
I0822 12:07:21.809340 31492 net.cpp:157] Top shape: 1 4096 (4096)
I0822 12:07:21.809342 31492 net.cpp:165] Memory required for data: 283878728
I0822 12:07:21.809365 31492 layer_factory.hpp:77] Creating layer relu6
I0822 12:07:21.809392 31492 net.cpp:106] Creating Layer relu6
I0822 12:07:21.809398 31492 net.cpp:454] relu6 <- fc6
I0822 12:07:21.809419 31492 net.cpp:397] relu6 -> fc6 (in-place)
I0822 12:07:21.810214 31492 net.cpp:150] Setting up relu6
I0822 12:07:21.810228 31492 net.cpp:157] Top shape: 1 4096 (4096)
I0822 12:07:21.810231 31492 net.cpp:165] Memory required for data: 283895112
I0822 12:07:21.810235 31492 layer_factory.hpp:77] Creating layer drop6
I0822 12:07:21.810245 31492 net.cpp:106] Creating Layer drop6
I0822 12:07:21.810247 31492 net.cpp:454] drop6 <- fc6
I0822 12:07:21.810255 31492 net.cpp:397] drop6 -> fc6 (in-place)
I0822 12:07:21.810304 31492 net.cpp:150] Setting up drop6
I0822 12:07:21.810313 31492 net.cpp:157] Top shape: 1 4096 (4096)
I0822 12:07:21.810315 31492 net.cpp:165] Memory required for data: 283911496
I0822 12:07:21.810319 31492 layer_factory.hpp:77] Creating layer fc7
I0822 12:07:21.810328 31492 net.cpp:106] Creating Layer fc7
I0822 12:07:21.810333 31492 net.cpp:454] fc7 <- fc6
I0822 12:07:21.810339 31492 net.cpp:411] fc7 -> fc7
I0822 12:07:21.832634 31492 net.cpp:150] Setting up fc7
I0822 12:07:21.832665 31492 net.cpp:157] Top shape: 1 1024 (1024)
I0822 12:07:21.832669 31492 net.cpp:165] Memory required for data: 283915592
I0822 12:07:21.832677 31492 layer_factory.hpp:77] Creating layer relu7
I0822 12:07:21.832685 31492 net.cpp:106] Creating Layer relu7
I0822 12:07:21.832690 31492 net.cpp:454] relu7 <- fc7
I0822 12:07:21.832708 31492 net.cpp:397] relu7 -> fc7 (in-place)
I0822 12:07:21.832942 31492 net.cpp:150] Setting up relu7
I0822 12:07:21.832954 31492 net.cpp:157] Top shape: 1 1024 (1024)
I0822 12:07:21.832957 31492 net.cpp:165] Memory required for data: 283919688
I0822 12:07:21.832960 31492 layer_factory.hpp:77] Creating layer drop7
I0822 12:07:21.832967 31492 net.cpp:106] Creating Layer drop7
I0822 12:07:21.832972 31492 net.cpp:454] drop7 <- fc7
I0822 12:07:21.832978 31492 net.cpp:397] drop7 -> fc7 (in-place)
I0822 12:07:21.833022 31492 net.cpp:150] Setting up drop7
I0822 12:07:21.833031 31492 net.cpp:157] Top shape: 1 1024 (1024)
I0822 12:07:21.833034 31492 net.cpp:165] Memory required for data: 283923784
I0822 12:07:21.833036 31492 layer_factory.hpp:77] Creating layer fc7_drop7_0_split
I0822 12:07:21.833045 31492 net.cpp:106] Creating Layer fc7_drop7_0_split
I0822 12:07:21.833048 31492 net.cpp:454] fc7_drop7_0_split <- fc7
I0822 12:07:21.833055 31492 net.cpp:411] fc7_drop7_0_split -> fc7_drop7_0_split_0
I0822 12:07:21.833065 31492 net.cpp:411] fc7_drop7_0_split -> fc7_drop7_0_split_1
I0822 12:07:21.833132 31492 net.cpp:150] Setting up fc7_drop7_0_split
I0822 12:07:21.833140 31492 net.cpp:157] Top shape: 1 1024 (1024)
I0822 12:07:21.833143 31492 net.cpp:157] Top shape: 1 1024 (1024)
I0822 12:07:21.833147 31492 net.cpp:165] Memory required for data: 283931976
I0822 12:07:21.833148 31492 layer_factory.hpp:77] Creating layer cls_score
I0822 12:07:21.833158 31492 net.cpp:106] Creating Layer cls_score
I0822 12:07:21.833163 31492 net.cpp:454] cls_score <- fc7_drop7_0_split_0
I0822 12:07:21.833170 31492 net.cpp:411] cls_score -> cls_score
I0822 12:07:21.833639 31492 net.cpp:150] Setting up cls_score
I0822 12:07:21.833649 31492 net.cpp:157] Top shape: 1 21 (21)
I0822 12:07:21.833652 31492 net.cpp:165] Memory required for data: 283932060
I0822 12:07:21.833658 31492 layer_factory.hpp:77] Creating layer bbox_pred
I0822 12:07:21.833668 31492 net.cpp:106] Creating Layer bbox_pred
I0822 12:07:21.833673 31492 net.cpp:454] bbox_pred <- fc7_drop7_0_split_1
I0822 12:07:21.833681 31492 net.cpp:411] bbox_pred -> bbox_pred
I0822 12:07:21.836688 31492 net.cpp:150] Setting up bbox_pred
I0822 12:07:21.836702 31492 net.cpp:157] Top shape: 1 84 (84)
I0822 12:07:21.836705 31492 net.cpp:165] Memory required for data: 283932396
I0822 12:07:21.836726 31492 layer_factory.hpp:77] Creating layer loss_cls
I0822 12:07:21.836750 31492 net.cpp:106] Creating Layer loss_cls
I0822 12:07:21.836755 31492 net.cpp:454] loss_cls <- cls_score
I0822 12:07:21.836761 31492 net.cpp:454] loss_cls <- labels
I0822 12:07:21.836769 31492 net.cpp:411] loss_cls -> loss_cls
…
           'RPN_POST_NMS_TOP_N': 2000,
           'RPN_PRE_NMS_TOP_N': 12000,
           'SCALES': [600],
           'SNAPSHOT_INFIX': '',
           'SNAPSHOT_ITERS': 10000,
           'USE_FLIPPED': True,
           'USE_PREFETCH': False},
 'USE_GPU_NMS': True}
WARNING: Logging before InitGoogleLogging() is written to STDERR
I0822 15:51:00.971583 35752 net.cpp:49] Initializing net from parameters: 
name: "VGG_CNN_M_1024"
input: "data"
input: "im_info"
state {
  phase: TEST
}
input_shape {
  dim: 1
  dim: 3
  dim: 224
  dim: 224
}
input_shape {
  dim: 1
  dim: 3
}
layer {
  name: "conv1"
  type: "Convolution"
  bottom: "data"
  top: "conv1"
  param {
    lr_mult: 0
    decay_mult: 0
  }
  param {
    lr_mult: 0
    decay_mult: 0
  }
  convolution_param {
    num_output: 96
    kernel_size: 7
    stride: 2
  }
}
layer {
  name: "relu1"
  type: "ReLU"
  bottom: "conv1"
  top: "conv1"
}
layer {
  name: "norm1"
  type: "LRN"
  bottom: "conv1"
  top: "norm1"
  lrn_param {
    local_size: 5
    alpha: 0.0005
    beta: 0.75
    k: 2
  }
}
layer {
  name: "pool1"
  type: "Pooling"
  bottom: "norm1"
  top: "pool1"
  pooling_param {
    pool: MAX
    kernel_size: 3
    stride: 2
  }
}
layer {
  name: "conv2"
  type: "Convolution"
  bottom: "pool1"
  top: "conv2"
  param {
    lr_mult: 1
    decay_mult: 1
  }
  param {
    lr_mult: 2
    decay_mult: 0
  }
  convolution_param {
    num_output: 256
    pad: 1
    kernel_size: 5
    stride: 2
  }
}
layer {
  name: "relu2"
  type: "ReLU"
  bottom: "conv2"
  top: "conv2"
}
layer {
  name: "norm2"
  type: "LRN"
  bottom: "conv2"
  top: "norm2"
  lrn_param {
    local_size: 5
    alpha: 0.0005
    beta: 0.75
    k: 2
  }
}
layer {
  name: "pool2"
  type: "Pooling"
  bottom: "norm2"
  top: "pool2"
  pooling_param {
    pool: MAX
    kernel_size: 3
    stride: 2
  }
}
layer {
  name: "conv3"
  type: "Convolution"
  bottom: "pool2"
  top: "conv3"
  param {
    lr_mult: 1
    decay_mult: 1
  }
  param {
    lr_mult: 2
    decay_mult: 0
  }
  convolution_param {
    num_output: 512
    pad: 1
    kernel_size: 3
  }
}
layer {
  name: "relu3"
  type: "ReLU"
  bottom: "conv3"
  top: "conv3"
}
layer {
  name: "conv4"
  type: "Convolution"
  bottom: "conv3"
  top: "conv4"
  param {
    lr_mult: 1
    decay_mult: 1
  }
  param {
    lr_mult: 2
    decay_mult: 0
  }
  convolution_param {
    num_output: 512
    pad: 1
    kernel_size: 3
  }
}
layer {
  name: "relu4"
  type: "ReLU"
  bottom: "conv4"
  top: "conv4"
}
layer {
  name: "conv5"
  type: "Convolution"
  bottom: "conv4"
  top: "conv5"
  param {
    lr_mult: 1
    decay_mult: 1
  }
  param {
    lr_mult: 2
    decay_mult: 0
  }
  convolution_param {
    num_output: 512
    pad: 1
    kernel_size: 3
  }
}
layer {
  name: "relu5"
  type: "ReLU"
  bottom: "conv5"
  top: "conv5"
}
layer {
  name: "rpn_conv/3x3"
  type: "Convolution"
  bottom: "conv5"
  top: "rpn/output"
  param {
    lr_mult: 1
    decay_mult: 1
  }
  param {
    lr_mult: 2
    decay_mult: 0
  }
  convolution_param {
    num_output: 256
    pad: 1
    kernel_size: 3
    stride: 1
    weight_filler {
      type: "gaussian"
      std: 0.01
    }
    bias_filler {
      type: "constant"
      value: 0
    }
  }
}
layer {
  name: "rpn_relu/3x3"
  type: "ReLU"
  bottom: "rpn/output"
  top: "rpn/output"
}
layer {
  name: "rpn_cls_score"
  type: "Convolution"
  bottom: "rpn/output"
  top: "rpn_cls_score"
  param {
    lr_mult: 1
    decay_mult: 1
  }
  param {
    lr_mult: 2
    decay_mult: 0
  }
  convolution_param {
    num_output: 18
    pad: 0
    kernel_size: 1
    stride: 1
    weight_filler {
      type: "gaussian"
      std: 0.01
    }
    bias_filler {
      type: "constant"
      value: 0
    }
  }
}
layer {
  name: "rpn_bbox_pred"
  type: "Convolution"
  bottom: "rpn/output"
  top: "rpn_bbox_pred"
  param {
    lr_mult: 1
    decay_mult: 1
  }
  param {
    lr_mult: 2
    decay_mult: 0
  }
  convolution_param {
    num_output: 36
    pad: 0
    kernel_size: 1
    stride: 1
    weight_filler {
      type: "gaussian"
      std: 0.01
    }
    bias_filler {
      type: "constant"
      value: 0
    }
  }
}
layer {
  name: "rpn_cls_score_reshape"
  type: "Reshape"
  bottom: "rpn_cls_score"
  top: "rpn_cls_score_reshape"
  reshape_param {
    shape {
      dim: 0
      dim: 2
      dim: -1
      dim: 0
    }
  }
}
layer {
  name: "rpn_cls_prob"
  type: "Softmax"
  bottom: "rpn_cls_score_reshape"
  top: "rpn_cls_prob"
}
layer {
  name: "rpn_cls_prob_reshape"
  type: "Reshape"
  bottom: "rpn_cls_prob"
  top: "rpn_cls_prob_reshape"
  reshape_param {
    shape {
      dim: 0
      dim: 18
      dim: -1
      dim: 0
    }
  }
}
layer {
  name: "proposal"
  type: "Python"
  bottom: "rpn_cls_prob_reshape"
  bottom: "rpn_bbox_pred"
  bottom: "im_info"
  top: "rois"
  python_param {
    module: "rpn.proposal_layer"
    layer: "ProposalLayer"
    param_str: "\'feat_stride\': 16"
  }
}
layer {
  name: "roi_pool5"
  type: "ROIPooling"
  bottom: "conv5"
  bottom: "rois"
  top: "pool5"
  roi_pooling_param {
    pooled_h: 6
    pooled_w: 6
    spatial_scale: 0.0625
  }
}
layer {
  name: "fc6"
  type: "InnerProduct"
  bottom: "pool5"
  top: "fc6"
  param {
    lr_mult: 1
    decay_mult: 1
  }
  param {
    lr_mult: 2
    decay_mult: 0
  }
  inner_product_param {
    num_output: 4096
  }
}
layer {
  name: "relu6"
  type: "ReLU"
  bottom: "fc6"
  top: "fc6"
}
layer {
  name: "drop6"
  type: "Dropout"
  bottom: "fc6"
  top: "fc6"
  dropout_param {
    dropout_ratio: 0.5
  }
}
layer {
  name: "fc7"
  type: "InnerProduct"
  bottom: "fc6"
  top: "fc7"
  param {
    lr_mult: 1
    decay_mult: 1
  }
  param {
    lr_mult: 2
    decay_mult: 0
  }
  inner_product_param {
    num_output: 1024
  }
}
layer {
  name: "relu7"
  type: "ReLU"
  bottom: "fc7"
  top: "fc7"
}
layer {
  name: "drop7"
  type: "Dropout"
  bottom: "fc7"
  top: "fc7"
  dropout_param {
    dropout_ratio: 0.5
  }
}
layer {
  name: "cls_score"
  type: "InnerProduct"
  bottom: "fc7"
  top: "cls_score"
  param {
    lr_mult: 1
    decay_mult: 1
  }
  param {
    lr_mult: 2
    decay_mult: 0
  }
  inner_product_param {
    num_output: 21
    weight_filler {
      type: "gaussian"
      std: 0.01
    }
    bias_filler {
      type: "constant"
      value: 0
    }
  }
}
layer {
  name: "bbox_pred"
  type: "InnerProduct"
  bottom: "fc7"
  top: "bbox_pred"
  param {
    lr_mult: 1
    decay_mult: 1
  }
  param {
    lr_mult: 2
    decay_mult: 0
  }
  inner_product_param {
    num_output: 84
    weight_filler {
      type: "gaussian"
      std: 0.001
    }
    bias_filler {
      type: "constant"
      value: 0
    }
  }
}
layer {
  name: "cls_prob"
  type: "Softmax"
  bottom: "cls_score"
  top: "cls_prob"
}
I0822 15:51:00.971760 35752 net.cpp:413] Input 0 -> data
I0822 15:51:01.017948 35752 net.cpp:413] Input 1 -> im_info
I0822 15:51:01.018023 35752 layer_factory.hpp:77] Creating layer conv1
I0822 15:51:01.018046 35752 net.cpp:106] Creating Layer conv1
I0822 15:51:01.018051 35752 net.cpp:454] conv1 <- data
I0822 15:51:01.018059 35752 net.cpp:411] conv1 -> conv1
I0822 15:51:01.376206 35752 net.cpp:150] Setting up conv1
I0822 15:51:01.376248 35752 net.cpp:157] Top shape: 1 96 109 109 (1140576)
I0822 15:51:01.376253 35752 net.cpp:165] Memory required for data: 4562304
I0822 15:51:01.376272 35752 layer_factory.hpp:77] Creating layer relu1
I0822 15:51:01.376287 35752 net.cpp:106] Creating Layer relu1
I0822 15:51:01.376292 35752 net.cpp:454] relu1 <- conv1
I0822 15:51:01.376301 35752 net.cpp:397] relu1 -> conv1 (in-place)
I0822 15:51:01.377018 35752 net.cpp:150] Setting up relu1
I0822 15:51:01.377035 35752 net.cpp:157] Top shape: 1 96 109 109 (1140576)
I0822 15:51:01.377039 35752 net.cpp:165] Memory required for data: 9124608
I0822 15:51:01.377043 35752 layer_factory.hpp:77] Creating layer norm1
I0822 15:51:01.377053 35752 net.cpp:106] Creating Layer norm1
I0822 15:51:01.377056 35752 net.cpp:454] norm1 <- conv1
I0822 15:51:01.377063 35752 net.cpp:411] norm1 -> norm1
I0822 15:51:01.378012 35752 net.cpp:150] Setting up norm1
I0822 15:51:01.378027 35752 net.cpp:157] Top shape: 1 96 109 109 (1140576)
I0822 15:51:01.378031 35752 net.cpp:165] Memory required for data: 13686912
I0822 15:51:01.378034 35752 layer_factory.hpp:77] Creating layer pool1
I0822 15:51:01.378042 35752 net.cpp:106] Creating Layer pool1
I0822 15:51:01.378046 35752 net.cpp:454] pool1 <- norm1
I0822 15:51:01.378051 35752 net.cpp:411] pool1 -> pool1
I0822 15:51:01.378141 35752 net.cpp:150] Setting up pool1
I0822 15:51:01.378155 35752 net.cpp:157] Top shape: 1 96 54 54 (279936)
I0822 15:51:01.378162 35752 net.cpp:165] Memory required for data: 14806656
I0822 15:51:01.378168 35752 layer_factory.hpp:77] Creating layer conv2
I0822 15:51:01.378183 35752 net.cpp:106] Creating Layer conv2
I0822 15:51:01.378191 35752 net.cpp:454] conv2 <- pool1
I0822 15:51:01.378201 35752 net.cpp:411] conv2 -> conv2
I0822 15:51:01.389663 35752 net.cpp:150] Setting up conv2
I0822 15:51:01.389699 35752 net.cpp:157] Top shape: 1 256 26 26 (173056)
I0822 15:51:01.389703 35752 net.cpp:165] Memory required for data: 15498880
I0822 15:51:01.389720 35752 layer_factory.hpp:77] Creating layer relu2
I0822 15:51:01.389731 35752 net.cpp:106] Creating Layer relu2
I0822 15:51:01.389735 35752 net.cpp:454] relu2 <- conv2
I0822 15:51:01.389742 35752 net.cpp:397] relu2 -> conv2 (in-place)
I0822 15:51:01.390647 35752 net.cpp:150] Setting up relu2
I0822 15:51:01.390663 35752 net.cpp:157] Top shape: 1 256 26 26 (173056)
I0822 15:51:01.390666 35752 net.cpp:165] Memory required for data: 16191104
I0822 15:51:01.390671 35752 layer_factory.hpp:77] Creating layer norm2
I0822 15:51:01.390681 35752 net.cpp:106] Creating Layer norm2
I0822 15:51:01.390687 35752 net.cpp:454] norm2 <- conv2
I0822 15:51:01.390694 35752 net.cpp:411] norm2 -> norm2
I0822 15:51:01.391659 35752 net.cpp:150] Setting up norm2
I0822 15:51:01.391674 35752 net.cpp:157] Top shape: 1 256 26 26 (173056)
I0822 15:51:01.391677 35752 net.cpp:165] Memory required for data: 16883328
I0822 15:51:01.391681 35752 layer_factory.hpp:77] Creating layer pool2
I0822 15:51:01.391690 35752 net.cpp:106] Creating Layer pool2
I0822 15:51:01.391692 35752 net.cpp:454] pool2 <- norm2
I0822 15:51:01.391701 35752 net.cpp:411] pool2 -> pool2
I0822 15:51:01.391788 35752 net.cpp:150] Setting up pool2
I0822 15:51:01.391805 35752 net.cpp:157] Top shape: 1 256 13 13 (43264)
I0822 15:51:01.391813 35752 net.cpp:165] Memory required for data: 17056384
I0822 15:51:01.391819 35752 layer_factory.hpp:77] Creating layer conv3
I0822 15:51:01.391837 35752 net.cpp:106] Creating Layer conv3
I0822 15:51:01.391845 35752 net.cpp:454] conv3 <- pool2
I0822 15:51:01.391855 35752 net.cpp:411] conv3 -> conv3
I0822 15:51:01.402763 35752 net.cpp:150] Setting up conv3
I0822 15:51:01.402781 35752 net.cpp:157] Top shape: 1 512 13 13 (86528)
I0822 15:51:01.402783 35752 net.cpp:165] Memory required for data: 17402496
I0822 15:51:01.402796 35752 layer_factory.hpp:77] Creating layer relu3
I0822 15:51:01.402804 35752 net.cpp:106] Creating Layer relu3
I0822 15:51:01.402808 35752 net.cpp:454] relu3 <- conv3
I0822 15:51:01.402817 35752 net.cpp:397] relu3 -> conv3 (in-place)
I0822 15:51:01.403765 35752 net.cpp:150] Setting up relu3
I0822 15:51:01.403781 35752 net.cpp:157] Top shape: 1 512 13 13 (86528)
I0822 15:51:01.403784 35752 net.cpp:165] Memory required for data: 17748608
I0822 15:51:01.403789 35752 layer_factory.hpp:77] Creating layer conv4
I0822 15:51:01.403803 35752 net.cpp:106] Creating Layer conv4
I0822 15:51:01.403807 35752 net.cpp:454] conv4 <- conv3
I0822 15:51:01.403815 35752 net.cpp:411] conv4 -> conv4
I0822 15:51:01.421434 35752 net.cpp:150] Setting up conv4
I0822 15:51:01.421458 35752 net.cpp:157] Top shape: 1 512 13 13 (86528)
I0822 15:51:01.421463 35752 net.cpp:165] Memory required for data: 18094720
I0822 15:51:01.421470 35752 layer_factory.hpp:77] Creating layer relu4
I0822 15:51:01.421478 35752 net.cpp:106] Creating Layer relu4
I0822 15:51:01.421483 35752 net.cpp:454] relu4 <- conv4
I0822 15:51:01.421490 35752 net.cpp:397] relu4 -> conv4 (in-place)
I0822 15:51:01.423846 35752 net.cpp:150] Setting up relu4
I0822 15:51:01.423861 35752 net.cpp:157] Top shape: 1 512 13 13 (86528)
I0822 15:51:01.423864 35752 net.cpp:165] Memory required for data: 18440832
I0822 15:51:01.423868 35752 layer_factory.hpp:77] Creating layer conv5
I0822 15:51:01.423879 35752 net.cpp:106] Creating Layer conv5
I0822 15:51:01.423883 35752 net.cpp:454] conv5 <- conv4
I0822 15:51:01.423892 35752 net.cpp:411] conv5 -> conv5
I0822 15:51:01.446774 35752 net.cpp:150] Setting up conv5
I0822 15:51:01.446812 35752 net.cpp:157] Top shape: 1 512 13 13 (86528)
I0822 15:51:01.446816 35752 net.cpp:165] Memory required for data: 18786944
I0822 15:51:01.446833 35752 layer_factory.hpp:77] Creating layer relu5
I0822 15:51:01.446844 35752 net.cpp:106] Creating Layer relu5
I0822 15:51:01.446849 35752 net.cpp:454] relu5 <- conv5
I0822 15:51:01.446858 35752 net.cpp:397] relu5 -> conv5 (in-place)
I0822 15:51:01.447626 35752 net.cpp:150] Setting up relu5
I0822 15:51:01.447643 35752 net.cpp:157] Top shape: 1 512 13 13 (86528)
I0822 15:51:01.447646 35752 net.cpp:165] Memory required for data: 19133056
I0822 15:51:01.447649 35752 layer_factory.hpp:77] Creating layer conv5_relu5_0_split
I0822 15:51:01.447659 35752 net.cpp:106] Creating Layer conv5_relu5_0_split
I0822 15:51:01.447664 35752 net.cpp:454] conv5_relu5_0_split <- conv5
I0822 15:51:01.447677 35752 net.cpp:411] conv5_relu5_0_split -> conv5_relu5_0_split_0
I0822 15:51:01.447696 35752 net.cpp:411] conv5_relu5_0_split -> conv5_relu5_0_split_1
I0822 15:51:01.447814 35752 net.cpp:150] Setting up conv5_relu5_0_split
I0822 15:51:01.447834 35752 net.cpp:157] Top shape: 1 512 13 13 (86528)
I0822 15:51:01.447845 35752 net.cpp:157] Top shape: 1 512 13 13 (86528)
I0822 15:51:01.447852 35752 net.cpp:165] Memory required for data: 19825280
I0822 15:51:01.447857 35752 layer_factory.hpp:77] Creating layer rpn_conv/3x3
I0822 15:51:01.447880 35752 net.cpp:106] Creating Layer rpn_conv/3x3
I0822 15:51:01.447887 35752 net.cpp:454] rpn_conv/3x3 <- conv5_relu5_0_split_0
I0822 15:51:01.447901 35752 net.cpp:411] rpn_conv/3x3 -> rpn/output
I0822 15:51:01.472848 35752 net.cpp:150] Setting up rpn_conv/3x3
I0822 15:51:01.472872 35752 net.cpp:157] Top shape: 1 256 13 13 (43264)
I0822 15:51:01.472875 35752 net.cpp:165] Memory required for data: 19998336
I0822 15:51:01.472883 35752 layer_factory.hpp:77] Creating layer rpn_relu/3x3
I0822 15:51:01.472900 35752 net.cpp:106] Creating Layer rpn_relu/3x3
I0822 15:51:01.472908 35752 net.cpp:454] rpn_relu/3x3 <- rpn/output
I0822 15:51:01.472918 35752 net.cpp:397] rpn_relu/3x3 -> rpn/output (in-place)
I0822 15:51:01.474297 35752 net.cpp:150] Setting up rpn_relu/3x3
I0822 15:51:01.474313 35752 net.cpp:157] Top shape: 1 256 13 13 (43264)
I0822 15:51:01.474318 35752 net.cpp:165] Memory required for data: 20171392
I0822 15:51:01.474321 35752 layer_factory.hpp:77] Creating layer rpn/output_rpn_relu/3x3_0_split
I0822 15:51:01.474329 35752 net.cpp:106] Creating Layer rpn/output_rpn_relu/3x3_0_split
I0822 15:51:01.474334 35752 net.cpp:454] rpn/output_rpn_relu/3x3_0_split <- rpn/output
I0822 15:51:01.474349 35752 net.cpp:411] rpn/output_rpn_relu/3x3_0_split -> rpn/output_rpn_relu/3x3_0_split_0
I0822 15:51:01.474367 35752 net.cpp:411] rpn/output_rpn_relu/3x3_0_split -> rpn/output_rpn_relu/3x3_0_split_1
I0822 15:51:01.474485 35752 net.cpp:150] Setting up rpn/output_rpn_relu/3x3_0_split
I0822 15:51:01.474498 35752 net.cpp:157] Top shape: 1 256 13 13 (43264)
I0822 15:51:01.474509 35752 net.cpp:157] Top shape: 1 256 13 13 (43264)
I0822 15:51:01.474515 35752 net.cpp:165] Memory required for data: 20517504
I0822 15:51:01.474520 35752 layer_factory.hpp:77] Creating layer rpn_cls_score
I0822 15:51:01.474539 35752 net.cpp:106] Creating Layer rpn_cls_score
I0822 15:51:01.474547 35752 net.cpp:454] rpn_cls_score <- rpn/output_rpn_relu/3x3_0_split_0
I0822 15:51:01.474560 35752 net.cpp:411] rpn_cls_score -> rpn_cls_score
I0822 15:51:01.478715 35752 net.cpp:150] Setting up rpn_cls_score
I0822 15:51:01.478735 35752 net.cpp:157] Top shape: 1 18 13 13 (3042)
I0822 15:51:01.478739 35752 net.cpp:165] Memory required for data: 20529672
I0822 15:51:01.478750 35752 layer_factory.hpp:77] Creating layer rpn_bbox_pred
I0822 15:51:01.478777 35752 net.cpp:106] Creating Layer rpn_bbox_pred
I0822 15:51:01.478787 35752 net.cpp:454] rpn_bbox_pred <- rpn/output_rpn_relu/3x3_0_split_1
I0822 15:51:01.478801 35752 net.cpp:411] rpn_bbox_pred -> rpn_bbox_pred
I0822 15:51:01.482383 35752 net.cpp:150] Setting up rpn_bbox_pred
I0822 15:51:01.482400 35752 net.cpp:157] Top shape: 1 36 13 13 (6084)
I0822 15:51:01.482404 35752 net.cpp:165] Memory required for data: 20554008
I0822 15:51:01.482412 35752 layer_factory.hpp:77] Creating layer rpn_cls_score_reshape
I0822 15:51:01.482424 35752 net.cpp:106] Creating Layer rpn_cls_score_reshape
I0822 15:51:01.482432 35752 net.cpp:454] rpn_cls_score_reshape <- rpn_cls_score
I0822 15:51:01.482450 35752 net.cpp:411] rpn_cls_score_reshape -> rpn_cls_score_reshape
I0822 15:51:01.482527 35752 net.cpp:150] Setting up rpn_cls_score_reshape
I0822 15:51:01.482540 35752 net.cpp:157] Top shape: 1 2 117 13 (3042)
I0822 15:51:01.482547 35752 net.cpp:165] Memory required for data: 20566176
I0822 15:51:01.482553 35752 layer_factory.hpp:77] Creating layer rpn_cls_prob
I0822 15:51:01.482565 35752 net.cpp:106] Creating Layer rpn_cls_prob
I0822 15:51:01.482573 35752 net.cpp:454] rpn_cls_prob <- rpn_cls_score_reshape
I0822 15:51:01.482583 35752 net.cpp:411] rpn_cls_prob -> rpn_cls_prob
I0822 15:51:01.483793 35752 net.cpp:150] Setting up rpn_cls_prob
I0822 15:51:01.483809 35752 net.cpp:157] Top shape: 1 2 117 13 (3042)
I0822 15:51:01.483814 35752 net.cpp:165] Memory required for data: 20578344
I0822 15:51:01.483822 35752 layer_factory.hpp:77] Creating layer rpn_cls_prob_reshape
I0822 15:51:01.483837 35752 net.cpp:106] Creating Layer rpn_cls_prob_reshape
I0822 15:51:01.483846 35752 net.cpp:454] rpn_cls_prob_reshape <- rpn_cls_prob
I0822 15:51:01.483863 35752 net.cpp:411] rpn_cls_prob_reshape -> rpn_cls_prob_reshape
I0822 15:51:01.483942 35752 net.cpp:150] Setting up rpn_cls_prob_reshape
I0822 15:51:01.483955 35752 net.cpp:157] Top shape: 1 18 13 13 (3042)
I0822 15:51:01.483963 35752 net.cpp:165] Memory required for data: 20590512
I0822 15:51:01.483968 35752 layer_factory.hpp:77] Creating layer proposal
I0822 15:51:01.484719 35752 net.cpp:106] Creating Layer proposal
I0822 15:51:01.484736 35752 net.cpp:454] proposal <- rpn_cls_prob_reshape
I0822 15:51:01.484746 35752 net.cpp:454] proposal <- rpn_bbox_pred
I0822 15:51:01.484757 35752 net.cpp:454] proposal <- im_info
I0822 15:51:01.484772 35752 net.cpp:411] proposal -> rois
I0822 15:51:01.485766 35752 net.cpp:150] Setting up proposal
I0822 15:51:01.485783 35752 net.cpp:157] Top shape: 1 5 (5)
I0822 15:51:01.485788 35752 net.cpp:165] Memory required for data: 20590532
I0822 15:51:01.485792 35752 layer_factory.hpp:77] Creating layer roi_pool5
I0822 15:51:01.485800 35752 net.cpp:106] Creating Layer roi_pool5
I0822 15:51:01.485805 35752 net.cpp:454] roi_pool5 <- conv5_relu5_0_split_1
I0822 15:51:01.485813 35752 net.cpp:454] roi_pool5 <- rois
I0822 15:51:01.485824 35752 net.cpp:411] roi_pool5 -> pool5
I0822 15:51:01.485841 35752 roi_pooling_layer.cpp:30] Spatial scale: 0.0625
I0822 15:51:01.485962 35752 net.cpp:150] Setting up roi_pool5
I0822 15:51:01.485976 35752 net.cpp:157] Top shape: 1 512 6 6 (18432)
I0822 15:51:01.485983 35752 net.cpp:165] Memory required for data: 20664260
I0822 15:51:01.485988 35752 layer_factory.hpp:77] Creating layer fc6
I0822 15:51:01.485999 35752 net.cpp:106] Creating Layer fc6
I0822 15:51:01.486007 35752 net.cpp:454] fc6 <- pool5
I0822 15:51:01.486016 35752 net.cpp:411] fc6 -> fc6
I0822 15:51:01.934567 35752 net.cpp:150] Setting up fc6
I0822 15:51:01.934614 35752 net.cpp:157] Top shape: 1 4096 (4096)
I0822 15:51:01.934617 35752 net.cpp:165] Memory required for data: 20680644
I0822 15:51:01.934635 35752 layer_factory.hpp:77] Creating layer relu6
I0822 15:51:01.934649 35752 net.cpp:106] Creating Layer relu6
I0822 15:51:01.934653 35752 net.cpp:454] relu6 <- fc6
I0822 15:51:01.934660 35752 net.cpp:397] relu6 -> fc6 (in-place)
I0822 15:51:01.934937 35752 net.cpp:150] Setting up relu6
I0822 15:51:01.934949 35752 net.cpp:157] Top shape: 1 4096 (4096)
I0822 15:51:01.934952 35752 net.cpp:165] Memory required for data: 20697028
I0822 15:51:01.934954 35752 layer_factory.hpp:77] Creating layer drop6
I0822 15:51:01.934962 35752 net.cpp:106] Creating Layer drop6
I0822 15:51:01.934965 35752 net.cpp:454] drop6 <- fc6
I0822 15:51:01.934970 35752 net.cpp:397] drop6 -> fc6 (in-place)
I0822 15:51:01.935017 35752 net.cpp:150] Setting up drop6
I0822 15:51:01.935025 35752 net.cpp:157] Top shape: 1 4096 (4096)
I0822 15:51:01.935027 35752 net.cpp:165] Memory required for data: 20713412
I0822 15:51:01.935030 35752 layer_factory.hpp:77] Creating layer fc7
I0822 15:51:01.935037 35752 net.cpp:106] Creating Layer fc7
I0822 15:51:01.935041 35752 net.cpp:454] fc7 <- fc6
I0822 15:51:01.935047 35752 net.cpp:411] fc7 -> fc7
I0822 15:51:01.962148 35752 net.cpp:150] Setting up fc7
I0822 15:51:01.962183 35752 net.cpp:157] Top shape: 1 1024 (1024)
I0822 15:51:01.962187 35752 net.cpp:165] Memory required for data: 20717508
I0822 15:51:01.962196 35752 layer_factory.hpp:77] Creating layer relu7
I0822 15:51:01.962208 35752 net.cpp:106] Creating Layer relu7
I0822 15:51:01.962211 35752 net.cpp:454] relu7 <- fc7
I0822 15:51:01.962222 35752 net.cpp:397] relu7 -> fc7 (in-place)
I0822 15:51:01.964856 35752 net.cpp:150] Setting up relu7
I0822 15:51:01.964872 35752 net.cpp:157] Top shape: 1 1024 (1024)
I0822 15:51:01.964875 35752 net.cpp:165] Memory required for data: 20721604
I0822 15:51:01.964879 35752 layer_factory.hpp:77] Creating layer drop7
I0822 15:51:01.964887 35752 net.cpp:106] Creating Layer drop7
I0822 15:51:01.964891 35752 net.cpp:454] drop7 <- fc7
I0822 15:51:01.964898 35752 net.cpp:397] drop7 -> fc7 (in-place)
I0822 15:51:01.964949 35752 net.cpp:150] Setting up drop7
I0822 15:51:01.964956 35752 net.cpp:157] Top shape: 1 1024 (1024)
I0822 15:51:01.964959 35752 net.cpp:165] Memory required for data: 20725700
I0822 15:51:01.964962 35752 layer_factory.hpp:77] Creating layer fc7_drop7_0_split
I0822 15:51:01.964968 35752 net.cpp:106] Creating Layer fc7_drop7_0_split
I0822 15:51:01.964972 35752 net.cpp:454] fc7_drop7_0_split <- fc7
I0822 15:51:01.964979 35752 net.cpp:411] fc7_drop7_0_split -> fc7_drop7_0_split_0
I0822 15:51:01.964988 35752 net.cpp:411] fc7_drop7_0_split -> fc7_drop7_0_split_1
I0822 15:51:01.965057 35752 net.cpp:150] Setting up fc7_drop7_0_split
I0822 15:51:01.965065 35752 net.cpp:157] Top shape: 1 1024 (1024)
I0822 15:51:01.965068 35752 net.cpp:157] Top shape: 1 1024 (1024)
I0822 15:51:01.965070 35752 net.cpp:165] Memory required for data: 20733892
I0822 15:51:01.965073 35752 layer_factory.hpp:77] Creating layer cls_score
I0822 15:51:01.965093 35752 net.cpp:106] Creating Layer cls_score
I0822 15:51:01.965098 35752 net.cpp:454] cls_score <- fc7_drop7_0_split_0
I0822 15:51:01.965104 35752 net.cpp:411] cls_score -> cls_score
I0822 15:51:01.969965 35752 net.cpp:150] Setting up cls_score
I0822 15:51:01.969981 35752 net.cpp:157] Top shape: 1 21 (21)
I0822 15:51:01.969985 35752 net.cpp:165] Memory required for data: 20733976
I0822 15:51:01.969991 35752 layer_factory.hpp:77] Creating layer bbox_pred
I0822 15:51:01.970001 35752 net.cpp:106] Creating Layer bbox_pred
I0822 15:51:01.970006 35752 net.cpp:454] bbox_pred <- fc7_drop7_0_split_1
I0822 15:51:01.970012 35752 net.cpp:411] bbox_pred -> bbox_pred
I0822 15:51:01.974772 35752 net.cpp:150] Setting up bbox_pred
I0822 15:51:01.974788 35752 net.cpp:157] Top shape: 1 84 (84)
I0822 15:51:01.974792 35752 net.cpp:165] Memory required for data: 20734312
I0822 15:51:01.974798 35752 layer_factory.hpp:77] Creating layer cls_prob
I0822 15:51:01.974805 35752 net.cpp:106] Creating Layer cls_prob
I0822 15:51:01.974810 35752 net.cpp:454] cls_prob <- cls_score
I0822 15:51:01.974824 35752 net.cpp:411] cls_prob -> cls_prob
I0822 15:51:01.975150 35752 net.cpp:150] Setting up cls_prob
I0822 15:51:01.975164 35752 net.cpp:157] Top shape: 1 21 (21)
I0822 15:51:01.975167 35752 net.cpp:165] Memory required for data: 20734396
I0822 15:51:01.975172 35752 net.cpp:228] cls_prob does not need backward computation.
I0822 15:51:01.975174 35752 net.cpp:228] bbox_pred does not need backward computation.
I0822 15:51:01.975178 35752 net.cpp:228] cls_score does not need backward computation.
I0822 15:51:01.975180 35752 net.cpp:228] fc7_drop7_0_split does not need backward computation.
…
