…
snapshot_prefix: "vgg_cnn_m_1024_faster_rcnn"
average_loss: 100
I0823 18:51:36.571521 13410 solver.cpp:81] Creating training net from train_net file: models/pascal_voc/VGG_CNN_M_1024/faster_rcnn_end2end/train.prototxt
I0823 18:51:36.572088 13410 net.cpp:49] Initializing net from parameters: 
name: "VGG_CNN_M_1024"
state {
  phase: TRAIN
}
layer {
  name: "input-data"
  type: "Python"
  top: "data"
  top: "im_info"
  top: "gt_boxes"
  python_param {
    module: "roi_data_layer.layer"
    layer: "RoIDataLayer"
    param_str: "\'num_classes\': 21"
  }
}
layer {
  name: "conv1"
  type: "Convolution"
  bottom: "data"
  top: "conv1"
  param {
    lr_mult: 0
    decay_mult: 0
  }
  param {
    lr_mult: 0
    decay_mult: 0
  }
  convolution_param {
    num_output: 96
    kernel_size: 7
    stride: 2
  }
}
layer {
  name: "relu1"
  type: "ReLU"
  bottom: "conv1"
  top: "conv1"
}
layer {
  name: "norm1"
  type: "LRN"
  bottom: "conv1"
  top: "norm1"
  lrn_param {
    local_size: 5
    alpha: 0.0005
    beta: 0.75
    k: 2
  }
}
layer {
  name: "pool1"
  type: "Pooling"
  bottom: "norm1"
  top: "pool1"
  pooling_param {
    pool: MAX
    kernel_size: 3
    stride: 2
  }
}
layer {
  name: "conv2"
  type: "Convolution"
  bottom: "pool1"
  top: "conv2"
  param {
    lr_mult: 1
  }
  param {
    lr_mult: 2
  }
  convolution_param {
    num_output: 256
    pad: 1
    kernel_size: 5
    stride: 2
  }
}
layer {
  name: "relu2"
  type: "ReLU"
  bottom: "conv2"
  top: "conv2"
}
layer {
  name: "norm2"
  type: "LRN"
  bottom: "conv2"
  top: "norm2"
  lrn_param {
    local_size: 5
    alpha: 0.0005
    beta: 0.75
    k: 2
  }
}
layer {
  name: "pool2"
  type: "Pooling"
  bottom: "norm2"
  top: "pool2"
  pooling_param {
    pool: MAX
    kernel_size: 3
    stride: 2
  }
}
layer {
  name: "conv3"
  type: "Convolution"
  bottom: "pool2"
  top: "conv3"
  param {
    lr_mult: 1
  }
  param {
    lr_mult: 2
  }
  convolution_param {
    num_output: 512
    pad: 1
    kernel_size: 3
  }
}
layer {
  name: "relu3"
  type: "ReLU"
  bottom: "conv3"
  top: "conv3"
}
layer {
  name: "conv4"
  type: "Convolution"
  bottom: "conv3"
  top: "conv4"
  param {
    lr_mult: 1
  }
  param {
    lr_mult: 2
  }
  convolution_param {
    num_output: 512
    pad: 1
    kernel_size: 3
  }
}
layer {
  name: "relu4"
  type: "ReLU"
  bottom: "conv4"
  top: "conv4"
}
layer {
  name: "conv5"
  type: "Convolution"
  bottom: "conv4"
  top: "conv5"
  param {
    lr_mult: 1
  }
  param {
    lr_mult: 2
  }
  convolution_param {
    num_output: 512
    pad: 1
    kernel_size: 3
  }
}
layer {
  name: "relu5"
  type: "ReLU"
  bottom: "conv5"
  top: "conv5"
}
layer {
  name: "rpn_conv/3x3"
  type: "Convolution"
  bottom: "conv5"
  top: "rpn/output"
  param {
    lr_mult: 1
  }
  param {
    lr_mult: 2
  }
  convolution_param {
    num_output: 256
    pad: 1
    kernel_size: 3
    stride: 1
    weight_filler {
      type: "gaussian"
      std: 0.01
    }
    bias_filler {
      type: "constant"
      value: 0
    }
  }
}
layer {
  name: "rpn_relu/3x3"
  type: "ReLU"
  bottom: "rpn/output"
  top: "rpn/output"
}
layer {
  name: "rpn_cls_score"
  type: "Convolution"
  bottom: "rpn/output"
  top: "rpn_cls_score"
  param {
    lr_mult: 1
  }
  param {
    lr_mult: 2
  }
  convolution_param {
    num_output: 18
    pad: 0
    kernel_size: 1
    stride: 1
    weight_filler {
      type: "gaussian"
      std: 0.01
    }
    bias_filler {
      type: "constant"
      value: 0
    }
  }
}
layer {
  name: "rpn_bbox_pred"
  type: "Convolution"
  bottom: "rpn/output"
  top: "rpn_bbox_pred"
  param {
    lr_mult: 1
  }
  param {
    lr_mult: 2
  }
  convolution_param {
    num_output: 36
    pad: 0
    kernel_size: 1
    stride: 1
    weight_filler {
      type: "gaussian"
      std: 0.01
    }
    bias_filler {
      type: "constant"
      value: 0
    }
  }
}
layer {
  name: "rpn_cls_score_reshape"
  type: "Reshape"
  bottom: "rpn_cls_score"
  top: "rpn_cls_score_reshape"
  reshape_param {
    shape {
      dim: 0
      dim: 2
      dim: -1
      dim: 0
    }
  }
}
layer {
  name: "rpn-data"
  type: "Python"
  bottom: "rpn_cls_score"
  bottom: "gt_boxes"
  bottom: "im_info"
  bottom: "data"
  top: "rpn_labels"
  top: "rpn_bbox_targets"
  top: "rpn_bbox_inside_weights"
  top: "rpn_bbox_outside_weights"
  python_param {
    module: "rpn.anchor_target_layer"
    layer: "AnchorTargetLayer"
    param_str: "\'feat_stride\': 16"
  }
}
layer {
  name: "rpn_loss_cls"
  type: "SoftmaxWithLoss"
  bottom: "rpn_cls_score_reshape"
  bottom: "rpn_labels"
  top: "rpn_cls_loss"
  loss_weight: 1
  propagate_down: true
  propagate_down: false
  loss_param {
    ignore_label: -1
    normalize: true
  }
}
layer {
  name: "rpn_loss_bbox"
  type: "SmoothL1Loss"
  bottom: "rpn_bbox_pred"
  bottom: "rpn_bbox_targets"
  bottom: "rpn_bbox_inside_weights"
  bottom: "rpn_bbox_outside_weights"
  top: "rpn_loss_bbox"
  loss_weight: 1
  smooth_l1_loss_param {
    sigma: 3
  }
}
layer {
  name: "rpn_cls_prob"
  type: "Softmax"
  bottom: "rpn_cls_score_reshape"
  top: "rpn_cls_prob"
}
layer {
  name: "rpn_cls_prob_reshape"
  type: "Reshape"
  bottom: "rpn_cls_prob"
  top: "rpn_cls_prob_reshape"
  reshape_param {
    shape {
      dim: 0
      dim: 18
      dim: -1
      dim: 0
    }
  }
}
layer {
  name: "proposal"
  type: "Python"
  bottom: "rpn_cls_prob_reshape"
  bottom: "rpn_bbox_pred"
  bottom: "im_info"
  top: "rpn_rois"
  python_param {
    module: "rpn.proposal_layer"
    layer: "ProposalLayer"
    param_str: "\'feat_stride\': 16"
  }
}
layer {
  name: "roi-data"
  type: "Python"
  bottom: "rpn_rois"
  bottom: "gt_boxes"
  top: "rois"
  top: "labels"
  top: "bbox_targets"
  top: "bbox_inside_weights"
  top: "bbox_outside_weights"
  python_param {
    module: "rpn.proposal_target_layer"
    layer: "ProposalTargetLayer"
    param_str: "\'num_classes\': 21"
  }
}
layer {
  name: "roi_pool5"
  type: "ROIPooling"
  bottom: "conv5"
  bottom: "rois"
  top: "pool5"
  roi_pooling_param {
    pooled_h: 6
    pooled_w: 6
    spatial_scale: 0.0625
  }
}
layer {
  name: "fc6"
  type: "InnerProduct"
  bottom: "pool5"
  top: "fc6"
  param {
    lr_mult: 1
  }
  param {
    lr_mult: 2
  }
  inner_product_param {
    num_output: 4096
  }
}
layer {
  name: "relu6"
  type: "ReLU"
  bottom: "fc6"
  top: "fc6"
}
layer {
  name: "drop6"
  type: "Dropout"
  bottom: "fc6"
  top: "fc6"
  dropout_param {
    dropout_ratio: 0.5
  }
}
layer {
  name: "fc7"
  type: "InnerProduct"
  bottom: "fc6"
  top: "fc7"
  param {
    lr_mult: 1
  }
  param {
    lr_mult: 2
  }
  inner_product_param {
    num_output: 1024
  }
}
layer {
  name: "relu7"
  type: "ReLU"
  bottom: "fc7"
  top: "fc7"
}
layer {
  name: "drop7"
  type: "Dropout"
  bottom: "fc7"
  top: "fc7"
  dropout_param {
    dropout_ratio: 0.5
  }
}
layer {
  name: "cls_score"
  type: "InnerProduct"
  bottom: "fc7"
  top: "cls_score"
  param {
    lr_mult: 1
  }
  param {
    lr_mult: 2
  }
  inner_product_param {
    num_output: 21
    weight_filler {
      type: "gaussian"
      std: 0.01
    }
    bias_filler {
      type: "constant"
      value: 0
    }
  }
}
layer {
  name: "bbox_pred"
  type: "InnerProduct"
  bottom: "fc7"
  top: "bbox_pred"
  param {
    lr_mult: 1
  }
  param {
    lr_mult: 2
  }
  inner_product_param {
    num_output: 84
    weight_filler {
      type: "gaussian"
      std: 0.001
    }
    bias_filler {
      type: "constant"
      value: 0
    }
  }
}
layer {
  name: "loss_cls"
  type: "SoftmaxWithLoss"
  bottom: "cls_score"
  bottom: "labels"
  top: "loss_cls"
  loss_weight: 1
  propagate_down: true
  propagate_down: false
}
layer {
  name: "loss_bbox"
  type: "SmoothL1Loss"
  bottom: "bbox_pred"
  bottom: "bbox_targets"
  bottom: "bbox_inside_weights"
  bottom: "bbox_outside_weights"
  top: "loss_bbox"
  loss_weight: 1
}
I0823 18:51:36.572367 13410 layer_factory.hpp:77] Creating layer input-data
I0823 18:51:36.588096 13410 net.cpp:106] Creating Layer input-data
I0823 18:51:36.588135 13410 net.cpp:411] input-data -> data
I0823 18:51:36.588146 13410 net.cpp:411] input-data -> im_info
I0823 18:51:36.588153 13410 net.cpp:411] input-data -> gt_boxes
RoiDataLayer: name_to_top: {'gt_boxes': 2, 'data': 0, 'im_info': 1}
I0823 18:51:36.600718 13410 net.cpp:150] Setting up input-data
I0823 18:51:36.600750 13410 net.cpp:157] Top shape: 1 3 600 1000 (1800000)
I0823 18:51:36.600756 13410 net.cpp:157] Top shape: 1 3 (3)
I0823 18:51:36.600760 13410 net.cpp:157] Top shape: 1 4 (4)
I0823 18:51:36.600762 13410 net.cpp:165] Memory required for data: 7200028
I0823 18:51:36.600769 13410 layer_factory.hpp:77] Creating layer data_input-data_0_split
I0823 18:51:36.600783 13410 net.cpp:106] Creating Layer data_input-data_0_split
I0823 18:51:36.600790 13410 net.cpp:454] data_input-data_0_split <- data
I0823 18:51:36.600798 13410 net.cpp:411] data_input-data_0_split -> data_input-data_0_split_0
I0823 18:51:36.600808 13410 net.cpp:411] data_input-data_0_split -> data_input-data_0_split_1
I0823 18:51:36.600870 13410 net.cpp:150] Setting up data_input-data_0_split
I0823 18:51:36.600878 13410 net.cpp:157] Top shape: 1 3 600 1000 (1800000)
I0823 18:51:36.600883 13410 net.cpp:157] Top shape: 1 3 600 1000 (1800000)
I0823 18:51:36.600885 13410 net.cpp:165] Memory required for data: 21600028
I0823 18:51:36.600888 13410 layer_factory.hpp:77] Creating layer im_info_input-data_1_split
I0823 18:51:36.600895 13410 net.cpp:106] Creating Layer im_info_input-data_1_split
I0823 18:51:36.600898 13410 net.cpp:454] im_info_input-data_1_split <- im_info
I0823 18:51:36.600903 13410 net.cpp:411] im_info_input-data_1_split -> im_info_input-data_1_split_0
I0823 18:51:36.600910 13410 net.cpp:411] im_info_input-data_1_split -> im_info_input-data_1_split_1
I0823 18:51:36.600958 13410 net.cpp:150] Setting up im_info_input-data_1_split
I0823 18:51:36.600965 13410 net.cpp:157] Top shape: 1 3 (3)
I0823 18:51:36.600968 13410 net.cpp:157] Top shape: 1 3 (3)
I0823 18:51:36.600971 13410 net.cpp:165] Memory required for data: 21600052
I0823 18:51:36.600973 13410 layer_factory.hpp:77] Creating layer gt_boxes_input-data_2_split
I0823 18:51:36.600980 13410 net.cpp:106] Creating Layer gt_boxes_input-data_2_split
I0823 18:51:36.600982 13410 net.cpp:454] gt_boxes_input-data_2_split <- gt_boxes
I0823 18:51:36.600988 13410 net.cpp:411] gt_boxes_input-data_2_split -> gt_boxes_input-data_2_split_0
I0823 18:51:36.600996 13410 net.cpp:411] gt_boxes_input-data_2_split -> gt_boxes_input-data_2_split_1
I0823 18:51:36.601043 13410 net.cpp:150] Setting up gt_boxes_input-data_2_split
I0823 18:51:36.601050 13410 net.cpp:157] Top shape: 1 4 (4)
I0823 18:51:36.601054 13410 net.cpp:157] Top shape: 1 4 (4)
I0823 18:51:36.601056 13410 net.cpp:165] Memory required for data: 21600084
I0823 18:51:36.601059 13410 layer_factory.hpp:77] Creating layer conv1
I0823 18:51:36.601071 13410 net.cpp:106] Creating Layer conv1
I0823 18:51:36.601075 13410 net.cpp:454] conv1 <- data_input-data_0_split_0
I0823 18:51:36.601083 13410 net.cpp:411] conv1 -> conv1
I0823 18:51:36.852828 13410 net.cpp:150] Setting up conv1
I0823 18:51:36.852865 13410 net.cpp:157] Top shape: 1 96 297 497 (14170464)
I0823 18:51:36.852869 13410 net.cpp:165] Memory required for data: 78281940
I0823 18:51:36.852886 13410 layer_factory.hpp:77] Creating layer relu1
I0823 18:51:36.852898 13410 net.cpp:106] Creating Layer relu1
I0823 18:51:36.852902 13410 net.cpp:454] relu1 <- conv1
I0823 18:51:36.852910 13410 net.cpp:397] relu1 -> conv1 (in-place)
I0823 18:51:36.853399 13410 net.cpp:150] Setting up relu1
I0823 18:51:36.853412 13410 net.cpp:157] Top shape: 1 96 297 497 (14170464)
I0823 18:51:36.853415 13410 net.cpp:165] Memory required for data: 134963796
I0823 18:51:36.853418 13410 layer_factory.hpp:77] Creating layer norm1
I0823 18:51:36.853426 13410 net.cpp:106] Creating Layer norm1
I0823 18:51:36.853430 13410 net.cpp:454] norm1 <- conv1
I0823 18:51:36.853436 13410 net.cpp:411] norm1 -> norm1
I0823 18:51:36.853674 13410 net.cpp:150] Setting up norm1
I0823 18:51:36.853685 13410 net.cpp:157] Top shape: 1 96 297 497 (14170464)
I0823 18:51:36.853688 13410 net.cpp:165] Memory required for data: 191645652
I0823 18:51:36.853691 13410 layer_factory.hpp:77] Creating layer pool1
I0823 18:51:36.853698 13410 net.cpp:106] Creating Layer pool1
I0823 18:51:36.853703 13410 net.cpp:454] pool1 <- norm1
I0823 18:51:36.853709 13410 net.cpp:411] pool1 -> pool1
I0823 18:51:36.853767 13410 net.cpp:150] Setting up pool1
I0823 18:51:36.853775 13410 net.cpp:157] Top shape: 1 96 148 248 (3523584)
I0823 18:51:36.853776 13410 net.cpp:165] Memory required for data: 205739988
I0823 18:51:36.853780 13410 layer_factory.hpp:77] Creating layer conv2
I0823 18:51:36.853792 13410 net.cpp:106] Creating Layer conv2
I0823 18:51:36.853796 13410 net.cpp:454] conv2 <- pool1
I0823 18:51:36.853802 13410 net.cpp:411] conv2 -> conv2
I0823 18:51:36.859647 13410 net.cpp:150] Setting up conv2
I0823 18:51:36.859666 13410 net.cpp:157] Top shape: 1 256 73 123 (2298624)
I0823 18:51:36.859669 13410 net.cpp:165] Memory required for data: 214934484
I0823 18:51:36.859681 13410 layer_factory.hpp:77] Creating layer relu2
I0823 18:51:36.859689 13410 net.cpp:106] Creating Layer relu2
I0823 18:51:36.859694 13410 net.cpp:454] relu2 <- conv2
I0823 18:51:36.859699 13410 net.cpp:397] relu2 -> conv2 (in-place)
I0823 18:51:36.860188 13410 net.cpp:150] Setting up relu2
I0823 18:51:36.860200 13410 net.cpp:157] Top shape: 1 256 73 123 (2298624)
I0823 18:51:36.860203 13410 net.cpp:165] Memory required for data: 224128980
I0823 18:51:36.860206 13410 layer_factory.hpp:77] Creating layer norm2
I0823 18:51:36.860214 13410 net.cpp:106] Creating Layer norm2
I0823 18:51:36.860218 13410 net.cpp:454] norm2 <- conv2
I0823 18:51:36.860225 13410 net.cpp:411] norm2 -> norm2
I0823 18:51:36.860455 13410 net.cpp:150] Setting up norm2
I0823 18:51:36.860466 13410 net.cpp:157] Top shape: 1 256 73 123 (2298624)
I0823 18:51:36.860468 13410 net.cpp:165] Memory required for data: 233323476
I0823 18:51:36.860471 13410 layer_factory.hpp:77] Creating layer pool2
I0823 18:51:36.860479 13410 net.cpp:106] Creating Layer pool2
I0823 18:51:36.860482 13410 net.cpp:454] pool2 <- norm2
I0823 18:51:36.860491 13410 net.cpp:411] pool2 -> pool2
I0823 18:51:36.860553 13410 net.cpp:150] Setting up pool2
I0823 18:51:36.860559 13410 net.cpp:157] Top shape: 1 256 36 61 (562176)
I0823 18:51:36.860563 13410 net.cpp:165] Memory required for data: 235572180
I0823 18:51:36.860564 13410 layer_factory.hpp:77] Creating layer conv3
I0823 18:51:36.860574 13410 net.cpp:106] Creating Layer conv3
I0823 18:51:36.860579 13410 net.cpp:454] conv3 <- pool2
I0823 18:51:36.860584 13410 net.cpp:411] conv3 -> conv3
I0823 18:51:36.873121 13410 net.cpp:150] Setting up conv3
I0823 18:51:36.873152 13410 net.cpp:157] Top shape: 1 512 36 61 (1124352)
I0823 18:51:36.873155 13410 net.cpp:165] Memory required for data: 240069588
I0823 18:51:36.873170 13410 layer_factory.hpp:77] Creating layer relu3
I0823 18:51:36.873188 13410 net.cpp:106] Creating Layer relu3
I0823 18:51:36.873193 13410 net.cpp:454] relu3 <- conv3
I0823 18:51:36.873199 13410 net.cpp:397] relu3 -> conv3 (in-place)
I0823 18:51:36.873401 13410 net.cpp:150] Setting up relu3
I0823 18:51:36.873414 13410 net.cpp:157] Top shape: 1 512 36 61 (1124352)
I0823 18:51:36.873416 13410 net.cpp:165] Memory required for data: 244566996
I0823 18:51:36.873420 13410 layer_factory.hpp:77] Creating layer conv4
I0823 18:51:36.873430 13410 net.cpp:106] Creating Layer conv4
I0823 18:51:36.873433 13410 net.cpp:454] conv4 <- conv3
I0823 18:51:36.873440 13410 net.cpp:411] conv4 -> conv4
I0823 18:51:36.890080 13410 net.cpp:150] Setting up conv4
I0823 18:51:36.890113 13410 net.cpp:157] Top shape: 1 512 36 61 (1124352)
I0823 18:51:36.890116 13410 net.cpp:165] Memory required for data: 249064404
I0823 18:51:36.890127 13410 layer_factory.hpp:77] Creating layer relu4
I0823 18:51:36.890139 13410 net.cpp:106] Creating Layer relu4
I0823 18:51:36.890143 13410 net.cpp:454] relu4 <- conv4
I0823 18:51:36.890151 13410 net.cpp:397] relu4 -> conv4 (in-place)
I0823 18:51:36.890708 13410 net.cpp:150] Setting up relu4
I0823 18:51:36.890722 13410 net.cpp:157] Top shape: 1 512 36 61 (1124352)
I0823 18:51:36.890725 13410 net.cpp:165] Memory required for data: 253561812
I0823 18:51:36.890729 13410 layer_factory.hpp:77] Creating layer conv5
I0823 18:51:36.890744 13410 net.cpp:106] Creating Layer conv5
I0823 18:51:36.890748 13410 net.cpp:454] conv5 <- conv4
I0823 18:51:36.890755 13410 net.cpp:411] conv5 -> conv5
I0823 18:51:36.907294 13410 net.cpp:150] Setting up conv5
I0823 18:51:36.907332 13410 net.cpp:157] Top shape: 1 512 36 61 (1124352)
I0823 18:51:36.907336 13410 net.cpp:165] Memory required for data: 258059220
I0823 18:51:36.907351 13410 layer_factory.hpp:77] Creating layer relu5
I0823 18:51:36.907363 13410 net.cpp:106] Creating Layer relu5
I0823 18:51:36.907368 13410 net.cpp:454] relu5 <- conv5
I0823 18:51:36.907377 13410 net.cpp:397] relu5 -> conv5 (in-place)
I0823 18:51:36.907572 13410 net.cpp:150] Setting up relu5
I0823 18:51:36.907584 13410 net.cpp:157] Top shape: 1 512 36 61 (1124352)
I0823 18:51:36.907588 13410 net.cpp:165] Memory required for data: 262556628
I0823 18:51:36.907595 13410 layer_factory.hpp:77] Creating layer conv5_relu5_0_split
I0823 18:51:36.907603 13410 net.cpp:106] Creating Layer conv5_relu5_0_split
I0823 18:51:36.907605 13410 net.cpp:454] conv5_relu5_0_split <- conv5
I0823 18:51:36.907613 13410 net.cpp:411] conv5_relu5_0_split -> conv5_relu5_0_split_0
I0823 18:51:36.907620 13410 net.cpp:411] conv5_relu5_0_split -> conv5_relu5_0_split_1
I0823 18:51:36.907696 13410 net.cpp:150] Setting up conv5_relu5_0_split
I0823 18:51:36.907703 13410 net.cpp:157] Top shape: 1 512 36 61 (1124352)
I0823 18:51:36.907707 13410 net.cpp:157] Top shape: 1 512 36 61 (1124352)
I0823 18:51:36.907711 13410 net.cpp:165] Memory required for data: 271551444
I0823 18:51:36.907712 13410 layer_factory.hpp:77] Creating layer rpn_conv/3x3
I0823 18:51:36.907727 13410 net.cpp:106] Creating Layer rpn_conv/3x3
I0823 18:51:36.907732 13410 net.cpp:454] rpn_conv/3x3 <- conv5_relu5_0_split_0
I0823 18:51:36.907738 13410 net.cpp:411] rpn_conv/3x3 -> rpn/output
I0823 18:51:36.928720 13410 net.cpp:150] Setting up rpn_conv/3x3
I0823 18:51:36.928762 13410 net.cpp:157] Top shape: 1 256 36 61 (562176)
I0823 18:51:36.928766 13410 net.cpp:165] Memory required for data: 273800148
I0823 18:51:36.928776 13410 layer_factory.hpp:77] Creating layer rpn_relu/3x3
I0823 18:51:36.928786 13410 net.cpp:106] Creating Layer rpn_relu/3x3
I0823 18:51:36.928791 13410 net.cpp:454] rpn_relu/3x3 <- rpn/output
I0823 18:51:36.928797 13410 net.cpp:397] rpn_relu/3x3 -> rpn/output (in-place)
I0823 18:51:36.929306 13410 net.cpp:150] Setting up rpn_relu/3x3
I0823 18:51:36.929322 13410 net.cpp:157] Top shape: 1 256 36 61 (562176)
I0823 18:51:36.929324 13410 net.cpp:165] Memory required for data: 276048852
I0823 18:51:36.929328 13410 layer_factory.hpp:77] Creating layer rpn/output_rpn_relu/3x3_0_split
I0823 18:51:36.929335 13410 net.cpp:106] Creating Layer rpn/output_rpn_relu/3x3_0_split
I0823 18:51:36.929338 13410 net.cpp:454] rpn/output_rpn_relu/3x3_0_split <- rpn/output
I0823 18:51:36.929347 13410 net.cpp:411] rpn/output_rpn_relu/3x3_0_split -> rpn/output_rpn_relu/3x3_0_split_0
I0823 18:51:36.929354 13410 net.cpp:411] rpn/output_rpn_relu/3x3_0_split -> rpn/output_rpn_relu/3x3_0_split_1
I0823 18:51:36.929425 13410 net.cpp:150] Setting up rpn/output_rpn_relu/3x3_0_split
I0823 18:51:36.929433 13410 net.cpp:157] Top shape: 1 256 36 61 (562176)
I0823 18:51:36.929437 13410 net.cpp:157] Top shape: 1 256 36 61 (562176)
I0823 18:51:36.929440 13410 net.cpp:165] Memory required for data: 280546260
I0823 18:51:36.929442 13410 layer_factory.hpp:77] Creating layer rpn_cls_score
I0823 18:51:36.929456 13410 net.cpp:106] Creating Layer rpn_cls_score
I0823 18:51:36.929461 13410 net.cpp:454] rpn_cls_score <- rpn/output_rpn_relu/3x3_0_split_0
I0823 18:51:36.929468 13410 net.cpp:411] rpn_cls_score -> rpn_cls_score
I0823 18:51:36.931354 13410 net.cpp:150] Setting up rpn_cls_score
I0823 18:51:36.931371 13410 net.cpp:157] Top shape: 1 18 36 61 (39528)
I0823 18:51:36.931375 13410 net.cpp:165] Memory required for data: 280704372
I0823 18:51:36.931382 13410 layer_factory.hpp:77] Creating layer rpn_cls_score_rpn_cls_score_0_split
I0823 18:51:36.931391 13410 net.cpp:106] Creating Layer rpn_cls_score_rpn_cls_score_0_split
I0823 18:51:36.931394 13410 net.cpp:454] rpn_cls_score_rpn_cls_score_0_split <- rpn_cls_score
I0823 18:51:36.931401 13410 net.cpp:411] rpn_cls_score_rpn_cls_score_0_split -> rpn_cls_score_rpn_cls_score_0_split_0
I0823 18:51:36.931408 13410 net.cpp:411] rpn_cls_score_rpn_cls_score_0_split -> rpn_cls_score_rpn_cls_score_0_split_1
I0823 18:51:36.931471 13410 net.cpp:150] Setting up rpn_cls_score_rpn_cls_score_0_split
I0823 18:51:36.931479 13410 net.cpp:157] Top shape: 1 18 36 61 (39528)
I0823 18:51:36.931483 13410 net.cpp:157] Top shape: 1 18 36 61 (39528)
I0823 18:51:36.931485 13410 net.cpp:165] Memory required for data: 281020596
I0823 18:51:36.931488 13410 layer_factory.hpp:77] Creating layer rpn_bbox_pred
I0823 18:51:36.931500 13410 net.cpp:106] Creating Layer rpn_bbox_pred
I0823 18:51:36.931505 13410 net.cpp:454] rpn_bbox_pred <- rpn/output_rpn_relu/3x3_0_split_1
I0823 18:51:36.931512 13410 net.cpp:411] rpn_bbox_pred -> rpn_bbox_pred
I0823 18:51:36.933251 13410 net.cpp:150] Setting up rpn_bbox_pred
I0823 18:51:36.933266 13410 net.cpp:157] Top shape: 1 36 36 61 (79056)
I0823 18:51:36.933269 13410 net.cpp:165] Memory required for data: 281336820
I0823 18:51:36.933275 13410 layer_factory.hpp:77] Creating layer rpn_bbox_pred_rpn_bbox_pred_0_split
I0823 18:51:36.933284 13410 net.cpp:106] Creating Layer rpn_bbox_pred_rpn_bbox_pred_0_split
I0823 18:51:36.933286 13410 net.cpp:454] rpn_bbox_pred_rpn_bbox_pred_0_split <- rpn_bbox_pred
I0823 18:51:36.933293 13410 net.cpp:411] rpn_bbox_pred_rpn_bbox_pred_0_split -> rpn_bbox_pred_rpn_bbox_pred_0_split_0
I0823 18:51:36.933300 13410 net.cpp:411] rpn_bbox_pred_rpn_bbox_pred_0_split -> rpn_bbox_pred_rpn_bbox_pred_0_split_1
I0823 18:51:36.933362 13410 net.cpp:150] Setting up rpn_bbox_pred_rpn_bbox_pred_0_split
I0823 18:51:36.933369 13410 net.cpp:157] Top shape: 1 36 36 61 (79056)
I0823 18:51:36.933373 13410 net.cpp:157] Top shape: 1 36 36 61 (79056)
I0823 18:51:36.933375 13410 net.cpp:165] Memory required for data: 281969268
I0823 18:51:36.933379 13410 layer_factory.hpp:77] Creating layer rpn_cls_score_reshape
I0823 18:51:36.933387 13410 net.cpp:106] Creating Layer rpn_cls_score_reshape
I0823 18:51:36.933393 13410 net.cpp:454] rpn_cls_score_reshape <- rpn_cls_score_rpn_cls_score_0_split_0
I0823 18:51:36.933398 13410 net.cpp:411] rpn_cls_score_reshape -> rpn_cls_score_reshape
I0823 18:51:36.933436 13410 net.cpp:150] Setting up rpn_cls_score_reshape
I0823 18:51:36.933444 13410 net.cpp:157] Top shape: 1 2 324 61 (39528)
I0823 18:51:36.933445 13410 net.cpp:165] Memory required for data: 282127380
I0823 18:51:36.933449 13410 layer_factory.hpp:77] Creating layer rpn_cls_score_reshape_rpn_cls_score_reshape_0_split
I0823 18:51:36.933454 13410 net.cpp:106] Creating Layer rpn_cls_score_reshape_rpn_cls_score_reshape_0_split
I0823 18:51:36.933457 13410 net.cpp:454] rpn_cls_score_reshape_rpn_cls_score_reshape_0_split <- rpn_cls_score_reshape
I0823 18:51:36.933462 13410 net.cpp:411] rpn_cls_score_reshape_rpn_cls_score_reshape_0_split -> rpn_cls_score_reshape_rpn_cls_score_reshape_0_split_0
I0823 18:51:36.933470 13410 net.cpp:411] rpn_cls_score_reshape_rpn_cls_score_reshape_0_split -> rpn_cls_score_reshape_rpn_cls_score_reshape_0_split_1
I0823 18:51:36.933526 13410 net.cpp:150] Setting up rpn_cls_score_reshape_rpn_cls_score_reshape_0_split
I0823 18:51:36.933532 13410 net.cpp:157] Top shape: 1 2 324 61 (39528)
I0823 18:51:36.933537 13410 net.cpp:157] Top shape: 1 2 324 61 (39528)
I0823 18:51:36.933538 13410 net.cpp:165] Memory required for data: 282443604
I0823 18:51:36.933542 13410 layer_factory.hpp:77] Creating layer rpn-data
I0823 18:51:36.934075 13410 net.cpp:106] Creating Layer rpn-data
I0823 18:51:36.934088 13410 net.cpp:454] rpn-data <- rpn_cls_score_rpn_cls_score_0_split_1
I0823 18:51:36.934094 13410 net.cpp:454] rpn-data <- gt_boxes_input-data_2_split_0
I0823 18:51:36.934099 13410 net.cpp:454] rpn-data <- im_info_input-data_1_split_0
I0823 18:51:36.934103 13410 net.cpp:454] rpn-data <- data_input-data_0_split_1
I0823 18:51:36.934108 13410 net.cpp:411] rpn-data -> rpn_labels
I0823 18:51:36.934124 13410 net.cpp:411] rpn-data -> rpn_bbox_targets
I0823 18:51:36.934134 13410 net.cpp:411] rpn-data -> rpn_bbox_inside_weights
I0823 18:51:36.934144 13410 net.cpp:411] rpn-data -> rpn_bbox_outside_weights
I0823 18:51:36.937181 13410 net.cpp:150] Setting up rpn-data
I0823 18:51:36.937202 13410 net.cpp:157] Top shape: 1 1 324 61 (19764)
I0823 18:51:36.937207 13410 net.cpp:157] Top shape: 1 36 36 61 (79056)
I0823 18:51:36.937211 13410 net.cpp:157] Top shape: 1 36 36 61 (79056)
I0823 18:51:36.937213 13410 net.cpp:157] Top shape: 1 36 36 61 (79056)
I0823 18:51:36.937216 13410 net.cpp:165] Memory required for data: 283471332
I0823 18:51:36.937219 13410 layer_factory.hpp:77] Creating layer rpn_loss_cls
I0823 18:51:36.937229 13410 net.cpp:106] Creating Layer rpn_loss_cls
I0823 18:51:36.937232 13410 net.cpp:454] rpn_loss_cls <- rpn_cls_score_reshape_rpn_cls_score_reshape_0_split_0
I0823 18:51:36.937238 13410 net.cpp:454] rpn_loss_cls <- rpn_labels
…
I0823 18:51:36.938735 13410 net.cpp:157] Top shape: (1)
I0823 18:51:36.938737 13410 net.cpp:160]     with loss weight 1
I0823 18:51:36.938742 13410 net.cpp:165] Memory required for data: 283471340
I0823 18:51:36.938745 13410 layer_factory.hpp:77] Creating layer rpn_cls_prob
I0823 18:51:36.938750 13410 net.cpp:106] Creating Layer rpn_cls_prob
I0823 18:51:36.938755 13410 net.cpp:454] rpn_cls_prob <- rpn_cls_score_reshape_rpn_cls_score_reshape_0_split_1
I0823 18:51:36.938760 13410 net.cpp:411] rpn_cls_prob -> rpn_cls_prob
I0823 18:51:36.939075 13410 net.cpp:150] Setting up rpn_cls_prob
I0823 18:51:36.939087 13410 net.cpp:157] Top shape: 1 2 324 61 (39528)
I0823 18:51:36.939090 13410 net.cpp:165] Memory required for data: 283629452
I0823 18:51:36.939093 13410 layer_factory.hpp:77] Creating layer rpn_cls_prob_reshape
I0823 18:51:36.939108 13410 net.cpp:106] Creating Layer rpn_cls_prob_reshape
I0823 18:51:36.939113 13410 net.cpp:454] rpn_cls_prob_reshape <- rpn_cls_prob
I0823 18:51:36.939119 13410 net.cpp:411] rpn_cls_prob_reshape -> rpn_cls_prob_reshape
I0823 18:51:36.939162 13410 net.cpp:150] Setting up rpn_cls_prob_reshape
I0823 18:51:36.939169 13410 net.cpp:157] Top shape: 1 18 36 61 (39528)
I0823 18:51:36.939172 13410 net.cpp:165] Memory required for data: 283787564
I0823 18:51:36.939175 13410 layer_factory.hpp:77] Creating layer proposal
I0823 18:51:36.949692 13410 net.cpp:106] Creating Layer proposal
I0823 18:51:36.949715 13410 net.cpp:454] proposal <- rpn_cls_prob_reshape
I0823 18:51:36.949723 13410 net.cpp:454] proposal <- rpn_bbox_pred_rpn_bbox_pred_0_split_1
I0823 18:51:36.949728 13410 net.cpp:454] proposal <- im_info_input-data_1_split_1
I0823 18:51:36.949734 13410 net.cpp:411] proposal -> rpn_rois
I0823 18:51:36.955205 13410 net.cpp:150] Setting up proposal
I0823 18:51:36.955226 13410 net.cpp:157] Top shape: 1 5 (5)
I0823 18:51:36.955230 13410 net.cpp:165] Memory required for data: 283787584
I0823 18:51:36.955235 13410 layer_factory.hpp:77] Creating layer roi-data
I0823 18:51:36.955431 13410 net.cpp:106] Creating Layer roi-data
I0823 18:51:36.955442 13410 net.cpp:454] roi-data <- rpn_rois
I0823 18:51:36.955449 13410 net.cpp:454] roi-data <- gt_boxes_input-data_2_split_1
I0823 18:51:36.955456 13410 net.cpp:411] roi-data -> rois
I0823 18:51:36.955466 13410 net.cpp:411] roi-data -> labels
I0823 18:51:36.955476 13410 net.cpp:411] roi-data -> bbox_targets
I0823 18:51:36.955483 13410 net.cpp:411] roi-data -> bbox_inside_weights
I0823 18:51:36.955490 13410 net.cpp:411] roi-data -> bbox_outside_weights
I0823 18:51:36.956030 13410 net.cpp:150] Setting up roi-data
I0823 18:51:36.956044 13410 net.cpp:157] Top shape: 1 5 (5)
I0823 18:51:36.956048 13410 net.cpp:157] Top shape: 1 1 (1)
I0823 18:51:36.956051 13410 net.cpp:157] Top shape: 1 84 (84)
I0823 18:51:36.956054 13410 net.cpp:157] Top shape: 1 84 (84)
I0823 18:51:36.956058 13410 net.cpp:157] Top shape: 1 84 (84)
I0823 18:51:36.956059 13410 net.cpp:165] Memory required for data: 283788616
I0823 18:51:36.956063 13410 layer_factory.hpp:77] Creating layer roi_pool5
I0823 18:51:36.956070 13410 net.cpp:106] Creating Layer roi_pool5
I0823 18:51:36.956074 13410 net.cpp:454] roi_pool5 <- conv5_relu5_0_split_1
I0823 18:51:36.956079 13410 net.cpp:454] roi_pool5 <- rois
I0823 18:51:36.956084 13410 net.cpp:411] roi_pool5 -> pool5
I0823 18:51:36.956091 13410 roi_pooling_layer.cpp:30] Spatial scale: 0.0625
I0823 18:51:36.956158 13410 net.cpp:150] Setting up roi_pool5
I0823 18:51:36.956166 13410 net.cpp:157] Top shape: 1 512 6 6 (18432)
I0823 18:51:36.956168 13410 net.cpp:165] Memory required for data: 283862344
I0823 18:51:36.956171 13410 layer_factory.hpp:77] Creating layer fc6
I0823 18:51:36.956179 13410 net.cpp:106] Creating Layer fc6
I0823 18:51:36.956183 13410 net.cpp:454] fc6 <- pool5
I0823 18:51:36.956189 13410 net.cpp:411] fc6 -> fc6
I0823 18:51:37.392755 13410 net.cpp:150] Setting up fc6
I0823 18:51:37.392793 13410 net.cpp:157] Top shape: 1 4096 (4096)
I0823 18:51:37.392796 13410 net.cpp:165] Memory required for data: 283878728
I0823 18:51:37.392814 13410 layer_factory.hpp:77] Creating layer relu6
I0823 18:51:37.392827 13410 net.cpp:106] Creating Layer relu6
I0823 18:51:37.392832 13410 net.cpp:454] relu6 <- fc6
I0823 18:51:37.392840 13410 net.cpp:397] relu6 -> fc6 (in-place)
I0823 18:51:37.393579 13410 net.cpp:150] Setting up relu6
I0823 18:51:37.393595 13410 net.cpp:157] Top shape: 1 4096 (4096)
I0823 18:51:37.393599 13410 net.cpp:165] Memory required for data: 283895112
I0823 18:51:37.393601 13410 layer_factory.hpp:77] Creating layer drop6
I0823 18:51:37.393610 13410 net.cpp:106] Creating Layer drop6
I0823 18:51:37.393615 13410 net.cpp:454] drop6 <- fc6
I0823 18:51:37.393620 13410 net.cpp:397] drop6 -> fc6 (in-place)
I0823 18:51:37.393668 13410 net.cpp:150] Setting up drop6
I0823 18:51:37.393676 13410 net.cpp:157] Top shape: 1 4096 (4096)
I0823 18:51:37.393677 13410 net.cpp:165] Memory required for data: 283911496
I0823 18:51:37.393681 13410 layer_factory.hpp:77] Creating layer fc7
I0823 18:51:37.393688 13410 net.cpp:106] Creating Layer fc7
I0823 18:51:37.393692 13410 net.cpp:454] fc7 <- fc6
I0823 18:51:37.393698 13410 net.cpp:411] fc7 -> fc7
I0823 18:51:37.418676 13410 net.cpp:150] Setting up fc7
I0823 18:51:37.418732 13410 net.cpp:157] Top shape: 1 1024 (1024)
I0823 18:51:37.418735 13410 net.cpp:165] Memory required for data: 283915592
I0823 18:51:37.418745 13410 layer_factory.hpp:77] Creating layer relu7
I0823 18:51:37.418756 13410 net.cpp:106] Creating Layer relu7
I0823 18:51:37.418761 13410 net.cpp:454] relu7 <- fc7
I0823 18:51:37.418781 13410 net.cpp:397] relu7 -> fc7 (in-place)
I0823 18:51:37.419061 13410 net.cpp:150] Setting up relu7
I0823 18:51:37.419073 13410 net.cpp:157] Top shape: 1 1024 (1024)
I0823 18:51:37.419076 13410 net.cpp:165] Memory required for data: 283919688
I0823 18:51:37.419080 13410 layer_factory.hpp:77] Creating layer drop7
I0823 18:51:37.419086 13410 net.cpp:106] Creating Layer drop7
I0823 18:51:37.419090 13410 net.cpp:454] drop7 <- fc7
I0823 18:51:37.419095 13410 net.cpp:397] drop7 -> fc7 (in-place)
I0823 18:51:37.419138 13410 net.cpp:150] Setting up drop7
I0823 18:51:37.419147 13410 net.cpp:157] Top shape: 1 1024 (1024)
I0823 18:51:37.419148 13410 net.cpp:165] Memory required for data: 283923784
I0823 18:51:37.419152 13410 layer_factory.hpp:77] Creating layer fc7_drop7_0_split
I0823 18:51:37.419158 13410 net.cpp:106] Creating Layer fc7_drop7_0_split
I0823 18:51:37.419160 13410 net.cpp:454] fc7_drop7_0_split <- fc7
I0823 18:51:37.419167 13410 net.cpp:411] fc7_drop7_0_split -> fc7_drop7_0_split_0
I0823 18:51:37.419176 13410 net.cpp:411] fc7_drop7_0_split -> fc7_drop7_0_split_1
I0823 18:51:37.419247 13410 net.cpp:150] Setting up fc7_drop7_0_split
I0823 18:51:37.419255 13410 net.cpp:157] Top shape: 1 1024 (1024)
I0823 18:51:37.419258 13410 net.cpp:157] Top shape: 1 1024 (1024)
I0823 18:51:37.419260 13410 net.cpp:165] Memory required for data: 283931976
I0823 18:51:37.419262 13410 layer_factory.hpp:77] Creating layer cls_score
I0823 18:51:37.419271 13410 net.cpp:106] Creating Layer cls_score
I0823 18:51:37.419275 13410 net.cpp:454] cls_score <- fc7_drop7_0_split_0
I0823 18:51:37.419282 13410 net.cpp:411] cls_score -> cls_score
I0823 18:51:37.419730 13410 net.cpp:150] Setting up cls_score
I0823 18:51:37.419739 13410 net.cpp:157] Top shape: 1 21 (21)
I0823 18:51:37.419741 13410 net.cpp:165] Memory required for data: 283932060
I0823 18:51:37.419747 13410 layer_factory.hpp:77] Creating layer bbox_pred
I0823 18:51:37.419754 13410 net.cpp:106] Creating Layer bbox_pred
I0823 18:51:37.419759 13410 net.cpp:454] bbox_pred <- fc7_drop7_0_split_1
I0823 18:51:37.419765 13410 net.cpp:411] bbox_pred -> bbox_pred
I0823 18:51:37.423233 13410 net.cpp:150] Setting up bbox_pred
I0823 18:51:37.423252 13410 net.cpp:157] Top shape: 1 84 (84)
I0823 18:51:37.423255 13410 net.cpp:165] Memory required for data: 283932396
I0823 18:51:37.423262 13410 layer_factory.hpp:77] Creating layer loss_cls
I0823 18:51:37.423272 13410 net.cpp:106] Creating Layer loss_cls
I0823 18:51:37.423277 13410 net.cpp:454] loss_cls <- cls_score
I0823 18:51:37.423283 13410 net.cpp:454] loss_cls <- labels
I0823 18:51:37.423290 13410 net.cpp:411] loss_cls -> loss_cls
…
           'RPN_POST_NMS_TOP_N': 2000,
           'RPN_PRE_NMS_TOP_N': 12000,
           'SCALES': [600],
           'SNAPSHOT_INFIX': '',
           'SNAPSHOT_ITERS': 10000,
           'USE_FLIPPED': True,
           'USE_PREFETCH': False},
 'USE_GPU_NMS': True}
WARNING: Logging before InitGoogleLogging() is written to STDERR
I0823 20:40:39.089285 16081 net.cpp:49] Initializing net from parameters: 
name: "VGG_CNN_M_1024"
input: "data"
input: "im_info"
state {
  phase: TEST
}
input_shape {
  dim: 1
  dim: 3
  dim: 224
  dim: 224
}
input_shape {
  dim: 1
  dim: 3
}
layer {
  name: "conv1"
  type: "Convolution"
  bottom: "data"
  top: "conv1"
  param {
    lr_mult: 0
    decay_mult: 0
  }
  param {
    lr_mult: 0
    decay_mult: 0
  }
  convolution_param {
    num_output: 96
    kernel_size: 7
    stride: 2
  }
}
layer {
  name: "relu1"
  type: "ReLU"
  bottom: "conv1"
  top: "conv1"
}
layer {
  name: "norm1"
  type: "LRN"
  bottom: "conv1"
  top: "norm1"
  lrn_param {
    local_size: 5
    alpha: 0.0005
    beta: 0.75
    k: 2
  }
}
layer {
  name: "pool1"
  type: "Pooling"
  bottom: "norm1"
  top: "pool1"
  pooling_param {
    pool: MAX
    kernel_size: 3
    stride: 2
  }
}
layer {
  name: "conv2"
  type: "Convolution"
  bottom: "pool1"
  top: "conv2"
  param {
    lr_mult: 1
    decay_mult: 1
  }
  param {
    lr_mult: 2
    decay_mult: 0
  }
  convolution_param {
    num_output: 256
    pad: 1
    kernel_size: 5
    stride: 2
  }
}
layer {
  name: "relu2"
  type: "ReLU"
  bottom: "conv2"
  top: "conv2"
}
layer {
  name: "norm2"
  type: "LRN"
  bottom: "conv2"
  top: "norm2"
  lrn_param {
    local_size: 5
    alpha: 0.0005
    beta: 0.75
    k: 2
  }
}
layer {
  name: "pool2"
  type: "Pooling"
  bottom: "norm2"
  top: "pool2"
  pooling_param {
    pool: MAX
    kernel_size: 3
    stride: 2
  }
}
layer {
  name: "conv3"
  type: "Convolution"
  bottom: "pool2"
  top: "conv3"
  param {
    lr_mult: 1
    decay_mult: 1
  }
  param {
    lr_mult: 2
    decay_mult: 0
  }
  convolution_param {
    num_output: 512
    pad: 1
    kernel_size: 3
  }
}
layer {
  name: "relu3"
  type: "ReLU"
  bottom: "conv3"
  top: "conv3"
}
layer {
  name: "conv4"
  type: "Convolution"
  bottom: "conv3"
  top: "conv4"
  param {
    lr_mult: 1
    decay_mult: 1
  }
  param {
    lr_mult: 2
    decay_mult: 0
  }
  convolution_param {
    num_output: 512
    pad: 1
    kernel_size: 3
  }
}
layer {
  name: "relu4"
  type: "ReLU"
  bottom: "conv4"
  top: "conv4"
}
layer {
  name: "conv5"
  type: "Convolution"
  bottom: "conv4"
  top: "conv5"
  param {
    lr_mult: 1
    decay_mult: 1
  }
  param {
    lr_mult: 2
    decay_mult: 0
  }
  convolution_param {
    num_output: 512
    pad: 1
    kernel_size: 3
  }
}
layer {
  name: "relu5"
  type: "ReLU"
  bottom: "conv5"
  top: "conv5"
}
layer {
  name: "rpn_conv/3x3"
  type: "Convolution"
  bottom: "conv5"
  top: "rpn/output"
  param {
    lr_mult: 1
    decay_mult: 1
  }
  param {
    lr_mult: 2
    decay_mult: 0
  }
  convolution_param {
    num_output: 256
    pad: 1
    kernel_size: 3
    stride: 1
    weight_filler {
      type: "gaussian"
      std: 0.01
    }
    bias_filler {
      type: "constant"
      value: 0
    }
  }
}
layer {
  name: "rpn_relu/3x3"
  type: "ReLU"
  bottom: "rpn/output"
  top: "rpn/output"
}
layer {
  name: "rpn_cls_score"
  type: "Convolution"
  bottom: "rpn/output"
  top: "rpn_cls_score"
  param {
    lr_mult: 1
    decay_mult: 1
  }
  param {
    lr_mult: 2
    decay_mult: 0
  }
  convolution_param {
    num_output: 18
    pad: 0
    kernel_size: 1
    stride: 1
    weight_filler {
      type: "gaussian"
      std: 0.01
    }
    bias_filler {
      type: "constant"
      value: 0
    }
  }
}
layer {
  name: "rpn_bbox_pred"
  type: "Convolution"
  bottom: "rpn/output"
  top: "rpn_bbox_pred"
  param {
    lr_mult: 1
    decay_mult: 1
  }
  param {
    lr_mult: 2
    decay_mult: 0
  }
  convolution_param {
    num_output: 36
    pad: 0
    kernel_size: 1
    stride: 1
    weight_filler {
      type: "gaussian"
      std: 0.01
    }
    bias_filler {
      type: "constant"
      value: 0
    }
  }
}
layer {
  name: "rpn_cls_score_reshape"
  type: "Reshape"
  bottom: "rpn_cls_score"
  top: "rpn_cls_score_reshape"
  reshape_param {
    shape {
      dim: 0
      dim: 2
      dim: -1
      dim: 0
    }
  }
}
layer {
  name: "rpn_cls_prob"
  type: "Softmax"
  bottom: "rpn_cls_score_reshape"
  top: "rpn_cls_prob"
}
layer {
  name: "rpn_cls_prob_reshape"
  type: "Reshape"
  bottom: "rpn_cls_prob"
  top: "rpn_cls_prob_reshape"
  reshape_param {
    shape {
      dim: 0
      dim: 18
      dim: -1
      dim: 0
    }
  }
}
layer {
  name: "proposal"
  type: "Python"
  bottom: "rpn_cls_prob_reshape"
  bottom: "rpn_bbox_pred"
  bottom: "im_info"
  top: "rois"
  python_param {
    module: "rpn.proposal_layer"
    layer: "ProposalLayer"
    param_str: "\'feat_stride\': 16"
  }
}
layer {
  name: "roi_pool5"
  type: "ROIPooling"
  bottom: "conv5"
  bottom: "rois"
  top: "pool5"
  roi_pooling_param {
    pooled_h: 6
    pooled_w: 6
    spatial_scale: 0.0625
  }
}
layer {
  name: "fc6"
  type: "InnerProduct"
  bottom: "pool5"
  top: "fc6"
  param {
    lr_mult: 1
    decay_mult: 1
  }
  param {
    lr_mult: 2
    decay_mult: 0
  }
  inner_product_param {
    num_output: 4096
  }
}
layer {
  name: "relu6"
  type: "ReLU"
  bottom: "fc6"
  top: "fc6"
}
layer {
  name: "drop6"
  type: "Dropout"
  bottom: "fc6"
  top: "fc6"
  dropout_param {
    dropout_ratio: 0.5
  }
}
layer {
  name: "fc7"
  type: "InnerProduct"
  bottom: "fc6"
  top: "fc7"
  param {
    lr_mult: 1
    decay_mult: 1
  }
  param {
    lr_mult: 2
    decay_mult: 0
  }
  inner_product_param {
    num_output: 1024
  }
}
layer {
  name: "relu7"
  type: "ReLU"
  bottom: "fc7"
  top: "fc7"
}
layer {
  name: "drop7"
  type: "Dropout"
  bottom: "fc7"
  top: "fc7"
  dropout_param {
    dropout_ratio: 0.5
  }
}
layer {
  name: "cls_score"
  type: "InnerProduct"
  bottom: "fc7"
  top: "cls_score"
  param {
    lr_mult: 1
    decay_mult: 1
  }
  param {
    lr_mult: 2
    decay_mult: 0
  }
  inner_product_param {
    num_output: 21
    weight_filler {
      type: "gaussian"
      std: 0.01
    }
    bias_filler {
      type: "constant"
      value: 0
    }
  }
}
layer {
  name: "bbox_pred"
  type: "InnerProduct"
  bottom: "fc7"
  top: "bbox_pred"
  param {
    lr_mult: 1
    decay_mult: 1
  }
  param {
    lr_mult: 2
    decay_mult: 0
  }
  inner_product_param {
    num_output: 84
    weight_filler {
      type: "gaussian"
      std: 0.001
    }
    bias_filler {
      type: "constant"
      value: 0
    }
  }
}
layer {
  name: "cls_prob"
  type: "Softmax"
  bottom: "cls_score"
  top: "cls_prob"
}
I0823 20:40:39.089462 16081 net.cpp:413] Input 0 -> data
I0823 20:40:39.109096 16081 net.cpp:413] Input 1 -> im_info
I0823 20:40:39.109171 16081 layer_factory.hpp:77] Creating layer conv1
I0823 20:40:39.109194 16081 net.cpp:106] Creating Layer conv1
I0823 20:40:39.109200 16081 net.cpp:454] conv1 <- data
I0823 20:40:39.109207 16081 net.cpp:411] conv1 -> conv1
I0823 20:40:39.365442 16081 net.cpp:150] Setting up conv1
I0823 20:40:39.365484 16081 net.cpp:157] Top shape: 1 96 109 109 (1140576)
I0823 20:40:39.365491 16081 net.cpp:165] Memory required for data: 4562304
I0823 20:40:39.365515 16081 layer_factory.hpp:77] Creating layer relu1
I0823 20:40:39.365533 16081 net.cpp:106] Creating Layer relu1
I0823 20:40:39.365540 16081 net.cpp:454] relu1 <- conv1
I0823 20:40:39.365548 16081 net.cpp:397] relu1 -> conv1 (in-place)
I0823 20:40:39.366194 16081 net.cpp:150] Setting up relu1
I0823 20:40:39.366216 16081 net.cpp:157] Top shape: 1 96 109 109 (1140576)
I0823 20:40:39.366221 16081 net.cpp:165] Memory required for data: 9124608
I0823 20:40:39.366227 16081 layer_factory.hpp:77] Creating layer norm1
I0823 20:40:39.366241 16081 net.cpp:106] Creating Layer norm1
I0823 20:40:39.366250 16081 net.cpp:454] norm1 <- conv1
I0823 20:40:39.366258 16081 net.cpp:411] norm1 -> norm1
I0823 20:40:39.366595 16081 net.cpp:150] Setting up norm1
I0823 20:40:39.366611 16081 net.cpp:157] Top shape: 1 96 109 109 (1140576)
I0823 20:40:39.366616 16081 net.cpp:165] Memory required for data: 13686912
I0823 20:40:39.366621 16081 layer_factory.hpp:77] Creating layer pool1
I0823 20:40:39.366629 16081 net.cpp:106] Creating Layer pool1
I0823 20:40:39.366634 16081 net.cpp:454] pool1 <- norm1
I0823 20:40:39.366641 16081 net.cpp:411] pool1 -> pool1
I0823 20:40:39.366729 16081 net.cpp:150] Setting up pool1
I0823 20:40:39.366740 16081 net.cpp:157] Top shape: 1 96 54 54 (279936)
I0823 20:40:39.366746 16081 net.cpp:165] Memory required for data: 14806656
I0823 20:40:39.366751 16081 layer_factory.hpp:77] Creating layer conv2
I0823 20:40:39.366765 16081 net.cpp:106] Creating Layer conv2
I0823 20:40:39.366771 16081 net.cpp:454] conv2 <- pool1
I0823 20:40:39.366778 16081 net.cpp:411] conv2 -> conv2
I0823 20:40:39.376137 16081 net.cpp:150] Setting up conv2
I0823 20:40:39.376162 16081 net.cpp:157] Top shape: 1 256 26 26 (173056)
I0823 20:40:39.376166 16081 net.cpp:165] Memory required for data: 15498880
I0823 20:40:39.376183 16081 layer_factory.hpp:77] Creating layer relu2
I0823 20:40:39.376193 16081 net.cpp:106] Creating Layer relu2
I0823 20:40:39.376196 16081 net.cpp:454] relu2 <- conv2
I0823 20:40:39.376206 16081 net.cpp:397] relu2 -> conv2 (in-place)
I0823 20:40:39.376860 16081 net.cpp:150] Setting up relu2
I0823 20:40:39.376879 16081 net.cpp:157] Top shape: 1 256 26 26 (173056)
I0823 20:40:39.376883 16081 net.cpp:165] Memory required for data: 16191104
I0823 20:40:39.376888 16081 layer_factory.hpp:77] Creating layer norm2
I0823 20:40:39.376900 16081 net.cpp:106] Creating Layer norm2
I0823 20:40:39.376904 16081 net.cpp:454] norm2 <- conv2
I0823 20:40:39.376912 16081 net.cpp:411] norm2 -> norm2
I0823 20:40:39.377271 16081 net.cpp:150] Setting up norm2
I0823 20:40:39.377286 16081 net.cpp:157] Top shape: 1 256 26 26 (173056)
I0823 20:40:39.377290 16081 net.cpp:165] Memory required for data: 16883328
I0823 20:40:39.377295 16081 layer_factory.hpp:77] Creating layer pool2
I0823 20:40:39.377302 16081 net.cpp:106] Creating Layer pool2
I0823 20:40:39.377306 16081 net.cpp:454] pool2 <- norm2
I0823 20:40:39.377317 16081 net.cpp:411] pool2 -> pool2
I0823 20:40:39.377408 16081 net.cpp:150] Setting up pool2
I0823 20:40:39.377419 16081 net.cpp:157] Top shape: 1 256 13 13 (43264)
I0823 20:40:39.377424 16081 net.cpp:165] Memory required for data: 17056384
I0823 20:40:39.377429 16081 layer_factory.hpp:77] Creating layer conv3
I0823 20:40:39.377444 16081 net.cpp:106] Creating Layer conv3
I0823 20:40:39.377450 16081 net.cpp:454] conv3 <- pool2
I0823 20:40:39.377460 16081 net.cpp:411] conv3 -> conv3
I0823 20:40:39.388324 16081 net.cpp:150] Setting up conv3
I0823 20:40:39.388367 16081 net.cpp:157] Top shape: 1 512 13 13 (86528)
I0823 20:40:39.388372 16081 net.cpp:165] Memory required for data: 17402496
I0823 20:40:39.388393 16081 layer_factory.hpp:77] Creating layer relu3
I0823 20:40:39.388407 16081 net.cpp:106] Creating Layer relu3
I0823 20:40:39.388412 16081 net.cpp:454] relu3 <- conv3
I0823 20:40:39.388422 16081 net.cpp:397] relu3 -> conv3 (in-place)
I0823 20:40:39.388712 16081 net.cpp:150] Setting up relu3
I0823 20:40:39.388726 16081 net.cpp:157] Top shape: 1 512 13 13 (86528)
I0823 20:40:39.388732 16081 net.cpp:165] Memory required for data: 17748608
I0823 20:40:39.388736 16081 layer_factory.hpp:77] Creating layer conv4
I0823 20:40:39.388751 16081 net.cpp:106] Creating Layer conv4
I0823 20:40:39.388756 16081 net.cpp:454] conv4 <- conv3
I0823 20:40:39.388764 16081 net.cpp:411] conv4 -> conv4
I0823 20:40:39.407282 16081 net.cpp:150] Setting up conv4
I0823 20:40:39.407325 16081 net.cpp:157] Top shape: 1 512 13 13 (86528)
I0823 20:40:39.407330 16081 net.cpp:165] Memory required for data: 18094720
I0823 20:40:39.407342 16081 layer_factory.hpp:77] Creating layer relu4
I0823 20:40:39.407356 16081 net.cpp:106] Creating Layer relu4
I0823 20:40:39.407363 16081 net.cpp:454] relu4 <- conv4
I0823 20:40:39.407374 16081 net.cpp:397] relu4 -> conv4 (in-place)
I0823 20:40:39.407991 16081 net.cpp:150] Setting up relu4
I0823 20:40:39.408009 16081 net.cpp:157] Top shape: 1 512 13 13 (86528)
I0823 20:40:39.408015 16081 net.cpp:165] Memory required for data: 18440832
I0823 20:40:39.408018 16081 layer_factory.hpp:77] Creating layer conv5
I0823 20:40:39.408032 16081 net.cpp:106] Creating Layer conv5
I0823 20:40:39.408041 16081 net.cpp:454] conv5 <- conv4
I0823 20:40:39.408049 16081 net.cpp:411] conv5 -> conv5
I0823 20:40:39.424654 16081 net.cpp:150] Setting up conv5
I0823 20:40:39.424696 16081 net.cpp:157] Top shape: 1 512 13 13 (86528)
I0823 20:40:39.424700 16081 net.cpp:165] Memory required for data: 18786944
I0823 20:40:39.424721 16081 layer_factory.hpp:77] Creating layer relu5
I0823 20:40:39.424736 16081 net.cpp:106] Creating Layer relu5
I0823 20:40:39.424742 16081 net.cpp:454] relu5 <- conv5
I0823 20:40:39.424751 16081 net.cpp:397] relu5 -> conv5 (in-place)
I0823 20:40:39.424999 16081 net.cpp:150] Setting up relu5
I0823 20:40:39.425011 16081 net.cpp:157] Top shape: 1 512 13 13 (86528)
I0823 20:40:39.425016 16081 net.cpp:165] Memory required for data: 19133056
I0823 20:40:39.425020 16081 layer_factory.hpp:77] Creating layer conv5_relu5_0_split
I0823 20:40:39.425027 16081 net.cpp:106] Creating Layer conv5_relu5_0_split
I0823 20:40:39.425032 16081 net.cpp:454] conv5_relu5_0_split <- conv5
I0823 20:40:39.425041 16081 net.cpp:411] conv5_relu5_0_split -> conv5_relu5_0_split_0
I0823 20:40:39.425052 16081 net.cpp:411] conv5_relu5_0_split -> conv5_relu5_0_split_1
I0823 20:40:39.425139 16081 net.cpp:150] Setting up conv5_relu5_0_split
I0823 20:40:39.425148 16081 net.cpp:157] Top shape: 1 512 13 13 (86528)
I0823 20:40:39.425153 16081 net.cpp:157] Top shape: 1 512 13 13 (86528)
I0823 20:40:39.425156 16081 net.cpp:165] Memory required for data: 19825280
I0823 20:40:39.425160 16081 layer_factory.hpp:77] Creating layer rpn_conv/3x3
I0823 20:40:39.425178 16081 net.cpp:106] Creating Layer rpn_conv/3x3
I0823 20:40:39.425184 16081 net.cpp:454] rpn_conv/3x3 <- conv5_relu5_0_split_0
I0823 20:40:39.425190 16081 net.cpp:411] rpn_conv/3x3 -> rpn/output
I0823 20:40:39.449774 16081 net.cpp:150] Setting up rpn_conv/3x3
I0823 20:40:39.449815 16081 net.cpp:157] Top shape: 1 256 13 13 (43264)
I0823 20:40:39.449818 16081 net.cpp:165] Memory required for data: 19998336
I0823 20:40:39.449831 16081 layer_factory.hpp:77] Creating layer rpn_relu/3x3
I0823 20:40:39.449851 16081 net.cpp:106] Creating Layer rpn_relu/3x3
I0823 20:40:39.449856 16081 net.cpp:454] rpn_relu/3x3 <- rpn/output
I0823 20:40:39.449864 16081 net.cpp:397] rpn_relu/3x3 -> rpn/output (in-place)
I0823 20:40:39.450433 16081 net.cpp:150] Setting up rpn_relu/3x3
I0823 20:40:39.450448 16081 net.cpp:157] Top shape: 1 256 13 13 (43264)
I0823 20:40:39.450453 16081 net.cpp:165] Memory required for data: 20171392
I0823 20:40:39.450458 16081 layer_factory.hpp:77] Creating layer rpn/output_rpn_relu/3x3_0_split
I0823 20:40:39.450466 16081 net.cpp:106] Creating Layer rpn/output_rpn_relu/3x3_0_split
I0823 20:40:39.450471 16081 net.cpp:454] rpn/output_rpn_relu/3x3_0_split <- rpn/output
I0823 20:40:39.450479 16081 net.cpp:411] rpn/output_rpn_relu/3x3_0_split -> rpn/output_rpn_relu/3x3_0_split_0
I0823 20:40:39.450489 16081 net.cpp:411] rpn/output_rpn_relu/3x3_0_split -> rpn/output_rpn_relu/3x3_0_split_1
I0823 20:40:39.450573 16081 net.cpp:150] Setting up rpn/output_rpn_relu/3x3_0_split
I0823 20:40:39.450582 16081 net.cpp:157] Top shape: 1 256 13 13 (43264)
I0823 20:40:39.450587 16081 net.cpp:157] Top shape: 1 256 13 13 (43264)
I0823 20:40:39.450592 16081 net.cpp:165] Memory required for data: 20517504
I0823 20:40:39.450594 16081 layer_factory.hpp:77] Creating layer rpn_cls_score
I0823 20:40:39.450618 16081 net.cpp:106] Creating Layer rpn_cls_score
I0823 20:40:39.450623 16081 net.cpp:454] rpn_cls_score <- rpn/output_rpn_relu/3x3_0_split_0
I0823 20:40:39.450631 16081 net.cpp:411] rpn_cls_score -> rpn_cls_score
I0823 20:40:39.452841 16081 net.cpp:150] Setting up rpn_cls_score
I0823 20:40:39.452862 16081 net.cpp:157] Top shape: 1 18 13 13 (3042)
I0823 20:40:39.452865 16081 net.cpp:165] Memory required for data: 20529672
I0823 20:40:39.452874 16081 layer_factory.hpp:77] Creating layer rpn_bbox_pred
I0823 20:40:39.452891 16081 net.cpp:106] Creating Layer rpn_bbox_pred
I0823 20:40:39.452896 16081 net.cpp:454] rpn_bbox_pred <- rpn/output_rpn_relu/3x3_0_split_1
I0823 20:40:39.452908 16081 net.cpp:411] rpn_bbox_pred -> rpn_bbox_pred
I0823 20:40:39.454879 16081 net.cpp:150] Setting up rpn_bbox_pred
I0823 20:40:39.454895 16081 net.cpp:157] Top shape: 1 36 13 13 (6084)
I0823 20:40:39.454900 16081 net.cpp:165] Memory required for data: 20554008
I0823 20:40:39.454916 16081 layer_factory.hpp:77] Creating layer rpn_cls_score_reshape
I0823 20:40:39.454931 16081 net.cpp:106] Creating Layer rpn_cls_score_reshape
I0823 20:40:39.454936 16081 net.cpp:454] rpn_cls_score_reshape <- rpn_cls_score
I0823 20:40:39.454943 16081 net.cpp:411] rpn_cls_score_reshape -> rpn_cls_score_reshape
I0823 20:40:39.454998 16081 net.cpp:150] Setting up rpn_cls_score_reshape
I0823 20:40:39.455005 16081 net.cpp:157] Top shape: 1 2 117 13 (3042)
I0823 20:40:39.455009 16081 net.cpp:165] Memory required for data: 20566176
I0823 20:40:39.455013 16081 layer_factory.hpp:77] Creating layer rpn_cls_prob
I0823 20:40:39.455018 16081 net.cpp:106] Creating Layer rpn_cls_prob
I0823 20:40:39.455024 16081 net.cpp:454] rpn_cls_prob <- rpn_cls_score_reshape
I0823 20:40:39.455031 16081 net.cpp:411] rpn_cls_prob -> rpn_cls_prob
I0823 20:40:39.455673 16081 net.cpp:150] Setting up rpn_cls_prob
I0823 20:40:39.455688 16081 net.cpp:157] Top shape: 1 2 117 13 (3042)
I0823 20:40:39.455691 16081 net.cpp:165] Memory required for data: 20578344
I0823 20:40:39.455695 16081 layer_factory.hpp:77] Creating layer rpn_cls_prob_reshape
I0823 20:40:39.455703 16081 net.cpp:106] Creating Layer rpn_cls_prob_reshape
I0823 20:40:39.455706 16081 net.cpp:454] rpn_cls_prob_reshape <- rpn_cls_prob
I0823 20:40:39.455719 16081 net.cpp:411] rpn_cls_prob_reshape -> rpn_cls_prob_reshape
I0823 20:40:39.455766 16081 net.cpp:150] Setting up rpn_cls_prob_reshape
I0823 20:40:39.455776 16081 net.cpp:157] Top shape: 1 18 13 13 (3042)
I0823 20:40:39.455780 16081 net.cpp:165] Memory required for data: 20590512
I0823 20:40:39.455783 16081 layer_factory.hpp:77] Creating layer proposal
I0823 20:40:39.456288 16081 net.cpp:106] Creating Layer proposal
I0823 20:40:39.456302 16081 net.cpp:454] proposal <- rpn_cls_prob_reshape
I0823 20:40:39.456308 16081 net.cpp:454] proposal <- rpn_bbox_pred
I0823 20:40:39.456312 16081 net.cpp:454] proposal <- im_info
I0823 20:40:39.456320 16081 net.cpp:411] proposal -> rois
I0823 20:40:39.457160 16081 net.cpp:150] Setting up proposal
I0823 20:40:39.457178 16081 net.cpp:157] Top shape: 1 5 (5)
I0823 20:40:39.457182 16081 net.cpp:165] Memory required for data: 20590532
I0823 20:40:39.457185 16081 layer_factory.hpp:77] Creating layer roi_pool5
I0823 20:40:39.457193 16081 net.cpp:106] Creating Layer roi_pool5
I0823 20:40:39.457200 16081 net.cpp:454] roi_pool5 <- conv5_relu5_0_split_1
I0823 20:40:39.457206 16081 net.cpp:454] roi_pool5 <- rois
I0823 20:40:39.457211 16081 net.cpp:411] roi_pool5 -> pool5
I0823 20:40:39.457219 16081 roi_pooling_layer.cpp:30] Spatial scale: 0.0625
I0823 20:40:39.457299 16081 net.cpp:150] Setting up roi_pool5
I0823 20:40:39.457307 16081 net.cpp:157] Top shape: 1 512 6 6 (18432)
I0823 20:40:39.457310 16081 net.cpp:165] Memory required for data: 20664260
I0823 20:40:39.457314 16081 layer_factory.hpp:77] Creating layer fc6
I0823 20:40:39.457321 16081 net.cpp:106] Creating Layer fc6
I0823 20:40:39.457324 16081 net.cpp:454] fc6 <- pool5
I0823 20:40:39.457330 16081 net.cpp:411] fc6 -> fc6
I0823 20:40:39.920367 16081 net.cpp:150] Setting up fc6
I0823 20:40:39.920413 16081 net.cpp:157] Top shape: 1 4096 (4096)
I0823 20:40:39.920416 16081 net.cpp:165] Memory required for data: 20680644
I0823 20:40:39.920438 16081 layer_factory.hpp:77] Creating layer relu6
I0823 20:40:39.920449 16081 net.cpp:106] Creating Layer relu6
I0823 20:40:39.920454 16081 net.cpp:454] relu6 <- fc6
I0823 20:40:39.920464 16081 net.cpp:397] relu6 -> fc6 (in-place)
I0823 20:40:39.920742 16081 net.cpp:150] Setting up relu6
I0823 20:40:39.920753 16081 net.cpp:157] Top shape: 1 4096 (4096)
I0823 20:40:39.920756 16081 net.cpp:165] Memory required for data: 20697028
I0823 20:40:39.920760 16081 layer_factory.hpp:77] Creating layer drop6
I0823 20:40:39.920768 16081 net.cpp:106] Creating Layer drop6
I0823 20:40:39.920771 16081 net.cpp:454] drop6 <- fc6
I0823 20:40:39.920778 16081 net.cpp:397] drop6 -> fc6 (in-place)
I0823 20:40:39.920827 16081 net.cpp:150] Setting up drop6
I0823 20:40:39.920835 16081 net.cpp:157] Top shape: 1 4096 (4096)
I0823 20:40:39.920838 16081 net.cpp:165] Memory required for data: 20713412
I0823 20:40:39.920841 16081 layer_factory.hpp:77] Creating layer fc7
I0823 20:40:39.920851 16081 net.cpp:106] Creating Layer fc7
I0823 20:40:39.920855 16081 net.cpp:454] fc7 <- fc6
I0823 20:40:39.920861 16081 net.cpp:411] fc7 -> fc7
I0823 20:40:39.946555 16081 net.cpp:150] Setting up fc7
I0823 20:40:39.946602 16081 net.cpp:157] Top shape: 1 1024 (1024)
I0823 20:40:39.946606 16081 net.cpp:165] Memory required for data: 20717508
I0823 20:40:39.946619 16081 layer_factory.hpp:77] Creating layer relu7
I0823 20:40:39.946635 16081 net.cpp:106] Creating Layer relu7
I0823 20:40:39.946640 16081 net.cpp:454] relu7 <- fc7
I0823 20:40:39.946647 16081 net.cpp:397] relu7 -> fc7 (in-place)
I0823 20:40:39.948063 16081 net.cpp:150] Setting up relu7
I0823 20:40:39.948081 16081 net.cpp:157] Top shape: 1 1024 (1024)
I0823 20:40:39.948091 16081 net.cpp:165] Memory required for data: 20721604
I0823 20:40:39.948096 16081 layer_factory.hpp:77] Creating layer drop7
I0823 20:40:39.948107 16081 net.cpp:106] Creating Layer drop7
I0823 20:40:39.948110 16081 net.cpp:454] drop7 <- fc7
I0823 20:40:39.948117 16081 net.cpp:397] drop7 -> fc7 (in-place)
I0823 20:40:39.948179 16081 net.cpp:150] Setting up drop7
I0823 20:40:39.948187 16081 net.cpp:157] Top shape: 1 1024 (1024)
I0823 20:40:39.948190 16081 net.cpp:165] Memory required for data: 20725700
I0823 20:40:39.948194 16081 layer_factory.hpp:77] Creating layer fc7_drop7_0_split
I0823 20:40:39.948204 16081 net.cpp:106] Creating Layer fc7_drop7_0_split
I0823 20:40:39.948206 16081 net.cpp:454] fc7_drop7_0_split <- fc7
I0823 20:40:39.948213 16081 net.cpp:411] fc7_drop7_0_split -> fc7_drop7_0_split_0
I0823 20:40:39.948225 16081 net.cpp:411] fc7_drop7_0_split -> fc7_drop7_0_split_1
I0823 20:40:39.948300 16081 net.cpp:150] Setting up fc7_drop7_0_split
I0823 20:40:39.948309 16081 net.cpp:157] Top shape: 1 1024 (1024)
I0823 20:40:39.948313 16081 net.cpp:157] Top shape: 1 1024 (1024)
I0823 20:40:39.948317 16081 net.cpp:165] Memory required for data: 20733892
I0823 20:40:39.948319 16081 layer_factory.hpp:77] Creating layer cls_score
I0823 20:40:39.948343 16081 net.cpp:106] Creating Layer cls_score
I0823 20:40:39.948349 16081 net.cpp:454] cls_score <- fc7_drop7_0_split_0
I0823 20:40:39.948356 16081 net.cpp:411] cls_score -> cls_score
I0823 20:40:39.950850 16081 net.cpp:150] Setting up cls_score
I0823 20:40:39.950866 16081 net.cpp:157] Top shape: 1 21 (21)
I0823 20:40:39.950870 16081 net.cpp:165] Memory required for data: 20733976
I0823 20:40:39.950881 16081 layer_factory.hpp:77] Creating layer bbox_pred
I0823 20:40:39.950891 16081 net.cpp:106] Creating Layer bbox_pred
I0823 20:40:39.950894 16081 net.cpp:454] bbox_pred <- fc7_drop7_0_split_1
I0823 20:40:39.950904 16081 net.cpp:411] bbox_pred -> bbox_pred
I0823 20:40:39.954152 16081 net.cpp:150] Setting up bbox_pred
I0823 20:40:39.954169 16081 net.cpp:157] Top shape: 1 84 (84)
I0823 20:40:39.954172 16081 net.cpp:165] Memory required for data: 20734312
I0823 20:40:39.954186 16081 layer_factory.hpp:77] Creating layer cls_prob
I0823 20:40:39.954196 16081 net.cpp:106] Creating Layer cls_prob
I0823 20:40:39.954200 16081 net.cpp:454] cls_prob <- cls_score
I0823 20:40:39.954206 16081 net.cpp:411] cls_prob -> cls_prob
I0823 20:40:39.954569 16081 net.cpp:150] Setting up cls_prob
I0823 20:40:39.954582 16081 net.cpp:157] Top shape: 1 21 (21)
I0823 20:40:39.954586 16081 net.cpp:165] Memory required for data: 20734396
I0823 20:40:39.954596 16081 net.cpp:228] cls_prob does not need backward computation.
I0823 20:40:39.954599 16081 net.cpp:228] bbox_pred does not need backward computation.
I0823 20:40:39.954602 16081 net.cpp:228] cls_score does not need backward computation.
I0823 20:40:39.954607 16081 net.cpp:228] fc7_drop7_0_split does not need backward computation.
…
