…
stepsize: 50000
snapshot: 0
snapshot_prefix: "zf_faster_rcnn"
average_loss: 100
iter_size: 2
I0911 22:15:14.752224  7920 solver.cpp:81] Creating training net from train_net file: models/pascal_voc/ZF/faster_rcnn_end2end/train.prototxt
I0911 22:15:14.753221  7920 net.cpp:49] Initializing net from parameters: 
name: "ZF"
state {
  phase: TRAIN
}
layer {
  name: "input-data"
  type: "Python"
  top: "data"
  top: "im_info"
  top: "gt_boxes"
  python_param {
    module: "roi_data_layer.layer"
    layer: "RoIDataLayer"
    param_str: "\'num_classes\': 21"
  }
}
layer {
  name: "conv1"
  type: "Convolution"
  bottom: "data"
  top: "conv1"
  param {
    lr_mult: 1
  }
  param {
    lr_mult: 2
  }
  convolution_param {
    num_output: 96
    pad: 3
    kernel_size: 7
    stride: 2
  }
}
layer {
  name: "relu1"
  type: "ReLU"
  bottom: "conv1"
  top: "conv1"
}
layer {
  name: "norm1"
  type: "LRN"
  bottom: "conv1"
  top: "norm1"
  lrn_param {
    local_size: 3
    alpha: 5e-05
    beta: 0.75
    norm_region: WITHIN_CHANNEL
    engine: CAFFE
  }
}
layer {
  name: "pool1"
  type: "Pooling"
  bottom: "norm1"
  top: "pool1"
  pooling_param {
    pool: MAX
    kernel_size: 3
    stride: 2
    pad: 1
  }
}
layer {
  name: "conv2"
  type: "Convolution"
  bottom: "pool1"
  top: "conv2"
  param {
    lr_mult: 1
  }
  param {
    lr_mult: 2
  }
  convolution_param {
    num_output: 256
    pad: 2
    kernel_size: 5
    stride: 2
  }
}
layer {
  name: "relu2"
  type: "ReLU"
  bottom: "conv2"
  top: "conv2"
}
layer {
  name: "norm2"
  type: "LRN"
  bottom: "conv2"
  top: "norm2"
  lrn_param {
    local_size: 3
    alpha: 5e-05
    beta: 0.75
    norm_region: WITHIN_CHANNEL
    engine: CAFFE
  }
}
layer {
  name: "pool2"
  type: "Pooling"
  bottom: "norm2"
  top: "pool2"
  pooling_param {
    pool: MAX
    kernel_size: 3
    stride: 2
    pad: 1
  }
}
layer {
  name: "conv3"
  type: "Convolution"
  bottom: "pool2"
  top: "conv3"
  param {
    lr_mult: 1
  }
  param {
    lr_mult: 2
  }
  convolution_param {
    num_output: 384
    pad: 1
    kernel_size: 3
    stride: 1
  }
}
layer {
  name: "relu3"
  type: "ReLU"
  bottom: "conv3"
  top: "conv3"
}
layer {
  name: "conv4"
  type: "Convolution"
  bottom: "conv3"
  top: "conv4"
  param {
    lr_mult: 1
  }
  param {
    lr_mult: 2
  }
  convolution_param {
    num_output: 384
    pad: 1
    kernel_size: 3
    stride: 1
  }
}
layer {
  name: "relu4"
  type: "ReLU"
  bottom: "conv4"
  top: "conv4"
}
layer {
  name: "conv5"
  type: "Convolution"
  bottom: "conv4"
  top: "conv5"
  param {
    lr_mult: 1
  }
  param {
    lr_mult: 2
  }
  convolution_param {
    num_output: 256
    pad: 1
    kernel_size: 3
    stride: 1
  }
}
layer {
  name: "relu5"
  type: "ReLU"
  bottom: "conv5"
  top: "conv5"
}
layer {
  name: "rpn_conv/3x3"
  type: "Convolution"
  bottom: "conv5"
  top: "rpn/output"
  param {
    lr_mult: 1
  }
  param {
    lr_mult: 2
  }
  convolution_param {
    num_output: 256
    pad: 1
    kernel_size: 3
    stride: 1
    weight_filler {
      type: "gaussian"
      std: 0.01
    }
    bias_filler {
      type: "constant"
      value: 0
    }
  }
}
layer {
  name: "rpn_relu/3x3"
  type: "ReLU"
  bottom: "rpn/output"
  top: "rpn/output"
}
layer {
  name: "rpn_cls_score"
  type: "Convolution"
  bottom: "rpn/output"
  top: "rpn_cls_score"
  param {
    lr_mult: 1
  }
  param {
    lr_mult: 2
  }
  convolution_param {
    num_output: 18
    pad: 0
    kernel_size: 1
    stride: 1
    weight_filler {
      type: "gaussian"
      std: 0.01
    }
    bias_filler {
      type: "constant"
      value: 0
    }
  }
}
layer {
  name: "rpn_bbox_pred"
  type: "Convolution"
  bottom: "rpn/output"
  top: "rpn_bbox_pred"
  param {
    lr_mult: 1
  }
  param {
    lr_mult: 2
  }
  convolution_param {
    num_output: 36
    pad: 0
    kernel_size: 1
    stride: 1
    weight_filler {
      type: "gaussian"
      std: 0.01
    }
    bias_filler {
      type: "constant"
      value: 0
    }
  }
}
layer {
  name: "rpn_cls_score_reshape"
  type: "Reshape"
  bottom: "rpn_cls_score"
  top: "rpn_cls_score_reshape"
  reshape_param {
    shape {
      dim: 0
      dim: 2
      dim: -1
      dim: 0
    }
  }
}
layer {
  name: "rpn-data"
  type: "Python"
  bottom: "rpn_cls_score"
  bottom: "gt_boxes"
  bottom: "im_info"
  bottom: "data"
  top: "rpn_labels"
  top: "rpn_bbox_targets"
  top: "rpn_bbox_inside_weights"
  top: "rpn_bbox_outside_weights"
  python_param {
    module: "rpn.anchor_target_layer"
    layer: "AnchorTargetLayer"
    param_str: "\'feat_stride\': 16"
  }
}
layer {
  name: "rpn_loss_cls"
  type: "SoftmaxWithLoss"
  bottom: "rpn_cls_score_reshape"
  bottom: "rpn_labels"
  top: "rpn_cls_loss"
  loss_weight: 1
  propagate_down: true
  propagate_down: false
  loss_param {
    ignore_label: -1
    normalize: true
  }
}
layer {
  name: "rpn_loss_bbox"
  type: "SmoothL1Loss"
  bottom: "rpn_bbox_pred"
  bottom: "rpn_bbox_targets"
  bottom: "rpn_bbox_inside_weights"
  bottom: "rpn_bbox_outside_weights"
  top: "rpn_loss_bbox"
  loss_weight: 1
  smooth_l1_loss_param {
    sigma: 3
  }
}
layer {
  name: "rpn_cls_prob"
  type: "Softmax"
  bottom: "rpn_cls_score_reshape"
  top: "rpn_cls_prob"
}
layer {
  name: "rpn_cls_prob_reshape"
  type: "Reshape"
  bottom: "rpn_cls_prob"
  top: "rpn_cls_prob_reshape"
  reshape_param {
    shape {
      dim: 0
      dim: 18
      dim: -1
      dim: 0
    }
  }
}
layer {
  name: "proposal"
  type: "Python"
  bottom: "rpn_cls_prob_reshape"
  bottom: "rpn_bbox_pred"
  bottom: "im_info"
  top: "rpn_rois"
  python_param {
    module: "rpn.proposal_layer"
    layer: "ProposalLayer"
    param_str: "\'feat_stride\': 16"
  }
}
layer {
  name: "roi-data"
  type: "Python"
  bottom: "rpn_rois"
  bottom: "gt_boxes"
  top: "rois"
  top: "labels"
  top: "bbox_targets"
  top: "bbox_inside_weights"
  top: "bbox_outside_weights"
  python_param {
    module: "rpn.proposal_target_layer"
    layer: "ProposalTargetLayer"
    param_str: "\'num_classes\': 21"
  }
}
layer {
  name: "roi_pool_conv5"
  type: "ROIPooling"
  bottom: "conv5"
  bottom: "rois"
  top: "roi_pool_conv5"
  roi_pooling_param {
    pooled_h: 6
    pooled_w: 6
    spatial_scale: 0.0625
  }
}
layer {
  name: "fc6"
  type: "InnerProduct"
  bottom: "roi_pool_conv5"
  top: "fc6"
  param {
    lr_mult: 1
  }
  param {
    lr_mult: 2
  }
  inner_product_param {
    num_output: 4096
  }
}
layer {
  name: "relu6"
  type: "ReLU"
  bottom: "fc6"
  top: "fc6"
}
layer {
  name: "drop6"
  type: "Dropout"
  bottom: "fc6"
  top: "fc6"
  dropout_param {
    dropout_ratio: 0.5
    scale_train: false
  }
}
layer {
  name: "fc7"
  type: "InnerProduct"
  bottom: "fc6"
  top: "fc7"
  param {
    lr_mult: 1
  }
  param {
    lr_mult: 2
  }
  inner_product_param {
    num_output: 4096
  }
}
layer {
  name: "relu7"
  type: "ReLU"
  bottom: "fc7"
  top: "fc7"
}
layer {
  name: "drop7"
  type: "Dropout"
  bottom: "fc7"
  top: "fc7"
  dropout_param {
    dropout_ratio: 0.5
    scale_train: false
  }
}
layer {
  name: "cls_score"
  type: "InnerProduct"
  bottom: "fc7"
  top: "cls_score"
  param {
    lr_mult: 1
  }
  param {
    lr_mult: 2
  }
  inner_product_param {
    num_output: 21
    weight_filler {
      type: "gaussian"
      std: 0.01
    }
    bias_filler {
      type: "constant"
      value: 0
    }
  }
}
layer {
  name: "bbox_pred"
  type: "InnerProduct"
  bottom: "fc7"
  top: "bbox_pred"
  param {
    lr_mult: 1
  }
  param {
    lr_mult: 2
  }
  inner_product_param {
    num_output: 84
    weight_filler {
      type: "gaussian"
      std: 0.001
    }
    bias_filler {
      type: "constant"
      value: 0
    }
  }
}
layer {
  name: "loss_cls"
  type: "SoftmaxWithLoss"
  bottom: "cls_score"
  bottom: "labels"
  top: "cls_loss"
  loss_weight: 1
  propagate_down: true
  propagate_down: false
  loss_param {
    ignore_label: -1
    normalize: true
  }
}
layer {
  name: "loss_bbox"
  type: "SmoothL1Loss"
  bottom: "bbox_pred"
  bottom: "bbox_targets"
  bottom: "bbox_inside_weights"
  bottom: "bbox_outside_weights"
  top: "bbox_loss"
  loss_weight: 1
}
I0911 22:15:14.753495  7920 layer_factory.hpp:77] Creating layer input-data
I0911 22:15:15.759877  7920 net.cpp:106] Creating Layer input-data
I0911 22:15:15.759904  7920 net.cpp:411] input-data -> data
I0911 22:15:15.759918  7920 net.cpp:411] input-data -> im_info
I0911 22:15:15.759927  7920 net.cpp:411] input-data -> gt_boxes
RoiDataLayer: name_to_top: {'gt_boxes': 2, 'data': 0, 'im_info': 1}
I0911 22:15:15.856672  7920 net.cpp:150] Setting up input-data
I0911 22:15:15.856699  7920 net.cpp:157] Top shape: 1 3 600 1000 (1800000)
I0911 22:15:15.856705  7920 net.cpp:157] Top shape: 1 3 (3)
I0911 22:15:15.856710  7920 net.cpp:157] Top shape: 1 4 (4)
I0911 22:15:15.856714  7920 net.cpp:165] Memory required for data: 7200028
I0911 22:15:15.856720  7920 layer_factory.hpp:77] Creating layer data_input-data_0_split
I0911 22:15:15.856735  7920 net.cpp:106] Creating Layer data_input-data_0_split
I0911 22:15:15.856740  7920 net.cpp:454] data_input-data_0_split <- data
I0911 22:15:15.856751  7920 net.cpp:411] data_input-data_0_split -> data_input-data_0_split_0
I0911 22:15:15.856762  7920 net.cpp:411] data_input-data_0_split -> data_input-data_0_split_1
I0911 22:15:15.856832  7920 net.cpp:150] Setting up data_input-data_0_split
I0911 22:15:15.856839  7920 net.cpp:157] Top shape: 1 3 600 1000 (1800000)
I0911 22:15:15.856844  7920 net.cpp:157] Top shape: 1 3 600 1000 (1800000)
I0911 22:15:15.856848  7920 net.cpp:165] Memory required for data: 21600028
I0911 22:15:15.856851  7920 layer_factory.hpp:77] Creating layer im_info_input-data_1_split
I0911 22:15:15.856859  7920 net.cpp:106] Creating Layer im_info_input-data_1_split
I0911 22:15:15.856863  7920 net.cpp:454] im_info_input-data_1_split <- im_info
I0911 22:15:15.856871  7920 net.cpp:411] im_info_input-data_1_split -> im_info_input-data_1_split_0
I0911 22:15:15.856878  7920 net.cpp:411] im_info_input-data_1_split -> im_info_input-data_1_split_1
I0911 22:15:15.856938  7920 net.cpp:150] Setting up im_info_input-data_1_split
I0911 22:15:15.856945  7920 net.cpp:157] Top shape: 1 3 (3)
I0911 22:15:15.856950  7920 net.cpp:157] Top shape: 1 3 (3)
I0911 22:15:15.856952  7920 net.cpp:165] Memory required for data: 21600052
I0911 22:15:15.856956  7920 layer_factory.hpp:77] Creating layer gt_boxes_input-data_2_split
I0911 22:15:15.856962  7920 net.cpp:106] Creating Layer gt_boxes_input-data_2_split
I0911 22:15:15.856966  7920 net.cpp:454] gt_boxes_input-data_2_split <- gt_boxes
I0911 22:15:15.856973  7920 net.cpp:411] gt_boxes_input-data_2_split -> gt_boxes_input-data_2_split_0
I0911 22:15:15.856981  7920 net.cpp:411] gt_boxes_input-data_2_split -> gt_boxes_input-data_2_split_1
I0911 22:15:15.857036  7920 net.cpp:150] Setting up gt_boxes_input-data_2_split
I0911 22:15:15.857043  7920 net.cpp:157] Top shape: 1 4 (4)
I0911 22:15:15.857048  7920 net.cpp:157] Top shape: 1 4 (4)
I0911 22:15:15.857050  7920 net.cpp:165] Memory required for data: 21600084
I0911 22:15:15.857054  7920 layer_factory.hpp:77] Creating layer conv1
I0911 22:15:15.857069  7920 net.cpp:106] Creating Layer conv1
I0911 22:15:15.857072  7920 net.cpp:454] conv1 <- data_input-data_0_split_0
I0911 22:15:15.857080  7920 net.cpp:411] conv1 -> conv1
I0911 22:15:15.862581  7920 net.cpp:150] Setting up conv1
I0911 22:15:15.862869  7920 net.cpp:157] Top shape: 1 96 300 500 (14400000)
I0911 22:15:15.863075  7920 net.cpp:165] Memory required for data: 79200084
I0911 22:15:15.863286  7920 layer_factory.hpp:77] Creating layer relu1
I0911 22:15:15.863495  7920 net.cpp:106] Creating Layer relu1
I0911 22:15:15.863695  7920 net.cpp:454] relu1 <- conv1
I0911 22:15:15.863899  7920 net.cpp:397] relu1 -> conv1 (in-place)
I0911 22:15:15.864105  7920 net.cpp:150] Setting up relu1
I0911 22:15:15.864310  7920 net.cpp:157] Top shape: 1 96 300 500 (14400000)
I0911 22:15:15.864514  7920 net.cpp:165] Memory required for data: 136800084
I0911 22:15:15.864719  7920 layer_factory.hpp:77] Creating layer norm1
I0911 22:15:15.864924  7920 net.cpp:106] Creating Layer norm1
I0911 22:15:15.865126  7920 net.cpp:454] norm1 <- conv1
I0911 22:15:15.865340  7920 net.cpp:411] norm1 -> norm1
I0911 22:15:15.865725  7920 net.cpp:150] Setting up norm1
I0911 22:15:15.865944  7920 net.cpp:157] Top shape: 1 96 300 500 (14400000)
I0911 22:15:15.866145  7920 net.cpp:165] Memory required for data: 194400084
I0911 22:15:15.866372  7920 layer_factory.hpp:77] Creating layer pool1
I0911 22:15:15.866580  7920 net.cpp:106] Creating Layer pool1
I0911 22:15:15.866771  7920 net.cpp:454] pool1 <- norm1
I0911 22:15:15.866971  7920 net.cpp:411] pool1 -> pool1
I0911 22:15:15.867229  7920 net.cpp:150] Setting up pool1
I0911 22:15:15.867436  7920 net.cpp:157] Top shape: 1 96 151 251 (3638496)
I0911 22:15:15.867627  7920 net.cpp:165] Memory required for data: 208954068
I0911 22:15:15.867817  7920 layer_factory.hpp:77] Creating layer conv2
I0911 22:15:15.867997  7920 net.cpp:106] Creating Layer conv2
I0911 22:15:15.868170  7920 net.cpp:454] conv2 <- pool1
I0911 22:15:15.868341  7920 net.cpp:411] conv2 -> conv2
I0911 22:15:15.881026  7920 net.cpp:150] Setting up conv2
I0911 22:15:15.881042  7920 net.cpp:157] Top shape: 1 256 76 126 (2451456)
I0911 22:15:15.881047  7920 net.cpp:165] Memory required for data: 218759892
I0911 22:15:15.881058  7920 layer_factory.hpp:77] Creating layer relu2
I0911 22:15:15.881065  7920 net.cpp:106] Creating Layer relu2
I0911 22:15:15.881069  7920 net.cpp:454] relu2 <- conv2
I0911 22:15:15.881078  7920 net.cpp:397] relu2 -> conv2 (in-place)
I0911 22:15:15.881085  7920 net.cpp:150] Setting up relu2
I0911 22:15:15.881091  7920 net.cpp:157] Top shape: 1 256 76 126 (2451456)
I0911 22:15:15.881094  7920 net.cpp:165] Memory required for data: 228565716
I0911 22:15:15.881098  7920 layer_factory.hpp:77] Creating layer norm2
I0911 22:15:15.881104  7920 net.cpp:106] Creating Layer norm2
I0911 22:15:15.881108  7920 net.cpp:454] norm2 <- conv2
I0911 22:15:15.881117  7920 net.cpp:411] norm2 -> norm2
I0911 22:15:15.881287  7920 net.cpp:150] Setting up norm2
I0911 22:15:15.881296  7920 net.cpp:157] Top shape: 1 256 76 126 (2451456)
I0911 22:15:15.881299  7920 net.cpp:165] Memory required for data: 238371540
I0911 22:15:15.881302  7920 layer_factory.hpp:77] Creating layer pool2
I0911 22:15:15.881310  7920 net.cpp:106] Creating Layer pool2
I0911 22:15:15.881314  7920 net.cpp:454] pool2 <- norm2
I0911 22:15:15.881319  7920 net.cpp:411] pool2 -> pool2
I0911 22:15:15.881374  7920 net.cpp:150] Setting up pool2
I0911 22:15:15.881381  7920 net.cpp:157] Top shape: 1 256 39 64 (638976)
I0911 22:15:15.881384  7920 net.cpp:165] Memory required for data: 240927444
I0911 22:15:15.881388  7920 layer_factory.hpp:77] Creating layer conv3
I0911 22:15:15.881397  7920 net.cpp:106] Creating Layer conv3
I0911 22:15:15.881402  7920 net.cpp:454] conv3 <- pool2
I0911 22:15:15.881408  7920 net.cpp:411] conv3 -> conv3
I0911 22:15:15.898030  7920 net.cpp:150] Setting up conv3
I0911 22:15:15.898084  7920 net.cpp:157] Top shape: 1 384 39 64 (958464)
I0911 22:15:15.898099  7920 net.cpp:165] Memory required for data: 244761300
I0911 22:15:15.898126  7920 layer_factory.hpp:77] Creating layer relu3
I0911 22:15:15.898147  7920 net.cpp:106] Creating Layer relu3
I0911 22:15:15.898162  7920 net.cpp:454] relu3 <- conv3
I0911 22:15:15.898180  7920 net.cpp:397] relu3 -> conv3 (in-place)
I0911 22:15:15.898200  7920 net.cpp:150] Setting up relu3
I0911 22:15:15.898217  7920 net.cpp:157] Top shape: 1 384 39 64 (958464)
I0911 22:15:15.898229  7920 net.cpp:165] Memory required for data: 248595156
I0911 22:15:15.898242  7920 layer_factory.hpp:77] Creating layer conv4
I0911 22:15:15.898264  7920 net.cpp:106] Creating Layer conv4
I0911 22:15:15.898279  7920 net.cpp:454] conv4 <- conv3
I0911 22:15:15.898298  7920 net.cpp:411] conv4 -> conv4
I0911 22:15:15.902438  7920 net.cpp:150] Setting up conv4
I0911 22:15:15.902477  7920 net.cpp:157] Top shape: 1 384 39 64 (958464)
I0911 22:15:15.902493  7920 net.cpp:165] Memory required for data: 252429012
I0911 22:15:15.902513  7920 layer_factory.hpp:77] Creating layer relu4
I0911 22:15:15.902530  7920 net.cpp:106] Creating Layer relu4
I0911 22:15:15.902545  7920 net.cpp:454] relu4 <- conv4
I0911 22:15:15.902573  7920 net.cpp:397] relu4 -> conv4 (in-place)
I0911 22:15:15.902592  7920 net.cpp:150] Setting up relu4
I0911 22:15:15.902608  7920 net.cpp:157] Top shape: 1 384 39 64 (958464)
I0911 22:15:15.902621  7920 net.cpp:165] Memory required for data: 256262868
I0911 22:15:15.902634  7920 layer_factory.hpp:77] Creating layer conv5
I0911 22:15:15.902658  7920 net.cpp:106] Creating Layer conv5
I0911 22:15:15.902674  7920 net.cpp:454] conv5 <- conv4
I0911 22:15:15.902691  7920 net.cpp:411] conv5 -> conv5
I0911 22:15:15.905858  7920 net.cpp:150] Setting up conv5
I0911 22:15:15.905890  7920 net.cpp:157] Top shape: 1 256 39 64 (638976)
I0911 22:15:15.905905  7920 net.cpp:165] Memory required for data: 258818772
I0911 22:15:15.905926  7920 layer_factory.hpp:77] Creating layer relu5
I0911 22:15:15.905944  7920 net.cpp:106] Creating Layer relu5
I0911 22:15:15.905958  7920 net.cpp:454] relu5 <- conv5
I0911 22:15:15.905977  7920 net.cpp:397] relu5 -> conv5 (in-place)
I0911 22:15:15.905995  7920 net.cpp:150] Setting up relu5
I0911 22:15:15.906011  7920 net.cpp:157] Top shape: 1 256 39 64 (638976)
I0911 22:15:15.906024  7920 net.cpp:165] Memory required for data: 261374676
I0911 22:15:15.906038  7920 layer_factory.hpp:77] Creating layer conv5_relu5_0_split
I0911 22:15:15.906054  7920 net.cpp:106] Creating Layer conv5_relu5_0_split
I0911 22:15:15.906067  7920 net.cpp:454] conv5_relu5_0_split <- conv5
I0911 22:15:15.906085  7920 net.cpp:411] conv5_relu5_0_split -> conv5_relu5_0_split_0
I0911 22:15:15.906105  7920 net.cpp:411] conv5_relu5_0_split -> conv5_relu5_0_split_1
I0911 22:15:15.906194  7920 net.cpp:150] Setting up conv5_relu5_0_split
I0911 22:15:15.906215  7920 net.cpp:157] Top shape: 1 256 39 64 (638976)
I0911 22:15:15.906230  7920 net.cpp:157] Top shape: 1 256 39 64 (638976)
I0911 22:15:15.906244  7920 net.cpp:165] Memory required for data: 266486484
I0911 22:15:15.906257  7920 layer_factory.hpp:77] Creating layer rpn_conv/3x3
I0911 22:15:15.906280  7920 net.cpp:106] Creating Layer rpn_conv/3x3
I0911 22:15:15.906296  7920 net.cpp:454] rpn_conv/3x3 <- conv5_relu5_0_split_0
I0911 22:15:15.906313  7920 net.cpp:411] rpn_conv/3x3 -> rpn/output
I0911 22:15:15.917371  7920 net.cpp:150] Setting up rpn_conv/3x3
I0911 22:15:15.925335  7920 net.cpp:157] Top shape: 1 256 39 64 (638976)
I0911 22:15:15.925379  7920 net.cpp:165] Memory required for data: 269042388
I0911 22:15:15.925410  7920 layer_factory.hpp:77] Creating layer rpn_relu/3x3
I0911 22:15:15.925448  7920 net.cpp:106] Creating Layer rpn_relu/3x3
I0911 22:15:15.925477  7920 net.cpp:454] rpn_relu/3x3 <- rpn/output
I0911 22:15:15.925505  7920 net.cpp:397] rpn_relu/3x3 -> rpn/output (in-place)
I0911 22:15:15.925544  7920 net.cpp:150] Setting up rpn_relu/3x3
I0911 22:15:15.925575  7920 net.cpp:157] Top shape: 1 256 39 64 (638976)
I0911 22:15:15.925601  7920 net.cpp:165] Memory required for data: 271598292
I0911 22:15:15.925621  7920 layer_factory.hpp:77] Creating layer rpn/output_rpn_relu/3x3_0_split
I0911 22:15:15.925645  7920 net.cpp:106] Creating Layer rpn/output_rpn_relu/3x3_0_split
I0911 22:15:15.925673  7920 net.cpp:454] rpn/output_rpn_relu/3x3_0_split <- rpn/output
I0911 22:15:15.925706  7920 net.cpp:411] rpn/output_rpn_relu/3x3_0_split -> rpn/output_rpn_relu/3x3_0_split_0
I0911 22:15:15.925748  7920 net.cpp:411] rpn/output_rpn_relu/3x3_0_split -> rpn/output_rpn_relu/3x3_0_split_1
I0911 22:15:15.925855  7920 net.cpp:150] Setting up rpn/output_rpn_relu/3x3_0_split
I0911 22:15:15.925966  7920 net.cpp:157] Top shape: 1 256 39 64 (638976)
I0911 22:15:15.925988  7920 net.cpp:157] Top shape: 1 256 39 64 (638976)
I0911 22:15:15.926013  7920 net.cpp:165] Memory required for data: 276710100
I0911 22:15:15.926033  7920 layer_factory.hpp:77] Creating layer rpn_cls_score
I0911 22:15:15.926064  7920 net.cpp:106] Creating Layer rpn_cls_score
I0911 22:15:15.926097  7920 net.cpp:454] rpn_cls_score <- rpn/output_rpn_relu/3x3_0_split_0
I0911 22:15:15.926122  7920 net.cpp:411] rpn_cls_score -> rpn_cls_score
I0911 22:15:15.926709  7920 net.cpp:150] Setting up rpn_cls_score
I0911 22:15:15.927325  7920 net.cpp:157] Top shape: 1 18 39 64 (44928)
I0911 22:15:15.927350  7920 net.cpp:165] Memory required for data: 276889812
I0911 22:15:15.927376  7920 layer_factory.hpp:77] Creating layer rpn_cls_score_rpn_cls_score_0_split
I0911 22:15:15.927404  7920 net.cpp:106] Creating Layer rpn_cls_score_rpn_cls_score_0_split
I0911 22:15:15.927430  7920 net.cpp:454] rpn_cls_score_rpn_cls_score_0_split <- rpn_cls_score
I0911 22:15:15.927455  7920 net.cpp:411] rpn_cls_score_rpn_cls_score_0_split -> rpn_cls_score_rpn_cls_score_0_split_0
I0911 22:15:15.927486  7920 net.cpp:411] rpn_cls_score_rpn_cls_score_0_split -> rpn_cls_score_rpn_cls_score_0_split_1
I0911 22:15:15.927585  7920 net.cpp:150] Setting up rpn_cls_score_rpn_cls_score_0_split
I0911 22:15:15.927690  7920 net.cpp:157] Top shape: 1 18 39 64 (44928)
I0911 22:15:15.927716  7920 net.cpp:157] Top shape: 1 18 39 64 (44928)
I0911 22:15:15.927734  7920 net.cpp:165] Memory required for data: 277249236
I0911 22:15:15.927753  7920 layer_factory.hpp:77] Creating layer rpn_bbox_pred
I0911 22:15:15.927786  7920 net.cpp:106] Creating Layer rpn_bbox_pred
I0911 22:15:15.927812  7920 net.cpp:454] rpn_bbox_pred <- rpn/output_rpn_relu/3x3_0_split_1
I0911 22:15:15.927842  7920 net.cpp:411] rpn_bbox_pred -> rpn_bbox_pred
I0911 22:15:15.928436  7920 net.cpp:150] Setting up rpn_bbox_pred
I0911 22:15:15.929039  7920 net.cpp:157] Top shape: 1 36 39 64 (89856)
I0911 22:15:15.929057  7920 net.cpp:165] Memory required for data: 277608660
I0911 22:15:15.929081  7920 layer_factory.hpp:77] Creating layer rpn_bbox_pred_rpn_bbox_pred_0_split
I0911 22:15:15.929111  7920 net.cpp:106] Creating Layer rpn_bbox_pred_rpn_bbox_pred_0_split
I0911 22:15:15.929142  7920 net.cpp:454] rpn_bbox_pred_rpn_bbox_pred_0_split <- rpn_bbox_pred
I0911 22:15:15.929165  7920 net.cpp:411] rpn_bbox_pred_rpn_bbox_pred_0_split -> rpn_bbox_pred_rpn_bbox_pred_0_split_0
I0911 22:15:15.929198  7920 net.cpp:411] rpn_bbox_pred_rpn_bbox_pred_0_split -> rpn_bbox_pred_rpn_bbox_pred_0_split_1
I0911 22:15:15.929287  7920 net.cpp:150] Setting up rpn_bbox_pred_rpn_bbox_pred_0_split
I0911 22:15:15.929380  7920 net.cpp:157] Top shape: 1 36 39 64 (89856)
I0911 22:15:15.929406  7920 net.cpp:157] Top shape: 1 36 39 64 (89856)
I0911 22:15:15.929425  7920 net.cpp:165] Memory required for data: 278327508
I0911 22:15:15.929445  7920 layer_factory.hpp:77] Creating layer rpn_cls_score_reshape
I0911 22:15:15.929471  7920 net.cpp:106] Creating Layer rpn_cls_score_reshape
I0911 22:15:15.929502  7920 net.cpp:454] rpn_cls_score_reshape <- rpn_cls_score_rpn_cls_score_0_split_0
I0911 22:15:15.929527  7920 net.cpp:411] rpn_cls_score_reshape -> rpn_cls_score_reshape
I0911 22:15:15.929600  7920 net.cpp:150] Setting up rpn_cls_score_reshape
I0911 22:15:15.929667  7920 net.cpp:157] Top shape: 1 2 351 64 (44928)
I0911 22:15:15.929692  7920 net.cpp:165] Memory required for data: 278507220
I0911 22:15:15.929710  7920 layer_factory.hpp:77] Creating layer rpn_cls_score_reshape_rpn_cls_score_reshape_0_split
I0911 22:15:15.929733  7920 net.cpp:106] Creating Layer rpn_cls_score_reshape_rpn_cls_score_reshape_0_split
I0911 22:15:15.929760  7920 net.cpp:454] rpn_cls_score_reshape_rpn_cls_score_reshape_0_split <- rpn_cls_score_reshape
I0911 22:15:15.929783  7920 net.cpp:411] rpn_cls_score_reshape_rpn_cls_score_reshape_0_split -> rpn_cls_score_reshape_rpn_cls_score_reshape_0_split_0
I0911 22:15:15.929813  7920 net.cpp:411] rpn_cls_score_reshape_rpn_cls_score_reshape_0_split -> rpn_cls_score_reshape_rpn_cls_score_reshape_0_split_1
I0911 22:15:15.929898  7920 net.cpp:150] Setting up rpn_cls_score_reshape_rpn_cls_score_reshape_0_split
I0911 22:15:15.929986  7920 net.cpp:157] Top shape: 1 2 351 64 (44928)
I0911 22:15:15.930012  7920 net.cpp:157] Top shape: 1 2 351 64 (44928)
I0911 22:15:15.930030  7920 net.cpp:165] Memory required for data: 278866644
I0911 22:15:15.930049  7920 layer_factory.hpp:77] Creating layer rpn-data
I0911 22:15:15.953387  7920 net.cpp:106] Creating Layer rpn-data
I0911 22:15:15.953403  7920 net.cpp:454] rpn-data <- rpn_cls_score_rpn_cls_score_0_split_1
I0911 22:15:15.953411  7920 net.cpp:454] rpn-data <- gt_boxes_input-data_2_split_0
I0911 22:15:15.953416  7920 net.cpp:454] rpn-data <- im_info_input-data_1_split_0
I0911 22:15:15.953421  7920 net.cpp:454] rpn-data <- data_input-data_0_split_1
I0911 22:15:15.953429  7920 net.cpp:411] rpn-data -> rpn_labels
I0911 22:15:15.953442  7920 net.cpp:411] rpn-data -> rpn_bbox_targets
I0911 22:15:15.953451  7920 net.cpp:411] rpn-data -> rpn_bbox_inside_weights
I0911 22:15:15.953460  7920 net.cpp:411] rpn-data -> rpn_bbox_outside_weights
I0911 22:15:15.956228  7920 net.cpp:150] Setting up rpn-data
I0911 22:15:15.956245  7920 net.cpp:157] Top shape: 1 1 351 64 (22464)
I0911 22:15:15.956251  7920 net.cpp:157] Top shape: 1 36 39 64 (89856)
I0911 22:15:15.956256  7920 net.cpp:157] Top shape: 1 36 39 64 (89856)
I0911 22:15:15.956261  7920 net.cpp:157] Top shape: 1 36 39 64 (89856)
I0911 22:15:15.956264  7920 net.cpp:165] Memory required for data: 280034772
I0911 22:15:15.956269  7920 layer_factory.hpp:77] Creating layer rpn_loss_cls
I0911 22:15:15.956281  7920 net.cpp:106] Creating Layer rpn_loss_cls
I0911 22:15:15.956286  7920 net.cpp:454] rpn_loss_cls <- rpn_cls_score_reshape_rpn_cls_score_reshape_0_split_0
I0911 22:15:15.956292  7920 net.cpp:454] rpn_loss_cls <- rpn_labels
…
I0911 22:15:15.957643  7920 net.cpp:157] Top shape: (1)
I0911 22:15:15.957645  7920 net.cpp:160]     with loss weight 1
I0911 22:15:15.957651  7920 net.cpp:165] Memory required for data: 280034780
I0911 22:15:15.957655  7920 layer_factory.hpp:77] Creating layer rpn_cls_prob
I0911 22:15:15.957662  7920 net.cpp:106] Creating Layer rpn_cls_prob
I0911 22:15:15.957667  7920 net.cpp:454] rpn_cls_prob <- rpn_cls_score_reshape_rpn_cls_score_reshape_0_split_1
I0911 22:15:15.957674  7920 net.cpp:411] rpn_cls_prob -> rpn_cls_prob
I0911 22:15:15.957778  7920 net.cpp:150] Setting up rpn_cls_prob
I0911 22:15:15.957785  7920 net.cpp:157] Top shape: 1 2 351 64 (44928)
I0911 22:15:15.957789  7920 net.cpp:165] Memory required for data: 280214492
I0911 22:15:15.957792  7920 layer_factory.hpp:77] Creating layer rpn_cls_prob_reshape
I0911 22:15:15.957803  7920 net.cpp:106] Creating Layer rpn_cls_prob_reshape
I0911 22:15:15.957808  7920 net.cpp:454] rpn_cls_prob_reshape <- rpn_cls_prob
I0911 22:15:15.957814  7920 net.cpp:411] rpn_cls_prob_reshape -> rpn_cls_prob_reshape
I0911 22:15:15.957854  7920 net.cpp:150] Setting up rpn_cls_prob_reshape
I0911 22:15:15.957861  7920 net.cpp:157] Top shape: 1 18 39 64 (44928)
I0911 22:15:15.957864  7920 net.cpp:165] Memory required for data: 280394204
I0911 22:15:15.957867  7920 layer_factory.hpp:77] Creating layer proposal
I0911 22:15:15.958797  7920 net.cpp:106] Creating Layer proposal
I0911 22:15:15.958808  7920 net.cpp:454] proposal <- rpn_cls_prob_reshape
I0911 22:15:15.958814  7920 net.cpp:454] proposal <- rpn_bbox_pred_rpn_bbox_pred_0_split_1
I0911 22:15:15.958819  7920 net.cpp:454] proposal <- im_info_input-data_1_split_1
I0911 22:15:15.958827  7920 net.cpp:411] proposal -> rpn_rois
I0911 22:15:15.960522  7920 net.cpp:150] Setting up proposal
I0911 22:15:15.960536  7920 net.cpp:157] Top shape: 1 5 (5)
I0911 22:15:15.960538  7920 net.cpp:165] Memory required for data: 280394224
I0911 22:15:15.960542  7920 layer_factory.hpp:77] Creating layer roi-data
I0911 22:15:15.961611  7920 net.cpp:106] Creating Layer roi-data
I0911 22:15:15.961637  7920 net.cpp:454] roi-data <- rpn_rois
I0911 22:15:15.961655  7920 net.cpp:454] roi-data <- gt_boxes_input-data_2_split_1
I0911 22:15:15.961674  7920 net.cpp:411] roi-data -> rois
I0911 22:15:15.961695  7920 net.cpp:411] roi-data -> labels
I0911 22:15:15.961715  7920 net.cpp:411] roi-data -> bbox_targets
I0911 22:15:15.961735  7920 net.cpp:411] roi-data -> bbox_inside_weights
I0911 22:15:15.961755  7920 net.cpp:411] roi-data -> bbox_outside_weights
I0911 22:15:15.962342  7920 net.cpp:150] Setting up roi-data
I0911 22:15:15.962373  7920 net.cpp:157] Top shape: 1 5 (5)
I0911 22:15:15.962389  7920 net.cpp:157] Top shape: 1 1 (1)
I0911 22:15:15.962405  7920 net.cpp:157] Top shape: 1 84 (84)
I0911 22:15:15.962419  7920 net.cpp:157] Top shape: 1 84 (84)
I0911 22:15:15.962432  7920 net.cpp:157] Top shape: 1 84 (84)
I0911 22:15:15.962445  7920 net.cpp:165] Memory required for data: 280395256
I0911 22:15:15.962458  7920 layer_factory.hpp:77] Creating layer roi_pool_conv5
I0911 22:15:15.962476  7920 net.cpp:106] Creating Layer roi_pool_conv5
I0911 22:15:15.962491  7920 net.cpp:454] roi_pool_conv5 <- conv5_relu5_0_split_1
I0911 22:15:15.962507  7920 net.cpp:454] roi_pool_conv5 <- rois
I0911 22:15:15.962522  7920 net.cpp:411] roi_pool_conv5 -> roi_pool_conv5
I0911 22:15:15.962543  7920 roi_pooling_layer.cpp:30] Spatial scale: 0.0625
I0911 22:15:15.962630  7920 net.cpp:150] Setting up roi_pool_conv5
I0911 22:15:15.962651  7920 net.cpp:157] Top shape: 1 256 6 6 (9216)
I0911 22:15:15.962664  7920 net.cpp:165] Memory required for data: 280432120
I0911 22:15:15.962677  7920 layer_factory.hpp:77] Creating layer fc6
I0911 22:15:15.962694  7920 net.cpp:106] Creating Layer fc6
I0911 22:15:15.962708  7920 net.cpp:454] fc6 <- roi_pool_conv5
I0911 22:15:15.962728  7920 net.cpp:411] fc6 -> fc6
I0911 22:15:16.118542  7920 net.cpp:150] Setting up fc6
I0911 22:15:16.119042  7920 net.cpp:157] Top shape: 1 4096 (4096)
I0911 22:15:16.119267  7920 net.cpp:165] Memory required for data: 280448504
I0911 22:15:16.119504  7920 layer_factory.hpp:77] Creating layer relu6
I0911 22:15:16.119743  7920 net.cpp:106] Creating Layer relu6
I0911 22:15:16.119962  7920 net.cpp:454] relu6 <- fc6
I0911 22:15:16.120168  7920 net.cpp:397] relu6 -> fc6 (in-place)
I0911 22:15:16.120375  7920 net.cpp:150] Setting up relu6
I0911 22:15:16.120581  7920 net.cpp:157] Top shape: 1 4096 (4096)
I0911 22:15:16.120779  7920 net.cpp:165] Memory required for data: 280464888
I0911 22:15:16.120978  7920 layer_factory.hpp:77] Creating layer drop6
I0911 22:15:16.121181  7920 net.cpp:106] Creating Layer drop6
I0911 22:15:16.121383  7920 net.cpp:454] drop6 <- fc6
I0911 22:15:16.121587  7920 net.cpp:397] drop6 -> fc6 (in-place)
I0911 22:15:16.121853  7920 net.cpp:150] Setting up drop6
I0911 22:15:16.122073  7920 net.cpp:157] Top shape: 1 4096 (4096)
I0911 22:15:16.122274  7920 net.cpp:165] Memory required for data: 280481272
I0911 22:15:16.122473  7920 layer_factory.hpp:77] Creating layer fc7
I0911 22:15:16.122675  7920 net.cpp:106] Creating Layer fc7
I0911 22:15:16.122867  7920 net.cpp:454] fc7 <- fc6
I0911 22:15:16.123064  7920 net.cpp:411] fc7 -> fc7
I0911 22:15:16.166132  7920 net.cpp:150] Setting up fc7
I0911 22:15:16.182361  7920 net.cpp:157] Top shape: 1 4096 (4096)
I0911 22:15:16.182778  7920 net.cpp:165] Memory required for data: 280497656
I0911 22:15:16.183015  7920 layer_factory.hpp:77] Creating layer relu7
I0911 22:15:16.183244  7920 net.cpp:106] Creating Layer relu7
I0911 22:15:16.183463  7920 net.cpp:454] relu7 <- fc7
I0911 22:15:16.183684  7920 net.cpp:397] relu7 -> fc7 (in-place)
I0911 22:15:16.183897  7920 net.cpp:150] Setting up relu7
I0911 22:15:16.184101  7920 net.cpp:157] Top shape: 1 4096 (4096)
I0911 22:15:16.184300  7920 net.cpp:165] Memory required for data: 280514040
I0911 22:15:16.184514  7920 layer_factory.hpp:77] Creating layer drop7
I0911 22:15:16.184720  7920 net.cpp:106] Creating Layer drop7
I0911 22:15:16.184921  7920 net.cpp:454] drop7 <- fc7
I0911 22:15:16.185127  7920 net.cpp:397] drop7 -> fc7 (in-place)
I0911 22:15:16.185432  7920 net.cpp:150] Setting up drop7
I0911 22:15:16.185647  7920 net.cpp:157] Top shape: 1 4096 (4096)
I0911 22:15:16.185847  7920 net.cpp:165] Memory required for data: 280530424
I0911 22:15:16.186045  7920 layer_factory.hpp:77] Creating layer fc7_drop7_0_split
I0911 22:15:16.186251  7920 net.cpp:106] Creating Layer fc7_drop7_0_split
I0911 22:15:16.186473  7920 net.cpp:454] fc7_drop7_0_split <- fc7
I0911 22:15:16.186672  7920 net.cpp:411] fc7_drop7_0_split -> fc7_drop7_0_split_0
I0911 22:15:16.186874  7920 net.cpp:411] fc7_drop7_0_split -> fc7_drop7_0_split_1
I0911 22:15:16.187162  7920 net.cpp:150] Setting up fc7_drop7_0_split
I0911 22:15:16.187367  7920 net.cpp:157] Top shape: 1 4096 (4096)
I0911 22:15:16.187561  7920 net.cpp:157] Top shape: 1 4096 (4096)
I0911 22:15:16.187728  7920 net.cpp:165] Memory required for data: 280563192
I0911 22:15:16.187899  7920 layer_factory.hpp:77] Creating layer cls_score
I0911 22:15:16.188094  7920 net.cpp:106] Creating Layer cls_score
I0911 22:15:16.188278  7920 net.cpp:454] cls_score <- fc7_drop7_0_split_0
I0911 22:15:16.188467  7920 net.cpp:411] cls_score -> cls_score
I0911 22:15:16.190274  7920 net.cpp:150] Setting up cls_score
I0911 22:15:16.190477  7920 net.cpp:157] Top shape: 1 21 (21)
I0911 22:15:16.190651  7920 net.cpp:165] Memory required for data: 280563276
I0911 22:15:16.190825  7920 layer_factory.hpp:77] Creating layer bbox_pred
I0911 22:15:16.191001  7920 net.cpp:106] Creating Layer bbox_pred
I0911 22:15:16.191174  7920 net.cpp:454] bbox_pred <- fc7_drop7_0_split_1
I0911 22:15:16.191351  7920 net.cpp:411] bbox_pred -> bbox_pred
I0911 22:15:16.198613  7920 net.cpp:150] Setting up bbox_pred
I0911 22:15:16.198902  7920 net.cpp:157] Top shape: 1 84 (84)
I0911 22:15:16.199100  7920 net.cpp:165] Memory required for data: 280563612
I0911 22:15:16.199295  7920 layer_factory.hpp:77] Creating layer loss_cls
I0911 22:15:16.199493  7920 net.cpp:106] Creating Layer loss_cls
I0911 22:15:16.199663  7920 net.cpp:454] loss_cls <- cls_score
I0911 22:15:16.199890  7920 net.cpp:454] loss_cls <- labels
I0911 22:15:16.200090  7920 net.cpp:411] loss_cls -> cls_loss
…
           'RPN_POST_NMS_TOP_N': 2000,
           'RPN_PRE_NMS_TOP_N': 12000,
           'SCALES': [600],
           'SNAPSHOT_INFIX': '',
           'SNAPSHOT_ITERS': 10000,
           'USE_FLIPPED': True,
           'USE_PREFETCH': False},
 'USE_GPU_NMS': True}
WARNING: Logging before InitGoogleLogging() is written to STDERR
I0912 02:11:41.104815   388 net.cpp:49] Initializing net from parameters: 
name: "ZF"
input: "data"
input: "im_info"
state {
  phase: TEST
}
input_shape {
  dim: 1
  dim: 3
  dim: 224
  dim: 224
}
input_shape {
  dim: 1
  dim: 3
}
layer {
  name: "conv1"
  type: "Convolution"
  bottom: "data"
  top: "conv1"
  convolution_param {
    num_output: 96
    pad: 3
    kernel_size: 7
    stride: 2
  }
}
layer {
  name: "relu1"
  type: "ReLU"
  bottom: "conv1"
  top: "conv1"
}
layer {
  name: "norm1"
  type: "LRN"
  bottom: "conv1"
  top: "norm1"
  lrn_param {
    local_size: 3
    alpha: 5e-05
    beta: 0.75
    norm_region: WITHIN_CHANNEL
    engine: CAFFE
  }
}
layer {
  name: "pool1"
  type: "Pooling"
  bottom: "norm1"
  top: "pool1"
  pooling_param {
    pool: MAX
    kernel_size: 3
    stride: 2
    pad: 1
  }
}
layer {
  name: "conv2"
  type: "Convolution"
  bottom: "pool1"
  top: "conv2"
  convolution_param {
    num_output: 256
    pad: 2
    kernel_size: 5
    stride: 2
  }
}
layer {
  name: "relu2"
  type: "ReLU"
  bottom: "conv2"
  top: "conv2"
}
layer {
  name: "norm2"
  type: "LRN"
  bottom: "conv2"
  top: "norm2"
  lrn_param {
    local_size: 3
    alpha: 5e-05
    beta: 0.75
    norm_region: WITHIN_CHANNEL
    engine: CAFFE
  }
}
layer {
  name: "pool2"
  type: "Pooling"
  bottom: "norm2"
  top: "pool2"
  pooling_param {
    pool: MAX
    kernel_size: 3
    stride: 2
    pad: 1
  }
}
layer {
  name: "conv3"
  type: "Convolution"
  bottom: "pool2"
  top: "conv3"
  convolution_param {
    num_output: 384
    pad: 1
    kernel_size: 3
    stride: 1
  }
}
layer {
  name: "relu3"
  type: "ReLU"
  bottom: "conv3"
  top: "conv3"
}
layer {
  name: "conv4"
  type: "Convolution"
  bottom: "conv3"
  top: "conv4"
  convolution_param {
    num_output: 384
    pad: 1
    kernel_size: 3
    stride: 1
  }
}
layer {
  name: "relu4"
  type: "ReLU"
  bottom: "conv4"
  top: "conv4"
}
layer {
  name: "conv5"
  type: "Convolution"
  bottom: "conv4"
  top: "conv5"
  convolution_param {
    num_output: 256
    pad: 1
    kernel_size: 3
    stride: 1
  }
}
layer {
  name: "relu5"
  type: "ReLU"
  bottom: "conv5"
  top: "conv5"
}
layer {
  name: "rpn_conv/3x3"
  type: "Convolution"
  bottom: "conv5"
  top: "rpn/output"
  convolution_param {
    num_output: 256
    pad: 1
    kernel_size: 3
    stride: 1
    weight_filler {
      type: "gaussian"
      std: 0.01
    }
    bias_filler {
      type: "constant"
      value: 0
    }
  }
}
layer {
  name: "rpn_relu/3x3"
  type: "ReLU"
  bottom: "rpn/output"
  top: "rpn/output"
}
layer {
  name: "rpn_cls_score"
  type: "Convolution"
  bottom: "rpn/output"
  top: "rpn_cls_score"
  convolution_param {
    num_output: 18
    pad: 0
    kernel_size: 1
    stride: 1
    weight_filler {
      type: "gaussian"
      std: 0.01
    }
    bias_filler {
      type: "constant"
      value: 0
    }
  }
}
layer {
  name: "rpn_bbox_pred"
  type: "Convolution"
  bottom: "rpn/output"
  top: "rpn_bbox_pred"
  convolution_param {
    num_output: 36
    pad: 0
    kernel_size: 1
    stride: 1
    weight_filler {
      type: "gaussian"
      std: 0.01
    }
    bias_filler {
      type: "constant"
      value: 0
    }
  }
}
layer {
  name: "rpn_cls_score_reshape"
  type: "Reshape"
  bottom: "rpn_cls_score"
  top: "rpn_cls_score_reshape"
  reshape_param {
    shape {
      dim: 0
      dim: 2
      dim: -1
      dim: 0
    }
  }
}
layer {
  name: "rpn_cls_prob"
  type: "Softmax"
  bottom: "rpn_cls_score_reshape"
  top: "rpn_cls_prob"
}
layer {
  name: "rpn_cls_prob_reshape"
  type: "Reshape"
  bottom: "rpn_cls_prob"
  top: "rpn_cls_prob_reshape"
  reshape_param {
    shape {
      dim: 0
      dim: 18
      dim: -1
      dim: 0
    }
  }
}
layer {
  name: "proposal"
  type: "Python"
  bottom: "rpn_cls_prob_reshape"
  bottom: "rpn_bbox_pred"
  bottom: "im_info"
  top: "rois"
  python_param {
    module: "rpn.proposal_layer"
    layer: "ProposalLayer"
    param_str: "\'feat_stride\': 16"
  }
}
layer {
  name: "roi_pool_conv5"
  type: "ROIPooling"
  bottom: "conv5"
  bottom: "rois"
  top: "roi_pool_conv5"
  roi_pooling_param {
    pooled_h: 6
    pooled_w: 6
    spatial_scale: 0.0625
  }
}
layer {
  name: "fc6"
  type: "InnerProduct"
  bottom: "roi_pool_conv5"
  top: "fc6"
  inner_product_param {
    num_output: 4096
  }
}
layer {
  name: "relu6"
  type: "ReLU"
  bottom: "fc6"
  top: "fc6"
}
layer {
  name: "drop6"
  type: "Dropout"
  bottom: "fc6"
  top: "fc6"
  dropout_param {
    dropout_ratio: 0.5
    scale_train: false
  }
}
layer {
  name: "fc7"
  type: "InnerProduct"
  bottom: "fc6"
  top: "fc7"
  inner_product_param {
    num_output: 4096
  }
}
layer {
  name: "relu7"
  type: "ReLU"
  bottom: "fc7"
  top: "fc7"
}
layer {
  name: "drop7"
  type: "Dropout"
  bottom: "fc7"
  top: "fc7"
  dropout_param {
    dropout_ratio: 0.5
    scale_train: false
  }
}
layer {
  name: "cls_score"
  type: "InnerProduct"
  bottom: "fc7"
  top: "cls_score"
  inner_product_param {
    num_output: 21
  }
}
layer {
  name: "bbox_pred"
  type: "InnerProduct"
  bottom: "fc7"
  top: "bbox_pred"
  inner_product_param {
    num_output: 84
  }
}
layer {
  name: "cls_prob"
  type: "Softmax"
  bottom: "cls_score"
  top: "cls_prob"
  loss_param {
    ignore_label: -1
    normalize: true
  }
}
I0912 02:11:41.105068   388 net.cpp:413] Input 0 -> data
I0912 02:11:41.132036   388 net.cpp:413] Input 1 -> im_info
I0912 02:11:41.132143   388 layer_factory.hpp:77] Creating layer conv1
I0912 02:11:41.132174   388 net.cpp:106] Creating Layer conv1
I0912 02:11:41.132182   388 net.cpp:454] conv1 <- data
I0912 02:11:41.132195   388 net.cpp:411] conv1 -> conv1
I0912 02:11:41.134891   388 net.cpp:150] Setting up conv1
I0912 02:11:41.134917   388 net.cpp:157] Top shape: 1 96 112 112 (1204224)
I0912 02:11:41.134922   388 net.cpp:165] Memory required for data: 4816896
I0912 02:11:41.134939   388 layer_factory.hpp:77] Creating layer relu1
I0912 02:11:41.134954   388 net.cpp:106] Creating Layer relu1
I0912 02:11:41.134959   388 net.cpp:454] relu1 <- conv1
I0912 02:11:41.134968   388 net.cpp:397] relu1 -> conv1 (in-place)
I0912 02:11:41.134979   388 net.cpp:150] Setting up relu1
I0912 02:11:41.134989   388 net.cpp:157] Top shape: 1 96 112 112 (1204224)
I0912 02:11:41.134994   388 net.cpp:165] Memory required for data: 9633792
I0912 02:11:41.134997   388 layer_factory.hpp:77] Creating layer norm1
I0912 02:11:41.135010   388 net.cpp:106] Creating Layer norm1
I0912 02:11:41.135016   388 net.cpp:454] norm1 <- conv1
I0912 02:11:41.135025   388 net.cpp:411] norm1 -> norm1
I0912 02:11:41.135277   388 net.cpp:150] Setting up norm1
I0912 02:11:41.135290   388 net.cpp:157] Top shape: 1 96 112 112 (1204224)
I0912 02:11:41.135295   388 net.cpp:165] Memory required for data: 14450688
I0912 02:11:41.135299   388 layer_factory.hpp:77] Creating layer pool1
I0912 02:11:41.135310   388 net.cpp:106] Creating Layer pool1
I0912 02:11:41.135315   388 net.cpp:454] pool1 <- norm1
I0912 02:11:41.135324   388 net.cpp:411] pool1 -> pool1
I0912 02:11:41.135408   388 net.cpp:150] Setting up pool1
I0912 02:11:41.135418   388 net.cpp:157] Top shape: 1 96 57 57 (311904)
I0912 02:11:41.135423   388 net.cpp:165] Memory required for data: 15698304
I0912 02:11:41.135427   388 layer_factory.hpp:77] Creating layer conv2
I0912 02:11:41.135444   388 net.cpp:106] Creating Layer conv2
I0912 02:11:41.135452   388 net.cpp:454] conv2 <- pool1
I0912 02:11:41.135460   388 net.cpp:411] conv2 -> conv2
I0912 02:11:41.140799   388 net.cpp:150] Setting up conv2
I0912 02:11:41.140822   388 net.cpp:157] Top shape: 1 256 29 29 (215296)
I0912 02:11:41.140830   388 net.cpp:165] Memory required for data: 16559488
I0912 02:11:41.140846   388 layer_factory.hpp:77] Creating layer relu2
I0912 02:11:41.140858   388 net.cpp:106] Creating Layer relu2
I0912 02:11:41.140869   388 net.cpp:454] relu2 <- conv2
I0912 02:11:41.140877   388 net.cpp:397] relu2 -> conv2 (in-place)
I0912 02:11:41.140888   388 net.cpp:150] Setting up relu2
I0912 02:11:41.140897   388 net.cpp:157] Top shape: 1 256 29 29 (215296)
I0912 02:11:41.140902   388 net.cpp:165] Memory required for data: 17420672
I0912 02:11:41.140907   388 layer_factory.hpp:77] Creating layer norm2
I0912 02:11:41.140918   388 net.cpp:106] Creating Layer norm2
I0912 02:11:41.140923   388 net.cpp:454] norm2 <- conv2
I0912 02:11:41.140929   388 net.cpp:411] norm2 -> norm2
I0912 02:11:41.141193   388 net.cpp:150] Setting up norm2
I0912 02:11:41.141207   388 net.cpp:157] Top shape: 1 256 29 29 (215296)
I0912 02:11:41.141211   388 net.cpp:165] Memory required for data: 18281856
I0912 02:11:41.141216   388 layer_factory.hpp:77] Creating layer pool2
I0912 02:11:41.141224   388 net.cpp:106] Creating Layer pool2
I0912 02:11:41.141229   388 net.cpp:454] pool2 <- norm2
I0912 02:11:41.141237   388 net.cpp:411] pool2 -> pool2
I0912 02:11:41.141322   388 net.cpp:150] Setting up pool2
I0912 02:11:41.141333   388 net.cpp:157] Top shape: 1 256 15 15 (57600)
I0912 02:11:41.141338   388 net.cpp:165] Memory required for data: 18512256
I0912 02:11:41.141342   388 layer_factory.hpp:77] Creating layer conv3
I0912 02:11:41.141356   388 net.cpp:106] Creating Layer conv3
I0912 02:11:41.141363   388 net.cpp:454] conv3 <- pool2
I0912 02:11:41.141372   388 net.cpp:411] conv3 -> conv3
I0912 02:11:41.146394   388 net.cpp:150] Setting up conv3
I0912 02:11:41.146415   388 net.cpp:157] Top shape: 1 384 15 15 (86400)
I0912 02:11:41.146420   388 net.cpp:165] Memory required for data: 18857856
I0912 02:11:41.146438   388 layer_factory.hpp:77] Creating layer relu3
I0912 02:11:41.146456   388 net.cpp:106] Creating Layer relu3
I0912 02:11:41.146464   388 net.cpp:454] relu3 <- conv3
I0912 02:11:41.146476   388 net.cpp:397] relu3 -> conv3 (in-place)
I0912 02:11:41.146488   388 net.cpp:150] Setting up relu3
I0912 02:11:41.146497   388 net.cpp:157] Top shape: 1 384 15 15 (86400)
I0912 02:11:41.146502   388 net.cpp:165] Memory required for data: 19203456
I0912 02:11:41.146507   388 layer_factory.hpp:77] Creating layer conv4
I0912 02:11:41.146517   388 net.cpp:106] Creating Layer conv4
I0912 02:11:41.146522   388 net.cpp:454] conv4 <- conv3
I0912 02:11:41.146531   388 net.cpp:411] conv4 -> conv4
I0912 02:11:41.152096   388 net.cpp:150] Setting up conv4
I0912 02:11:41.152117   388 net.cpp:157] Top shape: 1 384 15 15 (86400)
I0912 02:11:41.152122   388 net.cpp:165] Memory required for data: 19549056
I0912 02:11:41.152132   388 layer_factory.hpp:77] Creating layer relu4
I0912 02:11:41.152146   388 net.cpp:106] Creating Layer relu4
I0912 02:11:41.152153   388 net.cpp:454] relu4 <- conv4
I0912 02:11:41.152161   388 net.cpp:397] relu4 -> conv4 (in-place)
I0912 02:11:41.152171   388 net.cpp:150] Setting up relu4
I0912 02:11:41.152179   388 net.cpp:157] Top shape: 1 384 15 15 (86400)
I0912 02:11:41.152184   388 net.cpp:165] Memory required for data: 19894656
I0912 02:11:41.152187   388 layer_factory.hpp:77] Creating layer conv5
I0912 02:11:41.152199   388 net.cpp:106] Creating Layer conv5
I0912 02:11:41.152206   388 net.cpp:454] conv5 <- conv4
I0912 02:11:41.152215   388 net.cpp:411] conv5 -> conv5
I0912 02:11:41.157951   388 net.cpp:150] Setting up conv5
I0912 02:11:41.157972   388 net.cpp:157] Top shape: 1 256 15 15 (57600)
I0912 02:11:41.157979   388 net.cpp:165] Memory required for data: 20125056
I0912 02:11:41.157994   388 layer_factory.hpp:77] Creating layer relu5
I0912 02:11:41.158008   388 net.cpp:106] Creating Layer relu5
I0912 02:11:41.158015   388 net.cpp:454] relu5 <- conv5
I0912 02:11:41.158023   388 net.cpp:397] relu5 -> conv5 (in-place)
I0912 02:11:41.158033   388 net.cpp:150] Setting up relu5
I0912 02:11:41.158041   388 net.cpp:157] Top shape: 1 256 15 15 (57600)
I0912 02:11:41.158046   388 net.cpp:165] Memory required for data: 20355456
I0912 02:11:41.158049   388 layer_factory.hpp:77] Creating layer conv5_relu5_0_split
I0912 02:11:41.158061   388 net.cpp:106] Creating Layer conv5_relu5_0_split
I0912 02:11:41.158064   388 net.cpp:454] conv5_relu5_0_split <- conv5
I0912 02:11:41.158071   388 net.cpp:411] conv5_relu5_0_split -> conv5_relu5_0_split_0
I0912 02:11:41.158084   388 net.cpp:411] conv5_relu5_0_split -> conv5_relu5_0_split_1
I0912 02:11:41.158174   388 net.cpp:150] Setting up conv5_relu5_0_split
I0912 02:11:41.158185   388 net.cpp:157] Top shape: 1 256 15 15 (57600)
I0912 02:11:41.158190   388 net.cpp:157] Top shape: 1 256 15 15 (57600)
I0912 02:11:41.158195   388 net.cpp:165] Memory required for data: 20816256
I0912 02:11:41.158198   388 layer_factory.hpp:77] Creating layer rpn_conv/3x3
I0912 02:11:41.158215   388 net.cpp:106] Creating Layer rpn_conv/3x3
I0912 02:11:41.158221   388 net.cpp:454] rpn_conv/3x3 <- conv5_relu5_0_split_0
I0912 02:11:41.158232   388 net.cpp:411] rpn_conv/3x3 -> rpn/output
I0912 02:11:41.172592   388 net.cpp:150] Setting up rpn_conv/3x3
I0912 02:11:41.172626   388 net.cpp:157] Top shape: 1 256 15 15 (57600)
I0912 02:11:41.172631   388 net.cpp:165] Memory required for data: 21046656
I0912 02:11:41.172642   388 layer_factory.hpp:77] Creating layer rpn_relu/3x3
I0912 02:11:41.172658   388 net.cpp:106] Creating Layer rpn_relu/3x3
I0912 02:11:41.172665   388 net.cpp:454] rpn_relu/3x3 <- rpn/output
I0912 02:11:41.172674   388 net.cpp:397] rpn_relu/3x3 -> rpn/output (in-place)
I0912 02:11:41.172685   388 net.cpp:150] Setting up rpn_relu/3x3
I0912 02:11:41.172693   388 net.cpp:157] Top shape: 1 256 15 15 (57600)
I0912 02:11:41.172695   388 net.cpp:165] Memory required for data: 21277056
I0912 02:11:41.172699   388 layer_factory.hpp:77] Creating layer rpn/output_rpn_relu/3x3_0_split
I0912 02:11:41.172705   388 net.cpp:106] Creating Layer rpn/output_rpn_relu/3x3_0_split
I0912 02:11:41.172709   388 net.cpp:454] rpn/output_rpn_relu/3x3_0_split <- rpn/output
I0912 02:11:41.172718   388 net.cpp:411] rpn/output_rpn_relu/3x3_0_split -> rpn/output_rpn_relu/3x3_0_split_0
I0912 02:11:41.172726   388 net.cpp:411] rpn/output_rpn_relu/3x3_0_split -> rpn/output_rpn_relu/3x3_0_split_1
I0912 02:11:41.172811   388 net.cpp:150] Setting up rpn/output_rpn_relu/3x3_0_split
I0912 02:11:41.172821   388 net.cpp:157] Top shape: 1 256 15 15 (57600)
I0912 02:11:41.172825   388 net.cpp:157] Top shape: 1 256 15 15 (57600)
I0912 02:11:41.172828   388 net.cpp:165] Memory required for data: 21737856
I0912 02:11:41.172832   388 layer_factory.hpp:77] Creating layer rpn_cls_score
I0912 02:11:41.172847   388 net.cpp:106] Creating Layer rpn_cls_score
I0912 02:11:41.172852   388 net.cpp:454] rpn_cls_score <- rpn/output_rpn_relu/3x3_0_split_0
I0912 02:11:41.172860   388 net.cpp:411] rpn_cls_score -> rpn_cls_score
I0912 02:11:41.173424   388 net.cpp:150] Setting up rpn_cls_score
I0912 02:11:41.173434   388 net.cpp:157] Top shape: 1 18 15 15 (4050)
I0912 02:11:41.173439   388 net.cpp:165] Memory required for data: 21754056
I0912 02:11:41.173445   388 layer_factory.hpp:77] Creating layer rpn_bbox_pred
I0912 02:11:41.173460   388 net.cpp:106] Creating Layer rpn_bbox_pred
I0912 02:11:41.173465   388 net.cpp:454] rpn_bbox_pred <- rpn/output_rpn_relu/3x3_0_split_1
I0912 02:11:41.173471   388 net.cpp:411] rpn_bbox_pred -> rpn_bbox_pred
I0912 02:11:41.174078   388 net.cpp:150] Setting up rpn_bbox_pred
I0912 02:11:41.174089   388 net.cpp:157] Top shape: 1 36 15 15 (8100)
I0912 02:11:41.174093   388 net.cpp:165] Memory required for data: 21786456
I0912 02:11:41.174099   388 layer_factory.hpp:77] Creating layer rpn_cls_score_reshape
I0912 02:11:41.174108   388 net.cpp:106] Creating Layer rpn_cls_score_reshape
I0912 02:11:41.174113   388 net.cpp:454] rpn_cls_score_reshape <- rpn_cls_score
I0912 02:11:41.174121   388 net.cpp:411] rpn_cls_score_reshape -> rpn_cls_score_reshape
I0912 02:11:41.174170   388 net.cpp:150] Setting up rpn_cls_score_reshape
I0912 02:11:41.174180   388 net.cpp:157] Top shape: 1 2 135 15 (4050)
I0912 02:11:41.174183   388 net.cpp:165] Memory required for data: 21802656
I0912 02:11:41.174187   388 layer_factory.hpp:77] Creating layer rpn_cls_prob
I0912 02:11:41.174196   388 net.cpp:106] Creating Layer rpn_cls_prob
I0912 02:11:41.174202   388 net.cpp:454] rpn_cls_prob <- rpn_cls_score_reshape
I0912 02:11:41.174209   388 net.cpp:411] rpn_cls_prob -> rpn_cls_prob
I0912 02:11:41.174326   388 net.cpp:150] Setting up rpn_cls_prob
I0912 02:11:41.174350   388 net.cpp:157] Top shape: 1 2 135 15 (4050)
I0912 02:11:41.174358   388 net.cpp:165] Memory required for data: 21818856
I0912 02:11:41.174363   388 layer_factory.hpp:77] Creating layer rpn_cls_prob_reshape
I0912 02:11:41.174373   388 net.cpp:106] Creating Layer rpn_cls_prob_reshape
I0912 02:11:41.174381   388 net.cpp:454] rpn_cls_prob_reshape <- rpn_cls_prob
I0912 02:11:41.174386   388 net.cpp:411] rpn_cls_prob_reshape -> rpn_cls_prob_reshape
I0912 02:11:41.174437   388 net.cpp:150] Setting up rpn_cls_prob_reshape
I0912 02:11:41.174445   388 net.cpp:157] Top shape: 1 18 15 15 (4050)
I0912 02:11:41.174448   388 net.cpp:165] Memory required for data: 21835056
I0912 02:11:41.174451   388 layer_factory.hpp:77] Creating layer proposal
I0912 02:11:41.190755   388 net.cpp:106] Creating Layer proposal
I0912 02:11:41.190783   388 net.cpp:454] proposal <- rpn_cls_prob_reshape
I0912 02:11:41.190791   388 net.cpp:454] proposal <- rpn_bbox_pred
I0912 02:11:41.190796   388 net.cpp:454] proposal <- im_info
I0912 02:11:41.190805   388 net.cpp:411] proposal -> rois
I0912 02:11:41.191793   388 net.cpp:150] Setting up proposal
I0912 02:11:41.191813   388 net.cpp:157] Top shape: 1 5 (5)
I0912 02:11:41.191817   388 net.cpp:165] Memory required for data: 21835076
I0912 02:11:41.191823   388 layer_factory.hpp:77] Creating layer roi_pool_conv5
I0912 02:11:41.191833   388 net.cpp:106] Creating Layer roi_pool_conv5
I0912 02:11:41.191838   388 net.cpp:454] roi_pool_conv5 <- conv5_relu5_0_split_1
I0912 02:11:41.191843   388 net.cpp:454] roi_pool_conv5 <- rois
I0912 02:11:41.191849   388 net.cpp:411] roi_pool_conv5 -> roi_pool_conv5
I0912 02:11:41.191859   388 roi_pooling_layer.cpp:30] Spatial scale: 0.0625
I0912 02:11:41.191951   388 net.cpp:150] Setting up roi_pool_conv5
I0912 02:11:41.191960   388 net.cpp:157] Top shape: 1 256 6 6 (9216)
I0912 02:11:41.191964   388 net.cpp:165] Memory required for data: 21871940
I0912 02:11:41.191967   388 layer_factory.hpp:77] Creating layer fc6
I0912 02:11:41.191975   388 net.cpp:106] Creating Layer fc6
I0912 02:11:41.191979   388 net.cpp:454] fc6 <- roi_pool_conv5
I0912 02:11:41.191985   388 net.cpp:411] fc6 -> fc6
I0912 02:11:41.283815   388 net.cpp:150] Setting up fc6
I0912 02:11:41.283840   388 net.cpp:157] Top shape: 1 4096 (4096)
I0912 02:11:41.283843   388 net.cpp:165] Memory required for data: 21888324
I0912 02:11:41.283859   388 layer_factory.hpp:77] Creating layer relu6
I0912 02:11:41.283869   388 net.cpp:106] Creating Layer relu6
I0912 02:11:41.283874   388 net.cpp:454] relu6 <- fc6
I0912 02:11:41.283882   388 net.cpp:397] relu6 -> fc6 (in-place)
I0912 02:11:41.283892   388 net.cpp:150] Setting up relu6
I0912 02:11:41.283895   388 net.cpp:157] Top shape: 1 4096 (4096)
I0912 02:11:41.283897   388 net.cpp:165] Memory required for data: 21904708
I0912 02:11:41.283900   388 layer_factory.hpp:77] Creating layer drop6
I0912 02:11:41.283905   388 net.cpp:106] Creating Layer drop6
I0912 02:11:41.283908   388 net.cpp:454] drop6 <- fc6
I0912 02:11:41.283912   388 net.cpp:397] drop6 -> fc6 (in-place)
I0912 02:11:41.283949   388 net.cpp:150] Setting up drop6
I0912 02:11:41.283957   388 net.cpp:157] Top shape: 1 4096 (4096)
I0912 02:11:41.283959   388 net.cpp:165] Memory required for data: 21921092
I0912 02:11:41.283962   388 layer_factory.hpp:77] Creating layer fc7
I0912 02:11:41.283967   388 net.cpp:106] Creating Layer fc7
I0912 02:11:41.283970   388 net.cpp:454] fc7 <- fc6
I0912 02:11:41.283977   388 net.cpp:411] fc7 -> fc7
I0912 02:11:41.329511   388 net.cpp:150] Setting up fc7
I0912 02:11:41.329542   388 net.cpp:157] Top shape: 1 4096 (4096)
I0912 02:11:41.329545   388 net.cpp:165] Memory required for data: 21937476
I0912 02:11:41.329557   388 layer_factory.hpp:77] Creating layer relu7
I0912 02:11:41.329567   388 net.cpp:106] Creating Layer relu7
I0912 02:11:41.329571   388 net.cpp:454] relu7 <- fc7
I0912 02:11:41.329576   388 net.cpp:397] relu7 -> fc7 (in-place)
I0912 02:11:41.329586   388 net.cpp:150] Setting up relu7
I0912 02:11:41.329588   388 net.cpp:157] Top shape: 1 4096 (4096)
I0912 02:11:41.329591   388 net.cpp:165] Memory required for data: 21953860
I0912 02:11:41.329593   388 layer_factory.hpp:77] Creating layer drop7
I0912 02:11:41.329602   388 net.cpp:106] Creating Layer drop7
I0912 02:11:41.329604   388 net.cpp:454] drop7 <- fc7
I0912 02:11:41.329608   388 net.cpp:397] drop7 -> fc7 (in-place)
I0912 02:11:41.329643   388 net.cpp:150] Setting up drop7
I0912 02:11:41.329650   388 net.cpp:157] Top shape: 1 4096 (4096)
I0912 02:11:41.329653   388 net.cpp:165] Memory required for data: 21970244
I0912 02:11:41.329655   388 layer_factory.hpp:77] Creating layer fc7_drop7_0_split
I0912 02:11:41.329663   388 net.cpp:106] Creating Layer fc7_drop7_0_split
I0912 02:11:41.329665   388 net.cpp:454] fc7_drop7_0_split <- fc7
I0912 02:11:41.329670   388 net.cpp:411] fc7_drop7_0_split -> fc7_drop7_0_split_0
I0912 02:11:41.329679   388 net.cpp:411] fc7_drop7_0_split -> fc7_drop7_0_split_1
I0912 02:11:41.329738   388 net.cpp:150] Setting up fc7_drop7_0_split
I0912 02:11:41.329744   388 net.cpp:157] Top shape: 1 4096 (4096)
I0912 02:11:41.329748   388 net.cpp:157] Top shape: 1 4096 (4096)
I0912 02:11:41.329751   388 net.cpp:165] Memory required for data: 22003012
I0912 02:11:41.329752   388 layer_factory.hpp:77] Creating layer cls_score
I0912 02:11:41.329766   388 net.cpp:106] Creating Layer cls_score
I0912 02:11:41.329771   388 net.cpp:454] cls_score <- fc7_drop7_0_split_0
I0912 02:11:41.329777   388 net.cpp:411] cls_score -> cls_score
I0912 02:11:41.331368   388 net.cpp:150] Setting up cls_score
I0912 02:11:41.331382   388 net.cpp:157] Top shape: 1 21 (21)
I0912 02:11:41.331385   388 net.cpp:165] Memory required for data: 22003096
I0912 02:11:41.331393   388 layer_factory.hpp:77] Creating layer bbox_pred
I0912 02:11:41.331398   388 net.cpp:106] Creating Layer bbox_pred
I0912 02:11:41.331401   388 net.cpp:454] bbox_pred <- fc7_drop7_0_split_1
I0912 02:11:41.331408   388 net.cpp:411] bbox_pred -> bbox_pred
I0912 02:11:41.331809   388 net.cpp:150] Setting up bbox_pred
I0912 02:11:41.331817   388 net.cpp:157] Top shape: 1 84 (84)
I0912 02:11:41.331820   388 net.cpp:165] Memory required for data: 22003432
I0912 02:11:41.331825   388 layer_factory.hpp:77] Creating layer cls_prob
I0912 02:11:41.331833   388 net.cpp:106] Creating Layer cls_prob
I0912 02:11:41.331835   388 net.cpp:454] cls_prob <- cls_score
I0912 02:11:41.331841   388 net.cpp:411] cls_prob -> cls_prob
I0912 02:11:41.331930   388 net.cpp:150] Setting up cls_prob
I0912 02:11:41.331938   388 net.cpp:157] Top shape: 1 21 (21)
I0912 02:11:41.331944   388 net.cpp:165] Memory required for data: 22003516
I0912 02:11:41.331948   388 net.cpp:228] cls_prob does not need backward computation.
I0912 02:11:41.331950   388 net.cpp:228] bbox_pred does not need backward computation.
I0912 02:11:41.331953   388 net.cpp:228] cls_score does not need backward computation.
I0912 02:11:41.331955   388 net.cpp:228] fc7_drop7_0_split does not need backward computation.
…
