…
snapshot_prefix: "vgg_cnn_m_1024_faster_rcnn"
average_loss: 100
I0825 10:34:27.146528 39129 solver.cpp:81] Creating training net from train_net file: models/pascal_voc/VGG_CNN_M_1024/faster_rcnn_end2end/train.prototxt
I0825 10:34:27.147256 39129 net.cpp:49] Initializing net from parameters: 
name: "VGG_CNN_M_1024"
state {
  phase: TRAIN
}
layer {
  name: "input-data"
  type: "Python"
  top: "data"
  top: "im_info"
  top: "gt_boxes"
  python_param {
    module: "roi_data_layer.layer"
    layer: "RoIDataLayer"
    param_str: "\'num_classes\': 21"
  }
}
layer {
  name: "conv1"
  type: "Convolution"
  bottom: "data"
  top: "conv1"
  param {
    lr_mult: 0
    decay_mult: 0
  }
  param {
    lr_mult: 0
    decay_mult: 0
  }
  convolution_param {
    num_output: 96
    kernel_size: 7
    stride: 2
  }
}
layer {
  name: "relu1"
  type: "ReLU"
  bottom: "conv1"
  top: "conv1"
}
layer {
  name: "norm1"
  type: "LRN"
  bottom: "conv1"
  top: "norm1"
  lrn_param {
    local_size: 5
    alpha: 0.0005
    beta: 0.75
    k: 2
  }
}
layer {
  name: "pool1"
  type: "Pooling"
  bottom: "norm1"
  top: "pool1"
  pooling_param {
    pool: MAX
    kernel_size: 3
    stride: 2
  }
}
layer {
  name: "conv2"
  type: "Convolution"
  bottom: "pool1"
  top: "conv2"
  param {
    lr_mult: 1
  }
  param {
    lr_mult: 2
  }
  convolution_param {
    num_output: 256
    pad: 1
    kernel_size: 5
    stride: 2
  }
}
layer {
  name: "relu2"
  type: "ReLU"
  bottom: "conv2"
  top: "conv2"
}
layer {
  name: "norm2"
  type: "LRN"
  bottom: "conv2"
  top: "norm2"
  lrn_param {
    local_size: 5
    alpha: 0.0005
    beta: 0.75
    k: 2
  }
}
layer {
  name: "pool2"
  type: "Pooling"
  bottom: "norm2"
  top: "pool2"
  pooling_param {
    pool: MAX
    kernel_size: 3
    stride: 2
  }
}
layer {
  name: "conv3"
  type: "Convolution"
  bottom: "pool2"
  top: "conv3"
  param {
    lr_mult: 1
  }
  param {
    lr_mult: 2
  }
  convolution_param {
    num_output: 512
    pad: 1
    kernel_size: 3
  }
}
layer {
  name: "relu3"
  type: "ReLU"
  bottom: "conv3"
  top: "conv3"
}
layer {
  name: "conv4"
  type: "Convolution"
  bottom: "conv3"
  top: "conv4"
  param {
    lr_mult: 1
  }
  param {
    lr_mult: 2
  }
  convolution_param {
    num_output: 512
    pad: 1
    kernel_size: 3
  }
}
layer {
  name: "relu4"
  type: "ReLU"
  bottom: "conv4"
  top: "conv4"
}
layer {
  name: "conv5"
  type: "Convolution"
  bottom: "conv4"
  top: "conv5"
  param {
    lr_mult: 1
  }
  param {
    lr_mult: 2
  }
  convolution_param {
    num_output: 512
    pad: 1
    kernel_size: 3
  }
}
layer {
  name: "relu5"
  type: "ReLU"
  bottom: "conv5"
  top: "conv5"
}
layer {
  name: "rpn_conv/3x3"
  type: "Convolution"
  bottom: "conv5"
  top: "rpn/output"
  param {
    lr_mult: 1
  }
  param {
    lr_mult: 2
  }
  convolution_param {
    num_output: 256
    pad: 1
    kernel_size: 3
    stride: 1
    weight_filler {
      type: "gaussian"
      std: 0.01
    }
    bias_filler {
      type: "constant"
      value: 0
    }
  }
}
layer {
  name: "rpn_relu/3x3"
  type: "ReLU"
  bottom: "rpn/output"
  top: "rpn/output"
}
layer {
  name: "rpn_cls_score"
  type: "Convolution"
  bottom: "rpn/output"
  top: "rpn_cls_score"
  param {
    lr_mult: 1
  }
  param {
    lr_mult: 2
  }
  convolution_param {
    num_output: 18
    pad: 0
    kernel_size: 1
    stride: 1
    weight_filler {
      type: "gaussian"
      std: 0.01
    }
    bias_filler {
      type: "constant"
      value: 0
    }
  }
}
layer {
  name: "rpn_bbox_pred"
  type: "Convolution"
  bottom: "rpn/output"
  top: "rpn_bbox_pred"
  param {
    lr_mult: 1
  }
  param {
    lr_mult: 2
  }
  convolution_param {
    num_output: 36
    pad: 0
    kernel_size: 1
    stride: 1
    weight_filler {
      type: "gaussian"
      std: 0.01
    }
    bias_filler {
      type: "constant"
      value: 0
    }
  }
}
layer {
  name: "rpn_cls_score_reshape"
  type: "Reshape"
  bottom: "rpn_cls_score"
  top: "rpn_cls_score_reshape"
  reshape_param {
    shape {
      dim: 0
      dim: 2
      dim: -1
      dim: 0
    }
  }
}
layer {
  name: "rpn-data"
  type: "Python"
  bottom: "rpn_cls_score"
  bottom: "gt_boxes"
  bottom: "im_info"
  bottom: "data"
  top: "rpn_labels"
  top: "rpn_bbox_targets"
  top: "rpn_bbox_inside_weights"
  top: "rpn_bbox_outside_weights"
  python_param {
    module: "rpn.anchor_target_layer"
    layer: "AnchorTargetLayer"
    param_str: "\'feat_stride\': 16"
  }
}
layer {
  name: "rpn_loss_cls"
  type: "SoftmaxWithLoss"
  bottom: "rpn_cls_score_reshape"
  bottom: "rpn_labels"
  top: "rpn_cls_loss"
  loss_weight: 1
  propagate_down: true
  propagate_down: false
  loss_param {
    ignore_label: -1
    normalize: true
  }
}
layer {
  name: "rpn_loss_bbox"
  type: "SmoothL1Loss"
  bottom: "rpn_bbox_pred"
  bottom: "rpn_bbox_targets"
  bottom: "rpn_bbox_inside_weights"
  bottom: "rpn_bbox_outside_weights"
  top: "rpn_loss_bbox"
  loss_weight: 1
  smooth_l1_loss_param {
    sigma: 3
  }
}
layer {
  name: "rpn_cls_prob"
  type: "Softmax"
  bottom: "rpn_cls_score_reshape"
  top: "rpn_cls_prob"
}
layer {
  name: "rpn_cls_prob_reshape"
  type: "Reshape"
  bottom: "rpn_cls_prob"
  top: "rpn_cls_prob_reshape"
  reshape_param {
    shape {
      dim: 0
      dim: 18
      dim: -1
      dim: 0
    }
  }
}
layer {
  name: "proposal"
  type: "Python"
  bottom: "rpn_cls_prob_reshape"
  bottom: "rpn_bbox_pred"
  bottom: "im_info"
  top: "rpn_rois"
  python_param {
    module: "rpn.proposal_layer"
    layer: "ProposalLayer"
    param_str: "\'feat_stride\': 16"
  }
}
layer {
  name: "roi-data"
  type: "Python"
  bottom: "rpn_rois"
  bottom: "gt_boxes"
  top: "rois"
  top: "labels"
  top: "bbox_targets"
  top: "bbox_inside_weights"
  top: "bbox_outside_weights"
  python_param {
    module: "rpn.proposal_target_layer"
    layer: "ProposalTargetLayer"
    param_str: "\'num_classes\': 21"
  }
}
layer {
  name: "roi_pool5"
  type: "ROIPooling"
  bottom: "conv5"
  bottom: "rois"
  top: "pool5"
  roi_pooling_param {
    pooled_h: 6
    pooled_w: 6
    spatial_scale: 0.0625
  }
}
layer {
  name: "fc6"
  type: "InnerProduct"
  bottom: "pool5"
  top: "fc6"
  param {
    lr_mult: 1
  }
  param {
    lr_mult: 2
  }
  inner_product_param {
    num_output: 4096
  }
}
layer {
  name: "relu6"
  type: "ReLU"
  bottom: "fc6"
  top: "fc6"
}
layer {
  name: "drop6"
  type: "Dropout"
  bottom: "fc6"
  top: "fc6"
  dropout_param {
    dropout_ratio: 0.5
  }
}
layer {
  name: "fc7"
  type: "InnerProduct"
  bottom: "fc6"
  top: "fc7"
  param {
    lr_mult: 1
  }
  param {
    lr_mult: 2
  }
  inner_product_param {
    num_output: 1024
  }
}
layer {
  name: "relu7"
  type: "ReLU"
  bottom: "fc7"
  top: "fc7"
}
layer {
  name: "drop7"
  type: "Dropout"
  bottom: "fc7"
  top: "fc7"
  dropout_param {
    dropout_ratio: 0.5
  }
}
layer {
  name: "cls_score"
  type: "InnerProduct"
  bottom: "fc7"
  top: "cls_score"
  param {
    lr_mult: 1
  }
  param {
    lr_mult: 2
  }
  inner_product_param {
    num_output: 21
    weight_filler {
      type: "gaussian"
      std: 0.01
    }
    bias_filler {
      type: "constant"
      value: 0
    }
  }
}
layer {
  name: "bbox_pred"
  type: "InnerProduct"
  bottom: "fc7"
  top: "bbox_pred"
  param {
    lr_mult: 1
  }
  param {
    lr_mult: 2
  }
  inner_product_param {
    num_output: 84
    weight_filler {
      type: "gaussian"
      std: 0.001
    }
    bias_filler {
      type: "constant"
      value: 0
    }
  }
}
layer {
  name: "loss_cls"
  type: "SoftmaxWithLoss"
  bottom: "cls_score"
  bottom: "labels"
  top: "loss_cls"
  loss_weight: 1
  propagate_down: true
  propagate_down: false
}
layer {
  name: "loss_bbox"
  type: "SmoothL1Loss"
  bottom: "bbox_pred"
  bottom: "bbox_targets"
  bottom: "bbox_inside_weights"
  bottom: "bbox_outside_weights"
  top: "loss_bbox"
  loss_weight: 1
}
I0825 10:34:27.147526 39129 layer_factory.hpp:77] Creating layer input-data
I0825 10:34:27.163310 39129 net.cpp:106] Creating Layer input-data
I0825 10:34:27.163349 39129 net.cpp:411] input-data -> data
I0825 10:34:27.163365 39129 net.cpp:411] input-data -> im_info
I0825 10:34:27.163377 39129 net.cpp:411] input-data -> gt_boxes
RoiDataLayer: name_to_top: {'gt_boxes': 2, 'data': 0, 'im_info': 1}
I0825 10:34:27.177711 39129 net.cpp:150] Setting up input-data
I0825 10:34:27.177742 39129 net.cpp:157] Top shape: 1 3 600 1000 (1800000)
I0825 10:34:27.177749 39129 net.cpp:157] Top shape: 1 3 (3)
I0825 10:34:27.177753 39129 net.cpp:157] Top shape: 1 4 (4)
I0825 10:34:27.177757 39129 net.cpp:165] Memory required for data: 7200028
I0825 10:34:27.177765 39129 layer_factory.hpp:77] Creating layer data_input-data_0_split
I0825 10:34:27.177783 39129 net.cpp:106] Creating Layer data_input-data_0_split
I0825 10:34:27.177789 39129 net.cpp:454] data_input-data_0_split <- data
I0825 10:34:27.177800 39129 net.cpp:411] data_input-data_0_split -> data_input-data_0_split_0
I0825 10:34:27.177815 39129 net.cpp:411] data_input-data_0_split -> data_input-data_0_split_1
I0825 10:34:27.177883 39129 net.cpp:150] Setting up data_input-data_0_split
I0825 10:34:27.177894 39129 net.cpp:157] Top shape: 1 3 600 1000 (1800000)
I0825 10:34:27.177901 39129 net.cpp:157] Top shape: 1 3 600 1000 (1800000)
I0825 10:34:27.177903 39129 net.cpp:165] Memory required for data: 21600028
I0825 10:34:27.177906 39129 layer_factory.hpp:77] Creating layer im_info_input-data_1_split
I0825 10:34:27.177916 39129 net.cpp:106] Creating Layer im_info_input-data_1_split
I0825 10:34:27.177922 39129 net.cpp:454] im_info_input-data_1_split <- im_info
I0825 10:34:27.177930 39129 net.cpp:411] im_info_input-data_1_split -> im_info_input-data_1_split_0
I0825 10:34:27.177938 39129 net.cpp:411] im_info_input-data_1_split -> im_info_input-data_1_split_1
I0825 10:34:27.177997 39129 net.cpp:150] Setting up im_info_input-data_1_split
I0825 10:34:27.178006 39129 net.cpp:157] Top shape: 1 3 (3)
I0825 10:34:27.178010 39129 net.cpp:157] Top shape: 1 3 (3)
I0825 10:34:27.178014 39129 net.cpp:165] Memory required for data: 21600052
I0825 10:34:27.178017 39129 layer_factory.hpp:77] Creating layer gt_boxes_input-data_2_split
I0825 10:34:27.178025 39129 net.cpp:106] Creating Layer gt_boxes_input-data_2_split
I0825 10:34:27.178028 39129 net.cpp:454] gt_boxes_input-data_2_split <- gt_boxes
I0825 10:34:27.178035 39129 net.cpp:411] gt_boxes_input-data_2_split -> gt_boxes_input-data_2_split_0
I0825 10:34:27.178043 39129 net.cpp:411] gt_boxes_input-data_2_split -> gt_boxes_input-data_2_split_1
I0825 10:34:27.178099 39129 net.cpp:150] Setting up gt_boxes_input-data_2_split
I0825 10:34:27.178108 39129 net.cpp:157] Top shape: 1 4 (4)
I0825 10:34:27.178112 39129 net.cpp:157] Top shape: 1 4 (4)
I0825 10:34:27.178115 39129 net.cpp:165] Memory required for data: 21600084
I0825 10:34:27.178118 39129 layer_factory.hpp:77] Creating layer conv1
I0825 10:34:27.178135 39129 net.cpp:106] Creating Layer conv1
I0825 10:34:27.178139 39129 net.cpp:454] conv1 <- data_input-data_0_split_0
I0825 10:34:27.178148 39129 net.cpp:411] conv1 -> conv1
I0825 10:34:27.501358 39129 net.cpp:150] Setting up conv1
I0825 10:34:27.501405 39129 net.cpp:157] Top shape: 1 96 297 497 (14170464)
I0825 10:34:27.501410 39129 net.cpp:165] Memory required for data: 78281940
I0825 10:34:27.501432 39129 layer_factory.hpp:77] Creating layer relu1
I0825 10:34:27.501453 39129 net.cpp:106] Creating Layer relu1
I0825 10:34:27.501458 39129 net.cpp:454] relu1 <- conv1
I0825 10:34:27.501467 39129 net.cpp:397] relu1 -> conv1 (in-place)
I0825 10:34:27.502173 39129 net.cpp:150] Setting up relu1
I0825 10:34:27.502192 39129 net.cpp:157] Top shape: 1 96 297 497 (14170464)
I0825 10:34:27.502197 39129 net.cpp:165] Memory required for data: 134963796
I0825 10:34:27.502202 39129 layer_factory.hpp:77] Creating layer norm1
I0825 10:34:27.502212 39129 net.cpp:106] Creating Layer norm1
I0825 10:34:27.502216 39129 net.cpp:454] norm1 <- conv1
I0825 10:34:27.502224 39129 net.cpp:411] norm1 -> norm1
I0825 10:34:27.502526 39129 net.cpp:150] Setting up norm1
I0825 10:34:27.502539 39129 net.cpp:157] Top shape: 1 96 297 497 (14170464)
I0825 10:34:27.502543 39129 net.cpp:165] Memory required for data: 191645652
I0825 10:34:27.502547 39129 layer_factory.hpp:77] Creating layer pool1
I0825 10:34:27.502557 39129 net.cpp:106] Creating Layer pool1
I0825 10:34:27.502560 39129 net.cpp:454] pool1 <- norm1
I0825 10:34:27.502568 39129 net.cpp:411] pool1 -> pool1
I0825 10:34:27.502643 39129 net.cpp:150] Setting up pool1
I0825 10:34:27.502653 39129 net.cpp:157] Top shape: 1 96 148 248 (3523584)
I0825 10:34:27.502656 39129 net.cpp:165] Memory required for data: 205739988
I0825 10:34:27.502660 39129 layer_factory.hpp:77] Creating layer conv2
I0825 10:34:27.502681 39129 net.cpp:106] Creating Layer conv2
I0825 10:34:27.502687 39129 net.cpp:454] conv2 <- pool1
I0825 10:34:27.502697 39129 net.cpp:411] conv2 -> conv2
I0825 10:34:27.509423 39129 net.cpp:150] Setting up conv2
I0825 10:34:27.509476 39129 net.cpp:157] Top shape: 1 256 73 123 (2298624)
I0825 10:34:27.509481 39129 net.cpp:165] Memory required for data: 214934484
I0825 10:34:27.509500 39129 layer_factory.hpp:77] Creating layer relu2
I0825 10:34:27.509519 39129 net.cpp:106] Creating Layer relu2
I0825 10:34:27.509524 39129 net.cpp:454] relu2 <- conv2
I0825 10:34:27.509534 39129 net.cpp:397] relu2 -> conv2 (in-place)
I0825 10:34:27.510152 39129 net.cpp:150] Setting up relu2
I0825 10:34:27.510169 39129 net.cpp:157] Top shape: 1 256 73 123 (2298624)
I0825 10:34:27.510174 39129 net.cpp:165] Memory required for data: 224128980
I0825 10:34:27.510179 39129 layer_factory.hpp:77] Creating layer norm2
I0825 10:34:27.510188 39129 net.cpp:106] Creating Layer norm2
I0825 10:34:27.510193 39129 net.cpp:454] norm2 <- conv2
I0825 10:34:27.510200 39129 net.cpp:411] norm2 -> norm2
I0825 10:34:27.510510 39129 net.cpp:150] Setting up norm2
I0825 10:34:27.510524 39129 net.cpp:157] Top shape: 1 256 73 123 (2298624)
I0825 10:34:27.510526 39129 net.cpp:165] Memory required for data: 233323476
I0825 10:34:27.510535 39129 layer_factory.hpp:77] Creating layer pool2
I0825 10:34:27.510543 39129 net.cpp:106] Creating Layer pool2
I0825 10:34:27.510547 39129 net.cpp:454] pool2 <- norm2
I0825 10:34:27.510555 39129 net.cpp:411] pool2 -> pool2
I0825 10:34:27.510630 39129 net.cpp:150] Setting up pool2
I0825 10:34:27.510639 39129 net.cpp:157] Top shape: 1 256 36 61 (562176)
I0825 10:34:27.510643 39129 net.cpp:165] Memory required for data: 235572180
I0825 10:34:27.510646 39129 layer_factory.hpp:77] Creating layer conv3
I0825 10:34:27.510659 39129 net.cpp:106] Creating Layer conv3
I0825 10:34:27.510665 39129 net.cpp:454] conv3 <- pool2
I0825 10:34:27.510673 39129 net.cpp:411] conv3 -> conv3
I0825 10:34:27.526166 39129 net.cpp:150] Setting up conv3
I0825 10:34:27.526208 39129 net.cpp:157] Top shape: 1 512 36 61 (1124352)
I0825 10:34:27.526212 39129 net.cpp:165] Memory required for data: 240069588
I0825 10:34:27.526232 39129 layer_factory.hpp:77] Creating layer relu3
I0825 10:34:27.526247 39129 net.cpp:106] Creating Layer relu3
I0825 10:34:27.526259 39129 net.cpp:454] relu3 <- conv3
I0825 10:34:27.526269 39129 net.cpp:397] relu3 -> conv3 (in-place)
I0825 10:34:27.526540 39129 net.cpp:150] Setting up relu3
I0825 10:34:27.526556 39129 net.cpp:157] Top shape: 1 512 36 61 (1124352)
I0825 10:34:27.526559 39129 net.cpp:165] Memory required for data: 244566996
I0825 10:34:27.526571 39129 layer_factory.hpp:77] Creating layer conv4
I0825 10:34:27.526592 39129 net.cpp:106] Creating Layer conv4
I0825 10:34:27.526595 39129 net.cpp:454] conv4 <- conv3
I0825 10:34:27.526610 39129 net.cpp:411] conv4 -> conv4
I0825 10:34:27.542507 39129 net.cpp:150] Setting up conv4
I0825 10:34:27.542570 39129 net.cpp:157] Top shape: 1 512 36 61 (1124352)
I0825 10:34:27.542574 39129 net.cpp:165] Memory required for data: 249064404
I0825 10:34:27.542585 39129 layer_factory.hpp:77] Creating layer relu4
I0825 10:34:27.542598 39129 net.cpp:106] Creating Layer relu4
I0825 10:34:27.542604 39129 net.cpp:454] relu4 <- conv4
I0825 10:34:27.542613 39129 net.cpp:397] relu4 -> conv4 (in-place)
I0825 10:34:27.543404 39129 net.cpp:150] Setting up relu4
I0825 10:34:27.543422 39129 net.cpp:157] Top shape: 1 512 36 61 (1124352)
I0825 10:34:27.543426 39129 net.cpp:165] Memory required for data: 253561812
I0825 10:34:27.543429 39129 layer_factory.hpp:77] Creating layer conv5
I0825 10:34:27.543447 39129 net.cpp:106] Creating Layer conv5
I0825 10:34:27.543452 39129 net.cpp:454] conv5 <- conv4
I0825 10:34:27.543460 39129 net.cpp:411] conv5 -> conv5
I0825 10:34:27.559303 39129 net.cpp:150] Setting up conv5
I0825 10:34:27.559343 39129 net.cpp:157] Top shape: 1 512 36 61 (1124352)
I0825 10:34:27.559347 39129 net.cpp:165] Memory required for data: 258059220
I0825 10:34:27.559367 39129 layer_factory.hpp:77] Creating layer relu5
I0825 10:34:27.559382 39129 net.cpp:106] Creating Layer relu5
I0825 10:34:27.559387 39129 net.cpp:454] relu5 <- conv5
I0825 10:34:27.559402 39129 net.cpp:397] relu5 -> conv5 (in-place)
I0825 10:34:27.559597 39129 net.cpp:150] Setting up relu5
I0825 10:34:27.559608 39129 net.cpp:157] Top shape: 1 512 36 61 (1124352)
I0825 10:34:27.559612 39129 net.cpp:165] Memory required for data: 262556628
I0825 10:34:27.559615 39129 layer_factory.hpp:77] Creating layer conv5_relu5_0_split
I0825 10:34:27.559623 39129 net.cpp:106] Creating Layer conv5_relu5_0_split
I0825 10:34:27.559626 39129 net.cpp:454] conv5_relu5_0_split <- conv5
I0825 10:34:27.559633 39129 net.cpp:411] conv5_relu5_0_split -> conv5_relu5_0_split_0
I0825 10:34:27.559640 39129 net.cpp:411] conv5_relu5_0_split -> conv5_relu5_0_split_1
I0825 10:34:27.559711 39129 net.cpp:150] Setting up conv5_relu5_0_split
I0825 10:34:27.559718 39129 net.cpp:157] Top shape: 1 512 36 61 (1124352)
I0825 10:34:27.559722 39129 net.cpp:157] Top shape: 1 512 36 61 (1124352)
I0825 10:34:27.559725 39129 net.cpp:165] Memory required for data: 271551444
I0825 10:34:27.559728 39129 layer_factory.hpp:77] Creating layer rpn_conv/3x3
I0825 10:34:27.559743 39129 net.cpp:106] Creating Layer rpn_conv/3x3
I0825 10:34:27.559747 39129 net.cpp:454] rpn_conv/3x3 <- conv5_relu5_0_split_0
I0825 10:34:27.559754 39129 net.cpp:411] rpn_conv/3x3 -> rpn/output
I0825 10:34:27.581331 39129 net.cpp:150] Setting up rpn_conv/3x3
I0825 10:34:27.581372 39129 net.cpp:157] Top shape: 1 256 36 61 (562176)
I0825 10:34:27.581377 39129 net.cpp:165] Memory required for data: 273800148
I0825 10:34:27.581387 39129 layer_factory.hpp:77] Creating layer rpn_relu/3x3
I0825 10:34:27.581401 39129 net.cpp:106] Creating Layer rpn_relu/3x3
I0825 10:34:27.581406 39129 net.cpp:454] rpn_relu/3x3 <- rpn/output
I0825 10:34:27.581415 39129 net.cpp:397] rpn_relu/3x3 -> rpn/output (in-place)
I0825 10:34:27.581908 39129 net.cpp:150] Setting up rpn_relu/3x3
I0825 10:34:27.581923 39129 net.cpp:157] Top shape: 1 256 36 61 (562176)
I0825 10:34:27.581926 39129 net.cpp:165] Memory required for data: 276048852
I0825 10:34:27.581929 39129 layer_factory.hpp:77] Creating layer rpn/output_rpn_relu/3x3_0_split
I0825 10:34:27.581938 39129 net.cpp:106] Creating Layer rpn/output_rpn_relu/3x3_0_split
I0825 10:34:27.581943 39129 net.cpp:454] rpn/output_rpn_relu/3x3_0_split <- rpn/output
I0825 10:34:27.581948 39129 net.cpp:411] rpn/output_rpn_relu/3x3_0_split -> rpn/output_rpn_relu/3x3_0_split_0
I0825 10:34:27.581956 39129 net.cpp:411] rpn/output_rpn_relu/3x3_0_split -> rpn/output_rpn_relu/3x3_0_split_1
I0825 10:34:27.582026 39129 net.cpp:150] Setting up rpn/output_rpn_relu/3x3_0_split
I0825 10:34:27.582033 39129 net.cpp:157] Top shape: 1 256 36 61 (562176)
I0825 10:34:27.582037 39129 net.cpp:157] Top shape: 1 256 36 61 (562176)
I0825 10:34:27.582041 39129 net.cpp:165] Memory required for data: 280546260
I0825 10:34:27.582043 39129 layer_factory.hpp:77] Creating layer rpn_cls_score
I0825 10:34:27.582065 39129 net.cpp:106] Creating Layer rpn_cls_score
I0825 10:34:27.582070 39129 net.cpp:454] rpn_cls_score <- rpn/output_rpn_relu/3x3_0_split_0
I0825 10:34:27.582077 39129 net.cpp:411] rpn_cls_score -> rpn_cls_score
I0825 10:34:27.583765 39129 net.cpp:150] Setting up rpn_cls_score
I0825 10:34:27.583780 39129 net.cpp:157] Top shape: 1 18 36 61 (39528)
I0825 10:34:27.583783 39129 net.cpp:165] Memory required for data: 280704372
I0825 10:34:27.583791 39129 layer_factory.hpp:77] Creating layer rpn_cls_score_rpn_cls_score_0_split
I0825 10:34:27.583799 39129 net.cpp:106] Creating Layer rpn_cls_score_rpn_cls_score_0_split
I0825 10:34:27.583803 39129 net.cpp:454] rpn_cls_score_rpn_cls_score_0_split <- rpn_cls_score
I0825 10:34:27.583811 39129 net.cpp:411] rpn_cls_score_rpn_cls_score_0_split -> rpn_cls_score_rpn_cls_score_0_split_0
I0825 10:34:27.583822 39129 net.cpp:411] rpn_cls_score_rpn_cls_score_0_split -> rpn_cls_score_rpn_cls_score_0_split_1
I0825 10:34:27.583889 39129 net.cpp:150] Setting up rpn_cls_score_rpn_cls_score_0_split
I0825 10:34:27.583895 39129 net.cpp:157] Top shape: 1 18 36 61 (39528)
I0825 10:34:27.583899 39129 net.cpp:157] Top shape: 1 18 36 61 (39528)
I0825 10:34:27.583902 39129 net.cpp:165] Memory required for data: 281020596
I0825 10:34:27.583905 39129 layer_factory.hpp:77] Creating layer rpn_bbox_pred
I0825 10:34:27.583916 39129 net.cpp:106] Creating Layer rpn_bbox_pred
I0825 10:34:27.583921 39129 net.cpp:454] rpn_bbox_pred <- rpn/output_rpn_relu/3x3_0_split_1
I0825 10:34:27.583930 39129 net.cpp:411] rpn_bbox_pred -> rpn_bbox_pred
I0825 10:34:27.585613 39129 net.cpp:150] Setting up rpn_bbox_pred
I0825 10:34:27.585628 39129 net.cpp:157] Top shape: 1 36 36 61 (79056)
I0825 10:34:27.585630 39129 net.cpp:165] Memory required for data: 281336820
I0825 10:34:27.585638 39129 layer_factory.hpp:77] Creating layer rpn_bbox_pred_rpn_bbox_pred_0_split
I0825 10:34:27.585645 39129 net.cpp:106] Creating Layer rpn_bbox_pred_rpn_bbox_pred_0_split
I0825 10:34:27.585649 39129 net.cpp:454] rpn_bbox_pred_rpn_bbox_pred_0_split <- rpn_bbox_pred
I0825 10:34:27.585654 39129 net.cpp:411] rpn_bbox_pred_rpn_bbox_pred_0_split -> rpn_bbox_pred_rpn_bbox_pred_0_split_0
I0825 10:34:27.585662 39129 net.cpp:411] rpn_bbox_pred_rpn_bbox_pred_0_split -> rpn_bbox_pred_rpn_bbox_pred_0_split_1
I0825 10:34:27.585726 39129 net.cpp:150] Setting up rpn_bbox_pred_rpn_bbox_pred_0_split
I0825 10:34:27.585733 39129 net.cpp:157] Top shape: 1 36 36 61 (79056)
I0825 10:34:27.585737 39129 net.cpp:157] Top shape: 1 36 36 61 (79056)
I0825 10:34:27.585739 39129 net.cpp:165] Memory required for data: 281969268
I0825 10:34:27.585742 39129 layer_factory.hpp:77] Creating layer rpn_cls_score_reshape
I0825 10:34:27.585752 39129 net.cpp:106] Creating Layer rpn_cls_score_reshape
I0825 10:34:27.585757 39129 net.cpp:454] rpn_cls_score_reshape <- rpn_cls_score_rpn_cls_score_0_split_0
I0825 10:34:27.585763 39129 net.cpp:411] rpn_cls_score_reshape -> rpn_cls_score_reshape
I0825 10:34:27.585811 39129 net.cpp:150] Setting up rpn_cls_score_reshape
I0825 10:34:27.585819 39129 net.cpp:157] Top shape: 1 2 324 61 (39528)
I0825 10:34:27.585822 39129 net.cpp:165] Memory required for data: 282127380
I0825 10:34:27.585824 39129 layer_factory.hpp:77] Creating layer rpn_cls_score_reshape_rpn_cls_score_reshape_0_split
I0825 10:34:27.585830 39129 net.cpp:106] Creating Layer rpn_cls_score_reshape_rpn_cls_score_reshape_0_split
I0825 10:34:27.585832 39129 net.cpp:454] rpn_cls_score_reshape_rpn_cls_score_reshape_0_split <- rpn_cls_score_reshape
I0825 10:34:27.585839 39129 net.cpp:411] rpn_cls_score_reshape_rpn_cls_score_reshape_0_split -> rpn_cls_score_reshape_rpn_cls_score_reshape_0_split_0
I0825 10:34:27.585849 39129 net.cpp:411] rpn_cls_score_reshape_rpn_cls_score_reshape_0_split -> rpn_cls_score_reshape_rpn_cls_score_reshape_0_split_1
I0825 10:34:27.585906 39129 net.cpp:150] Setting up rpn_cls_score_reshape_rpn_cls_score_reshape_0_split
I0825 10:34:27.585912 39129 net.cpp:157] Top shape: 1 2 324 61 (39528)
I0825 10:34:27.585916 39129 net.cpp:157] Top shape: 1 2 324 61 (39528)
I0825 10:34:27.585918 39129 net.cpp:165] Memory required for data: 282443604
I0825 10:34:27.585922 39129 layer_factory.hpp:77] Creating layer rpn-data
I0825 10:34:27.586469 39129 net.cpp:106] Creating Layer rpn-data
I0825 10:34:27.586483 39129 net.cpp:454] rpn-data <- rpn_cls_score_rpn_cls_score_0_split_1
I0825 10:34:27.586489 39129 net.cpp:454] rpn-data <- gt_boxes_input-data_2_split_0
I0825 10:34:27.586494 39129 net.cpp:454] rpn-data <- im_info_input-data_1_split_0
I0825 10:34:27.586498 39129 net.cpp:454] rpn-data <- data_input-data_0_split_1
I0825 10:34:27.586504 39129 net.cpp:411] rpn-data -> rpn_labels
I0825 10:34:27.586524 39129 net.cpp:411] rpn-data -> rpn_bbox_targets
I0825 10:34:27.586534 39129 net.cpp:411] rpn-data -> rpn_bbox_inside_weights
I0825 10:34:27.586544 39129 net.cpp:411] rpn-data -> rpn_bbox_outside_weights
I0825 10:34:27.589676 39129 net.cpp:150] Setting up rpn-data
I0825 10:34:27.589707 39129 net.cpp:157] Top shape: 1 1 324 61 (19764)
I0825 10:34:27.589712 39129 net.cpp:157] Top shape: 1 36 36 61 (79056)
I0825 10:34:27.589716 39129 net.cpp:157] Top shape: 1 36 36 61 (79056)
I0825 10:34:27.589720 39129 net.cpp:157] Top shape: 1 36 36 61 (79056)
I0825 10:34:27.589721 39129 net.cpp:165] Memory required for data: 283471332
I0825 10:34:27.589726 39129 layer_factory.hpp:77] Creating layer rpn_loss_cls
I0825 10:34:27.589740 39129 net.cpp:106] Creating Layer rpn_loss_cls
I0825 10:34:27.589745 39129 net.cpp:454] rpn_loss_cls <- rpn_cls_score_reshape_rpn_cls_score_reshape_0_split_0
I0825 10:34:27.589752 39129 net.cpp:454] rpn_loss_cls <- rpn_labels
…
I0825 10:34:27.591377 39129 net.cpp:157] Top shape: (1)
I0825 10:34:27.591380 39129 net.cpp:160]     with loss weight 1
I0825 10:34:27.591385 39129 net.cpp:165] Memory required for data: 283471340
I0825 10:34:27.591388 39129 layer_factory.hpp:77] Creating layer rpn_cls_prob
I0825 10:34:27.591394 39129 net.cpp:106] Creating Layer rpn_cls_prob
I0825 10:34:27.591398 39129 net.cpp:454] rpn_cls_prob <- rpn_cls_score_reshape_rpn_cls_score_reshape_0_split_1
I0825 10:34:27.591404 39129 net.cpp:411] rpn_cls_prob -> rpn_cls_prob
I0825 10:34:27.591717 39129 net.cpp:150] Setting up rpn_cls_prob
I0825 10:34:27.591729 39129 net.cpp:157] Top shape: 1 2 324 61 (39528)
I0825 10:34:27.591734 39129 net.cpp:165] Memory required for data: 283629452
I0825 10:34:27.591737 39129 layer_factory.hpp:77] Creating layer rpn_cls_prob_reshape
I0825 10:34:27.591758 39129 net.cpp:106] Creating Layer rpn_cls_prob_reshape
I0825 10:34:27.591764 39129 net.cpp:454] rpn_cls_prob_reshape <- rpn_cls_prob
I0825 10:34:27.591770 39129 net.cpp:411] rpn_cls_prob_reshape -> rpn_cls_prob_reshape
I0825 10:34:27.591815 39129 net.cpp:150] Setting up rpn_cls_prob_reshape
I0825 10:34:27.591823 39129 net.cpp:157] Top shape: 1 18 36 61 (39528)
I0825 10:34:27.591826 39129 net.cpp:165] Memory required for data: 283787564
I0825 10:34:27.591828 39129 layer_factory.hpp:77] Creating layer proposal
I0825 10:34:27.602069 39129 net.cpp:106] Creating Layer proposal
I0825 10:34:27.602095 39129 net.cpp:454] proposal <- rpn_cls_prob_reshape
I0825 10:34:27.602103 39129 net.cpp:454] proposal <- rpn_bbox_pred_rpn_bbox_pred_0_split_1
I0825 10:34:27.602108 39129 net.cpp:454] proposal <- im_info_input-data_1_split_1
I0825 10:34:27.602115 39129 net.cpp:411] proposal -> rpn_rois
I0825 10:34:27.608414 39129 net.cpp:150] Setting up proposal
I0825 10:34:27.608460 39129 net.cpp:157] Top shape: 1 5 (5)
I0825 10:34:27.608466 39129 net.cpp:165] Memory required for data: 283787584
I0825 10:34:27.608475 39129 layer_factory.hpp:77] Creating layer roi-data
I0825 10:34:27.608831 39129 net.cpp:106] Creating Layer roi-data
I0825 10:34:27.608856 39129 net.cpp:454] roi-data <- rpn_rois
I0825 10:34:27.608875 39129 net.cpp:454] roi-data <- gt_boxes_input-data_2_split_1
I0825 10:34:27.608896 39129 net.cpp:411] roi-data -> rois
I0825 10:34:27.608937 39129 net.cpp:411] roi-data -> labels
I0825 10:34:27.608954 39129 net.cpp:411] roi-data -> bbox_targets
I0825 10:34:27.608968 39129 net.cpp:411] roi-data -> bbox_inside_weights
I0825 10:34:27.608983 39129 net.cpp:411] roi-data -> bbox_outside_weights
I0825 10:34:27.609987 39129 net.cpp:150] Setting up roi-data
I0825 10:34:27.610010 39129 net.cpp:157] Top shape: 1 5 (5)
I0825 10:34:27.610018 39129 net.cpp:157] Top shape: 1 1 (1)
I0825 10:34:27.610023 39129 net.cpp:157] Top shape: 1 84 (84)
I0825 10:34:27.610029 39129 net.cpp:157] Top shape: 1 84 (84)
I0825 10:34:27.610036 39129 net.cpp:157] Top shape: 1 84 (84)
I0825 10:34:27.610040 39129 net.cpp:165] Memory required for data: 283788616
I0825 10:34:27.610046 39129 layer_factory.hpp:77] Creating layer roi_pool5
I0825 10:34:27.610059 39129 net.cpp:106] Creating Layer roi_pool5
I0825 10:34:27.610067 39129 net.cpp:454] roi_pool5 <- conv5_relu5_0_split_1
I0825 10:34:27.610076 39129 net.cpp:454] roi_pool5 <- rois
I0825 10:34:27.610088 39129 net.cpp:411] roi_pool5 -> pool5
I0825 10:34:27.610103 39129 roi_pooling_layer.cpp:30] Spatial scale: 0.0625
I0825 10:34:27.610213 39129 net.cpp:150] Setting up roi_pool5
I0825 10:34:27.610226 39129 net.cpp:157] Top shape: 1 512 6 6 (18432)
I0825 10:34:27.610234 39129 net.cpp:165] Memory required for data: 283862344
I0825 10:34:27.610239 39129 layer_factory.hpp:77] Creating layer fc6
I0825 10:34:27.610250 39129 net.cpp:106] Creating Layer fc6
I0825 10:34:27.610257 39129 net.cpp:454] fc6 <- pool5
I0825 10:34:27.610268 39129 net.cpp:411] fc6 -> fc6
I0825 10:34:28.025655 39129 net.cpp:150] Setting up fc6
I0825 10:34:28.025697 39129 net.cpp:157] Top shape: 1 4096 (4096)
I0825 10:34:28.025701 39129 net.cpp:165] Memory required for data: 283878728
I0825 10:34:28.025720 39129 layer_factory.hpp:77] Creating layer relu6
I0825 10:34:28.025733 39129 net.cpp:106] Creating Layer relu6
I0825 10:34:28.025738 39129 net.cpp:454] relu6 <- fc6
I0825 10:34:28.025746 39129 net.cpp:397] relu6 -> fc6 (in-place)
I0825 10:34:28.026484 39129 net.cpp:150] Setting up relu6
I0825 10:34:28.026499 39129 net.cpp:157] Top shape: 1 4096 (4096)
I0825 10:34:28.026501 39129 net.cpp:165] Memory required for data: 283895112
I0825 10:34:28.026504 39129 layer_factory.hpp:77] Creating layer drop6
I0825 10:34:28.026513 39129 net.cpp:106] Creating Layer drop6
I0825 10:34:28.026516 39129 net.cpp:454] drop6 <- fc6
I0825 10:34:28.026521 39129 net.cpp:397] drop6 -> fc6 (in-place)
I0825 10:34:28.026571 39129 net.cpp:150] Setting up drop6
I0825 10:34:28.026578 39129 net.cpp:157] Top shape: 1 4096 (4096)
I0825 10:34:28.026582 39129 net.cpp:165] Memory required for data: 283911496
I0825 10:34:28.026584 39129 layer_factory.hpp:77] Creating layer fc7
I0825 10:34:28.026592 39129 net.cpp:106] Creating Layer fc7
I0825 10:34:28.026595 39129 net.cpp:454] fc7 <- fc6
I0825 10:34:28.026607 39129 net.cpp:411] fc7 -> fc7
I0825 10:34:28.051434 39129 net.cpp:150] Setting up fc7
I0825 10:34:28.051486 39129 net.cpp:157] Top shape: 1 1024 (1024)
I0825 10:34:28.051489 39129 net.cpp:165] Memory required for data: 283915592
I0825 10:34:28.051501 39129 layer_factory.hpp:77] Creating layer relu7
I0825 10:34:28.051512 39129 net.cpp:106] Creating Layer relu7
I0825 10:34:28.051517 39129 net.cpp:454] relu7 <- fc7
I0825 10:34:28.051537 39129 net.cpp:397] relu7 -> fc7 (in-place)
I0825 10:34:28.051849 39129 net.cpp:150] Setting up relu7
I0825 10:34:28.051861 39129 net.cpp:157] Top shape: 1 1024 (1024)
I0825 10:34:28.051874 39129 net.cpp:165] Memory required for data: 283919688
I0825 10:34:28.051877 39129 layer_factory.hpp:77] Creating layer drop7
I0825 10:34:28.051887 39129 net.cpp:106] Creating Layer drop7
I0825 10:34:28.051889 39129 net.cpp:454] drop7 <- fc7
I0825 10:34:28.051897 39129 net.cpp:397] drop7 -> fc7 (in-place)
I0825 10:34:28.051945 39129 net.cpp:150] Setting up drop7
I0825 10:34:28.051954 39129 net.cpp:157] Top shape: 1 1024 (1024)
I0825 10:34:28.051956 39129 net.cpp:165] Memory required for data: 283923784
I0825 10:34:28.051959 39129 layer_factory.hpp:77] Creating layer fc7_drop7_0_split
I0825 10:34:28.051966 39129 net.cpp:106] Creating Layer fc7_drop7_0_split
I0825 10:34:28.051970 39129 net.cpp:454] fc7_drop7_0_split <- fc7
I0825 10:34:28.051975 39129 net.cpp:411] fc7_drop7_0_split -> fc7_drop7_0_split_0
I0825 10:34:28.051985 39129 net.cpp:411] fc7_drop7_0_split -> fc7_drop7_0_split_1
I0825 10:34:28.052069 39129 net.cpp:150] Setting up fc7_drop7_0_split
I0825 10:34:28.052078 39129 net.cpp:157] Top shape: 1 1024 (1024)
I0825 10:34:28.052080 39129 net.cpp:157] Top shape: 1 1024 (1024)
I0825 10:34:28.052083 39129 net.cpp:165] Memory required for data: 283931976
I0825 10:34:28.052085 39129 layer_factory.hpp:77] Creating layer cls_score
I0825 10:34:28.052095 39129 net.cpp:106] Creating Layer cls_score
I0825 10:34:28.052100 39129 net.cpp:454] cls_score <- fc7_drop7_0_split_0
I0825 10:34:28.052108 39129 net.cpp:411] cls_score -> cls_score
I0825 10:34:28.052580 39129 net.cpp:150] Setting up cls_score
I0825 10:34:28.052589 39129 net.cpp:157] Top shape: 1 21 (21)
I0825 10:34:28.052592 39129 net.cpp:165] Memory required for data: 283932060
I0825 10:34:28.052598 39129 layer_factory.hpp:77] Creating layer bbox_pred
I0825 10:34:28.052605 39129 net.cpp:106] Creating Layer bbox_pred
I0825 10:34:28.052608 39129 net.cpp:454] bbox_pred <- fc7_drop7_0_split_1
I0825 10:34:28.052616 39129 net.cpp:411] bbox_pred -> bbox_pred
I0825 10:34:28.055727 39129 net.cpp:150] Setting up bbox_pred
I0825 10:34:28.055758 39129 net.cpp:157] Top shape: 1 84 (84)
I0825 10:34:28.055762 39129 net.cpp:165] Memory required for data: 283932396
I0825 10:34:28.055768 39129 layer_factory.hpp:77] Creating layer loss_cls
I0825 10:34:28.055779 39129 net.cpp:106] Creating Layer loss_cls
I0825 10:34:28.055783 39129 net.cpp:454] loss_cls <- cls_score
I0825 10:34:28.055788 39129 net.cpp:454] loss_cls <- labels
I0825 10:34:28.055795 39129 net.cpp:411] loss_cls -> loss_cls
…
           'RPN_POST_NMS_TOP_N': 2000,
           'RPN_PRE_NMS_TOP_N': 12000,
           'SCALES': [600],
           'SNAPSHOT_INFIX': '',
           'SNAPSHOT_ITERS': 10000,
           'USE_FLIPPED': True,
           'USE_PREFETCH': False},
 'USE_GPU_NMS': True}
WARNING: Logging before InitGoogleLogging() is written to STDERR
I0825 12:24:49.939038 10489 net.cpp:49] Initializing net from parameters: 
name: "VGG_CNN_M_1024"
input: "data"
input: "im_info"
state {
  phase: TEST
}
input_shape {
  dim: 1
  dim: 3
  dim: 224
  dim: 224
}
input_shape {
  dim: 1
  dim: 3
}
layer {
  name: "conv1"
  type: "Convolution"
  bottom: "data"
  top: "conv1"
  param {
    lr_mult: 0
    decay_mult: 0
  }
  param {
    lr_mult: 0
    decay_mult: 0
  }
  convolution_param {
    num_output: 96
    kernel_size: 7
    stride: 2
  }
}
layer {
  name: "relu1"
  type: "ReLU"
  bottom: "conv1"
  top: "conv1"
}
layer {
  name: "norm1"
  type: "LRN"
  bottom: "conv1"
  top: "norm1"
  lrn_param {
    local_size: 5
    alpha: 0.0005
    beta: 0.75
    k: 2
  }
}
layer {
  name: "pool1"
  type: "Pooling"
  bottom: "norm1"
  top: "pool1"
  pooling_param {
    pool: MAX
    kernel_size: 3
    stride: 2
  }
}
layer {
  name: "conv2"
  type: "Convolution"
  bottom: "pool1"
  top: "conv2"
  param {
    lr_mult: 1
    decay_mult: 1
  }
  param {
    lr_mult: 2
    decay_mult: 0
  }
  convolution_param {
    num_output: 256
    pad: 1
    kernel_size: 5
    stride: 2
  }
}
layer {
  name: "relu2"
  type: "ReLU"
  bottom: "conv2"
  top: "conv2"
}
layer {
  name: "norm2"
  type: "LRN"
  bottom: "conv2"
  top: "norm2"
  lrn_param {
    local_size: 5
    alpha: 0.0005
    beta: 0.75
    k: 2
  }
}
layer {
  name: "pool2"
  type: "Pooling"
  bottom: "norm2"
  top: "pool2"
  pooling_param {
    pool: MAX
    kernel_size: 3
    stride: 2
  }
}
layer {
  name: "conv3"
  type: "Convolution"
  bottom: "pool2"
  top: "conv3"
  param {
    lr_mult: 1
    decay_mult: 1
  }
  param {
    lr_mult: 2
    decay_mult: 0
  }
  convolution_param {
    num_output: 512
    pad: 1
    kernel_size: 3
  }
}
layer {
  name: "relu3"
  type: "ReLU"
  bottom: "conv3"
  top: "conv3"
}
layer {
  name: "conv4"
  type: "Convolution"
  bottom: "conv3"
  top: "conv4"
  param {
    lr_mult: 1
    decay_mult: 1
  }
  param {
    lr_mult: 2
    decay_mult: 0
  }
  convolution_param {
    num_output: 512
    pad: 1
    kernel_size: 3
  }
}
layer {
  name: "relu4"
  type: "ReLU"
  bottom: "conv4"
  top: "conv4"
}
layer {
  name: "conv5"
  type: "Convolution"
  bottom: "conv4"
  top: "conv5"
  param {
    lr_mult: 1
    decay_mult: 1
  }
  param {
    lr_mult: 2
    decay_mult: 0
  }
  convolution_param {
    num_output: 512
    pad: 1
    kernel_size: 3
  }
}
layer {
  name: "relu5"
  type: "ReLU"
  bottom: "conv5"
  top: "conv5"
}
layer {
  name: "rpn_conv/3x3"
  type: "Convolution"
  bottom: "conv5"
  top: "rpn/output"
  param {
    lr_mult: 1
    decay_mult: 1
  }
  param {
    lr_mult: 2
    decay_mult: 0
  }
  convolution_param {
    num_output: 256
    pad: 1
    kernel_size: 3
    stride: 1
    weight_filler {
      type: "gaussian"
      std: 0.01
    }
    bias_filler {
      type: "constant"
      value: 0
    }
  }
}
layer {
  name: "rpn_relu/3x3"
  type: "ReLU"
  bottom: "rpn/output"
  top: "rpn/output"
}
layer {
  name: "rpn_cls_score"
  type: "Convolution"
  bottom: "rpn/output"
  top: "rpn_cls_score"
  param {
    lr_mult: 1
    decay_mult: 1
  }
  param {
    lr_mult: 2
    decay_mult: 0
  }
  convolution_param {
    num_output: 18
    pad: 0
    kernel_size: 1
    stride: 1
    weight_filler {
      type: "gaussian"
      std: 0.01
    }
    bias_filler {
      type: "constant"
      value: 0
    }
  }
}
layer {
  name: "rpn_bbox_pred"
  type: "Convolution"
  bottom: "rpn/output"
  top: "rpn_bbox_pred"
  param {
    lr_mult: 1
    decay_mult: 1
  }
  param {
    lr_mult: 2
    decay_mult: 0
  }
  convolution_param {
    num_output: 36
    pad: 0
    kernel_size: 1
    stride: 1
    weight_filler {
      type: "gaussian"
      std: 0.01
    }
    bias_filler {
      type: "constant"
      value: 0
    }
  }
}
layer {
  name: "rpn_cls_score_reshape"
  type: "Reshape"
  bottom: "rpn_cls_score"
  top: "rpn_cls_score_reshape"
  reshape_param {
    shape {
      dim: 0
      dim: 2
      dim: -1
      dim: 0
    }
  }
}
layer {
  name: "rpn_cls_prob"
  type: "Softmax"
  bottom: "rpn_cls_score_reshape"
  top: "rpn_cls_prob"
}
layer {
  name: "rpn_cls_prob_reshape"
  type: "Reshape"
  bottom: "rpn_cls_prob"
  top: "rpn_cls_prob_reshape"
  reshape_param {
    shape {
      dim: 0
      dim: 18
      dim: -1
      dim: 0
    }
  }
}
layer {
  name: "proposal"
  type: "Python"
  bottom: "rpn_cls_prob_reshape"
  bottom: "rpn_bbox_pred"
  bottom: "im_info"
  top: "rois"
  python_param {
    module: "rpn.proposal_layer"
    layer: "ProposalLayer"
    param_str: "\'feat_stride\': 16"
  }
}
layer {
  name: "roi_pool5"
  type: "ROIPooling"
  bottom: "conv5"
  bottom: "rois"
  top: "pool5"
  roi_pooling_param {
    pooled_h: 6
    pooled_w: 6
    spatial_scale: 0.0625
  }
}
layer {
  name: "fc6"
  type: "InnerProduct"
  bottom: "pool5"
  top: "fc6"
  param {
    lr_mult: 1
    decay_mult: 1
  }
  param {
    lr_mult: 2
    decay_mult: 0
  }
  inner_product_param {
    num_output: 4096
  }
}
layer {
  name: "relu6"
  type: "ReLU"
  bottom: "fc6"
  top: "fc6"
}
layer {
  name: "drop6"
  type: "Dropout"
  bottom: "fc6"
  top: "fc6"
  dropout_param {
    dropout_ratio: 0.5
  }
}
layer {
  name: "fc7"
  type: "InnerProduct"
  bottom: "fc6"
  top: "fc7"
  param {
    lr_mult: 1
    decay_mult: 1
  }
  param {
    lr_mult: 2
    decay_mult: 0
  }
  inner_product_param {
    num_output: 1024
  }
}
layer {
  name: "relu7"
  type: "ReLU"
  bottom: "fc7"
  top: "fc7"
}
layer {
  name: "drop7"
  type: "Dropout"
  bottom: "fc7"
  top: "fc7"
  dropout_param {
    dropout_ratio: 0.5
  }
}
layer {
  name: "cls_score"
  type: "InnerProduct"
  bottom: "fc7"
  top: "cls_score"
  param {
    lr_mult: 1
    decay_mult: 1
  }
  param {
    lr_mult: 2
    decay_mult: 0
  }
  inner_product_param {
    num_output: 21
    weight_filler {
      type: "gaussian"
      std: 0.01
    }
    bias_filler {
      type: "constant"
      value: 0
    }
  }
}
layer {
  name: "bbox_pred"
  type: "InnerProduct"
  bottom: "fc7"
  top: "bbox_pred"
  param {
    lr_mult: 1
    decay_mult: 1
  }
  param {
    lr_mult: 2
    decay_mult: 0
  }
  inner_product_param {
    num_output: 84
    weight_filler {
      type: "gaussian"
      std: 0.001
    }
    bias_filler {
      type: "constant"
      value: 0
    }
  }
}
layer {
  name: "cls_prob"
  type: "Softmax"
  bottom: "cls_score"
  top: "cls_prob"
}
I0825 12:24:49.939224 10489 net.cpp:413] Input 0 -> data
I0825 12:24:49.962760 10489 net.cpp:413] Input 1 -> im_info
I0825 12:24:49.962832 10489 layer_factory.hpp:77] Creating layer conv1
I0825 12:24:49.962854 10489 net.cpp:106] Creating Layer conv1
I0825 12:24:49.962858 10489 net.cpp:454] conv1 <- data
I0825 12:24:49.962867 10489 net.cpp:411] conv1 -> conv1
I0825 12:24:50.230362 10489 net.cpp:150] Setting up conv1
I0825 12:24:50.230410 10489 net.cpp:157] Top shape: 1 96 109 109 (1140576)
I0825 12:24:50.230415 10489 net.cpp:165] Memory required for data: 4562304
I0825 12:24:50.230433 10489 layer_factory.hpp:77] Creating layer relu1
I0825 12:24:50.230448 10489 net.cpp:106] Creating Layer relu1
I0825 12:24:50.230453 10489 net.cpp:454] relu1 <- conv1
I0825 12:24:50.230463 10489 net.cpp:397] relu1 -> conv1 (in-place)
I0825 12:24:50.230979 10489 net.cpp:150] Setting up relu1
I0825 12:24:50.230993 10489 net.cpp:157] Top shape: 1 96 109 109 (1140576)
I0825 12:24:50.230996 10489 net.cpp:165] Memory required for data: 9124608
I0825 12:24:50.231000 10489 layer_factory.hpp:77] Creating layer norm1
I0825 12:24:50.231010 10489 net.cpp:106] Creating Layer norm1
I0825 12:24:50.231016 10489 net.cpp:454] norm1 <- conv1
I0825 12:24:50.231024 10489 net.cpp:411] norm1 -> norm1
I0825 12:24:50.231261 10489 net.cpp:150] Setting up norm1
I0825 12:24:50.231272 10489 net.cpp:157] Top shape: 1 96 109 109 (1140576)
I0825 12:24:50.231276 10489 net.cpp:165] Memory required for data: 13686912
I0825 12:24:50.231281 10489 layer_factory.hpp:77] Creating layer pool1
I0825 12:24:50.231288 10489 net.cpp:106] Creating Layer pool1
I0825 12:24:50.231292 10489 net.cpp:454] pool1 <- norm1
I0825 12:24:50.231297 10489 net.cpp:411] pool1 -> pool1
I0825 12:24:50.231355 10489 net.cpp:150] Setting up pool1
I0825 12:24:50.231364 10489 net.cpp:157] Top shape: 1 96 54 54 (279936)
I0825 12:24:50.231365 10489 net.cpp:165] Memory required for data: 14806656
I0825 12:24:50.231369 10489 layer_factory.hpp:77] Creating layer conv2
I0825 12:24:50.231380 10489 net.cpp:106] Creating Layer conv2
I0825 12:24:50.231384 10489 net.cpp:454] conv2 <- pool1
I0825 12:24:50.231390 10489 net.cpp:411] conv2 -> conv2
I0825 12:24:50.238330 10489 net.cpp:150] Setting up conv2
I0825 12:24:50.238345 10489 net.cpp:157] Top shape: 1 256 26 26 (173056)
I0825 12:24:50.238349 10489 net.cpp:165] Memory required for data: 15498880
I0825 12:24:50.238358 10489 layer_factory.hpp:77] Creating layer relu2
I0825 12:24:50.238365 10489 net.cpp:106] Creating Layer relu2
I0825 12:24:50.238368 10489 net.cpp:454] relu2 <- conv2
I0825 12:24:50.238373 10489 net.cpp:397] relu2 -> conv2 (in-place)
I0825 12:24:50.238986 10489 net.cpp:150] Setting up relu2
I0825 12:24:50.238999 10489 net.cpp:157] Top shape: 1 256 26 26 (173056)
I0825 12:24:50.239002 10489 net.cpp:165] Memory required for data: 16191104
I0825 12:24:50.239006 10489 layer_factory.hpp:77] Creating layer norm2
I0825 12:24:50.239015 10489 net.cpp:106] Creating Layer norm2
I0825 12:24:50.239020 10489 net.cpp:454] norm2 <- conv2
I0825 12:24:50.239027 10489 net.cpp:411] norm2 -> norm2
I0825 12:24:50.239279 10489 net.cpp:150] Setting up norm2
I0825 12:24:50.239290 10489 net.cpp:157] Top shape: 1 256 26 26 (173056)
I0825 12:24:50.239295 10489 net.cpp:165] Memory required for data: 16883328
I0825 12:24:50.239297 10489 layer_factory.hpp:77] Creating layer pool2
I0825 12:24:50.239303 10489 net.cpp:106] Creating Layer pool2
I0825 12:24:50.239306 10489 net.cpp:454] pool2 <- norm2
I0825 12:24:50.239313 10489 net.cpp:411] pool2 -> pool2
I0825 12:24:50.239377 10489 net.cpp:150] Setting up pool2
I0825 12:24:50.239384 10489 net.cpp:157] Top shape: 1 256 13 13 (43264)
I0825 12:24:50.239387 10489 net.cpp:165] Memory required for data: 17056384
I0825 12:24:50.239390 10489 layer_factory.hpp:77] Creating layer conv3
I0825 12:24:50.239401 10489 net.cpp:106] Creating Layer conv3
I0825 12:24:50.239405 10489 net.cpp:454] conv3 <- pool2
I0825 12:24:50.239419 10489 net.cpp:411] conv3 -> conv3
I0825 12:24:50.247457 10489 net.cpp:150] Setting up conv3
I0825 12:24:50.247496 10489 net.cpp:157] Top shape: 1 512 13 13 (86528)
I0825 12:24:50.247499 10489 net.cpp:165] Memory required for data: 17402496
I0825 12:24:50.247514 10489 layer_factory.hpp:77] Creating layer relu3
I0825 12:24:50.247522 10489 net.cpp:106] Creating Layer relu3
I0825 12:24:50.247526 10489 net.cpp:454] relu3 <- conv3
I0825 12:24:50.247534 10489 net.cpp:397] relu3 -> conv3 (in-place)
I0825 12:24:50.247740 10489 net.cpp:150] Setting up relu3
I0825 12:24:50.247752 10489 net.cpp:157] Top shape: 1 512 13 13 (86528)
I0825 12:24:50.247756 10489 net.cpp:165] Memory required for data: 17748608
I0825 12:24:50.247759 10489 layer_factory.hpp:77] Creating layer conv4
I0825 12:24:50.247774 10489 net.cpp:106] Creating Layer conv4
I0825 12:24:50.247778 10489 net.cpp:454] conv4 <- conv3
I0825 12:24:50.247784 10489 net.cpp:411] conv4 -> conv4
I0825 12:24:50.263016 10489 net.cpp:150] Setting up conv4
I0825 12:24:50.263053 10489 net.cpp:157] Top shape: 1 512 13 13 (86528)
I0825 12:24:50.263056 10489 net.cpp:165] Memory required for data: 18094720
I0825 12:24:50.263067 10489 layer_factory.hpp:77] Creating layer relu4
I0825 12:24:50.263077 10489 net.cpp:106] Creating Layer relu4
I0825 12:24:50.263082 10489 net.cpp:454] relu4 <- conv4
I0825 12:24:50.263090 10489 net.cpp:397] relu4 -> conv4 (in-place)
I0825 12:24:50.263602 10489 net.cpp:150] Setting up relu4
I0825 12:24:50.263617 10489 net.cpp:157] Top shape: 1 512 13 13 (86528)
I0825 12:24:50.263619 10489 net.cpp:165] Memory required for data: 18440832
I0825 12:24:50.263622 10489 layer_factory.hpp:77] Creating layer conv5
I0825 12:24:50.263634 10489 net.cpp:106] Creating Layer conv5
I0825 12:24:50.263638 10489 net.cpp:454] conv5 <- conv4
I0825 12:24:50.263650 10489 net.cpp:411] conv5 -> conv5
I0825 12:24:50.277053 10489 net.cpp:150] Setting up conv5
I0825 12:24:50.277071 10489 net.cpp:157] Top shape: 1 512 13 13 (86528)
I0825 12:24:50.277076 10489 net.cpp:165] Memory required for data: 18786944
I0825 12:24:50.277089 10489 layer_factory.hpp:77] Creating layer relu5
I0825 12:24:50.277098 10489 net.cpp:106] Creating Layer relu5
I0825 12:24:50.277103 10489 net.cpp:454] relu5 <- conv5
I0825 12:24:50.277108 10489 net.cpp:397] relu5 -> conv5 (in-place)
I0825 12:24:50.277313 10489 net.cpp:150] Setting up relu5
I0825 12:24:50.277324 10489 net.cpp:157] Top shape: 1 512 13 13 (86528)
I0825 12:24:50.277328 10489 net.cpp:165] Memory required for data: 19133056
I0825 12:24:50.277331 10489 layer_factory.hpp:77] Creating layer conv5_relu5_0_split
I0825 12:24:50.277338 10489 net.cpp:106] Creating Layer conv5_relu5_0_split
I0825 12:24:50.277343 10489 net.cpp:454] conv5_relu5_0_split <- conv5
I0825 12:24:50.277354 10489 net.cpp:411] conv5_relu5_0_split -> conv5_relu5_0_split_0
I0825 12:24:50.277362 10489 net.cpp:411] conv5_relu5_0_split -> conv5_relu5_0_split_1
I0825 12:24:50.277429 10489 net.cpp:150] Setting up conv5_relu5_0_split
I0825 12:24:50.277437 10489 net.cpp:157] Top shape: 1 512 13 13 (86528)
I0825 12:24:50.277443 10489 net.cpp:157] Top shape: 1 512 13 13 (86528)
I0825 12:24:50.277447 10489 net.cpp:165] Memory required for data: 19825280
I0825 12:24:50.277451 10489 layer_factory.hpp:77] Creating layer rpn_conv/3x3
I0825 12:24:50.277464 10489 net.cpp:106] Creating Layer rpn_conv/3x3
I0825 12:24:50.277468 10489 net.cpp:454] rpn_conv/3x3 <- conv5_relu5_0_split_0
I0825 12:24:50.277477 10489 net.cpp:411] rpn_conv/3x3 -> rpn/output
I0825 12:24:50.298614 10489 net.cpp:150] Setting up rpn_conv/3x3
I0825 12:24:50.298651 10489 net.cpp:157] Top shape: 1 256 13 13 (43264)
I0825 12:24:50.298655 10489 net.cpp:165] Memory required for data: 19998336
I0825 12:24:50.298666 10489 layer_factory.hpp:77] Creating layer rpn_relu/3x3
I0825 12:24:50.298682 10489 net.cpp:106] Creating Layer rpn_relu/3x3
I0825 12:24:50.298687 10489 net.cpp:454] rpn_relu/3x3 <- rpn/output
I0825 12:24:50.298696 10489 net.cpp:397] rpn_relu/3x3 -> rpn/output (in-place)
I0825 12:24:50.299199 10489 net.cpp:150] Setting up rpn_relu/3x3
I0825 12:24:50.299213 10489 net.cpp:157] Top shape: 1 256 13 13 (43264)
I0825 12:24:50.299216 10489 net.cpp:165] Memory required for data: 20171392
I0825 12:24:50.299219 10489 layer_factory.hpp:77] Creating layer rpn/output_rpn_relu/3x3_0_split
I0825 12:24:50.299226 10489 net.cpp:106] Creating Layer rpn/output_rpn_relu/3x3_0_split
I0825 12:24:50.299229 10489 net.cpp:454] rpn/output_rpn_relu/3x3_0_split <- rpn/output
I0825 12:24:50.299237 10489 net.cpp:411] rpn/output_rpn_relu/3x3_0_split -> rpn/output_rpn_relu/3x3_0_split_0
I0825 12:24:50.299244 10489 net.cpp:411] rpn/output_rpn_relu/3x3_0_split -> rpn/output_rpn_relu/3x3_0_split_1
I0825 12:24:50.299317 10489 net.cpp:150] Setting up rpn/output_rpn_relu/3x3_0_split
I0825 12:24:50.299326 10489 net.cpp:157] Top shape: 1 256 13 13 (43264)
I0825 12:24:50.299330 10489 net.cpp:157] Top shape: 1 256 13 13 (43264)
I0825 12:24:50.299332 10489 net.cpp:165] Memory required for data: 20517504
I0825 12:24:50.299335 10489 layer_factory.hpp:77] Creating layer rpn_cls_score
I0825 12:24:50.299353 10489 net.cpp:106] Creating Layer rpn_cls_score
I0825 12:24:50.299358 10489 net.cpp:454] rpn_cls_score <- rpn/output_rpn_relu/3x3_0_split_0
I0825 12:24:50.299366 10489 net.cpp:411] rpn_cls_score -> rpn_cls_score
I0825 12:24:50.301363 10489 net.cpp:150] Setting up rpn_cls_score
I0825 12:24:50.301378 10489 net.cpp:157] Top shape: 1 18 13 13 (3042)
I0825 12:24:50.301383 10489 net.cpp:165] Memory required for data: 20529672
I0825 12:24:50.301389 10489 layer_factory.hpp:77] Creating layer rpn_bbox_pred
I0825 12:24:50.301408 10489 net.cpp:106] Creating Layer rpn_bbox_pred
I0825 12:24:50.301411 10489 net.cpp:454] rpn_bbox_pred <- rpn/output_rpn_relu/3x3_0_split_1
I0825 12:24:50.301421 10489 net.cpp:411] rpn_bbox_pred -> rpn_bbox_pred
I0825 12:24:50.303161 10489 net.cpp:150] Setting up rpn_bbox_pred
I0825 12:24:50.303176 10489 net.cpp:157] Top shape: 1 36 13 13 (6084)
I0825 12:24:50.303180 10489 net.cpp:165] Memory required for data: 20554008
I0825 12:24:50.303186 10489 layer_factory.hpp:77] Creating layer rpn_cls_score_reshape
I0825 12:24:50.303197 10489 net.cpp:106] Creating Layer rpn_cls_score_reshape
I0825 12:24:50.303202 10489 net.cpp:454] rpn_cls_score_reshape <- rpn_cls_score
I0825 12:24:50.303208 10489 net.cpp:411] rpn_cls_score_reshape -> rpn_cls_score_reshape
I0825 12:24:50.303257 10489 net.cpp:150] Setting up rpn_cls_score_reshape
I0825 12:24:50.303267 10489 net.cpp:157] Top shape: 1 2 117 13 (3042)
I0825 12:24:50.303270 10489 net.cpp:165] Memory required for data: 20566176
I0825 12:24:50.303273 10489 layer_factory.hpp:77] Creating layer rpn_cls_prob
I0825 12:24:50.303279 10489 net.cpp:106] Creating Layer rpn_cls_prob
I0825 12:24:50.303282 10489 net.cpp:454] rpn_cls_prob <- rpn_cls_score_reshape
I0825 12:24:50.303288 10489 net.cpp:411] rpn_cls_prob -> rpn_cls_prob
I0825 12:24:50.303897 10489 net.cpp:150] Setting up rpn_cls_prob
I0825 12:24:50.303910 10489 net.cpp:157] Top shape: 1 2 117 13 (3042)
I0825 12:24:50.303913 10489 net.cpp:165] Memory required for data: 20578344
I0825 12:24:50.303916 10489 layer_factory.hpp:77] Creating layer rpn_cls_prob_reshape
I0825 12:24:50.303923 10489 net.cpp:106] Creating Layer rpn_cls_prob_reshape
I0825 12:24:50.303927 10489 net.cpp:454] rpn_cls_prob_reshape <- rpn_cls_prob
I0825 12:24:50.303936 10489 net.cpp:411] rpn_cls_prob_reshape -> rpn_cls_prob_reshape
I0825 12:24:50.303977 10489 net.cpp:150] Setting up rpn_cls_prob_reshape
I0825 12:24:50.303985 10489 net.cpp:157] Top shape: 1 18 13 13 (3042)
I0825 12:24:50.303990 10489 net.cpp:165] Memory required for data: 20590512
I0825 12:24:50.303993 10489 layer_factory.hpp:77] Creating layer proposal
I0825 12:24:50.304477 10489 net.cpp:106] Creating Layer proposal
I0825 12:24:50.304489 10489 net.cpp:454] proposal <- rpn_cls_prob_reshape
I0825 12:24:50.304497 10489 net.cpp:454] proposal <- rpn_bbox_pred
I0825 12:24:50.304502 10489 net.cpp:454] proposal <- im_info
I0825 12:24:50.304509 10489 net.cpp:411] proposal -> rois
I0825 12:24:50.305320 10489 net.cpp:150] Setting up proposal
I0825 12:24:50.305335 10489 net.cpp:157] Top shape: 1 5 (5)
I0825 12:24:50.305340 10489 net.cpp:165] Memory required for data: 20590532
I0825 12:24:50.305342 10489 layer_factory.hpp:77] Creating layer roi_pool5
I0825 12:24:50.305351 10489 net.cpp:106] Creating Layer roi_pool5
I0825 12:24:50.305356 10489 net.cpp:454] roi_pool5 <- conv5_relu5_0_split_1
I0825 12:24:50.305362 10489 net.cpp:454] roi_pool5 <- rois
I0825 12:24:50.305368 10489 net.cpp:411] roi_pool5 -> pool5
I0825 12:24:50.305378 10489 roi_pooling_layer.cpp:30] Spatial scale: 0.0625
I0825 12:24:50.305464 10489 net.cpp:150] Setting up roi_pool5
I0825 12:24:50.305472 10489 net.cpp:157] Top shape: 1 512 6 6 (18432)
I0825 12:24:50.305475 10489 net.cpp:165] Memory required for data: 20664260
I0825 12:24:50.305479 10489 layer_factory.hpp:77] Creating layer fc6
I0825 12:24:50.305486 10489 net.cpp:106] Creating Layer fc6
I0825 12:24:50.305490 10489 net.cpp:454] fc6 <- pool5
I0825 12:24:50.305495 10489 net.cpp:411] fc6 -> fc6
I0825 12:24:50.789307 10489 net.cpp:150] Setting up fc6
I0825 12:24:50.789355 10489 net.cpp:157] Top shape: 1 4096 (4096)
I0825 12:24:50.789361 10489 net.cpp:165] Memory required for data: 20680644
I0825 12:24:50.789384 10489 layer_factory.hpp:77] Creating layer relu6
I0825 12:24:50.789404 10489 net.cpp:106] Creating Layer relu6
I0825 12:24:50.789409 10489 net.cpp:454] relu6 <- fc6
I0825 12:24:50.789417 10489 net.cpp:397] relu6 -> fc6 (in-place)
I0825 12:24:50.789747 10489 net.cpp:150] Setting up relu6
I0825 12:24:50.789762 10489 net.cpp:157] Top shape: 1 4096 (4096)
I0825 12:24:50.789765 10489 net.cpp:165] Memory required for data: 20697028
I0825 12:24:50.789773 10489 layer_factory.hpp:77] Creating layer drop6
I0825 12:24:50.789784 10489 net.cpp:106] Creating Layer drop6
I0825 12:24:50.789788 10489 net.cpp:454] drop6 <- fc6
I0825 12:24:50.789796 10489 net.cpp:397] drop6 -> fc6 (in-place)
I0825 12:24:50.789852 10489 net.cpp:150] Setting up drop6
I0825 12:24:50.789862 10489 net.cpp:157] Top shape: 1 4096 (4096)
I0825 12:24:50.789865 10489 net.cpp:165] Memory required for data: 20713412
I0825 12:24:50.789870 10489 layer_factory.hpp:77] Creating layer fc7
I0825 12:24:50.789878 10489 net.cpp:106] Creating Layer fc7
I0825 12:24:50.789885 10489 net.cpp:454] fc7 <- fc6
I0825 12:24:50.789891 10489 net.cpp:411] fc7 -> fc7
I0825 12:24:50.814229 10489 net.cpp:150] Setting up fc7
I0825 12:24:50.814278 10489 net.cpp:157] Top shape: 1 1024 (1024)
I0825 12:24:50.814282 10489 net.cpp:165] Memory required for data: 20717508
I0825 12:24:50.814294 10489 layer_factory.hpp:77] Creating layer relu7
I0825 12:24:50.814306 10489 net.cpp:106] Creating Layer relu7
I0825 12:24:50.814309 10489 net.cpp:454] relu7 <- fc7
I0825 12:24:50.814317 10489 net.cpp:397] relu7 -> fc7 (in-place)
I0825 12:24:50.815079 10489 net.cpp:150] Setting up relu7
I0825 12:24:50.815095 10489 net.cpp:157] Top shape: 1 1024 (1024)
I0825 12:24:50.815099 10489 net.cpp:165] Memory required for data: 20721604
I0825 12:24:50.815104 10489 layer_factory.hpp:77] Creating layer drop7
I0825 12:24:50.815114 10489 net.cpp:106] Creating Layer drop7
I0825 12:24:50.815117 10489 net.cpp:454] drop7 <- fc7
I0825 12:24:50.815124 10489 net.cpp:397] drop7 -> fc7 (in-place)
I0825 12:24:50.815177 10489 net.cpp:150] Setting up drop7
I0825 12:24:50.815187 10489 net.cpp:157] Top shape: 1 1024 (1024)
I0825 12:24:50.815191 10489 net.cpp:165] Memory required for data: 20725700
I0825 12:24:50.815193 10489 layer_factory.hpp:77] Creating layer fc7_drop7_0_split
I0825 12:24:50.815202 10489 net.cpp:106] Creating Layer fc7_drop7_0_split
I0825 12:24:50.815207 10489 net.cpp:454] fc7_drop7_0_split <- fc7
I0825 12:24:50.815213 10489 net.cpp:411] fc7_drop7_0_split -> fc7_drop7_0_split_0
I0825 12:24:50.815222 10489 net.cpp:411] fc7_drop7_0_split -> fc7_drop7_0_split_1
I0825 12:24:50.815315 10489 net.cpp:150] Setting up fc7_drop7_0_split
I0825 12:24:50.815325 10489 net.cpp:157] Top shape: 1 1024 (1024)
I0825 12:24:50.815330 10489 net.cpp:157] Top shape: 1 1024 (1024)
I0825 12:24:50.815332 10489 net.cpp:165] Memory required for data: 20733892
I0825 12:24:50.815335 10489 layer_factory.hpp:77] Creating layer cls_score
I0825 12:24:50.815356 10489 net.cpp:106] Creating Layer cls_score
I0825 12:24:50.815361 10489 net.cpp:454] cls_score <- fc7_drop7_0_split_0
I0825 12:24:50.815368 10489 net.cpp:411] cls_score -> cls_score
I0825 12:24:50.817661 10489 net.cpp:150] Setting up cls_score
I0825 12:24:50.817675 10489 net.cpp:157] Top shape: 1 21 (21)
I0825 12:24:50.817678 10489 net.cpp:165] Memory required for data: 20733976
I0825 12:24:50.817687 10489 layer_factory.hpp:77] Creating layer bbox_pred
I0825 12:24:50.817698 10489 net.cpp:106] Creating Layer bbox_pred
I0825 12:24:50.817701 10489 net.cpp:454] bbox_pred <- fc7_drop7_0_split_1
I0825 12:24:50.817708 10489 net.cpp:411] bbox_pred -> bbox_pred
I0825 12:24:50.820734 10489 net.cpp:150] Setting up bbox_pred
I0825 12:24:50.820749 10489 net.cpp:157] Top shape: 1 84 (84)
I0825 12:24:50.820751 10489 net.cpp:165] Memory required for data: 20734312
I0825 12:24:50.820762 10489 layer_factory.hpp:77] Creating layer cls_prob
I0825 12:24:50.820770 10489 net.cpp:106] Creating Layer cls_prob
I0825 12:24:50.820773 10489 net.cpp:454] cls_prob <- cls_score
I0825 12:24:50.820780 10489 net.cpp:411] cls_prob -> cls_prob
I0825 12:24:50.821136 10489 net.cpp:150] Setting up cls_prob
I0825 12:24:50.821148 10489 net.cpp:157] Top shape: 1 21 (21)
I0825 12:24:50.821151 10489 net.cpp:165] Memory required for data: 20734396
I0825 12:24:50.821161 10489 net.cpp:228] cls_prob does not need backward computation.
I0825 12:24:50.821166 10489 net.cpp:228] bbox_pred does not need backward computation.
I0825 12:24:50.821169 10489 net.cpp:228] cls_score does not need backward computation.
I0825 12:24:50.821172 10489 net.cpp:228] fc7_drop7_0_split does not need backward computation.
…
