…
snapshot: 0
snapshot_prefix: "vggx4"
average_loss: 100
iter_size: 2
I1231 16:43:38.549147 31642 solver.cpp:81] Creating training net from train_net file: models/pascal_voc/VGGx4/faster_rcnn_end2end/train.prototxt
I1231 16:43:38.549906 31642 net.cpp:49] Initializing net from parameters: 
name: "VGG_ILSVRC_16_layers"
state {
  phase: TRAIN
}
layer {
  name: "input-data"
  type: "Python"
  top: "data"
  top: "im_info"
  top: "gt_boxes"
  python_param {
    module: "roi_data_layer.layer"
    layer: "RoIDataLayer"
    param_str: "\'num_classes\': 21"
  }
}
layer {
  name: "conv1_1"
  type: "Convolution"
  bottom: "data"
  top: "conv1_1"
  param {
    lr_mult: 0
    decay_mult: 0
  }
  param {
    lr_mult: 0
    decay_mult: 0
  }
  convolution_param {
    num_output: 12
    pad: 1
    kernel_size: 3
  }
}
layer {
  name: "relu1_1"
  type: "ReLU"
  bottom: "conv1_1"
  top: "conv1_1"
}
layer {
  name: "conv1_2"
  type: "Convolution"
  bottom: "conv1_1"
  top: "conv1_2"
  param {
    lr_mult: 0
    decay_mult: 0
  }
  param {
    lr_mult: 0
    decay_mult: 0
  }
  convolution_param {
    num_output: 64
    pad: 1
    kernel_size: 3
  }
}
layer {
  name: "relu1_2"
  type: "ReLU"
  bottom: "conv1_2"
  top: "conv1_2"
}
layer {
  name: "pool1"
  type: "Pooling"
  bottom: "conv1_2"
  top: "pool1"
  pooling_param {
    pool: MAX
    kernel_size: 2
    stride: 2
  }
}
layer {
  name: "conv2_1"
  type: "Convolution"
  bottom: "pool1"
  top: "conv2_1"
  param {
    lr_mult: 0
    decay_mult: 0
  }
  param {
    lr_mult: 0
    decay_mult: 0
  }
  convolution_param {
    num_output: 21
    pad: 1
    kernel_size: 3
  }
}
layer {
  name: "relu2_1"
  type: "ReLU"
  bottom: "conv2_1"
  top: "conv2_1"
}
layer {
  name: "conv2_2"
  type: "Convolution"
  bottom: "conv2_1"
  top: "conv2_2"
  param {
    lr_mult: 0
    decay_mult: 0
  }
  param {
    lr_mult: 0
    decay_mult: 0
  }
  convolution_param {
    num_output: 128
    pad: 1
    kernel_size: 3
  }
}
layer {
  name: "relu2_2"
  type: "ReLU"
  bottom: "conv2_2"
  top: "conv2_2"
}
layer {
  name: "pool2"
  type: "Pooling"
  bottom: "conv2_2"
  top: "pool2"
  pooling_param {
    pool: MAX
    kernel_size: 2
    stride: 2
  }
}
layer {
  name: "conv3_1"
  type: "Convolution"
  bottom: "pool2"
  top: "conv3_1"
  param {
    lr_mult: 1
  }
  param {
    lr_mult: 2
  }
  convolution_param {
    num_output: 73
    pad: 1
    kernel_size: 3
  }
}
layer {
  name: "relu3_1"
  type: "ReLU"
  bottom: "conv3_1"
  top: "conv3_1"
}
layer {
  name: "conv3_2"
  type: "Convolution"
  bottom: "conv3_1"
  top: "conv3_2"
  param {
    lr_mult: 1
  }
  param {
    lr_mult: 2
  }
  convolution_param {
    num_output: 58
    pad: 1
    kernel_size: 3
  }
}
layer {
  name: "relu3_2"
  type: "ReLU"
  bottom: "conv3_2"
  top: "conv3_2"
}
layer {
  name: "conv3_3"
  type: "Convolution"
  bottom: "conv3_2"
  top: "conv3_3"
  param {
    lr_mult: 1
  }
  param {
    lr_mult: 2
  }
  convolution_param {
    num_output: 256
    pad: 1
    kernel_size: 3
  }
}
layer {
  name: "relu3_3"
  type: "ReLU"
  bottom: "conv3_3"
  top: "conv3_3"
}
layer {
  name: "pool3"
  type: "Pooling"
  bottom: "conv3_3"
  top: "pool3"
  pooling_param {
    pool: MAX
    kernel_size: 2
    stride: 2
  }
}
layer {
  name: "conv4_1"
  type: "Convolution"
  bottom: "pool3"
  top: "conv4_1"
  param {
    lr_mult: 1
  }
  param {
    lr_mult: 2
  }
  convolution_param {
    num_output: 121
    pad: 1
    kernel_size: 3
  }
}
layer {
  name: "relu4_1"
  type: "ReLU"
  bottom: "conv4_1"
  top: "conv4_1"
}
layer {
  name: "conv4_2"
  type: "Convolution"
  bottom: "conv4_1"
  top: "conv4_2"
  param {
    lr_mult: 1
  }
  param {
    lr_mult: 2
  }
  convolution_param {
    num_output: 166
    pad: 1
    kernel_size: 3
  }
}
layer {
  name: "relu4_2"
  type: "ReLU"
  bottom: "conv4_2"
  top: "conv4_2"
}
layer {
  name: "conv4_3"
  type: "Convolution"
  bottom: "conv4_2"
  top: "conv4_3"
  param {
    lr_mult: 1
  }
  param {
    lr_mult: 2
  }
  convolution_param {
    num_output: 512
    pad: 1
    kernel_size: 3
  }
}
layer {
  name: "relu4_3"
  type: "ReLU"
  bottom: "conv4_3"
  top: "conv4_3"
}
layer {
  name: "pool4"
  type: "Pooling"
  bottom: "conv4_3"
  top: "pool4"
  pooling_param {
    pool: MAX
    kernel_size: 2
    stride: 2
  }
}
layer {
  name: "conv5_1"
  type: "Convolution"
  bottom: "pool4"
  top: "conv5_1"
  param {
    lr_mult: 1
  }
  param {
    lr_mult: 2
  }
  convolution_param {
    num_output: 512
    pad: 1
    kernel_size: 3
  }
}
layer {
  name: "relu5_1"
  type: "ReLU"
  bottom: "conv5_1"
  top: "conv5_1"
}
layer {
  name: "conv5_2"
  type: "Convolution"
  bottom: "conv5_1"
  top: "conv5_2"
  param {
    lr_mult: 1
  }
  param {
    lr_mult: 2
  }
  convolution_param {
    num_output: 512
    pad: 1
    kernel_size: 3
  }
}
layer {
  name: "relu5_2"
  type: "ReLU"
  bottom: "conv5_2"
  top: "conv5_2"
}
layer {
  name: "conv5_3"
  type: "Convolution"
  bottom: "conv5_2"
  top: "conv5_3"
  param {
    lr_mult: 1
  }
  param {
    lr_mult: 2
  }
  convolution_param {
    num_output: 512
    pad: 1
    kernel_size: 3
  }
}
layer {
  name: "relu5_3"
  type: "ReLU"
  bottom: "conv5_3"
  top: "conv5_3"
}
layer {
  name: "rpn_conv/3x3"
  type: "Convolution"
  bottom: "conv5_3"
  top: "rpn/output"
  param {
    lr_mult: 1
  }
  param {
    lr_mult: 2
  }
  convolution_param {
    num_output: 512
    pad: 1
    kernel_size: 3
    stride: 1
    weight_filler {
      type: "gaussian"
      std: 0.01
    }
    bias_filler {
      type: "constant"
      value: 0
    }
  }
}
layer {
  name: "rpn_relu/3x3"
  type: "ReLU"
  bottom: "rpn/output"
  top: "rpn/output"
}
layer {
  name: "rpn_cls_score"
  type: "Convolution"
  bottom: "rpn/output"
  top: "rpn_cls_score"
  param {
    lr_mult: 1
  }
  param {
    lr_mult: 2
  }
  convolution_param {
    num_output: 18
    pad: 0
    kernel_size: 1
    stride: 1
    weight_filler {
      type: "gaussian"
      std: 0.01
    }
    bias_filler {
      type: "constant"
      value: 0
    }
  }
}
layer {
  name: "rpn_bbox_pred"
  type: "Convolution"
  bottom: "rpn/output"
  top: "rpn_bbox_pred"
  param {
    lr_mult: 1
  }
  param {
    lr_mult: 2
  }
  convolution_param {
    num_output: 36
    pad: 0
    kernel_size: 1
    stride: 1
    weight_filler {
      type: "gaussian"
      std: 0.01
    }
    bias_filler {
      type: "constant"
      value: 0
    }
  }
}
layer {
  name: "rpn_cls_score_reshape"
  type: "Reshape"
  bottom: "rpn_cls_score"
  top: "rpn_cls_score_reshape"
  reshape_param {
    shape {
      dim: 0
      dim: 2
      dim: -1
      dim: 0
    }
  }
}
layer {
  name: "rpn-data"
  type: "Python"
  bottom: "rpn_cls_score"
  bottom: "gt_boxes"
  bottom: "im_info"
  bottom: "data"
  top: "rpn_labels"
  top: "rpn_bbox_targets"
  top: "rpn_bbox_inside_weights"
  top: "rpn_bbox_outside_weights"
  python_param {
    module: "rpn.anchor_target_layer"
    layer: "AnchorTargetLayer"
    param_str: "\'feat_stride\': 16"
  }
}
layer {
  name: "rpn_loss_cls"
  type: "SoftmaxWithLoss"
  bottom: "rpn_cls_score_reshape"
  bottom: "rpn_labels"
  top: "rpn_cls_loss"
  loss_weight: 1
  propagate_down: true
  propagate_down: false
  loss_param {
    ignore_label: -1
    normalize: true
  }
}
layer {
  name: "rpn_loss_bbox"
  type: "SmoothL1Loss"
  bottom: "rpn_bbox_pred"
  bottom: "rpn_bbox_targets"
  bottom: "rpn_bbox_inside_weights"
  bottom: "rpn_bbox_outside_weights"
  top: "rpn_loss_bbox"
  loss_weight: 1
  smooth_l1_loss_param {
    sigma: 3
  }
}
layer {
  name: "rpn_cls_prob"
  type: "Softmax"
  bottom: "rpn_cls_score_reshape"
  top: "rpn_cls_prob"
}
layer {
  name: "rpn_cls_prob_reshape"
  type: "Reshape"
  bottom: "rpn_cls_prob"
  top: "rpn_cls_prob_reshape"
  reshape_param {
    shape {
      dim: 0
      dim: 18
      dim: -1
      dim: 0
    }
  }
}
layer {
  name: "proposal"
  type: "Python"
  bottom: "rpn_cls_prob_reshape"
  bottom: "rpn_bbox_pred"
  bottom: "im_info"
  top: "rpn_rois"
  python_param {
    module: "rpn.proposal_layer"
    layer: "ProposalLayer"
    param_str: "\'feat_stride\': 16"
  }
}
layer {
  name: "roi-data"
  type: "Python"
  bottom: "rpn_rois"
  bottom: "gt_boxes"
  top: "rois"
  top: "labels"
  top: "bbox_targets"
  top: "bbox_inside_weights"
  top: "bbox_outside_weights"
  python_param {
    module: "rpn.proposal_target_layer"
    layer: "ProposalTargetLayer"
    param_str: "\'num_classes\': 21"
  }
}
layer {
  name: "roi_pool5"
  type: "ROIPooling"
  bottom: "conv5_3"
  bottom: "rois"
  top: "pool5"
  roi_pooling_param {
    pooled_h: 7
    pooled_w: 7
    spatial_scale: 0.0625
  }
}
layer {
  name: "fc6"
  type: "InnerProduct"
  bottom: "pool5"
  top: "fc6"
  param {
    lr_mult: 1
  }
  param {
    lr_mult: 2
  }
  inner_product_param {
    num_output: 4096
  }
}
layer {
  name: "relu6"
  type: "ReLU"
  bottom: "fc6"
  top: "fc6"
}
layer {
  name: "drop6"
  type: "Dropout"
  bottom: "fc6"
  top: "fc6"
  dropout_param {
    dropout_ratio: 0.5
  }
}
layer {
  name: "fc7"
  type: "InnerProduct"
  bottom: "fc6"
  top: "fc7"
  param {
    lr_mult: 1
  }
  param {
    lr_mult: 2
  }
  inner_product_param {
    num_output: 4096
  }
}
layer {
  name: "relu7"
  type: "ReLU"
  bottom: "fc7"
  top: "fc7"
}
layer {
  name: "drop7"
  type: "Dropout"
  bottom: "fc7"
  top: "fc7"
  dropout_param {
    dropout_ratio: 0.5
  }
}
layer {
  name: "cls_score"
  type: "InnerProduct"
  bottom: "fc7"
  top: "cls_score"
  param {
    lr_mult: 1
  }
  param {
    lr_mult: 2
  }
  inner_product_param {
    num_output: 21
    weight_filler {
      type: "gaussian"
      std: 0.01
    }
    bias_filler {
      type: "constant"
      value: 0
    }
  }
}
layer {
  name: "bbox_pred"
  type: "InnerProduct"
  bottom: "fc7"
  top: "bbox_pred"
  param {
    lr_mult: 1
  }
  param {
    lr_mult: 2
  }
  inner_product_param {
    num_output: 84
    weight_filler {
      type: "gaussian"
      std: 0.001
    }
    bias_filler {
      type: "constant"
      value: 0
    }
  }
}
layer {
  name: "loss_cls"
  type: "SoftmaxWithLoss"
  bottom: "cls_score"
  bottom: "labels"
  top: "loss_cls"
  loss_weight: 1
  propagate_down: true
  propagate_down: false
}
layer {
  name: "loss_bbox"
  type: "SmoothL1Loss"
  bottom: "bbox_pred"
  bottom: "bbox_targets"
  bottom: "bbox_inside_weights"
  bottom: "bbox_outside_weights"
  top: "loss_bbox"
  loss_weight: 1
}
I1231 16:43:38.550230 31642 layer_factory.hpp:77] Creating layer input-data
I1231 16:43:38.565935 31642 net.cpp:106] Creating Layer input-data
I1231 16:43:38.565968 31642 net.cpp:411] input-data -> data
I1231 16:43:38.565985 31642 net.cpp:411] input-data -> im_info
I1231 16:43:38.565992 31642 net.cpp:411] input-data -> gt_boxes
RoiDataLayer: name_to_top: {'gt_boxes': 2, 'data': 0, 'im_info': 1}
I1231 16:43:38.577713 31642 net.cpp:150] Setting up input-data
I1231 16:43:38.577730 31642 net.cpp:157] Top shape: 1 3 600 1000 (1800000)
I1231 16:43:38.577738 31642 net.cpp:157] Top shape: 1 3 (3)
I1231 16:43:38.577740 31642 net.cpp:157] Top shape: 1 4 (4)
I1231 16:43:38.577742 31642 net.cpp:165] Memory required for data: 7200028
I1231 16:43:38.577746 31642 layer_factory.hpp:77] Creating layer data_input-data_0_split
I1231 16:43:38.577754 31642 net.cpp:106] Creating Layer data_input-data_0_split
I1231 16:43:38.577757 31642 net.cpp:454] data_input-data_0_split <- data
I1231 16:43:38.577765 31642 net.cpp:411] data_input-data_0_split -> data_input-data_0_split_0
I1231 16:43:38.577772 31642 net.cpp:411] data_input-data_0_split -> data_input-data_0_split_1
I1231 16:43:38.577823 31642 net.cpp:150] Setting up data_input-data_0_split
I1231 16:43:38.577831 31642 net.cpp:157] Top shape: 1 3 600 1000 (1800000)
I1231 16:43:38.577836 31642 net.cpp:157] Top shape: 1 3 600 1000 (1800000)
I1231 16:43:38.577837 31642 net.cpp:165] Memory required for data: 21600028
I1231 16:43:38.577841 31642 layer_factory.hpp:77] Creating layer im_info_input-data_1_split
I1231 16:43:38.577846 31642 net.cpp:106] Creating Layer im_info_input-data_1_split
I1231 16:43:38.577847 31642 net.cpp:454] im_info_input-data_1_split <- im_info
I1231 16:43:38.577852 31642 net.cpp:411] im_info_input-data_1_split -> im_info_input-data_1_split_0
I1231 16:43:38.577857 31642 net.cpp:411] im_info_input-data_1_split -> im_info_input-data_1_split_1
I1231 16:43:38.577898 31642 net.cpp:150] Setting up im_info_input-data_1_split
I1231 16:43:38.577904 31642 net.cpp:157] Top shape: 1 3 (3)
I1231 16:43:38.577908 31642 net.cpp:157] Top shape: 1 3 (3)
I1231 16:43:38.577909 31642 net.cpp:165] Memory required for data: 21600052
I1231 16:43:38.577913 31642 layer_factory.hpp:77] Creating layer gt_boxes_input-data_2_split
I1231 16:43:38.577916 31642 net.cpp:106] Creating Layer gt_boxes_input-data_2_split
I1231 16:43:38.577919 31642 net.cpp:454] gt_boxes_input-data_2_split <- gt_boxes
I1231 16:43:38.577924 31642 net.cpp:411] gt_boxes_input-data_2_split -> gt_boxes_input-data_2_split_0
I1231 16:43:38.577929 31642 net.cpp:411] gt_boxes_input-data_2_split -> gt_boxes_input-data_2_split_1
I1231 16:43:38.577970 31642 net.cpp:150] Setting up gt_boxes_input-data_2_split
I1231 16:43:38.577975 31642 net.cpp:157] Top shape: 1 4 (4)
I1231 16:43:38.577980 31642 net.cpp:157] Top shape: 1 4 (4)
I1231 16:43:38.577981 31642 net.cpp:165] Memory required for data: 21600084
I1231 16:43:38.577983 31642 layer_factory.hpp:77] Creating layer conv1_1
I1231 16:43:38.577996 31642 net.cpp:106] Creating Layer conv1_1
I1231 16:43:38.577998 31642 net.cpp:454] conv1_1 <- data_input-data_0_split_0
I1231 16:43:38.578003 31642 net.cpp:411] conv1_1 -> conv1_1
I1231 16:43:38.838042 31642 net.cpp:150] Setting up conv1_1
I1231 16:43:38.838079 31642 net.cpp:157] Top shape: 1 12 600 1000 (7200000)
I1231 16:43:38.838083 31642 net.cpp:165] Memory required for data: 50400084
I1231 16:43:38.838106 31642 layer_factory.hpp:77] Creating layer relu1_1
I1231 16:43:38.838121 31642 net.cpp:106] Creating Layer relu1_1
I1231 16:43:38.838126 31642 net.cpp:454] relu1_1 <- conv1_1
I1231 16:43:38.838132 31642 net.cpp:397] relu1_1 -> conv1_1 (in-place)
I1231 16:43:38.839062 31642 net.cpp:150] Setting up relu1_1
I1231 16:43:38.839077 31642 net.cpp:157] Top shape: 1 12 600 1000 (7200000)
I1231 16:43:38.839081 31642 net.cpp:165] Memory required for data: 79200084
I1231 16:43:38.839084 31642 layer_factory.hpp:77] Creating layer conv1_2
I1231 16:43:38.839095 31642 net.cpp:106] Creating Layer conv1_2
I1231 16:43:38.839099 31642 net.cpp:454] conv1_2 <- conv1_1
I1231 16:43:38.839105 31642 net.cpp:411] conv1_2 -> conv1_2
I1231 16:43:38.845556 31642 net.cpp:150] Setting up conv1_2
I1231 16:43:38.845572 31642 net.cpp:157] Top shape: 1 64 600 1000 (38400000)
I1231 16:43:38.845577 31642 net.cpp:165] Memory required for data: 232800084
I1231 16:43:38.845587 31642 layer_factory.hpp:77] Creating layer relu1_2
I1231 16:43:38.845593 31642 net.cpp:106] Creating Layer relu1_2
I1231 16:43:38.845597 31642 net.cpp:454] relu1_2 <- conv1_2
I1231 16:43:38.845602 31642 net.cpp:397] relu1_2 -> conv1_2 (in-place)
I1231 16:43:38.845798 31642 net.cpp:150] Setting up relu1_2
I1231 16:43:38.845809 31642 net.cpp:157] Top shape: 1 64 600 1000 (38400000)
I1231 16:43:38.845813 31642 net.cpp:165] Memory required for data: 386400084
I1231 16:43:38.845815 31642 layer_factory.hpp:77] Creating layer pool1
I1231 16:43:38.845825 31642 net.cpp:106] Creating Layer pool1
I1231 16:43:38.845829 31642 net.cpp:454] pool1 <- conv1_2
I1231 16:43:38.845835 31642 net.cpp:411] pool1 -> pool1
I1231 16:43:38.845916 31642 net.cpp:150] Setting up pool1
I1231 16:43:38.845926 31642 net.cpp:157] Top shape: 1 64 300 500 (9600000)
I1231 16:43:38.845928 31642 net.cpp:165] Memory required for data: 424800084
I1231 16:43:38.845932 31642 layer_factory.hpp:77] Creating layer conv2_1
I1231 16:43:38.845939 31642 net.cpp:106] Creating Layer conv2_1
I1231 16:43:38.845942 31642 net.cpp:454] conv2_1 <- pool1
I1231 16:43:38.845947 31642 net.cpp:411] conv2_1 -> conv2_1
I1231 16:43:38.850739 31642 net.cpp:150] Setting up conv2_1
I1231 16:43:38.850756 31642 net.cpp:157] Top shape: 1 21 300 500 (3150000)
I1231 16:43:38.850759 31642 net.cpp:165] Memory required for data: 437400084
I1231 16:43:38.850770 31642 layer_factory.hpp:77] Creating layer relu2_1
I1231 16:43:38.850776 31642 net.cpp:106] Creating Layer relu2_1
I1231 16:43:38.850780 31642 net.cpp:454] relu2_1 <- conv2_1
I1231 16:43:38.850785 31642 net.cpp:397] relu2_1 -> conv2_1 (in-place)
I1231 16:43:38.850980 31642 net.cpp:150] Setting up relu2_1
I1231 16:43:38.850991 31642 net.cpp:157] Top shape: 1 21 300 500 (3150000)
I1231 16:43:38.850994 31642 net.cpp:165] Memory required for data: 450000084
I1231 16:43:38.850997 31642 layer_factory.hpp:77] Creating layer conv2_2
I1231 16:43:38.851006 31642 net.cpp:106] Creating Layer conv2_2
I1231 16:43:38.851009 31642 net.cpp:454] conv2_2 <- conv2_1
I1231 16:43:38.851016 31642 net.cpp:411] conv2_2 -> conv2_2
I1231 16:43:38.856446 31642 net.cpp:150] Setting up conv2_2
I1231 16:43:38.856463 31642 net.cpp:157] Top shape: 1 128 300 500 (19200000)
I1231 16:43:38.856467 31642 net.cpp:165] Memory required for data: 526800084
I1231 16:43:38.856475 31642 layer_factory.hpp:77] Creating layer relu2_2
I1231 16:43:38.856482 31642 net.cpp:106] Creating Layer relu2_2
I1231 16:43:38.856487 31642 net.cpp:454] relu2_2 <- conv2_2
I1231 16:43:38.856492 31642 net.cpp:397] relu2_2 -> conv2_2 (in-place)
I1231 16:43:38.857453 31642 net.cpp:150] Setting up relu2_2
I1231 16:43:38.857470 31642 net.cpp:157] Top shape: 1 128 300 500 (19200000)
I1231 16:43:38.857472 31642 net.cpp:165] Memory required for data: 603600084
I1231 16:43:38.857476 31642 layer_factory.hpp:77] Creating layer pool2
I1231 16:43:38.857483 31642 net.cpp:106] Creating Layer pool2
I1231 16:43:38.857486 31642 net.cpp:454] pool2 <- conv2_2
I1231 16:43:38.857492 31642 net.cpp:411] pool2 -> pool2
I1231 16:43:38.857566 31642 net.cpp:150] Setting up pool2
I1231 16:43:38.857575 31642 net.cpp:157] Top shape: 1 128 150 250 (4800000)
I1231 16:43:38.857578 31642 net.cpp:165] Memory required for data: 622800084
I1231 16:43:38.857581 31642 layer_factory.hpp:77] Creating layer conv3_1
I1231 16:43:38.857589 31642 net.cpp:106] Creating Layer conv3_1
I1231 16:43:38.857592 31642 net.cpp:454] conv3_1 <- pool2
I1231 16:43:38.857599 31642 net.cpp:411] conv3_1 -> conv3_1
I1231 16:43:38.861029 31642 net.cpp:150] Setting up conv3_1
I1231 16:43:38.861045 31642 net.cpp:157] Top shape: 1 73 150 250 (2737500)
I1231 16:43:38.861048 31642 net.cpp:165] Memory required for data: 633750084
I1231 16:43:38.861060 31642 layer_factory.hpp:77] Creating layer relu3_1
I1231 16:43:38.861068 31642 net.cpp:106] Creating Layer relu3_1
I1231 16:43:38.861073 31642 net.cpp:454] relu3_1 <- conv3_1
I1231 16:43:38.861078 31642 net.cpp:397] relu3_1 -> conv3_1 (in-place)
I1231 16:43:38.861274 31642 net.cpp:150] Setting up relu3_1
I1231 16:43:38.861285 31642 net.cpp:157] Top shape: 1 73 150 250 (2737500)
I1231 16:43:38.861289 31642 net.cpp:165] Memory required for data: 644700084
I1231 16:43:38.861291 31642 layer_factory.hpp:77] Creating layer conv3_2
I1231 16:43:38.861304 31642 net.cpp:106] Creating Layer conv3_2
I1231 16:43:38.861306 31642 net.cpp:454] conv3_2 <- conv3_1
I1231 16:43:38.861313 31642 net.cpp:411] conv3_2 -> conv3_2
I1231 16:43:38.864537 31642 net.cpp:150] Setting up conv3_2
I1231 16:43:38.864552 31642 net.cpp:157] Top shape: 1 58 150 250 (2175000)
I1231 16:43:38.864555 31642 net.cpp:165] Memory required for data: 653400084
I1231 16:43:38.864563 31642 layer_factory.hpp:77] Creating layer relu3_2
I1231 16:43:38.864569 31642 net.cpp:106] Creating Layer relu3_2
I1231 16:43:38.864573 31642 net.cpp:454] relu3_2 <- conv3_2
I1231 16:43:38.864578 31642 net.cpp:397] relu3_2 -> conv3_2 (in-place)
I1231 16:43:38.864775 31642 net.cpp:150] Setting up relu3_2
I1231 16:43:38.864786 31642 net.cpp:157] Top shape: 1 58 150 250 (2175000)
I1231 16:43:38.864789 31642 net.cpp:165] Memory required for data: 662100084
I1231 16:43:38.864792 31642 layer_factory.hpp:77] Creating layer conv3_3
I1231 16:43:38.864800 31642 net.cpp:106] Creating Layer conv3_3
I1231 16:43:38.864804 31642 net.cpp:454] conv3_3 <- conv3_2
I1231 16:43:38.864809 31642 net.cpp:411] conv3_3 -> conv3_3
I1231 16:43:38.869173 31642 net.cpp:150] Setting up conv3_3
I1231 16:43:38.869190 31642 net.cpp:157] Top shape: 1 256 150 250 (9600000)
I1231 16:43:38.869194 31642 net.cpp:165] Memory required for data: 700500084
I1231 16:43:38.869201 31642 layer_factory.hpp:77] Creating layer relu3_3
I1231 16:43:38.869207 31642 net.cpp:106] Creating Layer relu3_3
I1231 16:43:38.869211 31642 net.cpp:454] relu3_3 <- conv3_3
I1231 16:43:38.869216 31642 net.cpp:397] relu3_3 -> conv3_3 (in-place)
I1231 16:43:38.870137 31642 net.cpp:150] Setting up relu3_3
I1231 16:43:38.870152 31642 net.cpp:157] Top shape: 1 256 150 250 (9600000)
I1231 16:43:38.870156 31642 net.cpp:165] Memory required for data: 738900084
I1231 16:43:38.870158 31642 layer_factory.hpp:77] Creating layer pool3
I1231 16:43:38.870165 31642 net.cpp:106] Creating Layer pool3
I1231 16:43:38.870168 31642 net.cpp:454] pool3 <- conv3_3
I1231 16:43:38.870175 31642 net.cpp:411] pool3 -> pool3
I1231 16:43:38.870245 31642 net.cpp:150] Setting up pool3
I1231 16:43:38.870254 31642 net.cpp:157] Top shape: 1 256 75 125 (2400000)
I1231 16:43:38.870256 31642 net.cpp:165] Memory required for data: 748500084
I1231 16:43:38.870260 31642 layer_factory.hpp:77] Creating layer conv4_1
I1231 16:43:38.870267 31642 net.cpp:106] Creating Layer conv4_1
I1231 16:43:38.870270 31642 net.cpp:454] conv4_1 <- pool3
I1231 16:43:38.870276 31642 net.cpp:411] conv4_1 -> conv4_1
I1231 16:43:38.874732 31642 net.cpp:150] Setting up conv4_1
I1231 16:43:38.874748 31642 net.cpp:157] Top shape: 1 121 75 125 (1134375)
I1231 16:43:38.874752 31642 net.cpp:165] Memory required for data: 753037584
I1231 16:43:38.874759 31642 layer_factory.hpp:77] Creating layer relu4_1
I1231 16:43:38.874766 31642 net.cpp:106] Creating Layer relu4_1
I1231 16:43:38.874769 31642 net.cpp:454] relu4_1 <- conv4_1
I1231 16:43:38.874775 31642 net.cpp:397] relu4_1 -> conv4_1 (in-place)
I1231 16:43:38.875684 31642 net.cpp:150] Setting up relu4_1
I1231 16:43:38.875699 31642 net.cpp:157] Top shape: 1 121 75 125 (1134375)
I1231 16:43:38.875701 31642 net.cpp:165] Memory required for data: 757575084
I1231 16:43:38.875705 31642 layer_factory.hpp:77] Creating layer conv4_2
I1231 16:43:38.875713 31642 net.cpp:106] Creating Layer conv4_2
I1231 16:43:38.875717 31642 net.cpp:454] conv4_2 <- conv4_1
I1231 16:43:38.875723 31642 net.cpp:411] conv4_2 -> conv4_2
I1231 16:43:38.879415 31642 net.cpp:150] Setting up conv4_2
I1231 16:43:38.879432 31642 net.cpp:157] Top shape: 1 166 75 125 (1556250)
I1231 16:43:38.879436 31642 net.cpp:165] Memory required for data: 763800084
I1231 16:43:38.879447 31642 layer_factory.hpp:77] Creating layer relu4_2
I1231 16:43:38.879454 31642 net.cpp:106] Creating Layer relu4_2
I1231 16:43:38.879459 31642 net.cpp:454] relu4_2 <- conv4_2
I1231 16:43:38.879465 31642 net.cpp:397] relu4_2 -> conv4_2 (in-place)
I1231 16:43:38.879652 31642 net.cpp:150] Setting up relu4_2
I1231 16:43:38.879662 31642 net.cpp:157] Top shape: 1 166 75 125 (1556250)
I1231 16:43:38.879665 31642 net.cpp:165] Memory required for data: 770025084
I1231 16:43:38.879668 31642 layer_factory.hpp:77] Creating layer conv4_3
I1231 16:43:38.879678 31642 net.cpp:106] Creating Layer conv4_3
I1231 16:43:38.879680 31642 net.cpp:454] conv4_3 <- conv4_2
I1231 16:43:38.879686 31642 net.cpp:411] conv4_3 -> conv4_3
I1231 16:43:38.884610 31642 net.cpp:150] Setting up conv4_3
I1231 16:43:38.884627 31642 net.cpp:157] Top shape: 1 512 75 125 (4800000)
I1231 16:43:38.884630 31642 net.cpp:165] Memory required for data: 789225084
I1231 16:43:38.884637 31642 layer_factory.hpp:77] Creating layer relu4_3
I1231 16:43:38.884644 31642 net.cpp:106] Creating Layer relu4_3
I1231 16:43:38.884647 31642 net.cpp:454] relu4_3 <- conv4_3
I1231 16:43:38.884652 31642 net.cpp:397] relu4_3 -> conv4_3 (in-place)
I1231 16:43:38.885568 31642 net.cpp:150] Setting up relu4_3
I1231 16:43:38.885582 31642 net.cpp:157] Top shape: 1 512 75 125 (4800000)
I1231 16:43:38.885586 31642 net.cpp:165] Memory required for data: 808425084
I1231 16:43:38.885589 31642 layer_factory.hpp:77] Creating layer pool4
I1231 16:43:38.885596 31642 net.cpp:106] Creating Layer pool4
I1231 16:43:38.885599 31642 net.cpp:454] pool4 <- conv4_3
I1231 16:43:38.885604 31642 net.cpp:411] pool4 -> pool4
I1231 16:43:38.885676 31642 net.cpp:150] Setting up pool4
I1231 16:43:38.885685 31642 net.cpp:157] Top shape: 1 512 38 63 (1225728)
I1231 16:43:38.885687 31642 net.cpp:165] Memory required for data: 813327996
I1231 16:43:38.885690 31642 layer_factory.hpp:77] Creating layer conv5_1
I1231 16:43:38.885699 31642 net.cpp:106] Creating Layer conv5_1
I1231 16:43:38.885701 31642 net.cpp:454] conv5_1 <- pool4
I1231 16:43:38.885707 31642 net.cpp:411] conv5_1 -> conv5_1
I1231 16:43:38.900538 31642 net.cpp:150] Setting up conv5_1
I1231 16:43:38.900591 31642 net.cpp:157] Top shape: 1 512 38 63 (1225728)
I1231 16:43:38.900599 31642 net.cpp:165] Memory required for data: 818230908
I1231 16:43:38.900616 31642 layer_factory.hpp:77] Creating layer relu5_1
I1231 16:43:38.900640 31642 net.cpp:106] Creating Layer relu5_1
I1231 16:43:38.900646 31642 net.cpp:454] relu5_1 <- conv5_1
I1231 16:43:38.900658 31642 net.cpp:397] relu5_1 -> conv5_1 (in-place)
I1231 16:43:38.901036 31642 net.cpp:150] Setting up relu5_1
I1231 16:43:38.901060 31642 net.cpp:157] Top shape: 1 512 38 63 (1225728)
I1231 16:43:38.901072 31642 net.cpp:165] Memory required for data: 823133820
I1231 16:43:38.901077 31642 layer_factory.hpp:77] Creating layer conv5_2
I1231 16:43:38.901096 31642 net.cpp:106] Creating Layer conv5_2
I1231 16:43:38.901103 31642 net.cpp:454] conv5_2 <- conv5_1
I1231 16:43:38.901113 31642 net.cpp:411] conv5_2 -> conv5_2
I1231 16:43:38.915910 31642 net.cpp:150] Setting up conv5_2
I1231 16:43:38.915971 31642 net.cpp:157] Top shape: 1 512 38 63 (1225728)
I1231 16:43:38.915979 31642 net.cpp:165] Memory required for data: 828036732
I1231 16:43:38.915997 31642 layer_factory.hpp:77] Creating layer relu5_2
I1231 16:43:38.916021 31642 net.cpp:106] Creating Layer relu5_2
I1231 16:43:38.916029 31642 net.cpp:454] relu5_2 <- conv5_2
I1231 16:43:38.916041 31642 net.cpp:397] relu5_2 -> conv5_2 (in-place)
I1231 16:43:38.916378 31642 net.cpp:150] Setting up relu5_2
I1231 16:43:38.916396 31642 net.cpp:157] Top shape: 1 512 38 63 (1225728)
I1231 16:43:38.916401 31642 net.cpp:165] Memory required for data: 832939644
I1231 16:43:38.916406 31642 layer_factory.hpp:77] Creating layer conv5_3
I1231 16:43:38.916432 31642 net.cpp:106] Creating Layer conv5_3
I1231 16:43:38.916438 31642 net.cpp:454] conv5_3 <- conv5_2
I1231 16:43:38.916448 31642 net.cpp:411] conv5_3 -> conv5_3
I1231 16:43:38.929661 31642 net.cpp:150] Setting up conv5_3
I1231 16:43:38.929699 31642 net.cpp:157] Top shape: 1 512 38 63 (1225728)
I1231 16:43:38.929707 31642 net.cpp:165] Memory required for data: 837842556
I1231 16:43:38.929719 31642 layer_factory.hpp:77] Creating layer relu5_3
I1231 16:43:38.929740 31642 net.cpp:106] Creating Layer relu5_3
I1231 16:43:38.929746 31642 net.cpp:454] relu5_3 <- conv5_3
I1231 16:43:38.929756 31642 net.cpp:397] relu5_3 -> conv5_3 (in-place)
I1231 16:43:38.931498 31642 net.cpp:150] Setting up relu5_3
I1231 16:43:38.931529 31642 net.cpp:157] Top shape: 1 512 38 63 (1225728)
I1231 16:43:38.931534 31642 net.cpp:165] Memory required for data: 842745468
I1231 16:43:38.931540 31642 layer_factory.hpp:77] Creating layer conv5_3_relu5_3_0_split
I1231 16:43:38.931551 31642 net.cpp:106] Creating Layer conv5_3_relu5_3_0_split
I1231 16:43:38.931557 31642 net.cpp:454] conv5_3_relu5_3_0_split <- conv5_3
I1231 16:43:38.931574 31642 net.cpp:411] conv5_3_relu5_3_0_split -> conv5_3_relu5_3_0_split_0
I1231 16:43:38.931596 31642 net.cpp:411] conv5_3_relu5_3_0_split -> conv5_3_relu5_3_0_split_1
I1231 16:43:38.931722 31642 net.cpp:150] Setting up conv5_3_relu5_3_0_split
I1231 16:43:38.931738 31642 net.cpp:157] Top shape: 1 512 38 63 (1225728)
I1231 16:43:38.931746 31642 net.cpp:157] Top shape: 1 512 38 63 (1225728)
I1231 16:43:38.931749 31642 net.cpp:165] Memory required for data: 852551292
I1231 16:43:38.931754 31642 layer_factory.hpp:77] Creating layer rpn_conv/3x3
I1231 16:43:38.931774 31642 net.cpp:106] Creating Layer rpn_conv/3x3
I1231 16:43:38.931783 31642 net.cpp:454] rpn_conv/3x3 <- conv5_3_relu5_3_0_split_0
I1231 16:43:38.931794 31642 net.cpp:411] rpn_conv/3x3 -> rpn/output
I1231 16:43:38.987197 31642 net.cpp:150] Setting up rpn_conv/3x3
I1231 16:43:38.987221 31642 net.cpp:157] Top shape: 1 512 38 63 (1225728)
I1231 16:43:38.987229 31642 net.cpp:165] Memory required for data: 857454204
I1231 16:43:38.987241 31642 layer_factory.hpp:77] Creating layer rpn_relu/3x3
I1231 16:43:38.987249 31642 net.cpp:106] Creating Layer rpn_relu/3x3
I1231 16:43:38.987254 31642 net.cpp:454] rpn_relu/3x3 <- rpn/output
I1231 16:43:38.987262 31642 net.cpp:397] rpn_relu/3x3 -> rpn/output (in-place)
I1231 16:43:38.987560 31642 net.cpp:150] Setting up rpn_relu/3x3
I1231 16:43:38.987577 31642 net.cpp:157] Top shape: 1 512 38 63 (1225728)
I1231 16:43:38.987581 31642 net.cpp:165] Memory required for data: 862357116
I1231 16:43:38.987586 31642 layer_factory.hpp:77] Creating layer rpn/output_rpn_relu/3x3_0_split
I1231 16:43:38.987596 31642 net.cpp:106] Creating Layer rpn/output_rpn_relu/3x3_0_split
I1231 16:43:38.987604 31642 net.cpp:454] rpn/output_rpn_relu/3x3_0_split <- rpn/output
I1231 16:43:38.987614 31642 net.cpp:411] rpn/output_rpn_relu/3x3_0_split -> rpn/output_rpn_relu/3x3_0_split_0
I1231 16:43:38.987624 31642 net.cpp:411] rpn/output_rpn_relu/3x3_0_split -> rpn/output_rpn_relu/3x3_0_split_1
I1231 16:43:38.987725 31642 net.cpp:150] Setting up rpn/output_rpn_relu/3x3_0_split
I1231 16:43:38.987735 31642 net.cpp:157] Top shape: 1 512 38 63 (1225728)
I1231 16:43:38.987741 31642 net.cpp:157] Top shape: 1 512 38 63 (1225728)
I1231 16:43:38.987756 31642 net.cpp:165] Memory required for data: 872162940
I1231 16:43:38.987759 31642 layer_factory.hpp:77] Creating layer rpn_cls_score
I1231 16:43:38.987776 31642 net.cpp:106] Creating Layer rpn_cls_score
I1231 16:43:38.987782 31642 net.cpp:454] rpn_cls_score <- rpn/output_rpn_relu/3x3_0_split_0
I1231 16:43:38.987792 31642 net.cpp:411] rpn_cls_score -> rpn_cls_score
I1231 16:43:38.992131 31642 net.cpp:150] Setting up rpn_cls_score
I1231 16:43:38.992151 31642 net.cpp:157] Top shape: 1 18 38 63 (43092)
I1231 16:43:38.992156 31642 net.cpp:165] Memory required for data: 872335308
I1231 16:43:38.992166 31642 layer_factory.hpp:77] Creating layer rpn_cls_score_rpn_cls_score_0_split
I1231 16:43:38.992175 31642 net.cpp:106] Creating Layer rpn_cls_score_rpn_cls_score_0_split
I1231 16:43:38.992180 31642 net.cpp:454] rpn_cls_score_rpn_cls_score_0_split <- rpn_cls_score
I1231 16:43:38.992189 31642 net.cpp:411] rpn_cls_score_rpn_cls_score_0_split -> rpn_cls_score_rpn_cls_score_0_split_0
I1231 16:43:38.992208 31642 net.cpp:411] rpn_cls_score_rpn_cls_score_0_split -> rpn_cls_score_rpn_cls_score_0_split_1
I1231 16:43:38.992305 31642 net.cpp:150] Setting up rpn_cls_score_rpn_cls_score_0_split
I1231 16:43:38.992317 31642 net.cpp:157] Top shape: 1 18 38 63 (43092)
I1231 16:43:38.992322 31642 net.cpp:157] Top shape: 1 18 38 63 (43092)
I1231 16:43:38.992326 31642 net.cpp:165] Memory required for data: 872680044
I1231 16:43:38.992331 31642 layer_factory.hpp:77] Creating layer rpn_bbox_pred
I1231 16:43:38.992344 31642 net.cpp:106] Creating Layer rpn_bbox_pred
I1231 16:43:38.992352 31642 net.cpp:454] rpn_bbox_pred <- rpn/output_rpn_relu/3x3_0_split_1
I1231 16:43:38.992362 31642 net.cpp:411] rpn_bbox_pred -> rpn_bbox_pred
I1231 16:43:38.996125 31642 net.cpp:150] Setting up rpn_bbox_pred
I1231 16:43:38.996146 31642 net.cpp:157] Top shape: 1 36 38 63 (86184)
I1231 16:43:38.996151 31642 net.cpp:165] Memory required for data: 873024780
I1231 16:43:38.996160 31642 layer_factory.hpp:77] Creating layer rpn_bbox_pred_rpn_bbox_pred_0_split
I1231 16:43:38.996170 31642 net.cpp:106] Creating Layer rpn_bbox_pred_rpn_bbox_pred_0_split
I1231 16:43:38.996176 31642 net.cpp:454] rpn_bbox_pred_rpn_bbox_pred_0_split <- rpn_bbox_pred
I1231 16:43:38.996184 31642 net.cpp:411] rpn_bbox_pred_rpn_bbox_pred_0_split -> rpn_bbox_pred_rpn_bbox_pred_0_split_0
I1231 16:43:38.996196 31642 net.cpp:411] rpn_bbox_pred_rpn_bbox_pred_0_split -> rpn_bbox_pred_rpn_bbox_pred_0_split_1
I1231 16:43:38.996285 31642 net.cpp:150] Setting up rpn_bbox_pred_rpn_bbox_pred_0_split
I1231 16:43:38.996296 31642 net.cpp:157] Top shape: 1 36 38 63 (86184)
I1231 16:43:38.996302 31642 net.cpp:157] Top shape: 1 36 38 63 (86184)
I1231 16:43:38.996305 31642 net.cpp:165] Memory required for data: 873714252
I1231 16:43:38.996309 31642 layer_factory.hpp:77] Creating layer rpn_cls_score_reshape
I1231 16:43:38.996330 31642 net.cpp:106] Creating Layer rpn_cls_score_reshape
I1231 16:43:38.996337 31642 net.cpp:454] rpn_cls_score_reshape <- rpn_cls_score_rpn_cls_score_0_split_0
I1231 16:43:38.996345 31642 net.cpp:411] rpn_cls_score_reshape -> rpn_cls_score_reshape
I1231 16:43:38.996412 31642 net.cpp:150] Setting up rpn_cls_score_reshape
I1231 16:43:38.996423 31642 net.cpp:157] Top shape: 1 2 342 63 (43092)
I1231 16:43:38.996426 31642 net.cpp:165] Memory required for data: 873886620
I1231 16:43:38.996431 31642 layer_factory.hpp:77] Creating layer rpn_cls_score_reshape_rpn_cls_score_reshape_0_split
I1231 16:43:38.996439 31642 net.cpp:106] Creating Layer rpn_cls_score_reshape_rpn_cls_score_reshape_0_split
I1231 16:43:38.996444 31642 net.cpp:454] rpn_cls_score_reshape_rpn_cls_score_reshape_0_split <- rpn_cls_score_reshape
I1231 16:43:38.996451 31642 net.cpp:411] rpn_cls_score_reshape_rpn_cls_score_reshape_0_split -> rpn_cls_score_reshape_rpn_cls_score_reshape_0_split_0
I1231 16:43:38.996461 31642 net.cpp:411] rpn_cls_score_reshape_rpn_cls_score_reshape_0_split -> rpn_cls_score_reshape_rpn_cls_score_reshape_0_split_1
I1231 16:43:38.996539 31642 net.cpp:150] Setting up rpn_cls_score_reshape_rpn_cls_score_reshape_0_split
I1231 16:43:38.996549 31642 net.cpp:157] Top shape: 1 2 342 63 (43092)
I1231 16:43:38.996554 31642 net.cpp:157] Top shape: 1 2 342 63 (43092)
I1231 16:43:38.996558 31642 net.cpp:165] Memory required for data: 874231356
I1231 16:43:38.996562 31642 layer_factory.hpp:77] Creating layer rpn-data
I1231 16:43:39.009066 31642 net.cpp:106] Creating Layer rpn-data
I1231 16:43:39.009093 31642 net.cpp:454] rpn-data <- rpn_cls_score_rpn_cls_score_0_split_1
I1231 16:43:39.009105 31642 net.cpp:454] rpn-data <- gt_boxes_input-data_2_split_0
I1231 16:43:39.009114 31642 net.cpp:454] rpn-data <- im_info_input-data_1_split_0
I1231 16:43:39.009120 31642 net.cpp:454] rpn-data <- data_input-data_0_split_1
I1231 16:43:39.009131 31642 net.cpp:411] rpn-data -> rpn_labels
I1231 16:43:39.009146 31642 net.cpp:411] rpn-data -> rpn_bbox_targets
I1231 16:43:39.009161 31642 net.cpp:411] rpn-data -> rpn_bbox_inside_weights
I1231 16:43:39.009187 31642 net.cpp:411] rpn-data -> rpn_bbox_outside_weights
I1231 16:43:39.010689 31642 net.cpp:150] Setting up rpn-data
I1231 16:43:39.010715 31642 net.cpp:157] Top shape: 1 1 342 63 (21546)
I1231 16:43:39.010722 31642 net.cpp:157] Top shape: 1 36 38 63 (86184)
I1231 16:43:39.010728 31642 net.cpp:157] Top shape: 1 36 38 63 (86184)
I1231 16:43:39.010735 31642 net.cpp:157] Top shape: 1 36 38 63 (86184)
I1231 16:43:39.010740 31642 net.cpp:165] Memory required for data: 875351748
I1231 16:43:39.010746 31642 layer_factory.hpp:77] Creating layer rpn_loss_cls
I1231 16:43:39.010766 31642 net.cpp:106] Creating Layer rpn_loss_cls
I1231 16:43:39.010779 31642 net.cpp:454] rpn_loss_cls <- rpn_cls_score_reshape_rpn_cls_score_reshape_0_split_0
I1231 16:43:39.010789 31642 net.cpp:454] rpn_loss_cls <- rpn_labels
…
I1231 16:43:39.014497 31642 net.cpp:157] Top shape: (1)
I1231 16:43:39.014502 31642 net.cpp:160]     with loss weight 1
I1231 16:43:39.014509 31642 net.cpp:165] Memory required for data: 875351756
I1231 16:43:39.014515 31642 layer_factory.hpp:77] Creating layer rpn_cls_prob
I1231 16:43:39.014524 31642 net.cpp:106] Creating Layer rpn_cls_prob
I1231 16:43:39.014530 31642 net.cpp:454] rpn_cls_prob <- rpn_cls_score_reshape_rpn_cls_score_reshape_0_split_1
I1231 16:43:39.014540 31642 net.cpp:411] rpn_cls_prob -> rpn_cls_prob
I1231 16:43:39.016345 31642 net.cpp:150] Setting up rpn_cls_prob
I1231 16:43:39.016368 31642 net.cpp:157] Top shape: 1 2 342 63 (43092)
I1231 16:43:39.016373 31642 net.cpp:165] Memory required for data: 875524124
I1231 16:43:39.016381 31642 layer_factory.hpp:77] Creating layer rpn_cls_prob_reshape
I1231 16:43:39.016393 31642 net.cpp:106] Creating Layer rpn_cls_prob_reshape
I1231 16:43:39.016399 31642 net.cpp:454] rpn_cls_prob_reshape <- rpn_cls_prob
I1231 16:43:39.016410 31642 net.cpp:411] rpn_cls_prob_reshape -> rpn_cls_prob_reshape
I1231 16:43:39.016481 31642 net.cpp:150] Setting up rpn_cls_prob_reshape
I1231 16:43:39.016494 31642 net.cpp:157] Top shape: 1 18 38 63 (43092)
I1231 16:43:39.016499 31642 net.cpp:165] Memory required for data: 875696492
I1231 16:43:39.016505 31642 layer_factory.hpp:77] Creating layer proposal
I1231 16:43:39.019201 31642 net.cpp:106] Creating Layer proposal
I1231 16:43:39.019230 31642 net.cpp:454] proposal <- rpn_cls_prob_reshape
I1231 16:43:39.019242 31642 net.cpp:454] proposal <- rpn_bbox_pred_rpn_bbox_pred_0_split_1
I1231 16:43:39.019249 31642 net.cpp:454] proposal <- im_info_input-data_1_split_1
I1231 16:43:39.019261 31642 net.cpp:411] proposal -> rpn_rois
I1231 16:43:39.022394 31642 net.cpp:150] Setting up proposal
I1231 16:43:39.022423 31642 net.cpp:157] Top shape: 1 5 (5)
I1231 16:43:39.022428 31642 net.cpp:165] Memory required for data: 875696512
I1231 16:43:39.022435 31642 layer_factory.hpp:77] Creating layer roi-data
I1231 16:43:39.023813 31642 net.cpp:106] Creating Layer roi-data
I1231 16:43:39.023836 31642 net.cpp:454] roi-data <- rpn_rois
I1231 16:43:39.023846 31642 net.cpp:454] roi-data <- gt_boxes_input-data_2_split_1
I1231 16:43:39.023859 31642 net.cpp:411] roi-data -> rois
I1231 16:43:39.023875 31642 net.cpp:411] roi-data -> labels
I1231 16:43:39.023887 31642 net.cpp:411] roi-data -> bbox_targets
I1231 16:43:39.023900 31642 net.cpp:411] roi-data -> bbox_inside_weights
I1231 16:43:39.023938 31642 net.cpp:411] roi-data -> bbox_outside_weights
I1231 16:43:39.024860 31642 net.cpp:150] Setting up roi-data
I1231 16:43:39.024884 31642 net.cpp:157] Top shape: 1 5 (5)
I1231 16:43:39.024893 31642 net.cpp:157] Top shape: 1 1 (1)
I1231 16:43:39.024899 31642 net.cpp:157] Top shape: 1 84 (84)
I1231 16:43:39.024904 31642 net.cpp:157] Top shape: 1 84 (84)
I1231 16:43:39.024910 31642 net.cpp:157] Top shape: 1 84 (84)
I1231 16:43:39.024915 31642 net.cpp:165] Memory required for data: 875697544
I1231 16:43:39.024921 31642 layer_factory.hpp:77] Creating layer roi_pool5
I1231 16:43:39.024945 31642 net.cpp:106] Creating Layer roi_pool5
I1231 16:43:39.024960 31642 net.cpp:454] roi_pool5 <- conv5_3_relu5_3_0_split_1
I1231 16:43:39.024974 31642 net.cpp:454] roi_pool5 <- rois
I1231 16:43:39.024984 31642 net.cpp:411] roi_pool5 -> pool5
I1231 16:43:39.025005 31642 roi_pooling_layer.cpp:30] Spatial scale: 0.0625
I1231 16:43:39.025135 31642 net.cpp:150] Setting up roi_pool5
I1231 16:43:39.025148 31642 net.cpp:157] Top shape: 1 512 7 7 (25088)
I1231 16:43:39.025154 31642 net.cpp:165] Memory required for data: 875797896
I1231 16:43:39.025159 31642 layer_factory.hpp:77] Creating layer fc6
I1231 16:43:39.025177 31642 net.cpp:106] Creating Layer fc6
I1231 16:43:39.025184 31642 net.cpp:454] fc6 <- pool5
I1231 16:43:39.025195 31642 net.cpp:411] fc6 -> fc6
I1231 16:43:39.329668 31642 net.cpp:150] Setting up fc6
I1231 16:43:39.329717 31642 net.cpp:157] Top shape: 1 4096 (4096)
I1231 16:43:39.329721 31642 net.cpp:165] Memory required for data: 875814280
I1231 16:43:39.329743 31642 layer_factory.hpp:77] Creating layer relu6
I1231 16:43:39.329756 31642 net.cpp:106] Creating Layer relu6
I1231 16:43:39.329762 31642 net.cpp:454] relu6 <- fc6
I1231 16:43:39.329769 31642 net.cpp:397] relu6 -> fc6 (in-place)
I1231 16:43:39.330090 31642 net.cpp:150] Setting up relu6
I1231 16:43:39.330106 31642 net.cpp:157] Top shape: 1 4096 (4096)
I1231 16:43:39.330114 31642 net.cpp:165] Memory required for data: 875830664
I1231 16:43:39.330117 31642 layer_factory.hpp:77] Creating layer drop6
I1231 16:43:39.330142 31642 net.cpp:106] Creating Layer drop6
I1231 16:43:39.330147 31642 net.cpp:454] drop6 <- fc6
I1231 16:43:39.330160 31642 net.cpp:397] drop6 -> fc6 (in-place)
I1231 16:43:39.330215 31642 net.cpp:150] Setting up drop6
I1231 16:43:39.330224 31642 net.cpp:157] Top shape: 1 4096 (4096)
I1231 16:43:39.330226 31642 net.cpp:165] Memory required for data: 875847048
I1231 16:43:39.330229 31642 layer_factory.hpp:77] Creating layer fc7
I1231 16:43:39.330238 31642 net.cpp:106] Creating Layer fc7
I1231 16:43:39.330242 31642 net.cpp:454] fc7 <- fc6
I1231 16:43:39.330247 31642 net.cpp:411] fc7 -> fc7
I1231 16:43:39.378199 31642 net.cpp:150] Setting up fc7
I1231 16:43:39.378247 31642 net.cpp:157] Top shape: 1 4096 (4096)
I1231 16:43:39.378249 31642 net.cpp:165] Memory required for data: 875863432
I1231 16:43:39.378262 31642 layer_factory.hpp:77] Creating layer relu7
I1231 16:43:39.378273 31642 net.cpp:106] Creating Layer relu7
I1231 16:43:39.378278 31642 net.cpp:454] relu7 <- fc7
I1231 16:43:39.378288 31642 net.cpp:397] relu7 -> fc7 (in-place)
I1231 16:43:39.379446 31642 net.cpp:150] Setting up relu7
I1231 16:43:39.379461 31642 net.cpp:157] Top shape: 1 4096 (4096)
I1231 16:43:39.379463 31642 net.cpp:165] Memory required for data: 875879816
I1231 16:43:39.379467 31642 layer_factory.hpp:77] Creating layer drop7
I1231 16:43:39.379474 31642 net.cpp:106] Creating Layer drop7
I1231 16:43:39.379478 31642 net.cpp:454] drop7 <- fc7
I1231 16:43:39.379484 31642 net.cpp:397] drop7 -> fc7 (in-place)
I1231 16:43:39.379535 31642 net.cpp:150] Setting up drop7
I1231 16:43:39.379544 31642 net.cpp:157] Top shape: 1 4096 (4096)
I1231 16:43:39.379546 31642 net.cpp:165] Memory required for data: 875896200
I1231 16:43:39.379549 31642 layer_factory.hpp:77] Creating layer fc7_drop7_0_split
I1231 16:43:39.379557 31642 net.cpp:106] Creating Layer fc7_drop7_0_split
I1231 16:43:39.379560 31642 net.cpp:454] fc7_drop7_0_split <- fc7
I1231 16:43:39.379565 31642 net.cpp:411] fc7_drop7_0_split -> fc7_drop7_0_split_0
I1231 16:43:39.379573 31642 net.cpp:411] fc7_drop7_0_split -> fc7_drop7_0_split_1
I1231 16:43:39.379649 31642 net.cpp:150] Setting up fc7_drop7_0_split
I1231 16:43:39.379657 31642 net.cpp:157] Top shape: 1 4096 (4096)
I1231 16:43:39.379660 31642 net.cpp:157] Top shape: 1 4096 (4096)
I1231 16:43:39.379662 31642 net.cpp:165] Memory required for data: 875928968
I1231 16:43:39.379665 31642 layer_factory.hpp:77] Creating layer cls_score
I1231 16:43:39.379675 31642 net.cpp:106] Creating Layer cls_score
I1231 16:43:39.379679 31642 net.cpp:454] cls_score <- fc7_drop7_0_split_0
I1231 16:43:39.379685 31642 net.cpp:411] cls_score -> cls_score
I1231 16:43:39.380988 31642 net.cpp:150] Setting up cls_score
I1231 16:43:39.380997 31642 net.cpp:157] Top shape: 1 21 (21)
I1231 16:43:39.381000 31642 net.cpp:165] Memory required for data: 875929052
I1231 16:43:39.381006 31642 layer_factory.hpp:77] Creating layer bbox_pred
I1231 16:43:39.381012 31642 net.cpp:106] Creating Layer bbox_pred
I1231 16:43:39.381016 31642 net.cpp:454] bbox_pred <- fc7_drop7_0_split_1
I1231 16:43:39.381023 31642 net.cpp:411] bbox_pred -> bbox_pred
I1231 16:43:39.386714 31642 net.cpp:150] Setting up bbox_pred
I1231 16:43:39.386729 31642 net.cpp:157] Top shape: 1 84 (84)
I1231 16:43:39.386732 31642 net.cpp:165] Memory required for data: 875929388
I1231 16:43:39.386739 31642 layer_factory.hpp:77] Creating layer loss_cls
I1231 16:43:39.386747 31642 net.cpp:106] Creating Layer loss_cls
I1231 16:43:39.386751 31642 net.cpp:454] loss_cls <- cls_score
I1231 16:43:39.386755 31642 net.cpp:454] loss_cls <- labels
I1231 16:43:39.386761 31642 net.cpp:411] loss_cls -> loss_cls
…
