…
stepsize: 50000
snapshot: 0
snapshot_prefix: "key"
average_loss: 100
iter_size: 2
I0823 20:48:15.193199 16315 solver.cpp:81] Creating training net from train_net file: models/pascal_voc/VGG16/key/train.prototxt
I0823 20:48:15.193965 16315 net.cpp:49] Initializing net from parameters: 
name: "VGG_ILSVRC_16_layers"
state {
  phase: TRAIN
}
layer {
  name: "input-data"
  type: "Python"
  top: "data"
  top: "im_info"
  top: "gt_boxes"
  python_param {
    module: "roi_data_layer.layer"
    layer: "RoIDataLayer"
    param_str: "\'num_classes\': 21"
  }
}
layer {
  name: "conv1_1"
  type: "Convolution"
  bottom: "data"
  top: "conv1_1"
  param {
    lr_mult: 0
    decay_mult: 0
  }
  param {
    lr_mult: 0
    decay_mult: 0
  }
  convolution_param {
    num_output: 64
    pad: 1
    kernel_size: 3
  }
}
layer {
  name: "relu1_1"
  type: "ReLU"
  bottom: "conv1_1"
  top: "conv1_1"
}
layer {
  name: "conv1_2"
  type: "Convolution"
  bottom: "conv1_1"
  top: "conv1_2"
  param {
    lr_mult: 0
    decay_mult: 0
  }
  param {
    lr_mult: 0
    decay_mult: 0
  }
  convolution_param {
    num_output: 64
    pad: 1
    kernel_size: 3
  }
}
layer {
  name: "relu1_2"
  type: "ReLU"
  bottom: "conv1_2"
  top: "conv1_2"
}
layer {
  name: "pool1"
  type: "Pooling"
  bottom: "conv1_2"
  top: "pool1"
  pooling_param {
    pool: MAX
    kernel_size: 2
    stride: 2
  }
}
layer {
  name: "conv2_1"
  type: "Convolution"
  bottom: "pool1"
  top: "conv2_1"
  param {
    lr_mult: 0
    decay_mult: 0
  }
  param {
    lr_mult: 0
    decay_mult: 0
  }
  convolution_param {
    num_output: 128
    pad: 1
    kernel_size: 3
  }
}
layer {
  name: "relu2_1"
  type: "ReLU"
  bottom: "conv2_1"
  top: "conv2_1"
}
layer {
  name: "conv2_2"
  type: "Convolution"
  bottom: "conv2_1"
  top: "conv2_2"
  param {
    lr_mult: 0
    decay_mult: 0
  }
  param {
    lr_mult: 0
    decay_mult: 0
  }
  convolution_param {
    num_output: 128
    pad: 1
    kernel_size: 3
  }
}
layer {
  name: "relu2_2"
  type: "ReLU"
  bottom: "conv2_2"
  top: "conv2_2"
}
layer {
  name: "pool2"
  type: "Pooling"
  bottom: "conv2_2"
  top: "pool2"
  pooling_param {
    pool: MAX
    kernel_size: 2
    stride: 2
  }
}
layer {
  name: "conv3_1"
  type: "Convolution"
  bottom: "pool2"
  top: "conv3_1"
  param {
    lr_mult: 1
  }
  param {
    lr_mult: 2
  }
  convolution_param {
    num_output: 256
    pad: 1
    kernel_size: 3
  }
}
layer {
  name: "relu3_1"
  type: "ReLU"
  bottom: "conv3_1"
  top: "conv3_1"
}
layer {
  name: "conv3_2"
  type: "Convolution"
  bottom: "conv3_1"
  top: "conv3_2"
  param {
    lr_mult: 1
  }
  param {
    lr_mult: 2
  }
  convolution_param {
    num_output: 256
    pad: 1
    kernel_size: 3
  }
}
layer {
  name: "relu3_2"
  type: "ReLU"
  bottom: "conv3_2"
  top: "conv3_2"
}
layer {
  name: "conv3_3"
  type: "Convolution"
  bottom: "conv3_2"
  top: "conv3_3"
  param {
    lr_mult: 1
  }
  param {
    lr_mult: 2
  }
  convolution_param {
    num_output: 256
    pad: 1
    kernel_size: 3
  }
}
layer {
  name: "relu3_3"
  type: "ReLU"
  bottom: "conv3_3"
  top: "conv3_3"
}
layer {
  name: "pool3"
  type: "Pooling"
  bottom: "conv3_3"
  top: "pool3"
  pooling_param {
    pool: MAX
    kernel_size: 2
    stride: 2
  }
}
layer {
  name: "conv4_1"
  type: "Convolution"
  bottom: "pool3"
  top: "conv4_1"
  param {
    lr_mult: 1
  }
  param {
    lr_mult: 2
  }
  convolution_param {
    num_output: 512
    pad: 1
    kernel_size: 3
  }
}
layer {
  name: "relu4_1"
  type: "ReLU"
  bottom: "conv4_1"
  top: "conv4_1"
}
layer {
  name: "conv4_2"
  type: "Convolution"
  bottom: "conv4_1"
  top: "conv4_2"
  param {
    lr_mult: 1
  }
  param {
    lr_mult: 2
  }
  convolution_param {
    num_output: 512
    pad: 1
    kernel_size: 3
  }
}
layer {
  name: "relu4_2"
  type: "ReLU"
  bottom: "conv4_2"
  top: "conv4_2"
}
layer {
  name: "conv4_3"
  type: "Convolution"
  bottom: "conv4_2"
  top: "conv4_3"
  param {
    lr_mult: 1
  }
  param {
    lr_mult: 2
  }
  convolution_param {
    num_output: 512
    pad: 1
    kernel_size: 3
  }
}
layer {
  name: "relu4_3"
  type: "ReLU"
  bottom: "conv4_3"
  top: "conv4_3"
}
layer {
  name: "pool4"
  type: "Pooling"
  bottom: "conv4_3"
  top: "pool4"
  pooling_param {
    pool: MAX
    kernel_size: 2
    stride: 2
  }
}
layer {
  name: "conv5_1"
  type: "Convolution"
  bottom: "pool4"
  top: "conv5_1"
  param {
    lr_mult: 1
  }
  param {
    lr_mult: 2
  }
  convolution_param {
    num_output: 512
    pad: 1
    kernel_size: 3
  }
}
layer {
  name: "relu5_1"
  type: "ReLU"
  bottom: "conv5_1"
  top: "conv5_1"
}
layer {
  name: "conv5_2"
  type: "Convolution"
  bottom: "conv5_1"
  top: "conv5_2"
  param {
    lr_mult: 1
  }
  param {
    lr_mult: 2
  }
  convolution_param {
    num_output: 512
    pad: 1
    kernel_size: 3
  }
}
layer {
  name: "relu5_2"
  type: "ReLU"
  bottom: "conv5_2"
  top: "conv5_2"
}
layer {
  name: "conv5_3"
  type: "Convolution"
  bottom: "conv5_2"
  top: "conv5_3"
  param {
    lr_mult: 1
  }
  param {
    lr_mult: 2
  }
  convolution_param {
    num_output: 512
    pad: 1
    kernel_size: 3
  }
}
layer {
  name: "relu5_3"
  type: "ReLU"
  bottom: "conv5_3"
  top: "conv5_3"
}
layer {
  name: "rpn_conv/3x3"
  type: "Convolution"
  bottom: "conv5_3"
  top: "rpn/output"
  param {
    lr_mult: 1
  }
  param {
    lr_mult: 2
  }
  convolution_param {
    num_output: 512
    pad: 1
    kernel_size: 3
    stride: 1
    weight_filler {
      type: "gaussian"
      std: 0.01
    }
    bias_filler {
      type: "constant"
      value: 0
    }
  }
}
layer {
  name: "rpn_relu/3x3"
  type: "ReLU"
  bottom: "rpn/output"
  top: "rpn/output"
}
layer {
  name: "rpn_cls_score"
  type: "Convolution"
  bottom: "rpn/output"
  top: "rpn_cls_score"
  param {
    lr_mult: 1
  }
  param {
    lr_mult: 2
  }
  convolution_param {
    num_output: 18
    pad: 0
    kernel_size: 1
    stride: 1
    weight_filler {
      type: "gaussian"
      std: 0.01
    }
    bias_filler {
      type: "constant"
      value: 0
    }
  }
}
layer {
  name: "rpn_bbox_pred"
  type: "Convolution"
  bottom: "rpn/output"
  top: "rpn_bbox_pred"
  param {
    lr_mult: 1
  }
  param {
    lr_mult: 2
  }
  convolution_param {
    num_output: 36
    pad: 0
    kernel_size: 1
    stride: 1
    weight_filler {
      type: "gaussian"
      std: 0.01
    }
    bias_filler {
      type: "constant"
      value: 0
    }
  }
}
layer {
  name: "rpn_cls_score_reshape"
  type: "Reshape"
  bottom: "rpn_cls_score"
  top: "rpn_cls_score_reshape"
  reshape_param {
    shape {
      dim: 0
      dim: 2
      dim: -1
      dim: 0
    }
  }
}
layer {
  name: "rpn-data"
  type: "Python"
  bottom: "rpn_cls_score"
  bottom: "gt_boxes"
  bottom: "im_info"
  bottom: "data"
  top: "rpn_labels"
  top: "rpn_bbox_targets"
  top: "rpn_bbox_inside_weights"
  top: "rpn_bbox_outside_weights"
  python_param {
    module: "rpn.anchor_target_layer"
    layer: "AnchorTargetLayer"
    param_str: "\'feat_stride\': 16"
  }
}
layer {
  name: "rpn_loss_cls"
  type: "SoftmaxWithLoss"
  bottom: "rpn_cls_score_reshape"
  bottom: "rpn_labels"
  top: "rpn_cls_loss"
  loss_weight: 1
  propagate_down: true
  propagate_down: false
  loss_param {
    ignore_label: -1
    normalize: true
  }
}
layer {
  name: "rpn_loss_bbox"
  type: "SmoothL1Loss"
  bottom: "rpn_bbox_pred"
  bottom: "rpn_bbox_targets"
  bottom: "rpn_bbox_inside_weights"
  bottom: "rpn_bbox_outside_weights"
  top: "rpn_loss_bbox"
  loss_weight: 1
  smooth_l1_loss_param {
    sigma: 3
  }
}
layer {
  name: "rpn_cls_prob"
  type: "Softmax"
  bottom: "rpn_cls_score_reshape"
  top: "rpn_cls_prob"
}
layer {
  name: "rpn_cls_prob_reshape"
  type: "Reshape"
  bottom: "rpn_cls_prob"
  top: "rpn_cls_prob_reshape"
  reshape_param {
    shape {
      dim: 0
      dim: 18
      dim: -1
      dim: 0
    }
  }
}
layer {
  name: "proposal"
  type: "Python"
  bottom: "rpn_cls_prob_reshape"
  bottom: "rpn_bbox_pred"
  bottom: "im_info"
  top: "rpn_rois"
  python_param {
    module: "rpn.proposal_layer"
    layer: "ProposalLayer"
    param_str: "\'feat_stride\': 16"
  }
}
layer {
  name: "roi-data"
  type: "Python"
  bottom: "rpn_rois"
  bottom: "gt_boxes"
  top: "rois"
  top: "labels"
  top: "bbox_targets"
  top: "bbox_inside_weights"
  top: "bbox_outside_weights"
  top: "key_targets"
  top: "key_inside_weights"
  python_param {
    module: "rpn.proposal_target_layer"
    layer: "ProposalTargetLayer"
    param_str: "\'num_classes\': 21"
  }
}
layer {
  name: "roi_pool5"
  type: "ROIPooling"
  bottom: "conv5_3"
  bottom: "rois"
  top: "pool5"
  roi_pooling_param {
    pooled_h: 7
    pooled_w: 7
    spatial_scale: 0.0625
  }
}
layer {
  name: "fc6"
  type: "InnerProduct"
  bottom: "pool5"
  top: "fc6"
  param {
    lr_mult: 1
  }
  param {
    lr_mult: 2
  }
  inner_product_param {
    num_output: 4096
  }
}
layer {
  name: "relu6"
  type: "ReLU"
  bottom: "fc6"
  top: "fc6"
}
layer {
  name: "drop6"
  type: "Dropout"
  bottom: "fc6"
  top: "fc6"
  dropout_param {
    dropout_ratio: 0.5
  }
}
layer {
  name: "fc7"
  type: "InnerProduct"
  bottom: "fc6"
  top: "fc7"
  param {
    lr_mult: 1
  }
  param {
    lr_mult: 2
  }
  inner_product_param {
    num_output: 4096
  }
}
layer {
  name: "relu7"
  type: "ReLU"
  bottom: "fc7"
  top: "fc7"
}
layer {
  name: "drop7"
  type: "Dropout"
  bottom: "fc7"
  top: "fc7"
  dropout_param {
    dropout_ratio: 0.5
  }
}
layer {
  name: "cls_score"
  type: "InnerProduct"
  bottom: "fc7"
  top: "cls_score"
  param {
    lr_mult: 1
  }
  param {
    lr_mult: 2
  }
  inner_product_param {
    num_output: 21
    weight_filler {
      type: "gaussian"
      std: 0.01
    }
    bias_filler {
      type: "constant"
      value: 0
    }
  }
}
layer {
  name: "bbox_pred"
  type: "InnerProduct"
  bottom: "fc7"
  top: "bbox_pred"
  param {
    lr_mult: 1
  }
  param {
    lr_mult: 2
  }
  inner_product_param {
    num_output: 84
    weight_filler {
      type: "gaussian"
      std: 0.001
    }
    bias_filler {
      type: "constant"
      value: 0
    }
  }
}
layer {
  name: "key_pred"
  type: "InnerProduct"
  bottom: "fc7"
  top: "key_pred"
  param {
    lr_mult: 1
  }
  param {
    lr_mult: 2
  }
  inner_product_param {
    num_output: 84
    weight_filler {
      type: "gaussian"
      std: 0.001
    }
    bias_filler {
      type: "constant"
      value: 0
    }
  }
}
layer {
  name: "loss_cls"
  type: "SoftmaxWithLoss"
  bottom: "cls_score"
  bottom: "labels"
  top: "loss_cls"
  loss_weight: 1
  propagate_down: true
  propagate_down: false
}
layer {
  name: "loss_bbox"
  type: "SmoothL1Loss"
  bottom: "bbox_pred"
  bottom: "bbox_targets"
  bottom: "bbox_inside_weights"
  bottom: "bbox_outside_weights"
  top: "loss_bbox"
  loss_weight: 1
}
layer {
  name: "loss_key"
  type: "SmoothL1Loss"
  bottom: "key_pred"
  bottom: "key_targets"
  bottom: "key_inside_weights"
  bottom: "bbox_outside_weights"
  top: "loss_key"
  loss_weight: 1
}
I0823 20:48:15.194283 16315 layer_factory.hpp:77] Creating layer input-data
I0823 20:48:15.210081 16315 net.cpp:106] Creating Layer input-data
I0823 20:48:15.210119 16315 net.cpp:411] input-data -> data
I0823 20:48:15.210131 16315 net.cpp:411] input-data -> im_info
I0823 20:48:15.210139 16315 net.cpp:411] input-data -> gt_boxes
RoiDataLayer: name_to_top: {'gt_boxes': 2, 'data': 0, 'im_info': 1}
I0823 20:48:15.222180 16315 net.cpp:150] Setting up input-data
I0823 20:48:15.222218 16315 net.cpp:157] Top shape: 1 3 600 1000 (1800000)
I0823 20:48:15.222223 16315 net.cpp:157] Top shape: 1 3 (3)
I0823 20:48:15.222228 16315 net.cpp:157] Top shape: 1 4 (4)
I0823 20:48:15.222229 16315 net.cpp:165] Memory required for data: 7200028
I0823 20:48:15.222236 16315 layer_factory.hpp:77] Creating layer data_input-data_0_split
I0823 20:48:15.222251 16315 net.cpp:106] Creating Layer data_input-data_0_split
I0823 20:48:15.222257 16315 net.cpp:454] data_input-data_0_split <- data
I0823 20:48:15.222265 16315 net.cpp:411] data_input-data_0_split -> data_input-data_0_split_0
I0823 20:48:15.222277 16315 net.cpp:411] data_input-data_0_split -> data_input-data_0_split_1
I0823 20:48:15.222337 16315 net.cpp:150] Setting up data_input-data_0_split
I0823 20:48:15.222344 16315 net.cpp:157] Top shape: 1 3 600 1000 (1800000)
I0823 20:48:15.222348 16315 net.cpp:157] Top shape: 1 3 600 1000 (1800000)
I0823 20:48:15.222352 16315 net.cpp:165] Memory required for data: 21600028
I0823 20:48:15.222354 16315 layer_factory.hpp:77] Creating layer im_info_input-data_1_split
I0823 20:48:15.222360 16315 net.cpp:106] Creating Layer im_info_input-data_1_split
I0823 20:48:15.222364 16315 net.cpp:454] im_info_input-data_1_split <- im_info
I0823 20:48:15.222371 16315 net.cpp:411] im_info_input-data_1_split -> im_info_input-data_1_split_0
I0823 20:48:15.222378 16315 net.cpp:411] im_info_input-data_1_split -> im_info_input-data_1_split_1
I0823 20:48:15.222425 16315 net.cpp:150] Setting up im_info_input-data_1_split
I0823 20:48:15.222432 16315 net.cpp:157] Top shape: 1 3 (3)
I0823 20:48:15.222435 16315 net.cpp:157] Top shape: 1 3 (3)
I0823 20:48:15.222437 16315 net.cpp:165] Memory required for data: 21600052
I0823 20:48:15.222440 16315 layer_factory.hpp:77] Creating layer gt_boxes_input-data_2_split
I0823 20:48:15.222445 16315 net.cpp:106] Creating Layer gt_boxes_input-data_2_split
I0823 20:48:15.222448 16315 net.cpp:454] gt_boxes_input-data_2_split <- gt_boxes
I0823 20:48:15.222453 16315 net.cpp:411] gt_boxes_input-data_2_split -> gt_boxes_input-data_2_split_0
I0823 20:48:15.222460 16315 net.cpp:411] gt_boxes_input-data_2_split -> gt_boxes_input-data_2_split_1
I0823 20:48:15.222507 16315 net.cpp:150] Setting up gt_boxes_input-data_2_split
I0823 20:48:15.222513 16315 net.cpp:157] Top shape: 1 4 (4)
I0823 20:48:15.222517 16315 net.cpp:157] Top shape: 1 4 (4)
I0823 20:48:15.222519 16315 net.cpp:165] Memory required for data: 21600084
I0823 20:48:15.222522 16315 layer_factory.hpp:77] Creating layer conv1_1
I0823 20:48:15.222534 16315 net.cpp:106] Creating Layer conv1_1
I0823 20:48:15.222538 16315 net.cpp:454] conv1_1 <- data_input-data_0_split_0
I0823 20:48:15.222545 16315 net.cpp:411] conv1_1 -> conv1_1
I0823 20:48:15.509506 16315 net.cpp:150] Setting up conv1_1
I0823 20:48:15.509557 16315 net.cpp:157] Top shape: 1 64 600 1000 (38400000)
I0823 20:48:15.509564 16315 net.cpp:165] Memory required for data: 175200084
I0823 20:48:15.509588 16315 layer_factory.hpp:77] Creating layer relu1_1
I0823 20:48:15.509603 16315 net.cpp:106] Creating Layer relu1_1
I0823 20:48:15.509613 16315 net.cpp:454] relu1_1 <- conv1_1
I0823 20:48:15.509621 16315 net.cpp:397] relu1_1 -> conv1_1 (in-place)
I0823 20:48:15.510349 16315 net.cpp:150] Setting up relu1_1
I0823 20:48:15.510370 16315 net.cpp:157] Top shape: 1 64 600 1000 (38400000)
I0823 20:48:15.510373 16315 net.cpp:165] Memory required for data: 328800084
I0823 20:48:15.510378 16315 layer_factory.hpp:77] Creating layer conv1_2
I0823 20:48:15.510396 16315 net.cpp:106] Creating Layer conv1_2
I0823 20:48:15.510401 16315 net.cpp:454] conv1_2 <- conv1_1
I0823 20:48:15.510412 16315 net.cpp:411] conv1_2 -> conv1_2
I0823 20:48:15.520946 16315 net.cpp:150] Setting up conv1_2
I0823 20:48:15.521013 16315 net.cpp:157] Top shape: 1 64 600 1000 (38400000)
I0823 20:48:15.521020 16315 net.cpp:165] Memory required for data: 482400084
I0823 20:48:15.521041 16315 layer_factory.hpp:77] Creating layer relu1_2
I0823 20:48:15.521057 16315 net.cpp:106] Creating Layer relu1_2
I0823 20:48:15.521062 16315 net.cpp:454] relu1_2 <- conv1_2
I0823 20:48:15.521072 16315 net.cpp:397] relu1_2 -> conv1_2 (in-place)
I0823 20:48:15.521428 16315 net.cpp:150] Setting up relu1_2
I0823 20:48:15.521443 16315 net.cpp:157] Top shape: 1 64 600 1000 (38400000)
I0823 20:48:15.521447 16315 net.cpp:165] Memory required for data: 636000084
I0823 20:48:15.521451 16315 layer_factory.hpp:77] Creating layer pool1
I0823 20:48:15.521468 16315 net.cpp:106] Creating Layer pool1
I0823 20:48:15.521472 16315 net.cpp:454] pool1 <- conv1_2
I0823 20:48:15.521483 16315 net.cpp:411] pool1 -> pool1
I0823 20:48:15.521616 16315 net.cpp:150] Setting up pool1
I0823 20:48:15.521628 16315 net.cpp:157] Top shape: 1 64 300 500 (9600000)
I0823 20:48:15.521632 16315 net.cpp:165] Memory required for data: 674400084
I0823 20:48:15.521636 16315 layer_factory.hpp:77] Creating layer conv2_1
I0823 20:48:15.521651 16315 net.cpp:106] Creating Layer conv2_1
I0823 20:48:15.521656 16315 net.cpp:454] conv2_1 <- pool1
I0823 20:48:15.521663 16315 net.cpp:411] conv2_1 -> conv2_1
I0823 20:48:15.527032 16315 net.cpp:150] Setting up conv2_1
I0823 20:48:15.527086 16315 net.cpp:157] Top shape: 1 128 300 500 (19200000)
I0823 20:48:15.527091 16315 net.cpp:165] Memory required for data: 751200084
I0823 20:48:15.527110 16315 layer_factory.hpp:77] Creating layer relu2_1
I0823 20:48:15.527123 16315 net.cpp:106] Creating Layer relu2_1
I0823 20:48:15.527129 16315 net.cpp:454] relu2_1 <- conv2_1
I0823 20:48:15.527138 16315 net.cpp:397] relu2_1 -> conv2_1 (in-place)
I0823 20:48:15.527426 16315 net.cpp:150] Setting up relu2_1
I0823 20:48:15.527441 16315 net.cpp:157] Top shape: 1 128 300 500 (19200000)
I0823 20:48:15.527446 16315 net.cpp:165] Memory required for data: 828000084
I0823 20:48:15.527449 16315 layer_factory.hpp:77] Creating layer conv2_2
I0823 20:48:15.527463 16315 net.cpp:106] Creating Layer conv2_2
I0823 20:48:15.527470 16315 net.cpp:454] conv2_2 <- conv2_1
I0823 20:48:15.527480 16315 net.cpp:411] conv2_2 -> conv2_2
I0823 20:48:15.534589 16315 net.cpp:150] Setting up conv2_2
I0823 20:48:15.534631 16315 net.cpp:157] Top shape: 1 128 300 500 (19200000)
I0823 20:48:15.534636 16315 net.cpp:165] Memory required for data: 904800084
I0823 20:48:15.534648 16315 layer_factory.hpp:77] Creating layer relu2_2
I0823 20:48:15.534664 16315 net.cpp:106] Creating Layer relu2_2
I0823 20:48:15.534672 16315 net.cpp:454] relu2_2 <- conv2_2
I0823 20:48:15.534679 16315 net.cpp:397] relu2_2 -> conv2_2 (in-place)
I0823 20:48:15.535351 16315 net.cpp:150] Setting up relu2_2
I0823 20:48:15.535372 16315 net.cpp:157] Top shape: 1 128 300 500 (19200000)
I0823 20:48:15.535375 16315 net.cpp:165] Memory required for data: 981600084
I0823 20:48:15.535380 16315 layer_factory.hpp:77] Creating layer pool2
I0823 20:48:15.535392 16315 net.cpp:106] Creating Layer pool2
I0823 20:48:15.535398 16315 net.cpp:454] pool2 <- conv2_2
I0823 20:48:15.535404 16315 net.cpp:411] pool2 -> pool2
I0823 20:48:15.535511 16315 net.cpp:150] Setting up pool2
I0823 20:48:15.535521 16315 net.cpp:157] Top shape: 1 128 150 250 (4800000)
I0823 20:48:15.535526 16315 net.cpp:165] Memory required for data: 1000800084
I0823 20:48:15.535529 16315 layer_factory.hpp:77] Creating layer conv3_1
I0823 20:48:15.535542 16315 net.cpp:106] Creating Layer conv3_1
I0823 20:48:15.535548 16315 net.cpp:454] conv3_1 <- pool2
I0823 20:48:15.535557 16315 net.cpp:411] conv3_1 -> conv3_1
I0823 20:48:15.541086 16315 net.cpp:150] Setting up conv3_1
I0823 20:48:15.541144 16315 net.cpp:157] Top shape: 1 256 150 250 (9600000)
I0823 20:48:15.541148 16315 net.cpp:165] Memory required for data: 1039200084
I0823 20:48:15.541167 16315 layer_factory.hpp:77] Creating layer relu3_1
I0823 20:48:15.541182 16315 net.cpp:106] Creating Layer relu3_1
I0823 20:48:15.541188 16315 net.cpp:454] relu3_1 <- conv3_1
I0823 20:48:15.541195 16315 net.cpp:397] relu3_1 -> conv3_1 (in-place)
I0823 20:48:15.541481 16315 net.cpp:150] Setting up relu3_1
I0823 20:48:15.541498 16315 net.cpp:157] Top shape: 1 256 150 250 (9600000)
I0823 20:48:15.541501 16315 net.cpp:165] Memory required for data: 1077600084
I0823 20:48:15.541507 16315 layer_factory.hpp:77] Creating layer conv3_2
I0823 20:48:15.541524 16315 net.cpp:106] Creating Layer conv3_2
I0823 20:48:15.541528 16315 net.cpp:454] conv3_2 <- conv3_1
I0823 20:48:15.541538 16315 net.cpp:411] conv3_2 -> conv3_2
I0823 20:48:15.549139 16315 net.cpp:150] Setting up conv3_2
I0823 20:48:15.549190 16315 net.cpp:157] Top shape: 1 256 150 250 (9600000)
I0823 20:48:15.549196 16315 net.cpp:165] Memory required for data: 1116000084
I0823 20:48:15.549206 16315 layer_factory.hpp:77] Creating layer relu3_2
I0823 20:48:15.549221 16315 net.cpp:106] Creating Layer relu3_2
I0823 20:48:15.549226 16315 net.cpp:454] relu3_2 <- conv3_2
I0823 20:48:15.549235 16315 net.cpp:397] relu3_2 -> conv3_2 (in-place)
I0823 20:48:15.549512 16315 net.cpp:150] Setting up relu3_2
I0823 20:48:15.549526 16315 net.cpp:157] Top shape: 1 256 150 250 (9600000)
I0823 20:48:15.549530 16315 net.cpp:165] Memory required for data: 1154400084
I0823 20:48:15.549533 16315 layer_factory.hpp:77] Creating layer conv3_3
I0823 20:48:15.549547 16315 net.cpp:106] Creating Layer conv3_3
I0823 20:48:15.549553 16315 net.cpp:454] conv3_3 <- conv3_2
I0823 20:48:15.549562 16315 net.cpp:411] conv3_3 -> conv3_3
I0823 20:48:15.556522 16315 net.cpp:150] Setting up conv3_3
I0823 20:48:15.556565 16315 net.cpp:157] Top shape: 1 256 150 250 (9600000)
I0823 20:48:15.556571 16315 net.cpp:165] Memory required for data: 1192800084
I0823 20:48:15.556581 16315 layer_factory.hpp:77] Creating layer relu3_3
I0823 20:48:15.556592 16315 net.cpp:106] Creating Layer relu3_3
I0823 20:48:15.556598 16315 net.cpp:454] relu3_3 <- conv3_3
I0823 20:48:15.556607 16315 net.cpp:397] relu3_3 -> conv3_3 (in-place)
I0823 20:48:15.557227 16315 net.cpp:150] Setting up relu3_3
I0823 20:48:15.557246 16315 net.cpp:157] Top shape: 1 256 150 250 (9600000)
I0823 20:48:15.557250 16315 net.cpp:165] Memory required for data: 1231200084
I0823 20:48:15.557255 16315 layer_factory.hpp:77] Creating layer pool3
I0823 20:48:15.557263 16315 net.cpp:106] Creating Layer pool3
I0823 20:48:15.557267 16315 net.cpp:454] pool3 <- conv3_3
I0823 20:48:15.557276 16315 net.cpp:411] pool3 -> pool3
I0823 20:48:15.557374 16315 net.cpp:150] Setting up pool3
I0823 20:48:15.557384 16315 net.cpp:157] Top shape: 1 256 75 125 (2400000)
I0823 20:48:15.557389 16315 net.cpp:165] Memory required for data: 1240800084
I0823 20:48:15.557391 16315 layer_factory.hpp:77] Creating layer conv4_1
I0823 20:48:15.557406 16315 net.cpp:106] Creating Layer conv4_1
I0823 20:48:15.557412 16315 net.cpp:454] conv4_1 <- pool3
I0823 20:48:15.557420 16315 net.cpp:411] conv4_1 -> conv4_1
I0823 20:48:15.572927 16315 net.cpp:150] Setting up conv4_1
I0823 20:48:15.572978 16315 net.cpp:157] Top shape: 1 512 75 125 (4800000)
I0823 20:48:15.572983 16315 net.cpp:165] Memory required for data: 1260000084
I0823 20:48:15.572996 16315 layer_factory.hpp:77] Creating layer relu4_1
I0823 20:48:15.573009 16315 net.cpp:106] Creating Layer relu4_1
I0823 20:48:15.573014 16315 net.cpp:454] relu4_1 <- conv4_1
I0823 20:48:15.573022 16315 net.cpp:397] relu4_1 -> conv4_1 (in-place)
I0823 20:48:15.573612 16315 net.cpp:150] Setting up relu4_1
I0823 20:48:15.573628 16315 net.cpp:157] Top shape: 1 512 75 125 (4800000)
I0823 20:48:15.573632 16315 net.cpp:165] Memory required for data: 1279200084
I0823 20:48:15.573637 16315 layer_factory.hpp:77] Creating layer conv4_2
I0823 20:48:15.573650 16315 net.cpp:106] Creating Layer conv4_2
I0823 20:48:15.573654 16315 net.cpp:454] conv4_2 <- conv4_1
I0823 20:48:15.573663 16315 net.cpp:411] conv4_2 -> conv4_2
I0823 20:48:15.592125 16315 net.cpp:150] Setting up conv4_2
I0823 20:48:15.592170 16315 net.cpp:157] Top shape: 1 512 75 125 (4800000)
I0823 20:48:15.592173 16315 net.cpp:165] Memory required for data: 1298400084
I0823 20:48:15.592207 16315 layer_factory.hpp:77] Creating layer relu4_2
I0823 20:48:15.592221 16315 net.cpp:106] Creating Layer relu4_2
I0823 20:48:15.592226 16315 net.cpp:454] relu4_2 <- conv4_2
I0823 20:48:15.592234 16315 net.cpp:397] relu4_2 -> conv4_2 (in-place)
I0823 20:48:15.592469 16315 net.cpp:150] Setting up relu4_2
I0823 20:48:15.592483 16315 net.cpp:157] Top shape: 1 512 75 125 (4800000)
I0823 20:48:15.592486 16315 net.cpp:165] Memory required for data: 1317600084
I0823 20:48:15.592490 16315 layer_factory.hpp:77] Creating layer conv4_3
I0823 20:48:15.592504 16315 net.cpp:106] Creating Layer conv4_3
I0823 20:48:15.592509 16315 net.cpp:454] conv4_3 <- conv4_2
I0823 20:48:15.592517 16315 net.cpp:411] conv4_3 -> conv4_3
I0823 20:48:15.614452 16315 net.cpp:150] Setting up conv4_3
I0823 20:48:15.614497 16315 net.cpp:157] Top shape: 1 512 75 125 (4800000)
I0823 20:48:15.614502 16315 net.cpp:165] Memory required for data: 1336800084
I0823 20:48:15.614514 16315 layer_factory.hpp:77] Creating layer relu4_3
I0823 20:48:15.614527 16315 net.cpp:106] Creating Layer relu4_3
I0823 20:48:15.614532 16315 net.cpp:454] relu4_3 <- conv4_3
I0823 20:48:15.614542 16315 net.cpp:397] relu4_3 -> conv4_3 (in-place)
I0823 20:48:15.615550 16315 net.cpp:150] Setting up relu4_3
I0823 20:48:15.615569 16315 net.cpp:157] Top shape: 1 512 75 125 (4800000)
I0823 20:48:15.615573 16315 net.cpp:165] Memory required for data: 1356000084
I0823 20:48:15.615577 16315 layer_factory.hpp:77] Creating layer pool4
I0823 20:48:15.615586 16315 net.cpp:106] Creating Layer pool4
I0823 20:48:15.615591 16315 net.cpp:454] pool4 <- conv4_3
I0823 20:48:15.615600 16315 net.cpp:411] pool4 -> pool4
I0823 20:48:15.615705 16315 net.cpp:150] Setting up pool4
I0823 20:48:15.615715 16315 net.cpp:157] Top shape: 1 512 38 63 (1225728)
I0823 20:48:15.615718 16315 net.cpp:165] Memory required for data: 1360902996
I0823 20:48:15.615721 16315 layer_factory.hpp:77] Creating layer conv5_1
I0823 20:48:15.615734 16315 net.cpp:106] Creating Layer conv5_1
I0823 20:48:15.615739 16315 net.cpp:454] conv5_1 <- pool4
I0823 20:48:15.615748 16315 net.cpp:411] conv5_1 -> conv5_1
I0823 20:48:15.636379 16315 net.cpp:150] Setting up conv5_1
I0823 20:48:15.636423 16315 net.cpp:157] Top shape: 1 512 38 63 (1225728)
I0823 20:48:15.636427 16315 net.cpp:165] Memory required for data: 1365805908
I0823 20:48:15.636437 16315 layer_factory.hpp:77] Creating layer relu5_1
I0823 20:48:15.636451 16315 net.cpp:106] Creating Layer relu5_1
I0823 20:48:15.636456 16315 net.cpp:454] relu5_1 <- conv5_1
I0823 20:48:15.636462 16315 net.cpp:397] relu5_1 -> conv5_1 (in-place)
I0823 20:48:15.636695 16315 net.cpp:150] Setting up relu5_1
I0823 20:48:15.636708 16315 net.cpp:157] Top shape: 1 512 38 63 (1225728)
I0823 20:48:15.636710 16315 net.cpp:165] Memory required for data: 1370708820
I0823 20:48:15.636714 16315 layer_factory.hpp:77] Creating layer conv5_2
I0823 20:48:15.636728 16315 net.cpp:106] Creating Layer conv5_2
I0823 20:48:15.636732 16315 net.cpp:454] conv5_2 <- conv5_1
I0823 20:48:15.636741 16315 net.cpp:411] conv5_2 -> conv5_2
I0823 20:48:15.661553 16315 net.cpp:150] Setting up conv5_2
I0823 20:48:15.661599 16315 net.cpp:157] Top shape: 1 512 38 63 (1225728)
I0823 20:48:15.661603 16315 net.cpp:165] Memory required for data: 1375611732
I0823 20:48:15.661617 16315 layer_factory.hpp:77] Creating layer relu5_2
I0823 20:48:15.661636 16315 net.cpp:106] Creating Layer relu5_2
I0823 20:48:15.661643 16315 net.cpp:454] relu5_2 <- conv5_2
I0823 20:48:15.661649 16315 net.cpp:397] relu5_2 -> conv5_2 (in-place)
I0823 20:48:15.661882 16315 net.cpp:150] Setting up relu5_2
I0823 20:48:15.661896 16315 net.cpp:157] Top shape: 1 512 38 63 (1225728)
I0823 20:48:15.661900 16315 net.cpp:165] Memory required for data: 1380514644
I0823 20:48:15.661903 16315 layer_factory.hpp:77] Creating layer conv5_3
I0823 20:48:15.661927 16315 net.cpp:106] Creating Layer conv5_3
I0823 20:48:15.661933 16315 net.cpp:454] conv5_3 <- conv5_2
I0823 20:48:15.661941 16315 net.cpp:411] conv5_3 -> conv5_3
I0823 20:48:15.682221 16315 net.cpp:150] Setting up conv5_3
I0823 20:48:15.682265 16315 net.cpp:157] Top shape: 1 512 38 63 (1225728)
I0823 20:48:15.682268 16315 net.cpp:165] Memory required for data: 1385417556
I0823 20:48:15.682279 16315 layer_factory.hpp:77] Creating layer relu5_3
I0823 20:48:15.682297 16315 net.cpp:106] Creating Layer relu5_3
I0823 20:48:15.682303 16315 net.cpp:454] relu5_3 <- conv5_3
I0823 20:48:15.682312 16315 net.cpp:397] relu5_3 -> conv5_3 (in-place)
I0823 20:48:15.684401 16315 net.cpp:150] Setting up relu5_3
I0823 20:48:15.684422 16315 net.cpp:157] Top shape: 1 512 38 63 (1225728)
I0823 20:48:15.684425 16315 net.cpp:165] Memory required for data: 1390320468
I0823 20:48:15.684430 16315 layer_factory.hpp:77] Creating layer conv5_3_relu5_3_0_split
I0823 20:48:15.684439 16315 net.cpp:106] Creating Layer conv5_3_relu5_3_0_split
I0823 20:48:15.684443 16315 net.cpp:454] conv5_3_relu5_3_0_split <- conv5_3
I0823 20:48:15.684453 16315 net.cpp:411] conv5_3_relu5_3_0_split -> conv5_3_relu5_3_0_split_0
I0823 20:48:15.684463 16315 net.cpp:411] conv5_3_relu5_3_0_split -> conv5_3_relu5_3_0_split_1
I0823 20:48:15.684552 16315 net.cpp:150] Setting up conv5_3_relu5_3_0_split
I0823 20:48:15.684561 16315 net.cpp:157] Top shape: 1 512 38 63 (1225728)
I0823 20:48:15.684566 16315 net.cpp:157] Top shape: 1 512 38 63 (1225728)
I0823 20:48:15.684568 16315 net.cpp:165] Memory required for data: 1400126292
I0823 20:48:15.684571 16315 layer_factory.hpp:77] Creating layer rpn_conv/3x3
I0823 20:48:15.684587 16315 net.cpp:106] Creating Layer rpn_conv/3x3
I0823 20:48:15.684592 16315 net.cpp:454] rpn_conv/3x3 <- conv5_3_relu5_3_0_split_0
I0823 20:48:15.684602 16315 net.cpp:411] rpn_conv/3x3 -> rpn/output
I0823 20:48:15.730940 16315 net.cpp:150] Setting up rpn_conv/3x3
I0823 20:48:15.730979 16315 net.cpp:157] Top shape: 1 512 38 63 (1225728)
I0823 20:48:15.730983 16315 net.cpp:165] Memory required for data: 1405029204
I0823 20:48:15.730993 16315 layer_factory.hpp:77] Creating layer rpn_relu/3x3
I0823 20:48:15.731004 16315 net.cpp:106] Creating Layer rpn_relu/3x3
I0823 20:48:15.731009 16315 net.cpp:454] rpn_relu/3x3 <- rpn/output
I0823 20:48:15.731020 16315 net.cpp:397] rpn_relu/3x3 -> rpn/output (in-place)
I0823 20:48:15.731253 16315 net.cpp:150] Setting up rpn_relu/3x3
I0823 20:48:15.731266 16315 net.cpp:157] Top shape: 1 512 38 63 (1225728)
I0823 20:48:15.731268 16315 net.cpp:165] Memory required for data: 1409932116
I0823 20:48:15.731271 16315 layer_factory.hpp:77] Creating layer rpn/output_rpn_relu/3x3_0_split
I0823 20:48:15.731281 16315 net.cpp:106] Creating Layer rpn/output_rpn_relu/3x3_0_split
I0823 20:48:15.731286 16315 net.cpp:454] rpn/output_rpn_relu/3x3_0_split <- rpn/output
I0823 20:48:15.731292 16315 net.cpp:411] rpn/output_rpn_relu/3x3_0_split -> rpn/output_rpn_relu/3x3_0_split_0
I0823 20:48:15.731302 16315 net.cpp:411] rpn/output_rpn_relu/3x3_0_split -> rpn/output_rpn_relu/3x3_0_split_1
I0823 20:48:15.731381 16315 net.cpp:150] Setting up rpn/output_rpn_relu/3x3_0_split
I0823 20:48:15.731390 16315 net.cpp:157] Top shape: 1 512 38 63 (1225728)
I0823 20:48:15.731395 16315 net.cpp:157] Top shape: 1 512 38 63 (1225728)
I0823 20:48:15.731396 16315 net.cpp:165] Memory required for data: 1419737940
I0823 20:48:15.731400 16315 layer_factory.hpp:77] Creating layer rpn_cls_score
I0823 20:48:15.731415 16315 net.cpp:106] Creating Layer rpn_cls_score
I0823 20:48:15.731420 16315 net.cpp:454] rpn_cls_score <- rpn/output_rpn_relu/3x3_0_split_0
I0823 20:48:15.731432 16315 net.cpp:411] rpn_cls_score -> rpn_cls_score
I0823 20:48:15.733803 16315 net.cpp:150] Setting up rpn_cls_score
I0823 20:48:15.733822 16315 net.cpp:157] Top shape: 1 18 38 63 (43092)
I0823 20:48:15.733825 16315 net.cpp:165] Memory required for data: 1419910308
I0823 20:48:15.733834 16315 layer_factory.hpp:77] Creating layer rpn_cls_score_rpn_cls_score_0_split
I0823 20:48:15.733841 16315 net.cpp:106] Creating Layer rpn_cls_score_rpn_cls_score_0_split
I0823 20:48:15.733845 16315 net.cpp:454] rpn_cls_score_rpn_cls_score_0_split <- rpn_cls_score
I0823 20:48:15.733855 16315 net.cpp:411] rpn_cls_score_rpn_cls_score_0_split -> rpn_cls_score_rpn_cls_score_0_split_0
I0823 20:48:15.733880 16315 net.cpp:411] rpn_cls_score_rpn_cls_score_0_split -> rpn_cls_score_rpn_cls_score_0_split_1
I0823 20:48:15.733958 16315 net.cpp:150] Setting up rpn_cls_score_rpn_cls_score_0_split
I0823 20:48:15.733970 16315 net.cpp:157] Top shape: 1 18 38 63 (43092)
I0823 20:48:15.733974 16315 net.cpp:157] Top shape: 1 18 38 63 (43092)
I0823 20:48:15.733978 16315 net.cpp:165] Memory required for data: 1420255044
I0823 20:48:15.733980 16315 layer_factory.hpp:77] Creating layer rpn_bbox_pred
I0823 20:48:15.733995 16315 net.cpp:106] Creating Layer rpn_bbox_pred
I0823 20:48:15.734001 16315 net.cpp:454] rpn_bbox_pred <- rpn/output_rpn_relu/3x3_0_split_1
I0823 20:48:15.734011 16315 net.cpp:411] rpn_bbox_pred -> rpn_bbox_pred
I0823 20:48:15.736176 16315 net.cpp:150] Setting up rpn_bbox_pred
I0823 20:48:15.736202 16315 net.cpp:157] Top shape: 1 36 38 63 (86184)
I0823 20:48:15.736207 16315 net.cpp:165] Memory required for data: 1420599780
I0823 20:48:15.736215 16315 layer_factory.hpp:77] Creating layer rpn_bbox_pred_rpn_bbox_pred_0_split
I0823 20:48:15.736223 16315 net.cpp:106] Creating Layer rpn_bbox_pred_rpn_bbox_pred_0_split
I0823 20:48:15.736229 16315 net.cpp:454] rpn_bbox_pred_rpn_bbox_pred_0_split <- rpn_bbox_pred
I0823 20:48:15.736238 16315 net.cpp:411] rpn_bbox_pred_rpn_bbox_pred_0_split -> rpn_bbox_pred_rpn_bbox_pred_0_split_0
I0823 20:48:15.736248 16315 net.cpp:411] rpn_bbox_pred_rpn_bbox_pred_0_split -> rpn_bbox_pred_rpn_bbox_pred_0_split_1
I0823 20:48:15.736323 16315 net.cpp:150] Setting up rpn_bbox_pred_rpn_bbox_pred_0_split
I0823 20:48:15.736332 16315 net.cpp:157] Top shape: 1 36 38 63 (86184)
I0823 20:48:15.736336 16315 net.cpp:157] Top shape: 1 36 38 63 (86184)
I0823 20:48:15.736340 16315 net.cpp:165] Memory required for data: 1421289252
I0823 20:48:15.736342 16315 layer_factory.hpp:77] Creating layer rpn_cls_score_reshape
I0823 20:48:15.736351 16315 net.cpp:106] Creating Layer rpn_cls_score_reshape
I0823 20:48:15.736356 16315 net.cpp:454] rpn_cls_score_reshape <- rpn_cls_score_rpn_cls_score_0_split_0
I0823 20:48:15.736366 16315 net.cpp:411] rpn_cls_score_reshape -> rpn_cls_score_reshape
I0823 20:48:15.736412 16315 net.cpp:150] Setting up rpn_cls_score_reshape
I0823 20:48:15.736419 16315 net.cpp:157] Top shape: 1 2 342 63 (43092)
I0823 20:48:15.736423 16315 net.cpp:165] Memory required for data: 1421461620
I0823 20:48:15.736425 16315 layer_factory.hpp:77] Creating layer rpn_cls_score_reshape_rpn_cls_score_reshape_0_split
I0823 20:48:15.736433 16315 net.cpp:106] Creating Layer rpn_cls_score_reshape_rpn_cls_score_reshape_0_split
I0823 20:48:15.736436 16315 net.cpp:454] rpn_cls_score_reshape_rpn_cls_score_reshape_0_split <- rpn_cls_score_reshape
I0823 20:48:15.736444 16315 net.cpp:411] rpn_cls_score_reshape_rpn_cls_score_reshape_0_split -> rpn_cls_score_reshape_rpn_cls_score_reshape_0_split_0
I0823 20:48:15.736451 16315 net.cpp:411] rpn_cls_score_reshape_rpn_cls_score_reshape_0_split -> rpn_cls_score_reshape_rpn_cls_score_reshape_0_split_1
I0823 20:48:15.736518 16315 net.cpp:150] Setting up rpn_cls_score_reshape_rpn_cls_score_reshape_0_split
I0823 20:48:15.736526 16315 net.cpp:157] Top shape: 1 2 342 63 (43092)
I0823 20:48:15.736531 16315 net.cpp:157] Top shape: 1 2 342 63 (43092)
I0823 20:48:15.736533 16315 net.cpp:165] Memory required for data: 1421806356
I0823 20:48:15.736536 16315 layer_factory.hpp:77] Creating layer rpn-data
I0823 20:48:15.737169 16315 net.cpp:106] Creating Layer rpn-data
I0823 20:48:15.737184 16315 net.cpp:454] rpn-data <- rpn_cls_score_rpn_cls_score_0_split_1
I0823 20:48:15.737190 16315 net.cpp:454] rpn-data <- gt_boxes_input-data_2_split_0
I0823 20:48:15.737195 16315 net.cpp:454] rpn-data <- im_info_input-data_1_split_0
I0823 20:48:15.737200 16315 net.cpp:454] rpn-data <- data_input-data_0_split_1
I0823 20:48:15.737206 16315 net.cpp:411] rpn-data -> rpn_labels
I0823 20:48:15.737218 16315 net.cpp:411] rpn-data -> rpn_bbox_targets
I0823 20:48:15.737227 16315 net.cpp:411] rpn-data -> rpn_bbox_inside_weights
I0823 20:48:15.737236 16315 net.cpp:411] rpn-data -> rpn_bbox_outside_weights
I0823 20:48:15.738330 16315 net.cpp:150] Setting up rpn-data
I0823 20:48:15.738350 16315 net.cpp:157] Top shape: 1 1 342 63 (21546)
I0823 20:48:15.738355 16315 net.cpp:157] Top shape: 1 36 38 63 (86184)
I0823 20:48:15.738358 16315 net.cpp:157] Top shape: 1 36 38 63 (86184)
I0823 20:48:15.738363 16315 net.cpp:157] Top shape: 1 36 38 63 (86184)
I0823 20:48:15.738365 16315 net.cpp:165] Memory required for data: 1422926748
I0823 20:48:15.738369 16315 layer_factory.hpp:77] Creating layer rpn_loss_cls
I0823 20:48:15.738379 16315 net.cpp:106] Creating Layer rpn_loss_cls
I0823 20:48:15.738382 16315 net.cpp:454] rpn_loss_cls <- rpn_cls_score_reshape_rpn_cls_score_reshape_0_split_0
I0823 20:48:15.738389 16315 net.cpp:454] rpn_loss_cls <- rpn_labels
…
I0823 20:48:15.739872 16315 net.cpp:157] Top shape: (1)
I0823 20:48:15.739876 16315 net.cpp:160]     with loss weight 1
I0823 20:48:15.739882 16315 net.cpp:165] Memory required for data: 1422926756
I0823 20:48:15.739886 16315 layer_factory.hpp:77] Creating layer rpn_cls_prob
I0823 20:48:15.739892 16315 net.cpp:106] Creating Layer rpn_cls_prob
I0823 20:48:15.739894 16315 net.cpp:454] rpn_cls_prob <- rpn_cls_score_reshape_rpn_cls_score_reshape_0_split_1
I0823 20:48:15.739902 16315 net.cpp:411] rpn_cls_prob -> rpn_cls_prob
I0823 20:48:15.740880 16315 net.cpp:150] Setting up rpn_cls_prob
I0823 20:48:15.740895 16315 net.cpp:157] Top shape: 1 2 342 63 (43092)
I0823 20:48:15.740898 16315 net.cpp:165] Memory required for data: 1423099124
I0823 20:48:15.740902 16315 layer_factory.hpp:77] Creating layer rpn_cls_prob_reshape
I0823 20:48:15.740919 16315 net.cpp:106] Creating Layer rpn_cls_prob_reshape
I0823 20:48:15.740923 16315 net.cpp:454] rpn_cls_prob_reshape <- rpn_cls_prob
I0823 20:48:15.740934 16315 net.cpp:411] rpn_cls_prob_reshape -> rpn_cls_prob_reshape
I0823 20:48:15.740988 16315 net.cpp:150] Setting up rpn_cls_prob_reshape
I0823 20:48:15.740996 16315 net.cpp:157] Top shape: 1 18 38 63 (43092)
I0823 20:48:15.740999 16315 net.cpp:165] Memory required for data: 1423271492
I0823 20:48:15.741003 16315 layer_factory.hpp:77] Creating layer proposal
I0823 20:48:15.753264 16315 net.cpp:106] Creating Layer proposal
I0823 20:48:15.753305 16315 net.cpp:454] proposal <- rpn_cls_prob_reshape
I0823 20:48:15.753314 16315 net.cpp:454] proposal <- rpn_bbox_pred_rpn_bbox_pred_0_split_1
I0823 20:48:15.753319 16315 net.cpp:454] proposal <- im_info_input-data_1_split_1
I0823 20:48:15.753327 16315 net.cpp:411] proposal -> rpn_rois
I0823 20:48:15.758962 16315 net.cpp:150] Setting up proposal
I0823 20:48:15.758991 16315 net.cpp:157] Top shape: 1 5 (5)
I0823 20:48:15.758996 16315 net.cpp:165] Memory required for data: 1423271512
I0823 20:48:15.759001 16315 layer_factory.hpp:77] Creating layer roi-data
I0823 20:48:15.759249 16315 net.cpp:106] Creating Layer roi-data
I0823 20:48:15.759263 16315 net.cpp:454] roi-data <- rpn_rois
I0823 20:48:15.759269 16315 net.cpp:454] roi-data <- gt_boxes_input-data_2_split_1
I0823 20:48:15.759279 16315 net.cpp:411] roi-data -> rois
I0823 20:48:15.759289 16315 net.cpp:411] roi-data -> labels
I0823 20:48:15.759299 16315 net.cpp:411] roi-data -> bbox_targets
I0823 20:48:15.759307 16315 net.cpp:411] roi-data -> bbox_inside_weights
I0823 20:48:15.759317 16315 net.cpp:411] roi-data -> bbox_outside_weights
I0823 20:48:15.759326 16315 net.cpp:411] roi-data -> key_targets
I0823 20:48:15.759335 16315 net.cpp:411] roi-data -> key_inside_weights
I0823 20:48:15.760057 16315 net.cpp:150] Setting up roi-data
I0823 20:48:15.760076 16315 net.cpp:157] Top shape: 1 5 (5)
I0823 20:48:15.760079 16315 net.cpp:157] Top shape: 1 1 (1)
I0823 20:48:15.760082 16315 net.cpp:157] Top shape: 1 84 (84)
I0823 20:48:15.760087 16315 net.cpp:157] Top shape: 1 84 (84)
I0823 20:48:15.760089 16315 net.cpp:157] Top shape: 1 84 (84)
I0823 20:48:15.760092 16315 net.cpp:157] Top shape: 1 84 (84)
I0823 20:48:15.760095 16315 net.cpp:157] Top shape: 1 84 (84)
I0823 20:48:15.760097 16315 net.cpp:165] Memory required for data: 1423273216
I0823 20:48:15.760102 16315 layer_factory.hpp:77] Creating layer bbox_outside_weights_roi-data_4_split
I0823 20:48:15.760112 16315 net.cpp:106] Creating Layer bbox_outside_weights_roi-data_4_split
I0823 20:48:15.760115 16315 net.cpp:454] bbox_outside_weights_roi-data_4_split <- bbox_outside_weights
I0823 20:48:15.760123 16315 net.cpp:411] bbox_outside_weights_roi-data_4_split -> bbox_outside_weights_roi-data_4_split_0
I0823 20:48:15.760131 16315 net.cpp:411] bbox_outside_weights_roi-data_4_split -> bbox_outside_weights_roi-data_4_split_1
I0823 20:48:15.760200 16315 net.cpp:150] Setting up bbox_outside_weights_roi-data_4_split
I0823 20:48:15.760208 16315 net.cpp:157] Top shape: 1 84 (84)
I0823 20:48:15.760212 16315 net.cpp:157] Top shape: 1 84 (84)
I0823 20:48:15.760215 16315 net.cpp:165] Memory required for data: 1423273888
I0823 20:48:15.760217 16315 layer_factory.hpp:77] Creating layer roi_pool5
I0823 20:48:15.760226 16315 net.cpp:106] Creating Layer roi_pool5
I0823 20:48:15.760228 16315 net.cpp:454] roi_pool5 <- conv5_3_relu5_3_0_split_1
I0823 20:48:15.760233 16315 net.cpp:454] roi_pool5 <- rois
I0823 20:48:15.760241 16315 net.cpp:411] roi_pool5 -> pool5
I0823 20:48:15.760248 16315 roi_pooling_layer.cpp:30] Spatial scale: 0.0625
I0823 20:48:15.760334 16315 net.cpp:150] Setting up roi_pool5
I0823 20:48:15.760344 16315 net.cpp:157] Top shape: 1 512 7 7 (25088)
I0823 20:48:15.760346 16315 net.cpp:165] Memory required for data: 1423374240
I0823 20:48:15.760349 16315 layer_factory.hpp:77] Creating layer fc6
I0823 20:48:15.760357 16315 net.cpp:106] Creating Layer fc6
I0823 20:48:15.760360 16315 net.cpp:454] fc6 <- pool5
I0823 20:48:15.760367 16315 net.cpp:411] fc6 -> fc6
I0823 20:48:16.373790 16315 net.cpp:150] Setting up fc6
I0823 20:48:16.373836 16315 net.cpp:157] Top shape: 1 4096 (4096)
I0823 20:48:16.373841 16315 net.cpp:165] Memory required for data: 1423390624
I0823 20:48:16.373858 16315 layer_factory.hpp:77] Creating layer relu6
I0823 20:48:16.373872 16315 net.cpp:106] Creating Layer relu6
I0823 20:48:16.373875 16315 net.cpp:454] relu6 <- fc6
I0823 20:48:16.373884 16315 net.cpp:397] relu6 -> fc6 (in-place)
I0823 20:48:16.374182 16315 net.cpp:150] Setting up relu6
I0823 20:48:16.374194 16315 net.cpp:157] Top shape: 1 4096 (4096)
I0823 20:48:16.374197 16315 net.cpp:165] Memory required for data: 1423407008
I0823 20:48:16.374200 16315 layer_factory.hpp:77] Creating layer drop6
I0823 20:48:16.374208 16315 net.cpp:106] Creating Layer drop6
I0823 20:48:16.374212 16315 net.cpp:454] drop6 <- fc6
I0823 20:48:16.374217 16315 net.cpp:397] drop6 -> fc6 (in-place)
I0823 20:48:16.374265 16315 net.cpp:150] Setting up drop6
I0823 20:48:16.374272 16315 net.cpp:157] Top shape: 1 4096 (4096)
I0823 20:48:16.374275 16315 net.cpp:165] Memory required for data: 1423423392
I0823 20:48:16.374277 16315 layer_factory.hpp:77] Creating layer fc7
I0823 20:48:16.374285 16315 net.cpp:106] Creating Layer fc7
I0823 20:48:16.374289 16315 net.cpp:454] fc7 <- fc6
I0823 20:48:16.374294 16315 net.cpp:411] fc7 -> fc7
I0823 20:48:16.486224 16315 net.cpp:150] Setting up fc7
I0823 20:48:16.486277 16315 net.cpp:157] Top shape: 1 4096 (4096)
I0823 20:48:16.486281 16315 net.cpp:165] Memory required for data: 1423439776
I0823 20:48:16.486299 16315 layer_factory.hpp:77] Creating layer relu7
I0823 20:48:16.486315 16315 net.cpp:106] Creating Layer relu7
I0823 20:48:16.486321 16315 net.cpp:454] relu7 <- fc7
I0823 20:48:16.486332 16315 net.cpp:397] relu7 -> fc7 (in-place)
I0823 20:48:16.487231 16315 net.cpp:150] Setting up relu7
I0823 20:48:16.487251 16315 net.cpp:157] Top shape: 1 4096 (4096)
I0823 20:48:16.487254 16315 net.cpp:165] Memory required for data: 1423456160
I0823 20:48:16.487259 16315 layer_factory.hpp:77] Creating layer drop7
I0823 20:48:16.487272 16315 net.cpp:106] Creating Layer drop7
I0823 20:48:16.487278 16315 net.cpp:454] drop7 <- fc7
I0823 20:48:16.487290 16315 net.cpp:397] drop7 -> fc7 (in-place)
I0823 20:48:16.487360 16315 net.cpp:150] Setting up drop7
I0823 20:48:16.487373 16315 net.cpp:157] Top shape: 1 4096 (4096)
I0823 20:48:16.487376 16315 net.cpp:165] Memory required for data: 1423472544
I0823 20:48:16.487380 16315 layer_factory.hpp:77] Creating layer fc7_drop7_0_split
I0823 20:48:16.487391 16315 net.cpp:106] Creating Layer fc7_drop7_0_split
I0823 20:48:16.487396 16315 net.cpp:454] fc7_drop7_0_split <- fc7
I0823 20:48:16.487404 16315 net.cpp:411] fc7_drop7_0_split -> fc7_drop7_0_split_0
I0823 20:48:16.487417 16315 net.cpp:411] fc7_drop7_0_split -> fc7_drop7_0_split_1
I0823 20:48:16.487429 16315 net.cpp:411] fc7_drop7_0_split -> fc7_drop7_0_split_2
I0823 20:48:16.487570 16315 net.cpp:150] Setting up fc7_drop7_0_split
I0823 20:48:16.487579 16315 net.cpp:157] Top shape: 1 4096 (4096)
I0823 20:48:16.487583 16315 net.cpp:157] Top shape: 1 4096 (4096)
I0823 20:48:16.487587 16315 net.cpp:157] Top shape: 1 4096 (4096)
I0823 20:48:16.487591 16315 net.cpp:165] Memory required for data: 1423521696
I0823 20:48:16.487594 16315 layer_factory.hpp:77] Creating layer cls_score
I0823 20:48:16.487608 16315 net.cpp:106] Creating Layer cls_score
I0823 20:48:16.487614 16315 net.cpp:454] cls_score <- fc7_drop7_0_split_0
I0823 20:48:16.487624 16315 net.cpp:411] cls_score -> cls_score
I0823 20:48:16.489480 16315 net.cpp:150] Setting up cls_score
I0823 20:48:16.489493 16315 net.cpp:157] Top shape: 1 21 (21)
I0823 20:48:16.489497 16315 net.cpp:165] Memory required for data: 1423521780
I0823 20:48:16.489506 16315 layer_factory.hpp:77] Creating layer bbox_pred
I0823 20:48:16.489518 16315 net.cpp:106] Creating Layer bbox_pred
I0823 20:48:16.489524 16315 net.cpp:454] bbox_pred <- fc7_drop7_0_split_1
I0823 20:48:16.489533 16315 net.cpp:411] bbox_pred -> bbox_pred
I0823 20:48:16.498399 16315 net.cpp:150] Setting up bbox_pred
I0823 20:48:16.498419 16315 net.cpp:157] Top shape: 1 84 (84)
I0823 20:48:16.498422 16315 net.cpp:165] Memory required for data: 1423522116
I0823 20:48:16.498431 16315 layer_factory.hpp:77] Creating layer key_pred
I0823 20:48:16.498443 16315 net.cpp:106] Creating Layer key_pred
I0823 20:48:16.498447 16315 net.cpp:454] key_pred <- fc7_drop7_0_split_2
I0823 20:48:16.498458 16315 net.cpp:411] key_pred -> key_pred
I0823 20:48:16.506899 16315 net.cpp:150] Setting up key_pred
I0823 20:48:16.506932 16315 net.cpp:157] Top shape: 1 84 (84)
I0823 20:48:16.506935 16315 net.cpp:165] Memory required for data: 1423522452
I0823 20:48:16.506944 16315 layer_factory.hpp:77] Creating layer loss_cls
I0823 20:48:16.506955 16315 net.cpp:106] Creating Layer loss_cls
I0823 20:48:16.506959 16315 net.cpp:454] loss_cls <- cls_score
I0823 20:48:16.506965 16315 net.cpp:454] loss_cls <- labels
I0823 20:48:16.506973 16315 net.cpp:411] loss_cls -> loss_cls
…
