…
weight_decay: 0.0005
stepsize: 50000
snapshot: 0
snapshot_prefix: "key"
average_loss: 100
I0829 20:18:37.289113  1886 solver.cpp:81] Creating training net from train_net file: models/pascal_voc/VGG_CNN_M_1024/key/train.prototxt
I0829 20:18:37.289804  1886 net.cpp:49] Initializing net from parameters: 
name: "VGG_CNN_M_1024"
state {
  phase: TRAIN
}
layer {
  name: "input-data"
  type: "Python"
  top: "data"
  top: "im_info"
  top: "gt_boxes"
  python_param {
    module: "roi_data_layer.layer"
    layer: "RoIDataLayer"
    param_str: "\'num_classes\': 21"
  }
}
layer {
  name: "conv1"
  type: "Convolution"
  bottom: "data"
  top: "conv1"
  param {
    lr_mult: 0
    decay_mult: 0
  }
  param {
    lr_mult: 0
    decay_mult: 0
  }
  convolution_param {
    num_output: 96
    kernel_size: 7
    stride: 2
  }
}
layer {
  name: "relu1"
  type: "ReLU"
  bottom: "conv1"
  top: "conv1"
}
layer {
  name: "norm1"
  type: "LRN"
  bottom: "conv1"
  top: "norm1"
  lrn_param {
    local_size: 5
    alpha: 0.0005
    beta: 0.75
    k: 2
  }
}
layer {
  name: "pool1"
  type: "Pooling"
  bottom: "norm1"
  top: "pool1"
  pooling_param {
    pool: MAX
    kernel_size: 3
    stride: 2
  }
}
layer {
  name: "conv2"
  type: "Convolution"
  bottom: "pool1"
  top: "conv2"
  param {
    lr_mult: 1
  }
  param {
    lr_mult: 2
  }
  convolution_param {
    num_output: 256
    pad: 1
    kernel_size: 5
    stride: 2
  }
}
layer {
  name: "relu2"
  type: "ReLU"
  bottom: "conv2"
  top: "conv2"
}
layer {
  name: "norm2"
  type: "LRN"
  bottom: "conv2"
  top: "norm2"
  lrn_param {
    local_size: 5
    alpha: 0.0005
    beta: 0.75
    k: 2
  }
}
layer {
  name: "pool2"
  type: "Pooling"
  bottom: "norm2"
  top: "pool2"
  pooling_param {
    pool: MAX
    kernel_size: 3
    stride: 2
  }
}
layer {
  name: "conv3"
  type: "Convolution"
  bottom: "pool2"
  top: "conv3"
  param {
    lr_mult: 1
  }
  param {
    lr_mult: 2
  }
  convolution_param {
    num_output: 512
    pad: 1
    kernel_size: 3
  }
}
layer {
  name: "relu3"
  type: "ReLU"
  bottom: "conv3"
  top: "conv3"
}
layer {
  name: "conv4"
  type: "Convolution"
  bottom: "conv3"
  top: "conv4"
  param {
    lr_mult: 1
  }
  param {
    lr_mult: 2
  }
  convolution_param {
    num_output: 512
    pad: 1
    kernel_size: 3
  }
}
layer {
  name: "relu4"
  type: "ReLU"
  bottom: "conv4"
  top: "conv4"
}
layer {
  name: "conv5"
  type: "Convolution"
  bottom: "conv4"
  top: "conv5"
  param {
    lr_mult: 1
  }
  param {
    lr_mult: 2
  }
  convolution_param {
    num_output: 512
    pad: 1
    kernel_size: 3
  }
}
layer {
  name: "relu5"
  type: "ReLU"
  bottom: "conv5"
  top: "conv5"
}
layer {
  name: "rpn_conv/3x3"
  type: "Convolution"
  bottom: "conv5"
  top: "rpn/output"
  param {
    lr_mult: 1
  }
  param {
    lr_mult: 2
  }
  convolution_param {
    num_output: 256
    pad: 1
    kernel_size: 3
    stride: 1
    weight_filler {
      type: "gaussian"
      std: 0.01
    }
    bias_filler {
      type: "constant"
      value: 0
    }
  }
}
layer {
  name: "rpn_relu/3x3"
  type: "ReLU"
  bottom: "rpn/output"
  top: "rpn/output"
}
layer {
  name: "rpn_cls_score"
  type: "Convolution"
  bottom: "rpn/output"
  top: "rpn_cls_score"
  param {
    lr_mult: 1
  }
  param {
    lr_mult: 2
  }
  convolution_param {
    num_output: 18
    pad: 0
    kernel_size: 1
    stride: 1
    weight_filler {
      type: "gaussian"
      std: 0.01
    }
    bias_filler {
      type: "constant"
      value: 0
    }
  }
}
layer {
  name: "rpn_bbox_pred"
  type: "Convolution"
  bottom: "rpn/output"
  top: "rpn_bbox_pred"
  param {
    lr_mult: 1
  }
  param {
    lr_mult: 2
  }
  convolution_param {
    num_output: 36
    pad: 0
    kernel_size: 1
    stride: 1
    weight_filler {
      type: "gaussian"
      std: 0.01
    }
    bias_filler {
      type: "constant"
      value: 0
    }
  }
}
layer {
  name: "rpn_cls_score_reshape"
  type: "Reshape"
  bottom: "rpn_cls_score"
  top: "rpn_cls_score_reshape"
  reshape_param {
    shape {
      dim: 0
      dim: 2
      dim: -1
      dim: 0
    }
  }
}
layer {
  name: "rpn-data"
  type: "Python"
  bottom: "rpn_cls_score"
  bottom: "gt_boxes"
  bottom: "im_info"
  bottom: "data"
  top: "rpn_labels"
  top: "rpn_bbox_targets"
  top: "rpn_bbox_inside_weights"
  top: "rpn_bbox_outside_weights"
  python_param {
    module: "rpn.anchor_target_layer"
    layer: "AnchorTargetLayer"
    param_str: "\'feat_stride\': 16"
  }
}
layer {
  name: "rpn_loss_cls"
  type: "SoftmaxWithLoss"
  bottom: "rpn_cls_score_reshape"
  bottom: "rpn_labels"
  top: "rpn_cls_loss"
  loss_weight: 1
  propagate_down: true
  propagate_down: false
  loss_param {
    ignore_label: -1
    normalize: true
  }
}
layer {
  name: "rpn_loss_bbox"
  type: "SmoothL1Loss"
  bottom: "rpn_bbox_pred"
  bottom: "rpn_bbox_targets"
  bottom: "rpn_bbox_inside_weights"
  bottom: "rpn_bbox_outside_weights"
  top: "rpn_loss_bbox"
  loss_weight: 1
  smooth_l1_loss_param {
    sigma: 3
  }
}
layer {
  name: "rpn_cls_prob"
  type: "Softmax"
  bottom: "rpn_cls_score_reshape"
  top: "rpn_cls_prob"
}
layer {
  name: "rpn_cls_prob_reshape"
  type: "Reshape"
  bottom: "rpn_cls_prob"
  top: "rpn_cls_prob_reshape"
  reshape_param {
    shape {
      dim: 0
      dim: 18
      dim: -1
      dim: 0
    }
  }
}
layer {
  name: "proposal"
  type: "Python"
  bottom: "rpn_cls_prob_reshape"
  bottom: "rpn_bbox_pred"
  bottom: "im_info"
  top: "rpn_rois"
  python_param {
    module: "rpn.proposal_layer"
    layer: "ProposalLayer"
    param_str: "\'feat_stride\': 16"
  }
}
layer {
  name: "roi-data"
  type: "Python"
  bottom: "rpn_rois"
  bottom: "gt_boxes"
  top: "rois"
  top: "labels"
  top: "bbox_targets"
  top: "bbox_inside_weights"
  top: "bbox_outside_weights"
  top: "key_targets"
  top: "key_inside_weights"
  top: "key_outside_weights"
  python_param {
    module: "rpn.proposal_target_layer"
    layer: "ProposalTargetLayer"
    param_str: "\'num_classes\': 21"
  }
}
layer {
  name: "roi_pool5"
  type: "ROIPooling"
  bottom: "conv5"
  bottom: "rois"
  top: "pool5"
  roi_pooling_param {
    pooled_h: 6
    pooled_w: 6
    spatial_scale: 0.0625
  }
}
layer {
  name: "fc6"
  type: "InnerProduct"
  bottom: "pool5"
  top: "fc6"
  param {
    lr_mult: 1
  }
  param {
    lr_mult: 2
  }
  inner_product_param {
    num_output: 4096
  }
}
layer {
  name: "relu6"
  type: "ReLU"
  bottom: "fc6"
  top: "fc6"
}
layer {
  name: "drop6"
  type: "Dropout"
  bottom: "fc6"
  top: "fc6"
  dropout_param {
    dropout_ratio: 0.5
  }
}
layer {
  name: "fc7"
  type: "InnerProduct"
  bottom: "fc6"
  top: "fc7"
  param {
    lr_mult: 1
  }
  param {
    lr_mult: 2
  }
  inner_product_param {
    num_output: 1024
  }
}
layer {
  name: "relu7"
  type: "ReLU"
  bottom: "fc7"
  top: "fc7"
}
layer {
  name: "drop7"
  type: "Dropout"
  bottom: "fc7"
  top: "fc7"
  dropout_param {
    dropout_ratio: 0.5
  }
}
layer {
  name: "cls_score"
  type: "InnerProduct"
  bottom: "fc7"
  top: "cls_score"
  param {
    lr_mult: 1
  }
  param {
    lr_mult: 2
  }
  inner_product_param {
    num_output: 21
    weight_filler {
      type: "gaussian"
      std: 0.01
    }
    bias_filler {
      type: "constant"
      value: 0
    }
  }
}
layer {
  name: "bbox_pred"
  type: "InnerProduct"
  bottom: "fc7"
  top: "bbox_pred"
  param {
    lr_mult: 1
  }
  param {
    lr_mult: 2
  }
  inner_product_param {
    num_output: 84
    weight_filler {
      type: "gaussian"
      std: 0.001
    }
    bias_filler {
      type: "constant"
      value: 0
    }
  }
}
layer {
  name: "key_pred"
  type: "InnerProduct"
  bottom: "fc7"
  top: "key_pred"
  param {
    lr_mult: 1
  }
  param {
    lr_mult: 2
  }
  inner_product_param {
    num_output: 84
    weight_filler {
      type: "gaussian"
      std: 0.001
    }
    bias_filler {
      type: "constant"
      value: 0
    }
  }
}
layer {
  name: "loss_cls"
  type: "SoftmaxWithLoss"
  bottom: "cls_score"
  bottom: "labels"
  top: "loss_cls"
  loss_weight: 1
  propagate_down: true
  propagate_down: false
}
layer {
  name: "loss_bbox"
  type: "SmoothL1Loss"
  bottom: "bbox_pred"
  bottom: "bbox_targets"
  bottom: "bbox_inside_weights"
  bottom: "bbox_outside_weights"
  top: "loss_bbox"
  loss_weight: 1
}
layer {
  name: "loss_key"
  type: "SmoothL1Loss"
  bottom: "key_pred"
  bottom: "key_targets"
  bottom: "key_inside_weights"
  bottom: "key_outside_weights"
  top: "loss_key"
  loss_weight: 1
}
I0829 20:18:37.290066  1886 layer_factory.hpp:77] Creating layer input-data
I0829 20:18:37.304428  1886 net.cpp:106] Creating Layer input-data
I0829 20:18:37.304460  1886 net.cpp:411] input-data -> data
I0829 20:18:37.304474  1886 net.cpp:411] input-data -> im_info
I0829 20:18:37.304484  1886 net.cpp:411] input-data -> gt_boxes
RoiDataLayer: name_to_top: {'gt_boxes': 2, 'data': 0, 'im_info': 1}
I0829 20:18:37.317071  1886 net.cpp:150] Setting up input-data
I0829 20:18:37.317106  1886 net.cpp:157] Top shape: 1 3 600 1000 (1800000)
I0829 20:18:37.317113  1886 net.cpp:157] Top shape: 1 3 (3)
I0829 20:18:37.317116  1886 net.cpp:157] Top shape: 1 4 (4)
I0829 20:18:37.317119  1886 net.cpp:165] Memory required for data: 7200028
I0829 20:18:37.317127  1886 layer_factory.hpp:77] Creating layer data_input-data_0_split
I0829 20:18:37.317147  1886 net.cpp:106] Creating Layer data_input-data_0_split
I0829 20:18:37.317152  1886 net.cpp:454] data_input-data_0_split <- data
I0829 20:18:37.317163  1886 net.cpp:411] data_input-data_0_split -> data_input-data_0_split_0
I0829 20:18:37.317178  1886 net.cpp:411] data_input-data_0_split -> data_input-data_0_split_1
I0829 20:18:37.317239  1886 net.cpp:150] Setting up data_input-data_0_split
I0829 20:18:37.317248  1886 net.cpp:157] Top shape: 1 3 600 1000 (1800000)
I0829 20:18:37.317252  1886 net.cpp:157] Top shape: 1 3 600 1000 (1800000)
I0829 20:18:37.317255  1886 net.cpp:165] Memory required for data: 21600028
I0829 20:18:37.317258  1886 layer_factory.hpp:77] Creating layer im_info_input-data_1_split
I0829 20:18:37.317266  1886 net.cpp:106] Creating Layer im_info_input-data_1_split
I0829 20:18:37.317270  1886 net.cpp:454] im_info_input-data_1_split <- im_info
I0829 20:18:37.317276  1886 net.cpp:411] im_info_input-data_1_split -> im_info_input-data_1_split_0
I0829 20:18:37.317284  1886 net.cpp:411] im_info_input-data_1_split -> im_info_input-data_1_split_1
I0829 20:18:37.317344  1886 net.cpp:150] Setting up im_info_input-data_1_split
I0829 20:18:37.317353  1886 net.cpp:157] Top shape: 1 3 (3)
I0829 20:18:37.317356  1886 net.cpp:157] Top shape: 1 3 (3)
I0829 20:18:37.317358  1886 net.cpp:165] Memory required for data: 21600052
I0829 20:18:37.317361  1886 layer_factory.hpp:77] Creating layer gt_boxes_input-data_2_split
I0829 20:18:37.317368  1886 net.cpp:106] Creating Layer gt_boxes_input-data_2_split
I0829 20:18:37.317373  1886 net.cpp:454] gt_boxes_input-data_2_split <- gt_boxes
I0829 20:18:37.317379  1886 net.cpp:411] gt_boxes_input-data_2_split -> gt_boxes_input-data_2_split_0
I0829 20:18:37.317387  1886 net.cpp:411] gt_boxes_input-data_2_split -> gt_boxes_input-data_2_split_1
I0829 20:18:37.317440  1886 net.cpp:150] Setting up gt_boxes_input-data_2_split
I0829 20:18:37.317448  1886 net.cpp:157] Top shape: 1 4 (4)
I0829 20:18:37.317452  1886 net.cpp:157] Top shape: 1 4 (4)
I0829 20:18:37.317454  1886 net.cpp:165] Memory required for data: 21600084
I0829 20:18:37.317458  1886 layer_factory.hpp:77] Creating layer conv1
I0829 20:18:37.317474  1886 net.cpp:106] Creating Layer conv1
I0829 20:18:37.317481  1886 net.cpp:454] conv1 <- data_input-data_0_split_0
I0829 20:18:37.317488  1886 net.cpp:411] conv1 -> conv1
I0829 20:18:37.619433  1886 net.cpp:150] Setting up conv1
I0829 20:18:37.619482  1886 net.cpp:157] Top shape: 1 96 297 497 (14170464)
I0829 20:18:37.619485  1886 net.cpp:165] Memory required for data: 78281940
I0829 20:18:37.619506  1886 layer_factory.hpp:77] Creating layer relu1
I0829 20:18:37.619520  1886 net.cpp:106] Creating Layer relu1
I0829 20:18:37.619525  1886 net.cpp:454] relu1 <- conv1
I0829 20:18:37.619534  1886 net.cpp:397] relu1 -> conv1 (in-place)
I0829 20:18:37.620095  1886 net.cpp:150] Setting up relu1
I0829 20:18:37.620110  1886 net.cpp:157] Top shape: 1 96 297 497 (14170464)
I0829 20:18:37.620115  1886 net.cpp:165] Memory required for data: 134963796
I0829 20:18:37.620118  1886 layer_factory.hpp:77] Creating layer norm1
I0829 20:18:37.620128  1886 net.cpp:106] Creating Layer norm1
I0829 20:18:37.620134  1886 net.cpp:454] norm1 <- conv1
I0829 20:18:37.620142  1886 net.cpp:411] norm1 -> norm1
I0829 20:18:37.620419  1886 net.cpp:150] Setting up norm1
I0829 20:18:37.620430  1886 net.cpp:157] Top shape: 1 96 297 497 (14170464)
I0829 20:18:37.620434  1886 net.cpp:165] Memory required for data: 191645652
I0829 20:18:37.620436  1886 layer_factory.hpp:77] Creating layer pool1
I0829 20:18:37.620445  1886 net.cpp:106] Creating Layer pool1
I0829 20:18:37.620450  1886 net.cpp:454] pool1 <- norm1
I0829 20:18:37.620456  1886 net.cpp:411] pool1 -> pool1
I0829 20:18:37.620522  1886 net.cpp:150] Setting up pool1
I0829 20:18:37.620529  1886 net.cpp:157] Top shape: 1 96 148 248 (3523584)
I0829 20:18:37.620532  1886 net.cpp:165] Memory required for data: 205739988
I0829 20:18:37.620535  1886 layer_factory.hpp:77] Creating layer conv2
I0829 20:18:37.620551  1886 net.cpp:106] Creating Layer conv2
I0829 20:18:37.620558  1886 net.cpp:454] conv2 <- pool1
I0829 20:18:37.620565  1886 net.cpp:411] conv2 -> conv2
I0829 20:18:37.627251  1886 net.cpp:150] Setting up conv2
I0829 20:18:37.627295  1886 net.cpp:157] Top shape: 1 256 73 123 (2298624)
I0829 20:18:37.627298  1886 net.cpp:165] Memory required for data: 214934484
I0829 20:18:37.627315  1886 layer_factory.hpp:77] Creating layer relu2
I0829 20:18:37.627328  1886 net.cpp:106] Creating Layer relu2
I0829 20:18:37.627333  1886 net.cpp:454] relu2 <- conv2
I0829 20:18:37.627341  1886 net.cpp:397] relu2 -> conv2 (in-place)
I0829 20:18:37.627859  1886 net.cpp:150] Setting up relu2
I0829 20:18:37.627876  1886 net.cpp:157] Top shape: 1 256 73 123 (2298624)
I0829 20:18:37.627887  1886 net.cpp:165] Memory required for data: 224128980
I0829 20:18:37.627889  1886 layer_factory.hpp:77] Creating layer norm2
I0829 20:18:37.627899  1886 net.cpp:106] Creating Layer norm2
I0829 20:18:37.627903  1886 net.cpp:454] norm2 <- conv2
I0829 20:18:37.627912  1886 net.cpp:411] norm2 -> norm2
I0829 20:18:37.628172  1886 net.cpp:150] Setting up norm2
I0829 20:18:37.628183  1886 net.cpp:157] Top shape: 1 256 73 123 (2298624)
I0829 20:18:37.628186  1886 net.cpp:165] Memory required for data: 233323476
I0829 20:18:37.628190  1886 layer_factory.hpp:77] Creating layer pool2
I0829 20:18:37.628198  1886 net.cpp:106] Creating Layer pool2
I0829 20:18:37.628202  1886 net.cpp:454] pool2 <- norm2
I0829 20:18:37.628208  1886 net.cpp:411] pool2 -> pool2
I0829 20:18:37.628275  1886 net.cpp:150] Setting up pool2
I0829 20:18:37.628283  1886 net.cpp:157] Top shape: 1 256 36 61 (562176)
I0829 20:18:37.628286  1886 net.cpp:165] Memory required for data: 235572180
I0829 20:18:37.628290  1886 layer_factory.hpp:77] Creating layer conv3
I0829 20:18:37.628301  1886 net.cpp:106] Creating Layer conv3
I0829 20:18:37.628305  1886 net.cpp:454] conv3 <- pool2
I0829 20:18:37.628314  1886 net.cpp:411] conv3 -> conv3
I0829 20:18:37.642688  1886 net.cpp:150] Setting up conv3
I0829 20:18:37.642726  1886 net.cpp:157] Top shape: 1 512 36 61 (1124352)
I0829 20:18:37.642730  1886 net.cpp:165] Memory required for data: 240069588
I0829 20:18:37.642750  1886 layer_factory.hpp:77] Creating layer relu3
I0829 20:18:37.642762  1886 net.cpp:106] Creating Layer relu3
I0829 20:18:37.642767  1886 net.cpp:454] relu3 <- conv3
I0829 20:18:37.642779  1886 net.cpp:397] relu3 -> conv3 (in-place)
I0829 20:18:37.643013  1886 net.cpp:150] Setting up relu3
I0829 20:18:37.643025  1886 net.cpp:157] Top shape: 1 512 36 61 (1124352)
I0829 20:18:37.643029  1886 net.cpp:165] Memory required for data: 244566996
I0829 20:18:37.643033  1886 layer_factory.hpp:77] Creating layer conv4
I0829 20:18:37.643045  1886 net.cpp:106] Creating Layer conv4
I0829 20:18:37.643049  1886 net.cpp:454] conv4 <- conv3
I0829 20:18:37.643057  1886 net.cpp:411] conv4 -> conv4
I0829 20:18:37.660979  1886 net.cpp:150] Setting up conv4
I0829 20:18:37.661018  1886 net.cpp:157] Top shape: 1 512 36 61 (1124352)
I0829 20:18:37.661021  1886 net.cpp:165] Memory required for data: 249064404
I0829 20:18:37.661036  1886 layer_factory.hpp:77] Creating layer relu4
I0829 20:18:37.661051  1886 net.cpp:106] Creating Layer relu4
I0829 20:18:37.661057  1886 net.cpp:454] relu4 <- conv4
I0829 20:18:37.661067  1886 net.cpp:397] relu4 -> conv4 (in-place)
I0829 20:18:37.661576  1886 net.cpp:150] Setting up relu4
I0829 20:18:37.661590  1886 net.cpp:157] Top shape: 1 512 36 61 (1124352)
I0829 20:18:37.661602  1886 net.cpp:165] Memory required for data: 253561812
I0829 20:18:37.661604  1886 layer_factory.hpp:77] Creating layer conv5
I0829 20:18:37.661626  1886 net.cpp:106] Creating Layer conv5
I0829 20:18:37.661631  1886 net.cpp:454] conv5 <- conv4
I0829 20:18:37.661646  1886 net.cpp:411] conv5 -> conv5
I0829 20:18:37.677692  1886 net.cpp:150] Setting up conv5
I0829 20:18:37.677736  1886 net.cpp:157] Top shape: 1 512 36 61 (1124352)
I0829 20:18:37.677741  1886 net.cpp:165] Memory required for data: 258059220
I0829 20:18:37.677765  1886 layer_factory.hpp:77] Creating layer relu5
I0829 20:18:37.677786  1886 net.cpp:106] Creating Layer relu5
I0829 20:18:37.677793  1886 net.cpp:454] relu5 <- conv5
I0829 20:18:37.677803  1886 net.cpp:397] relu5 -> conv5 (in-place)
I0829 20:18:37.678051  1886 net.cpp:150] Setting up relu5
I0829 20:18:37.678069  1886 net.cpp:157] Top shape: 1 512 36 61 (1124352)
I0829 20:18:37.678072  1886 net.cpp:165] Memory required for data: 262556628
I0829 20:18:37.678081  1886 layer_factory.hpp:77] Creating layer conv5_relu5_0_split
I0829 20:18:37.678089  1886 net.cpp:106] Creating Layer conv5_relu5_0_split
I0829 20:18:37.678094  1886 net.cpp:454] conv5_relu5_0_split <- conv5
I0829 20:18:37.678103  1886 net.cpp:411] conv5_relu5_0_split -> conv5_relu5_0_split_0
I0829 20:18:37.678114  1886 net.cpp:411] conv5_relu5_0_split -> conv5_relu5_0_split_1
I0829 20:18:37.678206  1886 net.cpp:150] Setting up conv5_relu5_0_split
I0829 20:18:37.678216  1886 net.cpp:157] Top shape: 1 512 36 61 (1124352)
I0829 20:18:37.678220  1886 net.cpp:157] Top shape: 1 512 36 61 (1124352)
I0829 20:18:37.678223  1886 net.cpp:165] Memory required for data: 271551444
I0829 20:18:37.678227  1886 layer_factory.hpp:77] Creating layer rpn_conv/3x3
I0829 20:18:37.678246  1886 net.cpp:106] Creating Layer rpn_conv/3x3
I0829 20:18:37.678252  1886 net.cpp:454] rpn_conv/3x3 <- conv5_relu5_0_split_0
I0829 20:18:37.678262  1886 net.cpp:411] rpn_conv/3x3 -> rpn/output
I0829 20:18:37.699553  1886 net.cpp:150] Setting up rpn_conv/3x3
I0829 20:18:37.699590  1886 net.cpp:157] Top shape: 1 256 36 61 (562176)
I0829 20:18:37.699594  1886 net.cpp:165] Memory required for data: 273800148
I0829 20:18:37.699607  1886 layer_factory.hpp:77] Creating layer rpn_relu/3x3
I0829 20:18:37.699622  1886 net.cpp:106] Creating Layer rpn_relu/3x3
I0829 20:18:37.699627  1886 net.cpp:454] rpn_relu/3x3 <- rpn/output
I0829 20:18:37.699637  1886 net.cpp:397] rpn_relu/3x3 -> rpn/output (in-place)
I0829 20:18:37.700196  1886 net.cpp:150] Setting up rpn_relu/3x3
I0829 20:18:37.700212  1886 net.cpp:157] Top shape: 1 256 36 61 (562176)
I0829 20:18:37.700214  1886 net.cpp:165] Memory required for data: 276048852
I0829 20:18:37.700218  1886 layer_factory.hpp:77] Creating layer rpn/output_rpn_relu/3x3_0_split
I0829 20:18:37.700227  1886 net.cpp:106] Creating Layer rpn/output_rpn_relu/3x3_0_split
I0829 20:18:37.700230  1886 net.cpp:454] rpn/output_rpn_relu/3x3_0_split <- rpn/output
I0829 20:18:37.700238  1886 net.cpp:411] rpn/output_rpn_relu/3x3_0_split -> rpn/output_rpn_relu/3x3_0_split_0
I0829 20:18:37.700248  1886 net.cpp:411] rpn/output_rpn_relu/3x3_0_split -> rpn/output_rpn_relu/3x3_0_split_1
I0829 20:18:37.700323  1886 net.cpp:150] Setting up rpn/output_rpn_relu/3x3_0_split
I0829 20:18:37.700335  1886 net.cpp:157] Top shape: 1 256 36 61 (562176)
I0829 20:18:37.700338  1886 net.cpp:157] Top shape: 1 256 36 61 (562176)
I0829 20:18:37.700340  1886 net.cpp:165] Memory required for data: 280546260
I0829 20:18:37.700343  1886 layer_factory.hpp:77] Creating layer rpn_cls_score
I0829 20:18:37.700361  1886 net.cpp:106] Creating Layer rpn_cls_score
I0829 20:18:37.700366  1886 net.cpp:454] rpn_cls_score <- rpn/output_rpn_relu/3x3_0_split_0
I0829 20:18:37.700374  1886 net.cpp:411] rpn_cls_score -> rpn_cls_score
I0829 20:18:37.702196  1886 net.cpp:150] Setting up rpn_cls_score
I0829 20:18:37.702229  1886 net.cpp:157] Top shape: 1 18 36 61 (39528)
I0829 20:18:37.702234  1886 net.cpp:165] Memory required for data: 280704372
I0829 20:18:37.702241  1886 layer_factory.hpp:77] Creating layer rpn_cls_score_rpn_cls_score_0_split
I0829 20:18:37.702250  1886 net.cpp:106] Creating Layer rpn_cls_score_rpn_cls_score_0_split
I0829 20:18:37.702255  1886 net.cpp:454] rpn_cls_score_rpn_cls_score_0_split <- rpn_cls_score
I0829 20:18:37.702261  1886 net.cpp:411] rpn_cls_score_rpn_cls_score_0_split -> rpn_cls_score_rpn_cls_score_0_split_0
I0829 20:18:37.702273  1886 net.cpp:411] rpn_cls_score_rpn_cls_score_0_split -> rpn_cls_score_rpn_cls_score_0_split_1
I0829 20:18:37.702360  1886 net.cpp:150] Setting up rpn_cls_score_rpn_cls_score_0_split
I0829 20:18:37.702369  1886 net.cpp:157] Top shape: 1 18 36 61 (39528)
I0829 20:18:37.702373  1886 net.cpp:157] Top shape: 1 18 36 61 (39528)
I0829 20:18:37.702376  1886 net.cpp:165] Memory required for data: 281020596
I0829 20:18:37.702379  1886 layer_factory.hpp:77] Creating layer rpn_bbox_pred
I0829 20:18:37.702394  1886 net.cpp:106] Creating Layer rpn_bbox_pred
I0829 20:18:37.702399  1886 net.cpp:454] rpn_bbox_pred <- rpn/output_rpn_relu/3x3_0_split_1
I0829 20:18:37.702407  1886 net.cpp:411] rpn_bbox_pred -> rpn_bbox_pred
I0829 20:18:37.704493  1886 net.cpp:150] Setting up rpn_bbox_pred
I0829 20:18:37.704524  1886 net.cpp:157] Top shape: 1 36 36 61 (79056)
I0829 20:18:37.704527  1886 net.cpp:165] Memory required for data: 281336820
I0829 20:18:37.704535  1886 layer_factory.hpp:77] Creating layer rpn_bbox_pred_rpn_bbox_pred_0_split
I0829 20:18:37.704543  1886 net.cpp:106] Creating Layer rpn_bbox_pred_rpn_bbox_pred_0_split
I0829 20:18:37.704547  1886 net.cpp:454] rpn_bbox_pred_rpn_bbox_pred_0_split <- rpn_bbox_pred
I0829 20:18:37.704555  1886 net.cpp:411] rpn_bbox_pred_rpn_bbox_pred_0_split -> rpn_bbox_pred_rpn_bbox_pred_0_split_0
I0829 20:18:37.704566  1886 net.cpp:411] rpn_bbox_pred_rpn_bbox_pred_0_split -> rpn_bbox_pred_rpn_bbox_pred_0_split_1
I0829 20:18:37.704638  1886 net.cpp:150] Setting up rpn_bbox_pred_rpn_bbox_pred_0_split
I0829 20:18:37.704646  1886 net.cpp:157] Top shape: 1 36 36 61 (79056)
I0829 20:18:37.704650  1886 net.cpp:157] Top shape: 1 36 36 61 (79056)
I0829 20:18:37.704653  1886 net.cpp:165] Memory required for data: 281969268
I0829 20:18:37.704656  1886 layer_factory.hpp:77] Creating layer rpn_cls_score_reshape
I0829 20:18:37.704666  1886 net.cpp:106] Creating Layer rpn_cls_score_reshape
I0829 20:18:37.704671  1886 net.cpp:454] rpn_cls_score_reshape <- rpn_cls_score_rpn_cls_score_0_split_0
I0829 20:18:37.704680  1886 net.cpp:411] rpn_cls_score_reshape -> rpn_cls_score_reshape
I0829 20:18:37.704725  1886 net.cpp:150] Setting up rpn_cls_score_reshape
I0829 20:18:37.704733  1886 net.cpp:157] Top shape: 1 2 324 61 (39528)
I0829 20:18:37.704736  1886 net.cpp:165] Memory required for data: 282127380
I0829 20:18:37.704740  1886 layer_factory.hpp:77] Creating layer rpn_cls_score_reshape_rpn_cls_score_reshape_0_split
I0829 20:18:37.704748  1886 net.cpp:106] Creating Layer rpn_cls_score_reshape_rpn_cls_score_reshape_0_split
I0829 20:18:37.704753  1886 net.cpp:454] rpn_cls_score_reshape_rpn_cls_score_reshape_0_split <- rpn_cls_score_reshape
I0829 20:18:37.704759  1886 net.cpp:411] rpn_cls_score_reshape_rpn_cls_score_reshape_0_split -> rpn_cls_score_reshape_rpn_cls_score_reshape_0_split_0
I0829 20:18:37.704771  1886 net.cpp:411] rpn_cls_score_reshape_rpn_cls_score_reshape_0_split -> rpn_cls_score_reshape_rpn_cls_score_reshape_0_split_1
I0829 20:18:37.704831  1886 net.cpp:150] Setting up rpn_cls_score_reshape_rpn_cls_score_reshape_0_split
I0829 20:18:37.704840  1886 net.cpp:157] Top shape: 1 2 324 61 (39528)
I0829 20:18:37.704843  1886 net.cpp:157] Top shape: 1 2 324 61 (39528)
I0829 20:18:37.704846  1886 net.cpp:165] Memory required for data: 282443604
I0829 20:18:37.704849  1886 layer_factory.hpp:77] Creating layer rpn-data
I0829 20:18:37.705389  1886 net.cpp:106] Creating Layer rpn-data
I0829 20:18:37.705402  1886 net.cpp:454] rpn-data <- rpn_cls_score_rpn_cls_score_0_split_1
I0829 20:18:37.705410  1886 net.cpp:454] rpn-data <- gt_boxes_input-data_2_split_0
I0829 20:18:37.705415  1886 net.cpp:454] rpn-data <- im_info_input-data_1_split_0
I0829 20:18:37.705420  1886 net.cpp:454] rpn-data <- data_input-data_0_split_1
I0829 20:18:37.705427  1886 net.cpp:411] rpn-data -> rpn_labels
I0829 20:18:37.705446  1886 net.cpp:411] rpn-data -> rpn_bbox_targets
I0829 20:18:37.705457  1886 net.cpp:411] rpn-data -> rpn_bbox_inside_weights
I0829 20:18:37.705467  1886 net.cpp:411] rpn-data -> rpn_bbox_outside_weights
I0829 20:18:37.708389  1886 net.cpp:150] Setting up rpn-data
I0829 20:18:37.708417  1886 net.cpp:157] Top shape: 1 1 324 61 (19764)
I0829 20:18:37.708423  1886 net.cpp:157] Top shape: 1 36 36 61 (79056)
I0829 20:18:37.708426  1886 net.cpp:157] Top shape: 1 36 36 61 (79056)
I0829 20:18:37.708430  1886 net.cpp:157] Top shape: 1 36 36 61 (79056)
I0829 20:18:37.708432  1886 net.cpp:165] Memory required for data: 283471332
I0829 20:18:37.708436  1886 layer_factory.hpp:77] Creating layer rpn_loss_cls
I0829 20:18:37.708457  1886 net.cpp:106] Creating Layer rpn_loss_cls
I0829 20:18:37.708467  1886 net.cpp:454] rpn_loss_cls <- rpn_cls_score_reshape_rpn_cls_score_reshape_0_split_0
I0829 20:18:37.708472  1886 net.cpp:454] rpn_loss_cls <- rpn_labels
…
I0829 20:18:37.710103  1886 net.cpp:157] Top shape: (1)
I0829 20:18:37.710104  1886 net.cpp:160]     with loss weight 1
I0829 20:18:37.710110  1886 net.cpp:165] Memory required for data: 283471340
I0829 20:18:37.710114  1886 layer_factory.hpp:77] Creating layer rpn_cls_prob
I0829 20:18:37.710122  1886 net.cpp:106] Creating Layer rpn_cls_prob
I0829 20:18:37.710129  1886 net.cpp:454] rpn_cls_prob <- rpn_cls_score_reshape_rpn_cls_score_reshape_0_split_1
I0829 20:18:37.710136  1886 net.cpp:411] rpn_cls_prob -> rpn_cls_prob
I0829 20:18:37.710448  1886 net.cpp:150] Setting up rpn_cls_prob
I0829 20:18:37.710461  1886 net.cpp:157] Top shape: 1 2 324 61 (39528)
I0829 20:18:37.710464  1886 net.cpp:165] Memory required for data: 283629452
I0829 20:18:37.710467  1886 layer_factory.hpp:77] Creating layer rpn_cls_prob_reshape
I0829 20:18:37.710492  1886 net.cpp:106] Creating Layer rpn_cls_prob_reshape
I0829 20:18:37.710497  1886 net.cpp:454] rpn_cls_prob_reshape <- rpn_cls_prob
I0829 20:18:37.710505  1886 net.cpp:411] rpn_cls_prob_reshape -> rpn_cls_prob_reshape
I0829 20:18:37.710557  1886 net.cpp:150] Setting up rpn_cls_prob_reshape
I0829 20:18:37.710567  1886 net.cpp:157] Top shape: 1 18 36 61 (39528)
I0829 20:18:37.710571  1886 net.cpp:165] Memory required for data: 283787564
I0829 20:18:37.710573  1886 layer_factory.hpp:77] Creating layer proposal
I0829 20:18:37.721881  1886 net.cpp:106] Creating Layer proposal
I0829 20:18:37.721923  1886 net.cpp:454] proposal <- rpn_cls_prob_reshape
I0829 20:18:37.721933  1886 net.cpp:454] proposal <- rpn_bbox_pred_rpn_bbox_pred_0_split_1
I0829 20:18:37.721938  1886 net.cpp:454] proposal <- im_info_input-data_1_split_1
I0829 20:18:37.721946  1886 net.cpp:411] proposal -> rpn_rois
I0829 20:18:37.727902  1886 net.cpp:150] Setting up proposal
I0829 20:18:37.727944  1886 net.cpp:157] Top shape: 1 5 (5)
I0829 20:18:37.727948  1886 net.cpp:165] Memory required for data: 283787584
I0829 20:18:37.727955  1886 layer_factory.hpp:77] Creating layer roi-data
I0829 20:18:37.728217  1886 net.cpp:106] Creating Layer roi-data
I0829 20:18:37.728230  1886 net.cpp:454] roi-data <- rpn_rois
I0829 20:18:37.728240  1886 net.cpp:454] roi-data <- gt_boxes_input-data_2_split_1
I0829 20:18:37.728250  1886 net.cpp:411] roi-data -> rois
I0829 20:18:37.728263  1886 net.cpp:411] roi-data -> labels
I0829 20:18:37.728273  1886 net.cpp:411] roi-data -> bbox_targets
I0829 20:18:37.728283  1886 net.cpp:411] roi-data -> bbox_inside_weights
I0829 20:18:37.728293  1886 net.cpp:411] roi-data -> bbox_outside_weights
I0829 20:18:37.728303  1886 net.cpp:411] roi-data -> key_targets
I0829 20:18:37.728313  1886 net.cpp:411] roi-data -> key_inside_weights
I0829 20:18:37.728322  1886 net.cpp:411] roi-data -> key_outside_weights
I0829 20:18:37.729037  1886 net.cpp:150] Setting up roi-data
I0829 20:18:37.729054  1886 net.cpp:157] Top shape: 1 5 (5)
I0829 20:18:37.729059  1886 net.cpp:157] Top shape: 1 1 (1)
I0829 20:18:37.729063  1886 net.cpp:157] Top shape: 1 84 (84)
I0829 20:18:37.729066  1886 net.cpp:157] Top shape: 1 84 (84)
I0829 20:18:37.729069  1886 net.cpp:157] Top shape: 1 84 (84)
I0829 20:18:37.729073  1886 net.cpp:157] Top shape: 1 84 (84)
I0829 20:18:37.729075  1886 net.cpp:157] Top shape: 1 84 (84)
I0829 20:18:37.729079  1886 net.cpp:157] Top shape: 1 84 (84)
I0829 20:18:37.729080  1886 net.cpp:165] Memory required for data: 283789624
I0829 20:18:37.729085  1886 layer_factory.hpp:77] Creating layer roi_pool5
I0829 20:18:37.729096  1886 net.cpp:106] Creating Layer roi_pool5
I0829 20:18:37.729102  1886 net.cpp:454] roi_pool5 <- conv5_relu5_0_split_1
I0829 20:18:37.729110  1886 net.cpp:454] roi_pool5 <- rois
I0829 20:18:37.729117  1886 net.cpp:411] roi_pool5 -> pool5
I0829 20:18:37.729130  1886 roi_pooling_layer.cpp:30] Spatial scale: 0.0625
I0829 20:18:37.729202  1886 net.cpp:150] Setting up roi_pool5
I0829 20:18:37.729212  1886 net.cpp:157] Top shape: 1 512 6 6 (18432)
I0829 20:18:37.729214  1886 net.cpp:165] Memory required for data: 283863352
I0829 20:18:37.729218  1886 layer_factory.hpp:77] Creating layer fc6
I0829 20:18:37.729226  1886 net.cpp:106] Creating Layer fc6
I0829 20:18:37.729233  1886 net.cpp:454] fc6 <- pool5
I0829 20:18:37.729239  1886 net.cpp:411] fc6 -> fc6
I0829 20:18:38.156347  1886 net.cpp:150] Setting up fc6
I0829 20:18:38.156397  1886 net.cpp:157] Top shape: 1 4096 (4096)
I0829 20:18:38.156401  1886 net.cpp:165] Memory required for data: 283879736
I0829 20:18:38.156437  1886 layer_factory.hpp:77] Creating layer relu6
I0829 20:18:38.156457  1886 net.cpp:106] Creating Layer relu6
I0829 20:18:38.156478  1886 net.cpp:454] relu6 <- fc6
I0829 20:18:38.156491  1886 net.cpp:397] relu6 -> fc6 (in-place)
I0829 20:18:38.157335  1886 net.cpp:150] Setting up relu6
I0829 20:18:38.157351  1886 net.cpp:157] Top shape: 1 4096 (4096)
I0829 20:18:38.157354  1886 net.cpp:165] Memory required for data: 283896120
I0829 20:18:38.157358  1886 layer_factory.hpp:77] Creating layer drop6
I0829 20:18:38.157371  1886 net.cpp:106] Creating Layer drop6
I0829 20:18:38.157376  1886 net.cpp:454] drop6 <- fc6
I0829 20:18:38.157383  1886 net.cpp:397] drop6 -> fc6 (in-place)
I0829 20:18:38.157439  1886 net.cpp:150] Setting up drop6
I0829 20:18:38.157447  1886 net.cpp:157] Top shape: 1 4096 (4096)
I0829 20:18:38.157450  1886 net.cpp:165] Memory required for data: 283912504
I0829 20:18:38.157454  1886 layer_factory.hpp:77] Creating layer fc7
I0829 20:18:38.157465  1886 net.cpp:106] Creating Layer fc7
I0829 20:18:38.157469  1886 net.cpp:454] fc7 <- fc6
I0829 20:18:38.157475  1886 net.cpp:411] fc7 -> fc7
I0829 20:18:38.183827  1886 net.cpp:150] Setting up fc7
I0829 20:18:38.183887  1886 net.cpp:157] Top shape: 1 1024 (1024)
I0829 20:18:38.183892  1886 net.cpp:165] Memory required for data: 283916600
I0829 20:18:38.183912  1886 layer_factory.hpp:77] Creating layer relu7
I0829 20:18:38.183933  1886 net.cpp:106] Creating Layer relu7
I0829 20:18:38.183939  1886 net.cpp:454] relu7 <- fc7
I0829 20:18:38.183959  1886 net.cpp:397] relu7 -> fc7 (in-place)
I0829 20:18:38.184268  1886 net.cpp:150] Setting up relu7
I0829 20:18:38.184283  1886 net.cpp:157] Top shape: 1 1024 (1024)
I0829 20:18:38.184285  1886 net.cpp:165] Memory required for data: 283920696
I0829 20:18:38.184289  1886 layer_factory.hpp:77] Creating layer drop7
I0829 20:18:38.184299  1886 net.cpp:106] Creating Layer drop7
I0829 20:18:38.184303  1886 net.cpp:454] drop7 <- fc7
I0829 20:18:38.184311  1886 net.cpp:397] drop7 -> fc7 (in-place)
I0829 20:18:38.184365  1886 net.cpp:150] Setting up drop7
I0829 20:18:38.184375  1886 net.cpp:157] Top shape: 1 1024 (1024)
I0829 20:18:38.184376  1886 net.cpp:165] Memory required for data: 283924792
I0829 20:18:38.184379  1886 layer_factory.hpp:77] Creating layer fc7_drop7_0_split
I0829 20:18:38.184388  1886 net.cpp:106] Creating Layer fc7_drop7_0_split
I0829 20:18:38.184393  1886 net.cpp:454] fc7_drop7_0_split <- fc7
I0829 20:18:38.184401  1886 net.cpp:411] fc7_drop7_0_split -> fc7_drop7_0_split_0
I0829 20:18:38.184409  1886 net.cpp:411] fc7_drop7_0_split -> fc7_drop7_0_split_1
I0829 20:18:38.184419  1886 net.cpp:411] fc7_drop7_0_split -> fc7_drop7_0_split_2
I0829 20:18:38.184517  1886 net.cpp:150] Setting up fc7_drop7_0_split
I0829 20:18:38.184525  1886 net.cpp:157] Top shape: 1 1024 (1024)
I0829 20:18:38.184528  1886 net.cpp:157] Top shape: 1 1024 (1024)
I0829 20:18:38.184531  1886 net.cpp:157] Top shape: 1 1024 (1024)
I0829 20:18:38.184533  1886 net.cpp:165] Memory required for data: 283937080
I0829 20:18:38.184537  1886 layer_factory.hpp:77] Creating layer cls_score
I0829 20:18:38.184547  1886 net.cpp:106] Creating Layer cls_score
I0829 20:18:38.184553  1886 net.cpp:454] cls_score <- fc7_drop7_0_split_0
I0829 20:18:38.184561  1886 net.cpp:411] cls_score -> cls_score
I0829 20:18:38.185022  1886 net.cpp:150] Setting up cls_score
I0829 20:18:38.185034  1886 net.cpp:157] Top shape: 1 21 (21)
I0829 20:18:38.185035  1886 net.cpp:165] Memory required for data: 283937164
I0829 20:18:38.185042  1886 layer_factory.hpp:77] Creating layer bbox_pred
I0829 20:18:38.185051  1886 net.cpp:106] Creating Layer bbox_pred
I0829 20:18:38.185056  1886 net.cpp:454] bbox_pred <- fc7_drop7_0_split_1
I0829 20:18:38.185065  1886 net.cpp:411] bbox_pred -> bbox_pred
I0829 20:18:38.188277  1886 net.cpp:150] Setting up bbox_pred
I0829 20:18:38.188303  1886 net.cpp:157] Top shape: 1 84 (84)
I0829 20:18:38.188307  1886 net.cpp:165] Memory required for data: 283937500
I0829 20:18:38.188318  1886 layer_factory.hpp:77] Creating layer key_pred
I0829 20:18:38.188329  1886 net.cpp:106] Creating Layer key_pred
I0829 20:18:38.188334  1886 net.cpp:454] key_pred <- fc7_drop7_0_split_2
I0829 20:18:38.188344  1886 net.cpp:411] key_pred -> key_pred
I0829 20:18:38.189451  1886 net.cpp:150] Setting up key_pred
I0829 20:18:38.189461  1886 net.cpp:157] Top shape: 1 84 (84)
I0829 20:18:38.189476  1886 net.cpp:165] Memory required for data: 283937836
I0829 20:18:38.189483  1886 layer_factory.hpp:77] Creating layer loss_cls
I0829 20:18:38.189493  1886 net.cpp:106] Creating Layer loss_cls
I0829 20:18:38.189497  1886 net.cpp:454] loss_cls <- cls_score
I0829 20:18:38.189502  1886 net.cpp:454] loss_cls <- labels
I0829 20:18:38.189508  1886 net.cpp:411] loss_cls -> loss_cls
…
