…
weight_decay: 0.0005
stepsize: 50000
snapshot: 0
snapshot_prefix: "key"
average_loss: 100
I0825 14:12:08.109163 16488 solver.cpp:81] Creating training net from train_net file: models/pascal_voc/VGG_CNN_M_1024/key/train.prototxt
I0825 14:12:08.109822 16488 net.cpp:49] Initializing net from parameters: 
name: "VGG_CNN_M_1024"
state {
  phase: TRAIN
}
layer {
  name: "input-data"
  type: "Python"
  top: "data"
  top: "im_info"
  top: "gt_boxes"
  python_param {
    module: "roi_data_layer.layer"
    layer: "RoIDataLayer"
    param_str: "\'num_classes\': 21"
  }
}
layer {
  name: "conv1"
  type: "Convolution"
  bottom: "data"
  top: "conv1"
  param {
    lr_mult: 0
    decay_mult: 0
  }
  param {
    lr_mult: 0
    decay_mult: 0
  }
  convolution_param {
    num_output: 96
    kernel_size: 7
    stride: 2
  }
}
layer {
  name: "relu1"
  type: "ReLU"
  bottom: "conv1"
  top: "conv1"
}
layer {
  name: "norm1"
  type: "LRN"
  bottom: "conv1"
  top: "norm1"
  lrn_param {
    local_size: 5
    alpha: 0.0005
    beta: 0.75
    k: 2
  }
}
layer {
  name: "pool1"
  type: "Pooling"
  bottom: "norm1"
  top: "pool1"
  pooling_param {
    pool: MAX
    kernel_size: 3
    stride: 2
  }
}
layer {
  name: "conv2"
  type: "Convolution"
  bottom: "pool1"
  top: "conv2"
  param {
    lr_mult: 1
  }
  param {
    lr_mult: 2
  }
  convolution_param {
    num_output: 256
    pad: 1
    kernel_size: 5
    stride: 2
  }
}
layer {
  name: "relu2"
  type: "ReLU"
  bottom: "conv2"
  top: "conv2"
}
layer {
  name: "norm2"
  type: "LRN"
  bottom: "conv2"
  top: "norm2"
  lrn_param {
    local_size: 5
    alpha: 0.0005
    beta: 0.75
    k: 2
  }
}
layer {
  name: "pool2"
  type: "Pooling"
  bottom: "norm2"
  top: "pool2"
  pooling_param {
    pool: MAX
    kernel_size: 3
    stride: 2
  }
}
layer {
  name: "conv3"
  type: "Convolution"
  bottom: "pool2"
  top: "conv3"
  param {
    lr_mult: 1
  }
  param {
    lr_mult: 2
  }
  convolution_param {
    num_output: 512
    pad: 1
    kernel_size: 3
  }
}
layer {
  name: "relu3"
  type: "ReLU"
  bottom: "conv3"
  top: "conv3"
}
layer {
  name: "conv4"
  type: "Convolution"
  bottom: "conv3"
  top: "conv4"
  param {
    lr_mult: 1
  }
  param {
    lr_mult: 2
  }
  convolution_param {
    num_output: 512
    pad: 1
    kernel_size: 3
  }
}
layer {
  name: "relu4"
  type: "ReLU"
  bottom: "conv4"
  top: "conv4"
}
layer {
  name: "conv5"
  type: "Convolution"
  bottom: "conv4"
  top: "conv5"
  param {
    lr_mult: 1
  }
  param {
    lr_mult: 2
  }
  convolution_param {
    num_output: 512
    pad: 1
    kernel_size: 3
  }
}
layer {
  name: "relu5"
  type: "ReLU"
  bottom: "conv5"
  top: "conv5"
}
layer {
  name: "rpn_conv/3x3"
  type: "Convolution"
  bottom: "conv5"
  top: "rpn/output"
  param {
    lr_mult: 1
  }
  param {
    lr_mult: 2
  }
  convolution_param {
    num_output: 256
    pad: 1
    kernel_size: 3
    stride: 1
    weight_filler {
      type: "gaussian"
      std: 0.01
    }
    bias_filler {
      type: "constant"
      value: 0
    }
  }
}
layer {
  name: "rpn_relu/3x3"
  type: "ReLU"
  bottom: "rpn/output"
  top: "rpn/output"
}
layer {
  name: "rpn_cls_score"
  type: "Convolution"
  bottom: "rpn/output"
  top: "rpn_cls_score"
  param {
    lr_mult: 1
  }
  param {
    lr_mult: 2
  }
  convolution_param {
    num_output: 18
    pad: 0
    kernel_size: 1
    stride: 1
    weight_filler {
      type: "gaussian"
      std: 0.01
    }
    bias_filler {
      type: "constant"
      value: 0
    }
  }
}
layer {
  name: "rpn_bbox_pred"
  type: "Convolution"
  bottom: "rpn/output"
  top: "rpn_bbox_pred"
  param {
    lr_mult: 1
  }
  param {
    lr_mult: 2
  }
  convolution_param {
    num_output: 36
    pad: 0
    kernel_size: 1
    stride: 1
    weight_filler {
      type: "gaussian"
      std: 0.01
    }
    bias_filler {
      type: "constant"
      value: 0
    }
  }
}
layer {
  name: "rpn_cls_score_reshape"
  type: "Reshape"
  bottom: "rpn_cls_score"
  top: "rpn_cls_score_reshape"
  reshape_param {
    shape {
      dim: 0
      dim: 2
      dim: -1
      dim: 0
    }
  }
}
layer {
  name: "rpn-data"
  type: "Python"
  bottom: "rpn_cls_score"
  bottom: "gt_boxes"
  bottom: "im_info"
  bottom: "data"
  top: "rpn_labels"
  top: "rpn_bbox_targets"
  top: "rpn_bbox_inside_weights"
  top: "rpn_bbox_outside_weights"
  python_param {
    module: "rpn.anchor_target_layer"
    layer: "AnchorTargetLayer"
    param_str: "\'feat_stride\': 16"
  }
}
layer {
  name: "rpn_loss_cls"
  type: "SoftmaxWithLoss"
  bottom: "rpn_cls_score_reshape"
  bottom: "rpn_labels"
  top: "rpn_cls_loss"
  loss_weight: 1
  propagate_down: true
  propagate_down: false
  loss_param {
    ignore_label: -1
    normalize: true
  }
}
layer {
  name: "rpn_loss_bbox"
  type: "SmoothL1Loss"
  bottom: "rpn_bbox_pred"
  bottom: "rpn_bbox_targets"
  bottom: "rpn_bbox_inside_weights"
  bottom: "rpn_bbox_outside_weights"
  top: "rpn_loss_bbox"
  loss_weight: 1
  smooth_l1_loss_param {
    sigma: 3
  }
}
layer {
  name: "rpn_cls_prob"
  type: "Softmax"
  bottom: "rpn_cls_score_reshape"
  top: "rpn_cls_prob"
}
layer {
  name: "rpn_cls_prob_reshape"
  type: "Reshape"
  bottom: "rpn_cls_prob"
  top: "rpn_cls_prob_reshape"
  reshape_param {
    shape {
      dim: 0
      dim: 18
      dim: -1
      dim: 0
    }
  }
}
layer {
  name: "proposal"
  type: "Python"
  bottom: "rpn_cls_prob_reshape"
  bottom: "rpn_bbox_pred"
  bottom: "im_info"
  top: "rpn_rois"
  python_param {
    module: "rpn.proposal_layer"
    layer: "ProposalLayer"
    param_str: "\'feat_stride\': 16"
  }
}
layer {
  name: "roi-data"
  type: "Python"
  bottom: "rpn_rois"
  bottom: "gt_boxes"
  top: "rois"
  top: "labels"
  top: "bbox_targets"
  top: "bbox_inside_weights"
  top: "bbox_outside_weights"
  top: "key_targets"
  top: "key_inside_weights"
  python_param {
    module: "rpn.proposal_target_layer"
    layer: "ProposalTargetLayer"
    param_str: "\'num_classes\': 21"
  }
}
layer {
  name: "roi_pool5"
  type: "ROIPooling"
  bottom: "conv5"
  bottom: "rois"
  top: "pool5"
  roi_pooling_param {
    pooled_h: 6
    pooled_w: 6
    spatial_scale: 0.0625
  }
}
layer {
  name: "fc6"
  type: "InnerProduct"
  bottom: "pool5"
  top: "fc6"
  param {
    lr_mult: 1
  }
  param {
    lr_mult: 2
  }
  inner_product_param {
    num_output: 4096
  }
}
layer {
  name: "relu6"
  type: "ReLU"
  bottom: "fc6"
  top: "fc6"
}
layer {
  name: "drop6"
  type: "Dropout"
  bottom: "fc6"
  top: "fc6"
  dropout_param {
    dropout_ratio: 0.5
  }
}
layer {
  name: "fc7"
  type: "InnerProduct"
  bottom: "fc6"
  top: "fc7"
  param {
    lr_mult: 1
  }
  param {
    lr_mult: 2
  }
  inner_product_param {
    num_output: 1024
  }
}
layer {
  name: "relu7"
  type: "ReLU"
  bottom: "fc7"
  top: "fc7"
}
layer {
  name: "drop7"
  type: "Dropout"
  bottom: "fc7"
  top: "fc7"
  dropout_param {
    dropout_ratio: 0.5
  }
}
layer {
  name: "cls_score"
  type: "InnerProduct"
  bottom: "fc7"
  top: "cls_score"
  param {
    lr_mult: 1
  }
  param {
    lr_mult: 2
  }
  inner_product_param {
    num_output: 21
    weight_filler {
      type: "gaussian"
      std: 0.01
    }
    bias_filler {
      type: "constant"
      value: 0
    }
  }
}
layer {
  name: "bbox_pred"
  type: "InnerProduct"
  bottom: "fc7"
  top: "bbox_pred"
  param {
    lr_mult: 1
  }
  param {
    lr_mult: 2
  }
  inner_product_param {
    num_output: 84
    weight_filler {
      type: "gaussian"
      std: 0.001
    }
    bias_filler {
      type: "constant"
      value: 0
    }
  }
}
layer {
  name: "key_pred"
  type: "InnerProduct"
  bottom: "fc7"
  top: "key_pred"
  param {
    lr_mult: 1
  }
  param {
    lr_mult: 2
  }
  inner_product_param {
    num_output: 84
    weight_filler {
      type: "gaussian"
      std: 0.001
    }
    bias_filler {
      type: "constant"
      value: 0
    }
  }
}
layer {
  name: "loss_cls"
  type: "SoftmaxWithLoss"
  bottom: "cls_score"
  bottom: "labels"
  top: "loss_cls"
  loss_weight: 1
  propagate_down: true
  propagate_down: false
}
layer {
  name: "loss_bbox"
  type: "SmoothL1Loss"
  bottom: "bbox_pred"
  bottom: "bbox_targets"
  bottom: "bbox_inside_weights"
  bottom: "bbox_outside_weights"
  top: "loss_bbox"
  loss_weight: 1
}
layer {
  name: "loss_key"
  type: "SmoothL1Loss"
  bottom: "key_pred"
  bottom: "key_targets"
  bottom: "key_inside_weights"
  bottom: "bbox_outside_weights"
  top: "loss_key"
  loss_weight: 1
}
I0825 14:12:08.110076 16488 layer_factory.hpp:77] Creating layer input-data
I0825 14:12:08.122825 16488 net.cpp:106] Creating Layer input-data
I0825 14:12:08.122859 16488 net.cpp:411] input-data -> data
I0825 14:12:08.122884 16488 net.cpp:411] input-data -> im_info
I0825 14:12:08.122892 16488 net.cpp:411] input-data -> gt_boxes
RoiDataLayer: name_to_top: {'gt_boxes': 2, 'data': 0, 'im_info': 1}
I0825 14:12:08.133404 16488 net.cpp:150] Setting up input-data
I0825 14:12:08.133420 16488 net.cpp:157] Top shape: 1 3 600 1000 (1800000)
I0825 14:12:08.133425 16488 net.cpp:157] Top shape: 1 3 (3)
I0825 14:12:08.133430 16488 net.cpp:157] Top shape: 1 4 (4)
I0825 14:12:08.133445 16488 net.cpp:165] Memory required for data: 7200028
I0825 14:12:08.133450 16488 layer_factory.hpp:77] Creating layer data_input-data_0_split
I0825 14:12:08.133458 16488 net.cpp:106] Creating Layer data_input-data_0_split
I0825 14:12:08.133463 16488 net.cpp:454] data_input-data_0_split <- data
I0825 14:12:08.133471 16488 net.cpp:411] data_input-data_0_split -> data_input-data_0_split_0
I0825 14:12:08.133492 16488 net.cpp:411] data_input-data_0_split -> data_input-data_0_split_1
I0825 14:12:08.133548 16488 net.cpp:150] Setting up data_input-data_0_split
I0825 14:12:08.133558 16488 net.cpp:157] Top shape: 1 3 600 1000 (1800000)
I0825 14:12:08.133563 16488 net.cpp:157] Top shape: 1 3 600 1000 (1800000)
I0825 14:12:08.133565 16488 net.cpp:165] Memory required for data: 21600028
I0825 14:12:08.133569 16488 layer_factory.hpp:77] Creating layer im_info_input-data_1_split
I0825 14:12:08.133575 16488 net.cpp:106] Creating Layer im_info_input-data_1_split
I0825 14:12:08.133580 16488 net.cpp:454] im_info_input-data_1_split <- im_info
I0825 14:12:08.133585 16488 net.cpp:411] im_info_input-data_1_split -> im_info_input-data_1_split_0
I0825 14:12:08.133592 16488 net.cpp:411] im_info_input-data_1_split -> im_info_input-data_1_split_1
I0825 14:12:08.133640 16488 net.cpp:150] Setting up im_info_input-data_1_split
I0825 14:12:08.133646 16488 net.cpp:157] Top shape: 1 3 (3)
I0825 14:12:08.133651 16488 net.cpp:157] Top shape: 1 3 (3)
I0825 14:12:08.133652 16488 net.cpp:165] Memory required for data: 21600052
I0825 14:12:08.133656 16488 layer_factory.hpp:77] Creating layer gt_boxes_input-data_2_split
I0825 14:12:08.133661 16488 net.cpp:106] Creating Layer gt_boxes_input-data_2_split
I0825 14:12:08.133663 16488 net.cpp:454] gt_boxes_input-data_2_split <- gt_boxes
I0825 14:12:08.133668 16488 net.cpp:411] gt_boxes_input-data_2_split -> gt_boxes_input-data_2_split_0
I0825 14:12:08.133676 16488 net.cpp:411] gt_boxes_input-data_2_split -> gt_boxes_input-data_2_split_1
I0825 14:12:08.133723 16488 net.cpp:150] Setting up gt_boxes_input-data_2_split
I0825 14:12:08.133729 16488 net.cpp:157] Top shape: 1 4 (4)
I0825 14:12:08.133733 16488 net.cpp:157] Top shape: 1 4 (4)
I0825 14:12:08.133735 16488 net.cpp:165] Memory required for data: 21600084
I0825 14:12:08.133738 16488 layer_factory.hpp:77] Creating layer conv1
I0825 14:12:08.133749 16488 net.cpp:106] Creating Layer conv1
I0825 14:12:08.133754 16488 net.cpp:454] conv1 <- data_input-data_0_split_0
I0825 14:12:08.133760 16488 net.cpp:411] conv1 -> conv1
I0825 14:12:08.370512 16488 net.cpp:150] Setting up conv1
I0825 14:12:08.370550 16488 net.cpp:157] Top shape: 1 96 297 497 (14170464)
I0825 14:12:08.370554 16488 net.cpp:165] Memory required for data: 78281940
I0825 14:12:08.370573 16488 layer_factory.hpp:77] Creating layer relu1
I0825 14:12:08.370590 16488 net.cpp:106] Creating Layer relu1
I0825 14:12:08.370595 16488 net.cpp:454] relu1 <- conv1
I0825 14:12:08.370601 16488 net.cpp:397] relu1 -> conv1 (in-place)
I0825 14:12:08.371105 16488 net.cpp:150] Setting up relu1
I0825 14:12:08.371119 16488 net.cpp:157] Top shape: 1 96 297 497 (14170464)
I0825 14:12:08.371122 16488 net.cpp:165] Memory required for data: 134963796
I0825 14:12:08.371125 16488 layer_factory.hpp:77] Creating layer norm1
I0825 14:12:08.371139 16488 net.cpp:106] Creating Layer norm1
I0825 14:12:08.371142 16488 net.cpp:454] norm1 <- conv1
I0825 14:12:08.371148 16488 net.cpp:411] norm1 -> norm1
I0825 14:12:08.371392 16488 net.cpp:150] Setting up norm1
I0825 14:12:08.371403 16488 net.cpp:157] Top shape: 1 96 297 497 (14170464)
I0825 14:12:08.371405 16488 net.cpp:165] Memory required for data: 191645652
I0825 14:12:08.371408 16488 layer_factory.hpp:77] Creating layer pool1
I0825 14:12:08.371417 16488 net.cpp:106] Creating Layer pool1
I0825 14:12:08.371419 16488 net.cpp:454] pool1 <- norm1
I0825 14:12:08.371426 16488 net.cpp:411] pool1 -> pool1
I0825 14:12:08.371489 16488 net.cpp:150] Setting up pool1
I0825 14:12:08.371495 16488 net.cpp:157] Top shape: 1 96 148 248 (3523584)
I0825 14:12:08.371497 16488 net.cpp:165] Memory required for data: 205739988
I0825 14:12:08.371500 16488 layer_factory.hpp:77] Creating layer conv2
I0825 14:12:08.371515 16488 net.cpp:106] Creating Layer conv2
I0825 14:12:08.371520 16488 net.cpp:454] conv2 <- pool1
I0825 14:12:08.371526 16488 net.cpp:411] conv2 -> conv2
I0825 14:12:08.377403 16488 net.cpp:150] Setting up conv2
I0825 14:12:08.377419 16488 net.cpp:157] Top shape: 1 256 73 123 (2298624)
I0825 14:12:08.377423 16488 net.cpp:165] Memory required for data: 214934484
I0825 14:12:08.377434 16488 layer_factory.hpp:77] Creating layer relu2
I0825 14:12:08.377440 16488 net.cpp:106] Creating Layer relu2
I0825 14:12:08.377444 16488 net.cpp:454] relu2 <- conv2
I0825 14:12:08.377449 16488 net.cpp:397] relu2 -> conv2 (in-place)
I0825 14:12:08.377948 16488 net.cpp:150] Setting up relu2
I0825 14:12:08.377961 16488 net.cpp:157] Top shape: 1 256 73 123 (2298624)
I0825 14:12:08.377964 16488 net.cpp:165] Memory required for data: 224128980
I0825 14:12:08.377967 16488 layer_factory.hpp:77] Creating layer norm2
I0825 14:12:08.377976 16488 net.cpp:106] Creating Layer norm2
I0825 14:12:08.377980 16488 net.cpp:454] norm2 <- conv2
I0825 14:12:08.377985 16488 net.cpp:411] norm2 -> norm2
I0825 14:12:08.378232 16488 net.cpp:150] Setting up norm2
I0825 14:12:08.378243 16488 net.cpp:157] Top shape: 1 256 73 123 (2298624)
I0825 14:12:08.378245 16488 net.cpp:165] Memory required for data: 233323476
I0825 14:12:08.378248 16488 layer_factory.hpp:77] Creating layer pool2
I0825 14:12:08.378257 16488 net.cpp:106] Creating Layer pool2
I0825 14:12:08.378259 16488 net.cpp:454] pool2 <- norm2
I0825 14:12:08.378264 16488 net.cpp:411] pool2 -> pool2
I0825 14:12:08.378325 16488 net.cpp:150] Setting up pool2
I0825 14:12:08.378334 16488 net.cpp:157] Top shape: 1 256 36 61 (562176)
I0825 14:12:08.378335 16488 net.cpp:165] Memory required for data: 235572180
I0825 14:12:08.378339 16488 layer_factory.hpp:77] Creating layer conv3
I0825 14:12:08.378347 16488 net.cpp:106] Creating Layer conv3
I0825 14:12:08.378352 16488 net.cpp:454] conv3 <- pool2
I0825 14:12:08.378360 16488 net.cpp:411] conv3 -> conv3
I0825 14:12:08.390466 16488 net.cpp:150] Setting up conv3
I0825 14:12:08.390481 16488 net.cpp:157] Top shape: 1 512 36 61 (1124352)
I0825 14:12:08.390485 16488 net.cpp:165] Memory required for data: 240069588
I0825 14:12:08.390496 16488 layer_factory.hpp:77] Creating layer relu3
I0825 14:12:08.390502 16488 net.cpp:106] Creating Layer relu3
I0825 14:12:08.390506 16488 net.cpp:454] relu3 <- conv3
I0825 14:12:08.390511 16488 net.cpp:397] relu3 -> conv3 (in-place)
I0825 14:12:08.390717 16488 net.cpp:150] Setting up relu3
I0825 14:12:08.390729 16488 net.cpp:157] Top shape: 1 512 36 61 (1124352)
I0825 14:12:08.390733 16488 net.cpp:165] Memory required for data: 244566996
I0825 14:12:08.390735 16488 layer_factory.hpp:77] Creating layer conv4
I0825 14:12:08.390744 16488 net.cpp:106] Creating Layer conv4
I0825 14:12:08.390748 16488 net.cpp:454] conv4 <- conv3
I0825 14:12:08.390753 16488 net.cpp:411] conv4 -> conv4
I0825 14:12:08.405604 16488 net.cpp:150] Setting up conv4
I0825 14:12:08.405625 16488 net.cpp:157] Top shape: 1 512 36 61 (1124352)
I0825 14:12:08.405628 16488 net.cpp:165] Memory required for data: 249064404
I0825 14:12:08.405635 16488 layer_factory.hpp:77] Creating layer relu4
I0825 14:12:08.405642 16488 net.cpp:106] Creating Layer relu4
I0825 14:12:08.405644 16488 net.cpp:454] relu4 <- conv4
I0825 14:12:08.405652 16488 net.cpp:397] relu4 -> conv4 (in-place)
I0825 14:12:08.406149 16488 net.cpp:150] Setting up relu4
I0825 14:12:08.406162 16488 net.cpp:157] Top shape: 1 512 36 61 (1124352)
I0825 14:12:08.406165 16488 net.cpp:165] Memory required for data: 253561812
I0825 14:12:08.406168 16488 layer_factory.hpp:77] Creating layer conv5
I0825 14:12:08.406182 16488 net.cpp:106] Creating Layer conv5
I0825 14:12:08.406185 16488 net.cpp:454] conv5 <- conv4
I0825 14:12:08.406193 16488 net.cpp:411] conv5 -> conv5
I0825 14:12:08.420832 16488 net.cpp:150] Setting up conv5
I0825 14:12:08.420850 16488 net.cpp:157] Top shape: 1 512 36 61 (1124352)
I0825 14:12:08.420853 16488 net.cpp:165] Memory required for data: 258059220
I0825 14:12:08.420866 16488 layer_factory.hpp:77] Creating layer relu5
I0825 14:12:08.420872 16488 net.cpp:106] Creating Layer relu5
I0825 14:12:08.420876 16488 net.cpp:454] relu5 <- conv5
I0825 14:12:08.420881 16488 net.cpp:397] relu5 -> conv5 (in-place)
I0825 14:12:08.421072 16488 net.cpp:150] Setting up relu5
I0825 14:12:08.421083 16488 net.cpp:157] Top shape: 1 512 36 61 (1124352)
I0825 14:12:08.421087 16488 net.cpp:165] Memory required for data: 262556628
I0825 14:12:08.421089 16488 layer_factory.hpp:77] Creating layer conv5_relu5_0_split
I0825 14:12:08.421097 16488 net.cpp:106] Creating Layer conv5_relu5_0_split
I0825 14:12:08.421100 16488 net.cpp:454] conv5_relu5_0_split <- conv5
I0825 14:12:08.421106 16488 net.cpp:411] conv5_relu5_0_split -> conv5_relu5_0_split_0
I0825 14:12:08.421113 16488 net.cpp:411] conv5_relu5_0_split -> conv5_relu5_0_split_1
I0825 14:12:08.421182 16488 net.cpp:150] Setting up conv5_relu5_0_split
I0825 14:12:08.421190 16488 net.cpp:157] Top shape: 1 512 36 61 (1124352)
I0825 14:12:08.421193 16488 net.cpp:157] Top shape: 1 512 36 61 (1124352)
I0825 14:12:08.421195 16488 net.cpp:165] Memory required for data: 271551444
I0825 14:12:08.421198 16488 layer_factory.hpp:77] Creating layer rpn_conv/3x3
I0825 14:12:08.421211 16488 net.cpp:106] Creating Layer rpn_conv/3x3
I0825 14:12:08.421216 16488 net.cpp:454] rpn_conv/3x3 <- conv5_relu5_0_split_0
I0825 14:12:08.421223 16488 net.cpp:411] rpn_conv/3x3 -> rpn/output
I0825 14:12:08.441484 16488 net.cpp:150] Setting up rpn_conv/3x3
I0825 14:12:08.441506 16488 net.cpp:157] Top shape: 1 256 36 61 (562176)
I0825 14:12:08.441509 16488 net.cpp:165] Memory required for data: 273800148
I0825 14:12:08.441516 16488 layer_factory.hpp:77] Creating layer rpn_relu/3x3
I0825 14:12:08.441525 16488 net.cpp:106] Creating Layer rpn_relu/3x3
I0825 14:12:08.441529 16488 net.cpp:454] rpn_relu/3x3 <- rpn/output
I0825 14:12:08.441537 16488 net.cpp:397] rpn_relu/3x3 -> rpn/output (in-place)
I0825 14:12:08.442028 16488 net.cpp:150] Setting up rpn_relu/3x3
I0825 14:12:08.442041 16488 net.cpp:157] Top shape: 1 256 36 61 (562176)
I0825 14:12:08.442044 16488 net.cpp:165] Memory required for data: 276048852
I0825 14:12:08.442046 16488 layer_factory.hpp:77] Creating layer rpn/output_rpn_relu/3x3_0_split
I0825 14:12:08.442054 16488 net.cpp:106] Creating Layer rpn/output_rpn_relu/3x3_0_split
I0825 14:12:08.442056 16488 net.cpp:454] rpn/output_rpn_relu/3x3_0_split <- rpn/output
I0825 14:12:08.442065 16488 net.cpp:411] rpn/output_rpn_relu/3x3_0_split -> rpn/output_rpn_relu/3x3_0_split_0
I0825 14:12:08.442073 16488 net.cpp:411] rpn/output_rpn_relu/3x3_0_split -> rpn/output_rpn_relu/3x3_0_split_1
I0825 14:12:08.442142 16488 net.cpp:150] Setting up rpn/output_rpn_relu/3x3_0_split
I0825 14:12:08.442152 16488 net.cpp:157] Top shape: 1 256 36 61 (562176)
I0825 14:12:08.442154 16488 net.cpp:157] Top shape: 1 256 36 61 (562176)
I0825 14:12:08.442157 16488 net.cpp:165] Memory required for data: 280546260
I0825 14:12:08.442159 16488 layer_factory.hpp:77] Creating layer rpn_cls_score
I0825 14:12:08.442170 16488 net.cpp:106] Creating Layer rpn_cls_score
I0825 14:12:08.442174 16488 net.cpp:454] rpn_cls_score <- rpn/output_rpn_relu/3x3_0_split_0
I0825 14:12:08.442181 16488 net.cpp:411] rpn_cls_score -> rpn_cls_score
I0825 14:12:08.443869 16488 net.cpp:150] Setting up rpn_cls_score
I0825 14:12:08.443883 16488 net.cpp:157] Top shape: 1 18 36 61 (39528)
I0825 14:12:08.443886 16488 net.cpp:165] Memory required for data: 280704372
I0825 14:12:08.443893 16488 layer_factory.hpp:77] Creating layer rpn_cls_score_rpn_cls_score_0_split
I0825 14:12:08.443902 16488 net.cpp:106] Creating Layer rpn_cls_score_rpn_cls_score_0_split
I0825 14:12:08.443905 16488 net.cpp:454] rpn_cls_score_rpn_cls_score_0_split <- rpn_cls_score
I0825 14:12:08.443910 16488 net.cpp:411] rpn_cls_score_rpn_cls_score_0_split -> rpn_cls_score_rpn_cls_score_0_split_0
I0825 14:12:08.443919 16488 net.cpp:411] rpn_cls_score_rpn_cls_score_0_split -> rpn_cls_score_rpn_cls_score_0_split_1
I0825 14:12:08.443984 16488 net.cpp:150] Setting up rpn_cls_score_rpn_cls_score_0_split
I0825 14:12:08.443992 16488 net.cpp:157] Top shape: 1 18 36 61 (39528)
I0825 14:12:08.443996 16488 net.cpp:157] Top shape: 1 18 36 61 (39528)
I0825 14:12:08.443999 16488 net.cpp:165] Memory required for data: 281020596
I0825 14:12:08.444001 16488 layer_factory.hpp:77] Creating layer rpn_bbox_pred
I0825 14:12:08.444015 16488 net.cpp:106] Creating Layer rpn_bbox_pred
I0825 14:12:08.444020 16488 net.cpp:454] rpn_bbox_pred <- rpn/output_rpn_relu/3x3_0_split_1
I0825 14:12:08.444025 16488 net.cpp:411] rpn_bbox_pred -> rpn_bbox_pred
I0825 14:12:08.446287 16488 net.cpp:150] Setting up rpn_bbox_pred
I0825 14:12:08.446321 16488 net.cpp:157] Top shape: 1 36 36 61 (79056)
I0825 14:12:08.446324 16488 net.cpp:165] Memory required for data: 281336820
I0825 14:12:08.446336 16488 layer_factory.hpp:77] Creating layer rpn_bbox_pred_rpn_bbox_pred_0_split
I0825 14:12:08.446346 16488 net.cpp:106] Creating Layer rpn_bbox_pred_rpn_bbox_pred_0_split
I0825 14:12:08.446352 16488 net.cpp:454] rpn_bbox_pred_rpn_bbox_pred_0_split <- rpn_bbox_pred
I0825 14:12:08.446362 16488 net.cpp:411] rpn_bbox_pred_rpn_bbox_pred_0_split -> rpn_bbox_pred_rpn_bbox_pred_0_split_0
I0825 14:12:08.446373 16488 net.cpp:411] rpn_bbox_pred_rpn_bbox_pred_0_split -> rpn_bbox_pred_rpn_bbox_pred_0_split_1
I0825 14:12:08.446446 16488 net.cpp:150] Setting up rpn_bbox_pred_rpn_bbox_pred_0_split
I0825 14:12:08.446455 16488 net.cpp:157] Top shape: 1 36 36 61 (79056)
I0825 14:12:08.446460 16488 net.cpp:157] Top shape: 1 36 36 61 (79056)
I0825 14:12:08.446462 16488 net.cpp:165] Memory required for data: 281969268
I0825 14:12:08.446465 16488 layer_factory.hpp:77] Creating layer rpn_cls_score_reshape
I0825 14:12:08.446476 16488 net.cpp:106] Creating Layer rpn_cls_score_reshape
I0825 14:12:08.446483 16488 net.cpp:454] rpn_cls_score_reshape <- rpn_cls_score_rpn_cls_score_0_split_0
I0825 14:12:08.446491 16488 net.cpp:411] rpn_cls_score_reshape -> rpn_cls_score_reshape
I0825 14:12:08.446537 16488 net.cpp:150] Setting up rpn_cls_score_reshape
I0825 14:12:08.446545 16488 net.cpp:157] Top shape: 1 2 324 61 (39528)
I0825 14:12:08.446548 16488 net.cpp:165] Memory required for data: 282127380
I0825 14:12:08.446552 16488 layer_factory.hpp:77] Creating layer rpn_cls_score_reshape_rpn_cls_score_reshape_0_split
I0825 14:12:08.446559 16488 net.cpp:106] Creating Layer rpn_cls_score_reshape_rpn_cls_score_reshape_0_split
I0825 14:12:08.446563 16488 net.cpp:454] rpn_cls_score_reshape_rpn_cls_score_reshape_0_split <- rpn_cls_score_reshape
I0825 14:12:08.446571 16488 net.cpp:411] rpn_cls_score_reshape_rpn_cls_score_reshape_0_split -> rpn_cls_score_reshape_rpn_cls_score_reshape_0_split_0
I0825 14:12:08.446579 16488 net.cpp:411] rpn_cls_score_reshape_rpn_cls_score_reshape_0_split -> rpn_cls_score_reshape_rpn_cls_score_reshape_0_split_1
I0825 14:12:08.446643 16488 net.cpp:150] Setting up rpn_cls_score_reshape_rpn_cls_score_reshape_0_split
I0825 14:12:08.446650 16488 net.cpp:157] Top shape: 1 2 324 61 (39528)
I0825 14:12:08.446655 16488 net.cpp:157] Top shape: 1 2 324 61 (39528)
I0825 14:12:08.446657 16488 net.cpp:165] Memory required for data: 282443604
I0825 14:12:08.446660 16488 layer_factory.hpp:77] Creating layer rpn-data
I0825 14:12:08.447399 16488 net.cpp:106] Creating Layer rpn-data
I0825 14:12:08.447423 16488 net.cpp:454] rpn-data <- rpn_cls_score_rpn_cls_score_0_split_1
I0825 14:12:08.447437 16488 net.cpp:454] rpn-data <- gt_boxes_input-data_2_split_0
I0825 14:12:08.447445 16488 net.cpp:454] rpn-data <- im_info_input-data_1_split_0
I0825 14:12:08.447454 16488 net.cpp:454] rpn-data <- data_input-data_0_split_1
I0825 14:12:08.447468 16488 net.cpp:411] rpn-data -> rpn_labels
I0825 14:12:08.447499 16488 net.cpp:411] rpn-data -> rpn_bbox_targets
I0825 14:12:08.447520 16488 net.cpp:411] rpn-data -> rpn_bbox_inside_weights
I0825 14:12:08.447538 16488 net.cpp:411] rpn-data -> rpn_bbox_outside_weights
I0825 14:12:08.451741 16488 net.cpp:150] Setting up rpn-data
I0825 14:12:08.451773 16488 net.cpp:157] Top shape: 1 1 324 61 (19764)
I0825 14:12:08.451786 16488 net.cpp:157] Top shape: 1 36 36 61 (79056)
I0825 14:12:08.451794 16488 net.cpp:157] Top shape: 1 36 36 61 (79056)
I0825 14:12:08.451804 16488 net.cpp:157] Top shape: 1 36 36 61 (79056)
I0825 14:12:08.451809 16488 net.cpp:165] Memory required for data: 283471332
I0825 14:12:08.451817 16488 layer_factory.hpp:77] Creating layer rpn_loss_cls
I0825 14:12:08.451833 16488 net.cpp:106] Creating Layer rpn_loss_cls
I0825 14:12:08.451843 16488 net.cpp:454] rpn_loss_cls <- rpn_cls_score_reshape_rpn_cls_score_reshape_0_split_0
I0825 14:12:08.451853 16488 net.cpp:454] rpn_loss_cls <- rpn_labels
…
I0825 14:12:08.454701 16488 net.cpp:157] Top shape: (1)
I0825 14:12:08.454710 16488 net.cpp:160]     with loss weight 1
I0825 14:12:08.454721 16488 net.cpp:165] Memory required for data: 283471340
I0825 14:12:08.454727 16488 layer_factory.hpp:77] Creating layer rpn_cls_prob
I0825 14:12:08.454741 16488 net.cpp:106] Creating Layer rpn_cls_prob
I0825 14:12:08.454751 16488 net.cpp:454] rpn_cls_prob <- rpn_cls_score_reshape_rpn_cls_score_reshape_0_split_1
I0825 14:12:08.454764 16488 net.cpp:411] rpn_cls_prob -> rpn_cls_prob
I0825 14:12:08.455513 16488 net.cpp:150] Setting up rpn_cls_prob
I0825 14:12:08.455543 16488 net.cpp:157] Top shape: 1 2 324 61 (39528)
I0825 14:12:08.455549 16488 net.cpp:165] Memory required for data: 283629452
I0825 14:12:08.455556 16488 layer_factory.hpp:77] Creating layer rpn_cls_prob_reshape
I0825 14:12:08.455590 16488 net.cpp:106] Creating Layer rpn_cls_prob_reshape
I0825 14:12:08.455601 16488 net.cpp:454] rpn_cls_prob_reshape <- rpn_cls_prob
I0825 14:12:08.455615 16488 net.cpp:411] rpn_cls_prob_reshape -> rpn_cls_prob_reshape
I0825 14:12:08.455704 16488 net.cpp:150] Setting up rpn_cls_prob_reshape
I0825 14:12:08.455721 16488 net.cpp:157] Top shape: 1 18 36 61 (39528)
I0825 14:12:08.455729 16488 net.cpp:165] Memory required for data: 283787564
I0825 14:12:08.455734 16488 layer_factory.hpp:77] Creating layer proposal
I0825 14:12:08.474805 16488 net.cpp:106] Creating Layer proposal
I0825 14:12:08.474848 16488 net.cpp:454] proposal <- rpn_cls_prob_reshape
I0825 14:12:08.474865 16488 net.cpp:454] proposal <- rpn_bbox_pred_rpn_bbox_pred_0_split_1
I0825 14:12:08.474874 16488 net.cpp:454] proposal <- im_info_input-data_1_split_1
I0825 14:12:08.474892 16488 net.cpp:411] proposal -> rpn_rois
I0825 14:12:08.481622 16488 net.cpp:150] Setting up proposal
I0825 14:12:08.481638 16488 net.cpp:157] Top shape: 1 5 (5)
I0825 14:12:08.481642 16488 net.cpp:165] Memory required for data: 283787584
I0825 14:12:08.481647 16488 layer_factory.hpp:77] Creating layer roi-data
I0825 14:12:08.481902 16488 net.cpp:106] Creating Layer roi-data
I0825 14:12:08.481914 16488 net.cpp:454] roi-data <- rpn_rois
I0825 14:12:08.481920 16488 net.cpp:454] roi-data <- gt_boxes_input-data_2_split_1
I0825 14:12:08.481927 16488 net.cpp:411] roi-data -> rois
I0825 14:12:08.481935 16488 net.cpp:411] roi-data -> labels
I0825 14:12:08.481947 16488 net.cpp:411] roi-data -> bbox_targets
I0825 14:12:08.481955 16488 net.cpp:411] roi-data -> bbox_inside_weights
I0825 14:12:08.481964 16488 net.cpp:411] roi-data -> bbox_outside_weights
I0825 14:12:08.481971 16488 net.cpp:411] roi-data -> key_targets
I0825 14:12:08.481978 16488 net.cpp:411] roi-data -> key_inside_weights
I0825 14:12:08.482604 16488 net.cpp:150] Setting up roi-data
I0825 14:12:08.482616 16488 net.cpp:157] Top shape: 1 5 (5)
I0825 14:12:08.482620 16488 net.cpp:157] Top shape: 1 1 (1)
I0825 14:12:08.482622 16488 net.cpp:157] Top shape: 1 84 (84)
I0825 14:12:08.482625 16488 net.cpp:157] Top shape: 1 84 (84)
I0825 14:12:08.482628 16488 net.cpp:157] Top shape: 1 84 (84)
I0825 14:12:08.482631 16488 net.cpp:157] Top shape: 1 84 (84)
I0825 14:12:08.482635 16488 net.cpp:157] Top shape: 1 84 (84)
I0825 14:12:08.482636 16488 net.cpp:165] Memory required for data: 283789288
I0825 14:12:08.482640 16488 layer_factory.hpp:77] Creating layer bbox_outside_weights_roi-data_4_split
I0825 14:12:08.482647 16488 net.cpp:106] Creating Layer bbox_outside_weights_roi-data_4_split
I0825 14:12:08.482650 16488 net.cpp:454] bbox_outside_weights_roi-data_4_split <- bbox_outside_weights
I0825 14:12:08.482657 16488 net.cpp:411] bbox_outside_weights_roi-data_4_split -> bbox_outside_weights_roi-data_4_split_0
I0825 14:12:08.482666 16488 net.cpp:411] bbox_outside_weights_roi-data_4_split -> bbox_outside_weights_roi-data_4_split_1
I0825 14:12:08.482738 16488 net.cpp:150] Setting up bbox_outside_weights_roi-data_4_split
I0825 14:12:08.482750 16488 net.cpp:157] Top shape: 1 84 (84)
I0825 14:12:08.482753 16488 net.cpp:157] Top shape: 1 84 (84)
I0825 14:12:08.482756 16488 net.cpp:165] Memory required for data: 283789960
I0825 14:12:08.482758 16488 layer_factory.hpp:77] Creating layer roi_pool5
I0825 14:12:08.482767 16488 net.cpp:106] Creating Layer roi_pool5
I0825 14:12:08.482771 16488 net.cpp:454] roi_pool5 <- conv5_relu5_0_split_1
I0825 14:12:08.482776 16488 net.cpp:454] roi_pool5 <- rois
I0825 14:12:08.482782 16488 net.cpp:411] roi_pool5 -> pool5
I0825 14:12:08.482789 16488 roi_pooling_layer.cpp:30] Spatial scale: 0.0625
I0825 14:12:08.482859 16488 net.cpp:150] Setting up roi_pool5
I0825 14:12:08.482867 16488 net.cpp:157] Top shape: 1 512 6 6 (18432)
I0825 14:12:08.482870 16488 net.cpp:165] Memory required for data: 283863688
I0825 14:12:08.482873 16488 layer_factory.hpp:77] Creating layer fc6
I0825 14:12:08.482882 16488 net.cpp:106] Creating Layer fc6
I0825 14:12:08.482884 16488 net.cpp:454] fc6 <- pool5
I0825 14:12:08.482892 16488 net.cpp:411] fc6 -> fc6
I0825 14:12:08.911206 16488 net.cpp:150] Setting up fc6
I0825 14:12:08.911254 16488 net.cpp:157] Top shape: 1 4096 (4096)
I0825 14:12:08.911257 16488 net.cpp:165] Memory required for data: 283880072
I0825 14:12:08.911276 16488 layer_factory.hpp:77] Creating layer relu6
I0825 14:12:08.911288 16488 net.cpp:106] Creating Layer relu6
I0825 14:12:08.911293 16488 net.cpp:454] relu6 <- fc6
I0825 14:12:08.911300 16488 net.cpp:397] relu6 -> fc6 (in-place)
I0825 14:12:08.911989 16488 net.cpp:150] Setting up relu6
I0825 14:12:08.912001 16488 net.cpp:157] Top shape: 1 4096 (4096)
I0825 14:12:08.912004 16488 net.cpp:165] Memory required for data: 283896456
I0825 14:12:08.912006 16488 layer_factory.hpp:77] Creating layer drop6
I0825 14:12:08.912014 16488 net.cpp:106] Creating Layer drop6
I0825 14:12:08.912017 16488 net.cpp:454] drop6 <- fc6
I0825 14:12:08.912024 16488 net.cpp:397] drop6 -> fc6 (in-place)
I0825 14:12:08.912066 16488 net.cpp:150] Setting up drop6
I0825 14:12:08.912072 16488 net.cpp:157] Top shape: 1 4096 (4096)
I0825 14:12:08.912075 16488 net.cpp:165] Memory required for data: 283912840
I0825 14:12:08.912077 16488 layer_factory.hpp:77] Creating layer fc7
I0825 14:12:08.912084 16488 net.cpp:106] Creating Layer fc7
I0825 14:12:08.912087 16488 net.cpp:454] fc7 <- fc6
I0825 14:12:08.912093 16488 net.cpp:411] fc7 -> fc7
I0825 14:12:08.944278 16488 net.cpp:150] Setting up fc7
I0825 14:12:08.944332 16488 net.cpp:157] Top shape: 1 1024 (1024)
I0825 14:12:08.944339 16488 net.cpp:165] Memory required for data: 283916936
I0825 14:12:08.944356 16488 layer_factory.hpp:77] Creating layer relu7
I0825 14:12:08.944376 16488 net.cpp:106] Creating Layer relu7
I0825 14:12:08.944383 16488 net.cpp:454] relu7 <- fc7
I0825 14:12:08.944396 16488 net.cpp:397] relu7 -> fc7 (in-place)
I0825 14:12:08.944876 16488 net.cpp:150] Setting up relu7
I0825 14:12:08.944896 16488 net.cpp:157] Top shape: 1 1024 (1024)
I0825 14:12:08.944901 16488 net.cpp:165] Memory required for data: 283921032
I0825 14:12:08.944906 16488 layer_factory.hpp:77] Creating layer drop7
I0825 14:12:08.944919 16488 net.cpp:106] Creating Layer drop7
I0825 14:12:08.944926 16488 net.cpp:454] drop7 <- fc7
I0825 14:12:08.944936 16488 net.cpp:397] drop7 -> fc7 (in-place)
I0825 14:12:08.945013 16488 net.cpp:150] Setting up drop7
I0825 14:12:08.945025 16488 net.cpp:157] Top shape: 1 1024 (1024)
I0825 14:12:08.945030 16488 net.cpp:165] Memory required for data: 283925128
I0825 14:12:08.945035 16488 layer_factory.hpp:77] Creating layer fc7_drop7_0_split
I0825 14:12:08.945047 16488 net.cpp:106] Creating Layer fc7_drop7_0_split
I0825 14:12:08.945055 16488 net.cpp:454] fc7_drop7_0_split <- fc7
I0825 14:12:08.945065 16488 net.cpp:411] fc7_drop7_0_split -> fc7_drop7_0_split_0
I0825 14:12:08.945082 16488 net.cpp:411] fc7_drop7_0_split -> fc7_drop7_0_split_1
I0825 14:12:08.945097 16488 net.cpp:411] fc7_drop7_0_split -> fc7_drop7_0_split_2
I0825 14:12:08.945256 16488 net.cpp:150] Setting up fc7_drop7_0_split
I0825 14:12:08.945268 16488 net.cpp:157] Top shape: 1 1024 (1024)
I0825 14:12:08.945274 16488 net.cpp:157] Top shape: 1 1024 (1024)
I0825 14:12:08.945281 16488 net.cpp:157] Top shape: 1 1024 (1024)
I0825 14:12:08.945284 16488 net.cpp:165] Memory required for data: 283937416
I0825 14:12:08.945289 16488 layer_factory.hpp:77] Creating layer cls_score
I0825 14:12:08.945304 16488 net.cpp:106] Creating Layer cls_score
I0825 14:12:08.945312 16488 net.cpp:454] cls_score <- fc7_drop7_0_split_0
I0825 14:12:08.945324 16488 net.cpp:411] cls_score -> cls_score
I0825 14:12:08.946166 16488 net.cpp:150] Setting up cls_score
I0825 14:12:08.946182 16488 net.cpp:157] Top shape: 1 21 (21)
I0825 14:12:08.946190 16488 net.cpp:165] Memory required for data: 283937500
I0825 14:12:08.946208 16488 layer_factory.hpp:77] Creating layer bbox_pred
I0825 14:12:08.946223 16488 net.cpp:106] Creating Layer bbox_pred
I0825 14:12:08.946230 16488 net.cpp:454] bbox_pred <- fc7_drop7_0_split_1
I0825 14:12:08.946243 16488 net.cpp:411] bbox_pred -> bbox_pred
I0825 14:12:08.951045 16488 net.cpp:150] Setting up bbox_pred
I0825 14:12:08.951068 16488 net.cpp:157] Top shape: 1 84 (84)
I0825 14:12:08.951076 16488 net.cpp:165] Memory required for data: 283937836
I0825 14:12:08.951088 16488 layer_factory.hpp:77] Creating layer key_pred
I0825 14:12:08.951107 16488 net.cpp:106] Creating Layer key_pred
I0825 14:12:08.951114 16488 net.cpp:454] key_pred <- fc7_drop7_0_split_2
I0825 14:12:08.951128 16488 net.cpp:411] key_pred -> key_pred
I0825 14:12:08.953155 16488 net.cpp:150] Setting up key_pred
I0825 14:12:08.953171 16488 net.cpp:157] Top shape: 1 84 (84)
I0825 14:12:08.953174 16488 net.cpp:165] Memory required for data: 283938172
I0825 14:12:08.953183 16488 layer_factory.hpp:77] Creating layer loss_cls
I0825 14:12:08.953197 16488 net.cpp:106] Creating Layer loss_cls
I0825 14:12:08.953204 16488 net.cpp:454] loss_cls <- cls_score
I0825 14:12:08.953212 16488 net.cpp:454] loss_cls <- labels
I0825 14:12:08.953222 16488 net.cpp:411] loss_cls -> loss_cls
…
           'RPN_POST_NMS_TOP_N': 2000,
           'RPN_PRE_NMS_TOP_N': 12000,
           'SCALES': [600],
           'SNAPSHOT_INFIX': '',
           'SNAPSHOT_ITERS': 10000,
           'USE_FLIPPED': True,
           'USE_PREFETCH': False},
 'USE_GPU_NMS': True}
WARNING: Logging before InitGoogleLogging() is written to STDERR
I0825 15:59:08.464416 19645 net.cpp:49] Initializing net from parameters: 
name: "VGG_CNN_M_1024"
input: "data"
input: "im_info"
state {
  phase: TEST
}
input_shape {
  dim: 1
  dim: 3
  dim: 224
  dim: 224
}
input_shape {
  dim: 1
  dim: 3
}
layer {
  name: "conv1"
  type: "Convolution"
  bottom: "data"
  top: "conv1"
  param {
    lr_mult: 0
    decay_mult: 0
  }
  param {
    lr_mult: 0
    decay_mult: 0
  }
  convolution_param {
    num_output: 96
    kernel_size: 7
    stride: 2
  }
}
layer {
  name: "relu1"
  type: "ReLU"
  bottom: "conv1"
  top: "conv1"
}
layer {
  name: "norm1"
  type: "LRN"
  bottom: "conv1"
  top: "norm1"
  lrn_param {
    local_size: 5
    alpha: 0.0005
    beta: 0.75
    k: 2
  }
}
layer {
  name: "pool1"
  type: "Pooling"
  bottom: "norm1"
  top: "pool1"
  pooling_param {
    pool: MAX
    kernel_size: 3
    stride: 2
  }
}
layer {
  name: "conv2"
  type: "Convolution"
  bottom: "pool1"
  top: "conv2"
  param {
    lr_mult: 1
    decay_mult: 1
  }
  param {
    lr_mult: 2
    decay_mult: 0
  }
  convolution_param {
    num_output: 256
    pad: 1
    kernel_size: 5
    stride: 2
  }
}
layer {
  name: "relu2"
  type: "ReLU"
  bottom: "conv2"
  top: "conv2"
}
layer {
  name: "norm2"
  type: "LRN"
  bottom: "conv2"
  top: "norm2"
  lrn_param {
    local_size: 5
    alpha: 0.0005
    beta: 0.75
    k: 2
  }
}
layer {
  name: "pool2"
  type: "Pooling"
  bottom: "norm2"
  top: "pool2"
  pooling_param {
    pool: MAX
    kernel_size: 3
    stride: 2
  }
}
layer {
  name: "conv3"
  type: "Convolution"
  bottom: "pool2"
  top: "conv3"
  param {
    lr_mult: 1
    decay_mult: 1
  }
  param {
    lr_mult: 2
    decay_mult: 0
  }
  convolution_param {
    num_output: 512
    pad: 1
    kernel_size: 3
  }
}
layer {
  name: "relu3"
  type: "ReLU"
  bottom: "conv3"
  top: "conv3"
}
layer {
  name: "conv4"
  type: "Convolution"
  bottom: "conv3"
  top: "conv4"
  param {
    lr_mult: 1
    decay_mult: 1
  }
  param {
    lr_mult: 2
    decay_mult: 0
  }
  convolution_param {
    num_output: 512
    pad: 1
    kernel_size: 3
  }
}
layer {
  name: "relu4"
  type: "ReLU"
  bottom: "conv4"
  top: "conv4"
}
layer {
  name: "conv5"
  type: "Convolution"
  bottom: "conv4"
  top: "conv5"
  param {
    lr_mult: 1
    decay_mult: 1
  }
  param {
    lr_mult: 2
    decay_mult: 0
  }
  convolution_param {
    num_output: 512
    pad: 1
    kernel_size: 3
  }
}
layer {
  name: "relu5"
  type: "ReLU"
  bottom: "conv5"
  top: "conv5"
}
layer {
  name: "rpn_conv/3x3"
  type: "Convolution"
  bottom: "conv5"
  top: "rpn/output"
  param {
    lr_mult: 1
    decay_mult: 1
  }
  param {
    lr_mult: 2
    decay_mult: 0
  }
  convolution_param {
    num_output: 256
    pad: 1
    kernel_size: 3
    stride: 1
    weight_filler {
      type: "gaussian"
      std: 0.01
    }
    bias_filler {
      type: "constant"
      value: 0
    }
  }
}
layer {
  name: "rpn_relu/3x3"
  type: "ReLU"
  bottom: "rpn/output"
  top: "rpn/output"
}
layer {
  name: "rpn_cls_score"
  type: "Convolution"
  bottom: "rpn/output"
  top: "rpn_cls_score"
  param {
    lr_mult: 1
    decay_mult: 1
  }
  param {
    lr_mult: 2
    decay_mult: 0
  }
  convolution_param {
    num_output: 18
    pad: 0
    kernel_size: 1
    stride: 1
    weight_filler {
      type: "gaussian"
      std: 0.01
    }
    bias_filler {
      type: "constant"
      value: 0
    }
  }
}
layer {
  name: "rpn_bbox_pred"
  type: "Convolution"
  bottom: "rpn/output"
  top: "rpn_bbox_pred"
  param {
    lr_mult: 1
    decay_mult: 1
  }
  param {
    lr_mult: 2
    decay_mult: 0
  }
  convolution_param {
    num_output: 36
    pad: 0
    kernel_size: 1
    stride: 1
    weight_filler {
      type: "gaussian"
      std: 0.01
    }
    bias_filler {
      type: "constant"
      value: 0
    }
  }
}
layer {
  name: "rpn_cls_score_reshape"
  type: "Reshape"
  bottom: "rpn_cls_score"
  top: "rpn_cls_score_reshape"
  reshape_param {
    shape {
      dim: 0
      dim: 2
      dim: -1
      dim: 0
    }
  }
}
layer {
  name: "rpn_cls_prob"
  type: "Softmax"
  bottom: "rpn_cls_score_reshape"
  top: "rpn_cls_prob"
}
layer {
  name: "rpn_cls_prob_reshape"
  type: "Reshape"
  bottom: "rpn_cls_prob"
  top: "rpn_cls_prob_reshape"
  reshape_param {
    shape {
      dim: 0
      dim: 18
      dim: -1
      dim: 0
    }
  }
}
layer {
  name: "proposal"
  type: "Python"
  bottom: "rpn_cls_prob_reshape"
  bottom: "rpn_bbox_pred"
  bottom: "im_info"
  top: "rois"
  python_param {
    module: "rpn.proposal_layer"
    layer: "ProposalLayer"
    param_str: "\'feat_stride\': 16"
  }
}
layer {
  name: "roi_pool5"
  type: "ROIPooling"
  bottom: "conv5"
  bottom: "rois"
  top: "pool5"
  roi_pooling_param {
    pooled_h: 6
    pooled_w: 6
    spatial_scale: 0.0625
  }
}
layer {
  name: "fc6"
  type: "InnerProduct"
  bottom: "pool5"
  top: "fc6"
  param {
    lr_mult: 1
    decay_mult: 1
  }
  param {
    lr_mult: 2
    decay_mult: 0
  }
  inner_product_param {
    num_output: 4096
  }
}
layer {
  name: "relu6"
  type: "ReLU"
  bottom: "fc6"
  top: "fc6"
}
layer {
  name: "drop6"
  type: "Dropout"
  bottom: "fc6"
  top: "fc6"
  dropout_param {
    dropout_ratio: 0.5
  }
}
layer {
  name: "fc7"
  type: "InnerProduct"
  bottom: "fc6"
  top: "fc7"
  param {
    lr_mult: 1
    decay_mult: 1
  }
  param {
    lr_mult: 2
    decay_mult: 0
  }
  inner_product_param {
    num_output: 1024
  }
}
layer {
  name: "relu7"
  type: "ReLU"
  bottom: "fc7"
  top: "fc7"
}
layer {
  name: "drop7"
  type: "Dropout"
  bottom: "fc7"
  top: "fc7"
  dropout_param {
    dropout_ratio: 0.5
  }
}
layer {
  name: "cls_score"
  type: "InnerProduct"
  bottom: "fc7"
  top: "cls_score"
  param {
    lr_mult: 1
    decay_mult: 1
  }
  param {
    lr_mult: 2
    decay_mult: 0
  }
  inner_product_param {
    num_output: 21
    weight_filler {
      type: "gaussian"
      std: 0.01
    }
    bias_filler {
      type: "constant"
      value: 0
    }
  }
}
layer {
  name: "bbox_pred"
  type: "InnerProduct"
  bottom: "fc7"
  top: "bbox_pred"
  param {
    lr_mult: 1
    decay_mult: 1
  }
  param {
    lr_mult: 2
    decay_mult: 0
  }
  inner_product_param {
    num_output: 84
    weight_filler {
      type: "gaussian"
      std: 0.001
    }
    bias_filler {
      type: "constant"
      value: 0
    }
  }
}
layer {
  name: "key_pred"
  type: "InnerProduct"
  bottom: "fc7"
  top: "key_pred"
  param {
    lr_mult: 1
  }
  param {
    lr_mult: 2
  }
  inner_product_param {
    num_output: 84
    weight_filler {
      type: "gaussian"
      std: 0.001
    }
    bias_filler {
      type: "constant"
      value: 0
    }
  }
}
layer {
  name: "cls_prob"
  type: "Softmax"
  bottom: "cls_score"
  top: "cls_prob"
}
I0825 15:59:08.464630 19645 net.cpp:413] Input 0 -> data
I0825 15:59:08.486033 19645 net.cpp:413] Input 1 -> im_info
I0825 15:59:08.486136 19645 layer_factory.hpp:77] Creating layer conv1
I0825 15:59:08.486161 19645 net.cpp:106] Creating Layer conv1
I0825 15:59:08.486167 19645 net.cpp:454] conv1 <- data
I0825 15:59:08.486176 19645 net.cpp:411] conv1 -> conv1
I0825 15:59:08.743894 19645 net.cpp:150] Setting up conv1
I0825 15:59:08.743942 19645 net.cpp:157] Top shape: 1 96 109 109 (1140576)
I0825 15:59:08.743945 19645 net.cpp:165] Memory required for data: 4562304
I0825 15:59:08.743964 19645 layer_factory.hpp:77] Creating layer relu1
I0825 15:59:08.743989 19645 net.cpp:106] Creating Layer relu1
I0825 15:59:08.743993 19645 net.cpp:454] relu1 <- conv1
I0825 15:59:08.743999 19645 net.cpp:397] relu1 -> conv1 (in-place)
I0825 15:59:08.744496 19645 net.cpp:150] Setting up relu1
I0825 15:59:08.744508 19645 net.cpp:157] Top shape: 1 96 109 109 (1140576)
I0825 15:59:08.744524 19645 net.cpp:165] Memory required for data: 9124608
I0825 15:59:08.744526 19645 layer_factory.hpp:77] Creating layer norm1
I0825 15:59:08.744536 19645 net.cpp:106] Creating Layer norm1
I0825 15:59:08.744539 19645 net.cpp:454] norm1 <- conv1
I0825 15:59:08.744544 19645 net.cpp:411] norm1 -> norm1
I0825 15:59:08.744772 19645 net.cpp:150] Setting up norm1
I0825 15:59:08.744783 19645 net.cpp:157] Top shape: 1 96 109 109 (1140576)
I0825 15:59:08.744786 19645 net.cpp:165] Memory required for data: 13686912
I0825 15:59:08.744789 19645 layer_factory.hpp:77] Creating layer pool1
I0825 15:59:08.744796 19645 net.cpp:106] Creating Layer pool1
I0825 15:59:08.744799 19645 net.cpp:454] pool1 <- norm1
I0825 15:59:08.744804 19645 net.cpp:411] pool1 -> pool1
I0825 15:59:08.744859 19645 net.cpp:150] Setting up pool1
I0825 15:59:08.744868 19645 net.cpp:157] Top shape: 1 96 54 54 (279936)
I0825 15:59:08.744870 19645 net.cpp:165] Memory required for data: 14806656
I0825 15:59:08.744874 19645 layer_factory.hpp:77] Creating layer conv2
I0825 15:59:08.744884 19645 net.cpp:106] Creating Layer conv2
I0825 15:59:08.744886 19645 net.cpp:454] conv2 <- pool1
I0825 15:59:08.744891 19645 net.cpp:411] conv2 -> conv2
I0825 15:59:08.751850 19645 net.cpp:150] Setting up conv2
I0825 15:59:08.751865 19645 net.cpp:157] Top shape: 1 256 26 26 (173056)
I0825 15:59:08.751880 19645 net.cpp:165] Memory required for data: 15498880
I0825 15:59:08.751890 19645 layer_factory.hpp:77] Creating layer relu2
I0825 15:59:08.751896 19645 net.cpp:106] Creating Layer relu2
I0825 15:59:08.751899 19645 net.cpp:454] relu2 <- conv2
I0825 15:59:08.751904 19645 net.cpp:397] relu2 -> conv2 (in-place)
I0825 15:59:08.752387 19645 net.cpp:150] Setting up relu2
I0825 15:59:08.752398 19645 net.cpp:157] Top shape: 1 256 26 26 (173056)
I0825 15:59:08.752413 19645 net.cpp:165] Memory required for data: 16191104
I0825 15:59:08.752416 19645 layer_factory.hpp:77] Creating layer norm2
I0825 15:59:08.752424 19645 net.cpp:106] Creating Layer norm2
I0825 15:59:08.752426 19645 net.cpp:454] norm2 <- conv2
I0825 15:59:08.752431 19645 net.cpp:411] norm2 -> norm2
I0825 15:59:08.752653 19645 net.cpp:150] Setting up norm2
I0825 15:59:08.752665 19645 net.cpp:157] Top shape: 1 256 26 26 (173056)
I0825 15:59:08.752666 19645 net.cpp:165] Memory required for data: 16883328
I0825 15:59:08.752670 19645 layer_factory.hpp:77] Creating layer pool2
I0825 15:59:08.752676 19645 net.cpp:106] Creating Layer pool2
I0825 15:59:08.752678 19645 net.cpp:454] pool2 <- norm2
I0825 15:59:08.752683 19645 net.cpp:411] pool2 -> pool2
I0825 15:59:08.752738 19645 net.cpp:150] Setting up pool2
I0825 15:59:08.752746 19645 net.cpp:157] Top shape: 1 256 13 13 (43264)
I0825 15:59:08.752748 19645 net.cpp:165] Memory required for data: 17056384
I0825 15:59:08.752751 19645 layer_factory.hpp:77] Creating layer conv3
I0825 15:59:08.752760 19645 net.cpp:106] Creating Layer conv3
I0825 15:59:08.752764 19645 net.cpp:454] conv3 <- pool2
I0825 15:59:08.752769 19645 net.cpp:411] conv3 -> conv3
I0825 15:59:08.760612 19645 net.cpp:150] Setting up conv3
I0825 15:59:08.760627 19645 net.cpp:157] Top shape: 1 512 13 13 (86528)
I0825 15:59:08.760642 19645 net.cpp:165] Memory required for data: 17402496
I0825 15:59:08.760650 19645 layer_factory.hpp:77] Creating layer relu3
I0825 15:59:08.760658 19645 net.cpp:106] Creating Layer relu3
I0825 15:59:08.760671 19645 net.cpp:454] relu3 <- conv3
I0825 15:59:08.760676 19645 net.cpp:397] relu3 -> conv3 (in-place)
I0825 15:59:08.760859 19645 net.cpp:150] Setting up relu3
I0825 15:59:08.760870 19645 net.cpp:157] Top shape: 1 512 13 13 (86528)
I0825 15:59:08.760874 19645 net.cpp:165] Memory required for data: 17748608
I0825 15:59:08.760876 19645 layer_factory.hpp:77] Creating layer conv4
I0825 15:59:08.760885 19645 net.cpp:106] Creating Layer conv4
I0825 15:59:08.760890 19645 net.cpp:454] conv4 <- conv3
I0825 15:59:08.760895 19645 net.cpp:411] conv4 -> conv4
I0825 15:59:08.774679 19645 net.cpp:150] Setting up conv4
I0825 15:59:08.774706 19645 net.cpp:157] Top shape: 1 512 13 13 (86528)
I0825 15:59:08.774709 19645 net.cpp:165] Memory required for data: 18094720
I0825 15:59:08.774716 19645 layer_factory.hpp:77] Creating layer relu4
I0825 15:59:08.774724 19645 net.cpp:106] Creating Layer relu4
I0825 15:59:08.774727 19645 net.cpp:454] relu4 <- conv4
I0825 15:59:08.774744 19645 net.cpp:397] relu4 -> conv4 (in-place)
I0825 15:59:08.775269 19645 net.cpp:150] Setting up relu4
I0825 15:59:08.775282 19645 net.cpp:157] Top shape: 1 512 13 13 (86528)
I0825 15:59:08.775296 19645 net.cpp:165] Memory required for data: 18440832
I0825 15:59:08.775300 19645 layer_factory.hpp:77] Creating layer conv5
I0825 15:59:08.775311 19645 net.cpp:106] Creating Layer conv5
I0825 15:59:08.775315 19645 net.cpp:454] conv5 <- conv4
I0825 15:59:08.775321 19645 net.cpp:411] conv5 -> conv5
I0825 15:59:08.789621 19645 net.cpp:150] Setting up conv5
I0825 15:59:08.789652 19645 net.cpp:157] Top shape: 1 512 13 13 (86528)
I0825 15:59:08.789656 19645 net.cpp:165] Memory required for data: 18786944
I0825 15:59:08.789670 19645 layer_factory.hpp:77] Creating layer relu5
I0825 15:59:08.789677 19645 net.cpp:106] Creating Layer relu5
I0825 15:59:08.789681 19645 net.cpp:454] relu5 <- conv5
I0825 15:59:08.789686 19645 net.cpp:397] relu5 -> conv5 (in-place)
I0825 15:59:08.789891 19645 net.cpp:150] Setting up relu5
I0825 15:59:08.789902 19645 net.cpp:157] Top shape: 1 512 13 13 (86528)
I0825 15:59:08.789906 19645 net.cpp:165] Memory required for data: 19133056
I0825 15:59:08.789908 19645 layer_factory.hpp:77] Creating layer conv5_relu5_0_split
I0825 15:59:08.789916 19645 net.cpp:106] Creating Layer conv5_relu5_0_split
I0825 15:59:08.789919 19645 net.cpp:454] conv5_relu5_0_split <- conv5
I0825 15:59:08.789926 19645 net.cpp:411] conv5_relu5_0_split -> conv5_relu5_0_split_0
I0825 15:59:08.789932 19645 net.cpp:411] conv5_relu5_0_split -> conv5_relu5_0_split_1
I0825 15:59:08.790000 19645 net.cpp:150] Setting up conv5_relu5_0_split
I0825 15:59:08.790009 19645 net.cpp:157] Top shape: 1 512 13 13 (86528)
I0825 15:59:08.790014 19645 net.cpp:157] Top shape: 1 512 13 13 (86528)
I0825 15:59:08.790015 19645 net.cpp:165] Memory required for data: 19825280
I0825 15:59:08.790019 19645 layer_factory.hpp:77] Creating layer rpn_conv/3x3
I0825 15:59:08.790031 19645 net.cpp:106] Creating Layer rpn_conv/3x3
I0825 15:59:08.790036 19645 net.cpp:454] rpn_conv/3x3 <- conv5_relu5_0_split_0
I0825 15:59:08.790042 19645 net.cpp:411] rpn_conv/3x3 -> rpn/output
I0825 15:59:08.811259 19645 net.cpp:150] Setting up rpn_conv/3x3
I0825 15:59:08.811300 19645 net.cpp:157] Top shape: 1 256 13 13 (43264)
I0825 15:59:08.811305 19645 net.cpp:165] Memory required for data: 19998336
I0825 15:59:08.811314 19645 layer_factory.hpp:77] Creating layer rpn_relu/3x3
I0825 15:59:08.811331 19645 net.cpp:106] Creating Layer rpn_relu/3x3
I0825 15:59:08.811336 19645 net.cpp:454] rpn_relu/3x3 <- rpn/output
I0825 15:59:08.811349 19645 net.cpp:397] rpn_relu/3x3 -> rpn/output (in-place)
I0825 15:59:08.811844 19645 net.cpp:150] Setting up rpn_relu/3x3
I0825 15:59:08.811857 19645 net.cpp:157] Top shape: 1 256 13 13 (43264)
I0825 15:59:08.811861 19645 net.cpp:165] Memory required for data: 20171392
I0825 15:59:08.811863 19645 layer_factory.hpp:77] Creating layer rpn/output_rpn_relu/3x3_0_split
I0825 15:59:08.811872 19645 net.cpp:106] Creating Layer rpn/output_rpn_relu/3x3_0_split
I0825 15:59:08.811874 19645 net.cpp:454] rpn/output_rpn_relu/3x3_0_split <- rpn/output
I0825 15:59:08.811880 19645 net.cpp:411] rpn/output_rpn_relu/3x3_0_split -> rpn/output_rpn_relu/3x3_0_split_0
I0825 15:59:08.811887 19645 net.cpp:411] rpn/output_rpn_relu/3x3_0_split -> rpn/output_rpn_relu/3x3_0_split_1
I0825 15:59:08.811962 19645 net.cpp:150] Setting up rpn/output_rpn_relu/3x3_0_split
I0825 15:59:08.811970 19645 net.cpp:157] Top shape: 1 256 13 13 (43264)
I0825 15:59:08.811974 19645 net.cpp:157] Top shape: 1 256 13 13 (43264)
I0825 15:59:08.811976 19645 net.cpp:165] Memory required for data: 20517504
I0825 15:59:08.811980 19645 layer_factory.hpp:77] Creating layer rpn_cls_score
I0825 15:59:08.811995 19645 net.cpp:106] Creating Layer rpn_cls_score
I0825 15:59:08.812000 19645 net.cpp:454] rpn_cls_score <- rpn/output_rpn_relu/3x3_0_split_0
I0825 15:59:08.812005 19645 net.cpp:411] rpn_cls_score -> rpn_cls_score
I0825 15:59:08.813989 19645 net.cpp:150] Setting up rpn_cls_score
I0825 15:59:08.814004 19645 net.cpp:157] Top shape: 1 18 13 13 (3042)
I0825 15:59:08.814019 19645 net.cpp:165] Memory required for data: 20529672
I0825 15:59:08.814026 19645 layer_factory.hpp:77] Creating layer rpn_bbox_pred
I0825 15:59:08.814038 19645 net.cpp:106] Creating Layer rpn_bbox_pred
I0825 15:59:08.814041 19645 net.cpp:454] rpn_bbox_pred <- rpn/output_rpn_relu/3x3_0_split_1
I0825 15:59:08.814051 19645 net.cpp:411] rpn_bbox_pred -> rpn_bbox_pred
I0825 15:59:08.815752 19645 net.cpp:150] Setting up rpn_bbox_pred
I0825 15:59:08.815767 19645 net.cpp:157] Top shape: 1 36 13 13 (6084)
I0825 15:59:08.815781 19645 net.cpp:165] Memory required for data: 20554008
I0825 15:59:08.815788 19645 layer_factory.hpp:77] Creating layer rpn_cls_score_reshape
I0825 15:59:08.815812 19645 net.cpp:106] Creating Layer rpn_cls_score_reshape
I0825 15:59:08.815819 19645 net.cpp:454] rpn_cls_score_reshape <- rpn_cls_score
I0825 15:59:08.815829 19645 net.cpp:411] rpn_cls_score_reshape -> rpn_cls_score_reshape
I0825 15:59:08.815876 19645 net.cpp:150] Setting up rpn_cls_score_reshape
I0825 15:59:08.815883 19645 net.cpp:157] Top shape: 1 2 117 13 (3042)
I0825 15:59:08.815886 19645 net.cpp:165] Memory required for data: 20566176
I0825 15:59:08.815889 19645 layer_factory.hpp:77] Creating layer rpn_cls_prob
I0825 15:59:08.815894 19645 net.cpp:106] Creating Layer rpn_cls_prob
I0825 15:59:08.815897 19645 net.cpp:454] rpn_cls_prob <- rpn_cls_score_reshape
I0825 15:59:08.815904 19645 net.cpp:411] rpn_cls_prob -> rpn_cls_prob
I0825 15:59:08.816498 19645 net.cpp:150] Setting up rpn_cls_prob
I0825 15:59:08.816510 19645 net.cpp:157] Top shape: 1 2 117 13 (3042)
I0825 15:59:08.816524 19645 net.cpp:165] Memory required for data: 20578344
I0825 15:59:08.816527 19645 layer_factory.hpp:77] Creating layer rpn_cls_prob_reshape
I0825 15:59:08.816536 19645 net.cpp:106] Creating Layer rpn_cls_prob_reshape
I0825 15:59:08.816540 19645 net.cpp:454] rpn_cls_prob_reshape <- rpn_cls_prob
I0825 15:59:08.816545 19645 net.cpp:411] rpn_cls_prob_reshape -> rpn_cls_prob_reshape
I0825 15:59:08.816589 19645 net.cpp:150] Setting up rpn_cls_prob_reshape
I0825 15:59:08.816596 19645 net.cpp:157] Top shape: 1 18 13 13 (3042)
I0825 15:59:08.816599 19645 net.cpp:165] Memory required for data: 20590512
I0825 15:59:08.816601 19645 layer_factory.hpp:77] Creating layer proposal
I0825 15:59:08.817114 19645 net.cpp:106] Creating Layer proposal
I0825 15:59:08.817126 19645 net.cpp:454] proposal <- rpn_cls_prob_reshape
I0825 15:59:08.817143 19645 net.cpp:454] proposal <- rpn_bbox_pred
I0825 15:59:08.817147 19645 net.cpp:454] proposal <- im_info
I0825 15:59:08.817153 19645 net.cpp:411] proposal -> rois
I0825 15:59:08.817977 19645 net.cpp:150] Setting up proposal
I0825 15:59:08.817991 19645 net.cpp:157] Top shape: 1 5 (5)
I0825 15:59:08.818006 19645 net.cpp:165] Memory required for data: 20590532
I0825 15:59:08.818009 19645 layer_factory.hpp:77] Creating layer roi_pool5
I0825 15:59:08.818017 19645 net.cpp:106] Creating Layer roi_pool5
I0825 15:59:08.818020 19645 net.cpp:454] roi_pool5 <- conv5_relu5_0_split_1
I0825 15:59:08.818025 19645 net.cpp:454] roi_pool5 <- rois
I0825 15:59:08.818030 19645 net.cpp:411] roi_pool5 -> pool5
I0825 15:59:08.818037 19645 roi_pooling_layer.cpp:30] Spatial scale: 0.0625
I0825 15:59:08.818120 19645 net.cpp:150] Setting up roi_pool5
I0825 15:59:08.818127 19645 net.cpp:157] Top shape: 1 512 6 6 (18432)
I0825 15:59:08.818130 19645 net.cpp:165] Memory required for data: 20664260
I0825 15:59:08.818132 19645 layer_factory.hpp:77] Creating layer fc6
I0825 15:59:08.818140 19645 net.cpp:106] Creating Layer fc6
I0825 15:59:08.818142 19645 net.cpp:454] fc6 <- pool5
I0825 15:59:08.818147 19645 net.cpp:411] fc6 -> fc6
I0825 15:59:09.281146 19645 net.cpp:150] Setting up fc6
I0825 15:59:09.281186 19645 net.cpp:157] Top shape: 1 4096 (4096)
I0825 15:59:09.281190 19645 net.cpp:165] Memory required for data: 20680644
I0825 15:59:09.281218 19645 layer_factory.hpp:77] Creating layer relu6
I0825 15:59:09.281240 19645 net.cpp:106] Creating Layer relu6
I0825 15:59:09.281246 19645 net.cpp:454] relu6 <- fc6
I0825 15:59:09.281257 19645 net.cpp:397] relu6 -> fc6 (in-place)
I0825 15:59:09.281605 19645 net.cpp:150] Setting up relu6
I0825 15:59:09.281617 19645 net.cpp:157] Top shape: 1 4096 (4096)
I0825 15:59:09.281620 19645 net.cpp:165] Memory required for data: 20697028
I0825 15:59:09.281630 19645 layer_factory.hpp:77] Creating layer drop6
I0825 15:59:09.281639 19645 net.cpp:106] Creating Layer drop6
I0825 15:59:09.281646 19645 net.cpp:454] drop6 <- fc6
I0825 15:59:09.281653 19645 net.cpp:397] drop6 -> fc6 (in-place)
I0825 15:59:09.281709 19645 net.cpp:150] Setting up drop6
I0825 15:59:09.281719 19645 net.cpp:157] Top shape: 1 4096 (4096)
I0825 15:59:09.281723 19645 net.cpp:165] Memory required for data: 20713412
I0825 15:59:09.281726 19645 layer_factory.hpp:77] Creating layer fc7
I0825 15:59:09.281738 19645 net.cpp:106] Creating Layer fc7
I0825 15:59:09.281744 19645 net.cpp:454] fc7 <- fc6
I0825 15:59:09.281751 19645 net.cpp:411] fc7 -> fc7
I0825 15:59:09.305580 19645 net.cpp:150] Setting up fc7
I0825 15:59:09.305609 19645 net.cpp:157] Top shape: 1 1024 (1024)
I0825 15:59:09.305613 19645 net.cpp:165] Memory required for data: 20717508
I0825 15:59:09.305624 19645 layer_factory.hpp:77] Creating layer relu7
I0825 15:59:09.305637 19645 net.cpp:106] Creating Layer relu7
I0825 15:59:09.305642 19645 net.cpp:454] relu7 <- fc7
I0825 15:59:09.305649 19645 net.cpp:397] relu7 -> fc7 (in-place)
I0825 15:59:09.306294 19645 net.cpp:150] Setting up relu7
I0825 15:59:09.306310 19645 net.cpp:157] Top shape: 1 1024 (1024)
I0825 15:59:09.306313 19645 net.cpp:165] Memory required for data: 20721604
I0825 15:59:09.306318 19645 layer_factory.hpp:77] Creating layer drop7
I0825 15:59:09.306330 19645 net.cpp:106] Creating Layer drop7
I0825 15:59:09.306334 19645 net.cpp:454] drop7 <- fc7
I0825 15:59:09.306341 19645 net.cpp:397] drop7 -> fc7 (in-place)
I0825 15:59:09.306396 19645 net.cpp:150] Setting up drop7
I0825 15:59:09.306404 19645 net.cpp:157] Top shape: 1 1024 (1024)
I0825 15:59:09.306407 19645 net.cpp:165] Memory required for data: 20725700
I0825 15:59:09.306411 19645 layer_factory.hpp:77] Creating layer fc7_drop7_0_split
I0825 15:59:09.306421 19645 net.cpp:106] Creating Layer fc7_drop7_0_split
I0825 15:59:09.306427 19645 net.cpp:454] fc7_drop7_0_split <- fc7
I0825 15:59:09.306435 19645 net.cpp:411] fc7_drop7_0_split -> fc7_drop7_0_split_0
I0825 15:59:09.306444 19645 net.cpp:411] fc7_drop7_0_split -> fc7_drop7_0_split_1
I0825 15:59:09.306454 19645 net.cpp:411] fc7_drop7_0_split -> fc7_drop7_0_split_2
I0825 15:59:09.306560 19645 net.cpp:150] Setting up fc7_drop7_0_split
I0825 15:59:09.306568 19645 net.cpp:157] Top shape: 1 1024 (1024)
I0825 15:59:09.306572 19645 net.cpp:157] Top shape: 1 1024 (1024)
I0825 15:59:09.306576 19645 net.cpp:157] Top shape: 1 1024 (1024)
I0825 15:59:09.306579 19645 net.cpp:165] Memory required for data: 20737988
I0825 15:59:09.306583 19645 layer_factory.hpp:77] Creating layer cls_score
I0825 15:59:09.306608 19645 net.cpp:106] Creating Layer cls_score
I0825 15:59:09.306617 19645 net.cpp:454] cls_score <- fc7_drop7_0_split_0
I0825 15:59:09.306625 19645 net.cpp:411] cls_score -> cls_score
I0825 15:59:09.309044 19645 net.cpp:150] Setting up cls_score
I0825 15:59:09.309061 19645 net.cpp:157] Top shape: 1 21 (21)
I0825 15:59:09.309064 19645 net.cpp:165] Memory required for data: 20738072
I0825 15:59:09.309072 19645 layer_factory.hpp:77] Creating layer bbox_pred
I0825 15:59:09.309082 19645 net.cpp:106] Creating Layer bbox_pred
I0825 15:59:09.309087 19645 net.cpp:454] bbox_pred <- fc7_drop7_0_split_1
I0825 15:59:09.309097 19645 net.cpp:411] bbox_pred -> bbox_pred
I0825 15:59:09.312235 19645 net.cpp:150] Setting up bbox_pred
I0825 15:59:09.312250 19645 net.cpp:157] Top shape: 1 84 (84)
I0825 15:59:09.312254 19645 net.cpp:165] Memory required for data: 20738408
I0825 15:59:09.312261 19645 layer_factory.hpp:77] Creating layer key_pred
I0825 15:59:09.312273 19645 net.cpp:106] Creating Layer key_pred
I0825 15:59:09.312278 19645 net.cpp:454] key_pred <- fc7_drop7_0_split_2
I0825 15:59:09.312285 19645 net.cpp:411] key_pred -> key_pred
I0825 15:59:09.313540 19645 net.cpp:150] Setting up key_pred
I0825 15:59:09.313556 19645 net.cpp:157] Top shape: 1 84 (84)
I0825 15:59:09.313560 19645 net.cpp:165] Memory required for data: 20738744
I0825 15:59:09.313567 19645 layer_factory.hpp:77] Creating layer cls_prob
I0825 15:59:09.313575 19645 net.cpp:106] Creating Layer cls_prob
I0825 15:59:09.313580 19645 net.cpp:454] cls_prob <- cls_score
I0825 15:59:09.313586 19645 net.cpp:411] cls_prob -> cls_prob
I0825 15:59:09.313942 19645 net.cpp:150] Setting up cls_prob
I0825 15:59:09.313956 19645 net.cpp:157] Top shape: 1 21 (21)
I0825 15:59:09.313958 19645 net.cpp:165] Memory required for data: 20738828
I0825 15:59:09.313963 19645 net.cpp:228] cls_prob does not need backward computation.
I0825 15:59:09.313969 19645 net.cpp:228] key_pred does not need backward computation.
I0825 15:59:09.313974 19645 net.cpp:228] bbox_pred does not need backward computation.
I0825 15:59:09.313977 19645 net.cpp:228] cls_score does not need backward computation.
…
