…
weight_decay: 0.0005
stepsize: 50000
snapshot: 0
snapshot_prefix: "key"
average_loss: 100
I0829 22:15:03.970468  3207 solver.cpp:81] Creating training net from train_net file: models/pascal_voc/VGG_CNN_M_1024/key/train.prototxt
I0829 22:15:03.971148  3207 net.cpp:49] Initializing net from parameters: 
name: "VGG_CNN_M_1024"
state {
  phase: TRAIN
}
layer {
  name: "input-data"
  type: "Python"
  top: "data"
  top: "im_info"
  top: "gt_boxes"
  python_param {
    module: "roi_data_layer.layer"
    layer: "RoIDataLayer"
    param_str: "\'num_classes\': 21"
  }
}
layer {
  name: "conv1"
  type: "Convolution"
  bottom: "data"
  top: "conv1"
  param {
    lr_mult: 0
    decay_mult: 0
  }
  param {
    lr_mult: 0
    decay_mult: 0
  }
  convolution_param {
    num_output: 96
    kernel_size: 7
    stride: 2
  }
}
layer {
  name: "relu1"
  type: "ReLU"
  bottom: "conv1"
  top: "conv1"
}
layer {
  name: "norm1"
  type: "LRN"
  bottom: "conv1"
  top: "norm1"
  lrn_param {
    local_size: 5
    alpha: 0.0005
    beta: 0.75
    k: 2
  }
}
layer {
  name: "pool1"
  type: "Pooling"
  bottom: "norm1"
  top: "pool1"
  pooling_param {
    pool: MAX
    kernel_size: 3
    stride: 2
  }
}
layer {
  name: "conv2"
  type: "Convolution"
  bottom: "pool1"
  top: "conv2"
  param {
    lr_mult: 1
  }
  param {
    lr_mult: 2
  }
  convolution_param {
    num_output: 256
    pad: 1
    kernel_size: 5
    stride: 2
  }
}
layer {
  name: "relu2"
  type: "ReLU"
  bottom: "conv2"
  top: "conv2"
}
layer {
  name: "norm2"
  type: "LRN"
  bottom: "conv2"
  top: "norm2"
  lrn_param {
    local_size: 5
    alpha: 0.0005
    beta: 0.75
    k: 2
  }
}
layer {
  name: "pool2"
  type: "Pooling"
  bottom: "norm2"
  top: "pool2"
  pooling_param {
    pool: MAX
    kernel_size: 3
    stride: 2
  }
}
layer {
  name: "conv3"
  type: "Convolution"
  bottom: "pool2"
  top: "conv3"
  param {
    lr_mult: 1
  }
  param {
    lr_mult: 2
  }
  convolution_param {
    num_output: 512
    pad: 1
    kernel_size: 3
  }
}
layer {
  name: "relu3"
  type: "ReLU"
  bottom: "conv3"
  top: "conv3"
}
layer {
  name: "conv4"
  type: "Convolution"
  bottom: "conv3"
  top: "conv4"
  param {
    lr_mult: 1
  }
  param {
    lr_mult: 2
  }
  convolution_param {
    num_output: 512
    pad: 1
    kernel_size: 3
  }
}
layer {
  name: "relu4"
  type: "ReLU"
  bottom: "conv4"
  top: "conv4"
}
layer {
  name: "conv5"
  type: "Convolution"
  bottom: "conv4"
  top: "conv5"
  param {
    lr_mult: 1
  }
  param {
    lr_mult: 2
  }
  convolution_param {
    num_output: 512
    pad: 1
    kernel_size: 3
  }
}
layer {
  name: "relu5"
  type: "ReLU"
  bottom: "conv5"
  top: "conv5"
}
layer {
  name: "rpn_conv/3x3"
  type: "Convolution"
  bottom: "conv5"
  top: "rpn/output"
  param {
    lr_mult: 1
  }
  param {
    lr_mult: 2
  }
  convolution_param {
    num_output: 256
    pad: 1
    kernel_size: 3
    stride: 1
    weight_filler {
      type: "gaussian"
      std: 0.01
    }
    bias_filler {
      type: "constant"
      value: 0
    }
  }
}
layer {
  name: "rpn_relu/3x3"
  type: "ReLU"
  bottom: "rpn/output"
  top: "rpn/output"
}
layer {
  name: "rpn_cls_score"
  type: "Convolution"
  bottom: "rpn/output"
  top: "rpn_cls_score"
  param {
    lr_mult: 1
  }
  param {
    lr_mult: 2
  }
  convolution_param {
    num_output: 18
    pad: 0
    kernel_size: 1
    stride: 1
    weight_filler {
      type: "gaussian"
      std: 0.01
    }
    bias_filler {
      type: "constant"
      value: 0
    }
  }
}
layer {
  name: "rpn_bbox_pred"
  type: "Convolution"
  bottom: "rpn/output"
  top: "rpn_bbox_pred"
  param {
    lr_mult: 1
  }
  param {
    lr_mult: 2
  }
  convolution_param {
    num_output: 36
    pad: 0
    kernel_size: 1
    stride: 1
    weight_filler {
      type: "gaussian"
      std: 0.01
    }
    bias_filler {
      type: "constant"
      value: 0
    }
  }
}
layer {
  name: "rpn_cls_score_reshape"
  type: "Reshape"
  bottom: "rpn_cls_score"
  top: "rpn_cls_score_reshape"
  reshape_param {
    shape {
      dim: 0
      dim: 2
      dim: -1
      dim: 0
    }
  }
}
layer {
  name: "rpn-data"
  type: "Python"
  bottom: "rpn_cls_score"
  bottom: "gt_boxes"
  bottom: "im_info"
  bottom: "data"
  top: "rpn_labels"
  top: "rpn_bbox_targets"
  top: "rpn_bbox_inside_weights"
  top: "rpn_bbox_outside_weights"
  python_param {
    module: "rpn.anchor_target_layer"
    layer: "AnchorTargetLayer"
    param_str: "\'feat_stride\': 16"
  }
}
layer {
  name: "rpn_loss_cls"
  type: "SoftmaxWithLoss"
  bottom: "rpn_cls_score_reshape"
  bottom: "rpn_labels"
  top: "rpn_cls_loss"
  loss_weight: 1
  propagate_down: true
  propagate_down: false
  loss_param {
    ignore_label: -1
    normalize: true
  }
}
layer {
  name: "rpn_loss_bbox"
  type: "SmoothL1Loss"
  bottom: "rpn_bbox_pred"
  bottom: "rpn_bbox_targets"
  bottom: "rpn_bbox_inside_weights"
  bottom: "rpn_bbox_outside_weights"
  top: "rpn_loss_bbox"
  loss_weight: 1
  smooth_l1_loss_param {
    sigma: 3
  }
}
layer {
  name: "rpn_cls_prob"
  type: "Softmax"
  bottom: "rpn_cls_score_reshape"
  top: "rpn_cls_prob"
}
layer {
  name: "rpn_cls_prob_reshape"
  type: "Reshape"
  bottom: "rpn_cls_prob"
  top: "rpn_cls_prob_reshape"
  reshape_param {
    shape {
      dim: 0
      dim: 18
      dim: -1
      dim: 0
    }
  }
}
layer {
  name: "proposal"
  type: "Python"
  bottom: "rpn_cls_prob_reshape"
  bottom: "rpn_bbox_pred"
  bottom: "im_info"
  top: "rpn_rois"
  python_param {
    module: "rpn.proposal_layer"
    layer: "ProposalLayer"
    param_str: "\'feat_stride\': 16"
  }
}
layer {
  name: "roi-data"
  type: "Python"
  bottom: "rpn_rois"
  bottom: "gt_boxes"
  top: "rois"
  top: "labels"
  top: "bbox_targets"
  top: "bbox_inside_weights"
  top: "bbox_outside_weights"
  top: "key_targets"
  top: "key_inside_weights"
  top: "key_outside_weights"
  python_param {
    module: "rpn.proposal_target_layer"
    layer: "ProposalTargetLayer"
    param_str: "\'num_classes\': 21"
  }
}
layer {
  name: "roi_pool5"
  type: "ROIPooling"
  bottom: "conv5"
  bottom: "rois"
  top: "pool5"
  roi_pooling_param {
    pooled_h: 6
    pooled_w: 6
    spatial_scale: 0.0625
  }
}
layer {
  name: "fc6"
  type: "InnerProduct"
  bottom: "pool5"
  top: "fc6"
  param {
    lr_mult: 1
  }
  param {
    lr_mult: 2
  }
  inner_product_param {
    num_output: 4096
  }
}
layer {
  name: "relu6"
  type: "ReLU"
  bottom: "fc6"
  top: "fc6"
}
layer {
  name: "drop6"
  type: "Dropout"
  bottom: "fc6"
  top: "fc6"
  dropout_param {
    dropout_ratio: 0.5
  }
}
layer {
  name: "fc7"
  type: "InnerProduct"
  bottom: "fc6"
  top: "fc7"
  param {
    lr_mult: 1
  }
  param {
    lr_mult: 2
  }
  inner_product_param {
    num_output: 1024
  }
}
layer {
  name: "relu7"
  type: "ReLU"
  bottom: "fc7"
  top: "fc7"
}
layer {
  name: "drop7"
  type: "Dropout"
  bottom: "fc7"
  top: "fc7"
  dropout_param {
    dropout_ratio: 0.5
  }
}
layer {
  name: "cls_score"
  type: "InnerProduct"
  bottom: "fc7"
  top: "cls_score"
  param {
    lr_mult: 1
  }
  param {
    lr_mult: 2
  }
  inner_product_param {
    num_output: 21
    weight_filler {
      type: "gaussian"
      std: 0.01
    }
    bias_filler {
      type: "constant"
      value: 0
    }
  }
}
layer {
  name: "bbox_pred"
  type: "InnerProduct"
  bottom: "fc7"
  top: "bbox_pred"
  param {
    lr_mult: 1
  }
  param {
    lr_mult: 2
  }
  inner_product_param {
    num_output: 84
    weight_filler {
      type: "gaussian"
      std: 0.001
    }
    bias_filler {
      type: "constant"
      value: 0
    }
  }
}
layer {
  name: "key_pred"
  type: "InnerProduct"
  bottom: "fc7"
  top: "key_pred"
  param {
    lr_mult: 1
  }
  param {
    lr_mult: 2
  }
  inner_product_param {
    num_output: 84
    weight_filler {
      type: "gaussian"
      std: 0.001
    }
    bias_filler {
      type: "constant"
      value: 0
    }
  }
}
layer {
  name: "loss_cls"
  type: "SoftmaxWithLoss"
  bottom: "cls_score"
  bottom: "labels"
  top: "loss_cls"
  loss_weight: 1
  propagate_down: true
  propagate_down: false
}
layer {
  name: "loss_bbox"
  type: "SmoothL1Loss"
  bottom: "bbox_pred"
  bottom: "bbox_targets"
  bottom: "bbox_inside_weights"
  bottom: "bbox_outside_weights"
  top: "loss_bbox"
  loss_weight: 1
}
layer {
  name: "loss_key"
  type: "SmoothL1Loss"
  bottom: "key_pred"
  bottom: "key_targets"
  bottom: "key_inside_weights"
  bottom: "key_outside_weights"
  top: "loss_key"
  loss_weight: 1
}
I0829 22:15:03.971402  3207 layer_factory.hpp:77] Creating layer input-data
I0829 22:15:03.984449  3207 net.cpp:106] Creating Layer input-data
I0829 22:15:03.984493  3207 net.cpp:411] input-data -> data
I0829 22:15:03.984506  3207 net.cpp:411] input-data -> im_info
I0829 22:15:03.984513  3207 net.cpp:411] input-data -> gt_boxes
RoiDataLayer: name_to_top: {'gt_boxes': 2, 'data': 0, 'im_info': 1}
I0829 22:15:03.995363  3207 net.cpp:150] Setting up input-data
I0829 22:15:03.995399  3207 net.cpp:157] Top shape: 1 3 600 1000 (1800000)
I0829 22:15:03.995405  3207 net.cpp:157] Top shape: 1 3 (3)
I0829 22:15:03.995409  3207 net.cpp:157] Top shape: 1 4 (4)
I0829 22:15:03.995412  3207 net.cpp:165] Memory required for data: 7200028
I0829 22:15:03.995419  3207 layer_factory.hpp:77] Creating layer data_input-data_0_split
I0829 22:15:03.995434  3207 net.cpp:106] Creating Layer data_input-data_0_split
I0829 22:15:03.995440  3207 net.cpp:454] data_input-data_0_split <- data
I0829 22:15:03.995447  3207 net.cpp:411] data_input-data_0_split -> data_input-data_0_split_0
I0829 22:15:03.995460  3207 net.cpp:411] data_input-data_0_split -> data_input-data_0_split_1
I0829 22:15:03.995518  3207 net.cpp:150] Setting up data_input-data_0_split
I0829 22:15:03.995527  3207 net.cpp:157] Top shape: 1 3 600 1000 (1800000)
I0829 22:15:03.995532  3207 net.cpp:157] Top shape: 1 3 600 1000 (1800000)
I0829 22:15:03.995533  3207 net.cpp:165] Memory required for data: 21600028
I0829 22:15:03.995537  3207 layer_factory.hpp:77] Creating layer im_info_input-data_1_split
I0829 22:15:03.995543  3207 net.cpp:106] Creating Layer im_info_input-data_1_split
I0829 22:15:03.995546  3207 net.cpp:454] im_info_input-data_1_split <- im_info
I0829 22:15:03.995553  3207 net.cpp:411] im_info_input-data_1_split -> im_info_input-data_1_split_0
I0829 22:15:03.995559  3207 net.cpp:411] im_info_input-data_1_split -> im_info_input-data_1_split_1
I0829 22:15:03.995607  3207 net.cpp:150] Setting up im_info_input-data_1_split
I0829 22:15:03.995618  3207 net.cpp:157] Top shape: 1 3 (3)
I0829 22:15:03.995622  3207 net.cpp:157] Top shape: 1 3 (3)
I0829 22:15:03.995625  3207 net.cpp:165] Memory required for data: 21600052
I0829 22:15:03.995627  3207 layer_factory.hpp:77] Creating layer gt_boxes_input-data_2_split
I0829 22:15:03.995632  3207 net.cpp:106] Creating Layer gt_boxes_input-data_2_split
I0829 22:15:03.995635  3207 net.cpp:454] gt_boxes_input-data_2_split <- gt_boxes
I0829 22:15:03.995640  3207 net.cpp:411] gt_boxes_input-data_2_split -> gt_boxes_input-data_2_split_0
I0829 22:15:03.995647  3207 net.cpp:411] gt_boxes_input-data_2_split -> gt_boxes_input-data_2_split_1
I0829 22:15:03.995693  3207 net.cpp:150] Setting up gt_boxes_input-data_2_split
I0829 22:15:03.995700  3207 net.cpp:157] Top shape: 1 4 (4)
I0829 22:15:03.995704  3207 net.cpp:157] Top shape: 1 4 (4)
I0829 22:15:03.995707  3207 net.cpp:165] Memory required for data: 21600084
I0829 22:15:03.995709  3207 layer_factory.hpp:77] Creating layer conv1
I0829 22:15:03.995723  3207 net.cpp:106] Creating Layer conv1
I0829 22:15:03.995728  3207 net.cpp:454] conv1 <- data_input-data_0_split_0
I0829 22:15:03.995734  3207 net.cpp:411] conv1 -> conv1
I0829 22:15:04.219339  3207 net.cpp:150] Setting up conv1
I0829 22:15:04.219403  3207 net.cpp:157] Top shape: 1 96 297 497 (14170464)
I0829 22:15:04.219409  3207 net.cpp:165] Memory required for data: 78281940
I0829 22:15:04.219444  3207 layer_factory.hpp:77] Creating layer relu1
I0829 22:15:04.219467  3207 net.cpp:106] Creating Layer relu1
I0829 22:15:04.219475  3207 net.cpp:454] relu1 <- conv1
I0829 22:15:04.219488  3207 net.cpp:397] relu1 -> conv1 (in-place)
I0829 22:15:04.220197  3207 net.cpp:150] Setting up relu1
I0829 22:15:04.220218  3207 net.cpp:157] Top shape: 1 96 297 497 (14170464)
I0829 22:15:04.220223  3207 net.cpp:165] Memory required for data: 134963796
I0829 22:15:04.220229  3207 layer_factory.hpp:77] Creating layer norm1
I0829 22:15:04.220243  3207 net.cpp:106] Creating Layer norm1
I0829 22:15:04.220248  3207 net.cpp:454] norm1 <- conv1
I0829 22:15:04.220258  3207 net.cpp:411] norm1 -> norm1
I0829 22:15:04.220640  3207 net.cpp:150] Setting up norm1
I0829 22:15:04.220656  3207 net.cpp:157] Top shape: 1 96 297 497 (14170464)
I0829 22:15:04.220667  3207 net.cpp:165] Memory required for data: 191645652
I0829 22:15:04.220672  3207 layer_factory.hpp:77] Creating layer pool1
I0829 22:15:04.220684  3207 net.cpp:106] Creating Layer pool1
I0829 22:15:04.220688  3207 net.cpp:454] pool1 <- norm1
I0829 22:15:04.220697  3207 net.cpp:411] pool1 -> pool1
I0829 22:15:04.220793  3207 net.cpp:150] Setting up pool1
I0829 22:15:04.220805  3207 net.cpp:157] Top shape: 1 96 148 248 (3523584)
I0829 22:15:04.220811  3207 net.cpp:165] Memory required for data: 205739988
I0829 22:15:04.220815  3207 layer_factory.hpp:77] Creating layer conv2
I0829 22:15:04.220836  3207 net.cpp:106] Creating Layer conv2
I0829 22:15:04.220844  3207 net.cpp:454] conv2 <- pool1
I0829 22:15:04.220854  3207 net.cpp:411] conv2 -> conv2
I0829 22:15:04.228848  3207 net.cpp:150] Setting up conv2
I0829 22:15:04.228901  3207 net.cpp:157] Top shape: 1 256 73 123 (2298624)
I0829 22:15:04.228910  3207 net.cpp:165] Memory required for data: 214934484
I0829 22:15:04.228937  3207 layer_factory.hpp:77] Creating layer relu2
I0829 22:15:04.228957  3207 net.cpp:106] Creating Layer relu2
I0829 22:15:04.228968  3207 net.cpp:454] relu2 <- conv2
I0829 22:15:04.228984  3207 net.cpp:397] relu2 -> conv2 (in-place)
I0829 22:15:04.229851  3207 net.cpp:150] Setting up relu2
I0829 22:15:04.229883  3207 net.cpp:157] Top shape: 1 256 73 123 (2298624)
I0829 22:15:04.229890  3207 net.cpp:165] Memory required for data: 224128980
I0829 22:15:04.229897  3207 layer_factory.hpp:77] Creating layer norm2
I0829 22:15:04.229917  3207 net.cpp:106] Creating Layer norm2
I0829 22:15:04.229926  3207 net.cpp:454] norm2 <- conv2
I0829 22:15:04.229943  3207 net.cpp:411] norm2 -> norm2
I0829 22:15:04.230453  3207 net.cpp:150] Setting up norm2
I0829 22:15:04.230473  3207 net.cpp:157] Top shape: 1 256 73 123 (2298624)
I0829 22:15:04.230479  3207 net.cpp:165] Memory required for data: 233323476
I0829 22:15:04.230485  3207 layer_factory.hpp:77] Creating layer pool2
I0829 22:15:04.230500  3207 net.cpp:106] Creating Layer pool2
I0829 22:15:04.230509  3207 net.cpp:454] pool2 <- norm2
I0829 22:15:04.230523  3207 net.cpp:411] pool2 -> pool2
I0829 22:15:04.230648  3207 net.cpp:150] Setting up pool2
I0829 22:15:04.230661  3207 net.cpp:157] Top shape: 1 256 36 61 (562176)
I0829 22:15:04.230669  3207 net.cpp:165] Memory required for data: 235572180
I0829 22:15:04.230676  3207 layer_factory.hpp:77] Creating layer conv3
I0829 22:15:04.230696  3207 net.cpp:106] Creating Layer conv3
I0829 22:15:04.230703  3207 net.cpp:454] conv3 <- pool2
I0829 22:15:04.230717  3207 net.cpp:411] conv3 -> conv3
I0829 22:15:04.249060  3207 net.cpp:150] Setting up conv3
I0829 22:15:04.249107  3207 net.cpp:157] Top shape: 1 512 36 61 (1124352)
I0829 22:15:04.249114  3207 net.cpp:165] Memory required for data: 240069588
I0829 22:15:04.249141  3207 layer_factory.hpp:77] Creating layer relu3
I0829 22:15:04.249161  3207 net.cpp:106] Creating Layer relu3
I0829 22:15:04.249172  3207 net.cpp:454] relu3 <- conv3
I0829 22:15:04.249187  3207 net.cpp:397] relu3 -> conv3 (in-place)
I0829 22:15:04.249577  3207 net.cpp:150] Setting up relu3
I0829 22:15:04.249594  3207 net.cpp:157] Top shape: 1 512 36 61 (1124352)
I0829 22:15:04.249600  3207 net.cpp:165] Memory required for data: 244566996
I0829 22:15:04.249606  3207 layer_factory.hpp:77] Creating layer conv4
I0829 22:15:04.249625  3207 net.cpp:106] Creating Layer conv4
I0829 22:15:04.249634  3207 net.cpp:454] conv4 <- conv3
I0829 22:15:04.249650  3207 net.cpp:411] conv4 -> conv4
I0829 22:15:04.270876  3207 net.cpp:150] Setting up conv4
I0829 22:15:04.270946  3207 net.cpp:157] Top shape: 1 512 36 61 (1124352)
I0829 22:15:04.270953  3207 net.cpp:165] Memory required for data: 249064404
I0829 22:15:04.270972  3207 layer_factory.hpp:77] Creating layer relu4
I0829 22:15:04.270992  3207 net.cpp:106] Creating Layer relu4
I0829 22:15:04.271000  3207 net.cpp:454] relu4 <- conv4
I0829 22:15:04.271018  3207 net.cpp:397] relu4 -> conv4 (in-place)
I0829 22:15:04.271829  3207 net.cpp:150] Setting up relu4
I0829 22:15:04.271853  3207 net.cpp:157] Top shape: 1 512 36 61 (1124352)
I0829 22:15:04.271858  3207 net.cpp:165] Memory required for data: 253561812
I0829 22:15:04.271865  3207 layer_factory.hpp:77] Creating layer conv5
I0829 22:15:04.271894  3207 net.cpp:106] Creating Layer conv5
I0829 22:15:04.271903  3207 net.cpp:454] conv5 <- conv4
I0829 22:15:04.271922  3207 net.cpp:411] conv5 -> conv5
I0829 22:15:04.291951  3207 net.cpp:150] Setting up conv5
I0829 22:15:04.292003  3207 net.cpp:157] Top shape: 1 512 36 61 (1124352)
I0829 22:15:04.292008  3207 net.cpp:165] Memory required for data: 258059220
I0829 22:15:04.292060  3207 layer_factory.hpp:77] Creating layer relu5
I0829 22:15:04.292078  3207 net.cpp:106] Creating Layer relu5
I0829 22:15:04.292088  3207 net.cpp:454] relu5 <- conv5
I0829 22:15:04.292101  3207 net.cpp:397] relu5 -> conv5 (in-place)
I0829 22:15:04.292418  3207 net.cpp:150] Setting up relu5
I0829 22:15:04.292433  3207 net.cpp:157] Top shape: 1 512 36 61 (1124352)
I0829 22:15:04.292444  3207 net.cpp:165] Memory required for data: 262556628
I0829 22:15:04.292448  3207 layer_factory.hpp:77] Creating layer conv5_relu5_0_split
I0829 22:15:04.292459  3207 net.cpp:106] Creating Layer conv5_relu5_0_split
I0829 22:15:04.292464  3207 net.cpp:454] conv5_relu5_0_split <- conv5
I0829 22:15:04.292475  3207 net.cpp:411] conv5_relu5_0_split -> conv5_relu5_0_split_0
I0829 22:15:04.292490  3207 net.cpp:411] conv5_relu5_0_split -> conv5_relu5_0_split_1
I0829 22:15:04.292613  3207 net.cpp:150] Setting up conv5_relu5_0_split
I0829 22:15:04.292624  3207 net.cpp:157] Top shape: 1 512 36 61 (1124352)
I0829 22:15:04.292632  3207 net.cpp:157] Top shape: 1 512 36 61 (1124352)
I0829 22:15:04.292635  3207 net.cpp:165] Memory required for data: 271551444
I0829 22:15:04.292640  3207 layer_factory.hpp:77] Creating layer rpn_conv/3x3
I0829 22:15:04.292665  3207 net.cpp:106] Creating Layer rpn_conv/3x3
I0829 22:15:04.292671  3207 net.cpp:454] rpn_conv/3x3 <- conv5_relu5_0_split_0
I0829 22:15:04.292683  3207 net.cpp:411] rpn_conv/3x3 -> rpn/output
I0829 22:15:04.321188  3207 net.cpp:150] Setting up rpn_conv/3x3
I0829 22:15:04.321233  3207 net.cpp:157] Top shape: 1 256 36 61 (562176)
I0829 22:15:04.321238  3207 net.cpp:165] Memory required for data: 273800148
I0829 22:15:04.321251  3207 layer_factory.hpp:77] Creating layer rpn_relu/3x3
I0829 22:15:04.321269  3207 net.cpp:106] Creating Layer rpn_relu/3x3
I0829 22:15:04.321276  3207 net.cpp:454] rpn_relu/3x3 <- rpn/output
I0829 22:15:04.321301  3207 net.cpp:397] rpn_relu/3x3 -> rpn/output (in-place)
I0829 22:15:04.321945  3207 net.cpp:150] Setting up rpn_relu/3x3
I0829 22:15:04.321964  3207 net.cpp:157] Top shape: 1 256 36 61 (562176)
I0829 22:15:04.321969  3207 net.cpp:165] Memory required for data: 276048852
I0829 22:15:04.321974  3207 layer_factory.hpp:77] Creating layer rpn/output_rpn_relu/3x3_0_split
I0829 22:15:04.321988  3207 net.cpp:106] Creating Layer rpn/output_rpn_relu/3x3_0_split
I0829 22:15:04.321995  3207 net.cpp:454] rpn/output_rpn_relu/3x3_0_split <- rpn/output
I0829 22:15:04.322003  3207 net.cpp:411] rpn/output_rpn_relu/3x3_0_split -> rpn/output_rpn_relu/3x3_0_split_0
I0829 22:15:04.322017  3207 net.cpp:411] rpn/output_rpn_relu/3x3_0_split -> rpn/output_rpn_relu/3x3_0_split_1
I0829 22:15:04.322121  3207 net.cpp:150] Setting up rpn/output_rpn_relu/3x3_0_split
I0829 22:15:04.322131  3207 net.cpp:157] Top shape: 1 256 36 61 (562176)
I0829 22:15:04.322139  3207 net.cpp:157] Top shape: 1 256 36 61 (562176)
I0829 22:15:04.322142  3207 net.cpp:165] Memory required for data: 280546260
I0829 22:15:04.322146  3207 layer_factory.hpp:77] Creating layer rpn_cls_score
I0829 22:15:04.322166  3207 net.cpp:106] Creating Layer rpn_cls_score
I0829 22:15:04.322172  3207 net.cpp:454] rpn_cls_score <- rpn/output_rpn_relu/3x3_0_split_0
I0829 22:15:04.322181  3207 net.cpp:411] rpn_cls_score -> rpn_cls_score
I0829 22:15:04.324371  3207 net.cpp:150] Setting up rpn_cls_score
I0829 22:15:04.324393  3207 net.cpp:157] Top shape: 1 18 36 61 (39528)
I0829 22:15:04.324398  3207 net.cpp:165] Memory required for data: 280704372
I0829 22:15:04.324407  3207 layer_factory.hpp:77] Creating layer rpn_cls_score_rpn_cls_score_0_split
I0829 22:15:04.324419  3207 net.cpp:106] Creating Layer rpn_cls_score_rpn_cls_score_0_split
I0829 22:15:04.324424  3207 net.cpp:454] rpn_cls_score_rpn_cls_score_0_split <- rpn_cls_score
I0829 22:15:04.324434  3207 net.cpp:411] rpn_cls_score_rpn_cls_score_0_split -> rpn_cls_score_rpn_cls_score_0_split_0
I0829 22:15:04.324446  3207 net.cpp:411] rpn_cls_score_rpn_cls_score_0_split -> rpn_cls_score_rpn_cls_score_0_split_1
I0829 22:15:04.324530  3207 net.cpp:150] Setting up rpn_cls_score_rpn_cls_score_0_split
I0829 22:15:04.324540  3207 net.cpp:157] Top shape: 1 18 36 61 (39528)
I0829 22:15:04.324545  3207 net.cpp:157] Top shape: 1 18 36 61 (39528)
I0829 22:15:04.324550  3207 net.cpp:165] Memory required for data: 281020596
I0829 22:15:04.324554  3207 layer_factory.hpp:77] Creating layer rpn_bbox_pred
I0829 22:15:04.324573  3207 net.cpp:106] Creating Layer rpn_bbox_pred
I0829 22:15:04.324578  3207 net.cpp:454] rpn_bbox_pred <- rpn/output_rpn_relu/3x3_0_split_1
I0829 22:15:04.324589  3207 net.cpp:411] rpn_bbox_pred -> rpn_bbox_pred
I0829 22:15:04.326792  3207 net.cpp:150] Setting up rpn_bbox_pred
I0829 22:15:04.326820  3207 net.cpp:157] Top shape: 1 36 36 61 (79056)
I0829 22:15:04.326825  3207 net.cpp:165] Memory required for data: 281336820
I0829 22:15:04.326844  3207 layer_factory.hpp:77] Creating layer rpn_bbox_pred_rpn_bbox_pred_0_split
I0829 22:15:04.326859  3207 net.cpp:106] Creating Layer rpn_bbox_pred_rpn_bbox_pred_0_split
I0829 22:15:04.326867  3207 net.cpp:454] rpn_bbox_pred_rpn_bbox_pred_0_split <- rpn_bbox_pred
I0829 22:15:04.326879  3207 net.cpp:411] rpn_bbox_pred_rpn_bbox_pred_0_split -> rpn_bbox_pred_rpn_bbox_pred_0_split_0
I0829 22:15:04.326891  3207 net.cpp:411] rpn_bbox_pred_rpn_bbox_pred_0_split -> rpn_bbox_pred_rpn_bbox_pred_0_split_1
I0829 22:15:04.326997  3207 net.cpp:150] Setting up rpn_bbox_pred_rpn_bbox_pred_0_split
I0829 22:15:04.327010  3207 net.cpp:157] Top shape: 1 36 36 61 (79056)
I0829 22:15:04.327018  3207 net.cpp:157] Top shape: 1 36 36 61 (79056)
I0829 22:15:04.327020  3207 net.cpp:165] Memory required for data: 281969268
I0829 22:15:04.327024  3207 layer_factory.hpp:77] Creating layer rpn_cls_score_reshape
I0829 22:15:04.327039  3207 net.cpp:106] Creating Layer rpn_cls_score_reshape
I0829 22:15:04.327044  3207 net.cpp:454] rpn_cls_score_reshape <- rpn_cls_score_rpn_cls_score_0_split_0
I0829 22:15:04.327051  3207 net.cpp:411] rpn_cls_score_reshape -> rpn_cls_score_reshape
I0829 22:15:04.327112  3207 net.cpp:150] Setting up rpn_cls_score_reshape
I0829 22:15:04.327123  3207 net.cpp:157] Top shape: 1 2 324 61 (39528)
I0829 22:15:04.327128  3207 net.cpp:165] Memory required for data: 282127380
I0829 22:15:04.327131  3207 layer_factory.hpp:77] Creating layer rpn_cls_score_reshape_rpn_cls_score_reshape_0_split
I0829 22:15:04.327139  3207 net.cpp:106] Creating Layer rpn_cls_score_reshape_rpn_cls_score_reshape_0_split
I0829 22:15:04.327145  3207 net.cpp:454] rpn_cls_score_reshape_rpn_cls_score_reshape_0_split <- rpn_cls_score_reshape
I0829 22:15:04.327153  3207 net.cpp:411] rpn_cls_score_reshape_rpn_cls_score_reshape_0_split -> rpn_cls_score_reshape_rpn_cls_score_reshape_0_split_0
I0829 22:15:04.327164  3207 net.cpp:411] rpn_cls_score_reshape_rpn_cls_score_reshape_0_split -> rpn_cls_score_reshape_rpn_cls_score_reshape_0_split_1
I0829 22:15:04.327244  3207 net.cpp:150] Setting up rpn_cls_score_reshape_rpn_cls_score_reshape_0_split
I0829 22:15:04.327253  3207 net.cpp:157] Top shape: 1 2 324 61 (39528)
I0829 22:15:04.327258  3207 net.cpp:157] Top shape: 1 2 324 61 (39528)
I0829 22:15:04.327262  3207 net.cpp:165] Memory required for data: 282443604
I0829 22:15:04.327266  3207 layer_factory.hpp:77] Creating layer rpn-data
I0829 22:15:04.327926  3207 net.cpp:106] Creating Layer rpn-data
I0829 22:15:04.327945  3207 net.cpp:454] rpn-data <- rpn_cls_score_rpn_cls_score_0_split_1
I0829 22:15:04.327955  3207 net.cpp:454] rpn-data <- gt_boxes_input-data_2_split_0
I0829 22:15:04.327962  3207 net.cpp:454] rpn-data <- im_info_input-data_1_split_0
I0829 22:15:04.327970  3207 net.cpp:454] rpn-data <- data_input-data_0_split_1
I0829 22:15:04.327980  3207 net.cpp:411] rpn-data -> rpn_labels
I0829 22:15:04.328006  3207 net.cpp:411] rpn-data -> rpn_bbox_targets
I0829 22:15:04.328018  3207 net.cpp:411] rpn-data -> rpn_bbox_inside_weights
I0829 22:15:04.328029  3207 net.cpp:411] rpn-data -> rpn_bbox_outside_weights
I0829 22:15:04.331457  3207 net.cpp:150] Setting up rpn-data
I0829 22:15:04.331497  3207 net.cpp:157] Top shape: 1 1 324 61 (19764)
I0829 22:15:04.331503  3207 net.cpp:157] Top shape: 1 36 36 61 (79056)
I0829 22:15:04.331507  3207 net.cpp:157] Top shape: 1 36 36 61 (79056)
I0829 22:15:04.331512  3207 net.cpp:157] Top shape: 1 36 36 61 (79056)
I0829 22:15:04.331516  3207 net.cpp:165] Memory required for data: 283471332
I0829 22:15:04.331521  3207 layer_factory.hpp:77] Creating layer rpn_loss_cls
I0829 22:15:04.331539  3207 net.cpp:106] Creating Layer rpn_loss_cls
I0829 22:15:04.331547  3207 net.cpp:454] rpn_loss_cls <- rpn_cls_score_reshape_rpn_cls_score_reshape_0_split_0
I0829 22:15:04.331557  3207 net.cpp:454] rpn_loss_cls <- rpn_labels
…
I0829 22:15:04.333636  3207 net.cpp:157] Top shape: (1)
I0829 22:15:04.333638  3207 net.cpp:160]     with loss weight 1
I0829 22:15:04.333647  3207 net.cpp:165] Memory required for data: 283471340
I0829 22:15:04.333652  3207 layer_factory.hpp:77] Creating layer rpn_cls_prob
I0829 22:15:04.333658  3207 net.cpp:106] Creating Layer rpn_cls_prob
I0829 22:15:04.333662  3207 net.cpp:454] rpn_cls_prob <- rpn_cls_score_reshape_rpn_cls_score_reshape_0_split_1
I0829 22:15:04.333672  3207 net.cpp:411] rpn_cls_prob -> rpn_cls_prob
I0829 22:15:04.334072  3207 net.cpp:150] Setting up rpn_cls_prob
I0829 22:15:04.334089  3207 net.cpp:157] Top shape: 1 2 324 61 (39528)
I0829 22:15:04.334094  3207 net.cpp:165] Memory required for data: 283629452
I0829 22:15:04.334098  3207 layer_factory.hpp:77] Creating layer rpn_cls_prob_reshape
I0829 22:15:04.334120  3207 net.cpp:106] Creating Layer rpn_cls_prob_reshape
I0829 22:15:04.334128  3207 net.cpp:454] rpn_cls_prob_reshape <- rpn_cls_prob
I0829 22:15:04.334136  3207 net.cpp:411] rpn_cls_prob_reshape -> rpn_cls_prob_reshape
I0829 22:15:04.334194  3207 net.cpp:150] Setting up rpn_cls_prob_reshape
I0829 22:15:04.334204  3207 net.cpp:157] Top shape: 1 18 36 61 (39528)
I0829 22:15:04.334209  3207 net.cpp:165] Memory required for data: 283787564
I0829 22:15:04.334213  3207 layer_factory.hpp:77] Creating layer proposal
I0829 22:15:04.348160  3207 net.cpp:106] Creating Layer proposal
I0829 22:15:04.348197  3207 net.cpp:454] proposal <- rpn_cls_prob_reshape
I0829 22:15:04.348209  3207 net.cpp:454] proposal <- rpn_bbox_pred_rpn_bbox_pred_0_split_1
I0829 22:15:04.348214  3207 net.cpp:454] proposal <- im_info_input-data_1_split_1
I0829 22:15:04.348223  3207 net.cpp:411] proposal -> rpn_rois
I0829 22:15:04.354723  3207 net.cpp:150] Setting up proposal
I0829 22:15:04.354773  3207 net.cpp:157] Top shape: 1 5 (5)
I0829 22:15:04.354779  3207 net.cpp:165] Memory required for data: 283787584
I0829 22:15:04.354787  3207 layer_factory.hpp:77] Creating layer roi-data
I0829 22:15:04.355191  3207 net.cpp:106] Creating Layer roi-data
I0829 22:15:04.355221  3207 net.cpp:454] roi-data <- rpn_rois
I0829 22:15:04.355235  3207 net.cpp:454] roi-data <- gt_boxes_input-data_2_split_1
I0829 22:15:04.355250  3207 net.cpp:411] roi-data -> rois
I0829 22:15:04.355270  3207 net.cpp:411] roi-data -> labels
I0829 22:15:04.355289  3207 net.cpp:411] roi-data -> bbox_targets
I0829 22:15:04.355307  3207 net.cpp:411] roi-data -> bbox_inside_weights
I0829 22:15:04.355325  3207 net.cpp:411] roi-data -> bbox_outside_weights
I0829 22:15:04.355345  3207 net.cpp:411] roi-data -> key_targets
I0829 22:15:04.355361  3207 net.cpp:411] roi-data -> key_inside_weights
I0829 22:15:04.355379  3207 net.cpp:411] roi-data -> key_outside_weights
I0829 22:15:04.356665  3207 net.cpp:150] Setting up roi-data
I0829 22:15:04.356693  3207 net.cpp:157] Top shape: 1 5 (5)
I0829 22:15:04.356703  3207 net.cpp:157] Top shape: 1 1 (1)
I0829 22:15:04.356710  3207 net.cpp:157] Top shape: 1 84 (84)
I0829 22:15:04.356716  3207 net.cpp:157] Top shape: 1 84 (84)
I0829 22:15:04.356724  3207 net.cpp:157] Top shape: 1 84 (84)
I0829 22:15:04.356729  3207 net.cpp:157] Top shape: 1 84 (84)
I0829 22:15:04.356735  3207 net.cpp:157] Top shape: 1 84 (84)
I0829 22:15:04.356741  3207 net.cpp:157] Top shape: 1 84 (84)
I0829 22:15:04.356746  3207 net.cpp:165] Memory required for data: 283789624
I0829 22:15:04.356752  3207 layer_factory.hpp:77] Creating layer roi_pool5
I0829 22:15:04.356767  3207 net.cpp:106] Creating Layer roi_pool5
I0829 22:15:04.356777  3207 net.cpp:454] roi_pool5 <- conv5_relu5_0_split_1
I0829 22:15:04.356787  3207 net.cpp:454] roi_pool5 <- rois
I0829 22:15:04.356801  3207 net.cpp:411] roi_pool5 -> pool5
I0829 22:15:04.356819  3207 roi_pooling_layer.cpp:30] Spatial scale: 0.0625
I0829 22:15:04.356955  3207 net.cpp:150] Setting up roi_pool5
I0829 22:15:04.356968  3207 net.cpp:157] Top shape: 1 512 6 6 (18432)
I0829 22:15:04.356977  3207 net.cpp:165] Memory required for data: 283863352
I0829 22:15:04.356983  3207 layer_factory.hpp:77] Creating layer fc6
I0829 22:15:04.356998  3207 net.cpp:106] Creating Layer fc6
I0829 22:15:04.357007  3207 net.cpp:454] fc6 <- pool5
I0829 22:15:04.357019  3207 net.cpp:411] fc6 -> fc6
I0829 22:15:04.843861  3207 net.cpp:150] Setting up fc6
I0829 22:15:04.843906  3207 net.cpp:157] Top shape: 1 4096 (4096)
I0829 22:15:04.843909  3207 net.cpp:165] Memory required for data: 283879736
I0829 22:15:04.843932  3207 layer_factory.hpp:77] Creating layer relu6
I0829 22:15:04.843947  3207 net.cpp:106] Creating Layer relu6
I0829 22:15:04.843953  3207 net.cpp:454] relu6 <- fc6
I0829 22:15:04.843962  3207 net.cpp:397] relu6 -> fc6 (in-place)
I0829 22:15:04.844736  3207 net.cpp:150] Setting up relu6
I0829 22:15:04.844751  3207 net.cpp:157] Top shape: 1 4096 (4096)
I0829 22:15:04.844754  3207 net.cpp:165] Memory required for data: 283896120
I0829 22:15:04.844759  3207 layer_factory.hpp:77] Creating layer drop6
I0829 22:15:04.844769  3207 net.cpp:106] Creating Layer drop6
I0829 22:15:04.844772  3207 net.cpp:454] drop6 <- fc6
I0829 22:15:04.844780  3207 net.cpp:397] drop6 -> fc6 (in-place)
I0829 22:15:04.844836  3207 net.cpp:150] Setting up drop6
I0829 22:15:04.844844  3207 net.cpp:157] Top shape: 1 4096 (4096)
I0829 22:15:04.844847  3207 net.cpp:165] Memory required for data: 283912504
I0829 22:15:04.844851  3207 layer_factory.hpp:77] Creating layer fc7
I0829 22:15:04.844861  3207 net.cpp:106] Creating Layer fc7
I0829 22:15:04.844866  3207 net.cpp:454] fc7 <- fc6
I0829 22:15:04.844871  3207 net.cpp:411] fc7 -> fc7
I0829 22:15:04.872102  3207 net.cpp:150] Setting up fc7
I0829 22:15:04.872134  3207 net.cpp:157] Top shape: 1 1024 (1024)
I0829 22:15:04.872138  3207 net.cpp:165] Memory required for data: 283916600
I0829 22:15:04.872159  3207 layer_factory.hpp:77] Creating layer relu7
I0829 22:15:04.872172  3207 net.cpp:106] Creating Layer relu7
I0829 22:15:04.872179  3207 net.cpp:454] relu7 <- fc7
I0829 22:15:04.872189  3207 net.cpp:397] relu7 -> fc7 (in-place)
I0829 22:15:04.872524  3207 net.cpp:150] Setting up relu7
I0829 22:15:04.872536  3207 net.cpp:157] Top shape: 1 1024 (1024)
I0829 22:15:04.872539  3207 net.cpp:165] Memory required for data: 283920696
I0829 22:15:04.872542  3207 layer_factory.hpp:77] Creating layer drop7
I0829 22:15:04.872551  3207 net.cpp:106] Creating Layer drop7
I0829 22:15:04.872555  3207 net.cpp:454] drop7 <- fc7
I0829 22:15:04.872561  3207 net.cpp:397] drop7 -> fc7 (in-place)
I0829 22:15:04.872617  3207 net.cpp:150] Setting up drop7
I0829 22:15:04.872625  3207 net.cpp:157] Top shape: 1 1024 (1024)
I0829 22:15:04.872628  3207 net.cpp:165] Memory required for data: 283924792
I0829 22:15:04.872632  3207 layer_factory.hpp:77] Creating layer fc7_drop7_0_split
I0829 22:15:04.872639  3207 net.cpp:106] Creating Layer fc7_drop7_0_split
I0829 22:15:04.872644  3207 net.cpp:454] fc7_drop7_0_split <- fc7
I0829 22:15:04.872651  3207 net.cpp:411] fc7_drop7_0_split -> fc7_drop7_0_split_0
I0829 22:15:04.872663  3207 net.cpp:411] fc7_drop7_0_split -> fc7_drop7_0_split_1
I0829 22:15:04.872673  3207 net.cpp:411] fc7_drop7_0_split -> fc7_drop7_0_split_2
I0829 22:15:04.872787  3207 net.cpp:150] Setting up fc7_drop7_0_split
I0829 22:15:04.872795  3207 net.cpp:157] Top shape: 1 1024 (1024)
I0829 22:15:04.872799  3207 net.cpp:157] Top shape: 1 1024 (1024)
I0829 22:15:04.872802  3207 net.cpp:157] Top shape: 1 1024 (1024)
I0829 22:15:04.872805  3207 net.cpp:165] Memory required for data: 283937080
I0829 22:15:04.872808  3207 layer_factory.hpp:77] Creating layer cls_score
I0829 22:15:04.872818  3207 net.cpp:106] Creating Layer cls_score
I0829 22:15:04.872824  3207 net.cpp:454] cls_score <- fc7_drop7_0_split_0
I0829 22:15:04.872833  3207 net.cpp:411] cls_score -> cls_score
I0829 22:15:04.873392  3207 net.cpp:150] Setting up cls_score
I0829 22:15:04.873405  3207 net.cpp:157] Top shape: 1 21 (21)
I0829 22:15:04.873409  3207 net.cpp:165] Memory required for data: 283937164
I0829 22:15:04.873416  3207 layer_factory.hpp:77] Creating layer bbox_pred
I0829 22:15:04.873427  3207 net.cpp:106] Creating Layer bbox_pred
I0829 22:15:04.873433  3207 net.cpp:454] bbox_pred <- fc7_drop7_0_split_1
I0829 22:15:04.873442  3207 net.cpp:411] bbox_pred -> bbox_pred
I0829 22:15:04.876981  3207 net.cpp:150] Setting up bbox_pred
I0829 22:15:04.877007  3207 net.cpp:157] Top shape: 1 84 (84)
I0829 22:15:04.877010  3207 net.cpp:165] Memory required for data: 283937500
I0829 22:15:04.877020  3207 layer_factory.hpp:77] Creating layer key_pred
I0829 22:15:04.877038  3207 net.cpp:106] Creating Layer key_pred
I0829 22:15:04.877043  3207 net.cpp:454] key_pred <- fc7_drop7_0_split_2
I0829 22:15:04.877055  3207 net.cpp:411] key_pred -> key_pred
I0829 22:15:04.878345  3207 net.cpp:150] Setting up key_pred
I0829 22:15:04.878358  3207 net.cpp:157] Top shape: 1 84 (84)
I0829 22:15:04.878361  3207 net.cpp:165] Memory required for data: 283937836
I0829 22:15:04.878368  3207 layer_factory.hpp:77] Creating layer loss_cls
I0829 22:15:04.878384  3207 net.cpp:106] Creating Layer loss_cls
I0829 22:15:04.878388  3207 net.cpp:454] loss_cls <- cls_score
I0829 22:15:04.878396  3207 net.cpp:454] loss_cls <- labels
I0829 22:15:04.878402  3207 net.cpp:411] loss_cls -> loss_cls
…
