…
stepsize: 50000
snapshot: 0
snapshot_prefix: "vgg_cnn_m_1024_faster_rcnn"
average_loss: 100
I0823 18:38:50.679883 12971 solver.cpp:81] Creating training net from train_net file: models/pascal_voc/VGG_CNN_M_1024/key/train.prototxt
I0823 18:38:50.680511 12971 net.cpp:49] Initializing net from parameters: 
name: "VGG_CNN_M_1024"
state {
  phase: TRAIN
}
layer {
  name: "input-data"
  type: "Python"
  top: "data"
  top: "im_info"
  top: "gt_boxes"
  python_param {
    module: "roi_data_layer.layer"
    layer: "RoIDataLayer"
    param_str: "\'num_classes\': 21"
  }
}
layer {
  name: "conv1"
  type: "Convolution"
  bottom: "data"
  top: "conv1"
  param {
    lr_mult: 0
    decay_mult: 0
  }
  param {
    lr_mult: 0
    decay_mult: 0
  }
  convolution_param {
    num_output: 96
    kernel_size: 7
    stride: 2
  }
}
layer {
  name: "relu1"
  type: "ReLU"
  bottom: "conv1"
  top: "conv1"
}
layer {
  name: "norm1"
  type: "LRN"
  bottom: "conv1"
  top: "norm1"
  lrn_param {
    local_size: 5
    alpha: 0.0005
    beta: 0.75
    k: 2
  }
}
layer {
  name: "pool1"
  type: "Pooling"
  bottom: "norm1"
  top: "pool1"
  pooling_param {
    pool: MAX
    kernel_size: 3
    stride: 2
  }
}
layer {
  name: "conv2"
  type: "Convolution"
  bottom: "pool1"
  top: "conv2"
  param {
    lr_mult: 1
  }
  param {
    lr_mult: 2
  }
  convolution_param {
    num_output: 256
    pad: 1
    kernel_size: 5
    stride: 2
  }
}
layer {
  name: "relu2"
  type: "ReLU"
  bottom: "conv2"
  top: "conv2"
}
layer {
  name: "norm2"
  type: "LRN"
  bottom: "conv2"
  top: "norm2"
  lrn_param {
    local_size: 5
    alpha: 0.0005
    beta: 0.75
    k: 2
  }
}
layer {
  name: "pool2"
  type: "Pooling"
  bottom: "norm2"
  top: "pool2"
  pooling_param {
    pool: MAX
    kernel_size: 3
    stride: 2
  }
}
layer {
  name: "conv3"
  type: "Convolution"
  bottom: "pool2"
  top: "conv3"
  param {
    lr_mult: 1
  }
  param {
    lr_mult: 2
  }
  convolution_param {
    num_output: 512
    pad: 1
    kernel_size: 3
  }
}
layer {
  name: "relu3"
  type: "ReLU"
  bottom: "conv3"
  top: "conv3"
}
layer {
  name: "conv4"
  type: "Convolution"
  bottom: "conv3"
  top: "conv4"
  param {
    lr_mult: 1
  }
  param {
    lr_mult: 2
  }
  convolution_param {
    num_output: 512
    pad: 1
    kernel_size: 3
  }
}
layer {
  name: "relu4"
  type: "ReLU"
  bottom: "conv4"
  top: "conv4"
}
layer {
  name: "conv5"
  type: "Convolution"
  bottom: "conv4"
  top: "conv5"
  param {
    lr_mult: 1
  }
  param {
    lr_mult: 2
  }
  convolution_param {
    num_output: 512
    pad: 1
    kernel_size: 3
  }
}
layer {
  name: "relu5"
  type: "ReLU"
  bottom: "conv5"
  top: "conv5"
}
layer {
  name: "rpn_conv/3x3"
  type: "Convolution"
  bottom: "conv5"
  top: "rpn/output"
  param {
    lr_mult: 1
  }
  param {
    lr_mult: 2
  }
  convolution_param {
    num_output: 256
    pad: 1
    kernel_size: 3
    stride: 1
    weight_filler {
      type: "gaussian"
      std: 0.01
    }
    bias_filler {
      type: "constant"
      value: 0
    }
  }
}
layer {
  name: "rpn_relu/3x3"
  type: "ReLU"
  bottom: "rpn/output"
  top: "rpn/output"
}
layer {
  name: "rpn_cls_score"
  type: "Convolution"
  bottom: "rpn/output"
  top: "rpn_cls_score"
  param {
    lr_mult: 1
  }
  param {
    lr_mult: 2
  }
  convolution_param {
    num_output: 18
    pad: 0
    kernel_size: 1
    stride: 1
    weight_filler {
      type: "gaussian"
      std: 0.01
    }
    bias_filler {
      type: "constant"
      value: 0
    }
  }
}
layer {
  name: "rpn_bbox_pred"
  type: "Convolution"
  bottom: "rpn/output"
  top: "rpn_bbox_pred"
  param {
    lr_mult: 1
  }
  param {
    lr_mult: 2
  }
  convolution_param {
    num_output: 36
    pad: 0
    kernel_size: 1
    stride: 1
    weight_filler {
      type: "gaussian"
      std: 0.01
    }
    bias_filler {
      type: "constant"
      value: 0
    }
  }
}
layer {
  name: "rpn_cls_score_reshape"
  type: "Reshape"
  bottom: "rpn_cls_score"
  top: "rpn_cls_score_reshape"
  reshape_param {
    shape {
      dim: 0
      dim: 2
      dim: -1
      dim: 0
    }
  }
}
layer {
  name: "rpn-data"
  type: "Python"
  bottom: "rpn_cls_score"
  bottom: "gt_boxes"
  bottom: "im_info"
  bottom: "data"
  top: "rpn_labels"
  top: "rpn_bbox_targets"
  top: "rpn_bbox_inside_weights"
  top: "rpn_bbox_outside_weights"
  python_param {
    module: "rpn.anchor_target_layer"
    layer: "AnchorTargetLayer"
    param_str: "\'feat_stride\': 16"
  }
}
layer {
  name: "rpn_loss_cls"
  type: "SoftmaxWithLoss"
  bottom: "rpn_cls_score_reshape"
  bottom: "rpn_labels"
  top: "rpn_cls_loss"
  loss_weight: 1
  propagate_down: true
  propagate_down: false
  loss_param {
    ignore_label: -1
    normalize: true
  }
}
layer {
  name: "rpn_loss_bbox"
  type: "SmoothL1Loss"
  bottom: "rpn_bbox_pred"
  bottom: "rpn_bbox_targets"
  bottom: "rpn_bbox_inside_weights"
  bottom: "rpn_bbox_outside_weights"
  top: "rpn_loss_bbox"
  loss_weight: 1
  smooth_l1_loss_param {
    sigma: 3
  }
}
layer {
  name: "rpn_cls_prob"
  type: "Softmax"
  bottom: "rpn_cls_score_reshape"
  top: "rpn_cls_prob"
}
layer {
  name: "rpn_cls_prob_reshape"
  type: "Reshape"
  bottom: "rpn_cls_prob"
  top: "rpn_cls_prob_reshape"
  reshape_param {
    shape {
      dim: 0
      dim: 18
      dim: -1
      dim: 0
    }
  }
}
layer {
  name: "proposal"
  type: "Python"
  bottom: "rpn_cls_prob_reshape"
  bottom: "rpn_bbox_pred"
  bottom: "im_info"
  top: "rpn_rois"
  python_param {
    module: "rpn.proposal_layer"
    layer: "ProposalLayer"
    param_str: "\'feat_stride\': 16"
  }
}
layer {
  name: "roi-data"
  type: "Python"
  bottom: "rpn_rois"
  bottom: "gt_boxes"
  top: "rois"
  top: "labels"
  top: "bbox_targets"
  top: "bbox_inside_weights"
  top: "bbox_outside_weights"
  top: "key_targets"
  python_param {
    module: "rpn.proposal_target_layer"
    layer: "ProposalTargetLayer"
    param_str: "\'num_classes\': 21"
  }
}
layer {
  name: "roi_pool5"
  type: "ROIPooling"
  bottom: "conv5"
  bottom: "rois"
  top: "pool5"
  roi_pooling_param {
    pooled_h: 6
    pooled_w: 6
    spatial_scale: 0.0625
  }
}
layer {
  name: "fc6"
  type: "InnerProduct"
  bottom: "pool5"
  top: "fc6"
  param {
    lr_mult: 1
  }
  param {
    lr_mult: 2
  }
  inner_product_param {
    num_output: 4096
  }
}
layer {
  name: "relu6"
  type: "ReLU"
  bottom: "fc6"
  top: "fc6"
}
layer {
  name: "drop6"
  type: "Dropout"
  bottom: "fc6"
  top: "fc6"
  dropout_param {
    dropout_ratio: 0.5
  }
}
layer {
  name: "fc7"
  type: "InnerProduct"
  bottom: "fc6"
  top: "fc7"
  param {
    lr_mult: 1
  }
  param {
    lr_mult: 2
  }
  inner_product_param {
    num_output: 1024
  }
}
layer {
  name: "relu7"
  type: "ReLU"
  bottom: "fc7"
  top: "fc7"
}
layer {
  name: "drop7"
  type: "Dropout"
  bottom: "fc7"
  top: "fc7"
  dropout_param {
    dropout_ratio: 0.5
  }
}
layer {
  name: "cls_score"
  type: "InnerProduct"
  bottom: "fc7"
  top: "cls_score"
  param {
    lr_mult: 1
  }
  param {
    lr_mult: 2
  }
  inner_product_param {
    num_output: 21
    weight_filler {
      type: "gaussian"
      std: 0.01
    }
    bias_filler {
      type: "constant"
      value: 0
    }
  }
}
layer {
  name: "bbox_pred"
  type: "InnerProduct"
  bottom: "fc7"
  top: "bbox_pred"
  param {
    lr_mult: 1
  }
  param {
    lr_mult: 2
  }
  inner_product_param {
    num_output: 84
    weight_filler {
      type: "gaussian"
      std: 0.001
    }
    bias_filler {
      type: "constant"
      value: 0
    }
  }
}
layer {
  name: "key_pred"
  type: "InnerProduct"
  bottom: "fc7"
  top: "key_pred"
  param {
    lr_mult: 1
  }
  param {
    lr_mult: 2
  }
  inner_product_param {
    num_output: 84
    weight_filler {
      type: "gaussian"
      std: 0.001
    }
    bias_filler {
      type: "constant"
      value: 0
    }
  }
}
layer {
  name: "loss_cls"
  type: "SoftmaxWithLoss"
  bottom: "cls_score"
  bottom: "labels"
  top: "loss_cls"
  loss_weight: 1
  propagate_down: true
  propagate_down: false
}
layer {
  name: "loss_bbox"
  type: "SmoothL1Loss"
  bottom: "bbox_pred"
  bottom: "bbox_targets"
  bottom: "bbox_inside_weights"
  bottom: "bbox_outside_weights"
  top: "loss_bbox"
  loss_weight: 1
}
layer {
  name: "loss_key"
  type: "SmoothL1Loss"
  bottom: "key_pred"
  bottom: "key_targets"
  bottom: "bbox_inside_weights"
  bottom: "bbox_outside_weights"
  top: "loss_key"
  loss_weight: 1
}
I0823 18:38:50.680786 12971 layer_factory.hpp:77] Creating layer input-data
I0823 18:38:50.696677 12971 net.cpp:106] Creating Layer input-data
I0823 18:38:50.696712 12971 net.cpp:411] input-data -> data
I0823 18:38:50.696727 12971 net.cpp:411] input-data -> im_info
I0823 18:38:50.696735 12971 net.cpp:411] input-data -> gt_boxes
RoiDataLayer: name_to_top: {'gt_boxes': 2, 'data': 0, 'im_info': 1}
I0823 18:38:50.712188 12971 net.cpp:150] Setting up input-data
I0823 18:38:50.712215 12971 net.cpp:157] Top shape: 1 3 600 1000 (1800000)
I0823 18:38:50.712221 12971 net.cpp:157] Top shape: 1 3 (3)
I0823 18:38:50.712225 12971 net.cpp:157] Top shape: 1 4 (4)
I0823 18:38:50.712227 12971 net.cpp:165] Memory required for data: 7200028
I0823 18:38:50.712232 12971 layer_factory.hpp:77] Creating layer data_input-data_0_split
I0823 18:38:50.712245 12971 net.cpp:106] Creating Layer data_input-data_0_split
I0823 18:38:50.712251 12971 net.cpp:454] data_input-data_0_split <- data
I0823 18:38:50.712260 12971 net.cpp:411] data_input-data_0_split -> data_input-data_0_split_0
I0823 18:38:50.712270 12971 net.cpp:411] data_input-data_0_split -> data_input-data_0_split_1
I0823 18:38:50.712328 12971 net.cpp:150] Setting up data_input-data_0_split
I0823 18:38:50.712337 12971 net.cpp:157] Top shape: 1 3 600 1000 (1800000)
I0823 18:38:50.712342 12971 net.cpp:157] Top shape: 1 3 600 1000 (1800000)
I0823 18:38:50.712347 12971 net.cpp:165] Memory required for data: 21600028
I0823 18:38:50.712349 12971 layer_factory.hpp:77] Creating layer im_info_input-data_1_split
I0823 18:38:50.712357 12971 net.cpp:106] Creating Layer im_info_input-data_1_split
I0823 18:38:50.712359 12971 net.cpp:454] im_info_input-data_1_split <- im_info
I0823 18:38:50.712364 12971 net.cpp:411] im_info_input-data_1_split -> im_info_input-data_1_split_0
I0823 18:38:50.712373 12971 net.cpp:411] im_info_input-data_1_split -> im_info_input-data_1_split_1
I0823 18:38:50.712422 12971 net.cpp:150] Setting up im_info_input-data_1_split
I0823 18:38:50.712430 12971 net.cpp:157] Top shape: 1 3 (3)
I0823 18:38:50.712432 12971 net.cpp:157] Top shape: 1 3 (3)
I0823 18:38:50.712435 12971 net.cpp:165] Memory required for data: 21600052
I0823 18:38:50.712438 12971 layer_factory.hpp:77] Creating layer gt_boxes_input-data_2_split
I0823 18:38:50.712443 12971 net.cpp:106] Creating Layer gt_boxes_input-data_2_split
I0823 18:38:50.712446 12971 net.cpp:454] gt_boxes_input-data_2_split <- gt_boxes
I0823 18:38:50.712451 12971 net.cpp:411] gt_boxes_input-data_2_split -> gt_boxes_input-data_2_split_0
I0823 18:38:50.712457 12971 net.cpp:411] gt_boxes_input-data_2_split -> gt_boxes_input-data_2_split_1
I0823 18:38:50.712505 12971 net.cpp:150] Setting up gt_boxes_input-data_2_split
I0823 18:38:50.712512 12971 net.cpp:157] Top shape: 1 4 (4)
I0823 18:38:50.712517 12971 net.cpp:157] Top shape: 1 4 (4)
I0823 18:38:50.712518 12971 net.cpp:165] Memory required for data: 21600084
I0823 18:38:50.712522 12971 layer_factory.hpp:77] Creating layer conv1
I0823 18:38:50.712534 12971 net.cpp:106] Creating Layer conv1
I0823 18:38:50.712539 12971 net.cpp:454] conv1 <- data_input-data_0_split_0
I0823 18:38:50.712556 12971 net.cpp:411] conv1 -> conv1
I0823 18:38:51.019385 12971 net.cpp:150] Setting up conv1
I0823 18:38:51.019428 12971 net.cpp:157] Top shape: 1 96 297 497 (14170464)
I0823 18:38:51.019433 12971 net.cpp:165] Memory required for data: 78281940
I0823 18:38:51.019454 12971 layer_factory.hpp:77] Creating layer relu1
I0823 18:38:51.019467 12971 net.cpp:106] Creating Layer relu1
I0823 18:38:51.019474 12971 net.cpp:454] relu1 <- conv1
I0823 18:38:51.019480 12971 net.cpp:397] relu1 -> conv1 (in-place)
I0823 18:38:51.020031 12971 net.cpp:150] Setting up relu1
I0823 18:38:51.020046 12971 net.cpp:157] Top shape: 1 96 297 497 (14170464)
I0823 18:38:51.020050 12971 net.cpp:165] Memory required for data: 134963796
I0823 18:38:51.020053 12971 layer_factory.hpp:77] Creating layer norm1
I0823 18:38:51.020064 12971 net.cpp:106] Creating Layer norm1
I0823 18:38:51.020068 12971 net.cpp:454] norm1 <- conv1
I0823 18:38:51.020076 12971 net.cpp:411] norm1 -> norm1
I0823 18:38:51.020335 12971 net.cpp:150] Setting up norm1
I0823 18:38:51.020347 12971 net.cpp:157] Top shape: 1 96 297 497 (14170464)
I0823 18:38:51.020350 12971 net.cpp:165] Memory required for data: 191645652
I0823 18:38:51.020354 12971 layer_factory.hpp:77] Creating layer pool1
I0823 18:38:51.020362 12971 net.cpp:106] Creating Layer pool1
I0823 18:38:51.020366 12971 net.cpp:454] pool1 <- norm1
I0823 18:38:51.020372 12971 net.cpp:411] pool1 -> pool1
I0823 18:38:51.020436 12971 net.cpp:150] Setting up pool1
I0823 18:38:51.020443 12971 net.cpp:157] Top shape: 1 96 148 248 (3523584)
I0823 18:38:51.020447 12971 net.cpp:165] Memory required for data: 205739988
I0823 18:38:51.020449 12971 layer_factory.hpp:77] Creating layer conv2
I0823 18:38:51.020465 12971 net.cpp:106] Creating Layer conv2
I0823 18:38:51.020470 12971 net.cpp:454] conv2 <- pool1
I0823 18:38:51.020478 12971 net.cpp:411] conv2 -> conv2
I0823 18:38:51.026775 12971 net.cpp:150] Setting up conv2
I0823 18:38:51.026798 12971 net.cpp:157] Top shape: 1 256 73 123 (2298624)
I0823 18:38:51.026800 12971 net.cpp:165] Memory required for data: 214934484
I0823 18:38:51.026813 12971 layer_factory.hpp:77] Creating layer relu2
I0823 18:38:51.026823 12971 net.cpp:106] Creating Layer relu2
I0823 18:38:51.026828 12971 net.cpp:454] relu2 <- conv2
I0823 18:38:51.026834 12971 net.cpp:397] relu2 -> conv2 (in-place)
I0823 18:38:51.027362 12971 net.cpp:150] Setting up relu2
I0823 18:38:51.027377 12971 net.cpp:157] Top shape: 1 256 73 123 (2298624)
I0823 18:38:51.027380 12971 net.cpp:165] Memory required for data: 224128980
I0823 18:38:51.027385 12971 layer_factory.hpp:77] Creating layer norm2
I0823 18:38:51.027395 12971 net.cpp:106] Creating Layer norm2
I0823 18:38:51.027400 12971 net.cpp:454] norm2 <- conv2
I0823 18:38:51.027407 12971 net.cpp:411] norm2 -> norm2
I0823 18:38:51.027678 12971 net.cpp:150] Setting up norm2
I0823 18:38:51.027690 12971 net.cpp:157] Top shape: 1 256 73 123 (2298624)
I0823 18:38:51.027693 12971 net.cpp:165] Memory required for data: 233323476
I0823 18:38:51.027698 12971 layer_factory.hpp:77] Creating layer pool2
I0823 18:38:51.027704 12971 net.cpp:106] Creating Layer pool2
I0823 18:38:51.027709 12971 net.cpp:454] pool2 <- norm2
I0823 18:38:51.027715 12971 net.cpp:411] pool2 -> pool2
I0823 18:38:51.027782 12971 net.cpp:150] Setting up pool2
I0823 18:38:51.027791 12971 net.cpp:157] Top shape: 1 256 36 61 (562176)
I0823 18:38:51.027794 12971 net.cpp:165] Memory required for data: 235572180
I0823 18:38:51.027797 12971 layer_factory.hpp:77] Creating layer conv3
I0823 18:38:51.027808 12971 net.cpp:106] Creating Layer conv3
I0823 18:38:51.027813 12971 net.cpp:454] conv3 <- pool2
I0823 18:38:51.027822 12971 net.cpp:411] conv3 -> conv3
I0823 18:38:51.041844 12971 net.cpp:150] Setting up conv3
I0823 18:38:51.041885 12971 net.cpp:157] Top shape: 1 512 36 61 (1124352)
I0823 18:38:51.041889 12971 net.cpp:165] Memory required for data: 240069588
I0823 18:38:51.041908 12971 layer_factory.hpp:77] Creating layer relu3
I0823 18:38:51.041921 12971 net.cpp:106] Creating Layer relu3
I0823 18:38:51.041926 12971 net.cpp:454] relu3 <- conv3
I0823 18:38:51.041934 12971 net.cpp:397] relu3 -> conv3 (in-place)
I0823 18:38:51.042168 12971 net.cpp:150] Setting up relu3
I0823 18:38:51.042179 12971 net.cpp:157] Top shape: 1 512 36 61 (1124352)
I0823 18:38:51.042183 12971 net.cpp:165] Memory required for data: 244566996
I0823 18:38:51.042186 12971 layer_factory.hpp:77] Creating layer conv4
I0823 18:38:51.042199 12971 net.cpp:106] Creating Layer conv4
I0823 18:38:51.042204 12971 net.cpp:454] conv4 <- conv3
I0823 18:38:51.042210 12971 net.cpp:411] conv4 -> conv4
I0823 18:38:51.059295 12971 net.cpp:150] Setting up conv4
I0823 18:38:51.059334 12971 net.cpp:157] Top shape: 1 512 36 61 (1124352)
I0823 18:38:51.059339 12971 net.cpp:165] Memory required for data: 249064404
I0823 18:38:51.059350 12971 layer_factory.hpp:77] Creating layer relu4
I0823 18:38:51.059361 12971 net.cpp:106] Creating Layer relu4
I0823 18:38:51.059366 12971 net.cpp:454] relu4 <- conv4
I0823 18:38:51.059379 12971 net.cpp:397] relu4 -> conv4 (in-place)
I0823 18:38:51.059939 12971 net.cpp:150] Setting up relu4
I0823 18:38:51.059953 12971 net.cpp:157] Top shape: 1 512 36 61 (1124352)
I0823 18:38:51.059957 12971 net.cpp:165] Memory required for data: 253561812
I0823 18:38:51.059962 12971 layer_factory.hpp:77] Creating layer conv5
I0823 18:38:51.059983 12971 net.cpp:106] Creating Layer conv5
I0823 18:38:51.059988 12971 net.cpp:454] conv5 <- conv4
I0823 18:38:51.059994 12971 net.cpp:411] conv5 -> conv5
I0823 18:38:51.077514 12971 net.cpp:150] Setting up conv5
I0823 18:38:51.077555 12971 net.cpp:157] Top shape: 1 512 36 61 (1124352)
I0823 18:38:51.077559 12971 net.cpp:165] Memory required for data: 258059220
I0823 18:38:51.077577 12971 layer_factory.hpp:77] Creating layer relu5
I0823 18:38:51.077590 12971 net.cpp:106] Creating Layer relu5
I0823 18:38:51.077596 12971 net.cpp:454] relu5 <- conv5
I0823 18:38:51.077605 12971 net.cpp:397] relu5 -> conv5 (in-place)
I0823 18:38:51.077816 12971 net.cpp:150] Setting up relu5
I0823 18:38:51.077827 12971 net.cpp:157] Top shape: 1 512 36 61 (1124352)
I0823 18:38:51.077831 12971 net.cpp:165] Memory required for data: 262556628
I0823 18:38:51.077833 12971 layer_factory.hpp:77] Creating layer conv5_relu5_0_split
I0823 18:38:51.077841 12971 net.cpp:106] Creating Layer conv5_relu5_0_split
I0823 18:38:51.077844 12971 net.cpp:454] conv5_relu5_0_split <- conv5
I0823 18:38:51.077852 12971 net.cpp:411] conv5_relu5_0_split -> conv5_relu5_0_split_0
I0823 18:38:51.077862 12971 net.cpp:411] conv5_relu5_0_split -> conv5_relu5_0_split_1
I0823 18:38:51.077940 12971 net.cpp:150] Setting up conv5_relu5_0_split
I0823 18:38:51.077949 12971 net.cpp:157] Top shape: 1 512 36 61 (1124352)
I0823 18:38:51.077952 12971 net.cpp:157] Top shape: 1 512 36 61 (1124352)
I0823 18:38:51.077955 12971 net.cpp:165] Memory required for data: 271551444
I0823 18:38:51.077958 12971 layer_factory.hpp:77] Creating layer rpn_conv/3x3
I0823 18:38:51.077975 12971 net.cpp:106] Creating Layer rpn_conv/3x3
I0823 18:38:51.077980 12971 net.cpp:454] rpn_conv/3x3 <- conv5_relu5_0_split_0
I0823 18:38:51.077989 12971 net.cpp:411] rpn_conv/3x3 -> rpn/output
I0823 18:38:51.101209 12971 net.cpp:150] Setting up rpn_conv/3x3
I0823 18:38:51.101248 12971 net.cpp:157] Top shape: 1 256 36 61 (562176)
I0823 18:38:51.101251 12971 net.cpp:165] Memory required for data: 273800148
I0823 18:38:51.101261 12971 layer_factory.hpp:77] Creating layer rpn_relu/3x3
I0823 18:38:51.101272 12971 net.cpp:106] Creating Layer rpn_relu/3x3
I0823 18:38:51.101277 12971 net.cpp:454] rpn_relu/3x3 <- rpn/output
I0823 18:38:51.101287 12971 net.cpp:397] rpn_relu/3x3 -> rpn/output (in-place)
I0823 18:38:51.101814 12971 net.cpp:150] Setting up rpn_relu/3x3
I0823 18:38:51.101830 12971 net.cpp:157] Top shape: 1 256 36 61 (562176)
I0823 18:38:51.101832 12971 net.cpp:165] Memory required for data: 276048852
I0823 18:38:51.101836 12971 layer_factory.hpp:77] Creating layer rpn/output_rpn_relu/3x3_0_split
I0823 18:38:51.101843 12971 net.cpp:106] Creating Layer rpn/output_rpn_relu/3x3_0_split
I0823 18:38:51.101847 12971 net.cpp:454] rpn/output_rpn_relu/3x3_0_split <- rpn/output
I0823 18:38:51.101855 12971 net.cpp:411] rpn/output_rpn_relu/3x3_0_split -> rpn/output_rpn_relu/3x3_0_split_0
I0823 18:38:51.101864 12971 net.cpp:411] rpn/output_rpn_relu/3x3_0_split -> rpn/output_rpn_relu/3x3_0_split_1
I0823 18:38:51.101943 12971 net.cpp:150] Setting up rpn/output_rpn_relu/3x3_0_split
I0823 18:38:51.101951 12971 net.cpp:157] Top shape: 1 256 36 61 (562176)
I0823 18:38:51.101955 12971 net.cpp:157] Top shape: 1 256 36 61 (562176)
I0823 18:38:51.101958 12971 net.cpp:165] Memory required for data: 280546260
I0823 18:38:51.101963 12971 layer_factory.hpp:77] Creating layer rpn_cls_score
I0823 18:38:51.101979 12971 net.cpp:106] Creating Layer rpn_cls_score
I0823 18:38:51.101981 12971 net.cpp:454] rpn_cls_score <- rpn/output_rpn_relu/3x3_0_split_0
I0823 18:38:51.101989 12971 net.cpp:411] rpn_cls_score -> rpn_cls_score
I0823 18:38:51.104081 12971 net.cpp:150] Setting up rpn_cls_score
I0823 18:38:51.104117 12971 net.cpp:157] Top shape: 1 18 36 61 (39528)
I0823 18:38:51.104121 12971 net.cpp:165] Memory required for data: 280704372
I0823 18:38:51.104131 12971 layer_factory.hpp:77] Creating layer rpn_cls_score_rpn_cls_score_0_split
I0823 18:38:51.104141 12971 net.cpp:106] Creating Layer rpn_cls_score_rpn_cls_score_0_split
I0823 18:38:51.104146 12971 net.cpp:454] rpn_cls_score_rpn_cls_score_0_split <- rpn_cls_score
I0823 18:38:51.104154 12971 net.cpp:411] rpn_cls_score_rpn_cls_score_0_split -> rpn_cls_score_rpn_cls_score_0_split_0
I0823 18:38:51.104164 12971 net.cpp:411] rpn_cls_score_rpn_cls_score_0_split -> rpn_cls_score_rpn_cls_score_0_split_1
I0823 18:38:51.104249 12971 net.cpp:150] Setting up rpn_cls_score_rpn_cls_score_0_split
I0823 18:38:51.104257 12971 net.cpp:157] Top shape: 1 18 36 61 (39528)
I0823 18:38:51.104261 12971 net.cpp:157] Top shape: 1 18 36 61 (39528)
I0823 18:38:51.104264 12971 net.cpp:165] Memory required for data: 281020596
I0823 18:38:51.104269 12971 layer_factory.hpp:77] Creating layer rpn_bbox_pred
I0823 18:38:51.104282 12971 net.cpp:106] Creating Layer rpn_bbox_pred
I0823 18:38:51.104287 12971 net.cpp:454] rpn_bbox_pred <- rpn/output_rpn_relu/3x3_0_split_1
I0823 18:38:51.104296 12971 net.cpp:411] rpn_bbox_pred -> rpn_bbox_pred
I0823 18:38:51.106207 12971 net.cpp:150] Setting up rpn_bbox_pred
I0823 18:38:51.106225 12971 net.cpp:157] Top shape: 1 36 36 61 (79056)
I0823 18:38:51.106230 12971 net.cpp:165] Memory required for data: 281336820
I0823 18:38:51.106237 12971 layer_factory.hpp:77] Creating layer rpn_bbox_pred_rpn_bbox_pred_0_split
I0823 18:38:51.106245 12971 net.cpp:106] Creating Layer rpn_bbox_pred_rpn_bbox_pred_0_split
I0823 18:38:51.106251 12971 net.cpp:454] rpn_bbox_pred_rpn_bbox_pred_0_split <- rpn_bbox_pred
I0823 18:38:51.106256 12971 net.cpp:411] rpn_bbox_pred_rpn_bbox_pred_0_split -> rpn_bbox_pred_rpn_bbox_pred_0_split_0
I0823 18:38:51.106266 12971 net.cpp:411] rpn_bbox_pred_rpn_bbox_pred_0_split -> rpn_bbox_pred_rpn_bbox_pred_0_split_1
I0823 18:38:51.106336 12971 net.cpp:150] Setting up rpn_bbox_pred_rpn_bbox_pred_0_split
I0823 18:38:51.106345 12971 net.cpp:157] Top shape: 1 36 36 61 (79056)
I0823 18:38:51.106349 12971 net.cpp:157] Top shape: 1 36 36 61 (79056)
I0823 18:38:51.106353 12971 net.cpp:165] Memory required for data: 281969268
I0823 18:38:51.106355 12971 layer_factory.hpp:77] Creating layer rpn_cls_score_reshape
I0823 18:38:51.106366 12971 net.cpp:106] Creating Layer rpn_cls_score_reshape
I0823 18:38:51.106371 12971 net.cpp:454] rpn_cls_score_reshape <- rpn_cls_score_rpn_cls_score_0_split_0
I0823 18:38:51.106379 12971 net.cpp:411] rpn_cls_score_reshape -> rpn_cls_score_reshape
I0823 18:38:51.106423 12971 net.cpp:150] Setting up rpn_cls_score_reshape
I0823 18:38:51.106431 12971 net.cpp:157] Top shape: 1 2 324 61 (39528)
I0823 18:38:51.106434 12971 net.cpp:165] Memory required for data: 282127380
I0823 18:38:51.106438 12971 layer_factory.hpp:77] Creating layer rpn_cls_score_reshape_rpn_cls_score_reshape_0_split
I0823 18:38:51.106444 12971 net.cpp:106] Creating Layer rpn_cls_score_reshape_rpn_cls_score_reshape_0_split
I0823 18:38:51.106447 12971 net.cpp:454] rpn_cls_score_reshape_rpn_cls_score_reshape_0_split <- rpn_cls_score_reshape
I0823 18:38:51.106456 12971 net.cpp:411] rpn_cls_score_reshape_rpn_cls_score_reshape_0_split -> rpn_cls_score_reshape_rpn_cls_score_reshape_0_split_0
I0823 18:38:51.106463 12971 net.cpp:411] rpn_cls_score_reshape_rpn_cls_score_reshape_0_split -> rpn_cls_score_reshape_rpn_cls_score_reshape_0_split_1
I0823 18:38:51.106528 12971 net.cpp:150] Setting up rpn_cls_score_reshape_rpn_cls_score_reshape_0_split
I0823 18:38:51.106537 12971 net.cpp:157] Top shape: 1 2 324 61 (39528)
I0823 18:38:51.106541 12971 net.cpp:157] Top shape: 1 2 324 61 (39528)
I0823 18:38:51.106544 12971 net.cpp:165] Memory required for data: 282443604
I0823 18:38:51.106547 12971 layer_factory.hpp:77] Creating layer rpn-data
I0823 18:38:51.107097 12971 net.cpp:106] Creating Layer rpn-data
I0823 18:38:51.107111 12971 net.cpp:454] rpn-data <- rpn_cls_score_rpn_cls_score_0_split_1
I0823 18:38:51.107118 12971 net.cpp:454] rpn-data <- gt_boxes_input-data_2_split_0
I0823 18:38:51.107126 12971 net.cpp:454] rpn-data <- im_info_input-data_1_split_0
I0823 18:38:51.107131 12971 net.cpp:454] rpn-data <- data_input-data_0_split_1
I0823 18:38:51.107137 12971 net.cpp:411] rpn-data -> rpn_labels
I0823 18:38:51.107156 12971 net.cpp:411] rpn-data -> rpn_bbox_targets
I0823 18:38:51.107167 12971 net.cpp:411] rpn-data -> rpn_bbox_inside_weights
I0823 18:38:51.107178 12971 net.cpp:411] rpn-data -> rpn_bbox_outside_weights
I0823 18:38:51.110090 12971 net.cpp:150] Setting up rpn-data
I0823 18:38:51.110110 12971 net.cpp:157] Top shape: 1 1 324 61 (19764)
I0823 18:38:51.110116 12971 net.cpp:157] Top shape: 1 36 36 61 (79056)
I0823 18:38:51.110121 12971 net.cpp:157] Top shape: 1 36 36 61 (79056)
I0823 18:38:51.110124 12971 net.cpp:157] Top shape: 1 36 36 61 (79056)
I0823 18:38:51.110127 12971 net.cpp:165] Memory required for data: 283471332
I0823 18:38:51.110131 12971 layer_factory.hpp:77] Creating layer rpn_loss_cls
I0823 18:38:51.110146 12971 net.cpp:106] Creating Layer rpn_loss_cls
I0823 18:38:51.110152 12971 net.cpp:454] rpn_loss_cls <- rpn_cls_score_reshape_rpn_cls_score_reshape_0_split_0
I0823 18:38:51.110158 12971 net.cpp:454] rpn_loss_cls <- rpn_labels
…
I0823 18:38:51.111795 12971 net.cpp:157] Top shape: (1)
I0823 18:38:51.111799 12971 net.cpp:160]     with loss weight 1
I0823 18:38:51.111805 12971 net.cpp:165] Memory required for data: 283471340
I0823 18:38:51.111809 12971 layer_factory.hpp:77] Creating layer rpn_cls_prob
I0823 18:38:51.111814 12971 net.cpp:106] Creating Layer rpn_cls_prob
I0823 18:38:51.111819 12971 net.cpp:454] rpn_cls_prob <- rpn_cls_score_reshape_rpn_cls_score_reshape_0_split_1
I0823 18:38:51.111826 12971 net.cpp:411] rpn_cls_prob -> rpn_cls_prob
I0823 18:38:51.112160 12971 net.cpp:150] Setting up rpn_cls_prob
I0823 18:38:51.112172 12971 net.cpp:157] Top shape: 1 2 324 61 (39528)
I0823 18:38:51.112177 12971 net.cpp:165] Memory required for data: 283629452
I0823 18:38:51.112181 12971 layer_factory.hpp:77] Creating layer rpn_cls_prob_reshape
I0823 18:38:51.112200 12971 net.cpp:106] Creating Layer rpn_cls_prob_reshape
I0823 18:38:51.112205 12971 net.cpp:454] rpn_cls_prob_reshape <- rpn_cls_prob
I0823 18:38:51.112211 12971 net.cpp:411] rpn_cls_prob_reshape -> rpn_cls_prob_reshape
I0823 18:38:51.112262 12971 net.cpp:150] Setting up rpn_cls_prob_reshape
I0823 18:38:51.112270 12971 net.cpp:157] Top shape: 1 18 36 61 (39528)
I0823 18:38:51.112273 12971 net.cpp:165] Memory required for data: 283787564
I0823 18:38:51.112277 12971 layer_factory.hpp:77] Creating layer proposal
I0823 18:38:51.124877 12971 net.cpp:106] Creating Layer proposal
I0823 18:38:51.124913 12971 net.cpp:454] proposal <- rpn_cls_prob_reshape
I0823 18:38:51.124923 12971 net.cpp:454] proposal <- rpn_bbox_pred_rpn_bbox_pred_0_split_1
I0823 18:38:51.124928 12971 net.cpp:454] proposal <- im_info_input-data_1_split_1
I0823 18:38:51.124938 12971 net.cpp:411] proposal -> rpn_rois
I0823 18:38:51.130055 12971 net.cpp:150] Setting up proposal
I0823 18:38:51.130087 12971 net.cpp:157] Top shape: 1 5 (5)
I0823 18:38:51.130090 12971 net.cpp:165] Memory required for data: 283787584
I0823 18:38:51.130097 12971 layer_factory.hpp:77] Creating layer roi-data
I0823 18:38:51.130374 12971 net.cpp:106] Creating Layer roi-data
I0823 18:38:51.130388 12971 net.cpp:454] roi-data <- rpn_rois
I0823 18:38:51.130396 12971 net.cpp:454] roi-data <- gt_boxes_input-data_2_split_1
I0823 18:38:51.130405 12971 net.cpp:411] roi-data -> rois
I0823 18:38:51.130415 12971 net.cpp:411] roi-data -> labels
I0823 18:38:51.130425 12971 net.cpp:411] roi-data -> bbox_targets
I0823 18:38:51.130435 12971 net.cpp:411] roi-data -> bbox_inside_weights
I0823 18:38:51.130445 12971 net.cpp:411] roi-data -> bbox_outside_weights
I0823 18:38:51.130455 12971 net.cpp:411] roi-data -> key_targets
I0823 18:38:51.131165 12971 net.cpp:150] Setting up roi-data
I0823 18:38:51.131180 12971 net.cpp:157] Top shape: 1 5 (5)
I0823 18:38:51.131184 12971 net.cpp:157] Top shape: 1 1 (1)
I0823 18:38:51.131187 12971 net.cpp:157] Top shape: 1 84 (84)
I0823 18:38:51.131191 12971 net.cpp:157] Top shape: 1 84 (84)
I0823 18:38:51.131196 12971 net.cpp:157] Top shape: 1 84 (84)
I0823 18:38:51.131198 12971 net.cpp:157] Top shape: 1 84 (84)
I0823 18:38:51.131201 12971 net.cpp:165] Memory required for data: 283788952
I0823 18:38:51.131206 12971 layer_factory.hpp:77] Creating layer bbox_inside_weights_roi-data_3_split
I0823 18:38:51.131213 12971 net.cpp:106] Creating Layer bbox_inside_weights_roi-data_3_split
I0823 18:38:51.131219 12971 net.cpp:454] bbox_inside_weights_roi-data_3_split <- bbox_inside_weights
I0823 18:38:51.131227 12971 net.cpp:411] bbox_inside_weights_roi-data_3_split -> bbox_inside_weights_roi-data_3_split_0
I0823 18:38:51.131235 12971 net.cpp:411] bbox_inside_weights_roi-data_3_split -> bbox_inside_weights_roi-data_3_split_1
I0823 18:38:51.131305 12971 net.cpp:150] Setting up bbox_inside_weights_roi-data_3_split
I0823 18:38:51.131314 12971 net.cpp:157] Top shape: 1 84 (84)
I0823 18:38:51.131317 12971 net.cpp:157] Top shape: 1 84 (84)
I0823 18:38:51.131320 12971 net.cpp:165] Memory required for data: 283789624
I0823 18:38:51.131323 12971 layer_factory.hpp:77] Creating layer bbox_outside_weights_roi-data_4_split
I0823 18:38:51.131331 12971 net.cpp:106] Creating Layer bbox_outside_weights_roi-data_4_split
I0823 18:38:51.131335 12971 net.cpp:454] bbox_outside_weights_roi-data_4_split <- bbox_outside_weights
I0823 18:38:51.131341 12971 net.cpp:411] bbox_outside_weights_roi-data_4_split -> bbox_outside_weights_roi-data_4_split_0
I0823 18:38:51.131350 12971 net.cpp:411] bbox_outside_weights_roi-data_4_split -> bbox_outside_weights_roi-data_4_split_1
I0823 18:38:51.131410 12971 net.cpp:150] Setting up bbox_outside_weights_roi-data_4_split
I0823 18:38:51.131418 12971 net.cpp:157] Top shape: 1 84 (84)
I0823 18:38:51.131422 12971 net.cpp:157] Top shape: 1 84 (84)
I0823 18:38:51.131424 12971 net.cpp:165] Memory required for data: 283790296
I0823 18:38:51.131428 12971 layer_factory.hpp:77] Creating layer roi_pool5
I0823 18:38:51.131436 12971 net.cpp:106] Creating Layer roi_pool5
I0823 18:38:51.131441 12971 net.cpp:454] roi_pool5 <- conv5_relu5_0_split_1
I0823 18:38:51.131446 12971 net.cpp:454] roi_pool5 <- rois
I0823 18:38:51.131453 12971 net.cpp:411] roi_pool5 -> pool5
I0823 18:38:51.131464 12971 roi_pooling_layer.cpp:30] Spatial scale: 0.0625
I0823 18:38:51.131537 12971 net.cpp:150] Setting up roi_pool5
I0823 18:38:51.131546 12971 net.cpp:157] Top shape: 1 512 6 6 (18432)
I0823 18:38:51.131549 12971 net.cpp:165] Memory required for data: 283864024
I0823 18:38:51.131552 12971 layer_factory.hpp:77] Creating layer fc6
I0823 18:38:51.131561 12971 net.cpp:106] Creating Layer fc6
I0823 18:38:51.131563 12971 net.cpp:454] fc6 <- pool5
I0823 18:38:51.131570 12971 net.cpp:411] fc6 -> fc6
I0823 18:38:51.658237 12971 net.cpp:150] Setting up fc6
I0823 18:38:51.658285 12971 net.cpp:157] Top shape: 1 4096 (4096)
I0823 18:38:51.658288 12971 net.cpp:165] Memory required for data: 283880408
I0823 18:38:51.658313 12971 layer_factory.hpp:77] Creating layer relu6
I0823 18:38:51.658329 12971 net.cpp:106] Creating Layer relu6
I0823 18:38:51.658334 12971 net.cpp:454] relu6 <- fc6
I0823 18:38:51.658342 12971 net.cpp:397] relu6 -> fc6 (in-place)
I0823 18:38:51.659126 12971 net.cpp:150] Setting up relu6
I0823 18:38:51.659140 12971 net.cpp:157] Top shape: 1 4096 (4096)
I0823 18:38:51.659143 12971 net.cpp:165] Memory required for data: 283896792
I0823 18:38:51.659147 12971 layer_factory.hpp:77] Creating layer drop6
I0823 18:38:51.659157 12971 net.cpp:106] Creating Layer drop6
I0823 18:38:51.659162 12971 net.cpp:454] drop6 <- fc6
I0823 18:38:51.659168 12971 net.cpp:397] drop6 -> fc6 (in-place)
I0823 18:38:51.659221 12971 net.cpp:150] Setting up drop6
I0823 18:38:51.659230 12971 net.cpp:157] Top shape: 1 4096 (4096)
I0823 18:38:51.659234 12971 net.cpp:165] Memory required for data: 283913176
I0823 18:38:51.659236 12971 layer_factory.hpp:77] Creating layer fc7
I0823 18:38:51.659246 12971 net.cpp:106] Creating Layer fc7
I0823 18:38:51.659250 12971 net.cpp:454] fc7 <- fc6
I0823 18:38:51.659263 12971 net.cpp:411] fc7 -> fc7
I0823 18:38:51.685041 12971 net.cpp:150] Setting up fc7
I0823 18:38:51.685081 12971 net.cpp:157] Top shape: 1 1024 (1024)
I0823 18:38:51.685084 12971 net.cpp:165] Memory required for data: 283917272
I0823 18:38:51.685097 12971 layer_factory.hpp:77] Creating layer relu7
I0823 18:38:51.685111 12971 net.cpp:106] Creating Layer relu7
I0823 18:38:51.685117 12971 net.cpp:454] relu7 <- fc7
I0823 18:38:51.685127 12971 net.cpp:397] relu7 -> fc7 (in-place)
I0823 18:38:51.685402 12971 net.cpp:150] Setting up relu7
I0823 18:38:51.685412 12971 net.cpp:157] Top shape: 1 1024 (1024)
I0823 18:38:51.685415 12971 net.cpp:165] Memory required for data: 283921368
I0823 18:38:51.685417 12971 layer_factory.hpp:77] Creating layer drop7
I0823 18:38:51.685426 12971 net.cpp:106] Creating Layer drop7
I0823 18:38:51.685431 12971 net.cpp:454] drop7 <- fc7
I0823 18:38:51.685437 12971 net.cpp:397] drop7 -> fc7 (in-place)
I0823 18:38:51.685484 12971 net.cpp:150] Setting up drop7
I0823 18:38:51.685492 12971 net.cpp:157] Top shape: 1 1024 (1024)
I0823 18:38:51.685497 12971 net.cpp:165] Memory required for data: 283925464
I0823 18:38:51.685498 12971 layer_factory.hpp:77] Creating layer fc7_drop7_0_split
I0823 18:38:51.685505 12971 net.cpp:106] Creating Layer fc7_drop7_0_split
I0823 18:38:51.685508 12971 net.cpp:454] fc7_drop7_0_split <- fc7
I0823 18:38:51.685515 12971 net.cpp:411] fc7_drop7_0_split -> fc7_drop7_0_split_0
I0823 18:38:51.685524 12971 net.cpp:411] fc7_drop7_0_split -> fc7_drop7_0_split_1
I0823 18:38:51.685533 12971 net.cpp:411] fc7_drop7_0_split -> fc7_drop7_0_split_2
I0823 18:38:51.685626 12971 net.cpp:150] Setting up fc7_drop7_0_split
I0823 18:38:51.685632 12971 net.cpp:157] Top shape: 1 1024 (1024)
I0823 18:38:51.685636 12971 net.cpp:157] Top shape: 1 1024 (1024)
I0823 18:38:51.685638 12971 net.cpp:157] Top shape: 1 1024 (1024)
I0823 18:38:51.685642 12971 net.cpp:165] Memory required for data: 283937752
I0823 18:38:51.685643 12971 layer_factory.hpp:77] Creating layer cls_score
I0823 18:38:51.685652 12971 net.cpp:106] Creating Layer cls_score
I0823 18:38:51.685657 12971 net.cpp:454] cls_score <- fc7_drop7_0_split_0
I0823 18:38:51.685664 12971 net.cpp:411] cls_score -> cls_score
I0823 18:38:51.686123 12971 net.cpp:150] Setting up cls_score
I0823 18:38:51.686131 12971 net.cpp:157] Top shape: 1 21 (21)
I0823 18:38:51.686134 12971 net.cpp:165] Memory required for data: 283937836
I0823 18:38:51.686139 12971 layer_factory.hpp:77] Creating layer bbox_pred
I0823 18:38:51.686147 12971 net.cpp:106] Creating Layer bbox_pred
I0823 18:38:51.686151 12971 net.cpp:454] bbox_pred <- fc7_drop7_0_split_1
I0823 18:38:51.686159 12971 net.cpp:411] bbox_pred -> bbox_pred
I0823 18:38:51.689642 12971 net.cpp:150] Setting up bbox_pred
I0823 18:38:51.689657 12971 net.cpp:157] Top shape: 1 84 (84)
I0823 18:38:51.689661 12971 net.cpp:165] Memory required for data: 283938172
I0823 18:38:51.689666 12971 layer_factory.hpp:77] Creating layer key_pred
I0823 18:38:51.689676 12971 net.cpp:106] Creating Layer key_pred
I0823 18:38:51.689679 12971 net.cpp:454] key_pred <- fc7_drop7_0_split_2
I0823 18:38:51.689687 12971 net.cpp:411] key_pred -> key_pred
I0823 18:38:51.690786 12971 net.cpp:150] Setting up key_pred
I0823 18:38:51.690796 12971 net.cpp:157] Top shape: 1 84 (84)
I0823 18:38:51.690798 12971 net.cpp:165] Memory required for data: 283938508
I0823 18:38:51.690804 12971 layer_factory.hpp:77] Creating layer loss_cls
I0823 18:38:51.690812 12971 net.cpp:106] Creating Layer loss_cls
I0823 18:38:51.690816 12971 net.cpp:454] loss_cls <- cls_score
I0823 18:38:51.690820 12971 net.cpp:454] loss_cls <- labels
I0823 18:38:51.690827 12971 net.cpp:411] loss_cls -> loss_cls
…
