…
stepsize: 50000
snapshot: 0
snapshot_prefix: "key_vgg"
average_loss: 100
iter_size: 2
I0829 22:30:13.546613  3607 solver.cpp:81] Creating training net from train_net file: models/pascal_voc/VGG16/key/train.prototxt
I0829 22:30:13.547432  3607 net.cpp:49] Initializing net from parameters: 
name: "VGG_ILSVRC_16_layers"
state {
  phase: TRAIN
}
layer {
  name: "input-data"
  type: "Python"
  top: "data"
  top: "im_info"
  top: "gt_boxes"
  python_param {
    module: "roi_data_layer.layer"
    layer: "RoIDataLayer"
    param_str: "\'num_classes\': 21"
  }
}
layer {
  name: "conv1_1"
  type: "Convolution"
  bottom: "data"
  top: "conv1_1"
  param {
    lr_mult: 0
    decay_mult: 0
  }
  param {
    lr_mult: 0
    decay_mult: 0
  }
  convolution_param {
    num_output: 64
    pad: 1
    kernel_size: 3
  }
}
layer {
  name: "relu1_1"
  type: "ReLU"
  bottom: "conv1_1"
  top: "conv1_1"
}
layer {
  name: "conv1_2"
  type: "Convolution"
  bottom: "conv1_1"
  top: "conv1_2"
  param {
    lr_mult: 0
    decay_mult: 0
  }
  param {
    lr_mult: 0
    decay_mult: 0
  }
  convolution_param {
    num_output: 64
    pad: 1
    kernel_size: 3
  }
}
layer {
  name: "relu1_2"
  type: "ReLU"
  bottom: "conv1_2"
  top: "conv1_2"
}
layer {
  name: "pool1"
  type: "Pooling"
  bottom: "conv1_2"
  top: "pool1"
  pooling_param {
    pool: MAX
    kernel_size: 2
    stride: 2
  }
}
layer {
  name: "conv2_1"
  type: "Convolution"
  bottom: "pool1"
  top: "conv2_1"
  param {
    lr_mult: 0
    decay_mult: 0
  }
  param {
    lr_mult: 0
    decay_mult: 0
  }
  convolution_param {
    num_output: 128
    pad: 1
    kernel_size: 3
  }
}
layer {
  name: "relu2_1"
  type: "ReLU"
  bottom: "conv2_1"
  top: "conv2_1"
}
layer {
  name: "conv2_2"
  type: "Convolution"
  bottom: "conv2_1"
  top: "conv2_2"
  param {
    lr_mult: 0
    decay_mult: 0
  }
  param {
    lr_mult: 0
    decay_mult: 0
  }
  convolution_param {
    num_output: 128
    pad: 1
    kernel_size: 3
  }
}
layer {
  name: "relu2_2"
  type: "ReLU"
  bottom: "conv2_2"
  top: "conv2_2"
}
layer {
  name: "pool2"
  type: "Pooling"
  bottom: "conv2_2"
  top: "pool2"
  pooling_param {
    pool: MAX
    kernel_size: 2
    stride: 2
  }
}
layer {
  name: "conv3_1"
  type: "Convolution"
  bottom: "pool2"
  top: "conv3_1"
  param {
    lr_mult: 1
  }
  param {
    lr_mult: 2
  }
  convolution_param {
    num_output: 256
    pad: 1
    kernel_size: 3
  }
}
layer {
  name: "relu3_1"
  type: "ReLU"
  bottom: "conv3_1"
  top: "conv3_1"
}
layer {
  name: "conv3_2"
  type: "Convolution"
  bottom: "conv3_1"
  top: "conv3_2"
  param {
    lr_mult: 1
  }
  param {
    lr_mult: 2
  }
  convolution_param {
    num_output: 256
    pad: 1
    kernel_size: 3
  }
}
layer {
  name: "relu3_2"
  type: "ReLU"
  bottom: "conv3_2"
  top: "conv3_2"
}
layer {
  name: "conv3_3"
  type: "Convolution"
  bottom: "conv3_2"
  top: "conv3_3"
  param {
    lr_mult: 1
  }
  param {
    lr_mult: 2
  }
  convolution_param {
    num_output: 256
    pad: 1
    kernel_size: 3
  }
}
layer {
  name: "relu3_3"
  type: "ReLU"
  bottom: "conv3_3"
  top: "conv3_3"
}
layer {
  name: "pool3"
  type: "Pooling"
  bottom: "conv3_3"
  top: "pool3"
  pooling_param {
    pool: MAX
    kernel_size: 2
    stride: 2
  }
}
layer {
  name: "conv4_1"
  type: "Convolution"
  bottom: "pool3"
  top: "conv4_1"
  param {
    lr_mult: 1
  }
  param {
    lr_mult: 2
  }
  convolution_param {
    num_output: 512
    pad: 1
    kernel_size: 3
  }
}
layer {
  name: "relu4_1"
  type: "ReLU"
  bottom: "conv4_1"
  top: "conv4_1"
}
layer {
  name: "conv4_2"
  type: "Convolution"
  bottom: "conv4_1"
  top: "conv4_2"
  param {
    lr_mult: 1
  }
  param {
    lr_mult: 2
  }
  convolution_param {
    num_output: 512
    pad: 1
    kernel_size: 3
  }
}
layer {
  name: "relu4_2"
  type: "ReLU"
  bottom: "conv4_2"
  top: "conv4_2"
}
layer {
  name: "conv4_3"
  type: "Convolution"
  bottom: "conv4_2"
  top: "conv4_3"
  param {
    lr_mult: 1
  }
  param {
    lr_mult: 2
  }
  convolution_param {
    num_output: 512
    pad: 1
    kernel_size: 3
  }
}
layer {
  name: "relu4_3"
  type: "ReLU"
  bottom: "conv4_3"
  top: "conv4_3"
}
layer {
  name: "pool4"
  type: "Pooling"
  bottom: "conv4_3"
  top: "pool4"
  pooling_param {
    pool: MAX
    kernel_size: 2
    stride: 2
  }
}
layer {
  name: "conv5_1"
  type: "Convolution"
  bottom: "pool4"
  top: "conv5_1"
  param {
    lr_mult: 1
  }
  param {
    lr_mult: 2
  }
  convolution_param {
    num_output: 512
    pad: 1
    kernel_size: 3
  }
}
layer {
  name: "relu5_1"
  type: "ReLU"
  bottom: "conv5_1"
  top: "conv5_1"
}
layer {
  name: "conv5_2"
  type: "Convolution"
  bottom: "conv5_1"
  top: "conv5_2"
  param {
    lr_mult: 1
  }
  param {
    lr_mult: 2
  }
  convolution_param {
    num_output: 512
    pad: 1
    kernel_size: 3
  }
}
layer {
  name: "relu5_2"
  type: "ReLU"
  bottom: "conv5_2"
  top: "conv5_2"
}
layer {
  name: "conv5_3"
  type: "Convolution"
  bottom: "conv5_2"
  top: "conv5_3"
  param {
    lr_mult: 1
  }
  param {
    lr_mult: 2
  }
  convolution_param {
    num_output: 512
    pad: 1
    kernel_size: 3
  }
}
layer {
  name: "relu5_3"
  type: "ReLU"
  bottom: "conv5_3"
  top: "conv5_3"
}
layer {
  name: "rpn_conv/3x3"
  type: "Convolution"
  bottom: "conv5_3"
  top: "rpn/output"
  param {
    lr_mult: 1
  }
  param {
    lr_mult: 2
  }
  convolution_param {
    num_output: 512
    pad: 1
    kernel_size: 3
    stride: 1
    weight_filler {
      type: "gaussian"
      std: 0.01
    }
    bias_filler {
      type: "constant"
      value: 0
    }
  }
}
layer {
  name: "rpn_relu/3x3"
  type: "ReLU"
  bottom: "rpn/output"
  top: "rpn/output"
}
layer {
  name: "rpn_cls_score"
  type: "Convolution"
  bottom: "rpn/output"
  top: "rpn_cls_score"
  param {
    lr_mult: 1
  }
  param {
    lr_mult: 2
  }
  convolution_param {
    num_output: 18
    pad: 0
    kernel_size: 1
    stride: 1
    weight_filler {
      type: "gaussian"
      std: 0.01
    }
    bias_filler {
      type: "constant"
      value: 0
    }
  }
}
layer {
  name: "rpn_bbox_pred"
  type: "Convolution"
  bottom: "rpn/output"
  top: "rpn_bbox_pred"
  param {
    lr_mult: 1
  }
  param {
    lr_mult: 2
  }
  convolution_param {
    num_output: 36
    pad: 0
    kernel_size: 1
    stride: 1
    weight_filler {
      type: "gaussian"
      std: 0.01
    }
    bias_filler {
      type: "constant"
      value: 0
    }
  }
}
layer {
  name: "rpn_cls_score_reshape"
  type: "Reshape"
  bottom: "rpn_cls_score"
  top: "rpn_cls_score_reshape"
  reshape_param {
    shape {
      dim: 0
      dim: 2
      dim: -1
      dim: 0
    }
  }
}
layer {
  name: "rpn-data"
  type: "Python"
  bottom: "rpn_cls_score"
  bottom: "gt_boxes"
  bottom: "im_info"
  bottom: "data"
  top: "rpn_labels"
  top: "rpn_bbox_targets"
  top: "rpn_bbox_inside_weights"
  top: "rpn_bbox_outside_weights"
  python_param {
    module: "rpn.anchor_target_layer"
    layer: "AnchorTargetLayer"
    param_str: "\'feat_stride\': 16"
  }
}
layer {
  name: "rpn_loss_cls"
  type: "SoftmaxWithLoss"
  bottom: "rpn_cls_score_reshape"
  bottom: "rpn_labels"
  top: "rpn_cls_loss"
  loss_weight: 1
  propagate_down: true
  propagate_down: false
  loss_param {
    ignore_label: -1
    normalize: true
  }
}
layer {
  name: "rpn_loss_bbox"
  type: "SmoothL1Loss"
  bottom: "rpn_bbox_pred"
  bottom: "rpn_bbox_targets"
  bottom: "rpn_bbox_inside_weights"
  bottom: "rpn_bbox_outside_weights"
  top: "rpn_loss_bbox"
  loss_weight: 1
  smooth_l1_loss_param {
    sigma: 3
  }
}
layer {
  name: "rpn_cls_prob"
  type: "Softmax"
  bottom: "rpn_cls_score_reshape"
  top: "rpn_cls_prob"
}
layer {
  name: "rpn_cls_prob_reshape"
  type: "Reshape"
  bottom: "rpn_cls_prob"
  top: "rpn_cls_prob_reshape"
  reshape_param {
    shape {
      dim: 0
      dim: 18
      dim: -1
      dim: 0
    }
  }
}
layer {
  name: "proposal"
  type: "Python"
  bottom: "rpn_cls_prob_reshape"
  bottom: "rpn_bbox_pred"
  bottom: "im_info"
  top: "rpn_rois"
  python_param {
    module: "rpn.proposal_layer"
    layer: "ProposalLayer"
    param_str: "\'feat_stride\': 16"
  }
}
layer {
  name: "roi-data"
  type: "Python"
  bottom: "rpn_rois"
  bottom: "gt_boxes"
  top: "rois"
  top: "labels"
  top: "bbox_targets"
  top: "bbox_inside_weights"
  top: "bbox_outside_weights"
  top: "key_targets"
  top: "key_inside_weights"
  top: "key_outside_weights"
  python_param {
    module: "rpn.proposal_target_layer"
    layer: "ProposalTargetLayer"
    param_str: "\'num_classes\': 21"
  }
}
layer {
  name: "roi_pool5"
  type: "ROIPooling"
  bottom: "conv5_3"
  bottom: "rois"
  top: "pool5"
  roi_pooling_param {
    pooled_h: 7
    pooled_w: 7
    spatial_scale: 0.0625
  }
}
layer {
  name: "fc6"
  type: "InnerProduct"
  bottom: "pool5"
  top: "fc6"
  param {
    lr_mult: 1
  }
  param {
    lr_mult: 2
  }
  inner_product_param {
    num_output: 4096
  }
}
layer {
  name: "relu6"
  type: "ReLU"
  bottom: "fc6"
  top: "fc6"
}
layer {
  name: "drop6"
  type: "Dropout"
  bottom: "fc6"
  top: "fc6"
  dropout_param {
    dropout_ratio: 0.5
  }
}
layer {
  name: "fc7"
  type: "InnerProduct"
  bottom: "fc6"
  top: "fc7"
  param {
    lr_mult: 1
  }
  param {
    lr_mult: 2
  }
  inner_product_param {
    num_output: 4096
  }
}
layer {
  name: "relu7"
  type: "ReLU"
  bottom: "fc7"
  top: "fc7"
}
layer {
  name: "drop7"
  type: "Dropout"
  bottom: "fc7"
  top: "fc7"
  dropout_param {
    dropout_ratio: 0.5
  }
}
layer {
  name: "cls_score"
  type: "InnerProduct"
  bottom: "fc7"
  top: "cls_score"
  param {
    lr_mult: 1
  }
  param {
    lr_mult: 2
  }
  inner_product_param {
    num_output: 21
    weight_filler {
      type: "gaussian"
      std: 0.01
    }
    bias_filler {
      type: "constant"
      value: 0
    }
  }
}
layer {
  name: "bbox_pred"
  type: "InnerProduct"
  bottom: "fc7"
  top: "bbox_pred"
  param {
    lr_mult: 1
  }
  param {
    lr_mult: 2
  }
  inner_product_param {
    num_output: 84
    weight_filler {
      type: "gaussian"
      std: 0.001
    }
    bias_filler {
      type: "constant"
      value: 0
    }
  }
}
layer {
  name: "key_pred"
  type: "InnerProduct"
  bottom: "fc7"
  top: "key_pred"
  param {
    lr_mult: 1
  }
  param {
    lr_mult: 2
  }
  inner_product_param {
    num_output: 84
    weight_filler {
      type: "gaussian"
      std: 0.001
    }
    bias_filler {
      type: "constant"
      value: 0
    }
  }
}
layer {
  name: "loss_cls"
  type: "SoftmaxWithLoss"
  bottom: "cls_score"
  bottom: "labels"
  top: "loss_cls"
  loss_weight: 1
  propagate_down: true
  propagate_down: false
}
layer {
  name: "loss_bbox"
  type: "SmoothL1Loss"
  bottom: "bbox_pred"
  bottom: "bbox_targets"
  bottom: "bbox_inside_weights"
  bottom: "bbox_outside_weights"
  top: "loss_bbox"
  loss_weight: 1
}
layer {
  name: "loss_key"
  type: "SmoothL1Loss"
  bottom: "key_pred"
  bottom: "key_targets"
  bottom: "key_inside_weights"
  bottom: "key_outside_weights"
  top: "loss_key"
  loss_weight: 1
}
I0829 22:30:13.547787  3607 layer_factory.hpp:77] Creating layer input-data
I0829 22:30:13.561156  3607 net.cpp:106] Creating Layer input-data
I0829 22:30:13.561195  3607 net.cpp:411] input-data -> data
I0829 22:30:13.561208  3607 net.cpp:411] input-data -> im_info
I0829 22:30:13.561216  3607 net.cpp:411] input-data -> gt_boxes
RoiDataLayer: name_to_top: {'gt_boxes': 2, 'data': 0, 'im_info': 1}
I0829 22:30:13.572890  3607 net.cpp:150] Setting up input-data
I0829 22:30:13.572931  3607 net.cpp:157] Top shape: 1 3 600 1000 (1800000)
I0829 22:30:13.572938  3607 net.cpp:157] Top shape: 1 3 (3)
I0829 22:30:13.572942  3607 net.cpp:157] Top shape: 1 4 (4)
I0829 22:30:13.572945  3607 net.cpp:165] Memory required for data: 7200028
I0829 22:30:13.572952  3607 layer_factory.hpp:77] Creating layer data_input-data_0_split
I0829 22:30:13.572968  3607 net.cpp:106] Creating Layer data_input-data_0_split
I0829 22:30:13.572974  3607 net.cpp:454] data_input-data_0_split <- data
I0829 22:30:13.572984  3607 net.cpp:411] data_input-data_0_split -> data_input-data_0_split_0
I0829 22:30:13.572998  3607 net.cpp:411] data_input-data_0_split -> data_input-data_0_split_1
I0829 22:30:13.573056  3607 net.cpp:150] Setting up data_input-data_0_split
I0829 22:30:13.573065  3607 net.cpp:157] Top shape: 1 3 600 1000 (1800000)
I0829 22:30:13.573071  3607 net.cpp:157] Top shape: 1 3 600 1000 (1800000)
I0829 22:30:13.573076  3607 net.cpp:165] Memory required for data: 21600028
I0829 22:30:13.573078  3607 layer_factory.hpp:77] Creating layer im_info_input-data_1_split
I0829 22:30:13.573086  3607 net.cpp:106] Creating Layer im_info_input-data_1_split
I0829 22:30:13.573092  3607 net.cpp:454] im_info_input-data_1_split <- im_info
I0829 22:30:13.573099  3607 net.cpp:411] im_info_input-data_1_split -> im_info_input-data_1_split_0
I0829 22:30:13.573109  3607 net.cpp:411] im_info_input-data_1_split -> im_info_input-data_1_split_1
I0829 22:30:13.573158  3607 net.cpp:150] Setting up im_info_input-data_1_split
I0829 22:30:13.573165  3607 net.cpp:157] Top shape: 1 3 (3)
I0829 22:30:13.573168  3607 net.cpp:157] Top shape: 1 3 (3)
I0829 22:30:13.573171  3607 net.cpp:165] Memory required for data: 21600052
I0829 22:30:13.573174  3607 layer_factory.hpp:77] Creating layer gt_boxes_input-data_2_split
I0829 22:30:13.573181  3607 net.cpp:106] Creating Layer gt_boxes_input-data_2_split
I0829 22:30:13.573186  3607 net.cpp:454] gt_boxes_input-data_2_split <- gt_boxes
I0829 22:30:13.573192  3607 net.cpp:411] gt_boxes_input-data_2_split -> gt_boxes_input-data_2_split_0
I0829 22:30:13.573199  3607 net.cpp:411] gt_boxes_input-data_2_split -> gt_boxes_input-data_2_split_1
I0829 22:30:13.573252  3607 net.cpp:150] Setting up gt_boxes_input-data_2_split
I0829 22:30:13.573259  3607 net.cpp:157] Top shape: 1 4 (4)
I0829 22:30:13.573263  3607 net.cpp:157] Top shape: 1 4 (4)
I0829 22:30:13.573266  3607 net.cpp:165] Memory required for data: 21600084
I0829 22:30:13.573269  3607 layer_factory.hpp:77] Creating layer conv1_1
I0829 22:30:13.573285  3607 net.cpp:106] Creating Layer conv1_1
I0829 22:30:13.573290  3607 net.cpp:454] conv1_1 <- data_input-data_0_split_0
I0829 22:30:13.573298  3607 net.cpp:411] conv1_1 -> conv1_1
I0829 22:30:13.883599  3607 net.cpp:150] Setting up conv1_1
I0829 22:30:13.883648  3607 net.cpp:157] Top shape: 1 64 600 1000 (38400000)
I0829 22:30:13.883653  3607 net.cpp:165] Memory required for data: 175200084
I0829 22:30:13.883673  3607 layer_factory.hpp:77] Creating layer relu1_1
I0829 22:30:13.883687  3607 net.cpp:106] Creating Layer relu1_1
I0829 22:30:13.883690  3607 net.cpp:454] relu1_1 <- conv1_1
I0829 22:30:13.883699  3607 net.cpp:397] relu1_1 -> conv1_1 (in-place)
I0829 22:30:13.884280  3607 net.cpp:150] Setting up relu1_1
I0829 22:30:13.884296  3607 net.cpp:157] Top shape: 1 64 600 1000 (38400000)
I0829 22:30:13.884299  3607 net.cpp:165] Memory required for data: 328800084
I0829 22:30:13.884304  3607 layer_factory.hpp:77] Creating layer conv1_2
I0829 22:30:13.884316  3607 net.cpp:106] Creating Layer conv1_2
I0829 22:30:13.884322  3607 net.cpp:454] conv1_2 <- conv1_1
I0829 22:30:13.884330  3607 net.cpp:411] conv1_2 -> conv1_2
I0829 22:30:13.892755  3607 net.cpp:150] Setting up conv1_2
I0829 22:30:13.892788  3607 net.cpp:157] Top shape: 1 64 600 1000 (38400000)
I0829 22:30:13.892793  3607 net.cpp:165] Memory required for data: 482400084
I0829 22:30:13.892807  3607 layer_factory.hpp:77] Creating layer relu1_2
I0829 22:30:13.892817  3607 net.cpp:106] Creating Layer relu1_2
I0829 22:30:13.892822  3607 net.cpp:454] relu1_2 <- conv1_2
I0829 22:30:13.892835  3607 net.cpp:397] relu1_2 -> conv1_2 (in-place)
I0829 22:30:13.893051  3607 net.cpp:150] Setting up relu1_2
I0829 22:30:13.893064  3607 net.cpp:157] Top shape: 1 64 600 1000 (38400000)
I0829 22:30:13.893067  3607 net.cpp:165] Memory required for data: 636000084
I0829 22:30:13.893070  3607 layer_factory.hpp:77] Creating layer pool1
I0829 22:30:13.893082  3607 net.cpp:106] Creating Layer pool1
I0829 22:30:13.893088  3607 net.cpp:454] pool1 <- conv1_2
I0829 22:30:13.893095  3607 net.cpp:411] pool1 -> pool1
I0829 22:30:13.893174  3607 net.cpp:150] Setting up pool1
I0829 22:30:13.893183  3607 net.cpp:157] Top shape: 1 64 300 500 (9600000)
I0829 22:30:13.893187  3607 net.cpp:165] Memory required for data: 674400084
I0829 22:30:13.893190  3607 layer_factory.hpp:77] Creating layer conv2_1
I0829 22:30:13.893200  3607 net.cpp:106] Creating Layer conv2_1
I0829 22:30:13.893204  3607 net.cpp:454] conv2_1 <- pool1
I0829 22:30:13.893211  3607 net.cpp:411] conv2_1 -> conv2_1
I0829 22:30:13.897343  3607 net.cpp:150] Setting up conv2_1
I0829 22:30:13.897370  3607 net.cpp:157] Top shape: 1 128 300 500 (19200000)
I0829 22:30:13.897374  3607 net.cpp:165] Memory required for data: 751200084
I0829 22:30:13.897387  3607 layer_factory.hpp:77] Creating layer relu2_1
I0829 22:30:13.897395  3607 net.cpp:106] Creating Layer relu2_1
I0829 22:30:13.897400  3607 net.cpp:454] relu2_1 <- conv2_1
I0829 22:30:13.897406  3607 net.cpp:397] relu2_1 -> conv2_1 (in-place)
I0829 22:30:13.897617  3607 net.cpp:150] Setting up relu2_1
I0829 22:30:13.897630  3607 net.cpp:157] Top shape: 1 128 300 500 (19200000)
I0829 22:30:13.897634  3607 net.cpp:165] Memory required for data: 828000084
I0829 22:30:13.897637  3607 layer_factory.hpp:77] Creating layer conv2_2
I0829 22:30:13.897649  3607 net.cpp:106] Creating Layer conv2_2
I0829 22:30:13.897660  3607 net.cpp:454] conv2_2 <- conv2_1
I0829 22:30:13.897667  3607 net.cpp:411] conv2_2 -> conv2_2
I0829 22:30:13.904403  3607 net.cpp:150] Setting up conv2_2
I0829 22:30:13.904453  3607 net.cpp:157] Top shape: 1 128 300 500 (19200000)
I0829 22:30:13.904462  3607 net.cpp:165] Memory required for data: 904800084
I0829 22:30:13.904481  3607 layer_factory.hpp:77] Creating layer relu2_2
I0829 22:30:13.904505  3607 net.cpp:106] Creating Layer relu2_2
I0829 22:30:13.904515  3607 net.cpp:454] relu2_2 <- conv2_2
I0829 22:30:13.904528  3607 net.cpp:397] relu2_2 -> conv2_2 (in-place)
I0829 22:30:13.905380  3607 net.cpp:150] Setting up relu2_2
I0829 22:30:13.905405  3607 net.cpp:157] Top shape: 1 128 300 500 (19200000)
I0829 22:30:13.905411  3607 net.cpp:165] Memory required for data: 981600084
I0829 22:30:13.905419  3607 layer_factory.hpp:77] Creating layer pool2
I0829 22:30:13.905434  3607 net.cpp:106] Creating Layer pool2
I0829 22:30:13.905441  3607 net.cpp:454] pool2 <- conv2_2
I0829 22:30:13.905458  3607 net.cpp:411] pool2 -> pool2
I0829 22:30:13.905630  3607 net.cpp:150] Setting up pool2
I0829 22:30:13.905650  3607 net.cpp:157] Top shape: 1 128 150 250 (4800000)
I0829 22:30:13.905660  3607 net.cpp:165] Memory required for data: 1000800084
I0829 22:30:13.905668  3607 layer_factory.hpp:77] Creating layer conv3_1
I0829 22:30:13.905691  3607 net.cpp:106] Creating Layer conv3_1
I0829 22:30:13.905702  3607 net.cpp:454] conv3_1 <- pool2
I0829 22:30:13.905719  3607 net.cpp:411] conv3_1 -> conv3_1
I0829 22:30:13.912094  3607 net.cpp:150] Setting up conv3_1
I0829 22:30:13.912144  3607 net.cpp:157] Top shape: 1 256 150 250 (9600000)
I0829 22:30:13.912153  3607 net.cpp:165] Memory required for data: 1039200084
I0829 22:30:13.912185  3607 layer_factory.hpp:77] Creating layer relu3_1
I0829 22:30:13.912209  3607 net.cpp:106] Creating Layer relu3_1
I0829 22:30:13.912220  3607 net.cpp:454] relu3_1 <- conv3_1
I0829 22:30:13.912235  3607 net.cpp:397] relu3_1 -> conv3_1 (in-place)
I0829 22:30:13.912654  3607 net.cpp:150] Setting up relu3_1
I0829 22:30:13.912675  3607 net.cpp:157] Top shape: 1 256 150 250 (9600000)
I0829 22:30:13.912683  3607 net.cpp:165] Memory required for data: 1077600084
I0829 22:30:13.912689  3607 layer_factory.hpp:77] Creating layer conv3_2
I0829 22:30:13.912721  3607 net.cpp:106] Creating Layer conv3_2
I0829 22:30:13.912729  3607 net.cpp:454] conv3_2 <- conv3_1
I0829 22:30:13.912745  3607 net.cpp:411] conv3_2 -> conv3_2
I0829 22:30:13.920989  3607 net.cpp:150] Setting up conv3_2
I0829 22:30:13.921046  3607 net.cpp:157] Top shape: 1 256 150 250 (9600000)
I0829 22:30:13.921053  3607 net.cpp:165] Memory required for data: 1116000084
I0829 22:30:13.921072  3607 layer_factory.hpp:77] Creating layer relu3_2
I0829 22:30:13.921095  3607 net.cpp:106] Creating Layer relu3_2
I0829 22:30:13.921109  3607 net.cpp:454] relu3_2 <- conv3_2
I0829 22:30:13.921124  3607 net.cpp:397] relu3_2 -> conv3_2 (in-place)
I0829 22:30:13.921495  3607 net.cpp:150] Setting up relu3_2
I0829 22:30:13.921512  3607 net.cpp:157] Top shape: 1 256 150 250 (9600000)
I0829 22:30:13.921521  3607 net.cpp:165] Memory required for data: 1154400084
I0829 22:30:13.921527  3607 layer_factory.hpp:77] Creating layer conv3_3
I0829 22:30:13.921547  3607 net.cpp:106] Creating Layer conv3_3
I0829 22:30:13.921553  3607 net.cpp:454] conv3_3 <- conv3_2
I0829 22:30:13.921573  3607 net.cpp:411] conv3_3 -> conv3_3
I0829 22:30:13.929575  3607 net.cpp:150] Setting up conv3_3
I0829 22:30:13.929623  3607 net.cpp:157] Top shape: 1 256 150 250 (9600000)
I0829 22:30:13.929630  3607 net.cpp:165] Memory required for data: 1192800084
I0829 22:30:13.929648  3607 layer_factory.hpp:77] Creating layer relu3_3
I0829 22:30:13.929668  3607 net.cpp:106] Creating Layer relu3_3
I0829 22:30:13.929678  3607 net.cpp:454] relu3_3 <- conv3_3
I0829 22:30:13.929690  3607 net.cpp:397] relu3_3 -> conv3_3 (in-place)
I0829 22:30:13.930467  3607 net.cpp:150] Setting up relu3_3
I0829 22:30:13.930490  3607 net.cpp:157] Top shape: 1 256 150 250 (9600000)
I0829 22:30:13.930495  3607 net.cpp:165] Memory required for data: 1231200084
I0829 22:30:13.930501  3607 layer_factory.hpp:77] Creating layer pool3
I0829 22:30:13.930517  3607 net.cpp:106] Creating Layer pool3
I0829 22:30:13.930524  3607 net.cpp:454] pool3 <- conv3_3
I0829 22:30:13.930536  3607 net.cpp:411] pool3 -> pool3
I0829 22:30:13.930668  3607 net.cpp:150] Setting up pool3
I0829 22:30:13.930681  3607 net.cpp:157] Top shape: 1 256 75 125 (2400000)
I0829 22:30:13.930687  3607 net.cpp:165] Memory required for data: 1240800084
I0829 22:30:13.930692  3607 layer_factory.hpp:77] Creating layer conv4_1
I0829 22:30:13.930711  3607 net.cpp:106] Creating Layer conv4_1
I0829 22:30:13.930718  3607 net.cpp:454] conv4_1 <- pool3
I0829 22:30:13.930730  3607 net.cpp:411] conv4_1 -> conv4_1
I0829 22:30:13.946274  3607 net.cpp:150] Setting up conv4_1
I0829 22:30:13.946329  3607 net.cpp:157] Top shape: 1 512 75 125 (4800000)
I0829 22:30:13.946338  3607 net.cpp:165] Memory required for data: 1260000084
I0829 22:30:13.946364  3607 layer_factory.hpp:77] Creating layer relu4_1
I0829 22:30:13.946382  3607 net.cpp:106] Creating Layer relu4_1
I0829 22:30:13.946391  3607 net.cpp:454] relu4_1 <- conv4_1
I0829 22:30:13.946405  3607 net.cpp:397] relu4_1 -> conv4_1 (in-place)
I0829 22:30:13.947129  3607 net.cpp:150] Setting up relu4_1
I0829 22:30:13.947150  3607 net.cpp:157] Top shape: 1 512 75 125 (4800000)
I0829 22:30:13.947155  3607 net.cpp:165] Memory required for data: 1279200084
I0829 22:30:13.947161  3607 layer_factory.hpp:77] Creating layer conv4_2
I0829 22:30:13.947180  3607 net.cpp:106] Creating Layer conv4_2
I0829 22:30:13.947187  3607 net.cpp:454] conv4_2 <- conv4_1
I0829 22:30:13.947197  3607 net.cpp:411] conv4_2 -> conv4_2
I0829 22:30:13.965818  3607 net.cpp:150] Setting up conv4_2
I0829 22:30:13.965873  3607 net.cpp:157] Top shape: 1 512 75 125 (4800000)
I0829 22:30:13.965879  3607 net.cpp:165] Memory required for data: 1298400084
I0829 22:30:13.965919  3607 layer_factory.hpp:77] Creating layer relu4_2
I0829 22:30:13.965952  3607 net.cpp:106] Creating Layer relu4_2
I0829 22:30:13.965960  3607 net.cpp:454] relu4_2 <- conv4_2
I0829 22:30:13.965970  3607 net.cpp:397] relu4_2 -> conv4_2 (in-place)
I0829 22:30:13.966286  3607 net.cpp:150] Setting up relu4_2
I0829 22:30:13.966302  3607 net.cpp:157] Top shape: 1 512 75 125 (4800000)
I0829 22:30:13.966313  3607 net.cpp:165] Memory required for data: 1317600084
I0829 22:30:13.966318  3607 layer_factory.hpp:77] Creating layer conv4_3
I0829 22:30:13.966336  3607 net.cpp:106] Creating Layer conv4_3
I0829 22:30:13.966348  3607 net.cpp:454] conv4_3 <- conv4_2
I0829 22:30:13.966357  3607 net.cpp:411] conv4_3 -> conv4_3
I0829 22:30:13.984154  3607 net.cpp:150] Setting up conv4_3
I0829 22:30:13.984206  3607 net.cpp:157] Top shape: 1 512 75 125 (4800000)
I0829 22:30:13.984211  3607 net.cpp:165] Memory required for data: 1336800084
I0829 22:30:13.984226  3607 layer_factory.hpp:77] Creating layer relu4_3
I0829 22:30:13.984242  3607 net.cpp:106] Creating Layer relu4_3
I0829 22:30:13.984256  3607 net.cpp:454] relu4_3 <- conv4_3
I0829 22:30:13.984266  3607 net.cpp:397] relu4_3 -> conv4_3 (in-place)
I0829 22:30:13.984920  3607 net.cpp:150] Setting up relu4_3
I0829 22:30:13.984937  3607 net.cpp:157] Top shape: 1 512 75 125 (4800000)
I0829 22:30:13.984942  3607 net.cpp:165] Memory required for data: 1356000084
I0829 22:30:13.984951  3607 layer_factory.hpp:77] Creating layer pool4
I0829 22:30:13.984963  3607 net.cpp:106] Creating Layer pool4
I0829 22:30:13.984968  3607 net.cpp:454] pool4 <- conv4_3
I0829 22:30:13.984978  3607 net.cpp:411] pool4 -> pool4
I0829 22:30:13.985090  3607 net.cpp:150] Setting up pool4
I0829 22:30:13.985101  3607 net.cpp:157] Top shape: 1 512 38 63 (1225728)
I0829 22:30:13.985105  3607 net.cpp:165] Memory required for data: 1360902996
I0829 22:30:13.985110  3607 layer_factory.hpp:77] Creating layer conv5_1
I0829 22:30:13.985128  3607 net.cpp:106] Creating Layer conv5_1
I0829 22:30:13.985134  3607 net.cpp:454] conv5_1 <- pool4
I0829 22:30:13.985143  3607 net.cpp:411] conv5_1 -> conv5_1
I0829 22:30:14.002467  3607 net.cpp:150] Setting up conv5_1
I0829 22:30:14.002523  3607 net.cpp:157] Top shape: 1 512 38 63 (1225728)
I0829 22:30:14.002529  3607 net.cpp:165] Memory required for data: 1365805908
I0829 22:30:14.002545  3607 layer_factory.hpp:77] Creating layer relu5_1
I0829 22:30:14.002568  3607 net.cpp:106] Creating Layer relu5_1
I0829 22:30:14.002575  3607 net.cpp:454] relu5_1 <- conv5_1
I0829 22:30:14.002586  3607 net.cpp:397] relu5_1 -> conv5_1 (in-place)
I0829 22:30:14.002866  3607 net.cpp:150] Setting up relu5_1
I0829 22:30:14.002878  3607 net.cpp:157] Top shape: 1 512 38 63 (1225728)
I0829 22:30:14.002888  3607 net.cpp:165] Memory required for data: 1370708820
I0829 22:30:14.002892  3607 layer_factory.hpp:77] Creating layer conv5_2
I0829 22:30:14.002933  3607 net.cpp:106] Creating Layer conv5_2
I0829 22:30:14.002938  3607 net.cpp:454] conv5_2 <- conv5_1
I0829 22:30:14.002949  3607 net.cpp:411] conv5_2 -> conv5_2
I0829 22:30:14.020112  3607 net.cpp:150] Setting up conv5_2
I0829 22:30:14.020159  3607 net.cpp:157] Top shape: 1 512 38 63 (1225728)
I0829 22:30:14.020164  3607 net.cpp:165] Memory required for data: 1375611732
I0829 22:30:14.020177  3607 layer_factory.hpp:77] Creating layer relu5_2
I0829 22:30:14.020195  3607 net.cpp:106] Creating Layer relu5_2
I0829 22:30:14.020208  3607 net.cpp:454] relu5_2 <- conv5_2
I0829 22:30:14.020218  3607 net.cpp:397] relu5_2 -> conv5_2 (in-place)
I0829 22:30:14.020478  3607 net.cpp:150] Setting up relu5_2
I0829 22:30:14.020493  3607 net.cpp:157] Top shape: 1 512 38 63 (1225728)
I0829 22:30:14.020496  3607 net.cpp:165] Memory required for data: 1380514644
I0829 22:30:14.020500  3607 layer_factory.hpp:77] Creating layer conv5_3
I0829 22:30:14.020529  3607 net.cpp:106] Creating Layer conv5_3
I0829 22:30:14.020534  3607 net.cpp:454] conv5_3 <- conv5_2
I0829 22:30:14.020542  3607 net.cpp:411] conv5_3 -> conv5_3
I0829 22:30:14.037219  3607 net.cpp:150] Setting up conv5_3
I0829 22:30:14.037271  3607 net.cpp:157] Top shape: 1 512 38 63 (1225728)
I0829 22:30:14.037274  3607 net.cpp:165] Memory required for data: 1385417556
I0829 22:30:14.037288  3607 layer_factory.hpp:77] Creating layer relu5_3
I0829 22:30:14.037314  3607 net.cpp:106] Creating Layer relu5_3
I0829 22:30:14.037320  3607 net.cpp:454] relu5_3 <- conv5_3
I0829 22:30:14.037331  3607 net.cpp:397] relu5_3 -> conv5_3 (in-place)
I0829 22:30:14.037904  3607 net.cpp:150] Setting up relu5_3
I0829 22:30:14.037921  3607 net.cpp:157] Top shape: 1 512 38 63 (1225728)
I0829 22:30:14.037932  3607 net.cpp:165] Memory required for data: 1390320468
I0829 22:30:14.037936  3607 layer_factory.hpp:77] Creating layer conv5_3_relu5_3_0_split
I0829 22:30:14.037953  3607 net.cpp:106] Creating Layer conv5_3_relu5_3_0_split
I0829 22:30:14.037960  3607 net.cpp:454] conv5_3_relu5_3_0_split <- conv5_3
I0829 22:30:14.037971  3607 net.cpp:411] conv5_3_relu5_3_0_split -> conv5_3_relu5_3_0_split_0
I0829 22:30:14.037983  3607 net.cpp:411] conv5_3_relu5_3_0_split -> conv5_3_relu5_3_0_split_1
I0829 22:30:14.038080  3607 net.cpp:150] Setting up conv5_3_relu5_3_0_split
I0829 22:30:14.038094  3607 net.cpp:157] Top shape: 1 512 38 63 (1225728)
I0829 22:30:14.038099  3607 net.cpp:157] Top shape: 1 512 38 63 (1225728)
I0829 22:30:14.038102  3607 net.cpp:165] Memory required for data: 1400126292
I0829 22:30:14.038106  3607 layer_factory.hpp:77] Creating layer rpn_conv/3x3
I0829 22:30:14.038125  3607 net.cpp:106] Creating Layer rpn_conv/3x3
I0829 22:30:14.038132  3607 net.cpp:454] rpn_conv/3x3 <- conv5_3_relu5_3_0_split_0
I0829 22:30:14.038144  3607 net.cpp:411] rpn_conv/3x3 -> rpn/output
I0829 22:30:14.081544  3607 net.cpp:150] Setting up rpn_conv/3x3
I0829 22:30:14.081596  3607 net.cpp:157] Top shape: 1 512 38 63 (1225728)
I0829 22:30:14.081600  3607 net.cpp:165] Memory required for data: 1405029204
I0829 22:30:14.081614  3607 layer_factory.hpp:77] Creating layer rpn_relu/3x3
I0829 22:30:14.081629  3607 net.cpp:106] Creating Layer rpn_relu/3x3
I0829 22:30:14.081634  3607 net.cpp:454] rpn_relu/3x3 <- rpn/output
I0829 22:30:14.081646  3607 net.cpp:397] rpn_relu/3x3 -> rpn/output (in-place)
I0829 22:30:14.081883  3607 net.cpp:150] Setting up rpn_relu/3x3
I0829 22:30:14.081897  3607 net.cpp:157] Top shape: 1 512 38 63 (1225728)
I0829 22:30:14.081899  3607 net.cpp:165] Memory required for data: 1409932116
I0829 22:30:14.081903  3607 layer_factory.hpp:77] Creating layer rpn/output_rpn_relu/3x3_0_split
I0829 22:30:14.081913  3607 net.cpp:106] Creating Layer rpn/output_rpn_relu/3x3_0_split
I0829 22:30:14.081917  3607 net.cpp:454] rpn/output_rpn_relu/3x3_0_split <- rpn/output
I0829 22:30:14.081923  3607 net.cpp:411] rpn/output_rpn_relu/3x3_0_split -> rpn/output_rpn_relu/3x3_0_split_0
I0829 22:30:14.081934  3607 net.cpp:411] rpn/output_rpn_relu/3x3_0_split -> rpn/output_rpn_relu/3x3_0_split_1
I0829 22:30:14.082020  3607 net.cpp:150] Setting up rpn/output_rpn_relu/3x3_0_split
I0829 22:30:14.082028  3607 net.cpp:157] Top shape: 1 512 38 63 (1225728)
I0829 22:30:14.082032  3607 net.cpp:157] Top shape: 1 512 38 63 (1225728)
I0829 22:30:14.082036  3607 net.cpp:165] Memory required for data: 1419737940
I0829 22:30:14.082039  3607 layer_factory.hpp:77] Creating layer rpn_cls_score
I0829 22:30:14.082058  3607 net.cpp:106] Creating Layer rpn_cls_score
I0829 22:30:14.082064  3607 net.cpp:454] rpn_cls_score <- rpn/output_rpn_relu/3x3_0_split_0
I0829 22:30:14.082072  3607 net.cpp:411] rpn_cls_score -> rpn_cls_score
I0829 22:30:14.084399  3607 net.cpp:150] Setting up rpn_cls_score
I0829 22:30:14.084416  3607 net.cpp:157] Top shape: 1 18 38 63 (43092)
I0829 22:30:14.084420  3607 net.cpp:165] Memory required for data: 1419910308
I0829 22:30:14.084429  3607 layer_factory.hpp:77] Creating layer rpn_cls_score_rpn_cls_score_0_split
I0829 22:30:14.084439  3607 net.cpp:106] Creating Layer rpn_cls_score_rpn_cls_score_0_split
I0829 22:30:14.084444  3607 net.cpp:454] rpn_cls_score_rpn_cls_score_0_split <- rpn_cls_score
I0829 22:30:14.084451  3607 net.cpp:411] rpn_cls_score_rpn_cls_score_0_split -> rpn_cls_score_rpn_cls_score_0_split_0
I0829 22:30:14.084473  3607 net.cpp:411] rpn_cls_score_rpn_cls_score_0_split -> rpn_cls_score_rpn_cls_score_0_split_1
I0829 22:30:14.084558  3607 net.cpp:150] Setting up rpn_cls_score_rpn_cls_score_0_split
I0829 22:30:14.084568  3607 net.cpp:157] Top shape: 1 18 38 63 (43092)
I0829 22:30:14.084573  3607 net.cpp:157] Top shape: 1 18 38 63 (43092)
I0829 22:30:14.084575  3607 net.cpp:165] Memory required for data: 1420255044
I0829 22:30:14.084578  3607 layer_factory.hpp:77] Creating layer rpn_bbox_pred
I0829 22:30:14.084592  3607 net.cpp:106] Creating Layer rpn_bbox_pred
I0829 22:30:14.084599  3607 net.cpp:454] rpn_bbox_pred <- rpn/output_rpn_relu/3x3_0_split_1
I0829 22:30:14.084609  3607 net.cpp:411] rpn_bbox_pred -> rpn_bbox_pred
I0829 22:30:14.086661  3607 net.cpp:150] Setting up rpn_bbox_pred
I0829 22:30:14.086678  3607 net.cpp:157] Top shape: 1 36 38 63 (86184)
I0829 22:30:14.086681  3607 net.cpp:165] Memory required for data: 1420599780
I0829 22:30:14.086688  3607 layer_factory.hpp:77] Creating layer rpn_bbox_pred_rpn_bbox_pred_0_split
I0829 22:30:14.086696  3607 net.cpp:106] Creating Layer rpn_bbox_pred_rpn_bbox_pred_0_split
I0829 22:30:14.086700  3607 net.cpp:454] rpn_bbox_pred_rpn_bbox_pred_0_split <- rpn_bbox_pred
I0829 22:30:14.086710  3607 net.cpp:411] rpn_bbox_pred_rpn_bbox_pred_0_split -> rpn_bbox_pred_rpn_bbox_pred_0_split_0
I0829 22:30:14.086720  3607 net.cpp:411] rpn_bbox_pred_rpn_bbox_pred_0_split -> rpn_bbox_pred_rpn_bbox_pred_0_split_1
I0829 22:30:14.086802  3607 net.cpp:150] Setting up rpn_bbox_pred_rpn_bbox_pred_0_split
I0829 22:30:14.086812  3607 net.cpp:157] Top shape: 1 36 38 63 (86184)
I0829 22:30:14.086817  3607 net.cpp:157] Top shape: 1 36 38 63 (86184)
I0829 22:30:14.086820  3607 net.cpp:165] Memory required for data: 1421289252
I0829 22:30:14.086824  3607 layer_factory.hpp:77] Creating layer rpn_cls_score_reshape
I0829 22:30:14.086836  3607 net.cpp:106] Creating Layer rpn_cls_score_reshape
I0829 22:30:14.086841  3607 net.cpp:454] rpn_cls_score_reshape <- rpn_cls_score_rpn_cls_score_0_split_0
I0829 22:30:14.086851  3607 net.cpp:411] rpn_cls_score_reshape -> rpn_cls_score_reshape
I0829 22:30:14.086915  3607 net.cpp:150] Setting up rpn_cls_score_reshape
I0829 22:30:14.086930  3607 net.cpp:157] Top shape: 1 2 342 63 (43092)
I0829 22:30:14.086935  3607 net.cpp:165] Memory required for data: 1421461620
I0829 22:30:14.086941  3607 layer_factory.hpp:77] Creating layer rpn_cls_score_reshape_rpn_cls_score_reshape_0_split
I0829 22:30:14.086951  3607 net.cpp:106] Creating Layer rpn_cls_score_reshape_rpn_cls_score_reshape_0_split
I0829 22:30:14.086954  3607 net.cpp:454] rpn_cls_score_reshape_rpn_cls_score_reshape_0_split <- rpn_cls_score_reshape
I0829 22:30:14.086961  3607 net.cpp:411] rpn_cls_score_reshape_rpn_cls_score_reshape_0_split -> rpn_cls_score_reshape_rpn_cls_score_reshape_0_split_0
I0829 22:30:14.086976  3607 net.cpp:411] rpn_cls_score_reshape_rpn_cls_score_reshape_0_split -> rpn_cls_score_reshape_rpn_cls_score_reshape_0_split_1
I0829 22:30:14.087056  3607 net.cpp:150] Setting up rpn_cls_score_reshape_rpn_cls_score_reshape_0_split
I0829 22:30:14.087065  3607 net.cpp:157] Top shape: 1 2 342 63 (43092)
I0829 22:30:14.087070  3607 net.cpp:157] Top shape: 1 2 342 63 (43092)
I0829 22:30:14.087074  3607 net.cpp:165] Memory required for data: 1421806356
I0829 22:30:14.087077  3607 layer_factory.hpp:77] Creating layer rpn-data
I0829 22:30:14.087712  3607 net.cpp:106] Creating Layer rpn-data
I0829 22:30:14.087728  3607 net.cpp:454] rpn-data <- rpn_cls_score_rpn_cls_score_0_split_1
I0829 22:30:14.087736  3607 net.cpp:454] rpn-data <- gt_boxes_input-data_2_split_0
I0829 22:30:14.087743  3607 net.cpp:454] rpn-data <- im_info_input-data_1_split_0
I0829 22:30:14.087748  3607 net.cpp:454] rpn-data <- data_input-data_0_split_1
I0829 22:30:14.087759  3607 net.cpp:411] rpn-data -> rpn_labels
I0829 22:30:14.087769  3607 net.cpp:411] rpn-data -> rpn_bbox_targets
I0829 22:30:14.087779  3607 net.cpp:411] rpn-data -> rpn_bbox_inside_weights
I0829 22:30:14.087788  3607 net.cpp:411] rpn-data -> rpn_bbox_outside_weights
I0829 22:30:14.088932  3607 net.cpp:150] Setting up rpn-data
I0829 22:30:14.088951  3607 net.cpp:157] Top shape: 1 1 342 63 (21546)
I0829 22:30:14.088958  3607 net.cpp:157] Top shape: 1 36 38 63 (86184)
I0829 22:30:14.088961  3607 net.cpp:157] Top shape: 1 36 38 63 (86184)
I0829 22:30:14.088965  3607 net.cpp:157] Top shape: 1 36 38 63 (86184)
I0829 22:30:14.088968  3607 net.cpp:165] Memory required for data: 1422926748
I0829 22:30:14.088973  3607 layer_factory.hpp:77] Creating layer rpn_loss_cls
I0829 22:30:14.088984  3607 net.cpp:106] Creating Layer rpn_loss_cls
I0829 22:30:14.088987  3607 net.cpp:454] rpn_loss_cls <- rpn_cls_score_reshape_rpn_cls_score_reshape_0_split_0
I0829 22:30:14.088994  3607 net.cpp:454] rpn_loss_cls <- rpn_labels
…
I0829 22:30:14.090461  3607 net.cpp:157] Top shape: (1)
I0829 22:30:14.090464  3607 net.cpp:160]     with loss weight 1
I0829 22:30:14.090471  3607 net.cpp:165] Memory required for data: 1422926756
I0829 22:30:14.090474  3607 layer_factory.hpp:77] Creating layer rpn_cls_prob
I0829 22:30:14.090481  3607 net.cpp:106] Creating Layer rpn_cls_prob
I0829 22:30:14.090487  3607 net.cpp:454] rpn_cls_prob <- rpn_cls_score_reshape_rpn_cls_score_reshape_0_split_1
I0829 22:30:14.090499  3607 net.cpp:411] rpn_cls_prob -> rpn_cls_prob
I0829 22:30:14.091277  3607 net.cpp:150] Setting up rpn_cls_prob
I0829 22:30:14.091300  3607 net.cpp:157] Top shape: 1 2 342 63 (43092)
I0829 22:30:14.091302  3607 net.cpp:165] Memory required for data: 1423099124
I0829 22:30:14.091306  3607 layer_factory.hpp:77] Creating layer rpn_cls_prob_reshape
I0829 22:30:14.091317  3607 net.cpp:106] Creating Layer rpn_cls_prob_reshape
I0829 22:30:14.091322  3607 net.cpp:454] rpn_cls_prob_reshape <- rpn_cls_prob
I0829 22:30:14.091331  3607 net.cpp:411] rpn_cls_prob_reshape -> rpn_cls_prob_reshape
I0829 22:30:14.091385  3607 net.cpp:150] Setting up rpn_cls_prob_reshape
I0829 22:30:14.091394  3607 net.cpp:157] Top shape: 1 18 38 63 (43092)
I0829 22:30:14.091398  3607 net.cpp:165] Memory required for data: 1423271492
I0829 22:30:14.091401  3607 layer_factory.hpp:77] Creating layer proposal
I0829 22:30:14.104406  3607 net.cpp:106] Creating Layer proposal
I0829 22:30:14.104451  3607 net.cpp:454] proposal <- rpn_cls_prob_reshape
I0829 22:30:14.104463  3607 net.cpp:454] proposal <- rpn_bbox_pred_rpn_bbox_pred_0_split_1
I0829 22:30:14.104470  3607 net.cpp:454] proposal <- im_info_input-data_1_split_1
I0829 22:30:14.104480  3607 net.cpp:411] proposal -> rpn_rois
I0829 22:30:14.111189  3607 net.cpp:150] Setting up proposal
I0829 22:30:14.111233  3607 net.cpp:157] Top shape: 1 5 (5)
I0829 22:30:14.111241  3607 net.cpp:165] Memory required for data: 1423271512
I0829 22:30:14.111250  3607 layer_factory.hpp:77] Creating layer roi-data
I0829 22:30:14.111660  3607 net.cpp:106] Creating Layer roi-data
I0829 22:30:14.111693  3607 net.cpp:454] roi-data <- rpn_rois
I0829 22:30:14.111706  3607 net.cpp:454] roi-data <- gt_boxes_input-data_2_split_1
I0829 22:30:14.111723  3607 net.cpp:411] roi-data -> rois
I0829 22:30:14.111748  3607 net.cpp:411] roi-data -> labels
I0829 22:30:14.111768  3607 net.cpp:411] roi-data -> bbox_targets
I0829 22:30:14.111785  3607 net.cpp:411] roi-data -> bbox_inside_weights
I0829 22:30:14.111804  3607 net.cpp:411] roi-data -> bbox_outside_weights
I0829 22:30:14.111822  3607 net.cpp:411] roi-data -> key_targets
I0829 22:30:14.111840  3607 net.cpp:411] roi-data -> key_inside_weights
I0829 22:30:14.111857  3607 net.cpp:411] roi-data -> key_outside_weights
I0829 22:30:14.113113  3607 net.cpp:150] Setting up roi-data
I0829 22:30:14.113139  3607 net.cpp:157] Top shape: 1 5 (5)
I0829 22:30:14.113150  3607 net.cpp:157] Top shape: 1 1 (1)
I0829 22:30:14.113162  3607 net.cpp:157] Top shape: 1 84 (84)
I0829 22:30:14.113169  3607 net.cpp:157] Top shape: 1 84 (84)
I0829 22:30:14.113176  3607 net.cpp:157] Top shape: 1 84 (84)
I0829 22:30:14.113183  3607 net.cpp:157] Top shape: 1 84 (84)
I0829 22:30:14.113190  3607 net.cpp:157] Top shape: 1 84 (84)
I0829 22:30:14.113201  3607 net.cpp:157] Top shape: 1 84 (84)
I0829 22:30:14.113206  3607 net.cpp:165] Memory required for data: 1423273552
I0829 22:30:14.113214  3607 layer_factory.hpp:77] Creating layer roi_pool5
I0829 22:30:14.113229  3607 net.cpp:106] Creating Layer roi_pool5
I0829 22:30:14.113240  3607 net.cpp:454] roi_pool5 <- conv5_3_relu5_3_0_split_1
I0829 22:30:14.113252  3607 net.cpp:454] roi_pool5 <- rois
I0829 22:30:14.113265  3607 net.cpp:411] roi_pool5 -> pool5
I0829 22:30:14.113282  3607 roi_pooling_layer.cpp:30] Spatial scale: 0.0625
I0829 22:30:14.113428  3607 net.cpp:150] Setting up roi_pool5
I0829 22:30:14.113443  3607 net.cpp:157] Top shape: 1 512 7 7 (25088)
I0829 22:30:14.113450  3607 net.cpp:165] Memory required for data: 1423373904
I0829 22:30:14.113456  3607 layer_factory.hpp:77] Creating layer fc6
I0829 22:30:14.113476  3607 net.cpp:106] Creating Layer fc6
I0829 22:30:14.113483  3607 net.cpp:454] fc6 <- pool5
I0829 22:30:14.113498  3607 net.cpp:411] fc6 -> fc6
I0829 22:30:14.777684  3607 net.cpp:150] Setting up fc6
I0829 22:30:14.777739  3607 net.cpp:157] Top shape: 1 4096 (4096)
I0829 22:30:14.777742  3607 net.cpp:165] Memory required for data: 1423390288
I0829 22:30:14.777781  3607 layer_factory.hpp:77] Creating layer relu6
I0829 22:30:14.777799  3607 net.cpp:106] Creating Layer relu6
I0829 22:30:14.777806  3607 net.cpp:454] relu6 <- fc6
I0829 22:30:14.777817  3607 net.cpp:397] relu6 -> fc6 (in-place)
I0829 22:30:14.778132  3607 net.cpp:150] Setting up relu6
I0829 22:30:14.778144  3607 net.cpp:157] Top shape: 1 4096 (4096)
I0829 22:30:14.778147  3607 net.cpp:165] Memory required for data: 1423406672
I0829 22:30:14.778151  3607 layer_factory.hpp:77] Creating layer drop6
I0829 22:30:14.778161  3607 net.cpp:106] Creating Layer drop6
I0829 22:30:14.778164  3607 net.cpp:454] drop6 <- fc6
I0829 22:30:14.778169  3607 net.cpp:397] drop6 -> fc6 (in-place)
I0829 22:30:14.778223  3607 net.cpp:150] Setting up drop6
I0829 22:30:14.778230  3607 net.cpp:157] Top shape: 1 4096 (4096)
I0829 22:30:14.778234  3607 net.cpp:165] Memory required for data: 1423423056
I0829 22:30:14.778236  3607 layer_factory.hpp:77] Creating layer fc7
I0829 22:30:14.778245  3607 net.cpp:106] Creating Layer fc7
I0829 22:30:14.778249  3607 net.cpp:454] fc7 <- fc6
I0829 22:30:14.778254  3607 net.cpp:411] fc7 -> fc7
I0829 22:30:14.868489  3607 net.cpp:150] Setting up fc7
I0829 22:30:14.868544  3607 net.cpp:157] Top shape: 1 4096 (4096)
I0829 22:30:14.868549  3607 net.cpp:165] Memory required for data: 1423439440
I0829 22:30:14.868567  3607 layer_factory.hpp:77] Creating layer relu7
I0829 22:30:14.868582  3607 net.cpp:106] Creating Layer relu7
I0829 22:30:14.868588  3607 net.cpp:454] relu7 <- fc7
I0829 22:30:14.868599  3607 net.cpp:397] relu7 -> fc7 (in-place)
I0829 22:30:14.869309  3607 net.cpp:150] Setting up relu7
I0829 22:30:14.869323  3607 net.cpp:157] Top shape: 1 4096 (4096)
I0829 22:30:14.869326  3607 net.cpp:165] Memory required for data: 1423455824
I0829 22:30:14.869329  3607 layer_factory.hpp:77] Creating layer drop7
I0829 22:30:14.869339  3607 net.cpp:106] Creating Layer drop7
I0829 22:30:14.869343  3607 net.cpp:454] drop7 <- fc7
I0829 22:30:14.869350  3607 net.cpp:397] drop7 -> fc7 (in-place)
I0829 22:30:14.869403  3607 net.cpp:150] Setting up drop7
I0829 22:30:14.869410  3607 net.cpp:157] Top shape: 1 4096 (4096)
I0829 22:30:14.869413  3607 net.cpp:165] Memory required for data: 1423472208
I0829 22:30:14.869416  3607 layer_factory.hpp:77] Creating layer fc7_drop7_0_split
I0829 22:30:14.869424  3607 net.cpp:106] Creating Layer fc7_drop7_0_split
I0829 22:30:14.869429  3607 net.cpp:454] fc7_drop7_0_split <- fc7
I0829 22:30:14.869438  3607 net.cpp:411] fc7_drop7_0_split -> fc7_drop7_0_split_0
I0829 22:30:14.869448  3607 net.cpp:411] fc7_drop7_0_split -> fc7_drop7_0_split_1
I0829 22:30:14.869457  3607 net.cpp:411] fc7_drop7_0_split -> fc7_drop7_0_split_2
I0829 22:30:14.869561  3607 net.cpp:150] Setting up fc7_drop7_0_split
I0829 22:30:14.869570  3607 net.cpp:157] Top shape: 1 4096 (4096)
I0829 22:30:14.869572  3607 net.cpp:157] Top shape: 1 4096 (4096)
I0829 22:30:14.869576  3607 net.cpp:157] Top shape: 1 4096 (4096)
I0829 22:30:14.869580  3607 net.cpp:165] Memory required for data: 1423521360
I0829 22:30:14.869582  3607 layer_factory.hpp:77] Creating layer cls_score
I0829 22:30:14.869592  3607 net.cpp:106] Creating Layer cls_score
I0829 22:30:14.869596  3607 net.cpp:454] cls_score <- fc7_drop7_0_split_0
I0829 22:30:14.869604  3607 net.cpp:411] cls_score -> cls_score
I0829 22:30:14.870789  3607 net.cpp:150] Setting up cls_score
I0829 22:30:14.870801  3607 net.cpp:157] Top shape: 1 21 (21)
I0829 22:30:14.870805  3607 net.cpp:165] Memory required for data: 1423521444
I0829 22:30:14.870810  3607 layer_factory.hpp:77] Creating layer bbox_pred
I0829 22:30:14.870820  3607 net.cpp:106] Creating Layer bbox_pred
I0829 22:30:14.870823  3607 net.cpp:454] bbox_pred <- fc7_drop7_0_split_1
I0829 22:30:14.870831  3607 net.cpp:411] bbox_pred -> bbox_pred
I0829 22:30:14.876864  3607 net.cpp:150] Setting up bbox_pred
I0829 22:30:14.876917  3607 net.cpp:157] Top shape: 1 84 (84)
I0829 22:30:14.876922  3607 net.cpp:165] Memory required for data: 1423521780
I0829 22:30:14.876935  3607 layer_factory.hpp:77] Creating layer key_pred
I0829 22:30:14.876950  3607 net.cpp:106] Creating Layer key_pred
I0829 22:30:14.876968  3607 net.cpp:454] key_pred <- fc7_drop7_0_split_2
I0829 22:30:14.876981  3607 net.cpp:411] key_pred -> key_pred
I0829 22:30:14.883342  3607 net.cpp:150] Setting up key_pred
I0829 22:30:14.883389  3607 net.cpp:157] Top shape: 1 84 (84)
I0829 22:30:14.883394  3607 net.cpp:165] Memory required for data: 1423522116
I0829 22:30:14.883407  3607 layer_factory.hpp:77] Creating layer loss_cls
I0829 22:30:14.883421  3607 net.cpp:106] Creating Layer loss_cls
I0829 22:30:14.883438  3607 net.cpp:454] loss_cls <- cls_score
I0829 22:30:14.883448  3607 net.cpp:454] loss_cls <- labels
I0829 22:30:14.883455  3607 net.cpp:411] loss_cls -> loss_cls
…
