…
stepsize: 50000
snapshot: 0
snapshot_prefix: "vgg_cnn_m_1024_faster_rcnn"
average_loss: 100
I0823 18:38:24.266496 12883 solver.cpp:81] Creating training net from train_net file: models/pascal_voc/VGG_CNN_M_1024/key/train.prototxt
I0823 18:38:24.267132 12883 net.cpp:49] Initializing net from parameters: 
name: "VGG_CNN_M_1024"
state {
  phase: TRAIN
}
layer {
  name: "input-data"
  type: "Python"
  top: "data"
  top: "im_info"
  top: "gt_boxes"
  python_param {
    module: "roi_data_layer.layer"
    layer: "RoIDataLayer"
    param_str: "\'num_classes\': 21"
  }
}
layer {
  name: "conv1"
  type: "Convolution"
  bottom: "data"
  top: "conv1"
  param {
    lr_mult: 0
    decay_mult: 0
  }
  param {
    lr_mult: 0
    decay_mult: 0
  }
  convolution_param {
    num_output: 96
    kernel_size: 7
    stride: 2
  }
}
layer {
  name: "relu1"
  type: "ReLU"
  bottom: "conv1"
  top: "conv1"
}
layer {
  name: "norm1"
  type: "LRN"
  bottom: "conv1"
  top: "norm1"
  lrn_param {
    local_size: 5
    alpha: 0.0005
    beta: 0.75
    k: 2
  }
}
layer {
  name: "pool1"
  type: "Pooling"
  bottom: "norm1"
  top: "pool1"
  pooling_param {
    pool: MAX
    kernel_size: 3
    stride: 2
  }
}
layer {
  name: "conv2"
  type: "Convolution"
  bottom: "pool1"
  top: "conv2"
  param {
    lr_mult: 1
  }
  param {
    lr_mult: 2
  }
  convolution_param {
    num_output: 256
    pad: 1
    kernel_size: 5
    stride: 2
  }
}
layer {
  name: "relu2"
  type: "ReLU"
  bottom: "conv2"
  top: "conv2"
}
layer {
  name: "norm2"
  type: "LRN"
  bottom: "conv2"
  top: "norm2"
  lrn_param {
    local_size: 5
    alpha: 0.0005
    beta: 0.75
    k: 2
  }
}
layer {
  name: "pool2"
  type: "Pooling"
  bottom: "norm2"
  top: "pool2"
  pooling_param {
    pool: MAX
    kernel_size: 3
    stride: 2
  }
}
layer {
  name: "conv3"
  type: "Convolution"
  bottom: "pool2"
  top: "conv3"
  param {
    lr_mult: 1
  }
  param {
    lr_mult: 2
  }
  convolution_param {
    num_output: 512
    pad: 1
    kernel_size: 3
  }
}
layer {
  name: "relu3"
  type: "ReLU"
  bottom: "conv3"
  top: "conv3"
}
layer {
  name: "conv4"
  type: "Convolution"
  bottom: "conv3"
  top: "conv4"
  param {
    lr_mult: 1
  }
  param {
    lr_mult: 2
  }
  convolution_param {
    num_output: 512
    pad: 1
    kernel_size: 3
  }
}
layer {
  name: "relu4"
  type: "ReLU"
  bottom: "conv4"
  top: "conv4"
}
layer {
  name: "conv5"
  type: "Convolution"
  bottom: "conv4"
  top: "conv5"
  param {
    lr_mult: 1
  }
  param {
    lr_mult: 2
  }
  convolution_param {
    num_output: 512
    pad: 1
    kernel_size: 3
  }
}
layer {
  name: "relu5"
  type: "ReLU"
  bottom: "conv5"
  top: "conv5"
}
layer {
  name: "rpn_conv/3x3"
  type: "Convolution"
  bottom: "conv5"
  top: "rpn/output"
  param {
    lr_mult: 1
  }
  param {
    lr_mult: 2
  }
  convolution_param {
    num_output: 256
    pad: 1
    kernel_size: 3
    stride: 1
    weight_filler {
      type: "gaussian"
      std: 0.01
    }
    bias_filler {
      type: "constant"
      value: 0
    }
  }
}
layer {
  name: "rpn_relu/3x3"
  type: "ReLU"
  bottom: "rpn/output"
  top: "rpn/output"
}
layer {
  name: "rpn_cls_score"
  type: "Convolution"
  bottom: "rpn/output"
  top: "rpn_cls_score"
  param {
    lr_mult: 1
  }
  param {
    lr_mult: 2
  }
  convolution_param {
    num_output: 18
    pad: 0
    kernel_size: 1
    stride: 1
    weight_filler {
      type: "gaussian"
      std: 0.01
    }
    bias_filler {
      type: "constant"
      value: 0
    }
  }
}
layer {
  name: "rpn_bbox_pred"
  type: "Convolution"
  bottom: "rpn/output"
  top: "rpn_bbox_pred"
  param {
    lr_mult: 1
  }
  param {
    lr_mult: 2
  }
  convolution_param {
    num_output: 36
    pad: 0
    kernel_size: 1
    stride: 1
    weight_filler {
      type: "gaussian"
      std: 0.01
    }
    bias_filler {
      type: "constant"
      value: 0
    }
  }
}
layer {
  name: "rpn_cls_score_reshape"
  type: "Reshape"
  bottom: "rpn_cls_score"
  top: "rpn_cls_score_reshape"
  reshape_param {
    shape {
      dim: 0
      dim: 2
      dim: -1
      dim: 0
    }
  }
}
layer {
  name: "rpn-data"
  type: "Python"
  bottom: "rpn_cls_score"
  bottom: "gt_boxes"
  bottom: "im_info"
  bottom: "data"
  top: "rpn_labels"
  top: "rpn_bbox_targets"
  top: "rpn_bbox_inside_weights"
  top: "rpn_bbox_outside_weights"
  python_param {
    module: "rpn.anchor_target_layer"
    layer: "AnchorTargetLayer"
    param_str: "\'feat_stride\': 16"
  }
}
layer {
  name: "rpn_loss_cls"
  type: "SoftmaxWithLoss"
  bottom: "rpn_cls_score_reshape"
  bottom: "rpn_labels"
  top: "rpn_cls_loss"
  loss_weight: 1
  propagate_down: true
  propagate_down: false
  loss_param {
    ignore_label: -1
    normalize: true
  }
}
layer {
  name: "rpn_loss_bbox"
  type: "SmoothL1Loss"
  bottom: "rpn_bbox_pred"
  bottom: "rpn_bbox_targets"
  bottom: "rpn_bbox_inside_weights"
  bottom: "rpn_bbox_outside_weights"
  top: "rpn_loss_bbox"
  loss_weight: 1
  smooth_l1_loss_param {
    sigma: 3
  }
}
layer {
  name: "rpn_cls_prob"
  type: "Softmax"
  bottom: "rpn_cls_score_reshape"
  top: "rpn_cls_prob"
}
layer {
  name: "rpn_cls_prob_reshape"
  type: "Reshape"
  bottom: "rpn_cls_prob"
  top: "rpn_cls_prob_reshape"
  reshape_param {
    shape {
      dim: 0
      dim: 18
      dim: -1
      dim: 0
    }
  }
}
layer {
  name: "proposal"
  type: "Python"
  bottom: "rpn_cls_prob_reshape"
  bottom: "rpn_bbox_pred"
  bottom: "im_info"
  top: "rpn_rois"
  python_param {
    module: "rpn.proposal_layer"
    layer: "ProposalLayer"
    param_str: "\'feat_stride\': 16"
  }
}
layer {
  name: "roi-data"
  type: "Python"
  bottom: "rpn_rois"
  bottom: "gt_boxes"
  top: "rois"
  top: "labels"
  top: "bbox_targets"
  top: "bbox_inside_weights"
  top: "bbox_outside_weights"
  top: "key_targets"
  python_param {
    module: "rpn.proposal_target_layer"
    layer: "ProposalTargetLayer"
    param_str: "\'num_classes\': 21"
  }
}
layer {
  name: "roi_pool5"
  type: "ROIPooling"
  bottom: "conv5"
  bottom: "rois"
  top: "pool5"
  roi_pooling_param {
    pooled_h: 6
    pooled_w: 6
    spatial_scale: 0.0625
  }
}
layer {
  name: "fc6"
  type: "InnerProduct"
  bottom: "pool5"
  top: "fc6"
  param {
    lr_mult: 1
  }
  param {
    lr_mult: 2
  }
  inner_product_param {
    num_output: 4096
  }
}
layer {
  name: "relu6"
  type: "ReLU"
  bottom: "fc6"
  top: "fc6"
}
layer {
  name: "drop6"
  type: "Dropout"
  bottom: "fc6"
  top: "fc6"
  dropout_param {
    dropout_ratio: 0.5
  }
}
layer {
  name: "fc7"
  type: "InnerProduct"
  bottom: "fc6"
  top: "fc7"
  param {
    lr_mult: 1
  }
  param {
    lr_mult: 2
  }
  inner_product_param {
    num_output: 1024
  }
}
layer {
  name: "relu7"
  type: "ReLU"
  bottom: "fc7"
  top: "fc7"
}
layer {
  name: "drop7"
  type: "Dropout"
  bottom: "fc7"
  top: "fc7"
  dropout_param {
    dropout_ratio: 0.5
  }
}
layer {
  name: "cls_score"
  type: "InnerProduct"
  bottom: "fc7"
  top: "cls_score"
  param {
    lr_mult: 1
  }
  param {
    lr_mult: 2
  }
  inner_product_param {
    num_output: 21
    weight_filler {
      type: "gaussian"
      std: 0.01
    }
    bias_filler {
      type: "constant"
      value: 0
    }
  }
}
layer {
  name: "bbox_pred"
  type: "InnerProduct"
  bottom: "fc7"
  top: "bbox_pred"
  param {
    lr_mult: 1
  }
  param {
    lr_mult: 2
  }
  inner_product_param {
    num_output: 84
    weight_filler {
      type: "gaussian"
      std: 0.001
    }
    bias_filler {
      type: "constant"
      value: 0
    }
  }
}
layer {
  name: "key_pred"
  type: "InnerProduct"
  bottom: "fc7"
  top: "key_pred"
  param {
    lr_mult: 1
  }
  param {
    lr_mult: 2
  }
  inner_product_param {
    num_output: 84
    weight_filler {
      type: "gaussian"
      std: 0.001
    }
    bias_filler {
      type: "constant"
      value: 0
    }
  }
}
layer {
  name: "loss_cls"
  type: "SoftmaxWithLoss"
  bottom: "cls_score"
  bottom: "labels"
  top: "loss_cls"
  loss_weight: 1
  propagate_down: true
  propagate_down: false
}
layer {
  name: "loss_bbox"
  type: "SmoothL1Loss"
  bottom: "bbox_pred"
  bottom: "bbox_targets"
  bottom: "bbox_inside_weights"
  bottom: "bbox_outside_weights"
  top: "loss_bbox"
  loss_weight: 1
}
layer {
  name: "loss_key"
  type: "SmoothL1Loss"
  bottom: "key_pred"
  bottom: "key_targets"
  bottom: "bbox_inside_weights"
  bottom: "bbox_outside_weights"
  top: "loss_key"
  loss_weight: 1
}
I0823 18:38:24.267421 12883 layer_factory.hpp:77] Creating layer input-data
I0823 18:38:24.283836 12883 net.cpp:106] Creating Layer input-data
I0823 18:38:24.283869 12883 net.cpp:411] input-data -> data
I0823 18:38:24.283882 12883 net.cpp:411] input-data -> im_info
I0823 18:38:24.283890 12883 net.cpp:411] input-data -> gt_boxes
RoiDataLayer: name_to_top: {'gt_boxes': 2, 'data': 0, 'im_info': 1}
I0823 18:38:24.296295 12883 net.cpp:150] Setting up input-data
I0823 18:38:24.296324 12883 net.cpp:157] Top shape: 1 3 600 1000 (1800000)
I0823 18:38:24.296331 12883 net.cpp:157] Top shape: 1 3 (3)
I0823 18:38:24.296334 12883 net.cpp:157] Top shape: 1 4 (4)
I0823 18:38:24.296336 12883 net.cpp:165] Memory required for data: 7200028
I0823 18:38:24.296344 12883 layer_factory.hpp:77] Creating layer data_input-data_0_split
I0823 18:38:24.296361 12883 net.cpp:106] Creating Layer data_input-data_0_split
I0823 18:38:24.296367 12883 net.cpp:454] data_input-data_0_split <- data
I0823 18:38:24.296376 12883 net.cpp:411] data_input-data_0_split -> data_input-data_0_split_0
I0823 18:38:24.296389 12883 net.cpp:411] data_input-data_0_split -> data_input-data_0_split_1
I0823 18:38:24.296449 12883 net.cpp:150] Setting up data_input-data_0_split
I0823 18:38:24.296458 12883 net.cpp:157] Top shape: 1 3 600 1000 (1800000)
I0823 18:38:24.296463 12883 net.cpp:157] Top shape: 1 3 600 1000 (1800000)
I0823 18:38:24.296464 12883 net.cpp:165] Memory required for data: 21600028
I0823 18:38:24.296468 12883 layer_factory.hpp:77] Creating layer im_info_input-data_1_split
I0823 18:38:24.296474 12883 net.cpp:106] Creating Layer im_info_input-data_1_split
I0823 18:38:24.296478 12883 net.cpp:454] im_info_input-data_1_split <- im_info
I0823 18:38:24.296483 12883 net.cpp:411] im_info_input-data_1_split -> im_info_input-data_1_split_0
I0823 18:38:24.296490 12883 net.cpp:411] im_info_input-data_1_split -> im_info_input-data_1_split_1
I0823 18:38:24.296538 12883 net.cpp:150] Setting up im_info_input-data_1_split
I0823 18:38:24.296545 12883 net.cpp:157] Top shape: 1 3 (3)
I0823 18:38:24.296550 12883 net.cpp:157] Top shape: 1 3 (3)
I0823 18:38:24.296551 12883 net.cpp:165] Memory required for data: 21600052
I0823 18:38:24.296555 12883 layer_factory.hpp:77] Creating layer gt_boxes_input-data_2_split
I0823 18:38:24.296561 12883 net.cpp:106] Creating Layer gt_boxes_input-data_2_split
I0823 18:38:24.296563 12883 net.cpp:454] gt_boxes_input-data_2_split <- gt_boxes
I0823 18:38:24.296568 12883 net.cpp:411] gt_boxes_input-data_2_split -> gt_boxes_input-data_2_split_0
I0823 18:38:24.296576 12883 net.cpp:411] gt_boxes_input-data_2_split -> gt_boxes_input-data_2_split_1
I0823 18:38:24.296623 12883 net.cpp:150] Setting up gt_boxes_input-data_2_split
I0823 18:38:24.296630 12883 net.cpp:157] Top shape: 1 4 (4)
I0823 18:38:24.296634 12883 net.cpp:157] Top shape: 1 4 (4)
I0823 18:38:24.296636 12883 net.cpp:165] Memory required for data: 21600084
I0823 18:38:24.296639 12883 layer_factory.hpp:77] Creating layer conv1
I0823 18:38:24.296653 12883 net.cpp:106] Creating Layer conv1
I0823 18:38:24.296658 12883 net.cpp:454] conv1 <- data_input-data_0_split_0
I0823 18:38:24.296664 12883 net.cpp:411] conv1 -> conv1
I0823 18:38:24.622094 12883 net.cpp:150] Setting up conv1
I0823 18:38:24.622139 12883 net.cpp:157] Top shape: 1 96 297 497 (14170464)
I0823 18:38:24.622145 12883 net.cpp:165] Memory required for data: 78281940
I0823 18:38:24.622179 12883 layer_factory.hpp:77] Creating layer relu1
I0823 18:38:24.622198 12883 net.cpp:106] Creating Layer relu1
I0823 18:38:24.622205 12883 net.cpp:454] relu1 <- conv1
I0823 18:38:24.622215 12883 net.cpp:397] relu1 -> conv1 (in-place)
I0823 18:38:24.622820 12883 net.cpp:150] Setting up relu1
I0823 18:38:24.622839 12883 net.cpp:157] Top shape: 1 96 297 497 (14170464)
I0823 18:38:24.622843 12883 net.cpp:165] Memory required for data: 134963796
I0823 18:38:24.622848 12883 layer_factory.hpp:77] Creating layer norm1
I0823 18:38:24.622861 12883 net.cpp:106] Creating Layer norm1
I0823 18:38:24.622866 12883 net.cpp:454] norm1 <- conv1
I0823 18:38:24.622874 12883 net.cpp:411] norm1 -> norm1
I0823 18:38:24.623199 12883 net.cpp:150] Setting up norm1
I0823 18:38:24.623215 12883 net.cpp:157] Top shape: 1 96 297 497 (14170464)
I0823 18:38:24.623219 12883 net.cpp:165] Memory required for data: 191645652
I0823 18:38:24.623224 12883 layer_factory.hpp:77] Creating layer pool1
I0823 18:38:24.623234 12883 net.cpp:106] Creating Layer pool1
I0823 18:38:24.623237 12883 net.cpp:454] pool1 <- norm1
I0823 18:38:24.623245 12883 net.cpp:411] pool1 -> pool1
I0823 18:38:24.623324 12883 net.cpp:150] Setting up pool1
I0823 18:38:24.623333 12883 net.cpp:157] Top shape: 1 96 148 248 (3523584)
I0823 18:38:24.623337 12883 net.cpp:165] Memory required for data: 205739988
I0823 18:38:24.623342 12883 layer_factory.hpp:77] Creating layer conv2
I0823 18:38:24.623358 12883 net.cpp:106] Creating Layer conv2
I0823 18:38:24.623364 12883 net.cpp:454] conv2 <- pool1
I0823 18:38:24.623373 12883 net.cpp:411] conv2 -> conv2
I0823 18:38:24.630136 12883 net.cpp:150] Setting up conv2
I0823 18:38:24.630185 12883 net.cpp:157] Top shape: 1 256 73 123 (2298624)
I0823 18:38:24.630192 12883 net.cpp:165] Memory required for data: 214934484
I0823 18:38:24.630213 12883 layer_factory.hpp:77] Creating layer relu2
I0823 18:38:24.630230 12883 net.cpp:106] Creating Layer relu2
I0823 18:38:24.630235 12883 net.cpp:454] relu2 <- conv2
I0823 18:38:24.630244 12883 net.cpp:397] relu2 -> conv2 (in-place)
I0823 18:38:24.630839 12883 net.cpp:150] Setting up relu2
I0823 18:38:24.630861 12883 net.cpp:157] Top shape: 1 256 73 123 (2298624)
I0823 18:38:24.630864 12883 net.cpp:165] Memory required for data: 224128980
I0823 18:38:24.630870 12883 layer_factory.hpp:77] Creating layer norm2
I0823 18:38:24.630883 12883 net.cpp:106] Creating Layer norm2
I0823 18:38:24.630889 12883 net.cpp:454] norm2 <- conv2
I0823 18:38:24.630898 12883 net.cpp:411] norm2 -> norm2
I0823 18:38:24.631245 12883 net.cpp:150] Setting up norm2
I0823 18:38:24.631263 12883 net.cpp:157] Top shape: 1 256 73 123 (2298624)
I0823 18:38:24.631266 12883 net.cpp:165] Memory required for data: 233323476
I0823 18:38:24.631270 12883 layer_factory.hpp:77] Creating layer pool2
I0823 18:38:24.631281 12883 net.cpp:106] Creating Layer pool2
I0823 18:38:24.631285 12883 net.cpp:454] pool2 <- norm2
I0823 18:38:24.631297 12883 net.cpp:411] pool2 -> pool2
I0823 18:38:24.631377 12883 net.cpp:150] Setting up pool2
I0823 18:38:24.631387 12883 net.cpp:157] Top shape: 1 256 36 61 (562176)
I0823 18:38:24.631392 12883 net.cpp:165] Memory required for data: 235572180
I0823 18:38:24.631395 12883 layer_factory.hpp:77] Creating layer conv3
I0823 18:38:24.631410 12883 net.cpp:106] Creating Layer conv3
I0823 18:38:24.631417 12883 net.cpp:454] conv3 <- pool2
I0823 18:38:24.631425 12883 net.cpp:411] conv3 -> conv3
I0823 18:38:24.645014 12883 net.cpp:150] Setting up conv3
I0823 18:38:24.645054 12883 net.cpp:157] Top shape: 1 512 36 61 (1124352)
I0823 18:38:24.645058 12883 net.cpp:165] Memory required for data: 240069588
I0823 18:38:24.645081 12883 layer_factory.hpp:77] Creating layer relu3
I0823 18:38:24.645095 12883 net.cpp:106] Creating Layer relu3
I0823 18:38:24.645102 12883 net.cpp:454] relu3 <- conv3
I0823 18:38:24.645112 12883 net.cpp:397] relu3 -> conv3 (in-place)
I0823 18:38:24.645359 12883 net.cpp:150] Setting up relu3
I0823 18:38:24.645371 12883 net.cpp:157] Top shape: 1 512 36 61 (1124352)
I0823 18:38:24.645375 12883 net.cpp:165] Memory required for data: 244566996
I0823 18:38:24.645380 12883 layer_factory.hpp:77] Creating layer conv4
I0823 18:38:24.645393 12883 net.cpp:106] Creating Layer conv4
I0823 18:38:24.645400 12883 net.cpp:454] conv4 <- conv3
I0823 18:38:24.645407 12883 net.cpp:411] conv4 -> conv4
I0823 18:38:24.665189 12883 net.cpp:150] Setting up conv4
I0823 18:38:24.665246 12883 net.cpp:157] Top shape: 1 512 36 61 (1124352)
I0823 18:38:24.665254 12883 net.cpp:165] Memory required for data: 249064404
I0823 18:38:24.665272 12883 layer_factory.hpp:77] Creating layer relu4
I0823 18:38:24.665297 12883 net.cpp:106] Creating Layer relu4
I0823 18:38:24.665304 12883 net.cpp:454] relu4 <- conv4
I0823 18:38:24.665318 12883 net.cpp:397] relu4 -> conv4 (in-place)
I0823 18:38:24.666115 12883 net.cpp:150] Setting up relu4
I0823 18:38:24.666139 12883 net.cpp:157] Top shape: 1 512 36 61 (1124352)
I0823 18:38:24.666146 12883 net.cpp:165] Memory required for data: 253561812
I0823 18:38:24.666153 12883 layer_factory.hpp:77] Creating layer conv5
I0823 18:38:24.666182 12883 net.cpp:106] Creating Layer conv5
I0823 18:38:24.666193 12883 net.cpp:454] conv5 <- conv4
I0823 18:38:24.666206 12883 net.cpp:411] conv5 -> conv5
I0823 18:38:24.687604 12883 net.cpp:150] Setting up conv5
I0823 18:38:24.687650 12883 net.cpp:157] Top shape: 1 512 36 61 (1124352)
I0823 18:38:24.687657 12883 net.cpp:165] Memory required for data: 258059220
I0823 18:38:24.687681 12883 layer_factory.hpp:77] Creating layer relu5
I0823 18:38:24.687705 12883 net.cpp:106] Creating Layer relu5
I0823 18:38:24.687712 12883 net.cpp:454] relu5 <- conv5
I0823 18:38:24.687724 12883 net.cpp:397] relu5 -> conv5 (in-place)
I0823 18:38:24.688055 12883 net.cpp:150] Setting up relu5
I0823 18:38:24.688072 12883 net.cpp:157] Top shape: 1 512 36 61 (1124352)
I0823 18:38:24.688077 12883 net.cpp:165] Memory required for data: 262556628
I0823 18:38:24.688082 12883 layer_factory.hpp:77] Creating layer conv5_relu5_0_split
I0823 18:38:24.688094 12883 net.cpp:106] Creating Layer conv5_relu5_0_split
I0823 18:38:24.688102 12883 net.cpp:454] conv5_relu5_0_split <- conv5
I0823 18:38:24.688114 12883 net.cpp:411] conv5_relu5_0_split -> conv5_relu5_0_split_0
I0823 18:38:24.688130 12883 net.cpp:411] conv5_relu5_0_split -> conv5_relu5_0_split_1
I0823 18:38:24.688241 12883 net.cpp:150] Setting up conv5_relu5_0_split
I0823 18:38:24.688256 12883 net.cpp:157] Top shape: 1 512 36 61 (1124352)
I0823 18:38:24.688262 12883 net.cpp:157] Top shape: 1 512 36 61 (1124352)
I0823 18:38:24.688267 12883 net.cpp:165] Memory required for data: 271551444
I0823 18:38:24.688272 12883 layer_factory.hpp:77] Creating layer rpn_conv/3x3
I0823 18:38:24.688294 12883 net.cpp:106] Creating Layer rpn_conv/3x3
I0823 18:38:24.688302 12883 net.cpp:454] rpn_conv/3x3 <- conv5_relu5_0_split_0
I0823 18:38:24.688315 12883 net.cpp:411] rpn_conv/3x3 -> rpn/output
I0823 18:38:24.720172 12883 net.cpp:150] Setting up rpn_conv/3x3
I0823 18:38:24.720208 12883 net.cpp:157] Top shape: 1 256 36 61 (562176)
I0823 18:38:24.720213 12883 net.cpp:165] Memory required for data: 273800148
I0823 18:38:24.720227 12883 layer_factory.hpp:77] Creating layer rpn_relu/3x3
I0823 18:38:24.720243 12883 net.cpp:106] Creating Layer rpn_relu/3x3
I0823 18:38:24.720250 12883 net.cpp:454] rpn_relu/3x3 <- rpn/output
I0823 18:38:24.720260 12883 net.cpp:397] rpn_relu/3x3 -> rpn/output (in-place)
I0823 18:38:24.720903 12883 net.cpp:150] Setting up rpn_relu/3x3
I0823 18:38:24.720923 12883 net.cpp:157] Top shape: 1 256 36 61 (562176)
I0823 18:38:24.720927 12883 net.cpp:165] Memory required for data: 276048852
I0823 18:38:24.720932 12883 layer_factory.hpp:77] Creating layer rpn/output_rpn_relu/3x3_0_split
I0823 18:38:24.720945 12883 net.cpp:106] Creating Layer rpn/output_rpn_relu/3x3_0_split
I0823 18:38:24.720950 12883 net.cpp:454] rpn/output_rpn_relu/3x3_0_split <- rpn/output
I0823 18:38:24.720963 12883 net.cpp:411] rpn/output_rpn_relu/3x3_0_split -> rpn/output_rpn_relu/3x3_0_split_0
I0823 18:38:24.720974 12883 net.cpp:411] rpn/output_rpn_relu/3x3_0_split -> rpn/output_rpn_relu/3x3_0_split_1
I0823 18:38:24.721082 12883 net.cpp:150] Setting up rpn/output_rpn_relu/3x3_0_split
I0823 18:38:24.721094 12883 net.cpp:157] Top shape: 1 256 36 61 (562176)
I0823 18:38:24.721101 12883 net.cpp:157] Top shape: 1 256 36 61 (562176)
I0823 18:38:24.721104 12883 net.cpp:165] Memory required for data: 280546260
I0823 18:38:24.721108 12883 layer_factory.hpp:77] Creating layer rpn_cls_score
I0823 18:38:24.721128 12883 net.cpp:106] Creating Layer rpn_cls_score
I0823 18:38:24.721133 12883 net.cpp:454] rpn_cls_score <- rpn/output_rpn_relu/3x3_0_split_0
I0823 18:38:24.721143 12883 net.cpp:411] rpn_cls_score -> rpn_cls_score
I0823 18:38:24.723537 12883 net.cpp:150] Setting up rpn_cls_score
I0823 18:38:24.723556 12883 net.cpp:157] Top shape: 1 18 36 61 (39528)
I0823 18:38:24.723562 12883 net.cpp:165] Memory required for data: 280704372
I0823 18:38:24.723572 12883 layer_factory.hpp:77] Creating layer rpn_cls_score_rpn_cls_score_0_split
I0823 18:38:24.723582 12883 net.cpp:106] Creating Layer rpn_cls_score_rpn_cls_score_0_split
I0823 18:38:24.723587 12883 net.cpp:454] rpn_cls_score_rpn_cls_score_0_split <- rpn_cls_score
I0823 18:38:24.723600 12883 net.cpp:411] rpn_cls_score_rpn_cls_score_0_split -> rpn_cls_score_rpn_cls_score_0_split_0
I0823 18:38:24.723611 12883 net.cpp:411] rpn_cls_score_rpn_cls_score_0_split -> rpn_cls_score_rpn_cls_score_0_split_1
I0823 18:38:24.723707 12883 net.cpp:150] Setting up rpn_cls_score_rpn_cls_score_0_split
I0823 18:38:24.723717 12883 net.cpp:157] Top shape: 1 18 36 61 (39528)
I0823 18:38:24.723723 12883 net.cpp:157] Top shape: 1 18 36 61 (39528)
I0823 18:38:24.723727 12883 net.cpp:165] Memory required for data: 281020596
I0823 18:38:24.723731 12883 layer_factory.hpp:77] Creating layer rpn_bbox_pred
I0823 18:38:24.723747 12883 net.cpp:106] Creating Layer rpn_bbox_pred
I0823 18:38:24.723757 12883 net.cpp:454] rpn_bbox_pred <- rpn/output_rpn_relu/3x3_0_split_1
I0823 18:38:24.723767 12883 net.cpp:411] rpn_bbox_pred -> rpn_bbox_pred
I0823 18:38:24.726152 12883 net.cpp:150] Setting up rpn_bbox_pred
I0823 18:38:24.726173 12883 net.cpp:157] Top shape: 1 36 36 61 (79056)
I0823 18:38:24.726178 12883 net.cpp:165] Memory required for data: 281336820
I0823 18:38:24.726188 12883 layer_factory.hpp:77] Creating layer rpn_bbox_pred_rpn_bbox_pred_0_split
I0823 18:38:24.726197 12883 net.cpp:106] Creating Layer rpn_bbox_pred_rpn_bbox_pred_0_split
I0823 18:38:24.726202 12883 net.cpp:454] rpn_bbox_pred_rpn_bbox_pred_0_split <- rpn_bbox_pred
I0823 18:38:24.726212 12883 net.cpp:411] rpn_bbox_pred_rpn_bbox_pred_0_split -> rpn_bbox_pred_rpn_bbox_pred_0_split_0
I0823 18:38:24.726227 12883 net.cpp:411] rpn_bbox_pred_rpn_bbox_pred_0_split -> rpn_bbox_pred_rpn_bbox_pred_0_split_1
I0823 18:38:24.726317 12883 net.cpp:150] Setting up rpn_bbox_pred_rpn_bbox_pred_0_split
I0823 18:38:24.726332 12883 net.cpp:157] Top shape: 1 36 36 61 (79056)
I0823 18:38:24.726338 12883 net.cpp:157] Top shape: 1 36 36 61 (79056)
I0823 18:38:24.726342 12883 net.cpp:165] Memory required for data: 281969268
I0823 18:38:24.726347 12883 layer_factory.hpp:77] Creating layer rpn_cls_score_reshape
I0823 18:38:24.726358 12883 net.cpp:106] Creating Layer rpn_cls_score_reshape
I0823 18:38:24.726366 12883 net.cpp:454] rpn_cls_score_reshape <- rpn_cls_score_rpn_cls_score_0_split_0
I0823 18:38:24.726377 12883 net.cpp:411] rpn_cls_score_reshape -> rpn_cls_score_reshape
I0823 18:38:24.726433 12883 net.cpp:150] Setting up rpn_cls_score_reshape
I0823 18:38:24.726444 12883 net.cpp:157] Top shape: 1 2 324 61 (39528)
I0823 18:38:24.726447 12883 net.cpp:165] Memory required for data: 282127380
I0823 18:38:24.726452 12883 layer_factory.hpp:77] Creating layer rpn_cls_score_reshape_rpn_cls_score_reshape_0_split
I0823 18:38:24.726460 12883 net.cpp:106] Creating Layer rpn_cls_score_reshape_rpn_cls_score_reshape_0_split
I0823 18:38:24.726465 12883 net.cpp:454] rpn_cls_score_reshape_rpn_cls_score_reshape_0_split <- rpn_cls_score_reshape
I0823 18:38:24.726476 12883 net.cpp:411] rpn_cls_score_reshape_rpn_cls_score_reshape_0_split -> rpn_cls_score_reshape_rpn_cls_score_reshape_0_split_0
I0823 18:38:24.726490 12883 net.cpp:411] rpn_cls_score_reshape_rpn_cls_score_reshape_0_split -> rpn_cls_score_reshape_rpn_cls_score_reshape_0_split_1
I0823 18:38:24.726569 12883 net.cpp:150] Setting up rpn_cls_score_reshape_rpn_cls_score_reshape_0_split
I0823 18:38:24.726580 12883 net.cpp:157] Top shape: 1 2 324 61 (39528)
I0823 18:38:24.726585 12883 net.cpp:157] Top shape: 1 2 324 61 (39528)
I0823 18:38:24.726589 12883 net.cpp:165] Memory required for data: 282443604
I0823 18:38:24.726593 12883 layer_factory.hpp:77] Creating layer rpn-data
I0823 18:38:24.727303 12883 net.cpp:106] Creating Layer rpn-data
I0823 18:38:24.727320 12883 net.cpp:454] rpn-data <- rpn_cls_score_rpn_cls_score_0_split_1
I0823 18:38:24.727330 12883 net.cpp:454] rpn-data <- gt_boxes_input-data_2_split_0
I0823 18:38:24.727337 12883 net.cpp:454] rpn-data <- im_info_input-data_1_split_0
I0823 18:38:24.727344 12883 net.cpp:454] rpn-data <- data_input-data_0_split_1
I0823 18:38:24.727354 12883 net.cpp:411] rpn-data -> rpn_labels
I0823 18:38:24.727382 12883 net.cpp:411] rpn-data -> rpn_bbox_targets
I0823 18:38:24.727397 12883 net.cpp:411] rpn-data -> rpn_bbox_inside_weights
I0823 18:38:24.727411 12883 net.cpp:411] rpn-data -> rpn_bbox_outside_weights
I0823 18:38:24.731066 12883 net.cpp:150] Setting up rpn-data
I0823 18:38:24.731101 12883 net.cpp:157] Top shape: 1 1 324 61 (19764)
I0823 18:38:24.731108 12883 net.cpp:157] Top shape: 1 36 36 61 (79056)
I0823 18:38:24.731113 12883 net.cpp:157] Top shape: 1 36 36 61 (79056)
I0823 18:38:24.731118 12883 net.cpp:157] Top shape: 1 36 36 61 (79056)
I0823 18:38:24.731122 12883 net.cpp:165] Memory required for data: 283471332
I0823 18:38:24.731128 12883 layer_factory.hpp:77] Creating layer rpn_loss_cls
I0823 18:38:24.731153 12883 net.cpp:106] Creating Layer rpn_loss_cls
I0823 18:38:24.731161 12883 net.cpp:454] rpn_loss_cls <- rpn_cls_score_reshape_rpn_cls_score_reshape_0_split_0
I0823 18:38:24.731170 12883 net.cpp:454] rpn_loss_cls <- rpn_labels
…
I0823 18:38:24.733392 12883 net.cpp:157] Top shape: (1)
I0823 18:38:24.733395 12883 net.cpp:160]     with loss weight 1
I0823 18:38:24.733402 12883 net.cpp:165] Memory required for data: 283471340
I0823 18:38:24.733407 12883 layer_factory.hpp:77] Creating layer rpn_cls_prob
I0823 18:38:24.733417 12883 net.cpp:106] Creating Layer rpn_cls_prob
I0823 18:38:24.733422 12883 net.cpp:454] rpn_cls_prob <- rpn_cls_score_reshape_rpn_cls_score_reshape_0_split_1
I0823 18:38:24.733430 12883 net.cpp:411] rpn_cls_prob -> rpn_cls_prob
I0823 18:38:24.733863 12883 net.cpp:150] Setting up rpn_cls_prob
I0823 18:38:24.733877 12883 net.cpp:157] Top shape: 1 2 324 61 (39528)
I0823 18:38:24.733881 12883 net.cpp:165] Memory required for data: 283629452
I0823 18:38:24.733886 12883 layer_factory.hpp:77] Creating layer rpn_cls_prob_reshape
I0823 18:38:24.733912 12883 net.cpp:106] Creating Layer rpn_cls_prob_reshape
I0823 18:38:24.733917 12883 net.cpp:454] rpn_cls_prob_reshape <- rpn_cls_prob
I0823 18:38:24.733927 12883 net.cpp:411] rpn_cls_prob_reshape -> rpn_cls_prob_reshape
I0823 18:38:24.733984 12883 net.cpp:150] Setting up rpn_cls_prob_reshape
I0823 18:38:24.733995 12883 net.cpp:157] Top shape: 1 18 36 61 (39528)
I0823 18:38:24.733999 12883 net.cpp:165] Memory required for data: 283787564
I0823 18:38:24.734004 12883 layer_factory.hpp:77] Creating layer proposal
I0823 18:38:24.746938 12883 net.cpp:106] Creating Layer proposal
I0823 18:38:24.746958 12883 net.cpp:454] proposal <- rpn_cls_prob_reshape
I0823 18:38:24.746965 12883 net.cpp:454] proposal <- rpn_bbox_pred_rpn_bbox_pred_0_split_1
I0823 18:38:24.746971 12883 net.cpp:454] proposal <- im_info_input-data_1_split_1
I0823 18:38:24.746980 12883 net.cpp:411] proposal -> rpn_rois
I0823 18:38:24.754225 12883 net.cpp:150] Setting up proposal
I0823 18:38:24.754268 12883 net.cpp:157] Top shape: 1 5 (5)
I0823 18:38:24.754273 12883 net.cpp:165] Memory required for data: 283787584
I0823 18:38:24.754281 12883 layer_factory.hpp:77] Creating layer roi-data
I0823 18:38:24.756968 12883 net.cpp:106] Creating Layer roi-data
I0823 18:38:24.756999 12883 net.cpp:454] roi-data <- rpn_rois
I0823 18:38:24.757009 12883 net.cpp:454] roi-data <- gt_boxes_input-data_2_split_1
I0823 18:38:24.757019 12883 net.cpp:411] roi-data -> rois
I0823 18:38:24.757035 12883 net.cpp:411] roi-data -> labels
I0823 18:38:24.757045 12883 net.cpp:411] roi-data -> bbox_targets
I0823 18:38:24.757056 12883 net.cpp:411] roi-data -> bbox_inside_weights
I0823 18:38:24.757066 12883 net.cpp:411] roi-data -> bbox_outside_weights
I0823 18:38:24.757077 12883 net.cpp:411] roi-data -> key_targets
I0823 18:38:24.757964 12883 net.cpp:150] Setting up roi-data
I0823 18:38:24.757984 12883 net.cpp:157] Top shape: 1 5 (5)
I0823 18:38:24.757989 12883 net.cpp:157] Top shape: 1 1 (1)
I0823 18:38:24.757994 12883 net.cpp:157] Top shape: 1 84 (84)
I0823 18:38:24.757998 12883 net.cpp:157] Top shape: 1 84 (84)
I0823 18:38:24.758002 12883 net.cpp:157] Top shape: 1 84 (84)
I0823 18:38:24.758007 12883 net.cpp:157] Top shape: 1 84 (84)
I0823 18:38:24.758009 12883 net.cpp:165] Memory required for data: 283788952
I0823 18:38:24.758015 12883 layer_factory.hpp:77] Creating layer bbox_inside_weights_roi-data_3_split
I0823 18:38:24.758025 12883 net.cpp:106] Creating Layer bbox_inside_weights_roi-data_3_split
I0823 18:38:24.758030 12883 net.cpp:454] bbox_inside_weights_roi-data_3_split <- bbox_inside_weights
I0823 18:38:24.758038 12883 net.cpp:411] bbox_inside_weights_roi-data_3_split -> bbox_inside_weights_roi-data_3_split_0
I0823 18:38:24.758049 12883 net.cpp:411] bbox_inside_weights_roi-data_3_split -> bbox_inside_weights_roi-data_3_split_1
I0823 18:38:24.758127 12883 net.cpp:150] Setting up bbox_inside_weights_roi-data_3_split
I0823 18:38:24.758136 12883 net.cpp:157] Top shape: 1 84 (84)
I0823 18:38:24.758141 12883 net.cpp:157] Top shape: 1 84 (84)
I0823 18:38:24.758143 12883 net.cpp:165] Memory required for data: 283789624
I0823 18:38:24.758148 12883 layer_factory.hpp:77] Creating layer bbox_outside_weights_roi-data_4_split
I0823 18:38:24.758154 12883 net.cpp:106] Creating Layer bbox_outside_weights_roi-data_4_split
I0823 18:38:24.758159 12883 net.cpp:454] bbox_outside_weights_roi-data_4_split <- bbox_outside_weights
I0823 18:38:24.758167 12883 net.cpp:411] bbox_outside_weights_roi-data_4_split -> bbox_outside_weights_roi-data_4_split_0
I0823 18:38:24.758174 12883 net.cpp:411] bbox_outside_weights_roi-data_4_split -> bbox_outside_weights_roi-data_4_split_1
I0823 18:38:24.758237 12883 net.cpp:150] Setting up bbox_outside_weights_roi-data_4_split
I0823 18:38:24.758246 12883 net.cpp:157] Top shape: 1 84 (84)
I0823 18:38:24.758251 12883 net.cpp:157] Top shape: 1 84 (84)
I0823 18:38:24.758255 12883 net.cpp:165] Memory required for data: 283790296
I0823 18:38:24.758257 12883 layer_factory.hpp:77] Creating layer roi_pool5
I0823 18:38:24.758266 12883 net.cpp:106] Creating Layer roi_pool5
I0823 18:38:24.758273 12883 net.cpp:454] roi_pool5 <- conv5_relu5_0_split_1
I0823 18:38:24.758280 12883 net.cpp:454] roi_pool5 <- rois
I0823 18:38:24.758287 12883 net.cpp:411] roi_pool5 -> pool5
I0823 18:38:24.758296 12883 roi_pooling_layer.cpp:30] Spatial scale: 0.0625
I0823 18:38:24.758388 12883 net.cpp:150] Setting up roi_pool5
I0823 18:38:24.758397 12883 net.cpp:157] Top shape: 1 512 6 6 (18432)
I0823 18:38:24.758400 12883 net.cpp:165] Memory required for data: 283864024
I0823 18:38:24.758404 12883 layer_factory.hpp:77] Creating layer fc6
I0823 18:38:24.758412 12883 net.cpp:106] Creating Layer fc6
I0823 18:38:24.758416 12883 net.cpp:454] fc6 <- pool5
I0823 18:38:24.758424 12883 net.cpp:411] fc6 -> fc6
I0823 18:38:25.225344 12883 net.cpp:150] Setting up fc6
I0823 18:38:25.225399 12883 net.cpp:157] Top shape: 1 4096 (4096)
I0823 18:38:25.225402 12883 net.cpp:165] Memory required for data: 283880408
I0823 18:38:25.225424 12883 layer_factory.hpp:77] Creating layer relu6
I0823 18:38:25.225436 12883 net.cpp:106] Creating Layer relu6
I0823 18:38:25.225441 12883 net.cpp:454] relu6 <- fc6
I0823 18:38:25.225450 12883 net.cpp:397] relu6 -> fc6 (in-place)
I0823 18:38:25.227484 12883 net.cpp:150] Setting up relu6
I0823 18:38:25.227502 12883 net.cpp:157] Top shape: 1 4096 (4096)
I0823 18:38:25.227505 12883 net.cpp:165] Memory required for data: 283896792
I0823 18:38:25.227514 12883 layer_factory.hpp:77] Creating layer drop6
I0823 18:38:25.227524 12883 net.cpp:106] Creating Layer drop6
I0823 18:38:25.227529 12883 net.cpp:454] drop6 <- fc6
I0823 18:38:25.227535 12883 net.cpp:397] drop6 -> fc6 (in-place)
I0823 18:38:25.227588 12883 net.cpp:150] Setting up drop6
I0823 18:38:25.227597 12883 net.cpp:157] Top shape: 1 4096 (4096)
I0823 18:38:25.227601 12883 net.cpp:165] Memory required for data: 283913176
I0823 18:38:25.227603 12883 layer_factory.hpp:77] Creating layer fc7
I0823 18:38:25.227613 12883 net.cpp:106] Creating Layer fc7
I0823 18:38:25.227620 12883 net.cpp:454] fc7 <- fc6
I0823 18:38:25.227627 12883 net.cpp:411] fc7 -> fc7
I0823 18:38:25.256711 12883 net.cpp:150] Setting up fc7
I0823 18:38:25.256755 12883 net.cpp:157] Top shape: 1 1024 (1024)
I0823 18:38:25.256759 12883 net.cpp:165] Memory required for data: 283917272
I0823 18:38:25.256772 12883 layer_factory.hpp:77] Creating layer relu7
I0823 18:38:25.256788 12883 net.cpp:106] Creating Layer relu7
I0823 18:38:25.256793 12883 net.cpp:454] relu7 <- fc7
I0823 18:38:25.256803 12883 net.cpp:397] relu7 -> fc7 (in-place)
I0823 18:38:25.257108 12883 net.cpp:150] Setting up relu7
I0823 18:38:25.257118 12883 net.cpp:157] Top shape: 1 1024 (1024)
I0823 18:38:25.257122 12883 net.cpp:165] Memory required for data: 283921368
I0823 18:38:25.257124 12883 layer_factory.hpp:77] Creating layer drop7
I0823 18:38:25.257133 12883 net.cpp:106] Creating Layer drop7
I0823 18:38:25.257138 12883 net.cpp:454] drop7 <- fc7
I0823 18:38:25.257143 12883 net.cpp:397] drop7 -> fc7 (in-place)
I0823 18:38:25.257194 12883 net.cpp:150] Setting up drop7
I0823 18:38:25.257211 12883 net.cpp:157] Top shape: 1 1024 (1024)
I0823 18:38:25.257215 12883 net.cpp:165] Memory required for data: 283925464
I0823 18:38:25.257217 12883 layer_factory.hpp:77] Creating layer fc7_drop7_0_split
I0823 18:38:25.257225 12883 net.cpp:106] Creating Layer fc7_drop7_0_split
I0823 18:38:25.257228 12883 net.cpp:454] fc7_drop7_0_split <- fc7
I0823 18:38:25.257235 12883 net.cpp:411] fc7_drop7_0_split -> fc7_drop7_0_split_0
I0823 18:38:25.257243 12883 net.cpp:411] fc7_drop7_0_split -> fc7_drop7_0_split_1
I0823 18:38:25.257251 12883 net.cpp:411] fc7_drop7_0_split -> fc7_drop7_0_split_2
I0823 18:38:25.257349 12883 net.cpp:150] Setting up fc7_drop7_0_split
I0823 18:38:25.257356 12883 net.cpp:157] Top shape: 1 1024 (1024)
I0823 18:38:25.257360 12883 net.cpp:157] Top shape: 1 1024 (1024)
I0823 18:38:25.257364 12883 net.cpp:157] Top shape: 1 1024 (1024)
I0823 18:38:25.257365 12883 net.cpp:165] Memory required for data: 283937752
I0823 18:38:25.257369 12883 layer_factory.hpp:77] Creating layer cls_score
I0823 18:38:25.257377 12883 net.cpp:106] Creating Layer cls_score
I0823 18:38:25.257381 12883 net.cpp:454] cls_score <- fc7_drop7_0_split_0
I0823 18:38:25.257390 12883 net.cpp:411] cls_score -> cls_score
I0823 18:38:25.257881 12883 net.cpp:150] Setting up cls_score
I0823 18:38:25.257891 12883 net.cpp:157] Top shape: 1 21 (21)
I0823 18:38:25.257895 12883 net.cpp:165] Memory required for data: 283937836
I0823 18:38:25.257901 12883 layer_factory.hpp:77] Creating layer bbox_pred
I0823 18:38:25.257910 12883 net.cpp:106] Creating Layer bbox_pred
I0823 18:38:25.257915 12883 net.cpp:454] bbox_pred <- fc7_drop7_0_split_1
I0823 18:38:25.257922 12883 net.cpp:411] bbox_pred -> bbox_pred
I0823 18:38:25.261689 12883 net.cpp:150] Setting up bbox_pred
I0823 18:38:25.261716 12883 net.cpp:157] Top shape: 1 84 (84)
I0823 18:38:25.261720 12883 net.cpp:165] Memory required for data: 283938172
I0823 18:38:25.261730 12883 layer_factory.hpp:77] Creating layer key_pred
I0823 18:38:25.261741 12883 net.cpp:106] Creating Layer key_pred
I0823 18:38:25.261745 12883 net.cpp:454] key_pred <- fc7_drop7_0_split_2
I0823 18:38:25.261754 12883 net.cpp:411] key_pred -> key_pred
I0823 18:38:25.263010 12883 net.cpp:150] Setting up key_pred
I0823 18:38:25.263020 12883 net.cpp:157] Top shape: 1 84 (84)
I0823 18:38:25.263023 12883 net.cpp:165] Memory required for data: 283938508
I0823 18:38:25.263030 12883 layer_factory.hpp:77] Creating layer loss_cls
I0823 18:38:25.263041 12883 net.cpp:106] Creating Layer loss_cls
I0823 18:38:25.263046 12883 net.cpp:454] loss_cls <- cls_score
I0823 18:38:25.263051 12883 net.cpp:454] loss_cls <- labels
I0823 18:38:25.263056 12883 net.cpp:411] loss_cls -> loss_cls
…
