…
weight_decay: 0.0005
stepsize: 50000
snapshot: 0
snapshot_prefix: "key"
average_loss: 100
I0829 20:11:43.604001  1770 solver.cpp:81] Creating training net from train_net file: models/pascal_voc/VGG_CNN_M_1024/key/train.prototxt
I0829 20:11:43.604626  1770 net.cpp:49] Initializing net from parameters: 
name: "VGG_CNN_M_1024"
state {
  phase: TRAIN
}
layer {
  name: "input-data"
  type: "Python"
  top: "data"
  top: "im_info"
  top: "gt_boxes"
  python_param {
    module: "roi_data_layer.layer"
    layer: "RoIDataLayer"
    param_str: "\'num_classes\': 21"
  }
}
layer {
  name: "conv1"
  type: "Convolution"
  bottom: "data"
  top: "conv1"
  param {
    lr_mult: 0
    decay_mult: 0
  }
  param {
    lr_mult: 0
    decay_mult: 0
  }
  convolution_param {
    num_output: 96
    kernel_size: 7
    stride: 2
  }
}
layer {
  name: "relu1"
  type: "ReLU"
  bottom: "conv1"
  top: "conv1"
}
layer {
  name: "norm1"
  type: "LRN"
  bottom: "conv1"
  top: "norm1"
  lrn_param {
    local_size: 5
    alpha: 0.0005
    beta: 0.75
    k: 2
  }
}
layer {
  name: "pool1"
  type: "Pooling"
  bottom: "norm1"
  top: "pool1"
  pooling_param {
    pool: MAX
    kernel_size: 3
    stride: 2
  }
}
layer {
  name: "conv2"
  type: "Convolution"
  bottom: "pool1"
  top: "conv2"
  param {
    lr_mult: 1
  }
  param {
    lr_mult: 2
  }
  convolution_param {
    num_output: 256
    pad: 1
    kernel_size: 5
    stride: 2
  }
}
layer {
  name: "relu2"
  type: "ReLU"
  bottom: "conv2"
  top: "conv2"
}
layer {
  name: "norm2"
  type: "LRN"
  bottom: "conv2"
  top: "norm2"
  lrn_param {
    local_size: 5
    alpha: 0.0005
    beta: 0.75
    k: 2
  }
}
layer {
  name: "pool2"
  type: "Pooling"
  bottom: "norm2"
  top: "pool2"
  pooling_param {
    pool: MAX
    kernel_size: 3
    stride: 2
  }
}
layer {
  name: "conv3"
  type: "Convolution"
  bottom: "pool2"
  top: "conv3"
  param {
    lr_mult: 1
  }
  param {
    lr_mult: 2
  }
  convolution_param {
    num_output: 512
    pad: 1
    kernel_size: 3
  }
}
layer {
  name: "relu3"
  type: "ReLU"
  bottom: "conv3"
  top: "conv3"
}
layer {
  name: "conv4"
  type: "Convolution"
  bottom: "conv3"
  top: "conv4"
  param {
    lr_mult: 1
  }
  param {
    lr_mult: 2
  }
  convolution_param {
    num_output: 512
    pad: 1
    kernel_size: 3
  }
}
layer {
  name: "relu4"
  type: "ReLU"
  bottom: "conv4"
  top: "conv4"
}
layer {
  name: "conv5"
  type: "Convolution"
  bottom: "conv4"
  top: "conv5"
  param {
    lr_mult: 1
  }
  param {
    lr_mult: 2
  }
  convolution_param {
    num_output: 512
    pad: 1
    kernel_size: 3
  }
}
layer {
  name: "relu5"
  type: "ReLU"
  bottom: "conv5"
  top: "conv5"
}
layer {
  name: "rpn_conv/3x3"
  type: "Convolution"
  bottom: "conv5"
  top: "rpn/output"
  param {
    lr_mult: 1
  }
  param {
    lr_mult: 2
  }
  convolution_param {
    num_output: 256
    pad: 1
    kernel_size: 3
    stride: 1
    weight_filler {
      type: "gaussian"
      std: 0.01
    }
    bias_filler {
      type: "constant"
      value: 0
    }
  }
}
layer {
  name: "rpn_relu/3x3"
  type: "ReLU"
  bottom: "rpn/output"
  top: "rpn/output"
}
layer {
  name: "rpn_cls_score"
  type: "Convolution"
  bottom: "rpn/output"
  top: "rpn_cls_score"
  param {
    lr_mult: 1
  }
  param {
    lr_mult: 2
  }
  convolution_param {
    num_output: 18
    pad: 0
    kernel_size: 1
    stride: 1
    weight_filler {
      type: "gaussian"
      std: 0.01
    }
    bias_filler {
      type: "constant"
      value: 0
    }
  }
}
layer {
  name: "rpn_bbox_pred"
  type: "Convolution"
  bottom: "rpn/output"
  top: "rpn_bbox_pred"
  param {
    lr_mult: 1
  }
  param {
    lr_mult: 2
  }
  convolution_param {
    num_output: 36
    pad: 0
    kernel_size: 1
    stride: 1
    weight_filler {
      type: "gaussian"
      std: 0.01
    }
    bias_filler {
      type: "constant"
      value: 0
    }
  }
}
layer {
  name: "rpn_cls_score_reshape"
  type: "Reshape"
  bottom: "rpn_cls_score"
  top: "rpn_cls_score_reshape"
  reshape_param {
    shape {
      dim: 0
      dim: 2
      dim: -1
      dim: 0
    }
  }
}
layer {
  name: "rpn-data"
  type: "Python"
  bottom: "rpn_cls_score"
  bottom: "gt_boxes"
  bottom: "im_info"
  bottom: "data"
  top: "rpn_labels"
  top: "rpn_bbox_targets"
  top: "rpn_bbox_inside_weights"
  top: "rpn_bbox_outside_weights"
  python_param {
    module: "rpn.anchor_target_layer"
    layer: "AnchorTargetLayer"
    param_str: "\'feat_stride\': 16"
  }
}
layer {
  name: "rpn_loss_cls"
  type: "SoftmaxWithLoss"
  bottom: "rpn_cls_score_reshape"
  bottom: "rpn_labels"
  top: "rpn_cls_loss"
  loss_weight: 1
  propagate_down: true
  propagate_down: false
  loss_param {
    ignore_label: -1
    normalize: true
  }
}
layer {
  name: "rpn_loss_bbox"
  type: "SmoothL1Loss"
  bottom: "rpn_bbox_pred"
  bottom: "rpn_bbox_targets"
  bottom: "rpn_bbox_inside_weights"
  bottom: "rpn_bbox_outside_weights"
  top: "rpn_loss_bbox"
  loss_weight: 1
  smooth_l1_loss_param {
    sigma: 3
  }
}
layer {
  name: "rpn_cls_prob"
  type: "Softmax"
  bottom: "rpn_cls_score_reshape"
  top: "rpn_cls_prob"
}
layer {
  name: "rpn_cls_prob_reshape"
  type: "Reshape"
  bottom: "rpn_cls_prob"
  top: "rpn_cls_prob_reshape"
  reshape_param {
    shape {
      dim: 0
      dim: 18
      dim: -1
      dim: 0
    }
  }
}
layer {
  name: "proposal"
  type: "Python"
  bottom: "rpn_cls_prob_reshape"
  bottom: "rpn_bbox_pred"
  bottom: "im_info"
  top: "rpn_rois"
  python_param {
    module: "rpn.proposal_layer"
    layer: "ProposalLayer"
    param_str: "\'feat_stride\': 16"
  }
}
layer {
  name: "roi-data"
  type: "Python"
  bottom: "rpn_rois"
  bottom: "gt_boxes"
  top: "rois"
  top: "labels"
  top: "bbox_targets"
  top: "bbox_inside_weights"
  top: "bbox_outside_weights"
  top: "key_targets"
  top: "key_inside_weights"
  top: "key_outside_weights"
  python_param {
    module: "rpn.proposal_target_layer"
    layer: "ProposalTargetLayer"
    param_str: "\'num_classes\': 21"
  }
}
layer {
  name: "roi_pool5"
  type: "ROIPooling"
  bottom: "conv5"
  bottom: "rois"
  top: "pool5"
  roi_pooling_param {
    pooled_h: 6
    pooled_w: 6
    spatial_scale: 0.0625
  }
}
layer {
  name: "fc6"
  type: "InnerProduct"
  bottom: "pool5"
  top: "fc6"
  param {
    lr_mult: 1
  }
  param {
    lr_mult: 2
  }
  inner_product_param {
    num_output: 4096
  }
}
layer {
  name: "relu6"
  type: "ReLU"
  bottom: "fc6"
  top: "fc6"
}
layer {
  name: "drop6"
  type: "Dropout"
  bottom: "fc6"
  top: "fc6"
  dropout_param {
    dropout_ratio: 0.5
  }
}
layer {
  name: "fc7"
  type: "InnerProduct"
  bottom: "fc6"
  top: "fc7"
  param {
    lr_mult: 1
  }
  param {
    lr_mult: 2
  }
  inner_product_param {
    num_output: 1024
  }
}
layer {
  name: "relu7"
  type: "ReLU"
  bottom: "fc7"
  top: "fc7"
}
layer {
  name: "drop7"
  type: "Dropout"
  bottom: "fc7"
  top: "fc7"
  dropout_param {
    dropout_ratio: 0.5
  }
}
layer {
  name: "cls_score"
  type: "InnerProduct"
  bottom: "fc7"
  top: "cls_score"
  param {
    lr_mult: 1
  }
  param {
    lr_mult: 2
  }
  inner_product_param {
    num_output: 21
    weight_filler {
      type: "gaussian"
      std: 0.01
    }
    bias_filler {
      type: "constant"
      value: 0
    }
  }
}
layer {
  name: "bbox_pred"
  type: "InnerProduct"
  bottom: "fc7"
  top: "bbox_pred"
  param {
    lr_mult: 1
  }
  param {
    lr_mult: 2
  }
  inner_product_param {
    num_output: 84
    weight_filler {
      type: "gaussian"
      std: 0.001
    }
    bias_filler {
      type: "constant"
      value: 0
    }
  }
}
layer {
  name: "key_pred"
  type: "InnerProduct"
  bottom: "fc7"
  top: "key_pred"
  param {
    lr_mult: 1
  }
  param {
    lr_mult: 2
  }
  inner_product_param {
    num_output: 84
    weight_filler {
      type: "gaussian"
      std: 0.001
    }
    bias_filler {
      type: "constant"
      value: 0
    }
  }
}
layer {
  name: "loss_cls"
  type: "SoftmaxWithLoss"
  bottom: "cls_score"
  bottom: "labels"
  top: "loss_cls"
  loss_weight: 1
  propagate_down: true
  propagate_down: false
}
layer {
  name: "loss_bbox"
  type: "SmoothL1Loss"
  bottom: "bbox_pred"
  bottom: "bbox_targets"
  bottom: "bbox_inside_weights"
  bottom: "bbox_outside_weights"
  top: "loss_bbox"
  loss_weight: 1
}
layer {
  name: "loss_key"
  type: "SmoothL1Loss"
  bottom: "key_pred"
  bottom: "key_targets"
  bottom: "key_inside_weights"
  bottom: "key_outside_weights"
  top: "loss_key"
  loss_weight: 1
}
I0829 20:11:43.604881  1770 layer_factory.hpp:77] Creating layer input-data
I0829 20:11:43.618533  1770 net.cpp:106] Creating Layer input-data
I0829 20:11:43.618585  1770 net.cpp:411] input-data -> data
I0829 20:11:43.618597  1770 net.cpp:411] input-data -> im_info
I0829 20:11:43.618604  1770 net.cpp:411] input-data -> gt_boxes
RoiDataLayer: name_to_top: {'gt_boxes': 2, 'data': 0, 'im_info': 1}
I0829 20:11:43.631063  1770 net.cpp:150] Setting up input-data
I0829 20:11:43.631100  1770 net.cpp:157] Top shape: 1 3 600 1000 (1800000)
I0829 20:11:43.631108  1770 net.cpp:157] Top shape: 1 3 (3)
I0829 20:11:43.631111  1770 net.cpp:157] Top shape: 1 4 (4)
I0829 20:11:43.631115  1770 net.cpp:165] Memory required for data: 7200028
I0829 20:11:43.631121  1770 layer_factory.hpp:77] Creating layer data_input-data_0_split
I0829 20:11:43.631137  1770 net.cpp:106] Creating Layer data_input-data_0_split
I0829 20:11:43.631144  1770 net.cpp:454] data_input-data_0_split <- data
I0829 20:11:43.631153  1770 net.cpp:411] data_input-data_0_split -> data_input-data_0_split_0
I0829 20:11:43.631166  1770 net.cpp:411] data_input-data_0_split -> data_input-data_0_split_1
I0829 20:11:43.631229  1770 net.cpp:150] Setting up data_input-data_0_split
I0829 20:11:43.631238  1770 net.cpp:157] Top shape: 1 3 600 1000 (1800000)
I0829 20:11:43.631244  1770 net.cpp:157] Top shape: 1 3 600 1000 (1800000)
I0829 20:11:43.631247  1770 net.cpp:165] Memory required for data: 21600028
I0829 20:11:43.631250  1770 layer_factory.hpp:77] Creating layer im_info_input-data_1_split
I0829 20:11:43.631258  1770 net.cpp:106] Creating Layer im_info_input-data_1_split
I0829 20:11:43.631263  1770 net.cpp:454] im_info_input-data_1_split <- im_info
I0829 20:11:43.631278  1770 net.cpp:411] im_info_input-data_1_split -> im_info_input-data_1_split_0
I0829 20:11:43.631286  1770 net.cpp:411] im_info_input-data_1_split -> im_info_input-data_1_split_1
I0829 20:11:43.631335  1770 net.cpp:150] Setting up im_info_input-data_1_split
I0829 20:11:43.631342  1770 net.cpp:157] Top shape: 1 3 (3)
I0829 20:11:43.631346  1770 net.cpp:157] Top shape: 1 3 (3)
I0829 20:11:43.631348  1770 net.cpp:165] Memory required for data: 21600052
I0829 20:11:43.631351  1770 layer_factory.hpp:77] Creating layer gt_boxes_input-data_2_split
I0829 20:11:43.631357  1770 net.cpp:106] Creating Layer gt_boxes_input-data_2_split
I0829 20:11:43.631361  1770 net.cpp:454] gt_boxes_input-data_2_split <- gt_boxes
I0829 20:11:43.631367  1770 net.cpp:411] gt_boxes_input-data_2_split -> gt_boxes_input-data_2_split_0
I0829 20:11:43.631376  1770 net.cpp:411] gt_boxes_input-data_2_split -> gt_boxes_input-data_2_split_1
I0829 20:11:43.631425  1770 net.cpp:150] Setting up gt_boxes_input-data_2_split
I0829 20:11:43.631431  1770 net.cpp:157] Top shape: 1 4 (4)
I0829 20:11:43.631435  1770 net.cpp:157] Top shape: 1 4 (4)
I0829 20:11:43.631438  1770 net.cpp:165] Memory required for data: 21600084
I0829 20:11:43.631440  1770 layer_factory.hpp:77] Creating layer conv1
I0829 20:11:43.631454  1770 net.cpp:106] Creating Layer conv1
I0829 20:11:43.631458  1770 net.cpp:454] conv1 <- data_input-data_0_split_0
I0829 20:11:43.631465  1770 net.cpp:411] conv1 -> conv1
I0829 20:11:43.926069  1770 net.cpp:150] Setting up conv1
I0829 20:11:43.926121  1770 net.cpp:157] Top shape: 1 96 297 497 (14170464)
I0829 20:11:43.926126  1770 net.cpp:165] Memory required for data: 78281940
I0829 20:11:43.926147  1770 layer_factory.hpp:77] Creating layer relu1
I0829 20:11:43.926159  1770 net.cpp:106] Creating Layer relu1
I0829 20:11:43.926165  1770 net.cpp:454] relu1 <- conv1
I0829 20:11:43.926179  1770 net.cpp:397] relu1 -> conv1 (in-place)
I0829 20:11:43.926740  1770 net.cpp:150] Setting up relu1
I0829 20:11:43.926758  1770 net.cpp:157] Top shape: 1 96 297 497 (14170464)
I0829 20:11:43.926767  1770 net.cpp:165] Memory required for data: 134963796
I0829 20:11:43.926771  1770 layer_factory.hpp:77] Creating layer norm1
I0829 20:11:43.926781  1770 net.cpp:106] Creating Layer norm1
I0829 20:11:43.926785  1770 net.cpp:454] norm1 <- conv1
I0829 20:11:43.926791  1770 net.cpp:411] norm1 -> norm1
I0829 20:11:43.927105  1770 net.cpp:150] Setting up norm1
I0829 20:11:43.927119  1770 net.cpp:157] Top shape: 1 96 297 497 (14170464)
I0829 20:11:43.927122  1770 net.cpp:165] Memory required for data: 191645652
I0829 20:11:43.927125  1770 layer_factory.hpp:77] Creating layer pool1
I0829 20:11:43.927134  1770 net.cpp:106] Creating Layer pool1
I0829 20:11:43.927137  1770 net.cpp:454] pool1 <- norm1
I0829 20:11:43.927144  1770 net.cpp:411] pool1 -> pool1
I0829 20:11:43.927208  1770 net.cpp:150] Setting up pool1
I0829 20:11:43.927217  1770 net.cpp:157] Top shape: 1 96 148 248 (3523584)
I0829 20:11:43.927220  1770 net.cpp:165] Memory required for data: 205739988
I0829 20:11:43.927223  1770 layer_factory.hpp:77] Creating layer conv2
I0829 20:11:43.927239  1770 net.cpp:106] Creating Layer conv2
I0829 20:11:43.927244  1770 net.cpp:454] conv2 <- pool1
I0829 20:11:43.927258  1770 net.cpp:411] conv2 -> conv2
I0829 20:11:43.933801  1770 net.cpp:150] Setting up conv2
I0829 20:11:43.933850  1770 net.cpp:157] Top shape: 1 256 73 123 (2298624)
I0829 20:11:43.933853  1770 net.cpp:165] Memory required for data: 214934484
I0829 20:11:43.933871  1770 layer_factory.hpp:77] Creating layer relu2
I0829 20:11:43.933883  1770 net.cpp:106] Creating Layer relu2
I0829 20:11:43.933894  1770 net.cpp:454] relu2 <- conv2
I0829 20:11:43.933902  1770 net.cpp:397] relu2 -> conv2 (in-place)
I0829 20:11:43.934432  1770 net.cpp:150] Setting up relu2
I0829 20:11:43.934448  1770 net.cpp:157] Top shape: 1 256 73 123 (2298624)
I0829 20:11:43.934455  1770 net.cpp:165] Memory required for data: 224128980
I0829 20:11:43.934458  1770 layer_factory.hpp:77] Creating layer norm2
I0829 20:11:43.934475  1770 net.cpp:106] Creating Layer norm2
I0829 20:11:43.934478  1770 net.cpp:454] norm2 <- conv2
I0829 20:11:43.934486  1770 net.cpp:411] norm2 -> norm2
I0829 20:11:43.934751  1770 net.cpp:150] Setting up norm2
I0829 20:11:43.934762  1770 net.cpp:157] Top shape: 1 256 73 123 (2298624)
I0829 20:11:43.934765  1770 net.cpp:165] Memory required for data: 233323476
I0829 20:11:43.934769  1770 layer_factory.hpp:77] Creating layer pool2
I0829 20:11:43.934778  1770 net.cpp:106] Creating Layer pool2
I0829 20:11:43.934782  1770 net.cpp:454] pool2 <- norm2
I0829 20:11:43.934787  1770 net.cpp:411] pool2 -> pool2
I0829 20:11:43.934851  1770 net.cpp:150] Setting up pool2
I0829 20:11:43.934859  1770 net.cpp:157] Top shape: 1 256 36 61 (562176)
I0829 20:11:43.934862  1770 net.cpp:165] Memory required for data: 235572180
I0829 20:11:43.934865  1770 layer_factory.hpp:77] Creating layer conv3
I0829 20:11:43.934876  1770 net.cpp:106] Creating Layer conv3
I0829 20:11:43.934881  1770 net.cpp:454] conv3 <- pool2
I0829 20:11:43.934888  1770 net.cpp:411] conv3 -> conv3
I0829 20:11:43.949367  1770 net.cpp:150] Setting up conv3
I0829 20:11:43.949419  1770 net.cpp:157] Top shape: 1 512 36 61 (1124352)
I0829 20:11:43.949424  1770 net.cpp:165] Memory required for data: 240069588
I0829 20:11:43.949443  1770 layer_factory.hpp:77] Creating layer relu3
I0829 20:11:43.949456  1770 net.cpp:106] Creating Layer relu3
I0829 20:11:43.949461  1770 net.cpp:454] relu3 <- conv3
I0829 20:11:43.949470  1770 net.cpp:397] relu3 -> conv3 (in-place)
I0829 20:11:43.949717  1770 net.cpp:150] Setting up relu3
I0829 20:11:43.949730  1770 net.cpp:157] Top shape: 1 512 36 61 (1124352)
I0829 20:11:43.949736  1770 net.cpp:165] Memory required for data: 244566996
I0829 20:11:43.949740  1770 layer_factory.hpp:77] Creating layer conv4
I0829 20:11:43.949753  1770 net.cpp:106] Creating Layer conv4
I0829 20:11:43.949759  1770 net.cpp:454] conv4 <- conv3
I0829 20:11:43.949766  1770 net.cpp:411] conv4 -> conv4
I0829 20:11:43.967537  1770 net.cpp:150] Setting up conv4
I0829 20:11:43.967588  1770 net.cpp:157] Top shape: 1 512 36 61 (1124352)
I0829 20:11:43.967592  1770 net.cpp:165] Memory required for data: 249064404
I0829 20:11:43.967605  1770 layer_factory.hpp:77] Creating layer relu4
I0829 20:11:43.967618  1770 net.cpp:106] Creating Layer relu4
I0829 20:11:43.967622  1770 net.cpp:454] relu4 <- conv4
I0829 20:11:43.967631  1770 net.cpp:397] relu4 -> conv4 (in-place)
I0829 20:11:43.968165  1770 net.cpp:150] Setting up relu4
I0829 20:11:43.968180  1770 net.cpp:157] Top shape: 1 512 36 61 (1124352)
I0829 20:11:43.968191  1770 net.cpp:165] Memory required for data: 253561812
I0829 20:11:43.968194  1770 layer_factory.hpp:77] Creating layer conv5
I0829 20:11:43.968212  1770 net.cpp:106] Creating Layer conv5
I0829 20:11:43.968216  1770 net.cpp:454] conv5 <- conv4
I0829 20:11:43.968225  1770 net.cpp:411] conv5 -> conv5
I0829 20:11:43.985901  1770 net.cpp:150] Setting up conv5
I0829 20:11:43.985957  1770 net.cpp:157] Top shape: 1 512 36 61 (1124352)
I0829 20:11:43.985961  1770 net.cpp:165] Memory required for data: 258059220
I0829 20:11:43.985982  1770 layer_factory.hpp:77] Creating layer relu5
I0829 20:11:43.986003  1770 net.cpp:106] Creating Layer relu5
I0829 20:11:43.986009  1770 net.cpp:454] relu5 <- conv5
I0829 20:11:43.986017  1770 net.cpp:397] relu5 -> conv5 (in-place)
I0829 20:11:43.986232  1770 net.cpp:150] Setting up relu5
I0829 20:11:43.986243  1770 net.cpp:157] Top shape: 1 512 36 61 (1124352)
I0829 20:11:43.986248  1770 net.cpp:165] Memory required for data: 262556628
I0829 20:11:43.986250  1770 layer_factory.hpp:77] Creating layer conv5_relu5_0_split
I0829 20:11:43.986258  1770 net.cpp:106] Creating Layer conv5_relu5_0_split
I0829 20:11:43.986263  1770 net.cpp:454] conv5_relu5_0_split <- conv5
I0829 20:11:43.986271  1770 net.cpp:411] conv5_relu5_0_split -> conv5_relu5_0_split_0
I0829 20:11:43.986282  1770 net.cpp:411] conv5_relu5_0_split -> conv5_relu5_0_split_1
I0829 20:11:43.986357  1770 net.cpp:150] Setting up conv5_relu5_0_split
I0829 20:11:43.986366  1770 net.cpp:157] Top shape: 1 512 36 61 (1124352)
I0829 20:11:43.986371  1770 net.cpp:157] Top shape: 1 512 36 61 (1124352)
I0829 20:11:43.986374  1770 net.cpp:165] Memory required for data: 271551444
I0829 20:11:43.986377  1770 layer_factory.hpp:77] Creating layer rpn_conv/3x3
I0829 20:11:43.986394  1770 net.cpp:106] Creating Layer rpn_conv/3x3
I0829 20:11:43.986400  1770 net.cpp:454] rpn_conv/3x3 <- conv5_relu5_0_split_0
I0829 20:11:43.986407  1770 net.cpp:411] rpn_conv/3x3 -> rpn/output
I0829 20:11:44.010535  1770 net.cpp:150] Setting up rpn_conv/3x3
I0829 20:11:44.010577  1770 net.cpp:157] Top shape: 1 256 36 61 (562176)
I0829 20:11:44.010581  1770 net.cpp:165] Memory required for data: 273800148
I0829 20:11:44.010592  1770 layer_factory.hpp:77] Creating layer rpn_relu/3x3
I0829 20:11:44.010607  1770 net.cpp:106] Creating Layer rpn_relu/3x3
I0829 20:11:44.010614  1770 net.cpp:454] rpn_relu/3x3 <- rpn/output
I0829 20:11:44.010622  1770 net.cpp:397] rpn_relu/3x3 -> rpn/output (in-place)
I0829 20:11:44.011169  1770 net.cpp:150] Setting up rpn_relu/3x3
I0829 20:11:44.011186  1770 net.cpp:157] Top shape: 1 256 36 61 (562176)
I0829 20:11:44.011189  1770 net.cpp:165] Memory required for data: 276048852
I0829 20:11:44.011193  1770 layer_factory.hpp:77] Creating layer rpn/output_rpn_relu/3x3_0_split
I0829 20:11:44.011203  1770 net.cpp:106] Creating Layer rpn/output_rpn_relu/3x3_0_split
I0829 20:11:44.011205  1770 net.cpp:454] rpn/output_rpn_relu/3x3_0_split <- rpn/output
I0829 20:11:44.011217  1770 net.cpp:411] rpn/output_rpn_relu/3x3_0_split -> rpn/output_rpn_relu/3x3_0_split_0
I0829 20:11:44.011226  1770 net.cpp:411] rpn/output_rpn_relu/3x3_0_split -> rpn/output_rpn_relu/3x3_0_split_1
I0829 20:11:44.011302  1770 net.cpp:150] Setting up rpn/output_rpn_relu/3x3_0_split
I0829 20:11:44.011312  1770 net.cpp:157] Top shape: 1 256 36 61 (562176)
I0829 20:11:44.011317  1770 net.cpp:157] Top shape: 1 256 36 61 (562176)
I0829 20:11:44.011318  1770 net.cpp:165] Memory required for data: 280546260
I0829 20:11:44.011322  1770 layer_factory.hpp:77] Creating layer rpn_cls_score
I0829 20:11:44.011337  1770 net.cpp:106] Creating Layer rpn_cls_score
I0829 20:11:44.011343  1770 net.cpp:454] rpn_cls_score <- rpn/output_rpn_relu/3x3_0_split_0
I0829 20:11:44.011350  1770 net.cpp:411] rpn_cls_score -> rpn_cls_score
I0829 20:11:44.013170  1770 net.cpp:150] Setting up rpn_cls_score
I0829 20:11:44.013186  1770 net.cpp:157] Top shape: 1 18 36 61 (39528)
I0829 20:11:44.013190  1770 net.cpp:165] Memory required for data: 280704372
I0829 20:11:44.013198  1770 layer_factory.hpp:77] Creating layer rpn_cls_score_rpn_cls_score_0_split
I0829 20:11:44.013206  1770 net.cpp:106] Creating Layer rpn_cls_score_rpn_cls_score_0_split
I0829 20:11:44.013211  1770 net.cpp:454] rpn_cls_score_rpn_cls_score_0_split <- rpn_cls_score
I0829 20:11:44.013216  1770 net.cpp:411] rpn_cls_score_rpn_cls_score_0_split -> rpn_cls_score_rpn_cls_score_0_split_0
I0829 20:11:44.013226  1770 net.cpp:411] rpn_cls_score_rpn_cls_score_0_split -> rpn_cls_score_rpn_cls_score_0_split_1
I0829 20:11:44.013303  1770 net.cpp:150] Setting up rpn_cls_score_rpn_cls_score_0_split
I0829 20:11:44.013310  1770 net.cpp:157] Top shape: 1 18 36 61 (39528)
I0829 20:11:44.013314  1770 net.cpp:157] Top shape: 1 18 36 61 (39528)
I0829 20:11:44.013317  1770 net.cpp:165] Memory required for data: 281020596
I0829 20:11:44.013321  1770 layer_factory.hpp:77] Creating layer rpn_bbox_pred
I0829 20:11:44.013334  1770 net.cpp:106] Creating Layer rpn_bbox_pred
I0829 20:11:44.013339  1770 net.cpp:454] rpn_bbox_pred <- rpn/output_rpn_relu/3x3_0_split_1
I0829 20:11:44.013347  1770 net.cpp:411] rpn_bbox_pred -> rpn_bbox_pred
I0829 20:11:44.015187  1770 net.cpp:150] Setting up rpn_bbox_pred
I0829 20:11:44.015207  1770 net.cpp:157] Top shape: 1 36 36 61 (79056)
I0829 20:11:44.015210  1770 net.cpp:165] Memory required for data: 281336820
I0829 20:11:44.015224  1770 layer_factory.hpp:77] Creating layer rpn_bbox_pred_rpn_bbox_pred_0_split
I0829 20:11:44.015235  1770 net.cpp:106] Creating Layer rpn_bbox_pred_rpn_bbox_pred_0_split
I0829 20:11:44.015242  1770 net.cpp:454] rpn_bbox_pred_rpn_bbox_pred_0_split <- rpn_bbox_pred
I0829 20:11:44.015249  1770 net.cpp:411] rpn_bbox_pred_rpn_bbox_pred_0_split -> rpn_bbox_pred_rpn_bbox_pred_0_split_0
I0829 20:11:44.015260  1770 net.cpp:411] rpn_bbox_pred_rpn_bbox_pred_0_split -> rpn_bbox_pred_rpn_bbox_pred_0_split_1
I0829 20:11:44.015331  1770 net.cpp:150] Setting up rpn_bbox_pred_rpn_bbox_pred_0_split
I0829 20:11:44.015341  1770 net.cpp:157] Top shape: 1 36 36 61 (79056)
I0829 20:11:44.015344  1770 net.cpp:157] Top shape: 1 36 36 61 (79056)
I0829 20:11:44.015347  1770 net.cpp:165] Memory required for data: 281969268
I0829 20:11:44.015350  1770 layer_factory.hpp:77] Creating layer rpn_cls_score_reshape
I0829 20:11:44.015360  1770 net.cpp:106] Creating Layer rpn_cls_score_reshape
I0829 20:11:44.015365  1770 net.cpp:454] rpn_cls_score_reshape <- rpn_cls_score_rpn_cls_score_0_split_0
I0829 20:11:44.015373  1770 net.cpp:411] rpn_cls_score_reshape -> rpn_cls_score_reshape
I0829 20:11:44.015419  1770 net.cpp:150] Setting up rpn_cls_score_reshape
I0829 20:11:44.015425  1770 net.cpp:157] Top shape: 1 2 324 61 (39528)
I0829 20:11:44.015429  1770 net.cpp:165] Memory required for data: 282127380
I0829 20:11:44.015431  1770 layer_factory.hpp:77] Creating layer rpn_cls_score_reshape_rpn_cls_score_reshape_0_split
I0829 20:11:44.015439  1770 net.cpp:106] Creating Layer rpn_cls_score_reshape_rpn_cls_score_reshape_0_split
I0829 20:11:44.015444  1770 net.cpp:454] rpn_cls_score_reshape_rpn_cls_score_reshape_0_split <- rpn_cls_score_reshape
I0829 20:11:44.015457  1770 net.cpp:411] rpn_cls_score_reshape_rpn_cls_score_reshape_0_split -> rpn_cls_score_reshape_rpn_cls_score_reshape_0_split_0
I0829 20:11:44.015466  1770 net.cpp:411] rpn_cls_score_reshape_rpn_cls_score_reshape_0_split -> rpn_cls_score_reshape_rpn_cls_score_reshape_0_split_1
I0829 20:11:44.015527  1770 net.cpp:150] Setting up rpn_cls_score_reshape_rpn_cls_score_reshape_0_split
I0829 20:11:44.015535  1770 net.cpp:157] Top shape: 1 2 324 61 (39528)
I0829 20:11:44.015539  1770 net.cpp:157] Top shape: 1 2 324 61 (39528)
I0829 20:11:44.015542  1770 net.cpp:165] Memory required for data: 282443604
I0829 20:11:44.015545  1770 layer_factory.hpp:77] Creating layer rpn-data
I0829 20:11:44.016134  1770 net.cpp:106] Creating Layer rpn-data
I0829 20:11:44.016149  1770 net.cpp:454] rpn-data <- rpn_cls_score_rpn_cls_score_0_split_1
I0829 20:11:44.016155  1770 net.cpp:454] rpn-data <- gt_boxes_input-data_2_split_0
I0829 20:11:44.016161  1770 net.cpp:454] rpn-data <- im_info_input-data_1_split_0
I0829 20:11:44.016168  1770 net.cpp:454] rpn-data <- data_input-data_0_split_1
I0829 20:11:44.016175  1770 net.cpp:411] rpn-data -> rpn_labels
I0829 20:11:44.016196  1770 net.cpp:411] rpn-data -> rpn_bbox_targets
I0829 20:11:44.016207  1770 net.cpp:411] rpn-data -> rpn_bbox_inside_weights
I0829 20:11:44.016218  1770 net.cpp:411] rpn-data -> rpn_bbox_outside_weights
I0829 20:11:44.019317  1770 net.cpp:150] Setting up rpn-data
I0829 20:11:44.019341  1770 net.cpp:157] Top shape: 1 1 324 61 (19764)
I0829 20:11:44.019346  1770 net.cpp:157] Top shape: 1 36 36 61 (79056)
I0829 20:11:44.019351  1770 net.cpp:157] Top shape: 1 36 36 61 (79056)
I0829 20:11:44.019354  1770 net.cpp:157] Top shape: 1 36 36 61 (79056)
I0829 20:11:44.019357  1770 net.cpp:165] Memory required for data: 283471332
I0829 20:11:44.019361  1770 layer_factory.hpp:77] Creating layer rpn_loss_cls
I0829 20:11:44.019372  1770 net.cpp:106] Creating Layer rpn_loss_cls
I0829 20:11:44.019378  1770 net.cpp:454] rpn_loss_cls <- rpn_cls_score_reshape_rpn_cls_score_reshape_0_split_0
I0829 20:11:44.019384  1770 net.cpp:454] rpn_loss_cls <- rpn_labels
…
I0829 20:11:44.021324  1770 net.cpp:157] Top shape: (1)
I0829 20:11:44.021327  1770 net.cpp:160]     with loss weight 1
I0829 20:11:44.021333  1770 net.cpp:165] Memory required for data: 283471340
I0829 20:11:44.021337  1770 layer_factory.hpp:77] Creating layer rpn_cls_prob
I0829 20:11:44.021344  1770 net.cpp:106] Creating Layer rpn_cls_prob
I0829 20:11:44.021349  1770 net.cpp:454] rpn_cls_prob <- rpn_cls_score_reshape_rpn_cls_score_reshape_0_split_1
I0829 20:11:44.021356  1770 net.cpp:411] rpn_cls_prob -> rpn_cls_prob
I0829 20:11:44.021693  1770 net.cpp:150] Setting up rpn_cls_prob
I0829 20:11:44.021705  1770 net.cpp:157] Top shape: 1 2 324 61 (39528)
I0829 20:11:44.021708  1770 net.cpp:165] Memory required for data: 283629452
I0829 20:11:44.021713  1770 layer_factory.hpp:77] Creating layer rpn_cls_prob_reshape
I0829 20:11:44.021731  1770 net.cpp:106] Creating Layer rpn_cls_prob_reshape
I0829 20:11:44.021738  1770 net.cpp:454] rpn_cls_prob_reshape <- rpn_cls_prob
I0829 20:11:44.021744  1770 net.cpp:411] rpn_cls_prob_reshape -> rpn_cls_prob_reshape
I0829 20:11:44.021791  1770 net.cpp:150] Setting up rpn_cls_prob_reshape
I0829 20:11:44.021800  1770 net.cpp:157] Top shape: 1 18 36 61 (39528)
I0829 20:11:44.021803  1770 net.cpp:165] Memory required for data: 283787564
I0829 20:11:44.021806  1770 layer_factory.hpp:77] Creating layer proposal
I0829 20:11:44.036233  1770 net.cpp:106] Creating Layer proposal
I0829 20:11:44.036272  1770 net.cpp:454] proposal <- rpn_cls_prob_reshape
I0829 20:11:44.036280  1770 net.cpp:454] proposal <- rpn_bbox_pred_rpn_bbox_pred_0_split_1
I0829 20:11:44.036286  1770 net.cpp:454] proposal <- im_info_input-data_1_split_1
I0829 20:11:44.036298  1770 net.cpp:411] proposal -> rpn_rois
I0829 20:11:44.042842  1770 net.cpp:150] Setting up proposal
I0829 20:11:44.042878  1770 net.cpp:157] Top shape: 1 5 (5)
I0829 20:11:44.042882  1770 net.cpp:165] Memory required for data: 283787584
I0829 20:11:44.042888  1770 layer_factory.hpp:77] Creating layer roi-data
I0829 20:11:44.045169  1770 net.cpp:106] Creating Layer roi-data
I0829 20:11:44.045194  1770 net.cpp:454] roi-data <- rpn_rois
I0829 20:11:44.045207  1770 net.cpp:454] roi-data <- gt_boxes_input-data_2_split_1
I0829 20:11:44.045217  1770 net.cpp:411] roi-data -> rois
I0829 20:11:44.045228  1770 net.cpp:411] roi-data -> labels
I0829 20:11:44.045238  1770 net.cpp:411] roi-data -> bbox_targets
I0829 20:11:44.045245  1770 net.cpp:411] roi-data -> bbox_inside_weights
I0829 20:11:44.045254  1770 net.cpp:411] roi-data -> bbox_outside_weights
I0829 20:11:44.045265  1770 net.cpp:411] roi-data -> key_targets
I0829 20:11:44.045275  1770 net.cpp:411] roi-data -> key_inside_weights
I0829 20:11:44.045285  1770 net.cpp:411] roi-data -> key_outside_weights
I0829 20:11:44.046120  1770 net.cpp:150] Setting up roi-data
I0829 20:11:44.046139  1770 net.cpp:157] Top shape: 1 5 (5)
I0829 20:11:44.046142  1770 net.cpp:157] Top shape: 1 1 (1)
I0829 20:11:44.046146  1770 net.cpp:157] Top shape: 1 84 (84)
I0829 20:11:44.046149  1770 net.cpp:157] Top shape: 1 84 (84)
I0829 20:11:44.046152  1770 net.cpp:157] Top shape: 1 84 (84)
I0829 20:11:44.046156  1770 net.cpp:157] Top shape: 1 84 (84)
I0829 20:11:44.046160  1770 net.cpp:157] Top shape: 1 84 (84)
I0829 20:11:44.046164  1770 net.cpp:157] Top shape: 1 84 (84)
I0829 20:11:44.046165  1770 net.cpp:165] Memory required for data: 283789624
I0829 20:11:44.046170  1770 layer_factory.hpp:77] Creating layer roi_pool5
I0829 20:11:44.046178  1770 net.cpp:106] Creating Layer roi_pool5
I0829 20:11:44.046183  1770 net.cpp:454] roi_pool5 <- conv5_relu5_0_split_1
I0829 20:11:44.046188  1770 net.cpp:454] roi_pool5 <- rois
I0829 20:11:44.046197  1770 net.cpp:411] roi_pool5 -> pool5
I0829 20:11:44.046207  1770 roi_pooling_layer.cpp:30] Spatial scale: 0.0625
I0829 20:11:44.046286  1770 net.cpp:150] Setting up roi_pool5
I0829 20:11:44.046295  1770 net.cpp:157] Top shape: 1 512 6 6 (18432)
I0829 20:11:44.046298  1770 net.cpp:165] Memory required for data: 283863352
I0829 20:11:44.046301  1770 layer_factory.hpp:77] Creating layer fc6
I0829 20:11:44.046309  1770 net.cpp:106] Creating Layer fc6
I0829 20:11:44.046314  1770 net.cpp:454] fc6 <- pool5
I0829 20:11:44.046320  1770 net.cpp:411] fc6 -> fc6
I0829 20:11:44.561887  1770 net.cpp:150] Setting up fc6
I0829 20:11:44.561942  1770 net.cpp:157] Top shape: 1 4096 (4096)
I0829 20:11:44.561946  1770 net.cpp:165] Memory required for data: 283879736
I0829 20:11:44.561972  1770 layer_factory.hpp:77] Creating layer relu6
I0829 20:11:44.561996  1770 net.cpp:106] Creating Layer relu6
I0829 20:11:44.562003  1770 net.cpp:454] relu6 <- fc6
I0829 20:11:44.562017  1770 net.cpp:397] relu6 -> fc6 (in-place)
I0829 20:11:44.562885  1770 net.cpp:150] Setting up relu6
I0829 20:11:44.562903  1770 net.cpp:157] Top shape: 1 4096 (4096)
I0829 20:11:44.563225  1770 net.cpp:165] Memory required for data: 283896120
I0829 20:11:44.563231  1770 layer_factory.hpp:77] Creating layer drop6
I0829 20:11:44.563244  1770 net.cpp:106] Creating Layer drop6
I0829 20:11:44.563248  1770 net.cpp:454] drop6 <- fc6
I0829 20:11:44.563256  1770 net.cpp:397] drop6 -> fc6 (in-place)
I0829 20:11:44.563328  1770 net.cpp:150] Setting up drop6
I0829 20:11:44.563338  1770 net.cpp:157] Top shape: 1 4096 (4096)
I0829 20:11:44.563341  1770 net.cpp:165] Memory required for data: 283912504
I0829 20:11:44.563345  1770 layer_factory.hpp:77] Creating layer fc7
I0829 20:11:44.563357  1770 net.cpp:106] Creating Layer fc7
I0829 20:11:44.563361  1770 net.cpp:454] fc7 <- fc6
I0829 20:11:44.563369  1770 net.cpp:411] fc7 -> fc7
I0829 20:11:44.589887  1770 net.cpp:150] Setting up fc7
I0829 20:11:44.589937  1770 net.cpp:157] Top shape: 1 1024 (1024)
I0829 20:11:44.589941  1770 net.cpp:165] Memory required for data: 283916600
I0829 20:11:44.589956  1770 layer_factory.hpp:77] Creating layer relu7
I0829 20:11:44.589978  1770 net.cpp:106] Creating Layer relu7
I0829 20:11:44.589984  1770 net.cpp:454] relu7 <- fc7
I0829 20:11:44.589995  1770 net.cpp:397] relu7 -> fc7 (in-place)
I0829 20:11:44.590312  1770 net.cpp:150] Setting up relu7
I0829 20:11:44.590332  1770 net.cpp:157] Top shape: 1 1024 (1024)
I0829 20:11:44.590334  1770 net.cpp:165] Memory required for data: 283920696
I0829 20:11:44.590343  1770 layer_factory.hpp:77] Creating layer drop7
I0829 20:11:44.590353  1770 net.cpp:106] Creating Layer drop7
I0829 20:11:44.590356  1770 net.cpp:454] drop7 <- fc7
I0829 20:11:44.590364  1770 net.cpp:397] drop7 -> fc7 (in-place)
I0829 20:11:44.590421  1770 net.cpp:150] Setting up drop7
I0829 20:11:44.590430  1770 net.cpp:157] Top shape: 1 1024 (1024)
I0829 20:11:44.590432  1770 net.cpp:165] Memory required for data: 283924792
I0829 20:11:44.590436  1770 layer_factory.hpp:77] Creating layer fc7_drop7_0_split
I0829 20:11:44.590445  1770 net.cpp:106] Creating Layer fc7_drop7_0_split
I0829 20:11:44.590450  1770 net.cpp:454] fc7_drop7_0_split <- fc7
I0829 20:11:44.590458  1770 net.cpp:411] fc7_drop7_0_split -> fc7_drop7_0_split_0
I0829 20:11:44.590469  1770 net.cpp:411] fc7_drop7_0_split -> fc7_drop7_0_split_1
I0829 20:11:44.590479  1770 net.cpp:411] fc7_drop7_0_split -> fc7_drop7_0_split_2
I0829 20:11:44.590585  1770 net.cpp:150] Setting up fc7_drop7_0_split
I0829 20:11:44.590595  1770 net.cpp:157] Top shape: 1 1024 (1024)
I0829 20:11:44.590598  1770 net.cpp:157] Top shape: 1 1024 (1024)
I0829 20:11:44.590602  1770 net.cpp:157] Top shape: 1 1024 (1024)
I0829 20:11:44.590605  1770 net.cpp:165] Memory required for data: 283937080
I0829 20:11:44.590608  1770 layer_factory.hpp:77] Creating layer cls_score
I0829 20:11:44.590618  1770 net.cpp:106] Creating Layer cls_score
I0829 20:11:44.590625  1770 net.cpp:454] cls_score <- fc7_drop7_0_split_0
I0829 20:11:44.590633  1770 net.cpp:411] cls_score -> cls_score
I0829 20:11:44.591145  1770 net.cpp:150] Setting up cls_score
I0829 20:11:44.591157  1770 net.cpp:157] Top shape: 1 21 (21)
I0829 20:11:44.591161  1770 net.cpp:165] Memory required for data: 283937164
I0829 20:11:44.591167  1770 layer_factory.hpp:77] Creating layer bbox_pred
I0829 20:11:44.591176  1770 net.cpp:106] Creating Layer bbox_pred
I0829 20:11:44.591182  1770 net.cpp:454] bbox_pred <- fc7_drop7_0_split_1
I0829 20:11:44.591190  1770 net.cpp:411] bbox_pred -> bbox_pred
I0829 20:11:44.594597  1770 net.cpp:150] Setting up bbox_pred
I0829 20:11:44.594614  1770 net.cpp:157] Top shape: 1 84 (84)
I0829 20:11:44.594617  1770 net.cpp:165] Memory required for data: 283937500
I0829 20:11:44.594630  1770 layer_factory.hpp:77] Creating layer key_pred
I0829 20:11:44.594651  1770 net.cpp:106] Creating Layer key_pred
I0829 20:11:44.594656  1770 net.cpp:454] key_pred <- fc7_drop7_0_split_2
I0829 20:11:44.594666  1770 net.cpp:411] key_pred -> key_pred
I0829 20:11:44.595918  1770 net.cpp:150] Setting up key_pred
I0829 20:11:44.595932  1770 net.cpp:157] Top shape: 1 84 (84)
I0829 20:11:44.595934  1770 net.cpp:165] Memory required for data: 283937836
I0829 20:11:44.595942  1770 layer_factory.hpp:77] Creating layer loss_cls
I0829 20:11:44.595953  1770 net.cpp:106] Creating Layer loss_cls
I0829 20:11:44.595958  1770 net.cpp:454] loss_cls <- cls_score
I0829 20:11:44.595968  1770 net.cpp:454] loss_cls <- labels
I0829 20:11:44.595978  1770 net.cpp:411] loss_cls -> loss_cls
…
