…
stepsize: 50000
snapshot: 0
snapshot_prefix: "key"
average_loss: 100
iter_size: 2
I0829 13:54:50.428484 40731 solver.cpp:81] Creating training net from train_net file: models/pascal_voc/VGG16/key/train.prototxt
I0829 13:54:50.429352 40731 net.cpp:49] Initializing net from parameters: 
name: "VGG_ILSVRC_16_layers"
state {
  phase: TRAIN
}
layer {
  name: "input-data"
  type: "Python"
  top: "data"
  top: "im_info"
  top: "gt_boxes"
  python_param {
    module: "roi_data_layer.layer"
    layer: "RoIDataLayer"
    param_str: "\'num_classes\': 21"
  }
}
layer {
  name: "conv1_1"
  type: "Convolution"
  bottom: "data"
  top: "conv1_1"
  param {
    lr_mult: 0
    decay_mult: 0
  }
  param {
    lr_mult: 0
    decay_mult: 0
  }
  convolution_param {
    num_output: 64
    pad: 1
    kernel_size: 3
  }
}
layer {
  name: "relu1_1"
  type: "ReLU"
  bottom: "conv1_1"
  top: "conv1_1"
}
layer {
  name: "conv1_2"
  type: "Convolution"
  bottom: "conv1_1"
  top: "conv1_2"
  param {
    lr_mult: 0
    decay_mult: 0
  }
  param {
    lr_mult: 0
    decay_mult: 0
  }
  convolution_param {
    num_output: 64
    pad: 1
    kernel_size: 3
  }
}
layer {
  name: "relu1_2"
  type: "ReLU"
  bottom: "conv1_2"
  top: "conv1_2"
}
layer {
  name: "pool1"
  type: "Pooling"
  bottom: "conv1_2"
  top: "pool1"
  pooling_param {
    pool: MAX
    kernel_size: 2
    stride: 2
  }
}
layer {
  name: "conv2_1"
  type: "Convolution"
  bottom: "pool1"
  top: "conv2_1"
  param {
    lr_mult: 0
    decay_mult: 0
  }
  param {
    lr_mult: 0
    decay_mult: 0
  }
  convolution_param {
    num_output: 128
    pad: 1
    kernel_size: 3
  }
}
layer {
  name: "relu2_1"
  type: "ReLU"
  bottom: "conv2_1"
  top: "conv2_1"
}
layer {
  name: "conv2_2"
  type: "Convolution"
  bottom: "conv2_1"
  top: "conv2_2"
  param {
    lr_mult: 0
    decay_mult: 0
  }
  param {
    lr_mult: 0
    decay_mult: 0
  }
  convolution_param {
    num_output: 128
    pad: 1
    kernel_size: 3
  }
}
layer {
  name: "relu2_2"
  type: "ReLU"
  bottom: "conv2_2"
  top: "conv2_2"
}
layer {
  name: "pool2"
  type: "Pooling"
  bottom: "conv2_2"
  top: "pool2"
  pooling_param {
    pool: MAX
    kernel_size: 2
    stride: 2
  }
}
layer {
  name: "conv3_1"
  type: "Convolution"
  bottom: "pool2"
  top: "conv3_1"
  param {
    lr_mult: 1
  }
  param {
    lr_mult: 2
  }
  convolution_param {
    num_output: 256
    pad: 1
    kernel_size: 3
  }
}
layer {
  name: "relu3_1"
  type: "ReLU"
  bottom: "conv3_1"
  top: "conv3_1"
}
layer {
  name: "conv3_2"
  type: "Convolution"
  bottom: "conv3_1"
  top: "conv3_2"
  param {
    lr_mult: 1
  }
  param {
    lr_mult: 2
  }
  convolution_param {
    num_output: 256
    pad: 1
    kernel_size: 3
  }
}
layer {
  name: "relu3_2"
  type: "ReLU"
  bottom: "conv3_2"
  top: "conv3_2"
}
layer {
  name: "conv3_3"
  type: "Convolution"
  bottom: "conv3_2"
  top: "conv3_3"
  param {
    lr_mult: 1
  }
  param {
    lr_mult: 2
  }
  convolution_param {
    num_output: 256
    pad: 1
    kernel_size: 3
  }
}
layer {
  name: "relu3_3"
  type: "ReLU"
  bottom: "conv3_3"
  top: "conv3_3"
}
layer {
  name: "pool3"
  type: "Pooling"
  bottom: "conv3_3"
  top: "pool3"
  pooling_param {
    pool: MAX
    kernel_size: 2
    stride: 2
  }
}
layer {
  name: "conv4_1"
  type: "Convolution"
  bottom: "pool3"
  top: "conv4_1"
  param {
    lr_mult: 1
  }
  param {
    lr_mult: 2
  }
  convolution_param {
    num_output: 512
    pad: 1
    kernel_size: 3
  }
}
layer {
  name: "relu4_1"
  type: "ReLU"
  bottom: "conv4_1"
  top: "conv4_1"
}
layer {
  name: "conv4_2"
  type: "Convolution"
  bottom: "conv4_1"
  top: "conv4_2"
  param {
    lr_mult: 1
  }
  param {
    lr_mult: 2
  }
  convolution_param {
    num_output: 512
    pad: 1
    kernel_size: 3
  }
}
layer {
  name: "relu4_2"
  type: "ReLU"
  bottom: "conv4_2"
  top: "conv4_2"
}
layer {
  name: "conv4_3"
  type: "Convolution"
  bottom: "conv4_2"
  top: "conv4_3"
  param {
    lr_mult: 1
  }
  param {
    lr_mult: 2
  }
  convolution_param {
    num_output: 512
    pad: 1
    kernel_size: 3
  }
}
layer {
  name: "relu4_3"
  type: "ReLU"
  bottom: "conv4_3"
  top: "conv4_3"
}
layer {
  name: "pool4"
  type: "Pooling"
  bottom: "conv4_3"
  top: "pool4"
  pooling_param {
    pool: MAX
    kernel_size: 2
    stride: 2
  }
}
layer {
  name: "conv5_1"
  type: "Convolution"
  bottom: "pool4"
  top: "conv5_1"
  param {
    lr_mult: 1
  }
  param {
    lr_mult: 2
  }
  convolution_param {
    num_output: 512
    pad: 1
    kernel_size: 3
  }
}
layer {
  name: "relu5_1"
  type: "ReLU"
  bottom: "conv5_1"
  top: "conv5_1"
}
layer {
  name: "conv5_2"
  type: "Convolution"
  bottom: "conv5_1"
  top: "conv5_2"
  param {
    lr_mult: 1
  }
  param {
    lr_mult: 2
  }
  convolution_param {
    num_output: 512
    pad: 1
    kernel_size: 3
  }
}
layer {
  name: "relu5_2"
  type: "ReLU"
  bottom: "conv5_2"
  top: "conv5_2"
}
layer {
  name: "conv5_3"
  type: "Convolution"
  bottom: "conv5_2"
  top: "conv5_3"
  param {
    lr_mult: 1
  }
  param {
    lr_mult: 2
  }
  convolution_param {
    num_output: 512
    pad: 1
    kernel_size: 3
  }
}
layer {
  name: "relu5_3"
  type: "ReLU"
  bottom: "conv5_3"
  top: "conv5_3"
}
layer {
  name: "rpn_conv/3x3"
  type: "Convolution"
  bottom: "conv5_3"
  top: "rpn/output"
  param {
    lr_mult: 1
  }
  param {
    lr_mult: 2
  }
  convolution_param {
    num_output: 512
    pad: 1
    kernel_size: 3
    stride: 1
    weight_filler {
      type: "gaussian"
      std: 0.01
    }
    bias_filler {
      type: "constant"
      value: 0
    }
  }
}
layer {
  name: "rpn_relu/3x3"
  type: "ReLU"
  bottom: "rpn/output"
  top: "rpn/output"
}
layer {
  name: "rpn_cls_score"
  type: "Convolution"
  bottom: "rpn/output"
  top: "rpn_cls_score"
  param {
    lr_mult: 1
  }
  param {
    lr_mult: 2
  }
  convolution_param {
    num_output: 18
    pad: 0
    kernel_size: 1
    stride: 1
    weight_filler {
      type: "gaussian"
      std: 0.01
    }
    bias_filler {
      type: "constant"
      value: 0
    }
  }
}
layer {
  name: "rpn_bbox_pred"
  type: "Convolution"
  bottom: "rpn/output"
  top: "rpn_bbox_pred"
  param {
    lr_mult: 1
  }
  param {
    lr_mult: 2
  }
  convolution_param {
    num_output: 36
    pad: 0
    kernel_size: 1
    stride: 1
    weight_filler {
      type: "gaussian"
      std: 0.01
    }
    bias_filler {
      type: "constant"
      value: 0
    }
  }
}
layer {
  name: "rpn_cls_score_reshape"
  type: "Reshape"
  bottom: "rpn_cls_score"
  top: "rpn_cls_score_reshape"
  reshape_param {
    shape {
      dim: 0
      dim: 2
      dim: -1
      dim: 0
    }
  }
}
layer {
  name: "rpn-data"
  type: "Python"
  bottom: "rpn_cls_score"
  bottom: "gt_boxes"
  bottom: "im_info"
  bottom: "data"
  top: "rpn_labels"
  top: "rpn_bbox_targets"
  top: "rpn_bbox_inside_weights"
  top: "rpn_bbox_outside_weights"
  python_param {
    module: "rpn.anchor_target_layer"
    layer: "AnchorTargetLayer"
    param_str: "\'feat_stride\': 16"
  }
}
layer {
  name: "rpn_loss_cls"
  type: "SoftmaxWithLoss"
  bottom: "rpn_cls_score_reshape"
  bottom: "rpn_labels"
  top: "rpn_cls_loss"
  loss_weight: 1
  propagate_down: true
  propagate_down: false
  loss_param {
    ignore_label: -1
    normalize: true
  }
}
layer {
  name: "rpn_loss_bbox"
  type: "SmoothL1Loss"
  bottom: "rpn_bbox_pred"
  bottom: "rpn_bbox_targets"
  bottom: "rpn_bbox_inside_weights"
  bottom: "rpn_bbox_outside_weights"
  top: "rpn_loss_bbox"
  loss_weight: 1
  smooth_l1_loss_param {
    sigma: 3
  }
}
layer {
  name: "rpn_cls_prob"
  type: "Softmax"
  bottom: "rpn_cls_score_reshape"
  top: "rpn_cls_prob"
}
layer {
  name: "rpn_cls_prob_reshape"
  type: "Reshape"
  bottom: "rpn_cls_prob"
  top: "rpn_cls_prob_reshape"
  reshape_param {
    shape {
      dim: 0
      dim: 18
      dim: -1
      dim: 0
    }
  }
}
layer {
  name: "proposal"
  type: "Python"
  bottom: "rpn_cls_prob_reshape"
  bottom: "rpn_bbox_pred"
  bottom: "im_info"
  top: "rpn_rois"
  python_param {
    module: "rpn.proposal_layer"
    layer: "ProposalLayer"
    param_str: "\'feat_stride\': 16"
  }
}
layer {
  name: "roi-data"
  type: "Python"
  bottom: "rpn_rois"
  bottom: "gt_boxes"
  top: "rois"
  top: "labels"
  top: "bbox_targets"
  top: "bbox_inside_weights"
  top: "bbox_outside_weights"
  top: "key_targets"
  top: "key_inside_weights"
  python_param {
    module: "rpn.proposal_target_layer"
    layer: "ProposalTargetLayer"
    param_str: "\'num_classes\': 21"
  }
}
layer {
  name: "roi_pool5"
  type: "ROIPooling"
  bottom: "conv5_3"
  bottom: "rois"
  top: "pool5"
  roi_pooling_param {
    pooled_h: 7
    pooled_w: 7
    spatial_scale: 0.0625
  }
}
layer {
  name: "fc6"
  type: "InnerProduct"
  bottom: "pool5"
  top: "fc6"
  param {
    lr_mult: 1
  }
  param {
    lr_mult: 2
  }
  inner_product_param {
    num_output: 4096
  }
}
layer {
  name: "relu6"
  type: "ReLU"
  bottom: "fc6"
  top: "fc6"
}
layer {
  name: "drop6"
  type: "Dropout"
  bottom: "fc6"
  top: "fc6"
  dropout_param {
    dropout_ratio: 0.5
  }
}
layer {
  name: "fc7"
  type: "InnerProduct"
  bottom: "fc6"
  top: "fc7"
  param {
    lr_mult: 1
  }
  param {
    lr_mult: 2
  }
  inner_product_param {
    num_output: 4096
  }
}
layer {
  name: "relu7"
  type: "ReLU"
  bottom: "fc7"
  top: "fc7"
}
layer {
  name: "drop7"
  type: "Dropout"
  bottom: "fc7"
  top: "fc7"
  dropout_param {
    dropout_ratio: 0.5
  }
}
layer {
  name: "cls_score"
  type: "InnerProduct"
  bottom: "fc7"
  top: "cls_score"
  param {
    lr_mult: 1
  }
  param {
    lr_mult: 2
  }
  inner_product_param {
    num_output: 21
    weight_filler {
      type: "gaussian"
      std: 0.01
    }
    bias_filler {
      type: "constant"
      value: 0
    }
  }
}
layer {
  name: "bbox_pred"
  type: "InnerProduct"
  bottom: "fc7"
  top: "bbox_pred"
  param {
    lr_mult: 1
  }
  param {
    lr_mult: 2
  }
  inner_product_param {
    num_output: 84
    weight_filler {
      type: "gaussian"
      std: 0.001
    }
    bias_filler {
      type: "constant"
      value: 0
    }
  }
}
layer {
  name: "key_pred"
  type: "InnerProduct"
  bottom: "fc7"
  top: "key_pred"
  param {
    lr_mult: 1
  }
  param {
    lr_mult: 2
  }
  inner_product_param {
    num_output: 84
    weight_filler {
      type: "gaussian"
      std: 0.001
    }
    bias_filler {
      type: "constant"
      value: 0
    }
  }
}
layer {
  name: "loss_cls"
  type: "SoftmaxWithLoss"
  bottom: "cls_score"
  bottom: "labels"
  top: "loss_cls"
  loss_weight: 1
  propagate_down: true
  propagate_down: false
}
layer {
  name: "loss_bbox"
  type: "SmoothL1Loss"
  bottom: "bbox_pred"
  bottom: "bbox_targets"
  bottom: "bbox_inside_weights"
  bottom: "bbox_outside_weights"
  top: "loss_bbox"
  loss_weight: 1
}
layer {
  name: "loss_key"
  type: "SmoothL1Loss"
  bottom: "key_pred"
  bottom: "key_targets"
  bottom: "key_inside_weights"
  bottom: "bbox_outside_weights"
  top: "loss_key"
  loss_weight: 1
}
I0829 13:54:50.429740 40731 layer_factory.hpp:77] Creating layer input-data
I0829 13:54:50.442680 40731 net.cpp:106] Creating Layer input-data
I0829 13:54:50.442718 40731 net.cpp:411] input-data -> data
I0829 13:54:50.442731 40731 net.cpp:411] input-data -> im_info
I0829 13:54:50.442751 40731 net.cpp:411] input-data -> gt_boxes
RoiDataLayer: name_to_top: {'gt_boxes': 2, 'data': 0, 'im_info': 1}
I0829 13:54:50.453291 40731 net.cpp:150] Setting up input-data
I0829 13:54:50.453310 40731 net.cpp:157] Top shape: 1 3 600 1000 (1800000)
I0829 13:54:50.453316 40731 net.cpp:157] Top shape: 1 3 (3)
I0829 13:54:50.453320 40731 net.cpp:157] Top shape: 1 4 (4)
I0829 13:54:50.453322 40731 net.cpp:165] Memory required for data: 7200028
I0829 13:54:50.453327 40731 layer_factory.hpp:77] Creating layer data_input-data_0_split
I0829 13:54:50.453338 40731 net.cpp:106] Creating Layer data_input-data_0_split
I0829 13:54:50.453344 40731 net.cpp:454] data_input-data_0_split <- data
I0829 13:54:50.453353 40731 net.cpp:411] data_input-data_0_split -> data_input-data_0_split_0
I0829 13:54:50.453363 40731 net.cpp:411] data_input-data_0_split -> data_input-data_0_split_1
I0829 13:54:50.453424 40731 net.cpp:150] Setting up data_input-data_0_split
I0829 13:54:50.453433 40731 net.cpp:157] Top shape: 1 3 600 1000 (1800000)
I0829 13:54:50.453438 40731 net.cpp:157] Top shape: 1 3 600 1000 (1800000)
I0829 13:54:50.453440 40731 net.cpp:165] Memory required for data: 21600028
I0829 13:54:50.453444 40731 layer_factory.hpp:77] Creating layer im_info_input-data_1_split
I0829 13:54:50.453451 40731 net.cpp:106] Creating Layer im_info_input-data_1_split
I0829 13:54:50.453454 40731 net.cpp:454] im_info_input-data_1_split <- im_info
I0829 13:54:50.453460 40731 net.cpp:411] im_info_input-data_1_split -> im_info_input-data_1_split_0
I0829 13:54:50.453467 40731 net.cpp:411] im_info_input-data_1_split -> im_info_input-data_1_split_1
I0829 13:54:50.453521 40731 net.cpp:150] Setting up im_info_input-data_1_split
I0829 13:54:50.453529 40731 net.cpp:157] Top shape: 1 3 (3)
I0829 13:54:50.453533 40731 net.cpp:157] Top shape: 1 3 (3)
I0829 13:54:50.453536 40731 net.cpp:165] Memory required for data: 21600052
I0829 13:54:50.453538 40731 layer_factory.hpp:77] Creating layer gt_boxes_input-data_2_split
I0829 13:54:50.453544 40731 net.cpp:106] Creating Layer gt_boxes_input-data_2_split
I0829 13:54:50.453547 40731 net.cpp:454] gt_boxes_input-data_2_split <- gt_boxes
I0829 13:54:50.453553 40731 net.cpp:411] gt_boxes_input-data_2_split -> gt_boxes_input-data_2_split_0
I0829 13:54:50.453562 40731 net.cpp:411] gt_boxes_input-data_2_split -> gt_boxes_input-data_2_split_1
I0829 13:54:50.453614 40731 net.cpp:150] Setting up gt_boxes_input-data_2_split
I0829 13:54:50.453622 40731 net.cpp:157] Top shape: 1 4 (4)
I0829 13:54:50.453626 40731 net.cpp:157] Top shape: 1 4 (4)
I0829 13:54:50.453629 40731 net.cpp:165] Memory required for data: 21600084
I0829 13:54:50.453631 40731 layer_factory.hpp:77] Creating layer conv1_1
I0829 13:54:50.453645 40731 net.cpp:106] Creating Layer conv1_1
I0829 13:54:50.453650 40731 net.cpp:454] conv1_1 <- data_input-data_0_split_0
I0829 13:54:50.453657 40731 net.cpp:411] conv1_1 -> conv1_1
I0829 13:54:50.739027 40731 net.cpp:150] Setting up conv1_1
I0829 13:54:50.739060 40731 net.cpp:157] Top shape: 1 64 600 1000 (38400000)
I0829 13:54:50.739066 40731 net.cpp:165] Memory required for data: 175200084
I0829 13:54:50.739089 40731 layer_factory.hpp:77] Creating layer relu1_1
I0829 13:54:50.739106 40731 net.cpp:106] Creating Layer relu1_1
I0829 13:54:50.739115 40731 net.cpp:454] relu1_1 <- conv1_1
I0829 13:54:50.739125 40731 net.cpp:397] relu1_1 -> conv1_1 (in-place)
I0829 13:54:50.739826 40731 net.cpp:150] Setting up relu1_1
I0829 13:54:50.739853 40731 net.cpp:157] Top shape: 1 64 600 1000 (38400000)
I0829 13:54:50.739858 40731 net.cpp:165] Memory required for data: 328800084
I0829 13:54:50.739863 40731 layer_factory.hpp:77] Creating layer conv1_2
I0829 13:54:50.739879 40731 net.cpp:106] Creating Layer conv1_2
I0829 13:54:50.739886 40731 net.cpp:454] conv1_2 <- conv1_1
I0829 13:54:50.739895 40731 net.cpp:411] conv1_2 -> conv1_2
I0829 13:54:50.749169 40731 net.cpp:150] Setting up conv1_2
I0829 13:54:50.749199 40731 net.cpp:157] Top shape: 1 64 600 1000 (38400000)
I0829 13:54:50.749204 40731 net.cpp:165] Memory required for data: 482400084
I0829 13:54:50.749222 40731 layer_factory.hpp:77] Creating layer relu1_2
I0829 13:54:50.749234 40731 net.cpp:106] Creating Layer relu1_2
I0829 13:54:50.749239 40731 net.cpp:454] relu1_2 <- conv1_2
I0829 13:54:50.749248 40731 net.cpp:397] relu1_2 -> conv1_2 (in-place)
I0829 13:54:50.749555 40731 net.cpp:150] Setting up relu1_2
I0829 13:54:50.749572 40731 net.cpp:157] Top shape: 1 64 600 1000 (38400000)
I0829 13:54:50.749575 40731 net.cpp:165] Memory required for data: 636000084
I0829 13:54:50.749580 40731 layer_factory.hpp:77] Creating layer pool1
I0829 13:54:50.749595 40731 net.cpp:106] Creating Layer pool1
I0829 13:54:50.749600 40731 net.cpp:454] pool1 <- conv1_2
I0829 13:54:50.749608 40731 net.cpp:411] pool1 -> pool1
I0829 13:54:50.749716 40731 net.cpp:150] Setting up pool1
I0829 13:54:50.749727 40731 net.cpp:157] Top shape: 1 64 300 500 (9600000)
I0829 13:54:50.749730 40731 net.cpp:165] Memory required for data: 674400084
I0829 13:54:50.749734 40731 layer_factory.hpp:77] Creating layer conv2_1
I0829 13:54:50.749747 40731 net.cpp:106] Creating Layer conv2_1
I0829 13:54:50.749752 40731 net.cpp:454] conv2_1 <- pool1
I0829 13:54:50.749761 40731 net.cpp:411] conv2_1 -> conv2_1
I0829 13:54:50.754690 40731 net.cpp:150] Setting up conv2_1
I0829 13:54:50.754717 40731 net.cpp:157] Top shape: 1 128 300 500 (19200000)
I0829 13:54:50.754722 40731 net.cpp:165] Memory required for data: 751200084
I0829 13:54:50.754743 40731 layer_factory.hpp:77] Creating layer relu2_1
I0829 13:54:50.754755 40731 net.cpp:106] Creating Layer relu2_1
I0829 13:54:50.754760 40731 net.cpp:454] relu2_1 <- conv2_1
I0829 13:54:50.754770 40731 net.cpp:397] relu2_1 -> conv2_1 (in-place)
I0829 13:54:50.755106 40731 net.cpp:150] Setting up relu2_1
I0829 13:54:50.755125 40731 net.cpp:157] Top shape: 1 128 300 500 (19200000)
I0829 13:54:50.755128 40731 net.cpp:165] Memory required for data: 828000084
I0829 13:54:50.755133 40731 layer_factory.hpp:77] Creating layer conv2_2
I0829 13:54:50.755148 40731 net.cpp:106] Creating Layer conv2_2
I0829 13:54:50.755153 40731 net.cpp:454] conv2_2 <- conv2_1
I0829 13:54:50.755164 40731 net.cpp:411] conv2_2 -> conv2_2
I0829 13:54:50.762009 40731 net.cpp:150] Setting up conv2_2
I0829 13:54:50.762034 40731 net.cpp:157] Top shape: 1 128 300 500 (19200000)
I0829 13:54:50.762039 40731 net.cpp:165] Memory required for data: 904800084
I0829 13:54:50.762049 40731 layer_factory.hpp:77] Creating layer relu2_2
I0829 13:54:50.762058 40731 net.cpp:106] Creating Layer relu2_2
I0829 13:54:50.762064 40731 net.cpp:454] relu2_2 <- conv2_2
I0829 13:54:50.762074 40731 net.cpp:397] relu2_2 -> conv2_2 (in-place)
I0829 13:54:50.762743 40731 net.cpp:150] Setting up relu2_2
I0829 13:54:50.762763 40731 net.cpp:157] Top shape: 1 128 300 500 (19200000)
I0829 13:54:50.762768 40731 net.cpp:165] Memory required for data: 981600084
I0829 13:54:50.762771 40731 layer_factory.hpp:77] Creating layer pool2
I0829 13:54:50.762784 40731 net.cpp:106] Creating Layer pool2
I0829 13:54:50.762789 40731 net.cpp:454] pool2 <- conv2_2
I0829 13:54:50.762797 40731 net.cpp:411] pool2 -> pool2
I0829 13:54:50.762912 40731 net.cpp:150] Setting up pool2
I0829 13:54:50.762924 40731 net.cpp:157] Top shape: 1 128 150 250 (4800000)
I0829 13:54:50.762928 40731 net.cpp:165] Memory required for data: 1000800084
I0829 13:54:50.762933 40731 layer_factory.hpp:77] Creating layer conv3_1
I0829 13:54:50.762951 40731 net.cpp:106] Creating Layer conv3_1
I0829 13:54:50.762959 40731 net.cpp:454] conv3_1 <- pool2
I0829 13:54:50.762969 40731 net.cpp:411] conv3_1 -> conv3_1
I0829 13:54:50.767968 40731 net.cpp:150] Setting up conv3_1
I0829 13:54:50.767992 40731 net.cpp:157] Top shape: 1 256 150 250 (9600000)
I0829 13:54:50.767998 40731 net.cpp:165] Memory required for data: 1039200084
I0829 13:54:50.768013 40731 layer_factory.hpp:77] Creating layer relu3_1
I0829 13:54:50.768023 40731 net.cpp:106] Creating Layer relu3_1
I0829 13:54:50.768029 40731 net.cpp:454] relu3_1 <- conv3_1
I0829 13:54:50.768038 40731 net.cpp:397] relu3_1 -> conv3_1 (in-place)
I0829 13:54:50.768322 40731 net.cpp:150] Setting up relu3_1
I0829 13:54:50.768337 40731 net.cpp:157] Top shape: 1 256 150 250 (9600000)
I0829 13:54:50.768340 40731 net.cpp:165] Memory required for data: 1077600084
I0829 13:54:50.768344 40731 layer_factory.hpp:77] Creating layer conv3_2
I0829 13:54:50.768362 40731 net.cpp:106] Creating Layer conv3_2
I0829 13:54:50.768367 40731 net.cpp:454] conv3_2 <- conv3_1
I0829 13:54:50.768374 40731 net.cpp:411] conv3_2 -> conv3_2
I0829 13:54:50.775001 40731 net.cpp:150] Setting up conv3_2
I0829 13:54:50.775022 40731 net.cpp:157] Top shape: 1 256 150 250 (9600000)
I0829 13:54:50.775027 40731 net.cpp:165] Memory required for data: 1116000084
I0829 13:54:50.775038 40731 layer_factory.hpp:77] Creating layer relu3_2
I0829 13:54:50.775045 40731 net.cpp:106] Creating Layer relu3_2
I0829 13:54:50.775050 40731 net.cpp:454] relu3_2 <- conv3_2
I0829 13:54:50.775059 40731 net.cpp:397] relu3_2 -> conv3_2 (in-place)
I0829 13:54:50.775349 40731 net.cpp:150] Setting up relu3_2
I0829 13:54:50.775364 40731 net.cpp:157] Top shape: 1 256 150 250 (9600000)
I0829 13:54:50.775368 40731 net.cpp:165] Memory required for data: 1154400084
I0829 13:54:50.775373 40731 layer_factory.hpp:77] Creating layer conv3_3
I0829 13:54:50.775385 40731 net.cpp:106] Creating Layer conv3_3
I0829 13:54:50.775390 40731 net.cpp:454] conv3_3 <- conv3_2
I0829 13:54:50.775400 40731 net.cpp:411] conv3_3 -> conv3_3
I0829 13:54:50.781899 40731 net.cpp:150] Setting up conv3_3
I0829 13:54:50.781921 40731 net.cpp:157] Top shape: 1 256 150 250 (9600000)
I0829 13:54:50.781926 40731 net.cpp:165] Memory required for data: 1192800084
I0829 13:54:50.781936 40731 layer_factory.hpp:77] Creating layer relu3_3
I0829 13:54:50.781944 40731 net.cpp:106] Creating Layer relu3_3
I0829 13:54:50.781949 40731 net.cpp:454] relu3_3 <- conv3_3
I0829 13:54:50.781955 40731 net.cpp:397] relu3_3 -> conv3_3 (in-place)
I0829 13:54:50.782582 40731 net.cpp:150] Setting up relu3_3
I0829 13:54:50.782600 40731 net.cpp:157] Top shape: 1 256 150 250 (9600000)
I0829 13:54:50.782604 40731 net.cpp:165] Memory required for data: 1231200084
I0829 13:54:50.782609 40731 layer_factory.hpp:77] Creating layer pool3
I0829 13:54:50.782618 40731 net.cpp:106] Creating Layer pool3
I0829 13:54:50.782621 40731 net.cpp:454] pool3 <- conv3_3
I0829 13:54:50.782629 40731 net.cpp:411] pool3 -> pool3
I0829 13:54:50.782724 40731 net.cpp:150] Setting up pool3
I0829 13:54:50.782737 40731 net.cpp:157] Top shape: 1 256 75 125 (2400000)
I0829 13:54:50.782742 40731 net.cpp:165] Memory required for data: 1240800084
I0829 13:54:50.782744 40731 layer_factory.hpp:77] Creating layer conv4_1
I0829 13:54:50.782754 40731 net.cpp:106] Creating Layer conv4_1
I0829 13:54:50.782760 40731 net.cpp:454] conv4_1 <- pool3
I0829 13:54:50.782770 40731 net.cpp:411] conv4_1 -> conv4_1
I0829 13:54:50.796159 40731 net.cpp:150] Setting up conv4_1
I0829 13:54:50.796180 40731 net.cpp:157] Top shape: 1 512 75 125 (4800000)
I0829 13:54:50.796185 40731 net.cpp:165] Memory required for data: 1260000084
I0829 13:54:50.796195 40731 layer_factory.hpp:77] Creating layer relu4_1
I0829 13:54:50.796202 40731 net.cpp:106] Creating Layer relu4_1
I0829 13:54:50.796206 40731 net.cpp:454] relu4_1 <- conv4_1
I0829 13:54:50.796213 40731 net.cpp:397] relu4_1 -> conv4_1 (in-place)
I0829 13:54:50.796800 40731 net.cpp:150] Setting up relu4_1
I0829 13:54:50.796818 40731 net.cpp:157] Top shape: 1 512 75 125 (4800000)
I0829 13:54:50.796821 40731 net.cpp:165] Memory required for data: 1279200084
I0829 13:54:50.796825 40731 layer_factory.hpp:77] Creating layer conv4_2
I0829 13:54:50.796838 40731 net.cpp:106] Creating Layer conv4_2
I0829 13:54:50.796843 40731 net.cpp:454] conv4_2 <- conv4_1
I0829 13:54:50.796850 40731 net.cpp:411] conv4_2 -> conv4_2
I0829 13:54:50.812378 40731 net.cpp:150] Setting up conv4_2
I0829 13:54:50.812398 40731 net.cpp:157] Top shape: 1 512 75 125 (4800000)
I0829 13:54:50.812402 40731 net.cpp:165] Memory required for data: 1298400084
I0829 13:54:50.812419 40731 layer_factory.hpp:77] Creating layer relu4_2
I0829 13:54:50.812428 40731 net.cpp:106] Creating Layer relu4_2
I0829 13:54:50.812433 40731 net.cpp:454] relu4_2 <- conv4_2
I0829 13:54:50.812438 40731 net.cpp:397] relu4_2 -> conv4_2 (in-place)
I0829 13:54:50.812674 40731 net.cpp:150] Setting up relu4_2
I0829 13:54:50.812686 40731 net.cpp:157] Top shape: 1 512 75 125 (4800000)
I0829 13:54:50.812690 40731 net.cpp:165] Memory required for data: 1317600084
I0829 13:54:50.812693 40731 layer_factory.hpp:77] Creating layer conv4_3
I0829 13:54:50.812705 40731 net.cpp:106] Creating Layer conv4_3
I0829 13:54:50.812710 40731 net.cpp:454] conv4_3 <- conv4_2
I0829 13:54:50.812716 40731 net.cpp:411] conv4_3 -> conv4_3
I0829 13:54:50.827816 40731 net.cpp:150] Setting up conv4_3
I0829 13:54:50.827836 40731 net.cpp:157] Top shape: 1 512 75 125 (4800000)
I0829 13:54:50.827839 40731 net.cpp:165] Memory required for data: 1336800084
I0829 13:54:50.827847 40731 layer_factory.hpp:77] Creating layer relu4_3
I0829 13:54:50.827854 40731 net.cpp:106] Creating Layer relu4_3
I0829 13:54:50.827858 40731 net.cpp:454] relu4_3 <- conv4_3
I0829 13:54:50.827865 40731 net.cpp:397] relu4_3 -> conv4_3 (in-place)
I0829 13:54:50.828428 40731 net.cpp:150] Setting up relu4_3
I0829 13:54:50.828443 40731 net.cpp:157] Top shape: 1 512 75 125 (4800000)
I0829 13:54:50.828445 40731 net.cpp:165] Memory required for data: 1356000084
I0829 13:54:50.828449 40731 layer_factory.hpp:77] Creating layer pool4
I0829 13:54:50.828457 40731 net.cpp:106] Creating Layer pool4
I0829 13:54:50.828460 40731 net.cpp:454] pool4 <- conv4_3
I0829 13:54:50.828469 40731 net.cpp:411] pool4 -> pool4
I0829 13:54:50.828559 40731 net.cpp:150] Setting up pool4
I0829 13:54:50.828569 40731 net.cpp:157] Top shape: 1 512 38 63 (1225728)
I0829 13:54:50.828572 40731 net.cpp:165] Memory required for data: 1360902996
I0829 13:54:50.828575 40731 layer_factory.hpp:77] Creating layer conv5_1
I0829 13:54:50.828586 40731 net.cpp:106] Creating Layer conv5_1
I0829 13:54:50.828591 40731 net.cpp:454] conv5_1 <- pool4
I0829 13:54:50.828598 40731 net.cpp:411] conv5_1 -> conv5_1
I0829 13:54:50.843296 40731 net.cpp:150] Setting up conv5_1
I0829 13:54:50.843314 40731 net.cpp:157] Top shape: 1 512 38 63 (1225728)
I0829 13:54:50.843318 40731 net.cpp:165] Memory required for data: 1365805908
I0829 13:54:50.843325 40731 layer_factory.hpp:77] Creating layer relu5_1
I0829 13:54:50.843334 40731 net.cpp:106] Creating Layer relu5_1
I0829 13:54:50.843340 40731 net.cpp:454] relu5_1 <- conv5_1
I0829 13:54:50.843346 40731 net.cpp:397] relu5_1 -> conv5_1 (in-place)
I0829 13:54:50.843577 40731 net.cpp:150] Setting up relu5_1
I0829 13:54:50.843590 40731 net.cpp:157] Top shape: 1 512 38 63 (1225728)
I0829 13:54:50.843592 40731 net.cpp:165] Memory required for data: 1370708820
I0829 13:54:50.843595 40731 layer_factory.hpp:77] Creating layer conv5_2
I0829 13:54:50.843607 40731 net.cpp:106] Creating Layer conv5_2
I0829 13:54:50.843612 40731 net.cpp:454] conv5_2 <- conv5_1
I0829 13:54:50.843621 40731 net.cpp:411] conv5_2 -> conv5_2
I0829 13:54:50.858335 40731 net.cpp:150] Setting up conv5_2
I0829 13:54:50.858355 40731 net.cpp:157] Top shape: 1 512 38 63 (1225728)
I0829 13:54:50.858360 40731 net.cpp:165] Memory required for data: 1375611732
I0829 13:54:50.858367 40731 layer_factory.hpp:77] Creating layer relu5_2
I0829 13:54:50.858374 40731 net.cpp:106] Creating Layer relu5_2
I0829 13:54:50.858379 40731 net.cpp:454] relu5_2 <- conv5_2
I0829 13:54:50.858386 40731 net.cpp:397] relu5_2 -> conv5_2 (in-place)
I0829 13:54:50.858611 40731 net.cpp:150] Setting up relu5_2
I0829 13:54:50.858623 40731 net.cpp:157] Top shape: 1 512 38 63 (1225728)
I0829 13:54:50.858626 40731 net.cpp:165] Memory required for data: 1380514644
I0829 13:54:50.858629 40731 layer_factory.hpp:77] Creating layer conv5_3
I0829 13:54:50.858651 40731 net.cpp:106] Creating Layer conv5_3
I0829 13:54:50.858656 40731 net.cpp:454] conv5_3 <- conv5_2
I0829 13:54:50.858664 40731 net.cpp:411] conv5_3 -> conv5_3
I0829 13:54:50.873467 40731 net.cpp:150] Setting up conv5_3
I0829 13:54:50.873489 40731 net.cpp:157] Top shape: 1 512 38 63 (1225728)
I0829 13:54:50.873493 40731 net.cpp:165] Memory required for data: 1385417556
I0829 13:54:50.873502 40731 layer_factory.hpp:77] Creating layer relu5_3
I0829 13:54:50.873509 40731 net.cpp:106] Creating Layer relu5_3
I0829 13:54:50.873513 40731 net.cpp:454] relu5_3 <- conv5_3
I0829 13:54:50.873519 40731 net.cpp:397] relu5_3 -> conv5_3 (in-place)
I0829 13:54:50.874068 40731 net.cpp:150] Setting up relu5_3
I0829 13:54:50.874083 40731 net.cpp:157] Top shape: 1 512 38 63 (1225728)
I0829 13:54:50.874086 40731 net.cpp:165] Memory required for data: 1390320468
I0829 13:54:50.874089 40731 layer_factory.hpp:77] Creating layer conv5_3_relu5_3_0_split
I0829 13:54:50.874097 40731 net.cpp:106] Creating Layer conv5_3_relu5_3_0_split
I0829 13:54:50.874100 40731 net.cpp:454] conv5_3_relu5_3_0_split <- conv5_3
I0829 13:54:50.874109 40731 net.cpp:411] conv5_3_relu5_3_0_split -> conv5_3_relu5_3_0_split_0
I0829 13:54:50.874119 40731 net.cpp:411] conv5_3_relu5_3_0_split -> conv5_3_relu5_3_0_split_1
I0829 13:54:50.874202 40731 net.cpp:150] Setting up conv5_3_relu5_3_0_split
I0829 13:54:50.874210 40731 net.cpp:157] Top shape: 1 512 38 63 (1225728)
I0829 13:54:50.874214 40731 net.cpp:157] Top shape: 1 512 38 63 (1225728)
I0829 13:54:50.874217 40731 net.cpp:165] Memory required for data: 1400126292
I0829 13:54:50.874220 40731 layer_factory.hpp:77] Creating layer rpn_conv/3x3
I0829 13:54:50.874235 40731 net.cpp:106] Creating Layer rpn_conv/3x3
I0829 13:54:50.874240 40731 net.cpp:454] rpn_conv/3x3 <- conv5_3_relu5_3_0_split_0
I0829 13:54:50.874249 40731 net.cpp:411] rpn_conv/3x3 -> rpn/output
I0829 13:54:50.915633 40731 net.cpp:150] Setting up rpn_conv/3x3
I0829 13:54:50.915657 40731 net.cpp:157] Top shape: 1 512 38 63 (1225728)
I0829 13:54:50.915659 40731 net.cpp:165] Memory required for data: 1405029204
I0829 13:54:50.915668 40731 layer_factory.hpp:77] Creating layer rpn_relu/3x3
I0829 13:54:50.915674 40731 net.cpp:106] Creating Layer rpn_relu/3x3
I0829 13:54:50.915678 40731 net.cpp:454] rpn_relu/3x3 <- rpn/output
I0829 13:54:50.915688 40731 net.cpp:397] rpn_relu/3x3 -> rpn/output (in-place)
I0829 13:54:50.915915 40731 net.cpp:150] Setting up rpn_relu/3x3
I0829 13:54:50.915930 40731 net.cpp:157] Top shape: 1 512 38 63 (1225728)
I0829 13:54:50.915933 40731 net.cpp:165] Memory required for data: 1409932116
I0829 13:54:50.915936 40731 layer_factory.hpp:77] Creating layer rpn/output_rpn_relu/3x3_0_split
I0829 13:54:50.915943 40731 net.cpp:106] Creating Layer rpn/output_rpn_relu/3x3_0_split
I0829 13:54:50.915946 40731 net.cpp:454] rpn/output_rpn_relu/3x3_0_split <- rpn/output
I0829 13:54:50.915952 40731 net.cpp:411] rpn/output_rpn_relu/3x3_0_split -> rpn/output_rpn_relu/3x3_0_split_0
I0829 13:54:50.915966 40731 net.cpp:411] rpn/output_rpn_relu/3x3_0_split -> rpn/output_rpn_relu/3x3_0_split_1
I0829 13:54:50.916050 40731 net.cpp:150] Setting up rpn/output_rpn_relu/3x3_0_split
I0829 13:54:50.916059 40731 net.cpp:157] Top shape: 1 512 38 63 (1225728)
I0829 13:54:50.916064 40731 net.cpp:157] Top shape: 1 512 38 63 (1225728)
I0829 13:54:50.916066 40731 net.cpp:165] Memory required for data: 1419737940
I0829 13:54:50.916069 40731 layer_factory.hpp:77] Creating layer rpn_cls_score
I0829 13:54:50.916084 40731 net.cpp:106] Creating Layer rpn_cls_score
I0829 13:54:50.916088 40731 net.cpp:454] rpn_cls_score <- rpn/output_rpn_relu/3x3_0_split_0
I0829 13:54:50.916097 40731 net.cpp:411] rpn_cls_score -> rpn_cls_score
I0829 13:54:50.918419 40731 net.cpp:150] Setting up rpn_cls_score
I0829 13:54:50.918436 40731 net.cpp:157] Top shape: 1 18 38 63 (43092)
I0829 13:54:50.918439 40731 net.cpp:165] Memory required for data: 1419910308
I0829 13:54:50.918447 40731 layer_factory.hpp:77] Creating layer rpn_cls_score_rpn_cls_score_0_split
I0829 13:54:50.918453 40731 net.cpp:106] Creating Layer rpn_cls_score_rpn_cls_score_0_split
I0829 13:54:50.918457 40731 net.cpp:454] rpn_cls_score_rpn_cls_score_0_split <- rpn_cls_score
I0829 13:54:50.918464 40731 net.cpp:411] rpn_cls_score_rpn_cls_score_0_split -> rpn_cls_score_rpn_cls_score_0_split_0
I0829 13:54:50.918484 40731 net.cpp:411] rpn_cls_score_rpn_cls_score_0_split -> rpn_cls_score_rpn_cls_score_0_split_1
I0829 13:54:50.918566 40731 net.cpp:150] Setting up rpn_cls_score_rpn_cls_score_0_split
I0829 13:54:50.918576 40731 net.cpp:157] Top shape: 1 18 38 63 (43092)
I0829 13:54:50.918581 40731 net.cpp:157] Top shape: 1 18 38 63 (43092)
I0829 13:54:50.918582 40731 net.cpp:165] Memory required for data: 1420255044
I0829 13:54:50.918586 40731 layer_factory.hpp:77] Creating layer rpn_bbox_pred
I0829 13:54:50.918598 40731 net.cpp:106] Creating Layer rpn_bbox_pred
I0829 13:54:50.918604 40731 net.cpp:454] rpn_bbox_pred <- rpn/output_rpn_relu/3x3_0_split_1
I0829 13:54:50.918613 40731 net.cpp:411] rpn_bbox_pred -> rpn_bbox_pred
I0829 13:54:50.920811 40731 net.cpp:150] Setting up rpn_bbox_pred
I0829 13:54:50.920831 40731 net.cpp:157] Top shape: 1 36 38 63 (86184)
I0829 13:54:50.920835 40731 net.cpp:165] Memory required for data: 1420599780
I0829 13:54:50.920842 40731 layer_factory.hpp:77] Creating layer rpn_bbox_pred_rpn_bbox_pred_0_split
I0829 13:54:50.920850 40731 net.cpp:106] Creating Layer rpn_bbox_pred_rpn_bbox_pred_0_split
I0829 13:54:50.920855 40731 net.cpp:454] rpn_bbox_pred_rpn_bbox_pred_0_split <- rpn_bbox_pred
I0829 13:54:50.920863 40731 net.cpp:411] rpn_bbox_pred_rpn_bbox_pred_0_split -> rpn_bbox_pred_rpn_bbox_pred_0_split_0
I0829 13:54:50.920872 40731 net.cpp:411] rpn_bbox_pred_rpn_bbox_pred_0_split -> rpn_bbox_pred_rpn_bbox_pred_0_split_1
I0829 13:54:50.920949 40731 net.cpp:150] Setting up rpn_bbox_pred_rpn_bbox_pred_0_split
I0829 13:54:50.920958 40731 net.cpp:157] Top shape: 1 36 38 63 (86184)
I0829 13:54:50.920963 40731 net.cpp:157] Top shape: 1 36 38 63 (86184)
I0829 13:54:50.920965 40731 net.cpp:165] Memory required for data: 1421289252
I0829 13:54:50.920969 40731 layer_factory.hpp:77] Creating layer rpn_cls_score_reshape
I0829 13:54:50.920979 40731 net.cpp:106] Creating Layer rpn_cls_score_reshape
I0829 13:54:50.920984 40731 net.cpp:454] rpn_cls_score_reshape <- rpn_cls_score_rpn_cls_score_0_split_0
I0829 13:54:50.920991 40731 net.cpp:411] rpn_cls_score_reshape -> rpn_cls_score_reshape
I0829 13:54:50.921043 40731 net.cpp:150] Setting up rpn_cls_score_reshape
I0829 13:54:50.921053 40731 net.cpp:157] Top shape: 1 2 342 63 (43092)
I0829 13:54:50.921056 40731 net.cpp:165] Memory required for data: 1421461620
I0829 13:54:50.921059 40731 layer_factory.hpp:77] Creating layer rpn_cls_score_reshape_rpn_cls_score_reshape_0_split
I0829 13:54:50.921066 40731 net.cpp:106] Creating Layer rpn_cls_score_reshape_rpn_cls_score_reshape_0_split
I0829 13:54:50.921069 40731 net.cpp:454] rpn_cls_score_reshape_rpn_cls_score_reshape_0_split <- rpn_cls_score_reshape
I0829 13:54:50.921074 40731 net.cpp:411] rpn_cls_score_reshape_rpn_cls_score_reshape_0_split -> rpn_cls_score_reshape_rpn_cls_score_reshape_0_split_0
I0829 13:54:50.921085 40731 net.cpp:411] rpn_cls_score_reshape_rpn_cls_score_reshape_0_split -> rpn_cls_score_reshape_rpn_cls_score_reshape_0_split_1
I0829 13:54:50.921154 40731 net.cpp:150] Setting up rpn_cls_score_reshape_rpn_cls_score_reshape_0_split
I0829 13:54:50.921162 40731 net.cpp:157] Top shape: 1 2 342 63 (43092)
I0829 13:54:50.921166 40731 net.cpp:157] Top shape: 1 2 342 63 (43092)
I0829 13:54:50.921169 40731 net.cpp:165] Memory required for data: 1421806356
I0829 13:54:50.921172 40731 layer_factory.hpp:77] Creating layer rpn-data
I0829 13:54:50.921739 40731 net.cpp:106] Creating Layer rpn-data
I0829 13:54:50.921754 40731 net.cpp:454] rpn-data <- rpn_cls_score_rpn_cls_score_0_split_1
I0829 13:54:50.921761 40731 net.cpp:454] rpn-data <- gt_boxes_input-data_2_split_0
I0829 13:54:50.921768 40731 net.cpp:454] rpn-data <- im_info_input-data_1_split_0
I0829 13:54:50.921772 40731 net.cpp:454] rpn-data <- data_input-data_0_split_1
I0829 13:54:50.921779 40731 net.cpp:411] rpn-data -> rpn_labels
I0829 13:54:50.921792 40731 net.cpp:411] rpn-data -> rpn_bbox_targets
I0829 13:54:50.921802 40731 net.cpp:411] rpn-data -> rpn_bbox_inside_weights
I0829 13:54:50.921813 40731 net.cpp:411] rpn-data -> rpn_bbox_outside_weights
I0829 13:54:50.922847 40731 net.cpp:150] Setting up rpn-data
I0829 13:54:50.922863 40731 net.cpp:157] Top shape: 1 1 342 63 (21546)
I0829 13:54:50.922870 40731 net.cpp:157] Top shape: 1 36 38 63 (86184)
I0829 13:54:50.922874 40731 net.cpp:157] Top shape: 1 36 38 63 (86184)
I0829 13:54:50.922878 40731 net.cpp:157] Top shape: 1 36 38 63 (86184)
I0829 13:54:50.922881 40731 net.cpp:165] Memory required for data: 1422926748
I0829 13:54:50.922885 40731 layer_factory.hpp:77] Creating layer rpn_loss_cls
I0829 13:54:50.922894 40731 net.cpp:106] Creating Layer rpn_loss_cls
I0829 13:54:50.922900 40731 net.cpp:454] rpn_loss_cls <- rpn_cls_score_reshape_rpn_cls_score_reshape_0_split_0
I0829 13:54:50.922914 40731 net.cpp:454] rpn_loss_cls <- rpn_labels
…
I0829 13:54:50.924350 40731 net.cpp:157] Top shape: (1)
I0829 13:54:50.924352 40731 net.cpp:160]     with loss weight 1
I0829 13:54:50.924357 40731 net.cpp:165] Memory required for data: 1422926756
I0829 13:54:50.924361 40731 layer_factory.hpp:77] Creating layer rpn_cls_prob
I0829 13:54:50.924368 40731 net.cpp:106] Creating Layer rpn_cls_prob
I0829 13:54:50.924372 40731 net.cpp:454] rpn_cls_prob <- rpn_cls_score_reshape_rpn_cls_score_reshape_0_split_1
I0829 13:54:50.924378 40731 net.cpp:411] rpn_cls_prob -> rpn_cls_prob
I0829 13:54:50.925077 40731 net.cpp:150] Setting up rpn_cls_prob
I0829 13:54:50.925094 40731 net.cpp:157] Top shape: 1 2 342 63 (43092)
I0829 13:54:50.925097 40731 net.cpp:165] Memory required for data: 1423099124
I0829 13:54:50.925101 40731 layer_factory.hpp:77] Creating layer rpn_cls_prob_reshape
I0829 13:54:50.925113 40731 net.cpp:106] Creating Layer rpn_cls_prob_reshape
I0829 13:54:50.925118 40731 net.cpp:454] rpn_cls_prob_reshape <- rpn_cls_prob
I0829 13:54:50.925125 40731 net.cpp:411] rpn_cls_prob_reshape -> rpn_cls_prob_reshape
I0829 13:54:50.925181 40731 net.cpp:150] Setting up rpn_cls_prob_reshape
I0829 13:54:50.925190 40731 net.cpp:157] Top shape: 1 18 38 63 (43092)
I0829 13:54:50.925194 40731 net.cpp:165] Memory required for data: 1423271492
I0829 13:54:50.925196 40731 layer_factory.hpp:77] Creating layer proposal
I0829 13:54:50.936882 40731 net.cpp:106] Creating Layer proposal
I0829 13:54:50.936899 40731 net.cpp:454] proposal <- rpn_cls_prob_reshape
I0829 13:54:50.936908 40731 net.cpp:454] proposal <- rpn_bbox_pred_rpn_bbox_pred_0_split_1
I0829 13:54:50.936913 40731 net.cpp:454] proposal <- im_info_input-data_1_split_1
I0829 13:54:50.936919 40731 net.cpp:411] proposal -> rpn_rois
I0829 13:54:50.943331 40731 net.cpp:150] Setting up proposal
I0829 13:54:50.943375 40731 net.cpp:157] Top shape: 1 5 (5)
I0829 13:54:50.943382 40731 net.cpp:165] Memory required for data: 1423271512
I0829 13:54:50.943390 40731 layer_factory.hpp:77] Creating layer roi-data
I0829 13:54:50.943785 40731 net.cpp:106] Creating Layer roi-data
I0829 13:54:50.943806 40731 net.cpp:454] roi-data <- rpn_rois
I0829 13:54:50.943819 40731 net.cpp:454] roi-data <- gt_boxes_input-data_2_split_1
I0829 13:54:50.943835 40731 net.cpp:411] roi-data -> rois
I0829 13:54:50.943855 40731 net.cpp:411] roi-data -> labels
I0829 13:54:50.943871 40731 net.cpp:411] roi-data -> bbox_targets
I0829 13:54:50.943888 40731 net.cpp:411] roi-data -> bbox_inside_weights
I0829 13:54:50.943907 40731 net.cpp:411] roi-data -> bbox_outside_weights
I0829 13:54:50.943925 40731 net.cpp:411] roi-data -> key_targets
I0829 13:54:50.943943 40731 net.cpp:411] roi-data -> key_inside_weights
I0829 13:54:50.945173 40731 net.cpp:150] Setting up roi-data
I0829 13:54:50.945199 40731 net.cpp:157] Top shape: 1 5 (5)
I0829 13:54:50.945206 40731 net.cpp:157] Top shape: 1 1 (1)
I0829 13:54:50.945212 40731 net.cpp:157] Top shape: 1 84 (84)
I0829 13:54:50.945219 40731 net.cpp:157] Top shape: 1 84 (84)
I0829 13:54:50.945226 40731 net.cpp:157] Top shape: 1 84 (84)
I0829 13:54:50.945232 40731 net.cpp:157] Top shape: 1 84 (84)
I0829 13:54:50.945238 40731 net.cpp:157] Top shape: 1 84 (84)
I0829 13:54:50.945242 40731 net.cpp:165] Memory required for data: 1423273216
I0829 13:54:50.945248 40731 layer_factory.hpp:77] Creating layer bbox_outside_weights_roi-data_4_split
I0829 13:54:50.945263 40731 net.cpp:106] Creating Layer bbox_outside_weights_roi-data_4_split
I0829 13:54:50.945271 40731 net.cpp:454] bbox_outside_weights_roi-data_4_split <- bbox_outside_weights
I0829 13:54:50.945284 40731 net.cpp:411] bbox_outside_weights_roi-data_4_split -> bbox_outside_weights_roi-data_4_split_0
I0829 13:54:50.945305 40731 net.cpp:411] bbox_outside_weights_roi-data_4_split -> bbox_outside_weights_roi-data_4_split_1
I0829 13:54:50.945430 40731 net.cpp:150] Setting up bbox_outside_weights_roi-data_4_split
I0829 13:54:50.945442 40731 net.cpp:157] Top shape: 1 84 (84)
I0829 13:54:50.945449 40731 net.cpp:157] Top shape: 1 84 (84)
I0829 13:54:50.945454 40731 net.cpp:165] Memory required for data: 1423273888
I0829 13:54:50.945461 40731 layer_factory.hpp:77] Creating layer roi_pool5
I0829 13:54:50.945473 40731 net.cpp:106] Creating Layer roi_pool5
I0829 13:54:50.945482 40731 net.cpp:454] roi_pool5 <- conv5_3_relu5_3_0_split_1
I0829 13:54:50.945492 40731 net.cpp:454] roi_pool5 <- rois
I0829 13:54:50.945503 40731 net.cpp:411] roi_pool5 -> pool5
I0829 13:54:50.945518 40731 roi_pooling_layer.cpp:30] Spatial scale: 0.0625
I0829 13:54:50.945653 40731 net.cpp:150] Setting up roi_pool5
I0829 13:54:50.945667 40731 net.cpp:157] Top shape: 1 512 7 7 (25088)
I0829 13:54:50.945672 40731 net.cpp:165] Memory required for data: 1423374240
I0829 13:54:50.945679 40731 layer_factory.hpp:77] Creating layer fc6
I0829 13:54:50.945693 40731 net.cpp:106] Creating Layer fc6
I0829 13:54:50.945701 40731 net.cpp:454] fc6 <- pool5
I0829 13:54:50.945713 40731 net.cpp:411] fc6 -> fc6
I0829 13:54:51.546635 40731 net.cpp:150] Setting up fc6
I0829 13:54:51.546691 40731 net.cpp:157] Top shape: 1 4096 (4096)
I0829 13:54:51.546695 40731 net.cpp:165] Memory required for data: 1423390624
I0829 13:54:51.546720 40731 layer_factory.hpp:77] Creating layer relu6
I0829 13:54:51.546747 40731 net.cpp:106] Creating Layer relu6
I0829 13:54:51.546754 40731 net.cpp:454] relu6 <- fc6
I0829 13:54:51.546775 40731 net.cpp:397] relu6 -> fc6 (in-place)
I0829 13:54:51.547091 40731 net.cpp:150] Setting up relu6
I0829 13:54:51.547103 40731 net.cpp:157] Top shape: 1 4096 (4096)
I0829 13:54:51.547106 40731 net.cpp:165] Memory required for data: 1423407008
I0829 13:54:51.547109 40731 layer_factory.hpp:77] Creating layer drop6
I0829 13:54:51.547118 40731 net.cpp:106] Creating Layer drop6
I0829 13:54:51.547122 40731 net.cpp:454] drop6 <- fc6
I0829 13:54:51.547128 40731 net.cpp:397] drop6 -> fc6 (in-place)
I0829 13:54:51.547180 40731 net.cpp:150] Setting up drop6
I0829 13:54:51.547190 40731 net.cpp:157] Top shape: 1 4096 (4096)
I0829 13:54:51.547193 40731 net.cpp:165] Memory required for data: 1423423392
I0829 13:54:51.547195 40731 layer_factory.hpp:77] Creating layer fc7
I0829 13:54:51.547204 40731 net.cpp:106] Creating Layer fc7
I0829 13:54:51.547207 40731 net.cpp:454] fc7 <- fc6
I0829 13:54:51.547214 40731 net.cpp:411] fc7 -> fc7
I0829 13:54:51.632725 40731 net.cpp:150] Setting up fc7
I0829 13:54:51.632781 40731 net.cpp:157] Top shape: 1 4096 (4096)
I0829 13:54:51.632784 40731 net.cpp:165] Memory required for data: 1423439776
I0829 13:54:51.632799 40731 layer_factory.hpp:77] Creating layer relu7
I0829 13:54:51.632813 40731 net.cpp:106] Creating Layer relu7
I0829 13:54:51.632830 40731 net.cpp:454] relu7 <- fc7
I0829 13:54:51.632843 40731 net.cpp:397] relu7 -> fc7 (in-place)
I0829 13:54:51.633606 40731 net.cpp:150] Setting up relu7
I0829 13:54:51.633632 40731 net.cpp:157] Top shape: 1 4096 (4096)
I0829 13:54:51.633636 40731 net.cpp:165] Memory required for data: 1423456160
I0829 13:54:51.633640 40731 layer_factory.hpp:77] Creating layer drop7
I0829 13:54:51.633667 40731 net.cpp:106] Creating Layer drop7
I0829 13:54:51.633671 40731 net.cpp:454] drop7 <- fc7
I0829 13:54:51.633677 40731 net.cpp:397] drop7 -> fc7 (in-place)
I0829 13:54:51.633730 40731 net.cpp:150] Setting up drop7
I0829 13:54:51.633738 40731 net.cpp:157] Top shape: 1 4096 (4096)
I0829 13:54:51.633741 40731 net.cpp:165] Memory required for data: 1423472544
I0829 13:54:51.633744 40731 layer_factory.hpp:77] Creating layer fc7_drop7_0_split
I0829 13:54:51.633752 40731 net.cpp:106] Creating Layer fc7_drop7_0_split
I0829 13:54:51.633755 40731 net.cpp:454] fc7_drop7_0_split <- fc7
I0829 13:54:51.633761 40731 net.cpp:411] fc7_drop7_0_split -> fc7_drop7_0_split_0
I0829 13:54:51.633769 40731 net.cpp:411] fc7_drop7_0_split -> fc7_drop7_0_split_1
I0829 13:54:51.633777 40731 net.cpp:411] fc7_drop7_0_split -> fc7_drop7_0_split_2
I0829 13:54:51.633885 40731 net.cpp:150] Setting up fc7_drop7_0_split
I0829 13:54:51.633895 40731 net.cpp:157] Top shape: 1 4096 (4096)
I0829 13:54:51.633898 40731 net.cpp:157] Top shape: 1 4096 (4096)
I0829 13:54:51.633901 40731 net.cpp:157] Top shape: 1 4096 (4096)
I0829 13:54:51.633904 40731 net.cpp:165] Memory required for data: 1423521696
I0829 13:54:51.633906 40731 layer_factory.hpp:77] Creating layer cls_score
I0829 13:54:51.633916 40731 net.cpp:106] Creating Layer cls_score
I0829 13:54:51.633920 40731 net.cpp:454] cls_score <- fc7_drop7_0_split_0
I0829 13:54:51.633929 40731 net.cpp:411] cls_score -> cls_score
I0829 13:54:51.635109 40731 net.cpp:150] Setting up cls_score
I0829 13:54:51.635134 40731 net.cpp:157] Top shape: 1 21 (21)
I0829 13:54:51.635139 40731 net.cpp:165] Memory required for data: 1423521780
I0829 13:54:51.635145 40731 layer_factory.hpp:77] Creating layer bbox_pred
I0829 13:54:51.635154 40731 net.cpp:106] Creating Layer bbox_pred
I0829 13:54:51.635159 40731 net.cpp:454] bbox_pred <- fc7_drop7_0_split_1
I0829 13:54:51.635166 40731 net.cpp:411] bbox_pred -> bbox_pred
I0829 13:54:51.640934 40731 net.cpp:150] Setting up bbox_pred
I0829 13:54:51.640959 40731 net.cpp:157] Top shape: 1 84 (84)
I0829 13:54:51.640964 40731 net.cpp:165] Memory required for data: 1423522116
I0829 13:54:51.640970 40731 layer_factory.hpp:77] Creating layer key_pred
I0829 13:54:51.640979 40731 net.cpp:106] Creating Layer key_pred
I0829 13:54:51.640982 40731 net.cpp:454] key_pred <- fc7_drop7_0_split_2
I0829 13:54:51.641001 40731 net.cpp:411] key_pred -> key_pred
I0829 13:54:51.646662 40731 net.cpp:150] Setting up key_pred
I0829 13:54:51.646675 40731 net.cpp:157] Top shape: 1 84 (84)
I0829 13:54:51.646690 40731 net.cpp:165] Memory required for data: 1423522452
I0829 13:54:51.646697 40731 layer_factory.hpp:77] Creating layer loss_cls
I0829 13:54:51.646705 40731 net.cpp:106] Creating Layer loss_cls
I0829 13:54:51.646709 40731 net.cpp:454] loss_cls <- cls_score
I0829 13:54:51.646714 40731 net.cpp:454] loss_cls <- labels
I0829 13:54:51.646720 40731 net.cpp:411] loss_cls -> loss_cls
…
