…
stepsize: 50000
snapshot: 0
snapshot_prefix: "vgg_cnn_m_1024_faster_rcnn"
average_loss: 100
I0823 18:46:28.328189 13232 solver.cpp:81] Creating training net from train_net file: models/pascal_voc/VGG_CNN_M_1024/key/train.prototxt
I0823 18:46:28.328811 13232 net.cpp:49] Initializing net from parameters: 
name: "VGG_CNN_M_1024"
state {
  phase: TRAIN
}
layer {
  name: "input-data"
  type: "Python"
  top: "data"
  top: "im_info"
  top: "gt_boxes"
  python_param {
    module: "roi_data_layer.layer"
    layer: "RoIDataLayer"
    param_str: "\'num_classes\': 21"
  }
}
layer {
  name: "conv1"
  type: "Convolution"
  bottom: "data"
  top: "conv1"
  param {
    lr_mult: 0
    decay_mult: 0
  }
  param {
    lr_mult: 0
    decay_mult: 0
  }
  convolution_param {
    num_output: 96
    kernel_size: 7
    stride: 2
  }
}
layer {
  name: "relu1"
  type: "ReLU"
  bottom: "conv1"
  top: "conv1"
}
layer {
  name: "norm1"
  type: "LRN"
  bottom: "conv1"
  top: "norm1"
  lrn_param {
    local_size: 5
    alpha: 0.0005
    beta: 0.75
    k: 2
  }
}
layer {
  name: "pool1"
  type: "Pooling"
  bottom: "norm1"
  top: "pool1"
  pooling_param {
    pool: MAX
    kernel_size: 3
    stride: 2
  }
}
layer {
  name: "conv2"
  type: "Convolution"
  bottom: "pool1"
  top: "conv2"
  param {
    lr_mult: 1
  }
  param {
    lr_mult: 2
  }
  convolution_param {
    num_output: 256
    pad: 1
    kernel_size: 5
    stride: 2
  }
}
layer {
  name: "relu2"
  type: "ReLU"
  bottom: "conv2"
  top: "conv2"
}
layer {
  name: "norm2"
  type: "LRN"
  bottom: "conv2"
  top: "norm2"
  lrn_param {
    local_size: 5
    alpha: 0.0005
    beta: 0.75
    k: 2
  }
}
layer {
  name: "pool2"
  type: "Pooling"
  bottom: "norm2"
  top: "pool2"
  pooling_param {
    pool: MAX
    kernel_size: 3
    stride: 2
  }
}
layer {
  name: "conv3"
  type: "Convolution"
  bottom: "pool2"
  top: "conv3"
  param {
    lr_mult: 1
  }
  param {
    lr_mult: 2
  }
  convolution_param {
    num_output: 512
    pad: 1
    kernel_size: 3
  }
}
layer {
  name: "relu3"
  type: "ReLU"
  bottom: "conv3"
  top: "conv3"
}
layer {
  name: "conv4"
  type: "Convolution"
  bottom: "conv3"
  top: "conv4"
  param {
    lr_mult: 1
  }
  param {
    lr_mult: 2
  }
  convolution_param {
    num_output: 512
    pad: 1
    kernel_size: 3
  }
}
layer {
  name: "relu4"
  type: "ReLU"
  bottom: "conv4"
  top: "conv4"
}
layer {
  name: "conv5"
  type: "Convolution"
  bottom: "conv4"
  top: "conv5"
  param {
    lr_mult: 1
  }
  param {
    lr_mult: 2
  }
  convolution_param {
    num_output: 512
    pad: 1
    kernel_size: 3
  }
}
layer {
  name: "relu5"
  type: "ReLU"
  bottom: "conv5"
  top: "conv5"
}
layer {
  name: "rpn_conv/3x3"
  type: "Convolution"
  bottom: "conv5"
  top: "rpn/output"
  param {
    lr_mult: 1
  }
  param {
    lr_mult: 2
  }
  convolution_param {
    num_output: 256
    pad: 1
    kernel_size: 3
    stride: 1
    weight_filler {
      type: "gaussian"
      std: 0.01
    }
    bias_filler {
      type: "constant"
      value: 0
    }
  }
}
layer {
  name: "rpn_relu/3x3"
  type: "ReLU"
  bottom: "rpn/output"
  top: "rpn/output"
}
layer {
  name: "rpn_cls_score"
  type: "Convolution"
  bottom: "rpn/output"
  top: "rpn_cls_score"
  param {
    lr_mult: 1
  }
  param {
    lr_mult: 2
  }
  convolution_param {
    num_output: 18
    pad: 0
    kernel_size: 1
    stride: 1
    weight_filler {
      type: "gaussian"
      std: 0.01
    }
    bias_filler {
      type: "constant"
      value: 0
    }
  }
}
layer {
  name: "rpn_bbox_pred"
  type: "Convolution"
  bottom: "rpn/output"
  top: "rpn_bbox_pred"
  param {
    lr_mult: 1
  }
  param {
    lr_mult: 2
  }
  convolution_param {
    num_output: 36
    pad: 0
    kernel_size: 1
    stride: 1
    weight_filler {
      type: "gaussian"
      std: 0.01
    }
    bias_filler {
      type: "constant"
      value: 0
    }
  }
}
layer {
  name: "rpn_cls_score_reshape"
  type: "Reshape"
  bottom: "rpn_cls_score"
  top: "rpn_cls_score_reshape"
  reshape_param {
    shape {
      dim: 0
      dim: 2
      dim: -1
      dim: 0
    }
  }
}
layer {
  name: "rpn-data"
  type: "Python"
  bottom: "rpn_cls_score"
  bottom: "gt_boxes"
  bottom: "im_info"
  bottom: "data"
  top: "rpn_labels"
  top: "rpn_bbox_targets"
  top: "rpn_bbox_inside_weights"
  top: "rpn_bbox_outside_weights"
  python_param {
    module: "rpn.anchor_target_layer"
    layer: "AnchorTargetLayer"
    param_str: "\'feat_stride\': 16"
  }
}
layer {
  name: "rpn_loss_cls"
  type: "SoftmaxWithLoss"
  bottom: "rpn_cls_score_reshape"
  bottom: "rpn_labels"
  top: "rpn_cls_loss"
  loss_weight: 1
  propagate_down: true
  propagate_down: false
  loss_param {
    ignore_label: -1
    normalize: true
  }
}
layer {
  name: "rpn_loss_bbox"
  type: "SmoothL1Loss"
  bottom: "rpn_bbox_pred"
  bottom: "rpn_bbox_targets"
  bottom: "rpn_bbox_inside_weights"
  bottom: "rpn_bbox_outside_weights"
  top: "rpn_loss_bbox"
  loss_weight: 1
  smooth_l1_loss_param {
    sigma: 3
  }
}
layer {
  name: "rpn_cls_prob"
  type: "Softmax"
  bottom: "rpn_cls_score_reshape"
  top: "rpn_cls_prob"
}
layer {
  name: "rpn_cls_prob_reshape"
  type: "Reshape"
  bottom: "rpn_cls_prob"
  top: "rpn_cls_prob_reshape"
  reshape_param {
    shape {
      dim: 0
      dim: 18
      dim: -1
      dim: 0
    }
  }
}
layer {
  name: "proposal"
  type: "Python"
  bottom: "rpn_cls_prob_reshape"
  bottom: "rpn_bbox_pred"
  bottom: "im_info"
  top: "rpn_rois"
  python_param {
    module: "rpn.proposal_layer"
    layer: "ProposalLayer"
    param_str: "\'feat_stride\': 16"
  }
}
layer {
  name: "roi-data"
  type: "Python"
  bottom: "rpn_rois"
  bottom: "gt_boxes"
  top: "rois"
  top: "labels"
  top: "bbox_targets"
  top: "bbox_inside_weights"
  top: "bbox_outside_weights"
  top: "key_targets"
  python_param {
    module: "rpn.proposal_target_layer"
    layer: "ProposalTargetLayer"
    param_str: "\'num_classes\': 21"
  }
}
layer {
  name: "roi_pool5"
  type: "ROIPooling"
  bottom: "conv5"
  bottom: "rois"
  top: "pool5"
  roi_pooling_param {
    pooled_h: 6
    pooled_w: 6
    spatial_scale: 0.0625
  }
}
layer {
  name: "fc6"
  type: "InnerProduct"
  bottom: "pool5"
  top: "fc6"
  param {
    lr_mult: 1
  }
  param {
    lr_mult: 2
  }
  inner_product_param {
    num_output: 4096
  }
}
layer {
  name: "relu6"
  type: "ReLU"
  bottom: "fc6"
  top: "fc6"
}
layer {
  name: "drop6"
  type: "Dropout"
  bottom: "fc6"
  top: "fc6"
  dropout_param {
    dropout_ratio: 0.5
  }
}
layer {
  name: "fc7"
  type: "InnerProduct"
  bottom: "fc6"
  top: "fc7"
  param {
    lr_mult: 1
  }
  param {
    lr_mult: 2
  }
  inner_product_param {
    num_output: 1024
  }
}
layer {
  name: "relu7"
  type: "ReLU"
  bottom: "fc7"
  top: "fc7"
}
layer {
  name: "drop7"
  type: "Dropout"
  bottom: "fc7"
  top: "fc7"
  dropout_param {
    dropout_ratio: 0.5
  }
}
layer {
  name: "cls_score"
  type: "InnerProduct"
  bottom: "fc7"
  top: "cls_score"
  param {
    lr_mult: 1
  }
  param {
    lr_mult: 2
  }
  inner_product_param {
    num_output: 21
    weight_filler {
      type: "gaussian"
      std: 0.01
    }
    bias_filler {
      type: "constant"
      value: 0
    }
  }
}
layer {
  name: "bbox_pred"
  type: "InnerProduct"
  bottom: "fc7"
  top: "bbox_pred"
  param {
    lr_mult: 1
  }
  param {
    lr_mult: 2
  }
  inner_product_param {
    num_output: 84
    weight_filler {
      type: "gaussian"
      std: 0.001
    }
    bias_filler {
      type: "constant"
      value: 0
    }
  }
}
layer {
  name: "key_pred"
  type: "InnerProduct"
  bottom: "fc7"
  top: "key_pred"
  param {
    lr_mult: 1
  }
  param {
    lr_mult: 2
  }
  inner_product_param {
    num_output: 84
    weight_filler {
      type: "gaussian"
      std: 0.001
    }
    bias_filler {
      type: "constant"
      value: 0
    }
  }
}
layer {
  name: "loss_cls"
  type: "SoftmaxWithLoss"
  bottom: "cls_score"
  bottom: "labels"
  top: "loss_cls"
  loss_weight: 1
  propagate_down: true
  propagate_down: false
}
layer {
  name: "loss_bbox"
  type: "SmoothL1Loss"
  bottom: "bbox_pred"
  bottom: "bbox_targets"
  bottom: "bbox_inside_weights"
  bottom: "bbox_outside_weights"
  top: "loss_bbox"
  loss_weight: 1
}
layer {
  name: "loss_key"
  type: "SmoothL1Loss"
  bottom: "key_pred"
  bottom: "key_targets"
  bottom: "bbox_inside_weights"
  bottom: "bbox_outside_weights"
  top: "loss_key"
  loss_weight: 1
}
I0823 18:46:28.329103 13232 layer_factory.hpp:77] Creating layer input-data
I0823 18:46:28.344529 13232 net.cpp:106] Creating Layer input-data
I0823 18:46:28.344548 13232 net.cpp:411] input-data -> data
I0823 18:46:28.344560 13232 net.cpp:411] input-data -> im_info
I0823 18:46:28.344568 13232 net.cpp:411] input-data -> gt_boxes
RoiDataLayer: name_to_top: {'gt_boxes': 2, 'data': 0, 'im_info': 1}
I0823 18:46:28.357264 13232 net.cpp:150] Setting up input-data
I0823 18:46:28.357283 13232 net.cpp:157] Top shape: 1 3 600 1000 (1800000)
I0823 18:46:28.357302 13232 net.cpp:157] Top shape: 1 3 (3)
I0823 18:46:28.357306 13232 net.cpp:157] Top shape: 1 4 (4)
I0823 18:46:28.357307 13232 net.cpp:165] Memory required for data: 7200028
I0823 18:46:28.357313 13232 layer_factory.hpp:77] Creating layer data_input-data_0_split
I0823 18:46:28.357326 13232 net.cpp:106] Creating Layer data_input-data_0_split
I0823 18:46:28.357329 13232 net.cpp:454] data_input-data_0_split <- data
I0823 18:46:28.357336 13232 net.cpp:411] data_input-data_0_split -> data_input-data_0_split_0
I0823 18:46:28.357345 13232 net.cpp:411] data_input-data_0_split -> data_input-data_0_split_1
I0823 18:46:28.357399 13232 net.cpp:150] Setting up data_input-data_0_split
I0823 18:46:28.357408 13232 net.cpp:157] Top shape: 1 3 600 1000 (1800000)
I0823 18:46:28.357411 13232 net.cpp:157] Top shape: 1 3 600 1000 (1800000)
I0823 18:46:28.357414 13232 net.cpp:165] Memory required for data: 21600028
I0823 18:46:28.357417 13232 layer_factory.hpp:77] Creating layer im_info_input-data_1_split
I0823 18:46:28.357424 13232 net.cpp:106] Creating Layer im_info_input-data_1_split
I0823 18:46:28.357426 13232 net.cpp:454] im_info_input-data_1_split <- im_info
I0823 18:46:28.357432 13232 net.cpp:411] im_info_input-data_1_split -> im_info_input-data_1_split_0
I0823 18:46:28.357439 13232 net.cpp:411] im_info_input-data_1_split -> im_info_input-data_1_split_1
I0823 18:46:28.357481 13232 net.cpp:150] Setting up im_info_input-data_1_split
I0823 18:46:28.357488 13232 net.cpp:157] Top shape: 1 3 (3)
I0823 18:46:28.357491 13232 net.cpp:157] Top shape: 1 3 (3)
I0823 18:46:28.357493 13232 net.cpp:165] Memory required for data: 21600052
I0823 18:46:28.357496 13232 layer_factory.hpp:77] Creating layer gt_boxes_input-data_2_split
I0823 18:46:28.357501 13232 net.cpp:106] Creating Layer gt_boxes_input-data_2_split
I0823 18:46:28.357503 13232 net.cpp:454] gt_boxes_input-data_2_split <- gt_boxes
I0823 18:46:28.357508 13232 net.cpp:411] gt_boxes_input-data_2_split -> gt_boxes_input-data_2_split_0
I0823 18:46:28.357516 13232 net.cpp:411] gt_boxes_input-data_2_split -> gt_boxes_input-data_2_split_1
I0823 18:46:28.357559 13232 net.cpp:150] Setting up gt_boxes_input-data_2_split
I0823 18:46:28.357566 13232 net.cpp:157] Top shape: 1 4 (4)
I0823 18:46:28.357570 13232 net.cpp:157] Top shape: 1 4 (4)
I0823 18:46:28.357573 13232 net.cpp:165] Memory required for data: 21600084
I0823 18:46:28.357575 13232 layer_factory.hpp:77] Creating layer conv1
I0823 18:46:28.357587 13232 net.cpp:106] Creating Layer conv1
I0823 18:46:28.357594 13232 net.cpp:454] conv1 <- data_input-data_0_split_0
I0823 18:46:28.357600 13232 net.cpp:411] conv1 -> conv1
I0823 18:46:28.609464 13232 net.cpp:150] Setting up conv1
I0823 18:46:28.609513 13232 net.cpp:157] Top shape: 1 96 297 497 (14170464)
I0823 18:46:28.609516 13232 net.cpp:165] Memory required for data: 78281940
I0823 18:46:28.609539 13232 layer_factory.hpp:77] Creating layer relu1
I0823 18:46:28.609554 13232 net.cpp:106] Creating Layer relu1
I0823 18:46:28.609558 13232 net.cpp:454] relu1 <- conv1
I0823 18:46:28.609566 13232 net.cpp:397] relu1 -> conv1 (in-place)
I0823 18:46:28.610193 13232 net.cpp:150] Setting up relu1
I0823 18:46:28.610210 13232 net.cpp:157] Top shape: 1 96 297 497 (14170464)
I0823 18:46:28.610214 13232 net.cpp:165] Memory required for data: 134963796
I0823 18:46:28.610219 13232 layer_factory.hpp:77] Creating layer norm1
I0823 18:46:28.610230 13232 net.cpp:106] Creating Layer norm1
I0823 18:46:28.610234 13232 net.cpp:454] norm1 <- conv1
I0823 18:46:28.610242 13232 net.cpp:411] norm1 -> norm1
I0823 18:46:28.610543 13232 net.cpp:150] Setting up norm1
I0823 18:46:28.610556 13232 net.cpp:157] Top shape: 1 96 297 497 (14170464)
I0823 18:46:28.610559 13232 net.cpp:165] Memory required for data: 191645652
I0823 18:46:28.610563 13232 layer_factory.hpp:77] Creating layer pool1
I0823 18:46:28.610572 13232 net.cpp:106] Creating Layer pool1
I0823 18:46:28.610576 13232 net.cpp:454] pool1 <- norm1
I0823 18:46:28.610587 13232 net.cpp:411] pool1 -> pool1
I0823 18:46:28.610653 13232 net.cpp:150] Setting up pool1
I0823 18:46:28.610661 13232 net.cpp:157] Top shape: 1 96 148 248 (3523584)
I0823 18:46:28.610663 13232 net.cpp:165] Memory required for data: 205739988
I0823 18:46:28.610668 13232 layer_factory.hpp:77] Creating layer conv2
I0823 18:46:28.610687 13232 net.cpp:106] Creating Layer conv2
I0823 18:46:28.610692 13232 net.cpp:454] conv2 <- pool1
I0823 18:46:28.610698 13232 net.cpp:411] conv2 -> conv2
I0823 18:46:28.619238 13232 net.cpp:150] Setting up conv2
I0823 18:46:28.619277 13232 net.cpp:157] Top shape: 1 256 73 123 (2298624)
I0823 18:46:28.619282 13232 net.cpp:165] Memory required for data: 214934484
I0823 18:46:28.619300 13232 layer_factory.hpp:77] Creating layer relu2
I0823 18:46:28.619312 13232 net.cpp:106] Creating Layer relu2
I0823 18:46:28.619315 13232 net.cpp:454] relu2 <- conv2
I0823 18:46:28.619323 13232 net.cpp:397] relu2 -> conv2 (in-place)
I0823 18:46:28.619846 13232 net.cpp:150] Setting up relu2
I0823 18:46:28.619861 13232 net.cpp:157] Top shape: 1 256 73 123 (2298624)
I0823 18:46:28.619864 13232 net.cpp:165] Memory required for data: 224128980
I0823 18:46:28.619868 13232 layer_factory.hpp:77] Creating layer norm2
I0823 18:46:28.619879 13232 net.cpp:106] Creating Layer norm2
I0823 18:46:28.619884 13232 net.cpp:454] norm2 <- conv2
I0823 18:46:28.619891 13232 net.cpp:411] norm2 -> norm2
I0823 18:46:28.620156 13232 net.cpp:150] Setting up norm2
I0823 18:46:28.620169 13232 net.cpp:157] Top shape: 1 256 73 123 (2298624)
I0823 18:46:28.620172 13232 net.cpp:165] Memory required for data: 233323476
I0823 18:46:28.620175 13232 layer_factory.hpp:77] Creating layer pool2
I0823 18:46:28.620183 13232 net.cpp:106] Creating Layer pool2
I0823 18:46:28.620187 13232 net.cpp:454] pool2 <- norm2
I0823 18:46:28.620193 13232 net.cpp:411] pool2 -> pool2
I0823 18:46:28.620257 13232 net.cpp:150] Setting up pool2
I0823 18:46:28.620266 13232 net.cpp:157] Top shape: 1 256 36 61 (562176)
I0823 18:46:28.620271 13232 net.cpp:165] Memory required for data: 235572180
I0823 18:46:28.620275 13232 layer_factory.hpp:77] Creating layer conv3
I0823 18:46:28.620285 13232 net.cpp:106] Creating Layer conv3
I0823 18:46:28.620291 13232 net.cpp:454] conv3 <- pool2
I0823 18:46:28.620306 13232 net.cpp:411] conv3 -> conv3
I0823 18:46:28.633577 13232 net.cpp:150] Setting up conv3
I0823 18:46:28.633616 13232 net.cpp:157] Top shape: 1 512 36 61 (1124352)
I0823 18:46:28.633620 13232 net.cpp:165] Memory required for data: 240069588
I0823 18:46:28.633641 13232 layer_factory.hpp:77] Creating layer relu3
I0823 18:46:28.633653 13232 net.cpp:106] Creating Layer relu3
I0823 18:46:28.633658 13232 net.cpp:454] relu3 <- conv3
I0823 18:46:28.633666 13232 net.cpp:397] relu3 -> conv3 (in-place)
I0823 18:46:28.633898 13232 net.cpp:150] Setting up relu3
I0823 18:46:28.633909 13232 net.cpp:157] Top shape: 1 512 36 61 (1124352)
I0823 18:46:28.633914 13232 net.cpp:165] Memory required for data: 244566996
I0823 18:46:28.633919 13232 layer_factory.hpp:77] Creating layer conv4
I0823 18:46:28.633936 13232 net.cpp:106] Creating Layer conv4
I0823 18:46:28.633942 13232 net.cpp:454] conv4 <- conv3
I0823 18:46:28.633949 13232 net.cpp:411] conv4 -> conv4
I0823 18:46:28.650094 13232 net.cpp:150] Setting up conv4
I0823 18:46:28.650151 13232 net.cpp:157] Top shape: 1 512 36 61 (1124352)
I0823 18:46:28.650154 13232 net.cpp:165] Memory required for data: 249064404
I0823 18:46:28.650167 13232 layer_factory.hpp:77] Creating layer relu4
I0823 18:46:28.650179 13232 net.cpp:106] Creating Layer relu4
I0823 18:46:28.650185 13232 net.cpp:454] relu4 <- conv4
I0823 18:46:28.650195 13232 net.cpp:397] relu4 -> conv4 (in-place)
I0823 18:46:28.650761 13232 net.cpp:150] Setting up relu4
I0823 18:46:28.650776 13232 net.cpp:157] Top shape: 1 512 36 61 (1124352)
I0823 18:46:28.650779 13232 net.cpp:165] Memory required for data: 253561812
I0823 18:46:28.650784 13232 layer_factory.hpp:77] Creating layer conv5
I0823 18:46:28.650804 13232 net.cpp:106] Creating Layer conv5
I0823 18:46:28.650809 13232 net.cpp:454] conv5 <- conv4
I0823 18:46:28.650817 13232 net.cpp:411] conv5 -> conv5
I0823 18:46:28.668912 13232 net.cpp:150] Setting up conv5
I0823 18:46:28.668956 13232 net.cpp:157] Top shape: 1 512 36 61 (1124352)
I0823 18:46:28.668959 13232 net.cpp:165] Memory required for data: 258059220
I0823 18:46:28.668977 13232 layer_factory.hpp:77] Creating layer relu5
I0823 18:46:28.668989 13232 net.cpp:106] Creating Layer relu5
I0823 18:46:28.668994 13232 net.cpp:454] relu5 <- conv5
I0823 18:46:28.669001 13232 net.cpp:397] relu5 -> conv5 (in-place)
I0823 18:46:28.669219 13232 net.cpp:150] Setting up relu5
I0823 18:46:28.669230 13232 net.cpp:157] Top shape: 1 512 36 61 (1124352)
I0823 18:46:28.669234 13232 net.cpp:165] Memory required for data: 262556628
I0823 18:46:28.669237 13232 layer_factory.hpp:77] Creating layer conv5_relu5_0_split
I0823 18:46:28.669245 13232 net.cpp:106] Creating Layer conv5_relu5_0_split
I0823 18:46:28.669250 13232 net.cpp:454] conv5_relu5_0_split <- conv5
I0823 18:46:28.669257 13232 net.cpp:411] conv5_relu5_0_split -> conv5_relu5_0_split_0
I0823 18:46:28.669268 13232 net.cpp:411] conv5_relu5_0_split -> conv5_relu5_0_split_1
I0823 18:46:28.669353 13232 net.cpp:150] Setting up conv5_relu5_0_split
I0823 18:46:28.669361 13232 net.cpp:157] Top shape: 1 512 36 61 (1124352)
I0823 18:46:28.669365 13232 net.cpp:157] Top shape: 1 512 36 61 (1124352)
I0823 18:46:28.669368 13232 net.cpp:165] Memory required for data: 271551444
I0823 18:46:28.669371 13232 layer_factory.hpp:77] Creating layer rpn_conv/3x3
I0823 18:46:28.669387 13232 net.cpp:106] Creating Layer rpn_conv/3x3
I0823 18:46:28.669394 13232 net.cpp:454] rpn_conv/3x3 <- conv5_relu5_0_split_0
I0823 18:46:28.669404 13232 net.cpp:411] rpn_conv/3x3 -> rpn/output
I0823 18:46:28.693136 13232 net.cpp:150] Setting up rpn_conv/3x3
I0823 18:46:28.693173 13232 net.cpp:157] Top shape: 1 256 36 61 (562176)
I0823 18:46:28.693177 13232 net.cpp:165] Memory required for data: 273800148
I0823 18:46:28.693187 13232 layer_factory.hpp:77] Creating layer rpn_relu/3x3
I0823 18:46:28.693199 13232 net.cpp:106] Creating Layer rpn_relu/3x3
I0823 18:46:28.693204 13232 net.cpp:454] rpn_relu/3x3 <- rpn/output
I0823 18:46:28.693213 13232 net.cpp:397] rpn_relu/3x3 -> rpn/output (in-place)
I0823 18:46:28.693727 13232 net.cpp:150] Setting up rpn_relu/3x3
I0823 18:46:28.693742 13232 net.cpp:157] Top shape: 1 256 36 61 (562176)
I0823 18:46:28.693744 13232 net.cpp:165] Memory required for data: 276048852
I0823 18:46:28.693747 13232 layer_factory.hpp:77] Creating layer rpn/output_rpn_relu/3x3_0_split
I0823 18:46:28.693758 13232 net.cpp:106] Creating Layer rpn/output_rpn_relu/3x3_0_split
I0823 18:46:28.693761 13232 net.cpp:454] rpn/output_rpn_relu/3x3_0_split <- rpn/output
I0823 18:46:28.693768 13232 net.cpp:411] rpn/output_rpn_relu/3x3_0_split -> rpn/output_rpn_relu/3x3_0_split_0
I0823 18:46:28.693778 13232 net.cpp:411] rpn/output_rpn_relu/3x3_0_split -> rpn/output_rpn_relu/3x3_0_split_1
I0823 18:46:28.693855 13232 net.cpp:150] Setting up rpn/output_rpn_relu/3x3_0_split
I0823 18:46:28.693863 13232 net.cpp:157] Top shape: 1 256 36 61 (562176)
I0823 18:46:28.693867 13232 net.cpp:157] Top shape: 1 256 36 61 (562176)
I0823 18:46:28.693871 13232 net.cpp:165] Memory required for data: 280546260
I0823 18:46:28.693873 13232 layer_factory.hpp:77] Creating layer rpn_cls_score
I0823 18:46:28.693888 13232 net.cpp:106] Creating Layer rpn_cls_score
I0823 18:46:28.693892 13232 net.cpp:454] rpn_cls_score <- rpn/output_rpn_relu/3x3_0_split_0
I0823 18:46:28.693899 13232 net.cpp:411] rpn_cls_score -> rpn_cls_score
I0823 18:46:28.695822 13232 net.cpp:150] Setting up rpn_cls_score
I0823 18:46:28.695837 13232 net.cpp:157] Top shape: 1 18 36 61 (39528)
I0823 18:46:28.695842 13232 net.cpp:165] Memory required for data: 280704372
I0823 18:46:28.695848 13232 layer_factory.hpp:77] Creating layer rpn_cls_score_rpn_cls_score_0_split
I0823 18:46:28.695857 13232 net.cpp:106] Creating Layer rpn_cls_score_rpn_cls_score_0_split
I0823 18:46:28.695859 13232 net.cpp:454] rpn_cls_score_rpn_cls_score_0_split <- rpn_cls_score
I0823 18:46:28.695868 13232 net.cpp:411] rpn_cls_score_rpn_cls_score_0_split -> rpn_cls_score_rpn_cls_score_0_split_0
I0823 18:46:28.695876 13232 net.cpp:411] rpn_cls_score_rpn_cls_score_0_split -> rpn_cls_score_rpn_cls_score_0_split_1
I0823 18:46:28.695950 13232 net.cpp:150] Setting up rpn_cls_score_rpn_cls_score_0_split
I0823 18:46:28.695957 13232 net.cpp:157] Top shape: 1 18 36 61 (39528)
I0823 18:46:28.695961 13232 net.cpp:157] Top shape: 1 18 36 61 (39528)
I0823 18:46:28.695965 13232 net.cpp:165] Memory required for data: 281020596
I0823 18:46:28.695967 13232 layer_factory.hpp:77] Creating layer rpn_bbox_pred
I0823 18:46:28.695981 13232 net.cpp:106] Creating Layer rpn_bbox_pred
I0823 18:46:28.695986 13232 net.cpp:454] rpn_bbox_pred <- rpn/output_rpn_relu/3x3_0_split_1
I0823 18:46:28.695994 13232 net.cpp:411] rpn_bbox_pred -> rpn_bbox_pred
I0823 18:46:28.698070 13232 net.cpp:150] Setting up rpn_bbox_pred
I0823 18:46:28.698096 13232 net.cpp:157] Top shape: 1 36 36 61 (79056)
I0823 18:46:28.698101 13232 net.cpp:165] Memory required for data: 281336820
I0823 18:46:28.698108 13232 layer_factory.hpp:77] Creating layer rpn_bbox_pred_rpn_bbox_pred_0_split
I0823 18:46:28.698137 13232 net.cpp:106] Creating Layer rpn_bbox_pred_rpn_bbox_pred_0_split
I0823 18:46:28.698148 13232 net.cpp:454] rpn_bbox_pred_rpn_bbox_pred_0_split <- rpn_bbox_pred
I0823 18:46:28.698154 13232 net.cpp:411] rpn_bbox_pred_rpn_bbox_pred_0_split -> rpn_bbox_pred_rpn_bbox_pred_0_split_0
I0823 18:46:28.698163 13232 net.cpp:411] rpn_bbox_pred_rpn_bbox_pred_0_split -> rpn_bbox_pred_rpn_bbox_pred_0_split_1
I0823 18:46:28.698242 13232 net.cpp:150] Setting up rpn_bbox_pred_rpn_bbox_pred_0_split
I0823 18:46:28.698251 13232 net.cpp:157] Top shape: 1 36 36 61 (79056)
I0823 18:46:28.698256 13232 net.cpp:157] Top shape: 1 36 36 61 (79056)
I0823 18:46:28.698257 13232 net.cpp:165] Memory required for data: 281969268
I0823 18:46:28.698261 13232 layer_factory.hpp:77] Creating layer rpn_cls_score_reshape
I0823 18:46:28.698271 13232 net.cpp:106] Creating Layer rpn_cls_score_reshape
I0823 18:46:28.698277 13232 net.cpp:454] rpn_cls_score_reshape <- rpn_cls_score_rpn_cls_score_0_split_0
I0823 18:46:28.698283 13232 net.cpp:411] rpn_cls_score_reshape -> rpn_cls_score_reshape
I0823 18:46:28.698328 13232 net.cpp:150] Setting up rpn_cls_score_reshape
I0823 18:46:28.698335 13232 net.cpp:157] Top shape: 1 2 324 61 (39528)
I0823 18:46:28.698338 13232 net.cpp:165] Memory required for data: 282127380
I0823 18:46:28.698341 13232 layer_factory.hpp:77] Creating layer rpn_cls_score_reshape_rpn_cls_score_reshape_0_split
I0823 18:46:28.698348 13232 net.cpp:106] Creating Layer rpn_cls_score_reshape_rpn_cls_score_reshape_0_split
I0823 18:46:28.698350 13232 net.cpp:454] rpn_cls_score_reshape_rpn_cls_score_reshape_0_split <- rpn_cls_score_reshape
I0823 18:46:28.698359 13232 net.cpp:411] rpn_cls_score_reshape_rpn_cls_score_reshape_0_split -> rpn_cls_score_reshape_rpn_cls_score_reshape_0_split_0
I0823 18:46:28.698366 13232 net.cpp:411] rpn_cls_score_reshape_rpn_cls_score_reshape_0_split -> rpn_cls_score_reshape_rpn_cls_score_reshape_0_split_1
I0823 18:46:28.698431 13232 net.cpp:150] Setting up rpn_cls_score_reshape_rpn_cls_score_reshape_0_split
I0823 18:46:28.698438 13232 net.cpp:157] Top shape: 1 2 324 61 (39528)
I0823 18:46:28.698442 13232 net.cpp:157] Top shape: 1 2 324 61 (39528)
I0823 18:46:28.698444 13232 net.cpp:165] Memory required for data: 282443604
I0823 18:46:28.698447 13232 layer_factory.hpp:77] Creating layer rpn-data
I0823 18:46:28.699132 13232 net.cpp:106] Creating Layer rpn-data
I0823 18:46:28.699148 13232 net.cpp:454] rpn-data <- rpn_cls_score_rpn_cls_score_0_split_1
I0823 18:46:28.699156 13232 net.cpp:454] rpn-data <- gt_boxes_input-data_2_split_0
I0823 18:46:28.699162 13232 net.cpp:454] rpn-data <- im_info_input-data_1_split_0
I0823 18:46:28.699167 13232 net.cpp:454] rpn-data <- data_input-data_0_split_1
I0823 18:46:28.699174 13232 net.cpp:411] rpn-data -> rpn_labels
I0823 18:46:28.699193 13232 net.cpp:411] rpn-data -> rpn_bbox_targets
I0823 18:46:28.699204 13232 net.cpp:411] rpn-data -> rpn_bbox_inside_weights
I0823 18:46:28.699215 13232 net.cpp:411] rpn-data -> rpn_bbox_outside_weights
I0823 18:46:28.702654 13232 net.cpp:150] Setting up rpn-data
I0823 18:46:28.702698 13232 net.cpp:157] Top shape: 1 1 324 61 (19764)
I0823 18:46:28.702703 13232 net.cpp:157] Top shape: 1 36 36 61 (79056)
I0823 18:46:28.702708 13232 net.cpp:157] Top shape: 1 36 36 61 (79056)
I0823 18:46:28.702710 13232 net.cpp:157] Top shape: 1 36 36 61 (79056)
I0823 18:46:28.702713 13232 net.cpp:165] Memory required for data: 283471332
I0823 18:46:28.702720 13232 layer_factory.hpp:77] Creating layer rpn_loss_cls
I0823 18:46:28.702735 13232 net.cpp:106] Creating Layer rpn_loss_cls
I0823 18:46:28.702744 13232 net.cpp:454] rpn_loss_cls <- rpn_cls_score_reshape_rpn_cls_score_reshape_0_split_0
I0823 18:46:28.702750 13232 net.cpp:454] rpn_loss_cls <- rpn_labels
…
I0823 18:46:28.704666 13232 net.cpp:157] Top shape: (1)
I0823 18:46:28.704668 13232 net.cpp:160]     with loss weight 1
I0823 18:46:28.704676 13232 net.cpp:165] Memory required for data: 283471340
I0823 18:46:28.704679 13232 layer_factory.hpp:77] Creating layer rpn_cls_prob
I0823 18:46:28.704687 13232 net.cpp:106] Creating Layer rpn_cls_prob
I0823 18:46:28.704690 13232 net.cpp:454] rpn_cls_prob <- rpn_cls_score_reshape_rpn_cls_score_reshape_0_split_1
I0823 18:46:28.704700 13232 net.cpp:411] rpn_cls_prob -> rpn_cls_prob
I0823 18:46:28.705096 13232 net.cpp:150] Setting up rpn_cls_prob
I0823 18:46:28.705111 13232 net.cpp:157] Top shape: 1 2 324 61 (39528)
I0823 18:46:28.705114 13232 net.cpp:165] Memory required for data: 283629452
I0823 18:46:28.705124 13232 layer_factory.hpp:77] Creating layer rpn_cls_prob_reshape
I0823 18:46:28.705145 13232 net.cpp:106] Creating Layer rpn_cls_prob_reshape
I0823 18:46:28.705149 13232 net.cpp:454] rpn_cls_prob_reshape <- rpn_cls_prob
I0823 18:46:28.705157 13232 net.cpp:411] rpn_cls_prob_reshape -> rpn_cls_prob_reshape
I0823 18:46:28.705205 13232 net.cpp:150] Setting up rpn_cls_prob_reshape
I0823 18:46:28.705214 13232 net.cpp:157] Top shape: 1 18 36 61 (39528)
I0823 18:46:28.705216 13232 net.cpp:165] Memory required for data: 283787564
I0823 18:46:28.705219 13232 layer_factory.hpp:77] Creating layer proposal
I0823 18:46:28.717599 13232 net.cpp:106] Creating Layer proposal
I0823 18:46:28.717638 13232 net.cpp:454] proposal <- rpn_cls_prob_reshape
I0823 18:46:28.717648 13232 net.cpp:454] proposal <- rpn_bbox_pred_rpn_bbox_pred_0_split_1
I0823 18:46:28.717653 13232 net.cpp:454] proposal <- im_info_input-data_1_split_1
I0823 18:46:28.717661 13232 net.cpp:411] proposal -> rpn_rois
I0823 18:46:28.723764 13232 net.cpp:150] Setting up proposal
I0823 18:46:28.723799 13232 net.cpp:157] Top shape: 1 5 (5)
I0823 18:46:28.723803 13232 net.cpp:165] Memory required for data: 283787584
I0823 18:46:28.723809 13232 layer_factory.hpp:77] Creating layer roi-data
I0823 18:46:28.724105 13232 net.cpp:106] Creating Layer roi-data
I0823 18:46:28.724118 13232 net.cpp:454] roi-data <- rpn_rois
I0823 18:46:28.724128 13232 net.cpp:454] roi-data <- gt_boxes_input-data_2_split_1
I0823 18:46:28.724138 13232 net.cpp:411] roi-data -> rois
I0823 18:46:28.724150 13232 net.cpp:411] roi-data -> labels
I0823 18:46:28.724161 13232 net.cpp:411] roi-data -> bbox_targets
I0823 18:46:28.724169 13232 net.cpp:411] roi-data -> bbox_inside_weights
I0823 18:46:28.724179 13232 net.cpp:411] roi-data -> bbox_outside_weights
I0823 18:46:28.724186 13232 net.cpp:411] roi-data -> key_targets
I0823 18:46:28.724933 13232 net.cpp:150] Setting up roi-data
I0823 18:46:28.724948 13232 net.cpp:157] Top shape: 1 5 (5)
I0823 18:46:28.724952 13232 net.cpp:157] Top shape: 1 1 (1)
I0823 18:46:28.724956 13232 net.cpp:157] Top shape: 1 84 (84)
I0823 18:46:28.724959 13232 net.cpp:157] Top shape: 1 84 (84)
I0823 18:46:28.724962 13232 net.cpp:157] Top shape: 1 84 (84)
I0823 18:46:28.724966 13232 net.cpp:157] Top shape: 1 84 (84)
I0823 18:46:28.724968 13232 net.cpp:165] Memory required for data: 283788952
I0823 18:46:28.724972 13232 layer_factory.hpp:77] Creating layer bbox_inside_weights_roi-data_3_split
I0823 18:46:28.724982 13232 net.cpp:106] Creating Layer bbox_inside_weights_roi-data_3_split
I0823 18:46:28.724984 13232 net.cpp:454] bbox_inside_weights_roi-data_3_split <- bbox_inside_weights
I0823 18:46:28.724992 13232 net.cpp:411] bbox_inside_weights_roi-data_3_split -> bbox_inside_weights_roi-data_3_split_0
I0823 18:46:28.725000 13232 net.cpp:411] bbox_inside_weights_roi-data_3_split -> bbox_inside_weights_roi-data_3_split_1
I0823 18:46:28.725072 13232 net.cpp:150] Setting up bbox_inside_weights_roi-data_3_split
I0823 18:46:28.725080 13232 net.cpp:157] Top shape: 1 84 (84)
I0823 18:46:28.725083 13232 net.cpp:157] Top shape: 1 84 (84)
I0823 18:46:28.725085 13232 net.cpp:165] Memory required for data: 283789624
I0823 18:46:28.725088 13232 layer_factory.hpp:77] Creating layer bbox_outside_weights_roi-data_4_split
I0823 18:46:28.725101 13232 net.cpp:106] Creating Layer bbox_outside_weights_roi-data_4_split
I0823 18:46:28.725105 13232 net.cpp:454] bbox_outside_weights_roi-data_4_split <- bbox_outside_weights
I0823 18:46:28.725111 13232 net.cpp:411] bbox_outside_weights_roi-data_4_split -> bbox_outside_weights_roi-data_4_split_0
I0823 18:46:28.725121 13232 net.cpp:411] bbox_outside_weights_roi-data_4_split -> bbox_outside_weights_roi-data_4_split_1
I0823 18:46:28.725179 13232 net.cpp:150] Setting up bbox_outside_weights_roi-data_4_split
I0823 18:46:28.725186 13232 net.cpp:157] Top shape: 1 84 (84)
I0823 18:46:28.725190 13232 net.cpp:157] Top shape: 1 84 (84)
I0823 18:46:28.725193 13232 net.cpp:165] Memory required for data: 283790296
I0823 18:46:28.725196 13232 layer_factory.hpp:77] Creating layer roi_pool5
I0823 18:46:28.725210 13232 net.cpp:106] Creating Layer roi_pool5
I0823 18:46:28.725214 13232 net.cpp:454] roi_pool5 <- conv5_relu5_0_split_1
I0823 18:46:28.725220 13232 net.cpp:454] roi_pool5 <- rois
I0823 18:46:28.725227 13232 net.cpp:411] roi_pool5 -> pool5
I0823 18:46:28.725234 13232 roi_pooling_layer.cpp:30] Spatial scale: 0.0625
I0823 18:46:28.725312 13232 net.cpp:150] Setting up roi_pool5
I0823 18:46:28.725320 13232 net.cpp:157] Top shape: 1 512 6 6 (18432)
I0823 18:46:28.725323 13232 net.cpp:165] Memory required for data: 283864024
I0823 18:46:28.725327 13232 layer_factory.hpp:77] Creating layer fc6
I0823 18:46:28.725335 13232 net.cpp:106] Creating Layer fc6
I0823 18:46:28.725338 13232 net.cpp:454] fc6 <- pool5
I0823 18:46:28.725345 13232 net.cpp:411] fc6 -> fc6
I0823 18:46:29.189244 13232 net.cpp:150] Setting up fc6
I0823 18:46:29.189301 13232 net.cpp:157] Top shape: 1 4096 (4096)
I0823 18:46:29.189304 13232 net.cpp:165] Memory required for data: 283880408
I0823 18:46:29.189322 13232 layer_factory.hpp:77] Creating layer relu6
I0823 18:46:29.189334 13232 net.cpp:106] Creating Layer relu6
I0823 18:46:29.189339 13232 net.cpp:454] relu6 <- fc6
I0823 18:46:29.189347 13232 net.cpp:397] relu6 -> fc6 (in-place)
I0823 18:46:29.190011 13232 net.cpp:150] Setting up relu6
I0823 18:46:29.190024 13232 net.cpp:157] Top shape: 1 4096 (4096)
I0823 18:46:29.190027 13232 net.cpp:165] Memory required for data: 283896792
I0823 18:46:29.190032 13232 layer_factory.hpp:77] Creating layer drop6
I0823 18:46:29.190040 13232 net.cpp:106] Creating Layer drop6
I0823 18:46:29.190043 13232 net.cpp:454] drop6 <- fc6
I0823 18:46:29.190049 13232 net.cpp:397] drop6 -> fc6 (in-place)
I0823 18:46:29.190096 13232 net.cpp:150] Setting up drop6
I0823 18:46:29.190105 13232 net.cpp:157] Top shape: 1 4096 (4096)
I0823 18:46:29.190107 13232 net.cpp:165] Memory required for data: 283913176
I0823 18:46:29.190110 13232 layer_factory.hpp:77] Creating layer fc7
I0823 18:46:29.190119 13232 net.cpp:106] Creating Layer fc7
I0823 18:46:29.190121 13232 net.cpp:454] fc7 <- fc6
I0823 18:46:29.190127 13232 net.cpp:411] fc7 -> fc7
I0823 18:46:29.216645 13232 net.cpp:150] Setting up fc7
I0823 18:46:29.216696 13232 net.cpp:157] Top shape: 1 1024 (1024)
I0823 18:46:29.216699 13232 net.cpp:165] Memory required for data: 283917272
I0823 18:46:29.216711 13232 layer_factory.hpp:77] Creating layer relu7
I0823 18:46:29.216720 13232 net.cpp:106] Creating Layer relu7
I0823 18:46:29.216725 13232 net.cpp:454] relu7 <- fc7
I0823 18:46:29.216733 13232 net.cpp:397] relu7 -> fc7 (in-place)
I0823 18:46:29.217000 13232 net.cpp:150] Setting up relu7
I0823 18:46:29.217010 13232 net.cpp:157] Top shape: 1 1024 (1024)
I0823 18:46:29.217013 13232 net.cpp:165] Memory required for data: 283921368
I0823 18:46:29.217016 13232 layer_factory.hpp:77] Creating layer drop7
I0823 18:46:29.217025 13232 net.cpp:106] Creating Layer drop7
I0823 18:46:29.217027 13232 net.cpp:454] drop7 <- fc7
I0823 18:46:29.217033 13232 net.cpp:397] drop7 -> fc7 (in-place)
I0823 18:46:29.217077 13232 net.cpp:150] Setting up drop7
I0823 18:46:29.217084 13232 net.cpp:157] Top shape: 1 1024 (1024)
I0823 18:46:29.217087 13232 net.cpp:165] Memory required for data: 283925464
I0823 18:46:29.217089 13232 layer_factory.hpp:77] Creating layer fc7_drop7_0_split
I0823 18:46:29.217097 13232 net.cpp:106] Creating Layer fc7_drop7_0_split
I0823 18:46:29.217100 13232 net.cpp:454] fc7_drop7_0_split <- fc7
I0823 18:46:29.217106 13232 net.cpp:411] fc7_drop7_0_split -> fc7_drop7_0_split_0
I0823 18:46:29.217113 13232 net.cpp:411] fc7_drop7_0_split -> fc7_drop7_0_split_1
I0823 18:46:29.217120 13232 net.cpp:411] fc7_drop7_0_split -> fc7_drop7_0_split_2
I0823 18:46:29.217213 13232 net.cpp:150] Setting up fc7_drop7_0_split
I0823 18:46:29.217221 13232 net.cpp:157] Top shape: 1 1024 (1024)
I0823 18:46:29.217223 13232 net.cpp:157] Top shape: 1 1024 (1024)
I0823 18:46:29.217226 13232 net.cpp:157] Top shape: 1 1024 (1024)
I0823 18:46:29.217228 13232 net.cpp:165] Memory required for data: 283937752
I0823 18:46:29.217231 13232 layer_factory.hpp:77] Creating layer cls_score
I0823 18:46:29.217239 13232 net.cpp:106] Creating Layer cls_score
I0823 18:46:29.217242 13232 net.cpp:454] cls_score <- fc7_drop7_0_split_0
I0823 18:46:29.217250 13232 net.cpp:411] cls_score -> cls_score
I0823 18:46:29.217700 13232 net.cpp:150] Setting up cls_score
I0823 18:46:29.217708 13232 net.cpp:157] Top shape: 1 21 (21)
I0823 18:46:29.217710 13232 net.cpp:165] Memory required for data: 283937836
I0823 18:46:29.217717 13232 layer_factory.hpp:77] Creating layer bbox_pred
I0823 18:46:29.217725 13232 net.cpp:106] Creating Layer bbox_pred
I0823 18:46:29.217728 13232 net.cpp:454] bbox_pred <- fc7_drop7_0_split_1
I0823 18:46:29.217735 13232 net.cpp:411] bbox_pred -> bbox_pred
I0823 18:46:29.222084 13232 net.cpp:150] Setting up bbox_pred
I0823 18:46:29.222126 13232 net.cpp:157] Top shape: 1 84 (84)
I0823 18:46:29.222129 13232 net.cpp:165] Memory required for data: 283938172
I0823 18:46:29.222139 13232 layer_factory.hpp:77] Creating layer key_pred
I0823 18:46:29.222153 13232 net.cpp:106] Creating Layer key_pred
I0823 18:46:29.222158 13232 net.cpp:454] key_pred <- fc7_drop7_0_split_2
I0823 18:46:29.222168 13232 net.cpp:411] key_pred -> key_pred
I0823 18:46:29.223359 13232 net.cpp:150] Setting up key_pred
I0823 18:46:29.223376 13232 net.cpp:157] Top shape: 1 84 (84)
I0823 18:46:29.223388 13232 net.cpp:165] Memory required for data: 283938508
I0823 18:46:29.223395 13232 layer_factory.hpp:77] Creating layer loss_cls
I0823 18:46:29.223405 13232 net.cpp:106] Creating Layer loss_cls
I0823 18:46:29.223408 13232 net.cpp:454] loss_cls <- cls_score
I0823 18:46:29.223414 13232 net.cpp:454] loss_cls <- labels
I0823 18:46:29.223422 13232 net.cpp:411] loss_cls -> loss_cls
…
