…
stepsize: 50000
snapshot: 0
snapshot_prefix: "vgg_cnn_m_1024_faster_rcnn"
average_loss: 100
I0824 17:18:31.248080  6090 solver.cpp:81] Creating training net from train_net file: models/pascal_voc/VGG_CNN_M_1024/key/train.prototxt
I0824 17:18:31.248767  6090 net.cpp:49] Initializing net from parameters: 
name: "VGG_CNN_M_1024"
state {
  phase: TRAIN
}
layer {
  name: "input-data"
  type: "Python"
  top: "data"
  top: "im_info"
  top: "gt_boxes"
  python_param {
    module: "roi_data_layer.layer"
    layer: "RoIDataLayer"
    param_str: "\'num_classes\': 21"
  }
}
layer {
  name: "conv1"
  type: "Convolution"
  bottom: "data"
  top: "conv1"
  param {
    lr_mult: 0
    decay_mult: 0
  }
  param {
    lr_mult: 0
    decay_mult: 0
  }
  convolution_param {
    num_output: 96
    kernel_size: 7
    stride: 2
  }
}
layer {
  name: "relu1"
  type: "ReLU"
  bottom: "conv1"
  top: "conv1"
}
layer {
  name: "norm1"
  type: "LRN"
  bottom: "conv1"
  top: "norm1"
  lrn_param {
    local_size: 5
    alpha: 0.0005
    beta: 0.75
    k: 2
  }
}
layer {
  name: "pool1"
  type: "Pooling"
  bottom: "norm1"
  top: "pool1"
  pooling_param {
    pool: MAX
    kernel_size: 3
    stride: 2
  }
}
layer {
  name: "conv2"
  type: "Convolution"
  bottom: "pool1"
  top: "conv2"
  param {
    lr_mult: 1
  }
  param {
    lr_mult: 2
  }
  convolution_param {
    num_output: 256
    pad: 1
    kernel_size: 5
    stride: 2
  }
}
layer {
  name: "relu2"
  type: "ReLU"
  bottom: "conv2"
  top: "conv2"
}
layer {
  name: "norm2"
  type: "LRN"
  bottom: "conv2"
  top: "norm2"
  lrn_param {
    local_size: 5
    alpha: 0.0005
    beta: 0.75
    k: 2
  }
}
layer {
  name: "pool2"
  type: "Pooling"
  bottom: "norm2"
  top: "pool2"
  pooling_param {
    pool: MAX
    kernel_size: 3
    stride: 2
  }
}
layer {
  name: "conv3"
  type: "Convolution"
  bottom: "pool2"
  top: "conv3"
  param {
    lr_mult: 1
  }
  param {
    lr_mult: 2
  }
  convolution_param {
    num_output: 512
    pad: 1
    kernel_size: 3
  }
}
layer {
  name: "relu3"
  type: "ReLU"
  bottom: "conv3"
  top: "conv3"
}
layer {
  name: "conv4"
  type: "Convolution"
  bottom: "conv3"
  top: "conv4"
  param {
    lr_mult: 1
  }
  param {
    lr_mult: 2
  }
  convolution_param {
    num_output: 512
    pad: 1
    kernel_size: 3
  }
}
layer {
  name: "relu4"
  type: "ReLU"
  bottom: "conv4"
  top: "conv4"
}
layer {
  name: "conv5"
  type: "Convolution"
  bottom: "conv4"
  top: "conv5"
  param {
    lr_mult: 1
  }
  param {
    lr_mult: 2
  }
  convolution_param {
    num_output: 512
    pad: 1
    kernel_size: 3
  }
}
layer {
  name: "relu5"
  type: "ReLU"
  bottom: "conv5"
  top: "conv5"
}
layer {
  name: "rpn_conv/3x3"
  type: "Convolution"
  bottom: "conv5"
  top: "rpn/output"
  param {
    lr_mult: 1
  }
  param {
    lr_mult: 2
  }
  convolution_param {
    num_output: 256
    pad: 1
    kernel_size: 3
    stride: 1
    weight_filler {
      type: "gaussian"
      std: 0.01
    }
    bias_filler {
      type: "constant"
      value: 0
    }
  }
}
layer {
  name: "rpn_relu/3x3"
  type: "ReLU"
  bottom: "rpn/output"
  top: "rpn/output"
}
layer {
  name: "rpn_cls_score"
  type: "Convolution"
  bottom: "rpn/output"
  top: "rpn_cls_score"
  param {
    lr_mult: 1
  }
  param {
    lr_mult: 2
  }
  convolution_param {
    num_output: 18
    pad: 0
    kernel_size: 1
    stride: 1
    weight_filler {
      type: "gaussian"
      std: 0.01
    }
    bias_filler {
      type: "constant"
      value: 0
    }
  }
}
layer {
  name: "rpn_bbox_pred"
  type: "Convolution"
  bottom: "rpn/output"
  top: "rpn_bbox_pred"
  param {
    lr_mult: 1
  }
  param {
    lr_mult: 2
  }
  convolution_param {
    num_output: 36
    pad: 0
    kernel_size: 1
    stride: 1
    weight_filler {
      type: "gaussian"
      std: 0.01
    }
    bias_filler {
      type: "constant"
      value: 0
    }
  }
}
layer {
  name: "rpn_cls_score_reshape"
  type: "Reshape"
  bottom: "rpn_cls_score"
  top: "rpn_cls_score_reshape"
  reshape_param {
    shape {
      dim: 0
      dim: 2
      dim: -1
      dim: 0
    }
  }
}
layer {
  name: "rpn-data"
  type: "Python"
  bottom: "rpn_cls_score"
  bottom: "gt_boxes"
  bottom: "im_info"
  bottom: "data"
  top: "rpn_labels"
  top: "rpn_bbox_targets"
  top: "rpn_bbox_inside_weights"
  top: "rpn_bbox_outside_weights"
  python_param {
    module: "rpn.anchor_target_layer"
    layer: "AnchorTargetLayer"
    param_str: "\'feat_stride\': 16"
  }
}
layer {
  name: "rpn_loss_cls"
  type: "SoftmaxWithLoss"
  bottom: "rpn_cls_score_reshape"
  bottom: "rpn_labels"
  top: "rpn_cls_loss"
  loss_weight: 1
  propagate_down: true
  propagate_down: false
  loss_param {
    ignore_label: -1
    normalize: true
  }
}
layer {
  name: "rpn_loss_bbox"
  type: "SmoothL1Loss"
  bottom: "rpn_bbox_pred"
  bottom: "rpn_bbox_targets"
  bottom: "rpn_bbox_inside_weights"
  bottom: "rpn_bbox_outside_weights"
  top: "rpn_loss_bbox"
  loss_weight: 1
  smooth_l1_loss_param {
    sigma: 3
  }
}
layer {
  name: "rpn_cls_prob"
  type: "Softmax"
  bottom: "rpn_cls_score_reshape"
  top: "rpn_cls_prob"
}
layer {
  name: "rpn_cls_prob_reshape"
  type: "Reshape"
  bottom: "rpn_cls_prob"
  top: "rpn_cls_prob_reshape"
  reshape_param {
    shape {
      dim: 0
      dim: 18
      dim: -1
      dim: 0
    }
  }
}
layer {
  name: "proposal"
  type: "Python"
  bottom: "rpn_cls_prob_reshape"
  bottom: "rpn_bbox_pred"
  bottom: "im_info"
  top: "rpn_rois"
  python_param {
    module: "rpn.proposal_layer"
    layer: "ProposalLayer"
    param_str: "\'feat_stride\': 16"
  }
}
layer {
  name: "roi-data"
  type: "Python"
  bottom: "rpn_rois"
  bottom: "gt_boxes"
  top: "rois"
  top: "labels"
  top: "bbox_targets"
  top: "bbox_inside_weights"
  top: "bbox_outside_weights"
  top: "key_targets"
  top: "key_inside_weights"
  python_param {
    module: "rpn.proposal_target_layer"
    layer: "ProposalTargetLayer"
    param_str: "\'num_classes\': 21"
  }
}
layer {
  name: "roi_pool5"
  type: "ROIPooling"
  bottom: "conv5"
  bottom: "rois"
  top: "pool5"
  roi_pooling_param {
    pooled_h: 6
    pooled_w: 6
    spatial_scale: 0.0625
  }
}
layer {
  name: "fc6"
  type: "InnerProduct"
  bottom: "pool5"
  top: "fc6"
  param {
    lr_mult: 1
  }
  param {
    lr_mult: 2
  }
  inner_product_param {
    num_output: 4096
  }
}
layer {
  name: "relu6"
  type: "ReLU"
  bottom: "fc6"
  top: "fc6"
}
layer {
  name: "drop6"
  type: "Dropout"
  bottom: "fc6"
  top: "fc6"
  dropout_param {
    dropout_ratio: 0.5
  }
}
layer {
  name: "fc7"
  type: "InnerProduct"
  bottom: "fc6"
  top: "fc7"
  param {
    lr_mult: 1
  }
  param {
    lr_mult: 2
  }
  inner_product_param {
    num_output: 1024
  }
}
layer {
  name: "relu7"
  type: "ReLU"
  bottom: "fc7"
  top: "fc7"
}
layer {
  name: "drop7"
  type: "Dropout"
  bottom: "fc7"
  top: "fc7"
  dropout_param {
    dropout_ratio: 0.5
  }
}
layer {
  name: "cls_score"
  type: "InnerProduct"
  bottom: "fc7"
  top: "cls_score"
  param {
    lr_mult: 1
  }
  param {
    lr_mult: 2
  }
  inner_product_param {
    num_output: 21
    weight_filler {
      type: "gaussian"
      std: 0.01
    }
    bias_filler {
      type: "constant"
      value: 0
    }
  }
}
layer {
  name: "bbox_pred"
  type: "InnerProduct"
  bottom: "fc7"
  top: "bbox_pred"
  param {
    lr_mult: 1
  }
  param {
    lr_mult: 2
  }
  inner_product_param {
    num_output: 84
    weight_filler {
      type: "gaussian"
      std: 0.001
    }
    bias_filler {
      type: "constant"
      value: 0
    }
  }
}
layer {
  name: "key_pred"
  type: "InnerProduct"
  bottom: "fc7"
  top: "key_pred"
  param {
    lr_mult: 1
  }
  param {
    lr_mult: 2
  }
  inner_product_param {
    num_output: 84
    weight_filler {
      type: "gaussian"
      std: 0.001
    }
    bias_filler {
      type: "constant"
      value: 0
    }
  }
}
layer {
  name: "loss_cls"
  type: "SoftmaxWithLoss"
  bottom: "cls_score"
  bottom: "labels"
  top: "loss_cls"
  loss_weight: 1
  propagate_down: true
  propagate_down: false
}
layer {
  name: "loss_bbox"
  type: "SmoothL1Loss"
  bottom: "bbox_pred"
  bottom: "bbox_targets"
  bottom: "bbox_inside_weights"
  bottom: "bbox_outside_weights"
  top: "loss_bbox"
  loss_weight: 1
}
layer {
  name: "loss_key"
  type: "SmoothL1Loss"
  bottom: "key_pred"
  bottom: "key_targets"
  bottom: "key_inside_weights"
  bottom: "bbox_outside_weights"
  top: "loss_key"
  loss_weight: 1
}
I0824 17:18:31.249022  6090 layer_factory.hpp:77] Creating layer input-data
I0824 17:18:31.263301  6090 net.cpp:106] Creating Layer input-data
I0824 17:18:31.263347  6090 net.cpp:411] input-data -> data
I0824 17:18:31.263365  6090 net.cpp:411] input-data -> im_info
I0824 17:18:31.263373  6090 net.cpp:411] input-data -> gt_boxes
RoiDataLayer: name_to_top: {'gt_boxes': 2, 'data': 0, 'im_info': 1}
I0824 17:18:31.276176  6090 net.cpp:150] Setting up input-data
I0824 17:18:31.276208  6090 net.cpp:157] Top shape: 1 3 600 1000 (1800000)
I0824 17:18:31.276216  6090 net.cpp:157] Top shape: 1 3 (3)
I0824 17:18:31.276219  6090 net.cpp:157] Top shape: 1 4 (4)
I0824 17:18:31.276221  6090 net.cpp:165] Memory required for data: 7200028
I0824 17:18:31.276231  6090 layer_factory.hpp:77] Creating layer data_input-data_0_split
I0824 17:18:31.276250  6090 net.cpp:106] Creating Layer data_input-data_0_split
I0824 17:18:31.276257  6090 net.cpp:454] data_input-data_0_split <- data
I0824 17:18:31.276268  6090 net.cpp:411] data_input-data_0_split -> data_input-data_0_split_0
I0824 17:18:31.276283  6090 net.cpp:411] data_input-data_0_split -> data_input-data_0_split_1
I0824 17:18:31.276346  6090 net.cpp:150] Setting up data_input-data_0_split
I0824 17:18:31.276356  6090 net.cpp:157] Top shape: 1 3 600 1000 (1800000)
I0824 17:18:31.276360  6090 net.cpp:157] Top shape: 1 3 600 1000 (1800000)
I0824 17:18:31.276363  6090 net.cpp:165] Memory required for data: 21600028
I0824 17:18:31.276367  6090 layer_factory.hpp:77] Creating layer im_info_input-data_1_split
I0824 17:18:31.276376  6090 net.cpp:106] Creating Layer im_info_input-data_1_split
I0824 17:18:31.276379  6090 net.cpp:454] im_info_input-data_1_split <- im_info
I0824 17:18:31.276386  6090 net.cpp:411] im_info_input-data_1_split -> im_info_input-data_1_split_0
I0824 17:18:31.276393  6090 net.cpp:411] im_info_input-data_1_split -> im_info_input-data_1_split_1
I0824 17:18:31.276445  6090 net.cpp:150] Setting up im_info_input-data_1_split
I0824 17:18:31.276453  6090 net.cpp:157] Top shape: 1 3 (3)
I0824 17:18:31.276456  6090 net.cpp:157] Top shape: 1 3 (3)
I0824 17:18:31.276458  6090 net.cpp:165] Memory required for data: 21600052
I0824 17:18:31.276461  6090 layer_factory.hpp:77] Creating layer gt_boxes_input-data_2_split
I0824 17:18:31.276468  6090 net.cpp:106] Creating Layer gt_boxes_input-data_2_split
I0824 17:18:31.276471  6090 net.cpp:454] gt_boxes_input-data_2_split <- gt_boxes
I0824 17:18:31.276479  6090 net.cpp:411] gt_boxes_input-data_2_split -> gt_boxes_input-data_2_split_0
I0824 17:18:31.276486  6090 net.cpp:411] gt_boxes_input-data_2_split -> gt_boxes_input-data_2_split_1
I0824 17:18:31.276538  6090 net.cpp:150] Setting up gt_boxes_input-data_2_split
I0824 17:18:31.276546  6090 net.cpp:157] Top shape: 1 4 (4)
I0824 17:18:31.276551  6090 net.cpp:157] Top shape: 1 4 (4)
I0824 17:18:31.276552  6090 net.cpp:165] Memory required for data: 21600084
I0824 17:18:31.276556  6090 layer_factory.hpp:77] Creating layer conv1
I0824 17:18:31.276571  6090 net.cpp:106] Creating Layer conv1
I0824 17:18:31.276577  6090 net.cpp:454] conv1 <- data_input-data_0_split_0
I0824 17:18:31.276585  6090 net.cpp:411] conv1 -> conv1
I0824 17:18:31.559489  6090 net.cpp:150] Setting up conv1
I0824 17:18:31.559532  6090 net.cpp:157] Top shape: 1 96 297 497 (14170464)
I0824 17:18:31.559536  6090 net.cpp:165] Memory required for data: 78281940
I0824 17:18:31.559556  6090 layer_factory.hpp:77] Creating layer relu1
I0824 17:18:31.559568  6090 net.cpp:106] Creating Layer relu1
I0824 17:18:31.559572  6090 net.cpp:454] relu1 <- conv1
I0824 17:18:31.559579  6090 net.cpp:397] relu1 -> conv1 (in-place)
I0824 17:18:31.560098  6090 net.cpp:150] Setting up relu1
I0824 17:18:31.560113  6090 net.cpp:157] Top shape: 1 96 297 497 (14170464)
I0824 17:18:31.560117  6090 net.cpp:165] Memory required for data: 134963796
I0824 17:18:31.560120  6090 layer_factory.hpp:77] Creating layer norm1
I0824 17:18:31.560130  6090 net.cpp:106] Creating Layer norm1
I0824 17:18:31.560135  6090 net.cpp:454] norm1 <- conv1
I0824 17:18:31.560142  6090 net.cpp:411] norm1 -> norm1
I0824 17:18:31.560387  6090 net.cpp:150] Setting up norm1
I0824 17:18:31.560400  6090 net.cpp:157] Top shape: 1 96 297 497 (14170464)
I0824 17:18:31.560402  6090 net.cpp:165] Memory required for data: 191645652
I0824 17:18:31.560405  6090 layer_factory.hpp:77] Creating layer pool1
I0824 17:18:31.560413  6090 net.cpp:106] Creating Layer pool1
I0824 17:18:31.560418  6090 net.cpp:454] pool1 <- norm1
I0824 17:18:31.560425  6090 net.cpp:411] pool1 -> pool1
I0824 17:18:31.560488  6090 net.cpp:150] Setting up pool1
I0824 17:18:31.560495  6090 net.cpp:157] Top shape: 1 96 148 248 (3523584)
I0824 17:18:31.560499  6090 net.cpp:165] Memory required for data: 205739988
I0824 17:18:31.560503  6090 layer_factory.hpp:77] Creating layer conv2
I0824 17:18:31.560515  6090 net.cpp:106] Creating Layer conv2
I0824 17:18:31.560520  6090 net.cpp:454] conv2 <- pool1
I0824 17:18:31.560528  6090 net.cpp:411] conv2 -> conv2
I0824 17:18:31.567101  6090 net.cpp:150] Setting up conv2
I0824 17:18:31.567143  6090 net.cpp:157] Top shape: 1 256 73 123 (2298624)
I0824 17:18:31.567147  6090 net.cpp:165] Memory required for data: 214934484
I0824 17:18:31.567164  6090 layer_factory.hpp:77] Creating layer relu2
I0824 17:18:31.567176  6090 net.cpp:106] Creating Layer relu2
I0824 17:18:31.567180  6090 net.cpp:454] relu2 <- conv2
I0824 17:18:31.567188  6090 net.cpp:397] relu2 -> conv2 (in-place)
I0824 17:18:31.567735  6090 net.cpp:150] Setting up relu2
I0824 17:18:31.567750  6090 net.cpp:157] Top shape: 1 256 73 123 (2298624)
I0824 17:18:31.567754  6090 net.cpp:165] Memory required for data: 224128980
I0824 17:18:31.567757  6090 layer_factory.hpp:77] Creating layer norm2
I0824 17:18:31.567766  6090 net.cpp:106] Creating Layer norm2
I0824 17:18:31.567770  6090 net.cpp:454] norm2 <- conv2
I0824 17:18:31.567778  6090 net.cpp:411] norm2 -> norm2
I0824 17:18:31.568050  6090 net.cpp:150] Setting up norm2
I0824 17:18:31.568063  6090 net.cpp:157] Top shape: 1 256 73 123 (2298624)
I0824 17:18:31.568065  6090 net.cpp:165] Memory required for data: 233323476
I0824 17:18:31.568068  6090 layer_factory.hpp:77] Creating layer pool2
I0824 17:18:31.568080  6090 net.cpp:106] Creating Layer pool2
I0824 17:18:31.568084  6090 net.cpp:454] pool2 <- norm2
I0824 17:18:31.568092  6090 net.cpp:411] pool2 -> pool2
I0824 17:18:31.568159  6090 net.cpp:150] Setting up pool2
I0824 17:18:31.568167  6090 net.cpp:157] Top shape: 1 256 36 61 (562176)
I0824 17:18:31.568171  6090 net.cpp:165] Memory required for data: 235572180
I0824 17:18:31.568174  6090 layer_factory.hpp:77] Creating layer conv3
I0824 17:18:31.568186  6090 net.cpp:106] Creating Layer conv3
I0824 17:18:31.568192  6090 net.cpp:454] conv3 <- pool2
I0824 17:18:31.568198  6090 net.cpp:411] conv3 -> conv3
I0824 17:18:31.581846  6090 net.cpp:150] Setting up conv3
I0824 17:18:31.581889  6090 net.cpp:157] Top shape: 1 512 36 61 (1124352)
I0824 17:18:31.581893  6090 net.cpp:165] Memory required for data: 240069588
I0824 17:18:31.581910  6090 layer_factory.hpp:77] Creating layer relu3
I0824 17:18:31.581923  6090 net.cpp:106] Creating Layer relu3
I0824 17:18:31.581928  6090 net.cpp:454] relu3 <- conv3
I0824 17:18:31.581935  6090 net.cpp:397] relu3 -> conv3 (in-place)
I0824 17:18:31.582171  6090 net.cpp:150] Setting up relu3
I0824 17:18:31.582185  6090 net.cpp:157] Top shape: 1 512 36 61 (1124352)
I0824 17:18:31.582188  6090 net.cpp:165] Memory required for data: 244566996
I0824 17:18:31.582192  6090 layer_factory.hpp:77] Creating layer conv4
I0824 17:18:31.582206  6090 net.cpp:106] Creating Layer conv4
I0824 17:18:31.582209  6090 net.cpp:454] conv4 <- conv3
I0824 17:18:31.582216  6090 net.cpp:411] conv4 -> conv4
I0824 17:18:31.598328  6090 net.cpp:150] Setting up conv4
I0824 17:18:31.598379  6090 net.cpp:157] Top shape: 1 512 36 61 (1124352)
I0824 17:18:31.598383  6090 net.cpp:165] Memory required for data: 249064404
I0824 17:18:31.598394  6090 layer_factory.hpp:77] Creating layer relu4
I0824 17:18:31.598407  6090 net.cpp:106] Creating Layer relu4
I0824 17:18:31.598415  6090 net.cpp:454] relu4 <- conv4
I0824 17:18:31.598423  6090 net.cpp:397] relu4 -> conv4 (in-place)
I0824 17:18:31.598968  6090 net.cpp:150] Setting up relu4
I0824 17:18:31.598984  6090 net.cpp:157] Top shape: 1 512 36 61 (1124352)
I0824 17:18:31.598987  6090 net.cpp:165] Memory required for data: 253561812
I0824 17:18:31.598990  6090 layer_factory.hpp:77] Creating layer conv5
I0824 17:18:31.599012  6090 net.cpp:106] Creating Layer conv5
I0824 17:18:31.599016  6090 net.cpp:454] conv5 <- conv4
I0824 17:18:31.599023  6090 net.cpp:411] conv5 -> conv5
I0824 17:18:31.615310  6090 net.cpp:150] Setting up conv5
I0824 17:18:31.615370  6090 net.cpp:157] Top shape: 1 512 36 61 (1124352)
I0824 17:18:31.615375  6090 net.cpp:165] Memory required for data: 258059220
I0824 17:18:31.615396  6090 layer_factory.hpp:77] Creating layer relu5
I0824 17:18:31.615408  6090 net.cpp:106] Creating Layer relu5
I0824 17:18:31.615413  6090 net.cpp:454] relu5 <- conv5
I0824 17:18:31.615420  6090 net.cpp:397] relu5 -> conv5 (in-place)
I0824 17:18:31.615663  6090 net.cpp:150] Setting up relu5
I0824 17:18:31.615677  6090 net.cpp:157] Top shape: 1 512 36 61 (1124352)
I0824 17:18:31.615680  6090 net.cpp:165] Memory required for data: 262556628
I0824 17:18:31.615684  6090 layer_factory.hpp:77] Creating layer conv5_relu5_0_split
I0824 17:18:31.615691  6090 net.cpp:106] Creating Layer conv5_relu5_0_split
I0824 17:18:31.615695  6090 net.cpp:454] conv5_relu5_0_split <- conv5
I0824 17:18:31.615703  6090 net.cpp:411] conv5_relu5_0_split -> conv5_relu5_0_split_0
I0824 17:18:31.615715  6090 net.cpp:411] conv5_relu5_0_split -> conv5_relu5_0_split_1
I0824 17:18:31.615797  6090 net.cpp:150] Setting up conv5_relu5_0_split
I0824 17:18:31.615804  6090 net.cpp:157] Top shape: 1 512 36 61 (1124352)
I0824 17:18:31.615809  6090 net.cpp:157] Top shape: 1 512 36 61 (1124352)
I0824 17:18:31.615813  6090 net.cpp:165] Memory required for data: 271551444
I0824 17:18:31.615815  6090 layer_factory.hpp:77] Creating layer rpn_conv/3x3
I0824 17:18:31.615830  6090 net.cpp:106] Creating Layer rpn_conv/3x3
I0824 17:18:31.615836  6090 net.cpp:454] rpn_conv/3x3 <- conv5_relu5_0_split_0
I0824 17:18:31.615847  6090 net.cpp:411] rpn_conv/3x3 -> rpn/output
I0824 17:18:31.638296  6090 net.cpp:150] Setting up rpn_conv/3x3
I0824 17:18:31.638345  6090 net.cpp:157] Top shape: 1 256 36 61 (562176)
I0824 17:18:31.638348  6090 net.cpp:165] Memory required for data: 273800148
I0824 17:18:31.638358  6090 layer_factory.hpp:77] Creating layer rpn_relu/3x3
I0824 17:18:31.638368  6090 net.cpp:106] Creating Layer rpn_relu/3x3
I0824 17:18:31.638373  6090 net.cpp:454] rpn_relu/3x3 <- rpn/output
I0824 17:18:31.638383  6090 net.cpp:397] rpn_relu/3x3 -> rpn/output (in-place)
I0824 17:18:31.638900  6090 net.cpp:150] Setting up rpn_relu/3x3
I0824 17:18:31.638931  6090 net.cpp:157] Top shape: 1 256 36 61 (562176)
I0824 17:18:31.638936  6090 net.cpp:165] Memory required for data: 276048852
I0824 17:18:31.638938  6090 layer_factory.hpp:77] Creating layer rpn/output_rpn_relu/3x3_0_split
I0824 17:18:31.638948  6090 net.cpp:106] Creating Layer rpn/output_rpn_relu/3x3_0_split
I0824 17:18:31.638952  6090 net.cpp:454] rpn/output_rpn_relu/3x3_0_split <- rpn/output
I0824 17:18:31.638958  6090 net.cpp:411] rpn/output_rpn_relu/3x3_0_split -> rpn/output_rpn_relu/3x3_0_split_0
I0824 17:18:31.638967  6090 net.cpp:411] rpn/output_rpn_relu/3x3_0_split -> rpn/output_rpn_relu/3x3_0_split_1
I0824 17:18:31.639046  6090 net.cpp:150] Setting up rpn/output_rpn_relu/3x3_0_split
I0824 17:18:31.639057  6090 net.cpp:157] Top shape: 1 256 36 61 (562176)
I0824 17:18:31.639061  6090 net.cpp:157] Top shape: 1 256 36 61 (562176)
I0824 17:18:31.639065  6090 net.cpp:165] Memory required for data: 280546260
I0824 17:18:31.639067  6090 layer_factory.hpp:77] Creating layer rpn_cls_score
I0824 17:18:31.639082  6090 net.cpp:106] Creating Layer rpn_cls_score
I0824 17:18:31.639086  6090 net.cpp:454] rpn_cls_score <- rpn/output_rpn_relu/3x3_0_split_0
I0824 17:18:31.639092  6090 net.cpp:411] rpn_cls_score -> rpn_cls_score
I0824 17:18:31.641119  6090 net.cpp:150] Setting up rpn_cls_score
I0824 17:18:31.641137  6090 net.cpp:157] Top shape: 1 18 36 61 (39528)
I0824 17:18:31.641140  6090 net.cpp:165] Memory required for data: 280704372
I0824 17:18:31.641152  6090 layer_factory.hpp:77] Creating layer rpn_cls_score_rpn_cls_score_0_split
I0824 17:18:31.641158  6090 net.cpp:106] Creating Layer rpn_cls_score_rpn_cls_score_0_split
I0824 17:18:31.641162  6090 net.cpp:454] rpn_cls_score_rpn_cls_score_0_split <- rpn_cls_score
I0824 17:18:31.641171  6090 net.cpp:411] rpn_cls_score_rpn_cls_score_0_split -> rpn_cls_score_rpn_cls_score_0_split_0
I0824 17:18:31.641180  6090 net.cpp:411] rpn_cls_score_rpn_cls_score_0_split -> rpn_cls_score_rpn_cls_score_0_split_1
I0824 17:18:31.641250  6090 net.cpp:150] Setting up rpn_cls_score_rpn_cls_score_0_split
I0824 17:18:31.641259  6090 net.cpp:157] Top shape: 1 18 36 61 (39528)
I0824 17:18:31.641263  6090 net.cpp:157] Top shape: 1 18 36 61 (39528)
I0824 17:18:31.641266  6090 net.cpp:165] Memory required for data: 281020596
I0824 17:18:31.641269  6090 layer_factory.hpp:77] Creating layer rpn_bbox_pred
I0824 17:18:31.641283  6090 net.cpp:106] Creating Layer rpn_bbox_pred
I0824 17:18:31.641288  6090 net.cpp:454] rpn_bbox_pred <- rpn/output_rpn_relu/3x3_0_split_1
I0824 17:18:31.641296  6090 net.cpp:411] rpn_bbox_pred -> rpn_bbox_pred
I0824 17:18:31.643170  6090 net.cpp:150] Setting up rpn_bbox_pred
I0824 17:18:31.643187  6090 net.cpp:157] Top shape: 1 36 36 61 (79056)
I0824 17:18:31.643190  6090 net.cpp:165] Memory required for data: 281336820
I0824 17:18:31.643203  6090 layer_factory.hpp:77] Creating layer rpn_bbox_pred_rpn_bbox_pred_0_split
I0824 17:18:31.643213  6090 net.cpp:106] Creating Layer rpn_bbox_pred_rpn_bbox_pred_0_split
I0824 17:18:31.643216  6090 net.cpp:454] rpn_bbox_pred_rpn_bbox_pred_0_split <- rpn_bbox_pred
I0824 17:18:31.643227  6090 net.cpp:411] rpn_bbox_pred_rpn_bbox_pred_0_split -> rpn_bbox_pred_rpn_bbox_pred_0_split_0
I0824 17:18:31.643237  6090 net.cpp:411] rpn_bbox_pred_rpn_bbox_pred_0_split -> rpn_bbox_pred_rpn_bbox_pred_0_split_1
I0824 17:18:31.643314  6090 net.cpp:150] Setting up rpn_bbox_pred_rpn_bbox_pred_0_split
I0824 17:18:31.643322  6090 net.cpp:157] Top shape: 1 36 36 61 (79056)
I0824 17:18:31.643327  6090 net.cpp:157] Top shape: 1 36 36 61 (79056)
I0824 17:18:31.643329  6090 net.cpp:165] Memory required for data: 281969268
I0824 17:18:31.643333  6090 layer_factory.hpp:77] Creating layer rpn_cls_score_reshape
I0824 17:18:31.643344  6090 net.cpp:106] Creating Layer rpn_cls_score_reshape
I0824 17:18:31.643349  6090 net.cpp:454] rpn_cls_score_reshape <- rpn_cls_score_rpn_cls_score_0_split_0
I0824 17:18:31.643355  6090 net.cpp:411] rpn_cls_score_reshape -> rpn_cls_score_reshape
I0824 17:18:31.643400  6090 net.cpp:150] Setting up rpn_cls_score_reshape
I0824 17:18:31.643409  6090 net.cpp:157] Top shape: 1 2 324 61 (39528)
I0824 17:18:31.643411  6090 net.cpp:165] Memory required for data: 282127380
I0824 17:18:31.643414  6090 layer_factory.hpp:77] Creating layer rpn_cls_score_reshape_rpn_cls_score_reshape_0_split
I0824 17:18:31.643420  6090 net.cpp:106] Creating Layer rpn_cls_score_reshape_rpn_cls_score_reshape_0_split
I0824 17:18:31.643425  6090 net.cpp:454] rpn_cls_score_reshape_rpn_cls_score_reshape_0_split <- rpn_cls_score_reshape
I0824 17:18:31.643434  6090 net.cpp:411] rpn_cls_score_reshape_rpn_cls_score_reshape_0_split -> rpn_cls_score_reshape_rpn_cls_score_reshape_0_split_0
I0824 17:18:31.643441  6090 net.cpp:411] rpn_cls_score_reshape_rpn_cls_score_reshape_0_split -> rpn_cls_score_reshape_rpn_cls_score_reshape_0_split_1
I0824 17:18:31.643504  6090 net.cpp:150] Setting up rpn_cls_score_reshape_rpn_cls_score_reshape_0_split
I0824 17:18:31.643512  6090 net.cpp:157] Top shape: 1 2 324 61 (39528)
I0824 17:18:31.643517  6090 net.cpp:157] Top shape: 1 2 324 61 (39528)
I0824 17:18:31.643519  6090 net.cpp:165] Memory required for data: 282443604
I0824 17:18:31.643522  6090 layer_factory.hpp:77] Creating layer rpn-data
I0824 17:18:31.644110  6090 net.cpp:106] Creating Layer rpn-data
I0824 17:18:31.644124  6090 net.cpp:454] rpn-data <- rpn_cls_score_rpn_cls_score_0_split_1
I0824 17:18:31.644131  6090 net.cpp:454] rpn-data <- gt_boxes_input-data_2_split_0
I0824 17:18:31.644139  6090 net.cpp:454] rpn-data <- im_info_input-data_1_split_0
I0824 17:18:31.644143  6090 net.cpp:454] rpn-data <- data_input-data_0_split_1
I0824 17:18:31.644150  6090 net.cpp:411] rpn-data -> rpn_labels
I0824 17:18:31.644170  6090 net.cpp:411] rpn-data -> rpn_bbox_targets
I0824 17:18:31.644181  6090 net.cpp:411] rpn-data -> rpn_bbox_inside_weights
I0824 17:18:31.644192  6090 net.cpp:411] rpn-data -> rpn_bbox_outside_weights
I0824 17:18:31.647091  6090 net.cpp:150] Setting up rpn-data
I0824 17:18:31.647111  6090 net.cpp:157] Top shape: 1 1 324 61 (19764)
I0824 17:18:31.647116  6090 net.cpp:157] Top shape: 1 36 36 61 (79056)
I0824 17:18:31.647120  6090 net.cpp:157] Top shape: 1 36 36 61 (79056)
I0824 17:18:31.647125  6090 net.cpp:157] Top shape: 1 36 36 61 (79056)
I0824 17:18:31.647126  6090 net.cpp:165] Memory required for data: 283471332
I0824 17:18:31.647130  6090 layer_factory.hpp:77] Creating layer rpn_loss_cls
I0824 17:18:31.647140  6090 net.cpp:106] Creating Layer rpn_loss_cls
I0824 17:18:31.647146  6090 net.cpp:454] rpn_loss_cls <- rpn_cls_score_reshape_rpn_cls_score_reshape_0_split_0
I0824 17:18:31.647151  6090 net.cpp:454] rpn_loss_cls <- rpn_labels
…
I0824 17:18:31.648910  6090 net.cpp:157] Top shape: (1)
I0824 17:18:31.648912  6090 net.cpp:160]     with loss weight 1
I0824 17:18:31.648921  6090 net.cpp:165] Memory required for data: 283471340
I0824 17:18:31.648924  6090 layer_factory.hpp:77] Creating layer rpn_cls_prob
I0824 17:18:31.648933  6090 net.cpp:106] Creating Layer rpn_cls_prob
I0824 17:18:31.648936  6090 net.cpp:454] rpn_cls_prob <- rpn_cls_score_reshape_rpn_cls_score_reshape_0_split_1
I0824 17:18:31.648942  6090 net.cpp:411] rpn_cls_prob -> rpn_cls_prob
I0824 17:18:31.649281  6090 net.cpp:150] Setting up rpn_cls_prob
I0824 17:18:31.649292  6090 net.cpp:157] Top shape: 1 2 324 61 (39528)
I0824 17:18:31.649296  6090 net.cpp:165] Memory required for data: 283629452
I0824 17:18:31.649299  6090 layer_factory.hpp:77] Creating layer rpn_cls_prob_reshape
I0824 17:18:31.649320  6090 net.cpp:106] Creating Layer rpn_cls_prob_reshape
I0824 17:18:31.649327  6090 net.cpp:454] rpn_cls_prob_reshape <- rpn_cls_prob
I0824 17:18:31.649333  6090 net.cpp:411] rpn_cls_prob_reshape -> rpn_cls_prob_reshape
I0824 17:18:31.649381  6090 net.cpp:150] Setting up rpn_cls_prob_reshape
I0824 17:18:31.649389  6090 net.cpp:157] Top shape: 1 18 36 61 (39528)
I0824 17:18:31.649392  6090 net.cpp:165] Memory required for data: 283787564
I0824 17:18:31.649395  6090 layer_factory.hpp:77] Creating layer proposal
I0824 17:18:31.661819  6090 net.cpp:106] Creating Layer proposal
I0824 17:18:31.661859  6090 net.cpp:454] proposal <- rpn_cls_prob_reshape
I0824 17:18:31.661867  6090 net.cpp:454] proposal <- rpn_bbox_pred_rpn_bbox_pred_0_split_1
I0824 17:18:31.661872  6090 net.cpp:454] proposal <- im_info_input-data_1_split_1
I0824 17:18:31.661883  6090 net.cpp:411] proposal -> rpn_rois
I0824 17:18:31.667510  6090 net.cpp:150] Setting up proposal
I0824 17:18:31.667537  6090 net.cpp:157] Top shape: 1 5 (5)
I0824 17:18:31.667541  6090 net.cpp:165] Memory required for data: 283787584
I0824 17:18:31.667546  6090 layer_factory.hpp:77] Creating layer roi-data
I0824 17:18:31.667784  6090 net.cpp:106] Creating Layer roi-data
I0824 17:18:31.667798  6090 net.cpp:454] roi-data <- rpn_rois
I0824 17:18:31.667805  6090 net.cpp:454] roi-data <- gt_boxes_input-data_2_split_1
I0824 17:18:31.667816  6090 net.cpp:411] roi-data -> rois
I0824 17:18:31.667829  6090 net.cpp:411] roi-data -> labels
I0824 17:18:31.667840  6090 net.cpp:411] roi-data -> bbox_targets
I0824 17:18:31.667850  6090 net.cpp:411] roi-data -> bbox_inside_weights
I0824 17:18:31.667860  6090 net.cpp:411] roi-data -> bbox_outside_weights
I0824 17:18:31.667870  6090 net.cpp:411] roi-data -> key_targets
I0824 17:18:31.667878  6090 net.cpp:411] roi-data -> key_inside_weights
I0824 17:18:31.668522  6090 net.cpp:150] Setting up roi-data
I0824 17:18:31.668539  6090 net.cpp:157] Top shape: 1 5 (5)
I0824 17:18:31.668545  6090 net.cpp:157] Top shape: 1 1 (1)
I0824 17:18:31.668548  6090 net.cpp:157] Top shape: 1 84 (84)
I0824 17:18:31.668551  6090 net.cpp:157] Top shape: 1 84 (84)
I0824 17:18:31.668555  6090 net.cpp:157] Top shape: 1 84 (84)
I0824 17:18:31.668558  6090 net.cpp:157] Top shape: 1 84 (84)
I0824 17:18:31.668561  6090 net.cpp:157] Top shape: 1 84 (84)
I0824 17:18:31.668565  6090 net.cpp:165] Memory required for data: 283789288
I0824 17:18:31.668567  6090 layer_factory.hpp:77] Creating layer bbox_outside_weights_roi-data_4_split
I0824 17:18:31.668576  6090 net.cpp:106] Creating Layer bbox_outside_weights_roi-data_4_split
I0824 17:18:31.668581  6090 net.cpp:454] bbox_outside_weights_roi-data_4_split <- bbox_outside_weights
I0824 17:18:31.668589  6090 net.cpp:411] bbox_outside_weights_roi-data_4_split -> bbox_outside_weights_roi-data_4_split_0
I0824 17:18:31.668601  6090 net.cpp:411] bbox_outside_weights_roi-data_4_split -> bbox_outside_weights_roi-data_4_split_1
I0824 17:18:31.668666  6090 net.cpp:150] Setting up bbox_outside_weights_roi-data_4_split
I0824 17:18:31.668674  6090 net.cpp:157] Top shape: 1 84 (84)
I0824 17:18:31.668678  6090 net.cpp:157] Top shape: 1 84 (84)
I0824 17:18:31.668681  6090 net.cpp:165] Memory required for data: 283789960
I0824 17:18:31.668684  6090 layer_factory.hpp:77] Creating layer roi_pool5
I0824 17:18:31.668692  6090 net.cpp:106] Creating Layer roi_pool5
I0824 17:18:31.668697  6090 net.cpp:454] roi_pool5 <- conv5_relu5_0_split_1
I0824 17:18:31.668702  6090 net.cpp:454] roi_pool5 <- rois
I0824 17:18:31.668709  6090 net.cpp:411] roi_pool5 -> pool5
I0824 17:18:31.668716  6090 roi_pooling_layer.cpp:30] Spatial scale: 0.0625
I0824 17:18:31.668793  6090 net.cpp:150] Setting up roi_pool5
I0824 17:18:31.668803  6090 net.cpp:157] Top shape: 1 512 6 6 (18432)
I0824 17:18:31.668807  6090 net.cpp:165] Memory required for data: 283863688
I0824 17:18:31.668809  6090 layer_factory.hpp:77] Creating layer fc6
I0824 17:18:31.668817  6090 net.cpp:106] Creating Layer fc6
I0824 17:18:31.668820  6090 net.cpp:454] fc6 <- pool5
I0824 17:18:31.668828  6090 net.cpp:411] fc6 -> fc6
I0824 17:18:32.075757  6090 net.cpp:150] Setting up fc6
I0824 17:18:32.075812  6090 net.cpp:157] Top shape: 1 4096 (4096)
I0824 17:18:32.075815  6090 net.cpp:165] Memory required for data: 283880072
I0824 17:18:32.075834  6090 layer_factory.hpp:77] Creating layer relu6
I0824 17:18:32.075846  6090 net.cpp:106] Creating Layer relu6
I0824 17:18:32.075850  6090 net.cpp:454] relu6 <- fc6
I0824 17:18:32.075857  6090 net.cpp:397] relu6 -> fc6 (in-place)
I0824 17:18:32.076781  6090 net.cpp:150] Setting up relu6
I0824 17:18:32.076800  6090 net.cpp:157] Top shape: 1 4096 (4096)
I0824 17:18:32.076803  6090 net.cpp:165] Memory required for data: 283896456
I0824 17:18:32.076807  6090 layer_factory.hpp:77] Creating layer drop6
I0824 17:18:32.076814  6090 net.cpp:106] Creating Layer drop6
I0824 17:18:32.076818  6090 net.cpp:454] drop6 <- fc6
I0824 17:18:32.076825  6090 net.cpp:397] drop6 -> fc6 (in-place)
I0824 17:18:32.076879  6090 net.cpp:150] Setting up drop6
I0824 17:18:32.076887  6090 net.cpp:157] Top shape: 1 4096 (4096)
I0824 17:18:32.076889  6090 net.cpp:165] Memory required for data: 283912840
I0824 17:18:32.076894  6090 layer_factory.hpp:77] Creating layer fc7
I0824 17:18:32.076900  6090 net.cpp:106] Creating Layer fc7
I0824 17:18:32.076905  6090 net.cpp:454] fc7 <- fc6
I0824 17:18:32.076911  6090 net.cpp:411] fc7 -> fc7
I0824 17:18:32.100549  6090 net.cpp:150] Setting up fc7
I0824 17:18:32.100605  6090 net.cpp:157] Top shape: 1 1024 (1024)
I0824 17:18:32.100608  6090 net.cpp:165] Memory required for data: 283916936
I0824 17:18:32.100618  6090 layer_factory.hpp:77] Creating layer relu7
I0824 17:18:32.100630  6090 net.cpp:106] Creating Layer relu7
I0824 17:18:32.100635  6090 net.cpp:454] relu7 <- fc7
I0824 17:18:32.100641  6090 net.cpp:397] relu7 -> fc7 (in-place)
I0824 17:18:32.100931  6090 net.cpp:150] Setting up relu7
I0824 17:18:32.100944  6090 net.cpp:157] Top shape: 1 1024 (1024)
I0824 17:18:32.100947  6090 net.cpp:165] Memory required for data: 283921032
I0824 17:18:32.100950  6090 layer_factory.hpp:77] Creating layer drop7
I0824 17:18:32.100958  6090 net.cpp:106] Creating Layer drop7
I0824 17:18:32.100962  6090 net.cpp:454] drop7 <- fc7
I0824 17:18:32.100968  6090 net.cpp:397] drop7 -> fc7 (in-place)
I0824 17:18:32.101022  6090 net.cpp:150] Setting up drop7
I0824 17:18:32.101029  6090 net.cpp:157] Top shape: 1 1024 (1024)
I0824 17:18:32.101032  6090 net.cpp:165] Memory required for data: 283925128
I0824 17:18:32.101034  6090 layer_factory.hpp:77] Creating layer fc7_drop7_0_split
I0824 17:18:32.101042  6090 net.cpp:106] Creating Layer fc7_drop7_0_split
I0824 17:18:32.101044  6090 net.cpp:454] fc7_drop7_0_split <- fc7
I0824 17:18:32.101050  6090 net.cpp:411] fc7_drop7_0_split -> fc7_drop7_0_split_0
I0824 17:18:32.101059  6090 net.cpp:411] fc7_drop7_0_split -> fc7_drop7_0_split_1
I0824 17:18:32.101068  6090 net.cpp:411] fc7_drop7_0_split -> fc7_drop7_0_split_2
I0824 17:18:32.101163  6090 net.cpp:150] Setting up fc7_drop7_0_split
I0824 17:18:32.101171  6090 net.cpp:157] Top shape: 1 1024 (1024)
I0824 17:18:32.101174  6090 net.cpp:157] Top shape: 1 1024 (1024)
I0824 17:18:32.101177  6090 net.cpp:157] Top shape: 1 1024 (1024)
I0824 17:18:32.101181  6090 net.cpp:165] Memory required for data: 283937416
I0824 17:18:32.101182  6090 layer_factory.hpp:77] Creating layer cls_score
I0824 17:18:32.101192  6090 net.cpp:106] Creating Layer cls_score
I0824 17:18:32.101197  6090 net.cpp:454] cls_score <- fc7_drop7_0_split_0
I0824 17:18:32.101203  6090 net.cpp:411] cls_score -> cls_score
I0824 17:18:32.101661  6090 net.cpp:150] Setting up cls_score
I0824 17:18:32.101670  6090 net.cpp:157] Top shape: 1 21 (21)
I0824 17:18:32.101672  6090 net.cpp:165] Memory required for data: 283937500
I0824 17:18:32.101678  6090 layer_factory.hpp:77] Creating layer bbox_pred
I0824 17:18:32.101686  6090 net.cpp:106] Creating Layer bbox_pred
I0824 17:18:32.101689  6090 net.cpp:454] bbox_pred <- fc7_drop7_0_split_1
I0824 17:18:32.101696  6090 net.cpp:411] bbox_pred -> bbox_pred
I0824 17:18:32.104739  6090 net.cpp:150] Setting up bbox_pred
I0824 17:18:32.104776  6090 net.cpp:157] Top shape: 1 84 (84)
I0824 17:18:32.104779  6090 net.cpp:165] Memory required for data: 283937836
I0824 17:18:32.104787  6090 layer_factory.hpp:77] Creating layer key_pred
I0824 17:18:32.104797  6090 net.cpp:106] Creating Layer key_pred
I0824 17:18:32.104801  6090 net.cpp:454] key_pred <- fc7_drop7_0_split_2
I0824 17:18:32.104809  6090 net.cpp:411] key_pred -> key_pred
I0824 17:18:32.105974  6090 net.cpp:150] Setting up key_pred
I0824 17:18:32.105988  6090 net.cpp:157] Top shape: 1 84 (84)
I0824 17:18:32.106003  6090 net.cpp:165] Memory required for data: 283938172
I0824 17:18:32.106009  6090 layer_factory.hpp:77] Creating layer loss_cls
I0824 17:18:32.106016  6090 net.cpp:106] Creating Layer loss_cls
I0824 17:18:32.106020  6090 net.cpp:454] loss_cls <- cls_score
I0824 17:18:32.106025  6090 net.cpp:454] loss_cls <- labels
I0824 17:18:32.106030  6090 net.cpp:411] loss_cls -> loss_cls
…
           'RPN_POST_NMS_TOP_N': 2000,
           'RPN_PRE_NMS_TOP_N': 12000,
           'SCALES': [600],
           'SNAPSHOT_INFIX': '',
           'SNAPSHOT_ITERS': 10000,
           'USE_FLIPPED': True,
           'USE_PREFETCH': False},
 'USE_GPU_NMS': True}
WARNING: Logging before InitGoogleLogging() is written to STDERR
I0824 19:08:10.829952 11638 net.cpp:49] Initializing net from parameters: 
name: "VGG_CNN_M_1024"
input: "data"
input: "im_info"
state {
  phase: TEST
}
input_shape {
  dim: 1
  dim: 3
  dim: 224
  dim: 224
}
input_shape {
  dim: 1
  dim: 3
}
layer {
  name: "conv1"
  type: "Convolution"
  bottom: "data"
  top: "conv1"
  param {
    lr_mult: 0
    decay_mult: 0
  }
  param {
    lr_mult: 0
    decay_mult: 0
  }
  convolution_param {
    num_output: 96
    kernel_size: 7
    stride: 2
  }
}
layer {
  name: "relu1"
  type: "ReLU"
  bottom: "conv1"
  top: "conv1"
}
layer {
  name: "norm1"
  type: "LRN"
  bottom: "conv1"
  top: "norm1"
  lrn_param {
    local_size: 5
    alpha: 0.0005
    beta: 0.75
    k: 2
  }
}
layer {
  name: "pool1"
  type: "Pooling"
  bottom: "norm1"
  top: "pool1"
  pooling_param {
    pool: MAX
    kernel_size: 3
    stride: 2
  }
}
layer {
  name: "conv2"
  type: "Convolution"
  bottom: "pool1"
  top: "conv2"
  param {
    lr_mult: 1
    decay_mult: 1
  }
  param {
    lr_mult: 2
    decay_mult: 0
  }
  convolution_param {
    num_output: 256
    pad: 1
    kernel_size: 5
    stride: 2
  }
}
layer {
  name: "relu2"
  type: "ReLU"
  bottom: "conv2"
  top: "conv2"
}
layer {
  name: "norm2"
  type: "LRN"
  bottom: "conv2"
  top: "norm2"
  lrn_param {
    local_size: 5
    alpha: 0.0005
    beta: 0.75
    k: 2
  }
}
layer {
  name: "pool2"
  type: "Pooling"
  bottom: "norm2"
  top: "pool2"
  pooling_param {
    pool: MAX
    kernel_size: 3
    stride: 2
  }
}
layer {
  name: "conv3"
  type: "Convolution"
  bottom: "pool2"
  top: "conv3"
  param {
    lr_mult: 1
    decay_mult: 1
  }
  param {
    lr_mult: 2
    decay_mult: 0
  }
  convolution_param {
    num_output: 512
    pad: 1
    kernel_size: 3
  }
}
layer {
  name: "relu3"
  type: "ReLU"
  bottom: "conv3"
  top: "conv3"
}
layer {
  name: "conv4"
  type: "Convolution"
  bottom: "conv3"
  top: "conv4"
  param {
    lr_mult: 1
    decay_mult: 1
  }
  param {
    lr_mult: 2
    decay_mult: 0
  }
  convolution_param {
    num_output: 512
    pad: 1
    kernel_size: 3
  }
}
layer {
  name: "relu4"
  type: "ReLU"
  bottom: "conv4"
  top: "conv4"
}
layer {
  name: "conv5"
  type: "Convolution"
  bottom: "conv4"
  top: "conv5"
  param {
    lr_mult: 1
    decay_mult: 1
  }
  param {
    lr_mult: 2
    decay_mult: 0
  }
  convolution_param {
    num_output: 512
    pad: 1
    kernel_size: 3
  }
}
layer {
  name: "relu5"
  type: "ReLU"
  bottom: "conv5"
  top: "conv5"
}
layer {
  name: "rpn_conv/3x3"
  type: "Convolution"
  bottom: "conv5"
  top: "rpn/output"
  param {
    lr_mult: 1
    decay_mult: 1
  }
  param {
    lr_mult: 2
    decay_mult: 0
  }
  convolution_param {
    num_output: 256
    pad: 1
    kernel_size: 3
    stride: 1
    weight_filler {
      type: "gaussian"
      std: 0.01
    }
    bias_filler {
      type: "constant"
      value: 0
    }
  }
}
layer {
  name: "rpn_relu/3x3"
  type: "ReLU"
  bottom: "rpn/output"
  top: "rpn/output"
}
layer {
  name: "rpn_cls_score"
  type: "Convolution"
  bottom: "rpn/output"
  top: "rpn_cls_score"
  param {
    lr_mult: 1
    decay_mult: 1
  }
  param {
    lr_mult: 2
    decay_mult: 0
  }
  convolution_param {
    num_output: 18
    pad: 0
    kernel_size: 1
    stride: 1
    weight_filler {
      type: "gaussian"
      std: 0.01
    }
    bias_filler {
      type: "constant"
      value: 0
    }
  }
}
layer {
  name: "rpn_bbox_pred"
  type: "Convolution"
  bottom: "rpn/output"
  top: "rpn_bbox_pred"
  param {
    lr_mult: 1
    decay_mult: 1
  }
  param {
    lr_mult: 2
    decay_mult: 0
  }
  convolution_param {
    num_output: 36
    pad: 0
    kernel_size: 1
    stride: 1
    weight_filler {
      type: "gaussian"
      std: 0.01
    }
    bias_filler {
      type: "constant"
      value: 0
    }
  }
}
layer {
  name: "rpn_cls_score_reshape"
  type: "Reshape"
  bottom: "rpn_cls_score"
  top: "rpn_cls_score_reshape"
  reshape_param {
    shape {
      dim: 0
      dim: 2
      dim: -1
      dim: 0
    }
  }
}
layer {
  name: "rpn_cls_prob"
  type: "Softmax"
  bottom: "rpn_cls_score_reshape"
  top: "rpn_cls_prob"
}
layer {
  name: "rpn_cls_prob_reshape"
  type: "Reshape"
  bottom: "rpn_cls_prob"
  top: "rpn_cls_prob_reshape"
  reshape_param {
    shape {
      dim: 0
      dim: 18
      dim: -1
      dim: 0
    }
  }
}
layer {
  name: "proposal"
  type: "Python"
  bottom: "rpn_cls_prob_reshape"
  bottom: "rpn_bbox_pred"
  bottom: "im_info"
  top: "rois"
  python_param {
    module: "rpn.proposal_layer"
    layer: "ProposalLayer"
    param_str: "\'feat_stride\': 16"
  }
}
layer {
  name: "roi_pool5"
  type: "ROIPooling"
  bottom: "conv5"
  bottom: "rois"
  top: "pool5"
  roi_pooling_param {
    pooled_h: 6
    pooled_w: 6
    spatial_scale: 0.0625
  }
}
layer {
  name: "fc6"
  type: "InnerProduct"
  bottom: "pool5"
  top: "fc6"
  param {
    lr_mult: 1
    decay_mult: 1
  }
  param {
    lr_mult: 2
    decay_mult: 0
  }
  inner_product_param {
    num_output: 4096
  }
}
layer {
  name: "relu6"
  type: "ReLU"
  bottom: "fc6"
  top: "fc6"
}
layer {
  name: "drop6"
  type: "Dropout"
  bottom: "fc6"
  top: "fc6"
  dropout_param {
    dropout_ratio: 0.5
  }
}
layer {
  name: "fc7"
  type: "InnerProduct"
  bottom: "fc6"
  top: "fc7"
  param {
    lr_mult: 1
    decay_mult: 1
  }
  param {
    lr_mult: 2
    decay_mult: 0
  }
  inner_product_param {
    num_output: 1024
  }
}
layer {
  name: "relu7"
  type: "ReLU"
  bottom: "fc7"
  top: "fc7"
}
layer {
  name: "drop7"
  type: "Dropout"
  bottom: "fc7"
  top: "fc7"
  dropout_param {
    dropout_ratio: 0.5
  }
}
layer {
  name: "cls_score"
  type: "InnerProduct"
  bottom: "fc7"
  top: "cls_score"
  param {
    lr_mult: 1
    decay_mult: 1
  }
  param {
    lr_mult: 2
    decay_mult: 0
  }
  inner_product_param {
    num_output: 21
    weight_filler {
      type: "gaussian"
      std: 0.01
    }
    bias_filler {
      type: "constant"
      value: 0
    }
  }
}
layer {
  name: "bbox_pred"
  type: "InnerProduct"
  bottom: "fc7"
  top: "bbox_pred"
  param {
    lr_mult: 1
    decay_mult: 1
  }
  param {
    lr_mult: 2
    decay_mult: 0
  }
  inner_product_param {
    num_output: 84
    weight_filler {
      type: "gaussian"
      std: 0.001
    }
    bias_filler {
      type: "constant"
      value: 0
    }
  }
}
layer {
  name: "key_pred"
  type: "InnerProduct"
  bottom: "fc7"
  top: "key_pred"
  param {
    lr_mult: 1
  }
  param {
    lr_mult: 2
  }
  inner_product_param {
    num_output: 84
    weight_filler {
      type: "gaussian"
      std: 0.001
    }
    bias_filler {
      type: "constant"
      value: 0
    }
  }
}
layer {
  name: "cls_prob"
  type: "Softmax"
  bottom: "cls_score"
  top: "cls_prob"
}
I0824 19:08:10.830229 11638 net.cpp:413] Input 0 -> data
I0824 19:08:10.854552 11638 net.cpp:413] Input 1 -> im_info
I0824 19:08:10.854645 11638 layer_factory.hpp:77] Creating layer conv1
I0824 19:08:10.854677 11638 net.cpp:106] Creating Layer conv1
I0824 19:08:10.854684 11638 net.cpp:454] conv1 <- data
I0824 19:08:10.854693 11638 net.cpp:411] conv1 -> conv1
I0824 19:08:11.107684 11638 net.cpp:150] Setting up conv1
I0824 19:08:11.107722 11638 net.cpp:157] Top shape: 1 96 109 109 (1140576)
I0824 19:08:11.107727 11638 net.cpp:165] Memory required for data: 4562304
I0824 19:08:11.107746 11638 layer_factory.hpp:77] Creating layer relu1
I0824 19:08:11.107760 11638 net.cpp:106] Creating Layer relu1
I0824 19:08:11.107765 11638 net.cpp:454] relu1 <- conv1
I0824 19:08:11.107772 11638 net.cpp:397] relu1 -> conv1 (in-place)
I0824 19:08:11.108300 11638 net.cpp:150] Setting up relu1
I0824 19:08:11.108314 11638 net.cpp:157] Top shape: 1 96 109 109 (1140576)
I0824 19:08:11.108317 11638 net.cpp:165] Memory required for data: 9124608
I0824 19:08:11.108320 11638 layer_factory.hpp:77] Creating layer norm1
I0824 19:08:11.108331 11638 net.cpp:106] Creating Layer norm1
I0824 19:08:11.108335 11638 net.cpp:454] norm1 <- conv1
I0824 19:08:11.108342 11638 net.cpp:411] norm1 -> norm1
I0824 19:08:11.108597 11638 net.cpp:150] Setting up norm1
I0824 19:08:11.108606 11638 net.cpp:157] Top shape: 1 96 109 109 (1140576)
I0824 19:08:11.108609 11638 net.cpp:165] Memory required for data: 13686912
I0824 19:08:11.108613 11638 layer_factory.hpp:77] Creating layer pool1
I0824 19:08:11.108623 11638 net.cpp:106] Creating Layer pool1
I0824 19:08:11.108625 11638 net.cpp:454] pool1 <- norm1
I0824 19:08:11.108631 11638 net.cpp:411] pool1 -> pool1
I0824 19:08:11.108695 11638 net.cpp:150] Setting up pool1
I0824 19:08:11.108701 11638 net.cpp:157] Top shape: 1 96 54 54 (279936)
I0824 19:08:11.108705 11638 net.cpp:165] Memory required for data: 14806656
I0824 19:08:11.108707 11638 layer_factory.hpp:77] Creating layer conv2
I0824 19:08:11.108721 11638 net.cpp:106] Creating Layer conv2
I0824 19:08:11.108723 11638 net.cpp:454] conv2 <- pool1
I0824 19:08:11.108729 11638 net.cpp:411] conv2 -> conv2
I0824 19:08:11.115860 11638 net.cpp:150] Setting up conv2
I0824 19:08:11.115875 11638 net.cpp:157] Top shape: 1 256 26 26 (173056)
I0824 19:08:11.115880 11638 net.cpp:165] Memory required for data: 15498880
I0824 19:08:11.115890 11638 layer_factory.hpp:77] Creating layer relu2
I0824 19:08:11.115896 11638 net.cpp:106] Creating Layer relu2
I0824 19:08:11.115900 11638 net.cpp:454] relu2 <- conv2
I0824 19:08:11.115906 11638 net.cpp:397] relu2 -> conv2 (in-place)
I0824 19:08:11.116410 11638 net.cpp:150] Setting up relu2
I0824 19:08:11.116422 11638 net.cpp:157] Top shape: 1 256 26 26 (173056)
I0824 19:08:11.116426 11638 net.cpp:165] Memory required for data: 16191104
I0824 19:08:11.116430 11638 layer_factory.hpp:77] Creating layer norm2
I0824 19:08:11.116437 11638 net.cpp:106] Creating Layer norm2
I0824 19:08:11.116441 11638 net.cpp:454] norm2 <- conv2
I0824 19:08:11.116447 11638 net.cpp:411] norm2 -> norm2
I0824 19:08:11.116691 11638 net.cpp:150] Setting up norm2
I0824 19:08:11.116701 11638 net.cpp:157] Top shape: 1 256 26 26 (173056)
I0824 19:08:11.116704 11638 net.cpp:165] Memory required for data: 16883328
I0824 19:08:11.116708 11638 layer_factory.hpp:77] Creating layer pool2
I0824 19:08:11.116714 11638 net.cpp:106] Creating Layer pool2
I0824 19:08:11.116717 11638 net.cpp:454] pool2 <- norm2
I0824 19:08:11.116724 11638 net.cpp:411] pool2 -> pool2
I0824 19:08:11.116782 11638 net.cpp:150] Setting up pool2
I0824 19:08:11.116788 11638 net.cpp:157] Top shape: 1 256 13 13 (43264)
I0824 19:08:11.116791 11638 net.cpp:165] Memory required for data: 17056384
I0824 19:08:11.116796 11638 layer_factory.hpp:77] Creating layer conv3
I0824 19:08:11.116804 11638 net.cpp:106] Creating Layer conv3
I0824 19:08:11.116808 11638 net.cpp:454] conv3 <- pool2
I0824 19:08:11.116813 11638 net.cpp:411] conv3 -> conv3
I0824 19:08:11.124863 11638 net.cpp:150] Setting up conv3
I0824 19:08:11.124878 11638 net.cpp:157] Top shape: 1 512 13 13 (86528)
I0824 19:08:11.124882 11638 net.cpp:165] Memory required for data: 17402496
I0824 19:08:11.124894 11638 layer_factory.hpp:77] Creating layer relu3
I0824 19:08:11.124902 11638 net.cpp:106] Creating Layer relu3
I0824 19:08:11.124904 11638 net.cpp:454] relu3 <- conv3
I0824 19:08:11.124910 11638 net.cpp:397] relu3 -> conv3 (in-place)
I0824 19:08:11.125111 11638 net.cpp:150] Setting up relu3
I0824 19:08:11.125120 11638 net.cpp:157] Top shape: 1 512 13 13 (86528)
I0824 19:08:11.125123 11638 net.cpp:165] Memory required for data: 17748608
I0824 19:08:11.125128 11638 layer_factory.hpp:77] Creating layer conv4
I0824 19:08:11.125136 11638 net.cpp:106] Creating Layer conv4
I0824 19:08:11.125140 11638 net.cpp:454] conv4 <- conv3
I0824 19:08:11.125145 11638 net.cpp:411] conv4 -> conv4
I0824 19:08:11.139116 11638 net.cpp:150] Setting up conv4
I0824 19:08:11.139135 11638 net.cpp:157] Top shape: 1 512 13 13 (86528)
I0824 19:08:11.139139 11638 net.cpp:165] Memory required for data: 18094720
I0824 19:08:11.139147 11638 layer_factory.hpp:77] Creating layer relu4
I0824 19:08:11.139154 11638 net.cpp:106] Creating Layer relu4
I0824 19:08:11.139158 11638 net.cpp:454] relu4 <- conv4
I0824 19:08:11.139164 11638 net.cpp:397] relu4 -> conv4 (in-place)
I0824 19:08:11.139688 11638 net.cpp:150] Setting up relu4
I0824 19:08:11.139701 11638 net.cpp:157] Top shape: 1 512 13 13 (86528)
I0824 19:08:11.139704 11638 net.cpp:165] Memory required for data: 18440832
I0824 19:08:11.139708 11638 layer_factory.hpp:77] Creating layer conv5
I0824 19:08:11.139719 11638 net.cpp:106] Creating Layer conv5
I0824 19:08:11.139722 11638 net.cpp:454] conv5 <- conv4
I0824 19:08:11.139729 11638 net.cpp:411] conv5 -> conv5
I0824 19:08:11.155221 11638 net.cpp:150] Setting up conv5
I0824 19:08:11.155256 11638 net.cpp:157] Top shape: 1 512 13 13 (86528)
I0824 19:08:11.155259 11638 net.cpp:165] Memory required for data: 18786944
I0824 19:08:11.155278 11638 layer_factory.hpp:77] Creating layer relu5
I0824 19:08:11.155288 11638 net.cpp:106] Creating Layer relu5
I0824 19:08:11.155293 11638 net.cpp:454] relu5 <- conv5
I0824 19:08:11.155300 11638 net.cpp:397] relu5 -> conv5 (in-place)
I0824 19:08:11.155515 11638 net.cpp:150] Setting up relu5
I0824 19:08:11.155524 11638 net.cpp:157] Top shape: 1 512 13 13 (86528)
I0824 19:08:11.155527 11638 net.cpp:165] Memory required for data: 19133056
I0824 19:08:11.155531 11638 layer_factory.hpp:77] Creating layer conv5_relu5_0_split
I0824 19:08:11.155539 11638 net.cpp:106] Creating Layer conv5_relu5_0_split
I0824 19:08:11.155541 11638 net.cpp:454] conv5_relu5_0_split <- conv5
I0824 19:08:11.155547 11638 net.cpp:411] conv5_relu5_0_split -> conv5_relu5_0_split_0
I0824 19:08:11.155556 11638 net.cpp:411] conv5_relu5_0_split -> conv5_relu5_0_split_1
I0824 19:08:11.155632 11638 net.cpp:150] Setting up conv5_relu5_0_split
I0824 19:08:11.155637 11638 net.cpp:157] Top shape: 1 512 13 13 (86528)
I0824 19:08:11.155642 11638 net.cpp:157] Top shape: 1 512 13 13 (86528)
I0824 19:08:11.155644 11638 net.cpp:165] Memory required for data: 19825280
I0824 19:08:11.155648 11638 layer_factory.hpp:77] Creating layer rpn_conv/3x3
I0824 19:08:11.155661 11638 net.cpp:106] Creating Layer rpn_conv/3x3
I0824 19:08:11.155665 11638 net.cpp:454] rpn_conv/3x3 <- conv5_relu5_0_split_0
I0824 19:08:11.155673 11638 net.cpp:411] rpn_conv/3x3 -> rpn/output
I0824 19:08:11.177536 11638 net.cpp:150] Setting up rpn_conv/3x3
I0824 19:08:11.177551 11638 net.cpp:157] Top shape: 1 256 13 13 (43264)
I0824 19:08:11.177554 11638 net.cpp:165] Memory required for data: 19998336
I0824 19:08:11.177561 11638 layer_factory.hpp:77] Creating layer rpn_relu/3x3
I0824 19:08:11.177574 11638 net.cpp:106] Creating Layer rpn_relu/3x3
I0824 19:08:11.177577 11638 net.cpp:454] rpn_relu/3x3 <- rpn/output
I0824 19:08:11.177583 11638 net.cpp:397] rpn_relu/3x3 -> rpn/output (in-place)
I0824 19:08:11.178095 11638 net.cpp:150] Setting up rpn_relu/3x3
I0824 19:08:11.178109 11638 net.cpp:157] Top shape: 1 256 13 13 (43264)
I0824 19:08:11.178113 11638 net.cpp:165] Memory required for data: 20171392
I0824 19:08:11.178117 11638 layer_factory.hpp:77] Creating layer rpn/output_rpn_relu/3x3_0_split
I0824 19:08:11.178123 11638 net.cpp:106] Creating Layer rpn/output_rpn_relu/3x3_0_split
I0824 19:08:11.178128 11638 net.cpp:454] rpn/output_rpn_relu/3x3_0_split <- rpn/output
I0824 19:08:11.178133 11638 net.cpp:411] rpn/output_rpn_relu/3x3_0_split -> rpn/output_rpn_relu/3x3_0_split_0
I0824 19:08:11.178146 11638 net.cpp:411] rpn/output_rpn_relu/3x3_0_split -> rpn/output_rpn_relu/3x3_0_split_1
I0824 19:08:11.178223 11638 net.cpp:150] Setting up rpn/output_rpn_relu/3x3_0_split
I0824 19:08:11.178231 11638 net.cpp:157] Top shape: 1 256 13 13 (43264)
I0824 19:08:11.178234 11638 net.cpp:157] Top shape: 1 256 13 13 (43264)
I0824 19:08:11.178236 11638 net.cpp:165] Memory required for data: 20517504
I0824 19:08:11.178239 11638 layer_factory.hpp:77] Creating layer rpn_cls_score
I0824 19:08:11.178252 11638 net.cpp:106] Creating Layer rpn_cls_score
I0824 19:08:11.178256 11638 net.cpp:454] rpn_cls_score <- rpn/output_rpn_relu/3x3_0_split_0
I0824 19:08:11.178264 11638 net.cpp:411] rpn_cls_score -> rpn_cls_score
I0824 19:08:11.180392 11638 net.cpp:150] Setting up rpn_cls_score
I0824 19:08:11.180407 11638 net.cpp:157] Top shape: 1 18 13 13 (3042)
I0824 19:08:11.180410 11638 net.cpp:165] Memory required for data: 20529672
I0824 19:08:11.180418 11638 layer_factory.hpp:77] Creating layer rpn_bbox_pred
I0824 19:08:11.180433 11638 net.cpp:106] Creating Layer rpn_bbox_pred
I0824 19:08:11.180436 11638 net.cpp:454] rpn_bbox_pred <- rpn/output_rpn_relu/3x3_0_split_1
I0824 19:08:11.180444 11638 net.cpp:411] rpn_bbox_pred -> rpn_bbox_pred
I0824 19:08:11.182302 11638 net.cpp:150] Setting up rpn_bbox_pred
I0824 19:08:11.182314 11638 net.cpp:157] Top shape: 1 36 13 13 (6084)
I0824 19:08:11.182318 11638 net.cpp:165] Memory required for data: 20554008
I0824 19:08:11.182325 11638 layer_factory.hpp:77] Creating layer rpn_cls_score_reshape
I0824 19:08:11.182334 11638 net.cpp:106] Creating Layer rpn_cls_score_reshape
I0824 19:08:11.182338 11638 net.cpp:454] rpn_cls_score_reshape <- rpn_cls_score
I0824 19:08:11.182346 11638 net.cpp:411] rpn_cls_score_reshape -> rpn_cls_score_reshape
I0824 19:08:11.182394 11638 net.cpp:150] Setting up rpn_cls_score_reshape
I0824 19:08:11.182401 11638 net.cpp:157] Top shape: 1 2 117 13 (3042)
I0824 19:08:11.182404 11638 net.cpp:165] Memory required for data: 20566176
I0824 19:08:11.182407 11638 layer_factory.hpp:77] Creating layer rpn_cls_prob
I0824 19:08:11.182416 11638 net.cpp:106] Creating Layer rpn_cls_prob
I0824 19:08:11.182420 11638 net.cpp:454] rpn_cls_prob <- rpn_cls_score_reshape
I0824 19:08:11.182425 11638 net.cpp:411] rpn_cls_prob -> rpn_cls_prob
I0824 19:08:11.183080 11638 net.cpp:150] Setting up rpn_cls_prob
I0824 19:08:11.183094 11638 net.cpp:157] Top shape: 1 2 117 13 (3042)
I0824 19:08:11.183097 11638 net.cpp:165] Memory required for data: 20578344
I0824 19:08:11.183101 11638 layer_factory.hpp:77] Creating layer rpn_cls_prob_reshape
I0824 19:08:11.183110 11638 net.cpp:106] Creating Layer rpn_cls_prob_reshape
I0824 19:08:11.183114 11638 net.cpp:454] rpn_cls_prob_reshape <- rpn_cls_prob
I0824 19:08:11.183120 11638 net.cpp:411] rpn_cls_prob_reshape -> rpn_cls_prob_reshape
I0824 19:08:11.183166 11638 net.cpp:150] Setting up rpn_cls_prob_reshape
I0824 19:08:11.183173 11638 net.cpp:157] Top shape: 1 18 13 13 (3042)
I0824 19:08:11.183176 11638 net.cpp:165] Memory required for data: 20590512
I0824 19:08:11.183178 11638 layer_factory.hpp:77] Creating layer proposal
I0824 19:08:11.183652 11638 net.cpp:106] Creating Layer proposal
I0824 19:08:11.183662 11638 net.cpp:454] proposal <- rpn_cls_prob_reshape
I0824 19:08:11.183668 11638 net.cpp:454] proposal <- rpn_bbox_pred
I0824 19:08:11.183672 11638 net.cpp:454] proposal <- im_info
I0824 19:08:11.183678 11638 net.cpp:411] proposal -> rois
I0824 19:08:11.184504 11638 net.cpp:150] Setting up proposal
I0824 19:08:11.184517 11638 net.cpp:157] Top shape: 1 5 (5)
I0824 19:08:11.184520 11638 net.cpp:165] Memory required for data: 20590532
I0824 19:08:11.184525 11638 layer_factory.hpp:77] Creating layer roi_pool5
I0824 19:08:11.184532 11638 net.cpp:106] Creating Layer roi_pool5
I0824 19:08:11.184535 11638 net.cpp:454] roi_pool5 <- conv5_relu5_0_split_1
I0824 19:08:11.184540 11638 net.cpp:454] roi_pool5 <- rois
I0824 19:08:11.184546 11638 net.cpp:411] roi_pool5 -> pool5
I0824 19:08:11.184554 11638 roi_pooling_layer.cpp:30] Spatial scale: 0.0625
I0824 19:08:11.184638 11638 net.cpp:150] Setting up roi_pool5
I0824 19:08:11.184645 11638 net.cpp:157] Top shape: 1 512 6 6 (18432)
I0824 19:08:11.184648 11638 net.cpp:165] Memory required for data: 20664260
I0824 19:08:11.184651 11638 layer_factory.hpp:77] Creating layer fc6
I0824 19:08:11.184659 11638 net.cpp:106] Creating Layer fc6
I0824 19:08:11.184662 11638 net.cpp:454] fc6 <- pool5
I0824 19:08:11.184667 11638 net.cpp:411] fc6 -> fc6
I0824 19:08:11.678467 11638 net.cpp:150] Setting up fc6
I0824 19:08:11.678524 11638 net.cpp:157] Top shape: 1 4096 (4096)
I0824 19:08:11.678529 11638 net.cpp:165] Memory required for data: 20680644
I0824 19:08:11.678557 11638 layer_factory.hpp:77] Creating layer relu6
I0824 19:08:11.678576 11638 net.cpp:106] Creating Layer relu6
I0824 19:08:11.678583 11638 net.cpp:454] relu6 <- fc6
I0824 19:08:11.678591 11638 net.cpp:397] relu6 -> fc6 (in-place)
I0824 19:08:11.678918 11638 net.cpp:150] Setting up relu6
I0824 19:08:11.678930 11638 net.cpp:157] Top shape: 1 4096 (4096)
I0824 19:08:11.678933 11638 net.cpp:165] Memory required for data: 20697028
I0824 19:08:11.678937 11638 layer_factory.hpp:77] Creating layer drop6
I0824 19:08:11.678948 11638 net.cpp:106] Creating Layer drop6
I0824 19:08:11.678952 11638 net.cpp:454] drop6 <- fc6
I0824 19:08:11.678958 11638 net.cpp:397] drop6 -> fc6 (in-place)
I0824 19:08:11.679011 11638 net.cpp:150] Setting up drop6
I0824 19:08:11.679024 11638 net.cpp:157] Top shape: 1 4096 (4096)
I0824 19:08:11.679028 11638 net.cpp:165] Memory required for data: 20713412
I0824 19:08:11.679035 11638 layer_factory.hpp:77] Creating layer fc7
I0824 19:08:11.679047 11638 net.cpp:106] Creating Layer fc7
I0824 19:08:11.679052 11638 net.cpp:454] fc7 <- fc6
I0824 19:08:11.679060 11638 net.cpp:411] fc7 -> fc7
I0824 19:08:11.704978 11638 net.cpp:150] Setting up fc7
I0824 19:08:11.705010 11638 net.cpp:157] Top shape: 1 1024 (1024)
I0824 19:08:11.705013 11638 net.cpp:165] Memory required for data: 20717508
I0824 19:08:11.705026 11638 layer_factory.hpp:77] Creating layer relu7
I0824 19:08:11.705040 11638 net.cpp:106] Creating Layer relu7
I0824 19:08:11.705045 11638 net.cpp:454] relu7 <- fc7
I0824 19:08:11.705054 11638 net.cpp:397] relu7 -> fc7 (in-place)
I0824 19:08:11.705766 11638 net.cpp:150] Setting up relu7
I0824 19:08:11.705781 11638 net.cpp:157] Top shape: 1 1024 (1024)
I0824 19:08:11.705785 11638 net.cpp:165] Memory required for data: 20721604
I0824 19:08:11.705790 11638 layer_factory.hpp:77] Creating layer drop7
I0824 19:08:11.705799 11638 net.cpp:106] Creating Layer drop7
I0824 19:08:11.705803 11638 net.cpp:454] drop7 <- fc7
I0824 19:08:11.705809 11638 net.cpp:397] drop7 -> fc7 (in-place)
I0824 19:08:11.705868 11638 net.cpp:150] Setting up drop7
I0824 19:08:11.705874 11638 net.cpp:157] Top shape: 1 1024 (1024)
I0824 19:08:11.705878 11638 net.cpp:165] Memory required for data: 20725700
I0824 19:08:11.705881 11638 layer_factory.hpp:77] Creating layer fc7_drop7_0_split
I0824 19:08:11.705889 11638 net.cpp:106] Creating Layer fc7_drop7_0_split
I0824 19:08:11.705893 11638 net.cpp:454] fc7_drop7_0_split <- fc7
I0824 19:08:11.705901 11638 net.cpp:411] fc7_drop7_0_split -> fc7_drop7_0_split_0
I0824 19:08:11.705911 11638 net.cpp:411] fc7_drop7_0_split -> fc7_drop7_0_split_1
I0824 19:08:11.705919 11638 net.cpp:411] fc7_drop7_0_split -> fc7_drop7_0_split_2
I0824 19:08:11.706024 11638 net.cpp:150] Setting up fc7_drop7_0_split
I0824 19:08:11.706032 11638 net.cpp:157] Top shape: 1 1024 (1024)
I0824 19:08:11.706037 11638 net.cpp:157] Top shape: 1 1024 (1024)
I0824 19:08:11.706040 11638 net.cpp:157] Top shape: 1 1024 (1024)
I0824 19:08:11.706043 11638 net.cpp:165] Memory required for data: 20737988
I0824 19:08:11.706046 11638 layer_factory.hpp:77] Creating layer cls_score
I0824 19:08:11.706071 11638 net.cpp:106] Creating Layer cls_score
I0824 19:08:11.706076 11638 net.cpp:454] cls_score <- fc7_drop7_0_split_0
I0824 19:08:11.706084 11638 net.cpp:411] cls_score -> cls_score
I0824 19:08:11.708644 11638 net.cpp:150] Setting up cls_score
I0824 19:08:11.708658 11638 net.cpp:157] Top shape: 1 21 (21)
I0824 19:08:11.708662 11638 net.cpp:165] Memory required for data: 20738072
I0824 19:08:11.708672 11638 layer_factory.hpp:77] Creating layer bbox_pred
I0824 19:08:11.708683 11638 net.cpp:106] Creating Layer bbox_pred
I0824 19:08:11.708686 11638 net.cpp:454] bbox_pred <- fc7_drop7_0_split_1
I0824 19:08:11.708694 11638 net.cpp:411] bbox_pred -> bbox_pred
I0824 19:08:11.711953 11638 net.cpp:150] Setting up bbox_pred
I0824 19:08:11.711967 11638 net.cpp:157] Top shape: 1 84 (84)
I0824 19:08:11.711971 11638 net.cpp:165] Memory required for data: 20738408
I0824 19:08:11.711984 11638 layer_factory.hpp:77] Creating layer key_pred
I0824 19:08:11.712002 11638 net.cpp:106] Creating Layer key_pred
I0824 19:08:11.712005 11638 net.cpp:454] key_pred <- fc7_drop7_0_split_2
I0824 19:08:11.712015 11638 net.cpp:411] key_pred -> key_pred
I0824 19:08:11.713285 11638 net.cpp:150] Setting up key_pred
I0824 19:08:11.713294 11638 net.cpp:157] Top shape: 1 84 (84)
I0824 19:08:11.713296 11638 net.cpp:165] Memory required for data: 20738744
I0824 19:08:11.713304 11638 layer_factory.hpp:77] Creating layer cls_prob
I0824 19:08:11.713312 11638 net.cpp:106] Creating Layer cls_prob
I0824 19:08:11.713316 11638 net.cpp:454] cls_prob <- cls_score
I0824 19:08:11.713323 11638 net.cpp:411] cls_prob -> cls_prob
I0824 19:08:11.713685 11638 net.cpp:150] Setting up cls_prob
I0824 19:08:11.713696 11638 net.cpp:157] Top shape: 1 21 (21)
I0824 19:08:11.713699 11638 net.cpp:165] Memory required for data: 20738828
I0824 19:08:11.713703 11638 net.cpp:228] cls_prob does not need backward computation.
I0824 19:08:11.713707 11638 net.cpp:228] key_pred does not need backward computation.
I0824 19:08:11.713711 11638 net.cpp:228] bbox_pred does not need backward computation.
I0824 19:08:11.713716 11638 net.cpp:228] cls_score does not need backward computation.
…
