…
stepsize: 50000
snapshot: 0
snapshot_prefix: "vgg_cnn_m_1024_faster_rcnn"
average_loss: 100
I0824 17:19:26.234429  6247 solver.cpp:81] Creating training net from train_net file: models/pascal_voc/VGG_CNN_M_1024/key/train.prototxt
I0824 17:19:26.235116  6247 net.cpp:49] Initializing net from parameters: 
name: "VGG_CNN_M_1024"
state {
  phase: TRAIN
}
layer {
  name: "input-data"
  type: "Python"
  top: "data"
  top: "im_info"
  top: "gt_boxes"
  python_param {
    module: "roi_data_layer.layer"
    layer: "RoIDataLayer"
    param_str: "\'num_classes\': 21"
  }
}
layer {
  name: "conv1"
  type: "Convolution"
  bottom: "data"
  top: "conv1"
  param {
    lr_mult: 0
    decay_mult: 0
  }
  param {
    lr_mult: 0
    decay_mult: 0
  }
  convolution_param {
    num_output: 96
    kernel_size: 7
    stride: 2
  }
}
layer {
  name: "relu1"
  type: "ReLU"
  bottom: "conv1"
  top: "conv1"
}
layer {
  name: "norm1"
  type: "LRN"
  bottom: "conv1"
  top: "norm1"
  lrn_param {
    local_size: 5
    alpha: 0.0005
    beta: 0.75
    k: 2
  }
}
layer {
  name: "pool1"
  type: "Pooling"
  bottom: "norm1"
  top: "pool1"
  pooling_param {
    pool: MAX
    kernel_size: 3
    stride: 2
  }
}
layer {
  name: "conv2"
  type: "Convolution"
  bottom: "pool1"
  top: "conv2"
  param {
    lr_mult: 1
  }
  param {
    lr_mult: 2
  }
  convolution_param {
    num_output: 256
    pad: 1
    kernel_size: 5
    stride: 2
  }
}
layer {
  name: "relu2"
  type: "ReLU"
  bottom: "conv2"
  top: "conv2"
}
layer {
  name: "norm2"
  type: "LRN"
  bottom: "conv2"
  top: "norm2"
  lrn_param {
    local_size: 5
    alpha: 0.0005
    beta: 0.75
    k: 2
  }
}
layer {
  name: "pool2"
  type: "Pooling"
  bottom: "norm2"
  top: "pool2"
  pooling_param {
    pool: MAX
    kernel_size: 3
    stride: 2
  }
}
layer {
  name: "conv3"
  type: "Convolution"
  bottom: "pool2"
  top: "conv3"
  param {
    lr_mult: 1
  }
  param {
    lr_mult: 2
  }
  convolution_param {
    num_output: 512
    pad: 1
    kernel_size: 3
  }
}
layer {
  name: "relu3"
  type: "ReLU"
  bottom: "conv3"
  top: "conv3"
}
layer {
  name: "conv4"
  type: "Convolution"
  bottom: "conv3"
  top: "conv4"
  param {
    lr_mult: 1
  }
  param {
    lr_mult: 2
  }
  convolution_param {
    num_output: 512
    pad: 1
    kernel_size: 3
  }
}
layer {
  name: "relu4"
  type: "ReLU"
  bottom: "conv4"
  top: "conv4"
}
layer {
  name: "conv5"
  type: "Convolution"
  bottom: "conv4"
  top: "conv5"
  param {
    lr_mult: 1
  }
  param {
    lr_mult: 2
  }
  convolution_param {
    num_output: 512
    pad: 1
    kernel_size: 3
  }
}
layer {
  name: "relu5"
  type: "ReLU"
  bottom: "conv5"
  top: "conv5"
}
layer {
  name: "rpn_conv/3x3"
  type: "Convolution"
  bottom: "conv5"
  top: "rpn/output"
  param {
    lr_mult: 1
  }
  param {
    lr_mult: 2
  }
  convolution_param {
    num_output: 256
    pad: 1
    kernel_size: 3
    stride: 1
    weight_filler {
      type: "gaussian"
      std: 0.01
    }
    bias_filler {
      type: "constant"
      value: 0
    }
  }
}
layer {
  name: "rpn_relu/3x3"
  type: "ReLU"
  bottom: "rpn/output"
  top: "rpn/output"
}
layer {
  name: "rpn_cls_score"
  type: "Convolution"
  bottom: "rpn/output"
  top: "rpn_cls_score"
  param {
    lr_mult: 1
  }
  param {
    lr_mult: 2
  }
  convolution_param {
    num_output: 18
    pad: 0
    kernel_size: 1
    stride: 1
    weight_filler {
      type: "gaussian"
      std: 0.01
    }
    bias_filler {
      type: "constant"
      value: 0
    }
  }
}
layer {
  name: "rpn_bbox_pred"
  type: "Convolution"
  bottom: "rpn/output"
  top: "rpn_bbox_pred"
  param {
    lr_mult: 1
  }
  param {
    lr_mult: 2
  }
  convolution_param {
    num_output: 36
    pad: 0
    kernel_size: 1
    stride: 1
    weight_filler {
      type: "gaussian"
      std: 0.01
    }
    bias_filler {
      type: "constant"
      value: 0
    }
  }
}
layer {
  name: "rpn_cls_score_reshape"
  type: "Reshape"
  bottom: "rpn_cls_score"
  top: "rpn_cls_score_reshape"
  reshape_param {
    shape {
      dim: 0
      dim: 2
      dim: -1
      dim: 0
    }
  }
}
layer {
  name: "rpn-data"
  type: "Python"
  bottom: "rpn_cls_score"
  bottom: "gt_boxes"
  bottom: "im_info"
  bottom: "data"
  top: "rpn_labels"
  top: "rpn_bbox_targets"
  top: "rpn_bbox_inside_weights"
  top: "rpn_bbox_outside_weights"
  python_param {
    module: "rpn.anchor_target_layer"
    layer: "AnchorTargetLayer"
    param_str: "\'feat_stride\': 16"
  }
}
layer {
  name: "rpn_loss_cls"
  type: "SoftmaxWithLoss"
  bottom: "rpn_cls_score_reshape"
  bottom: "rpn_labels"
  top: "rpn_cls_loss"
  loss_weight: 1
  propagate_down: true
  propagate_down: false
  loss_param {
    ignore_label: -1
    normalize: true
  }
}
layer {
  name: "rpn_loss_bbox"
  type: "SmoothL1Loss"
  bottom: "rpn_bbox_pred"
  bottom: "rpn_bbox_targets"
  bottom: "rpn_bbox_inside_weights"
  bottom: "rpn_bbox_outside_weights"
  top: "rpn_loss_bbox"
  loss_weight: 1
  smooth_l1_loss_param {
    sigma: 3
  }
}
layer {
  name: "rpn_cls_prob"
  type: "Softmax"
  bottom: "rpn_cls_score_reshape"
  top: "rpn_cls_prob"
}
layer {
  name: "rpn_cls_prob_reshape"
  type: "Reshape"
  bottom: "rpn_cls_prob"
  top: "rpn_cls_prob_reshape"
  reshape_param {
    shape {
      dim: 0
      dim: 18
      dim: -1
      dim: 0
    }
  }
}
layer {
  name: "proposal"
  type: "Python"
  bottom: "rpn_cls_prob_reshape"
  bottom: "rpn_bbox_pred"
  bottom: "im_info"
  top: "rpn_rois"
  python_param {
    module: "rpn.proposal_layer"
    layer: "ProposalLayer"
    param_str: "\'feat_stride\': 16"
  }
}
layer {
  name: "roi-data"
  type: "Python"
  bottom: "rpn_rois"
  bottom: "gt_boxes"
  top: "rois"
  top: "labels"
  top: "bbox_targets"
  top: "bbox_inside_weights"
  top: "bbox_outside_weights"
  top: "key_targets"
  top: "key_inside_weights"
  python_param {
    module: "rpn.proposal_target_layer"
    layer: "ProposalTargetLayer"
    param_str: "\'num_classes\': 21"
  }
}
layer {
  name: "roi_pool5"
  type: "ROIPooling"
  bottom: "conv5"
  bottom: "rois"
  top: "pool5"
  roi_pooling_param {
    pooled_h: 6
    pooled_w: 6
    spatial_scale: 0.0625
  }
}
layer {
  name: "fc6"
  type: "InnerProduct"
  bottom: "pool5"
  top: "fc6"
  param {
    lr_mult: 1
  }
  param {
    lr_mult: 2
  }
  inner_product_param {
    num_output: 4096
  }
}
layer {
  name: "relu6"
  type: "ReLU"
  bottom: "fc6"
  top: "fc6"
}
layer {
  name: "drop6"
  type: "Dropout"
  bottom: "fc6"
  top: "fc6"
  dropout_param {
    dropout_ratio: 0.5
  }
}
layer {
  name: "fc7"
  type: "InnerProduct"
  bottom: "fc6"
  top: "fc7"
  param {
    lr_mult: 1
  }
  param {
    lr_mult: 2
  }
  inner_product_param {
    num_output: 1024
  }
}
layer {
  name: "relu7"
  type: "ReLU"
  bottom: "fc7"
  top: "fc7"
}
layer {
  name: "drop7"
  type: "Dropout"
  bottom: "fc7"
  top: "fc7"
  dropout_param {
    dropout_ratio: 0.5
  }
}
layer {
  name: "cls_score"
  type: "InnerProduct"
  bottom: "fc7"
  top: "cls_score"
  param {
    lr_mult: 1
  }
  param {
    lr_mult: 2
  }
  inner_product_param {
    num_output: 21
    weight_filler {
      type: "gaussian"
      std: 0.01
    }
    bias_filler {
      type: "constant"
      value: 0
    }
  }
}
layer {
  name: "bbox_pred"
  type: "InnerProduct"
  bottom: "fc7"
  top: "bbox_pred"
  param {
    lr_mult: 1
  }
  param {
    lr_mult: 2
  }
  inner_product_param {
    num_output: 84
    weight_filler {
      type: "gaussian"
      std: 0.001
    }
    bias_filler {
      type: "constant"
      value: 0
    }
  }
}
layer {
  name: "key_pred"
  type: "InnerProduct"
  bottom: "fc7"
  top: "key_pred"
  param {
    lr_mult: 1
  }
  param {
    lr_mult: 2
  }
  inner_product_param {
    num_output: 84
    weight_filler {
      type: "gaussian"
      std: 0.001
    }
    bias_filler {
      type: "constant"
      value: 0
    }
  }
}
layer {
  name: "loss_cls"
  type: "SoftmaxWithLoss"
  bottom: "cls_score"
  bottom: "labels"
  top: "loss_cls"
  loss_weight: 1
  propagate_down: true
  propagate_down: false
}
layer {
  name: "loss_bbox"
  type: "SmoothL1Loss"
  bottom: "bbox_pred"
  bottom: "bbox_targets"
  bottom: "bbox_inside_weights"
  bottom: "bbox_outside_weights"
  top: "loss_bbox"
  loss_weight: 1
}
layer {
  name: "loss_key"
  type: "SmoothL1Loss"
  bottom: "key_pred"
  bottom: "key_targets"
  bottom: "key_inside_weights"
  bottom: "bbox_outside_weights"
  top: "loss_key"
  loss_weight: 1
}
I0824 17:19:26.235399  6247 layer_factory.hpp:77] Creating layer input-data
I0824 17:19:26.249835  6247 net.cpp:106] Creating Layer input-data
I0824 17:19:26.249889  6247 net.cpp:411] input-data -> data
I0824 17:19:26.249908  6247 net.cpp:411] input-data -> im_info
I0824 17:19:26.249917  6247 net.cpp:411] input-data -> gt_boxes
RoiDataLayer: name_to_top: {'gt_boxes': 2, 'data': 0, 'im_info': 1}
I0824 17:19:26.262034  6247 net.cpp:150] Setting up input-data
I0824 17:19:26.262079  6247 net.cpp:157] Top shape: 1 3 600 1000 (1800000)
I0824 17:19:26.262085  6247 net.cpp:157] Top shape: 1 3 (3)
I0824 17:19:26.262089  6247 net.cpp:157] Top shape: 1 4 (4)
I0824 17:19:26.262091  6247 net.cpp:165] Memory required for data: 7200028
I0824 17:19:26.262100  6247 layer_factory.hpp:77] Creating layer data_input-data_0_split
I0824 17:19:26.262125  6247 net.cpp:106] Creating Layer data_input-data_0_split
I0824 17:19:26.262132  6247 net.cpp:454] data_input-data_0_split <- data
I0824 17:19:26.262145  6247 net.cpp:411] data_input-data_0_split -> data_input-data_0_split_0
I0824 17:19:26.262159  6247 net.cpp:411] data_input-data_0_split -> data_input-data_0_split_1
I0824 17:19:26.262218  6247 net.cpp:150] Setting up data_input-data_0_split
I0824 17:19:26.262226  6247 net.cpp:157] Top shape: 1 3 600 1000 (1800000)
I0824 17:19:26.262233  6247 net.cpp:157] Top shape: 1 3 600 1000 (1800000)
I0824 17:19:26.262235  6247 net.cpp:165] Memory required for data: 21600028
I0824 17:19:26.262238  6247 layer_factory.hpp:77] Creating layer im_info_input-data_1_split
I0824 17:19:26.262245  6247 net.cpp:106] Creating Layer im_info_input-data_1_split
I0824 17:19:26.262249  6247 net.cpp:454] im_info_input-data_1_split <- im_info
I0824 17:19:26.262256  6247 net.cpp:411] im_info_input-data_1_split -> im_info_input-data_1_split_0
I0824 17:19:26.262264  6247 net.cpp:411] im_info_input-data_1_split -> im_info_input-data_1_split_1
I0824 17:19:26.262312  6247 net.cpp:150] Setting up im_info_input-data_1_split
I0824 17:19:26.262318  6247 net.cpp:157] Top shape: 1 3 (3)
I0824 17:19:26.262322  6247 net.cpp:157] Top shape: 1 3 (3)
I0824 17:19:26.262325  6247 net.cpp:165] Memory required for data: 21600052
I0824 17:19:26.262327  6247 layer_factory.hpp:77] Creating layer gt_boxes_input-data_2_split
I0824 17:19:26.262333  6247 net.cpp:106] Creating Layer gt_boxes_input-data_2_split
I0824 17:19:26.262336  6247 net.cpp:454] gt_boxes_input-data_2_split <- gt_boxes
I0824 17:19:26.262341  6247 net.cpp:411] gt_boxes_input-data_2_split -> gt_boxes_input-data_2_split_0
I0824 17:19:26.262351  6247 net.cpp:411] gt_boxes_input-data_2_split -> gt_boxes_input-data_2_split_1
I0824 17:19:26.262406  6247 net.cpp:150] Setting up gt_boxes_input-data_2_split
I0824 17:19:26.262413  6247 net.cpp:157] Top shape: 1 4 (4)
I0824 17:19:26.262416  6247 net.cpp:157] Top shape: 1 4 (4)
I0824 17:19:26.262418  6247 net.cpp:165] Memory required for data: 21600084
I0824 17:19:26.262421  6247 layer_factory.hpp:77] Creating layer conv1
I0824 17:19:26.262437  6247 net.cpp:106] Creating Layer conv1
I0824 17:19:26.262442  6247 net.cpp:454] conv1 <- data_input-data_0_split_0
I0824 17:19:26.262449  6247 net.cpp:411] conv1 -> conv1
I0824 17:19:26.641681  6247 net.cpp:150] Setting up conv1
I0824 17:19:26.641753  6247 net.cpp:157] Top shape: 1 96 297 497 (14170464)
I0824 17:19:26.641757  6247 net.cpp:165] Memory required for data: 78281940
I0824 17:19:26.641798  6247 layer_factory.hpp:77] Creating layer relu1
I0824 17:19:26.641821  6247 net.cpp:106] Creating Layer relu1
I0824 17:19:26.641834  6247 net.cpp:454] relu1 <- conv1
I0824 17:19:26.641846  6247 net.cpp:397] relu1 -> conv1 (in-place)
I0824 17:19:26.642477  6247 net.cpp:150] Setting up relu1
I0824 17:19:26.642493  6247 net.cpp:157] Top shape: 1 96 297 497 (14170464)
I0824 17:19:26.642498  6247 net.cpp:165] Memory required for data: 134963796
I0824 17:19:26.642505  6247 layer_factory.hpp:77] Creating layer norm1
I0824 17:19:26.642518  6247 net.cpp:106] Creating Layer norm1
I0824 17:19:26.642523  6247 net.cpp:454] norm1 <- conv1
I0824 17:19:26.642529  6247 net.cpp:411] norm1 -> norm1
I0824 17:19:26.642812  6247 net.cpp:150] Setting up norm1
I0824 17:19:26.642823  6247 net.cpp:157] Top shape: 1 96 297 497 (14170464)
I0824 17:19:26.642827  6247 net.cpp:165] Memory required for data: 191645652
I0824 17:19:26.642830  6247 layer_factory.hpp:77] Creating layer pool1
I0824 17:19:26.642839  6247 net.cpp:106] Creating Layer pool1
I0824 17:19:26.642844  6247 net.cpp:454] pool1 <- norm1
I0824 17:19:26.642850  6247 net.cpp:411] pool1 -> pool1
I0824 17:19:26.642940  6247 net.cpp:150] Setting up pool1
I0824 17:19:26.642949  6247 net.cpp:157] Top shape: 1 96 148 248 (3523584)
I0824 17:19:26.642952  6247 net.cpp:165] Memory required for data: 205739988
I0824 17:19:26.642956  6247 layer_factory.hpp:77] Creating layer conv2
I0824 17:19:26.642976  6247 net.cpp:106] Creating Layer conv2
I0824 17:19:26.642979  6247 net.cpp:454] conv2 <- pool1
I0824 17:19:26.642987  6247 net.cpp:411] conv2 -> conv2
I0824 17:19:26.649827  6247 net.cpp:150] Setting up conv2
I0824 17:19:26.649876  6247 net.cpp:157] Top shape: 1 256 73 123 (2298624)
I0824 17:19:26.649880  6247 net.cpp:165] Memory required for data: 214934484
I0824 17:19:26.649896  6247 layer_factory.hpp:77] Creating layer relu2
I0824 17:19:26.649910  6247 net.cpp:106] Creating Layer relu2
I0824 17:19:26.649922  6247 net.cpp:454] relu2 <- conv2
I0824 17:19:26.649930  6247 net.cpp:397] relu2 -> conv2 (in-place)
I0824 17:19:26.650461  6247 net.cpp:150] Setting up relu2
I0824 17:19:26.650476  6247 net.cpp:157] Top shape: 1 256 73 123 (2298624)
I0824 17:19:26.650480  6247 net.cpp:165] Memory required for data: 224128980
I0824 17:19:26.650490  6247 layer_factory.hpp:77] Creating layer norm2
I0824 17:19:26.650501  6247 net.cpp:106] Creating Layer norm2
I0824 17:19:26.650504  6247 net.cpp:454] norm2 <- conv2
I0824 17:19:26.650516  6247 net.cpp:411] norm2 -> norm2
I0824 17:19:26.650804  6247 net.cpp:150] Setting up norm2
I0824 17:19:26.650821  6247 net.cpp:157] Top shape: 1 256 73 123 (2298624)
I0824 17:19:26.650825  6247 net.cpp:165] Memory required for data: 233323476
I0824 17:19:26.650827  6247 layer_factory.hpp:77] Creating layer pool2
I0824 17:19:26.650843  6247 net.cpp:106] Creating Layer pool2
I0824 17:19:26.650846  6247 net.cpp:454] pool2 <- norm2
I0824 17:19:26.650853  6247 net.cpp:411] pool2 -> pool2
I0824 17:19:26.650928  6247 net.cpp:150] Setting up pool2
I0824 17:19:26.650938  6247 net.cpp:157] Top shape: 1 256 36 61 (562176)
I0824 17:19:26.650941  6247 net.cpp:165] Memory required for data: 235572180
I0824 17:19:26.650944  6247 layer_factory.hpp:77] Creating layer conv3
I0824 17:19:26.650961  6247 net.cpp:106] Creating Layer conv3
I0824 17:19:26.650966  6247 net.cpp:454] conv3 <- pool2
I0824 17:19:26.650974  6247 net.cpp:411] conv3 -> conv3
I0824 17:19:26.665648  6247 net.cpp:150] Setting up conv3
I0824 17:19:26.665695  6247 net.cpp:157] Top shape: 1 512 36 61 (1124352)
I0824 17:19:26.665699  6247 net.cpp:165] Memory required for data: 240069588
I0824 17:19:26.665716  6247 layer_factory.hpp:77] Creating layer relu3
I0824 17:19:26.665729  6247 net.cpp:106] Creating Layer relu3
I0824 17:19:26.665742  6247 net.cpp:454] relu3 <- conv3
I0824 17:19:26.665750  6247 net.cpp:397] relu3 -> conv3 (in-place)
I0824 17:19:26.665989  6247 net.cpp:150] Setting up relu3
I0824 17:19:26.666005  6247 net.cpp:157] Top shape: 1 512 36 61 (1124352)
I0824 17:19:26.666008  6247 net.cpp:165] Memory required for data: 244566996
I0824 17:19:26.666013  6247 layer_factory.hpp:77] Creating layer conv4
I0824 17:19:26.666028  6247 net.cpp:106] Creating Layer conv4
I0824 17:19:26.666033  6247 net.cpp:454] conv4 <- conv3
I0824 17:19:26.666041  6247 net.cpp:411] conv4 -> conv4
I0824 17:19:26.684049  6247 net.cpp:150] Setting up conv4
I0824 17:19:26.684097  6247 net.cpp:157] Top shape: 1 512 36 61 (1124352)
I0824 17:19:26.684100  6247 net.cpp:165] Memory required for data: 249064404
I0824 17:19:26.684111  6247 layer_factory.hpp:77] Creating layer relu4
I0824 17:19:26.684123  6247 net.cpp:106] Creating Layer relu4
I0824 17:19:26.684134  6247 net.cpp:454] relu4 <- conv4
I0824 17:19:26.684144  6247 net.cpp:397] relu4 -> conv4 (in-place)
I0824 17:19:26.684684  6247 net.cpp:150] Setting up relu4
I0824 17:19:26.684698  6247 net.cpp:157] Top shape: 1 512 36 61 (1124352)
I0824 17:19:26.684708  6247 net.cpp:165] Memory required for data: 253561812
I0824 17:19:26.684712  6247 layer_factory.hpp:77] Creating layer conv5
I0824 17:19:26.684731  6247 net.cpp:106] Creating Layer conv5
I0824 17:19:26.684736  6247 net.cpp:454] conv5 <- conv4
I0824 17:19:26.684756  6247 net.cpp:411] conv5 -> conv5
I0824 17:19:26.702311  6247 net.cpp:150] Setting up conv5
I0824 17:19:26.702350  6247 net.cpp:157] Top shape: 1 512 36 61 (1124352)
I0824 17:19:26.702354  6247 net.cpp:165] Memory required for data: 258059220
I0824 17:19:26.702379  6247 layer_factory.hpp:77] Creating layer relu5
I0824 17:19:26.702392  6247 net.cpp:106] Creating Layer relu5
I0824 17:19:26.702397  6247 net.cpp:454] relu5 <- conv5
I0824 17:19:26.702405  6247 net.cpp:397] relu5 -> conv5 (in-place)
I0824 17:19:26.702630  6247 net.cpp:150] Setting up relu5
I0824 17:19:26.702641  6247 net.cpp:157] Top shape: 1 512 36 61 (1124352)
I0824 17:19:26.702644  6247 net.cpp:165] Memory required for data: 262556628
I0824 17:19:26.702648  6247 layer_factory.hpp:77] Creating layer conv5_relu5_0_split
I0824 17:19:26.702656  6247 net.cpp:106] Creating Layer conv5_relu5_0_split
I0824 17:19:26.702659  6247 net.cpp:454] conv5_relu5_0_split <- conv5
I0824 17:19:26.702667  6247 net.cpp:411] conv5_relu5_0_split -> conv5_relu5_0_split_0
I0824 17:19:26.702678  6247 net.cpp:411] conv5_relu5_0_split -> conv5_relu5_0_split_1
I0824 17:19:26.702760  6247 net.cpp:150] Setting up conv5_relu5_0_split
I0824 17:19:26.702769  6247 net.cpp:157] Top shape: 1 512 36 61 (1124352)
I0824 17:19:26.702774  6247 net.cpp:157] Top shape: 1 512 36 61 (1124352)
I0824 17:19:26.702776  6247 net.cpp:165] Memory required for data: 271551444
I0824 17:19:26.702780  6247 layer_factory.hpp:77] Creating layer rpn_conv/3x3
I0824 17:19:26.702795  6247 net.cpp:106] Creating Layer rpn_conv/3x3
I0824 17:19:26.702801  6247 net.cpp:454] rpn_conv/3x3 <- conv5_relu5_0_split_0
I0824 17:19:26.702811  6247 net.cpp:411] rpn_conv/3x3 -> rpn/output
I0824 17:19:26.727108  6247 net.cpp:150] Setting up rpn_conv/3x3
I0824 17:19:26.727144  6247 net.cpp:157] Top shape: 1 256 36 61 (562176)
I0824 17:19:26.727149  6247 net.cpp:165] Memory required for data: 273800148
I0824 17:19:26.727160  6247 layer_factory.hpp:77] Creating layer rpn_relu/3x3
I0824 17:19:26.727172  6247 net.cpp:106] Creating Layer rpn_relu/3x3
I0824 17:19:26.727177  6247 net.cpp:454] rpn_relu/3x3 <- rpn/output
I0824 17:19:26.727187  6247 net.cpp:397] rpn_relu/3x3 -> rpn/output (in-place)
I0824 17:19:26.727717  6247 net.cpp:150] Setting up rpn_relu/3x3
I0824 17:19:26.727735  6247 net.cpp:157] Top shape: 1 256 36 61 (562176)
I0824 17:19:26.727737  6247 net.cpp:165] Memory required for data: 276048852
I0824 17:19:26.727741  6247 layer_factory.hpp:77] Creating layer rpn/output_rpn_relu/3x3_0_split
I0824 17:19:26.727751  6247 net.cpp:106] Creating Layer rpn/output_rpn_relu/3x3_0_split
I0824 17:19:26.727756  6247 net.cpp:454] rpn/output_rpn_relu/3x3_0_split <- rpn/output
I0824 17:19:26.727764  6247 net.cpp:411] rpn/output_rpn_relu/3x3_0_split -> rpn/output_rpn_relu/3x3_0_split_0
I0824 17:19:26.727776  6247 net.cpp:411] rpn/output_rpn_relu/3x3_0_split -> rpn/output_rpn_relu/3x3_0_split_1
I0824 17:19:26.727864  6247 net.cpp:150] Setting up rpn/output_rpn_relu/3x3_0_split
I0824 17:19:26.727871  6247 net.cpp:157] Top shape: 1 256 36 61 (562176)
I0824 17:19:26.727876  6247 net.cpp:157] Top shape: 1 256 36 61 (562176)
I0824 17:19:26.727880  6247 net.cpp:165] Memory required for data: 280546260
I0824 17:19:26.727883  6247 layer_factory.hpp:77] Creating layer rpn_cls_score
I0824 17:19:26.727900  6247 net.cpp:106] Creating Layer rpn_cls_score
I0824 17:19:26.727905  6247 net.cpp:454] rpn_cls_score <- rpn/output_rpn_relu/3x3_0_split_0
I0824 17:19:26.727911  6247 net.cpp:411] rpn_cls_score -> rpn_cls_score
I0824 17:19:26.729769  6247 net.cpp:150] Setting up rpn_cls_score
I0824 17:19:26.729794  6247 net.cpp:157] Top shape: 1 18 36 61 (39528)
I0824 17:19:26.729799  6247 net.cpp:165] Memory required for data: 280704372
I0824 17:19:26.729809  6247 layer_factory.hpp:77] Creating layer rpn_cls_score_rpn_cls_score_0_split
I0824 17:19:26.729820  6247 net.cpp:106] Creating Layer rpn_cls_score_rpn_cls_score_0_split
I0824 17:19:26.729825  6247 net.cpp:454] rpn_cls_score_rpn_cls_score_0_split <- rpn_cls_score
I0824 17:19:26.729832  6247 net.cpp:411] rpn_cls_score_rpn_cls_score_0_split -> rpn_cls_score_rpn_cls_score_0_split_0
I0824 17:19:26.729846  6247 net.cpp:411] rpn_cls_score_rpn_cls_score_0_split -> rpn_cls_score_rpn_cls_score_0_split_1
I0824 17:19:26.729919  6247 net.cpp:150] Setting up rpn_cls_score_rpn_cls_score_0_split
I0824 17:19:26.729928  6247 net.cpp:157] Top shape: 1 18 36 61 (39528)
I0824 17:19:26.729934  6247 net.cpp:157] Top shape: 1 18 36 61 (39528)
I0824 17:19:26.729938  6247 net.cpp:165] Memory required for data: 281020596
I0824 17:19:26.729940  6247 layer_factory.hpp:77] Creating layer rpn_bbox_pred
I0824 17:19:26.729954  6247 net.cpp:106] Creating Layer rpn_bbox_pred
I0824 17:19:26.729959  6247 net.cpp:454] rpn_bbox_pred <- rpn/output_rpn_relu/3x3_0_split_1
I0824 17:19:26.729969  6247 net.cpp:411] rpn_bbox_pred -> rpn_bbox_pred
I0824 17:19:26.731834  6247 net.cpp:150] Setting up rpn_bbox_pred
I0824 17:19:26.731853  6247 net.cpp:157] Top shape: 1 36 36 61 (79056)
I0824 17:19:26.731858  6247 net.cpp:165] Memory required for data: 281336820
I0824 17:19:26.731865  6247 layer_factory.hpp:77] Creating layer rpn_bbox_pred_rpn_bbox_pred_0_split
I0824 17:19:26.731874  6247 net.cpp:106] Creating Layer rpn_bbox_pred_rpn_bbox_pred_0_split
I0824 17:19:26.731879  6247 net.cpp:454] rpn_bbox_pred_rpn_bbox_pred_0_split <- rpn_bbox_pred
I0824 17:19:26.731889  6247 net.cpp:411] rpn_bbox_pred_rpn_bbox_pred_0_split -> rpn_bbox_pred_rpn_bbox_pred_0_split_0
I0824 17:19:26.731900  6247 net.cpp:411] rpn_bbox_pred_rpn_bbox_pred_0_split -> rpn_bbox_pred_rpn_bbox_pred_0_split_1
I0824 17:19:26.731978  6247 net.cpp:150] Setting up rpn_bbox_pred_rpn_bbox_pred_0_split
I0824 17:19:26.731986  6247 net.cpp:157] Top shape: 1 36 36 61 (79056)
I0824 17:19:26.731992  6247 net.cpp:157] Top shape: 1 36 36 61 (79056)
I0824 17:19:26.731995  6247 net.cpp:165] Memory required for data: 281969268
I0824 17:19:26.731999  6247 layer_factory.hpp:77] Creating layer rpn_cls_score_reshape
I0824 17:19:26.732010  6247 net.cpp:106] Creating Layer rpn_cls_score_reshape
I0824 17:19:26.732015  6247 net.cpp:454] rpn_cls_score_reshape <- rpn_cls_score_rpn_cls_score_0_split_0
I0824 17:19:26.732022  6247 net.cpp:411] rpn_cls_score_reshape -> rpn_cls_score_reshape
I0824 17:19:26.732069  6247 net.cpp:150] Setting up rpn_cls_score_reshape
I0824 17:19:26.732077  6247 net.cpp:157] Top shape: 1 2 324 61 (39528)
I0824 17:19:26.732082  6247 net.cpp:165] Memory required for data: 282127380
I0824 17:19:26.732085  6247 layer_factory.hpp:77] Creating layer rpn_cls_score_reshape_rpn_cls_score_reshape_0_split
I0824 17:19:26.732091  6247 net.cpp:106] Creating Layer rpn_cls_score_reshape_rpn_cls_score_reshape_0_split
I0824 17:19:26.732096  6247 net.cpp:454] rpn_cls_score_reshape_rpn_cls_score_reshape_0_split <- rpn_cls_score_reshape
I0824 17:19:26.732112  6247 net.cpp:411] rpn_cls_score_reshape_rpn_cls_score_reshape_0_split -> rpn_cls_score_reshape_rpn_cls_score_reshape_0_split_0
I0824 17:19:26.732121  6247 net.cpp:411] rpn_cls_score_reshape_rpn_cls_score_reshape_0_split -> rpn_cls_score_reshape_rpn_cls_score_reshape_0_split_1
I0824 17:19:26.732187  6247 net.cpp:150] Setting up rpn_cls_score_reshape_rpn_cls_score_reshape_0_split
I0824 17:19:26.732193  6247 net.cpp:157] Top shape: 1 2 324 61 (39528)
I0824 17:19:26.732198  6247 net.cpp:157] Top shape: 1 2 324 61 (39528)
I0824 17:19:26.732200  6247 net.cpp:165] Memory required for data: 282443604
I0824 17:19:26.732203  6247 layer_factory.hpp:77] Creating layer rpn-data
I0824 17:19:26.732801  6247 net.cpp:106] Creating Layer rpn-data
I0824 17:19:26.732816  6247 net.cpp:454] rpn-data <- rpn_cls_score_rpn_cls_score_0_split_1
I0824 17:19:26.732825  6247 net.cpp:454] rpn-data <- gt_boxes_input-data_2_split_0
I0824 17:19:26.732836  6247 net.cpp:454] rpn-data <- im_info_input-data_1_split_0
I0824 17:19:26.732841  6247 net.cpp:454] rpn-data <- data_input-data_0_split_1
I0824 17:19:26.732848  6247 net.cpp:411] rpn-data -> rpn_labels
I0824 17:19:26.732868  6247 net.cpp:411] rpn-data -> rpn_bbox_targets
I0824 17:19:26.732879  6247 net.cpp:411] rpn-data -> rpn_bbox_inside_weights
I0824 17:19:26.732889  6247 net.cpp:411] rpn-data -> rpn_bbox_outside_weights
I0824 17:19:26.736001  6247 net.cpp:150] Setting up rpn-data
I0824 17:19:26.736029  6247 net.cpp:157] Top shape: 1 1 324 61 (19764)
I0824 17:19:26.736034  6247 net.cpp:157] Top shape: 1 36 36 61 (79056)
I0824 17:19:26.736038  6247 net.cpp:157] Top shape: 1 36 36 61 (79056)
I0824 17:19:26.736042  6247 net.cpp:157] Top shape: 1 36 36 61 (79056)
I0824 17:19:26.736047  6247 net.cpp:165] Memory required for data: 283471332
I0824 17:19:26.736052  6247 layer_factory.hpp:77] Creating layer rpn_loss_cls
I0824 17:19:26.736065  6247 net.cpp:106] Creating Layer rpn_loss_cls
I0824 17:19:26.736073  6247 net.cpp:454] rpn_loss_cls <- rpn_cls_score_reshape_rpn_cls_score_reshape_0_split_0
I0824 17:19:26.736078  6247 net.cpp:454] rpn_loss_cls <- rpn_labels
…
I0824 17:19:26.737839  6247 net.cpp:157] Top shape: (1)
I0824 17:19:26.737841  6247 net.cpp:160]     with loss weight 1
I0824 17:19:26.737848  6247 net.cpp:165] Memory required for data: 283471340
I0824 17:19:26.737851  6247 layer_factory.hpp:77] Creating layer rpn_cls_prob
I0824 17:19:26.737857  6247 net.cpp:106] Creating Layer rpn_cls_prob
I0824 17:19:26.737862  6247 net.cpp:454] rpn_cls_prob <- rpn_cls_score_reshape_rpn_cls_score_reshape_0_split_1
I0824 17:19:26.737870  6247 net.cpp:411] rpn_cls_prob -> rpn_cls_prob
I0824 17:19:26.738209  6247 net.cpp:150] Setting up rpn_cls_prob
I0824 17:19:26.738220  6247 net.cpp:157] Top shape: 1 2 324 61 (39528)
I0824 17:19:26.738224  6247 net.cpp:165] Memory required for data: 283629452
I0824 17:19:26.738226  6247 layer_factory.hpp:77] Creating layer rpn_cls_prob_reshape
I0824 17:19:26.738246  6247 net.cpp:106] Creating Layer rpn_cls_prob_reshape
I0824 17:19:26.738252  6247 net.cpp:454] rpn_cls_prob_reshape <- rpn_cls_prob
I0824 17:19:26.738258  6247 net.cpp:411] rpn_cls_prob_reshape -> rpn_cls_prob_reshape
I0824 17:19:26.738307  6247 net.cpp:150] Setting up rpn_cls_prob_reshape
I0824 17:19:26.738315  6247 net.cpp:157] Top shape: 1 18 36 61 (39528)
I0824 17:19:26.738318  6247 net.cpp:165] Memory required for data: 283787564
I0824 17:19:26.738322  6247 layer_factory.hpp:77] Creating layer proposal
I0824 17:19:26.751027  6247 net.cpp:106] Creating Layer proposal
I0824 17:19:26.751065  6247 net.cpp:454] proposal <- rpn_cls_prob_reshape
I0824 17:19:26.751075  6247 net.cpp:454] proposal <- rpn_bbox_pred_rpn_bbox_pred_0_split_1
I0824 17:19:26.751080  6247 net.cpp:454] proposal <- im_info_input-data_1_split_1
I0824 17:19:26.751090  6247 net.cpp:411] proposal -> rpn_rois
I0824 17:19:26.756872  6247 net.cpp:150] Setting up proposal
I0824 17:19:26.756916  6247 net.cpp:157] Top shape: 1 5 (5)
I0824 17:19:26.756927  6247 net.cpp:165] Memory required for data: 283787584
I0824 17:19:26.756933  6247 layer_factory.hpp:77] Creating layer roi-data
I0824 17:19:26.757225  6247 net.cpp:106] Creating Layer roi-data
I0824 17:19:26.757238  6247 net.cpp:454] roi-data <- rpn_rois
I0824 17:19:26.757247  6247 net.cpp:454] roi-data <- gt_boxes_input-data_2_split_1
I0824 17:19:26.757256  6247 net.cpp:411] roi-data -> rois
I0824 17:19:26.757269  6247 net.cpp:411] roi-data -> labels
I0824 17:19:26.757280  6247 net.cpp:411] roi-data -> bbox_targets
I0824 17:19:26.757290  6247 net.cpp:411] roi-data -> bbox_inside_weights
I0824 17:19:26.757299  6247 net.cpp:411] roi-data -> bbox_outside_weights
I0824 17:19:26.757309  6247 net.cpp:411] roi-data -> key_targets
I0824 17:19:26.757318  6247 net.cpp:411] roi-data -> key_inside_weights
I0824 17:19:26.758081  6247 net.cpp:150] Setting up roi-data
I0824 17:19:26.758097  6247 net.cpp:157] Top shape: 1 5 (5)
I0824 17:19:26.758103  6247 net.cpp:157] Top shape: 1 1 (1)
I0824 17:19:26.758106  6247 net.cpp:157] Top shape: 1 84 (84)
I0824 17:19:26.758111  6247 net.cpp:157] Top shape: 1 84 (84)
I0824 17:19:26.758113  6247 net.cpp:157] Top shape: 1 84 (84)
I0824 17:19:26.758116  6247 net.cpp:157] Top shape: 1 84 (84)
I0824 17:19:26.758121  6247 net.cpp:157] Top shape: 1 84 (84)
I0824 17:19:26.758122  6247 net.cpp:165] Memory required for data: 283789288
I0824 17:19:26.758127  6247 layer_factory.hpp:77] Creating layer bbox_outside_weights_roi-data_4_split
I0824 17:19:26.758136  6247 net.cpp:106] Creating Layer bbox_outside_weights_roi-data_4_split
I0824 17:19:26.758141  6247 net.cpp:454] bbox_outside_weights_roi-data_4_split <- bbox_outside_weights
I0824 17:19:26.758148  6247 net.cpp:411] bbox_outside_weights_roi-data_4_split -> bbox_outside_weights_roi-data_4_split_0
I0824 17:19:26.758162  6247 net.cpp:411] bbox_outside_weights_roi-data_4_split -> bbox_outside_weights_roi-data_4_split_1
I0824 17:19:26.758229  6247 net.cpp:150] Setting up bbox_outside_weights_roi-data_4_split
I0824 17:19:26.758236  6247 net.cpp:157] Top shape: 1 84 (84)
I0824 17:19:26.758239  6247 net.cpp:157] Top shape: 1 84 (84)
I0824 17:19:26.758242  6247 net.cpp:165] Memory required for data: 283789960
I0824 17:19:26.758245  6247 layer_factory.hpp:77] Creating layer roi_pool5
I0824 17:19:26.758255  6247 net.cpp:106] Creating Layer roi_pool5
I0824 17:19:26.758260  6247 net.cpp:454] roi_pool5 <- conv5_relu5_0_split_1
I0824 17:19:26.758265  6247 net.cpp:454] roi_pool5 <- rois
I0824 17:19:26.758271  6247 net.cpp:411] roi_pool5 -> pool5
I0824 17:19:26.758281  6247 roi_pooling_layer.cpp:30] Spatial scale: 0.0625
I0824 17:19:26.758358  6247 net.cpp:150] Setting up roi_pool5
I0824 17:19:26.758365  6247 net.cpp:157] Top shape: 1 512 6 6 (18432)
I0824 17:19:26.758370  6247 net.cpp:165] Memory required for data: 283863688
I0824 17:19:26.758373  6247 layer_factory.hpp:77] Creating layer fc6
I0824 17:19:26.758383  6247 net.cpp:106] Creating Layer fc6
I0824 17:19:26.758388  6247 net.cpp:454] fc6 <- pool5
I0824 17:19:26.758395  6247 net.cpp:411] fc6 -> fc6
I0824 17:19:27.211427  6247 net.cpp:150] Setting up fc6
I0824 17:19:27.211483  6247 net.cpp:157] Top shape: 1 4096 (4096)
I0824 17:19:27.211486  6247 net.cpp:165] Memory required for data: 283880072
I0824 17:19:27.211505  6247 layer_factory.hpp:77] Creating layer relu6
I0824 17:19:27.211519  6247 net.cpp:106] Creating Layer relu6
I0824 17:19:27.211524  6247 net.cpp:454] relu6 <- fc6
I0824 17:19:27.211531  6247 net.cpp:397] relu6 -> fc6 (in-place)
I0824 17:19:27.212301  6247 net.cpp:150] Setting up relu6
I0824 17:19:27.212316  6247 net.cpp:157] Top shape: 1 4096 (4096)
I0824 17:19:27.212318  6247 net.cpp:165] Memory required for data: 283896456
I0824 17:19:27.212321  6247 layer_factory.hpp:77] Creating layer drop6
I0824 17:19:27.212330  6247 net.cpp:106] Creating Layer drop6
I0824 17:19:27.212333  6247 net.cpp:454] drop6 <- fc6
I0824 17:19:27.212340  6247 net.cpp:397] drop6 -> fc6 (in-place)
I0824 17:19:27.212390  6247 net.cpp:150] Setting up drop6
I0824 17:19:27.212398  6247 net.cpp:157] Top shape: 1 4096 (4096)
I0824 17:19:27.212400  6247 net.cpp:165] Memory required for data: 283912840
I0824 17:19:27.212404  6247 layer_factory.hpp:77] Creating layer fc7
I0824 17:19:27.212411  6247 net.cpp:106] Creating Layer fc7
I0824 17:19:27.212416  6247 net.cpp:454] fc7 <- fc6
I0824 17:19:27.212422  6247 net.cpp:411] fc7 -> fc7
I0824 17:19:27.238306  6247 net.cpp:150] Setting up fc7
I0824 17:19:27.238364  6247 net.cpp:157] Top shape: 1 1024 (1024)
I0824 17:19:27.238368  6247 net.cpp:165] Memory required for data: 283916936
I0824 17:19:27.238379  6247 layer_factory.hpp:77] Creating layer relu7
I0824 17:19:27.238390  6247 net.cpp:106] Creating Layer relu7
I0824 17:19:27.238394  6247 net.cpp:454] relu7 <- fc7
I0824 17:19:27.238402  6247 net.cpp:397] relu7 -> fc7 (in-place)
I0824 17:19:27.238680  6247 net.cpp:150] Setting up relu7
I0824 17:19:27.238692  6247 net.cpp:157] Top shape: 1 1024 (1024)
I0824 17:19:27.238693  6247 net.cpp:165] Memory required for data: 283921032
I0824 17:19:27.238697  6247 layer_factory.hpp:77] Creating layer drop7
I0824 17:19:27.238704  6247 net.cpp:106] Creating Layer drop7
I0824 17:19:27.238708  6247 net.cpp:454] drop7 <- fc7
I0824 17:19:27.238713  6247 net.cpp:397] drop7 -> fc7 (in-place)
I0824 17:19:27.238760  6247 net.cpp:150] Setting up drop7
I0824 17:19:27.238766  6247 net.cpp:157] Top shape: 1 1024 (1024)
I0824 17:19:27.238770  6247 net.cpp:165] Memory required for data: 283925128
I0824 17:19:27.238772  6247 layer_factory.hpp:77] Creating layer fc7_drop7_0_split
I0824 17:19:27.238780  6247 net.cpp:106] Creating Layer fc7_drop7_0_split
I0824 17:19:27.238785  6247 net.cpp:454] fc7_drop7_0_split <- fc7
I0824 17:19:27.238790  6247 net.cpp:411] fc7_drop7_0_split -> fc7_drop7_0_split_0
I0824 17:19:27.238798  6247 net.cpp:411] fc7_drop7_0_split -> fc7_drop7_0_split_1
I0824 17:19:27.238806  6247 net.cpp:411] fc7_drop7_0_split -> fc7_drop7_0_split_2
I0824 17:19:27.238898  6247 net.cpp:150] Setting up fc7_drop7_0_split
I0824 17:19:27.238921  6247 net.cpp:157] Top shape: 1 1024 (1024)
I0824 17:19:27.238929  6247 net.cpp:157] Top shape: 1 1024 (1024)
I0824 17:19:27.238932  6247 net.cpp:157] Top shape: 1 1024 (1024)
I0824 17:19:27.238934  6247 net.cpp:165] Memory required for data: 283937416
I0824 17:19:27.238937  6247 layer_factory.hpp:77] Creating layer cls_score
I0824 17:19:27.238946  6247 net.cpp:106] Creating Layer cls_score
I0824 17:19:27.238951  6247 net.cpp:454] cls_score <- fc7_drop7_0_split_0
I0824 17:19:27.238958  6247 net.cpp:411] cls_score -> cls_score
I0824 17:19:27.239413  6247 net.cpp:150] Setting up cls_score
I0824 17:19:27.239423  6247 net.cpp:157] Top shape: 1 21 (21)
I0824 17:19:27.239425  6247 net.cpp:165] Memory required for data: 283937500
I0824 17:19:27.239431  6247 layer_factory.hpp:77] Creating layer bbox_pred
I0824 17:19:27.239440  6247 net.cpp:106] Creating Layer bbox_pred
I0824 17:19:27.239444  6247 net.cpp:454] bbox_pred <- fc7_drop7_0_split_1
I0824 17:19:27.239450  6247 net.cpp:411] bbox_pred -> bbox_pred
I0824 17:19:27.242871  6247 net.cpp:150] Setting up bbox_pred
I0824 17:19:27.242902  6247 net.cpp:157] Top shape: 1 84 (84)
I0824 17:19:27.242913  6247 net.cpp:165] Memory required for data: 283937836
I0824 17:19:27.242930  6247 layer_factory.hpp:77] Creating layer key_pred
I0824 17:19:27.242944  6247 net.cpp:106] Creating Layer key_pred
I0824 17:19:27.242949  6247 net.cpp:454] key_pred <- fc7_drop7_0_split_2
I0824 17:19:27.242959  6247 net.cpp:411] key_pred -> key_pred
I0824 17:19:27.244107  6247 net.cpp:150] Setting up key_pred
I0824 17:19:27.244118  6247 net.cpp:157] Top shape: 1 84 (84)
I0824 17:19:27.244120  6247 net.cpp:165] Memory required for data: 283938172
I0824 17:19:27.244127  6247 layer_factory.hpp:77] Creating layer loss_cls
I0824 17:19:27.244135  6247 net.cpp:106] Creating Layer loss_cls
I0824 17:19:27.244138  6247 net.cpp:454] loss_cls <- cls_score
I0824 17:19:27.244143  6247 net.cpp:454] loss_cls <- labels
I0824 17:19:27.244149  6247 net.cpp:411] loss_cls -> loss_cls
…
           'RPN_POST_NMS_TOP_N': 2000,
           'RPN_PRE_NMS_TOP_N': 12000,
           'SCALES': [600],
           'SNAPSHOT_INFIX': '',
           'SNAPSHOT_ITERS': 10000,
           'USE_FLIPPED': True,
           'USE_PREFETCH': False},
 'USE_GPU_NMS': True}
WARNING: Logging before InitGoogleLogging() is written to STDERR
I0824 20:25:28.704861 13200 net.cpp:49] Initializing net from parameters: 
name: "VGG_CNN_M_1024"
input: "data"
input: "im_info"
state {
  phase: TEST
}
input_shape {
  dim: 1
  dim: 3
  dim: 224
  dim: 224
}
input_shape {
  dim: 1
  dim: 3
}
layer {
  name: "conv1"
  type: "Convolution"
  bottom: "data"
  top: "conv1"
  param {
    lr_mult: 0
    decay_mult: 0
  }
  param {
    lr_mult: 0
    decay_mult: 0
  }
  convolution_param {
    num_output: 96
    kernel_size: 7
    stride: 2
  }
}
layer {
  name: "relu1"
  type: "ReLU"
  bottom: "conv1"
  top: "conv1"
}
layer {
  name: "norm1"
  type: "LRN"
  bottom: "conv1"
  top: "norm1"
  lrn_param {
    local_size: 5
    alpha: 0.0005
    beta: 0.75
    k: 2
  }
}
layer {
  name: "pool1"
  type: "Pooling"
  bottom: "norm1"
  top: "pool1"
  pooling_param {
    pool: MAX
    kernel_size: 3
    stride: 2
  }
}
layer {
  name: "conv2"
  type: "Convolution"
  bottom: "pool1"
  top: "conv2"
  param {
    lr_mult: 1
    decay_mult: 1
  }
  param {
    lr_mult: 2
    decay_mult: 0
  }
  convolution_param {
    num_output: 256
    pad: 1
    kernel_size: 5
    stride: 2
  }
}
layer {
  name: "relu2"
  type: "ReLU"
  bottom: "conv2"
  top: "conv2"
}
layer {
  name: "norm2"
  type: "LRN"
  bottom: "conv2"
  top: "norm2"
  lrn_param {
    local_size: 5
    alpha: 0.0005
    beta: 0.75
    k: 2
  }
}
layer {
  name: "pool2"
  type: "Pooling"
  bottom: "norm2"
  top: "pool2"
  pooling_param {
    pool: MAX
    kernel_size: 3
    stride: 2
  }
}
layer {
  name: "conv3"
  type: "Convolution"
  bottom: "pool2"
  top: "conv3"
  param {
    lr_mult: 1
    decay_mult: 1
  }
  param {
    lr_mult: 2
    decay_mult: 0
  }
  convolution_param {
    num_output: 512
    pad: 1
    kernel_size: 3
  }
}
layer {
  name: "relu3"
  type: "ReLU"
  bottom: "conv3"
  top: "conv3"
}
layer {
  name: "conv4"
  type: "Convolution"
  bottom: "conv3"
  top: "conv4"
  param {
    lr_mult: 1
    decay_mult: 1
  }
  param {
    lr_mult: 2
    decay_mult: 0
  }
  convolution_param {
    num_output: 512
    pad: 1
    kernel_size: 3
  }
}
layer {
  name: "relu4"
  type: "ReLU"
  bottom: "conv4"
  top: "conv4"
}
layer {
  name: "conv5"
  type: "Convolution"
  bottom: "conv4"
  top: "conv5"
  param {
    lr_mult: 1
    decay_mult: 1
  }
  param {
    lr_mult: 2
    decay_mult: 0
  }
  convolution_param {
    num_output: 512
    pad: 1
    kernel_size: 3
  }
}
layer {
  name: "relu5"
  type: "ReLU"
  bottom: "conv5"
  top: "conv5"
}
layer {
  name: "rpn_conv/3x3"
  type: "Convolution"
  bottom: "conv5"
  top: "rpn/output"
  param {
    lr_mult: 1
    decay_mult: 1
  }
  param {
    lr_mult: 2
    decay_mult: 0
  }
  convolution_param {
    num_output: 256
    pad: 1
    kernel_size: 3
    stride: 1
    weight_filler {
      type: "gaussian"
      std: 0.01
    }
    bias_filler {
      type: "constant"
      value: 0
    }
  }
}
layer {
  name: "rpn_relu/3x3"
  type: "ReLU"
  bottom: "rpn/output"
  top: "rpn/output"
}
layer {
  name: "rpn_cls_score"
  type: "Convolution"
  bottom: "rpn/output"
  top: "rpn_cls_score"
  param {
    lr_mult: 1
    decay_mult: 1
  }
  param {
    lr_mult: 2
    decay_mult: 0
  }
  convolution_param {
    num_output: 18
    pad: 0
    kernel_size: 1
    stride: 1
    weight_filler {
      type: "gaussian"
      std: 0.01
    }
    bias_filler {
      type: "constant"
      value: 0
    }
  }
}
layer {
  name: "rpn_bbox_pred"
  type: "Convolution"
  bottom: "rpn/output"
  top: "rpn_bbox_pred"
  param {
    lr_mult: 1
    decay_mult: 1
  }
  param {
    lr_mult: 2
    decay_mult: 0
  }
  convolution_param {
    num_output: 36
    pad: 0
    kernel_size: 1
    stride: 1
    weight_filler {
      type: "gaussian"
      std: 0.01
    }
    bias_filler {
      type: "constant"
      value: 0
    }
  }
}
layer {
  name: "rpn_cls_score_reshape"
  type: "Reshape"
  bottom: "rpn_cls_score"
  top: "rpn_cls_score_reshape"
  reshape_param {
    shape {
      dim: 0
      dim: 2
      dim: -1
      dim: 0
    }
  }
}
layer {
  name: "rpn_cls_prob"
  type: "Softmax"
  bottom: "rpn_cls_score_reshape"
  top: "rpn_cls_prob"
}
layer {
  name: "rpn_cls_prob_reshape"
  type: "Reshape"
  bottom: "rpn_cls_prob"
  top: "rpn_cls_prob_reshape"
  reshape_param {
    shape {
      dim: 0
      dim: 18
      dim: -1
      dim: 0
    }
  }
}
layer {
  name: "proposal"
  type: "Python"
  bottom: "rpn_cls_prob_reshape"
  bottom: "rpn_bbox_pred"
  bottom: "im_info"
  top: "rois"
  python_param {
    module: "rpn.proposal_layer"
    layer: "ProposalLayer"
    param_str: "\'feat_stride\': 16"
  }
}
layer {
  name: "roi_pool5"
  type: "ROIPooling"
  bottom: "conv5"
  bottom: "rois"
  top: "pool5"
  roi_pooling_param {
    pooled_h: 6
    pooled_w: 6
    spatial_scale: 0.0625
  }
}
layer {
  name: "fc6"
  type: "InnerProduct"
  bottom: "pool5"
  top: "fc6"
  param {
    lr_mult: 1
    decay_mult: 1
  }
  param {
    lr_mult: 2
    decay_mult: 0
  }
  inner_product_param {
    num_output: 4096
  }
}
layer {
  name: "relu6"
  type: "ReLU"
  bottom: "fc6"
  top: "fc6"
}
layer {
  name: "drop6"
  type: "Dropout"
  bottom: "fc6"
  top: "fc6"
  dropout_param {
    dropout_ratio: 0.5
  }
}
layer {
  name: "fc7"
  type: "InnerProduct"
  bottom: "fc6"
  top: "fc7"
  param {
    lr_mult: 1
    decay_mult: 1
  }
  param {
    lr_mult: 2
    decay_mult: 0
  }
  inner_product_param {
    num_output: 1024
  }
}
layer {
  name: "relu7"
  type: "ReLU"
  bottom: "fc7"
  top: "fc7"
}
layer {
  name: "drop7"
  type: "Dropout"
  bottom: "fc7"
  top: "fc7"
  dropout_param {
    dropout_ratio: 0.5
  }
}
layer {
  name: "cls_score"
  type: "InnerProduct"
  bottom: "fc7"
  top: "cls_score"
  param {
    lr_mult: 1
    decay_mult: 1
  }
  param {
    lr_mult: 2
    decay_mult: 0
  }
  inner_product_param {
    num_output: 21
    weight_filler {
      type: "gaussian"
      std: 0.01
    }
    bias_filler {
      type: "constant"
      value: 0
    }
  }
}
layer {
  name: "bbox_pred"
  type: "InnerProduct"
  bottom: "fc7"
  top: "bbox_pred"
  param {
    lr_mult: 1
    decay_mult: 1
  }
  param {
    lr_mult: 2
    decay_mult: 0
  }
  inner_product_param {
    num_output: 84
    weight_filler {
      type: "gaussian"
      std: 0.001
    }
    bias_filler {
      type: "constant"
      value: 0
    }
  }
}
layer {
  name: "key_pred"
  type: "InnerProduct"
  bottom: "fc7"
  top: "key_pred"
  param {
    lr_mult: 1
  }
  param {
    lr_mult: 2
  }
  inner_product_param {
    num_output: 84
    weight_filler {
      type: "gaussian"
      std: 0.001
    }
    bias_filler {
      type: "constant"
      value: 0
    }
  }
}
layer {
  name: "cls_prob"
  type: "Softmax"
  bottom: "cls_score"
  top: "cls_prob"
}
I0824 20:25:28.705137 13200 net.cpp:413] Input 0 -> data
I0824 20:25:28.731351 13200 net.cpp:413] Input 1 -> im_info
I0824 20:25:28.731446 13200 layer_factory.hpp:77] Creating layer conv1
I0824 20:25:28.731473 13200 net.cpp:106] Creating Layer conv1
I0824 20:25:28.731482 13200 net.cpp:454] conv1 <- data
I0824 20:25:28.731492 13200 net.cpp:411] conv1 -> conv1
I0824 20:25:29.058627 13200 net.cpp:150] Setting up conv1
I0824 20:25:29.058665 13200 net.cpp:157] Top shape: 1 96 109 109 (1140576)
I0824 20:25:29.058670 13200 net.cpp:165] Memory required for data: 4562304
I0824 20:25:29.058689 13200 layer_factory.hpp:77] Creating layer relu1
I0824 20:25:29.058703 13200 net.cpp:106] Creating Layer relu1
I0824 20:25:29.058708 13200 net.cpp:454] relu1 <- conv1
I0824 20:25:29.058715 13200 net.cpp:397] relu1 -> conv1 (in-place)
I0824 20:25:29.059240 13200 net.cpp:150] Setting up relu1
I0824 20:25:29.059257 13200 net.cpp:157] Top shape: 1 96 109 109 (1140576)
I0824 20:25:29.059260 13200 net.cpp:165] Memory required for data: 9124608
I0824 20:25:29.059263 13200 layer_factory.hpp:77] Creating layer norm1
I0824 20:25:29.059274 13200 net.cpp:106] Creating Layer norm1
I0824 20:25:29.059278 13200 net.cpp:454] norm1 <- conv1
I0824 20:25:29.059285 13200 net.cpp:411] norm1 -> norm1
I0824 20:25:29.060422 13200 net.cpp:150] Setting up norm1
I0824 20:25:29.060436 13200 net.cpp:157] Top shape: 1 96 109 109 (1140576)
I0824 20:25:29.060439 13200 net.cpp:165] Memory required for data: 13686912
I0824 20:25:29.060443 13200 layer_factory.hpp:77] Creating layer pool1
I0824 20:25:29.060451 13200 net.cpp:106] Creating Layer pool1
I0824 20:25:29.060456 13200 net.cpp:454] pool1 <- norm1
I0824 20:25:29.060461 13200 net.cpp:411] pool1 -> pool1
I0824 20:25:29.060524 13200 net.cpp:150] Setting up pool1
I0824 20:25:29.060534 13200 net.cpp:157] Top shape: 1 96 54 54 (279936)
I0824 20:25:29.060536 13200 net.cpp:165] Memory required for data: 14806656
I0824 20:25:29.060540 13200 layer_factory.hpp:77] Creating layer conv2
I0824 20:25:29.060552 13200 net.cpp:106] Creating Layer conv2
I0824 20:25:29.060556 13200 net.cpp:454] conv2 <- pool1
I0824 20:25:29.060561 13200 net.cpp:411] conv2 -> conv2
I0824 20:25:29.070096 13200 net.cpp:150] Setting up conv2
I0824 20:25:29.070113 13200 net.cpp:157] Top shape: 1 256 26 26 (173056)
I0824 20:25:29.070117 13200 net.cpp:165] Memory required for data: 15498880
I0824 20:25:29.070127 13200 layer_factory.hpp:77] Creating layer relu2
I0824 20:25:29.070135 13200 net.cpp:106] Creating Layer relu2
I0824 20:25:29.070139 13200 net.cpp:454] relu2 <- conv2
I0824 20:25:29.070144 13200 net.cpp:397] relu2 -> conv2 (in-place)
I0824 20:25:29.070662 13200 net.cpp:150] Setting up relu2
I0824 20:25:29.070677 13200 net.cpp:157] Top shape: 1 256 26 26 (173056)
I0824 20:25:29.070682 13200 net.cpp:165] Memory required for data: 16191104
I0824 20:25:29.070685 13200 layer_factory.hpp:77] Creating layer norm2
I0824 20:25:29.070693 13200 net.cpp:106] Creating Layer norm2
I0824 20:25:29.070698 13200 net.cpp:454] norm2 <- conv2
I0824 20:25:29.070703 13200 net.cpp:411] norm2 -> norm2
I0824 20:25:29.071146 13200 net.cpp:150] Setting up norm2
I0824 20:25:29.071161 13200 net.cpp:157] Top shape: 1 256 26 26 (173056)
I0824 20:25:29.071163 13200 net.cpp:165] Memory required for data: 16883328
I0824 20:25:29.071167 13200 layer_factory.hpp:77] Creating layer pool2
I0824 20:25:29.071174 13200 net.cpp:106] Creating Layer pool2
I0824 20:25:29.071178 13200 net.cpp:454] pool2 <- norm2
I0824 20:25:29.071184 13200 net.cpp:411] pool2 -> pool2
I0824 20:25:29.071247 13200 net.cpp:150] Setting up pool2
I0824 20:25:29.071256 13200 net.cpp:157] Top shape: 1 256 13 13 (43264)
I0824 20:25:29.071259 13200 net.cpp:165] Memory required for data: 17056384
I0824 20:25:29.071262 13200 layer_factory.hpp:77] Creating layer conv3
I0824 20:25:29.071272 13200 net.cpp:106] Creating Layer conv3
I0824 20:25:29.071279 13200 net.cpp:454] conv3 <- pool2
I0824 20:25:29.071285 13200 net.cpp:411] conv3 -> conv3
I0824 20:25:29.081931 13200 net.cpp:150] Setting up conv3
I0824 20:25:29.081953 13200 net.cpp:157] Top shape: 1 512 13 13 (86528)
I0824 20:25:29.081956 13200 net.cpp:165] Memory required for data: 17402496
I0824 20:25:29.081969 13200 layer_factory.hpp:77] Creating layer relu3
I0824 20:25:29.081977 13200 net.cpp:106] Creating Layer relu3
I0824 20:25:29.081981 13200 net.cpp:454] relu3 <- conv3
I0824 20:25:29.081987 13200 net.cpp:397] relu3 -> conv3 (in-place)
I0824 20:25:29.083864 13200 net.cpp:150] Setting up relu3
I0824 20:25:29.083878 13200 net.cpp:157] Top shape: 1 512 13 13 (86528)
I0824 20:25:29.083881 13200 net.cpp:165] Memory required for data: 17748608
I0824 20:25:29.083885 13200 layer_factory.hpp:77] Creating layer conv4
I0824 20:25:29.083899 13200 net.cpp:106] Creating Layer conv4
I0824 20:25:29.083904 13200 net.cpp:454] conv4 <- conv3
I0824 20:25:29.083911 13200 net.cpp:411] conv4 -> conv4
I0824 20:25:29.100371 13200 net.cpp:150] Setting up conv4
I0824 20:25:29.100414 13200 net.cpp:157] Top shape: 1 512 13 13 (86528)
I0824 20:25:29.100419 13200 net.cpp:165] Memory required for data: 18094720
I0824 20:25:29.100432 13200 layer_factory.hpp:77] Creating layer relu4
I0824 20:25:29.100445 13200 net.cpp:106] Creating Layer relu4
I0824 20:25:29.100461 13200 net.cpp:454] relu4 <- conv4
I0824 20:25:29.100471 13200 net.cpp:397] relu4 -> conv4 (in-place)
I0824 20:25:29.101052 13200 net.cpp:150] Setting up relu4
I0824 20:25:29.101074 13200 net.cpp:157] Top shape: 1 512 13 13 (86528)
I0824 20:25:29.101078 13200 net.cpp:165] Memory required for data: 18440832
I0824 20:25:29.101081 13200 layer_factory.hpp:77] Creating layer conv5
I0824 20:25:29.101095 13200 net.cpp:106] Creating Layer conv5
I0824 20:25:29.101101 13200 net.cpp:454] conv5 <- conv4
I0824 20:25:29.101111 13200 net.cpp:411] conv5 -> conv5
I0824 20:25:29.116232 13200 net.cpp:150] Setting up conv5
I0824 20:25:29.116264 13200 net.cpp:157] Top shape: 1 512 13 13 (86528)
I0824 20:25:29.116268 13200 net.cpp:165] Memory required for data: 18786944
I0824 20:25:29.116286 13200 layer_factory.hpp:77] Creating layer relu5
I0824 20:25:29.116293 13200 net.cpp:106] Creating Layer relu5
I0824 20:25:29.116309 13200 net.cpp:454] relu5 <- conv5
I0824 20:25:29.116315 13200 net.cpp:397] relu5 -> conv5 (in-place)
I0824 20:25:29.117247 13200 net.cpp:150] Setting up relu5
I0824 20:25:29.117259 13200 net.cpp:157] Top shape: 1 512 13 13 (86528)
I0824 20:25:29.117262 13200 net.cpp:165] Memory required for data: 19133056
I0824 20:25:29.117266 13200 layer_factory.hpp:77] Creating layer conv5_relu5_0_split
I0824 20:25:29.117272 13200 net.cpp:106] Creating Layer conv5_relu5_0_split
I0824 20:25:29.117276 13200 net.cpp:454] conv5_relu5_0_split <- conv5
I0824 20:25:29.117285 13200 net.cpp:411] conv5_relu5_0_split -> conv5_relu5_0_split_0
I0824 20:25:29.117292 13200 net.cpp:411] conv5_relu5_0_split -> conv5_relu5_0_split_1
I0824 20:25:29.117367 13200 net.cpp:150] Setting up conv5_relu5_0_split
I0824 20:25:29.117408 13200 net.cpp:157] Top shape: 1 512 13 13 (86528)
I0824 20:25:29.117430 13200 net.cpp:157] Top shape: 1 512 13 13 (86528)
I0824 20:25:29.117447 13200 net.cpp:165] Memory required for data: 19825280
I0824 20:25:29.117465 13200 layer_factory.hpp:77] Creating layer rpn_conv/3x3
I0824 20:25:29.117533 13200 net.cpp:106] Creating Layer rpn_conv/3x3
I0824 20:25:29.117547 13200 net.cpp:454] rpn_conv/3x3 <- conv5_relu5_0_split_0
I0824 20:25:29.117560 13200 net.cpp:411] rpn_conv/3x3 -> rpn/output
I0824 20:25:29.138339 13200 net.cpp:150] Setting up rpn_conv/3x3
I0824 20:25:29.138365 13200 net.cpp:157] Top shape: 1 256 13 13 (43264)
I0824 20:25:29.138370 13200 net.cpp:165] Memory required for data: 19998336
I0824 20:25:29.138376 13200 layer_factory.hpp:77] Creating layer rpn_relu/3x3
I0824 20:25:29.138387 13200 net.cpp:106] Creating Layer rpn_relu/3x3
I0824 20:25:29.138393 13200 net.cpp:454] rpn_relu/3x3 <- rpn/output
I0824 20:25:29.138411 13200 net.cpp:397] rpn_relu/3x3 -> rpn/output (in-place)
I0824 20:25:29.139637 13200 net.cpp:150] Setting up rpn_relu/3x3
I0824 20:25:29.139662 13200 net.cpp:157] Top shape: 1 256 13 13 (43264)
I0824 20:25:29.139665 13200 net.cpp:165] Memory required for data: 20171392
I0824 20:25:29.139668 13200 layer_factory.hpp:77] Creating layer rpn/output_rpn_relu/3x3_0_split
I0824 20:25:29.139675 13200 net.cpp:106] Creating Layer rpn/output_rpn_relu/3x3_0_split
I0824 20:25:29.139678 13200 net.cpp:454] rpn/output_rpn_relu/3x3_0_split <- rpn/output
I0824 20:25:29.139686 13200 net.cpp:411] rpn/output_rpn_relu/3x3_0_split -> rpn/output_rpn_relu/3x3_0_split_0
I0824 20:25:29.139706 13200 net.cpp:411] rpn/output_rpn_relu/3x3_0_split -> rpn/output_rpn_relu/3x3_0_split_1
I0824 20:25:29.139775 13200 net.cpp:150] Setting up rpn/output_rpn_relu/3x3_0_split
I0824 20:25:29.139785 13200 net.cpp:157] Top shape: 1 256 13 13 (43264)
I0824 20:25:29.139788 13200 net.cpp:157] Top shape: 1 256 13 13 (43264)
I0824 20:25:29.139791 13200 net.cpp:165] Memory required for data: 20517504
I0824 20:25:29.139794 13200 layer_factory.hpp:77] Creating layer rpn_cls_score
I0824 20:25:29.139806 13200 net.cpp:106] Creating Layer rpn_cls_score
I0824 20:25:29.139811 13200 net.cpp:454] rpn_cls_score <- rpn/output_rpn_relu/3x3_0_split_0
I0824 20:25:29.139821 13200 net.cpp:411] rpn_cls_score -> rpn_cls_score
I0824 20:25:29.145290 13200 net.cpp:150] Setting up rpn_cls_score
I0824 20:25:29.145304 13200 net.cpp:157] Top shape: 1 18 13 13 (3042)
I0824 20:25:29.145319 13200 net.cpp:165] Memory required for data: 20529672
I0824 20:25:29.145326 13200 layer_factory.hpp:77] Creating layer rpn_bbox_pred
I0824 20:25:29.145339 13200 net.cpp:106] Creating Layer rpn_bbox_pred
I0824 20:25:29.145344 13200 net.cpp:454] rpn_bbox_pred <- rpn/output_rpn_relu/3x3_0_split_1
I0824 20:25:29.145354 13200 net.cpp:411] rpn_bbox_pred -> rpn_bbox_pred
I0824 20:25:29.148499 13200 net.cpp:150] Setting up rpn_bbox_pred
I0824 20:25:29.148514 13200 net.cpp:157] Top shape: 1 36 13 13 (6084)
I0824 20:25:29.148530 13200 net.cpp:165] Memory required for data: 20554008
I0824 20:25:29.148536 13200 layer_factory.hpp:77] Creating layer rpn_cls_score_reshape
I0824 20:25:29.148546 13200 net.cpp:106] Creating Layer rpn_cls_score_reshape
I0824 20:25:29.148551 13200 net.cpp:454] rpn_cls_score_reshape <- rpn_cls_score
I0824 20:25:29.148557 13200 net.cpp:411] rpn_cls_score_reshape -> rpn_cls_score_reshape
I0824 20:25:29.148604 13200 net.cpp:150] Setting up rpn_cls_score_reshape
I0824 20:25:29.148614 13200 net.cpp:157] Top shape: 1 2 117 13 (3042)
I0824 20:25:29.148617 13200 net.cpp:165] Memory required for data: 20566176
I0824 20:25:29.148620 13200 layer_factory.hpp:77] Creating layer rpn_cls_prob
I0824 20:25:29.148627 13200 net.cpp:106] Creating Layer rpn_cls_prob
I0824 20:25:29.148630 13200 net.cpp:454] rpn_cls_prob <- rpn_cls_score_reshape
I0824 20:25:29.148635 13200 net.cpp:411] rpn_cls_prob -> rpn_cls_prob
I0824 20:25:29.149582 13200 net.cpp:150] Setting up rpn_cls_prob
I0824 20:25:29.149596 13200 net.cpp:157] Top shape: 1 2 117 13 (3042)
I0824 20:25:29.149600 13200 net.cpp:165] Memory required for data: 20578344
I0824 20:25:29.149603 13200 layer_factory.hpp:77] Creating layer rpn_cls_prob_reshape
I0824 20:25:29.149610 13200 net.cpp:106] Creating Layer rpn_cls_prob_reshape
I0824 20:25:29.149613 13200 net.cpp:454] rpn_cls_prob_reshape <- rpn_cls_prob
I0824 20:25:29.149622 13200 net.cpp:411] rpn_cls_prob_reshape -> rpn_cls_prob_reshape
I0824 20:25:29.149663 13200 net.cpp:150] Setting up rpn_cls_prob_reshape
I0824 20:25:29.149673 13200 net.cpp:157] Top shape: 1 18 13 13 (3042)
I0824 20:25:29.149677 13200 net.cpp:165] Memory required for data: 20590512
I0824 20:25:29.149679 13200 layer_factory.hpp:77] Creating layer proposal
I0824 20:25:29.150147 13200 net.cpp:106] Creating Layer proposal
I0824 20:25:29.150161 13200 net.cpp:454] proposal <- rpn_cls_prob_reshape
I0824 20:25:29.150166 13200 net.cpp:454] proposal <- rpn_bbox_pred
I0824 20:25:29.150171 13200 net.cpp:454] proposal <- im_info
I0824 20:25:29.150177 13200 net.cpp:411] proposal -> rois
I0824 20:25:29.150986 13200 net.cpp:150] Setting up proposal
I0824 20:25:29.151001 13200 net.cpp:157] Top shape: 1 5 (5)
I0824 20:25:29.151005 13200 net.cpp:165] Memory required for data: 20590532
I0824 20:25:29.151008 13200 layer_factory.hpp:77] Creating layer roi_pool5
I0824 20:25:29.151015 13200 net.cpp:106] Creating Layer roi_pool5
I0824 20:25:29.151020 13200 net.cpp:454] roi_pool5 <- conv5_relu5_0_split_1
I0824 20:25:29.151024 13200 net.cpp:454] roi_pool5 <- rois
I0824 20:25:29.151031 13200 net.cpp:411] roi_pool5 -> pool5
I0824 20:25:29.151038 13200 roi_pooling_layer.cpp:30] Spatial scale: 0.0625
I0824 20:25:29.151108 13200 net.cpp:150] Setting up roi_pool5
I0824 20:25:29.151118 13200 net.cpp:157] Top shape: 1 512 6 6 (18432)
I0824 20:25:29.151124 13200 net.cpp:165] Memory required for data: 20664260
I0824 20:25:29.151127 13200 layer_factory.hpp:77] Creating layer fc6
I0824 20:25:29.151134 13200 net.cpp:106] Creating Layer fc6
I0824 20:25:29.151139 13200 net.cpp:454] fc6 <- pool5
I0824 20:25:29.151144 13200 net.cpp:411] fc6 -> fc6
I0824 20:25:29.597641 13200 net.cpp:150] Setting up fc6
I0824 20:25:29.597698 13200 net.cpp:157] Top shape: 1 4096 (4096)
I0824 20:25:29.597702 13200 net.cpp:165] Memory required for data: 20680644
I0824 20:25:29.597729 13200 layer_factory.hpp:77] Creating layer relu6
I0824 20:25:29.597756 13200 net.cpp:106] Creating Layer relu6
I0824 20:25:29.597764 13200 net.cpp:454] relu6 <- fc6
I0824 20:25:29.597771 13200 net.cpp:397] relu6 -> fc6 (in-place)
I0824 20:25:29.598107 13200 net.cpp:150] Setting up relu6
I0824 20:25:29.598119 13200 net.cpp:157] Top shape: 1 4096 (4096)
I0824 20:25:29.598134 13200 net.cpp:165] Memory required for data: 20697028
I0824 20:25:29.598139 13200 layer_factory.hpp:77] Creating layer drop6
I0824 20:25:29.598147 13200 net.cpp:106] Creating Layer drop6
I0824 20:25:29.598150 13200 net.cpp:454] drop6 <- fc6
I0824 20:25:29.598158 13200 net.cpp:397] drop6 -> fc6 (in-place)
I0824 20:25:29.598219 13200 net.cpp:150] Setting up drop6
I0824 20:25:29.598229 13200 net.cpp:157] Top shape: 1 4096 (4096)
I0824 20:25:29.598232 13200 net.cpp:165] Memory required for data: 20713412
I0824 20:25:29.598235 13200 layer_factory.hpp:77] Creating layer fc7
I0824 20:25:29.598247 13200 net.cpp:106] Creating Layer fc7
I0824 20:25:29.598250 13200 net.cpp:454] fc7 <- fc6
I0824 20:25:29.598256 13200 net.cpp:411] fc7 -> fc7
I0824 20:25:29.619566 13200 net.cpp:150] Setting up fc7
I0824 20:25:29.619596 13200 net.cpp:157] Top shape: 1 1024 (1024)
I0824 20:25:29.619601 13200 net.cpp:165] Memory required for data: 20717508
I0824 20:25:29.619608 13200 layer_factory.hpp:77] Creating layer relu7
I0824 20:25:29.619618 13200 net.cpp:106] Creating Layer relu7
I0824 20:25:29.619621 13200 net.cpp:454] relu7 <- fc7
I0824 20:25:29.619627 13200 net.cpp:397] relu7 -> fc7 (in-place)
I0824 20:25:29.620235 13200 net.cpp:150] Setting up relu7
I0824 20:25:29.620249 13200 net.cpp:157] Top shape: 1 1024 (1024)
I0824 20:25:29.620265 13200 net.cpp:165] Memory required for data: 20721604
I0824 20:25:29.620268 13200 layer_factory.hpp:77] Creating layer drop7
I0824 20:25:29.620277 13200 net.cpp:106] Creating Layer drop7
I0824 20:25:29.620281 13200 net.cpp:454] drop7 <- fc7
I0824 20:25:29.620287 13200 net.cpp:397] drop7 -> fc7 (in-place)
I0824 20:25:29.620348 13200 net.cpp:150] Setting up drop7
I0824 20:25:29.620362 13200 net.cpp:157] Top shape: 1 1024 (1024)
I0824 20:25:29.620367 13200 net.cpp:165] Memory required for data: 20725700
I0824 20:25:29.620374 13200 layer_factory.hpp:77] Creating layer fc7_drop7_0_split
I0824 20:25:29.620383 13200 net.cpp:106] Creating Layer fc7_drop7_0_split
I0824 20:25:29.620389 13200 net.cpp:454] fc7_drop7_0_split <- fc7
I0824 20:25:29.620395 13200 net.cpp:411] fc7_drop7_0_split -> fc7_drop7_0_split_0
I0824 20:25:29.620406 13200 net.cpp:411] fc7_drop7_0_split -> fc7_drop7_0_split_1
I0824 20:25:29.620414 13200 net.cpp:411] fc7_drop7_0_split -> fc7_drop7_0_split_2
I0824 20:25:29.620508 13200 net.cpp:150] Setting up fc7_drop7_0_split
I0824 20:25:29.620517 13200 net.cpp:157] Top shape: 1 1024 (1024)
I0824 20:25:29.620522 13200 net.cpp:157] Top shape: 1 1024 (1024)
I0824 20:25:29.620527 13200 net.cpp:157] Top shape: 1 1024 (1024)
I0824 20:25:29.620528 13200 net.cpp:165] Memory required for data: 20737988
I0824 20:25:29.620532 13200 layer_factory.hpp:77] Creating layer cls_score
I0824 20:25:29.620559 13200 net.cpp:106] Creating Layer cls_score
I0824 20:25:29.620565 13200 net.cpp:454] cls_score <- fc7_drop7_0_split_0
I0824 20:25:29.620573 13200 net.cpp:411] cls_score -> cls_score
I0824 20:25:29.622838 13200 net.cpp:150] Setting up cls_score
I0824 20:25:29.622851 13200 net.cpp:157] Top shape: 1 21 (21)
I0824 20:25:29.622867 13200 net.cpp:165] Memory required for data: 20738072
I0824 20:25:29.622875 13200 layer_factory.hpp:77] Creating layer bbox_pred
I0824 20:25:29.622886 13200 net.cpp:106] Creating Layer bbox_pred
I0824 20:25:29.622890 13200 net.cpp:454] bbox_pred <- fc7_drop7_0_split_1
I0824 20:25:29.622897 13200 net.cpp:411] bbox_pred -> bbox_pred
I0824 20:25:29.625816 13200 net.cpp:150] Setting up bbox_pred
I0824 20:25:29.625829 13200 net.cpp:157] Top shape: 1 84 (84)
I0824 20:25:29.625845 13200 net.cpp:165] Memory required for data: 20738408
I0824 20:25:29.625854 13200 layer_factory.hpp:77] Creating layer key_pred
I0824 20:25:29.625862 13200 net.cpp:106] Creating Layer key_pred
I0824 20:25:29.625866 13200 net.cpp:454] key_pred <- fc7_drop7_0_split_2
I0824 20:25:29.625885 13200 net.cpp:411] key_pred -> key_pred
I0824 20:25:29.627018 13200 net.cpp:150] Setting up key_pred
I0824 20:25:29.627043 13200 net.cpp:157] Top shape: 1 84 (84)
I0824 20:25:29.627058 13200 net.cpp:165] Memory required for data: 20738744
I0824 20:25:29.627065 13200 layer_factory.hpp:77] Creating layer cls_prob
I0824 20:25:29.627073 13200 net.cpp:106] Creating Layer cls_prob
I0824 20:25:29.627076 13200 net.cpp:454] cls_prob <- cls_score
I0824 20:25:29.627085 13200 net.cpp:411] cls_prob -> cls_prob
I0824 20:25:29.627429 13200 net.cpp:150] Setting up cls_prob
I0824 20:25:29.627454 13200 net.cpp:157] Top shape: 1 21 (21)
I0824 20:25:29.627457 13200 net.cpp:165] Memory required for data: 20738828
I0824 20:25:29.627461 13200 net.cpp:228] cls_prob does not need backward computation.
I0824 20:25:29.627465 13200 net.cpp:228] key_pred does not need backward computation.
I0824 20:25:29.627470 13200 net.cpp:228] bbox_pred does not need backward computation.
I0824 20:25:29.627473 13200 net.cpp:228] cls_score does not need backward computation.
…
