…
stepsize: 50000
snapshot: 0
snapshot_prefix: "key"
average_loss: 100
iter_size: 2
I0823 10:46:43.300783 18274 solver.cpp:81] Creating training net from train_net file: models/pascal_voc/VGG16/key/train.prototxt
I0823 10:46:43.301583 18274 net.cpp:49] Initializing net from parameters: 
name: "VGG_ILSVRC_16_layers"
state {
  phase: TRAIN
}
layer {
  name: "input-data"
  type: "Python"
  top: "data"
  top: "im_info"
  top: "gt_boxes"
  python_param {
    module: "roi_data_layer.layer"
    layer: "RoIDataLayer"
    param_str: "\'num_classes\': 21"
  }
}
layer {
  name: "conv1_1"
  type: "Convolution"
  bottom: "data"
  top: "conv1_1"
  param {
    lr_mult: 0
    decay_mult: 0
  }
  param {
    lr_mult: 0
    decay_mult: 0
  }
  convolution_param {
    num_output: 64
    pad: 1
    kernel_size: 3
  }
}
layer {
  name: "relu1_1"
  type: "ReLU"
  bottom: "conv1_1"
  top: "conv1_1"
}
layer {
  name: "conv1_2"
  type: "Convolution"
  bottom: "conv1_1"
  top: "conv1_2"
  param {
    lr_mult: 0
    decay_mult: 0
  }
  param {
    lr_mult: 0
    decay_mult: 0
  }
  convolution_param {
    num_output: 64
    pad: 1
    kernel_size: 3
  }
}
layer {
  name: "relu1_2"
  type: "ReLU"
  bottom: "conv1_2"
  top: "conv1_2"
}
layer {
  name: "pool1"
  type: "Pooling"
  bottom: "conv1_2"
  top: "pool1"
  pooling_param {
    pool: MAX
    kernel_size: 2
    stride: 2
  }
}
layer {
  name: "conv2_1"
  type: "Convolution"
  bottom: "pool1"
  top: "conv2_1"
  param {
    lr_mult: 0
    decay_mult: 0
  }
  param {
    lr_mult: 0
    decay_mult: 0
  }
  convolution_param {
    num_output: 128
    pad: 1
    kernel_size: 3
  }
}
layer {
  name: "relu2_1"
  type: "ReLU"
  bottom: "conv2_1"
  top: "conv2_1"
}
layer {
  name: "conv2_2"
  type: "Convolution"
  bottom: "conv2_1"
  top: "conv2_2"
  param {
    lr_mult: 0
    decay_mult: 0
  }
  param {
    lr_mult: 0
    decay_mult: 0
  }
  convolution_param {
    num_output: 128
    pad: 1
    kernel_size: 3
  }
}
layer {
  name: "relu2_2"
  type: "ReLU"
  bottom: "conv2_2"
  top: "conv2_2"
}
layer {
  name: "pool2"
  type: "Pooling"
  bottom: "conv2_2"
  top: "pool2"
  pooling_param {
    pool: MAX
    kernel_size: 2
    stride: 2
  }
}
layer {
  name: "conv3_1"
  type: "Convolution"
  bottom: "pool2"
  top: "conv3_1"
  param {
    lr_mult: 1
  }
  param {
    lr_mult: 2
  }
  convolution_param {
    num_output: 256
    pad: 1
    kernel_size: 3
  }
}
layer {
  name: "relu3_1"
  type: "ReLU"
  bottom: "conv3_1"
  top: "conv3_1"
}
layer {
  name: "conv3_2"
  type: "Convolution"
  bottom: "conv3_1"
  top: "conv3_2"
  param {
    lr_mult: 1
  }
  param {
    lr_mult: 2
  }
  convolution_param {
    num_output: 256
    pad: 1
    kernel_size: 3
  }
}
layer {
  name: "relu3_2"
  type: "ReLU"
  bottom: "conv3_2"
  top: "conv3_2"
}
layer {
  name: "conv3_3"
  type: "Convolution"
  bottom: "conv3_2"
  top: "conv3_3"
  param {
    lr_mult: 1
  }
  param {
    lr_mult: 2
  }
  convolution_param {
    num_output: 256
    pad: 1
    kernel_size: 3
  }
}
layer {
  name: "relu3_3"
  type: "ReLU"
  bottom: "conv3_3"
  top: "conv3_3"
}
layer {
  name: "pool3"
  type: "Pooling"
  bottom: "conv3_3"
  top: "pool3"
  pooling_param {
    pool: MAX
    kernel_size: 2
    stride: 2
  }
}
layer {
  name: "conv4_1"
  type: "Convolution"
  bottom: "pool3"
  top: "conv4_1"
  param {
    lr_mult: 1
  }
  param {
    lr_mult: 2
  }
  convolution_param {
    num_output: 512
    pad: 1
    kernel_size: 3
  }
}
layer {
  name: "relu4_1"
  type: "ReLU"
  bottom: "conv4_1"
  top: "conv4_1"
}
layer {
  name: "conv4_2"
  type: "Convolution"
  bottom: "conv4_1"
  top: "conv4_2"
  param {
    lr_mult: 1
  }
  param {
    lr_mult: 2
  }
  convolution_param {
    num_output: 512
    pad: 1
    kernel_size: 3
  }
}
layer {
  name: "relu4_2"
  type: "ReLU"
  bottom: "conv4_2"
  top: "conv4_2"
}
layer {
  name: "conv4_3"
  type: "Convolution"
  bottom: "conv4_2"
  top: "conv4_3"
  param {
    lr_mult: 1
  }
  param {
    lr_mult: 2
  }
  convolution_param {
    num_output: 512
    pad: 1
    kernel_size: 3
  }
}
layer {
  name: "relu4_3"
  type: "ReLU"
  bottom: "conv4_3"
  top: "conv4_3"
}
layer {
  name: "pool4"
  type: "Pooling"
  bottom: "conv4_3"
  top: "pool4"
  pooling_param {
    pool: MAX
    kernel_size: 2
    stride: 2
  }
}
layer {
  name: "conv5_1"
  type: "Convolution"
  bottom: "pool4"
  top: "conv5_1"
  param {
    lr_mult: 1
  }
  param {
    lr_mult: 2
  }
  convolution_param {
    num_output: 512
    pad: 1
    kernel_size: 3
  }
}
layer {
  name: "relu5_1"
  type: "ReLU"
  bottom: "conv5_1"
  top: "conv5_1"
}
layer {
  name: "conv5_2"
  type: "Convolution"
  bottom: "conv5_1"
  top: "conv5_2"
  param {
    lr_mult: 1
  }
  param {
    lr_mult: 2
  }
  convolution_param {
    num_output: 512
    pad: 1
    kernel_size: 3
  }
}
layer {
  name: "relu5_2"
  type: "ReLU"
  bottom: "conv5_2"
  top: "conv5_2"
}
layer {
  name: "conv5_3"
  type: "Convolution"
  bottom: "conv5_2"
  top: "conv5_3"
  param {
    lr_mult: 1
  }
  param {
    lr_mult: 2
  }
  convolution_param {
    num_output: 512
    pad: 1
    kernel_size: 3
  }
}
layer {
  name: "relu5_3"
  type: "ReLU"
  bottom: "conv5_3"
  top: "conv5_3"
}
layer {
  name: "rpn_conv/3x3"
  type: "Convolution"
  bottom: "conv5_3"
  top: "rpn/output"
  param {
    lr_mult: 1
  }
  param {
    lr_mult: 2
  }
  convolution_param {
    num_output: 512
    pad: 1
    kernel_size: 3
    stride: 1
    weight_filler {
      type: "gaussian"
      std: 0.01
    }
    bias_filler {
      type: "constant"
      value: 0
    }
  }
}
layer {
  name: "rpn_relu/3x3"
  type: "ReLU"
  bottom: "rpn/output"
  top: "rpn/output"
}
layer {
  name: "rpn_cls_score"
  type: "Convolution"
  bottom: "rpn/output"
  top: "rpn_cls_score"
  param {
    lr_mult: 1
  }
  param {
    lr_mult: 2
  }
  convolution_param {
    num_output: 18
    pad: 0
    kernel_size: 1
    stride: 1
    weight_filler {
      type: "gaussian"
      std: 0.01
    }
    bias_filler {
      type: "constant"
      value: 0
    }
  }
}
layer {
  name: "rpn_bbox_pred"
  type: "Convolution"
  bottom: "rpn/output"
  top: "rpn_bbox_pred"
  param {
    lr_mult: 1
  }
  param {
    lr_mult: 2
  }
  convolution_param {
    num_output: 36
    pad: 0
    kernel_size: 1
    stride: 1
    weight_filler {
      type: "gaussian"
      std: 0.01
    }
    bias_filler {
      type: "constant"
      value: 0
    }
  }
}
layer {
  name: "rpn_cls_score_reshape"
  type: "Reshape"
  bottom: "rpn_cls_score"
  top: "rpn_cls_score_reshape"
  reshape_param {
    shape {
      dim: 0
      dim: 2
      dim: -1
      dim: 0
    }
  }
}
layer {
  name: "rpn-data"
  type: "Python"
  bottom: "rpn_cls_score"
  bottom: "gt_boxes"
  bottom: "im_info"
  bottom: "data"
  top: "rpn_labels"
  top: "rpn_bbox_targets"
  top: "rpn_bbox_inside_weights"
  top: "rpn_bbox_outside_weights"
  python_param {
    module: "rpn.anchor_target_layer"
    layer: "AnchorTargetLayer"
    param_str: "\'feat_stride\': 16"
  }
}
layer {
  name: "rpn_loss_cls"
  type: "SoftmaxWithLoss"
  bottom: "rpn_cls_score_reshape"
  bottom: "rpn_labels"
  top: "rpn_cls_loss"
  loss_weight: 1
  propagate_down: true
  propagate_down: false
  loss_param {
    ignore_label: -1
    normalize: true
  }
}
layer {
  name: "rpn_loss_bbox"
  type: "SmoothL1Loss"
  bottom: "rpn_bbox_pred"
  bottom: "rpn_bbox_targets"
  bottom: "rpn_bbox_inside_weights"
  bottom: "rpn_bbox_outside_weights"
  top: "rpn_loss_bbox"
  loss_weight: 1
  smooth_l1_loss_param {
    sigma: 3
  }
}
layer {
  name: "rpn_cls_prob"
  type: "Softmax"
  bottom: "rpn_cls_score_reshape"
  top: "rpn_cls_prob"
}
layer {
  name: "rpn_cls_prob_reshape"
  type: "Reshape"
  bottom: "rpn_cls_prob"
  top: "rpn_cls_prob_reshape"
  reshape_param {
    shape {
      dim: 0
      dim: 18
      dim: -1
      dim: 0
    }
  }
}
layer {
  name: "proposal"
  type: "Python"
  bottom: "rpn_cls_prob_reshape"
  bottom: "rpn_bbox_pred"
  bottom: "im_info"
  top: "rpn_rois"
  python_param {
    module: "rpn.proposal_layer"
    layer: "ProposalLayer"
    param_str: "\'feat_stride\': 16"
  }
}
layer {
  name: "roi-data"
  type: "Python"
  bottom: "rpn_rois"
  bottom: "gt_boxes"
  top: "rois"
  top: "labels"
  top: "bbox_targets"
  top: "bbox_inside_weights"
  top: "bbox_outside_weights"
  top: "key_targets"
  python_param {
    module: "rpn.proposal_target_layer"
    layer: "ProposalTargetLayer"
    param_str: "\'num_classes\': 21"
  }
}
layer {
  name: "roi_pool5"
  type: "ROIPooling"
  bottom: "conv5_3"
  bottom: "rois"
  top: "pool5"
  roi_pooling_param {
    pooled_h: 7
    pooled_w: 7
    spatial_scale: 0.0625
  }
}
layer {
  name: "fc6"
  type: "InnerProduct"
  bottom: "pool5"
  top: "fc6"
  param {
    lr_mult: 1
  }
  param {
    lr_mult: 2
  }
  inner_product_param {
    num_output: 4096
  }
}
layer {
  name: "relu6"
  type: "ReLU"
  bottom: "fc6"
  top: "fc6"
}
layer {
  name: "drop6"
  type: "Dropout"
  bottom: "fc6"
  top: "fc6"
  dropout_param {
    dropout_ratio: 0.5
  }
}
layer {
  name: "fc7"
  type: "InnerProduct"
  bottom: "fc6"
  top: "fc7"
  param {
    lr_mult: 1
  }
  param {
    lr_mult: 2
  }
  inner_product_param {
    num_output: 4096
  }
}
layer {
  name: "relu7"
  type: "ReLU"
  bottom: "fc7"
  top: "fc7"
}
layer {
  name: "drop7"
  type: "Dropout"
  bottom: "fc7"
  top: "fc7"
  dropout_param {
    dropout_ratio: 0.5
  }
}
layer {
  name: "cls_score"
  type: "InnerProduct"
  bottom: "fc7"
  top: "cls_score"
  param {
    lr_mult: 1
  }
  param {
    lr_mult: 2
  }
  inner_product_param {
    num_output: 21
    weight_filler {
      type: "gaussian"
      std: 0.01
    }
    bias_filler {
      type: "constant"
      value: 0
    }
  }
}
layer {
  name: "bbox_pred"
  type: "InnerProduct"
  bottom: "fc7"
  top: "bbox_pred"
  param {
    lr_mult: 1
  }
  param {
    lr_mult: 2
  }
  inner_product_param {
    num_output: 84
    weight_filler {
      type: "gaussian"
      std: 0.001
    }
    bias_filler {
      type: "constant"
      value: 0
    }
  }
}
layer {
  name: "key_pred"
  type: "InnerProduct"
  bottom: "fc7"
  top: "key_pred"
  param {
    lr_mult: 1
  }
  param {
    lr_mult: 2
  }
  inner_product_param {
    num_output: 84
    weight_filler {
      type: "gaussian"
      std: 0.001
    }
    bias_filler {
      type: "constant"
      value: 0
    }
  }
}
layer {
  name: "loss_cls"
  type: "SoftmaxWithLoss"
  bottom: "cls_score"
  bottom: "labels"
  top: "loss_cls"
  loss_weight: 1
  propagate_down: true
  propagate_down: false
}
layer {
  name: "loss_bbox"
  type: "SmoothL1Loss"
  bottom: "bbox_pred"
  bottom: "bbox_targets"
  bottom: "bbox_inside_weights"
  bottom: "bbox_outside_weights"
  top: "loss_bbox"
  loss_weight: 1
}
layer {
  name: "loss_key"
  type: "SmoothL1Loss"
  bottom: "key_pred"
  bottom: "key_targets"
  bottom: "bbox_inside_weights"
  bottom: "bbox_outside_weights"
  top: "loss_key"
  loss_weight: 1
}
I0823 10:46:43.301874 18274 layer_factory.hpp:77] Creating layer input-data
I0823 10:46:43.314530 18274 net.cpp:106] Creating Layer input-data
I0823 10:46:43.314548 18274 net.cpp:411] input-data -> data
I0823 10:46:43.314568 18274 net.cpp:411] input-data -> im_info
I0823 10:46:43.314575 18274 net.cpp:411] input-data -> gt_boxes
RoiDataLayer: name_to_top: {'gt_boxes': 2, 'data': 0, 'im_info': 1}
I0823 10:46:43.324579 18274 net.cpp:150] Setting up input-data
I0823 10:46:43.324594 18274 net.cpp:157] Top shape: 1 3 600 1000 (1800000)
I0823 10:46:43.324602 18274 net.cpp:157] Top shape: 1 3 (3)
I0823 10:46:43.324605 18274 net.cpp:157] Top shape: 1 4 (4)
I0823 10:46:43.324609 18274 net.cpp:165] Memory required for data: 7200028
I0823 10:46:43.324614 18274 layer_factory.hpp:77] Creating layer data_input-data_0_split
I0823 10:46:43.324622 18274 net.cpp:106] Creating Layer data_input-data_0_split
I0823 10:46:43.324625 18274 net.cpp:454] data_input-data_0_split <- data
I0823 10:46:43.324632 18274 net.cpp:411] data_input-data_0_split -> data_input-data_0_split_0
I0823 10:46:43.324640 18274 net.cpp:411] data_input-data_0_split -> data_input-data_0_split_1
I0823 10:46:43.324694 18274 net.cpp:150] Setting up data_input-data_0_split
I0823 10:46:43.324702 18274 net.cpp:157] Top shape: 1 3 600 1000 (1800000)
I0823 10:46:43.324707 18274 net.cpp:157] Top shape: 1 3 600 1000 (1800000)
I0823 10:46:43.324709 18274 net.cpp:165] Memory required for data: 21600028
I0823 10:46:43.324713 18274 layer_factory.hpp:77] Creating layer im_info_input-data_1_split
I0823 10:46:43.324719 18274 net.cpp:106] Creating Layer im_info_input-data_1_split
I0823 10:46:43.324723 18274 net.cpp:454] im_info_input-data_1_split <- im_info
I0823 10:46:43.324728 18274 net.cpp:411] im_info_input-data_1_split -> im_info_input-data_1_split_0
I0823 10:46:43.324734 18274 net.cpp:411] im_info_input-data_1_split -> im_info_input-data_1_split_1
I0823 10:46:43.324777 18274 net.cpp:150] Setting up im_info_input-data_1_split
I0823 10:46:43.324784 18274 net.cpp:157] Top shape: 1 3 (3)
I0823 10:46:43.324789 18274 net.cpp:157] Top shape: 1 3 (3)
I0823 10:46:43.324790 18274 net.cpp:165] Memory required for data: 21600052
I0823 10:46:43.324793 18274 layer_factory.hpp:77] Creating layer gt_boxes_input-data_2_split
I0823 10:46:43.324798 18274 net.cpp:106] Creating Layer gt_boxes_input-data_2_split
I0823 10:46:43.324801 18274 net.cpp:454] gt_boxes_input-data_2_split <- gt_boxes
I0823 10:46:43.324806 18274 net.cpp:411] gt_boxes_input-data_2_split -> gt_boxes_input-data_2_split_0
I0823 10:46:43.324812 18274 net.cpp:411] gt_boxes_input-data_2_split -> gt_boxes_input-data_2_split_1
I0823 10:46:43.324878 18274 net.cpp:150] Setting up gt_boxes_input-data_2_split
I0823 10:46:43.324885 18274 net.cpp:157] Top shape: 1 4 (4)
I0823 10:46:43.324889 18274 net.cpp:157] Top shape: 1 4 (4)
I0823 10:46:43.324892 18274 net.cpp:165] Memory required for data: 21600084
I0823 10:46:43.324895 18274 layer_factory.hpp:77] Creating layer conv1_1
I0823 10:46:43.324905 18274 net.cpp:106] Creating Layer conv1_1
I0823 10:46:43.324910 18274 net.cpp:454] conv1_1 <- data_input-data_0_split_0
I0823 10:46:43.324916 18274 net.cpp:411] conv1_1 -> conv1_1
I0823 10:46:43.640225 18274 net.cpp:150] Setting up conv1_1
I0823 10:46:43.640266 18274 net.cpp:157] Top shape: 1 64 600 1000 (38400000)
I0823 10:46:43.640270 18274 net.cpp:165] Memory required for data: 175200084
I0823 10:46:43.640291 18274 layer_factory.hpp:77] Creating layer relu1_1
I0823 10:46:43.640305 18274 net.cpp:106] Creating Layer relu1_1
I0823 10:46:43.640311 18274 net.cpp:454] relu1_1 <- conv1_1
I0823 10:46:43.640318 18274 net.cpp:397] relu1_1 -> conv1_1 (in-place)
I0823 10:46:43.640863 18274 net.cpp:150] Setting up relu1_1
I0823 10:46:43.640879 18274 net.cpp:157] Top shape: 1 64 600 1000 (38400000)
I0823 10:46:43.640883 18274 net.cpp:165] Memory required for data: 328800084
I0823 10:46:43.640887 18274 layer_factory.hpp:77] Creating layer conv1_2
I0823 10:46:43.640900 18274 net.cpp:106] Creating Layer conv1_2
I0823 10:46:43.640905 18274 net.cpp:454] conv1_2 <- conv1_1
I0823 10:46:43.640913 18274 net.cpp:411] conv1_2 -> conv1_2
I0823 10:46:43.649204 18274 net.cpp:150] Setting up conv1_2
I0823 10:46:43.649224 18274 net.cpp:157] Top shape: 1 64 600 1000 (38400000)
I0823 10:46:43.649227 18274 net.cpp:165] Memory required for data: 482400084
I0823 10:46:43.649240 18274 layer_factory.hpp:77] Creating layer relu1_2
I0823 10:46:43.649248 18274 net.cpp:106] Creating Layer relu1_2
I0823 10:46:43.649252 18274 net.cpp:454] relu1_2 <- conv1_2
I0823 10:46:43.649258 18274 net.cpp:397] relu1_2 -> conv1_2 (in-place)
I0823 10:46:43.649467 18274 net.cpp:150] Setting up relu1_2
I0823 10:46:43.649480 18274 net.cpp:157] Top shape: 1 64 600 1000 (38400000)
I0823 10:46:43.649483 18274 net.cpp:165] Memory required for data: 636000084
I0823 10:46:43.649487 18274 layer_factory.hpp:77] Creating layer pool1
I0823 10:46:43.649500 18274 net.cpp:106] Creating Layer pool1
I0823 10:46:43.649505 18274 net.cpp:454] pool1 <- conv1_2
I0823 10:46:43.649513 18274 net.cpp:411] pool1 -> pool1
I0823 10:46:43.649588 18274 net.cpp:150] Setting up pool1
I0823 10:46:43.649597 18274 net.cpp:157] Top shape: 1 64 300 500 (9600000)
I0823 10:46:43.649600 18274 net.cpp:165] Memory required for data: 674400084
I0823 10:46:43.649605 18274 layer_factory.hpp:77] Creating layer conv2_1
I0823 10:46:43.649613 18274 net.cpp:106] Creating Layer conv2_1
I0823 10:46:43.649616 18274 net.cpp:454] conv2_1 <- pool1
I0823 10:46:43.649622 18274 net.cpp:411] conv2_1 -> conv2_1
I0823 10:46:43.653854 18274 net.cpp:150] Setting up conv2_1
I0823 10:46:43.653875 18274 net.cpp:157] Top shape: 1 128 300 500 (19200000)
I0823 10:46:43.653879 18274 net.cpp:165] Memory required for data: 751200084
I0823 10:46:43.653892 18274 layer_factory.hpp:77] Creating layer relu2_1
I0823 10:46:43.653901 18274 net.cpp:106] Creating Layer relu2_1
I0823 10:46:43.653905 18274 net.cpp:454] relu2_1 <- conv2_1
I0823 10:46:43.653911 18274 net.cpp:397] relu2_1 -> conv2_1 (in-place)
I0823 10:46:43.654145 18274 net.cpp:150] Setting up relu2_1
I0823 10:46:43.654157 18274 net.cpp:157] Top shape: 1 128 300 500 (19200000)
I0823 10:46:43.654160 18274 net.cpp:165] Memory required for data: 828000084
I0823 10:46:43.654165 18274 layer_factory.hpp:77] Creating layer conv2_2
I0823 10:46:43.654175 18274 net.cpp:106] Creating Layer conv2_2
I0823 10:46:43.654181 18274 net.cpp:454] conv2_2 <- conv2_1
I0823 10:46:43.654194 18274 net.cpp:411] conv2_2 -> conv2_2
I0823 10:46:43.660583 18274 net.cpp:150] Setting up conv2_2
I0823 10:46:43.660601 18274 net.cpp:157] Top shape: 1 128 300 500 (19200000)
I0823 10:46:43.660605 18274 net.cpp:165] Memory required for data: 904800084
I0823 10:46:43.660614 18274 layer_factory.hpp:77] Creating layer relu2_2
I0823 10:46:43.660626 18274 net.cpp:106] Creating Layer relu2_2
I0823 10:46:43.660632 18274 net.cpp:454] relu2_2 <- conv2_2
I0823 10:46:43.660639 18274 net.cpp:397] relu2_2 -> conv2_2 (in-place)
I0823 10:46:43.661207 18274 net.cpp:150] Setting up relu2_2
I0823 10:46:43.661226 18274 net.cpp:157] Top shape: 1 128 300 500 (19200000)
I0823 10:46:43.661231 18274 net.cpp:165] Memory required for data: 981600084
I0823 10:46:43.661237 18274 layer_factory.hpp:77] Creating layer pool2
I0823 10:46:43.661243 18274 net.cpp:106] Creating Layer pool2
I0823 10:46:43.661247 18274 net.cpp:454] pool2 <- conv2_2
I0823 10:46:43.661253 18274 net.cpp:411] pool2 -> pool2
I0823 10:46:43.661335 18274 net.cpp:150] Setting up pool2
I0823 10:46:43.661345 18274 net.cpp:157] Top shape: 1 128 150 250 (4800000)
I0823 10:46:43.661348 18274 net.cpp:165] Memory required for data: 1000800084
I0823 10:46:43.661352 18274 layer_factory.hpp:77] Creating layer conv3_1
I0823 10:46:43.661362 18274 net.cpp:106] Creating Layer conv3_1
I0823 10:46:43.661368 18274 net.cpp:454] conv3_1 <- pool2
I0823 10:46:43.661377 18274 net.cpp:411] conv3_1 -> conv3_1
I0823 10:46:43.665925 18274 net.cpp:150] Setting up conv3_1
I0823 10:46:43.665943 18274 net.cpp:157] Top shape: 1 256 150 250 (9600000)
I0823 10:46:43.665947 18274 net.cpp:165] Memory required for data: 1039200084
I0823 10:46:43.665959 18274 layer_factory.hpp:77] Creating layer relu3_1
I0823 10:46:43.665973 18274 net.cpp:106] Creating Layer relu3_1
I0823 10:46:43.665979 18274 net.cpp:454] relu3_1 <- conv3_1
I0823 10:46:43.665985 18274 net.cpp:397] relu3_1 -> conv3_1 (in-place)
I0823 10:46:43.666218 18274 net.cpp:150] Setting up relu3_1
I0823 10:46:43.666231 18274 net.cpp:157] Top shape: 1 256 150 250 (9600000)
I0823 10:46:43.666235 18274 net.cpp:165] Memory required for data: 1077600084
I0823 10:46:43.666239 18274 layer_factory.hpp:77] Creating layer conv3_2
I0823 10:46:43.666254 18274 net.cpp:106] Creating Layer conv3_2
I0823 10:46:43.666260 18274 net.cpp:454] conv3_2 <- conv3_1
I0823 10:46:43.666268 18274 net.cpp:411] conv3_2 -> conv3_2
I0823 10:46:43.672521 18274 net.cpp:150] Setting up conv3_2
I0823 10:46:43.672541 18274 net.cpp:157] Top shape: 1 256 150 250 (9600000)
I0823 10:46:43.672545 18274 net.cpp:165] Memory required for data: 1116000084
I0823 10:46:43.672554 18274 layer_factory.hpp:77] Creating layer relu3_2
I0823 10:46:43.672564 18274 net.cpp:106] Creating Layer relu3_2
I0823 10:46:43.672572 18274 net.cpp:454] relu3_2 <- conv3_2
I0823 10:46:43.672579 18274 net.cpp:397] relu3_2 -> conv3_2 (in-place)
I0823 10:46:43.672814 18274 net.cpp:150] Setting up relu3_2
I0823 10:46:43.672827 18274 net.cpp:157] Top shape: 1 256 150 250 (9600000)
I0823 10:46:43.672829 18274 net.cpp:165] Memory required for data: 1154400084
I0823 10:46:43.672833 18274 layer_factory.hpp:77] Creating layer conv3_3
I0823 10:46:43.672845 18274 net.cpp:106] Creating Layer conv3_3
I0823 10:46:43.672849 18274 net.cpp:454] conv3_3 <- conv3_2
I0823 10:46:43.672858 18274 net.cpp:411] conv3_3 -> conv3_3
I0823 10:46:43.679396 18274 net.cpp:150] Setting up conv3_3
I0823 10:46:43.679447 18274 net.cpp:157] Top shape: 1 256 150 250 (9600000)
I0823 10:46:43.679458 18274 net.cpp:165] Memory required for data: 1192800084
I0823 10:46:43.679481 18274 layer_factory.hpp:77] Creating layer relu3_3
I0823 10:46:43.679502 18274 net.cpp:106] Creating Layer relu3_3
I0823 10:46:43.679513 18274 net.cpp:454] relu3_3 <- conv3_3
I0823 10:46:43.679530 18274 net.cpp:397] relu3_3 -> conv3_3 (in-place)
I0823 10:46:43.680557 18274 net.cpp:150] Setting up relu3_3
I0823 10:46:43.680583 18274 net.cpp:157] Top shape: 1 256 150 250 (9600000)
I0823 10:46:43.680593 18274 net.cpp:165] Memory required for data: 1231200084
I0823 10:46:43.680600 18274 layer_factory.hpp:77] Creating layer pool3
I0823 10:46:43.680614 18274 net.cpp:106] Creating Layer pool3
I0823 10:46:43.680624 18274 net.cpp:454] pool3 <- conv3_3
I0823 10:46:43.680639 18274 net.cpp:411] pool3 -> pool3
I0823 10:46:43.680840 18274 net.cpp:150] Setting up pool3
I0823 10:46:43.680855 18274 net.cpp:157] Top shape: 1 256 75 125 (2400000)
I0823 10:46:43.680861 18274 net.cpp:165] Memory required for data: 1240800084
I0823 10:46:43.680868 18274 layer_factory.hpp:77] Creating layer conv4_1
I0823 10:46:43.680891 18274 net.cpp:106] Creating Layer conv4_1
I0823 10:46:43.680899 18274 net.cpp:454] conv4_1 <- pool3
I0823 10:46:43.680912 18274 net.cpp:411] conv4_1 -> conv4_1
I0823 10:46:43.700193 18274 net.cpp:150] Setting up conv4_1
I0823 10:46:43.700227 18274 net.cpp:157] Top shape: 1 512 75 125 (4800000)
I0823 10:46:43.700234 18274 net.cpp:165] Memory required for data: 1260000084
I0823 10:46:43.700248 18274 layer_factory.hpp:77] Creating layer relu4_1
I0823 10:46:43.700263 18274 net.cpp:106] Creating Layer relu4_1
I0823 10:46:43.700268 18274 net.cpp:454] relu4_1 <- conv4_1
I0823 10:46:43.700278 18274 net.cpp:397] relu4_1 -> conv4_1 (in-place)
I0823 10:46:43.701094 18274 net.cpp:150] Setting up relu4_1
I0823 10:46:43.701118 18274 net.cpp:157] Top shape: 1 512 75 125 (4800000)
I0823 10:46:43.701124 18274 net.cpp:165] Memory required for data: 1279200084
I0823 10:46:43.701130 18274 layer_factory.hpp:77] Creating layer conv4_2
I0823 10:46:43.701150 18274 net.cpp:106] Creating Layer conv4_2
I0823 10:46:43.701158 18274 net.cpp:454] conv4_2 <- conv4_1
I0823 10:46:43.701174 18274 net.cpp:411] conv4_2 -> conv4_2
I0823 10:46:43.723680 18274 net.cpp:150] Setting up conv4_2
I0823 10:46:43.723707 18274 net.cpp:157] Top shape: 1 512 75 125 (4800000)
I0823 10:46:43.723713 18274 net.cpp:165] Memory required for data: 1298400084
I0823 10:46:43.723737 18274 layer_factory.hpp:77] Creating layer relu4_2
I0823 10:46:43.723748 18274 net.cpp:106] Creating Layer relu4_2
I0823 10:46:43.723754 18274 net.cpp:454] relu4_2 <- conv4_2
I0823 10:46:43.723767 18274 net.cpp:397] relu4_2 -> conv4_2 (in-place)
I0823 10:46:43.724107 18274 net.cpp:150] Setting up relu4_2
I0823 10:46:43.724124 18274 net.cpp:157] Top shape: 1 512 75 125 (4800000)
I0823 10:46:43.724129 18274 net.cpp:165] Memory required for data: 1317600084
I0823 10:46:43.724135 18274 layer_factory.hpp:77] Creating layer conv4_3
I0823 10:46:43.724150 18274 net.cpp:106] Creating Layer conv4_3
I0823 10:46:43.724156 18274 net.cpp:454] conv4_3 <- conv4_2
I0823 10:46:43.724169 18274 net.cpp:411] conv4_3 -> conv4_3
I0823 10:46:43.746392 18274 net.cpp:150] Setting up conv4_3
I0823 10:46:43.746418 18274 net.cpp:157] Top shape: 1 512 75 125 (4800000)
I0823 10:46:43.746424 18274 net.cpp:165] Memory required for data: 1336800084
I0823 10:46:43.746434 18274 layer_factory.hpp:77] Creating layer relu4_3
I0823 10:46:43.746444 18274 net.cpp:106] Creating Layer relu4_3
I0823 10:46:43.746449 18274 net.cpp:454] relu4_3 <- conv4_3
I0823 10:46:43.746461 18274 net.cpp:397] relu4_3 -> conv4_3 (in-place)
I0823 10:46:43.747207 18274 net.cpp:150] Setting up relu4_3
I0823 10:46:43.747231 18274 net.cpp:157] Top shape: 1 512 75 125 (4800000)
I0823 10:46:43.747236 18274 net.cpp:165] Memory required for data: 1356000084
I0823 10:46:43.747242 18274 layer_factory.hpp:77] Creating layer pool4
I0823 10:46:43.747253 18274 net.cpp:106] Creating Layer pool4
I0823 10:46:43.747258 18274 net.cpp:454] pool4 <- conv4_3
I0823 10:46:43.747272 18274 net.cpp:411] pool4 -> pool4
I0823 10:46:43.747400 18274 net.cpp:150] Setting up pool4
I0823 10:46:43.747413 18274 net.cpp:157] Top shape: 1 512 38 63 (1225728)
I0823 10:46:43.747417 18274 net.cpp:165] Memory required for data: 1360902996
I0823 10:46:43.747421 18274 layer_factory.hpp:77] Creating layer conv5_1
I0823 10:46:43.747436 18274 net.cpp:106] Creating Layer conv5_1
I0823 10:46:43.747443 18274 net.cpp:454] conv5_1 <- pool4
I0823 10:46:43.747454 18274 net.cpp:411] conv5_1 -> conv5_1
I0823 10:46:43.769558 18274 net.cpp:150] Setting up conv5_1
I0823 10:46:43.769584 18274 net.cpp:157] Top shape: 1 512 38 63 (1225728)
I0823 10:46:43.769588 18274 net.cpp:165] Memory required for data: 1365805908
I0823 10:46:43.769599 18274 layer_factory.hpp:77] Creating layer relu5_1
I0823 10:46:43.769609 18274 net.cpp:106] Creating Layer relu5_1
I0823 10:46:43.769614 18274 net.cpp:454] relu5_1 <- conv5_1
I0823 10:46:43.769621 18274 net.cpp:397] relu5_1 -> conv5_1 (in-place)
I0823 10:46:43.769907 18274 net.cpp:150] Setting up relu5_1
I0823 10:46:43.769923 18274 net.cpp:157] Top shape: 1 512 38 63 (1225728)
I0823 10:46:43.769927 18274 net.cpp:165] Memory required for data: 1370708820
I0823 10:46:43.769932 18274 layer_factory.hpp:77] Creating layer conv5_2
I0823 10:46:43.769944 18274 net.cpp:106] Creating Layer conv5_2
I0823 10:46:43.769949 18274 net.cpp:454] conv5_2 <- conv5_1
I0823 10:46:43.769959 18274 net.cpp:411] conv5_2 -> conv5_2
I0823 10:46:43.790935 18274 net.cpp:150] Setting up conv5_2
I0823 10:46:43.790956 18274 net.cpp:157] Top shape: 1 512 38 63 (1225728)
I0823 10:46:43.790961 18274 net.cpp:165] Memory required for data: 1375611732
I0823 10:46:43.790971 18274 layer_factory.hpp:77] Creating layer relu5_2
I0823 10:46:43.790982 18274 net.cpp:106] Creating Layer relu5_2
I0823 10:46:43.790987 18274 net.cpp:454] relu5_2 <- conv5_2
I0823 10:46:43.790994 18274 net.cpp:397] relu5_2 -> conv5_2 (in-place)
I0823 10:46:43.791266 18274 net.cpp:150] Setting up relu5_2
I0823 10:46:43.791280 18274 net.cpp:157] Top shape: 1 512 38 63 (1225728)
I0823 10:46:43.791285 18274 net.cpp:165] Memory required for data: 1380514644
I0823 10:46:43.791288 18274 layer_factory.hpp:77] Creating layer conv5_3
I0823 10:46:43.791318 18274 net.cpp:106] Creating Layer conv5_3
I0823 10:46:43.791323 18274 net.cpp:454] conv5_3 <- conv5_2
I0823 10:46:43.791332 18274 net.cpp:411] conv5_3 -> conv5_3
I0823 10:46:43.811328 18274 net.cpp:150] Setting up conv5_3
I0823 10:46:43.811350 18274 net.cpp:157] Top shape: 1 512 38 63 (1225728)
I0823 10:46:43.811355 18274 net.cpp:165] Memory required for data: 1385417556
I0823 10:46:43.811364 18274 layer_factory.hpp:77] Creating layer relu5_3
I0823 10:46:43.811377 18274 net.cpp:106] Creating Layer relu5_3
I0823 10:46:43.811380 18274 net.cpp:454] relu5_3 <- conv5_3
I0823 10:46:43.811389 18274 net.cpp:397] relu5_3 -> conv5_3 (in-place)
I0823 10:46:43.811993 18274 net.cpp:150] Setting up relu5_3
I0823 10:46:43.812010 18274 net.cpp:157] Top shape: 1 512 38 63 (1225728)
I0823 10:46:43.812013 18274 net.cpp:165] Memory required for data: 1390320468
I0823 10:46:43.812017 18274 layer_factory.hpp:77] Creating layer conv5_3_relu5_3_0_split
I0823 10:46:43.812026 18274 net.cpp:106] Creating Layer conv5_3_relu5_3_0_split
I0823 10:46:43.812029 18274 net.cpp:454] conv5_3_relu5_3_0_split <- conv5_3
I0823 10:46:43.812039 18274 net.cpp:411] conv5_3_relu5_3_0_split -> conv5_3_relu5_3_0_split_0
I0823 10:46:43.812054 18274 net.cpp:411] conv5_3_relu5_3_0_split -> conv5_3_relu5_3_0_split_1
I0823 10:46:43.812144 18274 net.cpp:150] Setting up conv5_3_relu5_3_0_split
I0823 10:46:43.812155 18274 net.cpp:157] Top shape: 1 512 38 63 (1225728)
I0823 10:46:43.812160 18274 net.cpp:157] Top shape: 1 512 38 63 (1225728)
I0823 10:46:43.812163 18274 net.cpp:165] Memory required for data: 1400126292
I0823 10:46:43.812166 18274 layer_factory.hpp:77] Creating layer rpn_conv/3x3
I0823 10:46:43.812181 18274 net.cpp:106] Creating Layer rpn_conv/3x3
I0823 10:46:43.812187 18274 net.cpp:454] rpn_conv/3x3 <- conv5_3_relu5_3_0_split_0
I0823 10:46:43.812197 18274 net.cpp:411] rpn_conv/3x3 -> rpn/output
I0823 10:46:43.857853 18274 net.cpp:150] Setting up rpn_conv/3x3
I0823 10:46:43.857877 18274 net.cpp:157] Top shape: 1 512 38 63 (1225728)
I0823 10:46:43.857879 18274 net.cpp:165] Memory required for data: 1405029204
I0823 10:46:43.857888 18274 layer_factory.hpp:77] Creating layer rpn_relu/3x3
I0823 10:46:43.857895 18274 net.cpp:106] Creating Layer rpn_relu/3x3
I0823 10:46:43.857899 18274 net.cpp:454] rpn_relu/3x3 <- rpn/output
I0823 10:46:43.857908 18274 net.cpp:397] rpn_relu/3x3 -> rpn/output (in-place)
I0823 10:46:43.858145 18274 net.cpp:150] Setting up rpn_relu/3x3
I0823 10:46:43.858158 18274 net.cpp:157] Top shape: 1 512 38 63 (1225728)
I0823 10:46:43.858162 18274 net.cpp:165] Memory required for data: 1409932116
I0823 10:46:43.858165 18274 layer_factory.hpp:77] Creating layer rpn/output_rpn_relu/3x3_0_split
I0823 10:46:43.858175 18274 net.cpp:106] Creating Layer rpn/output_rpn_relu/3x3_0_split
I0823 10:46:43.858178 18274 net.cpp:454] rpn/output_rpn_relu/3x3_0_split <- rpn/output
I0823 10:46:43.858186 18274 net.cpp:411] rpn/output_rpn_relu/3x3_0_split -> rpn/output_rpn_relu/3x3_0_split_0
I0823 10:46:43.858194 18274 net.cpp:411] rpn/output_rpn_relu/3x3_0_split -> rpn/output_rpn_relu/3x3_0_split_1
I0823 10:46:43.858289 18274 net.cpp:150] Setting up rpn/output_rpn_relu/3x3_0_split
I0823 10:46:43.858299 18274 net.cpp:157] Top shape: 1 512 38 63 (1225728)
I0823 10:46:43.858304 18274 net.cpp:157] Top shape: 1 512 38 63 (1225728)
I0823 10:46:43.858306 18274 net.cpp:165] Memory required for data: 1419737940
I0823 10:46:43.858309 18274 layer_factory.hpp:77] Creating layer rpn_cls_score
I0823 10:46:43.858322 18274 net.cpp:106] Creating Layer rpn_cls_score
I0823 10:46:43.858328 18274 net.cpp:454] rpn_cls_score <- rpn/output_rpn_relu/3x3_0_split_0
I0823 10:46:43.858342 18274 net.cpp:411] rpn_cls_score -> rpn_cls_score
I0823 10:46:43.860760 18274 net.cpp:150] Setting up rpn_cls_score
I0823 10:46:43.860779 18274 net.cpp:157] Top shape: 1 18 38 63 (43092)
I0823 10:46:43.860782 18274 net.cpp:165] Memory required for data: 1419910308
I0823 10:46:43.860790 18274 layer_factory.hpp:77] Creating layer rpn_cls_score_rpn_cls_score_0_split
I0823 10:46:43.860800 18274 net.cpp:106] Creating Layer rpn_cls_score_rpn_cls_score_0_split
I0823 10:46:43.860805 18274 net.cpp:454] rpn_cls_score_rpn_cls_score_0_split <- rpn_cls_score
I0823 10:46:43.860811 18274 net.cpp:411] rpn_cls_score_rpn_cls_score_0_split -> rpn_cls_score_rpn_cls_score_0_split_0
I0823 10:46:43.860832 18274 net.cpp:411] rpn_cls_score_rpn_cls_score_0_split -> rpn_cls_score_rpn_cls_score_0_split_1
I0823 10:46:43.860913 18274 net.cpp:150] Setting up rpn_cls_score_rpn_cls_score_0_split
I0823 10:46:43.860925 18274 net.cpp:157] Top shape: 1 18 38 63 (43092)
I0823 10:46:43.860929 18274 net.cpp:157] Top shape: 1 18 38 63 (43092)
I0823 10:46:43.860934 18274 net.cpp:165] Memory required for data: 1420255044
I0823 10:46:43.860936 18274 layer_factory.hpp:77] Creating layer rpn_bbox_pred
I0823 10:46:43.860949 18274 net.cpp:106] Creating Layer rpn_bbox_pred
I0823 10:46:43.860954 18274 net.cpp:454] rpn_bbox_pred <- rpn/output_rpn_relu/3x3_0_split_1
I0823 10:46:43.860962 18274 net.cpp:411] rpn_bbox_pred -> rpn_bbox_pred
I0823 10:46:43.863123 18274 net.cpp:150] Setting up rpn_bbox_pred
I0823 10:46:43.863140 18274 net.cpp:157] Top shape: 1 36 38 63 (86184)
I0823 10:46:43.863144 18274 net.cpp:165] Memory required for data: 1420599780
I0823 10:46:43.863152 18274 layer_factory.hpp:77] Creating layer rpn_bbox_pred_rpn_bbox_pred_0_split
I0823 10:46:43.863159 18274 net.cpp:106] Creating Layer rpn_bbox_pred_rpn_bbox_pred_0_split
I0823 10:46:43.863163 18274 net.cpp:454] rpn_bbox_pred_rpn_bbox_pred_0_split <- rpn_bbox_pred
I0823 10:46:43.863173 18274 net.cpp:411] rpn_bbox_pred_rpn_bbox_pred_0_split -> rpn_bbox_pred_rpn_bbox_pred_0_split_0
I0823 10:46:43.863181 18274 net.cpp:411] rpn_bbox_pred_rpn_bbox_pred_0_split -> rpn_bbox_pred_rpn_bbox_pred_0_split_1
I0823 10:46:43.863265 18274 net.cpp:150] Setting up rpn_bbox_pred_rpn_bbox_pred_0_split
I0823 10:46:43.863273 18274 net.cpp:157] Top shape: 1 36 38 63 (86184)
I0823 10:46:43.863278 18274 net.cpp:157] Top shape: 1 36 38 63 (86184)
I0823 10:46:43.863281 18274 net.cpp:165] Memory required for data: 1421289252
I0823 10:46:43.863284 18274 layer_factory.hpp:77] Creating layer rpn_cls_score_reshape
I0823 10:46:43.863297 18274 net.cpp:106] Creating Layer rpn_cls_score_reshape
I0823 10:46:43.863302 18274 net.cpp:454] rpn_cls_score_reshape <- rpn_cls_score_rpn_cls_score_0_split_0
I0823 10:46:43.863309 18274 net.cpp:411] rpn_cls_score_reshape -> rpn_cls_score_reshape
I0823 10:46:43.863361 18274 net.cpp:150] Setting up rpn_cls_score_reshape
I0823 10:46:43.863370 18274 net.cpp:157] Top shape: 1 2 342 63 (43092)
I0823 10:46:43.863373 18274 net.cpp:165] Memory required for data: 1421461620
I0823 10:46:43.863376 18274 layer_factory.hpp:77] Creating layer rpn_cls_score_reshape_rpn_cls_score_reshape_0_split
I0823 10:46:43.863384 18274 net.cpp:106] Creating Layer rpn_cls_score_reshape_rpn_cls_score_reshape_0_split
I0823 10:46:43.863386 18274 net.cpp:454] rpn_cls_score_reshape_rpn_cls_score_reshape_0_split <- rpn_cls_score_reshape
I0823 10:46:43.863395 18274 net.cpp:411] rpn_cls_score_reshape_rpn_cls_score_reshape_0_split -> rpn_cls_score_reshape_rpn_cls_score_reshape_0_split_0
I0823 10:46:43.863405 18274 net.cpp:411] rpn_cls_score_reshape_rpn_cls_score_reshape_0_split -> rpn_cls_score_reshape_rpn_cls_score_reshape_0_split_1
I0823 10:46:43.863476 18274 net.cpp:150] Setting up rpn_cls_score_reshape_rpn_cls_score_reshape_0_split
I0823 10:46:43.863484 18274 net.cpp:157] Top shape: 1 2 342 63 (43092)
I0823 10:46:43.863488 18274 net.cpp:157] Top shape: 1 2 342 63 (43092)
I0823 10:46:43.863492 18274 net.cpp:165] Memory required for data: 1421806356
I0823 10:46:43.863494 18274 layer_factory.hpp:77] Creating layer rpn-data
I0823 10:46:43.864151 18274 net.cpp:106] Creating Layer rpn-data
I0823 10:46:43.864166 18274 net.cpp:454] rpn-data <- rpn_cls_score_rpn_cls_score_0_split_1
I0823 10:46:43.864173 18274 net.cpp:454] rpn-data <- gt_boxes_input-data_2_split_0
I0823 10:46:43.864179 18274 net.cpp:454] rpn-data <- im_info_input-data_1_split_0
I0823 10:46:43.864183 18274 net.cpp:454] rpn-data <- data_input-data_0_split_1
I0823 10:46:43.864190 18274 net.cpp:411] rpn-data -> rpn_labels
I0823 10:46:43.864202 18274 net.cpp:411] rpn-data -> rpn_bbox_targets
I0823 10:46:43.864212 18274 net.cpp:411] rpn-data -> rpn_bbox_inside_weights
I0823 10:46:43.864219 18274 net.cpp:411] rpn-data -> rpn_bbox_outside_weights
I0823 10:46:43.865285 18274 net.cpp:150] Setting up rpn-data
I0823 10:46:43.865303 18274 net.cpp:157] Top shape: 1 1 342 63 (21546)
I0823 10:46:43.865309 18274 net.cpp:157] Top shape: 1 36 38 63 (86184)
I0823 10:46:43.865314 18274 net.cpp:157] Top shape: 1 36 38 63 (86184)
I0823 10:46:43.865317 18274 net.cpp:157] Top shape: 1 36 38 63 (86184)
I0823 10:46:43.865319 18274 net.cpp:165] Memory required for data: 1422926748
I0823 10:46:43.865324 18274 layer_factory.hpp:77] Creating layer rpn_loss_cls
I0823 10:46:43.865334 18274 net.cpp:106] Creating Layer rpn_loss_cls
I0823 10:46:43.865339 18274 net.cpp:454] rpn_loss_cls <- rpn_cls_score_reshape_rpn_cls_score_reshape_0_split_0
I0823 10:46:43.865344 18274 net.cpp:454] rpn_loss_cls <- rpn_labels
…
I0823 10:46:43.866812 18274 net.cpp:157] Top shape: (1)
I0823 10:46:43.866816 18274 net.cpp:160]     with loss weight 1
I0823 10:46:43.866821 18274 net.cpp:165] Memory required for data: 1422926756
I0823 10:46:43.866823 18274 layer_factory.hpp:77] Creating layer rpn_cls_prob
I0823 10:46:43.866832 18274 net.cpp:106] Creating Layer rpn_cls_prob
I0823 10:46:43.866837 18274 net.cpp:454] rpn_cls_prob <- rpn_cls_score_reshape_rpn_cls_score_reshape_0_split_1
I0823 10:46:43.866842 18274 net.cpp:411] rpn_cls_prob -> rpn_cls_prob
I0823 10:46:43.867563 18274 net.cpp:150] Setting up rpn_cls_prob
I0823 10:46:43.867580 18274 net.cpp:157] Top shape: 1 2 342 63 (43092)
I0823 10:46:43.867584 18274 net.cpp:165] Memory required for data: 1423099124
I0823 10:46:43.867588 18274 layer_factory.hpp:77] Creating layer rpn_cls_prob_reshape
I0823 10:46:43.867599 18274 net.cpp:106] Creating Layer rpn_cls_prob_reshape
I0823 10:46:43.867606 18274 net.cpp:454] rpn_cls_prob_reshape <- rpn_cls_prob
I0823 10:46:43.867616 18274 net.cpp:411] rpn_cls_prob_reshape -> rpn_cls_prob_reshape
I0823 10:46:43.867671 18274 net.cpp:150] Setting up rpn_cls_prob_reshape
I0823 10:46:43.867681 18274 net.cpp:157] Top shape: 1 18 38 63 (43092)
I0823 10:46:43.867683 18274 net.cpp:165] Memory required for data: 1423271492
I0823 10:46:43.867686 18274 layer_factory.hpp:77] Creating layer proposal
I0823 10:46:43.878962 18274 net.cpp:106] Creating Layer proposal
I0823 10:46:43.878979 18274 net.cpp:454] proposal <- rpn_cls_prob_reshape
I0823 10:46:43.878985 18274 net.cpp:454] proposal <- rpn_bbox_pred_rpn_bbox_pred_0_split_1
I0823 10:46:43.878990 18274 net.cpp:454] proposal <- im_info_input-data_1_split_1
I0823 10:46:43.878998 18274 net.cpp:411] proposal -> rpn_rois
I0823 10:46:43.889859 18274 net.cpp:150] Setting up proposal
I0823 10:46:43.889894 18274 net.cpp:157] Top shape: 1 5 (5)
I0823 10:46:43.889901 18274 net.cpp:165] Memory required for data: 1423271512
I0823 10:46:43.889909 18274 layer_factory.hpp:77] Creating layer roi-data
I0823 10:46:43.890301 18274 net.cpp:106] Creating Layer roi-data
I0823 10:46:43.890324 18274 net.cpp:454] roi-data <- rpn_rois
I0823 10:46:43.890336 18274 net.cpp:454] roi-data <- gt_boxes_input-data_2_split_1
I0823 10:46:43.890352 18274 net.cpp:411] roi-data -> rois
I0823 10:46:43.890370 18274 net.cpp:411] roi-data -> labels
I0823 10:46:43.890386 18274 net.cpp:411] roi-data -> bbox_targets
I0823 10:46:43.890403 18274 net.cpp:411] roi-data -> bbox_inside_weights
I0823 10:46:43.890420 18274 net.cpp:411] roi-data -> bbox_outside_weights
I0823 10:46:43.890437 18274 net.cpp:411] roi-data -> key_targets
I0823 10:46:43.891613 18274 net.cpp:150] Setting up roi-data
I0823 10:46:43.891643 18274 net.cpp:157] Top shape: 1 5 (5)
I0823 10:46:43.891651 18274 net.cpp:157] Top shape: 1 1 (1)
I0823 10:46:43.891659 18274 net.cpp:157] Top shape: 1 84 (84)
I0823 10:46:43.891665 18274 net.cpp:157] Top shape: 1 84 (84)
I0823 10:46:43.891672 18274 net.cpp:157] Top shape: 1 84 (84)
I0823 10:46:43.891680 18274 net.cpp:157] Top shape: 1 84 (84)
I0823 10:46:43.891685 18274 net.cpp:165] Memory required for data: 1423272880
I0823 10:46:43.891691 18274 layer_factory.hpp:77] Creating layer bbox_inside_weights_roi-data_3_split
I0823 10:46:43.891705 18274 net.cpp:106] Creating Layer bbox_inside_weights_roi-data_3_split
I0823 10:46:43.891717 18274 net.cpp:454] bbox_inside_weights_roi-data_3_split <- bbox_inside_weights
I0823 10:46:43.891731 18274 net.cpp:411] bbox_inside_weights_roi-data_3_split -> bbox_inside_weights_roi-data_3_split_0
I0823 10:46:43.891747 18274 net.cpp:411] bbox_inside_weights_roi-data_3_split -> bbox_inside_weights_roi-data_3_split_1
I0823 10:46:43.891875 18274 net.cpp:150] Setting up bbox_inside_weights_roi-data_3_split
I0823 10:46:43.891890 18274 net.cpp:157] Top shape: 1 84 (84)
I0823 10:46:43.891896 18274 net.cpp:157] Top shape: 1 84 (84)
I0823 10:46:43.891906 18274 net.cpp:165] Memory required for data: 1423273552
I0823 10:46:43.891911 18274 layer_factory.hpp:77] Creating layer bbox_outside_weights_roi-data_4_split
I0823 10:46:43.891923 18274 net.cpp:106] Creating Layer bbox_outside_weights_roi-data_4_split
I0823 10:46:43.891932 18274 net.cpp:454] bbox_outside_weights_roi-data_4_split <- bbox_outside_weights
I0823 10:46:43.891943 18274 net.cpp:411] bbox_outside_weights_roi-data_4_split -> bbox_outside_weights_roi-data_4_split_0
I0823 10:46:43.891959 18274 net.cpp:411] bbox_outside_weights_roi-data_4_split -> bbox_outside_weights_roi-data_4_split_1
I0823 10:46:43.892074 18274 net.cpp:150] Setting up bbox_outside_weights_roi-data_4_split
I0823 10:46:43.892087 18274 net.cpp:157] Top shape: 1 84 (84)
I0823 10:46:43.892094 18274 net.cpp:157] Top shape: 1 84 (84)
I0823 10:46:43.892102 18274 net.cpp:165] Memory required for data: 1423274224
I0823 10:46:43.892108 18274 layer_factory.hpp:77] Creating layer roi_pool5
I0823 10:46:43.892122 18274 net.cpp:106] Creating Layer roi_pool5
I0823 10:46:43.892132 18274 net.cpp:454] roi_pool5 <- conv5_3_relu5_3_0_split_1
I0823 10:46:43.892141 18274 net.cpp:454] roi_pool5 <- rois
I0823 10:46:43.892155 18274 net.cpp:411] roi_pool5 -> pool5
I0823 10:46:43.892171 18274 roi_pooling_layer.cpp:30] Spatial scale: 0.0625
I0823 10:46:43.892305 18274 net.cpp:150] Setting up roi_pool5
I0823 10:46:43.892320 18274 net.cpp:157] Top shape: 1 512 7 7 (25088)
I0823 10:46:43.892329 18274 net.cpp:165] Memory required for data: 1423374576
I0823 10:46:43.892335 18274 layer_factory.hpp:77] Creating layer fc6
I0823 10:46:43.892349 18274 net.cpp:106] Creating Layer fc6
I0823 10:46:43.892357 18274 net.cpp:454] fc6 <- pool5
I0823 10:46:43.892369 18274 net.cpp:411] fc6 -> fc6
I0823 10:46:44.556643 18274 net.cpp:150] Setting up fc6
I0823 10:46:44.556684 18274 net.cpp:157] Top shape: 1 4096 (4096)
I0823 10:46:44.556687 18274 net.cpp:165] Memory required for data: 1423390960
I0823 10:46:44.556710 18274 layer_factory.hpp:77] Creating layer relu6
I0823 10:46:44.556723 18274 net.cpp:106] Creating Layer relu6
I0823 10:46:44.556728 18274 net.cpp:454] relu6 <- fc6
I0823 10:46:44.556736 18274 net.cpp:397] relu6 -> fc6 (in-place)
I0823 10:46:44.557062 18274 net.cpp:150] Setting up relu6
I0823 10:46:44.557075 18274 net.cpp:157] Top shape: 1 4096 (4096)
I0823 10:46:44.557077 18274 net.cpp:165] Memory required for data: 1423407344
I0823 10:46:44.557080 18274 layer_factory.hpp:77] Creating layer drop6
I0823 10:46:44.557090 18274 net.cpp:106] Creating Layer drop6
I0823 10:46:44.557092 18274 net.cpp:454] drop6 <- fc6
I0823 10:46:44.557099 18274 net.cpp:397] drop6 -> fc6 (in-place)
I0823 10:46:44.557152 18274 net.cpp:150] Setting up drop6
I0823 10:46:44.557159 18274 net.cpp:157] Top shape: 1 4096 (4096)
I0823 10:46:44.557163 18274 net.cpp:165] Memory required for data: 1423423728
I0823 10:46:44.557165 18274 layer_factory.hpp:77] Creating layer fc7
I0823 10:46:44.557174 18274 net.cpp:106] Creating Layer fc7
I0823 10:46:44.557178 18274 net.cpp:454] fc7 <- fc6
I0823 10:46:44.557185 18274 net.cpp:411] fc7 -> fc7
I0823 10:46:44.648054 18274 net.cpp:150] Setting up fc7
I0823 10:46:44.648098 18274 net.cpp:157] Top shape: 1 4096 (4096)
I0823 10:46:44.648102 18274 net.cpp:165] Memory required for data: 1423440112
I0823 10:46:44.648113 18274 layer_factory.hpp:77] Creating layer relu7
I0823 10:46:44.648126 18274 net.cpp:106] Creating Layer relu7
I0823 10:46:44.648133 18274 net.cpp:454] relu7 <- fc7
I0823 10:46:44.648141 18274 net.cpp:397] relu7 -> fc7 (in-place)
I0823 10:46:44.648926 18274 net.cpp:150] Setting up relu7
I0823 10:46:44.648941 18274 net.cpp:157] Top shape: 1 4096 (4096)
I0823 10:46:44.648944 18274 net.cpp:165] Memory required for data: 1423456496
I0823 10:46:44.648947 18274 layer_factory.hpp:77] Creating layer drop7
I0823 10:46:44.648957 18274 net.cpp:106] Creating Layer drop7
I0823 10:46:44.648962 18274 net.cpp:454] drop7 <- fc7
I0823 10:46:44.648969 18274 net.cpp:397] drop7 -> fc7 (in-place)
I0823 10:46:44.649024 18274 net.cpp:150] Setting up drop7
I0823 10:46:44.649034 18274 net.cpp:157] Top shape: 1 4096 (4096)
I0823 10:46:44.649036 18274 net.cpp:165] Memory required for data: 1423472880
I0823 10:46:44.649039 18274 layer_factory.hpp:77] Creating layer fc7_drop7_0_split
I0823 10:46:44.649047 18274 net.cpp:106] Creating Layer fc7_drop7_0_split
I0823 10:46:44.649050 18274 net.cpp:454] fc7_drop7_0_split <- fc7
I0823 10:46:44.649058 18274 net.cpp:411] fc7_drop7_0_split -> fc7_drop7_0_split_0
I0823 10:46:44.649068 18274 net.cpp:411] fc7_drop7_0_split -> fc7_drop7_0_split_1
I0823 10:46:44.649076 18274 net.cpp:411] fc7_drop7_0_split -> fc7_drop7_0_split_2
I0823 10:46:44.649211 18274 net.cpp:150] Setting up fc7_drop7_0_split
I0823 10:46:44.649220 18274 net.cpp:157] Top shape: 1 4096 (4096)
I0823 10:46:44.649224 18274 net.cpp:157] Top shape: 1 4096 (4096)
I0823 10:46:44.649230 18274 net.cpp:157] Top shape: 1 4096 (4096)
I0823 10:46:44.649232 18274 net.cpp:165] Memory required for data: 1423522032
I0823 10:46:44.649236 18274 layer_factory.hpp:77] Creating layer cls_score
I0823 10:46:44.649246 18274 net.cpp:106] Creating Layer cls_score
I0823 10:46:44.649251 18274 net.cpp:454] cls_score <- fc7_drop7_0_split_0
I0823 10:46:44.649261 18274 net.cpp:411] cls_score -> cls_score
I0823 10:46:44.650575 18274 net.cpp:150] Setting up cls_score
I0823 10:46:44.650584 18274 net.cpp:157] Top shape: 1 21 (21)
I0823 10:46:44.650588 18274 net.cpp:165] Memory required for data: 1423522116
I0823 10:46:44.650595 18274 layer_factory.hpp:77] Creating layer bbox_pred
I0823 10:46:44.650604 18274 net.cpp:106] Creating Layer bbox_pred
I0823 10:46:44.650607 18274 net.cpp:454] bbox_pred <- fc7_drop7_0_split_1
I0823 10:46:44.650615 18274 net.cpp:411] bbox_pred -> bbox_pred
I0823 10:46:44.657284 18274 net.cpp:150] Setting up bbox_pred
I0823 10:46:44.657300 18274 net.cpp:157] Top shape: 1 84 (84)
I0823 10:46:44.657304 18274 net.cpp:165] Memory required for data: 1423522452
I0823 10:46:44.657311 18274 layer_factory.hpp:77] Creating layer key_pred
I0823 10:46:44.657320 18274 net.cpp:106] Creating Layer key_pred
I0823 10:46:44.657325 18274 net.cpp:454] key_pred <- fc7_drop7_0_split_2
I0823 10:46:44.657333 18274 net.cpp:411] key_pred -> key_pred
I0823 10:46:44.663890 18274 net.cpp:150] Setting up key_pred
I0823 10:46:44.663905 18274 net.cpp:157] Top shape: 1 84 (84)
I0823 10:46:44.663908 18274 net.cpp:165] Memory required for data: 1423522788
I0823 10:46:44.663915 18274 layer_factory.hpp:77] Creating layer loss_cls
I0823 10:46:44.663941 18274 net.cpp:106] Creating Layer loss_cls
I0823 10:46:44.663945 18274 net.cpp:454] loss_cls <- cls_score
I0823 10:46:44.663950 18274 net.cpp:454] loss_cls <- labels
I0823 10:46:44.663956 18274 net.cpp:411] loss_cls -> loss_cls
…
