…
stepsize: 50000
snapshot: 0
snapshot_prefix: "vgg_cnn_m_1024_faster_rcnn"
average_loss: 100
I0823 19:09:46.502781 13813 solver.cpp:81] Creating training net from train_net file: models/pascal_voc/VGG_CNN_M_1024/key/train.prototxt
I0823 19:09:46.503437 13813 net.cpp:49] Initializing net from parameters: 
name: "VGG_CNN_M_1024"
state {
  phase: TRAIN
}
layer {
  name: "input-data"
  type: "Python"
  top: "data"
  top: "im_info"
  top: "gt_boxes"
  python_param {
    module: "roi_data_layer.layer"
    layer: "RoIDataLayer"
    param_str: "\'num_classes\': 21"
  }
}
layer {
  name: "conv1"
  type: "Convolution"
  bottom: "data"
  top: "conv1"
  param {
    lr_mult: 0
    decay_mult: 0
  }
  param {
    lr_mult: 0
    decay_mult: 0
  }
  convolution_param {
    num_output: 96
    kernel_size: 7
    stride: 2
  }
}
layer {
  name: "relu1"
  type: "ReLU"
  bottom: "conv1"
  top: "conv1"
}
layer {
  name: "norm1"
  type: "LRN"
  bottom: "conv1"
  top: "norm1"
  lrn_param {
    local_size: 5
    alpha: 0.0005
    beta: 0.75
    k: 2
  }
}
layer {
  name: "pool1"
  type: "Pooling"
  bottom: "norm1"
  top: "pool1"
  pooling_param {
    pool: MAX
    kernel_size: 3
    stride: 2
  }
}
layer {
  name: "conv2"
  type: "Convolution"
  bottom: "pool1"
  top: "conv2"
  param {
    lr_mult: 1
  }
  param {
    lr_mult: 2
  }
  convolution_param {
    num_output: 256
    pad: 1
    kernel_size: 5
    stride: 2
  }
}
layer {
  name: "relu2"
  type: "ReLU"
  bottom: "conv2"
  top: "conv2"
}
layer {
  name: "norm2"
  type: "LRN"
  bottom: "conv2"
  top: "norm2"
  lrn_param {
    local_size: 5
    alpha: 0.0005
    beta: 0.75
    k: 2
  }
}
layer {
  name: "pool2"
  type: "Pooling"
  bottom: "norm2"
  top: "pool2"
  pooling_param {
    pool: MAX
    kernel_size: 3
    stride: 2
  }
}
layer {
  name: "conv3"
  type: "Convolution"
  bottom: "pool2"
  top: "conv3"
  param {
    lr_mult: 1
  }
  param {
    lr_mult: 2
  }
  convolution_param {
    num_output: 512
    pad: 1
    kernel_size: 3
  }
}
layer {
  name: "relu3"
  type: "ReLU"
  bottom: "conv3"
  top: "conv3"
}
layer {
  name: "conv4"
  type: "Convolution"
  bottom: "conv3"
  top: "conv4"
  param {
    lr_mult: 1
  }
  param {
    lr_mult: 2
  }
  convolution_param {
    num_output: 512
    pad: 1
    kernel_size: 3
  }
}
layer {
  name: "relu4"
  type: "ReLU"
  bottom: "conv4"
  top: "conv4"
}
layer {
  name: "conv5"
  type: "Convolution"
  bottom: "conv4"
  top: "conv5"
  param {
    lr_mult: 1
  }
  param {
    lr_mult: 2
  }
  convolution_param {
    num_output: 512
    pad: 1
    kernel_size: 3
  }
}
layer {
  name: "relu5"
  type: "ReLU"
  bottom: "conv5"
  top: "conv5"
}
layer {
  name: "rpn_conv/3x3"
  type: "Convolution"
  bottom: "conv5"
  top: "rpn/output"
  param {
    lr_mult: 1
  }
  param {
    lr_mult: 2
  }
  convolution_param {
    num_output: 256
    pad: 1
    kernel_size: 3
    stride: 1
    weight_filler {
      type: "gaussian"
      std: 0.01
    }
    bias_filler {
      type: "constant"
      value: 0
    }
  }
}
layer {
  name: "rpn_relu/3x3"
  type: "ReLU"
  bottom: "rpn/output"
  top: "rpn/output"
}
layer {
  name: "rpn_cls_score"
  type: "Convolution"
  bottom: "rpn/output"
  top: "rpn_cls_score"
  param {
    lr_mult: 1
  }
  param {
    lr_mult: 2
  }
  convolution_param {
    num_output: 18
    pad: 0
    kernel_size: 1
    stride: 1
    weight_filler {
      type: "gaussian"
      std: 0.01
    }
    bias_filler {
      type: "constant"
      value: 0
    }
  }
}
layer {
  name: "rpn_bbox_pred"
  type: "Convolution"
  bottom: "rpn/output"
  top: "rpn_bbox_pred"
  param {
    lr_mult: 1
  }
  param {
    lr_mult: 2
  }
  convolution_param {
    num_output: 36
    pad: 0
    kernel_size: 1
    stride: 1
    weight_filler {
      type: "gaussian"
      std: 0.01
    }
    bias_filler {
      type: "constant"
      value: 0
    }
  }
}
layer {
  name: "rpn_cls_score_reshape"
  type: "Reshape"
  bottom: "rpn_cls_score"
  top: "rpn_cls_score_reshape"
  reshape_param {
    shape {
      dim: 0
      dim: 2
      dim: -1
      dim: 0
    }
  }
}
layer {
  name: "rpn-data"
  type: "Python"
  bottom: "rpn_cls_score"
  bottom: "gt_boxes"
  bottom: "im_info"
  bottom: "data"
  top: "rpn_labels"
  top: "rpn_bbox_targets"
  top: "rpn_bbox_inside_weights"
  top: "rpn_bbox_outside_weights"
  python_param {
    module: "rpn.anchor_target_layer"
    layer: "AnchorTargetLayer"
    param_str: "\'feat_stride\': 16"
  }
}
layer {
  name: "rpn_loss_cls"
  type: "SoftmaxWithLoss"
  bottom: "rpn_cls_score_reshape"
  bottom: "rpn_labels"
  top: "rpn_cls_loss"
  loss_weight: 1
  propagate_down: true
  propagate_down: false
  loss_param {
    ignore_label: -1
    normalize: true
  }
}
layer {
  name: "rpn_loss_bbox"
  type: "SmoothL1Loss"
  bottom: "rpn_bbox_pred"
  bottom: "rpn_bbox_targets"
  bottom: "rpn_bbox_inside_weights"
  bottom: "rpn_bbox_outside_weights"
  top: "rpn_loss_bbox"
  loss_weight: 1
  smooth_l1_loss_param {
    sigma: 3
  }
}
layer {
  name: "rpn_cls_prob"
  type: "Softmax"
  bottom: "rpn_cls_score_reshape"
  top: "rpn_cls_prob"
}
layer {
  name: "rpn_cls_prob_reshape"
  type: "Reshape"
  bottom: "rpn_cls_prob"
  top: "rpn_cls_prob_reshape"
  reshape_param {
    shape {
      dim: 0
      dim: 18
      dim: -1
      dim: 0
    }
  }
}
layer {
  name: "proposal"
  type: "Python"
  bottom: "rpn_cls_prob_reshape"
  bottom: "rpn_bbox_pred"
  bottom: "im_info"
  top: "rpn_rois"
  python_param {
    module: "rpn.proposal_layer"
    layer: "ProposalLayer"
    param_str: "\'feat_stride\': 16"
  }
}
layer {
  name: "roi-data"
  type: "Python"
  bottom: "rpn_rois"
  bottom: "gt_boxes"
  top: "rois"
  top: "labels"
  top: "bbox_targets"
  top: "bbox_inside_weights"
  top: "bbox_outside_weights"
  top: "key_targets"
  top: "key_inside_weights"
  python_param {
    module: "rpn.proposal_target_layer"
    layer: "ProposalTargetLayer"
    param_str: "\'num_classes\': 21"
  }
}
layer {
  name: "roi_pool5"
  type: "ROIPooling"
  bottom: "conv5"
  bottom: "rois"
  top: "pool5"
  roi_pooling_param {
    pooled_h: 6
    pooled_w: 6
    spatial_scale: 0.0625
  }
}
layer {
  name: "fc6"
  type: "InnerProduct"
  bottom: "pool5"
  top: "fc6"
  param {
    lr_mult: 1
  }
  param {
    lr_mult: 2
  }
  inner_product_param {
    num_output: 4096
  }
}
layer {
  name: "relu6"
  type: "ReLU"
  bottom: "fc6"
  top: "fc6"
}
layer {
  name: "drop6"
  type: "Dropout"
  bottom: "fc6"
  top: "fc6"
  dropout_param {
    dropout_ratio: 0.5
  }
}
layer {
  name: "fc7"
  type: "InnerProduct"
  bottom: "fc6"
  top: "fc7"
  param {
    lr_mult: 1
  }
  param {
    lr_mult: 2
  }
  inner_product_param {
    num_output: 1024
  }
}
layer {
  name: "relu7"
  type: "ReLU"
  bottom: "fc7"
  top: "fc7"
}
layer {
  name: "drop7"
  type: "Dropout"
  bottom: "fc7"
  top: "fc7"
  dropout_param {
    dropout_ratio: 0.5
  }
}
layer {
  name: "cls_score"
  type: "InnerProduct"
  bottom: "fc7"
  top: "cls_score"
  param {
    lr_mult: 1
  }
  param {
    lr_mult: 2
  }
  inner_product_param {
    num_output: 21
    weight_filler {
      type: "gaussian"
      std: 0.01
    }
    bias_filler {
      type: "constant"
      value: 0
    }
  }
}
layer {
  name: "bbox_pred"
  type: "InnerProduct"
  bottom: "fc7"
  top: "bbox_pred"
  param {
    lr_mult: 1
  }
  param {
    lr_mult: 2
  }
  inner_product_param {
    num_output: 84
    weight_filler {
      type: "gaussian"
      std: 0.001
    }
    bias_filler {
      type: "constant"
      value: 0
    }
  }
}
layer {
  name: "key_pred"
  type: "InnerProduct"
  bottom: "fc7"
  top: "key_pred"
  param {
    lr_mult: 1
  }
  param {
    lr_mult: 2
  }
  inner_product_param {
    num_output: 84
    weight_filler {
      type: "gaussian"
      std: 0.001
    }
    bias_filler {
      type: "constant"
      value: 0
    }
  }
}
layer {
  name: "loss_cls"
  type: "SoftmaxWithLoss"
  bottom: "cls_score"
  bottom: "labels"
  top: "loss_cls"
  loss_weight: 1
  propagate_down: true
  propagate_down: false
}
layer {
  name: "loss_bbox"
  type: "SmoothL1Loss"
  bottom: "bbox_pred"
  bottom: "bbox_targets"
  bottom: "bbox_inside_weights"
  bottom: "bbox_outside_weights"
  top: "loss_bbox"
  loss_weight: 1
}
layer {
  name: "loss_key"
  type: "SmoothL1Loss"
  bottom: "key_pred"
  bottom: "key_targets"
  bottom: "key_inside_weights"
  bottom: "bbox_outside_weights"
  top: "loss_key"
  loss_weight: 1
}
I0823 19:09:46.503713 13813 layer_factory.hpp:77] Creating layer input-data
I0823 19:09:46.518882 13813 net.cpp:106] Creating Layer input-data
I0823 19:09:46.518918 13813 net.cpp:411] input-data -> data
I0823 19:09:46.518930 13813 net.cpp:411] input-data -> im_info
I0823 19:09:46.518937 13813 net.cpp:411] input-data -> gt_boxes
RoiDataLayer: name_to_top: {'gt_boxes': 2, 'data': 0, 'im_info': 1}
I0823 19:09:46.555825 13813 net.cpp:150] Setting up input-data
I0823 19:09:46.555845 13813 net.cpp:157] Top shape: 1 3 600 1000 (1800000)
I0823 19:09:46.555851 13813 net.cpp:157] Top shape: 1 3 (3)
I0823 19:09:46.555855 13813 net.cpp:157] Top shape: 1 4 (4)
I0823 19:09:46.555857 13813 net.cpp:165] Memory required for data: 7200028
I0823 19:09:46.555863 13813 layer_factory.hpp:77] Creating layer data_input-data_0_split
I0823 19:09:46.555873 13813 net.cpp:106] Creating Layer data_input-data_0_split
I0823 19:09:46.555879 13813 net.cpp:454] data_input-data_0_split <- data
I0823 19:09:46.555886 13813 net.cpp:411] data_input-data_0_split -> data_input-data_0_split_0
I0823 19:09:46.555896 13813 net.cpp:411] data_input-data_0_split -> data_input-data_0_split_1
I0823 19:09:46.555961 13813 net.cpp:150] Setting up data_input-data_0_split
I0823 19:09:46.555969 13813 net.cpp:157] Top shape: 1 3 600 1000 (1800000)
I0823 19:09:46.555974 13813 net.cpp:157] Top shape: 1 3 600 1000 (1800000)
I0823 19:09:46.555976 13813 net.cpp:165] Memory required for data: 21600028
I0823 19:09:46.555979 13813 layer_factory.hpp:77] Creating layer im_info_input-data_1_split
I0823 19:09:46.555985 13813 net.cpp:106] Creating Layer im_info_input-data_1_split
I0823 19:09:46.555990 13813 net.cpp:454] im_info_input-data_1_split <- im_info
I0823 19:09:46.555995 13813 net.cpp:411] im_info_input-data_1_split -> im_info_input-data_1_split_0
I0823 19:09:46.556001 13813 net.cpp:411] im_info_input-data_1_split -> im_info_input-data_1_split_1
I0823 19:09:46.556047 13813 net.cpp:150] Setting up im_info_input-data_1_split
I0823 19:09:46.556053 13813 net.cpp:157] Top shape: 1 3 (3)
I0823 19:09:46.556057 13813 net.cpp:157] Top shape: 1 3 (3)
I0823 19:09:46.556059 13813 net.cpp:165] Memory required for data: 21600052
I0823 19:09:46.556061 13813 layer_factory.hpp:77] Creating layer gt_boxes_input-data_2_split
I0823 19:09:46.556067 13813 net.cpp:106] Creating Layer gt_boxes_input-data_2_split
I0823 19:09:46.556071 13813 net.cpp:454] gt_boxes_input-data_2_split <- gt_boxes
I0823 19:09:46.556076 13813 net.cpp:411] gt_boxes_input-data_2_split -> gt_boxes_input-data_2_split_0
I0823 19:09:46.556082 13813 net.cpp:411] gt_boxes_input-data_2_split -> gt_boxes_input-data_2_split_1
I0823 19:09:46.556128 13813 net.cpp:150] Setting up gt_boxes_input-data_2_split
I0823 19:09:46.556135 13813 net.cpp:157] Top shape: 1 4 (4)
I0823 19:09:46.556139 13813 net.cpp:157] Top shape: 1 4 (4)
I0823 19:09:46.556141 13813 net.cpp:165] Memory required for data: 21600084
I0823 19:09:46.556144 13813 layer_factory.hpp:77] Creating layer conv1
I0823 19:09:46.556156 13813 net.cpp:106] Creating Layer conv1
I0823 19:09:46.556160 13813 net.cpp:454] conv1 <- data_input-data_0_split_0
I0823 19:09:46.556167 13813 net.cpp:411] conv1 -> conv1
I0823 19:09:46.920892 13813 net.cpp:150] Setting up conv1
I0823 19:09:46.920936 13813 net.cpp:157] Top shape: 1 96 297 497 (14170464)
I0823 19:09:46.920940 13813 net.cpp:165] Memory required for data: 78281940
I0823 19:09:46.920961 13813 layer_factory.hpp:77] Creating layer relu1
I0823 19:09:46.920975 13813 net.cpp:106] Creating Layer relu1
I0823 19:09:46.920980 13813 net.cpp:454] relu1 <- conv1
I0823 19:09:46.920989 13813 net.cpp:397] relu1 -> conv1 (in-place)
I0823 19:09:46.921597 13813 net.cpp:150] Setting up relu1
I0823 19:09:46.921612 13813 net.cpp:157] Top shape: 1 96 297 497 (14170464)
I0823 19:09:46.921615 13813 net.cpp:165] Memory required for data: 134963796
I0823 19:09:46.921619 13813 layer_factory.hpp:77] Creating layer norm1
I0823 19:09:46.921629 13813 net.cpp:106] Creating Layer norm1
I0823 19:09:46.921633 13813 net.cpp:454] norm1 <- conv1
I0823 19:09:46.921639 13813 net.cpp:411] norm1 -> norm1
I0823 19:09:46.921895 13813 net.cpp:150] Setting up norm1
I0823 19:09:46.921906 13813 net.cpp:157] Top shape: 1 96 297 497 (14170464)
I0823 19:09:46.921910 13813 net.cpp:165] Memory required for data: 191645652
I0823 19:09:46.921912 13813 layer_factory.hpp:77] Creating layer pool1
I0823 19:09:46.921921 13813 net.cpp:106] Creating Layer pool1
I0823 19:09:46.921923 13813 net.cpp:454] pool1 <- norm1
I0823 19:09:46.921929 13813 net.cpp:411] pool1 -> pool1
I0823 19:09:46.921993 13813 net.cpp:150] Setting up pool1
I0823 19:09:46.922001 13813 net.cpp:157] Top shape: 1 96 148 248 (3523584)
I0823 19:09:46.922004 13813 net.cpp:165] Memory required for data: 205739988
I0823 19:09:46.922008 13813 layer_factory.hpp:77] Creating layer conv2
I0823 19:09:46.922022 13813 net.cpp:106] Creating Layer conv2
I0823 19:09:46.922027 13813 net.cpp:454] conv2 <- pool1
I0823 19:09:46.922034 13813 net.cpp:411] conv2 -> conv2
I0823 19:09:46.929507 13813 net.cpp:150] Setting up conv2
I0823 19:09:46.929581 13813 net.cpp:157] Top shape: 1 256 73 123 (2298624)
I0823 19:09:46.929590 13813 net.cpp:165] Memory required for data: 214934484
I0823 19:09:46.929620 13813 layer_factory.hpp:77] Creating layer relu2
I0823 19:09:46.929637 13813 net.cpp:106] Creating Layer relu2
I0823 19:09:46.929647 13813 net.cpp:454] relu2 <- conv2
I0823 19:09:46.929662 13813 net.cpp:397] relu2 -> conv2 (in-place)
I0823 19:09:46.930459 13813 net.cpp:150] Setting up relu2
I0823 19:09:46.930474 13813 net.cpp:157] Top shape: 1 256 73 123 (2298624)
I0823 19:09:46.930479 13813 net.cpp:165] Memory required for data: 224128980
I0823 19:09:46.930481 13813 layer_factory.hpp:77] Creating layer norm2
I0823 19:09:46.930491 13813 net.cpp:106] Creating Layer norm2
I0823 19:09:46.930497 13813 net.cpp:454] norm2 <- conv2
I0823 19:09:46.930505 13813 net.cpp:411] norm2 -> norm2
I0823 19:09:46.931766 13813 net.cpp:150] Setting up norm2
I0823 19:09:46.931782 13813 net.cpp:157] Top shape: 1 256 73 123 (2298624)
I0823 19:09:46.931787 13813 net.cpp:165] Memory required for data: 233323476
I0823 19:09:46.931789 13813 layer_factory.hpp:77] Creating layer pool2
I0823 19:09:46.931798 13813 net.cpp:106] Creating Layer pool2
I0823 19:09:46.931802 13813 net.cpp:454] pool2 <- norm2
I0823 19:09:46.931809 13813 net.cpp:411] pool2 -> pool2
I0823 19:09:46.931874 13813 net.cpp:150] Setting up pool2
I0823 19:09:46.931881 13813 net.cpp:157] Top shape: 1 256 36 61 (562176)
I0823 19:09:46.931885 13813 net.cpp:165] Memory required for data: 235572180
I0823 19:09:46.931887 13813 layer_factory.hpp:77] Creating layer conv3
I0823 19:09:46.931900 13813 net.cpp:106] Creating Layer conv3
I0823 19:09:46.931905 13813 net.cpp:454] conv3 <- pool2
I0823 19:09:46.931911 13813 net.cpp:411] conv3 -> conv3
I0823 19:09:46.945924 13813 net.cpp:150] Setting up conv3
I0823 19:09:46.945972 13813 net.cpp:157] Top shape: 1 512 36 61 (1124352)
I0823 19:09:46.945976 13813 net.cpp:165] Memory required for data: 240069588
I0823 19:09:46.945996 13813 layer_factory.hpp:77] Creating layer relu3
I0823 19:09:46.946008 13813 net.cpp:106] Creating Layer relu3
I0823 19:09:46.946013 13813 net.cpp:454] relu3 <- conv3
I0823 19:09:46.946023 13813 net.cpp:397] relu3 -> conv3 (in-place)
I0823 19:09:46.946279 13813 net.cpp:150] Setting up relu3
I0823 19:09:46.946297 13813 net.cpp:157] Top shape: 1 512 36 61 (1124352)
I0823 19:09:46.946300 13813 net.cpp:165] Memory required for data: 244566996
I0823 19:09:46.946305 13813 layer_factory.hpp:77] Creating layer conv4
I0823 19:09:46.946318 13813 net.cpp:106] Creating Layer conv4
I0823 19:09:46.946321 13813 net.cpp:454] conv4 <- conv3
I0823 19:09:46.946329 13813 net.cpp:411] conv4 -> conv4
I0823 19:09:46.962352 13813 net.cpp:150] Setting up conv4
I0823 19:09:46.962395 13813 net.cpp:157] Top shape: 1 512 36 61 (1124352)
I0823 19:09:46.962399 13813 net.cpp:165] Memory required for data: 249064404
I0823 19:09:46.962410 13813 layer_factory.hpp:77] Creating layer relu4
I0823 19:09:46.962421 13813 net.cpp:106] Creating Layer relu4
I0823 19:09:46.962425 13813 net.cpp:454] relu4 <- conv4
I0823 19:09:46.962432 13813 net.cpp:397] relu4 -> conv4 (in-place)
I0823 19:09:46.963289 13813 net.cpp:150] Setting up relu4
I0823 19:09:46.963304 13813 net.cpp:157] Top shape: 1 512 36 61 (1124352)
I0823 19:09:46.963307 13813 net.cpp:165] Memory required for data: 253561812
I0823 19:09:46.963311 13813 layer_factory.hpp:77] Creating layer conv5
I0823 19:09:46.963328 13813 net.cpp:106] Creating Layer conv5
I0823 19:09:46.963332 13813 net.cpp:454] conv5 <- conv4
I0823 19:09:46.963341 13813 net.cpp:411] conv5 -> conv5
I0823 19:09:46.978272 13813 net.cpp:150] Setting up conv5
I0823 19:09:46.978294 13813 net.cpp:157] Top shape: 1 512 36 61 (1124352)
I0823 19:09:46.978303 13813 net.cpp:165] Memory required for data: 258059220
I0823 19:09:46.978317 13813 layer_factory.hpp:77] Creating layer relu5
I0823 19:09:46.978325 13813 net.cpp:106] Creating Layer relu5
I0823 19:09:46.978329 13813 net.cpp:454] relu5 <- conv5
I0823 19:09:46.978338 13813 net.cpp:397] relu5 -> conv5 (in-place)
I0823 19:09:46.979357 13813 net.cpp:150] Setting up relu5
I0823 19:09:46.979370 13813 net.cpp:157] Top shape: 1 512 36 61 (1124352)
I0823 19:09:46.979374 13813 net.cpp:165] Memory required for data: 262556628
I0823 19:09:46.979382 13813 layer_factory.hpp:77] Creating layer conv5_relu5_0_split
I0823 19:09:46.979389 13813 net.cpp:106] Creating Layer conv5_relu5_0_split
I0823 19:09:46.979393 13813 net.cpp:454] conv5_relu5_0_split <- conv5
I0823 19:09:46.979399 13813 net.cpp:411] conv5_relu5_0_split -> conv5_relu5_0_split_0
I0823 19:09:46.979409 13813 net.cpp:411] conv5_relu5_0_split -> conv5_relu5_0_split_1
I0823 19:09:46.979483 13813 net.cpp:150] Setting up conv5_relu5_0_split
I0823 19:09:46.979493 13813 net.cpp:157] Top shape: 1 512 36 61 (1124352)
I0823 19:09:46.979501 13813 net.cpp:157] Top shape: 1 512 36 61 (1124352)
I0823 19:09:46.979502 13813 net.cpp:165] Memory required for data: 271551444
I0823 19:09:46.979506 13813 layer_factory.hpp:77] Creating layer rpn_conv/3x3
I0823 19:09:46.979521 13813 net.cpp:106] Creating Layer rpn_conv/3x3
I0823 19:09:46.979526 13813 net.cpp:454] rpn_conv/3x3 <- conv5_relu5_0_split_0
I0823 19:09:46.979532 13813 net.cpp:411] rpn_conv/3x3 -> rpn/output
I0823 19:09:47.002751 13813 net.cpp:150] Setting up rpn_conv/3x3
I0823 19:09:47.002774 13813 net.cpp:157] Top shape: 1 256 36 61 (562176)
I0823 19:09:47.002779 13813 net.cpp:165] Memory required for data: 273800148
I0823 19:09:47.002786 13813 layer_factory.hpp:77] Creating layer rpn_relu/3x3
I0823 19:09:47.002794 13813 net.cpp:106] Creating Layer rpn_relu/3x3
I0823 19:09:47.002799 13813 net.cpp:454] rpn_relu/3x3 <- rpn/output
I0823 19:09:47.002804 13813 net.cpp:397] rpn_relu/3x3 -> rpn/output (in-place)
I0823 19:09:47.004070 13813 net.cpp:150] Setting up rpn_relu/3x3
I0823 19:09:47.004086 13813 net.cpp:157] Top shape: 1 256 36 61 (562176)
I0823 19:09:47.004088 13813 net.cpp:165] Memory required for data: 276048852
I0823 19:09:47.004097 13813 layer_factory.hpp:77] Creating layer rpn/output_rpn_relu/3x3_0_split
I0823 19:09:47.004104 13813 net.cpp:106] Creating Layer rpn/output_rpn_relu/3x3_0_split
I0823 19:09:47.004108 13813 net.cpp:454] rpn/output_rpn_relu/3x3_0_split <- rpn/output
I0823 19:09:47.004117 13813 net.cpp:411] rpn/output_rpn_relu/3x3_0_split -> rpn/output_rpn_relu/3x3_0_split_0
I0823 19:09:47.004125 13813 net.cpp:411] rpn/output_rpn_relu/3x3_0_split -> rpn/output_rpn_relu/3x3_0_split_1
I0823 19:09:47.004206 13813 net.cpp:150] Setting up rpn/output_rpn_relu/3x3_0_split
I0823 19:09:47.004215 13813 net.cpp:157] Top shape: 1 256 36 61 (562176)
I0823 19:09:47.004218 13813 net.cpp:157] Top shape: 1 256 36 61 (562176)
I0823 19:09:47.004221 13813 net.cpp:165] Memory required for data: 280546260
I0823 19:09:47.004225 13813 layer_factory.hpp:77] Creating layer rpn_cls_score
I0823 19:09:47.004237 13813 net.cpp:106] Creating Layer rpn_cls_score
I0823 19:09:47.004242 13813 net.cpp:454] rpn_cls_score <- rpn/output_rpn_relu/3x3_0_split_0
I0823 19:09:47.004251 13813 net.cpp:411] rpn_cls_score -> rpn_cls_score
I0823 19:09:47.007922 13813 net.cpp:150] Setting up rpn_cls_score
I0823 19:09:47.007941 13813 net.cpp:157] Top shape: 1 18 36 61 (39528)
I0823 19:09:47.007946 13813 net.cpp:165] Memory required for data: 280704372
I0823 19:09:47.007953 13813 layer_factory.hpp:77] Creating layer rpn_cls_score_rpn_cls_score_0_split
I0823 19:09:47.007962 13813 net.cpp:106] Creating Layer rpn_cls_score_rpn_cls_score_0_split
I0823 19:09:47.007966 13813 net.cpp:454] rpn_cls_score_rpn_cls_score_0_split <- rpn_cls_score
I0823 19:09:47.007973 13813 net.cpp:411] rpn_cls_score_rpn_cls_score_0_split -> rpn_cls_score_rpn_cls_score_0_split_0
I0823 19:09:47.007982 13813 net.cpp:411] rpn_cls_score_rpn_cls_score_0_split -> rpn_cls_score_rpn_cls_score_0_split_1
I0823 19:09:47.008052 13813 net.cpp:150] Setting up rpn_cls_score_rpn_cls_score_0_split
I0823 19:09:47.008064 13813 net.cpp:157] Top shape: 1 18 36 61 (39528)
I0823 19:09:47.008069 13813 net.cpp:157] Top shape: 1 18 36 61 (39528)
I0823 19:09:47.008072 13813 net.cpp:165] Memory required for data: 281020596
I0823 19:09:47.008075 13813 layer_factory.hpp:77] Creating layer rpn_bbox_pred
I0823 19:09:47.008088 13813 net.cpp:106] Creating Layer rpn_bbox_pred
I0823 19:09:47.008093 13813 net.cpp:454] rpn_bbox_pred <- rpn/output_rpn_relu/3x3_0_split_1
I0823 19:09:47.008100 13813 net.cpp:411] rpn_bbox_pred -> rpn_bbox_pred
I0823 19:09:47.012123 13813 net.cpp:150] Setting up rpn_bbox_pred
I0823 19:09:47.012140 13813 net.cpp:157] Top shape: 1 36 36 61 (79056)
I0823 19:09:47.012143 13813 net.cpp:165] Memory required for data: 281336820
I0823 19:09:47.012151 13813 layer_factory.hpp:77] Creating layer rpn_bbox_pred_rpn_bbox_pred_0_split
I0823 19:09:47.012158 13813 net.cpp:106] Creating Layer rpn_bbox_pred_rpn_bbox_pred_0_split
I0823 19:09:47.012162 13813 net.cpp:454] rpn_bbox_pred_rpn_bbox_pred_0_split <- rpn_bbox_pred
I0823 19:09:47.012171 13813 net.cpp:411] rpn_bbox_pred_rpn_bbox_pred_0_split -> rpn_bbox_pred_rpn_bbox_pred_0_split_0
I0823 19:09:47.012181 13813 net.cpp:411] rpn_bbox_pred_rpn_bbox_pred_0_split -> rpn_bbox_pred_rpn_bbox_pred_0_split_1
I0823 19:09:47.012251 13813 net.cpp:150] Setting up rpn_bbox_pred_rpn_bbox_pred_0_split
I0823 19:09:47.012260 13813 net.cpp:157] Top shape: 1 36 36 61 (79056)
I0823 19:09:47.012264 13813 net.cpp:157] Top shape: 1 36 36 61 (79056)
I0823 19:09:47.012267 13813 net.cpp:165] Memory required for data: 281969268
I0823 19:09:47.012270 13813 layer_factory.hpp:77] Creating layer rpn_cls_score_reshape
I0823 19:09:47.012279 13813 net.cpp:106] Creating Layer rpn_cls_score_reshape
I0823 19:09:47.012284 13813 net.cpp:454] rpn_cls_score_reshape <- rpn_cls_score_rpn_cls_score_0_split_0
I0823 19:09:47.012292 13813 net.cpp:411] rpn_cls_score_reshape -> rpn_cls_score_reshape
I0823 19:09:47.012338 13813 net.cpp:150] Setting up rpn_cls_score_reshape
I0823 19:09:47.012346 13813 net.cpp:157] Top shape: 1 2 324 61 (39528)
I0823 19:09:47.012348 13813 net.cpp:165] Memory required for data: 282127380
I0823 19:09:47.012351 13813 layer_factory.hpp:77] Creating layer rpn_cls_score_reshape_rpn_cls_score_reshape_0_split
I0823 19:09:47.012359 13813 net.cpp:106] Creating Layer rpn_cls_score_reshape_rpn_cls_score_reshape_0_split
I0823 19:09:47.012367 13813 net.cpp:454] rpn_cls_score_reshape_rpn_cls_score_reshape_0_split <- rpn_cls_score_reshape
I0823 19:09:47.012372 13813 net.cpp:411] rpn_cls_score_reshape_rpn_cls_score_reshape_0_split -> rpn_cls_score_reshape_rpn_cls_score_reshape_0_split_0
I0823 19:09:47.012379 13813 net.cpp:411] rpn_cls_score_reshape_rpn_cls_score_reshape_0_split -> rpn_cls_score_reshape_rpn_cls_score_reshape_0_split_1
I0823 19:09:47.012442 13813 net.cpp:150] Setting up rpn_cls_score_reshape_rpn_cls_score_reshape_0_split
I0823 19:09:47.012451 13813 net.cpp:157] Top shape: 1 2 324 61 (39528)
I0823 19:09:47.012456 13813 net.cpp:157] Top shape: 1 2 324 61 (39528)
I0823 19:09:47.012459 13813 net.cpp:165] Memory required for data: 282443604
I0823 19:09:47.012461 13813 layer_factory.hpp:77] Creating layer rpn-data
I0823 19:09:47.013047 13813 net.cpp:106] Creating Layer rpn-data
I0823 19:09:47.013062 13813 net.cpp:454] rpn-data <- rpn_cls_score_rpn_cls_score_0_split_1
I0823 19:09:47.013070 13813 net.cpp:454] rpn-data <- gt_boxes_input-data_2_split_0
I0823 19:09:47.013077 13813 net.cpp:454] rpn-data <- im_info_input-data_1_split_0
I0823 19:09:47.013082 13813 net.cpp:454] rpn-data <- data_input-data_0_split_1
I0823 19:09:47.013090 13813 net.cpp:411] rpn-data -> rpn_labels
I0823 19:09:47.013108 13813 net.cpp:411] rpn-data -> rpn_bbox_targets
I0823 19:09:47.013118 13813 net.cpp:411] rpn-data -> rpn_bbox_inside_weights
I0823 19:09:47.013129 13813 net.cpp:411] rpn-data -> rpn_bbox_outside_weights
I0823 19:09:47.015904 13813 net.cpp:150] Setting up rpn-data
I0823 19:09:47.015923 13813 net.cpp:157] Top shape: 1 1 324 61 (19764)
I0823 19:09:47.015929 13813 net.cpp:157] Top shape: 1 36 36 61 (79056)
I0823 19:09:47.015933 13813 net.cpp:157] Top shape: 1 36 36 61 (79056)
I0823 19:09:47.015938 13813 net.cpp:157] Top shape: 1 36 36 61 (79056)
I0823 19:09:47.015940 13813 net.cpp:165] Memory required for data: 283471332
I0823 19:09:47.015944 13813 layer_factory.hpp:77] Creating layer rpn_loss_cls
I0823 19:09:47.015955 13813 net.cpp:106] Creating Layer rpn_loss_cls
I0823 19:09:47.015961 13813 net.cpp:454] rpn_loss_cls <- rpn_cls_score_reshape_rpn_cls_score_reshape_0_split_0
I0823 19:09:47.015966 13813 net.cpp:454] rpn_loss_cls <- rpn_labels
…
I0823 19:09:47.017698 13813 net.cpp:157] Top shape: (1)
I0823 19:09:47.017700 13813 net.cpp:160]     with loss weight 1
I0823 19:09:47.017707 13813 net.cpp:165] Memory required for data: 283471340
I0823 19:09:47.017710 13813 layer_factory.hpp:77] Creating layer rpn_cls_prob
I0823 19:09:47.017716 13813 net.cpp:106] Creating Layer rpn_cls_prob
I0823 19:09:47.017719 13813 net.cpp:454] rpn_cls_prob <- rpn_cls_score_reshape_rpn_cls_score_reshape_0_split_1
I0823 19:09:47.017725 13813 net.cpp:411] rpn_cls_prob -> rpn_cls_prob
I0823 19:09:47.018065 13813 net.cpp:150] Setting up rpn_cls_prob
I0823 19:09:47.018077 13813 net.cpp:157] Top shape: 1 2 324 61 (39528)
I0823 19:09:47.018080 13813 net.cpp:165] Memory required for data: 283629452
I0823 19:09:47.018084 13813 layer_factory.hpp:77] Creating layer rpn_cls_prob_reshape
I0823 19:09:47.018100 13813 net.cpp:106] Creating Layer rpn_cls_prob_reshape
I0823 19:09:47.018105 13813 net.cpp:454] rpn_cls_prob_reshape <- rpn_cls_prob
I0823 19:09:47.018110 13813 net.cpp:411] rpn_cls_prob_reshape -> rpn_cls_prob_reshape
I0823 19:09:47.018157 13813 net.cpp:150] Setting up rpn_cls_prob_reshape
I0823 19:09:47.018165 13813 net.cpp:157] Top shape: 1 18 36 61 (39528)
I0823 19:09:47.018168 13813 net.cpp:165] Memory required for data: 283787564
I0823 19:09:47.018172 13813 layer_factory.hpp:77] Creating layer proposal
I0823 19:09:47.028800 13813 net.cpp:106] Creating Layer proposal
I0823 19:09:47.028816 13813 net.cpp:454] proposal <- rpn_cls_prob_reshape
I0823 19:09:47.028823 13813 net.cpp:454] proposal <- rpn_bbox_pred_rpn_bbox_pred_0_split_1
I0823 19:09:47.028827 13813 net.cpp:454] proposal <- im_info_input-data_1_split_1
I0823 19:09:47.028834 13813 net.cpp:411] proposal -> rpn_rois
I0823 19:09:47.035408 13813 net.cpp:150] Setting up proposal
I0823 19:09:47.035424 13813 net.cpp:157] Top shape: 1 5 (5)
I0823 19:09:47.035429 13813 net.cpp:165] Memory required for data: 283787584
I0823 19:09:47.035432 13813 layer_factory.hpp:77] Creating layer roi-data
I0823 19:09:47.037437 13813 net.cpp:106] Creating Layer roi-data
I0823 19:09:47.037452 13813 net.cpp:454] roi-data <- rpn_rois
I0823 19:09:47.037459 13813 net.cpp:454] roi-data <- gt_boxes_input-data_2_split_1
I0823 19:09:47.037467 13813 net.cpp:411] roi-data -> rois
I0823 19:09:47.037477 13813 net.cpp:411] roi-data -> labels
I0823 19:09:47.037484 13813 net.cpp:411] roi-data -> bbox_targets
I0823 19:09:47.037492 13813 net.cpp:411] roi-data -> bbox_inside_weights
I0823 19:09:47.037503 13813 net.cpp:411] roi-data -> bbox_outside_weights
I0823 19:09:47.037513 13813 net.cpp:411] roi-data -> key_targets
I0823 19:09:47.037521 13813 net.cpp:411] roi-data -> key_inside_weights
I0823 19:09:47.038085 13813 net.cpp:150] Setting up roi-data
I0823 19:09:47.038100 13813 net.cpp:157] Top shape: 1 5 (5)
I0823 19:09:47.038103 13813 net.cpp:157] Top shape: 1 1 (1)
I0823 19:09:47.038107 13813 net.cpp:157] Top shape: 1 84 (84)
I0823 19:09:47.038110 13813 net.cpp:157] Top shape: 1 84 (84)
I0823 19:09:47.038113 13813 net.cpp:157] Top shape: 1 84 (84)
I0823 19:09:47.038116 13813 net.cpp:157] Top shape: 1 84 (84)
I0823 19:09:47.038121 13813 net.cpp:157] Top shape: 1 84 (84)
I0823 19:09:47.038123 13813 net.cpp:165] Memory required for data: 283789288
I0823 19:09:47.038127 13813 layer_factory.hpp:77] Creating layer bbox_outside_weights_roi-data_4_split
I0823 19:09:47.038133 13813 net.cpp:106] Creating Layer bbox_outside_weights_roi-data_4_split
I0823 19:09:47.038137 13813 net.cpp:454] bbox_outside_weights_roi-data_4_split <- bbox_outside_weights
I0823 19:09:47.038144 13813 net.cpp:411] bbox_outside_weights_roi-data_4_split -> bbox_outside_weights_roi-data_4_split_0
I0823 19:09:47.038156 13813 net.cpp:411] bbox_outside_weights_roi-data_4_split -> bbox_outside_weights_roi-data_4_split_1
I0823 19:09:47.038218 13813 net.cpp:150] Setting up bbox_outside_weights_roi-data_4_split
I0823 19:09:47.038225 13813 net.cpp:157] Top shape: 1 84 (84)
I0823 19:09:47.038228 13813 net.cpp:157] Top shape: 1 84 (84)
I0823 19:09:47.038231 13813 net.cpp:165] Memory required for data: 283789960
I0823 19:09:47.038234 13813 layer_factory.hpp:77] Creating layer roi_pool5
I0823 19:09:47.038241 13813 net.cpp:106] Creating Layer roi_pool5
I0823 19:09:47.038247 13813 net.cpp:454] roi_pool5 <- conv5_relu5_0_split_1
I0823 19:09:47.038252 13813 net.cpp:454] roi_pool5 <- rois
I0823 19:09:47.038257 13813 net.cpp:411] roi_pool5 -> pool5
I0823 19:09:47.038266 13813 roi_pooling_layer.cpp:30] Spatial scale: 0.0625
I0823 19:09:47.038331 13813 net.cpp:150] Setting up roi_pool5
I0823 19:09:47.038339 13813 net.cpp:157] Top shape: 1 512 6 6 (18432)
I0823 19:09:47.038342 13813 net.cpp:165] Memory required for data: 283863688
I0823 19:09:47.038346 13813 layer_factory.hpp:77] Creating layer fc6
I0823 19:09:47.038353 13813 net.cpp:106] Creating Layer fc6
I0823 19:09:47.038357 13813 net.cpp:454] fc6 <- pool5
I0823 19:09:47.038363 13813 net.cpp:411] fc6 -> fc6
I0823 19:09:47.491596 13813 net.cpp:150] Setting up fc6
I0823 19:09:47.491641 13813 net.cpp:157] Top shape: 1 4096 (4096)
I0823 19:09:47.491643 13813 net.cpp:165] Memory required for data: 283880072
I0823 19:09:47.491662 13813 layer_factory.hpp:77] Creating layer relu6
I0823 19:09:47.491675 13813 net.cpp:106] Creating Layer relu6
I0823 19:09:47.491680 13813 net.cpp:454] relu6 <- fc6
I0823 19:09:47.491688 13813 net.cpp:397] relu6 -> fc6 (in-place)
I0823 19:09:47.492446 13813 net.cpp:150] Setting up relu6
I0823 19:09:47.492460 13813 net.cpp:157] Top shape: 1 4096 (4096)
I0823 19:09:47.492462 13813 net.cpp:165] Memory required for data: 283896456
I0823 19:09:47.492465 13813 layer_factory.hpp:77] Creating layer drop6
I0823 19:09:47.492473 13813 net.cpp:106] Creating Layer drop6
I0823 19:09:47.492476 13813 net.cpp:454] drop6 <- fc6
I0823 19:09:47.492485 13813 net.cpp:397] drop6 -> fc6 (in-place)
I0823 19:09:47.492532 13813 net.cpp:150] Setting up drop6
I0823 19:09:47.492539 13813 net.cpp:157] Top shape: 1 4096 (4096)
I0823 19:09:47.492542 13813 net.cpp:165] Memory required for data: 283912840
I0823 19:09:47.492544 13813 layer_factory.hpp:77] Creating layer fc7
I0823 19:09:47.492552 13813 net.cpp:106] Creating Layer fc7
I0823 19:09:47.492557 13813 net.cpp:454] fc7 <- fc6
I0823 19:09:47.492563 13813 net.cpp:411] fc7 -> fc7
I0823 19:09:47.515552 13813 net.cpp:150] Setting up fc7
I0823 19:09:47.515591 13813 net.cpp:157] Top shape: 1 1024 (1024)
I0823 19:09:47.515594 13813 net.cpp:165] Memory required for data: 283916936
I0823 19:09:47.515606 13813 layer_factory.hpp:77] Creating layer relu7
I0823 19:09:47.515619 13813 net.cpp:106] Creating Layer relu7
I0823 19:09:47.515624 13813 net.cpp:454] relu7 <- fc7
I0823 19:09:47.515631 13813 net.cpp:397] relu7 -> fc7 (in-place)
I0823 19:09:47.515889 13813 net.cpp:150] Setting up relu7
I0823 19:09:47.515900 13813 net.cpp:157] Top shape: 1 1024 (1024)
I0823 19:09:47.515903 13813 net.cpp:165] Memory required for data: 283921032
I0823 19:09:47.515907 13813 layer_factory.hpp:77] Creating layer drop7
I0823 19:09:47.515913 13813 net.cpp:106] Creating Layer drop7
I0823 19:09:47.515916 13813 net.cpp:454] drop7 <- fc7
I0823 19:09:47.515921 13813 net.cpp:397] drop7 -> fc7 (in-place)
I0823 19:09:47.515965 13813 net.cpp:150] Setting up drop7
I0823 19:09:47.515972 13813 net.cpp:157] Top shape: 1 1024 (1024)
I0823 19:09:47.515975 13813 net.cpp:165] Memory required for data: 283925128
I0823 19:09:47.515977 13813 layer_factory.hpp:77] Creating layer fc7_drop7_0_split
I0823 19:09:47.515985 13813 net.cpp:106] Creating Layer fc7_drop7_0_split
I0823 19:09:47.515988 13813 net.cpp:454] fc7_drop7_0_split <- fc7
I0823 19:09:47.515995 13813 net.cpp:411] fc7_drop7_0_split -> fc7_drop7_0_split_0
I0823 19:09:47.516002 13813 net.cpp:411] fc7_drop7_0_split -> fc7_drop7_0_split_1
I0823 19:09:47.516010 13813 net.cpp:411] fc7_drop7_0_split -> fc7_drop7_0_split_2
I0823 19:09:47.516098 13813 net.cpp:150] Setting up fc7_drop7_0_split
I0823 19:09:47.516104 13813 net.cpp:157] Top shape: 1 1024 (1024)
I0823 19:09:47.516108 13813 net.cpp:157] Top shape: 1 1024 (1024)
I0823 19:09:47.516111 13813 net.cpp:157] Top shape: 1 1024 (1024)
I0823 19:09:47.516113 13813 net.cpp:165] Memory required for data: 283937416
I0823 19:09:47.516116 13813 layer_factory.hpp:77] Creating layer cls_score
I0823 19:09:47.516124 13813 net.cpp:106] Creating Layer cls_score
I0823 19:09:47.516127 13813 net.cpp:454] cls_score <- fc7_drop7_0_split_0
I0823 19:09:47.516134 13813 net.cpp:411] cls_score -> cls_score
I0823 19:09:47.516578 13813 net.cpp:150] Setting up cls_score
I0823 19:09:47.516587 13813 net.cpp:157] Top shape: 1 21 (21)
I0823 19:09:47.516590 13813 net.cpp:165] Memory required for data: 283937500
I0823 19:09:47.516595 13813 layer_factory.hpp:77] Creating layer bbox_pred
I0823 19:09:47.516603 13813 net.cpp:106] Creating Layer bbox_pred
I0823 19:09:47.516607 13813 net.cpp:454] bbox_pred <- fc7_drop7_0_split_1
I0823 19:09:47.516616 13813 net.cpp:411] bbox_pred -> bbox_pred
I0823 19:09:47.519569 13813 net.cpp:150] Setting up bbox_pred
I0823 19:09:47.519589 13813 net.cpp:157] Top shape: 1 84 (84)
I0823 19:09:47.519593 13813 net.cpp:165] Memory required for data: 283937836
I0823 19:09:47.519599 13813 layer_factory.hpp:77] Creating layer key_pred
I0823 19:09:47.519608 13813 net.cpp:106] Creating Layer key_pred
I0823 19:09:47.519613 13813 net.cpp:454] key_pred <- fc7_drop7_0_split_2
I0823 19:09:47.519620 13813 net.cpp:411] key_pred -> key_pred
I0823 19:09:47.520714 13813 net.cpp:150] Setting up key_pred
I0823 19:09:47.520722 13813 net.cpp:157] Top shape: 1 84 (84)
I0823 19:09:47.520725 13813 net.cpp:165] Memory required for data: 283938172
I0823 19:09:47.520730 13813 layer_factory.hpp:77] Creating layer loss_cls
I0823 19:09:47.520738 13813 net.cpp:106] Creating Layer loss_cls
I0823 19:09:47.520741 13813 net.cpp:454] loss_cls <- cls_score
I0823 19:09:47.520745 13813 net.cpp:454] loss_cls <- labels
I0823 19:09:47.520751 13813 net.cpp:411] loss_cls -> loss_cls
…
           'RPN_POST_NMS_TOP_N': 2000,
           'RPN_PRE_NMS_TOP_N': 12000,
           'SCALES': [600],
           'SNAPSHOT_INFIX': '',
           'SNAPSHOT_ITERS': 10000,
           'USE_FLIPPED': True,
           'USE_PREFETCH': False},
 'USE_GPU_NMS': True}
WARNING: Logging before InitGoogleLogging() is written to STDERR
I0823 22:01:12.055758 17647 net.cpp:49] Initializing net from parameters: 
name: "VGG_CNN_M_1024"
input: "data"
input: "im_info"
state {
  phase: TEST
}
input_shape {
  dim: 1
  dim: 3
  dim: 224
  dim: 224
}
input_shape {
  dim: 1
  dim: 3
}
layer {
  name: "conv1"
  type: "Convolution"
  bottom: "data"
  top: "conv1"
  param {
    lr_mult: 0
    decay_mult: 0
  }
  param {
    lr_mult: 0
    decay_mult: 0
  }
  convolution_param {
    num_output: 96
    kernel_size: 7
    stride: 2
  }
}
layer {
  name: "relu1"
  type: "ReLU"
  bottom: "conv1"
  top: "conv1"
}
layer {
  name: "norm1"
  type: "LRN"
  bottom: "conv1"
  top: "norm1"
  lrn_param {
    local_size: 5
    alpha: 0.0005
    beta: 0.75
    k: 2
  }
}
layer {
  name: "pool1"
  type: "Pooling"
  bottom: "norm1"
  top: "pool1"
  pooling_param {
    pool: MAX
    kernel_size: 3
    stride: 2
  }
}
layer {
  name: "conv2"
  type: "Convolution"
  bottom: "pool1"
  top: "conv2"
  param {
    lr_mult: 1
    decay_mult: 1
  }
  param {
    lr_mult: 2
    decay_mult: 0
  }
  convolution_param {
    num_output: 256
    pad: 1
    kernel_size: 5
    stride: 2
  }
}
layer {
  name: "relu2"
  type: "ReLU"
  bottom: "conv2"
  top: "conv2"
}
layer {
  name: "norm2"
  type: "LRN"
  bottom: "conv2"
  top: "norm2"
  lrn_param {
    local_size: 5
    alpha: 0.0005
    beta: 0.75
    k: 2
  }
}
layer {
  name: "pool2"
  type: "Pooling"
  bottom: "norm2"
  top: "pool2"
  pooling_param {
    pool: MAX
    kernel_size: 3
    stride: 2
  }
}
layer {
  name: "conv3"
  type: "Convolution"
  bottom: "pool2"
  top: "conv3"
  param {
    lr_mult: 1
    decay_mult: 1
  }
  param {
    lr_mult: 2
    decay_mult: 0
  }
  convolution_param {
    num_output: 512
    pad: 1
    kernel_size: 3
  }
}
layer {
  name: "relu3"
  type: "ReLU"
  bottom: "conv3"
  top: "conv3"
}
layer {
  name: "conv4"
  type: "Convolution"
  bottom: "conv3"
  top: "conv4"
  param {
    lr_mult: 1
    decay_mult: 1
  }
  param {
    lr_mult: 2
    decay_mult: 0
  }
  convolution_param {
    num_output: 512
    pad: 1
    kernel_size: 3
  }
}
layer {
  name: "relu4"
  type: "ReLU"
  bottom: "conv4"
  top: "conv4"
}
layer {
  name: "conv5"
  type: "Convolution"
  bottom: "conv4"
  top: "conv5"
  param {
    lr_mult: 1
    decay_mult: 1
  }
  param {
    lr_mult: 2
    decay_mult: 0
  }
  convolution_param {
    num_output: 512
    pad: 1
    kernel_size: 3
  }
}
layer {
  name: "relu5"
  type: "ReLU"
  bottom: "conv5"
  top: "conv5"
}
layer {
  name: "rpn_conv/3x3"
  type: "Convolution"
  bottom: "conv5"
  top: "rpn/output"
  param {
    lr_mult: 1
    decay_mult: 1
  }
  param {
    lr_mult: 2
    decay_mult: 0
  }
  convolution_param {
    num_output: 256
    pad: 1
    kernel_size: 3
    stride: 1
    weight_filler {
      type: "gaussian"
      std: 0.01
    }
    bias_filler {
      type: "constant"
      value: 0
    }
  }
}
layer {
  name: "rpn_relu/3x3"
  type: "ReLU"
  bottom: "rpn/output"
  top: "rpn/output"
}
layer {
  name: "rpn_cls_score"
  type: "Convolution"
  bottom: "rpn/output"
  top: "rpn_cls_score"
  param {
    lr_mult: 1
    decay_mult: 1
  }
  param {
    lr_mult: 2
    decay_mult: 0
  }
  convolution_param {
    num_output: 18
    pad: 0
    kernel_size: 1
    stride: 1
    weight_filler {
      type: "gaussian"
      std: 0.01
    }
    bias_filler {
      type: "constant"
      value: 0
    }
  }
}
layer {
  name: "rpn_bbox_pred"
  type: "Convolution"
  bottom: "rpn/output"
  top: "rpn_bbox_pred"
  param {
    lr_mult: 1
    decay_mult: 1
  }
  param {
    lr_mult: 2
    decay_mult: 0
  }
  convolution_param {
    num_output: 36
    pad: 0
    kernel_size: 1
    stride: 1
    weight_filler {
      type: "gaussian"
      std: 0.01
    }
    bias_filler {
      type: "constant"
      value: 0
    }
  }
}
layer {
  name: "rpn_cls_score_reshape"
  type: "Reshape"
  bottom: "rpn_cls_score"
  top: "rpn_cls_score_reshape"
  reshape_param {
    shape {
      dim: 0
      dim: 2
      dim: -1
      dim: 0
    }
  }
}
layer {
  name: "rpn_cls_prob"
  type: "Softmax"
  bottom: "rpn_cls_score_reshape"
  top: "rpn_cls_prob"
}
layer {
  name: "rpn_cls_prob_reshape"
  type: "Reshape"
  bottom: "rpn_cls_prob"
  top: "rpn_cls_prob_reshape"
  reshape_param {
    shape {
      dim: 0
      dim: 18
      dim: -1
      dim: 0
    }
  }
}
layer {
  name: "proposal"
  type: "Python"
  bottom: "rpn_cls_prob_reshape"
  bottom: "rpn_bbox_pred"
  bottom: "im_info"
  top: "rois"
  python_param {
    module: "rpn.proposal_layer"
    layer: "ProposalLayer"
    param_str: "\'feat_stride\': 16"
  }
}
layer {
  name: "roi_pool5"
  type: "ROIPooling"
  bottom: "conv5"
  bottom: "rois"
  top: "pool5"
  roi_pooling_param {
    pooled_h: 6
    pooled_w: 6
    spatial_scale: 0.0625
  }
}
layer {
  name: "fc6"
  type: "InnerProduct"
  bottom: "pool5"
  top: "fc6"
  param {
    lr_mult: 1
    decay_mult: 1
  }
  param {
    lr_mult: 2
    decay_mult: 0
  }
  inner_product_param {
    num_output: 4096
  }
}
layer {
  name: "relu6"
  type: "ReLU"
  bottom: "fc6"
  top: "fc6"
}
layer {
  name: "drop6"
  type: "Dropout"
  bottom: "fc6"
  top: "fc6"
  dropout_param {
    dropout_ratio: 0.5
  }
}
layer {
  name: "fc7"
  type: "InnerProduct"
  bottom: "fc6"
  top: "fc7"
  param {
    lr_mult: 1
    decay_mult: 1
  }
  param {
    lr_mult: 2
    decay_mult: 0
  }
  inner_product_param {
    num_output: 1024
  }
}
layer {
  name: "relu7"
  type: "ReLU"
  bottom: "fc7"
  top: "fc7"
}
layer {
  name: "drop7"
  type: "Dropout"
  bottom: "fc7"
  top: "fc7"
  dropout_param {
    dropout_ratio: 0.5
  }
}
layer {
  name: "cls_score"
  type: "InnerProduct"
  bottom: "fc7"
  top: "cls_score"
  param {
    lr_mult: 1
    decay_mult: 1
  }
  param {
    lr_mult: 2
    decay_mult: 0
  }
  inner_product_param {
    num_output: 21
    weight_filler {
      type: "gaussian"
      std: 0.01
    }
    bias_filler {
      type: "constant"
      value: 0
    }
  }
}
layer {
  name: "bbox_pred"
  type: "InnerProduct"
  bottom: "fc7"
  top: "bbox_pred"
  param {
    lr_mult: 1
    decay_mult: 1
  }
  param {
    lr_mult: 2
    decay_mult: 0
  }
  inner_product_param {
    num_output: 84
    weight_filler {
      type: "gaussian"
      std: 0.001
    }
    bias_filler {
      type: "constant"
      value: 0
    }
  }
}
layer {
  name: "key_pred"
  type: "InnerProduct"
  bottom: "fc7"
  top: "key_pred"
  param {
    lr_mult: 1
  }
  param {
    lr_mult: 2
  }
  inner_product_param {
    num_output: 84
    weight_filler {
      type: "gaussian"
      std: 0.001
    }
    bias_filler {
      type: "constant"
      value: 0
    }
  }
}
layer {
  name: "cls_prob"
  type: "Softmax"
  bottom: "cls_score"
  top: "cls_prob"
}
I0823 22:01:12.055938 17647 net.cpp:413] Input 0 -> data
I0823 22:01:12.073997 17647 net.cpp:413] Input 1 -> im_info
I0823 22:01:12.074054 17647 layer_factory.hpp:77] Creating layer conv1
I0823 22:01:12.074072 17647 net.cpp:106] Creating Layer conv1
I0823 22:01:12.074077 17647 net.cpp:454] conv1 <- data
I0823 22:01:12.074085 17647 net.cpp:411] conv1 -> conv1
I0823 22:01:12.356073 17647 net.cpp:150] Setting up conv1
I0823 22:01:12.356124 17647 net.cpp:157] Top shape: 1 96 109 109 (1140576)
I0823 22:01:12.356132 17647 net.cpp:165] Memory required for data: 4562304
I0823 22:01:12.356155 17647 layer_factory.hpp:77] Creating layer relu1
I0823 22:01:12.356171 17647 net.cpp:106] Creating Layer relu1
I0823 22:01:12.356178 17647 net.cpp:454] relu1 <- conv1
I0823 22:01:12.356187 17647 net.cpp:397] relu1 -> conv1 (in-place)
I0823 22:01:12.356781 17647 net.cpp:150] Setting up relu1
I0823 22:01:12.356799 17647 net.cpp:157] Top shape: 1 96 109 109 (1140576)
I0823 22:01:12.356804 17647 net.cpp:165] Memory required for data: 9124608
I0823 22:01:12.356809 17647 layer_factory.hpp:77] Creating layer norm1
I0823 22:01:12.356822 17647 net.cpp:106] Creating Layer norm1
I0823 22:01:12.356827 17647 net.cpp:454] norm1 <- conv1
I0823 22:01:12.356835 17647 net.cpp:411] norm1 -> norm1
I0823 22:01:12.357146 17647 net.cpp:150] Setting up norm1
I0823 22:01:12.357161 17647 net.cpp:157] Top shape: 1 96 109 109 (1140576)
I0823 22:01:12.357164 17647 net.cpp:165] Memory required for data: 13686912
I0823 22:01:12.357169 17647 layer_factory.hpp:77] Creating layer pool1
I0823 22:01:12.357178 17647 net.cpp:106] Creating Layer pool1
I0823 22:01:12.357183 17647 net.cpp:454] pool1 <- norm1
I0823 22:01:12.357192 17647 net.cpp:411] pool1 -> pool1
I0823 22:01:12.357269 17647 net.cpp:150] Setting up pool1
I0823 22:01:12.357280 17647 net.cpp:157] Top shape: 1 96 54 54 (279936)
I0823 22:01:12.357283 17647 net.cpp:165] Memory required for data: 14806656
I0823 22:01:12.357288 17647 layer_factory.hpp:77] Creating layer conv2
I0823 22:01:12.357302 17647 net.cpp:106] Creating Layer conv2
I0823 22:01:12.357308 17647 net.cpp:454] conv2 <- pool1
I0823 22:01:12.357316 17647 net.cpp:411] conv2 -> conv2
I0823 22:01:12.365591 17647 net.cpp:150] Setting up conv2
I0823 22:01:12.365622 17647 net.cpp:157] Top shape: 1 256 26 26 (173056)
I0823 22:01:12.365627 17647 net.cpp:165] Memory required for data: 15498880
I0823 22:01:12.365643 17647 layer_factory.hpp:77] Creating layer relu2
I0823 22:01:12.365653 17647 net.cpp:106] Creating Layer relu2
I0823 22:01:12.365659 17647 net.cpp:454] relu2 <- conv2
I0823 22:01:12.365667 17647 net.cpp:397] relu2 -> conv2 (in-place)
I0823 22:01:12.366737 17647 net.cpp:150] Setting up relu2
I0823 22:01:12.366789 17647 net.cpp:157] Top shape: 1 256 26 26 (173056)
I0823 22:01:12.366797 17647 net.cpp:165] Memory required for data: 16191104
I0823 22:01:12.366807 17647 layer_factory.hpp:77] Creating layer norm2
I0823 22:01:12.366833 17647 net.cpp:106] Creating Layer norm2
I0823 22:01:12.366847 17647 net.cpp:454] norm2 <- conv2
I0823 22:01:12.366863 17647 net.cpp:411] norm2 -> norm2
I0823 22:01:12.367344 17647 net.cpp:150] Setting up norm2
I0823 22:01:12.367365 17647 net.cpp:157] Top shape: 1 256 26 26 (173056)
I0823 22:01:12.367372 17647 net.cpp:165] Memory required for data: 16883328
I0823 22:01:12.367379 17647 layer_factory.hpp:77] Creating layer pool2
I0823 22:01:12.367393 17647 net.cpp:106] Creating Layer pool2
I0823 22:01:12.367401 17647 net.cpp:454] pool2 <- norm2
I0823 22:01:12.367413 17647 net.cpp:411] pool2 -> pool2
I0823 22:01:12.367508 17647 net.cpp:150] Setting up pool2
I0823 22:01:12.367522 17647 net.cpp:157] Top shape: 1 256 13 13 (43264)
I0823 22:01:12.367528 17647 net.cpp:165] Memory required for data: 17056384
I0823 22:01:12.367535 17647 layer_factory.hpp:77] Creating layer conv3
I0823 22:01:12.367558 17647 net.cpp:106] Creating Layer conv3
I0823 22:01:12.367565 17647 net.cpp:454] conv3 <- pool2
I0823 22:01:12.367579 17647 net.cpp:411] conv3 -> conv3
I0823 22:01:12.379725 17647 net.cpp:150] Setting up conv3
I0823 22:01:12.379784 17647 net.cpp:157] Top shape: 1 512 13 13 (86528)
I0823 22:01:12.379791 17647 net.cpp:165] Memory required for data: 17402496
I0823 22:01:12.379820 17647 layer_factory.hpp:77] Creating layer relu3
I0823 22:01:12.379840 17647 net.cpp:106] Creating Layer relu3
I0823 22:01:12.379851 17647 net.cpp:454] relu3 <- conv3
I0823 22:01:12.379866 17647 net.cpp:397] relu3 -> conv3 (in-place)
I0823 22:01:12.380172 17647 net.cpp:150] Setting up relu3
I0823 22:01:12.380188 17647 net.cpp:157] Top shape: 1 512 13 13 (86528)
I0823 22:01:12.380195 17647 net.cpp:165] Memory required for data: 17748608
I0823 22:01:12.380203 17647 layer_factory.hpp:77] Creating layer conv4
I0823 22:01:12.380221 17647 net.cpp:106] Creating Layer conv4
I0823 22:01:12.380228 17647 net.cpp:454] conv4 <- conv3
I0823 22:01:12.380240 17647 net.cpp:411] conv4 -> conv4
I0823 22:01:12.400918 17647 net.cpp:150] Setting up conv4
I0823 22:01:12.400979 17647 net.cpp:157] Top shape: 1 512 13 13 (86528)
I0823 22:01:12.400986 17647 net.cpp:165] Memory required for data: 18094720
I0823 22:01:12.401015 17647 layer_factory.hpp:77] Creating layer relu4
I0823 22:01:12.401036 17647 net.cpp:106] Creating Layer relu4
I0823 22:01:12.401047 17647 net.cpp:454] relu4 <- conv4
I0823 22:01:12.401063 17647 net.cpp:397] relu4 -> conv4 (in-place)
I0823 22:01:12.401823 17647 net.cpp:150] Setting up relu4
I0823 22:01:12.401854 17647 net.cpp:157] Top shape: 1 512 13 13 (86528)
I0823 22:01:12.401861 17647 net.cpp:165] Memory required for data: 18440832
I0823 22:01:12.401871 17647 layer_factory.hpp:77] Creating layer conv5
I0823 22:01:12.401893 17647 net.cpp:106] Creating Layer conv5
I0823 22:01:12.401901 17647 net.cpp:454] conv5 <- conv4
I0823 22:01:12.401921 17647 net.cpp:411] conv5 -> conv5
I0823 22:01:12.422325 17647 net.cpp:150] Setting up conv5
I0823 22:01:12.422386 17647 net.cpp:157] Top shape: 1 512 13 13 (86528)
I0823 22:01:12.422394 17647 net.cpp:165] Memory required for data: 18786944
I0823 22:01:12.422435 17647 layer_factory.hpp:77] Creating layer relu5
I0823 22:01:12.422461 17647 net.cpp:106] Creating Layer relu5
I0823 22:01:12.422473 17647 net.cpp:454] relu5 <- conv5
I0823 22:01:12.422490 17647 net.cpp:397] relu5 -> conv5 (in-place)
I0823 22:01:12.422824 17647 net.cpp:150] Setting up relu5
I0823 22:01:12.422843 17647 net.cpp:157] Top shape: 1 512 13 13 (86528)
I0823 22:01:12.422854 17647 net.cpp:165] Memory required for data: 19133056
I0823 22:01:12.422861 17647 layer_factory.hpp:77] Creating layer conv5_relu5_0_split
I0823 22:01:12.422875 17647 net.cpp:106] Creating Layer conv5_relu5_0_split
I0823 22:01:12.422883 17647 net.cpp:454] conv5_relu5_0_split <- conv5
I0823 22:01:12.422896 17647 net.cpp:411] conv5_relu5_0_split -> conv5_relu5_0_split_0
I0823 22:01:12.422927 17647 net.cpp:411] conv5_relu5_0_split -> conv5_relu5_0_split_1
I0823 22:01:12.423046 17647 net.cpp:150] Setting up conv5_relu5_0_split
I0823 22:01:12.423061 17647 net.cpp:157] Top shape: 1 512 13 13 (86528)
I0823 22:01:12.423071 17647 net.cpp:157] Top shape: 1 512 13 13 (86528)
I0823 22:01:12.423079 17647 net.cpp:165] Memory required for data: 19825280
I0823 22:01:12.423086 17647 layer_factory.hpp:77] Creating layer rpn_conv/3x3
I0823 22:01:12.423111 17647 net.cpp:106] Creating Layer rpn_conv/3x3
I0823 22:01:12.423121 17647 net.cpp:454] rpn_conv/3x3 <- conv5_relu5_0_split_0
I0823 22:01:12.423136 17647 net.cpp:411] rpn_conv/3x3 -> rpn/output
I0823 22:01:12.461056 17647 net.cpp:150] Setting up rpn_conv/3x3
I0823 22:01:12.461110 17647 net.cpp:157] Top shape: 1 256 13 13 (43264)
I0823 22:01:12.461117 17647 net.cpp:165] Memory required for data: 19998336
I0823 22:01:12.461136 17647 layer_factory.hpp:77] Creating layer rpn_relu/3x3
I0823 22:01:12.461165 17647 net.cpp:106] Creating Layer rpn_relu/3x3
I0823 22:01:12.461175 17647 net.cpp:454] rpn_relu/3x3 <- rpn/output
I0823 22:01:12.461189 17647 net.cpp:397] rpn_relu/3x3 -> rpn/output (in-place)
I0823 22:01:12.461968 17647 net.cpp:150] Setting up rpn_relu/3x3
I0823 22:01:12.461990 17647 net.cpp:157] Top shape: 1 256 13 13 (43264)
I0823 22:01:12.461997 17647 net.cpp:165] Memory required for data: 20171392
I0823 22:01:12.462003 17647 layer_factory.hpp:77] Creating layer rpn/output_rpn_relu/3x3_0_split
I0823 22:01:12.462018 17647 net.cpp:106] Creating Layer rpn/output_rpn_relu/3x3_0_split
I0823 22:01:12.462025 17647 net.cpp:454] rpn/output_rpn_relu/3x3_0_split <- rpn/output
I0823 22:01:12.462038 17647 net.cpp:411] rpn/output_rpn_relu/3x3_0_split -> rpn/output_rpn_relu/3x3_0_split_0
I0823 22:01:12.462054 17647 net.cpp:411] rpn/output_rpn_relu/3x3_0_split -> rpn/output_rpn_relu/3x3_0_split_1
I0823 22:01:12.462182 17647 net.cpp:150] Setting up rpn/output_rpn_relu/3x3_0_split
I0823 22:01:12.462196 17647 net.cpp:157] Top shape: 1 256 13 13 (43264)
I0823 22:01:12.462203 17647 net.cpp:157] Top shape: 1 256 13 13 (43264)
I0823 22:01:12.462211 17647 net.cpp:165] Memory required for data: 20517504
I0823 22:01:12.462218 17647 layer_factory.hpp:77] Creating layer rpn_cls_score
I0823 22:01:12.462239 17647 net.cpp:106] Creating Layer rpn_cls_score
I0823 22:01:12.462249 17647 net.cpp:454] rpn_cls_score <- rpn/output_rpn_relu/3x3_0_split_0
I0823 22:01:12.462261 17647 net.cpp:411] rpn_cls_score -> rpn_cls_score
I0823 22:01:12.465730 17647 net.cpp:150] Setting up rpn_cls_score
I0823 22:01:12.465780 17647 net.cpp:157] Top shape: 1 18 13 13 (3042)
I0823 22:01:12.465790 17647 net.cpp:165] Memory required for data: 20529672
I0823 22:01:12.465808 17647 layer_factory.hpp:77] Creating layer rpn_bbox_pred
I0823 22:01:12.465842 17647 net.cpp:106] Creating Layer rpn_bbox_pred
I0823 22:01:12.465852 17647 net.cpp:454] rpn_bbox_pred <- rpn/output_rpn_relu/3x3_0_split_1
I0823 22:01:12.465869 17647 net.cpp:411] rpn_bbox_pred -> rpn_bbox_pred
I0823 22:01:12.468706 17647 net.cpp:150] Setting up rpn_bbox_pred
I0823 22:01:12.468752 17647 net.cpp:157] Top shape: 1 36 13 13 (6084)
I0823 22:01:12.468760 17647 net.cpp:165] Memory required for data: 20554008
I0823 22:01:12.468775 17647 layer_factory.hpp:77] Creating layer rpn_cls_score_reshape
I0823 22:01:12.468798 17647 net.cpp:106] Creating Layer rpn_cls_score_reshape
I0823 22:01:12.468808 17647 net.cpp:454] rpn_cls_score_reshape <- rpn_cls_score
I0823 22:01:12.468823 17647 net.cpp:411] rpn_cls_score_reshape -> rpn_cls_score_reshape
I0823 22:01:12.468904 17647 net.cpp:150] Setting up rpn_cls_score_reshape
I0823 22:01:12.468916 17647 net.cpp:157] Top shape: 1 2 117 13 (3042)
I0823 22:01:12.468921 17647 net.cpp:165] Memory required for data: 20566176
I0823 22:01:12.468927 17647 layer_factory.hpp:77] Creating layer rpn_cls_prob
I0823 22:01:12.468940 17647 net.cpp:106] Creating Layer rpn_cls_prob
I0823 22:01:12.468947 17647 net.cpp:454] rpn_cls_prob <- rpn_cls_score_reshape
I0823 22:01:12.468958 17647 net.cpp:411] rpn_cls_prob -> rpn_cls_prob
I0823 22:01:12.469867 17647 net.cpp:150] Setting up rpn_cls_prob
I0823 22:01:12.469898 17647 net.cpp:157] Top shape: 1 2 117 13 (3042)
I0823 22:01:12.469907 17647 net.cpp:165] Memory required for data: 20578344
I0823 22:01:12.469913 17647 layer_factory.hpp:77] Creating layer rpn_cls_prob_reshape
I0823 22:01:12.469930 17647 net.cpp:106] Creating Layer rpn_cls_prob_reshape
I0823 22:01:12.469940 17647 net.cpp:454] rpn_cls_prob_reshape <- rpn_cls_prob
I0823 22:01:12.469954 17647 net.cpp:411] rpn_cls_prob_reshape -> rpn_cls_prob_reshape
I0823 22:01:12.470023 17647 net.cpp:150] Setting up rpn_cls_prob_reshape
I0823 22:01:12.470036 17647 net.cpp:157] Top shape: 1 18 13 13 (3042)
I0823 22:01:12.470041 17647 net.cpp:165] Memory required for data: 20590512
I0823 22:01:12.470046 17647 layer_factory.hpp:77] Creating layer proposal
I0823 22:01:12.470818 17647 net.cpp:106] Creating Layer proposal
I0823 22:01:12.470841 17647 net.cpp:454] proposal <- rpn_cls_prob_reshape
I0823 22:01:12.470852 17647 net.cpp:454] proposal <- rpn_bbox_pred
I0823 22:01:12.470862 17647 net.cpp:454] proposal <- im_info
I0823 22:01:12.470875 17647 net.cpp:411] proposal -> rois
I0823 22:01:12.472352 17647 net.cpp:150] Setting up proposal
I0823 22:01:12.472393 17647 net.cpp:157] Top shape: 1 5 (5)
I0823 22:01:12.472398 17647 net.cpp:165] Memory required for data: 20590532
I0823 22:01:12.472406 17647 layer_factory.hpp:77] Creating layer roi_pool5
I0823 22:01:12.472424 17647 net.cpp:106] Creating Layer roi_pool5
I0823 22:01:12.472435 17647 net.cpp:454] roi_pool5 <- conv5_relu5_0_split_1
I0823 22:01:12.472446 17647 net.cpp:454] roi_pool5 <- rois
I0823 22:01:12.472458 17647 net.cpp:411] roi_pool5 -> pool5
I0823 22:01:12.472473 17647 roi_pooling_layer.cpp:30] Spatial scale: 0.0625
I0823 22:01:12.472615 17647 net.cpp:150] Setting up roi_pool5
I0823 22:01:12.472626 17647 net.cpp:157] Top shape: 1 512 6 6 (18432)
I0823 22:01:12.472631 17647 net.cpp:165] Memory required for data: 20664260
I0823 22:01:12.472637 17647 layer_factory.hpp:77] Creating layer fc6
I0823 22:01:12.472651 17647 net.cpp:106] Creating Layer fc6
I0823 22:01:12.472658 17647 net.cpp:454] fc6 <- pool5
I0823 22:01:12.472671 17647 net.cpp:411] fc6 -> fc6
I0823 22:01:12.937432 17647 net.cpp:150] Setting up fc6
I0823 22:01:12.937484 17647 net.cpp:157] Top shape: 1 4096 (4096)
I0823 22:01:12.937487 17647 net.cpp:165] Memory required for data: 20680644
I0823 22:01:12.937507 17647 layer_factory.hpp:77] Creating layer relu6
I0823 22:01:12.937520 17647 net.cpp:106] Creating Layer relu6
I0823 22:01:12.937525 17647 net.cpp:454] relu6 <- fc6
I0823 22:01:12.937531 17647 net.cpp:397] relu6 -> fc6 (in-place)
I0823 22:01:12.937892 17647 net.cpp:150] Setting up relu6
I0823 22:01:12.937918 17647 net.cpp:157] Top shape: 1 4096 (4096)
I0823 22:01:12.937934 17647 net.cpp:165] Memory required for data: 20697028
I0823 22:01:12.937940 17647 layer_factory.hpp:77] Creating layer drop6
I0823 22:01:12.937952 17647 net.cpp:106] Creating Layer drop6
I0823 22:01:12.937958 17647 net.cpp:454] drop6 <- fc6
I0823 22:01:12.937970 17647 net.cpp:397] drop6 -> fc6 (in-place)
I0823 22:01:12.938037 17647 net.cpp:150] Setting up drop6
I0823 22:01:12.938048 17647 net.cpp:157] Top shape: 1 4096 (4096)
I0823 22:01:12.938055 17647 net.cpp:165] Memory required for data: 20713412
I0823 22:01:12.938060 17647 layer_factory.hpp:77] Creating layer fc7
I0823 22:01:12.938071 17647 net.cpp:106] Creating Layer fc7
I0823 22:01:12.938078 17647 net.cpp:454] fc7 <- fc6
I0823 22:01:12.938087 17647 net.cpp:411] fc7 -> fc7
I0823 22:01:12.959607 17647 net.cpp:150] Setting up fc7
I0823 22:01:12.959646 17647 net.cpp:157] Top shape: 1 1024 (1024)
I0823 22:01:12.959650 17647 net.cpp:165] Memory required for data: 20717508
I0823 22:01:12.959659 17647 layer_factory.hpp:77] Creating layer relu7
I0823 22:01:12.959668 17647 net.cpp:106] Creating Layer relu7
I0823 22:01:12.959672 17647 net.cpp:454] relu7 <- fc7
I0823 22:01:12.959679 17647 net.cpp:397] relu7 -> fc7 (in-place)
I0823 22:01:12.960360 17647 net.cpp:150] Setting up relu7
I0823 22:01:12.960374 17647 net.cpp:157] Top shape: 1 1024 (1024)
I0823 22:01:12.960377 17647 net.cpp:165] Memory required for data: 20721604
I0823 22:01:12.960381 17647 layer_factory.hpp:77] Creating layer drop7
I0823 22:01:12.960389 17647 net.cpp:106] Creating Layer drop7
I0823 22:01:12.960393 17647 net.cpp:454] drop7 <- fc7
I0823 22:01:12.960399 17647 net.cpp:397] drop7 -> fc7 (in-place)
I0823 22:01:12.960464 17647 net.cpp:150] Setting up drop7
I0823 22:01:12.960477 17647 net.cpp:157] Top shape: 1 1024 (1024)
I0823 22:01:12.960484 17647 net.cpp:165] Memory required for data: 20725700
I0823 22:01:12.960489 17647 layer_factory.hpp:77] Creating layer fc7_drop7_0_split
I0823 22:01:12.960503 17647 net.cpp:106] Creating Layer fc7_drop7_0_split
I0823 22:01:12.960510 17647 net.cpp:454] fc7_drop7_0_split <- fc7
I0823 22:01:12.960520 17647 net.cpp:411] fc7_drop7_0_split -> fc7_drop7_0_split_0
I0823 22:01:12.960533 17647 net.cpp:411] fc7_drop7_0_split -> fc7_drop7_0_split_1
I0823 22:01:12.960546 17647 net.cpp:411] fc7_drop7_0_split -> fc7_drop7_0_split_2
I0823 22:01:12.960681 17647 net.cpp:150] Setting up fc7_drop7_0_split
I0823 22:01:12.960693 17647 net.cpp:157] Top shape: 1 1024 (1024)
I0823 22:01:12.960702 17647 net.cpp:157] Top shape: 1 1024 (1024)
I0823 22:01:12.960711 17647 net.cpp:157] Top shape: 1 1024 (1024)
I0823 22:01:12.960714 17647 net.cpp:165] Memory required for data: 20737988
I0823 22:01:12.960719 17647 layer_factory.hpp:77] Creating layer cls_score
I0823 22:01:12.960741 17647 net.cpp:106] Creating Layer cls_score
I0823 22:01:12.960748 17647 net.cpp:454] cls_score <- fc7_drop7_0_split_0
I0823 22:01:12.960758 17647 net.cpp:411] cls_score -> cls_score
I0823 22:01:12.963119 17647 net.cpp:150] Setting up cls_score
I0823 22:01:12.963135 17647 net.cpp:157] Top shape: 1 21 (21)
I0823 22:01:12.963140 17647 net.cpp:165] Memory required for data: 20738072
I0823 22:01:12.963151 17647 layer_factory.hpp:77] Creating layer bbox_pred
I0823 22:01:12.963167 17647 net.cpp:106] Creating Layer bbox_pred
I0823 22:01:12.963176 17647 net.cpp:454] bbox_pred <- fc7_drop7_0_split_1
I0823 22:01:12.963191 17647 net.cpp:411] bbox_pred -> bbox_pred
I0823 22:01:12.966269 17647 net.cpp:150] Setting up bbox_pred
I0823 22:01:12.966285 17647 net.cpp:157] Top shape: 1 84 (84)
I0823 22:01:12.966289 17647 net.cpp:165] Memory required for data: 20738408
I0823 22:01:12.966300 17647 layer_factory.hpp:77] Creating layer key_pred
I0823 22:01:12.966315 17647 net.cpp:106] Creating Layer key_pred
I0823 22:01:12.966322 17647 net.cpp:454] key_pred <- fc7_drop7_0_split_2
I0823 22:01:12.966336 17647 net.cpp:411] key_pred -> key_pred
I0823 22:01:12.967605 17647 net.cpp:150] Setting up key_pred
I0823 22:01:12.967618 17647 net.cpp:157] Top shape: 1 84 (84)
I0823 22:01:12.967624 17647 net.cpp:165] Memory required for data: 20738744
I0823 22:01:12.967634 17647 layer_factory.hpp:77] Creating layer cls_prob
I0823 22:01:12.967648 17647 net.cpp:106] Creating Layer cls_prob
I0823 22:01:12.967656 17647 net.cpp:454] cls_prob <- cls_score
I0823 22:01:12.967669 17647 net.cpp:411] cls_prob -> cls_prob
I0823 22:01:12.968127 17647 net.cpp:150] Setting up cls_prob
I0823 22:01:12.968140 17647 net.cpp:157] Top shape: 1 21 (21)
I0823 22:01:12.968147 17647 net.cpp:165] Memory required for data: 20738828
I0823 22:01:12.968152 17647 net.cpp:228] cls_prob does not need backward computation.
I0823 22:01:12.968160 17647 net.cpp:228] key_pred does not need backward computation.
I0823 22:01:12.968165 17647 net.cpp:228] bbox_pred does not need backward computation.
I0823 22:01:12.968171 17647 net.cpp:228] cls_score does not need backward computation.
…
