…
stepsize: 50000
snapshot: 0
snapshot_prefix: "key"
average_loss: 100
iter_size: 2
I0823 13:50:54.736091 23070 solver.cpp:81] Creating training net from train_net file: models/pascal_voc/VGG16/key/train.prototxt
I0823 13:50:54.736856 23070 net.cpp:49] Initializing net from parameters: 
name: "VGG_ILSVRC_16_layers"
state {
  phase: TRAIN
}
layer {
  name: "input-data"
  type: "Python"
  top: "data"
  top: "im_info"
  top: "gt_boxes"
  python_param {
    module: "roi_data_layer.layer"
    layer: "RoIDataLayer"
    param_str: "\'num_classes\': 21"
  }
}
layer {
  name: "conv1_1"
  type: "Convolution"
  bottom: "data"
  top: "conv1_1"
  param {
    lr_mult: 0
    decay_mult: 0
  }
  param {
    lr_mult: 0
    decay_mult: 0
  }
  convolution_param {
    num_output: 64
    pad: 1
    kernel_size: 3
  }
}
layer {
  name: "relu1_1"
  type: "ReLU"
  bottom: "conv1_1"
  top: "conv1_1"
}
layer {
  name: "conv1_2"
  type: "Convolution"
  bottom: "conv1_1"
  top: "conv1_2"
  param {
    lr_mult: 0
    decay_mult: 0
  }
  param {
    lr_mult: 0
    decay_mult: 0
  }
  convolution_param {
    num_output: 64
    pad: 1
    kernel_size: 3
  }
}
layer {
  name: "relu1_2"
  type: "ReLU"
  bottom: "conv1_2"
  top: "conv1_2"
}
layer {
  name: "pool1"
  type: "Pooling"
  bottom: "conv1_2"
  top: "pool1"
  pooling_param {
    pool: MAX
    kernel_size: 2
    stride: 2
  }
}
layer {
  name: "conv2_1"
  type: "Convolution"
  bottom: "pool1"
  top: "conv2_1"
  param {
    lr_mult: 0
    decay_mult: 0
  }
  param {
    lr_mult: 0
    decay_mult: 0
  }
  convolution_param {
    num_output: 128
    pad: 1
    kernel_size: 3
  }
}
layer {
  name: "relu2_1"
  type: "ReLU"
  bottom: "conv2_1"
  top: "conv2_1"
}
layer {
  name: "conv2_2"
  type: "Convolution"
  bottom: "conv2_1"
  top: "conv2_2"
  param {
    lr_mult: 0
    decay_mult: 0
  }
  param {
    lr_mult: 0
    decay_mult: 0
  }
  convolution_param {
    num_output: 128
    pad: 1
    kernel_size: 3
  }
}
layer {
  name: "relu2_2"
  type: "ReLU"
  bottom: "conv2_2"
  top: "conv2_2"
}
layer {
  name: "pool2"
  type: "Pooling"
  bottom: "conv2_2"
  top: "pool2"
  pooling_param {
    pool: MAX
    kernel_size: 2
    stride: 2
  }
}
layer {
  name: "conv3_1"
  type: "Convolution"
  bottom: "pool2"
  top: "conv3_1"
  param {
    lr_mult: 1
  }
  param {
    lr_mult: 2
  }
  convolution_param {
    num_output: 256
    pad: 1
    kernel_size: 3
  }
}
layer {
  name: "relu3_1"
  type: "ReLU"
  bottom: "conv3_1"
  top: "conv3_1"
}
layer {
  name: "conv3_2"
  type: "Convolution"
  bottom: "conv3_1"
  top: "conv3_2"
  param {
    lr_mult: 1
  }
  param {
    lr_mult: 2
  }
  convolution_param {
    num_output: 256
    pad: 1
    kernel_size: 3
  }
}
layer {
  name: "relu3_2"
  type: "ReLU"
  bottom: "conv3_2"
  top: "conv3_2"
}
layer {
  name: "conv3_3"
  type: "Convolution"
  bottom: "conv3_2"
  top: "conv3_3"
  param {
    lr_mult: 1
  }
  param {
    lr_mult: 2
  }
  convolution_param {
    num_output: 256
    pad: 1
    kernel_size: 3
  }
}
layer {
  name: "relu3_3"
  type: "ReLU"
  bottom: "conv3_3"
  top: "conv3_3"
}
layer {
  name: "pool3"
  type: "Pooling"
  bottom: "conv3_3"
  top: "pool3"
  pooling_param {
    pool: MAX
    kernel_size: 2
    stride: 2
  }
}
layer {
  name: "conv4_1"
  type: "Convolution"
  bottom: "pool3"
  top: "conv4_1"
  param {
    lr_mult: 1
  }
  param {
    lr_mult: 2
  }
  convolution_param {
    num_output: 512
    pad: 1
    kernel_size: 3
  }
}
layer {
  name: "relu4_1"
  type: "ReLU"
  bottom: "conv4_1"
  top: "conv4_1"
}
layer {
  name: "conv4_2"
  type: "Convolution"
  bottom: "conv4_1"
  top: "conv4_2"
  param {
    lr_mult: 1
  }
  param {
    lr_mult: 2
  }
  convolution_param {
    num_output: 512
    pad: 1
    kernel_size: 3
  }
}
layer {
  name: "relu4_2"
  type: "ReLU"
  bottom: "conv4_2"
  top: "conv4_2"
}
layer {
  name: "conv4_3"
  type: "Convolution"
  bottom: "conv4_2"
  top: "conv4_3"
  param {
    lr_mult: 1
  }
  param {
    lr_mult: 2
  }
  convolution_param {
    num_output: 512
    pad: 1
    kernel_size: 3
  }
}
layer {
  name: "relu4_3"
  type: "ReLU"
  bottom: "conv4_3"
  top: "conv4_3"
}
layer {
  name: "pool4"
  type: "Pooling"
  bottom: "conv4_3"
  top: "pool4"
  pooling_param {
    pool: MAX
    kernel_size: 2
    stride: 2
  }
}
layer {
  name: "conv5_1"
  type: "Convolution"
  bottom: "pool4"
  top: "conv5_1"
  param {
    lr_mult: 1
  }
  param {
    lr_mult: 2
  }
  convolution_param {
    num_output: 512
    pad: 1
    kernel_size: 3
  }
}
layer {
  name: "relu5_1"
  type: "ReLU"
  bottom: "conv5_1"
  top: "conv5_1"
}
layer {
  name: "conv5_2"
  type: "Convolution"
  bottom: "conv5_1"
  top: "conv5_2"
  param {
    lr_mult: 1
  }
  param {
    lr_mult: 2
  }
  convolution_param {
    num_output: 512
    pad: 1
    kernel_size: 3
  }
}
layer {
  name: "relu5_2"
  type: "ReLU"
  bottom: "conv5_2"
  top: "conv5_2"
}
layer {
  name: "conv5_3"
  type: "Convolution"
  bottom: "conv5_2"
  top: "conv5_3"
  param {
    lr_mult: 1
  }
  param {
    lr_mult: 2
  }
  convolution_param {
    num_output: 512
    pad: 1
    kernel_size: 3
  }
}
layer {
  name: "relu5_3"
  type: "ReLU"
  bottom: "conv5_3"
  top: "conv5_3"
}
layer {
  name: "rpn_conv/3x3"
  type: "Convolution"
  bottom: "conv5_3"
  top: "rpn/output"
  param {
    lr_mult: 1
  }
  param {
    lr_mult: 2
  }
  convolution_param {
    num_output: 512
    pad: 1
    kernel_size: 3
    stride: 1
    weight_filler {
      type: "gaussian"
      std: 0.01
    }
    bias_filler {
      type: "constant"
      value: 0
    }
  }
}
layer {
  name: "rpn_relu/3x3"
  type: "ReLU"
  bottom: "rpn/output"
  top: "rpn/output"
}
layer {
  name: "rpn_cls_score"
  type: "Convolution"
  bottom: "rpn/output"
  top: "rpn_cls_score"
  param {
    lr_mult: 1
  }
  param {
    lr_mult: 2
  }
  convolution_param {
    num_output: 18
    pad: 0
    kernel_size: 1
    stride: 1
    weight_filler {
      type: "gaussian"
      std: 0.01
    }
    bias_filler {
      type: "constant"
      value: 0
    }
  }
}
layer {
  name: "rpn_bbox_pred"
  type: "Convolution"
  bottom: "rpn/output"
  top: "rpn_bbox_pred"
  param {
    lr_mult: 1
  }
  param {
    lr_mult: 2
  }
  convolution_param {
    num_output: 36
    pad: 0
    kernel_size: 1
    stride: 1
    weight_filler {
      type: "gaussian"
      std: 0.01
    }
    bias_filler {
      type: "constant"
      value: 0
    }
  }
}
layer {
  name: "rpn_cls_score_reshape"
  type: "Reshape"
  bottom: "rpn_cls_score"
  top: "rpn_cls_score_reshape"
  reshape_param {
    shape {
      dim: 0
      dim: 2
      dim: -1
      dim: 0
    }
  }
}
layer {
  name: "rpn-data"
  type: "Python"
  bottom: "rpn_cls_score"
  bottom: "gt_boxes"
  bottom: "im_info"
  bottom: "data"
  top: "rpn_labels"
  top: "rpn_bbox_targets"
  top: "rpn_bbox_inside_weights"
  top: "rpn_bbox_outside_weights"
  python_param {
    module: "rpn.anchor_target_layer"
    layer: "AnchorTargetLayer"
    param_str: "\'feat_stride\': 16"
  }
}
layer {
  name: "rpn_loss_cls"
  type: "SoftmaxWithLoss"
  bottom: "rpn_cls_score_reshape"
  bottom: "rpn_labels"
  top: "rpn_cls_loss"
  loss_weight: 1
  propagate_down: true
  propagate_down: false
  loss_param {
    ignore_label: -1
    normalize: true
  }
}
layer {
  name: "rpn_loss_bbox"
  type: "SmoothL1Loss"
  bottom: "rpn_bbox_pred"
  bottom: "rpn_bbox_targets"
  bottom: "rpn_bbox_inside_weights"
  bottom: "rpn_bbox_outside_weights"
  top: "rpn_loss_bbox"
  loss_weight: 1
  smooth_l1_loss_param {
    sigma: 3
  }
}
layer {
  name: "rpn_cls_prob"
  type: "Softmax"
  bottom: "rpn_cls_score_reshape"
  top: "rpn_cls_prob"
}
layer {
  name: "rpn_cls_prob_reshape"
  type: "Reshape"
  bottom: "rpn_cls_prob"
  top: "rpn_cls_prob_reshape"
  reshape_param {
    shape {
      dim: 0
      dim: 18
      dim: -1
      dim: 0
    }
  }
}
layer {
  name: "proposal"
  type: "Python"
  bottom: "rpn_cls_prob_reshape"
  bottom: "rpn_bbox_pred"
  bottom: "im_info"
  top: "rpn_rois"
  python_param {
    module: "rpn.proposal_layer"
    layer: "ProposalLayer"
    param_str: "\'feat_stride\': 16"
  }
}
layer {
  name: "roi-data"
  type: "Python"
  bottom: "rpn_rois"
  bottom: "gt_boxes"
  top: "rois"
  top: "labels"
  top: "bbox_targets"
  top: "bbox_inside_weights"
  top: "bbox_outside_weights"
  top: "key_targets"
  python_param {
    module: "rpn.proposal_target_layer"
    layer: "ProposalTargetLayer"
    param_str: "\'num_classes\': 21"
  }
}
layer {
  name: "roi_pool5"
  type: "ROIPooling"
  bottom: "conv5_3"
  bottom: "rois"
  top: "pool5"
  roi_pooling_param {
    pooled_h: 7
    pooled_w: 7
    spatial_scale: 0.0625
  }
}
layer {
  name: "fc6"
  type: "InnerProduct"
  bottom: "pool5"
  top: "fc6"
  param {
    lr_mult: 1
  }
  param {
    lr_mult: 2
  }
  inner_product_param {
    num_output: 4096
  }
}
layer {
  name: "relu6"
  type: "ReLU"
  bottom: "fc6"
  top: "fc6"
}
layer {
  name: "drop6"
  type: "Dropout"
  bottom: "fc6"
  top: "fc6"
  dropout_param {
    dropout_ratio: 0.5
  }
}
layer {
  name: "fc7"
  type: "InnerProduct"
  bottom: "fc6"
  top: "fc7"
  param {
    lr_mult: 1
  }
  param {
    lr_mult: 2
  }
  inner_product_param {
    num_output: 4096
  }
}
layer {
  name: "relu7"
  type: "ReLU"
  bottom: "fc7"
  top: "fc7"
}
layer {
  name: "drop7"
  type: "Dropout"
  bottom: "fc7"
  top: "fc7"
  dropout_param {
    dropout_ratio: 0.5
  }
}
layer {
  name: "cls_score"
  type: "InnerProduct"
  bottom: "fc7"
  top: "cls_score"
  param {
    lr_mult: 1
  }
  param {
    lr_mult: 2
  }
  inner_product_param {
    num_output: 21
    weight_filler {
      type: "gaussian"
      std: 0.01
    }
    bias_filler {
      type: "constant"
      value: 0
    }
  }
}
layer {
  name: "bbox_pred"
  type: "InnerProduct"
  bottom: "fc7"
  top: "bbox_pred"
  param {
    lr_mult: 1
  }
  param {
    lr_mult: 2
  }
  inner_product_param {
    num_output: 84
    weight_filler {
      type: "gaussian"
      std: 0.001
    }
    bias_filler {
      type: "constant"
      value: 0
    }
  }
}
layer {
  name: "key_pred"
  type: "InnerProduct"
  bottom: "fc7"
  top: "key_pred"
  param {
    lr_mult: 1
  }
  param {
    lr_mult: 2
  }
  inner_product_param {
    num_output: 84
    weight_filler {
      type: "gaussian"
      std: 0.001
    }
    bias_filler {
      type: "constant"
      value: 0
    }
  }
}
layer {
  name: "loss_cls"
  type: "SoftmaxWithLoss"
  bottom: "cls_score"
  bottom: "labels"
  top: "loss_cls"
  loss_weight: 1
  propagate_down: true
  propagate_down: false
}
layer {
  name: "loss_bbox"
  type: "SmoothL1Loss"
  bottom: "bbox_pred"
  bottom: "bbox_targets"
  bottom: "bbox_inside_weights"
  bottom: "bbox_outside_weights"
  top: "loss_bbox"
  loss_weight: 1
}
layer {
  name: "loss_key"
  type: "SmoothL1Loss"
  bottom: "key_pred"
  bottom: "key_targets"
  bottom: "bbox_inside_weights"
  bottom: "bbox_outside_weights"
  top: "loss_key"
  loss_weight: 1
}
I0823 13:50:54.737180 23070 layer_factory.hpp:77] Creating layer input-data
I0823 13:50:54.749476 23070 net.cpp:106] Creating Layer input-data
I0823 13:50:54.749491 23070 net.cpp:411] input-data -> data
I0823 13:50:54.749512 23070 net.cpp:411] input-data -> im_info
I0823 13:50:54.749519 23070 net.cpp:411] input-data -> gt_boxes
RoiDataLayer: name_to_top: {'gt_boxes': 2, 'data': 0, 'im_info': 1}
I0823 13:50:54.762874 23070 net.cpp:150] Setting up input-data
I0823 13:50:54.762918 23070 net.cpp:157] Top shape: 1 3 600 1000 (1800000)
I0823 13:50:54.762930 23070 net.cpp:157] Top shape: 1 3 (3)
I0823 13:50:54.762938 23070 net.cpp:157] Top shape: 1 4 (4)
I0823 13:50:54.762943 23070 net.cpp:165] Memory required for data: 7200028
I0823 13:50:54.762953 23070 layer_factory.hpp:77] Creating layer data_input-data_0_split
I0823 13:50:54.762974 23070 net.cpp:106] Creating Layer data_input-data_0_split
I0823 13:50:54.762982 23070 net.cpp:454] data_input-data_0_split <- data
I0823 13:50:54.762995 23070 net.cpp:411] data_input-data_0_split -> data_input-data_0_split_0
I0823 13:50:54.763013 23070 net.cpp:411] data_input-data_0_split -> data_input-data_0_split_1
I0823 13:50:54.763110 23070 net.cpp:150] Setting up data_input-data_0_split
I0823 13:50:54.763123 23070 net.cpp:157] Top shape: 1 3 600 1000 (1800000)
I0823 13:50:54.763134 23070 net.cpp:157] Top shape: 1 3 600 1000 (1800000)
I0823 13:50:54.763139 23070 net.cpp:165] Memory required for data: 21600028
I0823 13:50:54.763144 23070 layer_factory.hpp:77] Creating layer im_info_input-data_1_split
I0823 13:50:54.763155 23070 net.cpp:106] Creating Layer im_info_input-data_1_split
I0823 13:50:54.763162 23070 net.cpp:454] im_info_input-data_1_split <- im_info
I0823 13:50:54.763172 23070 net.cpp:411] im_info_input-data_1_split -> im_info_input-data_1_split_0
I0823 13:50:54.763185 23070 net.cpp:411] im_info_input-data_1_split -> im_info_input-data_1_split_1
I0823 13:50:54.763267 23070 net.cpp:150] Setting up im_info_input-data_1_split
I0823 13:50:54.763278 23070 net.cpp:157] Top shape: 1 3 (3)
I0823 13:50:54.763286 23070 net.cpp:157] Top shape: 1 3 (3)
I0823 13:50:54.763293 23070 net.cpp:165] Memory required for data: 21600052
I0823 13:50:54.763298 23070 layer_factory.hpp:77] Creating layer gt_boxes_input-data_2_split
I0823 13:50:54.763308 23070 net.cpp:106] Creating Layer gt_boxes_input-data_2_split
I0823 13:50:54.763315 23070 net.cpp:454] gt_boxes_input-data_2_split <- gt_boxes
I0823 13:50:54.763324 23070 net.cpp:411] gt_boxes_input-data_2_split -> gt_boxes_input-data_2_split_0
I0823 13:50:54.763337 23070 net.cpp:411] gt_boxes_input-data_2_split -> gt_boxes_input-data_2_split_1
I0823 13:50:54.763423 23070 net.cpp:150] Setting up gt_boxes_input-data_2_split
I0823 13:50:54.763434 23070 net.cpp:157] Top shape: 1 4 (4)
I0823 13:50:54.763443 23070 net.cpp:157] Top shape: 1 4 (4)
I0823 13:50:54.763449 23070 net.cpp:165] Memory required for data: 21600084
I0823 13:50:54.763454 23070 layer_factory.hpp:77] Creating layer conv1_1
I0823 13:50:54.763474 23070 net.cpp:106] Creating Layer conv1_1
I0823 13:50:54.763483 23070 net.cpp:454] conv1_1 <- data_input-data_0_split_0
I0823 13:50:54.763492 23070 net.cpp:411] conv1_1 -> conv1_1
I0823 13:50:55.071283 23070 net.cpp:150] Setting up conv1_1
I0823 13:50:55.071319 23070 net.cpp:157] Top shape: 1 64 600 1000 (38400000)
I0823 13:50:55.071323 23070 net.cpp:165] Memory required for data: 175200084
I0823 13:50:55.071343 23070 layer_factory.hpp:77] Creating layer relu1_1
I0823 13:50:55.071357 23070 net.cpp:106] Creating Layer relu1_1
I0823 13:50:55.071362 23070 net.cpp:454] relu1_1 <- conv1_1
I0823 13:50:55.071377 23070 net.cpp:397] relu1_1 -> conv1_1 (in-place)
I0823 13:50:55.071924 23070 net.cpp:150] Setting up relu1_1
I0823 13:50:55.071939 23070 net.cpp:157] Top shape: 1 64 600 1000 (38400000)
I0823 13:50:55.071943 23070 net.cpp:165] Memory required for data: 328800084
I0823 13:50:55.071949 23070 layer_factory.hpp:77] Creating layer conv1_2
I0823 13:50:55.071962 23070 net.cpp:106] Creating Layer conv1_2
I0823 13:50:55.071966 23070 net.cpp:454] conv1_2 <- conv1_1
I0823 13:50:55.071975 23070 net.cpp:411] conv1_2 -> conv1_2
I0823 13:50:55.080090 23070 net.cpp:150] Setting up conv1_2
I0823 13:50:55.080107 23070 net.cpp:157] Top shape: 1 64 600 1000 (38400000)
I0823 13:50:55.080111 23070 net.cpp:165] Memory required for data: 482400084
I0823 13:50:55.080122 23070 layer_factory.hpp:77] Creating layer relu1_2
I0823 13:50:55.080130 23070 net.cpp:106] Creating Layer relu1_2
I0823 13:50:55.080134 23070 net.cpp:454] relu1_2 <- conv1_2
I0823 13:50:55.080142 23070 net.cpp:397] relu1_2 -> conv1_2 (in-place)
I0823 13:50:55.080368 23070 net.cpp:150] Setting up relu1_2
I0823 13:50:55.080380 23070 net.cpp:157] Top shape: 1 64 600 1000 (38400000)
I0823 13:50:55.080384 23070 net.cpp:165] Memory required for data: 636000084
I0823 13:50:55.080386 23070 layer_factory.hpp:77] Creating layer pool1
I0823 13:50:55.080399 23070 net.cpp:106] Creating Layer pool1
I0823 13:50:55.080404 23070 net.cpp:454] pool1 <- conv1_2
I0823 13:50:55.080410 23070 net.cpp:411] pool1 -> pool1
I0823 13:50:55.080489 23070 net.cpp:150] Setting up pool1
I0823 13:50:55.080499 23070 net.cpp:157] Top shape: 1 64 300 500 (9600000)
I0823 13:50:55.080503 23070 net.cpp:165] Memory required for data: 674400084
I0823 13:50:55.080507 23070 layer_factory.hpp:77] Creating layer conv2_1
I0823 13:50:55.080514 23070 net.cpp:106] Creating Layer conv2_1
I0823 13:50:55.080518 23070 net.cpp:454] conv2_1 <- pool1
I0823 13:50:55.080525 23070 net.cpp:411] conv2_1 -> conv2_1
I0823 13:50:55.084662 23070 net.cpp:150] Setting up conv2_1
I0823 13:50:55.084681 23070 net.cpp:157] Top shape: 1 128 300 500 (19200000)
I0823 13:50:55.084684 23070 net.cpp:165] Memory required for data: 751200084
I0823 13:50:55.084695 23070 layer_factory.hpp:77] Creating layer relu2_1
I0823 13:50:55.084705 23070 net.cpp:106] Creating Layer relu2_1
I0823 13:50:55.084709 23070 net.cpp:454] relu2_1 <- conv2_1
I0823 13:50:55.084715 23070 net.cpp:397] relu2_1 -> conv2_1 (in-place)
I0823 13:50:55.084934 23070 net.cpp:150] Setting up relu2_1
I0823 13:50:55.084947 23070 net.cpp:157] Top shape: 1 128 300 500 (19200000)
I0823 13:50:55.084950 23070 net.cpp:165] Memory required for data: 828000084
I0823 13:50:55.084954 23070 layer_factory.hpp:77] Creating layer conv2_2
I0823 13:50:55.084964 23070 net.cpp:106] Creating Layer conv2_2
I0823 13:50:55.084970 23070 net.cpp:454] conv2_2 <- conv2_1
I0823 13:50:55.084977 23070 net.cpp:411] conv2_2 -> conv2_2
I0823 13:50:55.091089 23070 net.cpp:150] Setting up conv2_2
I0823 13:50:55.091106 23070 net.cpp:157] Top shape: 1 128 300 500 (19200000)
I0823 13:50:55.091110 23070 net.cpp:165] Memory required for data: 904800084
I0823 13:50:55.091119 23070 layer_factory.hpp:77] Creating layer relu2_2
I0823 13:50:55.091125 23070 net.cpp:106] Creating Layer relu2_2
I0823 13:50:55.091128 23070 net.cpp:454] relu2_2 <- conv2_2
I0823 13:50:55.091136 23070 net.cpp:397] relu2_2 -> conv2_2 (in-place)
I0823 13:50:55.091681 23070 net.cpp:150] Setting up relu2_2
I0823 13:50:55.091696 23070 net.cpp:157] Top shape: 1 128 300 500 (19200000)
I0823 13:50:55.091701 23070 net.cpp:165] Memory required for data: 981600084
I0823 13:50:55.091703 23070 layer_factory.hpp:77] Creating layer pool2
I0823 13:50:55.091711 23070 net.cpp:106] Creating Layer pool2
I0823 13:50:55.091713 23070 net.cpp:454] pool2 <- conv2_2
I0823 13:50:55.091722 23070 net.cpp:411] pool2 -> pool2
I0823 13:50:55.091802 23070 net.cpp:150] Setting up pool2
I0823 13:50:55.091811 23070 net.cpp:157] Top shape: 1 128 150 250 (4800000)
I0823 13:50:55.091814 23070 net.cpp:165] Memory required for data: 1000800084
I0823 13:50:55.091817 23070 layer_factory.hpp:77] Creating layer conv3_1
I0823 13:50:55.091827 23070 net.cpp:106] Creating Layer conv3_1
I0823 13:50:55.091831 23070 net.cpp:454] conv3_1 <- pool2
I0823 13:50:55.091842 23070 net.cpp:411] conv3_1 -> conv3_1
I0823 13:50:55.096210 23070 net.cpp:150] Setting up conv3_1
I0823 13:50:55.096230 23070 net.cpp:157] Top shape: 1 256 150 250 (9600000)
I0823 13:50:55.096233 23070 net.cpp:165] Memory required for data: 1039200084
I0823 13:50:55.096246 23070 layer_factory.hpp:77] Creating layer relu3_1
I0823 13:50:55.096251 23070 net.cpp:106] Creating Layer relu3_1
I0823 13:50:55.096256 23070 net.cpp:454] relu3_1 <- conv3_1
I0823 13:50:55.096263 23070 net.cpp:397] relu3_1 -> conv3_1 (in-place)
I0823 13:50:55.096489 23070 net.cpp:150] Setting up relu3_1
I0823 13:50:55.096501 23070 net.cpp:157] Top shape: 1 256 150 250 (9600000)
I0823 13:50:55.096504 23070 net.cpp:165] Memory required for data: 1077600084
I0823 13:50:55.096508 23070 layer_factory.hpp:77] Creating layer conv3_2
I0823 13:50:55.096523 23070 net.cpp:106] Creating Layer conv3_2
I0823 13:50:55.096526 23070 net.cpp:454] conv3_2 <- conv3_1
I0823 13:50:55.096532 23070 net.cpp:411] conv3_2 -> conv3_2
I0823 13:50:55.104948 23070 net.cpp:150] Setting up conv3_2
I0823 13:50:55.105003 23070 net.cpp:157] Top shape: 1 256 150 250 (9600000)
I0823 13:50:55.105011 23070 net.cpp:165] Memory required for data: 1116000084
I0823 13:50:55.105029 23070 layer_factory.hpp:77] Creating layer relu3_2
I0823 13:50:55.105054 23070 net.cpp:106] Creating Layer relu3_2
I0823 13:50:55.105062 23070 net.cpp:454] relu3_2 <- conv3_2
I0823 13:50:55.105074 23070 net.cpp:397] relu3_2 -> conv3_2 (in-place)
I0823 13:50:55.105509 23070 net.cpp:150] Setting up relu3_2
I0823 13:50:55.105530 23070 net.cpp:157] Top shape: 1 256 150 250 (9600000)
I0823 13:50:55.105535 23070 net.cpp:165] Memory required for data: 1154400084
I0823 13:50:55.105541 23070 layer_factory.hpp:77] Creating layer conv3_3
I0823 13:50:55.105561 23070 net.cpp:106] Creating Layer conv3_3
I0823 13:50:55.105567 23070 net.cpp:454] conv3_3 <- conv3_2
I0823 13:50:55.105586 23070 net.cpp:411] conv3_3 -> conv3_3
I0823 13:50:55.114223 23070 net.cpp:150] Setting up conv3_3
I0823 13:50:55.114253 23070 net.cpp:157] Top shape: 1 256 150 250 (9600000)
I0823 13:50:55.114259 23070 net.cpp:165] Memory required for data: 1192800084
I0823 13:50:55.114272 23070 layer_factory.hpp:77] Creating layer relu3_3
I0823 13:50:55.114286 23070 net.cpp:106] Creating Layer relu3_3
I0823 13:50:55.114294 23070 net.cpp:454] relu3_3 <- conv3_3
I0823 13:50:55.114302 23070 net.cpp:397] relu3_3 -> conv3_3 (in-place)
I0823 13:50:55.115142 23070 net.cpp:150] Setting up relu3_3
I0823 13:50:55.115169 23070 net.cpp:157] Top shape: 1 256 150 250 (9600000)
I0823 13:50:55.115181 23070 net.cpp:165] Memory required for data: 1231200084
I0823 13:50:55.115188 23070 layer_factory.hpp:77] Creating layer pool3
I0823 13:50:55.115200 23070 net.cpp:106] Creating Layer pool3
I0823 13:50:55.115209 23070 net.cpp:454] pool3 <- conv3_3
I0823 13:50:55.115219 23070 net.cpp:411] pool3 -> pool3
I0823 13:50:55.115360 23070 net.cpp:150] Setting up pool3
I0823 13:50:55.115373 23070 net.cpp:157] Top shape: 1 256 75 125 (2400000)
I0823 13:50:55.115381 23070 net.cpp:165] Memory required for data: 1240800084
I0823 13:50:55.115386 23070 layer_factory.hpp:77] Creating layer conv4_1
I0823 13:50:55.115402 23070 net.cpp:106] Creating Layer conv4_1
I0823 13:50:55.115411 23070 net.cpp:454] conv4_1 <- pool3
I0823 13:50:55.115423 23070 net.cpp:411] conv4_1 -> conv4_1
I0823 13:50:55.131563 23070 net.cpp:150] Setting up conv4_1
I0823 13:50:55.131590 23070 net.cpp:157] Top shape: 1 512 75 125 (4800000)
I0823 13:50:55.131597 23070 net.cpp:165] Memory required for data: 1260000084
I0823 13:50:55.131608 23070 layer_factory.hpp:77] Creating layer relu4_1
I0823 13:50:55.131623 23070 net.cpp:106] Creating Layer relu4_1
I0823 13:50:55.131629 23070 net.cpp:454] relu4_1 <- conv4_1
I0823 13:50:55.131641 23070 net.cpp:397] relu4_1 -> conv4_1 (in-place)
I0823 13:50:55.132386 23070 net.cpp:150] Setting up relu4_1
I0823 13:50:55.132410 23070 net.cpp:157] Top shape: 1 512 75 125 (4800000)
I0823 13:50:55.132414 23070 net.cpp:165] Memory required for data: 1279200084
I0823 13:50:55.132421 23070 layer_factory.hpp:77] Creating layer conv4_2
I0823 13:50:55.132439 23070 net.cpp:106] Creating Layer conv4_2
I0823 13:50:55.132446 23070 net.cpp:454] conv4_2 <- conv4_1
I0823 13:50:55.132458 23070 net.cpp:411] conv4_2 -> conv4_2
I0823 13:50:55.150840 23070 net.cpp:150] Setting up conv4_2
I0823 13:50:55.150872 23070 net.cpp:157] Top shape: 1 512 75 125 (4800000)
I0823 13:50:55.150877 23070 net.cpp:165] Memory required for data: 1298400084
I0823 13:50:55.150902 23070 layer_factory.hpp:77] Creating layer relu4_2
I0823 13:50:55.150934 23070 net.cpp:106] Creating Layer relu4_2
I0823 13:50:55.150940 23070 net.cpp:454] relu4_2 <- conv4_2
I0823 13:50:55.150949 23070 net.cpp:397] relu4_2 -> conv4_2 (in-place)
I0823 13:50:55.151268 23070 net.cpp:150] Setting up relu4_2
I0823 13:50:55.151293 23070 net.cpp:157] Top shape: 1 512 75 125 (4800000)
I0823 13:50:55.151298 23070 net.cpp:165] Memory required for data: 1317600084
I0823 13:50:55.151304 23070 layer_factory.hpp:77] Creating layer conv4_3
I0823 13:50:55.151319 23070 net.cpp:106] Creating Layer conv4_3
I0823 13:50:55.151324 23070 net.cpp:454] conv4_3 <- conv4_2
I0823 13:50:55.151335 23070 net.cpp:411] conv4_3 -> conv4_3
I0823 13:50:55.170895 23070 net.cpp:150] Setting up conv4_3
I0823 13:50:55.170970 23070 net.cpp:157] Top shape: 1 512 75 125 (4800000)
I0823 13:50:55.170976 23070 net.cpp:165] Memory required for data: 1336800084
I0823 13:50:55.170990 23070 layer_factory.hpp:77] Creating layer relu4_3
I0823 13:50:55.171008 23070 net.cpp:106] Creating Layer relu4_3
I0823 13:50:55.171015 23070 net.cpp:454] relu4_3 <- conv4_3
I0823 13:50:55.171025 23070 net.cpp:397] relu4_3 -> conv4_3 (in-place)
I0823 13:50:55.171705 23070 net.cpp:150] Setting up relu4_3
I0823 13:50:55.171723 23070 net.cpp:157] Top shape: 1 512 75 125 (4800000)
I0823 13:50:55.171728 23070 net.cpp:165] Memory required for data: 1356000084
I0823 13:50:55.171732 23070 layer_factory.hpp:77] Creating layer pool4
I0823 13:50:55.171746 23070 net.cpp:106] Creating Layer pool4
I0823 13:50:55.171754 23070 net.cpp:454] pool4 <- conv4_3
I0823 13:50:55.171764 23070 net.cpp:411] pool4 -> pool4
I0823 13:50:55.171872 23070 net.cpp:150] Setting up pool4
I0823 13:50:55.171883 23070 net.cpp:157] Top shape: 1 512 38 63 (1225728)
I0823 13:50:55.171886 23070 net.cpp:165] Memory required for data: 1360902996
I0823 13:50:55.171890 23070 layer_factory.hpp:77] Creating layer conv5_1
I0823 13:50:55.171907 23070 net.cpp:106] Creating Layer conv5_1
I0823 13:50:55.171914 23070 net.cpp:454] conv5_1 <- pool4
I0823 13:50:55.171921 23070 net.cpp:411] conv5_1 -> conv5_1
I0823 13:50:55.189008 23070 net.cpp:150] Setting up conv5_1
I0823 13:50:55.189029 23070 net.cpp:157] Top shape: 1 512 38 63 (1225728)
I0823 13:50:55.189034 23070 net.cpp:165] Memory required for data: 1365805908
I0823 13:50:55.189043 23070 layer_factory.hpp:77] Creating layer relu5_1
I0823 13:50:55.189054 23070 net.cpp:106] Creating Layer relu5_1
I0823 13:50:55.189059 23070 net.cpp:454] relu5_1 <- conv5_1
I0823 13:50:55.189065 23070 net.cpp:397] relu5_1 -> conv5_1 (in-place)
I0823 13:50:55.189340 23070 net.cpp:150] Setting up relu5_1
I0823 13:50:55.189360 23070 net.cpp:157] Top shape: 1 512 38 63 (1225728)
I0823 13:50:55.189363 23070 net.cpp:165] Memory required for data: 1370708820
I0823 13:50:55.189368 23070 layer_factory.hpp:77] Creating layer conv5_2
I0823 13:50:55.189388 23070 net.cpp:106] Creating Layer conv5_2
I0823 13:50:55.189393 23070 net.cpp:454] conv5_2 <- conv5_1
I0823 13:50:55.189402 23070 net.cpp:411] conv5_2 -> conv5_2
I0823 13:50:55.206029 23070 net.cpp:150] Setting up conv5_2
I0823 13:50:55.206051 23070 net.cpp:157] Top shape: 1 512 38 63 (1225728)
I0823 13:50:55.206055 23070 net.cpp:165] Memory required for data: 1375611732
I0823 13:50:55.206064 23070 layer_factory.hpp:77] Creating layer relu5_2
I0823 13:50:55.206074 23070 net.cpp:106] Creating Layer relu5_2
I0823 13:50:55.206079 23070 net.cpp:454] relu5_2 <- conv5_2
I0823 13:50:55.206085 23070 net.cpp:397] relu5_2 -> conv5_2 (in-place)
I0823 13:50:55.206341 23070 net.cpp:150] Setting up relu5_2
I0823 13:50:55.206354 23070 net.cpp:157] Top shape: 1 512 38 63 (1225728)
I0823 13:50:55.206358 23070 net.cpp:165] Memory required for data: 1380514644
I0823 13:50:55.206362 23070 layer_factory.hpp:77] Creating layer conv5_3
I0823 13:50:55.206383 23070 net.cpp:106] Creating Layer conv5_3
I0823 13:50:55.206389 23070 net.cpp:454] conv5_3 <- conv5_2
I0823 13:50:55.206398 23070 net.cpp:411] conv5_3 -> conv5_3
I0823 13:50:55.222242 23070 net.cpp:150] Setting up conv5_3
I0823 13:50:55.222262 23070 net.cpp:157] Top shape: 1 512 38 63 (1225728)
I0823 13:50:55.222265 23070 net.cpp:165] Memory required for data: 1385417556
I0823 13:50:55.222275 23070 layer_factory.hpp:77] Creating layer relu5_3
I0823 13:50:55.222283 23070 net.cpp:106] Creating Layer relu5_3
I0823 13:50:55.222287 23070 net.cpp:454] relu5_3 <- conv5_3
I0823 13:50:55.222293 23070 net.cpp:397] relu5_3 -> conv5_3 (in-place)
I0823 13:50:55.222849 23070 net.cpp:150] Setting up relu5_3
I0823 13:50:55.222867 23070 net.cpp:157] Top shape: 1 512 38 63 (1225728)
I0823 13:50:55.222872 23070 net.cpp:165] Memory required for data: 1390320468
I0823 13:50:55.222875 23070 layer_factory.hpp:77] Creating layer conv5_3_relu5_3_0_split
I0823 13:50:55.222883 23070 net.cpp:106] Creating Layer conv5_3_relu5_3_0_split
I0823 13:50:55.222887 23070 net.cpp:454] conv5_3_relu5_3_0_split <- conv5_3
I0823 13:50:55.222898 23070 net.cpp:411] conv5_3_relu5_3_0_split -> conv5_3_relu5_3_0_split_0
I0823 13:50:55.222916 23070 net.cpp:411] conv5_3_relu5_3_0_split -> conv5_3_relu5_3_0_split_1
I0823 13:50:55.223007 23070 net.cpp:150] Setting up conv5_3_relu5_3_0_split
I0823 13:50:55.223017 23070 net.cpp:157] Top shape: 1 512 38 63 (1225728)
I0823 13:50:55.223022 23070 net.cpp:157] Top shape: 1 512 38 63 (1225728)
I0823 13:50:55.223026 23070 net.cpp:165] Memory required for data: 1400126292
I0823 13:50:55.223029 23070 layer_factory.hpp:77] Creating layer rpn_conv/3x3
I0823 13:50:55.223043 23070 net.cpp:106] Creating Layer rpn_conv/3x3
I0823 13:50:55.223049 23070 net.cpp:454] rpn_conv/3x3 <- conv5_3_relu5_3_0_split_0
I0823 13:50:55.223059 23070 net.cpp:411] rpn_conv/3x3 -> rpn/output
I0823 13:50:55.265354 23070 net.cpp:150] Setting up rpn_conv/3x3
I0823 13:50:55.265373 23070 net.cpp:157] Top shape: 1 512 38 63 (1225728)
I0823 13:50:55.265377 23070 net.cpp:165] Memory required for data: 1405029204
I0823 13:50:55.265385 23070 layer_factory.hpp:77] Creating layer rpn_relu/3x3
I0823 13:50:55.265393 23070 net.cpp:106] Creating Layer rpn_relu/3x3
I0823 13:50:55.265395 23070 net.cpp:454] rpn_relu/3x3 <- rpn/output
I0823 13:50:55.265401 23070 net.cpp:397] rpn_relu/3x3 -> rpn/output (in-place)
I0823 13:50:55.265635 23070 net.cpp:150] Setting up rpn_relu/3x3
I0823 13:50:55.265646 23070 net.cpp:157] Top shape: 1 512 38 63 (1225728)
I0823 13:50:55.265650 23070 net.cpp:165] Memory required for data: 1409932116
I0823 13:50:55.265653 23070 layer_factory.hpp:77] Creating layer rpn/output_rpn_relu/3x3_0_split
I0823 13:50:55.265662 23070 net.cpp:106] Creating Layer rpn/output_rpn_relu/3x3_0_split
I0823 13:50:55.265666 23070 net.cpp:454] rpn/output_rpn_relu/3x3_0_split <- rpn/output
I0823 13:50:55.265671 23070 net.cpp:411] rpn/output_rpn_relu/3x3_0_split -> rpn/output_rpn_relu/3x3_0_split_0
I0823 13:50:55.265679 23070 net.cpp:411] rpn/output_rpn_relu/3x3_0_split -> rpn/output_rpn_relu/3x3_0_split_1
I0823 13:50:55.265758 23070 net.cpp:150] Setting up rpn/output_rpn_relu/3x3_0_split
I0823 13:50:55.265769 23070 net.cpp:157] Top shape: 1 512 38 63 (1225728)
I0823 13:50:55.265774 23070 net.cpp:157] Top shape: 1 512 38 63 (1225728)
I0823 13:50:55.265776 23070 net.cpp:165] Memory required for data: 1419737940
I0823 13:50:55.265780 23070 layer_factory.hpp:77] Creating layer rpn_cls_score
I0823 13:50:55.265794 23070 net.cpp:106] Creating Layer rpn_cls_score
I0823 13:50:55.265799 23070 net.cpp:454] rpn_cls_score <- rpn/output_rpn_relu/3x3_0_split_0
I0823 13:50:55.265806 23070 net.cpp:411] rpn_cls_score -> rpn_cls_score
I0823 13:50:55.268132 23070 net.cpp:150] Setting up rpn_cls_score
I0823 13:50:55.268151 23070 net.cpp:157] Top shape: 1 18 38 63 (43092)
I0823 13:50:55.268159 23070 net.cpp:165] Memory required for data: 1419910308
I0823 13:50:55.268167 23070 layer_factory.hpp:77] Creating layer rpn_cls_score_rpn_cls_score_0_split
I0823 13:50:55.268173 23070 net.cpp:106] Creating Layer rpn_cls_score_rpn_cls_score_0_split
I0823 13:50:55.268177 23070 net.cpp:454] rpn_cls_score_rpn_cls_score_0_split <- rpn_cls_score
I0823 13:50:55.268185 23070 net.cpp:411] rpn_cls_score_rpn_cls_score_0_split -> rpn_cls_score_rpn_cls_score_0_split_0
I0823 13:50:55.268213 23070 net.cpp:411] rpn_cls_score_rpn_cls_score_0_split -> rpn_cls_score_rpn_cls_score_0_split_1
I0823 13:50:55.268291 23070 net.cpp:150] Setting up rpn_cls_score_rpn_cls_score_0_split
I0823 13:50:55.268301 23070 net.cpp:157] Top shape: 1 18 38 63 (43092)
I0823 13:50:55.268306 23070 net.cpp:157] Top shape: 1 18 38 63 (43092)
I0823 13:50:55.268308 23070 net.cpp:165] Memory required for data: 1420255044
I0823 13:50:55.268311 23070 layer_factory.hpp:77] Creating layer rpn_bbox_pred
I0823 13:50:55.268332 23070 net.cpp:106] Creating Layer rpn_bbox_pred
I0823 13:50:55.268338 23070 net.cpp:454] rpn_bbox_pred <- rpn/output_rpn_relu/3x3_0_split_1
I0823 13:50:55.268345 23070 net.cpp:411] rpn_bbox_pred -> rpn_bbox_pred
I0823 13:50:55.270414 23070 net.cpp:150] Setting up rpn_bbox_pred
I0823 13:50:55.270431 23070 net.cpp:157] Top shape: 1 36 38 63 (86184)
I0823 13:50:55.270434 23070 net.cpp:165] Memory required for data: 1420599780
I0823 13:50:55.270442 23070 layer_factory.hpp:77] Creating layer rpn_bbox_pred_rpn_bbox_pred_0_split
I0823 13:50:55.270452 23070 net.cpp:106] Creating Layer rpn_bbox_pred_rpn_bbox_pred_0_split
I0823 13:50:55.270455 23070 net.cpp:454] rpn_bbox_pred_rpn_bbox_pred_0_split <- rpn_bbox_pred
I0823 13:50:55.270464 23070 net.cpp:411] rpn_bbox_pred_rpn_bbox_pred_0_split -> rpn_bbox_pred_rpn_bbox_pred_0_split_0
I0823 13:50:55.270473 23070 net.cpp:411] rpn_bbox_pred_rpn_bbox_pred_0_split -> rpn_bbox_pred_rpn_bbox_pred_0_split_1
I0823 13:50:55.270551 23070 net.cpp:150] Setting up rpn_bbox_pred_rpn_bbox_pred_0_split
I0823 13:50:55.270560 23070 net.cpp:157] Top shape: 1 36 38 63 (86184)
I0823 13:50:55.270565 23070 net.cpp:157] Top shape: 1 36 38 63 (86184)
I0823 13:50:55.270567 23070 net.cpp:165] Memory required for data: 1421289252
I0823 13:50:55.270570 23070 layer_factory.hpp:77] Creating layer rpn_cls_score_reshape
I0823 13:50:55.270581 23070 net.cpp:106] Creating Layer rpn_cls_score_reshape
I0823 13:50:55.270586 23070 net.cpp:454] rpn_cls_score_reshape <- rpn_cls_score_rpn_cls_score_0_split_0
I0823 13:50:55.270601 23070 net.cpp:411] rpn_cls_score_reshape -> rpn_cls_score_reshape
I0823 13:50:55.270648 23070 net.cpp:150] Setting up rpn_cls_score_reshape
I0823 13:50:55.270658 23070 net.cpp:157] Top shape: 1 2 342 63 (43092)
I0823 13:50:55.270659 23070 net.cpp:165] Memory required for data: 1421461620
I0823 13:50:55.270663 23070 layer_factory.hpp:77] Creating layer rpn_cls_score_reshape_rpn_cls_score_reshape_0_split
I0823 13:50:55.270671 23070 net.cpp:106] Creating Layer rpn_cls_score_reshape_rpn_cls_score_reshape_0_split
I0823 13:50:55.270675 23070 net.cpp:454] rpn_cls_score_reshape_rpn_cls_score_reshape_0_split <- rpn_cls_score_reshape
I0823 13:50:55.270680 23070 net.cpp:411] rpn_cls_score_reshape_rpn_cls_score_reshape_0_split -> rpn_cls_score_reshape_rpn_cls_score_reshape_0_split_0
I0823 13:50:55.270689 23070 net.cpp:411] rpn_cls_score_reshape_rpn_cls_score_reshape_0_split -> rpn_cls_score_reshape_rpn_cls_score_reshape_0_split_1
I0823 13:50:55.270756 23070 net.cpp:150] Setting up rpn_cls_score_reshape_rpn_cls_score_reshape_0_split
I0823 13:50:55.270766 23070 net.cpp:157] Top shape: 1 2 342 63 (43092)
I0823 13:50:55.270769 23070 net.cpp:157] Top shape: 1 2 342 63 (43092)
I0823 13:50:55.270772 23070 net.cpp:165] Memory required for data: 1421806356
I0823 13:50:55.270776 23070 layer_factory.hpp:77] Creating layer rpn-data
I0823 13:50:55.271399 23070 net.cpp:106] Creating Layer rpn-data
I0823 13:50:55.271414 23070 net.cpp:454] rpn-data <- rpn_cls_score_rpn_cls_score_0_split_1
I0823 13:50:55.271421 23070 net.cpp:454] rpn-data <- gt_boxes_input-data_2_split_0
I0823 13:50:55.271427 23070 net.cpp:454] rpn-data <- im_info_input-data_1_split_0
I0823 13:50:55.271432 23070 net.cpp:454] rpn-data <- data_input-data_0_split_1
I0823 13:50:55.271440 23070 net.cpp:411] rpn-data -> rpn_labels
I0823 13:50:55.271450 23070 net.cpp:411] rpn-data -> rpn_bbox_targets
I0823 13:50:55.271461 23070 net.cpp:411] rpn-data -> rpn_bbox_inside_weights
I0823 13:50:55.271472 23070 net.cpp:411] rpn-data -> rpn_bbox_outside_weights
I0823 13:50:55.272557 23070 net.cpp:150] Setting up rpn-data
I0823 13:50:55.272573 23070 net.cpp:157] Top shape: 1 1 342 63 (21546)
I0823 13:50:55.272578 23070 net.cpp:157] Top shape: 1 36 38 63 (86184)
I0823 13:50:55.272583 23070 net.cpp:157] Top shape: 1 36 38 63 (86184)
I0823 13:50:55.272585 23070 net.cpp:157] Top shape: 1 36 38 63 (86184)
I0823 13:50:55.272588 23070 net.cpp:165] Memory required for data: 1422926748
I0823 13:50:55.272593 23070 layer_factory.hpp:77] Creating layer rpn_loss_cls
I0823 13:50:55.272603 23070 net.cpp:106] Creating Layer rpn_loss_cls
I0823 13:50:55.272608 23070 net.cpp:454] rpn_loss_cls <- rpn_cls_score_reshape_rpn_cls_score_reshape_0_split_0
I0823 13:50:55.272614 23070 net.cpp:454] rpn_loss_cls <- rpn_labels
…
I0823 13:50:55.274055 23070 net.cpp:157] Top shape: (1)
I0823 13:50:55.274056 23070 net.cpp:160]     with loss weight 1
I0823 13:50:55.274061 23070 net.cpp:165] Memory required for data: 1422926756
I0823 13:50:55.274067 23070 layer_factory.hpp:77] Creating layer rpn_cls_prob
I0823 13:50:55.274073 23070 net.cpp:106] Creating Layer rpn_cls_prob
I0823 13:50:55.274076 23070 net.cpp:454] rpn_cls_prob <- rpn_cls_score_reshape_rpn_cls_score_reshape_0_split_1
I0823 13:50:55.274085 23070 net.cpp:411] rpn_cls_prob -> rpn_cls_prob
I0823 13:50:55.274767 23070 net.cpp:150] Setting up rpn_cls_prob
I0823 13:50:55.274783 23070 net.cpp:157] Top shape: 1 2 342 63 (43092)
I0823 13:50:55.274786 23070 net.cpp:165] Memory required for data: 1423099124
I0823 13:50:55.274793 23070 layer_factory.hpp:77] Creating layer rpn_cls_prob_reshape
I0823 13:50:55.274801 23070 net.cpp:106] Creating Layer rpn_cls_prob_reshape
I0823 13:50:55.274807 23070 net.cpp:454] rpn_cls_prob_reshape <- rpn_cls_prob
I0823 13:50:55.274814 23070 net.cpp:411] rpn_cls_prob_reshape -> rpn_cls_prob_reshape
I0823 13:50:55.274865 23070 net.cpp:150] Setting up rpn_cls_prob_reshape
I0823 13:50:55.274876 23070 net.cpp:157] Top shape: 1 18 38 63 (43092)
I0823 13:50:55.274879 23070 net.cpp:165] Memory required for data: 1423271492
I0823 13:50:55.274883 23070 layer_factory.hpp:77] Creating layer proposal
I0823 13:50:55.285892 23070 net.cpp:106] Creating Layer proposal
I0823 13:50:55.285908 23070 net.cpp:454] proposal <- rpn_cls_prob_reshape
I0823 13:50:55.285919 23070 net.cpp:454] proposal <- rpn_bbox_pred_rpn_bbox_pred_0_split_1
I0823 13:50:55.285924 23070 net.cpp:454] proposal <- im_info_input-data_1_split_1
I0823 13:50:55.285931 23070 net.cpp:411] proposal -> rpn_rois
I0823 13:50:55.291939 23070 net.cpp:150] Setting up proposal
I0823 13:50:55.291980 23070 net.cpp:157] Top shape: 1 5 (5)
I0823 13:50:55.291985 23070 net.cpp:165] Memory required for data: 1423271512
I0823 13:50:55.291996 23070 layer_factory.hpp:77] Creating layer roi-data
I0823 13:50:55.295653 23070 net.cpp:106] Creating Layer roi-data
I0823 13:50:55.295680 23070 net.cpp:454] roi-data <- rpn_rois
I0823 13:50:55.295693 23070 net.cpp:454] roi-data <- gt_boxes_input-data_2_split_1
I0823 13:50:55.295708 23070 net.cpp:411] roi-data -> rois
I0823 13:50:55.295730 23070 net.cpp:411] roi-data -> labels
I0823 13:50:55.295749 23070 net.cpp:411] roi-data -> bbox_targets
I0823 13:50:55.295766 23070 net.cpp:411] roi-data -> bbox_inside_weights
I0823 13:50:55.295783 23070 net.cpp:411] roi-data -> bbox_outside_weights
I0823 13:50:55.295801 23070 net.cpp:411] roi-data -> key_targets
I0823 13:50:55.296911 23070 net.cpp:150] Setting up roi-data
I0823 13:50:55.296937 23070 net.cpp:157] Top shape: 1 5 (5)
I0823 13:50:55.296947 23070 net.cpp:157] Top shape: 1 1 (1)
I0823 13:50:55.296957 23070 net.cpp:157] Top shape: 1 84 (84)
I0823 13:50:55.296965 23070 net.cpp:157] Top shape: 1 84 (84)
I0823 13:50:55.296972 23070 net.cpp:157] Top shape: 1 84 (84)
I0823 13:50:55.296978 23070 net.cpp:157] Top shape: 1 84 (84)
I0823 13:50:55.296983 23070 net.cpp:165] Memory required for data: 1423272880
I0823 13:50:55.296990 23070 layer_factory.hpp:77] Creating layer bbox_inside_weights_roi-data_3_split
I0823 13:50:55.297005 23070 net.cpp:106] Creating Layer bbox_inside_weights_roi-data_3_split
I0823 13:50:55.297015 23070 net.cpp:454] bbox_inside_weights_roi-data_3_split <- bbox_inside_weights
I0823 13:50:55.297029 23070 net.cpp:411] bbox_inside_weights_roi-data_3_split -> bbox_inside_weights_roi-data_3_split_0
I0823 13:50:55.297045 23070 net.cpp:411] bbox_inside_weights_roi-data_3_split -> bbox_inside_weights_roi-data_3_split_1
I0823 13:50:55.297166 23070 net.cpp:150] Setting up bbox_inside_weights_roi-data_3_split
I0823 13:50:55.297179 23070 net.cpp:157] Top shape: 1 84 (84)
I0823 13:50:55.297188 23070 net.cpp:157] Top shape: 1 84 (84)
I0823 13:50:55.297194 23070 net.cpp:165] Memory required for data: 1423273552
I0823 13:50:55.297200 23070 layer_factory.hpp:77] Creating layer bbox_outside_weights_roi-data_4_split
I0823 13:50:55.297209 23070 net.cpp:106] Creating Layer bbox_outside_weights_roi-data_4_split
I0823 13:50:55.297219 23070 net.cpp:454] bbox_outside_weights_roi-data_4_split <- bbox_outside_weights
I0823 13:50:55.297229 23070 net.cpp:411] bbox_outside_weights_roi-data_4_split -> bbox_outside_weights_roi-data_4_split_0
I0823 13:50:55.297243 23070 net.cpp:411] bbox_outside_weights_roi-data_4_split -> bbox_outside_weights_roi-data_4_split_1
I0823 13:50:55.297353 23070 net.cpp:150] Setting up bbox_outside_weights_roi-data_4_split
I0823 13:50:55.297365 23070 net.cpp:157] Top shape: 1 84 (84)
I0823 13:50:55.297375 23070 net.cpp:157] Top shape: 1 84 (84)
I0823 13:50:55.297380 23070 net.cpp:165] Memory required for data: 1423274224
I0823 13:50:55.297385 23070 layer_factory.hpp:77] Creating layer roi_pool5
I0823 13:50:55.297397 23070 net.cpp:106] Creating Layer roi_pool5
I0823 13:50:55.297405 23070 net.cpp:454] roi_pool5 <- conv5_3_relu5_3_0_split_1
I0823 13:50:55.297415 23070 net.cpp:454] roi_pool5 <- rois
I0823 13:50:55.297427 23070 net.cpp:411] roi_pool5 -> pool5
I0823 13:50:55.297443 23070 roi_pooling_layer.cpp:30] Spatial scale: 0.0625
I0823 13:50:55.297571 23070 net.cpp:150] Setting up roi_pool5
I0823 13:50:55.297585 23070 net.cpp:157] Top shape: 1 512 7 7 (25088)
I0823 13:50:55.297593 23070 net.cpp:165] Memory required for data: 1423374576
I0823 13:50:55.297600 23070 layer_factory.hpp:77] Creating layer fc6
I0823 13:50:55.297611 23070 net.cpp:106] Creating Layer fc6
I0823 13:50:55.297619 23070 net.cpp:454] fc6 <- pool5
I0823 13:50:55.297629 23070 net.cpp:411] fc6 -> fc6
I0823 13:50:55.907263 23070 net.cpp:150] Setting up fc6
I0823 13:50:55.907315 23070 net.cpp:157] Top shape: 1 4096 (4096)
I0823 13:50:55.907318 23070 net.cpp:165] Memory required for data: 1423390960
I0823 13:50:55.907347 23070 layer_factory.hpp:77] Creating layer relu6
I0823 13:50:55.907366 23070 net.cpp:106] Creating Layer relu6
I0823 13:50:55.907371 23070 net.cpp:454] relu6 <- fc6
I0823 13:50:55.907379 23070 net.cpp:397] relu6 -> fc6 (in-place)
I0823 13:50:55.907701 23070 net.cpp:150] Setting up relu6
I0823 13:50:55.907712 23070 net.cpp:157] Top shape: 1 4096 (4096)
I0823 13:50:55.907714 23070 net.cpp:165] Memory required for data: 1423407344
I0823 13:50:55.907718 23070 layer_factory.hpp:77] Creating layer drop6
I0823 13:50:55.907728 23070 net.cpp:106] Creating Layer drop6
I0823 13:50:55.907732 23070 net.cpp:454] drop6 <- fc6
I0823 13:50:55.907739 23070 net.cpp:397] drop6 -> fc6 (in-place)
I0823 13:50:55.907796 23070 net.cpp:150] Setting up drop6
I0823 13:50:55.907804 23070 net.cpp:157] Top shape: 1 4096 (4096)
I0823 13:50:55.907807 23070 net.cpp:165] Memory required for data: 1423423728
I0823 13:50:55.907810 23070 layer_factory.hpp:77] Creating layer fc7
I0823 13:50:55.907819 23070 net.cpp:106] Creating Layer fc7
I0823 13:50:55.907824 23070 net.cpp:454] fc7 <- fc6
I0823 13:50:55.907831 23070 net.cpp:411] fc7 -> fc7
I0823 13:50:56.004616 23070 net.cpp:150] Setting up fc7
I0823 13:50:56.004667 23070 net.cpp:157] Top shape: 1 4096 (4096)
I0823 13:50:56.004670 23070 net.cpp:165] Memory required for data: 1423440112
I0823 13:50:56.004681 23070 layer_factory.hpp:77] Creating layer relu7
I0823 13:50:56.004693 23070 net.cpp:106] Creating Layer relu7
I0823 13:50:56.004698 23070 net.cpp:454] relu7 <- fc7
I0823 13:50:56.004708 23070 net.cpp:397] relu7 -> fc7 (in-place)
I0823 13:50:56.005477 23070 net.cpp:150] Setting up relu7
I0823 13:50:56.005492 23070 net.cpp:157] Top shape: 1 4096 (4096)
I0823 13:50:56.005496 23070 net.cpp:165] Memory required for data: 1423456496
I0823 13:50:56.005499 23070 layer_factory.hpp:77] Creating layer drop7
I0823 13:50:56.005508 23070 net.cpp:106] Creating Layer drop7
I0823 13:50:56.005511 23070 net.cpp:454] drop7 <- fc7
I0823 13:50:56.005518 23070 net.cpp:397] drop7 -> fc7 (in-place)
I0823 13:50:56.005573 23070 net.cpp:150] Setting up drop7
I0823 13:50:56.005581 23070 net.cpp:157] Top shape: 1 4096 (4096)
I0823 13:50:56.005584 23070 net.cpp:165] Memory required for data: 1423472880
I0823 13:50:56.005587 23070 layer_factory.hpp:77] Creating layer fc7_drop7_0_split
I0823 13:50:56.005594 23070 net.cpp:106] Creating Layer fc7_drop7_0_split
I0823 13:50:56.005599 23070 net.cpp:454] fc7_drop7_0_split <- fc7
I0823 13:50:56.005605 23070 net.cpp:411] fc7_drop7_0_split -> fc7_drop7_0_split_0
I0823 13:50:56.005614 23070 net.cpp:411] fc7_drop7_0_split -> fc7_drop7_0_split_1
I0823 13:50:56.005625 23070 net.cpp:411] fc7_drop7_0_split -> fc7_drop7_0_split_2
I0823 13:50:56.005759 23070 net.cpp:150] Setting up fc7_drop7_0_split
I0823 13:50:56.005767 23070 net.cpp:157] Top shape: 1 4096 (4096)
I0823 13:50:56.005771 23070 net.cpp:157] Top shape: 1 4096 (4096)
I0823 13:50:56.005775 23070 net.cpp:157] Top shape: 1 4096 (4096)
I0823 13:50:56.005779 23070 net.cpp:165] Memory required for data: 1423522032
I0823 13:50:56.005781 23070 layer_factory.hpp:77] Creating layer cls_score
I0823 13:50:56.005795 23070 net.cpp:106] Creating Layer cls_score
I0823 13:50:56.005800 23070 net.cpp:454] cls_score <- fc7_drop7_0_split_0
I0823 13:50:56.005807 23070 net.cpp:411] cls_score -> cls_score
I0823 13:50:56.007125 23070 net.cpp:150] Setting up cls_score
I0823 13:50:56.007136 23070 net.cpp:157] Top shape: 1 21 (21)
I0823 13:50:56.007139 23070 net.cpp:165] Memory required for data: 1423522116
I0823 13:50:56.007145 23070 layer_factory.hpp:77] Creating layer bbox_pred
I0823 13:50:56.007155 23070 net.cpp:106] Creating Layer bbox_pred
I0823 13:50:56.007158 23070 net.cpp:454] bbox_pred <- fc7_drop7_0_split_1
I0823 13:50:56.007167 23070 net.cpp:411] bbox_pred -> bbox_pred
I0823 13:50:56.013875 23070 net.cpp:150] Setting up bbox_pred
I0823 13:50:56.013890 23070 net.cpp:157] Top shape: 1 84 (84)
I0823 13:50:56.013900 23070 net.cpp:165] Memory required for data: 1423522452
I0823 13:50:56.013907 23070 layer_factory.hpp:77] Creating layer key_pred
I0823 13:50:56.013916 23070 net.cpp:106] Creating Layer key_pred
I0823 13:50:56.013921 23070 net.cpp:454] key_pred <- fc7_drop7_0_split_2
I0823 13:50:56.013929 23070 net.cpp:411] key_pred -> key_pred
I0823 13:50:56.020581 23070 net.cpp:150] Setting up key_pred
I0823 13:50:56.020596 23070 net.cpp:157] Top shape: 1 84 (84)
I0823 13:50:56.020606 23070 net.cpp:165] Memory required for data: 1423522788
I0823 13:50:56.020613 23070 layer_factory.hpp:77] Creating layer loss_cls
I0823 13:50:56.020637 23070 net.cpp:106] Creating Layer loss_cls
I0823 13:50:56.020642 23070 net.cpp:454] loss_cls <- cls_score
I0823 13:50:56.020651 23070 net.cpp:454] loss_cls <- labels
I0823 13:50:56.020656 23070 net.cpp:411] loss_cls -> loss_cls
…
