…
stepsize: 50000
snapshot: 0
snapshot_prefix: "vgg_cnn_m_1024_faster_rcnn"
average_loss: 100
I0824 17:21:27.998136  6344 solver.cpp:81] Creating training net from train_net file: models/pascal_voc/VGG_CNN_M_1024/key/train.prototxt
I0824 17:21:27.998781  6344 net.cpp:49] Initializing net from parameters: 
name: "VGG_CNN_M_1024"
state {
  phase: TRAIN
}
layer {
  name: "input-data"
  type: "Python"
  top: "data"
  top: "im_info"
  top: "gt_boxes"
  python_param {
    module: "roi_data_layer.layer"
    layer: "RoIDataLayer"
    param_str: "\'num_classes\': 21"
  }
}
layer {
  name: "conv1"
  type: "Convolution"
  bottom: "data"
  top: "conv1"
  param {
    lr_mult: 0
    decay_mult: 0
  }
  param {
    lr_mult: 0
    decay_mult: 0
  }
  convolution_param {
    num_output: 96
    kernel_size: 7
    stride: 2
  }
}
layer {
  name: "relu1"
  type: "ReLU"
  bottom: "conv1"
  top: "conv1"
}
layer {
  name: "norm1"
  type: "LRN"
  bottom: "conv1"
  top: "norm1"
  lrn_param {
    local_size: 5
    alpha: 0.0005
    beta: 0.75
    k: 2
  }
}
layer {
  name: "pool1"
  type: "Pooling"
  bottom: "norm1"
  top: "pool1"
  pooling_param {
    pool: MAX
    kernel_size: 3
    stride: 2
  }
}
layer {
  name: "conv2"
  type: "Convolution"
  bottom: "pool1"
  top: "conv2"
  param {
    lr_mult: 1
  }
  param {
    lr_mult: 2
  }
  convolution_param {
    num_output: 256
    pad: 1
    kernel_size: 5
    stride: 2
  }
}
layer {
  name: "relu2"
  type: "ReLU"
  bottom: "conv2"
  top: "conv2"
}
layer {
  name: "norm2"
  type: "LRN"
  bottom: "conv2"
  top: "norm2"
  lrn_param {
    local_size: 5
    alpha: 0.0005
    beta: 0.75
    k: 2
  }
}
layer {
  name: "pool2"
  type: "Pooling"
  bottom: "norm2"
  top: "pool2"
  pooling_param {
    pool: MAX
    kernel_size: 3
    stride: 2
  }
}
layer {
  name: "conv3"
  type: "Convolution"
  bottom: "pool2"
  top: "conv3"
  param {
    lr_mult: 1
  }
  param {
    lr_mult: 2
  }
  convolution_param {
    num_output: 512
    pad: 1
    kernel_size: 3
  }
}
layer {
  name: "relu3"
  type: "ReLU"
  bottom: "conv3"
  top: "conv3"
}
layer {
  name: "conv4"
  type: "Convolution"
  bottom: "conv3"
  top: "conv4"
  param {
    lr_mult: 1
  }
  param {
    lr_mult: 2
  }
  convolution_param {
    num_output: 512
    pad: 1
    kernel_size: 3
  }
}
layer {
  name: "relu4"
  type: "ReLU"
  bottom: "conv4"
  top: "conv4"
}
layer {
  name: "conv5"
  type: "Convolution"
  bottom: "conv4"
  top: "conv5"
  param {
    lr_mult: 1
  }
  param {
    lr_mult: 2
  }
  convolution_param {
    num_output: 512
    pad: 1
    kernel_size: 3
  }
}
layer {
  name: "relu5"
  type: "ReLU"
  bottom: "conv5"
  top: "conv5"
}
layer {
  name: "rpn_conv/3x3"
  type: "Convolution"
  bottom: "conv5"
  top: "rpn/output"
  param {
    lr_mult: 1
  }
  param {
    lr_mult: 2
  }
  convolution_param {
    num_output: 256
    pad: 1
    kernel_size: 3
    stride: 1
    weight_filler {
      type: "gaussian"
      std: 0.01
    }
    bias_filler {
      type: "constant"
      value: 0
    }
  }
}
layer {
  name: "rpn_relu/3x3"
  type: "ReLU"
  bottom: "rpn/output"
  top: "rpn/output"
}
layer {
  name: "rpn_cls_score"
  type: "Convolution"
  bottom: "rpn/output"
  top: "rpn_cls_score"
  param {
    lr_mult: 1
  }
  param {
    lr_mult: 2
  }
  convolution_param {
    num_output: 18
    pad: 0
    kernel_size: 1
    stride: 1
    weight_filler {
      type: "gaussian"
      std: 0.01
    }
    bias_filler {
      type: "constant"
      value: 0
    }
  }
}
layer {
  name: "rpn_bbox_pred"
  type: "Convolution"
  bottom: "rpn/output"
  top: "rpn_bbox_pred"
  param {
    lr_mult: 1
  }
  param {
    lr_mult: 2
  }
  convolution_param {
    num_output: 36
    pad: 0
    kernel_size: 1
    stride: 1
    weight_filler {
      type: "gaussian"
      std: 0.01
    }
    bias_filler {
      type: "constant"
      value: 0
    }
  }
}
layer {
  name: "rpn_cls_score_reshape"
  type: "Reshape"
  bottom: "rpn_cls_score"
  top: "rpn_cls_score_reshape"
  reshape_param {
    shape {
      dim: 0
      dim: 2
      dim: -1
      dim: 0
    }
  }
}
layer {
  name: "rpn-data"
  type: "Python"
  bottom: "rpn_cls_score"
  bottom: "gt_boxes"
  bottom: "im_info"
  bottom: "data"
  top: "rpn_labels"
  top: "rpn_bbox_targets"
  top: "rpn_bbox_inside_weights"
  top: "rpn_bbox_outside_weights"
  python_param {
    module: "rpn.anchor_target_layer"
    layer: "AnchorTargetLayer"
    param_str: "\'feat_stride\': 16"
  }
}
layer {
  name: "rpn_loss_cls"
  type: "SoftmaxWithLoss"
  bottom: "rpn_cls_score_reshape"
  bottom: "rpn_labels"
  top: "rpn_cls_loss"
  loss_weight: 1
  propagate_down: true
  propagate_down: false
  loss_param {
    ignore_label: -1
    normalize: true
  }
}
layer {
  name: "rpn_loss_bbox"
  type: "SmoothL1Loss"
  bottom: "rpn_bbox_pred"
  bottom: "rpn_bbox_targets"
  bottom: "rpn_bbox_inside_weights"
  bottom: "rpn_bbox_outside_weights"
  top: "rpn_loss_bbox"
  loss_weight: 1
  smooth_l1_loss_param {
    sigma: 3
  }
}
layer {
  name: "rpn_cls_prob"
  type: "Softmax"
  bottom: "rpn_cls_score_reshape"
  top: "rpn_cls_prob"
}
layer {
  name: "rpn_cls_prob_reshape"
  type: "Reshape"
  bottom: "rpn_cls_prob"
  top: "rpn_cls_prob_reshape"
  reshape_param {
    shape {
      dim: 0
      dim: 18
      dim: -1
      dim: 0
    }
  }
}
layer {
  name: "proposal"
  type: "Python"
  bottom: "rpn_cls_prob_reshape"
  bottom: "rpn_bbox_pred"
  bottom: "im_info"
  top: "rpn_rois"
  python_param {
    module: "rpn.proposal_layer"
    layer: "ProposalLayer"
    param_str: "\'feat_stride\': 16"
  }
}
layer {
  name: "roi-data"
  type: "Python"
  bottom: "rpn_rois"
  bottom: "gt_boxes"
  top: "rois"
  top: "labels"
  top: "bbox_targets"
  top: "bbox_inside_weights"
  top: "bbox_outside_weights"
  top: "key_targets"
  top: "key_inside_weights"
  python_param {
    module: "rpn.proposal_target_layer"
    layer: "ProposalTargetLayer"
    param_str: "\'num_classes\': 21"
  }
}
layer {
  name: "roi_pool5"
  type: "ROIPooling"
  bottom: "conv5"
  bottom: "rois"
  top: "pool5"
  roi_pooling_param {
    pooled_h: 6
    pooled_w: 6
    spatial_scale: 0.0625
  }
}
layer {
  name: "fc6"
  type: "InnerProduct"
  bottom: "pool5"
  top: "fc6"
  param {
    lr_mult: 1
  }
  param {
    lr_mult: 2
  }
  inner_product_param {
    num_output: 4096
  }
}
layer {
  name: "relu6"
  type: "ReLU"
  bottom: "fc6"
  top: "fc6"
}
layer {
  name: "drop6"
  type: "Dropout"
  bottom: "fc6"
  top: "fc6"
  dropout_param {
    dropout_ratio: 0.5
  }
}
layer {
  name: "fc7"
  type: "InnerProduct"
  bottom: "fc6"
  top: "fc7"
  param {
    lr_mult: 1
  }
  param {
    lr_mult: 2
  }
  inner_product_param {
    num_output: 1024
  }
}
layer {
  name: "relu7"
  type: "ReLU"
  bottom: "fc7"
  top: "fc7"
}
layer {
  name: "drop7"
  type: "Dropout"
  bottom: "fc7"
  top: "fc7"
  dropout_param {
    dropout_ratio: 0.5
  }
}
layer {
  name: "cls_score"
  type: "InnerProduct"
  bottom: "fc7"
  top: "cls_score"
  param {
    lr_mult: 1
  }
  param {
    lr_mult: 2
  }
  inner_product_param {
    num_output: 21
    weight_filler {
      type: "gaussian"
      std: 0.01
    }
    bias_filler {
      type: "constant"
      value: 0
    }
  }
}
layer {
  name: "bbox_pred"
  type: "InnerProduct"
  bottom: "fc7"
  top: "bbox_pred"
  param {
    lr_mult: 1
  }
  param {
    lr_mult: 2
  }
  inner_product_param {
    num_output: 84
    weight_filler {
      type: "gaussian"
      std: 0.001
    }
    bias_filler {
      type: "constant"
      value: 0
    }
  }
}
layer {
  name: "key_pred"
  type: "InnerProduct"
  bottom: "fc7"
  top: "key_pred"
  param {
    lr_mult: 1
  }
  param {
    lr_mult: 2
  }
  inner_product_param {
    num_output: 84
    weight_filler {
      type: "gaussian"
      std: 0.001
    }
    bias_filler {
      type: "constant"
      value: 0
    }
  }
}
layer {
  name: "loss_cls"
  type: "SoftmaxWithLoss"
  bottom: "cls_score"
  bottom: "labels"
  top: "loss_cls"
  loss_weight: 1
  propagate_down: true
  propagate_down: false
}
layer {
  name: "loss_bbox"
  type: "SmoothL1Loss"
  bottom: "bbox_pred"
  bottom: "bbox_targets"
  bottom: "bbox_inside_weights"
  bottom: "bbox_outside_weights"
  top: "loss_bbox"
  loss_weight: 1
}
layer {
  name: "loss_key"
  type: "SmoothL1Loss"
  bottom: "key_pred"
  bottom: "key_targets"
  bottom: "key_inside_weights"
  bottom: "bbox_outside_weights"
  top: "loss_key"
  loss_weight: 2
}
I0824 17:21:27.999063  6344 layer_factory.hpp:77] Creating layer input-data
I0824 17:21:28.013772  6344 net.cpp:106] Creating Layer input-data
I0824 17:21:28.013813  6344 net.cpp:411] input-data -> data
I0824 17:21:28.013826  6344 net.cpp:411] input-data -> im_info
I0824 17:21:28.013833  6344 net.cpp:411] input-data -> gt_boxes
RoiDataLayer: name_to_top: {'gt_boxes': 2, 'data': 0, 'im_info': 1}
I0824 17:21:28.057858  6344 net.cpp:150] Setting up input-data
I0824 17:21:28.057915  6344 net.cpp:157] Top shape: 1 3 600 1000 (1800000)
I0824 17:21:28.057921  6344 net.cpp:157] Top shape: 1 3 (3)
I0824 17:21:28.057925  6344 net.cpp:157] Top shape: 1 4 (4)
I0824 17:21:28.057927  6344 net.cpp:165] Memory required for data: 7200028
I0824 17:21:28.057939  6344 layer_factory.hpp:77] Creating layer data_input-data_0_split
I0824 17:21:28.057971  6344 net.cpp:106] Creating Layer data_input-data_0_split
I0824 17:21:28.057979  6344 net.cpp:454] data_input-data_0_split <- data
I0824 17:21:28.057991  6344 net.cpp:411] data_input-data_0_split -> data_input-data_0_split_0
I0824 17:21:28.058015  6344 net.cpp:411] data_input-data_0_split -> data_input-data_0_split_1
I0824 17:21:28.058106  6344 net.cpp:150] Setting up data_input-data_0_split
I0824 17:21:28.058122  6344 net.cpp:157] Top shape: 1 3 600 1000 (1800000)
I0824 17:21:28.058130  6344 net.cpp:157] Top shape: 1 3 600 1000 (1800000)
I0824 17:21:28.058132  6344 net.cpp:165] Memory required for data: 21600028
I0824 17:21:28.058138  6344 layer_factory.hpp:77] Creating layer im_info_input-data_1_split
I0824 17:21:28.058151  6344 net.cpp:106] Creating Layer im_info_input-data_1_split
I0824 17:21:28.058156  6344 net.cpp:454] im_info_input-data_1_split <- im_info
I0824 17:21:28.058163  6344 net.cpp:411] im_info_input-data_1_split -> im_info_input-data_1_split_0
I0824 17:21:28.058174  6344 net.cpp:411] im_info_input-data_1_split -> im_info_input-data_1_split_1
I0824 17:21:28.058236  6344 net.cpp:150] Setting up im_info_input-data_1_split
I0824 17:21:28.058244  6344 net.cpp:157] Top shape: 1 3 (3)
I0824 17:21:28.058248  6344 net.cpp:157] Top shape: 1 3 (3)
I0824 17:21:28.058250  6344 net.cpp:165] Memory required for data: 21600052
I0824 17:21:28.058254  6344 layer_factory.hpp:77] Creating layer gt_boxes_input-data_2_split
I0824 17:21:28.058267  6344 net.cpp:106] Creating Layer gt_boxes_input-data_2_split
I0824 17:21:28.058272  6344 net.cpp:454] gt_boxes_input-data_2_split <- gt_boxes
I0824 17:21:28.058282  6344 net.cpp:411] gt_boxes_input-data_2_split -> gt_boxes_input-data_2_split_0
I0824 17:21:28.058290  6344 net.cpp:411] gt_boxes_input-data_2_split -> gt_boxes_input-data_2_split_1
I0824 17:21:28.058351  6344 net.cpp:150] Setting up gt_boxes_input-data_2_split
I0824 17:21:28.058358  6344 net.cpp:157] Top shape: 1 4 (4)
I0824 17:21:28.058362  6344 net.cpp:157] Top shape: 1 4 (4)
I0824 17:21:28.058364  6344 net.cpp:165] Memory required for data: 21600084
I0824 17:21:28.058368  6344 layer_factory.hpp:77] Creating layer conv1
I0824 17:21:28.058399  6344 net.cpp:106] Creating Layer conv1
I0824 17:21:28.058408  6344 net.cpp:454] conv1 <- data_input-data_0_split_0
I0824 17:21:28.058418  6344 net.cpp:411] conv1 -> conv1
I0824 17:21:28.425484  6344 net.cpp:150] Setting up conv1
I0824 17:21:28.425539  6344 net.cpp:157] Top shape: 1 96 297 497 (14170464)
I0824 17:21:28.425542  6344 net.cpp:165] Memory required for data: 78281940
I0824 17:21:28.425559  6344 layer_factory.hpp:77] Creating layer relu1
I0824 17:21:28.425571  6344 net.cpp:106] Creating Layer relu1
I0824 17:21:28.425576  6344 net.cpp:454] relu1 <- conv1
I0824 17:21:28.425583  6344 net.cpp:397] relu1 -> conv1 (in-place)
I0824 17:21:28.426131  6344 net.cpp:150] Setting up relu1
I0824 17:21:28.426146  6344 net.cpp:157] Top shape: 1 96 297 497 (14170464)
I0824 17:21:28.426149  6344 net.cpp:165] Memory required for data: 134963796
I0824 17:21:28.426153  6344 layer_factory.hpp:77] Creating layer norm1
I0824 17:21:28.426163  6344 net.cpp:106] Creating Layer norm1
I0824 17:21:28.426167  6344 net.cpp:454] norm1 <- conv1
I0824 17:21:28.426174  6344 net.cpp:411] norm1 -> norm1
I0824 17:21:28.427366  6344 net.cpp:150] Setting up norm1
I0824 17:21:28.427378  6344 net.cpp:157] Top shape: 1 96 297 497 (14170464)
I0824 17:21:28.427382  6344 net.cpp:165] Memory required for data: 191645652
I0824 17:21:28.427386  6344 layer_factory.hpp:77] Creating layer pool1
I0824 17:21:28.427393  6344 net.cpp:106] Creating Layer pool1
I0824 17:21:28.427397  6344 net.cpp:454] pool1 <- norm1
I0824 17:21:28.427402  6344 net.cpp:411] pool1 -> pool1
I0824 17:21:28.427461  6344 net.cpp:150] Setting up pool1
I0824 17:21:28.427469  6344 net.cpp:157] Top shape: 1 96 148 248 (3523584)
I0824 17:21:28.427472  6344 net.cpp:165] Memory required for data: 205739988
I0824 17:21:28.427474  6344 layer_factory.hpp:77] Creating layer conv2
I0824 17:21:28.427489  6344 net.cpp:106] Creating Layer conv2
I0824 17:21:28.427495  6344 net.cpp:454] conv2 <- pool1
I0824 17:21:28.427501  6344 net.cpp:411] conv2 -> conv2
I0824 17:21:28.435997  6344 net.cpp:150] Setting up conv2
I0824 17:21:28.436051  6344 net.cpp:157] Top shape: 1 256 73 123 (2298624)
I0824 17:21:28.436055  6344 net.cpp:165] Memory required for data: 214934484
I0824 17:21:28.436074  6344 layer_factory.hpp:77] Creating layer relu2
I0824 17:21:28.436087  6344 net.cpp:106] Creating Layer relu2
I0824 17:21:28.436092  6344 net.cpp:454] relu2 <- conv2
I0824 17:21:28.436101  6344 net.cpp:397] relu2 -> conv2 (in-place)
I0824 17:21:28.436911  6344 net.cpp:150] Setting up relu2
I0824 17:21:28.436933  6344 net.cpp:157] Top shape: 1 256 73 123 (2298624)
I0824 17:21:28.436935  6344 net.cpp:165] Memory required for data: 224128980
I0824 17:21:28.436939  6344 layer_factory.hpp:77] Creating layer norm2
I0824 17:21:28.436950  6344 net.cpp:106] Creating Layer norm2
I0824 17:21:28.436954  6344 net.cpp:454] norm2 <- conv2
I0824 17:21:28.436964  6344 net.cpp:411] norm2 -> norm2
I0824 17:21:28.437971  6344 net.cpp:150] Setting up norm2
I0824 17:21:28.438001  6344 net.cpp:157] Top shape: 1 256 73 123 (2298624)
I0824 17:21:28.438004  6344 net.cpp:165] Memory required for data: 233323476
I0824 17:21:28.438019  6344 layer_factory.hpp:77] Creating layer pool2
I0824 17:21:28.438027  6344 net.cpp:106] Creating Layer pool2
I0824 17:21:28.438030  6344 net.cpp:454] pool2 <- norm2
I0824 17:21:28.438038  6344 net.cpp:411] pool2 -> pool2
I0824 17:21:28.438097  6344 net.cpp:150] Setting up pool2
I0824 17:21:28.438105  6344 net.cpp:157] Top shape: 1 256 36 61 (562176)
I0824 17:21:28.438108  6344 net.cpp:165] Memory required for data: 235572180
I0824 17:21:28.438110  6344 layer_factory.hpp:77] Creating layer conv3
I0824 17:21:28.438127  6344 net.cpp:106] Creating Layer conv3
I0824 17:21:28.438133  6344 net.cpp:454] conv3 <- pool2
I0824 17:21:28.438139  6344 net.cpp:411] conv3 -> conv3
I0824 17:21:28.452883  6344 net.cpp:150] Setting up conv3
I0824 17:21:28.452932  6344 net.cpp:157] Top shape: 1 512 36 61 (1124352)
I0824 17:21:28.452935  6344 net.cpp:165] Memory required for data: 240069588
I0824 17:21:28.452952  6344 layer_factory.hpp:77] Creating layer relu3
I0824 17:21:28.452965  6344 net.cpp:106] Creating Layer relu3
I0824 17:21:28.452970  6344 net.cpp:454] relu3 <- conv3
I0824 17:21:28.452976  6344 net.cpp:397] relu3 -> conv3 (in-place)
I0824 17:21:28.453181  6344 net.cpp:150] Setting up relu3
I0824 17:21:28.453192  6344 net.cpp:157] Top shape: 1 512 36 61 (1124352)
I0824 17:21:28.453196  6344 net.cpp:165] Memory required for data: 244566996
I0824 17:21:28.453199  6344 layer_factory.hpp:77] Creating layer conv4
I0824 17:21:28.453210  6344 net.cpp:106] Creating Layer conv4
I0824 17:21:28.453215  6344 net.cpp:454] conv4 <- conv3
I0824 17:21:28.453222  6344 net.cpp:411] conv4 -> conv4
I0824 17:21:28.471971  6344 net.cpp:150] Setting up conv4
I0824 17:21:28.472023  6344 net.cpp:157] Top shape: 1 512 36 61 (1124352)
I0824 17:21:28.472026  6344 net.cpp:165] Memory required for data: 249064404
I0824 17:21:28.472038  6344 layer_factory.hpp:77] Creating layer relu4
I0824 17:21:28.472049  6344 net.cpp:106] Creating Layer relu4
I0824 17:21:28.472054  6344 net.cpp:454] relu4 <- conv4
I0824 17:21:28.472061  6344 net.cpp:397] relu4 -> conv4 (in-place)
I0824 17:21:28.473327  6344 net.cpp:150] Setting up relu4
I0824 17:21:28.473356  6344 net.cpp:157] Top shape: 1 512 36 61 (1124352)
I0824 17:21:28.473361  6344 net.cpp:165] Memory required for data: 253561812
I0824 17:21:28.473363  6344 layer_factory.hpp:77] Creating layer conv5
I0824 17:21:28.473381  6344 net.cpp:106] Creating Layer conv5
I0824 17:21:28.473384  6344 net.cpp:454] conv5 <- conv4
I0824 17:21:28.473392  6344 net.cpp:411] conv5 -> conv5
I0824 17:21:28.490618  6344 net.cpp:150] Setting up conv5
I0824 17:21:28.490670  6344 net.cpp:157] Top shape: 1 512 36 61 (1124352)
I0824 17:21:28.490674  6344 net.cpp:165] Memory required for data: 258059220
I0824 17:21:28.490691  6344 layer_factory.hpp:77] Creating layer relu5
I0824 17:21:28.490703  6344 net.cpp:106] Creating Layer relu5
I0824 17:21:28.490707  6344 net.cpp:454] relu5 <- conv5
I0824 17:21:28.490715  6344 net.cpp:397] relu5 -> conv5 (in-place)
I0824 17:21:28.491232  6344 net.cpp:150] Setting up relu5
I0824 17:21:28.491243  6344 net.cpp:157] Top shape: 1 512 36 61 (1124352)
I0824 17:21:28.491246  6344 net.cpp:165] Memory required for data: 262556628
I0824 17:21:28.491250  6344 layer_factory.hpp:77] Creating layer conv5_relu5_0_split
I0824 17:21:28.491257  6344 net.cpp:106] Creating Layer conv5_relu5_0_split
I0824 17:21:28.491262  6344 net.cpp:454] conv5_relu5_0_split <- conv5
I0824 17:21:28.491269  6344 net.cpp:411] conv5_relu5_0_split -> conv5_relu5_0_split_0
I0824 17:21:28.491277  6344 net.cpp:411] conv5_relu5_0_split -> conv5_relu5_0_split_1
I0824 17:21:28.491349  6344 net.cpp:150] Setting up conv5_relu5_0_split
I0824 17:21:28.491358  6344 net.cpp:157] Top shape: 1 512 36 61 (1124352)
I0824 17:21:28.491360  6344 net.cpp:157] Top shape: 1 512 36 61 (1124352)
I0824 17:21:28.491364  6344 net.cpp:165] Memory required for data: 271551444
I0824 17:21:28.491366  6344 layer_factory.hpp:77] Creating layer rpn_conv/3x3
I0824 17:21:28.491380  6344 net.cpp:106] Creating Layer rpn_conv/3x3
I0824 17:21:28.491385  6344 net.cpp:454] rpn_conv/3x3 <- conv5_relu5_0_split_0
I0824 17:21:28.491394  6344 net.cpp:411] rpn_conv/3x3 -> rpn/output
I0824 17:21:28.513123  6344 net.cpp:150] Setting up rpn_conv/3x3
I0824 17:21:28.513164  6344 net.cpp:157] Top shape: 1 256 36 61 (562176)
I0824 17:21:28.513167  6344 net.cpp:165] Memory required for data: 273800148
I0824 17:21:28.513178  6344 layer_factory.hpp:77] Creating layer rpn_relu/3x3
I0824 17:21:28.513190  6344 net.cpp:106] Creating Layer rpn_relu/3x3
I0824 17:21:28.513195  6344 net.cpp:454] rpn_relu/3x3 <- rpn/output
I0824 17:21:28.513203  6344 net.cpp:397] rpn_relu/3x3 -> rpn/output (in-place)
I0824 17:21:28.513731  6344 net.cpp:150] Setting up rpn_relu/3x3
I0824 17:21:28.513744  6344 net.cpp:157] Top shape: 1 256 36 61 (562176)
I0824 17:21:28.513747  6344 net.cpp:165] Memory required for data: 276048852
I0824 17:21:28.513751  6344 layer_factory.hpp:77] Creating layer rpn/output_rpn_relu/3x3_0_split
I0824 17:21:28.513758  6344 net.cpp:106] Creating Layer rpn/output_rpn_relu/3x3_0_split
I0824 17:21:28.513761  6344 net.cpp:454] rpn/output_rpn_relu/3x3_0_split <- rpn/output
I0824 17:21:28.513769  6344 net.cpp:411] rpn/output_rpn_relu/3x3_0_split -> rpn/output_rpn_relu/3x3_0_split_0
I0824 17:21:28.513777  6344 net.cpp:411] rpn/output_rpn_relu/3x3_0_split -> rpn/output_rpn_relu/3x3_0_split_1
I0824 17:21:28.513849  6344 net.cpp:150] Setting up rpn/output_rpn_relu/3x3_0_split
I0824 17:21:28.513856  6344 net.cpp:157] Top shape: 1 256 36 61 (562176)
I0824 17:21:28.513860  6344 net.cpp:157] Top shape: 1 256 36 61 (562176)
I0824 17:21:28.513864  6344 net.cpp:165] Memory required for data: 280546260
I0824 17:21:28.513865  6344 layer_factory.hpp:77] Creating layer rpn_cls_score
I0824 17:21:28.513880  6344 net.cpp:106] Creating Layer rpn_cls_score
I0824 17:21:28.513883  6344 net.cpp:454] rpn_cls_score <- rpn/output_rpn_relu/3x3_0_split_0
I0824 17:21:28.513890  6344 net.cpp:411] rpn_cls_score -> rpn_cls_score
I0824 17:21:28.516711  6344 net.cpp:150] Setting up rpn_cls_score
I0824 17:21:28.516731  6344 net.cpp:157] Top shape: 1 18 36 61 (39528)
I0824 17:21:28.516734  6344 net.cpp:165] Memory required for data: 280704372
I0824 17:21:28.516742  6344 layer_factory.hpp:77] Creating layer rpn_cls_score_rpn_cls_score_0_split
I0824 17:21:28.516752  6344 net.cpp:106] Creating Layer rpn_cls_score_rpn_cls_score_0_split
I0824 17:21:28.516754  6344 net.cpp:454] rpn_cls_score_rpn_cls_score_0_split <- rpn_cls_score
I0824 17:21:28.516762  6344 net.cpp:411] rpn_cls_score_rpn_cls_score_0_split -> rpn_cls_score_rpn_cls_score_0_split_0
I0824 17:21:28.516769  6344 net.cpp:411] rpn_cls_score_rpn_cls_score_0_split -> rpn_cls_score_rpn_cls_score_0_split_1
I0824 17:21:28.516830  6344 net.cpp:150] Setting up rpn_cls_score_rpn_cls_score_0_split
I0824 17:21:28.516839  6344 net.cpp:157] Top shape: 1 18 36 61 (39528)
I0824 17:21:28.516842  6344 net.cpp:157] Top shape: 1 18 36 61 (39528)
I0824 17:21:28.516844  6344 net.cpp:165] Memory required for data: 281020596
I0824 17:21:28.516847  6344 layer_factory.hpp:77] Creating layer rpn_bbox_pred
I0824 17:21:28.516860  6344 net.cpp:106] Creating Layer rpn_bbox_pred
I0824 17:21:28.516866  6344 net.cpp:454] rpn_bbox_pred <- rpn/output_rpn_relu/3x3_0_split_1
I0824 17:21:28.516873  6344 net.cpp:411] rpn_bbox_pred -> rpn_bbox_pred
I0824 17:21:28.521478  6344 net.cpp:150] Setting up rpn_bbox_pred
I0824 17:21:28.521517  6344 net.cpp:157] Top shape: 1 36 36 61 (79056)
I0824 17:21:28.521519  6344 net.cpp:165] Memory required for data: 281336820
I0824 17:21:28.521530  6344 layer_factory.hpp:77] Creating layer rpn_bbox_pred_rpn_bbox_pred_0_split
I0824 17:21:28.521541  6344 net.cpp:106] Creating Layer rpn_bbox_pred_rpn_bbox_pred_0_split
I0824 17:21:28.521546  6344 net.cpp:454] rpn_bbox_pred_rpn_bbox_pred_0_split <- rpn_bbox_pred
I0824 17:21:28.521556  6344 net.cpp:411] rpn_bbox_pred_rpn_bbox_pred_0_split -> rpn_bbox_pred_rpn_bbox_pred_0_split_0
I0824 17:21:28.521566  6344 net.cpp:411] rpn_bbox_pred_rpn_bbox_pred_0_split -> rpn_bbox_pred_rpn_bbox_pred_0_split_1
I0824 17:21:28.521632  6344 net.cpp:150] Setting up rpn_bbox_pred_rpn_bbox_pred_0_split
I0824 17:21:28.521641  6344 net.cpp:157] Top shape: 1 36 36 61 (79056)
I0824 17:21:28.521644  6344 net.cpp:157] Top shape: 1 36 36 61 (79056)
I0824 17:21:28.521647  6344 net.cpp:165] Memory required for data: 281969268
I0824 17:21:28.521651  6344 layer_factory.hpp:77] Creating layer rpn_cls_score_reshape
I0824 17:21:28.521658  6344 net.cpp:106] Creating Layer rpn_cls_score_reshape
I0824 17:21:28.521661  6344 net.cpp:454] rpn_cls_score_reshape <- rpn_cls_score_rpn_cls_score_0_split_0
I0824 17:21:28.521668  6344 net.cpp:411] rpn_cls_score_reshape -> rpn_cls_score_reshape
I0824 17:21:28.521706  6344 net.cpp:150] Setting up rpn_cls_score_reshape
I0824 17:21:28.521713  6344 net.cpp:157] Top shape: 1 2 324 61 (39528)
I0824 17:21:28.521716  6344 net.cpp:165] Memory required for data: 282127380
I0824 17:21:28.521719  6344 layer_factory.hpp:77] Creating layer rpn_cls_score_reshape_rpn_cls_score_reshape_0_split
I0824 17:21:28.521725  6344 net.cpp:106] Creating Layer rpn_cls_score_reshape_rpn_cls_score_reshape_0_split
I0824 17:21:28.521728  6344 net.cpp:454] rpn_cls_score_reshape_rpn_cls_score_reshape_0_split <- rpn_cls_score_reshape
I0824 17:21:28.521734  6344 net.cpp:411] rpn_cls_score_reshape_rpn_cls_score_reshape_0_split -> rpn_cls_score_reshape_rpn_cls_score_reshape_0_split_0
I0824 17:21:28.521741  6344 net.cpp:411] rpn_cls_score_reshape_rpn_cls_score_reshape_0_split -> rpn_cls_score_reshape_rpn_cls_score_reshape_0_split_1
I0824 17:21:28.521793  6344 net.cpp:150] Setting up rpn_cls_score_reshape_rpn_cls_score_reshape_0_split
I0824 17:21:28.521801  6344 net.cpp:157] Top shape: 1 2 324 61 (39528)
I0824 17:21:28.521806  6344 net.cpp:157] Top shape: 1 2 324 61 (39528)
I0824 17:21:28.521807  6344 net.cpp:165] Memory required for data: 282443604
I0824 17:21:28.521811  6344 layer_factory.hpp:77] Creating layer rpn-data
I0824 17:21:28.522388  6344 net.cpp:106] Creating Layer rpn-data
I0824 17:21:28.522402  6344 net.cpp:454] rpn-data <- rpn_cls_score_rpn_cls_score_0_split_1
I0824 17:21:28.522408  6344 net.cpp:454] rpn-data <- gt_boxes_input-data_2_split_0
I0824 17:21:28.522413  6344 net.cpp:454] rpn-data <- im_info_input-data_1_split_0
I0824 17:21:28.522416  6344 net.cpp:454] rpn-data <- data_input-data_0_split_1
I0824 17:21:28.522423  6344 net.cpp:411] rpn-data -> rpn_labels
I0824 17:21:28.522439  6344 net.cpp:411] rpn-data -> rpn_bbox_targets
I0824 17:21:28.522447  6344 net.cpp:411] rpn-data -> rpn_bbox_inside_weights
I0824 17:21:28.522456  6344 net.cpp:411] rpn-data -> rpn_bbox_outside_weights
I0824 17:21:28.526983  6344 net.cpp:150] Setting up rpn-data
I0824 17:21:28.527014  6344 net.cpp:157] Top shape: 1 1 324 61 (19764)
I0824 17:21:28.527017  6344 net.cpp:157] Top shape: 1 36 36 61 (79056)
I0824 17:21:28.527021  6344 net.cpp:157] Top shape: 1 36 36 61 (79056)
I0824 17:21:28.527025  6344 net.cpp:157] Top shape: 1 36 36 61 (79056)
I0824 17:21:28.527027  6344 net.cpp:165] Memory required for data: 283471332
I0824 17:21:28.527032  6344 layer_factory.hpp:77] Creating layer rpn_loss_cls
I0824 17:21:28.527045  6344 net.cpp:106] Creating Layer rpn_loss_cls
I0824 17:21:28.527050  6344 net.cpp:454] rpn_loss_cls <- rpn_cls_score_reshape_rpn_cls_score_reshape_0_split_0
I0824 17:21:28.527056  6344 net.cpp:454] rpn_loss_cls <- rpn_labels
…
I0824 17:21:28.528928  6344 net.cpp:157] Top shape: (1)
I0824 17:21:28.528931  6344 net.cpp:160]     with loss weight 1
I0824 17:21:28.528939  6344 net.cpp:165] Memory required for data: 283471340
I0824 17:21:28.528941  6344 layer_factory.hpp:77] Creating layer rpn_cls_prob
I0824 17:21:28.528949  6344 net.cpp:106] Creating Layer rpn_cls_prob
I0824 17:21:28.528951  6344 net.cpp:454] rpn_cls_prob <- rpn_cls_score_reshape_rpn_cls_score_reshape_0_split_1
I0824 17:21:28.528957  6344 net.cpp:411] rpn_cls_prob -> rpn_cls_prob
I0824 17:21:28.529265  6344 net.cpp:150] Setting up rpn_cls_prob
I0824 17:21:28.529275  6344 net.cpp:157] Top shape: 1 2 324 61 (39528)
I0824 17:21:28.529278  6344 net.cpp:165] Memory required for data: 283629452
I0824 17:21:28.529281  6344 layer_factory.hpp:77] Creating layer rpn_cls_prob_reshape
I0824 17:21:28.529299  6344 net.cpp:106] Creating Layer rpn_cls_prob_reshape
I0824 17:21:28.529302  6344 net.cpp:454] rpn_cls_prob_reshape <- rpn_cls_prob
I0824 17:21:28.529309  6344 net.cpp:411] rpn_cls_prob_reshape -> rpn_cls_prob_reshape
I0824 17:21:28.529357  6344 net.cpp:150] Setting up rpn_cls_prob_reshape
I0824 17:21:28.529366  6344 net.cpp:157] Top shape: 1 18 36 61 (39528)
I0824 17:21:28.529368  6344 net.cpp:165] Memory required for data: 283787564
I0824 17:21:28.529371  6344 layer_factory.hpp:77] Creating layer proposal
I0824 17:21:28.541508  6344 net.cpp:106] Creating Layer proposal
I0824 17:21:28.541546  6344 net.cpp:454] proposal <- rpn_cls_prob_reshape
I0824 17:21:28.541555  6344 net.cpp:454] proposal <- rpn_bbox_pred_rpn_bbox_pred_0_split_1
I0824 17:21:28.541560  6344 net.cpp:454] proposal <- im_info_input-data_1_split_1
I0824 17:21:28.541568  6344 net.cpp:411] proposal -> rpn_rois
I0824 17:21:28.547300  6344 net.cpp:150] Setting up proposal
I0824 17:21:28.547332  6344 net.cpp:157] Top shape: 1 5 (5)
I0824 17:21:28.547334  6344 net.cpp:165] Memory required for data: 283787584
I0824 17:21:28.547340  6344 layer_factory.hpp:77] Creating layer roi-data
I0824 17:21:28.547582  6344 net.cpp:106] Creating Layer roi-data
I0824 17:21:28.547595  6344 net.cpp:454] roi-data <- rpn_rois
I0824 17:21:28.547602  6344 net.cpp:454] roi-data <- gt_boxes_input-data_2_split_1
I0824 17:21:28.547611  6344 net.cpp:411] roi-data -> rois
I0824 17:21:28.547622  6344 net.cpp:411] roi-data -> labels
I0824 17:21:28.547631  6344 net.cpp:411] roi-data -> bbox_targets
I0824 17:21:28.547641  6344 net.cpp:411] roi-data -> bbox_inside_weights
I0824 17:21:28.547651  6344 net.cpp:411] roi-data -> bbox_outside_weights
I0824 17:21:28.547659  6344 net.cpp:411] roi-data -> key_targets
I0824 17:21:28.547668  6344 net.cpp:411] roi-data -> key_inside_weights
I0824 17:21:28.548308  6344 net.cpp:150] Setting up roi-data
I0824 17:21:28.548323  6344 net.cpp:157] Top shape: 1 5 (5)
I0824 17:21:28.548331  6344 net.cpp:157] Top shape: 1 1 (1)
I0824 17:21:28.548333  6344 net.cpp:157] Top shape: 1 84 (84)
I0824 17:21:28.548336  6344 net.cpp:157] Top shape: 1 84 (84)
I0824 17:21:28.548339  6344 net.cpp:157] Top shape: 1 84 (84)
I0824 17:21:28.548342  6344 net.cpp:157] Top shape: 1 84 (84)
I0824 17:21:28.548346  6344 net.cpp:157] Top shape: 1 84 (84)
I0824 17:21:28.548347  6344 net.cpp:165] Memory required for data: 283789288
I0824 17:21:28.548352  6344 layer_factory.hpp:77] Creating layer bbox_outside_weights_roi-data_4_split
I0824 17:21:28.548358  6344 net.cpp:106] Creating Layer bbox_outside_weights_roi-data_4_split
I0824 17:21:28.548362  6344 net.cpp:454] bbox_outside_weights_roi-data_4_split <- bbox_outside_weights
I0824 17:21:28.548368  6344 net.cpp:411] bbox_outside_weights_roi-data_4_split -> bbox_outside_weights_roi-data_4_split_0
I0824 17:21:28.548375  6344 net.cpp:411] bbox_outside_weights_roi-data_4_split -> bbox_outside_weights_roi-data_4_split_1
I0824 17:21:28.548437  6344 net.cpp:150] Setting up bbox_outside_weights_roi-data_4_split
I0824 17:21:28.548444  6344 net.cpp:157] Top shape: 1 84 (84)
I0824 17:21:28.548449  6344 net.cpp:157] Top shape: 1 84 (84)
I0824 17:21:28.548450  6344 net.cpp:165] Memory required for data: 283789960
I0824 17:21:28.548454  6344 layer_factory.hpp:77] Creating layer roi_pool5
I0824 17:21:28.548460  6344 net.cpp:106] Creating Layer roi_pool5
I0824 17:21:28.548463  6344 net.cpp:454] roi_pool5 <- conv5_relu5_0_split_1
I0824 17:21:28.548467  6344 net.cpp:454] roi_pool5 <- rois
I0824 17:21:28.548473  6344 net.cpp:411] roi_pool5 -> pool5
I0824 17:21:28.548480  6344 roi_pooling_layer.cpp:30] Spatial scale: 0.0625
I0824 17:21:28.548552  6344 net.cpp:150] Setting up roi_pool5
I0824 17:21:28.548558  6344 net.cpp:157] Top shape: 1 512 6 6 (18432)
I0824 17:21:28.548562  6344 net.cpp:165] Memory required for data: 283863688
I0824 17:21:28.548564  6344 layer_factory.hpp:77] Creating layer fc6
I0824 17:21:28.548573  6344 net.cpp:106] Creating Layer fc6
I0824 17:21:28.548578  6344 net.cpp:454] fc6 <- pool5
I0824 17:21:28.548583  6344 net.cpp:411] fc6 -> fc6
I0824 17:21:29.115346  6344 net.cpp:150] Setting up fc6
I0824 17:21:29.115411  6344 net.cpp:157] Top shape: 1 4096 (4096)
I0824 17:21:29.115417  6344 net.cpp:165] Memory required for data: 283880072
I0824 17:21:29.115445  6344 layer_factory.hpp:77] Creating layer relu6
I0824 17:21:29.115465  6344 net.cpp:106] Creating Layer relu6
I0824 17:21:29.115475  6344 net.cpp:454] relu6 <- fc6
I0824 17:21:29.115489  6344 net.cpp:397] relu6 -> fc6 (in-place)
I0824 17:21:29.116552  6344 net.cpp:150] Setting up relu6
I0824 17:21:29.116593  6344 net.cpp:157] Top shape: 1 4096 (4096)
I0824 17:21:29.116597  6344 net.cpp:165] Memory required for data: 283896456
I0824 17:21:29.116605  6344 layer_factory.hpp:77] Creating layer drop6
I0824 17:21:29.116621  6344 net.cpp:106] Creating Layer drop6
I0824 17:21:29.116626  6344 net.cpp:454] drop6 <- fc6
I0824 17:21:29.116639  6344 net.cpp:397] drop6 -> fc6 (in-place)
I0824 17:21:29.116721  6344 net.cpp:150] Setting up drop6
I0824 17:21:29.116732  6344 net.cpp:157] Top shape: 1 4096 (4096)
I0824 17:21:29.116739  6344 net.cpp:165] Memory required for data: 283912840
I0824 17:21:29.116744  6344 layer_factory.hpp:77] Creating layer fc7
I0824 17:21:29.116760  6344 net.cpp:106] Creating Layer fc7
I0824 17:21:29.116765  6344 net.cpp:454] fc7 <- fc6
I0824 17:21:29.116775  6344 net.cpp:411] fc7 -> fc7
I0824 17:21:29.150418  6344 net.cpp:150] Setting up fc7
I0824 17:21:29.150523  6344 net.cpp:157] Top shape: 1 1024 (1024)
I0824 17:21:29.150537  6344 net.cpp:165] Memory required for data: 283916936
I0824 17:21:29.150579  6344 layer_factory.hpp:77] Creating layer relu7
I0824 17:21:29.150619  6344 net.cpp:106] Creating Layer relu7
I0824 17:21:29.150632  6344 net.cpp:454] relu7 <- fc7
I0824 17:21:29.150662  6344 net.cpp:397] relu7 -> fc7 (in-place)
I0824 17:21:29.151458  6344 net.cpp:150] Setting up relu7
I0824 17:21:29.151495  6344 net.cpp:157] Top shape: 1 1024 (1024)
I0824 17:21:29.151500  6344 net.cpp:165] Memory required for data: 283921032
I0824 17:21:29.151505  6344 layer_factory.hpp:77] Creating layer drop7
I0824 17:21:29.151528  6344 net.cpp:106] Creating Layer drop7
I0824 17:21:29.151540  6344 net.cpp:454] drop7 <- fc7
I0824 17:21:29.151556  6344 net.cpp:397] drop7 -> fc7 (in-place)
I0824 17:21:29.151729  6344 net.cpp:150] Setting up drop7
I0824 17:21:29.151746  6344 net.cpp:157] Top shape: 1 1024 (1024)
I0824 17:21:29.151751  6344 net.cpp:165] Memory required for data: 283925128
I0824 17:21:29.151757  6344 layer_factory.hpp:77] Creating layer fc7_drop7_0_split
I0824 17:21:29.151780  6344 net.cpp:106] Creating Layer fc7_drop7_0_split
I0824 17:21:29.151789  6344 net.cpp:454] fc7_drop7_0_split <- fc7
I0824 17:21:29.151808  6344 net.cpp:411] fc7_drop7_0_split -> fc7_drop7_0_split_0
I0824 17:21:29.151832  6344 net.cpp:411] fc7_drop7_0_split -> fc7_drop7_0_split_1
I0824 17:21:29.151845  6344 net.cpp:411] fc7_drop7_0_split -> fc7_drop7_0_split_2
I0824 17:21:29.152077  6344 net.cpp:150] Setting up fc7_drop7_0_split
I0824 17:21:29.152093  6344 net.cpp:157] Top shape: 1 1024 (1024)
I0824 17:21:29.152099  6344 net.cpp:157] Top shape: 1 1024 (1024)
I0824 17:21:29.152104  6344 net.cpp:157] Top shape: 1 1024 (1024)
I0824 17:21:29.152107  6344 net.cpp:165] Memory required for data: 283937416
I0824 17:21:29.152112  6344 layer_factory.hpp:77] Creating layer cls_score
I0824 17:21:29.152137  6344 net.cpp:106] Creating Layer cls_score
I0824 17:21:29.152144  6344 net.cpp:454] cls_score <- fc7_drop7_0_split_0
I0824 17:21:29.152161  6344 net.cpp:411] cls_score -> cls_score
I0824 17:21:29.153025  6344 net.cpp:150] Setting up cls_score
I0824 17:21:29.153045  6344 net.cpp:157] Top shape: 1 21 (21)
I0824 17:21:29.153049  6344 net.cpp:165] Memory required for data: 283937500
I0824 17:21:29.153061  6344 layer_factory.hpp:77] Creating layer bbox_pred
I0824 17:21:29.153080  6344 net.cpp:106] Creating Layer bbox_pred
I0824 17:21:29.153087  6344 net.cpp:454] bbox_pred <- fc7_drop7_0_split_1
I0824 17:21:29.153105  6344 net.cpp:411] bbox_pred -> bbox_pred
I0824 17:21:29.157932  6344 net.cpp:150] Setting up bbox_pred
I0824 17:21:29.157974  6344 net.cpp:157] Top shape: 1 84 (84)
I0824 17:21:29.157977  6344 net.cpp:165] Memory required for data: 283937836
I0824 17:21:29.157991  6344 layer_factory.hpp:77] Creating layer key_pred
I0824 17:21:29.158005  6344 net.cpp:106] Creating Layer key_pred
I0824 17:21:29.158011  6344 net.cpp:454] key_pred <- fc7_drop7_0_split_2
I0824 17:21:29.158023  6344 net.cpp:411] key_pred -> key_pred
I0824 17:21:29.159690  6344 net.cpp:150] Setting up key_pred
I0824 17:21:29.159705  6344 net.cpp:157] Top shape: 1 84 (84)
I0824 17:21:29.159708  6344 net.cpp:165] Memory required for data: 283938172
I0824 17:21:29.159723  6344 layer_factory.hpp:77] Creating layer loss_cls
I0824 17:21:29.159732  6344 net.cpp:106] Creating Layer loss_cls
I0824 17:21:29.159737  6344 net.cpp:454] loss_cls <- cls_score
I0824 17:21:29.159744  6344 net.cpp:454] loss_cls <- labels
I0824 17:21:29.159754  6344 net.cpp:411] loss_cls -> loss_cls
…
           'RPN_POST_NMS_TOP_N': 2000,
           'RPN_PRE_NMS_TOP_N': 12000,
           'SCALES': [600],
           'SNAPSHOT_INFIX': '',
           'SNAPSHOT_ITERS': 10000,
           'USE_FLIPPED': True,
           'USE_PREFETCH': False},
 'USE_GPU_NMS': True}
WARNING: Logging before InitGoogleLogging() is written to STDERR
I0824 20:28:21.776048 13297 net.cpp:49] Initializing net from parameters: 
name: "VGG_CNN_M_1024"
input: "data"
input: "im_info"
state {
  phase: TEST
}
input_shape {
  dim: 1
  dim: 3
  dim: 224
  dim: 224
}
input_shape {
  dim: 1
  dim: 3
}
layer {
  name: "conv1"
  type: "Convolution"
  bottom: "data"
  top: "conv1"
  param {
    lr_mult: 0
    decay_mult: 0
  }
  param {
    lr_mult: 0
    decay_mult: 0
  }
  convolution_param {
    num_output: 96
    kernel_size: 7
    stride: 2
  }
}
layer {
  name: "relu1"
  type: "ReLU"
  bottom: "conv1"
  top: "conv1"
}
layer {
  name: "norm1"
  type: "LRN"
  bottom: "conv1"
  top: "norm1"
  lrn_param {
    local_size: 5
    alpha: 0.0005
    beta: 0.75
    k: 2
  }
}
layer {
  name: "pool1"
  type: "Pooling"
  bottom: "norm1"
  top: "pool1"
  pooling_param {
    pool: MAX
    kernel_size: 3
    stride: 2
  }
}
layer {
  name: "conv2"
  type: "Convolution"
  bottom: "pool1"
  top: "conv2"
  param {
    lr_mult: 1
    decay_mult: 1
  }
  param {
    lr_mult: 2
    decay_mult: 0
  }
  convolution_param {
    num_output: 256
    pad: 1
    kernel_size: 5
    stride: 2
  }
}
layer {
  name: "relu2"
  type: "ReLU"
  bottom: "conv2"
  top: "conv2"
}
layer {
  name: "norm2"
  type: "LRN"
  bottom: "conv2"
  top: "norm2"
  lrn_param {
    local_size: 5
    alpha: 0.0005
    beta: 0.75
    k: 2
  }
}
layer {
  name: "pool2"
  type: "Pooling"
  bottom: "norm2"
  top: "pool2"
  pooling_param {
    pool: MAX
    kernel_size: 3
    stride: 2
  }
}
layer {
  name: "conv3"
  type: "Convolution"
  bottom: "pool2"
  top: "conv3"
  param {
    lr_mult: 1
    decay_mult: 1
  }
  param {
    lr_mult: 2
    decay_mult: 0
  }
  convolution_param {
    num_output: 512
    pad: 1
    kernel_size: 3
  }
}
layer {
  name: "relu3"
  type: "ReLU"
  bottom: "conv3"
  top: "conv3"
}
layer {
  name: "conv4"
  type: "Convolution"
  bottom: "conv3"
  top: "conv4"
  param {
    lr_mult: 1
    decay_mult: 1
  }
  param {
    lr_mult: 2
    decay_mult: 0
  }
  convolution_param {
    num_output: 512
    pad: 1
    kernel_size: 3
  }
}
layer {
  name: "relu4"
  type: "ReLU"
  bottom: "conv4"
  top: "conv4"
}
layer {
  name: "conv5"
  type: "Convolution"
  bottom: "conv4"
  top: "conv5"
  param {
    lr_mult: 1
    decay_mult: 1
  }
  param {
    lr_mult: 2
    decay_mult: 0
  }
  convolution_param {
    num_output: 512
    pad: 1
    kernel_size: 3
  }
}
layer {
  name: "relu5"
  type: "ReLU"
  bottom: "conv5"
  top: "conv5"
}
layer {
  name: "rpn_conv/3x3"
  type: "Convolution"
  bottom: "conv5"
  top: "rpn/output"
  param {
    lr_mult: 1
    decay_mult: 1
  }
  param {
    lr_mult: 2
    decay_mult: 0
  }
  convolution_param {
    num_output: 256
    pad: 1
    kernel_size: 3
    stride: 1
    weight_filler {
      type: "gaussian"
      std: 0.01
    }
    bias_filler {
      type: "constant"
      value: 0
    }
  }
}
layer {
  name: "rpn_relu/3x3"
  type: "ReLU"
  bottom: "rpn/output"
  top: "rpn/output"
}
layer {
  name: "rpn_cls_score"
  type: "Convolution"
  bottom: "rpn/output"
  top: "rpn_cls_score"
  param {
    lr_mult: 1
    decay_mult: 1
  }
  param {
    lr_mult: 2
    decay_mult: 0
  }
  convolution_param {
    num_output: 18
    pad: 0
    kernel_size: 1
    stride: 1
    weight_filler {
      type: "gaussian"
      std: 0.01
    }
    bias_filler {
      type: "constant"
      value: 0
    }
  }
}
layer {
  name: "rpn_bbox_pred"
  type: "Convolution"
  bottom: "rpn/output"
  top: "rpn_bbox_pred"
  param {
    lr_mult: 1
    decay_mult: 1
  }
  param {
    lr_mult: 2
    decay_mult: 0
  }
  convolution_param {
    num_output: 36
    pad: 0
    kernel_size: 1
    stride: 1
    weight_filler {
      type: "gaussian"
      std: 0.01
    }
    bias_filler {
      type: "constant"
      value: 0
    }
  }
}
layer {
  name: "rpn_cls_score_reshape"
  type: "Reshape"
  bottom: "rpn_cls_score"
  top: "rpn_cls_score_reshape"
  reshape_param {
    shape {
      dim: 0
      dim: 2
      dim: -1
      dim: 0
    }
  }
}
layer {
  name: "rpn_cls_prob"
  type: "Softmax"
  bottom: "rpn_cls_score_reshape"
  top: "rpn_cls_prob"
}
layer {
  name: "rpn_cls_prob_reshape"
  type: "Reshape"
  bottom: "rpn_cls_prob"
  top: "rpn_cls_prob_reshape"
  reshape_param {
    shape {
      dim: 0
      dim: 18
      dim: -1
      dim: 0
    }
  }
}
layer {
  name: "proposal"
  type: "Python"
  bottom: "rpn_cls_prob_reshape"
  bottom: "rpn_bbox_pred"
  bottom: "im_info"
  top: "rois"
  python_param {
    module: "rpn.proposal_layer"
    layer: "ProposalLayer"
    param_str: "\'feat_stride\': 16"
  }
}
layer {
  name: "roi_pool5"
  type: "ROIPooling"
  bottom: "conv5"
  bottom: "rois"
  top: "pool5"
  roi_pooling_param {
    pooled_h: 6
    pooled_w: 6
    spatial_scale: 0.0625
  }
}
layer {
  name: "fc6"
  type: "InnerProduct"
  bottom: "pool5"
  top: "fc6"
  param {
    lr_mult: 1
    decay_mult: 1
  }
  param {
    lr_mult: 2
    decay_mult: 0
  }
  inner_product_param {
    num_output: 4096
  }
}
layer {
  name: "relu6"
  type: "ReLU"
  bottom: "fc6"
  top: "fc6"
}
layer {
  name: "drop6"
  type: "Dropout"
  bottom: "fc6"
  top: "fc6"
  dropout_param {
    dropout_ratio: 0.5
  }
}
layer {
  name: "fc7"
  type: "InnerProduct"
  bottom: "fc6"
  top: "fc7"
  param {
    lr_mult: 1
    decay_mult: 1
  }
  param {
    lr_mult: 2
    decay_mult: 0
  }
  inner_product_param {
    num_output: 1024
  }
}
layer {
  name: "relu7"
  type: "ReLU"
  bottom: "fc7"
  top: "fc7"
}
layer {
  name: "drop7"
  type: "Dropout"
  bottom: "fc7"
  top: "fc7"
  dropout_param {
    dropout_ratio: 0.5
  }
}
layer {
  name: "cls_score"
  type: "InnerProduct"
  bottom: "fc7"
  top: "cls_score"
  param {
    lr_mult: 1
    decay_mult: 1
  }
  param {
    lr_mult: 2
    decay_mult: 0
  }
  inner_product_param {
    num_output: 21
    weight_filler {
      type: "gaussian"
      std: 0.01
    }
    bias_filler {
      type: "constant"
      value: 0
    }
  }
}
layer {
  name: "bbox_pred"
  type: "InnerProduct"
  bottom: "fc7"
  top: "bbox_pred"
  param {
    lr_mult: 1
    decay_mult: 1
  }
  param {
    lr_mult: 2
    decay_mult: 0
  }
  inner_product_param {
    num_output: 84
    weight_filler {
      type: "gaussian"
      std: 0.001
    }
    bias_filler {
      type: "constant"
      value: 0
    }
  }
}
layer {
  name: "key_pred"
  type: "InnerProduct"
  bottom: "fc7"
  top: "key_pred"
  param {
    lr_mult: 1
  }
  param {
    lr_mult: 2
  }
  inner_product_param {
    num_output: 84
    weight_filler {
      type: "gaussian"
      std: 0.001
    }
    bias_filler {
      type: "constant"
      value: 0
    }
  }
}
layer {
  name: "cls_prob"
  type: "Softmax"
  bottom: "cls_score"
  top: "cls_prob"
}
I0824 20:28:21.776278 13297 net.cpp:413] Input 0 -> data
I0824 20:28:21.816056 13297 net.cpp:413] Input 1 -> im_info
I0824 20:28:21.816136 13297 layer_factory.hpp:77] Creating layer conv1
I0824 20:28:21.816160 13297 net.cpp:106] Creating Layer conv1
I0824 20:28:21.816166 13297 net.cpp:454] conv1 <- data
I0824 20:28:21.816176 13297 net.cpp:411] conv1 -> conv1
I0824 20:28:22.226336 13297 net.cpp:150] Setting up conv1
I0824 20:28:22.226382 13297 net.cpp:157] Top shape: 1 96 109 109 (1140576)
I0824 20:28:22.226388 13297 net.cpp:165] Memory required for data: 4562304
I0824 20:28:22.226411 13297 layer_factory.hpp:77] Creating layer relu1
I0824 20:28:22.226428 13297 net.cpp:106] Creating Layer relu1
I0824 20:28:22.226444 13297 net.cpp:454] relu1 <- conv1
I0824 20:28:22.226454 13297 net.cpp:397] relu1 -> conv1 (in-place)
I0824 20:28:22.227123 13297 net.cpp:150] Setting up relu1
I0824 20:28:22.227144 13297 net.cpp:157] Top shape: 1 96 109 109 (1140576)
I0824 20:28:22.227149 13297 net.cpp:165] Memory required for data: 9124608
I0824 20:28:22.227154 13297 layer_factory.hpp:77] Creating layer norm1
I0824 20:28:22.227169 13297 net.cpp:106] Creating Layer norm1
I0824 20:28:22.227174 13297 net.cpp:454] norm1 <- conv1
I0824 20:28:22.227181 13297 net.cpp:411] norm1 -> norm1
I0824 20:28:22.227531 13297 net.cpp:150] Setting up norm1
I0824 20:28:22.227548 13297 net.cpp:157] Top shape: 1 96 109 109 (1140576)
I0824 20:28:22.227560 13297 net.cpp:165] Memory required for data: 13686912
I0824 20:28:22.227566 13297 layer_factory.hpp:77] Creating layer pool1
I0824 20:28:22.227576 13297 net.cpp:106] Creating Layer pool1
I0824 20:28:22.227579 13297 net.cpp:454] pool1 <- norm1
I0824 20:28:22.227587 13297 net.cpp:411] pool1 -> pool1
I0824 20:28:22.227674 13297 net.cpp:150] Setting up pool1
I0824 20:28:22.227686 13297 net.cpp:157] Top shape: 1 96 54 54 (279936)
I0824 20:28:22.227691 13297 net.cpp:165] Memory required for data: 14806656
I0824 20:28:22.227695 13297 layer_factory.hpp:77] Creating layer conv2
I0824 20:28:22.227710 13297 net.cpp:106] Creating Layer conv2
I0824 20:28:22.227716 13297 net.cpp:454] conv2 <- pool1
I0824 20:28:22.227725 13297 net.cpp:411] conv2 -> conv2
I0824 20:28:22.236918 13297 net.cpp:150] Setting up conv2
I0824 20:28:22.236940 13297 net.cpp:157] Top shape: 1 256 26 26 (173056)
I0824 20:28:22.236951 13297 net.cpp:165] Memory required for data: 15498880
I0824 20:28:22.236965 13297 layer_factory.hpp:77] Creating layer relu2
I0824 20:28:22.236974 13297 net.cpp:106] Creating Layer relu2
I0824 20:28:22.236979 13297 net.cpp:454] relu2 <- conv2
I0824 20:28:22.236985 13297 net.cpp:397] relu2 -> conv2 (in-place)
I0824 20:28:22.237618 13297 net.cpp:150] Setting up relu2
I0824 20:28:22.237637 13297 net.cpp:157] Top shape: 1 256 26 26 (173056)
I0824 20:28:22.237643 13297 net.cpp:165] Memory required for data: 16191104
I0824 20:28:22.237646 13297 layer_factory.hpp:77] Creating layer norm2
I0824 20:28:22.237656 13297 net.cpp:106] Creating Layer norm2
I0824 20:28:22.237661 13297 net.cpp:454] norm2 <- conv2
I0824 20:28:22.237669 13297 net.cpp:411] norm2 -> norm2
I0824 20:28:22.238585 13297 net.cpp:150] Setting up norm2
I0824 20:28:22.238601 13297 net.cpp:157] Top shape: 1 256 26 26 (173056)
I0824 20:28:22.238605 13297 net.cpp:165] Memory required for data: 16883328
I0824 20:28:22.238610 13297 layer_factory.hpp:77] Creating layer pool2
I0824 20:28:22.238617 13297 net.cpp:106] Creating Layer pool2
I0824 20:28:22.238622 13297 net.cpp:454] pool2 <- norm2
I0824 20:28:22.238631 13297 net.cpp:411] pool2 -> pool2
I0824 20:28:22.238711 13297 net.cpp:150] Setting up pool2
I0824 20:28:22.238723 13297 net.cpp:157] Top shape: 1 256 13 13 (43264)
I0824 20:28:22.238726 13297 net.cpp:165] Memory required for data: 17056384
I0824 20:28:22.238730 13297 layer_factory.hpp:77] Creating layer conv3
I0824 20:28:22.238742 13297 net.cpp:106] Creating Layer conv3
I0824 20:28:22.238749 13297 net.cpp:454] conv3 <- pool2
I0824 20:28:22.238756 13297 net.cpp:411] conv3 -> conv3
I0824 20:28:22.249153 13297 net.cpp:150] Setting up conv3
I0824 20:28:22.249178 13297 net.cpp:157] Top shape: 1 512 13 13 (86528)
I0824 20:28:22.249189 13297 net.cpp:165] Memory required for data: 17402496
I0824 20:28:22.249205 13297 layer_factory.hpp:77] Creating layer relu3
I0824 20:28:22.249215 13297 net.cpp:106] Creating Layer relu3
I0824 20:28:22.249220 13297 net.cpp:454] relu3 <- conv3
I0824 20:28:22.249228 13297 net.cpp:397] relu3 -> conv3 (in-place)
I0824 20:28:22.249488 13297 net.cpp:150] Setting up relu3
I0824 20:28:22.249503 13297 net.cpp:157] Top shape: 1 512 13 13 (86528)
I0824 20:28:22.249507 13297 net.cpp:165] Memory required for data: 17748608
I0824 20:28:22.249511 13297 layer_factory.hpp:77] Creating layer conv4
I0824 20:28:22.249522 13297 net.cpp:106] Creating Layer conv4
I0824 20:28:22.249529 13297 net.cpp:454] conv4 <- conv3
I0824 20:28:22.249537 13297 net.cpp:411] conv4 -> conv4
I0824 20:28:22.273690 13297 net.cpp:150] Setting up conv4
I0824 20:28:22.273733 13297 net.cpp:157] Top shape: 1 512 13 13 (86528)
I0824 20:28:22.273738 13297 net.cpp:165] Memory required for data: 18094720
I0824 20:28:22.273748 13297 layer_factory.hpp:77] Creating layer relu4
I0824 20:28:22.273759 13297 net.cpp:106] Creating Layer relu4
I0824 20:28:22.273763 13297 net.cpp:454] relu4 <- conv4
I0824 20:28:22.273772 13297 net.cpp:397] relu4 -> conv4 (in-place)
I0824 20:28:22.274543 13297 net.cpp:150] Setting up relu4
I0824 20:28:22.274559 13297 net.cpp:157] Top shape: 1 512 13 13 (86528)
I0824 20:28:22.274564 13297 net.cpp:165] Memory required for data: 18440832
I0824 20:28:22.274567 13297 layer_factory.hpp:77] Creating layer conv5
I0824 20:28:22.274580 13297 net.cpp:106] Creating Layer conv5
I0824 20:28:22.274585 13297 net.cpp:454] conv5 <- conv4
I0824 20:28:22.274593 13297 net.cpp:411] conv5 -> conv5
I0824 20:28:22.291184 13297 net.cpp:150] Setting up conv5
I0824 20:28:22.291219 13297 net.cpp:157] Top shape: 1 512 13 13 (86528)
I0824 20:28:22.291224 13297 net.cpp:165] Memory required for data: 18786944
I0824 20:28:22.291260 13297 layer_factory.hpp:77] Creating layer relu5
I0824 20:28:22.291270 13297 net.cpp:106] Creating Layer relu5
I0824 20:28:22.291273 13297 net.cpp:454] relu5 <- conv5
I0824 20:28:22.291280 13297 net.cpp:397] relu5 -> conv5 (in-place)
I0824 20:28:22.291514 13297 net.cpp:150] Setting up relu5
I0824 20:28:22.291527 13297 net.cpp:157] Top shape: 1 512 13 13 (86528)
I0824 20:28:22.291530 13297 net.cpp:165] Memory required for data: 19133056
I0824 20:28:22.291534 13297 layer_factory.hpp:77] Creating layer conv5_relu5_0_split
I0824 20:28:22.291544 13297 net.cpp:106] Creating Layer conv5_relu5_0_split
I0824 20:28:22.291548 13297 net.cpp:454] conv5_relu5_0_split <- conv5
I0824 20:28:22.291554 13297 net.cpp:411] conv5_relu5_0_split -> conv5_relu5_0_split_0
I0824 20:28:22.291563 13297 net.cpp:411] conv5_relu5_0_split -> conv5_relu5_0_split_1
I0824 20:28:22.291640 13297 net.cpp:150] Setting up conv5_relu5_0_split
I0824 20:28:22.291649 13297 net.cpp:157] Top shape: 1 512 13 13 (86528)
I0824 20:28:22.291654 13297 net.cpp:157] Top shape: 1 512 13 13 (86528)
I0824 20:28:22.291657 13297 net.cpp:165] Memory required for data: 19825280
I0824 20:28:22.291661 13297 layer_factory.hpp:77] Creating layer rpn_conv/3x3
I0824 20:28:22.291676 13297 net.cpp:106] Creating Layer rpn_conv/3x3
I0824 20:28:22.291682 13297 net.cpp:454] rpn_conv/3x3 <- conv5_relu5_0_split_0
I0824 20:28:22.291689 13297 net.cpp:411] rpn_conv/3x3 -> rpn/output
I0824 20:28:22.314412 13297 net.cpp:150] Setting up rpn_conv/3x3
I0824 20:28:22.314431 13297 net.cpp:157] Top shape: 1 256 13 13 (43264)
I0824 20:28:22.314435 13297 net.cpp:165] Memory required for data: 19998336
I0824 20:28:22.314441 13297 layer_factory.hpp:77] Creating layer rpn_relu/3x3
I0824 20:28:22.314460 13297 net.cpp:106] Creating Layer rpn_relu/3x3
I0824 20:28:22.314463 13297 net.cpp:454] rpn_relu/3x3 <- rpn/output
I0824 20:28:22.314469 13297 net.cpp:397] rpn_relu/3x3 -> rpn/output (in-place)
I0824 20:28:22.315022 13297 net.cpp:150] Setting up rpn_relu/3x3
I0824 20:28:22.315037 13297 net.cpp:157] Top shape: 1 256 13 13 (43264)
I0824 20:28:22.315042 13297 net.cpp:165] Memory required for data: 20171392
I0824 20:28:22.315044 13297 layer_factory.hpp:77] Creating layer rpn/output_rpn_relu/3x3_0_split
I0824 20:28:22.315053 13297 net.cpp:106] Creating Layer rpn/output_rpn_relu/3x3_0_split
I0824 20:28:22.315057 13297 net.cpp:454] rpn/output_rpn_relu/3x3_0_split <- rpn/output
I0824 20:28:22.315063 13297 net.cpp:411] rpn/output_rpn_relu/3x3_0_split -> rpn/output_rpn_relu/3x3_0_split_0
I0824 20:28:22.315073 13297 net.cpp:411] rpn/output_rpn_relu/3x3_0_split -> rpn/output_rpn_relu/3x3_0_split_1
I0824 20:28:22.315148 13297 net.cpp:150] Setting up rpn/output_rpn_relu/3x3_0_split
I0824 20:28:22.315160 13297 net.cpp:157] Top shape: 1 256 13 13 (43264)
I0824 20:28:22.315165 13297 net.cpp:157] Top shape: 1 256 13 13 (43264)
I0824 20:28:22.315168 13297 net.cpp:165] Memory required for data: 20517504
I0824 20:28:22.315171 13297 layer_factory.hpp:77] Creating layer rpn_cls_score
I0824 20:28:22.315186 13297 net.cpp:106] Creating Layer rpn_cls_score
I0824 20:28:22.315191 13297 net.cpp:454] rpn_cls_score <- rpn/output_rpn_relu/3x3_0_split_0
I0824 20:28:22.315197 13297 net.cpp:411] rpn_cls_score -> rpn_cls_score
I0824 20:28:22.317865 13297 net.cpp:150] Setting up rpn_cls_score
I0824 20:28:22.317883 13297 net.cpp:157] Top shape: 1 18 13 13 (3042)
I0824 20:28:22.317888 13297 net.cpp:165] Memory required for data: 20529672
I0824 20:28:22.317895 13297 layer_factory.hpp:77] Creating layer rpn_bbox_pred
I0824 20:28:22.317909 13297 net.cpp:106] Creating Layer rpn_bbox_pred
I0824 20:28:22.317914 13297 net.cpp:454] rpn_bbox_pred <- rpn/output_rpn_relu/3x3_0_split_1
I0824 20:28:22.317924 13297 net.cpp:411] rpn_bbox_pred -> rpn_bbox_pred
I0824 20:28:22.328946 13297 net.cpp:150] Setting up rpn_bbox_pred
I0824 20:28:22.328964 13297 net.cpp:157] Top shape: 1 36 13 13 (6084)
I0824 20:28:22.328969 13297 net.cpp:165] Memory required for data: 20554008
I0824 20:28:22.328975 13297 layer_factory.hpp:77] Creating layer rpn_cls_score_reshape
I0824 20:28:22.328985 13297 net.cpp:106] Creating Layer rpn_cls_score_reshape
I0824 20:28:22.328990 13297 net.cpp:454] rpn_cls_score_reshape <- rpn_cls_score
I0824 20:28:22.328996 13297 net.cpp:411] rpn_cls_score_reshape -> rpn_cls_score_reshape
I0824 20:28:22.329052 13297 net.cpp:150] Setting up rpn_cls_score_reshape
I0824 20:28:22.329063 13297 net.cpp:157] Top shape: 1 2 117 13 (3042)
I0824 20:28:22.329066 13297 net.cpp:165] Memory required for data: 20566176
I0824 20:28:22.329069 13297 layer_factory.hpp:77] Creating layer rpn_cls_prob
I0824 20:28:22.329077 13297 net.cpp:106] Creating Layer rpn_cls_prob
I0824 20:28:22.329079 13297 net.cpp:454] rpn_cls_prob <- rpn_cls_score_reshape
I0824 20:28:22.329087 13297 net.cpp:411] rpn_cls_prob -> rpn_cls_prob
I0824 20:28:22.331444 13297 net.cpp:150] Setting up rpn_cls_prob
I0824 20:28:22.331459 13297 net.cpp:157] Top shape: 1 2 117 13 (3042)
I0824 20:28:22.331462 13297 net.cpp:165] Memory required for data: 20578344
I0824 20:28:22.331465 13297 layer_factory.hpp:77] Creating layer rpn_cls_prob_reshape
I0824 20:28:22.331473 13297 net.cpp:106] Creating Layer rpn_cls_prob_reshape
I0824 20:28:22.331476 13297 net.cpp:454] rpn_cls_prob_reshape <- rpn_cls_prob
I0824 20:28:22.331485 13297 net.cpp:411] rpn_cls_prob_reshape -> rpn_cls_prob_reshape
I0824 20:28:22.331531 13297 net.cpp:150] Setting up rpn_cls_prob_reshape
I0824 20:28:22.331539 13297 net.cpp:157] Top shape: 1 18 13 13 (3042)
I0824 20:28:22.331542 13297 net.cpp:165] Memory required for data: 20590512
I0824 20:28:22.331545 13297 layer_factory.hpp:77] Creating layer proposal
I0824 20:28:22.332041 13297 net.cpp:106] Creating Layer proposal
I0824 20:28:22.332054 13297 net.cpp:454] proposal <- rpn_cls_prob_reshape
I0824 20:28:22.332061 13297 net.cpp:454] proposal <- rpn_bbox_pred
I0824 20:28:22.332064 13297 net.cpp:454] proposal <- im_info
I0824 20:28:22.332070 13297 net.cpp:411] proposal -> rois
I0824 20:28:22.332963 13297 net.cpp:150] Setting up proposal
I0824 20:28:22.332980 13297 net.cpp:157] Top shape: 1 5 (5)
I0824 20:28:22.332984 13297 net.cpp:165] Memory required for data: 20590532
I0824 20:28:22.332988 13297 layer_factory.hpp:77] Creating layer roi_pool5
I0824 20:28:22.332995 13297 net.cpp:106] Creating Layer roi_pool5
I0824 20:28:22.332998 13297 net.cpp:454] roi_pool5 <- conv5_relu5_0_split_1
I0824 20:28:22.333003 13297 net.cpp:454] roi_pool5 <- rois
I0824 20:28:22.333009 13297 net.cpp:411] roi_pool5 -> pool5
I0824 20:28:22.333019 13297 roi_pooling_layer.cpp:30] Spatial scale: 0.0625
I0824 20:28:22.333096 13297 net.cpp:150] Setting up roi_pool5
I0824 20:28:22.333103 13297 net.cpp:157] Top shape: 1 512 6 6 (18432)
I0824 20:28:22.333106 13297 net.cpp:165] Memory required for data: 20664260
I0824 20:28:22.333108 13297 layer_factory.hpp:77] Creating layer fc6
I0824 20:28:22.333118 13297 net.cpp:106] Creating Layer fc6
I0824 20:28:22.333122 13297 net.cpp:454] fc6 <- pool5
I0824 20:28:22.333127 13297 net.cpp:411] fc6 -> fc6
I0824 20:28:22.788246 13297 net.cpp:150] Setting up fc6
I0824 20:28:22.788290 13297 net.cpp:157] Top shape: 1 4096 (4096)
I0824 20:28:22.788295 13297 net.cpp:165] Memory required for data: 20680644
I0824 20:28:22.788316 13297 layer_factory.hpp:77] Creating layer relu6
I0824 20:28:22.788328 13297 net.cpp:106] Creating Layer relu6
I0824 20:28:22.788332 13297 net.cpp:454] relu6 <- fc6
I0824 20:28:22.788342 13297 net.cpp:397] relu6 -> fc6 (in-place)
I0824 20:28:22.788651 13297 net.cpp:150] Setting up relu6
I0824 20:28:22.788666 13297 net.cpp:157] Top shape: 1 4096 (4096)
I0824 20:28:22.788669 13297 net.cpp:165] Memory required for data: 20697028
I0824 20:28:22.788672 13297 layer_factory.hpp:77] Creating layer drop6
I0824 20:28:22.788681 13297 net.cpp:106] Creating Layer drop6
I0824 20:28:22.788686 13297 net.cpp:454] drop6 <- fc6
I0824 20:28:22.788692 13297 net.cpp:397] drop6 -> fc6 (in-place)
I0824 20:28:22.788745 13297 net.cpp:150] Setting up drop6
I0824 20:28:22.788755 13297 net.cpp:157] Top shape: 1 4096 (4096)
I0824 20:28:22.788758 13297 net.cpp:165] Memory required for data: 20713412
I0824 20:28:22.788761 13297 layer_factory.hpp:77] Creating layer fc7
I0824 20:28:22.788771 13297 net.cpp:106] Creating Layer fc7
I0824 20:28:22.788774 13297 net.cpp:454] fc7 <- fc6
I0824 20:28:22.788779 13297 net.cpp:411] fc7 -> fc7
I0824 20:28:22.816861 13297 net.cpp:150] Setting up fc7
I0824 20:28:22.816898 13297 net.cpp:157] Top shape: 1 1024 (1024)
I0824 20:28:22.816901 13297 net.cpp:165] Memory required for data: 20717508
I0824 20:28:22.816912 13297 layer_factory.hpp:77] Creating layer relu7
I0824 20:28:22.816923 13297 net.cpp:106] Creating Layer relu7
I0824 20:28:22.816927 13297 net.cpp:454] relu7 <- fc7
I0824 20:28:22.816934 13297 net.cpp:397] relu7 -> fc7 (in-place)
I0824 20:28:22.817620 13297 net.cpp:150] Setting up relu7
I0824 20:28:22.817639 13297 net.cpp:157] Top shape: 1 1024 (1024)
I0824 20:28:22.817642 13297 net.cpp:165] Memory required for data: 20721604
I0824 20:28:22.817646 13297 layer_factory.hpp:77] Creating layer drop7
I0824 20:28:22.817654 13297 net.cpp:106] Creating Layer drop7
I0824 20:28:22.817658 13297 net.cpp:454] drop7 <- fc7
I0824 20:28:22.817663 13297 net.cpp:397] drop7 -> fc7 (in-place)
I0824 20:28:22.817718 13297 net.cpp:150] Setting up drop7
I0824 20:28:22.817728 13297 net.cpp:157] Top shape: 1 1024 (1024)
I0824 20:28:22.817730 13297 net.cpp:165] Memory required for data: 20725700
I0824 20:28:22.817734 13297 layer_factory.hpp:77] Creating layer fc7_drop7_0_split
I0824 20:28:22.817740 13297 net.cpp:106] Creating Layer fc7_drop7_0_split
I0824 20:28:22.817744 13297 net.cpp:454] fc7_drop7_0_split <- fc7
I0824 20:28:22.817751 13297 net.cpp:411] fc7_drop7_0_split -> fc7_drop7_0_split_0
I0824 20:28:22.817760 13297 net.cpp:411] fc7_drop7_0_split -> fc7_drop7_0_split_1
I0824 20:28:22.817767 13297 net.cpp:411] fc7_drop7_0_split -> fc7_drop7_0_split_2
I0824 20:28:22.817869 13297 net.cpp:150] Setting up fc7_drop7_0_split
I0824 20:28:22.817880 13297 net.cpp:157] Top shape: 1 1024 (1024)
I0824 20:28:22.817884 13297 net.cpp:157] Top shape: 1 1024 (1024)
I0824 20:28:22.817888 13297 net.cpp:157] Top shape: 1 1024 (1024)
I0824 20:28:22.817890 13297 net.cpp:165] Memory required for data: 20737988
I0824 20:28:22.817893 13297 layer_factory.hpp:77] Creating layer cls_score
I0824 20:28:22.817914 13297 net.cpp:106] Creating Layer cls_score
I0824 20:28:22.817920 13297 net.cpp:454] cls_score <- fc7_drop7_0_split_0
I0824 20:28:22.817929 13297 net.cpp:411] cls_score -> cls_score
I0824 20:28:22.820518 13297 net.cpp:150] Setting up cls_score
I0824 20:28:22.820533 13297 net.cpp:157] Top shape: 1 21 (21)
I0824 20:28:22.820536 13297 net.cpp:165] Memory required for data: 20738072
I0824 20:28:22.820544 13297 layer_factory.hpp:77] Creating layer bbox_pred
I0824 20:28:22.820555 13297 net.cpp:106] Creating Layer bbox_pred
I0824 20:28:22.820559 13297 net.cpp:454] bbox_pred <- fc7_drop7_0_split_1
I0824 20:28:22.820566 13297 net.cpp:411] bbox_pred -> bbox_pred
I0824 20:28:22.823915 13297 net.cpp:150] Setting up bbox_pred
I0824 20:28:22.823930 13297 net.cpp:157] Top shape: 1 84 (84)
I0824 20:28:22.823932 13297 net.cpp:165] Memory required for data: 20738408
I0824 20:28:22.823940 13297 layer_factory.hpp:77] Creating layer key_pred
I0824 20:28:22.823948 13297 net.cpp:106] Creating Layer key_pred
I0824 20:28:22.823951 13297 net.cpp:454] key_pred <- fc7_drop7_0_split_2
I0824 20:28:22.823961 13297 net.cpp:411] key_pred -> key_pred
I0824 20:28:22.825206 13297 net.cpp:150] Setting up key_pred
I0824 20:28:22.825217 13297 net.cpp:157] Top shape: 1 84 (84)
I0824 20:28:22.825219 13297 net.cpp:165] Memory required for data: 20738744
I0824 20:28:22.825225 13297 layer_factory.hpp:77] Creating layer cls_prob
I0824 20:28:22.825235 13297 net.cpp:106] Creating Layer cls_prob
I0824 20:28:22.825238 13297 net.cpp:454] cls_prob <- cls_score
I0824 20:28:22.825244 13297 net.cpp:411] cls_prob -> cls_prob
I0824 20:28:22.825593 13297 net.cpp:150] Setting up cls_prob
I0824 20:28:22.825605 13297 net.cpp:157] Top shape: 1 21 (21)
I0824 20:28:22.825608 13297 net.cpp:165] Memory required for data: 20738828
I0824 20:28:22.825613 13297 net.cpp:228] cls_prob does not need backward computation.
I0824 20:28:22.825616 13297 net.cpp:228] key_pred does not need backward computation.
I0824 20:28:22.825619 13297 net.cpp:228] bbox_pred does not need backward computation.
I0824 20:28:22.825623 13297 net.cpp:228] cls_score does not need backward computation.
…
