…
stepsize: 50000
snapshot: 0
snapshot_prefix: "key"
average_loss: 100
iter_size: 2
I0822 19:51:02.617091 40535 solver.cpp:81] Creating training net from train_net file: models/pascal_voc/VGG16/key/train.prototxt
I0822 19:51:02.617741 40535 net.cpp:49] Initializing net from parameters: 
name: "VGG_ILSVRC_16_layers"
state {
  phase: TRAIN
}
layer {
  name: "input-data"
  type: "Python"
  top: "data"
  top: "im_info"
  top: "gt_boxes"
  python_param {
    module: "roi_data_layer.layer"
    layer: "RoIDataLayer"
    param_str: "\'num_classes\': 21"
  }
}
layer {
  name: "conv1_1"
  type: "Convolution"
  bottom: "data"
  top: "conv1_1"
  param {
    lr_mult: 0
    decay_mult: 0
  }
  param {
    lr_mult: 0
    decay_mult: 0
  }
  convolution_param {
    num_output: 64
    pad: 1
    kernel_size: 3
  }
}
layer {
  name: "relu1_1"
  type: "ReLU"
  bottom: "conv1_1"
  top: "conv1_1"
}
layer {
  name: "conv1_2"
  type: "Convolution"
  bottom: "conv1_1"
  top: "conv1_2"
  param {
    lr_mult: 0
    decay_mult: 0
  }
  param {
    lr_mult: 0
    decay_mult: 0
  }
  convolution_param {
    num_output: 64
    pad: 1
    kernel_size: 3
  }
}
layer {
  name: "relu1_2"
  type: "ReLU"
  bottom: "conv1_2"
  top: "conv1_2"
}
layer {
  name: "pool1"
  type: "Pooling"
  bottom: "conv1_2"
  top: "pool1"
  pooling_param {
    pool: MAX
    kernel_size: 2
    stride: 2
  }
}
layer {
  name: "conv2_1"
  type: "Convolution"
  bottom: "pool1"
  top: "conv2_1"
  param {
    lr_mult: 0
    decay_mult: 0
  }
  param {
    lr_mult: 0
    decay_mult: 0
  }
  convolution_param {
    num_output: 128
    pad: 1
    kernel_size: 3
  }
}
layer {
  name: "relu2_1"
  type: "ReLU"
  bottom: "conv2_1"
  top: "conv2_1"
}
layer {
  name: "conv2_2"
  type: "Convolution"
  bottom: "conv2_1"
  top: "conv2_2"
  param {
    lr_mult: 0
    decay_mult: 0
  }
  param {
    lr_mult: 0
    decay_mult: 0
  }
  convolution_param {
    num_output: 128
    pad: 1
    kernel_size: 3
  }
}
layer {
  name: "relu2_2"
  type: "ReLU"
  bottom: "conv2_2"
  top: "conv2_2"
}
layer {
  name: "pool2"
  type: "Pooling"
  bottom: "conv2_2"
  top: "pool2"
  pooling_param {
    pool: MAX
    kernel_size: 2
    stride: 2
  }
}
layer {
  name: "conv3_1"
  type: "Convolution"
  bottom: "pool2"
  top: "conv3_1"
  param {
    lr_mult: 1
  }
  param {
    lr_mult: 2
  }
  convolution_param {
    num_output: 256
    pad: 1
    kernel_size: 3
  }
}
layer {
  name: "relu3_1"
  type: "ReLU"
  bottom: "conv3_1"
  top: "conv3_1"
}
layer {
  name: "conv3_2"
  type: "Convolution"
  bottom: "conv3_1"
  top: "conv3_2"
  param {
    lr_mult: 1
  }
  param {
    lr_mult: 2
  }
  convolution_param {
    num_output: 256
    pad: 1
    kernel_size: 3
  }
}
layer {
  name: "relu3_2"
  type: "ReLU"
  bottom: "conv3_2"
  top: "conv3_2"
}
layer {
  name: "conv3_3"
  type: "Convolution"
  bottom: "conv3_2"
  top: "conv3_3"
  param {
    lr_mult: 1
  }
  param {
    lr_mult: 2
  }
  convolution_param {
    num_output: 256
    pad: 1
    kernel_size: 3
  }
}
layer {
  name: "relu3_3"
  type: "ReLU"
  bottom: "conv3_3"
  top: "conv3_3"
}
layer {
  name: "pool3"
  type: "Pooling"
  bottom: "conv3_3"
  top: "pool3"
  pooling_param {
    pool: MAX
    kernel_size: 2
    stride: 2
  }
}
layer {
  name: "conv4_1"
  type: "Convolution"
  bottom: "pool3"
  top: "conv4_1"
  param {
    lr_mult: 1
  }
  param {
    lr_mult: 2
  }
  convolution_param {
    num_output: 512
    pad: 1
    kernel_size: 3
  }
}
layer {
  name: "relu4_1"
  type: "ReLU"
  bottom: "conv4_1"
  top: "conv4_1"
}
layer {
  name: "conv4_2"
  type: "Convolution"
  bottom: "conv4_1"
  top: "conv4_2"
  param {
    lr_mult: 1
  }
  param {
    lr_mult: 2
  }
  convolution_param {
    num_output: 512
    pad: 1
    kernel_size: 3
  }
}
layer {
  name: "relu4_2"
  type: "ReLU"
  bottom: "conv4_2"
  top: "conv4_2"
}
layer {
  name: "conv4_3"
  type: "Convolution"
  bottom: "conv4_2"
  top: "conv4_3"
  param {
    lr_mult: 1
  }
  param {
    lr_mult: 2
  }
  convolution_param {
    num_output: 512
    pad: 1
    kernel_size: 3
  }
}
layer {
  name: "relu4_3"
  type: "ReLU"
  bottom: "conv4_3"
  top: "conv4_3"
}
layer {
  name: "pool4"
  type: "Pooling"
  bottom: "conv4_3"
  top: "pool4"
  pooling_param {
    pool: MAX
    kernel_size: 2
    stride: 2
  }
}
layer {
  name: "conv5_1"
  type: "Convolution"
  bottom: "pool4"
  top: "conv5_1"
  param {
    lr_mult: 1
  }
  param {
    lr_mult: 2
  }
  convolution_param {
    num_output: 512
    pad: 1
    kernel_size: 3
  }
}
layer {
  name: "relu5_1"
  type: "ReLU"
  bottom: "conv5_1"
  top: "conv5_1"
}
layer {
  name: "conv5_2"
  type: "Convolution"
  bottom: "conv5_1"
  top: "conv5_2"
  param {
    lr_mult: 1
  }
  param {
    lr_mult: 2
  }
  convolution_param {
    num_output: 512
    pad: 1
    kernel_size: 3
  }
}
layer {
  name: "relu5_2"
  type: "ReLU"
  bottom: "conv5_2"
  top: "conv5_2"
}
layer {
  name: "conv5_3"
  type: "Convolution"
  bottom: "conv5_2"
  top: "conv5_3"
  param {
    lr_mult: 1
  }
  param {
    lr_mult: 2
  }
  convolution_param {
    num_output: 512
    pad: 1
    kernel_size: 3
  }
}
layer {
  name: "relu5_3"
  type: "ReLU"
  bottom: "conv5_3"
  top: "conv5_3"
}
layer {
  name: "rpn_conv/3x3"
  type: "Convolution"
  bottom: "conv5_3"
  top: "rpn/output"
  param {
    lr_mult: 1
  }
  param {
    lr_mult: 2
  }
  convolution_param {
    num_output: 512
    pad: 1
    kernel_size: 3
    stride: 1
    weight_filler {
      type: "gaussian"
      std: 0.01
    }
    bias_filler {
      type: "constant"
      value: 0
    }
  }
}
layer {
  name: "rpn_relu/3x3"
  type: "ReLU"
  bottom: "rpn/output"
  top: "rpn/output"
}
layer {
  name: "rpn_cls_score"
  type: "Convolution"
  bottom: "rpn/output"
  top: "rpn_cls_score"
  param {
    lr_mult: 1
  }
  param {
    lr_mult: 2
  }
  convolution_param {
    num_output: 18
    pad: 0
    kernel_size: 1
    stride: 1
    weight_filler {
      type: "gaussian"
      std: 0.01
    }
    bias_filler {
      type: "constant"
      value: 0
    }
  }
}
layer {
  name: "rpn_bbox_pred"
  type: "Convolution"
  bottom: "rpn/output"
  top: "rpn_bbox_pred"
  param {
    lr_mult: 1
  }
  param {
    lr_mult: 2
  }
  convolution_param {
    num_output: 36
    pad: 0
    kernel_size: 1
    stride: 1
    weight_filler {
      type: "gaussian"
      std: 0.01
    }
    bias_filler {
      type: "constant"
      value: 0
    }
  }
}
layer {
  name: "rpn_cls_score_reshape"
  type: "Reshape"
  bottom: "rpn_cls_score"
  top: "rpn_cls_score_reshape"
  reshape_param {
    shape {
      dim: 0
      dim: 2
      dim: -1
      dim: 0
    }
  }
}
layer {
  name: "rpn-data"
  type: "Python"
  bottom: "rpn_cls_score"
  bottom: "gt_boxes"
  bottom: "im_info"
  bottom: "data"
  top: "rpn_labels"
  top: "rpn_bbox_targets"
  top: "rpn_bbox_inside_weights"
  top: "rpn_bbox_outside_weights"
  python_param {
    module: "rpn.anchor_target_layer"
    layer: "AnchorTargetLayer"
    param_str: "\'feat_stride\': 16"
  }
}
layer {
  name: "rpn_loss_cls"
  type: "SoftmaxWithLoss"
  bottom: "rpn_cls_score_reshape"
  bottom: "rpn_labels"
  top: "rpn_cls_loss"
  loss_weight: 1
  propagate_down: true
  propagate_down: false
  loss_param {
    ignore_label: -1
    normalize: true
  }
}
layer {
  name: "rpn_loss_bbox"
  type: "SmoothL1Loss"
  bottom: "rpn_bbox_pred"
  bottom: "rpn_bbox_targets"
  bottom: "rpn_bbox_inside_weights"
  bottom: "rpn_bbox_outside_weights"
  top: "rpn_loss_bbox"
  loss_weight: 1
  smooth_l1_loss_param {
    sigma: 3
  }
}
layer {
  name: "rpn_cls_prob"
  type: "Softmax"
  bottom: "rpn_cls_score_reshape"
  top: "rpn_cls_prob"
}
layer {
  name: "rpn_cls_prob_reshape"
  type: "Reshape"
  bottom: "rpn_cls_prob"
  top: "rpn_cls_prob_reshape"
  reshape_param {
    shape {
      dim: 0
      dim: 18
      dim: -1
      dim: 0
    }
  }
}
layer {
  name: "proposal"
  type: "Python"
  bottom: "rpn_cls_prob_reshape"
  bottom: "rpn_bbox_pred"
  bottom: "im_info"
  top: "rpn_rois"
  python_param {
    module: "rpn.proposal_layer"
    layer: "ProposalLayer"
    param_str: "\'feat_stride\': 16"
  }
}
layer {
  name: "roi-data"
  type: "Python"
  bottom: "rpn_rois"
  bottom: "gt_boxes"
  top: "rois"
  top: "labels"
  top: "bbox_targets"
  top: "bbox_inside_weights"
  top: "bbox_outside_weights"
  top: "key_targets"
  python_param {
    module: "rpn.proposal_target_layer"
    layer: "ProposalTargetLayer"
    param_str: "\'num_classes\': 21"
  }
}
layer {
  name: "roi_pool5"
  type: "ROIPooling"
  bottom: "conv5_3"
  bottom: "rois"
  top: "pool5"
  roi_pooling_param {
    pooled_h: 7
    pooled_w: 7
    spatial_scale: 0.0625
  }
}
layer {
  name: "fc6"
  type: "InnerProduct"
  bottom: "pool5"
  top: "fc6"
  param {
    lr_mult: 1
  }
  param {
    lr_mult: 2
  }
  inner_product_param {
    num_output: 4096
  }
}
layer {
  name: "relu6"
  type: "ReLU"
  bottom: "fc6"
  top: "fc6"
}
layer {
  name: "drop6"
  type: "Dropout"
  bottom: "fc6"
  top: "fc6"
  dropout_param {
    dropout_ratio: 0.5
  }
}
layer {
  name: "fc7"
  type: "InnerProduct"
  bottom: "fc6"
  top: "fc7"
  param {
    lr_mult: 1
  }
  param {
    lr_mult: 2
  }
  inner_product_param {
    num_output: 4096
  }
}
layer {
  name: "relu7"
  type: "ReLU"
  bottom: "fc7"
  top: "fc7"
}
layer {
  name: "drop7"
  type: "Dropout"
  bottom: "fc7"
  top: "fc7"
  dropout_param {
    dropout_ratio: 0.5
  }
}
layer {
  name: "cls_score"
  type: "InnerProduct"
  bottom: "fc7"
  top: "cls_score"
  param {
    lr_mult: 1
  }
  param {
    lr_mult: 2
  }
  inner_product_param {
    num_output: 21
    weight_filler {
      type: "gaussian"
      std: 0.01
    }
    bias_filler {
      type: "constant"
      value: 0
    }
  }
}
layer {
  name: "bbox_pred"
  type: "InnerProduct"
  bottom: "fc7"
  top: "bbox_pred"
  param {
    lr_mult: 1
  }
  param {
    lr_mult: 2
  }
  inner_product_param {
    num_output: 84
    weight_filler {
      type: "gaussian"
      std: 0.001
    }
    bias_filler {
      type: "constant"
      value: 0
    }
  }
}
layer {
  name: "key_pred"
  type: "InnerProduct"
  bottom: "fc7"
  top: "key_pred"
  param {
    lr_mult: 1
  }
  param {
    lr_mult: 2
  }
  inner_product_param {
    num_output: 84
    weight_filler {
      type: "gaussian"
      std: 0.001
    }
    bias_filler {
      type: "constant"
      value: 0
    }
  }
}
layer {
  name: "loss_cls"
  type: "SoftmaxWithLoss"
  bottom: "cls_score"
  bottom: "labels"
  top: "loss_cls"
  loss_weight: 1
  propagate_down: true
  propagate_down: false
}
layer {
  name: "loss_bbox"
  type: "SmoothL1Loss"
  bottom: "bbox_pred"
  bottom: "bbox_targets"
  bottom: "bbox_inside_weights"
  bottom: "bbox_outside_weights"
  top: "loss_bbox"
  loss_weight: 1
}
layer {
  name: "loss_key"
  type: "SmoothL1Loss"
  bottom: "key_pred"
  bottom: "key_targets"
  bottom: "bbox_inside_weights"
  bottom: "bbox_outside_weights"
  top: "loss_key"
  loss_weight: 1
}
I0822 19:51:02.617995 40535 layer_factory.hpp:77] Creating layer input-data
I0822 19:51:02.629564 40535 net.cpp:106] Creating Layer input-data
I0822 19:51:02.629591 40535 net.cpp:411] input-data -> data
I0822 19:51:02.629602 40535 net.cpp:411] input-data -> im_info
I0822 19:51:02.629609 40535 net.cpp:411] input-data -> gt_boxes
RoiDataLayer: name_to_top: {'gt_boxes': 2, 'data': 0, 'im_info': 1}
I0822 19:51:02.642087 40535 net.cpp:150] Setting up input-data
I0822 19:51:02.642103 40535 net.cpp:157] Top shape: 1 3 600 1000 (1800000)
I0822 19:51:02.642110 40535 net.cpp:157] Top shape: 1 3 (3)
I0822 19:51:02.642114 40535 net.cpp:157] Top shape: 1 4 (4)
I0822 19:51:02.642117 40535 net.cpp:165] Memory required for data: 7200028
I0822 19:51:02.642122 40535 layer_factory.hpp:77] Creating layer data_input-data_0_split
I0822 19:51:02.642133 40535 net.cpp:106] Creating Layer data_input-data_0_split
I0822 19:51:02.642139 40535 net.cpp:454] data_input-data_0_split <- data
I0822 19:51:02.642146 40535 net.cpp:411] data_input-data_0_split -> data_input-data_0_split_0
I0822 19:51:02.642156 40535 net.cpp:411] data_input-data_0_split -> data_input-data_0_split_1
I0822 19:51:02.642211 40535 net.cpp:150] Setting up data_input-data_0_split
I0822 19:51:02.642220 40535 net.cpp:157] Top shape: 1 3 600 1000 (1800000)
I0822 19:51:02.642225 40535 net.cpp:157] Top shape: 1 3 600 1000 (1800000)
I0822 19:51:02.642230 40535 net.cpp:165] Memory required for data: 21600028
I0822 19:51:02.642233 40535 layer_factory.hpp:77] Creating layer im_info_input-data_1_split
I0822 19:51:02.642240 40535 net.cpp:106] Creating Layer im_info_input-data_1_split
I0822 19:51:02.642244 40535 net.cpp:454] im_info_input-data_1_split <- im_info
I0822 19:51:02.642249 40535 net.cpp:411] im_info_input-data_1_split -> im_info_input-data_1_split_0
I0822 19:51:02.642258 40535 net.cpp:411] im_info_input-data_1_split -> im_info_input-data_1_split_1
I0822 19:51:02.642305 40535 net.cpp:150] Setting up im_info_input-data_1_split
I0822 19:51:02.642313 40535 net.cpp:157] Top shape: 1 3 (3)
I0822 19:51:02.642316 40535 net.cpp:157] Top shape: 1 3 (3)
I0822 19:51:02.642321 40535 net.cpp:165] Memory required for data: 21600052
I0822 19:51:02.642324 40535 layer_factory.hpp:77] Creating layer gt_boxes_input-data_2_split
I0822 19:51:02.642329 40535 net.cpp:106] Creating Layer gt_boxes_input-data_2_split
I0822 19:51:02.642333 40535 net.cpp:454] gt_boxes_input-data_2_split <- gt_boxes
I0822 19:51:02.642338 40535 net.cpp:411] gt_boxes_input-data_2_split -> gt_boxes_input-data_2_split_0
I0822 19:51:02.642348 40535 net.cpp:411] gt_boxes_input-data_2_split -> gt_boxes_input-data_2_split_1
I0822 19:51:02.642395 40535 net.cpp:150] Setting up gt_boxes_input-data_2_split
I0822 19:51:02.642401 40535 net.cpp:157] Top shape: 1 4 (4)
I0822 19:51:02.642406 40535 net.cpp:157] Top shape: 1 4 (4)
I0822 19:51:02.642410 40535 net.cpp:165] Memory required for data: 21600084
I0822 19:51:02.642413 40535 layer_factory.hpp:77] Creating layer conv1_1
I0822 19:51:02.642424 40535 net.cpp:106] Creating Layer conv1_1
I0822 19:51:02.642429 40535 net.cpp:454] conv1_1 <- data_input-data_0_split_0
I0822 19:51:02.642436 40535 net.cpp:411] conv1_1 -> conv1_1
I0822 19:51:02.910223 40535 net.cpp:150] Setting up conv1_1
I0822 19:51:02.910261 40535 net.cpp:157] Top shape: 1 64 600 1000 (38400000)
I0822 19:51:02.910265 40535 net.cpp:165] Memory required for data: 175200084
I0822 19:51:02.910286 40535 layer_factory.hpp:77] Creating layer relu1_1
I0822 19:51:02.910306 40535 net.cpp:106] Creating Layer relu1_1
I0822 19:51:02.910312 40535 net.cpp:454] relu1_1 <- conv1_1
I0822 19:51:02.910320 40535 net.cpp:397] relu1_1 -> conv1_1 (in-place)
I0822 19:51:02.911059 40535 net.cpp:150] Setting up relu1_1
I0822 19:51:02.911073 40535 net.cpp:157] Top shape: 1 64 600 1000 (38400000)
I0822 19:51:02.911077 40535 net.cpp:165] Memory required for data: 328800084
I0822 19:51:02.911082 40535 layer_factory.hpp:77] Creating layer conv1_2
I0822 19:51:02.911094 40535 net.cpp:106] Creating Layer conv1_2
I0822 19:51:02.911100 40535 net.cpp:454] conv1_2 <- conv1_1
I0822 19:51:02.911108 40535 net.cpp:411] conv1_2 -> conv1_2
I0822 19:51:02.921187 40535 net.cpp:150] Setting up conv1_2
I0822 19:51:02.921202 40535 net.cpp:157] Top shape: 1 64 600 1000 (38400000)
I0822 19:51:02.921212 40535 net.cpp:165] Memory required for data: 482400084
I0822 19:51:02.921228 40535 layer_factory.hpp:77] Creating layer relu1_2
I0822 19:51:02.921236 40535 net.cpp:106] Creating Layer relu1_2
I0822 19:51:02.921239 40535 net.cpp:454] relu1_2 <- conv1_2
I0822 19:51:02.921246 40535 net.cpp:397] relu1_2 -> conv1_2 (in-place)
I0822 19:51:02.921455 40535 net.cpp:150] Setting up relu1_2
I0822 19:51:02.921466 40535 net.cpp:157] Top shape: 1 64 600 1000 (38400000)
I0822 19:51:02.921469 40535 net.cpp:165] Memory required for data: 636000084
I0822 19:51:02.921473 40535 layer_factory.hpp:77] Creating layer pool1
I0822 19:51:02.921488 40535 net.cpp:106] Creating Layer pool1
I0822 19:51:02.921492 40535 net.cpp:454] pool1 <- conv1_2
I0822 19:51:02.921499 40535 net.cpp:411] pool1 -> pool1
I0822 19:51:02.921576 40535 net.cpp:150] Setting up pool1
I0822 19:51:02.921583 40535 net.cpp:157] Top shape: 1 64 300 500 (9600000)
I0822 19:51:02.921587 40535 net.cpp:165] Memory required for data: 674400084
I0822 19:51:02.921591 40535 layer_factory.hpp:77] Creating layer conv2_1
I0822 19:51:02.921602 40535 net.cpp:106] Creating Layer conv2_1
I0822 19:51:02.921607 40535 net.cpp:454] conv2_1 <- pool1
I0822 19:51:02.921612 40535 net.cpp:411] conv2_1 -> conv2_1
I0822 19:51:02.932343 40535 net.cpp:150] Setting up conv2_1
I0822 19:51:02.932361 40535 net.cpp:157] Top shape: 1 128 300 500 (19200000)
I0822 19:51:02.932370 40535 net.cpp:165] Memory required for data: 751200084
I0822 19:51:02.932382 40535 layer_factory.hpp:77] Creating layer relu2_1
I0822 19:51:02.932389 40535 net.cpp:106] Creating Layer relu2_1
I0822 19:51:02.932394 40535 net.cpp:454] relu2_1 <- conv2_1
I0822 19:51:02.932406 40535 net.cpp:397] relu2_1 -> conv2_1 (in-place)
I0822 19:51:02.932611 40535 net.cpp:150] Setting up relu2_1
I0822 19:51:02.932622 40535 net.cpp:157] Top shape: 1 128 300 500 (19200000)
I0822 19:51:02.932626 40535 net.cpp:165] Memory required for data: 828000084
I0822 19:51:02.932629 40535 layer_factory.hpp:77] Creating layer conv2_2
I0822 19:51:02.932639 40535 net.cpp:106] Creating Layer conv2_2
I0822 19:51:02.932646 40535 net.cpp:454] conv2_2 <- conv2_1
I0822 19:51:02.932654 40535 net.cpp:411] conv2_2 -> conv2_2
I0822 19:51:02.943025 40535 net.cpp:150] Setting up conv2_2
I0822 19:51:02.943040 40535 net.cpp:157] Top shape: 1 128 300 500 (19200000)
I0822 19:51:02.943047 40535 net.cpp:165] Memory required for data: 904800084
I0822 19:51:02.943054 40535 layer_factory.hpp:77] Creating layer relu2_2
I0822 19:51:02.943060 40535 net.cpp:106] Creating Layer relu2_2
I0822 19:51:02.943070 40535 net.cpp:454] relu2_2 <- conv2_2
I0822 19:51:02.943075 40535 net.cpp:397] relu2_2 -> conv2_2 (in-place)
I0822 19:51:02.943577 40535 net.cpp:150] Setting up relu2_2
I0822 19:51:02.943590 40535 net.cpp:157] Top shape: 1 128 300 500 (19200000)
I0822 19:51:02.943594 40535 net.cpp:165] Memory required for data: 981600084
I0822 19:51:02.943598 40535 layer_factory.hpp:77] Creating layer pool2
I0822 19:51:02.943605 40535 net.cpp:106] Creating Layer pool2
I0822 19:51:02.943609 40535 net.cpp:454] pool2 <- conv2_2
I0822 19:51:02.943614 40535 net.cpp:411] pool2 -> pool2
I0822 19:51:02.943687 40535 net.cpp:150] Setting up pool2
I0822 19:51:02.943696 40535 net.cpp:157] Top shape: 1 128 150 250 (4800000)
I0822 19:51:02.943699 40535 net.cpp:165] Memory required for data: 1000800084
I0822 19:51:02.943703 40535 layer_factory.hpp:77] Creating layer conv3_1
I0822 19:51:02.943713 40535 net.cpp:106] Creating Layer conv3_1
I0822 19:51:02.943718 40535 net.cpp:454] conv3_1 <- pool2
I0822 19:51:02.943727 40535 net.cpp:411] conv3_1 -> conv3_1
I0822 19:51:02.948457 40535 net.cpp:150] Setting up conv3_1
I0822 19:51:02.948473 40535 net.cpp:157] Top shape: 1 256 150 250 (9600000)
I0822 19:51:02.948477 40535 net.cpp:165] Memory required for data: 1039200084
I0822 19:51:02.948488 40535 layer_factory.hpp:77] Creating layer relu3_1
I0822 19:51:02.948498 40535 net.cpp:106] Creating Layer relu3_1
I0822 19:51:02.948501 40535 net.cpp:454] relu3_1 <- conv3_1
I0822 19:51:02.948506 40535 net.cpp:397] relu3_1 -> conv3_1 (in-place)
I0822 19:51:02.948719 40535 net.cpp:150] Setting up relu3_1
I0822 19:51:02.948730 40535 net.cpp:157] Top shape: 1 256 150 250 (9600000)
I0822 19:51:02.948734 40535 net.cpp:165] Memory required for data: 1077600084
I0822 19:51:02.948737 40535 layer_factory.hpp:77] Creating layer conv3_2
I0822 19:51:02.948751 40535 net.cpp:106] Creating Layer conv3_2
I0822 19:51:02.948760 40535 net.cpp:454] conv3_2 <- conv3_1
I0822 19:51:02.948766 40535 net.cpp:411] conv3_2 -> conv3_2
I0822 19:51:02.954602 40535 net.cpp:150] Setting up conv3_2
I0822 19:51:02.954619 40535 net.cpp:157] Top shape: 1 256 150 250 (9600000)
I0822 19:51:02.954628 40535 net.cpp:165] Memory required for data: 1116000084
I0822 19:51:02.954637 40535 layer_factory.hpp:77] Creating layer relu3_2
I0822 19:51:02.954644 40535 net.cpp:106] Creating Layer relu3_2
I0822 19:51:02.954648 40535 net.cpp:454] relu3_2 <- conv3_2
I0822 19:51:02.954654 40535 net.cpp:397] relu3_2 -> conv3_2 (in-place)
I0822 19:51:02.954865 40535 net.cpp:150] Setting up relu3_2
I0822 19:51:02.954876 40535 net.cpp:157] Top shape: 1 256 150 250 (9600000)
I0822 19:51:02.954879 40535 net.cpp:165] Memory required for data: 1154400084
I0822 19:51:02.954884 40535 layer_factory.hpp:77] Creating layer conv3_3
I0822 19:51:02.954895 40535 net.cpp:106] Creating Layer conv3_3
I0822 19:51:02.954900 40535 net.cpp:454] conv3_3 <- conv3_2
I0822 19:51:02.954915 40535 net.cpp:411] conv3_3 -> conv3_3
I0822 19:51:02.960796 40535 net.cpp:150] Setting up conv3_3
I0822 19:51:02.960819 40535 net.cpp:157] Top shape: 1 256 150 250 (9600000)
I0822 19:51:02.960822 40535 net.cpp:165] Memory required for data: 1192800084
I0822 19:51:02.960830 40535 layer_factory.hpp:77] Creating layer relu3_3
I0822 19:51:02.960837 40535 net.cpp:106] Creating Layer relu3_3
I0822 19:51:02.960840 40535 net.cpp:454] relu3_3 <- conv3_3
I0822 19:51:02.960849 40535 net.cpp:397] relu3_3 -> conv3_3 (in-place)
I0822 19:51:02.961369 40535 net.cpp:150] Setting up relu3_3
I0822 19:51:02.961382 40535 net.cpp:157] Top shape: 1 256 150 250 (9600000)
I0822 19:51:02.961385 40535 net.cpp:165] Memory required for data: 1231200084
I0822 19:51:02.961388 40535 layer_factory.hpp:77] Creating layer pool3
I0822 19:51:02.961398 40535 net.cpp:106] Creating Layer pool3
I0822 19:51:02.961401 40535 net.cpp:454] pool3 <- conv3_3
I0822 19:51:02.961410 40535 net.cpp:411] pool3 -> pool3
I0822 19:51:02.961489 40535 net.cpp:150] Setting up pool3
I0822 19:51:02.961498 40535 net.cpp:157] Top shape: 1 256 75 125 (2400000)
I0822 19:51:02.961501 40535 net.cpp:165] Memory required for data: 1240800084
I0822 19:51:02.961504 40535 layer_factory.hpp:77] Creating layer conv4_1
I0822 19:51:02.961514 40535 net.cpp:106] Creating Layer conv4_1
I0822 19:51:02.961519 40535 net.cpp:454] conv4_1 <- pool3
I0822 19:51:02.961525 40535 net.cpp:411] conv4_1 -> conv4_1
I0822 19:51:02.974568 40535 net.cpp:150] Setting up conv4_1
I0822 19:51:02.974586 40535 net.cpp:157] Top shape: 1 512 75 125 (4800000)
I0822 19:51:02.974591 40535 net.cpp:165] Memory required for data: 1260000084
I0822 19:51:02.974598 40535 layer_factory.hpp:77] Creating layer relu4_1
I0822 19:51:02.974606 40535 net.cpp:106] Creating Layer relu4_1
I0822 19:51:02.974611 40535 net.cpp:454] relu4_1 <- conv4_1
I0822 19:51:02.974624 40535 net.cpp:397] relu4_1 -> conv4_1 (in-place)
I0822 19:51:02.975131 40535 net.cpp:150] Setting up relu4_1
I0822 19:51:02.975143 40535 net.cpp:157] Top shape: 1 512 75 125 (4800000)
I0822 19:51:02.975147 40535 net.cpp:165] Memory required for data: 1279200084
I0822 19:51:02.975150 40535 layer_factory.hpp:77] Creating layer conv4_2
I0822 19:51:02.975162 40535 net.cpp:106] Creating Layer conv4_2
I0822 19:51:02.975165 40535 net.cpp:454] conv4_2 <- conv4_1
I0822 19:51:02.975174 40535 net.cpp:411] conv4_2 -> conv4_2
I0822 19:51:02.990695 40535 net.cpp:150] Setting up conv4_2
I0822 19:51:02.990723 40535 net.cpp:157] Top shape: 1 512 75 125 (4800000)
I0822 19:51:02.990727 40535 net.cpp:165] Memory required for data: 1298400084
I0822 19:51:02.990744 40535 layer_factory.hpp:77] Creating layer relu4_2
I0822 19:51:02.990751 40535 net.cpp:106] Creating Layer relu4_2
I0822 19:51:02.990758 40535 net.cpp:454] relu4_2 <- conv4_2
I0822 19:51:02.990766 40535 net.cpp:397] relu4_2 -> conv4_2 (in-place)
I0822 19:51:02.990975 40535 net.cpp:150] Setting up relu4_2
I0822 19:51:02.990988 40535 net.cpp:157] Top shape: 1 512 75 125 (4800000)
I0822 19:51:02.990991 40535 net.cpp:165] Memory required for data: 1317600084
I0822 19:51:02.990995 40535 layer_factory.hpp:77] Creating layer conv4_3
I0822 19:51:02.991005 40535 net.cpp:106] Creating Layer conv4_3
I0822 19:51:02.991010 40535 net.cpp:454] conv4_3 <- conv4_2
I0822 19:51:02.991019 40535 net.cpp:411] conv4_3 -> conv4_3
I0822 19:51:03.006237 40535 net.cpp:150] Setting up conv4_3
I0822 19:51:03.006264 40535 net.cpp:157] Top shape: 1 512 75 125 (4800000)
I0822 19:51:03.006268 40535 net.cpp:165] Memory required for data: 1336800084
I0822 19:51:03.006275 40535 layer_factory.hpp:77] Creating layer relu4_3
I0822 19:51:03.006283 40535 net.cpp:106] Creating Layer relu4_3
I0822 19:51:03.006285 40535 net.cpp:454] relu4_3 <- conv4_3
I0822 19:51:03.006294 40535 net.cpp:397] relu4_3 -> conv4_3 (in-place)
I0822 19:51:03.006860 40535 net.cpp:150] Setting up relu4_3
I0822 19:51:03.006875 40535 net.cpp:157] Top shape: 1 512 75 125 (4800000)
I0822 19:51:03.006878 40535 net.cpp:165] Memory required for data: 1356000084
I0822 19:51:03.006881 40535 layer_factory.hpp:77] Creating layer pool4
I0822 19:51:03.006891 40535 net.cpp:106] Creating Layer pool4
I0822 19:51:03.006894 40535 net.cpp:454] pool4 <- conv4_3
I0822 19:51:03.006902 40535 net.cpp:411] pool4 -> pool4
I0822 19:51:03.006995 40535 net.cpp:150] Setting up pool4
I0822 19:51:03.007006 40535 net.cpp:157] Top shape: 1 512 38 63 (1225728)
I0822 19:51:03.007009 40535 net.cpp:165] Memory required for data: 1360902996
I0822 19:51:03.007012 40535 layer_factory.hpp:77] Creating layer conv5_1
I0822 19:51:03.007025 40535 net.cpp:106] Creating Layer conv5_1
I0822 19:51:03.007030 40535 net.cpp:454] conv5_1 <- pool4
I0822 19:51:03.007037 40535 net.cpp:411] conv5_1 -> conv5_1
I0822 19:51:03.024240 40535 net.cpp:150] Setting up conv5_1
I0822 19:51:03.024260 40535 net.cpp:157] Top shape: 1 512 38 63 (1225728)
I0822 19:51:03.024263 40535 net.cpp:165] Memory required for data: 1365805908
I0822 19:51:03.024271 40535 layer_factory.hpp:77] Creating layer relu5_1
I0822 19:51:03.024277 40535 net.cpp:106] Creating Layer relu5_1
I0822 19:51:03.024283 40535 net.cpp:454] relu5_1 <- conv5_1
I0822 19:51:03.024292 40535 net.cpp:397] relu5_1 -> conv5_1 (in-place)
I0822 19:51:03.024500 40535 net.cpp:150] Setting up relu5_1
I0822 19:51:03.024513 40535 net.cpp:157] Top shape: 1 512 38 63 (1225728)
I0822 19:51:03.024518 40535 net.cpp:165] Memory required for data: 1370708820
I0822 19:51:03.024521 40535 layer_factory.hpp:77] Creating layer conv5_2
I0822 19:51:03.024530 40535 net.cpp:106] Creating Layer conv5_2
I0822 19:51:03.024535 40535 net.cpp:454] conv5_2 <- conv5_1
I0822 19:51:03.024544 40535 net.cpp:411] conv5_2 -> conv5_2
I0822 19:51:03.041388 40535 net.cpp:150] Setting up conv5_2
I0822 19:51:03.041426 40535 net.cpp:157] Top shape: 1 512 38 63 (1225728)
I0822 19:51:03.041432 40535 net.cpp:165] Memory required for data: 1375611732
I0822 19:51:03.041446 40535 layer_factory.hpp:77] Creating layer relu5_2
I0822 19:51:03.041463 40535 net.cpp:106] Creating Layer relu5_2
I0822 19:51:03.041471 40535 net.cpp:454] relu5_2 <- conv5_2
I0822 19:51:03.041484 40535 net.cpp:397] relu5_2 -> conv5_2 (in-place)
I0822 19:51:03.041795 40535 net.cpp:150] Setting up relu5_2
I0822 19:51:03.041810 40535 net.cpp:157] Top shape: 1 512 38 63 (1225728)
I0822 19:51:03.041815 40535 net.cpp:165] Memory required for data: 1380514644
I0822 19:51:03.041821 40535 layer_factory.hpp:77] Creating layer conv5_3
I0822 19:51:03.041848 40535 net.cpp:106] Creating Layer conv5_3
I0822 19:51:03.041859 40535 net.cpp:454] conv5_3 <- conv5_2
I0822 19:51:03.041870 40535 net.cpp:411] conv5_3 -> conv5_3
I0822 19:51:03.061954 40535 net.cpp:150] Setting up conv5_3
I0822 19:51:03.061993 40535 net.cpp:157] Top shape: 1 512 38 63 (1225728)
I0822 19:51:03.062005 40535 net.cpp:165] Memory required for data: 1385417556
I0822 19:51:03.062036 40535 layer_factory.hpp:77] Creating layer relu5_3
I0822 19:51:03.062065 40535 net.cpp:106] Creating Layer relu5_3
I0822 19:51:03.062079 40535 net.cpp:454] relu5_3 <- conv5_3
I0822 19:51:03.062105 40535 net.cpp:397] relu5_3 -> conv5_3 (in-place)
I0822 19:51:03.063484 40535 net.cpp:150] Setting up relu5_3
I0822 19:51:03.063511 40535 net.cpp:157] Top shape: 1 512 38 63 (1225728)
I0822 19:51:03.063519 40535 net.cpp:165] Memory required for data: 1390320468
I0822 19:51:03.063525 40535 layer_factory.hpp:77] Creating layer conv5_3_relu5_3_0_split
I0822 19:51:03.063542 40535 net.cpp:106] Creating Layer conv5_3_relu5_3_0_split
I0822 19:51:03.063551 40535 net.cpp:454] conv5_3_relu5_3_0_split <- conv5_3
I0822 19:51:03.063562 40535 net.cpp:411] conv5_3_relu5_3_0_split -> conv5_3_relu5_3_0_split_0
I0822 19:51:03.063578 40535 net.cpp:411] conv5_3_relu5_3_0_split -> conv5_3_relu5_3_0_split_1
I0822 19:51:03.063716 40535 net.cpp:150] Setting up conv5_3_relu5_3_0_split
I0822 19:51:03.063730 40535 net.cpp:157] Top shape: 1 512 38 63 (1225728)
I0822 19:51:03.063738 40535 net.cpp:157] Top shape: 1 512 38 63 (1225728)
I0822 19:51:03.063743 40535 net.cpp:165] Memory required for data: 1400126292
I0822 19:51:03.063751 40535 layer_factory.hpp:77] Creating layer rpn_conv/3x3
I0822 19:51:03.063772 40535 net.cpp:106] Creating Layer rpn_conv/3x3
I0822 19:51:03.063781 40535 net.cpp:454] rpn_conv/3x3 <- conv5_3_relu5_3_0_split_0
I0822 19:51:03.063796 40535 net.cpp:411] rpn_conv/3x3 -> rpn/output
I0822 19:51:03.126374 40535 net.cpp:150] Setting up rpn_conv/3x3
I0822 19:51:03.126415 40535 net.cpp:157] Top shape: 1 512 38 63 (1225728)
I0822 19:51:03.126420 40535 net.cpp:165] Memory required for data: 1405029204
I0822 19:51:03.126433 40535 layer_factory.hpp:77] Creating layer rpn_relu/3x3
I0822 19:51:03.126448 40535 net.cpp:106] Creating Layer rpn_relu/3x3
I0822 19:51:03.126457 40535 net.cpp:454] rpn_relu/3x3 <- rpn/output
I0822 19:51:03.126467 40535 net.cpp:397] rpn_relu/3x3 -> rpn/output (in-place)
I0822 19:51:03.126770 40535 net.cpp:150] Setting up rpn_relu/3x3
I0822 19:51:03.126785 40535 net.cpp:157] Top shape: 1 512 38 63 (1225728)
I0822 19:51:03.126788 40535 net.cpp:165] Memory required for data: 1409932116
I0822 19:51:03.126793 40535 layer_factory.hpp:77] Creating layer rpn/output_rpn_relu/3x3_0_split
I0822 19:51:03.126806 40535 net.cpp:106] Creating Layer rpn/output_rpn_relu/3x3_0_split
I0822 19:51:03.126811 40535 net.cpp:454] rpn/output_rpn_relu/3x3_0_split <- rpn/output
I0822 19:51:03.126824 40535 net.cpp:411] rpn/output_rpn_relu/3x3_0_split -> rpn/output_rpn_relu/3x3_0_split_0
I0822 19:51:03.126837 40535 net.cpp:411] rpn/output_rpn_relu/3x3_0_split -> rpn/output_rpn_relu/3x3_0_split_1
I0822 19:51:03.126950 40535 net.cpp:150] Setting up rpn/output_rpn_relu/3x3_0_split
I0822 19:51:03.126963 40535 net.cpp:157] Top shape: 1 512 38 63 (1225728)
I0822 19:51:03.126969 40535 net.cpp:157] Top shape: 1 512 38 63 (1225728)
I0822 19:51:03.126973 40535 net.cpp:165] Memory required for data: 1419737940
I0822 19:51:03.126977 40535 layer_factory.hpp:77] Creating layer rpn_cls_score
I0822 19:51:03.126996 40535 net.cpp:106] Creating Layer rpn_cls_score
I0822 19:51:03.127003 40535 net.cpp:454] rpn_cls_score <- rpn/output_rpn_relu/3x3_0_split_0
I0822 19:51:03.127015 40535 net.cpp:411] rpn_cls_score -> rpn_cls_score
I0822 19:51:03.129776 40535 net.cpp:150] Setting up rpn_cls_score
I0822 19:51:03.129796 40535 net.cpp:157] Top shape: 1 18 38 63 (43092)
I0822 19:51:03.129802 40535 net.cpp:165] Memory required for data: 1419910308
I0822 19:51:03.129812 40535 layer_factory.hpp:77] Creating layer rpn_cls_score_rpn_cls_score_0_split
I0822 19:51:03.129827 40535 net.cpp:106] Creating Layer rpn_cls_score_rpn_cls_score_0_split
I0822 19:51:03.129833 40535 net.cpp:454] rpn_cls_score_rpn_cls_score_0_split <- rpn_cls_score
I0822 19:51:03.129842 40535 net.cpp:411] rpn_cls_score_rpn_cls_score_0_split -> rpn_cls_score_rpn_cls_score_0_split_0
I0822 19:51:03.129869 40535 net.cpp:411] rpn_cls_score_rpn_cls_score_0_split -> rpn_cls_score_rpn_cls_score_0_split_1
I0822 19:51:03.129971 40535 net.cpp:150] Setting up rpn_cls_score_rpn_cls_score_0_split
I0822 19:51:03.129986 40535 net.cpp:157] Top shape: 1 18 38 63 (43092)
I0822 19:51:03.129992 40535 net.cpp:157] Top shape: 1 18 38 63 (43092)
I0822 19:51:03.129995 40535 net.cpp:165] Memory required for data: 1420255044
I0822 19:51:03.130000 40535 layer_factory.hpp:77] Creating layer rpn_bbox_pred
I0822 19:51:03.130020 40535 net.cpp:106] Creating Layer rpn_bbox_pred
I0822 19:51:03.130028 40535 net.cpp:454] rpn_bbox_pred <- rpn/output_rpn_relu/3x3_0_split_1
I0822 19:51:03.130039 40535 net.cpp:411] rpn_bbox_pred -> rpn_bbox_pred
I0822 19:51:03.132519 40535 net.cpp:150] Setting up rpn_bbox_pred
I0822 19:51:03.132539 40535 net.cpp:157] Top shape: 1 36 38 63 (86184)
I0822 19:51:03.132544 40535 net.cpp:165] Memory required for data: 1420599780
I0822 19:51:03.132553 40535 layer_factory.hpp:77] Creating layer rpn_bbox_pred_rpn_bbox_pred_0_split
I0822 19:51:03.132565 40535 net.cpp:106] Creating Layer rpn_bbox_pred_rpn_bbox_pred_0_split
I0822 19:51:03.132570 40535 net.cpp:454] rpn_bbox_pred_rpn_bbox_pred_0_split <- rpn_bbox_pred
I0822 19:51:03.132582 40535 net.cpp:411] rpn_bbox_pred_rpn_bbox_pred_0_split -> rpn_bbox_pred_rpn_bbox_pred_0_split_0
I0822 19:51:03.132596 40535 net.cpp:411] rpn_bbox_pred_rpn_bbox_pred_0_split -> rpn_bbox_pred_rpn_bbox_pred_0_split_1
I0822 19:51:03.132690 40535 net.cpp:150] Setting up rpn_bbox_pred_rpn_bbox_pred_0_split
I0822 19:51:03.132701 40535 net.cpp:157] Top shape: 1 36 38 63 (86184)
I0822 19:51:03.132709 40535 net.cpp:157] Top shape: 1 36 38 63 (86184)
I0822 19:51:03.132712 40535 net.cpp:165] Memory required for data: 1421289252
I0822 19:51:03.132717 40535 layer_factory.hpp:77] Creating layer rpn_cls_score_reshape
I0822 19:51:03.132731 40535 net.cpp:106] Creating Layer rpn_cls_score_reshape
I0822 19:51:03.132737 40535 net.cpp:454] rpn_cls_score_reshape <- rpn_cls_score_rpn_cls_score_0_split_0
I0822 19:51:03.132745 40535 net.cpp:411] rpn_cls_score_reshape -> rpn_cls_score_reshape
I0822 19:51:03.132805 40535 net.cpp:150] Setting up rpn_cls_score_reshape
I0822 19:51:03.132817 40535 net.cpp:157] Top shape: 1 2 342 63 (43092)
I0822 19:51:03.132820 40535 net.cpp:165] Memory required for data: 1421461620
I0822 19:51:03.132825 40535 layer_factory.hpp:77] Creating layer rpn_cls_score_reshape_rpn_cls_score_reshape_0_split
I0822 19:51:03.132833 40535 net.cpp:106] Creating Layer rpn_cls_score_reshape_rpn_cls_score_reshape_0_split
I0822 19:51:03.132839 40535 net.cpp:454] rpn_cls_score_reshape_rpn_cls_score_reshape_0_split <- rpn_cls_score_reshape
I0822 19:51:03.132848 40535 net.cpp:411] rpn_cls_score_reshape_rpn_cls_score_reshape_0_split -> rpn_cls_score_reshape_rpn_cls_score_reshape_0_split_0
I0822 19:51:03.132860 40535 net.cpp:411] rpn_cls_score_reshape_rpn_cls_score_reshape_0_split -> rpn_cls_score_reshape_rpn_cls_score_reshape_0_split_1
I0822 19:51:03.132941 40535 net.cpp:150] Setting up rpn_cls_score_reshape_rpn_cls_score_reshape_0_split
I0822 19:51:03.132951 40535 net.cpp:157] Top shape: 1 2 342 63 (43092)
I0822 19:51:03.132957 40535 net.cpp:157] Top shape: 1 2 342 63 (43092)
I0822 19:51:03.132962 40535 net.cpp:165] Memory required for data: 1421806356
I0822 19:51:03.132967 40535 layer_factory.hpp:77] Creating layer rpn-data
I0822 19:51:03.133638 40535 net.cpp:106] Creating Layer rpn-data
I0822 19:51:03.133656 40535 net.cpp:454] rpn-data <- rpn_cls_score_rpn_cls_score_0_split_1
I0822 19:51:03.133666 40535 net.cpp:454] rpn-data <- gt_boxes_input-data_2_split_0
I0822 19:51:03.133674 40535 net.cpp:454] rpn-data <- im_info_input-data_1_split_0
I0822 19:51:03.133680 40535 net.cpp:454] rpn-data <- data_input-data_0_split_1
I0822 19:51:03.133692 40535 net.cpp:411] rpn-data -> rpn_labels
I0822 19:51:03.133707 40535 net.cpp:411] rpn-data -> rpn_bbox_targets
I0822 19:51:03.133720 40535 net.cpp:411] rpn-data -> rpn_bbox_inside_weights
I0822 19:51:03.133733 40535 net.cpp:411] rpn-data -> rpn_bbox_outside_weights
I0822 19:51:03.134968 40535 net.cpp:150] Setting up rpn-data
I0822 19:51:03.134987 40535 net.cpp:157] Top shape: 1 1 342 63 (21546)
I0822 19:51:03.134995 40535 net.cpp:157] Top shape: 1 36 38 63 (86184)
I0822 19:51:03.135000 40535 net.cpp:157] Top shape: 1 36 38 63 (86184)
I0822 19:51:03.135006 40535 net.cpp:157] Top shape: 1 36 38 63 (86184)
I0822 19:51:03.135012 40535 net.cpp:165] Memory required for data: 1422926748
I0822 19:51:03.135017 40535 layer_factory.hpp:77] Creating layer rpn_loss_cls
I0822 19:51:03.135028 40535 net.cpp:106] Creating Layer rpn_loss_cls
I0822 19:51:03.135035 40535 net.cpp:454] rpn_loss_cls <- rpn_cls_score_reshape_rpn_cls_score_reshape_0_split_0
I0822 19:51:03.135043 40535 net.cpp:454] rpn_loss_cls <- rpn_labels
…
I0822 19:51:03.136760 40535 net.cpp:157] Top shape: (1)
I0822 19:51:03.136765 40535 net.cpp:160]     with loss weight 1
I0822 19:51:03.136775 40535 net.cpp:165] Memory required for data: 1422926756
I0822 19:51:03.136778 40535 layer_factory.hpp:77] Creating layer rpn_cls_prob
I0822 19:51:03.136790 40535 net.cpp:106] Creating Layer rpn_cls_prob
I0822 19:51:03.136796 40535 net.cpp:454] rpn_cls_prob <- rpn_cls_score_reshape_rpn_cls_score_reshape_0_split_1
I0822 19:51:03.136803 40535 net.cpp:411] rpn_cls_prob -> rpn_cls_prob
I0822 19:51:03.137567 40535 net.cpp:150] Setting up rpn_cls_prob
I0822 19:51:03.137584 40535 net.cpp:157] Top shape: 1 2 342 63 (43092)
I0822 19:51:03.137590 40535 net.cpp:165] Memory required for data: 1423099124
I0822 19:51:03.137595 40535 layer_factory.hpp:77] Creating layer rpn_cls_prob_reshape
I0822 19:51:03.137609 40535 net.cpp:106] Creating Layer rpn_cls_prob_reshape
I0822 19:51:03.137615 40535 net.cpp:454] rpn_cls_prob_reshape <- rpn_cls_prob
I0822 19:51:03.137626 40535 net.cpp:411] rpn_cls_prob_reshape -> rpn_cls_prob_reshape
I0822 19:51:03.137687 40535 net.cpp:150] Setting up rpn_cls_prob_reshape
I0822 19:51:03.137698 40535 net.cpp:157] Top shape: 1 18 38 63 (43092)
I0822 19:51:03.137703 40535 net.cpp:165] Memory required for data: 1423271492
I0822 19:51:03.137708 40535 layer_factory.hpp:77] Creating layer proposal
I0822 19:51:03.150177 40535 net.cpp:106] Creating Layer proposal
I0822 19:51:03.150195 40535 net.cpp:454] proposal <- rpn_cls_prob_reshape
I0822 19:51:03.150203 40535 net.cpp:454] proposal <- rpn_bbox_pred_rpn_bbox_pred_0_split_1
I0822 19:51:03.150209 40535 net.cpp:454] proposal <- im_info_input-data_1_split_1
I0822 19:51:03.150218 40535 net.cpp:411] proposal -> rpn_rois
I0822 19:51:03.155935 40535 net.cpp:150] Setting up proposal
I0822 19:51:03.155961 40535 net.cpp:157] Top shape: 1 5 (5)
I0822 19:51:03.155964 40535 net.cpp:165] Memory required for data: 1423271512
I0822 19:51:03.155971 40535 layer_factory.hpp:77] Creating layer roi-data
I0822 19:51:03.157826 40535 net.cpp:106] Creating Layer roi-data
I0822 19:51:03.157840 40535 net.cpp:454] roi-data <- rpn_rois
I0822 19:51:03.157848 40535 net.cpp:454] roi-data <- gt_boxes_input-data_2_split_1
I0822 19:51:03.157857 40535 net.cpp:411] roi-data -> rois
I0822 19:51:03.157867 40535 net.cpp:411] roi-data -> labels
I0822 19:51:03.157876 40535 net.cpp:411] roi-data -> bbox_targets
I0822 19:51:03.157882 40535 net.cpp:411] roi-data -> bbox_inside_weights
I0822 19:51:03.157893 40535 net.cpp:411] roi-data -> bbox_outside_weights
I0822 19:51:03.157902 40535 net.cpp:411] roi-data -> key_targets
I0822 19:51:03.158499 40535 net.cpp:150] Setting up roi-data
I0822 19:51:03.158514 40535 net.cpp:157] Top shape: 1 5 (5)
I0822 19:51:03.158517 40535 net.cpp:157] Top shape: 1 1 (1)
I0822 19:51:03.158520 40535 net.cpp:157] Top shape: 1 84 (84)
I0822 19:51:03.158524 40535 net.cpp:157] Top shape: 1 84 (84)
I0822 19:51:03.158527 40535 net.cpp:157] Top shape: 1 84 (84)
I0822 19:51:03.158531 40535 net.cpp:157] Top shape: 1 84 (84)
I0822 19:51:03.158534 40535 net.cpp:165] Memory required for data: 1423272880
I0822 19:51:03.158537 40535 layer_factory.hpp:77] Creating layer bbox_inside_weights_roi-data_3_split
I0822 19:51:03.158548 40535 net.cpp:106] Creating Layer bbox_inside_weights_roi-data_3_split
I0822 19:51:03.158552 40535 net.cpp:454] bbox_inside_weights_roi-data_3_split <- bbox_inside_weights
I0822 19:51:03.158558 40535 net.cpp:411] bbox_inside_weights_roi-data_3_split -> bbox_inside_weights_roi-data_3_split_0
I0822 19:51:03.158566 40535 net.cpp:411] bbox_inside_weights_roi-data_3_split -> bbox_inside_weights_roi-data_3_split_1
I0822 19:51:03.158627 40535 net.cpp:150] Setting up bbox_inside_weights_roi-data_3_split
I0822 19:51:03.158635 40535 net.cpp:157] Top shape: 1 84 (84)
I0822 19:51:03.158639 40535 net.cpp:157] Top shape: 1 84 (84)
I0822 19:51:03.158641 40535 net.cpp:165] Memory required for data: 1423273552
I0822 19:51:03.158645 40535 layer_factory.hpp:77] Creating layer bbox_outside_weights_roi-data_4_split
I0822 19:51:03.158650 40535 net.cpp:106] Creating Layer bbox_outside_weights_roi-data_4_split
I0822 19:51:03.158654 40535 net.cpp:454] bbox_outside_weights_roi-data_4_split <- bbox_outside_weights
I0822 19:51:03.158659 40535 net.cpp:411] bbox_outside_weights_roi-data_4_split -> bbox_outside_weights_roi-data_4_split_0
I0822 19:51:03.158666 40535 net.cpp:411] bbox_outside_weights_roi-data_4_split -> bbox_outside_weights_roi-data_4_split_1
I0822 19:51:03.158720 40535 net.cpp:150] Setting up bbox_outside_weights_roi-data_4_split
I0822 19:51:03.158728 40535 net.cpp:157] Top shape: 1 84 (84)
I0822 19:51:03.158732 40535 net.cpp:157] Top shape: 1 84 (84)
I0822 19:51:03.158735 40535 net.cpp:165] Memory required for data: 1423274224
I0822 19:51:03.158738 40535 layer_factory.hpp:77] Creating layer roi_pool5
I0822 19:51:03.158746 40535 net.cpp:106] Creating Layer roi_pool5
I0822 19:51:03.158749 40535 net.cpp:454] roi_pool5 <- conv5_3_relu5_3_0_split_1
I0822 19:51:03.158754 40535 net.cpp:454] roi_pool5 <- rois
I0822 19:51:03.158759 40535 net.cpp:411] roi_pool5 -> pool5
I0822 19:51:03.158767 40535 roi_pooling_layer.cpp:30] Spatial scale: 0.0625
I0822 19:51:03.158834 40535 net.cpp:150] Setting up roi_pool5
I0822 19:51:03.158843 40535 net.cpp:157] Top shape: 1 512 7 7 (25088)
I0822 19:51:03.158845 40535 net.cpp:165] Memory required for data: 1423374576
I0822 19:51:03.158849 40535 layer_factory.hpp:77] Creating layer fc6
I0822 19:51:03.158857 40535 net.cpp:106] Creating Layer fc6
I0822 19:51:03.158862 40535 net.cpp:454] fc6 <- pool5
I0822 19:51:03.158867 40535 net.cpp:411] fc6 -> fc6
I0822 19:51:03.681207 40535 net.cpp:150] Setting up fc6
I0822 19:51:03.681248 40535 net.cpp:157] Top shape: 1 4096 (4096)
I0822 19:51:03.681252 40535 net.cpp:165] Memory required for data: 1423390960
I0822 19:51:03.681277 40535 layer_factory.hpp:77] Creating layer relu6
I0822 19:51:03.681289 40535 net.cpp:106] Creating Layer relu6
I0822 19:51:03.681294 40535 net.cpp:454] relu6 <- fc6
I0822 19:51:03.681303 40535 net.cpp:397] relu6 -> fc6 (in-place)
I0822 19:51:03.681617 40535 net.cpp:150] Setting up relu6
I0822 19:51:03.681628 40535 net.cpp:157] Top shape: 1 4096 (4096)
I0822 19:51:03.681632 40535 net.cpp:165] Memory required for data: 1423407344
I0822 19:51:03.681634 40535 layer_factory.hpp:77] Creating layer drop6
I0822 19:51:03.681643 40535 net.cpp:106] Creating Layer drop6
I0822 19:51:03.681646 40535 net.cpp:454] drop6 <- fc6
I0822 19:51:03.681653 40535 net.cpp:397] drop6 -> fc6 (in-place)
I0822 19:51:03.681700 40535 net.cpp:150] Setting up drop6
I0822 19:51:03.681710 40535 net.cpp:157] Top shape: 1 4096 (4096)
I0822 19:51:03.681711 40535 net.cpp:165] Memory required for data: 1423423728
I0822 19:51:03.681715 40535 layer_factory.hpp:77] Creating layer fc7
I0822 19:51:03.681723 40535 net.cpp:106] Creating Layer fc7
I0822 19:51:03.681726 40535 net.cpp:454] fc7 <- fc6
I0822 19:51:03.681733 40535 net.cpp:411] fc7 -> fc7
I0822 19:51:03.784958 40535 net.cpp:150] Setting up fc7
I0822 19:51:03.785009 40535 net.cpp:157] Top shape: 1 4096 (4096)
I0822 19:51:03.785015 40535 net.cpp:165] Memory required for data: 1423440112
I0822 19:51:03.785033 40535 layer_factory.hpp:77] Creating layer relu7
I0822 19:51:03.785053 40535 net.cpp:106] Creating Layer relu7
I0822 19:51:03.785060 40535 net.cpp:454] relu7 <- fc7
I0822 19:51:03.785073 40535 net.cpp:397] relu7 -> fc7 (in-place)
I0822 19:51:03.785974 40535 net.cpp:150] Setting up relu7
I0822 19:51:03.785993 40535 net.cpp:157] Top shape: 1 4096 (4096)
I0822 19:51:03.785997 40535 net.cpp:165] Memory required for data: 1423456496
I0822 19:51:03.786002 40535 layer_factory.hpp:77] Creating layer drop7
I0822 19:51:03.786015 40535 net.cpp:106] Creating Layer drop7
I0822 19:51:03.786021 40535 net.cpp:454] drop7 <- fc7
I0822 19:51:03.786031 40535 net.cpp:397] drop7 -> fc7 (in-place)
I0822 19:51:03.786103 40535 net.cpp:150] Setting up drop7
I0822 19:51:03.786115 40535 net.cpp:157] Top shape: 1 4096 (4096)
I0822 19:51:03.786119 40535 net.cpp:165] Memory required for data: 1423472880
I0822 19:51:03.786124 40535 layer_factory.hpp:77] Creating layer fc7_drop7_0_split
I0822 19:51:03.786135 40535 net.cpp:106] Creating Layer fc7_drop7_0_split
I0822 19:51:03.786140 40535 net.cpp:454] fc7_drop7_0_split <- fc7
I0822 19:51:03.786149 40535 net.cpp:411] fc7_drop7_0_split -> fc7_drop7_0_split_0
I0822 19:51:03.786164 40535 net.cpp:411] fc7_drop7_0_split -> fc7_drop7_0_split_1
I0822 19:51:03.786177 40535 net.cpp:411] fc7_drop7_0_split -> fc7_drop7_0_split_2
I0822 19:51:03.786337 40535 net.cpp:150] Setting up fc7_drop7_0_split
I0822 19:51:03.786350 40535 net.cpp:157] Top shape: 1 4096 (4096)
I0822 19:51:03.786355 40535 net.cpp:157] Top shape: 1 4096 (4096)
I0822 19:51:03.786362 40535 net.cpp:157] Top shape: 1 4096 (4096)
I0822 19:51:03.786365 40535 net.cpp:165] Memory required for data: 1423522032
I0822 19:51:03.786370 40535 layer_factory.hpp:77] Creating layer cls_score
I0822 19:51:03.786384 40535 net.cpp:106] Creating Layer cls_score
I0822 19:51:03.786391 40535 net.cpp:454] cls_score <- fc7_drop7_0_split_0
I0822 19:51:03.786403 40535 net.cpp:411] cls_score -> cls_score
I0822 19:51:03.788060 40535 net.cpp:150] Setting up cls_score
I0822 19:51:03.788075 40535 net.cpp:157] Top shape: 1 21 (21)
I0822 19:51:03.788079 40535 net.cpp:165] Memory required for data: 1423522116
I0822 19:51:03.788090 40535 layer_factory.hpp:77] Creating layer bbox_pred
I0822 19:51:03.788101 40535 net.cpp:106] Creating Layer bbox_pred
I0822 19:51:03.788107 40535 net.cpp:454] bbox_pred <- fc7_drop7_0_split_1
I0822 19:51:03.788118 40535 net.cpp:411] bbox_pred -> bbox_pred
I0822 19:51:03.796090 40535 net.cpp:150] Setting up bbox_pred
I0822 19:51:03.796109 40535 net.cpp:157] Top shape: 1 84 (84)
I0822 19:51:03.796114 40535 net.cpp:165] Memory required for data: 1423522452
I0822 19:51:03.796124 40535 layer_factory.hpp:77] Creating layer key_pred
I0822 19:51:03.796136 40535 net.cpp:106] Creating Layer key_pred
I0822 19:51:03.796142 40535 net.cpp:454] key_pred <- fc7_drop7_0_split_2
I0822 19:51:03.796154 40535 net.cpp:411] key_pred -> key_pred
I0822 19:51:03.803953 40535 net.cpp:150] Setting up key_pred
I0822 19:51:03.803972 40535 net.cpp:157] Top shape: 1 84 (84)
I0822 19:51:03.803977 40535 net.cpp:165] Memory required for data: 1423522788
I0822 19:51:03.803985 40535 layer_factory.hpp:77] Creating layer loss_cls
I0822 19:51:03.804013 40535 net.cpp:106] Creating Layer loss_cls
I0822 19:51:03.804018 40535 net.cpp:454] loss_cls <- cls_score
I0822 19:51:03.804024 40535 net.cpp:454] loss_cls <- labels
I0822 19:51:03.804033 40535 net.cpp:411] loss_cls -> loss_cls
…
