…
stepsize: 50000
snapshot: 0
snapshot_prefix: "key_vgg"
average_loss: 100
iter_size: 2
I0829 20:19:22.336588  1952 solver.cpp:81] Creating training net from train_net file: models/pascal_voc/VGG16/key/train.prototxt
I0829 20:19:22.337378  1952 net.cpp:49] Initializing net from parameters: 
name: "VGG_ILSVRC_16_layers"
state {
  phase: TRAIN
}
layer {
  name: "input-data"
  type: "Python"
  top: "data"
  top: "im_info"
  top: "gt_boxes"
  python_param {
    module: "roi_data_layer.layer"
    layer: "RoIDataLayer"
    param_str: "\'num_classes\': 21"
  }
}
layer {
  name: "conv1_1"
  type: "Convolution"
  bottom: "data"
  top: "conv1_1"
  param {
    lr_mult: 0
    decay_mult: 0
  }
  param {
    lr_mult: 0
    decay_mult: 0
  }
  convolution_param {
    num_output: 64
    pad: 1
    kernel_size: 3
  }
}
layer {
  name: "relu1_1"
  type: "ReLU"
  bottom: "conv1_1"
  top: "conv1_1"
}
layer {
  name: "conv1_2"
  type: "Convolution"
  bottom: "conv1_1"
  top: "conv1_2"
  param {
    lr_mult: 0
    decay_mult: 0
  }
  param {
    lr_mult: 0
    decay_mult: 0
  }
  convolution_param {
    num_output: 64
    pad: 1
    kernel_size: 3
  }
}
layer {
  name: "relu1_2"
  type: "ReLU"
  bottom: "conv1_2"
  top: "conv1_2"
}
layer {
  name: "pool1"
  type: "Pooling"
  bottom: "conv1_2"
  top: "pool1"
  pooling_param {
    pool: MAX
    kernel_size: 2
    stride: 2
  }
}
layer {
  name: "conv2_1"
  type: "Convolution"
  bottom: "pool1"
  top: "conv2_1"
  param {
    lr_mult: 0
    decay_mult: 0
  }
  param {
    lr_mult: 0
    decay_mult: 0
  }
  convolution_param {
    num_output: 128
    pad: 1
    kernel_size: 3
  }
}
layer {
  name: "relu2_1"
  type: "ReLU"
  bottom: "conv2_1"
  top: "conv2_1"
}
layer {
  name: "conv2_2"
  type: "Convolution"
  bottom: "conv2_1"
  top: "conv2_2"
  param {
    lr_mult: 0
    decay_mult: 0
  }
  param {
    lr_mult: 0
    decay_mult: 0
  }
  convolution_param {
    num_output: 128
    pad: 1
    kernel_size: 3
  }
}
layer {
  name: "relu2_2"
  type: "ReLU"
  bottom: "conv2_2"
  top: "conv2_2"
}
layer {
  name: "pool2"
  type: "Pooling"
  bottom: "conv2_2"
  top: "pool2"
  pooling_param {
    pool: MAX
    kernel_size: 2
    stride: 2
  }
}
layer {
  name: "conv3_1"
  type: "Convolution"
  bottom: "pool2"
  top: "conv3_1"
  param {
    lr_mult: 1
  }
  param {
    lr_mult: 2
  }
  convolution_param {
    num_output: 256
    pad: 1
    kernel_size: 3
  }
}
layer {
  name: "relu3_1"
  type: "ReLU"
  bottom: "conv3_1"
  top: "conv3_1"
}
layer {
  name: "conv3_2"
  type: "Convolution"
  bottom: "conv3_1"
  top: "conv3_2"
  param {
    lr_mult: 1
  }
  param {
    lr_mult: 2
  }
  convolution_param {
    num_output: 256
    pad: 1
    kernel_size: 3
  }
}
layer {
  name: "relu3_2"
  type: "ReLU"
  bottom: "conv3_2"
  top: "conv3_2"
}
layer {
  name: "conv3_3"
  type: "Convolution"
  bottom: "conv3_2"
  top: "conv3_3"
  param {
    lr_mult: 1
  }
  param {
    lr_mult: 2
  }
  convolution_param {
    num_output: 256
    pad: 1
    kernel_size: 3
  }
}
layer {
  name: "relu3_3"
  type: "ReLU"
  bottom: "conv3_3"
  top: "conv3_3"
}
layer {
  name: "pool3"
  type: "Pooling"
  bottom: "conv3_3"
  top: "pool3"
  pooling_param {
    pool: MAX
    kernel_size: 2
    stride: 2
  }
}
layer {
  name: "conv4_1"
  type: "Convolution"
  bottom: "pool3"
  top: "conv4_1"
  param {
    lr_mult: 1
  }
  param {
    lr_mult: 2
  }
  convolution_param {
    num_output: 512
    pad: 1
    kernel_size: 3
  }
}
layer {
  name: "relu4_1"
  type: "ReLU"
  bottom: "conv4_1"
  top: "conv4_1"
}
layer {
  name: "conv4_2"
  type: "Convolution"
  bottom: "conv4_1"
  top: "conv4_2"
  param {
    lr_mult: 1
  }
  param {
    lr_mult: 2
  }
  convolution_param {
    num_output: 512
    pad: 1
    kernel_size: 3
  }
}
layer {
  name: "relu4_2"
  type: "ReLU"
  bottom: "conv4_2"
  top: "conv4_2"
}
layer {
  name: "conv4_3"
  type: "Convolution"
  bottom: "conv4_2"
  top: "conv4_3"
  param {
    lr_mult: 1
  }
  param {
    lr_mult: 2
  }
  convolution_param {
    num_output: 512
    pad: 1
    kernel_size: 3
  }
}
layer {
  name: "relu4_3"
  type: "ReLU"
  bottom: "conv4_3"
  top: "conv4_3"
}
layer {
  name: "pool4"
  type: "Pooling"
  bottom: "conv4_3"
  top: "pool4"
  pooling_param {
    pool: MAX
    kernel_size: 2
    stride: 2
  }
}
layer {
  name: "conv5_1"
  type: "Convolution"
  bottom: "pool4"
  top: "conv5_1"
  param {
    lr_mult: 1
  }
  param {
    lr_mult: 2
  }
  convolution_param {
    num_output: 512
    pad: 1
    kernel_size: 3
  }
}
layer {
  name: "relu5_1"
  type: "ReLU"
  bottom: "conv5_1"
  top: "conv5_1"
}
layer {
  name: "conv5_2"
  type: "Convolution"
  bottom: "conv5_1"
  top: "conv5_2"
  param {
    lr_mult: 1
  }
  param {
    lr_mult: 2
  }
  convolution_param {
    num_output: 512
    pad: 1
    kernel_size: 3
  }
}
layer {
  name: "relu5_2"
  type: "ReLU"
  bottom: "conv5_2"
  top: "conv5_2"
}
layer {
  name: "conv5_3"
  type: "Convolution"
  bottom: "conv5_2"
  top: "conv5_3"
  param {
    lr_mult: 1
  }
  param {
    lr_mult: 2
  }
  convolution_param {
    num_output: 512
    pad: 1
    kernel_size: 3
  }
}
layer {
  name: "relu5_3"
  type: "ReLU"
  bottom: "conv5_3"
  top: "conv5_3"
}
layer {
  name: "rpn_conv/3x3"
  type: "Convolution"
  bottom: "conv5_3"
  top: "rpn/output"
  param {
    lr_mult: 1
  }
  param {
    lr_mult: 2
  }
  convolution_param {
    num_output: 512
    pad: 1
    kernel_size: 3
    stride: 1
    weight_filler {
      type: "gaussian"
      std: 0.01
    }
    bias_filler {
      type: "constant"
      value: 0
    }
  }
}
layer {
  name: "rpn_relu/3x3"
  type: "ReLU"
  bottom: "rpn/output"
  top: "rpn/output"
}
layer {
  name: "rpn_cls_score"
  type: "Convolution"
  bottom: "rpn/output"
  top: "rpn_cls_score"
  param {
    lr_mult: 1
  }
  param {
    lr_mult: 2
  }
  convolution_param {
    num_output: 18
    pad: 0
    kernel_size: 1
    stride: 1
    weight_filler {
      type: "gaussian"
      std: 0.01
    }
    bias_filler {
      type: "constant"
      value: 0
    }
  }
}
layer {
  name: "rpn_bbox_pred"
  type: "Convolution"
  bottom: "rpn/output"
  top: "rpn_bbox_pred"
  param {
    lr_mult: 1
  }
  param {
    lr_mult: 2
  }
  convolution_param {
    num_output: 36
    pad: 0
    kernel_size: 1
    stride: 1
    weight_filler {
      type: "gaussian"
      std: 0.01
    }
    bias_filler {
      type: "constant"
      value: 0
    }
  }
}
layer {
  name: "rpn_cls_score_reshape"
  type: "Reshape"
  bottom: "rpn_cls_score"
  top: "rpn_cls_score_reshape"
  reshape_param {
    shape {
      dim: 0
      dim: 2
      dim: -1
      dim: 0
    }
  }
}
layer {
  name: "rpn-data"
  type: "Python"
  bottom: "rpn_cls_score"
  bottom: "gt_boxes"
  bottom: "im_info"
  bottom: "data"
  top: "rpn_labels"
  top: "rpn_bbox_targets"
  top: "rpn_bbox_inside_weights"
  top: "rpn_bbox_outside_weights"
  python_param {
    module: "rpn.anchor_target_layer"
    layer: "AnchorTargetLayer"
    param_str: "\'feat_stride\': 16"
  }
}
layer {
  name: "rpn_loss_cls"
  type: "SoftmaxWithLoss"
  bottom: "rpn_cls_score_reshape"
  bottom: "rpn_labels"
  top: "rpn_cls_loss"
  loss_weight: 1
  propagate_down: true
  propagate_down: false
  loss_param {
    ignore_label: -1
    normalize: true
  }
}
layer {
  name: "rpn_loss_bbox"
  type: "SmoothL1Loss"
  bottom: "rpn_bbox_pred"
  bottom: "rpn_bbox_targets"
  bottom: "rpn_bbox_inside_weights"
  bottom: "rpn_bbox_outside_weights"
  top: "rpn_loss_bbox"
  loss_weight: 1
  smooth_l1_loss_param {
    sigma: 3
  }
}
layer {
  name: "rpn_cls_prob"
  type: "Softmax"
  bottom: "rpn_cls_score_reshape"
  top: "rpn_cls_prob"
}
layer {
  name: "rpn_cls_prob_reshape"
  type: "Reshape"
  bottom: "rpn_cls_prob"
  top: "rpn_cls_prob_reshape"
  reshape_param {
    shape {
      dim: 0
      dim: 18
      dim: -1
      dim: 0
    }
  }
}
layer {
  name: "proposal"
  type: "Python"
  bottom: "rpn_cls_prob_reshape"
  bottom: "rpn_bbox_pred"
  bottom: "im_info"
  top: "rpn_rois"
  python_param {
    module: "rpn.proposal_layer"
    layer: "ProposalLayer"
    param_str: "\'feat_stride\': 16"
  }
}
layer {
  name: "roi-data"
  type: "Python"
  bottom: "rpn_rois"
  bottom: "gt_boxes"
  top: "rois"
  top: "labels"
  top: "bbox_targets"
  top: "bbox_inside_weights"
  top: "bbox_outside_weights"
  top: "key_targets"
  top: "key_inside_weights"
  top: "key_outside_weights"
  python_param {
    module: "rpn.proposal_target_layer"
    layer: "ProposalTargetLayer"
    param_str: "\'num_classes\': 21"
  }
}
layer {
  name: "roi_pool5"
  type: "ROIPooling"
  bottom: "conv5_3"
  bottom: "rois"
  top: "pool5"
  roi_pooling_param {
    pooled_h: 7
    pooled_w: 7
    spatial_scale: 0.0625
  }
}
layer {
  name: "fc6"
  type: "InnerProduct"
  bottom: "pool5"
  top: "fc6"
  param {
    lr_mult: 1
  }
  param {
    lr_mult: 2
  }
  inner_product_param {
    num_output: 4096
  }
}
layer {
  name: "relu6"
  type: "ReLU"
  bottom: "fc6"
  top: "fc6"
}
layer {
  name: "drop6"
  type: "Dropout"
  bottom: "fc6"
  top: "fc6"
  dropout_param {
    dropout_ratio: 0.5
  }
}
layer {
  name: "fc7"
  type: "InnerProduct"
  bottom: "fc6"
  top: "fc7"
  param {
    lr_mult: 1
  }
  param {
    lr_mult: 2
  }
  inner_product_param {
    num_output: 4096
  }
}
layer {
  name: "relu7"
  type: "ReLU"
  bottom: "fc7"
  top: "fc7"
}
layer {
  name: "drop7"
  type: "Dropout"
  bottom: "fc7"
  top: "fc7"
  dropout_param {
    dropout_ratio: 0.5
  }
}
layer {
  name: "cls_score"
  type: "InnerProduct"
  bottom: "fc7"
  top: "cls_score"
  param {
    lr_mult: 1
  }
  param {
    lr_mult: 2
  }
  inner_product_param {
    num_output: 21
    weight_filler {
      type: "gaussian"
      std: 0.01
    }
    bias_filler {
      type: "constant"
      value: 0
    }
  }
}
layer {
  name: "bbox_pred"
  type: "InnerProduct"
  bottom: "fc7"
  top: "bbox_pred"
  param {
    lr_mult: 1
  }
  param {
    lr_mult: 2
  }
  inner_product_param {
    num_output: 84
    weight_filler {
      type: "gaussian"
      std: 0.001
    }
    bias_filler {
      type: "constant"
      value: 0
    }
  }
}
layer {
  name: "key_pred"
  type: "InnerProduct"
  bottom: "fc7"
  top: "key_pred"
  param {
    lr_mult: 1
  }
  param {
    lr_mult: 2
  }
  inner_product_param {
    num_output: 84
    weight_filler {
      type: "gaussian"
      std: 0.001
    }
    bias_filler {
      type: "constant"
      value: 0
    }
  }
}
layer {
  name: "loss_cls"
  type: "SoftmaxWithLoss"
  bottom: "cls_score"
  bottom: "labels"
  top: "loss_cls"
  loss_weight: 1
  propagate_down: true
  propagate_down: false
}
layer {
  name: "loss_bbox"
  type: "SmoothL1Loss"
  bottom: "bbox_pred"
  bottom: "bbox_targets"
  bottom: "bbox_inside_weights"
  bottom: "bbox_outside_weights"
  top: "loss_bbox"
  loss_weight: 1
}
layer {
  name: "loss_key"
  type: "SmoothL1Loss"
  bottom: "key_pred"
  bottom: "key_targets"
  bottom: "key_inside_weights"
  bottom: "key_outside_weights"
  top: "loss_key"
  loss_weight: 1
}
I0829 20:19:22.337678  1952 layer_factory.hpp:77] Creating layer input-data
I0829 20:19:22.351251  1952 net.cpp:106] Creating Layer input-data
I0829 20:19:22.351279  1952 net.cpp:411] input-data -> data
I0829 20:19:22.351294  1952 net.cpp:411] input-data -> im_info
I0829 20:19:22.351301  1952 net.cpp:411] input-data -> gt_boxes
RoiDataLayer: name_to_top: {'gt_boxes': 2, 'data': 0, 'im_info': 1}
I0829 20:19:22.363162  1952 net.cpp:150] Setting up input-data
I0829 20:19:22.363185  1952 net.cpp:157] Top shape: 1 3 600 1000 (1800000)
I0829 20:19:22.363193  1952 net.cpp:157] Top shape: 1 3 (3)
I0829 20:19:22.363196  1952 net.cpp:157] Top shape: 1 4 (4)
I0829 20:19:22.363198  1952 net.cpp:165] Memory required for data: 7200028
I0829 20:19:22.363205  1952 layer_factory.hpp:77] Creating layer data_input-data_0_split
I0829 20:19:22.363222  1952 net.cpp:106] Creating Layer data_input-data_0_split
I0829 20:19:22.363229  1952 net.cpp:454] data_input-data_0_split <- data
I0829 20:19:22.363240  1952 net.cpp:411] data_input-data_0_split -> data_input-data_0_split_0
I0829 20:19:22.363252  1952 net.cpp:411] data_input-data_0_split -> data_input-data_0_split_1
I0829 20:19:22.363314  1952 net.cpp:150] Setting up data_input-data_0_split
I0829 20:19:22.363324  1952 net.cpp:157] Top shape: 1 3 600 1000 (1800000)
I0829 20:19:22.363330  1952 net.cpp:157] Top shape: 1 3 600 1000 (1800000)
I0829 20:19:22.363333  1952 net.cpp:165] Memory required for data: 21600028
I0829 20:19:22.363337  1952 layer_factory.hpp:77] Creating layer im_info_input-data_1_split
I0829 20:19:22.363344  1952 net.cpp:106] Creating Layer im_info_input-data_1_split
I0829 20:19:22.363349  1952 net.cpp:454] im_info_input-data_1_split <- im_info
I0829 20:19:22.363356  1952 net.cpp:411] im_info_input-data_1_split -> im_info_input-data_1_split_0
I0829 20:19:22.363366  1952 net.cpp:411] im_info_input-data_1_split -> im_info_input-data_1_split_1
I0829 20:19:22.363418  1952 net.cpp:150] Setting up im_info_input-data_1_split
I0829 20:19:22.363425  1952 net.cpp:157] Top shape: 1 3 (3)
I0829 20:19:22.363430  1952 net.cpp:157] Top shape: 1 3 (3)
I0829 20:19:22.363433  1952 net.cpp:165] Memory required for data: 21600052
I0829 20:19:22.363437  1952 layer_factory.hpp:77] Creating layer gt_boxes_input-data_2_split
I0829 20:19:22.363445  1952 net.cpp:106] Creating Layer gt_boxes_input-data_2_split
I0829 20:19:22.363448  1952 net.cpp:454] gt_boxes_input-data_2_split <- gt_boxes
I0829 20:19:22.363456  1952 net.cpp:411] gt_boxes_input-data_2_split -> gt_boxes_input-data_2_split_0
I0829 20:19:22.363466  1952 net.cpp:411] gt_boxes_input-data_2_split -> gt_boxes_input-data_2_split_1
I0829 20:19:22.363517  1952 net.cpp:150] Setting up gt_boxes_input-data_2_split
I0829 20:19:22.363524  1952 net.cpp:157] Top shape: 1 4 (4)
I0829 20:19:22.363530  1952 net.cpp:157] Top shape: 1 4 (4)
I0829 20:19:22.363533  1952 net.cpp:165] Memory required for data: 21600084
I0829 20:19:22.363536  1952 layer_factory.hpp:77] Creating layer conv1_1
I0829 20:19:22.363553  1952 net.cpp:106] Creating Layer conv1_1
I0829 20:19:22.363559  1952 net.cpp:454] conv1_1 <- data_input-data_0_split_0
I0829 20:19:22.363566  1952 net.cpp:411] conv1_1 -> conv1_1
I0829 20:19:22.666862  1952 net.cpp:150] Setting up conv1_1
I0829 20:19:22.666901  1952 net.cpp:157] Top shape: 1 64 600 1000 (38400000)
I0829 20:19:22.666913  1952 net.cpp:165] Memory required for data: 175200084
I0829 20:19:22.666939  1952 layer_factory.hpp:77] Creating layer relu1_1
I0829 20:19:22.666952  1952 net.cpp:106] Creating Layer relu1_1
I0829 20:19:22.666965  1952 net.cpp:454] relu1_1 <- conv1_1
I0829 20:19:22.666973  1952 net.cpp:397] relu1_1 -> conv1_1 (in-place)
I0829 20:19:22.667688  1952 net.cpp:150] Setting up relu1_1
I0829 20:19:22.667703  1952 net.cpp:157] Top shape: 1 64 600 1000 (38400000)
I0829 20:19:22.667707  1952 net.cpp:165] Memory required for data: 328800084
I0829 20:19:22.667711  1952 layer_factory.hpp:77] Creating layer conv1_2
I0829 20:19:22.667724  1952 net.cpp:106] Creating Layer conv1_2
I0829 20:19:22.667728  1952 net.cpp:454] conv1_2 <- conv1_1
I0829 20:19:22.667738  1952 net.cpp:411] conv1_2 -> conv1_2
I0829 20:19:22.678222  1952 net.cpp:150] Setting up conv1_2
I0829 20:19:22.678288  1952 net.cpp:157] Top shape: 1 64 600 1000 (38400000)
I0829 20:19:22.678298  1952 net.cpp:165] Memory required for data: 482400084
I0829 20:19:22.678338  1952 layer_factory.hpp:77] Creating layer relu1_2
I0829 20:19:22.678359  1952 net.cpp:106] Creating Layer relu1_2
I0829 20:19:22.678374  1952 net.cpp:454] relu1_2 <- conv1_2
I0829 20:19:22.678391  1952 net.cpp:397] relu1_2 -> conv1_2 (in-place)
I0829 20:19:22.678843  1952 net.cpp:150] Setting up relu1_2
I0829 20:19:22.678869  1952 net.cpp:157] Top shape: 1 64 600 1000 (38400000)
I0829 20:19:22.678875  1952 net.cpp:165] Memory required for data: 636000084
I0829 20:19:22.678882  1952 layer_factory.hpp:77] Creating layer pool1
I0829 20:19:22.678903  1952 net.cpp:106] Creating Layer pool1
I0829 20:19:22.678930  1952 net.cpp:454] pool1 <- conv1_2
I0829 20:19:22.678944  1952 net.cpp:411] pool1 -> pool1
I0829 20:19:22.679127  1952 net.cpp:150] Setting up pool1
I0829 20:19:22.679146  1952 net.cpp:157] Top shape: 1 64 300 500 (9600000)
I0829 20:19:22.679152  1952 net.cpp:165] Memory required for data: 674400084
I0829 20:19:22.679157  1952 layer_factory.hpp:77] Creating layer conv2_1
I0829 20:19:22.679179  1952 net.cpp:106] Creating Layer conv2_1
I0829 20:19:22.679189  1952 net.cpp:454] conv2_1 <- pool1
I0829 20:19:22.679203  1952 net.cpp:411] conv2_1 -> conv2_1
I0829 20:19:22.685070  1952 net.cpp:150] Setting up conv2_1
I0829 20:19:22.685111  1952 net.cpp:157] Top shape: 1 128 300 500 (19200000)
I0829 20:19:22.685118  1952 net.cpp:165] Memory required for data: 751200084
I0829 20:19:22.685149  1952 layer_factory.hpp:77] Creating layer relu2_1
I0829 20:19:22.685164  1952 net.cpp:106] Creating Layer relu2_1
I0829 20:19:22.685180  1952 net.cpp:454] relu2_1 <- conv2_1
I0829 20:19:22.685192  1952 net.cpp:397] relu2_1 -> conv2_1 (in-place)
I0829 20:19:22.685622  1952 net.cpp:150] Setting up relu2_1
I0829 20:19:22.685652  1952 net.cpp:157] Top shape: 1 128 300 500 (19200000)
I0829 20:19:22.685658  1952 net.cpp:165] Memory required for data: 828000084
I0829 20:19:22.685665  1952 layer_factory.hpp:77] Creating layer conv2_2
I0829 20:19:22.685689  1952 net.cpp:106] Creating Layer conv2_2
I0829 20:19:22.685700  1952 net.cpp:454] conv2_2 <- conv2_1
I0829 20:19:22.685715  1952 net.cpp:411] conv2_2 -> conv2_2
I0829 20:19:22.693949  1952 net.cpp:150] Setting up conv2_2
I0829 20:19:22.694003  1952 net.cpp:157] Top shape: 1 128 300 500 (19200000)
I0829 20:19:22.694010  1952 net.cpp:165] Memory required for data: 904800084
I0829 20:19:22.694030  1952 layer_factory.hpp:77] Creating layer relu2_2
I0829 20:19:22.694049  1952 net.cpp:106] Creating Layer relu2_2
I0829 20:19:22.694058  1952 net.cpp:454] relu2_2 <- conv2_2
I0829 20:19:22.694073  1952 net.cpp:397] relu2_2 -> conv2_2 (in-place)
I0829 20:19:22.694861  1952 net.cpp:150] Setting up relu2_2
I0829 20:19:22.694886  1952 net.cpp:157] Top shape: 1 128 300 500 (19200000)
I0829 20:19:22.694892  1952 net.cpp:165] Memory required for data: 981600084
I0829 20:19:22.694900  1952 layer_factory.hpp:77] Creating layer pool2
I0829 20:19:22.694926  1952 net.cpp:106] Creating Layer pool2
I0829 20:19:22.694937  1952 net.cpp:454] pool2 <- conv2_2
I0829 20:19:22.694950  1952 net.cpp:411] pool2 -> pool2
I0829 20:19:22.695091  1952 net.cpp:150] Setting up pool2
I0829 20:19:22.695106  1952 net.cpp:157] Top shape: 1 128 150 250 (4800000)
I0829 20:19:22.695112  1952 net.cpp:165] Memory required for data: 1000800084
I0829 20:19:22.695132  1952 layer_factory.hpp:77] Creating layer conv3_1
I0829 20:19:22.695154  1952 net.cpp:106] Creating Layer conv3_1
I0829 20:19:22.695163  1952 net.cpp:454] conv3_1 <- pool2
I0829 20:19:22.695175  1952 net.cpp:411] conv3_1 -> conv3_1
I0829 20:19:22.700999  1952 net.cpp:150] Setting up conv3_1
I0829 20:19:22.701053  1952 net.cpp:157] Top shape: 1 256 150 250 (9600000)
I0829 20:19:22.701061  1952 net.cpp:165] Memory required for data: 1039200084
I0829 20:19:22.701088  1952 layer_factory.hpp:77] Creating layer relu3_1
I0829 20:19:22.701110  1952 net.cpp:106] Creating Layer relu3_1
I0829 20:19:22.701118  1952 net.cpp:454] relu3_1 <- conv3_1
I0829 20:19:22.701131  1952 net.cpp:397] relu3_1 -> conv3_1 (in-place)
I0829 20:19:22.701510  1952 net.cpp:150] Setting up relu3_1
I0829 20:19:22.701531  1952 net.cpp:157] Top shape: 1 256 150 250 (9600000)
I0829 20:19:22.701537  1952 net.cpp:165] Memory required for data: 1077600084
I0829 20:19:22.701544  1952 layer_factory.hpp:77] Creating layer conv3_2
I0829 20:19:22.701575  1952 net.cpp:106] Creating Layer conv3_2
I0829 20:19:22.701584  1952 net.cpp:454] conv3_2 <- conv3_1
I0829 20:19:22.701596  1952 net.cpp:411] conv3_2 -> conv3_2
I0829 20:19:22.709588  1952 net.cpp:150] Setting up conv3_2
I0829 20:19:22.709617  1952 net.cpp:157] Top shape: 1 256 150 250 (9600000)
I0829 20:19:22.709624  1952 net.cpp:165] Memory required for data: 1116000084
I0829 20:19:22.709636  1952 layer_factory.hpp:77] Creating layer relu3_2
I0829 20:19:22.709652  1952 net.cpp:106] Creating Layer relu3_2
I0829 20:19:22.709661  1952 net.cpp:454] relu3_2 <- conv3_2
I0829 20:19:22.709671  1952 net.cpp:397] relu3_2 -> conv3_2 (in-place)
I0829 20:19:22.710026  1952 net.cpp:150] Setting up relu3_2
I0829 20:19:22.710044  1952 net.cpp:157] Top shape: 1 256 150 250 (9600000)
I0829 20:19:22.710049  1952 net.cpp:165] Memory required for data: 1154400084
I0829 20:19:22.710055  1952 layer_factory.hpp:77] Creating layer conv3_3
I0829 20:19:22.710075  1952 net.cpp:106] Creating Layer conv3_3
I0829 20:19:22.710084  1952 net.cpp:454] conv3_3 <- conv3_2
I0829 20:19:22.710096  1952 net.cpp:411] conv3_3 -> conv3_3
I0829 20:19:22.717576  1952 net.cpp:150] Setting up conv3_3
I0829 20:19:22.717622  1952 net.cpp:157] Top shape: 1 256 150 250 (9600000)
I0829 20:19:22.717628  1952 net.cpp:165] Memory required for data: 1192800084
I0829 20:19:22.717643  1952 layer_factory.hpp:77] Creating layer relu3_3
I0829 20:19:22.717658  1952 net.cpp:106] Creating Layer relu3_3
I0829 20:19:22.717664  1952 net.cpp:454] relu3_3 <- conv3_3
I0829 20:19:22.717676  1952 net.cpp:397] relu3_3 -> conv3_3 (in-place)
I0829 20:19:22.718394  1952 net.cpp:150] Setting up relu3_3
I0829 20:19:22.718416  1952 net.cpp:157] Top shape: 1 256 150 250 (9600000)
I0829 20:19:22.718421  1952 net.cpp:165] Memory required for data: 1231200084
I0829 20:19:22.718427  1952 layer_factory.hpp:77] Creating layer pool3
I0829 20:19:22.718441  1952 net.cpp:106] Creating Layer pool3
I0829 20:19:22.718448  1952 net.cpp:454] pool3 <- conv3_3
I0829 20:19:22.718461  1952 net.cpp:411] pool3 -> pool3
I0829 20:19:22.718587  1952 net.cpp:150] Setting up pool3
I0829 20:19:22.718600  1952 net.cpp:157] Top shape: 1 256 75 125 (2400000)
I0829 20:19:22.718605  1952 net.cpp:165] Memory required for data: 1240800084
I0829 20:19:22.718611  1952 layer_factory.hpp:77] Creating layer conv4_1
I0829 20:19:22.718626  1952 net.cpp:106] Creating Layer conv4_1
I0829 20:19:22.718634  1952 net.cpp:454] conv4_1 <- pool3
I0829 20:19:22.718644  1952 net.cpp:411] conv4_1 -> conv4_1
I0829 20:19:22.733896  1952 net.cpp:150] Setting up conv4_1
I0829 20:19:22.733944  1952 net.cpp:157] Top shape: 1 512 75 125 (4800000)
I0829 20:19:22.733950  1952 net.cpp:165] Memory required for data: 1260000084
I0829 20:19:22.733965  1952 layer_factory.hpp:77] Creating layer relu4_1
I0829 20:19:22.733980  1952 net.cpp:106] Creating Layer relu4_1
I0829 20:19:22.733988  1952 net.cpp:454] relu4_1 <- conv4_1
I0829 20:19:22.734000  1952 net.cpp:397] relu4_1 -> conv4_1 (in-place)
I0829 20:19:22.734871  1952 net.cpp:150] Setting up relu4_1
I0829 20:19:22.734894  1952 net.cpp:157] Top shape: 1 512 75 125 (4800000)
I0829 20:19:22.734899  1952 net.cpp:165] Memory required for data: 1279200084
I0829 20:19:22.734913  1952 layer_factory.hpp:77] Creating layer conv4_2
I0829 20:19:22.734946  1952 net.cpp:106] Creating Layer conv4_2
I0829 20:19:22.734956  1952 net.cpp:454] conv4_2 <- conv4_1
I0829 20:19:22.734971  1952 net.cpp:411] conv4_2 -> conv4_2
I0829 20:19:22.752329  1952 net.cpp:150] Setting up conv4_2
I0829 20:19:22.752369  1952 net.cpp:157] Top shape: 1 512 75 125 (4800000)
I0829 20:19:22.752374  1952 net.cpp:165] Memory required for data: 1298400084
I0829 20:19:22.752401  1952 layer_factory.hpp:77] Creating layer relu4_2
I0829 20:19:22.752416  1952 net.cpp:106] Creating Layer relu4_2
I0829 20:19:22.752423  1952 net.cpp:454] relu4_2 <- conv4_2
I0829 20:19:22.752434  1952 net.cpp:397] relu4_2 -> conv4_2 (in-place)
I0829 20:19:22.752678  1952 net.cpp:150] Setting up relu4_2
I0829 20:19:22.752693  1952 net.cpp:157] Top shape: 1 512 75 125 (4800000)
I0829 20:19:22.752696  1952 net.cpp:165] Memory required for data: 1317600084
I0829 20:19:22.752701  1952 layer_factory.hpp:77] Creating layer conv4_3
I0829 20:19:22.752715  1952 net.cpp:106] Creating Layer conv4_3
I0829 20:19:22.752722  1952 net.cpp:454] conv4_3 <- conv4_2
I0829 20:19:22.752732  1952 net.cpp:411] conv4_3 -> conv4_3
I0829 20:19:22.768673  1952 net.cpp:150] Setting up conv4_3
I0829 20:19:22.768717  1952 net.cpp:157] Top shape: 1 512 75 125 (4800000)
I0829 20:19:22.768720  1952 net.cpp:165] Memory required for data: 1336800084
I0829 20:19:22.768734  1952 layer_factory.hpp:77] Creating layer relu4_3
I0829 20:19:22.768748  1952 net.cpp:106] Creating Layer relu4_3
I0829 20:19:22.768754  1952 net.cpp:454] relu4_3 <- conv4_3
I0829 20:19:22.768766  1952 net.cpp:397] relu4_3 -> conv4_3 (in-place)
I0829 20:19:22.769335  1952 net.cpp:150] Setting up relu4_3
I0829 20:19:22.769351  1952 net.cpp:157] Top shape: 1 512 75 125 (4800000)
I0829 20:19:22.769362  1952 net.cpp:165] Memory required for data: 1356000084
I0829 20:19:22.769366  1952 layer_factory.hpp:77] Creating layer pool4
I0829 20:19:22.769379  1952 net.cpp:106] Creating Layer pool4
I0829 20:19:22.769383  1952 net.cpp:454] pool4 <- conv4_3
I0829 20:19:22.769392  1952 net.cpp:411] pool4 -> pool4
I0829 20:19:22.769486  1952 net.cpp:150] Setting up pool4
I0829 20:19:22.769496  1952 net.cpp:157] Top shape: 1 512 38 63 (1225728)
I0829 20:19:22.769500  1952 net.cpp:165] Memory required for data: 1360902996
I0829 20:19:22.769503  1952 layer_factory.hpp:77] Creating layer conv5_1
I0829 20:19:22.769517  1952 net.cpp:106] Creating Layer conv5_1
I0829 20:19:22.769523  1952 net.cpp:454] conv5_1 <- pool4
I0829 20:19:22.769532  1952 net.cpp:411] conv5_1 -> conv5_1
I0829 20:19:22.785387  1952 net.cpp:150] Setting up conv5_1
I0829 20:19:22.785434  1952 net.cpp:157] Top shape: 1 512 38 63 (1225728)
I0829 20:19:22.785439  1952 net.cpp:165] Memory required for data: 1365805908
I0829 20:19:22.785451  1952 layer_factory.hpp:77] Creating layer relu5_1
I0829 20:19:22.785466  1952 net.cpp:106] Creating Layer relu5_1
I0829 20:19:22.785471  1952 net.cpp:454] relu5_1 <- conv5_1
I0829 20:19:22.785482  1952 net.cpp:397] relu5_1 -> conv5_1 (in-place)
I0829 20:19:22.785723  1952 net.cpp:150] Setting up relu5_1
I0829 20:19:22.785739  1952 net.cpp:157] Top shape: 1 512 38 63 (1225728)
I0829 20:19:22.785745  1952 net.cpp:165] Memory required for data: 1370708820
I0829 20:19:22.785750  1952 layer_factory.hpp:77] Creating layer conv5_2
I0829 20:19:22.785763  1952 net.cpp:106] Creating Layer conv5_2
I0829 20:19:22.785768  1952 net.cpp:454] conv5_2 <- conv5_1
I0829 20:19:22.785778  1952 net.cpp:411] conv5_2 -> conv5_2
I0829 20:19:22.802326  1952 net.cpp:150] Setting up conv5_2
I0829 20:19:22.802362  1952 net.cpp:157] Top shape: 1 512 38 63 (1225728)
I0829 20:19:22.802366  1952 net.cpp:165] Memory required for data: 1375611732
I0829 20:19:22.802379  1952 layer_factory.hpp:77] Creating layer relu5_2
I0829 20:19:22.802393  1952 net.cpp:106] Creating Layer relu5_2
I0829 20:19:22.802399  1952 net.cpp:454] relu5_2 <- conv5_2
I0829 20:19:22.802410  1952 net.cpp:397] relu5_2 -> conv5_2 (in-place)
I0829 20:19:22.802644  1952 net.cpp:150] Setting up relu5_2
I0829 20:19:22.802657  1952 net.cpp:157] Top shape: 1 512 38 63 (1225728)
I0829 20:19:22.802660  1952 net.cpp:165] Memory required for data: 1380514644
I0829 20:19:22.802664  1952 layer_factory.hpp:77] Creating layer conv5_3
I0829 20:19:22.802687  1952 net.cpp:106] Creating Layer conv5_3
I0829 20:19:22.802695  1952 net.cpp:454] conv5_3 <- conv5_2
I0829 20:19:22.802701  1952 net.cpp:411] conv5_3 -> conv5_3
I0829 20:19:22.818725  1952 net.cpp:150] Setting up conv5_3
I0829 20:19:22.818768  1952 net.cpp:157] Top shape: 1 512 38 63 (1225728)
I0829 20:19:22.818773  1952 net.cpp:165] Memory required for data: 1385417556
I0829 20:19:22.818785  1952 layer_factory.hpp:77] Creating layer relu5_3
I0829 20:19:22.818799  1952 net.cpp:106] Creating Layer relu5_3
I0829 20:19:22.818804  1952 net.cpp:454] relu5_3 <- conv5_3
I0829 20:19:22.818816  1952 net.cpp:397] relu5_3 -> conv5_3 (in-place)
I0829 20:19:22.819372  1952 net.cpp:150] Setting up relu5_3
I0829 20:19:22.819388  1952 net.cpp:157] Top shape: 1 512 38 63 (1225728)
I0829 20:19:22.819398  1952 net.cpp:165] Memory required for data: 1390320468
I0829 20:19:22.819402  1952 layer_factory.hpp:77] Creating layer conv5_3_relu5_3_0_split
I0829 20:19:22.819412  1952 net.cpp:106] Creating Layer conv5_3_relu5_3_0_split
I0829 20:19:22.819416  1952 net.cpp:454] conv5_3_relu5_3_0_split <- conv5_3
I0829 20:19:22.819423  1952 net.cpp:411] conv5_3_relu5_3_0_split -> conv5_3_relu5_3_0_split_0
I0829 20:19:22.819433  1952 net.cpp:411] conv5_3_relu5_3_0_split -> conv5_3_relu5_3_0_split_1
I0829 20:19:22.819519  1952 net.cpp:150] Setting up conv5_3_relu5_3_0_split
I0829 20:19:22.819530  1952 net.cpp:157] Top shape: 1 512 38 63 (1225728)
I0829 20:19:22.819535  1952 net.cpp:157] Top shape: 1 512 38 63 (1225728)
I0829 20:19:22.819537  1952 net.cpp:165] Memory required for data: 1400126292
I0829 20:19:22.819540  1952 layer_factory.hpp:77] Creating layer rpn_conv/3x3
I0829 20:19:22.819556  1952 net.cpp:106] Creating Layer rpn_conv/3x3
I0829 20:19:22.819563  1952 net.cpp:454] rpn_conv/3x3 <- conv5_3_relu5_3_0_split_0
I0829 20:19:22.819574  1952 net.cpp:411] rpn_conv/3x3 -> rpn/output
I0829 20:19:22.862818  1952 net.cpp:150] Setting up rpn_conv/3x3
I0829 20:19:22.862855  1952 net.cpp:157] Top shape: 1 512 38 63 (1225728)
I0829 20:19:22.862859  1952 net.cpp:165] Memory required for data: 1405029204
I0829 20:19:22.862872  1952 layer_factory.hpp:77] Creating layer rpn_relu/3x3
I0829 20:19:22.862890  1952 net.cpp:106] Creating Layer rpn_relu/3x3
I0829 20:19:22.862896  1952 net.cpp:454] rpn_relu/3x3 <- rpn/output
I0829 20:19:22.862913  1952 net.cpp:397] rpn_relu/3x3 -> rpn/output (in-place)
I0829 20:19:22.863162  1952 net.cpp:150] Setting up rpn_relu/3x3
I0829 20:19:22.863176  1952 net.cpp:157] Top shape: 1 512 38 63 (1225728)
I0829 20:19:22.863180  1952 net.cpp:165] Memory required for data: 1409932116
I0829 20:19:22.863183  1952 layer_factory.hpp:77] Creating layer rpn/output_rpn_relu/3x3_0_split
I0829 20:19:22.863191  1952 net.cpp:106] Creating Layer rpn/output_rpn_relu/3x3_0_split
I0829 20:19:22.863195  1952 net.cpp:454] rpn/output_rpn_relu/3x3_0_split <- rpn/output
I0829 20:19:22.863206  1952 net.cpp:411] rpn/output_rpn_relu/3x3_0_split -> rpn/output_rpn_relu/3x3_0_split_0
I0829 20:19:22.863215  1952 net.cpp:411] rpn/output_rpn_relu/3x3_0_split -> rpn/output_rpn_relu/3x3_0_split_1
I0829 20:19:22.863301  1952 net.cpp:150] Setting up rpn/output_rpn_relu/3x3_0_split
I0829 20:19:22.863311  1952 net.cpp:157] Top shape: 1 512 38 63 (1225728)
I0829 20:19:22.863314  1952 net.cpp:157] Top shape: 1 512 38 63 (1225728)
I0829 20:19:22.863317  1952 net.cpp:165] Memory required for data: 1419737940
I0829 20:19:22.863322  1952 layer_factory.hpp:77] Creating layer rpn_cls_score
I0829 20:19:22.863338  1952 net.cpp:106] Creating Layer rpn_cls_score
I0829 20:19:22.863344  1952 net.cpp:454] rpn_cls_score <- rpn/output_rpn_relu/3x3_0_split_0
I0829 20:19:22.863354  1952 net.cpp:411] rpn_cls_score -> rpn_cls_score
I0829 20:19:22.865651  1952 net.cpp:150] Setting up rpn_cls_score
I0829 20:19:22.865667  1952 net.cpp:157] Top shape: 1 18 38 63 (43092)
I0829 20:19:22.865676  1952 net.cpp:165] Memory required for data: 1419910308
I0829 20:19:22.865684  1952 layer_factory.hpp:77] Creating layer rpn_cls_score_rpn_cls_score_0_split
I0829 20:19:22.865694  1952 net.cpp:106] Creating Layer rpn_cls_score_rpn_cls_score_0_split
I0829 20:19:22.865698  1952 net.cpp:454] rpn_cls_score_rpn_cls_score_0_split <- rpn_cls_score
I0829 20:19:22.865705  1952 net.cpp:411] rpn_cls_score_rpn_cls_score_0_split -> rpn_cls_score_rpn_cls_score_0_split_0
I0829 20:19:22.865727  1952 net.cpp:411] rpn_cls_score_rpn_cls_score_0_split -> rpn_cls_score_rpn_cls_score_0_split_1
I0829 20:19:22.865810  1952 net.cpp:150] Setting up rpn_cls_score_rpn_cls_score_0_split
I0829 20:19:22.865821  1952 net.cpp:157] Top shape: 1 18 38 63 (43092)
I0829 20:19:22.865825  1952 net.cpp:157] Top shape: 1 18 38 63 (43092)
I0829 20:19:22.865828  1952 net.cpp:165] Memory required for data: 1420255044
I0829 20:19:22.865831  1952 layer_factory.hpp:77] Creating layer rpn_bbox_pred
I0829 20:19:22.865846  1952 net.cpp:106] Creating Layer rpn_bbox_pred
I0829 20:19:22.865850  1952 net.cpp:454] rpn_bbox_pred <- rpn/output_rpn_relu/3x3_0_split_1
I0829 20:19:22.865861  1952 net.cpp:411] rpn_bbox_pred -> rpn_bbox_pred
I0829 20:19:22.867933  1952 net.cpp:150] Setting up rpn_bbox_pred
I0829 20:19:22.867949  1952 net.cpp:157] Top shape: 1 36 38 63 (86184)
I0829 20:19:22.867954  1952 net.cpp:165] Memory required for data: 1420599780
I0829 20:19:22.867961  1952 layer_factory.hpp:77] Creating layer rpn_bbox_pred_rpn_bbox_pred_0_split
I0829 20:19:22.867974  1952 net.cpp:106] Creating Layer rpn_bbox_pred_rpn_bbox_pred_0_split
I0829 20:19:22.867979  1952 net.cpp:454] rpn_bbox_pred_rpn_bbox_pred_0_split <- rpn_bbox_pred
I0829 20:19:22.867987  1952 net.cpp:411] rpn_bbox_pred_rpn_bbox_pred_0_split -> rpn_bbox_pred_rpn_bbox_pred_0_split_0
I0829 20:19:22.867997  1952 net.cpp:411] rpn_bbox_pred_rpn_bbox_pred_0_split -> rpn_bbox_pred_rpn_bbox_pred_0_split_1
I0829 20:19:22.868075  1952 net.cpp:150] Setting up rpn_bbox_pred_rpn_bbox_pred_0_split
I0829 20:19:22.868084  1952 net.cpp:157] Top shape: 1 36 38 63 (86184)
I0829 20:19:22.868089  1952 net.cpp:157] Top shape: 1 36 38 63 (86184)
I0829 20:19:22.868093  1952 net.cpp:165] Memory required for data: 1421289252
I0829 20:19:22.868095  1952 layer_factory.hpp:77] Creating layer rpn_cls_score_reshape
I0829 20:19:22.868108  1952 net.cpp:106] Creating Layer rpn_cls_score_reshape
I0829 20:19:22.868114  1952 net.cpp:454] rpn_cls_score_reshape <- rpn_cls_score_rpn_cls_score_0_split_0
I0829 20:19:22.868121  1952 net.cpp:411] rpn_cls_score_reshape -> rpn_cls_score_reshape
I0829 20:19:22.868172  1952 net.cpp:150] Setting up rpn_cls_score_reshape
I0829 20:19:22.868181  1952 net.cpp:157] Top shape: 1 2 342 63 (43092)
I0829 20:19:22.868185  1952 net.cpp:165] Memory required for data: 1421461620
I0829 20:19:22.868188  1952 layer_factory.hpp:77] Creating layer rpn_cls_score_reshape_rpn_cls_score_reshape_0_split
I0829 20:19:22.868194  1952 net.cpp:106] Creating Layer rpn_cls_score_reshape_rpn_cls_score_reshape_0_split
I0829 20:19:22.868198  1952 net.cpp:454] rpn_cls_score_reshape_rpn_cls_score_reshape_0_split <- rpn_cls_score_reshape
I0829 20:19:22.868206  1952 net.cpp:411] rpn_cls_score_reshape_rpn_cls_score_reshape_0_split -> rpn_cls_score_reshape_rpn_cls_score_reshape_0_split_0
I0829 20:19:22.868216  1952 net.cpp:411] rpn_cls_score_reshape_rpn_cls_score_reshape_0_split -> rpn_cls_score_reshape_rpn_cls_score_reshape_0_split_1
I0829 20:19:22.868284  1952 net.cpp:150] Setting up rpn_cls_score_reshape_rpn_cls_score_reshape_0_split
I0829 20:19:22.868294  1952 net.cpp:157] Top shape: 1 2 342 63 (43092)
I0829 20:19:22.868297  1952 net.cpp:157] Top shape: 1 2 342 63 (43092)
I0829 20:19:22.868300  1952 net.cpp:165] Memory required for data: 1421806356
I0829 20:19:22.868304  1952 layer_factory.hpp:77] Creating layer rpn-data
I0829 20:19:22.868908  1952 net.cpp:106] Creating Layer rpn-data
I0829 20:19:22.868923  1952 net.cpp:454] rpn-data <- rpn_cls_score_rpn_cls_score_0_split_1
I0829 20:19:22.868932  1952 net.cpp:454] rpn-data <- gt_boxes_input-data_2_split_0
I0829 20:19:22.868937  1952 net.cpp:454] rpn-data <- im_info_input-data_1_split_0
I0829 20:19:22.868942  1952 net.cpp:454] rpn-data <- data_input-data_0_split_1
I0829 20:19:22.868948  1952 net.cpp:411] rpn-data -> rpn_labels
I0829 20:19:22.868959  1952 net.cpp:411] rpn-data -> rpn_bbox_targets
I0829 20:19:22.868971  1952 net.cpp:411] rpn-data -> rpn_bbox_inside_weights
I0829 20:19:22.868983  1952 net.cpp:411] rpn-data -> rpn_bbox_outside_weights
I0829 20:19:22.870048  1952 net.cpp:150] Setting up rpn-data
I0829 20:19:22.870071  1952 net.cpp:157] Top shape: 1 1 342 63 (21546)
I0829 20:19:22.870077  1952 net.cpp:157] Top shape: 1 36 38 63 (86184)
I0829 20:19:22.870082  1952 net.cpp:157] Top shape: 1 36 38 63 (86184)
I0829 20:19:22.870086  1952 net.cpp:157] Top shape: 1 36 38 63 (86184)
I0829 20:19:22.870090  1952 net.cpp:165] Memory required for data: 1422926748
I0829 20:19:22.870093  1952 layer_factory.hpp:77] Creating layer rpn_loss_cls
I0829 20:19:22.870105  1952 net.cpp:106] Creating Layer rpn_loss_cls
I0829 20:19:22.870111  1952 net.cpp:454] rpn_loss_cls <- rpn_cls_score_reshape_rpn_cls_score_reshape_0_split_0
I0829 20:19:22.870117  1952 net.cpp:454] rpn_loss_cls <- rpn_labels
…
I0829 20:19:22.871628  1952 net.cpp:157] Top shape: (1)
I0829 20:19:22.871630  1952 net.cpp:160]     with loss weight 1
I0829 20:19:22.871636  1952 net.cpp:165] Memory required for data: 1422926756
I0829 20:19:22.871639  1952 layer_factory.hpp:77] Creating layer rpn_cls_prob
I0829 20:19:22.871651  1952 net.cpp:106] Creating Layer rpn_cls_prob
I0829 20:19:22.871655  1952 net.cpp:454] rpn_cls_prob <- rpn_cls_score_reshape_rpn_cls_score_reshape_0_split_1
I0829 20:19:22.871662  1952 net.cpp:411] rpn_cls_prob -> rpn_cls_prob
I0829 20:19:22.872405  1952 net.cpp:150] Setting up rpn_cls_prob
I0829 20:19:22.872421  1952 net.cpp:157] Top shape: 1 2 342 63 (43092)
I0829 20:19:22.872423  1952 net.cpp:165] Memory required for data: 1423099124
I0829 20:19:22.872427  1952 layer_factory.hpp:77] Creating layer rpn_cls_prob_reshape
I0829 20:19:22.872440  1952 net.cpp:106] Creating Layer rpn_cls_prob_reshape
I0829 20:19:22.872447  1952 net.cpp:454] rpn_cls_prob_reshape <- rpn_cls_prob
I0829 20:19:22.872457  1952 net.cpp:411] rpn_cls_prob_reshape -> rpn_cls_prob_reshape
I0829 20:19:22.872509  1952 net.cpp:150] Setting up rpn_cls_prob_reshape
I0829 20:19:22.872519  1952 net.cpp:157] Top shape: 1 18 38 63 (43092)
I0829 20:19:22.872522  1952 net.cpp:165] Memory required for data: 1423271492
I0829 20:19:22.872525  1952 layer_factory.hpp:77] Creating layer proposal
I0829 20:19:22.884724  1952 net.cpp:106] Creating Layer proposal
I0829 20:19:22.884766  1952 net.cpp:454] proposal <- rpn_cls_prob_reshape
I0829 20:19:22.884778  1952 net.cpp:454] proposal <- rpn_bbox_pred_rpn_bbox_pred_0_split_1
I0829 20:19:22.884783  1952 net.cpp:454] proposal <- im_info_input-data_1_split_1
I0829 20:19:22.884795  1952 net.cpp:411] proposal -> rpn_rois
I0829 20:19:22.893852  1952 net.cpp:150] Setting up proposal
I0829 20:19:22.893888  1952 net.cpp:157] Top shape: 1 5 (5)
I0829 20:19:22.893893  1952 net.cpp:165] Memory required for data: 1423271512
I0829 20:19:22.893901  1952 layer_factory.hpp:77] Creating layer roi-data
I0829 20:19:22.894248  1952 net.cpp:106] Creating Layer roi-data
I0829 20:19:22.894264  1952 net.cpp:454] roi-data <- rpn_rois
I0829 20:19:22.894280  1952 net.cpp:454] roi-data <- gt_boxes_input-data_2_split_1
I0829 20:19:22.894292  1952 net.cpp:411] roi-data -> rois
I0829 20:19:22.894309  1952 net.cpp:411] roi-data -> labels
I0829 20:19:22.894322  1952 net.cpp:411] roi-data -> bbox_targets
I0829 20:19:22.894340  1952 net.cpp:411] roi-data -> bbox_inside_weights
I0829 20:19:22.894354  1952 net.cpp:411] roi-data -> bbox_outside_weights
I0829 20:19:22.894367  1952 net.cpp:411] roi-data -> key_targets
I0829 20:19:22.894381  1952 net.cpp:411] roi-data -> key_inside_weights
I0829 20:19:22.894393  1952 net.cpp:411] roi-data -> key_outside_weights
I0829 20:19:22.895460  1952 net.cpp:150] Setting up roi-data
I0829 20:19:22.895488  1952 net.cpp:157] Top shape: 1 5 (5)
I0829 20:19:22.895496  1952 net.cpp:157] Top shape: 1 1 (1)
I0829 20:19:22.895503  1952 net.cpp:157] Top shape: 1 84 (84)
I0829 20:19:22.895509  1952 net.cpp:157] Top shape: 1 84 (84)
I0829 20:19:22.895516  1952 net.cpp:157] Top shape: 1 84 (84)
I0829 20:19:22.895530  1952 net.cpp:157] Top shape: 1 84 (84)
I0829 20:19:22.895539  1952 net.cpp:157] Top shape: 1 84 (84)
I0829 20:19:22.895545  1952 net.cpp:157] Top shape: 1 84 (84)
I0829 20:19:22.895550  1952 net.cpp:165] Memory required for data: 1423273552
I0829 20:19:22.895557  1952 layer_factory.hpp:77] Creating layer roi_pool5
I0829 20:19:22.895573  1952 net.cpp:106] Creating Layer roi_pool5
I0829 20:19:22.895584  1952 net.cpp:454] roi_pool5 <- conv5_3_relu5_3_0_split_1
I0829 20:19:22.895596  1952 net.cpp:454] roi_pool5 <- rois
I0829 20:19:22.895611  1952 net.cpp:411] roi_pool5 -> pool5
I0829 20:19:22.895629  1952 roi_pooling_layer.cpp:30] Spatial scale: 0.0625
I0829 20:19:22.895774  1952 net.cpp:150] Setting up roi_pool5
I0829 20:19:22.895788  1952 net.cpp:157] Top shape: 1 512 7 7 (25088)
I0829 20:19:22.895794  1952 net.cpp:165] Memory required for data: 1423373904
I0829 20:19:22.895800  1952 layer_factory.hpp:77] Creating layer fc6
I0829 20:19:22.895815  1952 net.cpp:106] Creating Layer fc6
I0829 20:19:22.895825  1952 net.cpp:454] fc6 <- pool5
I0829 20:19:22.895838  1952 net.cpp:411] fc6 -> fc6
I0829 20:19:23.607064  1952 net.cpp:150] Setting up fc6
I0829 20:19:23.607128  1952 net.cpp:157] Top shape: 1 4096 (4096)
I0829 20:19:23.607136  1952 net.cpp:165] Memory required for data: 1423390288
I0829 20:19:23.607169  1952 layer_factory.hpp:77] Creating layer relu6
I0829 20:19:23.607194  1952 net.cpp:106] Creating Layer relu6
I0829 20:19:23.607203  1952 net.cpp:454] relu6 <- fc6
I0829 20:19:23.607220  1952 net.cpp:397] relu6 -> fc6 (in-place)
I0829 20:19:23.607609  1952 net.cpp:150] Setting up relu6
I0829 20:19:23.607622  1952 net.cpp:157] Top shape: 1 4096 (4096)
I0829 20:19:23.607625  1952 net.cpp:165] Memory required for data: 1423406672
I0829 20:19:23.607635  1952 layer_factory.hpp:77] Creating layer drop6
I0829 20:19:23.607645  1952 net.cpp:106] Creating Layer drop6
I0829 20:19:23.607648  1952 net.cpp:454] drop6 <- fc6
I0829 20:19:23.607656  1952 net.cpp:397] drop6 -> fc6 (in-place)
I0829 20:19:23.607712  1952 net.cpp:150] Setting up drop6
I0829 20:19:23.607718  1952 net.cpp:157] Top shape: 1 4096 (4096)
I0829 20:19:23.607722  1952 net.cpp:165] Memory required for data: 1423423056
I0829 20:19:23.607724  1952 layer_factory.hpp:77] Creating layer fc7
I0829 20:19:23.607734  1952 net.cpp:106] Creating Layer fc7
I0829 20:19:23.607744  1952 net.cpp:454] fc7 <- fc6
I0829 20:19:23.607753  1952 net.cpp:411] fc7 -> fc7
I0829 20:19:23.722316  1952 net.cpp:150] Setting up fc7
I0829 20:19:23.722364  1952 net.cpp:157] Top shape: 1 4096 (4096)
I0829 20:19:23.722368  1952 net.cpp:165] Memory required for data: 1423439440
I0829 20:19:23.722378  1952 layer_factory.hpp:77] Creating layer relu7
I0829 20:19:23.722390  1952 net.cpp:106] Creating Layer relu7
I0829 20:19:23.722396  1952 net.cpp:454] relu7 <- fc7
I0829 20:19:23.722404  1952 net.cpp:397] relu7 -> fc7 (in-place)
I0829 20:19:23.723325  1952 net.cpp:150] Setting up relu7
I0829 20:19:23.723351  1952 net.cpp:157] Top shape: 1 4096 (4096)
I0829 20:19:23.723353  1952 net.cpp:165] Memory required for data: 1423455824
I0829 20:19:23.723356  1952 layer_factory.hpp:77] Creating layer drop7
I0829 20:19:23.723366  1952 net.cpp:106] Creating Layer drop7
I0829 20:19:23.723371  1952 net.cpp:454] drop7 <- fc7
I0829 20:19:23.723378  1952 net.cpp:397] drop7 -> fc7 (in-place)
I0829 20:19:23.723441  1952 net.cpp:150] Setting up drop7
I0829 20:19:23.723449  1952 net.cpp:157] Top shape: 1 4096 (4096)
I0829 20:19:23.723451  1952 net.cpp:165] Memory required for data: 1423472208
I0829 20:19:23.723455  1952 layer_factory.hpp:77] Creating layer fc7_drop7_0_split
I0829 20:19:23.723462  1952 net.cpp:106] Creating Layer fc7_drop7_0_split
I0829 20:19:23.723465  1952 net.cpp:454] fc7_drop7_0_split <- fc7
I0829 20:19:23.723474  1952 net.cpp:411] fc7_drop7_0_split -> fc7_drop7_0_split_0
I0829 20:19:23.723490  1952 net.cpp:411] fc7_drop7_0_split -> fc7_drop7_0_split_1
I0829 20:19:23.723500  1952 net.cpp:411] fc7_drop7_0_split -> fc7_drop7_0_split_2
I0829 20:19:23.723603  1952 net.cpp:150] Setting up fc7_drop7_0_split
I0829 20:19:23.723610  1952 net.cpp:157] Top shape: 1 4096 (4096)
I0829 20:19:23.723614  1952 net.cpp:157] Top shape: 1 4096 (4096)
I0829 20:19:23.723618  1952 net.cpp:157] Top shape: 1 4096 (4096)
I0829 20:19:23.723620  1952 net.cpp:165] Memory required for data: 1423521360
I0829 20:19:23.723623  1952 layer_factory.hpp:77] Creating layer cls_score
I0829 20:19:23.723634  1952 net.cpp:106] Creating Layer cls_score
I0829 20:19:23.723637  1952 net.cpp:454] cls_score <- fc7_drop7_0_split_0
I0829 20:19:23.723645  1952 net.cpp:411] cls_score -> cls_score
I0829 20:19:23.724768  1952 net.cpp:150] Setting up cls_score
I0829 20:19:23.724778  1952 net.cpp:157] Top shape: 1 21 (21)
I0829 20:19:23.724781  1952 net.cpp:165] Memory required for data: 1423521444
I0829 20:19:23.724788  1952 layer_factory.hpp:77] Creating layer bbox_pred
I0829 20:19:23.724797  1952 net.cpp:106] Creating Layer bbox_pred
I0829 20:19:23.724800  1952 net.cpp:454] bbox_pred <- fc7_drop7_0_split_1
I0829 20:19:23.724807  1952 net.cpp:411] bbox_pred -> bbox_pred
I0829 20:19:23.731148  1952 net.cpp:150] Setting up bbox_pred
I0829 20:19:23.731183  1952 net.cpp:157] Top shape: 1 84 (84)
I0829 20:19:23.731186  1952 net.cpp:165] Memory required for data: 1423521780
I0829 20:19:23.731197  1952 layer_factory.hpp:77] Creating layer key_pred
I0829 20:19:23.731211  1952 net.cpp:106] Creating Layer key_pred
I0829 20:19:23.731220  1952 net.cpp:454] key_pred <- fc7_drop7_0_split_2
I0829 20:19:23.731230  1952 net.cpp:411] key_pred -> key_pred
I0829 20:19:23.737665  1952 net.cpp:150] Setting up key_pred
I0829 20:19:23.737701  1952 net.cpp:157] Top shape: 1 84 (84)
I0829 20:19:23.737704  1952 net.cpp:165] Memory required for data: 1423522116
I0829 20:19:23.737715  1952 layer_factory.hpp:77] Creating layer loss_cls
I0829 20:19:23.737725  1952 net.cpp:106] Creating Layer loss_cls
I0829 20:19:23.737731  1952 net.cpp:454] loss_cls <- cls_score
I0829 20:19:23.737738  1952 net.cpp:454] loss_cls <- labels
I0829 20:19:23.737752  1952 net.cpp:411] loss_cls -> loss_cls
…
