…
stepsize: 50000
snapshot: 0
snapshot_prefix: "key"
average_loss: 100
iter_size: 2
I0823 13:29:22.720104 22610 solver.cpp:81] Creating training net from train_net file: models/pascal_voc/VGG16/key/train.prototxt
I0823 13:29:22.720898 22610 net.cpp:49] Initializing net from parameters: 
name: "VGG_ILSVRC_16_layers"
state {
  phase: TRAIN
}
layer {
  name: "input-data"
  type: "Python"
  top: "data"
  top: "im_info"
  top: "gt_boxes"
  python_param {
    module: "roi_data_layer.layer"
    layer: "RoIDataLayer"
    param_str: "\'num_classes\': 21"
  }
}
layer {
  name: "conv1_1"
  type: "Convolution"
  bottom: "data"
  top: "conv1_1"
  param {
    lr_mult: 0
    decay_mult: 0
  }
  param {
    lr_mult: 0
    decay_mult: 0
  }
  convolution_param {
    num_output: 64
    pad: 1
    kernel_size: 3
  }
}
layer {
  name: "relu1_1"
  type: "ReLU"
  bottom: "conv1_1"
  top: "conv1_1"
}
layer {
  name: "conv1_2"
  type: "Convolution"
  bottom: "conv1_1"
  top: "conv1_2"
  param {
    lr_mult: 0
    decay_mult: 0
  }
  param {
    lr_mult: 0
    decay_mult: 0
  }
  convolution_param {
    num_output: 64
    pad: 1
    kernel_size: 3
  }
}
layer {
  name: "relu1_2"
  type: "ReLU"
  bottom: "conv1_2"
  top: "conv1_2"
}
layer {
  name: "pool1"
  type: "Pooling"
  bottom: "conv1_2"
  top: "pool1"
  pooling_param {
    pool: MAX
    kernel_size: 2
    stride: 2
  }
}
layer {
  name: "conv2_1"
  type: "Convolution"
  bottom: "pool1"
  top: "conv2_1"
  param {
    lr_mult: 0
    decay_mult: 0
  }
  param {
    lr_mult: 0
    decay_mult: 0
  }
  convolution_param {
    num_output: 128
    pad: 1
    kernel_size: 3
  }
}
layer {
  name: "relu2_1"
  type: "ReLU"
  bottom: "conv2_1"
  top: "conv2_1"
}
layer {
  name: "conv2_2"
  type: "Convolution"
  bottom: "conv2_1"
  top: "conv2_2"
  param {
    lr_mult: 0
    decay_mult: 0
  }
  param {
    lr_mult: 0
    decay_mult: 0
  }
  convolution_param {
    num_output: 128
    pad: 1
    kernel_size: 3
  }
}
layer {
  name: "relu2_2"
  type: "ReLU"
  bottom: "conv2_2"
  top: "conv2_2"
}
layer {
  name: "pool2"
  type: "Pooling"
  bottom: "conv2_2"
  top: "pool2"
  pooling_param {
    pool: MAX
    kernel_size: 2
    stride: 2
  }
}
layer {
  name: "conv3_1"
  type: "Convolution"
  bottom: "pool2"
  top: "conv3_1"
  param {
    lr_mult: 1
  }
  param {
    lr_mult: 2
  }
  convolution_param {
    num_output: 256
    pad: 1
    kernel_size: 3
  }
}
layer {
  name: "relu3_1"
  type: "ReLU"
  bottom: "conv3_1"
  top: "conv3_1"
}
layer {
  name: "conv3_2"
  type: "Convolution"
  bottom: "conv3_1"
  top: "conv3_2"
  param {
    lr_mult: 1
  }
  param {
    lr_mult: 2
  }
  convolution_param {
    num_output: 256
    pad: 1
    kernel_size: 3
  }
}
layer {
  name: "relu3_2"
  type: "ReLU"
  bottom: "conv3_2"
  top: "conv3_2"
}
layer {
  name: "conv3_3"
  type: "Convolution"
  bottom: "conv3_2"
  top: "conv3_3"
  param {
    lr_mult: 1
  }
  param {
    lr_mult: 2
  }
  convolution_param {
    num_output: 256
    pad: 1
    kernel_size: 3
  }
}
layer {
  name: "relu3_3"
  type: "ReLU"
  bottom: "conv3_3"
  top: "conv3_3"
}
layer {
  name: "pool3"
  type: "Pooling"
  bottom: "conv3_3"
  top: "pool3"
  pooling_param {
    pool: MAX
    kernel_size: 2
    stride: 2
  }
}
layer {
  name: "conv4_1"
  type: "Convolution"
  bottom: "pool3"
  top: "conv4_1"
  param {
    lr_mult: 1
  }
  param {
    lr_mult: 2
  }
  convolution_param {
    num_output: 512
    pad: 1
    kernel_size: 3
  }
}
layer {
  name: "relu4_1"
  type: "ReLU"
  bottom: "conv4_1"
  top: "conv4_1"
}
layer {
  name: "conv4_2"
  type: "Convolution"
  bottom: "conv4_1"
  top: "conv4_2"
  param {
    lr_mult: 1
  }
  param {
    lr_mult: 2
  }
  convolution_param {
    num_output: 512
    pad: 1
    kernel_size: 3
  }
}
layer {
  name: "relu4_2"
  type: "ReLU"
  bottom: "conv4_2"
  top: "conv4_2"
}
layer {
  name: "conv4_3"
  type: "Convolution"
  bottom: "conv4_2"
  top: "conv4_3"
  param {
    lr_mult: 1
  }
  param {
    lr_mult: 2
  }
  convolution_param {
    num_output: 512
    pad: 1
    kernel_size: 3
  }
}
layer {
  name: "relu4_3"
  type: "ReLU"
  bottom: "conv4_3"
  top: "conv4_3"
}
layer {
  name: "pool4"
  type: "Pooling"
  bottom: "conv4_3"
  top: "pool4"
  pooling_param {
    pool: MAX
    kernel_size: 2
    stride: 2
  }
}
layer {
  name: "conv5_1"
  type: "Convolution"
  bottom: "pool4"
  top: "conv5_1"
  param {
    lr_mult: 1
  }
  param {
    lr_mult: 2
  }
  convolution_param {
    num_output: 512
    pad: 1
    kernel_size: 3
  }
}
layer {
  name: "relu5_1"
  type: "ReLU"
  bottom: "conv5_1"
  top: "conv5_1"
}
layer {
  name: "conv5_2"
  type: "Convolution"
  bottom: "conv5_1"
  top: "conv5_2"
  param {
    lr_mult: 1
  }
  param {
    lr_mult: 2
  }
  convolution_param {
    num_output: 512
    pad: 1
    kernel_size: 3
  }
}
layer {
  name: "relu5_2"
  type: "ReLU"
  bottom: "conv5_2"
  top: "conv5_2"
}
layer {
  name: "conv5_3"
  type: "Convolution"
  bottom: "conv5_2"
  top: "conv5_3"
  param {
    lr_mult: 1
  }
  param {
    lr_mult: 2
  }
  convolution_param {
    num_output: 512
    pad: 1
    kernel_size: 3
  }
}
layer {
  name: "relu5_3"
  type: "ReLU"
  bottom: "conv5_3"
  top: "conv5_3"
}
layer {
  name: "rpn_conv/3x3"
  type: "Convolution"
  bottom: "conv5_3"
  top: "rpn/output"
  param {
    lr_mult: 1
  }
  param {
    lr_mult: 2
  }
  convolution_param {
    num_output: 512
    pad: 1
    kernel_size: 3
    stride: 1
    weight_filler {
      type: "gaussian"
      std: 0.01
    }
    bias_filler {
      type: "constant"
      value: 0
    }
  }
}
layer {
  name: "rpn_relu/3x3"
  type: "ReLU"
  bottom: "rpn/output"
  top: "rpn/output"
}
layer {
  name: "rpn_cls_score"
  type: "Convolution"
  bottom: "rpn/output"
  top: "rpn_cls_score"
  param {
    lr_mult: 1
  }
  param {
    lr_mult: 2
  }
  convolution_param {
    num_output: 18
    pad: 0
    kernel_size: 1
    stride: 1
    weight_filler {
      type: "gaussian"
      std: 0.01
    }
    bias_filler {
      type: "constant"
      value: 0
    }
  }
}
layer {
  name: "rpn_bbox_pred"
  type: "Convolution"
  bottom: "rpn/output"
  top: "rpn_bbox_pred"
  param {
    lr_mult: 1
  }
  param {
    lr_mult: 2
  }
  convolution_param {
    num_output: 36
    pad: 0
    kernel_size: 1
    stride: 1
    weight_filler {
      type: "gaussian"
      std: 0.01
    }
    bias_filler {
      type: "constant"
      value: 0
    }
  }
}
layer {
  name: "rpn_cls_score_reshape"
  type: "Reshape"
  bottom: "rpn_cls_score"
  top: "rpn_cls_score_reshape"
  reshape_param {
    shape {
      dim: 0
      dim: 2
      dim: -1
      dim: 0
    }
  }
}
layer {
  name: "rpn-data"
  type: "Python"
  bottom: "rpn_cls_score"
  bottom: "gt_boxes"
  bottom: "im_info"
  bottom: "data"
  top: "rpn_labels"
  top: "rpn_bbox_targets"
  top: "rpn_bbox_inside_weights"
  top: "rpn_bbox_outside_weights"
  python_param {
    module: "rpn.anchor_target_layer"
    layer: "AnchorTargetLayer"
    param_str: "\'feat_stride\': 16"
  }
}
layer {
  name: "rpn_loss_cls"
  type: "SoftmaxWithLoss"
  bottom: "rpn_cls_score_reshape"
  bottom: "rpn_labels"
  top: "rpn_cls_loss"
  loss_weight: 1
  propagate_down: true
  propagate_down: false
  loss_param {
    ignore_label: -1
    normalize: true
  }
}
layer {
  name: "rpn_loss_bbox"
  type: "SmoothL1Loss"
  bottom: "rpn_bbox_pred"
  bottom: "rpn_bbox_targets"
  bottom: "rpn_bbox_inside_weights"
  bottom: "rpn_bbox_outside_weights"
  top: "rpn_loss_bbox"
  loss_weight: 1
  smooth_l1_loss_param {
    sigma: 3
  }
}
layer {
  name: "rpn_cls_prob"
  type: "Softmax"
  bottom: "rpn_cls_score_reshape"
  top: "rpn_cls_prob"
}
layer {
  name: "rpn_cls_prob_reshape"
  type: "Reshape"
  bottom: "rpn_cls_prob"
  top: "rpn_cls_prob_reshape"
  reshape_param {
    shape {
      dim: 0
      dim: 18
      dim: -1
      dim: 0
    }
  }
}
layer {
  name: "proposal"
  type: "Python"
  bottom: "rpn_cls_prob_reshape"
  bottom: "rpn_bbox_pred"
  bottom: "im_info"
  top: "rpn_rois"
  python_param {
    module: "rpn.proposal_layer"
    layer: "ProposalLayer"
    param_str: "\'feat_stride\': 16"
  }
}
layer {
  name: "roi-data"
  type: "Python"
  bottom: "rpn_rois"
  bottom: "gt_boxes"
  top: "rois"
  top: "labels"
  top: "bbox_targets"
  top: "bbox_inside_weights"
  top: "bbox_outside_weights"
  top: "key_targets"
  python_param {
    module: "rpn.proposal_target_layer"
    layer: "ProposalTargetLayer"
    param_str: "\'num_classes\': 21"
  }
}
layer {
  name: "roi_pool5"
  type: "ROIPooling"
  bottom: "conv5_3"
  bottom: "rois"
  top: "pool5"
  roi_pooling_param {
    pooled_h: 7
    pooled_w: 7
    spatial_scale: 0.0625
  }
}
layer {
  name: "fc6"
  type: "InnerProduct"
  bottom: "pool5"
  top: "fc6"
  param {
    lr_mult: 1
  }
  param {
    lr_mult: 2
  }
  inner_product_param {
    num_output: 4096
  }
}
layer {
  name: "relu6"
  type: "ReLU"
  bottom: "fc6"
  top: "fc6"
}
layer {
  name: "drop6"
  type: "Dropout"
  bottom: "fc6"
  top: "fc6"
  dropout_param {
    dropout_ratio: 0.5
  }
}
layer {
  name: "fc7"
  type: "InnerProduct"
  bottom: "fc6"
  top: "fc7"
  param {
    lr_mult: 1
  }
  param {
    lr_mult: 2
  }
  inner_product_param {
    num_output: 4096
  }
}
layer {
  name: "relu7"
  type: "ReLU"
  bottom: "fc7"
  top: "fc7"
}
layer {
  name: "drop7"
  type: "Dropout"
  bottom: "fc7"
  top: "fc7"
  dropout_param {
    dropout_ratio: 0.5
  }
}
layer {
  name: "cls_score"
  type: "InnerProduct"
  bottom: "fc7"
  top: "cls_score"
  param {
    lr_mult: 1
  }
  param {
    lr_mult: 2
  }
  inner_product_param {
    num_output: 21
    weight_filler {
      type: "gaussian"
      std: 0.01
    }
    bias_filler {
      type: "constant"
      value: 0
    }
  }
}
layer {
  name: "bbox_pred"
  type: "InnerProduct"
  bottom: "fc7"
  top: "bbox_pred"
  param {
    lr_mult: 1
  }
  param {
    lr_mult: 2
  }
  inner_product_param {
    num_output: 84
    weight_filler {
      type: "gaussian"
      std: 0.001
    }
    bias_filler {
      type: "constant"
      value: 0
    }
  }
}
layer {
  name: "key_pred"
  type: "InnerProduct"
  bottom: "fc7"
  top: "key_pred"
  param {
    lr_mult: 1
  }
  param {
    lr_mult: 2
  }
  inner_product_param {
    num_output: 84
    weight_filler {
      type: "gaussian"
      std: 0.001
    }
    bias_filler {
      type: "constant"
      value: 0
    }
  }
}
layer {
  name: "loss_cls"
  type: "SoftmaxWithLoss"
  bottom: "cls_score"
  bottom: "labels"
  top: "loss_cls"
  loss_weight: 1
  propagate_down: true
  propagate_down: false
}
layer {
  name: "loss_bbox"
  type: "SmoothL1Loss"
  bottom: "bbox_pred"
  bottom: "bbox_targets"
  bottom: "bbox_inside_weights"
  bottom: "bbox_outside_weights"
  top: "loss_bbox"
  loss_weight: 1
}
layer {
  name: "loss_key"
  type: "SmoothL1Loss"
  bottom: "key_pred"
  bottom: "key_targets"
  bottom: "bbox_inside_weights"
  bottom: "bbox_outside_weights"
  top: "loss_key"
  loss_weight: 1
}
I0823 13:29:22.721189 22610 layer_factory.hpp:77] Creating layer input-data
I0823 13:29:22.734134 22610 net.cpp:106] Creating Layer input-data
I0823 13:29:22.734163 22610 net.cpp:411] input-data -> data
I0823 13:29:22.734174 22610 net.cpp:411] input-data -> im_info
I0823 13:29:22.734180 22610 net.cpp:411] input-data -> gt_boxes
RoiDataLayer: name_to_top: {'gt_boxes': 2, 'data': 0, 'im_info': 1}
I0823 13:29:22.745199 22610 net.cpp:150] Setting up input-data
I0823 13:29:22.745242 22610 net.cpp:157] Top shape: 1 3 600 1000 (1800000)
I0823 13:29:22.745249 22610 net.cpp:157] Top shape: 1 3 (3)
I0823 13:29:22.745254 22610 net.cpp:157] Top shape: 1 4 (4)
I0823 13:29:22.745255 22610 net.cpp:165] Memory required for data: 7200028
I0823 13:29:22.745261 22610 layer_factory.hpp:77] Creating layer data_input-data_0_split
I0823 13:29:22.745275 22610 net.cpp:106] Creating Layer data_input-data_0_split
I0823 13:29:22.745280 22610 net.cpp:454] data_input-data_0_split <- data
I0823 13:29:22.745290 22610 net.cpp:411] data_input-data_0_split -> data_input-data_0_split_0
I0823 13:29:22.745299 22610 net.cpp:411] data_input-data_0_split -> data_input-data_0_split_1
I0823 13:29:22.745359 22610 net.cpp:150] Setting up data_input-data_0_split
I0823 13:29:22.745368 22610 net.cpp:157] Top shape: 1 3 600 1000 (1800000)
I0823 13:29:22.745373 22610 net.cpp:157] Top shape: 1 3 600 1000 (1800000)
I0823 13:29:22.745376 22610 net.cpp:165] Memory required for data: 21600028
I0823 13:29:22.745379 22610 layer_factory.hpp:77] Creating layer im_info_input-data_1_split
I0823 13:29:22.745388 22610 net.cpp:106] Creating Layer im_info_input-data_1_split
I0823 13:29:22.745390 22610 net.cpp:454] im_info_input-data_1_split <- im_info
I0823 13:29:22.745398 22610 net.cpp:411] im_info_input-data_1_split -> im_info_input-data_1_split_0
I0823 13:29:22.745404 22610 net.cpp:411] im_info_input-data_1_split -> im_info_input-data_1_split_1
I0823 13:29:22.745452 22610 net.cpp:150] Setting up im_info_input-data_1_split
I0823 13:29:22.745460 22610 net.cpp:157] Top shape: 1 3 (3)
I0823 13:29:22.745462 22610 net.cpp:157] Top shape: 1 3 (3)
I0823 13:29:22.745465 22610 net.cpp:165] Memory required for data: 21600052
I0823 13:29:22.745468 22610 layer_factory.hpp:77] Creating layer gt_boxes_input-data_2_split
I0823 13:29:22.745474 22610 net.cpp:106] Creating Layer gt_boxes_input-data_2_split
I0823 13:29:22.745477 22610 net.cpp:454] gt_boxes_input-data_2_split <- gt_boxes
I0823 13:29:22.745483 22610 net.cpp:411] gt_boxes_input-data_2_split -> gt_boxes_input-data_2_split_0
I0823 13:29:22.745489 22610 net.cpp:411] gt_boxes_input-data_2_split -> gt_boxes_input-data_2_split_1
I0823 13:29:22.745538 22610 net.cpp:150] Setting up gt_boxes_input-data_2_split
I0823 13:29:22.745545 22610 net.cpp:157] Top shape: 1 4 (4)
I0823 13:29:22.745549 22610 net.cpp:157] Top shape: 1 4 (4)
I0823 13:29:22.745551 22610 net.cpp:165] Memory required for data: 21600084
I0823 13:29:22.745555 22610 layer_factory.hpp:77] Creating layer conv1_1
I0823 13:29:22.745569 22610 net.cpp:106] Creating Layer conv1_1
I0823 13:29:22.745574 22610 net.cpp:454] conv1_1 <- data_input-data_0_split_0
I0823 13:29:22.745581 22610 net.cpp:411] conv1_1 -> conv1_1
I0823 13:29:23.091231 22610 net.cpp:150] Setting up conv1_1
I0823 13:29:23.091274 22610 net.cpp:157] Top shape: 1 64 600 1000 (38400000)
I0823 13:29:23.091280 22610 net.cpp:165] Memory required for data: 175200084
I0823 13:29:23.091306 22610 layer_factory.hpp:77] Creating layer relu1_1
I0823 13:29:23.091322 22610 net.cpp:106] Creating Layer relu1_1
I0823 13:29:23.091328 22610 net.cpp:454] relu1_1 <- conv1_1
I0823 13:29:23.091338 22610 net.cpp:397] relu1_1 -> conv1_1 (in-place)
I0823 13:29:23.092028 22610 net.cpp:150] Setting up relu1_1
I0823 13:29:23.092051 22610 net.cpp:157] Top shape: 1 64 600 1000 (38400000)
I0823 13:29:23.092056 22610 net.cpp:165] Memory required for data: 328800084
I0823 13:29:23.092061 22610 layer_factory.hpp:77] Creating layer conv1_2
I0823 13:29:23.092077 22610 net.cpp:106] Creating Layer conv1_2
I0823 13:29:23.092083 22610 net.cpp:454] conv1_2 <- conv1_1
I0823 13:29:23.092092 22610 net.cpp:411] conv1_2 -> conv1_2
I0823 13:29:23.101744 22610 net.cpp:150] Setting up conv1_2
I0823 13:29:23.101773 22610 net.cpp:157] Top shape: 1 64 600 1000 (38400000)
I0823 13:29:23.101778 22610 net.cpp:165] Memory required for data: 482400084
I0823 13:29:23.101794 22610 layer_factory.hpp:77] Creating layer relu1_2
I0823 13:29:23.101804 22610 net.cpp:106] Creating Layer relu1_2
I0823 13:29:23.101809 22610 net.cpp:454] relu1_2 <- conv1_2
I0823 13:29:23.101817 22610 net.cpp:397] relu1_2 -> conv1_2 (in-place)
I0823 13:29:23.102130 22610 net.cpp:150] Setting up relu1_2
I0823 13:29:23.102145 22610 net.cpp:157] Top shape: 1 64 600 1000 (38400000)
I0823 13:29:23.102150 22610 net.cpp:165] Memory required for data: 636000084
I0823 13:29:23.102155 22610 layer_factory.hpp:77] Creating layer pool1
I0823 13:29:23.102171 22610 net.cpp:106] Creating Layer pool1
I0823 13:29:23.102176 22610 net.cpp:454] pool1 <- conv1_2
I0823 13:29:23.102185 22610 net.cpp:411] pool1 -> pool1
I0823 13:29:23.102296 22610 net.cpp:150] Setting up pool1
I0823 13:29:23.102309 22610 net.cpp:157] Top shape: 1 64 300 500 (9600000)
I0823 13:29:23.102313 22610 net.cpp:165] Memory required for data: 674400084
I0823 13:29:23.102318 22610 layer_factory.hpp:77] Creating layer conv2_1
I0823 13:29:23.102330 22610 net.cpp:106] Creating Layer conv2_1
I0823 13:29:23.102335 22610 net.cpp:454] conv2_1 <- pool1
I0823 13:29:23.102347 22610 net.cpp:411] conv2_1 -> conv2_1
I0823 13:29:23.107543 22610 net.cpp:150] Setting up conv2_1
I0823 13:29:23.107568 22610 net.cpp:157] Top shape: 1 128 300 500 (19200000)
I0823 13:29:23.107571 22610 net.cpp:165] Memory required for data: 751200084
I0823 13:29:23.107587 22610 layer_factory.hpp:77] Creating layer relu2_1
I0823 13:29:23.107599 22610 net.cpp:106] Creating Layer relu2_1
I0823 13:29:23.107604 22610 net.cpp:454] relu2_1 <- conv2_1
I0823 13:29:23.107611 22610 net.cpp:397] relu2_1 -> conv2_1 (in-place)
I0823 13:29:23.107892 22610 net.cpp:150] Setting up relu2_1
I0823 13:29:23.107904 22610 net.cpp:157] Top shape: 1 128 300 500 (19200000)
I0823 13:29:23.107906 22610 net.cpp:165] Memory required for data: 828000084
I0823 13:29:23.107910 22610 layer_factory.hpp:77] Creating layer conv2_2
I0823 13:29:23.107920 22610 net.cpp:106] Creating Layer conv2_2
I0823 13:29:23.107923 22610 net.cpp:454] conv2_2 <- conv2_1
I0823 13:29:23.107930 22610 net.cpp:411] conv2_2 -> conv2_2
I0823 13:29:23.116441 22610 net.cpp:150] Setting up conv2_2
I0823 13:29:23.116473 22610 net.cpp:157] Top shape: 1 128 300 500 (19200000)
I0823 13:29:23.116480 22610 net.cpp:165] Memory required for data: 904800084
I0823 13:29:23.116495 22610 layer_factory.hpp:77] Creating layer relu2_2
I0823 13:29:23.116508 22610 net.cpp:106] Creating Layer relu2_2
I0823 13:29:23.116515 22610 net.cpp:454] relu2_2 <- conv2_2
I0823 13:29:23.116530 22610 net.cpp:397] relu2_2 -> conv2_2 (in-place)
I0823 13:29:23.117389 22610 net.cpp:150] Setting up relu2_2
I0823 13:29:23.117413 22610 net.cpp:157] Top shape: 1 128 300 500 (19200000)
I0823 13:29:23.117419 22610 net.cpp:165] Memory required for data: 981600084
I0823 13:29:23.117427 22610 layer_factory.hpp:77] Creating layer pool2
I0823 13:29:23.117440 22610 net.cpp:106] Creating Layer pool2
I0823 13:29:23.117447 22610 net.cpp:454] pool2 <- conv2_2
I0823 13:29:23.117458 22610 net.cpp:411] pool2 -> pool2
I0823 13:29:23.117611 22610 net.cpp:150] Setting up pool2
I0823 13:29:23.117629 22610 net.cpp:157] Top shape: 1 128 150 250 (4800000)
I0823 13:29:23.117637 22610 net.cpp:165] Memory required for data: 1000800084
I0823 13:29:23.117643 22610 layer_factory.hpp:77] Creating layer conv3_1
I0823 13:29:23.117660 22610 net.cpp:106] Creating Layer conv3_1
I0823 13:29:23.117667 22610 net.cpp:454] conv3_1 <- pool2
I0823 13:29:23.117687 22610 net.cpp:411] conv3_1 -> conv3_1
I0823 13:29:23.124019 22610 net.cpp:150] Setting up conv3_1
I0823 13:29:23.124047 22610 net.cpp:157] Top shape: 1 256 150 250 (9600000)
I0823 13:29:23.124053 22610 net.cpp:165] Memory required for data: 1039200084
I0823 13:29:23.124073 22610 layer_factory.hpp:77] Creating layer relu3_1
I0823 13:29:23.124089 22610 net.cpp:106] Creating Layer relu3_1
I0823 13:29:23.124097 22610 net.cpp:454] relu3_1 <- conv3_1
I0823 13:29:23.124107 22610 net.cpp:397] relu3_1 -> conv3_1 (in-place)
I0823 13:29:23.124498 22610 net.cpp:150] Setting up relu3_1
I0823 13:29:23.124516 22610 net.cpp:157] Top shape: 1 256 150 250 (9600000)
I0823 13:29:23.124521 22610 net.cpp:165] Memory required for data: 1077600084
I0823 13:29:23.124526 22610 layer_factory.hpp:77] Creating layer conv3_2
I0823 13:29:23.124552 22610 net.cpp:106] Creating Layer conv3_2
I0823 13:29:23.124558 22610 net.cpp:454] conv3_2 <- conv3_1
I0823 13:29:23.124572 22610 net.cpp:411] conv3_2 -> conv3_2
I0823 13:29:23.133287 22610 net.cpp:150] Setting up conv3_2
I0823 13:29:23.133328 22610 net.cpp:157] Top shape: 1 256 150 250 (9600000)
I0823 13:29:23.133335 22610 net.cpp:165] Memory required for data: 1116000084
I0823 13:29:23.133349 22610 layer_factory.hpp:77] Creating layer relu3_2
I0823 13:29:23.133368 22610 net.cpp:106] Creating Layer relu3_2
I0823 13:29:23.133373 22610 net.cpp:454] relu3_2 <- conv3_2
I0823 13:29:23.133390 22610 net.cpp:397] relu3_2 -> conv3_2 (in-place)
I0823 13:29:23.133802 22610 net.cpp:150] Setting up relu3_2
I0823 13:29:23.133821 22610 net.cpp:157] Top shape: 1 256 150 250 (9600000)
I0823 13:29:23.133834 22610 net.cpp:165] Memory required for data: 1154400084
I0823 13:29:23.133839 22610 layer_factory.hpp:77] Creating layer conv3_3
I0823 13:29:23.133857 22610 net.cpp:106] Creating Layer conv3_3
I0823 13:29:23.133862 22610 net.cpp:454] conv3_3 <- conv3_2
I0823 13:29:23.133874 22610 net.cpp:411] conv3_3 -> conv3_3
I0823 13:29:23.141947 22610 net.cpp:150] Setting up conv3_3
I0823 13:29:23.141974 22610 net.cpp:157] Top shape: 1 256 150 250 (9600000)
I0823 13:29:23.141980 22610 net.cpp:165] Memory required for data: 1192800084
I0823 13:29:23.141993 22610 layer_factory.hpp:77] Creating layer relu3_3
I0823 13:29:23.142004 22610 net.cpp:106] Creating Layer relu3_3
I0823 13:29:23.142014 22610 net.cpp:454] relu3_3 <- conv3_3
I0823 13:29:23.142030 22610 net.cpp:397] relu3_3 -> conv3_3 (in-place)
I0823 13:29:23.142835 22610 net.cpp:150] Setting up relu3_3
I0823 13:29:23.142858 22610 net.cpp:157] Top shape: 1 256 150 250 (9600000)
I0823 13:29:23.142863 22610 net.cpp:165] Memory required for data: 1231200084
I0823 13:29:23.142869 22610 layer_factory.hpp:77] Creating layer pool3
I0823 13:29:23.142884 22610 net.cpp:106] Creating Layer pool3
I0823 13:29:23.142890 22610 net.cpp:454] pool3 <- conv3_3
I0823 13:29:23.142901 22610 net.cpp:411] pool3 -> pool3
I0823 13:29:23.143056 22610 net.cpp:150] Setting up pool3
I0823 13:29:23.143072 22610 net.cpp:157] Top shape: 1 256 75 125 (2400000)
I0823 13:29:23.143077 22610 net.cpp:165] Memory required for data: 1240800084
I0823 13:29:23.143082 22610 layer_factory.hpp:77] Creating layer conv4_1
I0823 13:29:23.143098 22610 net.cpp:106] Creating Layer conv4_1
I0823 13:29:23.143106 22610 net.cpp:454] conv4_1 <- pool3
I0823 13:29:23.143116 22610 net.cpp:411] conv4_1 -> conv4_1
I0823 13:29:23.159358 22610 net.cpp:150] Setting up conv4_1
I0823 13:29:23.159382 22610 net.cpp:157] Top shape: 1 512 75 125 (4800000)
I0823 13:29:23.159389 22610 net.cpp:165] Memory required for data: 1260000084
I0823 13:29:23.159400 22610 layer_factory.hpp:77] Creating layer relu4_1
I0823 13:29:23.159410 22610 net.cpp:106] Creating Layer relu4_1
I0823 13:29:23.159416 22610 net.cpp:454] relu4_1 <- conv4_1
I0823 13:29:23.159428 22610 net.cpp:397] relu4_1 -> conv4_1 (in-place)
I0823 13:29:23.160143 22610 net.cpp:150] Setting up relu4_1
I0823 13:29:23.160164 22610 net.cpp:157] Top shape: 1 512 75 125 (4800000)
I0823 13:29:23.160169 22610 net.cpp:165] Memory required for data: 1279200084
I0823 13:29:23.160174 22610 layer_factory.hpp:77] Creating layer conv4_2
I0823 13:29:23.160189 22610 net.cpp:106] Creating Layer conv4_2
I0823 13:29:23.160195 22610 net.cpp:454] conv4_2 <- conv4_1
I0823 13:29:23.160208 22610 net.cpp:411] conv4_2 -> conv4_2
I0823 13:29:23.178074 22610 net.cpp:150] Setting up conv4_2
I0823 13:29:23.178099 22610 net.cpp:157] Top shape: 1 512 75 125 (4800000)
I0823 13:29:23.178110 22610 net.cpp:165] Memory required for data: 1298400084
I0823 13:29:23.178131 22610 layer_factory.hpp:77] Creating layer relu4_2
I0823 13:29:23.178146 22610 net.cpp:106] Creating Layer relu4_2
I0823 13:29:23.178154 22610 net.cpp:454] relu4_2 <- conv4_2
I0823 13:29:23.178172 22610 net.cpp:397] relu4_2 -> conv4_2 (in-place)
I0823 13:29:23.178489 22610 net.cpp:150] Setting up relu4_2
I0823 13:29:23.178503 22610 net.cpp:157] Top shape: 1 512 75 125 (4800000)
I0823 13:29:23.178514 22610 net.cpp:165] Memory required for data: 1317600084
I0823 13:29:23.178519 22610 layer_factory.hpp:77] Creating layer conv4_3
I0823 13:29:23.178532 22610 net.cpp:106] Creating Layer conv4_3
I0823 13:29:23.178537 22610 net.cpp:454] conv4_3 <- conv4_2
I0823 13:29:23.178556 22610 net.cpp:411] conv4_3 -> conv4_3
I0823 13:29:23.195955 22610 net.cpp:150] Setting up conv4_3
I0823 13:29:23.195984 22610 net.cpp:157] Top shape: 1 512 75 125 (4800000)
I0823 13:29:23.195988 22610 net.cpp:165] Memory required for data: 1336800084
I0823 13:29:23.195998 22610 layer_factory.hpp:77] Creating layer relu4_3
I0823 13:29:23.196017 22610 net.cpp:106] Creating Layer relu4_3
I0823 13:29:23.196022 22610 net.cpp:454] relu4_3 <- conv4_3
I0823 13:29:23.196028 22610 net.cpp:397] relu4_3 -> conv4_3 (in-place)
I0823 13:29:23.196681 22610 net.cpp:150] Setting up relu4_3
I0823 13:29:23.196698 22610 net.cpp:157] Top shape: 1 512 75 125 (4800000)
I0823 13:29:23.196702 22610 net.cpp:165] Memory required for data: 1356000084
I0823 13:29:23.196709 22610 layer_factory.hpp:77] Creating layer pool4
I0823 13:29:23.196729 22610 net.cpp:106] Creating Layer pool4
I0823 13:29:23.196734 22610 net.cpp:454] pool4 <- conv4_3
I0823 13:29:23.196741 22610 net.cpp:411] pool4 -> pool4
I0823 13:29:23.196854 22610 net.cpp:150] Setting up pool4
I0823 13:29:23.196866 22610 net.cpp:157] Top shape: 1 512 38 63 (1225728)
I0823 13:29:23.196871 22610 net.cpp:165] Memory required for data: 1360902996
I0823 13:29:23.196876 22610 layer_factory.hpp:77] Creating layer conv5_1
I0823 13:29:23.196888 22610 net.cpp:106] Creating Layer conv5_1
I0823 13:29:23.196894 22610 net.cpp:454] conv5_1 <- pool4
I0823 13:29:23.196904 22610 net.cpp:411] conv5_1 -> conv5_1
I0823 13:29:23.213541 22610 net.cpp:150] Setting up conv5_1
I0823 13:29:23.213562 22610 net.cpp:157] Top shape: 1 512 38 63 (1225728)
I0823 13:29:23.213567 22610 net.cpp:165] Memory required for data: 1365805908
I0823 13:29:23.213577 22610 layer_factory.hpp:77] Creating layer relu5_1
I0823 13:29:23.213584 22610 net.cpp:106] Creating Layer relu5_1
I0823 13:29:23.213589 22610 net.cpp:454] relu5_1 <- conv5_1
I0823 13:29:23.213598 22610 net.cpp:397] relu5_1 -> conv5_1 (in-place)
I0823 13:29:23.213866 22610 net.cpp:150] Setting up relu5_1
I0823 13:29:23.213887 22610 net.cpp:157] Top shape: 1 512 38 63 (1225728)
I0823 13:29:23.213891 22610 net.cpp:165] Memory required for data: 1370708820
I0823 13:29:23.213896 22610 layer_factory.hpp:77] Creating layer conv5_2
I0823 13:29:23.213907 22610 net.cpp:106] Creating Layer conv5_2
I0823 13:29:23.213912 22610 net.cpp:454] conv5_2 <- conv5_1
I0823 13:29:23.213920 22610 net.cpp:411] conv5_2 -> conv5_2
I0823 13:29:23.229879 22610 net.cpp:150] Setting up conv5_2
I0823 13:29:23.229900 22610 net.cpp:157] Top shape: 1 512 38 63 (1225728)
I0823 13:29:23.229904 22610 net.cpp:165] Memory required for data: 1375611732
I0823 13:29:23.229913 22610 layer_factory.hpp:77] Creating layer relu5_2
I0823 13:29:23.229921 22610 net.cpp:106] Creating Layer relu5_2
I0823 13:29:23.229925 22610 net.cpp:454] relu5_2 <- conv5_2
I0823 13:29:23.229933 22610 net.cpp:397] relu5_2 -> conv5_2 (in-place)
I0823 13:29:23.230188 22610 net.cpp:150] Setting up relu5_2
I0823 13:29:23.230201 22610 net.cpp:157] Top shape: 1 512 38 63 (1225728)
I0823 13:29:23.230204 22610 net.cpp:165] Memory required for data: 1380514644
I0823 13:29:23.230208 22610 layer_factory.hpp:77] Creating layer conv5_3
I0823 13:29:23.230229 22610 net.cpp:106] Creating Layer conv5_3
I0823 13:29:23.230237 22610 net.cpp:454] conv5_3 <- conv5_2
I0823 13:29:23.230243 22610 net.cpp:411] conv5_3 -> conv5_3
I0823 13:29:23.245637 22610 net.cpp:150] Setting up conv5_3
I0823 13:29:23.245656 22610 net.cpp:157] Top shape: 1 512 38 63 (1225728)
I0823 13:29:23.245659 22610 net.cpp:165] Memory required for data: 1385417556
I0823 13:29:23.245667 22610 layer_factory.hpp:77] Creating layer relu5_3
I0823 13:29:23.245674 22610 net.cpp:106] Creating Layer relu5_3
I0823 13:29:23.245678 22610 net.cpp:454] relu5_3 <- conv5_3
I0823 13:29:23.245687 22610 net.cpp:397] relu5_3 -> conv5_3 (in-place)
I0823 13:29:23.246237 22610 net.cpp:150] Setting up relu5_3
I0823 13:29:23.246253 22610 net.cpp:157] Top shape: 1 512 38 63 (1225728)
I0823 13:29:23.246255 22610 net.cpp:165] Memory required for data: 1390320468
I0823 13:29:23.246263 22610 layer_factory.hpp:77] Creating layer conv5_3_relu5_3_0_split
I0823 13:29:23.246273 22610 net.cpp:106] Creating Layer conv5_3_relu5_3_0_split
I0823 13:29:23.246276 22610 net.cpp:454] conv5_3_relu5_3_0_split <- conv5_3
I0823 13:29:23.246284 22610 net.cpp:411] conv5_3_relu5_3_0_split -> conv5_3_relu5_3_0_split_0
I0823 13:29:23.246294 22610 net.cpp:411] conv5_3_relu5_3_0_split -> conv5_3_relu5_3_0_split_1
I0823 13:29:23.246379 22610 net.cpp:150] Setting up conv5_3_relu5_3_0_split
I0823 13:29:23.246392 22610 net.cpp:157] Top shape: 1 512 38 63 (1225728)
I0823 13:29:23.246395 22610 net.cpp:157] Top shape: 1 512 38 63 (1225728)
I0823 13:29:23.246398 22610 net.cpp:165] Memory required for data: 1400126292
I0823 13:29:23.246402 22610 layer_factory.hpp:77] Creating layer rpn_conv/3x3
I0823 13:29:23.246415 22610 net.cpp:106] Creating Layer rpn_conv/3x3
I0823 13:29:23.246422 22610 net.cpp:454] rpn_conv/3x3 <- conv5_3_relu5_3_0_split_0
I0823 13:29:23.246429 22610 net.cpp:411] rpn_conv/3x3 -> rpn/output
I0823 13:29:23.288722 22610 net.cpp:150] Setting up rpn_conv/3x3
I0823 13:29:23.288761 22610 net.cpp:157] Top shape: 1 512 38 63 (1225728)
I0823 13:29:23.288765 22610 net.cpp:165] Memory required for data: 1405029204
I0823 13:29:23.288776 22610 layer_factory.hpp:77] Creating layer rpn_relu/3x3
I0823 13:29:23.288791 22610 net.cpp:106] Creating Layer rpn_relu/3x3
I0823 13:29:23.288796 22610 net.cpp:454] rpn_relu/3x3 <- rpn/output
I0823 13:29:23.288805 22610 net.cpp:397] rpn_relu/3x3 -> rpn/output (in-place)
I0823 13:29:23.289036 22610 net.cpp:150] Setting up rpn_relu/3x3
I0823 13:29:23.289048 22610 net.cpp:157] Top shape: 1 512 38 63 (1225728)
I0823 13:29:23.289053 22610 net.cpp:165] Memory required for data: 1409932116
I0823 13:29:23.289057 22610 layer_factory.hpp:77] Creating layer rpn/output_rpn_relu/3x3_0_split
I0823 13:29:23.289064 22610 net.cpp:106] Creating Layer rpn/output_rpn_relu/3x3_0_split
I0823 13:29:23.289069 22610 net.cpp:454] rpn/output_rpn_relu/3x3_0_split <- rpn/output
I0823 13:29:23.289077 22610 net.cpp:411] rpn/output_rpn_relu/3x3_0_split -> rpn/output_rpn_relu/3x3_0_split_0
I0823 13:29:23.289088 22610 net.cpp:411] rpn/output_rpn_relu/3x3_0_split -> rpn/output_rpn_relu/3x3_0_split_1
I0823 13:29:23.289170 22610 net.cpp:150] Setting up rpn/output_rpn_relu/3x3_0_split
I0823 13:29:23.289177 22610 net.cpp:157] Top shape: 1 512 38 63 (1225728)
I0823 13:29:23.289181 22610 net.cpp:157] Top shape: 1 512 38 63 (1225728)
I0823 13:29:23.289185 22610 net.cpp:165] Memory required for data: 1419737940
I0823 13:29:23.289193 22610 layer_factory.hpp:77] Creating layer rpn_cls_score
I0823 13:29:23.289211 22610 net.cpp:106] Creating Layer rpn_cls_score
I0823 13:29:23.289216 22610 net.cpp:454] rpn_cls_score <- rpn/output_rpn_relu/3x3_0_split_0
I0823 13:29:23.289224 22610 net.cpp:411] rpn_cls_score -> rpn_cls_score
I0823 13:29:23.291543 22610 net.cpp:150] Setting up rpn_cls_score
I0823 13:29:23.291559 22610 net.cpp:157] Top shape: 1 18 38 63 (43092)
I0823 13:29:23.291563 22610 net.cpp:165] Memory required for data: 1419910308
I0823 13:29:23.291576 22610 layer_factory.hpp:77] Creating layer rpn_cls_score_rpn_cls_score_0_split
I0823 13:29:23.291585 22610 net.cpp:106] Creating Layer rpn_cls_score_rpn_cls_score_0_split
I0823 13:29:23.291591 22610 net.cpp:454] rpn_cls_score_rpn_cls_score_0_split <- rpn_cls_score
I0823 13:29:23.291599 22610 net.cpp:411] rpn_cls_score_rpn_cls_score_0_split -> rpn_cls_score_rpn_cls_score_0_split_0
I0823 13:29:23.291620 22610 net.cpp:411] rpn_cls_score_rpn_cls_score_0_split -> rpn_cls_score_rpn_cls_score_0_split_1
I0823 13:29:23.291699 22610 net.cpp:150] Setting up rpn_cls_score_rpn_cls_score_0_split
I0823 13:29:23.291708 22610 net.cpp:157] Top shape: 1 18 38 63 (43092)
I0823 13:29:23.291713 22610 net.cpp:157] Top shape: 1 18 38 63 (43092)
I0823 13:29:23.291715 22610 net.cpp:165] Memory required for data: 1420255044
I0823 13:29:23.291719 22610 layer_factory.hpp:77] Creating layer rpn_bbox_pred
I0823 13:29:23.291733 22610 net.cpp:106] Creating Layer rpn_bbox_pred
I0823 13:29:23.291738 22610 net.cpp:454] rpn_bbox_pred <- rpn/output_rpn_relu/3x3_0_split_1
I0823 13:29:23.291746 22610 net.cpp:411] rpn_bbox_pred -> rpn_bbox_pred
I0823 13:29:23.293804 22610 net.cpp:150] Setting up rpn_bbox_pred
I0823 13:29:23.293819 22610 net.cpp:157] Top shape: 1 36 38 63 (86184)
I0823 13:29:23.293823 22610 net.cpp:165] Memory required for data: 1420599780
I0823 13:29:23.293830 22610 layer_factory.hpp:77] Creating layer rpn_bbox_pred_rpn_bbox_pred_0_split
I0823 13:29:23.293839 22610 net.cpp:106] Creating Layer rpn_bbox_pred_rpn_bbox_pred_0_split
I0823 13:29:23.293843 22610 net.cpp:454] rpn_bbox_pred_rpn_bbox_pred_0_split <- rpn_bbox_pred
I0823 13:29:23.293849 22610 net.cpp:411] rpn_bbox_pred_rpn_bbox_pred_0_split -> rpn_bbox_pred_rpn_bbox_pred_0_split_0
I0823 13:29:23.293860 22610 net.cpp:411] rpn_bbox_pred_rpn_bbox_pred_0_split -> rpn_bbox_pred_rpn_bbox_pred_0_split_1
I0823 13:29:23.293936 22610 net.cpp:150] Setting up rpn_bbox_pred_rpn_bbox_pred_0_split
I0823 13:29:23.293946 22610 net.cpp:157] Top shape: 1 36 38 63 (86184)
I0823 13:29:23.293949 22610 net.cpp:157] Top shape: 1 36 38 63 (86184)
I0823 13:29:23.293952 22610 net.cpp:165] Memory required for data: 1421289252
I0823 13:29:23.293956 22610 layer_factory.hpp:77] Creating layer rpn_cls_score_reshape
I0823 13:29:23.293967 22610 net.cpp:106] Creating Layer rpn_cls_score_reshape
I0823 13:29:23.293972 22610 net.cpp:454] rpn_cls_score_reshape <- rpn_cls_score_rpn_cls_score_0_split_0
I0823 13:29:23.293980 22610 net.cpp:411] rpn_cls_score_reshape -> rpn_cls_score_reshape
I0823 13:29:23.294028 22610 net.cpp:150] Setting up rpn_cls_score_reshape
I0823 13:29:23.294037 22610 net.cpp:157] Top shape: 1 2 342 63 (43092)
I0823 13:29:23.294040 22610 net.cpp:165] Memory required for data: 1421461620
I0823 13:29:23.294044 22610 layer_factory.hpp:77] Creating layer rpn_cls_score_reshape_rpn_cls_score_reshape_0_split
I0823 13:29:23.294049 22610 net.cpp:106] Creating Layer rpn_cls_score_reshape_rpn_cls_score_reshape_0_split
I0823 13:29:23.294054 22610 net.cpp:454] rpn_cls_score_reshape_rpn_cls_score_reshape_0_split <- rpn_cls_score_reshape
I0823 13:29:23.294062 22610 net.cpp:411] rpn_cls_score_reshape_rpn_cls_score_reshape_0_split -> rpn_cls_score_reshape_rpn_cls_score_reshape_0_split_0
I0823 13:29:23.294072 22610 net.cpp:411] rpn_cls_score_reshape_rpn_cls_score_reshape_0_split -> rpn_cls_score_reshape_rpn_cls_score_reshape_0_split_1
I0823 13:29:23.294142 22610 net.cpp:150] Setting up rpn_cls_score_reshape_rpn_cls_score_reshape_0_split
I0823 13:29:23.294150 22610 net.cpp:157] Top shape: 1 2 342 63 (43092)
I0823 13:29:23.294155 22610 net.cpp:157] Top shape: 1 2 342 63 (43092)
I0823 13:29:23.294158 22610 net.cpp:165] Memory required for data: 1421806356
I0823 13:29:23.294162 22610 layer_factory.hpp:77] Creating layer rpn-data
I0823 13:29:23.294739 22610 net.cpp:106] Creating Layer rpn-data
I0823 13:29:23.294752 22610 net.cpp:454] rpn-data <- rpn_cls_score_rpn_cls_score_0_split_1
I0823 13:29:23.294759 22610 net.cpp:454] rpn-data <- gt_boxes_input-data_2_split_0
I0823 13:29:23.294764 22610 net.cpp:454] rpn-data <- im_info_input-data_1_split_0
I0823 13:29:23.294770 22610 net.cpp:454] rpn-data <- data_input-data_0_split_1
I0823 13:29:23.294776 22610 net.cpp:411] rpn-data -> rpn_labels
I0823 13:29:23.294786 22610 net.cpp:411] rpn-data -> rpn_bbox_targets
I0823 13:29:23.294798 22610 net.cpp:411] rpn-data -> rpn_bbox_inside_weights
I0823 13:29:23.294809 22610 net.cpp:411] rpn-data -> rpn_bbox_outside_weights
I0823 13:29:23.295825 22610 net.cpp:150] Setting up rpn-data
I0823 13:29:23.295843 22610 net.cpp:157] Top shape: 1 1 342 63 (21546)
I0823 13:29:23.295850 22610 net.cpp:157] Top shape: 1 36 38 63 (86184)
I0823 13:29:23.295853 22610 net.cpp:157] Top shape: 1 36 38 63 (86184)
I0823 13:29:23.295857 22610 net.cpp:157] Top shape: 1 36 38 63 (86184)
I0823 13:29:23.295860 22610 net.cpp:165] Memory required for data: 1422926748
I0823 13:29:23.295863 22610 layer_factory.hpp:77] Creating layer rpn_loss_cls
I0823 13:29:23.295872 22610 net.cpp:106] Creating Layer rpn_loss_cls
I0823 13:29:23.295881 22610 net.cpp:454] rpn_loss_cls <- rpn_cls_score_reshape_rpn_cls_score_reshape_0_split_0
I0823 13:29:23.295886 22610 net.cpp:454] rpn_loss_cls <- rpn_labels
…
I0823 13:29:23.297318 22610 net.cpp:157] Top shape: (1)
I0823 13:29:23.297322 22610 net.cpp:160]     with loss weight 1
I0823 13:29:23.297325 22610 net.cpp:165] Memory required for data: 1422926756
I0823 13:29:23.297329 22610 layer_factory.hpp:77] Creating layer rpn_cls_prob
I0823 13:29:23.297338 22610 net.cpp:106] Creating Layer rpn_cls_prob
I0823 13:29:23.297341 22610 net.cpp:454] rpn_cls_prob <- rpn_cls_score_reshape_rpn_cls_score_reshape_0_split_1
I0823 13:29:23.297348 22610 net.cpp:411] rpn_cls_prob -> rpn_cls_prob
I0823 13:29:23.298024 22610 net.cpp:150] Setting up rpn_cls_prob
I0823 13:29:23.298040 22610 net.cpp:157] Top shape: 1 2 342 63 (43092)
I0823 13:29:23.298049 22610 net.cpp:165] Memory required for data: 1423099124
I0823 13:29:23.298053 22610 layer_factory.hpp:77] Creating layer rpn_cls_prob_reshape
I0823 13:29:23.298063 22610 net.cpp:106] Creating Layer rpn_cls_prob_reshape
I0823 13:29:23.298068 22610 net.cpp:454] rpn_cls_prob_reshape <- rpn_cls_prob
I0823 13:29:23.298077 22610 net.cpp:411] rpn_cls_prob_reshape -> rpn_cls_prob_reshape
I0823 13:29:23.298128 22610 net.cpp:150] Setting up rpn_cls_prob_reshape
I0823 13:29:23.298137 22610 net.cpp:157] Top shape: 1 18 38 63 (43092)
I0823 13:29:23.298141 22610 net.cpp:165] Memory required for data: 1423271492
I0823 13:29:23.298143 22610 layer_factory.hpp:77] Creating layer proposal
I0823 13:29:23.309685 22610 net.cpp:106] Creating Layer proposal
I0823 13:29:23.309701 22610 net.cpp:454] proposal <- rpn_cls_prob_reshape
I0823 13:29:23.309708 22610 net.cpp:454] proposal <- rpn_bbox_pred_rpn_bbox_pred_0_split_1
I0823 13:29:23.309713 22610 net.cpp:454] proposal <- im_info_input-data_1_split_1
I0823 13:29:23.309720 22610 net.cpp:411] proposal -> rpn_rois
I0823 13:29:23.315515 22610 net.cpp:150] Setting up proposal
I0823 13:29:23.315558 22610 net.cpp:157] Top shape: 1 5 (5)
I0823 13:29:23.315565 22610 net.cpp:165] Memory required for data: 1423271512
I0823 13:29:23.315574 22610 layer_factory.hpp:77] Creating layer roi-data
I0823 13:29:23.319140 22610 net.cpp:106] Creating Layer roi-data
I0823 13:29:23.319165 22610 net.cpp:454] roi-data <- rpn_rois
I0823 13:29:23.319180 22610 net.cpp:454] roi-data <- gt_boxes_input-data_2_split_1
I0823 13:29:23.319195 22610 net.cpp:411] roi-data -> rois
I0823 13:29:23.319216 22610 net.cpp:411] roi-data -> labels
I0823 13:29:23.319236 22610 net.cpp:411] roi-data -> bbox_targets
I0823 13:29:23.319255 22610 net.cpp:411] roi-data -> bbox_inside_weights
I0823 13:29:23.319272 22610 net.cpp:411] roi-data -> bbox_outside_weights
I0823 13:29:23.319289 22610 net.cpp:411] roi-data -> key_targets
I0823 13:29:23.320377 22610 net.cpp:150] Setting up roi-data
I0823 13:29:23.320399 22610 net.cpp:157] Top shape: 1 5 (5)
I0823 13:29:23.320405 22610 net.cpp:157] Top shape: 1 1 (1)
I0823 13:29:23.320410 22610 net.cpp:157] Top shape: 1 84 (84)
I0823 13:29:23.320415 22610 net.cpp:157] Top shape: 1 84 (84)
I0823 13:29:23.320420 22610 net.cpp:157] Top shape: 1 84 (84)
I0823 13:29:23.320425 22610 net.cpp:157] Top shape: 1 84 (84)
I0823 13:29:23.320428 22610 net.cpp:165] Memory required for data: 1423272880
I0823 13:29:23.320435 22610 layer_factory.hpp:77] Creating layer bbox_inside_weights_roi-data_3_split
I0823 13:29:23.320446 22610 net.cpp:106] Creating Layer bbox_inside_weights_roi-data_3_split
I0823 13:29:23.320461 22610 net.cpp:454] bbox_inside_weights_roi-data_3_split <- bbox_inside_weights
I0823 13:29:23.320473 22610 net.cpp:411] bbox_inside_weights_roi-data_3_split -> bbox_inside_weights_roi-data_3_split_0
I0823 13:29:23.320485 22610 net.cpp:411] bbox_inside_weights_roi-data_3_split -> bbox_inside_weights_roi-data_3_split_1
I0823 13:29:23.320576 22610 net.cpp:150] Setting up bbox_inside_weights_roi-data_3_split
I0823 13:29:23.320587 22610 net.cpp:157] Top shape: 1 84 (84)
I0823 13:29:23.320592 22610 net.cpp:157] Top shape: 1 84 (84)
I0823 13:29:23.320596 22610 net.cpp:165] Memory required for data: 1423273552
I0823 13:29:23.320601 22610 layer_factory.hpp:77] Creating layer bbox_outside_weights_roi-data_4_split
I0823 13:29:23.320610 22610 net.cpp:106] Creating Layer bbox_outside_weights_roi-data_4_split
I0823 13:29:23.320614 22610 net.cpp:454] bbox_outside_weights_roi-data_4_split <- bbox_outside_weights
I0823 13:29:23.320622 22610 net.cpp:411] bbox_outside_weights_roi-data_4_split -> bbox_outside_weights_roi-data_4_split_0
I0823 13:29:23.320632 22610 net.cpp:411] bbox_outside_weights_roi-data_4_split -> bbox_outside_weights_roi-data_4_split_1
I0823 13:29:23.320720 22610 net.cpp:150] Setting up bbox_outside_weights_roi-data_4_split
I0823 13:29:23.320730 22610 net.cpp:157] Top shape: 1 84 (84)
I0823 13:29:23.320736 22610 net.cpp:157] Top shape: 1 84 (84)
I0823 13:29:23.320740 22610 net.cpp:165] Memory required for data: 1423274224
I0823 13:29:23.320744 22610 layer_factory.hpp:77] Creating layer roi_pool5
I0823 13:29:23.320755 22610 net.cpp:106] Creating Layer roi_pool5
I0823 13:29:23.320765 22610 net.cpp:454] roi_pool5 <- conv5_3_relu5_3_0_split_1
I0823 13:29:23.320771 22610 net.cpp:454] roi_pool5 <- rois
I0823 13:29:23.320780 22610 net.cpp:411] roi_pool5 -> pool5
I0823 13:29:23.320791 22610 roi_pooling_layer.cpp:30] Spatial scale: 0.0625
I0823 13:29:23.320894 22610 net.cpp:150] Setting up roi_pool5
I0823 13:29:23.320904 22610 net.cpp:157] Top shape: 1 512 7 7 (25088)
I0823 13:29:23.320909 22610 net.cpp:165] Memory required for data: 1423374576
I0823 13:29:23.320914 22610 layer_factory.hpp:77] Creating layer fc6
I0823 13:29:23.320924 22610 net.cpp:106] Creating Layer fc6
I0823 13:29:23.320930 22610 net.cpp:454] fc6 <- pool5
I0823 13:29:23.320938 22610 net.cpp:411] fc6 -> fc6
I0823 13:29:23.958832 22610 net.cpp:150] Setting up fc6
I0823 13:29:23.958886 22610 net.cpp:157] Top shape: 1 4096 (4096)
I0823 13:29:23.958890 22610 net.cpp:165] Memory required for data: 1423390960
I0823 13:29:23.958930 22610 layer_factory.hpp:77] Creating layer relu6
I0823 13:29:23.958948 22610 net.cpp:106] Creating Layer relu6
I0823 13:29:23.958952 22610 net.cpp:454] relu6 <- fc6
I0823 13:29:23.958961 22610 net.cpp:397] relu6 -> fc6 (in-place)
I0823 13:29:23.959280 22610 net.cpp:150] Setting up relu6
I0823 13:29:23.959290 22610 net.cpp:157] Top shape: 1 4096 (4096)
I0823 13:29:23.959303 22610 net.cpp:165] Memory required for data: 1423407344
I0823 13:29:23.959306 22610 layer_factory.hpp:77] Creating layer drop6
I0823 13:29:23.959316 22610 net.cpp:106] Creating Layer drop6
I0823 13:29:23.959318 22610 net.cpp:454] drop6 <- fc6
I0823 13:29:23.959323 22610 net.cpp:397] drop6 -> fc6 (in-place)
I0823 13:29:23.959372 22610 net.cpp:150] Setting up drop6
I0823 13:29:23.959379 22610 net.cpp:157] Top shape: 1 4096 (4096)
I0823 13:29:23.959381 22610 net.cpp:165] Memory required for data: 1423423728
I0823 13:29:23.959384 22610 layer_factory.hpp:77] Creating layer fc7
I0823 13:29:23.959393 22610 net.cpp:106] Creating Layer fc7
I0823 13:29:23.959395 22610 net.cpp:454] fc7 <- fc6
I0823 13:29:23.959401 22610 net.cpp:411] fc7 -> fc7
I0823 13:29:24.053683 22610 net.cpp:150] Setting up fc7
I0823 13:29:24.053733 22610 net.cpp:157] Top shape: 1 4096 (4096)
I0823 13:29:24.053736 22610 net.cpp:165] Memory required for data: 1423440112
I0823 13:29:24.053752 22610 layer_factory.hpp:77] Creating layer relu7
I0823 13:29:24.053766 22610 net.cpp:106] Creating Layer relu7
I0823 13:29:24.053769 22610 net.cpp:454] relu7 <- fc7
I0823 13:29:24.053779 22610 net.cpp:397] relu7 -> fc7 (in-place)
I0823 13:29:24.054499 22610 net.cpp:150] Setting up relu7
I0823 13:29:24.054513 22610 net.cpp:157] Top shape: 1 4096 (4096)
I0823 13:29:24.054515 22610 net.cpp:165] Memory required for data: 1423456496
I0823 13:29:24.054518 22610 layer_factory.hpp:77] Creating layer drop7
I0823 13:29:24.054528 22610 net.cpp:106] Creating Layer drop7
I0823 13:29:24.054532 22610 net.cpp:454] drop7 <- fc7
I0823 13:29:24.054538 22610 net.cpp:397] drop7 -> fc7 (in-place)
I0823 13:29:24.054589 22610 net.cpp:150] Setting up drop7
I0823 13:29:24.054595 22610 net.cpp:157] Top shape: 1 4096 (4096)
I0823 13:29:24.054599 22610 net.cpp:165] Memory required for data: 1423472880
I0823 13:29:24.054601 22610 layer_factory.hpp:77] Creating layer fc7_drop7_0_split
I0823 13:29:24.054610 22610 net.cpp:106] Creating Layer fc7_drop7_0_split
I0823 13:29:24.054613 22610 net.cpp:454] fc7_drop7_0_split <- fc7
I0823 13:29:24.054620 22610 net.cpp:411] fc7_drop7_0_split -> fc7_drop7_0_split_0
I0823 13:29:24.054630 22610 net.cpp:411] fc7_drop7_0_split -> fc7_drop7_0_split_1
I0823 13:29:24.054638 22610 net.cpp:411] fc7_drop7_0_split -> fc7_drop7_0_split_2
I0823 13:29:24.054754 22610 net.cpp:150] Setting up fc7_drop7_0_split
I0823 13:29:24.054762 22610 net.cpp:157] Top shape: 1 4096 (4096)
I0823 13:29:24.054766 22610 net.cpp:157] Top shape: 1 4096 (4096)
I0823 13:29:24.054770 22610 net.cpp:157] Top shape: 1 4096 (4096)
I0823 13:29:24.054774 22610 net.cpp:165] Memory required for data: 1423522032
I0823 13:29:24.054777 22610 layer_factory.hpp:77] Creating layer cls_score
I0823 13:29:24.054786 22610 net.cpp:106] Creating Layer cls_score
I0823 13:29:24.054791 22610 net.cpp:454] cls_score <- fc7_drop7_0_split_0
I0823 13:29:24.054800 22610 net.cpp:411] cls_score -> cls_score
I0823 13:29:24.055990 22610 net.cpp:150] Setting up cls_score
I0823 13:29:24.056001 22610 net.cpp:157] Top shape: 1 21 (21)
I0823 13:29:24.056004 22610 net.cpp:165] Memory required for data: 1423522116
I0823 13:29:24.056010 22610 layer_factory.hpp:77] Creating layer bbox_pred
I0823 13:29:24.056017 22610 net.cpp:106] Creating Layer bbox_pred
I0823 13:29:24.056021 22610 net.cpp:454] bbox_pred <- fc7_drop7_0_split_1
I0823 13:29:24.056028 22610 net.cpp:411] bbox_pred -> bbox_pred
I0823 13:29:24.062026 22610 net.cpp:150] Setting up bbox_pred
I0823 13:29:24.062041 22610 net.cpp:157] Top shape: 1 84 (84)
I0823 13:29:24.062043 22610 net.cpp:165] Memory required for data: 1423522452
I0823 13:29:24.062062 22610 layer_factory.hpp:77] Creating layer key_pred
I0823 13:29:24.062072 22610 net.cpp:106] Creating Layer key_pred
I0823 13:29:24.062075 22610 net.cpp:454] key_pred <- fc7_drop7_0_split_2
I0823 13:29:24.062083 22610 net.cpp:411] key_pred -> key_pred
I0823 13:29:24.067788 22610 net.cpp:150] Setting up key_pred
I0823 13:29:24.067801 22610 net.cpp:157] Top shape: 1 84 (84)
I0823 13:29:24.067803 22610 net.cpp:165] Memory required for data: 1423522788
I0823 13:29:24.067821 22610 layer_factory.hpp:77] Creating layer loss_cls
I0823 13:29:24.067852 22610 net.cpp:106] Creating Layer loss_cls
I0823 13:29:24.067857 22610 net.cpp:454] loss_cls <- cls_score
I0823 13:29:24.067862 22610 net.cpp:454] loss_cls <- labels
I0823 13:29:24.067878 22610 net.cpp:411] loss_cls -> loss_cls
…
